models/dqn_model_epoch_58000.pth (torch, 595624 bytes, 14 tensors)

cnn1.weight f4 [16, 4, 5, 5]
000000 16 63 47 be e7 6f 33 3d bc 08 c9 bc c2 9b 49 be
       -0.19471392 0.04380789 -0.024540298 -0.19688323
000010 76 5c 12 be 42 7e 4b be a2 91 46 be fe 62 94 be
       -0.14293084 -0.19872382 -0.19391492 -0.28981775
000020 74 9a 0e bd 09 54 69 bd 8d b7 8b be 2c 40 24 be
       -0.034815267 -0.056964908 -0.27288476 -0.16040105
000030 93 32 c2 be cd e0 15 be e7 26 15 3d b6 21 2a be
       -0.3792921 -0.14636536 0.036414053 -0.16614422
000040 af ac 5a be 8b d3 23 bd b4 30 83 be 35 44 45 3c
       -0.21354936 -0.039996665 -0.25623095 0.012040188
000050 39 f9 56 be 9f a0 81 be d9 23 41 be 8d cc 88 3d
       -0.20993508 -0.25317857 -0.18861331 0.0667964
000060 77 2f db 3c 6f 4c 70 bc f3 b6 0a bd 50 f2 c1 bd
       0.026756031 -0.014666661 -0.03386588 -0.094700456
000070 02 ad 10 be 54 55 e3 3c ac e8 83 3d a4 a7 dd bc
       -0.14128497 0.027750649 0.06440863 -0.027057476
000080 61 e2 cf 3c 9b df 88 bd bb 65 93 bd 01 04 41 bd
       0.0253765 -0.06683274 -0.07197138 -0.04712296
000090 6d 4d 0d be b0 fb 85 3c 42 29 09 3e 5f 5d e8 bc
       -0.13799067 0.016355366 0.13394645 -0.028364835
0000a0 49 fd d3 bd e4 b6 a7 3c 68 a1 ad bd fb cf a2 3c
       -0.10351045 0.020472951 -0.084780514 0.019874563
0000b0 17 00 04 be 20 15 02 bd ba c5 99 3d 3a 40 2a bd
       -0.1289066 -0.031758428 0.075084165 -0.041565157
0000c0 f5 ea 88 bd f1 6e b2 bd b7 f3 a9 3d c8 a7 27 bc
       -0.066854395 -0.08712567 0.08298438 -0.010232873
0000d0 45 12 07 be 6b af 52 be 2c 5a d4 bc 32 92 c7 bc
       -0.13190563 -0.20574729 -0.025921904 -0.024361704
0000e0 27 1f b3 bd b3 aa 37 3e ae 02 4b 3d c5 f4 1d be
       -0.08746176 0.1793621 0.049563102 -0.15425403
0000f0 92 26 6a 3e 7b f8 6c 3e 95 f3 03 3e e0 b4 f1 3c
       0.22866276 0.23141663 0.12885888 0.029505193
000100 99 6c 57 be 1c c8 90 be 38 59 23 3e ce 00 91 3e
       -0.2103752 -0.2827767 0.15952003 0.28320926
000110 42 f3 05 be 7f a0 2a be 6e 03 24 be bf c6 83 bc
       -0.13081077 -0.16662787 -0.16016933 -0.01608598
000120 f5 6c a3 3e 8d dc 06 be d0 34 1c be 08 92 bf bd
       0.31919065 -0.13170071 -0.15254521 -0.09354025
000130 a8 56 7a be 2c 86 b8 bd a3 c5 a7 bb e6 cc 87 bd
       -0.24447119 -0.09009966 -0.0051199957 -0.06630878
000140 89 64 2b bd d9 a9 e1 3d a4 49 18 3e 93 f0 c0 bd
       -0.041843925 0.11018724 0.14871842 -0.09420886
000150 4c e3 09 3d 5b f0 26 be e9 24 96 3d b8 2a a5 3d
       0.033664033 -0.16302626 0.07331259 0.080647886
000160 6a 97 bf bd 09 e2 a8 bd d0 8c 03 be 6e 04 b1 bb
       -0.09355052 -0.08246238 -0.12846684 -0.0054021394
000170 57 a3 98 3d 20 d5 c8 bc f8 bd f2 bd d0 01 b9 3d
       0.074530296 -0.024515688 -0.1185264 0.09033549
000180 c6 51 f1 3d 2d 76 3a be 29 8e 8f bd 74 15 75 bd
       0.11783175 -0.18209143 -0.07009537 -0.059834912
000190 0f f1 f2 bd 16 95 85 be 7f 2a 35 be 0e 60 0b 3d
       -0.118623845 -0.26090306 -0.17691992 0.03402715
0001a0 01 8e 67 be 71 42 01 be 44 cc a7 bd 40 05 bf bb
       -0.22612764 -0.12623002 -0.081932575 -0.0058294833
0001b0 a6 4f bf 39 46 09 ae 3b 2b 10 0c be 77 4d 4a bd
       0.00036489702 0.005311164 -0.13678043 -0.049390282
0001c0 f9 01 94 3c 15 0b 81 bd 4e 25 7a bd de 71 1f be
       0.018067347 -0.06300942 -0.061070733 -0.1557078
0001d0 36 ea 67 be 02 e8 33 be ad 8a bd be ee 1a 6e bd
       -0.22647938 -0.17568973 -0.37019864 -0.05813115
0001e0 39 07 84 be 4a ae 62 be 42 6b c5 bd fb e9 8d bd
       -0.2578676 -0.22136799 -0.096395984 -0.06929394
0001f0 eb d3 ff bd 43 71 3f bd ae d5 aa 3d 67 0f 70 bd
       -0.12491592 -0.046738874 0.083415374 -0.05860844
000200 e3 2d 10 3d d5 aa 06 be 25 9a 83 bc 8b 1e 1e bd
       0.03520001 -0.13151105 -0.016064713 -0.038603347
000210 ce 2e e0 bd 91 16 bc 3c 98 05 55 bb 74 25 a6 bc
       -0.10946427 0.02295998 -0.0032504555 -0.02028153
000220 19 d2 4d bd a6 20 12 be f9 f1 46 bd 6d c4 d2 bc
       -0.050249193 -0.14270267 -0.048570607 -0.025728429
000230 2b 91 0b be 1d 56 cc bc 12 47 51 3d 72 6a 48 bd
       -0.13629596 -0.024943406 0.05109317 -0.04892964
000240 fc 7c da bd 14 aa 1f bb e0 aa 05 3d d5 8f 8c bd
       -0.1066837 -0.002436285 0.032633662 -0.06863371
000250 e2 37 d4 3d f2 a1 e8 bd e5 da 42 be 1f 83 2d 3e
       0.10362221 -0.113590136 -0.19028814 0.1694455
000260 b6 45 5f bd 58 00 1b 3e 4c 57 17 be c6 ee 3e be
       -0.05450984 0.1513685 -0.14779395 -0.18645772
000270 ab ef 36 3e fe 16 51 be 4c b5 a7 3d e4 ca 20 be
       0.17864864 -0.20418927 0.081888765 -0.15702397
000280 7b de 8b be c9 2f 80 be 24 2f b4 3d 13 20 c6 3d
       -0.27318177 -0.25036457 0.08798054 0.096740864
000290 13 65 57 be 3b 49 7c be 7c c5 0c be 1d 10 84 3e
       -0.2103465 -0.2463731 -0.1374721 0.25793543
0002a0 a7 99 41 be 70 da 6e be c5 63 c7 3e e3 fd 97 3e
       -0.1890627 -0.23325515 0.38943306 0.29685888
0002b0 b6 15 d4 3e 89 e4 66 bd 70 7b 29 be 89 12 54 3e
       0.41422814 -0.05637029 -0.16550994 0.20710196
0002c0 c9 9f 08 3e 1d f3 72 3e 90 9f 8d bc f8 7b a8 bd
       0.13342203 0.23725553 -0.017288 -0.0822677
0002d0 47 a0 ef 3d 09 ee f4 bd 05 bf 1b 3e f7 43 04 be
       0.11700492 -0.11959464 0.15209587 -0.12916552
0002e0 40 c8 e0 bd 12 81 28 be ca b9 bd 3d 38 52 81 3d
       -0.10975695 -0.16455486 0.09263952 0.0631451
0002f0 69 48 a6 bd a3 cb 1c be fe 26 2b be 19 8e eb bc
       -0.0811928 -0.15312056 -0.16714093 -0.02875428
000300 44 c6 ab bd 0e 2a 00 be 42 45 25 bd 43 04 0a be
       -0.083874255 -0.12516043 -0.040349253 -0.13478188
000310 9c b4 f1 bd 65 39 3c 3e 7d 25 03 be af 90 0e be
       -0.11802027 0.1838127 -0.1280727 -0.1392238
000320 70 06 99 be ba 42 99 bd 2d 94 b0 be d0 b4 46 3d
       -0.29887724 -0.0748343 -0.3448805 0.04851228
000330 69 0d 3a be ea 39 64 be 42 a0 1f be 3f f8 42 be
       -0.18169178 -0.22287717 -0.15588477 -0.19040011
000340 a2 2e 1d 3d 0f fc 9b 3b ec 3b 78 be 53 c0 5f be
       0.03837455 0.0047602723 -0.24241608 -0.2185071
000350 1a df fa bd ab be e6 3c e3 d5 34 3e e2 80 7e be
       -0.122495845 0.02816709 0.17659716 -0.24853852
000360 9a 66 6a be d0 6a 94 be 76 aa 21 be 10 7e 09 3e
       -0.22890702 -0.2898774 -0.15787682 0.13426995
000370 ab 84 79 be 76 20 05 be c2 cf 74 be f3 10 56 3d
       -0.24367015 -0.13000664 -0.23907378 0.052262258
000380 af 56 85 bd 52 22 05 be bf 0b 45 bc e7 d4 0e be
       -0.06510674 -0.13001373 -0.012026726 -0.13948403
000390 c8 fa ac bd 66 b8 16 bd 64 ca 95 bb f8 1d b8 bc
       -0.0844627 -0.03679695 -0.004571246 -0.022475228
0003a0 b2 3f 7f 3d cd 70 bb bd 54 c6 e4 3c db a7 91 bc
       0.062316604 -0.091523744 0.027926601 -0.017780235
0003b0 ad 2d c9 3c 3b bb 4c bc d4 26 ce bd 03 2d 96 bb
       0.024557913 -0.012495811 -0.100659996 -0.0045830025
0003c0 7f 28 83 bb 3f 8f b2 bd 3c 97 19 3c 6c 86 3b 3e
       -0.0040026302 -0.08718728 0.009374436 0.18312997
0003d0 2c 12 0b bc 59 19 b0 bd b3 ab 1a be e2 6e 68 bd
       -0.008488219 -0.08598585 -0.1510456 -0.05674637
0003e0 92 52 ba 3d c2 e2 49 bc 44 94 99 3d 63 64 fc 3c
       0.0909778 -0.01232213 0.074989825 0.030809587
0003f0 a6 2b 50 3d 01 30 cb be 74 a5 79 bd a1 52 c7 3c
       0.050822876 -0.39685062 -0.060948804 0.024331393

cnn1.bias f4 [16]
000000 6c 14 62 3d 53 c0 4d bd e0 7c 8f bd 09 21 97 bd
       0.055195257 -0.050232243 -0.0700624 -0.07379348
000010 9b 93 12 3d a9 41 94 bd a6 64 94 bd f5 4c ef ba
       0.0357853 -0.07239086 -0.0724576 -0.0018257188
000020 df b3 86 3c 00 b6 f9 bd 2d 90 ef bc eb 58 97 bd
       0.016443191 -0.12192917 -0.029243553 -0.07390007
000030 f9 27 73 bc f9 4d b4 bd 05 49 cb 3c ad 2e 9e bd
       -0.014841073 -0.088039346 0.024815092 -0.077237464

cnn2.weight f4 [32, 16, 3, 3]
000000 cc c4 dd 3c 71 5f 6c 3d 2d 1a d5 3d c6 b5 23 3e
       0.02707138 0.057708208 0.10405383 0.1598731
000010 b7 39 9d bc 2d 8c 2a bd fe 31 9a 3d 6a 72 8c 3c
       -0.01919256 -0.04163759 0.075290665 0.0171444
000020 d7 2e 50 bd 0c 08 2f 3e c3 59 c9 bd 05 32 28 3d
       -0.05082592 0.17092913 -0.09831574 0.041063327
000030 e5 f1 09 3e 92 00 94 bd f2 24 f8 3d 5d 75 1c 3e
       0.13471182 -0.07226671 0.12116422 0.15279146
000040 0c e3 6a bd 69 d6 8f bd 3b 48 38 bc d7 45 df bc
       -0.057345435 -0.07023317 -0.01124769 -0.027254982
000050 af 85 a3 ba e8 06 7d bc f8 70 cc 3b 03 28 54 bd
       -0.0012475754 -0.015443541 0.006239053 -0.05179597
000060 b6 43 70 bd a6 48 80 3c 5d 22 66 bd 8c a6 d5 3d
       -0.058658324 0.015659641 -0.056185115 0.10432157
000070 5a 96 a3 bd 4c 14 8e 3c 98 22 2c 3e d6 b2 17 3d
       -0.07987662 0.017343663 0.16810071 0.037035786
000080 fd 65 01 bd 0a 92 e5 3d b4 3f 7a 3d 12 1b b5 bd
       -0.031591404 0.11209495 0.06109591 -0.08843054
000090 38 b7 84 3d 80 62 9c bc dc d1 9d bc 82 cc e1 3d
       0.06480259 -0.019089937 -0.019265108 0.11025335
0000a0 1f 16 8a 3c 2c 13 8d 3d df 85 ba 3d 50 86 f0 3c
       0.016856251 0.06888422 0.09107565 0.02936092
0000b0 bf cf b8 3d 74 9b c2 3d 76 4c 83 3d db 98 8a 3d
       0.090239994 0.095023066 0.06411068 0.06767436
0000c0 bd f9 ff 3d 27 60 81 3d d4 33 d7 3c 00 bd 5b bc
       0.12498806 0.06317168 0.02626983 -0.01341176
0000d0 ba 80 8c 3c 6a 59 13 3d be 11 5f bd 2a de 0d 3d
       0.017151225 0.035973944 -0.05446028 0.0346357
0000e0 7d e9 9b 3d 5b 27 2c 3c 4a ef 07 3d 30 05 8b 3d
       0.07612894 0.01050743 0.03318719 0.06788099
0000f0 67 1f 37 3d eb 60 11 3d da b8 d3 3d d8 bc 68 3d
       0.044707682 0.03549282 0.10337992 0.05682072
000100 99 00 aa bd cd f8 46 3d ed f0 4c 3d 96 10 36 bd
       -0.08300895 0.04857712 0.050034452 -0.04444941
000110 34 de cd 3d 9b 15 ca bc 1d 4a 15 bd 87 65 10 3c
       0.100521475 -0.024668505 -0.036447633 0.0088132685
000120 3f be 6c 3d 09 78 75 bc b0 01 62 bd 18 a8 e5 3d
       0.05779862 -0.014982232 -0.05517739 0.11213702
000130 5e f7 be 3d 40 50 ac 3d 42 12 50 3d 5d 40 3b 3d
       0.09324525 0.08413744 0.050798662 0.04571568
000140 3a 7b 57 3d f5 5e 8d 3d 14 e6 a0 3d 4c ad f0 3d
       0.052607752 0.06902877 0.07856384 0.11751804
000150 91 55 57 3d 99 e4 4c 3d d6 d5 e3 3c d6 5e 8c 3d
       0.052571837 0.050022695 0.027811926 0.06854026
000160 3c fa 15 bd b2 9d 3c 3d bd 1a 3c 3d 27 c4 87 bc
       -0.036615595 0.046048827 0.045923937 -0.016573025
000170 0e e4 42 bc 0a 88 82 3c 64 8e a9 38 f8 dd a7 bd
       -0.011895193 0.01593401 8.08507e-05 -0.08196634
000180 72 77 2d 3b dd 37 da ba a2 14 26 bb 6d 4e a4 3c
       0.00264689 -0.0016648729 -0.0025341888 0.020056928
000190 8a 42 22 bd 84 c7 17 3d e6 32 af 3d 79 bc b7 3d
       -0.039614238 0.037055507 0.0855463 0.08971495
0001a0 ab 20 57 bd 13 6b cf 3d 2f 7e 4b 3d 5b 05 b6 3d
       -0.05252139 0.10127845 0.049680885 0.0888774
0001b0 26 3e a7 bd 38 f4 f1 bd 3e bb 9a bc 3a 64 2c bb
       -0.08166151 -0.11814159 -0.018888112 -0.0026304857
0001c0 69 d4 3e 3d 74 a3 4b bc 22 ea 4f 3d ba c8 5d bd
       0.04658929 -0.012429107 0.050760396 -0.054146506
0001d0 d9 6d 2e bb 5e b0 16 bd 87 47 6d bd cc 93 bd 3c
       -0.0026615767 -0.03678929 -0.057929542 0.023141764
0001e0 13 98 39 3d e6 c7 83 bd 41 31 86 bd f3 e6 18 bd
       0.045311045 -0.06434612 -0.06552363 -0.037329625
0001f0 8d f7 a0 bd 4d 4d 03 bd c9 fe db 3d 80 32 cd bc
       -0.078597166 -0.03205614 0.10741956 -0.025048494
000200 68 46 af 3d f8 31 3b 3e 97 f8 81 3d eb f6 92 3d
       0.08558351 0.1828078 0.06346243 0.07176002
000210 c6 54 1e 3e 1a 8f 2a ba e6 08 c3 3d bf 6c b8 3c
       0.15462026 -0.0006506309 0.095231816 0.022512792
000220 fe 81 71 bd 28 ab 8b ba 2e 36 80 3d 38 e2 1d bd
       -0.05896186 -0.0010655867 0.06260334 -0.038545817
000230 e2 08 3b 3c 17 87 1f 3d c8 ce 4f bd 9d 62 c7 bd
       0.011415692 0.03894719 -0.05073431 -0.09735606
000240 8a f0 5a bd c0 19 0e 3d 20 db e8 3c 8c 10 22 3e
       -0.053452052 0.034692526 0.0284248 0.15826625
000250 04 9f 91 3b 3a 37 ed bc 66 f9 6d 3c db 56 07 3d
       0.004444005 -0.028956998 0.014524793 0.033041816
000260 08 da 4b bc fc e8 b7 3b 10 f3 eb 3d b3 e0 15 bd
       -0.012442119 0.0056124907 0.1152097 -0.036591243
000270 90 36 05 3e 43 e9 21 3c 53 4f 8c bb 82 9c 95 3d
       0.13009095 0.009882274 -0.004281917 0.07305242
000280 59 f8 f9 3d c7 cf c0 bd 43 3a 19 3c 25 7b 8f bd
       0.12205572 -0.094146304 0.00935227 -0.0700591
000290 1f 70 34 bd eb 47 b3 bd da 0a f5 bd 9f a0 ba bd
       -0.04405224 -0.08753952 -0.119649604 -0.09112667
0002a0 69 25 52 bd 6c c2 07 be 65 49 e5 bd 1b 5a f7 3d
       -0.05130521 -0.1325776 -0.111956395 0.12077733
0002b0 98 63 f0 3d 62 61 d9 bc f3 4a 23 3e 0d 79 3b ba
       0.11737746 -0.026535694 0.1594656 -0.0007151522
0002c0 28 a7 ba 3c 57 e0 f0 3d 10 95 90 3d 70 19 93 bd
       0.022784784 0.117615394 0.070596814 -0.07182586
0002d0 22 cb d7 3c 14 e7 5c 3d 33 33 0c 3d 4f 85 87 3d
       0.026341978 0.05393131 0.034228515 0.066172235
0002e0 74 52 34 3e 9e 01 cf 3b ed 7c bf 3d ca 1a 6c 3d
       0.17609578 0.0063173315 0.093499996 0.057642736
0002f0 1a f1 09 3d 48 96 47 3e 5c f3 f1 3a e4 9d fb 3c
       0.033677198 0.19490921 0.0018459368 0.030714937
000300 7a a7 12 3e 66 84 1d 3c c9 c9 e9 3b b1 82 6d bd
       0.143217 0.009614086 0.0071346504 -0.057985965
000310 62 c2 39 3d 72 4d 0e be f8 cc 04 bb 47 08 9b bc
       0.045351394 -0.1389673 -0.0020263772 -0.018924845
000320 e1 4a 1f bc 59 ee f9 3d 02 02 ce 3d 89 87 f4 3c
       -0.009722442 0.12203664 0.10058977 0.029849784
000330 ea f8 31 3e 55 13 5d bd 44 05 dc 3d 3c 47 33 3c
       0.1738011 -0.053973515 0.10743192 0.010942277
000340 7d 1f 36 3d d3 89 0d bd 13 d2 32 bd f4 88 71 bd
       0.044463623 -0.034555268 -0.043657374 -0.0589685
000350 49 25 91 bc 86 b5 38 bd be 8b b9 bd 75 fc b0 bc
       -0.017717974 -0.04509499 -0.09059857 -0.021604756
000360 5f 7b 1d 3e a8 0b ce 3c 9d 53 b9 ba 50 30 29 3e
       0.15379094 0.025152043 -0.0014139299 0.16522336
000370 5b fd 8d bc 75 fe 5e bc c8 16 3c 3e 0f 2c 45 3d
       -0.017332723 -0.013610472 0.18368065 0.04813772
000380 ea 03 09 3d 38 17 1a 3e cb cd b3 3d 28 04 ac 3c
       0.033451 0.1504792 0.08779486 0.020998076
000390 da 46 48 3b 80 9b b5 3d cc 2a 21 3e 4e 6e b0 3d
       0.003055981 0.0886755 0.15738982 0.08614789
0003a0 79 c6 0f bd fe 23 12 3d d5 85 d6 3c 15 86 b5 3d
       -0.035101388 0.035678856 0.026186863 0.08863465
0003b0 52 bf 5a 3a 3d 99 3e 3d 94 cb 11 bc 67 78 8f bd
       0.0008344549 0.04653286 -0.008898634 -0.07005387
0003c0 14 8f 58 bd 02 ef 51 bd 71 0e fb bd fd 7f f2 3d
       -0.052870825 -0.051253326 -0.12258614 0.11840818
0003d0 ad 06 4d 3d 39 8b cf bd b0 8d 89 3d 3b 87 58 3d
       0.050055195 -0.101339765 0.06716478 0.05286334
0003e0 04 69 f6 bb d1 55 df 3d 1e 46 97 3d 3f 92 c7 3c
       -0.007519843 0.1090504 0.07386421 0.024361728
0003f0 ae dd 9b 3c a9 fa c0 bc 4c e5 9a bd 11 f2 ec 3d
       0.019026604 -0.023557024 -0.07563266 0.11569608

cnn2.bias f4 [32]
000000 58 58 d0 bd ba ba ef bc f0 32 0d bd 0e 00 72 3b
       -0.101731 -0.029263843 -0.034472406 0.0036926302
000010 24 67 d1 b9 a8 98 9f ba 41 b6 9c bd e1 4c 92 3d
       -0.00039940432 -0.0012176232 -0.0765195 0.0714357
000020 b1 f2 95 bd 73 38 2f bd 1a 58 fe 3c 75 fd 87 3a
       -0.0732168 -0.042778444 0.03104787 0.0010375219
000030 4a 23 bb bb c1 3a e9 3b 8a bb cd b9 ea a5 de bd
       -0.005710994 0.0071175997 -0.00039240374 -0.10871489
000040 b8 88 e6 3d 86 b6 d6 3b 2a 14 1b bd a3 04 cc bd
       0.11256546 0.00655252 -0.037861027 -0.09961822
000050 40 8d e1 bd c4 82 9e 3c b0 2b 58 bd 06 f4 24 bd
       -0.110132694 0.019349463 -0.05277604 -0.04027178
000060 f9 53 8c bb 63 3f af bd 88 3c 61 bd ff cd 06 be
       -0.0042824713 -0.08557012 -0.054989368 -0.13164519
000070 4d bb c6 3d 33 1c 74 bd fe 69 bf 3d 29 73 06 bc
       0.097036935 -0.059597205 0.09346388 -0.008206167

cnn3.weight f4 [32, 32, 3, 3]
000000 46 53 d9 3c 18 a4 b6 3a c2 88 af 3c c9 a4 44 3c
       0.026528966 0.0013934402 0.021427516 0.0120021785
000010 22 00 96 bd 6e 4b 40 bd c7 4c 46 bc 94 15 c2 bc
       -0.07324244 -0.046946935 -0.012103266 -0.02369193
000020 97 e4 b5 39 33 79 2c 3e 48 44 30 3d 10 83 96 bd
       0.00034693323 0.16843109 0.043033868 -0.07349217
000030 83 58 be 3d 6b 0e 31 bd 1b 6e 19 be cb b3 8f bd
       0.09294226 -0.04322664 -0.14983408 -0.07016715
000040 04 59 46 bd c4 50 bc bd ee 3b 70 3a 79 50 25 bd
       -0.048424736 -0.09195092 0.00091642037 -0.040359948
000050 61 9a 86 bd 64 5d a0 3d 4d 3f 56 bd 93 9a 9e bd
       -0.06572414 0.07830313 -0.052306462 -0.077443264
000060 01 79 40 3d ea 30 66 3d 01 8a 86 bc 67 02 1a 3d
       0.0469904 0.05619899 -0.016423227 0.037599947
000070 10 88 ae bb ed 20 0e 3c 8a c0 52 3d b9 df 56 bd
       -0.0053262785 0.008674842 0.05145315 -0.052459452
000080 a7 d9 58 bd 28 36 67 3c 01 5f cf bc 1f 2a d5 3c
       -0.052941944 0.014112033 -0.025313856 0.026021061
000090 a0 f2 d5 3d e5 32 d3 3c 46 89 30 bc a5 07 c8 bc
       0.10446668 0.025781104 -0.010774916 -0.024417708
0000a0 6a c2 cc bd c7 09 7b 3b 2c a7 c7 3a e0 f8 7f 3d
       -0.09998019 0.0038305388 0.0015232316 0.062493205
0000b0 a4 56 1a bc d3 a5 f5 3d 68 48 9f bd 62 8c 88 bc
       -0.009420071 0.11994519 -0.07777482 -0.016668502
0000c0 6c c7 16 3d df 27 c5 bd 78 f9 c4 bd db bb 6e bc
       0.036811277 -0.096267454 -0.09617895 -0.014571155
0000d0 d7 a9 b9 3b c7 25 7d bb 09 95 fc bb d6 2c e0 3c
       0.0056659984 -0.0038627253 -0.007708196 0.02736513
0000e0 5f 09 80 bd 12 65 20 bd 2c d9 1a bb d6 1c ec bc
       -0.062517874 -0.03915889 -0.002362798 -0.028822344
0000f0 4c 5a 46 3d 39 03 61 bd 71 3c 23 bd 85 b7 3e bd
       0.048425958 -0.054934714 -0.039852563 -0.046561737
000100 37 12 ec 3d 03 39 91 3d ea 36 24 3d 73 ae af bb
       0.11526912 0.07090952 0.040091433 -0.005361372
000110 a8 25 dd 3d ea 4a 3c 3d be e0 83 3d 45 e8 b7 3d
       0.10798198 0.04596988 0.064393505 0.08979849
000120 1b 3e 24 bc ec 7c bc 3c 8c d0 5f bd c2 e1 87 bd
       -0.010024573 0.023008786 -0.054642245 -0.06634857
000130 62 0c f4 bc a9 c4 60 bd 09 1b 25 3c bb b5 ae bc
       -0.02979106 -0.05487505 0.010077246 -0.02132689
000140 e0 52 70 bd df f7 b9 3d 26 11 ad bd 5b 4b 4b 3c
       -0.058672786 0.09080481 -0.084505364 0.012408103
000150 5c 8d b6 3c 74 49 f7 bd 08 52 4a 3c a1 78 f1 bc
       0.022284202 -0.12074557 0.012348659 -0.029476466
000160 e0 87 f8 bc 8d a4 5f bd 43 a6 b0 3d 62 b2 c1 3d
       -0.030338228 -0.054600287 0.08625462 0.09457852
000170 7d d8 c2 bd 29 ac bd 3c 8a e9 a1 3c d9 8d b4 bd
       -0.09513948 0.023153381 0.01976468 -0.08816118
000180 d3 4b 00 bd cb ea 11 3d 19 f5 d4 bc ec 0a 6d 3d
       -0.03132231 0.035624307 -0.025995778 0.057871744
000190 5a ec 9a bd 01 34 93 bd 0b 0d 2c bd 04 d7 f2 bd
       -0.07564612 -0.07187653 -0.042004626 -0.11857417
0001a0 f2 9c 0b be 68 3a 5a 3d 6d 9b 17 3d 6f 6c cc bc
       -0.13634089 0.053278357 0.03701346 -0.024954049
0001b0 79 52 d6 3d 2c a3 16 3e af d9 1e 3e 60 c0 eb bc
       0.10464949 0.14710683 0.15512727 -0.028778255
0001c0 83 82 1c 3e 60 b9 db 3c f9 ea 3a 3c e6 30 be 3c
       0.15284161 0.026821792 0.011408561 0.023216676
0001d0 87 b4 b0 bc e1 58 8c 3c b4 c6 71 3c ad 65 b4 bc
       -0.021570457 0.017132225 0.014756847 -0.022021139
0001e0 45 2e b3 bb ba 4d 20 3d ff d3 3b bd 70 a5 fb 3c
       -0.0054681622 0.039136626 -0.045856472 0.030718535
0001f0 f7 0a 02 3d d0 19 4c 3d f7 90 d9 3d fa e3 11 bc
       0.03174874 0.049829304 0.10623353 -0.0089044515
000200 c3 34 54 bd ba 1d 64 3d 9e 16 62 bd cf 67 66 bd
       -0.05180813 0.055692412 -0.05519735 -0.056251343
000210 68 07 96 bc c5 33 9d 3c ab 7a ce bd a0 3c 5a 3b
       -0.018314078 0.019189725 -0.10081991 0.0033300295
000220 80 4c 20 bd fd 24 4f 3d 88 ac ba bc 98 e5 d4 bc
       -0.039135456 0.050572384 -0.022787347 -0.025988385
000230 61 60 50 bd 2a 4a c8 3c 38 17 81 3b 18 1c 3e bc
       -0.050873164 0.024449427 0.0039395355 -0.011603378
000240 bb ef 89 3d 68 8f 68 3e f8 a4 4e 3e f7 57 d2 3c
       0.06735178 0.22710955 0.20180118 0.02567671
000250 6a 60 b2 3d 2d 09 fa 3d ea 22 cc 3c 17 a2 b3 3d
       0.08709796 0.122087814 0.024918992 0.087711506
000260 25 8b ec 3d b7 9d 9d 3d d9 3f b9 3d 0e b8 93 bd
       0.11549977 0.07696097 0.09045381 -0.0721284
000270 5a b4 f3 3c bf fd 3e 3d 1d 74 95 bd 23 74 f8 3b
       0.029749084 0.04662871 -0.072975375 0.007582204
000280 94 44 97 3c 3f a0 26 bd 78 37 c8 bc f3 1e 8e bd
       0.018465318 -0.040680166 -0.024440512 -0.06939497
000290 89 8d 8e bd 55 ed b1 3c aa 3e 45 bd 55 a0 07 be
       -0.069605894 0.021719614 -0.048155464 -0.13244756
0002a0 67 6c 18 3c 06 91 d2 bd 8b 6f 3d bd 83 49 51 bd
       0.009303189 -0.10281567 -0.046248954 -0.051095497
0002b0 71 73 5e 3b 1c d5 38 3d 68 65 c3 3c ac fc a7 bd
       0.003394332 0.045125112 0.023852065 -0.0820249
0002c0 c1 b7 a7 bb 20 7c 8e 3b 79 10 80 bd c8 d2 6f 3c
       -0.0051183407 0.004348293 -0.06253142 0.0146376565
0002d0 6a 23 4b bd ed 6c df bc 4a ab 2f 3d 61 6f 0d bd
       -0.04959432 -0.02727362 0.042887963 -0.034530047
0002e0 dc 76 c0 bd cc 75 08 bd 2d 3e 0c 3b 86 56 55 bd
       -0.093976706 -0.033315465 0.0021399364 -0.05208447
0002f0 4a 83 ca bc e8 b6 a6 3d a1 88 d8 3d df ed 06 bd
       -0.024720807 0.08140355 0.10572935 -0.032941695
000300 74 f7 d0 3b 72 91 69 3c fe c2 33 bd 8b d5 3b bd
       0.006377155 0.014255868 -0.04388713 -0.045857947
000310 98 b8 85 3c aa a1 f7 bd 94 91 e8 bc ea 7f cf bd
       0.016323373 -0.12091382 -0.02838973 -0.101318195
000320 09 1a 17 bd 17 5f 82 bd 97 63 ef bd 9e fd 07 bb
       -0.036890063 -0.06365793 -0.11688917 -0.0020750533
000330 5e de 51 bd e1 ff 33 bd 15 10 b1 3c 95 83 2f 3d
       -0.051237457 -0.043945197 0.021614114 0.042850096
000340 ef b4 88 3c be 6f 9d 3d 1d fd b2 3c 21 20 26 bd
       0.016687838 0.07687329 0.02184921 -0.040557984
000350 57 13 67 bc 28 d1 99 bc 9b d0 bb 3d 76 d7 8c 3c
       -0.014103732 -0.018776491 0.09170648 0.017192584
000360 da a3 84 3d 86 21 5e bc e4 d6 49 bd 44 4f 79 bc
       0.06476565 -0.013557797 -0.0492772 -0.015216652
000370 91 18 87 bd 98 ca a1 bd b2 4b d2 bb 6b 17 33 3d
       -0.065964825 -0.0789997 -0.006417715 0.043723505
000380 66 cb 3b bc 3f 4b 16 3d 1f 14 fe bc a0 cf 3f 3b
       -0.011462068 0.036692854 -0.031015454 0.0029268041
000390 3e 7a be bc 0f 06 70 bd fe d9 8a 3c 4a d4 92 bc
       -0.023251649 -0.058599528 0.01694965 -0.017923493
0003a0 65 3f 4d 3d 15 fc 6a 3d 0a b5 c5 3d 96 cd 1f 3b
       0.050109286 0.05736931 0.09653671 0.0024384013
0003b0 1a 10 b2 3b bf 41 e7 3c 0e 86 4a bd b6 2c f1 bb
       0.0054340484 0.028229592 -0.04944425 -0.0073600663
0003c0 93 6e ab bc 9e 51 9f 3c 1f 9a 26 bd 50 22 13 3c
       -0.02092675 0.019448098 -0.040674325 0.008980349
0003d0 20 f4 40 3d d7 0b 8c bc 62 49 ea bb 1a f0 33 bd
       0.047107816 -0.01709549 -0.007149861 -0.04393015
0003e0 17 7e 04 bd e3 db 9e bb e6 0d 96 bc e2 de a5 bc
       -0.03234681 -0.00484799 -0.018317174 -0.02024788
0003f0 b9 a8 b4 3c bb 5d 0c 3b a1 ec cb 3d 6d 8f d7 bc
       0.02205311 0.0021418172 0.09957243 -0.026313508

cnn3.bias f4 [32]
000000 47 f1 a2 3c 46 d6 33 3d e6 47 c2 bd 26 55 93 bc
       0.01989044 0.04390552 -0.0948637 -0.017984938
000010 e8 0a 05 3d 35 a7 06 bd 68 84 09 bd a1 59 f0 3d
       0.032481104 -0.032874305 -0.033573538 0.11735845
000020 f0 fa 21 bc 84 49 79 bd 2e 07 23 3c 28 99 d2 bc
       -0.009886488 -0.060861126 0.009950442 -0.025707796
000030 7b a9 5c bc 51 cc 4c 3d 9c d0 97 bc 59 d3 01 3e
       -0.013468142 0.04999954 -0.01853209 0.12678279
000040 18 f4 90 bd 48 e9 9c 3b 59 a5 2d bd f2 3c 82 bd
       -0.07077807 0.0047885515 -0.042394016 -0.06359281
000050 8d 4d 91 bd 5d d6 f3 bc 57 64 8f bd 61 39 77 bd
       -0.0709487 -0.029765302 -0.0700156 -0.060357455
000060 05 b4 4b bc 0b 5d 0f bd 61 2b 88 bd 31 d7 e4 3c
       -0.012433057 -0.035000842 -0.06648899 0.027934643
000070 37 85 08 bc 78 4f c8 3d 25 ef b1 3c ec 33 1a 3e
       -0.008332542 0.097807825 0.021720478 0.15058869

fc1.weight f4 [128, 768]
000000 05 49 db bc a7 35 cb 3c 82 6e a1 3c f6 91 72 3c
       -0.026768217 0.024805857 0.019706015 0.014805308
000010 ef 9b fb 3c 08 54 03 bd 69 18 42 bd 25 dc 80 3c
       0.030714003 -0.03206256 -0.04738656 0.015729973
000020 de 13 91 bc 68 6b 33 bc 7c 37 c3 bc 80 b6 0c 3a
       -0.017709669 -0.010950901 -0.023830168 0.0005367771
000030 f8 8c d8 ba 99 01 33 3b 1a 91 1e bc dc 43 9d 3c
       -0.0016521504 0.0027314185 -0.00967815 0.019197397
000040 fd 3c fb 3b 34 de 41 bc 82 e3 2e bc 24 54 35 3c
       0.0076671825 -0.0118327625 -0.010674359 0.011067424
000050 fe eb be bc ba c7 89 3c 10 98 e7 bc 6e 1f 4f bc
       -0.02330589 0.01681887 -0.028270751 -0.012641771
000060 af 58 16 bd 9b ff e4 bb 7f 84 15 bd 71 95 0f bc
       -0.03670567 -0.0069884784 -0.03650331 -0.008763657
000070 ab e2 3a 3b d9 96 fc bc c0 90 9b bc b3 0e f1 3c
       0.0028516452 -0.030833649 -0.01898992 0.029425954
000080 6e 3e 20 bd 20 76 81 3c 23 6c 27 3d 74 61 45 bc
       -0.039122038 0.015803397 0.04087461 -0.01204716
000090 9a 99 d5 3c ef 68 0f 3d b8 f4 02 bc 6c 36 af ba
       0.02607422 0.03501218 -0.007992916 -0.0013367659
0000a0 00 0f 21 3c b0 35 0f bc fe 11 be 3c ac 93 57 bd
       0.009830236 -0.008740827 0.023201939 -0.052631065
0000b0 8a e0 27 bd e1 45 92 3c ce fd fd bc eb ce 2d bd
       -0.04098562 0.017855586 -0.031004813 -0.04243366
0000c0 07 2f 26 bd fc 01 34 3c 40 8e 02 bd bb fe 06 bd
       -0.040572193 0.010986801 -0.03187394 -0.032957774
0000d0 b1 a7 1c bd 76 0d b3 bb 34 24 05 3c 2c 4d 79 bc
       -0.03824586 -0.005464251 0.008126307 -0.015216153
0000e0 92 93 0a bc 90 2f af bc 91 57 1a 3c 4f fc e8 3c
       -0.008458035 -0.021384984 0.0094202915 0.028440623
0000f0 dd b2 0c bd 44 0a 95 bc 62 cf f7 bc f1 80 3e bd
       -0.034350265 -0.018193372 -0.030250255 -0.046509687
000100 27 e7 bf 3c df 95 4b 3c 46 61 6e bc b9 b8 23 bc
       0.023425652 0.012425869 -0.014549559 -0.009992772
000110 c8 5c 1b bd c3 a1 9d 3c 7c 67 ad 3c 42 0c 0f bd
       -0.03793028 0.019242173 0.02116751 -0.0349238
000120 28 49 fb bb 30 9e 52 3c 71 c8 c3 bc 46 0c 91 bc
       -0.007668633 0.012855098 -0.023899289 -0.017706048
000130 36 d8 e8 3c 19 21 8c 3c 6d f7 be 3c d5 db 9c 3b
       0.02842341 0.017105626 0.023311341 0.004786948
000140 a1 69 91 ba 1b e8 e0 3b 9b da 80 3c 96 af b5 bc
       -0.0011094102 0.0068636066 0.01572924 -0.022178452
000150 87 ed 02 bd 7c ae d1 3c 12 db 92 3a a6 e1 23 bc
       -0.031964805 0.025595896 0.0011204204 -0.010002529
000160 31 d9 da 3b b3 91 c1 bc e5 a2 32 bb 8f 70 e0 bc
       0.0066787233 -0.023629045 -0.0027257737 -0.027397422
000170 61 c2 03 bb 3d 51 21 bd 7a 85 21 3b 53 80 02 3d
       -0.0020104873 -0.039384115 0.0024646209 0.03186066
000180 0a 85 c3 3c e2 7d 01 bd 5b 7e 3e 3b 32 ae 93 3b
       0.023867149 -0.03161419 0.0029067013 0.0045068497
000190 f4 8c 49 ba 4a 28 9b 3b 9f 56 bd bc 4f 59 07 bc
       -0.0007688545 0.0047350274 -0.023112593 -0.008261039
0001a0 22 9e 1c bd 8a bf 47 bc 13 07 89 bc 01 99 da bb
       -0.038236745 -0.012191663 -0.016727006 -0.0066710715
0001b0 cd b5 65 3c 07 01 f0 bb db 1b 87 bc e8 93 14 bd
       0.014020395 -0.007324341 -0.016492775 -0.036273867
0001c0 5a f8 09 3c e2 21 22 3c 74 78 3b 3c e1 b2 e5 bc
       0.008421028 0.009895774 0.0114422925 -0.028039398
0001d0 1f 1e 6a 3c 1e 51 03 3a 87 1d 90 bc 2f f8 e8 3a
       0.014289408 0.0005009341 -0.017592205 0.001777416
0001e0 83 03 e8 3c 5d f6 21 bd 34 93 be 3b cd 8a 3a 3c
       0.028321987 -0.03954159 0.005815888 0.011385632
0001f0 54 71 ff bc cc 32 20 bc 00 ed e2 3a 7c cc 06 bd
       -0.031181969 -0.009777736 0.0017313063 -0.032909855
000200 ab 04 19 3d 66 34 a0 3c a5 b1 4c 3c 4b c0 8c 3b
       0.037357967 0.019556236 0.012493526 0.004295384
000210 d0 35 ce 3c 3d a0 4c 3b 1a a1 86 bc da 3c c5 bc
       0.025172144 0.003122344 -0.016434241 -0.024076868
000220 d2 01 06 bd 28 c4 3d 3c 26 ce 80 3c e0 89 d9 3c
       -0.03271658 0.011582412 0.0157233 0.026555002
000230 cf 45 8f 3b bc 91 9b 3c 98 8f 42 3b 0d 24 04 bd
       0.0043723355 0.01899039 0.002968764 -0.032260943
000240 52 93 c5 bc 70 dd 4b 3c b0 5b 0b 3d c0 48 e0 3c
       -0.0241181 0.0124429315 0.034022987 0.02737844
000250 30 11 31 3b a2 3a 40 bc cc 05 dd 3c 46 e7 10 3d
       0.0027018301 -0.011732729 0.026980303 0.03537681
000260 b6 e2 0d 3d c0 0f 20 3c 32 a3 b1 3c 74 da c6 bb
       0.034640037 0.00976938 0.021684263 -0.006068522
000270 66 c4 a6 bc 0c fc f0 bb f4 25 0b 3d f4 e7 0d 3d
       -0.020357322 -0.007354265 0.03397174 0.034645036
000280 44 39 81 3c 40 75 92 3c 64 64 1c 3c 77 70 a4 bc
       0.015774377 0.017878175 0.009545419 -0.020073159
000290 7c 5a fd bb a5 95 06 3d 4e 1b f9 bc fa 48 44 bc
       -0.007731734 0.032857556 -0.030408528 -0.01198029
0002a0 0b 46 63 bc 6b 35 3b 3c bb ab e7 ba f2 84 ee bb
       -0.01387168 0.01142631 -0.0017675081 -0.007279032
0002b0 ea db 63 3b d9 d9 44 bc 5b 42 71 bd 8c d1 8d bc
       0.003476853 -0.01201483 -0.058901172 -0.017311834
0002c0 75 63 d2 3c d2 f1 9e bc ec 79 ae bc 03 bf 24 bd
       0.02568219 -0.019402418 -0.021298371 -0.040221225
0002d0 6e bd f4 bb ee 7a 10 bd df 0a a6 3c fa 58 2d 3a
       -0.007468871 -0.035273485 0.020268856 0.0006612685
0002e0 a4 ac 37 bd f9 10 2f bd d7 b9 17 bc d2 71 28 bd
       -0.044842377 -0.042740796 -0.009260616 -0.041124173
0002f0 63 46 7f bb 5b 7d ad bc 38 50 16 3c 24 d2 2e bd
       -0.0038951866 -0.021177938 0.009174399 -0.042680874
000300 df 3c 0a 3b ff 62 8e ba 8f 48 a7 bb ec 91 07 bd
       0.002109341 -0.0010863243 -0.005105085 -0.033098146
000310 2c 4f 00 bd b0 bc ec 3c 1c 3e c7 ba 51 a7 32 bc
       -0.031325504 0.028898567 -0.0015201005 -0.010904149
000320 fc 6f f5 bc 51 95 4a bc 3b b4 31 3c 04 44 f8 bc
       -0.029960625 -0.012364701 0.010846193 -0.03030587
000330 be ed ab bc a9 81 ad bc 16 46 00 bc dd b7 59 bc
       -0.020987388 -0.02117999 -0.00782921 -0.013288465
000340 e2 69 9e 3c 97 fd b5 bc 22 60 30 3c 77 f6 11 bc
       0.019337598 -0.022215648 0.010765107 -0.008908859
000350 ab 0d a6 3c 45 d8 0d bd 64 82 03 3d c0 44 da 3c
       0.02027019 -0.03463008 0.032106772 0.02664411
000360 47 11 0d bd bd fa 17 bd 7a d9 18 bd d0 4f c5 3c
       -0.034440305 -0.037104357 -0.037316777 0.02408591
000370 ea 31 10 bc 19 6f 5e 3c cf d7 04 3d 05 53 13 bd
       -0.008800963 0.013576292 0.032432374 -0.035967845
000380 83 a0 8d bc e7 b4 59 bc 09 e1 92 3c 19 0b 8a 3c
       -0.017288452 -0.013287759 0.01792957 0.016850995
000390 5e 74 d1 bc 92 14 c2 bc 27 b8 ca 3c d8 64 06 3d
       -0.025568184 -0.02369145 0.024746014 0.032811016
0003a0 eb e2 e9 3b f1 0d 96 bc d9 34 40 3c eb 4a db ba
       0.0071376464 -0.018317195 0.01173135 -0.0016730701
0003b0 45 8d a6 bc e4 2e bf 3c 82 4c 1c bd 61 7b db bc
       -0.020331034 0.023337789 -0.0381589 -0.02679223
0003c0 19 24 b2 3c 5e c4 98 3a 83 11 00 3d f4 c4 15 bd
       0.021745728 0.0011655202 0.0312667 -0.036564782
0003d0 50 83 2b 3c b4 d2 08 3d 6b 7f 2b 3a 1a 3f 37 3c
       0.010468319 0.033404067 0.0006542119 0.011184478
0003e0 b6 40 f8 bc 0f d7 0e bd ec 14 08 3c c5 1a a5 3c
       -0.030304294 -0.034873065 0.008305769 0.020154366
0003f0 8f 0b 9f bc 00 09 e3 bb 1c 10 e9 3c d1 c9 00 bd
       -0.019414691 -0.006928563 0.028450064 -0.031442467

fc1.bias f4 [128]
000000 0b ae c7 3c a0 90 11 bc 80 db 54 3c 62 15 25 bd
       0.024374982 -0.008884579 0.012991786 -0.040303595
000010 e1 07 d3 bc 54 b6 d4 3c 06 98 0b bd 81 70 27 bd
       -0.025760593 0.025965847 -0.034080528 -0.040878776
000020 fb e3 99 3b b6 6f 7d 3c 24 97 ab bc 84 0c e6 bc
       0.004696367 0.0154685285 -0.020946093 -0.02808214
000030 84 ad 13 bd 42 03 0d bd 38 38 1b bd 2a 34 82 bc
       -0.03605415 -0.034426935 -0.03789541 -0.015894014
000040 69 13 17 bd b2 16 a3 bc eb 1f 7a 3d 94 5b ff ba
       -0.036883745 -0.019908283 0.061065596 -0.0019482248
000050 02 94 a7 bb f2 2e c6 3d 57 e1 2f bd f2 50 a7 3d
       -0.0051140795 0.09676923 -0.04293951 0.08169736
000060 db 3a 45 bd 3e 9a 19 39 26 c9 ba bb a1 5d f0 bc
       -0.048151832 0.00014648677 -0.0057002483 -0.02934152
000070 69 23 df bc 0e 2c 8d 3c e2 42 12 bd e5 7d aa 3c
       -0.027238565 0.017232921 -0.035708316 0.020811984
000080 3c 1e 0e bd 65 e6 60 3c 45 11 07 ba 3c 97 3e bd
       -0.034696802 0.013726805 -0.00051524147 -0.046530947
000090 e9 da cc bc be 6c 20 bd 95 6b b7 bc c7 ed 51 3b
       -0.025006728 -0.039166205 -0.022390166 0.0032032595
0000a0 d5 da a8 3c f8 9d c5 3d bb b1 04 bd 70 4c c6 bc
       0.02061216 0.09649271 -0.03239606 -0.02420637
0000b0 54 66 9d bc 11 18 13 bd fc d6 d1 3b 0e 84 cd 3b
       -0.019213833 -0.035911623 0.006403802 0.0062718457
0000c0 66 f8 11 bd 48 ad f0 3c a8 cc 0a 3d f6 3d d5 3c
       -0.03563728 0.029379502 0.03388658 0.026030522
0000d0 24 1d bc 3b 4f 19 c2 3d df 91 ee bb d4 13 14 bd
       0.0057407785 0.094774835 -0.007280573 -0.036151722
0000e0 a5 97 10 bd ba 2c fd 3b 25 f6 8d bc 40 7e b6 bc
       -0.03530087 0.007726279 -0.017329285 -0.022276998
0000f0 0c 93 29 bd 49 cc bb 3d 38 28 0b bd 58 b2 cc bc
       -0.0414 0.09169824 -0.033973902 -0.024987385
000100 a5 38 80 bc 1a 56 cf 3c f1 ef ec 3d ec 10 c7 bb
       -0.01565201 0.025309611 0.11569203 -0.0060750153
000110 2e 72 42 3c ee 32 8c 3c 8f 1a cf bb 4c b5 a3 3b
       0.011868043 0.017114129 -0.0063203047 0.0049959775
000120 99 72 1b bc f0 fe 37 3c 93 39 52 b9 e1 61 3f 3c
       -0.009487771 0.011230215 -0.00020048609 0.011681051
000130 bf d6 1c b7 f2 8f 10 bd eb c5 24 3c c7 30 96 bb
       -9.348324e-06 -0.035293527 0.010056953 -0.0045834514
000140 94 f1 8c bc e9 9e df bb ed b3 e9 3b c8 e6 aa 3c
       -0.017205037 -0.0068243635 0.0071320445 0.020861998
000150 4b 82 05 3c e4 db df 3c 97 ac ec bc 22 84 d5 bc
       0.00814874 0.027326532 -0.028890891 -0.026063982
000160 81 46 20 bd 52 93 a9 3d ea eb 88 bd 18 ac e9 3d
       -0.039129738 0.08280052 -0.06685622 0.114097774
000170 04 41 29 3c f3 53 b0 bc bd ab d9 ba 17 75 24 bd
       0.010330442 -0.021524405 -0.0016606968 -0.040150728
000180 8b e0 e0 3a e6 51 90 bb ca c3 e2 bb 4d a8 35 3c
       0.0017156763 -0.0044042943 -0.0069203125 0.011087489
000190 ce e8 13 bd 01 13 2e bc 70 13 01 ba 8b 18 91 3c
       -0.03611069 -0.010624648 -0.0004923856 0.017711898
0001a0 e1 a9 90 3a da a3 77 bc c8 e2 1b bd 9c 13 84 bc
       0.0011036956 -0.015114749 -0.038058072 -0.016122632
0001b0 bb 38 f1 3d 46 7b 56 3c e1 73 ff bb cf 2e 53 bc
       0.117783986 0.013090914 -0.0077957963 -0.012889578
0001c0 52 3c e2 3d 36 0f ae 3c 8b e1 78 bd 2d 8e 06 bd
       0.110466614 0.021247488 -0.06076197 -0.032850433
0001d0 f4 49 2b 3c bf 65 8e 3c 2c fb af bc de 54 6a 3d
       0.0104546435 0.0173825 -0.021482073 0.057209842
0001e0 a9 19 79 bd f4 dc 42 bc 6a f9 4e bc 97 0d 4c bd
       -0.060815487 -0.0118935 -0.012632707 -0.049817648
0001f0 e3 0e ff 3d f6 42 37 bd 14 92 07 3d 6b 80 6f bd
       0.12454011 -0.044741593 0.033098295 -0.05847208

fc2.weight f4 [128, 128]
000000 bd 2d b2 bd ce 7d 71 bd 31 d1 15 bc d8 31 38 bc
       -0.0870013 -0.058957867 -0.009144113 -0.011242352
000010 36 6e f5 3c b9 7a 74 3d ed 0d 44 bd 69 42 55 3d
       0.02995978 0.05968735 -0.047864843 0.052065287
000020 ce 6c 06 bb 3d b2 08 3d 3d 65 e2 3c a1 8a 04 bd
       -0.002051163 0.033373106 0.027636165 -0.03235877
000030 3d 3a 9e bd 94 4a 0f 3d dd e7 a7 3d 6f ae 30 bd
       -0.07725952 0.034983233 0.08198521 -0.043135103
000040 73 8e 3c bd 5e 31 ef 3c 2e db b2 3b 0e e0 2b 3d
       -0.046034288 0.029198345 0.005458257 0.041961722
000050 4f a9 af 3d ae ce 77 3d d2 aa 89 3c f7 57 38 bd
       0.08577215 0.06049984 0.016805086 -0.045005765
000060 7e cb 58 3d 80 ef 18 bb f3 04 86 3d 96 4e cd bb
       0.05292844 -0.0023336112 0.06543913 -0.0062654717
000070 18 6a 68 bc 55 a0 06 bb 99 f0 b7 3d 3e 90 62 3d
       -0.014185451 -0.0020542343 0.08981437 0.05531334
000080 a2 ee a3 bd 88 95 06 bd c7 df a1 3d 29 94 c2 bd
       -0.080045 -0.032857448 0.0790401 -0.095009156
000090 3c e6 b0 bd 76 78 b3 3d 03 c3 ab 3d 0d 14 83 bd
       -0.08637664 0.087632105 0.08386805 -0.06400309
0000a0 c0 5c 83 bd 10 ad 9b bd 64 30 cf 3c 5c c4 e8 bb
       -0.06414175 -0.076013684 0.02529163 -0.007103486
0000b0 27 7d 1e bd e9 ca 9b 3d a6 db 64 3d 41 76 a7 3c
       -0.038693573 0.076070614 0.055873536 0.02044213
0000c0 8a e0 53 bd 2c b7 a2 bd 6c 63 07 bc d0 39 27 3d
       -0.05172781 -0.079450935 -0.00826345 0.04082662
0000d0 72 b3 56 3d 6b 6a ea 3d 28 49 38 bc 54 24 b5 3d
       0.052417226 0.11446079 -0.011247911 0.0884482
0000e0 20 3a fa 3c 24 81 d0 bc 90 a4 34 bc 3f b2 9b bd
       0.030545294 -0.025452204 -0.011025563 -0.07602357
0000f0 7c 52 a2 bc 4f 23 cf 3d b9 b1 b0 bd 0d 89 ce 3d
       -0.019814722 0.101141565 -0.08627648 0.10084734
000100 c2 72 0d bd 00 cc 13 3d db 0d fa 3d e0 e5 58 bd
       -0.03453327 0.03608322 0.12209674 -0.0529536
000110 81 e1 6e 3d 0c 6b 7d bd 18 33 28 3d 07 b5 b1 3d
       0.058320526 -0.061869666 0.04106435 0.08677106
000120 89 b8 2d bd 20 2f 6b 3c 00 0b d1 3a 3a 66 17 3d
       -0.042412315 0.014354497 0.0015948713 0.036962725
000130 58 0f c3 3c 9b b5 1b 3d 40 ce eb bb 84 53 ba bc
       0.023811027 0.03801499 -0.007196218 -0.022744901
000140 3b fa 22 bc e3 e8 9c bd 23 4d 53 bd 54 f4 b9 3b
       -0.009947355 -0.07661607 -0.051587235 0.005674878
000150 08 74 a3 bd 97 01 72 bd 61 3e 83 bd 4a f5 19 3d
       -0.079811156 -0.059083547 -0.06408382 0.03758744
000160 6a 08 4d bd 4f fb 1c be af 5e 63 bd 63 94 7f bc
       -0.050056852 -0.15330242 -0.05551022 -0.015599343
000170 82 14 35 3d 2a 7f 70 3d b9 02 00 3d 70 68 91 bd
       0.04420901 0.058715023 0.031252597 -0.07099998
000180 25 e8 42 3c b8 0e 3d bd 3e 83 4d 3d fe d1 1e 3d
       0.011896168 -0.046156615 0.05017399 0.038774483
000190 9c ac 0e 3d cc 2d 17 bd 9d 0c 87 3d 15 7c 9f 3d
       0.034832582 -0.03690891 0.06594203 0.07787339
0001a0 14 eb cb 3c f6 64 45 3d e8 46 12 3c 79 22 22 bd
       0.024892367 0.048191987 0.008928038 -0.039583657
0001b0 a7 da 34 3d 32 e4 95 bd d0 90 bb bc 90 aa db 3c
       0.044153836 -0.073189154 -0.0228962 0.026814729
0001c0 16 07 a6 3d 00 0b b9 bc 2a fc 74 bd 78 8e 3c bd
       0.0810682 -0.022588253 -0.059810795 -0.046034306
0001d0 fd 96 88 bd d6 3d 98 bd de e5 ae bd a2 b0 a8 bd
       -0.06669424 -0.07433669 -0.085399374 -0.08236815
0001e0 bd e9 b9 3c d8 36 42 bc e7 4d 4f bd 21 9a 17 bb
       0.022694463 -0.011853896 -0.050611403 -0.002313264
0001f0 3f f5 9a 3d d3 07 23 bd 2f 51 8c bd 67 2c 51 bd
       0.07566308 -0.039802384 -0.06851422 -0.051067736
000200 9e 0d 80 bd 3e f1 fe bc 4c 11 ab bd 90 46 eb 3b
       -0.06252597 -0.031120893 -0.083529085 0.0071800426
000210 9b a4 a4 ba e1 7c 80 3c 9c 18 ca bd 70 a8 3c bc
       -0.0012561263 0.015684547 -0.09867975 -0.011514768
000220 37 85 8e 3d 5b 0a 13 3d 28 d5 ae 3a fe 7c 17 3d
       0.069590025 0.035898548 0.0013338672 0.036984436
000230 af 98 15 bd 90 2d 91 3b 26 2c 4a 3d c0 af 31 bd
       -0.036522564 0.0044304803 0.04935851 -0.0433805
000240 a4 38 1e 3d 1c c5 19 3d ee 1c 4d bb 30 b8 bf bc
       0.038628235 0.037541494 -0.003129776 -0.023403257
000250 73 cf 07 bc 98 fc e5 bc 9b ad 9a 3d e0 9c 65 bd
       -0.008289206 -0.028074548 0.07552644 -0.05605781
000260 51 c7 a8 3d be 50 5f 3d 08 e0 96 bd 05 77 2f bc
       0.082411416 0.05452036 -0.07366949 -0.010709529
000270 07 ce 9c bd 4a e8 3f 3d 31 f0 a9 3d bc 60 f1 bc
       -0.07656484 0.046852387 0.08297766 -0.029465072
000280 6b 23 0e bd 7d 2f ae 3c 92 0e 0b bd da 2a bc bd
       -0.034701746 0.021262879 -0.033949442 -0.09187861
000290 0f bd 96 bd 69 77 3c bd 84 75 15 3d 85 21 a0 bd
       -0.07360279 -0.046012316 0.036489025 -0.07818893
0002a0 f1 5d 79 bd f6 17 82 3c b0 9f be bc ac a7 9b bd
       -0.060880605 0.015880566 -0.023269504 -0.0760034
0002b0 4f e5 63 bd b0 a0 ce bc 6f a6 a3 3c 99 3b 1a bc
       -0.055638608 -0.025223106 0.019976823 -0.009413623
0002c0 22 e3 89 bd 79 fb 97 3d c0 d6 9a 3c 2e 9d 3b bd
       -0.06732775 0.074210115 0.018901229 -0.045804195
0002d0 10 30 12 bc 4e 5a e6 3d 23 1f 40 3d 12 1e 94 bd
       -0.008922592 0.11247693 0.046904694 -0.07232298
0002e0 97 7b 2a bd e0 8c 46 bc 88 a5 85 bd 4d 56 6a 3c
       -0.04162177 -0.012118548 -0.06525713 0.014302802
0002f0 be ac 8a bd a2 e8 5d 3d 50 e9 a3 bc 6e 46 cb bd
       -0.06771229 0.054176934 -0.020008713 -0.09925543
000300 f3 da 45 bd 51 ef cf 3c 5f 0b 34 3d c5 6c 6a 3c
       -0.04830451 0.02538267 0.043956157 0.014308159
000310 42 17 cf bb ac 72 bb 3c ae 73 c6 bc 28 5e e3 3c
       -0.006319911 0.022881828 -0.024225082 0.027754858
000320 04 15 b0 bc db 4b 25 bd c4 11 86 bc 20 6d 74 3c
       -0.021494396 -0.040355545 -0.016365893 0.014918596
000330 7d 48 8f bd 98 54 b4 3c a3 14 20 bd cb d4 85 3d
       -0.06996248 0.022012994 -0.03908218 0.06534728
000340 b7 55 0b bc 52 9c 72 bc 4d c6 56 bd 72 3b 8a 3d
       -0.008504323 -0.0148077775 -0.052435208 0.067496195
000350 4c 59 0a 3d 5c b3 01 bd ea 24 9f bc 30 20 eb ba
       0.033776566 -0.03166519 -0.019426782 -0.001793867
000360 9c 07 0f bd 6f d2 a3 bd 2d 0f 95 bd dd 6c f8 3c
       -0.034919366 -0.079991214 -0.07278285 0.030325348
000370 e0 49 08 bc ee cc 3c 3d b9 5c dd bc 0c a2 ab bd
       -0.008318394 0.046093874 -0.027021753 -0.08380517
000380 15 9d 45 bd 55 70 92 bd ba de 4a 3d 88 44 3f 3c
       -0.04824551 -0.07150332 0.049528815 0.011674054
000390 b0 73 3e bd 58 1b d0 3c cf a4 8a 3d 8e f3 06 3d
       -0.046497047 0.025403664 0.06769716 0.032947116
0003a0 a0 18 33 bc a8 b0 65 3c 9a a1 75 bd 5a d7 32 3d
       -0.010931164 0.014019169 -0.05996857 0.043662407
0003b0 f9 ed e6 3d 02 26 ff bb f2 48 13 3d d2 f7 1f 3d
       0.112758584 -0.0077865133 0.035958238 0.0390547
0003c0 3f e1 71 3b be 62 4e 3d f0 35 d2 bd ec 93 5b bd
       0.0036907939 0.050387137 -0.10264194 -0.053607866
0003d0 c8 24 60 3c 81 6e 88 3d 54 3a a6 bd a5 84 5e 3d
       0.013680644 0.06661702 -0.08116594 0.05432572
0003e0 b2 26 bf bc c5 61 8d bd 3d af 73 3d 9e 93 cd 3d
       -0.023333881 -0.06903414 0.059493292 0.10037921
0003f0 99 95 2a 3e 69 01 b1 bd 98 5d ac 3d 97 c1 33 3d
       0.1665863 -0.08642847 0.08416289 0.043885794

fc2.bias f4 [128]
000000 8d 38 4c 3d f4 92 6d 3d 9e 5d 0e 3d 06 ac 96 3d
       0.04985862 0.058001474 0.03475725 0.073570296
000010 06 55 44 3d a1 72 b5 3d b4 9c 1e 3e 14 81 e3 3d
       0.047932647 0.08859754 0.15489465 0.11108604
000020 26 f2 1d bd 4d 8a c6 3d 35 00 62 bd 2a 86 20 bc
       -0.03856101 0.096943475 -0.05517598 -0.009797612
000030 79 0b 11 3e 4e 42 2c 3d b1 2f d0 bd b3 73 a4 3d
       0.14164533 0.04205542 -0.101653464 0.080298804
000040 54 12 82 3d 8d d2 cc 3d f7 8d bb 3d b9 ce c3 39
       0.06351152 0.10001097 0.09157937 0.0003734732
000050 50 14 04 bd 4f d6 ad 3d a8 85 dc 3d dd e6 4b 3e
       -0.032245934 0.08488142 0.107676804 0.19912286
000060 35 e6 08 3e a9 23 f3 3c 7c ed d6 3d fa ac 0d 3e
       0.13369067 0.02968009 0.10494515 0.13835517
000070 f2 e6 8f 3b dc 6a 17 3c 21 06 98 3d 2d 86 5c 3d
       0.0043915445 0.009241786 0.07423044 0.053838897
000080 d3 28 30 3e fd ec b9 bd 9f 56 40 3e 50 41 83 3c
       0.17203073 -0.09078405 0.18783043 0.016022354
000090 86 89 e6 3c b2 89 33 3e 67 6a 83 bd e3 7f b3 bc
       0.028141748 0.17532995 -0.06416779 -0.021911567
0000a0 3f 50 40 3d 01 02 a0 3b 22 5a 99 bc 85 4d 86 3c
       0.04695153 0.0048830514 -0.018719736 0.016394386
0000b0 37 ea 26 3e d8 c2 ec 3d a7 4a 4e 3d 30 5a 6f 3c
       0.16300283 0.11560601 0.050364163 0.014608905
0000c0 aa fc 06 be f3 7c d7 3c e4 97 e4 3d 94 e6 53 3d
       -0.13182321 0.026304698 0.11161783 0.05173357
0000d0 fa 45 03 3d a7 c8 e3 3b 85 ee 36 3e 79 69 c3 3d
       0.032049157 0.00695141 0.17864425 0.09541602
0000e0 bd 96 f7 3b 31 b0 aa 3d 93 d3 00 bd 61 d8 1b 3d
       0.007555811 0.08334387 -0.031451773 0.038048152
0000f0 e3 33 1e 3c 2c 77 47 bd 62 d0 32 3e 52 80 d2 bc
       0.009655925 -0.048697636 0.17462304 -0.025695954
000100 d6 f0 d4 bb f1 ad 8b bd 13 91 10 bd fd 17 93 3d
       -0.0064984364 -0.06820286 -0.035294604 0.0718231
000110 98 38 c0 3d 70 c7 e5 3d 9a 63 b1 3d a8 e8 97 3d
       0.093857944 0.1121968 0.086615756 0.074174225
000120 84 91 6d bd ca e0 c2 3d fa fd 2a 3c ad 85 00 3d
       -0.058000103 0.09515531 0.010436529 0.031377483
000130 24 c6 db 3c 22 a8 61 3d db 2c 0e be 6c c9 23 bc
       0.02682788 0.055091985 -0.13884299 -0.009996753
000140 5c 75 1f 3d b7 3c 27 3d 71 57 35 3e c5 a0 95 3c
       0.038930282 0.040829387 0.17709137 0.018265137
000150 1a 02 3b 3d c5 b0 01 3c 7b 9d 1c bd f6 a4 ee 3d
       0.0456563 0.00791568 -0.038236123 0.116525576
000160 20 26 25 be bc 71 2c 3e 3d 37 f2 3d 58 b6 27 3e
       -0.16127825 0.16840261 0.11826942 0.16378152
000170 ca 4f f1 3c 8c 33 7e 3c 48 df f7 3c bd 72 1c 3e
       0.029456992 0.015515219 0.030257836 0.15278144
000180 8d 4a 30 3d 1d a0 82 3c 1f 64 17 3d 3e 65 f1 3d
       0.043039847 0.015945489 0.036960717 0.117868885
000190 79 41 cb bb ae f1 d6 3c 37 e4 57 3c 70 a5 6a 3d
       -0.0062028733 0.026238289 0.013176969 0.05728668
0001a0 2c 79 bd 3d c1 b1 37 3e 0a c3 96 3c da 7b 91 3c
       0.09251627 0.17938901 0.018403549 0.017759252
0001b0 e0 0a 3f 3e 75 61 19 3e 86 dc dd bc 56 7f 37 bd
       0.18656492 0.14978583 -0.027082693 -0.04479917
0001c0 63 fb a9 bd dc 09 2a 3e 4a 19 a7 3d 7b c3 40 3e
       -0.08299901 0.16605324 0.081591204 0.1882457
0001d0 58 64 21 3e 4f eb 4f 3d 33 eb 80 3e 4d e3 fb 3d
       0.15760934 0.050761517 0.25179443 0.122992136
0001e0 6c 49 0f 3e f2 6e 84 3c 28 17 0f 3e 80 19 bb bd
       0.13992852 0.016166184 0.13973677 -0.09135723
0001f0 66 d1 87 3e 51 48 d2 3d 16 4c 0a bd cb 8d 11 bd
       0.26526946 0.102676995 -0.033763967 -0.035535615
