models/dqn_model_epoch_36000.pth (torch, 595624 bytes, 14 tensors)

cnn1.weight f4 [16, 4, 5, 5]
0	0xbe476316	-0.19471392
1	0x3d336fe7	0.04380789
2	0xbce4cdde	-0.027930196
3	0xbe499bc2	-0.19688323
4	0xbe125c76	-0.14293084
5	0xbe4b7e42	-0.19872382
6	0xbe4691a2	-0.19391492
7	0xbe9462fe	-0.28981775
8	0xbd0e9a74	-0.034815267
9	0xbd695409	-0.056964908
10	0xbe8bb78d	-0.27288476
11	0xbe24402c	-0.16040105
12	0xbec0f046	-0.37683314
13	0xbe15e0cd	-0.14636536
14	0x3d1f01b9	0.038820002
15	0xbe2a21b6	-0.16614422
16	0xbe5aacaf	-0.21354936
17	0xbd23d38b	-0.039996665
18	0xbe8330b4	-0.25623095
19	0x3c454435	0.012040188
20	0xbe56f939	-0.20993508
21	0xbe81a09f	-0.25317857
22	0xbe4123d9	-0.18861331
23	0x3d8a538d	0.06754217
24	0x3ce3b67e	0.02779698
25	0xbc704c6f	-0.014666661
26	0xbd07a8f8	-0.033120126
27	0xbdc1f250	-0.094700456
28	0xbe139f40	-0.14416218
29	0x3ce35554	0.027750649
30	0x3d8216cb	0.06352004
31	0xbcd7448d	-0.026277805
32	0x3ccd946e	0.02509519
33	0xbd89a630	-0.06721151
34	0xbd905fff	-0.0704956
35	0xbd410401	-0.04712296
36	0xbe0c564a	-0.13704792
37	0x3c85fbb0	0.016355366
38	0x3e07262a	0.13198152
39	0xbce85d5f	-0.028364835
40	0xbdd3fd49	-0.10351045
41	0x3cab6bab	0.020925364
42	0xbdada168	-0.084780514
43	0x3c9a9fef	0.01887509
44	0xbe040017	-0.1289066
45	0xbd021520	-0.031758428
46	0x3d9ab2e6	0.075536534
47	0xbd2a403a	-0.041565157
48	0xbd8af8b3	-0.06785717
49	0xbdb26ef1	-0.08712567
50	0x3da9f3b7	0.08298438
51	0xbc27a7c8	-0.010232873
52	0xbe071245	-0.13190563
53	0xbe52af6b	-0.20574729
54	0xbcd45a2c	-0.025921904
55	0xbcc79232	-0.024361704
56	0xbdb31f27	-0.08746176
57	0x3e34887e	0.17630193
58	0x3d4b02ae	0.049563102
59	0xbe1df4c5	-0.15425403
60	0x3e6ea7dd	0.23306222
61	0x3e6e90d4	0.23297435
62	0x3dfdc692	0.1239139
63	0x3d1074b5	0.03526755
64	0xbe576c99	-0.2103752
65	0xbe90c81c	-0.2827767
66	0x3e1beeb4	0.15227777
67	0x3e8ee802	0.27911383
68	0xbe05f342	-0.13081077
69	0xbe2aa07f	-0.16662787
70	0xbe24036e	-0.16016933
71	0xbc83c6bf	-0.01608598
72	0x3ea2b979	0.3178213
73	0xbe06dc8d	-0.13170071
74	0xbe1c34d0	-0.15254521
75	0xbdbf9208	-0.09354025
76	0xbe7a56a8	-0.24447119
77	0xbdb8862c	-0.09009966
78	0xbba7c5a3	-0.0051199957
79	0xbd87cce6	-0.06630878
80	0xbd2b6489	-0.041843925
81	0x3de1a9d9	0.11018724
82	0x3e1849a4	0.14871842
83	0xbdc0f093	-0.09420886
84	0x3d09e34c	0.033664033
85	0xbe26f05b	-0.16302626
86	0x3d9624e9	0.07331259
87	0x3da52ab8	0.080647886
88	0xbdbf976a	-0.09355052
89	0xbda8e209	-0.08246238
90	0xbe038cd0	-0.12846684
91	0xbbe42e6f	-0.006963543
92	0x3d98a357	0.074530296
93	0xbcc8d520	-0.024515688
94	0xbdf2bdf8	-0.1185264
95	0x3db901d0	0.09033549
96	0x3df55e56	0.11980884
97	0xbe3a762d	-0.18209143
98	0xbd8f8e29	-0.07009537
99	0xbd751574	-0.059834912
100	0xbdf2f10f	-0.118623845
101	0xbe859516	-0.26090306
102	0xbe352a7f	-0.17691992
103	0x3d0b600e	0.03402715
104	0xbe678e01	-0.22612764
105	0xbe014271	-0.12623002
106	0xbda7cc44	-0.081932575
107	0xbb5e0f9d	-0.0033883818
108	0x39bf4fa6	0.00036489702
109	0x3bae0946	0.005311164
110	0xbe0c102b	-0.13678043
111	0xbd2de624	-0.042455807
112	0x3c73160d	0.0148368
113	0xbd6551c5	-0.055986185
114	0xbd7aa3a3	-0.061191212
115	0xbe1f71de	-0.1557078
116	0xbe67ea36	-0.22647938
117	0xbe33e802	-0.17568973
118	0xbebd8aad	-0.37019864
119	0xbd6e1aee	-0.05813115
120	0xbe840739	-0.2578676
121	0xbe62ae4a	-0.22136799
122	0xbdc56b42	-0.096395984
123	0xbd981062	-0.07425
124	0xbdffd3eb	-0.12491592
125	0xbd34f82a	-0.04418198
126	0x3daa94d8	0.08329171
127	0xbd65964e	-0.056051545
128	0x3d10f87d	0.035393227
129	0xbe06aad5	-0.13151105
130	0xbc58fbf9	-0.013243669
131	0xbd1ead04	-0.03873922
132	0xbdd496fc	-0.103803605
133	0x3cbdb7a5	0.023158858
134	0x39e2e980	0.0004328005
135	0xbca62574	-0.02028153
136	0xbd4e58dc	-0.05037771
137	0xbe1220a6	-0.14270267
138	0xbd4623b8	-0.048373908
139	0xbcd2c46d	-0.025728429
140	0xbe0b912b	-0.13629596
141	0xbccd5c85	-0.02506853
142	0x3d514712	0.05109317
143	0xbd479bd5	-0.048732597
144	0xbdda7cfc	-0.1066837
145	0xbb1faa14	-0.002436285
146	0x3d0527c9	0.032508645
147	0xbd8c8fd5	-0.06863371
148	0x3dd49f38	0.10381931
149	0xbde8a1f2	-0.113590136
150	0xbe42dae5	-0.19028814
151	0x3e34664b	0.17617147
152	0xbd5f45b6	-0.05450984
153	0x3e22313b	0.15839092
154	0xbe17574c	-0.14779395
155	0xbe3eeec6	-0.18645772
156	0x3e395771	0.18099762
157	0xbe5116fe	-0.20418927
158	0x3da7b54c	0.081888765
159	0xbe20cae4	-0.15702397
160	0xbe8bde7b	-0.27318177
161	0xbe802fc9	-0.25036457
162	0x3dbb242b	0.09137758
163	0x3dc62013	0.096740864
164	0xbe576513	-0.2103465
165	0xbe7c493b	-0.2463731
166	0xbe0cc57c	-0.1374721
167	0x3e86f66c	0.2635988
168	0xbe4199a7	-0.1890627
169	0xbe6eda70	-0.23325515
170	0x3ec6403e	0.38720888
171	0x3e97fde3	0.29685888
172	0x3ed32b12	0.41243798
173	0xbd66e489	-0.05637029
174	0xbe297b70	-0.16550994
175	0x3e541289	0.20710196
176	0x3e089fc9	0.13342203
177	0x3e72f31d	0.23725553
178	0xbc8d9f90	-0.017288
179	0xbda87bf8	-0.0822677
180	0x3defa047	0.11700492
181	0xbdf4ee09	-0.11959464
182	0x3e1bbf05	0.15209587
183	0xbe0443f7	-0.12916552
184	0xbde0c840	-0.10975695
185	0xbe288112	-0.16455486
186	0x3dbdb9ca	0.09263952
187	0x3d815238	0.0631451
188	0xbda64869	-0.0811928
189	0xbe1ccba3	-0.15312056
190	0xbe2b26fe	-0.16714093
191	0xbceb8e19	-0.02875428
192	0xbdabc644	-0.083874255
193	0xbe002a0e	-0.12516043
194	0xbd254542	-0.040349253
195	0xbe0a0443	-0.13478188
196	0xbdf1b49c	-0.11802027
197	0x3e372653	0.17885713
198	0xbe03257d	-0.1280727
199	0xbe0e90af	-0.1392238
200	0xbe990670	-0.29887724
201	0xbd9942ba	-0.0748343
202	0xbeb0942d	-0.3448805
203	0x3d46b4d0	0.04851228
204	0xbe3a0d69	-0.18169178
205	0xbe6439ea	-0.22287717
206	0xbe21f022	-0.1581426
207	0xbe42f83f	-0.19040011
208	0x3d13f651	0.036123578
209	0x3b9bfc0f	0.0047602723
210	0xbe783bec	-0.24241608
211	0xbe5fc053	-0.2185071
212	0xbdfadf1a	-0.122495845
213	0x3cede382	0.029039148
214	0x3e349a81	0.17637064
215	0xbe7e80e2	-0.24853852
216	0xbe6a669a	-0.22890702
217	0xbe946ad0	-0.2898774
218	0xbe21aa76	-0.15787682
219	0x3e097e10	0.13426995
220	0xbe7984ab	-0.24367015
221	0xbe052076	-0.13000664
222	0xbe74cfc2	-0.23907378
223	0x3d5610f3	0.052262258
224	0xbd8556af	-0.06510674
225	0xbe052252	-0.13001373
226	0xbc610959	-0.013735139
227	0xbe0ed4e7	-0.13948403
228	0xbdb176fa	-0.08665271
229	0xbd16b866	-0.03679695
230	0xbb804ae8	-0.0039151795
231	0xbcb2bbdf	-0.0218181
232	0x3d80f7d7	0.06297272
233	0xbdba18f8	-0.09086794
234	0x3cea0eae	0.028571453
235	0xbc2db6d1	-0.010602669
236	0x3cbb2341	0.022843959
237	0xbc4cbb3b	-0.012495811
238	0xbdc604e7	-0.09668904
239	0xbb71edc1	-0.0036915394
240	0x393039a6	0.00016806144
241	0xbdb4dd8d	-0.0883132
242	0x3c241e22	0.01001695
243	0x3e3b4f36	0.18291935
244	0xbbc2038e	-0.005920834
245	0xbda1669d	-0.078809
246	0xbe169beb	-0.14707915
247	0xbd64c813	-0.05585487
248	0x3dba109d	0.090852
249	0xbc1ba899	-0.009500646
250	0x3d999444	0.074989825
251	0x3cfc6463	0.030809587
252	0x3d502ba6	0.050822876
253	0xbecb3001	-0.39685062
254	0xbd79a574	-0.060948804
255	0x3cc752a1	0.024331393

cnn1.bias f4 [16]
0	0x3d65467a	0.055975415
1	0xbd4c989a	-0.04995022
2	0xbd8e470e	-0.06947146
3	0xbd995e8c	-0.074887365
4	0x3d0f0583	0.034917366
5	0xbd94c375	-0.07263843
6	0xbd94cbc4	-0.07265428
7	0xbb258be8	-0.0025260393
8	0x3c849e41	0.016188743
9	0xbdf9b600	-0.12192917
10	0xbce85f6b	-0.028365811
11	0xbd968aa9	-0.07350666
12	0xbc898ae7	-0.016789867
13	0xbdb6f8db	-0.08934184
14	0x3cc67d7f	0.024229763
15	0xbd8fd7d2	-0.07023586

cnn2.weight f4 [32, 16, 3, 3]
0	0x3cde297b	0.027119389
1	0x3d6c5f71	0.057708208
2	0x3dd51a2d	0.10405383
3	0x3e196124	0.14978462
4	0xbcb47db1	-0.02203259
5	0xbd2a8c2d	-0.04163759
6	0x3d9a31fe	0.075290665
7	0x3c8c726a	0.0171444
8	0xbd52c98f	-0.051461753
9	0x3e2e3ab4	0.17014581
10	0xbdc959c3	-0.09831574
11	0x3d26060a	0.040533103
12	0x3e02a37e	0.1275768
13	0xbd95e2ec	-0.073186725
14	0x3df4c147	0.11950927
15	0x3e1d58e2	0.15365937
16	0xbd6ae30c	-0.057345435
17	0xbd9022fa	-0.07037921
18	0xbc5daf1a	-0.013530517
19	0xbce8f7e2	-0.028438512
20	0x3a565c11	0.0008177171
21	0xbccf5ea7	-0.025313688
22	0x3b4f292f	0.003161024
23	0xbd67cbab	-0.056590717
24	0xbd7043b6	-0.058658324
25	0x3c8048a6	0.015659641
26	0xbd66225d	-0.056185115
27	0x3dd7ac69	0.105309315
28	0xbda3965a	-0.07987662
29	0x3c89ab58	0.016805336
30	0x3e21ea60	0.15812063
31	0x3cf5011a	0.029907752
32	0xbd037383	-0.032092582
33	0x3de5920a	0.11209495
34	0x3d7a3fb4	0.06109591
35	0xbdb57dcc	-0.088618845
36	0x3d80edda	0.062953666
37	0xbc8f8322	-0.017518584
38	0xbc906e64	-0.017630763
39	0x3dd8c0d5	0.10583655
40	0x3c3dbe2a	0.011580983
41	0x3d7f0a07	0.062265422
42	0x3dba85df	0.09107565
43	0x3cf08650	0.02936092
44	0x3db8cfbf	0.090239994
45	0x3dc29b74	0.095023066
46	0x3d834c76	0.06411068
47	0x3d8a98db	0.06767436
48	0x3dfcc7ae	0.123427734
49	0x3d65cf72	0.05610604
50	0x3cd4cbae	0.025976028
51	0xbc4fbee7	-0.012679792
52	0x3c8c80ba	0.017151225
53	0x3d187438	0.03722021
54	0xbd6019f0	-0.054712236
55	0x3d0d1444	0.034443155
56	0x3d9f720f	0.07785427
57	0xb98c7dbe	-0.00026796566
58	0x3cd06fe6	0.025443982
59	0x3d693751	0.05693752
60	0x3d371f67	0.044707682
61	0x3d1160eb	0.03549282
62	0x3dd3b8da	0.10337992
63	0x3d68bcd8	0.05682072
64	0xbdaa0099	-0.08300895
65	0x3d46f8cd	0.04857712
66	0x3d2e4478	0.042545766
67	0xbd546c3a	-0.051861025
68	0x3dcdde34	0.100521475
69	0xbcca159b	-0.024668505
70	0xbd154a1d	-0.036447633
71	0x3c106587	0.0088132685
72	0x3d669c9e	0.056301706
73	0xbc6d1e1f	-0.014472513
74	0xbd6288b7	-0.055306163
75	0x3dddb001	0.10824586
76	0x3db33375	0.08750049
77	0x3d9d27e8	0.07673627
78	0x3d4c4087	0.049866226
79	0x3d1d25d3	0.03836615
80	0x3d378925	0.044808526
81	0x3d8d5ef5	0.06902877
82	0x3da0e614	0.07856384
83	0x3df0ad4c	0.11751804
84	0x3d575591	0.052571837
85	0x3d4ce499	0.050022695
86	0x3ce3d5d6	0.027811926
87	0x3d8c5ed6	0.06854026
88	0xbd15fa3c	-0.036615595
89	0x3d3c9db2	0.046048827
90	0x3d37444e	0.044742875
91	0xbc87c427	-0.016573025
92	0xbc3af1e9	-0.011410215
93	0x3bfe0138	0.00775161
94	0xbbfcf130	-0.0077191815
95	0xbdb5dfb5	-0.08880559
96	0x3b2d7772	0.00264689
97	0xbada37dd	-0.0016648729
98	0xbb2614a2	-0.0025341888
99	0x3c9b5450	0.018961102
100	0xbd1fc886	-0.039009593
101	0x3d1f8817	0.038948145
102	0x3d9dbeb9	0.07702393
103	0x3daa3d3d	0.083124615
104	0xbd71ec07	-0.059062984
105	0x3dd6112e	0.104524955
106	0x3d2d654e	0.04233294
107	0x3d9f824d	0.07788525
108	0xbda9136a	-0.08255656
109	0xbdf1f438	-0.11814159
110	0xbc99e605	-0.01878644
111	0xbc230d0b	-0.00995184
112	0x3d2963b9	0.04135487
113	0xbc279875	-0.01022922
114	0x3d4fea22	0.050760396
115	0xbd5dc8ba	-0.054146506
116	0xbb2e6dd9	-0.0026615767
117	0xbd1a74f7	-0.037709203
118	0xbd6d4787	-0.057929542
119	0x3cc886fb	0.024478426
120	0x3d3ec5d6	0.04657539
121	0xbd8144ec	-0.06311974
122	0xbd750196	-0.059815966
123	0xbd18e6f3	-0.037329625
124	0xbda1acac	-0.07894263
125	0xbd0686b0	-0.03284329
126	0x3ddc4516	0.107553646
127	0xbccd3280	-0.025048494
128	0x3dad31ac	0.0845674
129	0x3e3512f7	0.17683016
130	0x3d645565	0.0557455
131	0x3d83ce23	0.06435802
132	0x3e231eec	0.15929765
133	0xbab1b311	-0.0013557394
134	0x3dc2b36f	0.095068805
135	0x3cb86cbf	0.022512792
136	0xbd7181fe	-0.05896186
137	0xba8bab28	-0.0010655867
138	0x3d660791	0.05615956
139	0xbd383901	-0.04497624
140	0x3c3b08e2	0.011415692
141	0x3d1f8717	0.03894719
142	0xbd4fcec8	-0.05073431
143	0xbdc7629d	-0.09735606
144	0xbd56bfad	-0.05242889
145	0x3d193db5	0.037412364
146	0x3ce90aac	0.028447472
147	0x3e22c6f1	0.15896203
148	0x3bc70276	0.0060732914
149	0xbce5e2f3	-0.02806232
150	0x3c83cf34	0.016090013
151	0x3d05bef9	0.03265283
152	0xbc6275a6	-0.013821995
153	0x3c4eca1c	0.012621429
154	0x3de8a258	0.113590896
155	0xbd0163f3	-0.03158946
156	0x3e090994	0.1338256
157	0x3c147b9e	0.009062676
158	0xbb58c4ff	-0.0033076403
159	0x3d934368	0.07190591
160	0x3df6c8aa	0.120499924
161	0xbdc42147	-0.0957666
162	0x3c27774e	0.010221316
163	0xbd8cd980	-0.06877422
164	0xbd2ed8f2	-0.042687364
165	0xbdb244b7	-0.087045126
166	0xbdf2ec61	-0.11861492
167	0xbdb9410a	-0.09045608
168	0xbd522569	-0.05130521
169	0xbe07c26c	-0.1325776
170	0xbde54965	-0.111956395
171	0x3df649d6	0.12025802
172	0x3df1c114	0.11804405
173	0xbce23fc5	-0.027618298
174	0x3e21ceba	0.15801516
175	0xbae42c65	-0.001740825
176	0x3cae2d84	0.021261938
177	0x3df41a6e	0.119191036
178	0x3d907857	0.07054203
179	0xbd94bdd4	-0.07262769
180	0x3ce2466d	0.027621472
181	0x3d3011d6	0.04298576
182	0x3d10d6d9	0.035361145
183	0x3d890320	0.06690049
184	0x3e338f65	0.1753517
185	0x3bca7ed7	0.0061796713
186	0x3dbf067b	0.09327408
187	0x3d65532e	0.05598753
188	0x3d09f11a	0.033677198
189	0x3e4724e1	0.19447662
190	0x3b495ad5	0.0030724306
191	0x3d033d6b	0.032040995
192	0x3e136d9e	0.14397284
193	0x3c0d2647	0.008615083
194	0x3c1d4c2e	0.009600682
195	0xbd6c56e6	-0.05770006
196	0x3d3bbb61	0.045832995
197	0xbe0f38e5	-0.13986547
198	0xbacbcad0	-0.0015548114
199	0xbcb5127f	-0.022103546
200	0xbc473f31	-0.012161062
201	0x3df8b54f	0.12143957
202	0x3dc2df17	0.09515207
203	0x3cf1fcaf	0.029539434
204	0x3e31f8ea	0.1738011
205	0xbd5d1355	-0.053973515
206	0x3ddc0544	0.10743192
207	0x3baa2123	0.0051919385
208	0x3d20f001	0.039291386
209	0xbd0d89d3	-0.034555268
210	0xbd514485	-0.051090736
211	0xbd87ab6c	-0.06624493
212	0xbccd1259	-0.025033163
213	0xbd38b586	-0.04509499
214	0xbdb98bbe	-0.09059857
215	0xbcb0fc75	-0.021604756
216	0x3e1da17e	0.15393636
217	0x3cb9d43a	0.022684205
218	0xb90469d5	-0.00012627926
219	0x3e2826a8	0.16420996
220	0xbc9af219	-0.01891427
221	0xbc635c0a	-0.013876924
222	0x3e3bc937	0.18338476
223	0x3d41cfc7	0.047317293
224	0x3d07db7e	0.03316831
225	0x3e1a1738	0.1504792
226	0x3db3cdcb	0.08779486
227	0x3cac0428	0.020998076
228	0x3b4846da	0.003055981
229	0x3db59b80	0.0886755
230	0x3e212acc	0.15738982
231	0x3db06e4e	0.08614789
232	0xbd0fc679	-0.035101388
233	0x3d1223fe	0.035678856
234	0x3cae42c7	0.021272076
235	0x3db6ff52	0.08935417
236	0x3c157749	0.009122678
237	0x3d448e9c	0.047987565
238	0xbc83f263	-0.01610679
239	0xbd946276	-0.072453424
240	0xbd5310b5	-0.051529605
241	0xbd51ef02	-0.051253326
242	0xbdfb0e71	-0.12258614
243	0x3df3a89e	0.118973956
244	0x3d3ec0a2	0.046570428
245	0xbdd02561	-0.101633795
246	0x3d884232	0.06653251
247	0x3d493df3	0.049131345
248	0xbc0b25ba	-0.008492881
249	0x3de3438d	0.11096869
250	0x3d8eae92	0.069668904
251	0x3cad7a35	0.021176437
252	0x3c9aef06	0.018912803
253	0xbcce3a34	-0.025174238
254	0xbd8ed71a	-0.06974621
255	0x3deacfff	0.11465453

cnn2.bias f4 [32]
0	0xbdd8277e	-0.105544075
1	0xbcef2737	-0.029193504
2	0xbd0f8bc3	-0.035045397
3	0x3b83c7ff	0.004021644
4	0xba3f4506	-0.0007296357
5	0xba59b4db	-0.00083048426
6	0xbd9cea7a	-0.0766191
7	0x3d90cd6f	0.07070433
8	0xbd9544dc	-0.072885245
9	0xbd325db6	-0.0435464
10	0x3cfa6f33	0.030570602
11	0x3a25c344	0.00063233473
12	0xbbc13d7b	-0.0058972216
13	0x3be91850	0.007113494
14	0xba8e91d1	-0.0010877197
15	0xbddea5ea	-0.10871489
16	0x3de68c5b	0.112572394
17	0x3bd29ba3	0.0064272447
18	0xbd1c31ce	-0.038133435
19	0xbdcad606	-0.09904103
20	0xbde43873	-0.11143579
21	0x3c9a6cc1	0.018850686
22	0xbd57c9c9	-0.05268267
23	0xbd24f406	-0.04027178
24	0xbb90b058	-0.004415553
25	0xbdaf3f63	-0.08557012
26	0xbd5e763f	-0.054311987
27	0xbe06cdff	-0.13164519
28	0x3dc572a1	0.09641004
29	0xbd741c33	-0.059597205
30	0x3dbe7c58	0.093010604
31	0xbc0bda6e	-0.008535964

cnn3.weight f4 [32, 32, 3, 3]
0	0x3d0dc256	0.03460916
1	0xbb35244a	-0.0027640038
2	0x3c63f1fc	0.013912674
3	0x3c44a4c9	0.0120021785
4	0xbd948e6e	-0.07253729
5	0xbd3f50e6	-0.04670801
6	0xbc464cc7	-0.012103266
7	0xbcc21594	-0.02369193
8	0x39b5e497	0.00034693323
9	0x3e27955d	0.16365571
10	0x3d292d1c	0.041302785
11	0xbd96823a	-0.073490575
12	0x3d93fdc1	0.07226134
13	0xbd2dfc87	-0.042477157
14	0xbe15ad83	-0.1461697
15	0xbd92c277	-0.071659975
16	0xbd3cc8fc	-0.04609011
17	0xbdbbc32a	-0.09168084
18	0xbb76b543	-0.0037644661
19	0xbd308226	-0.04309287
20	0xbd8a47fe	-0.06752013
21	0x3d6dd3e6	0.05806341
22	0xbd57325c	-0.05253826
23	0xbd9b3be2	-0.07579781
24	0x3d48175a	0.048850395
25	0x3d6dcf1f	0.058058854
26	0xbc75f97b	-0.015013094
27	0x3d14a879	0.03629348
28	0xbbcafa22	-0.006194369
29	0x3c0c525e	0.00856456
30	0x3d4fa9eb	0.050699156
31	0xbd55724f	-0.052110966
32	0xbd502747	-0.050818708
33	0x3c615ba7	0.013754762
34	0xbcd28cc5	-0.02570189
35	0x3cd57bb0	0.026059955
36	0x3dd34aa4	0.10316971
37	0x3ccffc97	0.025388999
38	0xbc32b129	-0.010906496
39	0xbcce5ec1	-0.025191667
40	0xbdcb04f9	-0.09913058
41	0x3be46ddd	0.0069711045
42	0x3a98c427	0.0011655138
43	0x3d7dc7c3	0.061958086
44	0xbc16db79	-0.0092076
45	0x3df01b43	0.1172395
46	0xbda04811	-0.078262456
47	0xbc8914de	-0.016733583
48	0x3d090c73	0.033459138
49	0xbdc49d09	-0.096002646
50	0xbdc0bcd9	-0.0941102
51	0xbc7bd3dd	-0.015370336
52	0x3bbaa1a2	0.0056955377
53	0xbb674bf9	-0.0035293086
54	0x3a3c796f	0.0007189726
55	0x3cf4fa22	0.029904429
56	0xbd8063f2	-0.06269063
57	0xbd1ba527	-0.0379993
58	0xbb34f4a2	-0.0027611633
59	0xbcdf1a9b	-0.027234366
60	0x3d465a4c	0.048425958
61	0xbd610339	-0.054934714
62	0xbd233c71	-0.039852563
63	0xbd3e524c	-0.046465203
64	0x3debcef5	0.11514083
65	0x3d8eaf3b	0.06967016
66	0x3d2342cf	0.039858636
67	0xbbb2a2b1	-0.0054515232
68	0x3ddb6fb9	0.10714669
69	0x3d395e7c	0.045256123
70	0x3d826646	0.06367163
71	0x3db7394a	0.08946474
72	0xbc1ee427	-0.00969795
73	0x3cbb363e	0.022853013
74	0xbd6504a9	-0.055912647
75	0xbd8234b9	-0.06357712
76	0xbcf92a21	-0.030415596
77	0xbd5a1822	-0.05324567
78	0x3c3f5db1	0.011680053
79	0xbcaeb5bb	-0.02132689
80	0xbd7052e0	-0.058672786
81	0x3db8365d	0.08994744
82	0xbdac8200	-0.08423233
83	0x3c40edb5	0.011775424
84	0x3cbd1319	0.023080396
85	0xbdf16bc6	-0.11788134
86	0x3c695461	0.014241309
87	0xbcdf5262	-0.027260963
88	0xbce682ee	-0.028138604
89	0xbd60c80c	-0.05487828
90	0x3dac56bd	0.084149815
91	0x3dbe8876	0.093033716
92	0xbdc2e860	-0.09516978
93	0x3cb6677d	0.022266144
94	0x3c9f4708	0.01944305
95	0xbdaf37a9	-0.08555538
96	0xbd0293f0	-0.031879365
97	0x3d119da7	0.03555074
98	0xbcda1afb	-0.026624193
99	0x3d606592	0.054784365
100	0xbd99d9ba	-0.07512231
101	0xbd900d30	-0.07033765
102	0xbd2d26b6	-0.042273246
103	0xbdf0cc87	-0.117577605
104	0xbe091f6a	-0.1339089
105	0x3d58699f	0.052835103
106	0x3d176bcb	0.036968034
107	0xbcca3ba1	-0.024686636
108	0x3dd5291a	0.1040823
109	0x3e155787	0.1458417
110	0x3e183010	0.14862084
111	0xbcd9d225	-0.026589463
112	0x3e11c404	0.1423493
113	0x3cccda0a	0.025006313
114	0x3c3cd573	0.0115255
115	0x3cb50e5b	0.022101572
116	0xbcb56c36	-0.022146326
117	0x3c80fce4	0.015745588
118	0x3c615b44	0.01375467
119	0xbcb4255d	-0.021990472
120	0xbbb6f341	-0.0055831973
121	0x3d23a6ce	0.039954
122	0xbd2cc11d	-0.042176355
123	0x3cf77541	0.030207278
124	0x3d00f912	0.031487532
125	0x3d49d400	0.049274445
126	0x3dd75f3b	0.10516211
127	0xbc122c4d	-0.008921695
128	0xbd54da42	-0.05196596
129	0x3d641ea4	0.055693284
130	0xbd5cf2aa	-0.05394236
131	0xbd5affda	-0.053466655
132	0xbc98b306	-0.018640053
133	0x3c9c1ad3	0.01905576
134	0xbdcda9fd	-0.10042188
135	0x3b5a3ca0	0.0033300295
136	0xbd204c80	-0.039135456
137	0x3d4f24fd	0.050572384
138	0xbcbaac88	-0.022787347
139	0xbcd4e598	-0.025988385
140	0xbd506061	-0.050873164
141	0x3cc84a2a	0.024449427
142	0x3b811738	0.0039395355
143	0xbc3e1c18	-0.011603378
144	0x3d862d14	0.06551567
145	0x3e65697a	0.22403517
146	0x3e4a720f	0.19770072
147	0x3cc2f727	0.023799492
148	0x3dae3978	0.08507055
149	0x3df6872c	0.12037501
150	0x3cc3d196	0.02390365
151	0x3db275d9	0.08713884
152	0x3deb7072	0.114960566
153	0x3d97efa5	0.074187554
154	0x3db57547	0.088602595
155	0xbd951bd0	-0.072806954
156	0x3cf94c28	0.030431822
157	0x3d3e6cad	0.04649036
158	0xbd918857	-0.07106083
159	0x3bef87a5	0.0073098713
160	0x3c93a969	0.018025117
161	0xbd2a6b1a	-0.041606046
162	0xbcd2b62e	-0.025721636
163	0xbd8f0827	-0.06983977
164	0xbd8fd1e8	-0.07022458
165	0x3c9ddcf2	0.019270394
166	0xbd3d68f3	-0.046242665
167	0xbe022125	-0.12707956
168	0x3c4405b7	0.011964253
169	0xbdce48e1	-0.10072494
170	0xbd4603a3	-0.048343312
171	0xbd515f2d	-0.051116157
172	0x3b874e1d	0.004129185
173	0x3d2a2e9f	0.041548368
174	0x3cc36568	0.023852065
175	0xbda5c4ad	-0.080941536
176	0xbb64fc82	-0.0034940545
177	0x3b8e7c20	0.004348293
178	0xbd803385	-0.062598266
179	0x3c6ec491	0.014573232
180	0xbd29c96f	-0.041451868
181	0xbcc99c18	-0.024610564
182	0x3d19117d	0.037370194
183	0xbd0d6f61	-0.034530047
184	0xbdc34fe7	-0.095367245
185	0xbd07913f	-0.0330975
186	0x3b0c3e2d	0.0021399364
187	0xbd555686	-0.05208447
188	0xbcca834a	-0.024720807
189	0x3da0029f	0.07813
190	0x3dd4dab6	0.10393278
191	0xbd06ce3b	-0.03291152
192	0x3ba29a06	0.0049622087
193	0x3c6e7ca7	0.014556087
194	0xbd215a32	-0.039392658
195	0xbd3e3d06	-0.046444915
196	0x3c8506ed	0.016238654
197	0xbdf814f9	-0.12113375
198	0xbcdc5f6a	-0.026900966
199	0xbdcdef0c	-0.1005536
200	0xbd149578	-0.036275357
201	0xbd805004	-0.06265262
202	0xbdeb1eef	-0.114805095
203	0xba4d7f6f	-0.00078391185
204	0xbd4da73b	-0.05020831
205	0xbd360920	-0.044442296
206	0x3cb2ba59	0.021817373
207	0x3d2f8395	0.042850096
208	0x3c88b4ef	0.016687838
209	0x3d9d6fbe	0.07687329
210	0x3cb2fd1d	0.02184921
211	0xbd262021	-0.040557984
212	0xbc671357	-0.014103732
213	0xbc99d128	-0.018776491
214	0x3dbbd09b	0.09170648
215	0x3c8cd776	0.017192584
216	0x3d807770	0.06272781
217	0xbc657773	-0.01400553
218	0xbd489369	-0.048968706
219	0xbc795212	-0.015217321
220	0xbd84a179	-0.06476111
221	0xbd9dc6e6	-0.077039525
222	0xbbd5a4d5	-0.0065198936
223	0x3d30d9f3	0.043176603
224	0xbc374408	-0.0111856535
225	0x3d164b3f	0.036692854
226	0xbcfe141f	-0.031015454
227	0x3b3fcfa0	0.0029268041
228	0xbcbe7a3e	-0.023251649
229	0xbd70060f	-0.058599528
230	0x3c8ad9fe	0.01694965
231	0xbc92d44a	-0.017923493
232	0x3d4d3f65	0.050109286
233	0x3d6afc15	0.05736931
234	0x3dc536ee	0.09629618
235	0x3b467aeb	0.0030285667
236	0x3b464db9	0.0030258729
237	0x3cec14f8	0.028818592
238	0xbd4680cd	-0.048462678
239	0xbbb6f80c	-0.0055837687
240	0xbc66a7b6	-0.014078071
241	0x3cb90acd	0.022588158
242	0xbd20b56c	-0.039235517
243	0x3c132250	0.008980349
244	0x3d40f420	0.047107816
245	0xbc8c0bd7	-0.01709549
246	0xbbea4962	-0.007149861
247	0xbd33f01a	-0.04393015
248	0xbd047e17	-0.03234681
249	0xbb9edbe3	-0.00484799
250	0xbc960de6	-0.018317174
251	0xbca5dee2	-0.02024788
252	0x3cb54896	0.022129338
253	0x3b18e35d	0.0023328878
254	0x3dcd01c9	0.10010106
255	0xbcdbfab6	-0.026852947

cnn3.bias f4 [32]
0	0x3c9bf347	0.019036902
1	0x3d323656	0.04350885
2	0xbdc247e6	-0.0948637
3	0xbc935526	-0.017984938
4	0x3d050ae8	0.032481104
5	0xbd01e22d	-0.03170984
6	0xbd098468	-0.033573538
7	0x3dee1682	0.11625387
8	0xbc21faf0	-0.009886488
9	0xbd794984	-0.060861126
10	0x3c23072e	0.009950442
11	0xbcd29928	-0.025707796
12	0xbc5ca97b	-0.013468142
13	0x3d4fa701	0.050696377
14	0xbc97d09c	-0.01853209
15	0x3dff547b	0.12467285
16	0xbd90f418	-0.07077807
17	0x3b9ce948	0.0047885515
18	0xbd2da559	-0.042394016
19	0xbd823cf2	-0.06359281
20	0xbd914d8d	-0.0709487
21	0xbcf3d65d	-0.029765302
22	0xbd8f6457	-0.0700156
23	0xbd773961	-0.060357455
24	0xbc4bb405	-0.012433057
25	0xbd0f5d0b	-0.035000842
26	0xbd882b61	-0.06648899
27	0x3ce4d731	0.027934643
28	0xbc088537	-0.008332542
29	0x3dc8a888	0.0979777
30	0x3cb1ef25	0.021720478
31	0x3e19c3e6	0.15016136

fc1.weight f4 [128, 768]
0	0xbcdb4905	-0.026768217
1	0x3ccb35a7	0.024805857
2	0x3ca16e82	0.019706015
3	0x3c7291f6	0.014805308
4	0x3cfb9bef	0.030714003
5	0xbd035408	-0.03206256
6	0xbd421869	-0.04738656
7	0x3c80dc25	0.015729973
8	0xbc9113de	-0.017709669
9	0xbc336b68	-0.010950901
10	0xbcc3377c	-0.023830168
11	0x3a0cb680	0.0005367771
12	0xbad88cf8	-0.0016521504
13	0x3b330199	0.0027314185
14	0xbc1e911a	-0.00967815
15	0x3c9d43dc	0.019197397
16	0x3bfb3cfd	0.0076671825
17	0xbc41de34	-0.0118327625
18	0xbc2ee382	-0.010674359
19	0x3c355424	0.011067424
20	0xbcbeebfe	-0.02330589
21	0x3c89c7ba	0.01681887
22	0xbce79810	-0.028270751
23	0xbc4f1f6e	-0.012641771
24	0xbd1658af	-0.03670567
25	0xbbe4ff9b	-0.0069884784
26	0xbd15847f	-0.03650331
27	0xbc0f9571	-0.008763657
28	0x3b3ae2ab	0.0028516452
29	0xbcfc96d9	-0.030833649
30	0xbc9b90c0	-0.01898992
31	0x3cf10eb3	0.029425954
32	0xbd203e6e	-0.039122038
33	0x3c817620	0.015803397
34	0x3d276c23	0.04087461
35	0xbc456174	-0.01204716
36	0x3cd5999a	0.02607422
37	0x3d0f68ef	0.03501218
38	0xbc02f4b8	-0.007992916
39	0xbaaf366c	-0.0013367659
40	0x3c210f00	0.009830236
41	0xbc0f35b0	-0.008740827
42	0x3cbe11fe	0.023201939
43	0xbd5793ac	-0.052631065
44	0xbd27e08a	-0.04098562
45	0x3c9245e1	0.017855586
46	0xbcfdfdce	-0.031004813
47	0xbd2dceeb	-0.04243366
48	0xbd262f07	-0.040572193
49	0x3c3401fc	0.010986801
50	0xbd028e40	-0.03187394
51	0xbd06febb	-0.032957774
52	0xbd1ca7b1	-0.03824586
53	0xbbb30d76	-0.005464251
54	0x3c052434	0.008126307
55	0xbc794d2c	-0.015216153
56	0xbc0a9392	-0.008458035
57	0xbcaf2f90	-0.021384984
58	0x3c1a5791	0.0094202915
59	0x3ce8fc4f	0.028440623
60	0xbd0cb2dd	-0.034350265
61	0xbc950a44	-0.018193372
62	0xbcf7cf62	-0.030250255
63	0xbd3e80f1	-0.046509687
64	0x3cbfe727	0.023425652
65	0x3c4b95df	0.012425869
66	0xbc6e6146	-0.014549559
67	0xbc23b8b9	-0.009992772
68	0xbd1b5cc8	-0.03793028
69	0x3c9da1c3	0.019242173
70	0x3cad677c	0.02116751
71	0xbd0f0c42	-0.0349238
72	0xbbfb4928	-0.007668633
73	0x3c529e30	0.012855098
74	0xbcc3c871	-0.023899289
75	0xbc910c46	-0.017706048
76	0x3ce8d836	0.02842341
77	0x3c8c2119	0.017105626
78	0x3cbef76d	0.023311341
79	0x3b9cdbd5	0.004786948
80	0xba9169a1	-0.0011094102
81	0x3be0e81b	0.0068636066
82	0x3c80da9b	0.01572924
83	0xbcb5af96	-0.022178452
84	0xbd02ed87	-0.031964805
85	0x3cd1ae7c	0.025595896
86	0x3a92db12	0.0011204204
87	0xbc23e1a6	-0.010002529
88	0x3bdad931	0.0066787233
89	0xbcc191b3	-0.023629045
90	0xbb32a2e5	-0.0027257737
91	0xbce0708f	-0.027397422
92	0xbb03c261	-0.0020104873
93	0xbd21513d	-0.039384115
94	0x3b21857a	0.0024646209
95	0x3d028053	0.03186066
96	0x3cc3850a	0.023867149
97	0xbd017de2	-0.03161419
98	0x3b3e7e5b	0.0029067013
99	0x3b93ae32	0.0045068497
100	0xba498cf4	-0.0007688545
101	0x3b9b284a	0.0047350274
102	0xbcbd569f	-0.023112593
103	0xbc07594f	-0.008261039
104	0xbd1c9e22	-0.038236745
105	0xbc47bf8a	-0.012191663
106	0xbc890713	-0.016727006
107	0xbbda9901	-0.0066710715
108	0x3c65b5cd	0.014020395
109	0xbbf00107	-0.007324341
110	0xbc871bdb	-0.016492775
111	0xbd1493e8	-0.036273867
112	0x3c09f85a	0.008421028
113	0x3c2221e2	0.009895774
114	0x3c3b7874	0.0114422925
115	0xbce5b2e1	-0.028039398
116	0x3c6a1e1f	0.014289408
117	0x3a03511e	0.0005009341
118	0xbc901d87	-0.017592205
119	0x3ae8f82f	0.001777416
120	0x3ce80383	0.028321987
121	0xbd21f65d	-0.03954159
122	0x3bbe9334	0.005815888
123	0x3c3a8acd	0.011385632
124	0xbcff7154	-0.031181969
125	0xbc2032cc	-0.009777736
126	0x3ae2ed00	0.0017313063
127	0xbd06cc7c	-0.032909855
128	0x3d1904ab	0.037357967
129	0x3ca03466	0.019556236
130	0x3c4cb1a5	0.012493526
131	0x3b8cc04b	0.004295384
132	0x3cce35d0	0.025172144
133	0x3b4ca03d	0.003122344
134	0xbc86a11a	-0.016434241
135	0xbcc53cda	-0.024076868
136	0xbd0601d2	-0.03271658
137	0x3c3dc428	0.011582412
138	0x3c80ce26	0.0157233
139	0x3cd989e0	0.026555002
140	0x3b8f45cf	0.0043723355
141	0x3c9b91bc	0.01899039
142	0x3b428f98	0.002968764
143	0xbd04240d	-0.032260943
144	0xbcc59352	-0.0241181
145	0x3c4bdd70	0.0124429315
146	0x3d0b5bb0	0.034022987
147	0x3ce048c0	0.02737844
148	0x3b311130	0.0027018301
149	0xbc403aa2	-0.011732729
150	0x3cdd05cc	0.026980303
151	0x3d10e746	0.03537681
152	0x3d0de2b6	0.034640037
153	0x3c200fc0	0.00976938
154	0x3cb1a332	0.021684263
155	0xbbc6da74	-0.006068522
156	0xbca6c466	-0.020357322
157	0xbbf0fc0c	-0.007354265
158	0x3d0b25f4	0.03397174
159	0x3d0de7f4	0.034645036
160	0x3c813944	0.015774377
161	0x3c927540	0.017878175
162	0x3c1c6464	0.009545419
163	0xbca47077	-0.020073159
164	0xbbfd5a7c	-0.007731734
165	0x3d0695a5	0.032857556
166	0xbcf91b4e	-0.030408528
167	0xbc4448fa	-0.01198029
168	0xbc63460b	-0.01387168
169	0x3c3b356b	0.01142631
170	0xbae7abbb	-0.0017675081
171	0xbbee84f2	-0.007279032
172	0x3b63dbea	0.003476853
173	0xbc44d9d9	-0.01201483
174	0xbd71425b	-0.058901172
175	0xbc8dd18c	-0.017311834
176	0x3cd26375	0.02568219
177	0xbc9ef1d2	-0.019402418
178	0xbcae79ec	-0.021298371
179	0xbd24bf03	-0.040221225
180	0xbbf4bd6e	-0.007468871
181	0xbd107aee	-0.035273485
182	0x3ca60adf	0.020268856
183	0x3a2d58fa	0.0006612685
184	0xbd37aca4	-0.044842377
185	0xbd2f10f9	-0.042740796
186	0xbc17b9d7	-0.009260616
187	0xbd2871d2	-0.041124173
188	0xbb7f4663	-0.0038951866
189	0xbcad7d5b	-0.021177938
190	0x3c165038	0.009174399
191	0xbd2ed224	-0.042680874
192	0x3b0a3cdf	0.002109341
193	0xba8e62ff	-0.0010863243
194	0xbba7488f	-0.005105085
195	0xbd0791ec	-0.033098146
196	0xbd004f2c	-0.031325504
197	0x3cecbcb0	0.028898567
198	0xbac73e1c	-0.0015201005
199	0xbc32a751	-0.010904149
200	0xbcf56ffc	-0.029960625
201	0xbc4a9551	-0.012364701
202	0x3c31b43b	0.010846193
203	0xbcf84404	-0.03030587
204	0xbcabedbe	-0.020987388
205	0xbcad81a9	-0.02117999
206	0xbc004616	-0.00782921
207	0xbc59b7dd	-0.013288465
208	0x3c9e69e2	0.019337598
209	0xbcb5fd97	-0.022215648
210	0x3c306022	0.010765107
211	0xbc11f677	-0.008908859
212	0x3ca60dab	0.02027019
213	0xbd0dd845	-0.03463008
214	0x3d038264	0.032106772
215	0x3cda44c0	0.02664411
216	0xbd0d1147	-0.034440305
217	0xbd17fabd	-0.037104357
218	0xbd18d97a	-0.037316777
219	0x3cc54fd0	0.02408591
220	0xbc1031ea	-0.008800963
221	0x3c5e6f19	0.013576292
222	0x3d04d7cf	0.032432374
223	0xbd135305	-0.035967845
224	0xbc8da083	-0.017288452
225	0xbc59b4e7	-0.013287759
226	0x3c92e109	0.01792957
227	0x3c8a0b19	0.016850995
228	0xbcd1745e	-0.025568184
229	0xbcc21492	-0.02369145
230	0x3ccab827	0.024746014
231	0x3d0664d8	0.032811016
232	0x3be9e2eb	0.0071376464
233	0xbc960df1	-0.018317195
234	0x3c4034d9	0.01173135
235	0xbadb4aeb	-0.0016730701
236	0xbca68d45	-0.020331034
237	0x3cbf2ee4	0.023337789
238	0xbd1c4c82	-0.0381589
239	0xbcdb7b61	-0.02679223
240	0x3cb22419	0.021745728
241	0x3a98c45e	0.0011655202
242	0x3d001183	0.0312667
243	0xbd15c4f4	-0.036564782
244	0x3c2b8350	0.010468319
245	0x3d08d2b4	0.033404067
246	0x3a2b7f6b	0.0006542119
247	0x3c373f1a	0.011184478
248	0xbcf840b6	-0.030304294
249	0xbd0ed70f	-0.034873065
250	0x3c0814ec	0.008305769
251	0x3ca51ac5	0.020154366
252	0xbc9f0b8f	-0.019414691
253	0xbbe30900	-0.006928563
254	0x3ce9101c	0.028450064
255	0xbd00c9d1	-0.031442467

fc1.bias f4 [128]
0	0x3cc7ae0b	0.024374982
1	0xbc1190a0	-0.008884579
2	0x3c70b770	0.014692172
3	0xbd251562	-0.040303595
4	0xbcd307e1	-0.025760593
5	0x3cd4b654	0.025965847
6	0xbd040a9d	-0.032236684
7	0xbd277081	-0.040878776
8	0x3b99e3fb	0.004696367
9	0x3c7d6fb6	0.0154685285
10	0xbcab9724	-0.020946093
11	0xbce60c84	-0.02808214
12	0xbd0faca2	-0.035076745
13	0xbd0d0342	-0.034426935
14	0xbd1b3838	-0.03789541
15	0xbc8b3d5b	-0.01699703
16	0xbd171369	-0.036883745
17	0xbca316b2	-0.019908283
18	0x3d7bac2f	0.061443504
19	0xbaff5b94	-0.0019482248
20	0xbba79402	-0.0051140795
21	0x3dc62ef2	0.09676923
22	0xbd2fe157	-0.04293951
23	0x3da750f2	0.08169736
24	0xbd453adb	-0.048151832
25	0x39199a3e	0.00014648677
26	0xbbbac926	-0.0057002483
27	0xbcf05da1	-0.02934152
28	0xbcdf2369	-0.027238565
29	0x3c8d2c0e	0.017232921
30	0xbd1242e2	-0.035708316
31	0x3caa7de5	0.020811984
32	0xbd0e1e3c	-0.034696802
33	0x3c6d59aa	0.01448671
34	0xba071145	-0.00051524147
35	0xbd3e2063	-0.046417605
36	0xbcccdae9	-0.025006728
37	0xbd206cbe	-0.039166205
38	0xbcb76b95	-0.022390166
39	0x3b51edc7	0.0032032595
40	0x3ca8dad5	0.02061216
41	0x3dc59df8	0.09649271
42	0xbd04b1bb	-0.03239606
43	0xbcc64c70	-0.02420637
44	0xbc9d6654	-0.019213833
45	0xbd131811	-0.035911623
46	0x3bd1d6fc	0.006403802
47	0x3bcd840e	0.0062718457
48	0xbd11f866	-0.03563728
49	0x3cf0ad48	0.029379502
50	0x3d0acca8	0.03388658
51	0x3cd53df6	0.026030522
52	0x3bbc1d24	0.0057407785
53	0x3dc2d24f	0.095127694
54	0xbbee91df	-0.007280573
55	0xbd1413d4	-0.036151722
56	0xbd1097a5	-0.03530087
57	0x3bfd2cba	0.007726279
58	0xbc8df625	-0.017329285
59	0xbcb67e40	-0.022276998
60	0xbd29930c	-0.0414
61	0x3dbbcc49	0.09169824
62	0xbd0b2838	-0.033973902
63	0xbcccb258	-0.024987385
64	0xbc8038a5	-0.01565201
65	0x3ccf561a	0.025309611
66	0x3deee9e2	0.11665703
67	0xbbc84a7a	-0.006112394
68	0x3c42722e	0.011868043
69	0x3c8c32ee	0.017114129
70	0xbbcf1a8f	-0.0063203047
71	0x3ba3b54c	0.0049959775
72	0xbc0abc7c	-0.00846779
73	0x3c37fef0	0.011230215
74	0xb9523993	-0.00020048609
75	0x3c3f61e1	0.011681051
76	0xb71cd6bf	-9.348324e-06
77	0xbd108ff2	-0.035293527
78	0x3c24c5eb	0.010056953
79	0xbb9630c7	-0.0045834514
80	0xbc8cf194	-0.017205037
81	0xbbdf9ee9	-0.0068243635
82	0x3be9b3ed	0.0071320445
83	0x3caae6c8	0.020861998
84	0x3c05824b	0.00814874
85	0x3cdfdbe4	0.027326532
86	0xbcecac97	-0.028890891
87	0xbcd58422	-0.026063982
88	0xbd1cda5b	-0.038294178
89	0x3daa9216	0.08328645
90	0xbd8907c1	-0.06690932
91	0x3de9ac18	0.114097774
92	0x3c294104	0.010330442
93	0xbcb053f3	-0.021524405
94	0xbad9abbd	-0.0016606968
95	0xbd247517	-0.040150728
96	0x3ae0e08b	0.0017156763
97	0xbb9051e6	-0.0044042943
98	0xbbe2c3ca	-0.0069203125
99	0x3c35a84d	0.011087489
100	0xbd13e8ce	-0.03611069
101	0xbc2e1301	-0.010624648
102	0xba011370	-0.0004923856
103	0x3c91188b	0.017711898
104	0x3a90a9e1	0.0011036956
105	0xbc77a3da	-0.015114749
106	0xbd1be2c8	-0.038058072
107	0xbc84139c	-0.016122632
108	0x3df138bb	0.117783986
109	0x3c567b46	0.013090914
110	0xbbff73e1	-0.0077957963
111	0xbc532ecf	-0.012889578
112	0x3dd5b726	0.104353234
113	0x3cae0f36	0.021247488
114	0xbd79e13f	-0.061005827
115	0xbd0826bd	-0.03324007
116	0x3c2b49f4	0.0104546435
117	0x3c8e65bf	0.0173825
118	0xbcaffb2c	-0.021482073
119	0x3d6a54de	0.057209842
120	0xbd712a70	-0.058878362
121	0xbc42dcf4	-0.0118935
122	0xbc4ef96a	-0.012632707
123	0xbd4c0d97	-0.049817648
124	0x3dff0ee3	0.12454011
125	0xbd2eb330	-0.042651355
126	0x3d079214	0.033098295
127	0xbd6f806b	-0.05847208

fc2.weight f4 [128, 128]
0	0xbdb22dbd	-0.0870013
1	0xbd717dce	-0.058957867
2	0xbc2c4532	-0.010514544
3	0xbc3831d8	-0.011242352
4	0x3cf56e36	0.02995978
5	0x3d747ab9	0.05968735
6	0xbd334ab1	-0.043772403
7	0x3d554269	0.052065287
8	0xbb066cce	-0.002051163
9	0x3d08b23d	0.033373106
10	0x3ce2653d	0.027636165
11	0xbd048aa1	-0.03235877
12	0xbda4b388	-0.08042055
13	0x3d0f4a94	0.034983233
14	0x3da7e7dd	0.08198521
15	0xbd397d7e	-0.045285694
16	0xbd3c8e73	-0.046034288
17	0x3cef315e	0.029198345
18	0x3b6f02df	0.0036470217
19	0x3d2be00e	0.041961722
20	0x3dafa94f	0.08577215
21	0x3d77ceae	0.06049984
22	0x3c89aad2	0.016805086
23	0xbd3857f7	-0.045005765
24	0x3d58cb7e	0.05292844
25	0xbb18ef80	-0.0023336112
26	0x3d8604f3	0.06543913
27	0xbbcd4e96	-0.0062654717
28	0xbc686a18	-0.014185451
29	0xbb06a055	-0.0020542343
30	0x3db7f099	0.08981437
31	0x3d62903e	0.05531334
32	0xbda3eea2	-0.080045
33	0xbd0ce64d	-0.03439932
34	0x3da1dfc7	0.0790401
35	0xbdc4673d	-0.09590004
36	0xbdb0e63c	-0.08637664
37	0x3db37876	0.087632105
38	0x3dabc303	0.08386805
39	0xbd83140d	-0.06400309
40	0xbd835cc0	-0.06414175
41	0xbd9bad10	-0.076013684
42	0x3ccf3064	0.02529163
43	0xbbe8c45c	-0.007103486
44	0xbd1e7d27	-0.038693573
45	0x3d9bcae9	0.076070614
46	0x3d64dba6	0.055873536
47	0x3ca77641	0.02044213
48	0xbd53e08a	-0.05172781
49	0xbda2b72c	-0.079450935
50	0xbc07636c	-0.00826345
51	0x3d2739d0	0.04082662
52	0x3d56b372	0.052417226
53	0x3de73d63	0.112910055
54	0xbc384928	-0.011247911
55	0x3db52454	0.0884482
56	0x3cfa3a20	0.030545294
57	0xbcd08124	-0.025452204
58	0xbc34a490	-0.011025563
59	0xbd9bb23f	-0.07602357
60	0xbca2527c	-0.019814722
61	0x3dcf234f	0.101141565
62	0xbdb0b1b9	-0.08627648
63	0x3dce890d	0.10084734
64	0xbd0d72c2	-0.03453327
65	0x3d13cc00	0.03608322
66	0x3df94f21	0.12173296
67	0xbd464a35	-0.048410613
68	0x3d6ee181	0.058320526
69	0xbd7d6b0c	-0.061869666
70	0x3d283318	0.04106435
71	0x3db1b507	0.08677106
72	0xbd2b2411	-0.041782442
73	0x3c6b2f20	0.014354497
74	0x3ad10b00	0.0015948713
75	0x3d17663a	0.036962725
76	0x3cc30f58	0.023811027
77	0x3d1bb59b	0.03801499
78	0xbbebce40	-0.007196218
79	0xbcba5384	-0.022744901
80	0xbc22fa3b	-0.009947355
81	0xbd9ce8e3	-0.07661607
82	0xbd534d23	-0.051587235
83	0x3bb9f454	0.005674878
84	0xbda37408	-0.079811156
85	0xbd720197	-0.059083547
86	0xbd833e61	-0.06408382
87	0x3d19f54a	0.03758744
88	0xbd594cd5	-0.05305179
89	0xbe203028	-0.1564337
90	0xbd4eb2cb	-0.05046348
91	0xbc7f9463	-0.015599343
92	0x3d351482	0.04420901
93	0x3d707f2a	0.058715023
94	0x3d0002b9	0.031252597
95	0xbd916870	-0.07099998
96	0x3c42e825	0.011896168
97	0xbd3d0eb8	-0.046156615
98	0x3d4d833e	0.05017399
99	0x3d1ed1fe	0.038774483
100	0x3d0eac9c	0.034832582
101	0xbd172dcc	-0.03690891
102	0x3d870c9d	0.06594203
103	0x3d9f7c15	0.07787339
104	0x3ccbeb14	0.024892367
105	0x3d4564f6	0.048191987
106	0x3c1246e8	0.008928038
107	0xbd222279	-0.039583657
108	0x3d34daa7	0.044153836
109	0xbd95e432	-0.073189154
110	0xbcbb90d0	-0.0228962
111	0x3cdbaa90	0.026814729
112	0x3d99f0a4	0.07516602
113	0xbcb90b00	-0.022588253
114	0xbd73e037	-0.05954
115	0xbd256010	-0.040374815
116	0xbd8896fd	-0.06669424
117	0xbd983dd6	-0.07433669
118	0xbdaee5de	-0.085399374
119	0xbda8b0a2	-0.08236815
120	0x3d03d04b	0.032181066
121	0xbc4236d8	-0.011853896
122	0xbd4f4de7	-0.050611403
123	0xbb179a21	-0.002313264
124	0x3d9af53f	0.07566308
125	0xbd05f75b	-0.0327066
126	0xbd8c512f	-0.06851422
127	0xbd512c67	-0.051067736
128	0xbd800d9e	-0.06252597
129	0xbcfef13e	-0.031120893
130	0xbdb48872	-0.088150874
131	0x3beb4690	0.0071800426
132	0xbaa4a49b	-0.0012561263
133	0x3c807ce1	0.015684547
134	0xbdca1a37	-0.09868281
135	0xbc3ca870	-0.011514768
136	0x3d8e8537	0.069590025
137	0x3d130a5b	0.035898548
138	0x3aaed528	0.0013338672
139	0x3d177cfe	0.036984436
140	0xbd208f51	-0.039199177
141	0x3b912d90	0.0044304803
142	0x3d4a2c26	0.04935851
143	0xbd3a39cc	-0.045465276
144	0x3d1e38a4	0.038628235
145	0x3d19c51c	0.037541494
146	0xbbb19ba7	-0.0054201665
147	0xbcbfb830	-0.023403257
148	0xbc07cf73	-0.008289206
149	0xbce5fc98	-0.028074548
150	0x3d9aad9b	0.07552644
151	0xbd659ce0	-0.05605781
152	0x3da8c751	0.082411416
153	0x3d5f50be	0.05452036
154	0xbd96e008	-0.07366949
155	0xbc2f7705	-0.010709529
156	0xbd9cce07	-0.07656484
157	0x3d3fe84a	0.046852387
158	0x3da9f031	0.08297766
159	0xbcf160bc	-0.029465072
160	0xbd0e236b	-0.034701746
161	0x3c872d6a	0.016501147
162	0xbd0b0e92	-0.033949442
163	0xbdbb5e26	-0.09148817
164	0xbd96bd0f	-0.07360279
165	0xbd3c7769	-0.046012316
166	0x3d157584	0.036489025
167	0xbda02185	-0.07818893
168	0xbd795df1	-0.060880605
169	0x3c8217f6	0.015880566
170	0xbcbe9fb0	-0.023269504
171	0xbd9ba7ac	-0.0760034
172	0xbd63e54f	-0.055638608
173	0xbccea0b0	-0.025223106
174	0x3ca3a66f	0.019976823
175	0xbc1a3b99	-0.009413623
176	0xbd89e322	-0.06732775
177	0x3d97fb79	0.074210115
178	0x3c9ad6c0	0.018901229
179	0xbd3b9d2e	-0.045804195
180	0xbc123010	-0.008922592
181	0x3ddf9d1e	0.109186396
182	0x3d401f23	0.046904694
183	0xbd941e12	-0.07232298
184	0xbd2a7b97	-0.04162177
185	0xbc468ce0	-0.012118548
186	0xbd85a588	-0.06525713
187	0x3c6a564d	0.014302802
188	0xbd8aacbe	-0.06771229
189	0x3d5de8a2	0.054176934
190	0xbca3e950	-0.020008713
191	0xbdcb466e	-0.09925543
192	0xbd45daf3	-0.04830451
193	0x3ccfef51	0.02538267
194	0x3d2e720b	0.04258923
195	0x3cd69494	0.026193894
196	0xbbcf1742	-0.006319911
197	0x3cbb72ac	0.022881828
198	0xbcc673ae	-0.024225082
199	0x3ce35e28	0.027754858
200	0xbc95bba6	-0.018277954
201	0xbd254bdb	-0.040355545
202	0xbc8611c4	-0.016365893
203	0x3c746d20	0.014918596
204	0xbd8f487d	-0.06996248
205	0x3cb45498	0.022012994
206	0xbd2014a3	-0.03908218
207	0x3d85d4cb	0.06534728
208	0xbc0b55b7	-0.008504323
209	0xbc729c52	-0.0148077775
210	0xbd56c64d	-0.052435208
211	0x3d8a3b72	0.067496195
212	0x3d0a594c	0.033776566
213	0xbd01b35c	-0.03166519
214	0xbc9f24ea	-0.019426782
215	0xbaeb2030	-0.001793867
216	0xbd1b7289	-0.037951026
217	0xbda74380	-0.081671715
218	0xbd98ec66	-0.074669644
219	0x3cf86cdd	0.030325348
220	0xbc0849e0	-0.008318394
221	0x3d3cccee	0.046093874
222	0xbcdd5cb9	-0.027021753
223	0xbdaba20c	-0.08380517
224	0xbd459d15	-0.04824551
225	0xbd927055	-0.07150332
226	0x3d4adeba	0.049528815
227	0x3c3f4488	0.011674054
228	0xbd3e73b0	-0.046497047
229	0x3cd01b58	0.025403664
230	0x3d8aa4cf	0.06769716
231	0x3d06f38e	0.032947116
232	0xbc3318a0	-0.010931164
233	0x3c65b0a8	0.014019169
234	0xbd75a19a	-0.05996857
235	0x3d32d75a	0.043662407
236	0x3de6edf9	0.112758584
237	0xbbff2602	-0.0077865133
238	0x3d1348f2	0.035958238
239	0x3d1ff7d2	0.0390547
240	0xbb2aa58e	-0.002603862
241	0x3d4e62be	0.050387137
242	0xbdd50e3c	-0.104031056
243	0xbd4fbda6	-0.050717972
244	0x3c6024c8	0.013680644
245	0x3d886e81	0.06661702
246	0xbda63a54	-0.08116594
247	0x3d5e84a5	0.05432572
248	0xbc9c1cc9	-0.019056695
249	0xbd8d61c5	-0.06903414
250	0x3d73af3d	0.059493292
251	0x3dcd939e	0.10037921
252	0x3e2a9599	0.1665863
253	0xbdb0c2b9	-0.086308904
254	0x3dac5d98	0.08416289
255	0x3d33c197	0.043885794

fc2.bias f4 [128]
0	0x3d5b6c8c	0.053570315
1	0x3d6e171a	0.0581275
2	0x3d30d72c	0.043173954
3	0x3d9af79b	0.07566758
4	0x3d5b5b62	0.053553946
5	0x3d9e4a37	0.07728999
6	0x3e29e0bf	0.1658964
7	0x3de917a6	0.11381464
8	0xbd38e9c1	-0.0451448
9	0x3dcfaa6c	0.10139927
10	0xbd5c3d0d	-0.05376916
11	0xbcb6a279	-0.02229427
12	0x3e1ba247	0.15198623
13	0x3d17bffc	0.037048325
14	0xbdcb0e6f	-0.09914862
15	0x3da6cdd2	0.08144726
16	0x3d8ba3cf	0.068183534
17	0x3dd6984c	0.10478267
18	0x3dc5d5bf	0.096599095
19	0xbaa72725	-0.0012752755
20	0xbd31eecd	-0.04344063
21	0x3db6d15d	0.089266516
22	0x3df6308d	0.12020979
23	0x3e5533ce	0.20820543
24	0x3e122940	0.14273548
25	0x3d1482fd	0.036257733
26	0x3deeb59c	0.11655733
27	0x3e19b4be	0.15010354
28	0xbb877a0a	-0.0041344212
29	0x3c17c69c	0.009263661
30	0x3da962fa	0.082708314
31	0x3d57704f	0.05259734
32	0x3e3bf8dc	0.18356651
33	0xbdbf0f63	-0.09329107
34	0x3e4e6962	0.20157388
35	0x3c0804d8	0.008301936
36	0x3d05b255	0.032640774
37	0x3e3fc056	0.18725714
38	0xbd836a67	-0.06416779
39	0xbc727ab2	-0.014799761
40	0x3d3203c0	0.043460608
41	0xbb83c118	-0.0040208213
42	0xbc8497a1	-0.016185584
43	0x3c565e73	0.013084042
44	0x3e36147a	0.17781249
45	0x3e00e674	0.12587911
46	0x3d791514	0.060811117
47	0x3c80ba83	0.015713936
48	0xbe06ef74	-0.13177282
49	0x3cb963d1	0.022630604
50	0x3df1a23d	0.117985226
51	0x3d51d3e6	0.051227473
52	0x3d219dca	0.03945712
53	0x3c014a90	0.007891312
54	0x3e433a71	0.19065262
55	0x3dd1ef51	0.10250724
56	0x3bfa028e	0.007629699
57	0x3db3ee3e	0.087856755
58	0xbd1a3978	-0.037652463
59	0x3d270f43	0.04078604
60	0x3accfdbb	0.0015639582
61	0xbd377831	-0.044792358
62	0x3e3e1f88	0.18566716
63	0xbd0eb8d0	-0.03484422
64	0xbc52ae67	-0.012858964
65	0xbd9c1fc3	-0.076232456
66	0xbd32c9a5	-0.043649334
67	0x3d981925	0.07426671
68	0x3dc54fa7	0.09634333
69	0x3dff4164	0.12463644
70	0x3dba7ee9	0.091062374
71	0x3d9a2830	0.075271964
72	0xbd6d9184	-0.058000103
73	0x3dc4e243	0.096134685
74	0x3c01309c	0.007885125
75	0x3cab993f	0.020947097
76	0x3cebd791	0.028789314
77	0x3d66e2c0	0.05636859
78	0xbe1286eb	-0.1430928
79	0xbc243bae	-0.010023994
80	0x3d1a2aab	0.037638348
81	0x3d475e88	0.048674136
82	0x3e448c0b	0.19194047
83	0x3c62c18e	0.013840092
84	0x3d30ceb4	0.043165877
85	0x3b9352fb	0.004495976
86	0xbd6346c9	-0.055487428
87	0x3dfc7eca	0.123288706
88	0xbe252620	-0.16127825
89	0x3e387bae	0.1801593
90	0x3e0b2648	0.13588822
91	0x3e31bfce	0.17358324
92	0x3ce978b2	0.028499935
93	0x3cae8fbf	0.021308778
94	0x3d0986fb	0.033575993
95	0x3e28ee81	0.16497232
96	0x3d1d7260	0.038439155
97	0x3c45976c	0.012060028
98	0x3cfddb32	0.03098831
99	0x3deb2e7a	0.11483474
100	0xbba5dd96	-0.0050618155
101	0x3cf5326f	0.029931275
102	0x3c11ffec	0.008911114
103	0x3d7052e8	0.058672816
104	0x3dca3162	0.098727
105	0x3e462771	0.19350983
106	0x3c797208	0.015224941
107	0x3cb2b91b	0.02181678
108	0x3e469332	0.19392088
109	0x3e218ab0	0.15775561
110	0xbce3aa3e	-0.027791139
111	0xbd8219c7	-0.06352573
112	0xbda9fb63	-0.08299901
113	0x3e3a930e	0.1822016
114	0x3dc21251	0.0947615
115	0x3e50bcb5	0.20384486
116	0x3e283054	0.16424686
117	0x3d5c1e67	0.05373993
118	0x3e8a5753	0.27019748
119	0x3e0bd04d	0.13653679
120	0x3e1ab329	0.15107407
121	0x3c80b578	0.015711531
122	0x3e18d83e	0.1492624
123	0xbdb9f738	-0.09080356
124	0x3e8f225c	0.27955902
125	0x3dd594f0	0.10428798
126	0xbd0b37d6	-0.033988796
127	0xbd2bf0d9	-0.041977737

fc3.weight f4 [128, 128]
0	0x3c0b8bcf	0.00851722
1	0xbca8bcad	-0.02059778
2	0xbe0f6aad	-0.14005537
3	0xbcfad0e3	-0.030617183
4	0xbc72e48c	-0.014824998
5	0x3d1eb029	0.03874222
6	0x3d12e7c4	0.03586556
7	0xbd0e082f	-0.034675773
8	0x3dc9a7d5	0.098464645
9	0xbd3d87cd	-0.046272088
10	0xbddb51a7	-0.10708933
11	0x3c8e4cd1	0.017370613
12	0x3cae81a1	0.021302046
13	0x3d22deaf	0.03976315
14	0x3d3f9566	0.046773337
15	0xbbaf822a	-0.005356093
16	0xbc9409e8	-0.01807113
17	0xbd74d9ff	-0.05977821
18	0x3cf37110	0.029716998
19	0x3bcf4b92	0.0063261474
20	0x3d3cb828	0.046074063
21	0xbcdb9ffd	-0.026809687
22	0xbd2c8955	-0.042123158
23	0xbc858141	-0.016296985
24	0xbd9ea39e	-0.07746051
25	0xbda0df3d	-0.07855079
26	0xbd95f210	-0.073215604
27	0x3c798d17	0.015231392
28	0xbcae498a	-0.0212753
29	0x3b71fe95	0.0036925424
30	0xbd03271e	-0.032019727
31	0xbc1a0b8e	-0.009402169
32	0x3b4e8459	0.003151199
33	0xbd9b3553	-0.0757853
34	0x3d3cebd3	0.046123337
35	0x3dfde838	0.12397808
36	0x3c9ea04d	0.019363547
37	0xbdc2e61c	-0.09516546
38	0xbd6ac81f	-0.057319757
39	0xbc9cbd55	-0.01913325
40	0xbd5cacb0	-0.053875625
41	0xbd734fc9	-0.05940226
42	0x3dcc6a62	0.099812284
43	0xbdb60c27	-0.088890366
44	0xbd61ae4c	-0.055097863
45	0xbd4751ed	-0.048662115
46	0xbcea34dd	-0.02858966
47	0x3db1c737	0.08680575
48	0xbd744623	-0.0596372
49	0x3da2c2a6	0.079472825
50	0x3d4d0475	0.05005308
51	0x3ddb9fd6	0.10723846
52	0x3c553f48	0.013015576
53	0xbd85ea3a	-0.06538816
54	0xbd1af444	-0.037830606
55	0xbd658942	-0.056039102
56	0xbcbefeea	-0.023314912
57	0xbbc25830	-0.005930923
58	0x3dde8ce0	0.108667135
59	0xbdf5abfb	-0.11995693
60	0x3dcfb8ab	0.101426445
61	0x3c272fef	0.010204299
62	0xbc938b3c	-0.018010728
63	0x3d2ac8a4	0.041695252
64	0x3c201a89	0.0097719515
65	0x3dbb46b1	0.09144343
66	0xbd350813	-0.044197153
67	0x3cb4c252	0.022065315
68	0x3cff95b7	0.03119932
69	0xbd262a56	-0.04056772
70	0xbcf66391	-0.030076774
71	0x3d0d58b5	0.034508426
72	0x3d9c4f7d	0.07632349
73	0x3cdf9135	0.02729092
74	0x3d20f392	0.039294787
75	0x3c8575ae	0.016291466
76	0xbd4893de	-0.048969142
77	0xbd76f540	-0.060292482
78	0xbb12b62f	-0.0022386422
79	0x3c540132	0.012939738
80	0xbdc65609	-0.09684379
81	0xba5c02c9	-0.0008392749
82	0xb9e00c91	-0.00042733972
83	0x3e2f2b49	0.17106356
84	0xbdb04d16	-0.08608453
85	0x3df69fd6	0.12042205
86	0x3dc80e70	0.09768379
87	0xbd959165	-0.073031224
88	0x3da6eb7f	0.08150386
89	0xbd39d0fa	-0.04536531
90	0x3be3d6b9	0.006953087
91	0x3cb513ea	0.022104222
92	0x3c13fef7	0.009032956
93	0x3d5e3842	0.05425287
94	0x3d72c6bc	0.05927156
95	0xbc92a8a7	-0.017902685
96	0x3c577e86	0.013152724
97	0x3d243ba1	0.04009593
98	0xbd89b53d	-0.067240216
99	0x3e21974e	0.15780374
100	0xbc0e1810	-0.008672729
101	0x3d587855	0.052849133
102	0x3cbab9a4	0.022793598
103	0xbd5dbcda	-0.05413518
104	0xbc4e582e	-0.012594266
105	0xbd08625e	-0.033296935
106	0xbd1f4de7	-0.038892653
107	0x3dbab035	0.0911564
108	0x3c40edb7	0.011775426
109	0x3d82da03	0.06389239
110	0x3d936e07	0.071987204
111	0xbd00d1ab	-0.031449955
112	0xbc5454ef	-0.012959703
113	0xbca70b5e	-0.020391162
114	0xbd9a1b01	-0.07524682
115	0xbd533e19	-0.051572893
116	0x3cd14743	0.025546676
117	0x3d6f2c9c	0.058392152
118	0xbd8443d6	-0.06458251
119	0xbda6c525	-0.08143071
120	0xbddb7992	-0.10716547
121	0xbdc0b715	-0.0940992
122	0x3b67ee62	0.003538989
123	0xbd72b848	-0.059257776
124	0x3d6861b8	0.056733817
125	0x3ca2d989	0.01987912
126	0xbd9ce755	-0.076613106
127	0x3d7fa3bb	0.062412005
128	0xbbf015c0	-0.0073268116
129	0x3dbe8b03	0.09303858
130	0x3c2d46cf	0.010575964
131	0x3dd84367	0.10559731
132	0x3d5373d3	0.05162413
133	0x3da0a403	0.07843783
134	0x3de7ae01	0.113124855
135	0x3e0ec801	0.13943483
136	0xbc50112c	-0.012699407
137	0x3dc4e143	0.09613278
138	0xbc0e1193	-0.008671182
139	0x3c0dbe5e	0.008651344
140	0x3d376d97	0.044782247
141	0x3d8970d3	0.06710973
142	0x3d1b89e7	0.03797331
143	0xbd0484e5	-0.0323533
144	0x3b7f3c3a	0.003894581
145	0x3dad8815	0.08473221
146	0xbc4a8ca6	-0.012362635
147	0x3db465c6	0.08808474
148	0xbd285c8a	-0.041103877
149	0x3dd2181d	0.102585055
150	0x3d803b82	0.0626135
151	0x3d90ed9b	0.0707657
152	0x3d846822	0.06465174
153	0xbd710e50	-0.05885154
154	0xbcaf1a1a	-0.02137475
155	0x3e030669	0.12795414
156	0xbdf77c1f	-0.12084221
157	0x3bb94b05	0.005654695
158	0x3d814156	0.0631129
159	0x3cd6670d	0.026172185
160	0x3d9e510d	0.07730303
161	0x3e1d9a0a	0.15390792
162	0x3d1922cc	0.0373867
163	0x3decf17e	0.115694985
164	0x3c0b1bdb	0.008490528
165	0xbcc1115b	-0.023567846
166	0xbd47de3b	-0.04879592
167	0xbda093df	-0.07840704
168	0x3db13af5	0.08653823
169	0xbdf1faf3	-0.11815443
170	0xbdc60eb2	-0.09670772
171	0xbc2df519	-0.010617518
172	0x3d96aadf	0.0735681
173	0x3d80ef85	0.06295685
174	0x3c8cde71	0.017195912
175	0xbda278bf	-0.07933187
176	0x3d633bd6	0.055476986
177	0xbcc0fe77	-0.023558838
178	0xbd00caa9	-0.03144327
179	0x3d3d6be1	0.04624546
180	0xbb730708	-0.0037083048
181	0x3d61a908	0.05509284
182	0xbc005086	-0.007831698
183	0x3d9490f4	0.0725421
184	0x3d72f5b0	0.059316337
185	0xbd9c70ce	-0.07638703
186	0xbdae9dca	-0.085261896
187	0x3cfe0326	0.03100736
188	0xbda43dbb	-0.08019587
189	0xbdba3654	-0.090923935
190	0x3d4ead25	0.050458092
191	0xbcd16e28	-0.025565222
192	0x3d99d5b9	0.075114675
193	0xbd998366	-0.074957654
194	0x3c54696c	0.012964588
195	0x3da9cdb5	0.08291189
196	0x3d1a0756	0.037604652
197	0x3de3bc57	0.11119907
198	0x3da41015	0.0801088
199	0x3d9c5302	0.0763302
200	0x3d67523c	0.05647491
201	0x3c722f62	0.014781805
202	0x3b0713d3	0.0020611181
203	0x3c899df3	0.016798949
204	0xbdaf0898	-0.08546561
205	0x3df73e50	0.12072432
206	0x3c850bc3	0.01624096
207	0xbd6e8751	-0.058234517
208	0x3e006675	0.12539084
209	0xbcff4483	-0.031160599
210	0x3de27be9	0.1105879
211	0xbc4e0ab1	-0.012575791
212	0x3d26ea0d	0.040750552
213	0x3d4f6f2a	0.050643124
214	0xbdae16f3	-0.08500471
215	0x3dbdbd5d	0.09264634
216	0x3bf8424a	0.0075762616
217	0xbd0d6699	-0.034521673
218	0xbba50d22	-0.005036966
219	0xbd939804	-0.07206729
220	0x3c71dcb1	0.01476209
221	0xbd040f4e	-0.03224116
222	0xbcfe0f89	-0.031013267
223	0x3d573c5d	0.0525478
224	0x3daa2dae	0.08309494
225	0xbd82e1ae	-0.06390701
226	0x3d8a8390	0.06763375
227	0x3d4aea00	0.049539566
228	0xbc2c9037	-0.01053243
229	0xbd0ecd97	-0.034864035
230	0x3d0a0f20	0.03370583
231	0x3e14ad38	0.14519203
232	0xba161b41	-0.0005726107
233	0x3daa4d73	0.083155535
234	0xbcf7ed08	-0.030264392
235	0x3d64eb72	0.0558886
236	0x3cd480cf	0.025940327
237	0xbcb64d34	-0.02225361
238	0xbd7fdbaf	-0.062465366
239	0xbc5cc533	-0.01347475
240	0x3d82adf0	0.06380832
241	0x3cbe5719	0.02323489
242	0x3d81947c	0.06327149
243	0xbb4af8a9	-0.0030970967
244	0x3d4ac362	0.049502738
245	0xbd417d41	-0.047238592
246	0xbde1138e	-0.10990058
247	0xbbe46871	-0.006970458
248	0x3ce7dd73	0.028303837
249	0xbda665a3	-0.081248544
250	0x3d23d4de	0.039997928
251	0xbdaeb96e	-0.08531462
252	0x3cce33c4	0.025171168
253	0x3d97cfc1	0.07412673
254	0xbdd82c6e	-0.10555349
255	0xbde6e543	-0.11274197
