models/dqn_model_epoch_54000.pth (torch, 595624 bytes, 14 tensors)

cnn1.weight f4 [16, 4, 5, 5]
00000000: 1663 47be e76f 333d bc08 c9bc c29b 49be
00000010: 765c 12be 427e 4bbe a291 46be fe62 94be
00000020: 749a 0ebd 0954 69bd 8db7 8bbe 2c40 24be
00000030: 66fb c1be cde0 15be 6fcc 153d b621 2abe
00000040: afac 5abe 8bd3 23bd b430 83be 3544 453c
00000050: 39f9 56be 9fa0 81be d923 41be 76bd 883d
00000060: 0a45 d93c 6f4c 70bc 11d5 0abd 50f2 c1bd
00000070: 98bc 10be 5455 e33c 017a 843d 34c0 ddbc
00000080: 604a d03c 91c6 88bd 3d82 93bd 0104 41bd
00000090: cf5e 0dbe b0fb 853c d966 093e 5f5d e8bc
000000a0: 49fd d3bd 8076 a73c 68a1 adbd 9110 a53c
000000b0: 1700 04be 2015 02bd 97b5 993d 3a40 2abd
000000c0: 8a5c 88bd f16e b2bd b7f3 a93d c8a7 27bc
000000d0: 4512 07be 6baf 52be 2c5a d4bc 3292 c7bc
000000e0: 271f b3bd ec79 373e ae02 4b3d c5f4 1dbe
000000f0: c30d 6a3e c384 6d3e 73a9 033e e0b4 f13c
00000100: 996c 57be 1cc8 90be 3859 233e 2bd5 903e
00000110: 42f3 05be 7fa0 2abe 6e03 24be bfc6 83bc
00000120: f56c a33e 8ddc 06be d034 1cbe 0892 bfbd
00000130: a856 7abe 2c86 b8bd a3c5 a7bb e6cc 87bd
00000140: 8964 2bbd d9a9 e13d a449 183e 93f0 c0bd
00000150: 4ce3 093d 5bf0 26be e924 963d b82a a53d
00000160: 6a97 bfbd 09e2 a8bd d08c 03be 3d3f b5bb
00000170: 57a3 983d 20d5 c8bc f8bd f2bd d001 b93d
00000180: 2154 f13d 2d76 3abe 298e 8fbd 7415 75bd
00000190: 0ff1 f2bd 1695 85be 7f2a 35be 0e60 0b3d
000001a0: 018e 67be 7142 01be 44cc a7bd ca2a adbb
000001b0: a64f bf39 4609 ae3b 2b10 0cbe 774d 4abd
000001c0: f901 943c 150b 81bd 4e25 7abd de71 1fbe
000001d0: 36ea 67be 02e8 33be ad8a bdbe ee1a 6ebd
000001e0: 3907 84be 4aae 62be 426b c5bd 2c13 8fbd
000001f0: ebd3 ffbd ed4a 3dbd d0f1 aa3d 11e9 6dbd
00000200: d27c 103d d5aa 06be eb0b 81bc 4df2 1dbd
00000210: 24a8 dfbd e2b4 bc3c 9805 55bb 7425 a6bc
00000220: 1b9c 4dbd a620 12be d8a2 46bd 6dc4 d2bc
00000230: 2b91 0bbe bce9 cbbc 1247 513d 511b 48bd
00000240: fc7c dabd 14aa 1fbb 23e1 053d d58f 8cbd
00000250: 775f d43d f2a1 e8bd e5da 42be c369 2d3e
00000260: b645 5fbd 5800 1b3e 4c57 17be c6ee 3ebe
00000270: 9376 373e fe16 51be 4cb5 a73d e4ca 20be
00000280: 7bde 8bbe c92f 80be 3caf b43d 1320 c63d
00000290: 1365 57be 3b49 7cbe 7cc5 0cbe ad31 843e
000002a0: a799 41be 70da 6ebe c563 c73e e3fd 973e
000002b0: b615 d43e 89e4 66bd 707b 29be 8912 543e
000002c0: c99f 083e 1df3 723e 909f 8dbc f87b a8bd
000002d0: 47a0 ef3d 09ee f4bd 05bf 1b3e f743 04be
000002e0: 40c8 e0bd 1281 28be cab9 bd3d 3852 813d
000002f0: 6948 a6bd a3cb 1cbe fe26 2bbe 198e ebbc
00000300: 44c6 abbd 0e2a 00be 4245 25bd 4304 0abe
00000310: 9cb4 f1bd d1a4 3b3e 7d25 03be af90 0ebe
00000320: 7006 99be ba42 99bd 2d94 b0be d0b4 463d
00000330: 690d 3abe ea39 64be cf76 1fbe 3ff8 42be
00000340: c346 1d3d 0ffc 9b3b ec3b 78be 53c0 5fbe
00000350: 1adf fabd 6538 e33c a38f 343e e280 7ebe
00000360: 9a66 6abe d06a 94be 76aa 21be 107e 093e
00000370: ab84 79be 7620 05be c2cf 74be f310 563d
00000380: af56 85bd 5222 05be 6eab 44bc e7d4 0ebe
00000390: 788d acbd 66b8 16bd 3214 a0bb 45b0 babc
000003a0: 88f6 7d3d 6b15 bcbd d632 e23c dba7 91bc
000003b0: d75d c93c 3bbb 4cbc aa84 cdbd f53f a4bb
000003c0: 3c51 7cbb 5c0e b2bd 46c8 123c 5f40 3b3e
000003d0: c6d7 11bc 5919 b0bd b15a 1abe 5831 6abd
000003e0: 66c4 b93d bce2 50bc 4494 993d 6364 fc3c
000003f0: a62b 503d 0130 cbbe 74a5 79bd a152 c73c
-0.19471392 0.04380789 -0.024540298 -0.19688323 -0.14293084 -0.19872382 -0.19391492 -0.28981775
-0.034815267 -0.056964908 -0.27288476 -0.16040105 -0.37887114 -0.14636536 0.036571916 -0.16614422
-0.21354936 -0.039996665 -0.25623095 0.012040188 -0.20993508 -0.25317857 -0.18861331 0.06676762
0.026522178 -0.014666661 -0.033894602 -0.094700456 -0.14134443 0.027750649 0.06468583 -0.027069189
0.02542609 -0.066784985 -0.07202575 -0.04712296 -0.13805698 0.016355366 0.1341814 -0.028364835
-0.10351045 0.020442247 -0.084780514 0.020149501 -0.1289066 -0.031758428 0.07505339 -0.041565157
-0.066582754 -0.08712567 0.08298438 -0.010232873 -0.13190563 -0.20574729 -0.025921904 -0.024361704
-0.08746176 0.17917603 0.049563102 -0.15425403 0.22856812 0.23195176 0.12857608 0.029505193
-0.2103752 -0.2827767 0.15952003 0.28287634 -0.13081077 -0.16662787 -0.16016933 -0.01608598
0.31919065 -0.13170071 -0.15254521 -0.09354025 -0.24447119 -0.09009966 -0.0051199957 -0.06630878
-0.041843925 0.11018724 0.14871842 -0.09420886 0.033664033 -0.16302626 0.07331259 0.080647886
-0.09355052 -0.08246238 -0.12846684 -0.00553122 0.074530296 -0.024515688 -0.1185264 0.09033549
0.117836244 -0.18209143 -0.07009537 -0.059834912 -0.118623845 -0.26090306 -0.17691992 0.03402715
-0.22612764 -0.12623002 -0.081932575 -0.005284642 0.00036489702 0.005311164 -0.13678043 -0.049390282
0.018067347 -0.06300942 -0.061070733 -0.1557078 -0.22647938 -0.17568973 -0.37019864 -0.05813115
-0.2578676 -0.22136799 -0.096395984 -0.069860786 -0.12491592 -0.046214033 0.08346903 -0.058083598
0.035275288 -0.13151105 -0.015752753 -0.038561154 -0.10920742 0.02303547 -0.0032504555 -0.02028153
-0.050197702 -0.14270267 -0.048495144 -0.025728429 -0.13629596 -0.024891727 0.05109317 -0.048854176
-0.1066837 -0.002436285 0.03268541 -0.06863371 0.10369771 -0.113590136 -0.19028814 0.16934876
-0.05450984 0.1513685 -0.14779395 -0.18645772 0.17916326 -0.20418927 0.081888765 -0.15702397
-0.27318177 -0.25036457 0.08822486 0.096740864 -0.2103465 -0.2463731 -0.1374721 0.2581915
-0.1890627 -0.23325515 0.38943306 0.29685888 0.41422814 -0.05637029 -0.16550994 0.20710196
0.13342203 0.23725553 -0.017288 -0.0822677 0.11700492 -0.11959464 0.15209587 -0.12916552
-0.10975695 -0.16455486 0.09263952 0.0631451 -0.0811928 -0.15312056 -0.16714093 -0.02875428
-0.083874255 -0.12516043 -0.040349253 -0.13478188 -0.11802027 0.18324591 -0.1280727 -0.1392238
-0.29887724 -0.0748343 -0.3448805 0.04851228 -0.18169178 -0.22287717 -0.15572666 -0.19040011
0.03839756 0.0047602723 -0.24241608 -0.2185071 -0.122495845 0.027736852 0.17632918 -0.24853852
-0.22890702 -0.2898774 -0.15787682 0.13426995 -0.24367015 -0.13000664 -0.23907378 0.052262258
-0.06510674 -0.13001373 -0.012003763 -0.13948403 -0.084254205 -0.03679695 -0.00488522 -0.02278913
0.06200269 -0.09183773 0.027612131 -0.017780235 0.02458088 -0.012495811 -0.10035069 -0.005012507
-0.0038500568 -0.08694145 0.008958882 0.18286274 -0.008901542 -0.08598585 -0.15073659 -0.057175964
0.09070663 -0.01274937 0.074989825 0.030809587 0.050822876 -0.39685062 -0.060948804 0.024331393

cnn1.bias f4 [16]
00000000: 7b08 623d 0c8a 4dbd c61f 90bd ed90 96bd
00000010: 4c2c 133d b9e6 93bd 25b7 94bd 9ddc f5ba
00000020: c3ca 863c 00b6 f9bd 6fe5 efbc f377 97bd
00000030: d324 73bc f94d b4bd 4de2 cb3c 6727 9ebd
0.05518387 -0.05018048 -0.0703731 -0.07351861 0.035930917 -0.07221741 -0.072614945 -0.0018757764
0.016454106 -0.12192917 -0.029284207 -0.073959254 -0.014840323 -0.088039346 0.024888182 -0.07722359

cnn2.weight f4 [32, 16, 3, 3]
00000000: ccc4 dd3c 715f 6c3d 2d1a d53d c6b5 233e
00000010: 6723 9ebc 2d8c 2abd fe31 9a3d 6a72 8c3c
00000020: d72e 50bd 0c08 2f3e c359 c9bd 05c5 263d
00000030: e5f1 093e 9200 94bd f224 f83d 5d75 1c3e
00000040: 0ce3 6abd 7588 90bd 3b48 38bc d745 dfbc
00000050: af85 a3ba e806 7dbc 28c3 c83b 0328 54bd
00000060: b643 70bd a648 803c 5d22 66bd 8ca6 d53d
00000070: 5a96 a3bd 0a3b 8b3c 9822 2c3e d6b2 173d
00000080: 5acd 02bd 0a92 e53d b43f 7a3d bed1 b5bd
00000090: 38b7 843d 8062 9cbc dcd1 9dbc 3f92 e13d
000000a0: 132f 893c 2c13 8d3d df85 ba3d 5086 f03c
000000b0: bfcf b83d 749b c23d 764c 833d db98 8a3d
000000c0: 3d42 ff3d 2760 813d 7c57 d43c 00bd 5bbc
000000d0: ba80 8c3c 6a59 133d be11 5fbd 2ade 0d3d
000000e0: 7de9 9b3d 5b27 2c3c 2387 073d 3005 8b3d
000000f0: 671f 373d eb60 113d dab8 d33d d8bc 683d
00000100: 9900 aabd cdf8 463d edf0 4c3d 9610 36bd
00000110: 34de cd3d 9b15 cabc 1d4a 15bd 8765 103c
00000120: 3fbe 6c3d 0978 75bc b001 62bd a5f2 e43d
00000130: 30bd be3d 4050 ac3d 4212 503d 5d40 3b3d
00000140: 3a7b 573d f55e 8d3d 14e6 a03d 4cad f03d
00000150: 9155 573d 99e4 4c3d d6d5 e33c d65e 8c3d
00000160: 3cfa 15bd b29d 3c3d bd1a 3c3d 27c4 87bc
00000170: 0ee4 42bc 0a88 823c 648e a938 f8dd a7bd
00000180: 7277 2d3b dd37 daba a214 26bb 6d4e a43c
00000190: 8a42 22bd 84c7 173d e632 af3d 4682 b73d
000001a0: 528a 58bd 136b cf3d 2f7e 4b3d 5105 b63d
000001b0: 263e a7bd 38f4 f1bd 3ebb 9abc 3a64 2cbb
000001c0: 3264 3e3d 74a3 4bbc 22ea 4f3d bac8 5dbd
000001d0: d96d 2ebb 5eb0 16bd 8747 6dbd cc93 bd3c
000001e0: 1398 393d e6c7 83bd 4131 86bd f3e6 18bd
000001f0: 8df7 a0bd 4d4d 03bd c9fe db3d 8032 cdbc
00000200: 6846 af3d f831 3b3e 97f8 813d 0a44 923d
00000210: c654 1e3e 1a8f 2aba 8d54 c23d bf6c b83c
00000220: fe81 71bd 28ab 8bba 2e36 803d 38e2 1dbd
00000230: e208 3b3c 1787 1f3d c8ce 4fbd 9d62 c7bd
00000240: fa3d 5cbd 210c 0f3d 00f3 e83c 67e3 213e
00000250: 029f 913b ff42 edbc 9aa5 6d3c d0e2 073d
00000260: fa8a 50bc fce8 b73b 7c91 eb3d a6ac 16bd
00000270: b0bc 043e 7ab1 203c 33ec 8ebb 626b 943d
00000280: 15af f93d 8901 c1bd 5bfe 133c faf2 8ebd
00000290: 201b 33bd c0a4 b3bd da0a f5bd 33c1 babd
000002a0: 6925 52bd 6cc2 07be 6549 e5bd e021 f73d
000002b0: 03dc f03d b973 dbbc 009a 233e b27f 50ba
000002c0: 281e ba3c 061f f03d 7a66 903d 1248 93bd
000002d0: df16 d93c 955f 5c3d 9119 0d3d 412c 873d
000002e0: 635a 343e 2e2b cd3b 52fa bf3d b694 693d
000002f0: 1af1 093d 2369 473e 38fe 0b3b 4363 f93c
00000300: bc7c 123e 2d9e 1c3c 071e f43b 9ad0 6ebd
00000310: b78c 3b3d 8ae2 0ebe a631 19bb bb04 9bbc
00000320: e14a 1fbc cd94 f93d 0202 ce3d d52a f33c
00000330: eaf8 313e 5513 5dbd 4405 dc3d 3c47 333c
00000340: 7d1f 363d d389 0dbd 13d2 32bd f488 71bd
00000350: 4925 91bc 86b5 38bd be8b b9bd 75fc b0bc
00000360: eb45 1d3e 4749 ce3c ddb5 e9ba 95b8 283e
00000370: 43b9 8dbc 6676 61bc 577b 3b3e fba1 463d
00000380: ea03 093d 3817 1a3e cbcd b33d 2804 ac3c
00000390: da46 483b 809b b53d cc2a 213e 4e6e b03d
000003a0: 79c6 0fbd fe23 123d d585 d63c 48fd b53d
000003b0: 52bf 5a3a 086c 403d 94cb 11bc 9d27 8fbd
000003c0: 148f 58bd 02ef 51bd 710e fbbd c1bc f13d
000003d0: c7bc 4e3d 6aa1 d0bd 0a31 893d 5c47 583d
000003e0: b588 fbbb 918c de3d f897 973d 24fb c23c
000003f0: d54a 993c 2d1d bfbc 4ce5 9abd f799 ec3d
0.02707138 0.057708208 0.10405383 0.1598731 -0.01930399 -0.04163759 0.075290665 0.0171444
-0.05082592 0.17092913 -0.09831574 0.040715236 0.13471182 -0.07226671 0.12116422 0.15279146
-0.057345435 -0.07057277 -0.01124769 -0.027254982 -0.0012475754 -0.015443541 0.00612678 -0.05179597
-0.058658324 0.015659641 -0.056185115 0.10432157 -0.07987662 0.016995925 0.16810071 0.037035786
-0.03193412 0.11209495 0.06109591 -0.08877896 0.06480259 -0.019089937 -0.019265108 0.11014222
0.01674608 0.06888422 0.09107565 0.02936092 0.090239994 0.095023066 0.06411068 0.06767436
0.12463806 0.06317168 0.025920622 -0.01341176 0.017151225 0.035973944 -0.05446028 0.0346357
0.07612894 0.01050743 0.03308786 0.06788099 0.044707682 0.03549282 0.10337992 0.05682072
-0.08300895 0.04857712 0.050034452 -0.04444941 0.100521475 -0.024668505 -0.036447633 0.0088132685
0.05779862 -0.014982232 -0.05517739 0.11179093 0.093134284 0.08413744 0.050798662 0.04571568
0.052607752 0.06902877 0.07856384 0.11751804 0.052571837 0.050022695 0.027811926 0.06854026
-0.036615595 0.046048827 0.045923937 -0.016573025 -0.011895193 0.01593401 8.08507e-05 -0.08196634
0.00264689 -0.0016648729 -0.0025341888 0.020056928 -0.039614238 0.037055507 0.0855463 0.089603946
-0.052866288 0.10127845 0.049680885 0.08887733 -0.08166151 -0.11814159 -0.018888112 -0.0026304857
0.046482272 -0.012429107 0.050760396 -0.054146506 -0.0026615767 -0.03678929 -0.057929542 0.023141764
0.045311045 -0.06434612 -0.06552363 -0.037329625 -0.078597166 -0.03205614 0.10741956 -0.025048494
0.08558351 0.1828078 0.06346243 0.07141884 0.15462026 -0.0006506309 0.09488783 0.022512792
-0.05896186 -0.0010655867 0.06260334 -0.038545817 0.011415692 0.03894719 -0.05073431 -0.09735606
-0.053770043 0.034923676 0.028436184 0.15809403 0.004444004 -0.02896261 0.0145048145 0.03317529
-0.012728447 0.0056124907 0.11502358 -0.036785744 0.12962604 0.009807939 -0.0043616532 0.07247044
0.12191597 -0.09424121 0.009032811 -0.06979938 -0.04372704 -0.08771658 -0.119649604 -0.09118881
-0.05130521 -0.1325776 -0.111956395 0.12067008 0.11760714 -0.02678858 0.15976715 -0.00079535984
0.022719458 0.11724667 0.07050796 -0.07191481 0.026500164 0.05380209 0.03444821 0.06600238
0.17612605 0.006261251 0.09373917 0.057026587 0.033677198 0.194737 0.0021361243 0.03044284
0.14305395 0.009559196 0.0074498686 -0.058304407 0.045788493 -0.13953605 -0.002337554 -0.018923154
-0.009722442 0.121865846 0.10058977 0.02968351 0.1738011 -0.053973515 0.10743192 0.010942277
0.044463623 -0.034555268 -0.043657374 -0.0589685 -0.017717974 -0.04509499 -0.09059857 -0.021604756
0.15358703 0.025181426 -0.0017830689 0.16476662 -0.017300254 -0.013761139 0.18308769 0.04849432
0.033451 0.1504792 0.08779486 0.020998076 0.003055981 0.0886755 0.15738982 0.08614789
-0.035101388 0.035678856 0.026186863 0.088862 0.0008344549 0.046978027 -0.008898634 -0.069899775
-0.052870825 -0.051253326 -0.12258614 0.1180358 0.050473 -0.10187037 0.066988066 0.05280243
-0.007676209 0.10866655 0.074020326 0.023801394 0.01871244 -0.023329342 -0.07563266 0.11552804

cnn2.bias f4 [32]
00000000: 2606 d1bd a8b4 f0bc 5008 0ebd 6435 733b
00000010: 083c d9b9 abba a3ba 8e77 9dbd 305b 923d
00000020: b579 96bd 1109 30bd 3fdb fe3c 4b2e 803a
00000030: 9437 b5bb c61c e83b 3d62 ebb9 eaa5 debd
00000040: 4569 e63d 60f0 d43b 91fb 1bbd b049 ccbd
00000050: cf1a e2bd f72d a03c e7c8 57bd 06f4 24bd
00000060: 60f6 8ebb 633f afbd 7110 63bd ffcd 06be
00000070: 530c c73d 331c 74bd e693 bf3d 589c 06bc
-0.10206251 -0.029383019 -0.034675896 0.003711068 -0.00041434192 -0.0012491544 -0.07688819 0.07146299
-0.073474325 -0.042977396 0.031110404 0.0009779421 -0.005530307 0.007083508 -0.00044895886 -0.10871489
0.11250547 0.0064983815 -0.03808171 -0.09974992 -0.110402696 0.019553168 -0.05268183 -0.04027178
-0.0043628663 -0.08557012 -0.0554356 -0.13164519 0.097191475 -0.059597205 0.09354381 -0.008215986

cnn3.weight f4 [32, 32, 3, 3]
00000000: 4653 d93c 8205 b83a b3a8 b13c c9a4 443c
00000010: 2d2a 95bd a541 3fbd c74c 46bc 9415 c2bc
00000020: 97e4 b539 7a8d 2c3e 030b 313d 1516 96bd
00000030: 083d bc3d 88fd 2fbd d032 19be 9460 8ebd
00000040: 94b4 45bd e242 bcbd 1ff0 373a 9b79 24bd
00000050: cc0b 86bd 3768 9e3d 70b2 54bd 0d18 9ebd
00000060: 0531 423d c9c6 663d acb7 85bc dad6 1a3d
00000070: 1158 a8bb cac2 113c 2f74 533d 502e 56bd
00000080: 0024 58bd 511d 6a3c 1cbd cebc b05f d53c
00000090: f52f d63d 257e d43c 0edd 2dbc 5bc8 c6bc
000000a0: d576 ccbd 50e5 833b 5aec dd3a 611f 803d
000000b0: 6d6e 1abc e300 f63d b394 9ebd 8cc1 86bc
000000c0: ae8f 163d e7b2 c4bd c57f c4bd b9a5 6cbc
000000d0: 450d bc3b 20fa 75bb 0995 fcbb 24e4 e33c
000000e0: 82f1 7ebd 1265 20bd 3fdc ffba ce0b eabc
000000f0: 4c5a 463d 3903 61bd 713c 23bd 371b 3ebd
00000100: 1181 ec3d df3f 913d 9d02 253d 1a78 abbb
00000110: d352 dd3d 71e1 3c3d c205 843d 1be8 b73d
00000120: f039 22bc 2e3f c03c eda8 5ebd f36f 87bd
00000130: 6eca f0bc 8c95 5fbd f88d 273c bbb5 aebc
00000140: e052 70bd a238 ba3d e180 acbd 64df 4f3c
00000150: 35b7 b83c 348b f6bd a32a 4c3c 6a77 efbc
00000160: b313 f7bc f0b7 5fbd c416 b13d 2622 c23d
00000170: 1c8e c2bd a57b bf3c 9e2d a33c a44b b4bd
00000180: 8c53 ffbc ac22 123d 5904 d6bc 2b9d 6d3d
00000190: d080 9abd 62cc 92bd 655f 2bbd fb6c f2bd
000001a0: dd69 0bbe d1cf 5a3d a7fb 173d 8813 ccbc
000001b0: 70bc d63d 53bc 163e afd6 1e3e b32e eabc
000001c0: 463c 1c3e ec3d db3c fc24 3c3c 2020 be3c
000001d0: 6a66 b1bc e16f 8d3c b0d9 743c c012 b3bc
000001e0: 8faf adbb 2401 213d ccfe 3abd e103 fd3c
000001f0: e965 023d b06d 4b3d 41eb d93d 6550 0dbc
00000200: 0d5b 53bd a513 653d 6144 61bd 2f60 65bd
00000210: b5ab 94bc 93b1 9d3c 8077 cebd a03c 5a3b
00000220: 804c 20bd fd24 4f3d 88ac babc 98e5 d4bc
00000230: 6160 50bd 2a4a c83c 3817 813b 181c 3ebc
00000240: c443 8a3d 488e 683e ab60 4e3e 1a5a d33c
00000250: 0a67 b23d fbfd f93d 121f cd3c 3fb6 b33d
00000260: ab90 ec3d 1bd0 9d3d 0baf b93d 777d 93bd
00000270: f227 f63c ca99 3f3d 2155 95bd b9ea fd3b
00000280: 4a93 973c ab3e 27bd d3d5 c6bc df8e 8dbd
00000290: 0cfe 8dbd 8419 b53c 3dcf 43bd ba7f 07be
000002a0: c87d 233c c028 d2bd ffbe 3ebd 4a1f 51bd
000002b0: a077 633b a50b 3a3d 6865 c33c 5924 a7bd
000002c0: 7f68 9fbb 207c 8e3b 1a20 80bd 422d 6f3c
000002d0: 6a23 4bbd 13b3 dbbc 6ac4 303d 616f 0dbd
000002e0: f89e bfbd 1a6a 07bd 2d3e 0c3b 8656 55bd
000002f0: 4a83 cabc 8f1c a73d c9d3 d83d 0a4d 06bd
00000300: 7ef3 d53b 9cc5 6b3c 6c8e 33bd e946 3bbd
00000310: 8841 863c a0ca f7bd 5b70 e7bc 5d2d cfbd
00000320: 9925 16bd dcf8 81bd 5ad1 eebd f407 f5ba
00000330: fb48 51bd 3937 33bd 0270 b13c 9583 2f3d
00000340: efb4 883c be6f 9d3d 1dfd b23c 2120 26bd
00000350: 5713 67bc 28d1 99bc 9bd0 bb3d 76d7 8c3c
00000360: 4cb9 843d 14c0 5abc 7fbf 48bd 7c38 76bc
00000370: 8fa0 86bd c668 a1bd cd09 ccbb 544b 333d
00000380: ee46 3abc 3f4b 163d 1f14 febc a0cf 3f3b
00000390: 3e7a bebc 0f06 70bd fed9 8a3c 4ad4 92bc
000003a0: 653f 4d3d 15fc 6a3d 09fa c53d b043 383b
000003b0: 03c6 b63b 0529 e73c c7a5 48bd c736 e9bb
000003c0: d1ed a5bc 5430 a23c 3947 27bd 5022 133c
000003d0: 20f4 403d d70b 8cbc 6249 eabb 1af0 33bd
000003e0: 177e 04bd e3db 9ebb e60d 96bc e2de a5bc
000003f0: 7b28 b63c 8db8 163b 2d48 cc3d 7021 d6bc
0.026528966 0.0014039727 0.021686887 0.0120021785 -0.07283435 -0.046693463 -0.012103266 -0.02369193
0.00034693323 0.16850844 0.043223392 -0.073284306 0.09191328 -0.042966396 -0.1496079 -0.069520146
-0.048267916 -0.091924444 0.0007016677 -0.040155035 -0.06545219 0.07734721 -0.051927984 -0.07719431
0.04741003 0.05634192 -0.016322933 0.037802555 -0.0051374515 0.008896539 0.051624473 -0.05229026
-0.052768707 0.014289216 -0.025236659 0.026046604 0.10458366 0.025939057 -0.010611786 -0.024265459
-0.09983603 0.004025139 0.00169314 0.06255985 -0.009425742 0.12011888 -0.07743206 -0.016449712
0.036758117 -0.096044354 -0.095946826 -0.014443808 0.0057388865 -0.003753312 -0.007708196 0.027818747
-0.06224204 -0.03915889 -0.0019520595 -0.028570082 0.048425958 -0.054934714 -0.039852563 -0.046412673
0.11548055 0.070922606 0.040285695 -0.005232823 0.10806813 0.046113435 0.06446411 0.089798175
-0.009901509 0.023467626 -0.05436032 -0.066131495 -0.029393401 -0.05458598 0.010226719 -0.02132689
-0.058672786 0.09092833 -0.08423019 0.012687538 0.022548297 -0.1203827 0.012461337 -0.029231746
-0.03016076 -0.054618776 0.0864692 0.094791695 -0.094997615 0.023374388 0.019919213 -0.0880349
-0.031167768 0.035677597 -0.02612512 0.058011215 -0.075441 -0.07167889 -0.041839022 -0.118371926
-0.13614602 0.053420845 0.03710523 -0.024911657 0.1048516 0.14720277 0.15511583 -0.028586721
0.15257367 0.026762925 0.011483427 0.023208678 -0.02165528 0.017265262 0.014944479 -0.021859527
-0.005300469 0.03930773 -0.04565315 0.030885639 0.03183547 0.049665153 0.10640574 -0.008625125
-0.051600505 0.055926938 -0.05499685 -0.05599993 -0.018148283 0.019249713 -0.100813866 0.0033300295
-0.039135456 0.050572384 -0.022787347 -0.025988385 -0.050873164 0.024449427 0.0039395355 -0.011603378
0.067512065 0.22710526 0.20154063 0.0257998 0.087110594 0.12206646 0.02503923 0.08774995
0.11551031 0.077057086 0.0906659 -0.07201665 0.030048344 0.046777524 -0.07291628 0.0077489284
0.01850285 -0.04083125 -0.024271881 -0.06912016 -0.06933221 0.022106893 -0.04780506 -0.13232318
0.009978719 -0.10261679 -0.046568867 -0.05105523 0.0034708753 0.04542126 0.023852065 -0.0816123
-0.004864752 0.004348293 -0.06256123 0.014598193 -0.04959432 -0.026818788 0.043156065 -0.034530047
-0.09356493 -0.03306017 0.0021399364 -0.05208447 -0.024720807 0.08159744 0.1058727 -0.032788314
0.0065292707 0.014390375 -0.043836996 -0.045721922 0.01638867 -0.120991945 -0.028251817 -0.10116074
-0.03665695 -0.06346294 -0.116610244 -0.0018694387 -0.05109499 -0.043753836 0.021659855 0.042850096
0.016687838 0.07687329 0.02184921 -0.040557984 -0.014103732 -0.018776491 0.09170648 0.017192584
0.06480655 -0.013351459 -0.04901075 -0.015028115 -0.06573593 -0.07881312 -0.0062267543 0.04377301
-0.01136945 0.036692854 -0.031015454 0.0029268041 -0.023251649 -0.058599528 0.01694965 -0.017923493
0.050109286 0.05736931 0.09666831 0.0028116517 0.005577804 0.028217802 -0.048986223 -0.0071171257
-0.020255001 0.019798435 -0.040839408 0.008980349 0.047107816 -0.01709549 -0.007149861 -0.04393015
-0.03234681 -0.00484799 -0.018317174 -0.02024788 0.0222361 0.0022998184 0.09974704 -0.026138991

cnn3.bias f4 [32]
00000000: b0f6 a33c ac57 343d e647 c2bd 2655 93bc
00000010: e80a 053d 35a7 06bd 6884 09bd 8643 f03d
00000020: f0fa 21bc 8449 79bd 2e07 233c 2899 d2bc
00000030: 7ba9 5cbc 092b 4e3d 9cd0 97bc fab6 013e
00000040: 18f4 90bd 48e9 9c3b 59a5 2dbd f23c 82bd
00000050: 8d4d 91bd 5dd6 f3bc 5764 8fbd 6139 77bd
00000060: 05b4 4bbc 0b5d 0fbd 612b 88bd 31d7 e43c
00000070: 3785 08bc 4f39 c83d 25ef b13c 7c59 1a3e
0.02001509 0.044028923 -0.0948637 -0.017984938 0.032481104 -0.032874305 -0.033573538 0.11731629
-0.009886488 -0.060861126 0.009950442 -0.025707796 -0.013468142 0.05033401 -0.01853209 0.12667456
-0.07077807 0.0047885515 -0.042394016 -0.06359281 -0.0709487 -0.029765302 -0.0700156 -0.060357455
-0.012433057 -0.035000842 -0.06648899 0.027934643 -0.008332542 0.09776556 0.021720478 0.15073198

fc1.weight f4 [128, 768]
00000000: 0549 dbbc a735 cb3c 826e a13c f691 723c
00000010: ef9b fb3c 0854 03bd 6918 42bd 25dc 803c
00000020: de13 91bc 686b 33bc 7c37 c3bc 80b6 0c3a
00000030: f88c d8ba 9901 333b 1a91 1ebc dc43 9d3c
00000040: fd3c fb3b 34de 41bc 82e3 2ebc 2454 353c
00000050: feeb bebc bac7 893c 1098 e7bc 6e1f 4fbc
00000060: af58 16bd 9bff e4bb 7f84 15bd 7195 0fbc
00000070: abe2 3a3b d996 fcbc c090 9bbc b30e f13c
00000080: 6e3e 20bd 2076 813c 236c 273d 7461 45bc
00000090: 9a99 d53c ef68 0f3d b8f4 02bc 6c36 afba
000000a0: 000f 213c b035 0fbc fe11 be3c ac93 57bd
000000b0: 8ae0 27bd e145 923c cefd fdbc ebce 2dbd
000000c0: 072f 26bd fc01 343c 408e 02bd bbfe 06bd
000000d0: b1a7 1cbd 760d b3bb 3424 053c 2c4d 79bc
000000e0: 9293 0abc 902f afbc 9157 1a3c 4ffc e83c
000000f0: ddb2 0cbd 440a 95bc 62cf f7bc f180 3ebd
00000100: 27e7 bf3c df95 4b3c 4661 6ebc b9b8 23bc
00000110: c85c 1bbd c3a1 9d3c 7c67 ad3c 420c 0fbd
00000120: 2849 fbbb 309e 523c 71c8 c3bc 460c 91bc
00000130: 36d8 e83c 1921 8c3c 6df7 be3c d5db 9c3b
00000140: a169 91ba 1be8 e03b 9bda 803c 96af b5bc
00000150: 87ed 02bd 7cae d13c 12db 923a a6e1 23bc
00000160: 31d9 da3b b391 c1bc e5a2 32bb 8f70 e0bc
00000170: 61c2 03bb 3d51 21bd 7a85 213b 5380 023d
00000180: 0a85 c33c e27d 01bd 5b7e 3e3b 32ae 933b
00000190: f48c 49ba 4a28 9b3b 9f56 bdbc 4f59 07bc
000001a0: 229e 1cbd 8abf 47bc 1307 89bc 0199 dabb
000001b0: cdb5 653c 0701 f0bb db1b 87bc e893 14bd
000001c0: 5af8 093c e221 223c 7478 3b3c e1b2 e5bc
000001d0: 1f1e 6a3c 1e51 033a 871d 90bc 2ff8 e83a
000001e0: 8303 e83c 5df6 21bd 3493 be3b cd8a 3a3c
000001f0: 5471 ffbc cc32 20bc 00ed e23a 7ccc 06bd
00000200: ab04 193d 6634 a03c a5b1 4c3c 4bc0 8c3b
00000210: d035 ce3c 3da0 4c3b 1aa1 86bc da3c c5bc
00000220: d201 06bd 28c4 3d3c 26ce 803c e089 d93c
00000230: cf45 8f3b bc91 9b3c 988f 423b 0d24 04bd
00000240: 5293 c5bc 70dd 4b3c b05b 0b3d c048 e03c
00000250: 3011 313b a23a 40bc cc05 dd3c 46e7 103d
00000260: b6e2 0d3d c00f 203c 32a3 b13c 74da c6bb
00000270: 66c4 a6bc 0cfc f0bb f425 0b3d f4e7 0d3d
00000280: 4439 813c 4075 923c 6464 1c3c 7770 a4bc
00000290: 7c5a fdbb a595 063d 4e1b f9bc fa48 44bc
000002a0: 0b46 63bc 6b35 3b3c bbab e7ba f284 eebb
000002b0: eadb 633b d9d9 44bc 5b42 71bd 8cd1 8dbc
000002c0: 7563 d23c d2f1 9ebc ec79 aebc 03bf 24bd
000002d0: 6ebd f4bb ee7a 10bd df0a a63c fa58 2d3a
000002e0: a4ac 37bd f910 2fbd d7b9 17bc d271 28bd
000002f0: 6346 7fbb 5b7d adbc 3850 163c 24d2 2ebd
00000300: df3c 0a3b ff62 8eba 8f48 a7bb ec91 07bd
00000310: 2c4f 00bd b0bc ec3c 1c3e c7ba 51a7 32bc
00000320: fc6f f5bc 5195 4abc 3bb4 313c 0444 f8bc
00000330: beed abbc a981 adbc 1646 00bc ddb7 59bc
00000340: e269 9e3c 97fd b5bc 2260 303c 77f6 11bc
00000350: ab0d a63c 45d8 0dbd 6482 033d c044 da3c
00000360: 4711 0dbd bdfa 17bd 7ad9 18bd d04f c53c
00000370: ea31 10bc 196f 5e3c cfd7 043d 0553 13bd
00000380: 83a0 8dbc e7b4 59bc 09e1 923c 190b 8a3c
00000390: 5e74 d1bc 9214 c2bc 27b8 ca3c d864 063d
000003a0: ebe2 e93b f10d 96bc d934 403c eb4a dbba
000003b0: 458d a6bc e42e bf3c 824c 1cbd 617b dbbc
000003c0: 1924 b23c 5ec4 983a 8311 003d f4c4 15bd
000003d0: 5083 2b3c b4d2 083d 6b7f 2b3a 1a3f 373c
000003e0: b640 f8bc 0fd7 0ebd ec14 083c c51a a53c
000003f0: 8f0b 9fbc 0009 e3bb 1c10 e93c d1c9 00bd
-0.026768217 0.024805857 0.019706015 0.014805308 0.030714003 -0.03206256 -0.04738656 0.015729973
-0.017709669 -0.010950901 -0.023830168 0.0005367771 -0.0016521504 0.0027314185 -0.00967815 0.019197397
0.0076671825 -0.0118327625 -0.010674359 0.011067424 -0.02330589 0.01681887 -0.028270751 -0.012641771
-0.03670567 -0.0069884784 -0.03650331 -0.008763657 0.0028516452 -0.030833649 -0.01898992 0.029425954
-0.039122038 0.015803397 0.04087461 -0.01204716 0.02607422 0.03501218 -0.007992916 -0.0013367659
0.009830236 -0.008740827 0.023201939 -0.052631065 -0.04098562 0.017855586 -0.031004813 -0.04243366
-0.040572193 0.010986801 -0.03187394 -0.032957774 -0.03824586 -0.005464251 0.008126307 -0.015216153
-0.008458035 -0.021384984 0.0094202915 0.028440623 -0.034350265 -0.018193372 -0.030250255 -0.046509687
0.023425652 0.012425869 -0.014549559 -0.009992772 -0.03793028 0.019242173 0.02116751 -0.0349238
-0.007668633 0.012855098 -0.023899289 -0.017706048 0.02842341 0.017105626 0.023311341 0.004786948
-0.0011094102 0.0068636066 0.01572924 -0.022178452 -0.031964805 0.025595896 0.0011204204 -0.010002529
0.0066787233 -0.023629045 -0.0027257737 -0.027397422 -0.0020104873 -0.039384115 0.0024646209 0.03186066
0.023867149 -0.03161419 0.0029067013 0.0045068497 -0.0007688545 0.0047350274 -0.023112593 -0.008261039
-0.038236745 -0.012191663 -0.016727006 -0.0066710715 0.014020395 -0.007324341 -0.016492775 -0.036273867
0.008421028 0.009895774 0.0114422925 -0.028039398 0.014289408 0.0005009341 -0.017592205 0.001777416
0.028321987 -0.03954159 0.005815888 0.011385632 -0.031181969 -0.009777736 0.0017313063 -0.032909855
0.037357967 0.019556236 0.012493526 0.004295384 0.025172144 0.003122344 -0.016434241 -0.024076868
-0.03271658 0.011582412 0.0157233 0.026555002 0.0043723355 0.01899039 0.002968764 -0.032260943
-0.0241181 0.0124429315 0.034022987 0.02737844 0.0027018301 -0.011732729 0.026980303 0.03537681
0.034640037 0.00976938 0.021684263 -0.006068522 -0.020357322 -0.007354265 0.03397174 0.034645036
0.015774377 0.017878175 0.009545419 -0.020073159 -0.007731734 0.032857556 -0.030408528 -0.01198029
-0.01387168 0.01142631 -0.0017675081 -0.007279032 0.003476853 -0.01201483 -0.058901172 -0.017311834
0.02568219 -0.019402418 -0.021298371 -0.040221225 -0.007468871 -0.035273485 0.020268856 0.0006612685
-0.044842377 -0.042740796 -0.009260616 -0.041124173 -0.0038951866 -0.021177938 0.009174399 -0.042680874
0.002109341 -0.0010863243 -0.005105085 -0.033098146 -0.031325504 0.028898567 -0.0015201005 -0.010904149
-0.029960625 -0.012364701 0.010846193 -0.03030587 -0.020987388 -0.02117999 -0.00782921 -0.013288465
0.019337598 -0.022215648 0.010765107 -0.008908859 0.02027019 -0.03463008 0.032106772 0.02664411
-0.034440305 -0.037104357 -0.037316777 0.02408591 -0.008800963 0.013576292 0.032432374 -0.035967845
-0.017288452 -0.013287759 0.01792957 0.016850995 -0.025568184 -0.02369145 0.024746014 0.032811016
0.0071376464 -0.018317195 0.01173135 -0.0016730701 -0.020331034 0.023337789 -0.0381589 -0.02679223
0.021745728 0.0011655202 0.0312667 -0.036564782 0.010468319 0.033404067 0.0006542119 0.011184478
-0.030304294 -0.034873065 0.008305769 0.020154366 -0.019414691 -0.006928563 0.028450064 -0.031442467

fc1.bias f4 [128]
00000000: 0bae c73c a090 11bc 5f63 533c 6215 25bd
00000010: e107 d3bc 54b6 d43c 58fa 0cbd 8170 27bd
00000020: fbe3 993b b66f 7d3c 2497 abbc 840c e6bc
00000030: a7fd 13bd 4203 0dbd 3838 1bbd 3d04 84bc
00000040: 6913 17bd b216 a3bc c808 7a3d 945b ffba
00000050: 0294 a7bb f22e c63d 57e1 2fbd f250 a73d
00000060: db3a 45bd 3e9a 1939 26c9 babb a15d f0bc
00000070: 6923 dfbc 0e2c 8d3c e242 12bd e57d aa3c
00000080: 3c1e 0ebd 20e6 5c3c 4511 07ba dc2e 3cbd
00000090: e9da ccbc be6c 20bd 956b b7bc c7ed 513b
000000a0: d5da a83c f89d c53d bbb1 04bd 704c c6bc
000000b0: 5466 9dbc 1118 13bd fcd6 d13b 0e84 cd3b
000000c0: 66f8 11bd 48ad f03c a8cc 0a3d f63d d53c
000000d0: 241d bc3b aeec c13d df91 eebb d413 14bd
000000e0: a597 10bd ba2c fd3b 25f6 8dbc 407e b6bc
000000f0: 0c93 29bd 49cc bb3d 3828 0bbd 58b2 ccbc
00000100: a538 80bc 1a56 cf3c 4519 ec3d 243e c6bb
00000110: 2e72 423c ee32 8c3c 8f1a cfbb 4cb5 a33b
00000120: 0277 18bc f0fe 373c 9339 52b9 e161 3f3c
00000130: bfd6 1cb7 f28f 10bd ebc5 243c c730 96bb
00000140: 94f1 8cbc e99e dfbb edb3 e93b c8e6 aa3c
00000150: 4b82 053c e4db df3c 97ac ecbc 2284 d5bc
00000160: d920 21bd da01 a93d 77c8 88bd 18ac e93d
00000170: 0441 293c f353 b0bc bdab d9ba 1775 24bd
00000180: 8be0 e03a e651 90bb cac3 e2bb 4da8 353c
00000190: cee8 13bd 0113 2ebc 7013 01ba 8b18 913c
000001a0: e1a9 903a daa3 77bc c8e2 1bbd 9c13 84bc
000001b0: bb38 f13d 467b 563c e173 ffbb cf2e 53bc
000001c0: 5faf e03d 360f ae3c 3423 79bd f8df 06bd
000001d0: f449 2b3c bf65 8e3c 2cfb afbc de54 6a3d
000001e0: 21fb 77bd f4dc 42bc 6af9 4ebc 970d 4cbd
000001f0: e30e ff3d 8641 37bd 1492 073d 6b80 6fbd
0.024374982 -0.008884579 0.01290211 -0.040303595 -0.025760593 0.025965847 -0.034418434 -0.040878776
0.004696367 0.0154685285 -0.020946093 -0.02808214 -0.036130574 -0.034426935 -0.03789541 -0.016115302
-0.036883745 -0.019908283 0.06104353 -0.0019482248 -0.0051140795 0.09676923 -0.04293951 0.08169736
-0.048151832 0.00014648677 -0.0057002483 -0.02934152 -0.027238565 0.017232921 -0.035708316 0.020811984
-0.034696802 0.0134826 -0.00051524147 -0.045943126 -0.025006728 -0.039166205 -0.022390166 0.0032032595
0.02061216 0.09649271 -0.03239606 -0.02420637 -0.019213833 -0.035911623 0.006403802 0.0062718457
-0.03563728 0.029379502 0.03388658 0.026030522 0.0057407785 0.09468971 -0.007280573 -0.036151722
-0.03530087 0.007726279 -0.017329285 -0.022276998 -0.0414 0.09169824 -0.033973902 -0.024987385
-0.01565201 0.025309611 0.11528257 -0.006049888 0.011868043 0.017114129 -0.0063203047 0.0049959775
-0.009305717 0.011230215 -0.00020048609 0.011681051 -9.348324e-06 -0.035293527 0.010056953 -0.0045834514
-0.017205037 -0.0068243635 0.0071320445 0.020861998 0.00814874 0.027326532 -0.028890891 -0.026063982
-0.039337967 0.08252306 -0.06678861 0.114097774 0.010330442 -0.021524405 -0.0016606968 -0.040150728
0.0017156763 -0.0044042943 -0.0069203125 0.011087489 -0.03611069 -0.010624648 -0.0004923856 0.017711898
0.0011036956 -0.015114749 -0.038058072 -0.016122632 0.117783986 0.013090914 -0.0077957963 -0.012889578
0.109709494 0.021247488 -0.060824588 -0.032928437 0.0104546435 0.0173825 -0.021482073 0.057209842
-0.06054223 -0.0118935 -0.012632707 -0.049817648 0.12454011 -0.044740222 0.033098295 -0.05847208

fc2.weight f4 [128, 128]
00000000: bd2d b2bd ce7d 71bd 855e 11bc d831 38bc
00000010: 366e f53c b97a 743d 542e 42bd 6942 553d
00000020: ce6c 06bb 3db2 083d 3d65 e23c a18a 04bd
00000030: 7856 9ebd 944a 0f3d dde7 a73d d19a 30bd
00000040: 738e 3cbd 5e31 ef3c 571a b43b 0ee0 2b3d
00000050: 4fa9 af3d aece 773d d2aa 893c f757 38bd
00000060: 7ecb 583d 80ef 18bb f304 863d 964e cdbb
00000070: 186a 68bc 55a0 06bb 99f0 b73d 3e90 623d
00000080: a2ee a3bd 33bf 06bd c7df a13d 026d c3bd
00000090: 3ce6 b0bd 7678 b33d 03c3 ab3d 0d14 83bd
000000a0: c05c 83bd 10ad 9bbd 6430 cf3c 5cc4 e8bb
000000b0: 277d 1ebd e9ca 9b3d a6db 643d 4176 a73c
000000c0: 8ae0 53bd 2cb7 a2bd 6c63 07bc d039 273d
000000d0: 72b3 563d e767 ea3d 2849 38bc 5424 b53d
000000e0: 203a fa3c 2481 d0bc 90a4 34bc 3fb2 9bbd
000000f0: 7c52 a2bc 4f23 cf3d b9b1 b0bd 0d89 ce3d
00000100: c272 0dbd 00cc 133d 4b57 fa3d 08fa 57bd
00000110: 81e1 6e3d 0c6b 7dbd 1833 283d 07b5 b13d
00000120: a1c8 2dbd 202f 6b3c 000b d13a 3a66 173d
00000130: 580f c33c 9bb5 1b3d 40ce ebbb 8453 babc
00000140: 3bfa 22bc e3e8 9cbd 234d 53bd 54f4 b93b
00000150: 0874 a3bd 9701 72bd 613e 83bd 4af5 193d
00000160: 7361 4dbd 7271 1dbe d0ec 63bd 6394 7fbc
00000170: 8214 353d 2a7f 703d b902 003d 7068 91bd
00000180: 25e8 423c b80e 3dbd 3e83 4d3d fed1 1e3d
00000190: 9cac 0e3d cc2d 17bd 9d0c 873d 157c 9f3d
000001a0: 14eb cb3c f664 453d e846 123c 7922 22bd
000001b0: a7da 343d 32e4 95bd d090 bbbc 90aa db3c
000001c0: 7738 a43d 000b b9bc 8c41 76bd 2d46 3bbd
000001d0: fd96 88bd d63d 98bd dee5 aebd a2b0 a8bd
000001e0: bec3 be3c d836 42bc e74d 4fbd 219a 17bb
000001f0: 3ff5 9a3d 8a50 21bd 2f51 8cbd 672c 51bd
00000200: 9e0d 80bd 3ef1 febc 0427 abbd 9046 eb3b
00000210: 9ba4 a4ba e17c 803c 9c18 cabd 70a8 3cbc
00000220: 3785 8e3d 5b0a 133d 28d5 ae3a fe7c 173d
00000230: 0165 14bd 902d 913b 262c 4a3d 54ed 30bd
00000240: a438 1e3d 1cc5 193d 1609 49bb 30b8 bfbc
00000250: 73cf 07bc 98fc e5bc 9bad 9a3d e09c 65bd
00000260: 51c7 a83d be50 5f3d 08e0 96bd 0577 2fbc
00000270: 07ce 9cbd 4ae8 3f3d 31f0 a93d bc60 f1bc
00000280: 6b23 0ebd e04d ac3c 920e 0bbd 47bd bcbd
00000290: 0fbd 96bd 6977 3cbd 8475 153d 8521 a0bd
000002a0: f15d 79bd f617 823c b09f bebc aca7 9bbd
000002b0: 4fe5 63bd b0a0 cebc 6fa6 a33c 993b 1abc
000002c0: 22e3 89bd 79fb 973d c0d6 9a3c 2e9d 3bbd
000002d0: 1030 12bc db68 e53d 231f 403d 121e 94bd
000002e0: 977b 2abd e08c 46bc 88a5 85bd 4d56 6a3c
000002f0: beac 8abd a2e8 5d3d 50e9 a3bc 6e46 cbbd
00000300: f3da 45bd 51ef cf3c c73b 333d 78f6 763c
00000310: 4217 cfbb ac72 bb3c ae73 c6bc 285e e33c
00000320: 3551 adbc db4b 25bd c411 86bc 206d 743c
00000330: 7d48 8fbd 9854 b43c a314 20bd cbd4 853d
00000340: b755 0bbc 529c 72bc 4dc6 56bd 723b 8a3d
00000350: 4c59 0a3d 5cb3 01bd ea24 9fbc 3020 ebba
00000360: 77a0 0cbd 20bd a4bd 2d0f 95bd dd6c f83c
00000370: e049 08bc eecc 3c3d b95c ddbc 0ca2 abbd
00000380: 159d 45bd 5570 92bd bade 4a3d 8844 3f3c
00000390: b073 3ebd 581b d03c cfa4 8a3d 8ef3 063d
000003a0: a018 33bc a8b0 653c 9aa1 75bd 5ad7 323d
000003b0: f9ed e63d 0226 ffbb f248 133d d2f7 1f3d
000003c0: bed6 413b be62 4e3d c26b d2bd bca6 5abd
000003d0: c824 603c 816e 883d 543a a6bd a584 5e3d
000003e0: f37d bcbc c561 8dbd 3daf 733d 9e93 cd3d
000003f0: 9995 2a3e 6901 b1bd 985d ac3d 97c1 333d
-0.0870013 -0.058957867 -0.008872633 -0.011242352 0.02995978 0.05968735 -0.047407463 0.052065287
-0.002051163 0.033373106 0.027636165 -0.03235877 -0.07731336 0.034983233 0.08198521 -0.043116394
-0.046034288 0.029198345 0.005496304 0.041961722 0.08577215 0.06049984 0.016805086 -0.045005765
0.05292844 -0.0023336112 0.06543913 -0.0062654717 -0.014185451 -0.0020542343 0.08981437 0.05531334
-0.080045 -0.032897186 0.0790401 -0.09542276 -0.08637664 0.087632105 0.08386805 -0.06400309
-0.06414175 -0.076013684 0.02529163 -0.007103486 -0.038693573 0.076070614 0.055873536 0.02044213
-0.05172781 -0.079450935 -0.00826345 0.04082662 0.052417226 0.11445599 -0.011247911 0.0884482
0.030545294 -0.025452204 -0.011025563 -0.07602357 -0.019814722 0.101141565 -0.08627648 0.10084734
-0.03453327 0.03608322 0.12223681 -0.052728683 0.058320526 -0.061869666 0.04106435 0.08677106
-0.042427663 0.014354497 0.0015948713 0.036962725 0.023811027 0.03801499 -0.007196218 -0.022744901
-0.009947355 -0.07661607 -0.051587235 0.005674878 -0.079811156 -0.059083547 -0.06408382 0.03758744
-0.050141763 -0.15375307 -0.055645764 -0.015599343 0.04420901 0.058715023 0.031252597 -0.07099998
0.011896168 -0.046156615 0.05017399 0.038774483 0.034832582 -0.03690891 0.06594203 0.07787339
0.024892367 0.048191987 0.008928038 -0.039583657 0.044153836 -0.073189154 -0.0228962 0.026814729
0.08018582 -0.022588253 -0.060121104 -0.04572122 -0.06669424 -0.07433669 -0.085399374 -0.08236815
0.023286697 -0.011853896 -0.050611403 -0.002313264 0.07566308 -0.03938345 -0.06851422 -0.051067736
-0.06252597 -0.031120893 -0.08357051 0.0071800426 -0.0012561263 0.015684547 -0.09867975 -0.011514768
0.069590025 0.035898548 0.0013338672 0.036984436 -0.036229137 0.0044304803 0.04935851 -0.043195084
0.038628235 0.037541494 -0.0030675582 -0.023403257 -0.008289206 -0.028074548 0.07552644 -0.05605781
0.082411416 0.05452036 -0.07366949 -0.010709529 -0.07656484 0.046852387 0.08297766 -0.029465072
-0.034701746 0.021033227 -0.033949442 -0.09215789 -0.07360279 -0.046012316 0.036489025 -0.07818893
-0.060880605 0.015880566 -0.023269504 -0.0760034 -0.055638608 -0.025223106 0.019976823 -0.009413623
-0.06732775 0.074210115 0.018901229 -0.045804195 -0.008922592 0.1120164 0.046904694 -0.07232298
-0.04162177 -0.012118548 -0.06525713 0.014302802 -0.06771229 0.054176934 -0.020008713 -0.09925543
-0.04830451 0.02538267 0.04375818 0.015073411 -0.006319911 0.022881828 -0.024225082 0.027754858
-0.021156887 -0.040355545 -0.016365893 0.014918596 -0.06996248 0.022012994 -0.03908218 0.06534728
-0.008504323 -0.0148077775 -0.052435208 0.067496195 0.033776566 -0.03166519 -0.019426782 -0.001793867
-0.03433272 -0.08043885 -0.07278285 0.030325348 -0.008318394 0.046093874 -0.027021753 -0.08380517
-0.04824551 -0.07150332 0.049528815 0.011674054 -0.046497047 0.025403664 0.06769716 0.032947116
-0.010931164 0.014019169 -0.05996857 0.043662407 0.112758584 -0.0077865133 0.035958238 0.0390547
0.002957746 0.050387137 -0.102744594 -0.053381667 0.013680644 0.06661702 -0.08116594 0.05432572
-0.023009276 -0.06903414 0.059493292 0.10037921 0.1665863 -0.08642847 0.08416289 0.043885794

fc2.bias f4 [128]
00000000: 59b6 4d3d e932 6f3d a7b8 0f3d 375d 973d
00000010: 5144 453d db61 b53d 66af 1f3e fe23 e43d
00000020: 12a4 22bd 30b8 c73d 28b0 63bd e643 2dbc
00000030: 2179 113e 3279 2d3d be4c d0bd b643 a53d
00000040: c568 833d a664 ce3d c9a6 bb3d c6a1 9739
00000050: 1cfd 08bd 8eaa ae3d 36fa dd3d 79a6 4c3e
00000060: da94 093e a1bf f23c 1c86 d83d 887c 0e3e
00000070: 7487 7a3b 4237 1a3c 34de 993d 1d36 5f3d
00000080: e5fc 303e 8c32 bbbd 3d02 413e 2025 833c
00000090: 8937 ea3c d32a 343e 676a 83bd 0b32 b4bc
000000a0: 8029 413d 65da 913b 1389 99bc 863f 853c
000000b0: 4615 283e 6310 ee3d fc10 513d 91bb 6e3c
000000c0: aafc 06be 7bc4 d93c ccef e53d 2f03 553d
000000d0: a562 043d 82ff ef3b adf1 373e 9915 c43d
000000e0: 276e fc3b e9a9 ab3d 8a43 04bd feef 1c3d
000000f0: 4564 1d3c aade 4abd 5d22 333e feef d6bc
00000100: 48a3 e8bb 5d9b 8cbd e895 11bd 144c 943d
00000110: e9d5 c03d a19d e73d d728 b23d d2e5 983d
00000120: 8491 6dbd d48f c33d 36d9 283c 5eeb 003d
00000130: 81f1 db3c 9224 633d ed7e 0ebe 9f99 23bc
00000140: 9f1a 1f3d 85fb 273d 956e 363e 905b 943c
00000150: 65fc 3b3d fc5d 053c ea95 20bd 5592 ef3d
00000160: 2026 25be 92ea 2c3e f577 f43d 3663 283e
00000170: 38ca f23c f4fa 763c 9338 f83c bef0 1c3e
00000180: 82e9 303d 0c29 7c3c 0f18 183d c632 f23d
00000190: 9ada d3bb 754a d83c 38aa 593c 2578 6b3d
000001a0: 7e06 bf3d 410c 393e d1a1 943c cc3b 943c
000001b0: 1447 3f3e b1c4 193e 1234 e6bc 0915 3dbd
000001c0: 63fb a9bd bcb5 2a3e 1f78 a83d 0105 423e
000001d0: 5002 223e afe2 4f3d c168 813e 454b fd3d
000001e0: 4239 103e 4d5c 863c bdcf 0f3e 8019 bbbd
000001f0: 2d2a 883e 5acb d33d 47ce 0ebd b97b 12bd
0.05022273 0.05839816 0.035088208 0.07390826 0.048160855 0.08856555 0.15594253 0.111396775
-0.03970725 0.09751928 -0.055587918 -0.01057527 0.14206363 0.04235191 -0.101708874 0.080695555
0.064164676 0.10077791 0.09162671 0.00028921495 -0.03344451 0.085286245 0.108387396 0.1998538
0.13435689 0.029632391 0.10572454 0.13914692 0.003822771 0.009412589 0.07513085 0.054494966
0.17283972 -0.091405004 0.1884851 0.016008914 0.028590934 0.17594461 -0.06416779 -0.021996519
0.047158718 0.0044510835 -0.01874212 0.016265642 0.16414365 0.11624219 0.05104159 0.0145710865
-0.13182321 0.026582947 0.11227378 0.05200499 0.032320637 0.00732416 0.17963286 0.09574432
0.007703561 0.08382017 -0.032290973 0.038314812 0.009606426 -0.049528755 0.17493577 -0.026237484
-0.0070995428 -0.06865571 -0.035543352 0.07241073 0.094158 0.11309362 0.08699196 0.0746571
-0.058000103 0.095489174 0.010305693 0.031474464 0.026848556 0.055454798 -0.13915606 -0.009985357
0.038843747 0.041011352 0.17815621 0.018110067 0.045895 0.008140083 -0.03920547 0.116978325
-0.16127825 0.16886356 0.119369425 0.16444096 0.029637441 0.01507448 0.030300414 0.15326211
0.04319144 0.015390646 0.03713232 0.118260905 -0.0064652683 0.026402691 0.013285212 0.057487626
0.0932741 0.1807108 0.018143566 0.01809492 0.18679458 0.15016438 -0.028101001 -0.04616264
-0.08299901 0.16670889 0.08226036 0.18947221 0.15821195 0.05075329 0.25275233 0.12367872
0.14084342 0.016401434 0.1404409 -0.09135723 0.26594678 0.103415206 -0.03486469 -0.035762522

fc3.weight f4 [128, 128]
00000000: af0c 733a 1620 dcbc 2649 09be f574 16bd
00000010: 0966 01bc 5f3c 403d e4bd ee3c 265a 21bd
00000020: 07ac c73d 1dcc 5dbd 54a6 d0bd db51 953c
00000030: 98c3 613c f29f 023d f47f 753d ec36 553a
00000040: aa59 bdbc cd30 85bd 567e b43c 2e19 c33c
00000050: 7881 533d cda5 0abd aa22 37bd a3db a2bc
00000060: 2492 a7bd a73b 99bd 5d4f a4bd 082a b33b
00000070: c62f 70bc f881 ca3b 0537 29bd d90f 0e3b
00000080: 4275 76bb 3a98 8cbd 3089 1d3d 94bb 013e
00000090: 8cdb 3d3c 9cb1 bebd 1fc8 6abd c31f 13bc
000000a0: 0b59 85bd 6f0a 34bd d04f de3d 3990 b3bd
000000b0: 7b3a 7bbd 8fab 64bd 2c72 abbc 4879 a53d
000000c0: 1446 74bd a5d7 943d b211 223d 0b0a cd3d
000000d0: 016d 933c 0c19 8cbd f304 34bd 56ff 6ebd
000000e0: 42a0 fabc b7dd 13bb e893 da3d 660d 05be
000000f0: 6cf4 cb3d f6a0 5a3c 5f7b 85bc c5fa 393d
00000100: 6f87 823c 33c3 c93d e06c 0abd 63bb 643c
00000110: 6b4a c83c 3ab6 3ebd 1017 05bd 6b5c d73c
00000120: 7d4f 9c3d ab1c a33c 23f6 323d 1eb3 063d
00000130: 5afa 3bbd 18ca 8dbd b3d8 f03b e2d3 5f3c
00000140: 795b d7bd 7676 043c cd46 efbb 0940 3b3e
00000150: aced c7bd c8a2 153e 579b c93d a90c a2bd
00000160: 7feb a63d 409b 4fbd 0032 443c ec83 693c
00000170: ee31 5c3c 47f5 713d 8263 883d ca83 aebc
00000180: 501b 123c 7925 0e3d 488e 8bbd ba41 123e
00000190: f4f5 043b 8e6c 5f3d fa8e f63c 1660 75bd
000001a0: 0900 a3bc aa9c 18bd defe f3bc b4e7 ac3d
000001b0: fd71 e73b 62ea 5e3d c6a9 8e3d 0ade c2bc
000001c0: ef54 54bc 8552 cabc 28ec a2bd 45de 5cbd
000001d0: 3760 7c3c 2e8d 9d3d d71f 6dbd f01f a8bd
000001e0: 9b70 dbbd e956 a0bd d6b8 babb 5e80 72bd
000001f0: f47d 403d df8d 6d3c f157 8abd fd47 8f3d
00000200: 4635 e1bb ef96 c83d d39c d33b fab2 dc3d
00000210: d013 4c3d 5d65 af3d ac0e de3d 6698 103e
00000220: ddaa ddbc 52a0 c23d 48d7 9bbc 9948 7a3c
00000230: 0700 4e3d f88c 953d 1db1 0a3d 0c83 d2bc
00000240: ab1d 913b c884 ac3d c50c 97bb d6ab c13d
00000250: 8902 76bd d20d d93d b839 693d 1a68 903d
00000260: bf6e 883d de01 79bd b7e1 cbbc ee6e 013e
00000270: a6b8 f1bd bf2c 703c faa9 7a3d 051c d43c
00000280: 3edb 993d 8993 153e 2a81 0c3d e151 e13d
00000290: 8d8c 233c f05b c3bc 3bde 47bd 9d70 b0bd
000002a0: b06d be3d ef60 02be 7121 d1bd 38ca 5cbc
000002b0: c2c7 8a3d 0ebc 7b3d 2457 ba3c a664 91bd
000002c0: d63b 633d 1cda babc 19b5 f2bc f18c 4a3d
000002d0: 8752 95bb a3cd 803d d358 2bbc 61db 943d
000002e0: 664b 893d 35f3 8bbd c03c d0bd d920 023d
000002f0: 49a6 9dbd 4ed7 cdbd ad6f 413d 29f2 24bd
00000300: 7eef 9f3d 6e6e a1bd e7d4 40bb 7c01 ae3d
00000310: 839e 313d c811 e13d c6b8 a83d e049 9e3d
00000320: 3c52 673d 0086 9c3c 01ac 8fbb 7489 cf3c
00000330: bb14 b4bd caef f83d f26b 7d3c 1a4d 8cbd
00000340: 6b23 073e 38f9 f8bc 7d07 d03d ed35 b7bc
00000350: ee78 443d af53 5e3d 06c8 c3bd 27fa bf3d
00000360: 4a42 f83b e1ba 0fbd 7151 a33b 71a3 96bd
00000370: 2ee4 8d3c 788a 07bd 2a25 0bbd b4d2 4b3d
00000380: 7c13 b33d 9101 9cbd 2cc6 943d 6381 5a3d
00000390: be35 84bc ca1a 15bd 2ff4 163d c266 163e
000003a0: f152 7bbb 280b a13d 6e11 ecbc 4e6a 723d
000003b0: 4b3b ee3c 5e58 bcbc b6e3 a0bd 0756 0bbd
000003c0: f0ad 823d 0b46 873c 767e 713d 42f3 08bc
000003d0: 705d 4b3d 5c75 21bd ed12 f4bd 96d7 2dbc
000003e0: 56d7 c63c fb35 a0bd a99b 1c3d 6eb9 aebd
000003f0: 68f3 bb3c 2218 993d 150c efbd 5009 03be
0.00092716044 -0.026870769 -0.1340681 -0.036732633 -0.007897862 0.046932574 0.029143281 -0.039392613
0.097496085 -0.054149736 -0.101879746 0.018227508 0.013779543 0.031890817 0.05993648 0.0008133489
-0.023114044 -0.06503449 0.022032898 0.023815718 0.051637143 -0.033849526 -0.044710793 -0.019880122
-0.08182171 -0.07482081 -0.0802295 0.005467657 -0.014659828 0.0061800443 -0.041312236 0.0021676926
-0.0037606512 -0.068649724 0.03846091 0.12669212 0.011587989 -0.0931122 -0.057319757 -0.008979741
-0.06511124 -0.043955263 0.10855067 -0.08767743 -0.06133507 -0.055827674 -0.020928465 0.08079773
-0.059637144 0.072676934 0.039567657 0.10011681 0.017996313 -0.06840715 -0.043950032 -0.058348976
-0.030593995 -0.0022562572 0.10672742 -0.12993392 0.09958729 0.01334404 -0.01629418 0.045405168
0.01593372 0.098516844 -0.033795238 0.013960692 0.024449548 -0.046560504 -0.032492697 0.026289186
0.07632349 0.01991113 0.043691766 0.032885663 -0.04589305 -0.06923312 0.0073500513 0.013661357
-0.10515494 0.008084884 -0.0073021413 0.18286146 -0.09762129 0.14612877 0.09844082 -0.07912571
0.08150386 -0.050685167 0.011974812 0.014252644 0.013439639 0.059071805 0.066596046 -0.021303076
0.008917645 0.034703705 -0.06814247 0.14282885 0.00202882 0.054546885 0.030097473 -0.059906088
-0.019897478 -0.03725878 -0.029784616 0.08442631 0.007063149 0.054422744 0.069659755 -0.023787517
-0.012959703 -0.024697552 -0.079551995 -0.05392291 0.015403799 0.076929435 -0.057891693 -0.082092166
-0.10714837 -0.07829077 -0.0056983037 -0.05920445 0.04699512 0.014499157 -0.06755055 0.069961525
-0.0068728058 0.09794413 0.006457904 0.107763246 0.049823582 0.085642554 0.10842642 0.14120635
-0.027059013 0.09503235 -0.019023553 0.015276098 0.050292995 0.07302278 0.033860315 -0.025697254
0.0044285855 0.084237635 -0.0046096765 0.09456603 -0.06006101 0.10598339 0.05693981 0.07051106
0.06661748 -0.060792796 -0.024887903 0.12639973 -0.11802797 0.014659106 0.06119726 0.025892267
0.0751252 0.14607061 0.034302868 0.11001945 0.00998224 -0.02384755 -0.04879592 -0.08615229
0.09298265 -0.1273229 -0.102114566 -0.013475947 0.06776382 0.06145864 0.02274663 -0.07099275
0.055476986 -0.02280908 -0.02962737 0.04945082 -0.004556957 0.06289222 -0.010458189 0.07268406
0.06703834 -0.068334974 -0.10167837 0.031769607 -0.07697732 -0.10050832 0.047225643 -0.040270004
0.078093514 -0.07882391 -0.0029423775 0.08496377 0.04336406 0.1098972 0.08238368 0.07728934
0.05647491 0.019106865 -0.004384518 0.025334097 -0.087930165 0.12155111 0.015467631 -0.068506435
0.13197105 -0.030392274 0.10157678 -0.022364581 0.04796689 0.054279026 -0.09559636 0.09373885
0.0075762616 -0.03509033 0.004984074 -0.07355393 0.017320719 -0.03309104 -0.03397099 0.04976149
0.08743951 -0.07617486 0.07264361 0.05334605 -0.016138908 -0.0364025 0.036853965 0.14687636
-0.0038348997 0.07863456 -0.028816905 0.05918341 0.029081007 -0.022991356 -0.078559324 -0.03401759
0.06380832 0.016512891 0.058958493 -0.008358778 0.049649656 -0.039418563 -0.11917672 -0.010610482
0.024272602 -0.07822796 0.038234387 -0.08531462 0.022943214 0.07475306 -0.11672226 -0.12796521

fc3.bias f4 [128]
00000000: cca5 bf3c d5ab 943d 8a3c ca3d 1196 b43d
00000010: 40c2 953e 6ad4 083e 6f3d eb3d e9a2 2c3e
00000020: 089d d83d 533f 213e 880e 2a3e 5007 e23d
00000030: e19a dbbd 538c 263e 1115 ad3c cbc9 57bc
00000040: 8b9a d13d 0df5 303c 6b42 e23d b060 e63d
00000050: f070 023a 4293 adbd 26bf eabc b607 333e
00000060: 67bc ff3d 7b1a 273c de55 babd 7045 d83d
00000070: f5a7 1a3e 639e e93d 7904 6e3e 0464 bcbd
00000080: 2795 3b3e bb5a 333c 05f7 1e3e 7f59 ccbd
00000090: 0ba2 92bd 6f25 a9bc 15f3 4c3e 2753 023e
000000a0: 9fb4 bd3d 7375 453e 9fd0 06bd 533d 0f3e
000000b0: 75b8 e43b 90d0 5c3d 3548 203e 8034 9b3d
000000c0: 49d3 703c 9678 b13d 6d91 c23d da7c f03b
000000d0: 2290 e6bd d6b8 ab3c f77a 793d 9c9a f23d
000000e0: ca0e 5a3e 0ea4 963d 7cd0 26bd 59dc 593d
000000f0: 4fb4 443e 2a39 473e 55d6 3c3e 7b7a 913d
00000100: 34f7 dc3d 6467 283d 65d2 8e3d d902 8d3e
00000110: 5223 9f3d 52f5 193a 4f5a 363e 7b41 563e
00000120: 8a71 703e f578 1f3e 8597 0ebe 7d6c d2ba
00000130: b150 533d 675a 503e adc6 2ebe c1b4 0b3e
00000140: 9dd7 56ba c4c6 1a3e a936 f739 7af4 253e
00000150: b57d 0f3e 13d1 3c3e 1751 c0bd e1bd 963d
00000160: f2dd d83d 6492 6a3e f7f4 af3d 6e17 fc3d
00000170: 8218 713e 32c6 683e feb8 6b3e a9b1 083e
00000180: 3c17 26bd 6b2a 12be 4953 39bd 40f8 403e
00000190: bb4b bc3d 3e59 2a3d f130 0ebd 59ce fa3d
000001a0: 8234 2d3e 68b2 5b3d 2057 083e bc5b 713e
000001b0: e4ca 1d3e 5e7d 883d b122 7a3d f97d 08be
000001c0: 9486 df3d ed44 18be e98e 973d f344 dbbd
000001d0: 5b77 1f3e 4a2e e23d a820 ae3d c83f cc3c
000001e0: 6bfa 503e d191 b23b a425 823d 9903 63bd
000001f0: c782 a43d 2a18 26bd 6dd3 2d3e 2858 46bd
0.023394488 0.07259337 0.09874828 0.088176854 0.29249763 0.1336228 0.11486327 0.1685902
0.10576826 0.15746813 0.16607106 0.11036551 -0.107229 0.16264467 0.02112821 -0.01317067
0.10234555 0.010800612 0.110478245 0.112489104 0.00049759354 -0.08475353 -0.0286556 0.1748341
0.12487107 0.0101991845 -0.09098409 0.10560119 0.15103133 0.11407163 0.23243894 -0.09198764
0.18318616 0.010946925 0.15523918 -0.099780075 -0.071598135 -0.020647733 0.20014603 0.12727033
0.09262966 0.19283085 -0.0329138 0.13988237 0.006979997 0.05390984 0.15652545 0.07578373
0.014698812 0.08665578 0.09500394 0.007339102 -0.1125796 0.02096216 0.060908284 0.11845896
0.21294704 0.0735551 -0.04072617 0.053188656 0.19209407 0.194554 0.18441136 0.071034394
0.10789338 0.041114226 0.06973723 0.27541235 0.07770409 0.00058730424 0.17807887 0.20923416
0.23480812 0.15573485 -0.13924988 -0.001605406 0.051590625 0.20346986 -0.17067976 0.13643171
-0.0008195581 0.15114886 0.00047152236 0.16206542 0.14012797 0.1843913 -0.09390467 0.07360435
0.10589208 0.22907406 0.08591645 0.12309156 0.23544505 0.22731856 0.23019788 0.13349022
-0.0405495 -0.14273994 -0.045245443 0.188447 0.09194132 0.041589014 -0.034714643 0.12246389
0.16914561 0.05363694 0.13314486 0.2357015 0.15409428 0.06664537 0.06106824 -0.13329305
0.109143406 -0.14870043 0.07400305 -0.107065104 0.15572874 0.11043985 0.085023224 0.024932757
0.20408027 0.0054495116 0.06354836 -0.055423353 0.08032756 -0.04055039 0.16975184 -0.048423916
