models/dqn_model_epoch_52000.pth (torch, 595624 bytes, 14 tensors)

cnn1.weight f4 [16, 4, 5, 5]
-0.19471392 0.04380789 -0.024688663 -0.19688323 -0.14293084 -0.19872382 -0.19391492 -0.28981775
-0.034815267 -0.056964908 -0.27288476 -0.16040105 -0.3788917 -0.14636536 0.03661329 -0.16614422
-0.21354936 -0.039996665 -0.25623095 0.012040188 -0.20993508 -0.25317857 -0.18861331 0.06677975
0.026522178 -0.014666661 -0.03388238 -0.094700456 -0.14137207 0.027750649 0.064613365 -0.027033886
0.025492271 -0.06671929 -0.0718872 -0.04712296 -0.13801225 0.016355366 0.1340615 -0.028364835
-0.10351045 0.020467794 -0.084780514 0.020076418 -0.1289066 -0.031758428 0.07507893 -0.041565157
-0.06665587 -0.08712567 0.08298438 -0.010232873 -0.13190563 -0.20574729 -0.025921904 -0.024361704
-0.08746176 0.17914863 0.049563102 -0.15425403 0.22874889 0.23188186 0.12869403 0.029505193
-0.2103752 -0.2827767 0.15935472 0.2828698 -0.13081077 -0.16662787 -0.16016933 -0.01608598
0.31913283 -0.13170071 -0.15254521 -0.09354025 -0.24447119 -0.09009966 -0.0051199957 -0.06630878
-0.041843925 0.11018724 0.14871842 -0.09420886 0.033664033 -0.16302626 0.07331259 0.080647886
-0.09355052 -0.08246238 -0.12846684 -0.00553122 0.074530296 -0.024515688 -0.1185264 0.09033549
0.117836244 -0.18209143 -0.07009537 -0.059834912 -0.118623845 -0.26090306 -0.17691992 0.03402715
-0.22612764 -0.12623002 -0.081932575 -0.0052058767 0.00036489702 0.005311164 -0.13678043 -0.049117528
0.01795221 -0.06272438 -0.06115658 -0.1557078 -0.22647938 -0.17568973 -0.37019864 -0.05813115
-0.2578676 -0.22136799 -0.096395984 -0.069860615 -0.12491592 -0.046134766 0.08342806 -0.05800433
0.035236936 -0.13151105 -0.015741685 -0.038602274 -0.10896234 0.022997292 -0.0030437454 -0.02028153
-0.050238535 -0.14270267 -0.04853342 -0.025728429 -0.13629596 -0.024932597 0.05109317 -0.0488925
-0.1066837 -0.002436285 0.03264464 -0.06863371 0.10365938 -0.113590136 -0.19028814 0.16961782
-0.05450984 0.15165357 -0.14779395 -0.18645772 0.17924021 -0.20418927 0.081888765 -0.15702397
-0.27318177 -0.25036457 0.08826775 0.096740864 -0.2103465 -0.2463731 -0.1374721 0.25843668
-0.1890627 -0.23325515 0.3893185 0.29685888 0.41411158 -0.05637029 -0.16550994 0.20710196
0.13342203 0.23725553 -0.017288 -0.0822677 0.11700492 -0.11959464 0.15209587 -0.12916552
-0.10975695 -0.16455486 0.09263952 0.0631451 -0.0811928 -0.15312056 -0.16714093 -0.02875428
-0.083874255 -0.12516043 -0.040349253 -0.13478188 -0.11802027 0.1832464 -0.1280727 -0.1392238
-0.29887724 -0.0748343 -0.3448805 0.04851228 -0.18169178 -0.22287717 -0.15555136 -0.19040011
0.03840881 0.0047602723 -0.24241608 -0.2185071 -0.122495845 0.027819451 0.17638211 -0.24853852
-0.22890702 -0.2898774 -0.15787682 0.13426995 -0.24367015 -0.13000664 -0.23907378 0.052262258
-0.06510674 -0.13001373 -0.011992598 -0.13948403 -0.08407914 -0.03679695 -0.004820411 -0.022724329
0.06206752 -0.09177299 0.027676811 -0.017542386 0.024592027 -0.012495811 -0.10028823 -0.0049295314
-0.0035428759 -0.086758204 0.009050654 0.18291596 -0.00878523 -0.08574808 -0.1506741 -0.05709288
0.09075728 -0.01264171 0.074989825 0.030809587 0.050822876 -0.39685062 -0.060948804 0.024331393
00000000: 1663 47be e76f 333d e13f cabc c29b 49be
00000010: 765c 12be 427e 4bbe a291 46be fe62 94be
00000020: 749a 0ebd 0954 69bd 8db7 8bbe 2c40 24be
00000030: 18fe c1be cde0 15be d1f7 153d b621 2abe
00000040: afac 5abe 8bd3 23bd b430 83be 3544 453c
00000050: 39f9 56be 9fa0 81be d923 41be d2c3 883d
00000060: 0a45 d93c 6f4c 70bc 40c8 0abd 50f2 c1bd
00000070: d7c3 10be 5455 e33c 0354 843d 2b76 ddbc
00000080: 2bd5 d03c 20a4 88bd 9939 93bd 0104 41bd
00000090: 1553 0dbe b0fb 853c 6b47 093e 5f5d e8bc
000000a0: 49fd d3bd 13ac a73c 68a1 adbd 4d77 a43c
000000b0: 1700 04be 2015 02bd fbc2 993d 3a40 2abd
000000c0: df82 88bd f16e b2bd b7f3 a93d c8a7 27bc
000000d0: 4512 07be 6baf 52be 2c5a d4bc 3292 c7bc
000000e0: 271f b3bd bd72 373e ae02 4b3d c5f4 1dbe
000000f0: 263d 6a3e 7072 6d3e 5ec8 033e e0b4 f13c
00000100: 996c 57be 1cc8 90be e22d 233e 4fd4 903e
00000110: 42f3 05be 7fa0 2abe 6e03 24be bfc6 83bc
00000120: 6165 a33e 8ddc 06be d034 1cbe 0892 bfbd
00000130: a856 7abe 2c86 b8bd a3c5 a7bb e6cc 87bd
00000140: 8964 2bbd d9a9 e13d a449 183e 93f0 c0bd
00000150: 4ce3 093d 5bf0 26be e924 963d b82a a53d
00000160: 6a97 bfbd 09e2 a8bd d08c 03be 3d3f b5bb
00000170: 57a3 983d 20d5 c8bc f8bd f2bd d001 b93d
00000180: 2154 f13d 2d76 3abe 298e 8fbd 7415 75bd
00000190: 0ff1 f2bd 1695 85be 7f2a 35be 0e60 0b3d
000001a0: 018e 67be 7142 01be 44cc a7bd 0f96 aabb
000001b0: a64f bf39 4609 ae3b 2b10 0cbe 762f 49bd
000001c0: 8310 933c a475 80bd 527f 7abd de71 1fbe
000001d0: 36ea 67be 02e8 33be ad8a bdbe ee1a 6ebd
000001e0: 3907 84be 4aae 62be 426b c5bd 1513 8fbd
000001f0: ebd3 ffbd cff7 3cbd 55dc aa3d f395 6dbd
00000200: 9b54 103d d5aa 06be b5f4 80bc 6b1d 1ebd
00000210: a627 dfbd d164 bc3c 9379 47bb 7425 a6bc
00000220: ecc6 4dbd a620 12be fbca 46bd 6dc4 d2bc
00000230: 2b91 0bbe 723f ccbc 1247 513d 8143 48bd
00000240: fc7c dabd 14aa 1fbb 63b6 053d d58f 8cbd
00000250: 5e4b d43d f2a1 e8bd e5da 42be 4bb0 2d3e
00000260: b645 5fbd 134b 1b3e 4c57 17be c6ee 3ebe
00000270: bf8a 373e fe16 51be 4cb5 a73d e4ca 20be
00000280: 7bde 8bbe c92f 80be b9c5 b43d 1320 c63d
00000290: 1365 57be 3b49 7cbe 7cc5 0cbe d051 843e
000002a0: a799 41be 70da 6ebe c154 c73e e3fd 973e
000002b0: 6f06 d43e 89e4 66bd 707b 29be 8912 543e
000002c0: c99f 083e 1df3 723e 909f 8dbc f87b a8bd
000002d0: 47a0 ef3d 09ee f4bd 05bf 1b3e f743 04be
000002e0: 40c8 e0bd 1281 28be cab9 bd3d 3852 813d
000002f0: 6948 a6bd a3cb 1cbe fe26 2bbe 198e ebbc
00000300: 44c6 abbd 0e2a 00be 4245 25bd 4304 0abe
00000310: 9cb4 f1bd f2a4 3b3e 7d25 03be af90 0ebe
00000320: 7006 99be ba42 99bd 2d94 b0be d0b4 463d
00000330: 690d 3abe ea39 64be db48 1fbe 3ff8 42be
00000340: 8e52 1d3d 0ffc 9b3b ec3b 78be 53c0 5fbe
00000350: 1adf fabd 9ee5 e33c 839d 343e e280 7ebe
00000360: 9a66 6abe d06a 94be 76aa 21be 107e 093e
00000370: ab84 79be 7620 05be c2cf 74be f310 563d
00000380: af56 85bd 5222 05be 9a7c 44bc e7d4 0ebe
00000390: af31 acbd 66b8 16bd 8af4 9dbb 5f28 babc
000003a0: 833a 7e3d 7af3 bbbd 7bba e23c 0db5 8fbc
000003b0: 3875 c93c 3bbb 4cbc ea63 cdbd e887 a1bb
000003c0: 982f 68bb 49ae b1bd 3249 143c 524e 3b3e
000003d0: edef 0fbc b09c afbd 504a 1abe 39da 69bd
000003e0: f4de b93d 2d1f 4fbc 4494 993d 6364 fc3c
000003f0: a62b 503d 0130 cbbe 74a5 79bd a152 c73c

cnn1.bias f4 [16]
0.055219147 -0.050212868 -0.07030623 -0.07364245 0.03589539 -0.07221792 -0.07246227 -0.0018740301
0.016357262 -0.12192917 -0.029239751 -0.07390593 -0.014658319 -0.08835735 0.024799611 -0.076966345
00000000: 792d 623d 02ac 4dbd b6fc 8fbd dad1 96bd
00000010: 0b07 133d fde6 93bd 1967 94bd 04a2 f5ba
00000020: aaff 853c 00b6 f9bd 3488 efbc fe5b 97bd
00000030: 7229 70bc b3f4 b4bd 8e28 cb3c 88a0 9dbd

cnn2.weight f4 [32, 16, 3, 3]
0.027046055 0.057708208 0.10405383 0.15961201 -0.01910624 -0.04163759 0.075290665 0.0171444
-0.05083408 0.17090563 -0.09831574 0.040819813 0.13466927 -0.07229037 0.12109931 0.15279146
-0.057345435 -0.070470974 -0.011298638 -0.02727354 -0.0012475754 -0.015704602 0.006322627 -0.051780358
-0.058658324 0.015659641 -0.056185115 0.10431715 -0.07987662 0.0171005 0.16786338 0.03685253
-0.031830847 0.11209495 0.06109591 -0.08867419 0.06476394 -0.019094732 -0.019265108 0.1103171
0.01690486 0.06874348 0.09107565 0.02936092 0.090239994 0.095023066 0.06411068 0.06767436
0.1247418 0.06299414 0.02602563 -0.0134173855 0.017151225 0.035973944 -0.05447763 0.03463251
0.07612894 0.010362669 0.033179637 0.067719385 0.044707682 0.03549282 0.10337992 0.05682072
-0.08300895 0.04857712 0.049781106 -0.04463753 0.100521475 -0.024668505 -0.036447633 0.0088132685
0.057767123 -0.014989783 -0.055205833 0.11182973 0.09331744 0.08414108 0.050779775 0.045616325
0.0525073 0.06902877 0.07856384 0.11751804 0.052571837 0.050022695 0.027811926 0.06854026
-0.036615595 0.046048827 0.045905307 -0.016573025 -0.011906174 0.015687777 -9.981596e-05 -0.081870824
0.00264689 -0.0016648729 -0.0025341888 0.020021245 -0.039621104 0.037028864 0.085302286 0.089768484
-0.052841656 0.10160844 0.049604062 0.08862771 -0.08167498 -0.11814159 -0.018888112 -0.002879812
0.04665253 -0.012129625 0.050760396 -0.054146506 -0.0026615767 -0.036804087 -0.057929542 0.023141764
0.04560712 -0.064192005 -0.06516518 -0.037329625 -0.07860593 -0.032086592 0.10741186 -0.025048494
0.08554095 0.18292184 0.06337867 0.07143203 0.15497532 -0.0006702716 0.09499068 0.022512792
-0.05896186 -0.0010655867 0.062379193 -0.038707636 0.011415692 0.03894719 -0.05073431 -0.09735606
-0.05363828 0.03487953 0.028436184 0.15824382 0.0043951604 -0.028944362 0.014530787 0.033339866
-0.012727121 0.0059089297 0.11508595 -0.036473088 0.12990995 0.009807918 -0.0042857877 0.07275871
0.122008726 -0.09420832 0.009159817 -0.069844276 -0.043747004 -0.087556705 -0.11970352 -0.09110384
-0.05130521 -0.1325776 -0.111956395 0.12067619 0.117561184 -0.026663868 0.15963562 -0.00079249346
0.022732507 0.11737142 0.07052801 -0.0718697 0.026487743 0.0536539 0.03439383 0.06612609
0.17611966 0.006312607 0.09373917 0.057026587 0.033677198 0.19483337 0.0021085767 0.030541264
0.14332955 0.00963739 0.00755512 -0.058185965 0.04574804 -0.13940367 -0.002198931 -0.018939437
-0.009580903 0.12202135 0.10034646 0.029850587 0.1738011 -0.053973515 0.10743192 0.010805591
0.044307947 -0.034555268 -0.04391251 -0.059194315 -0.017968087 -0.04509499 -0.09059857 -0.021604756
0.15346943 0.0251951 -0.001648632 0.164906 -0.01733778 -0.013617573 0.18323758 0.048498645
0.03377481 0.1504792 0.08779486 0.020998076 0.003055981 0.0886755 0.15738982 0.08614789
-0.035101388 0.035678856 0.026105696 0.08881223 0.0012344919 0.046921127 -0.009112211 -0.07002327
-0.052870825 -0.051253326 -0.12258614 0.1181797 0.050430037 -0.10167824 0.067124605 0.052653253
-0.007524943 0.10879499 0.07391671 0.023937613 0.018827766 -0.023394853 -0.07523655 0.11563559
00000000: b08f dd3c 715f 6c3d 2d1a d53d 5571 233e
00000010: b084 9cbc 2d8c 2abd fe31 9a3d 6a72 8c3c
00000020: 6537 50bd e301 2f3e c359 c9bd ad32 273d
00000030: bee6 093e f90c 94bd ea02 f83d 5d75 1c3e
00000040: 0ce3 6abd 1653 90bd ec1d 39bc c26c dfbc
00000050: af85 a3ba f0a6 80bc 0a2e cf3b a417 54bd
00000060: b643 70bd a648 803c 5d22 66bd 3ba4 d53d
00000070: 5a96 a3bd 5916 8c3c 61e4 2b3e aef2 163d
00000080: 1061 02bd 0a92 e53d b43f 7a3d d09a b5bd
00000090: f5a2 843d 8e6c 9cbc dcd1 9dbc efed e13d
000000a0: 107c 8a3c 62c9 8c3d df85 ba3d 5086 f03c
000000b0: bfcf b83d 749b c23d 764c 833d db98 8a3d
000000c0: a178 ff3d 1203 813d b433 d53c 98d4 5bbc
000000d0: ba80 8c3c 6a59 133d ef23 5fbd d2da 0d3d
000000e0: 7de9 9b3d 2fc8 293c 5fe7 073d 76b0 8a3d
000000f0: 671f 373d eb60 113d dab8 d33d d8bc 683d
00000100: 9900 aabd cdf8 463d 46e7 4b3d d8d5 36bd
00000110: 34de cd3d 9b15 cabc 1d4a 15bd 8765 103c
00000120: 389d 6c3d b597 75bc 831f 62bd fc06 e53d
00000130: 371d bf3d 2952 ac3d 74fe 4f3d 2fd8 3a3d
00000140: e511 573d f55e 8d3d 14e6 a03d 4cad f03d
00000150: 9155 573d 99e4 4c3d d6d5 e33c d65e 8c3d
00000160: 3cfa 15bd b29d 3c3d 3407 3c3d 27c4 87bc
00000170: 1d12 43bc a783 803c 4954 d1b8 e4ab a7bd
00000180: 7277 2d3b dd37 daba a214 26bb 9803 a43c
00000190: bd49 22bd 94ab 173d f7b2 ae3d 8ad8 b73d
000001a0: 7e70 58bd 1618 d03d a12d 4b3d 7282 b53d
000001b0: 3645 a7bd 38f4 f1bd 3ebb 9abc 3abb 3cbb
000001c0: b916 3f3d 56bb 46bc 22ea 4f3d bac8 5dbd
000001d0: d96d 2ebb e2bf 16bd 8747 6dbd cc93 bd3c
000001e0: 88ce 3a3d 1977 83bd 5275 85bd f3e6 18bd
000001f0: 25fc a0bd 3b6d 03bd c0fa db3d 8032 cdbc
00000200: 1830 af3d dd4f 3b3e adcc 813d f54a 923d
00000210: dab1 1e3e 2ab5 2fba 798a c23d bf6c b83c
00000220: fe81 71bd 28ab 8bba 5381 7f3d e68b 1ebd
00000230: e208 3b3c 1787 1f3d c8ce 4fbd 9d62 c7bd
00000240: d0b3 5bbd d7dd 0e3d 00f3 e83c ab0a 223e
00000250: 4705 903b ba1c edbc 8a12 6e3c 628f 083d
00000260: 6a85 50bc b29f c13b 2fb2 eb3d ce64 15bd
00000270: 1d07 053e 64b1 203c cb6f 8cbb 8502 953d
00000280: b6df f93d 4bf0 c0bd 0f13 163c 840a 8fbd
00000290: 0f30 33bd ee50 b3bd 1e27 f5bd a694 babd
000002a0: 6925 52bd 6cc2 07be 6549 e5bd 1425 f73d
000002b0: ebc3 f03d 2f6e dabc 8577 233e 56bf 4fba
000002c0: 8639 ba3c 6d60 f03d fd70 903d 6c30 93bd
000002d0: d3fc d83c 31c4 5b3d 8be0 0c3d 1e6d 873d
000002e0: b658 343e fcd9 ce3b 52fa bf3d b694 693d
000002f0: 1af1 093d 6682 473e 0c30 0a3b ac31 fa3c
00000300: fbc4 123e 25e6 1d3c f190 f73b 6854 6ebd
00000310: 4c62 3b3d d6bf 0ebe f11b 10bb e126 9bbc
00000320: 38f9 1cbc 54e6 f93d 7282 cd3d 3889 f43c
00000330: eaf8 313e 5513 5dbd 4405 dc3d ef09 313c
00000340: 407c 353d d389 0dbd 9bdd 33bd bd75 72bd
00000350: cf31 93bc 86b5 38bd be8b b9bd 75fc b0bc
00000360: 1727 1d3e f465 ce3c e916 d8ba 1edd 283e
00000370: f607 8ebc 3e1c 5fbc a2a2 3b3e 84a6 463d
00000380: 7557 0a3d 3817 1a3e cbcd b33d 2804 ac3c
00000390: da46 483b 809b b53d cc2a 213e 4e6e b03d
000003a0: 79c6 0fbd fe23 123d 9ddb d53c 30e3 b53d
000003b0: adce a13a 5e30 403d 624b 15bc 5c68 8fbd
000003c0: 148f 58bd 02ef 51bd 710e fbbd 3308 f23d
000003d0: ba8f 4e3d ae3c d0bd a078 893d f0aa 573d
000003e0: cc93 f6bb e8cf de3d a561 973d d018 c43c
000003f0: b03c 9a3c 90a6 bfbc 9f15 9abd 5ad2 ec3d

cnn2.bias f4 [32]
-0.10186128 -0.029313328 -0.034597617 0.0037065884 -0.0002934887 -0.001245862 -0.076680355 0.07140084
-0.07323473 -0.04286422 0.03104617 0.001028289 -0.005602916 0.007102361 -0.00042363527 -0.10871489
0.11252624 0.0065189037 -0.037945133 -0.09967836 -0.11013454 0.019477399 -0.05268395 -0.04027178
-0.0043323296 -0.08557012 -0.05528577 -0.13164519 0.097087435 -0.059597205 0.0934732 -0.008138095
00000000: a69c d0bd 8122 f0bc 3bb6 0dbd 3cea 723b
00000010: 63df 99b9 314c a3ba 970a 9dbd 9b3a 923d
00000020: 17fc 95bd 6492 2fbd 8a54 fe3c a7c7 863a
00000030: aa98 b7bb ecba e83b 5d1b deb9 eaa5 debd
00000040: 2874 e63d 879c d53b 5b6c 1bbd 2b24 ccbd
00000050: 388e e1bd 118f 9f3c 20cb 57bd 06f4 24bd
00000060: 37f6 8dbb 633f afbd 5573 62bd ffcd 06be
00000070: c7d5 c63d 331c 74bd e16e bf3d a555 05bc

cnn3.weight f4 [32, 32, 3, 3]
0.026914472 0.0012469265 0.021615952 0.0120021785 -0.07293746 -0.04680737 -0.012103266 -0.02369193
0.00034693323 0.1683793 0.04310027 -0.073428266 0.09158363 -0.043022044 -0.14959006 -0.0695754
-0.048343536 -0.091925494 0.00070194114 -0.04032679 -0.065561086 0.07641268 -0.05209256 -0.07727344
0.04741851 0.056519277 -0.016386978 0.037701335 -0.0052634845 0.008732126 0.05153817 -0.05233561
-0.052765366 0.014223086 -0.025317734 0.026003953 0.10450113 0.025844432 -0.0107309 -0.02434824
-0.09987813 0.004118059 0.0016335982 0.062492408 -0.009490353 0.11999138 -0.07751878 -0.016611945
0.03666395 -0.09610989 -0.09596883 -0.014473353 0.0056974967 -0.003800111 -0.0072797295 0.02767022
-0.062360205 -0.03915889 -0.0020816447 -0.028677879 0.048425958 -0.054934714 -0.039852563 -0.046462227
0.11534265 0.070791684 0.040238567 -0.005270183 0.10797758 0.046051133 0.06441598 0.089748524
-0.010044601 0.02325402 -0.05455649 -0.06619183 -0.029572021 -0.0547028 0.010137286 -0.02132689
-0.058672786 0.0908224 -0.08432074 0.012511779 0.022507371 -0.12044702 0.012507747 -0.02930604
-0.030231092 -0.05471679 0.08632734 0.09469891 -0.09510078 0.023279602 0.019842494 -0.08798352
-0.031221876 0.035614584 -0.02624304 0.057870153 -0.075486265 -0.07175326 -0.041886725 -0.11843266
-0.1361288 0.05337212 0.03704215 -0.024957983 0.104778655 0.1471735 0.1549812 -0.028685575
0.15228118 0.02667918 0.011450764 0.023165835 -0.021605948 0.017155515 0.014817829 -0.021970868
-0.005365278 0.03927266 -0.045555484 0.030822156 0.031760056 0.04962039 0.10633604 -0.008750445
-0.051736962 0.05586309 -0.05503746 -0.05596883 -0.018203467 0.019197302 -0.10087031 0.0033300295
-0.039135456 0.050572384 -0.022787347 -0.025988385 -0.050873164 0.024449427 0.0039395355 -0.011603378
0.06743597 0.22702783 0.20141226 0.02573237 0.08700503 0.12197583 0.025002088 0.08769552
0.11547774 0.076845475 0.09052638 -0.07213388 0.029992681 0.046717696 -0.07289573 0.0076905396
0.018433897 -0.040857293 -0.024395308 -0.06937061 -0.06949587 0.021958733 -0.047886632 -0.13222349
0.010075842 -0.10268172 -0.046558328 -0.051075753 0.003441682 0.045315575 0.023852065 -0.08171094
-0.004972403 0.004348293 -0.06256123 0.014598193 -0.04920967 -0.026935041 0.04298489 -0.034530047
-0.093726754 -0.03317267 0.0021399364 -0.05208447 -0.024720807 0.08145179 0.10572366 -0.032901037
0.0064454484 0.014342508 -0.04368356 -0.045781795 0.016328195 -0.12103867 -0.028242448 -0.10120274
-0.036692444 -0.06351856 -0.116621934 -0.0019455574 -0.051168237 -0.043781564 0.021600496 0.042850096
0.016687838 0.07687329 0.02184921 -0.040557984 -0.014103732 -0.018776491 0.09170648 0.017192584
0.06468964 -0.013491444 -0.049136102 -0.015067119 -0.065781035 -0.07884446 -0.006284235 0.043714017
-0.01141686 0.036692854 -0.031015454 0.0029268041 -0.023251649 -0.058599528 0.01694965 -0.017923493
0.050109286 0.05736931 0.09658987 0.0027382376 0.0054588974 0.02821323 -0.049140338 -0.0072235907
-0.020129891 0.01981829 -0.040831953 0.008980349 0.047107816 -0.01709549 -0.007149861 -0.04393015
-0.03234681 -0.00484799 -0.018317174 -0.02024788 0.022222212 0.0022558004 0.09968725 -0.026194025
00000000: bd7b dc3c e96f a33a f013 b13c c9a4 443c
00000010: 3c60 95bd 16b9 3fbd c74c 46bc 9415 c2bc
00000020: 97e4 b539 a06b 2c3e e989 303d 8f61 96bd
00000030: 3390 bb3d e237 30bd 232e 19be 8c7d 8ebd
00000040: df03 46bd 6f43 bcbd 7902 383a b42d 25bd
00000050: e444 86bd 407e 9c3d 025f 55bd 8a41 9ebd
00000060: e939 423d c280 673d fc3d 86bc b76c 1a3d
00000070: 4f79 acbb 3111 0f3c b019 533d dd5d 56bd
00000080: 7f20 58bd f207 693c 2367 cfbc 3e06 d53c
00000090: b004 d63d b4b7 d33c a8d0 2fbc f675 c7bc
000000a0: e88c ccbd c8f0 863b 761e d63a 0af8 7f3d
000000b0: 6d7d 1bbc 0abe f53d 2bc2 9ebd c615 88bc
000000c0: f02c 163d 43d5 c4bd 4e8b c4bd a421 6dbc
000000d0: 11b2 ba3b 480b 79bb cc8a eebb a8ac e23c
000000e0: 6a6d 7fbd 1265 20bd 346c 08bb dfed eabc
000000f0: 4c5a 463d 3903 61bd 713c 23bd 2d4f 3ebd
00000100: c438 ec3d 3bfb 903d 32d1 243d 80b1 acbb
00000110: 5923 dd3d 1da0 3c3d 86ec 833d 13ce b73d
00000120: 1c92 24bc 377f be3c a076 5fbd 958f 87bd
00000130: 0641 f2bc 0b10 60bd dc16 263c bbb5 aebc
00000140: e052 70bd 1801 ba3d 5ab0 acbd 34fe 4c3c
00000150: 6161 b83c edac f6bd 4bed 4c3c 3813 f0bc
00000160: 32a7 f7bc b61e 60bd 63cc b03d 81f1 c13d
00000170: 33c4 c2bd ddb4 be3c ba8c a23c b430 b4bd
00000180: 05c5 ffbc 99e0 113d a5fb d6bc 4109 6d3d
00000190: 8b98 9abd 60f3 92bd 6a91 2bbd d38c f2bd
000001a0: 5965 0bbe b99c 5a3d 82b9 173d af74 ccbc
000001b0: 3196 d63d a6b4 163e 64b3 1e3e 03fe eabc
000001c0: 99ef 1b3e 4c8e da3c fc9b 3b3c 47c6 bd3c
000001d0: f5fe b0bc b989 8c3c 7bc6 723c 40fc b3bc
000001e0: 37cf afbb 5edc 203d 6398 3abd bf7e fc3c
000001f0: d516 023d c03e 4b3d b6c6 d93d 075e 0fbc
00000200: 23ea 53bd b2d0 643d f66e 61bd 923f 65bd
00000210: 701f 95bc a943 9d3c 1895 cebd a03c 5a3b
00000220: 804c 20bd fd24 4f3d 88ac babc 98e5 d4bc
00000230: 6160 50bd 2a4a c83c 3817 813b 181c 3ebc
00000240: df1b 8a3d fc79 683e 043f 4e3e b1cc d23c
00000250: b12f b23d 77ce f93d 2ed1 cc3c b599 b33d
00000260: 987f ec3d 2961 9d3d e565 b93d edba 93bd
00000270: 36b3 f53c 0e5b 3f3d 5b4a 95bd ec00 fc3b
00000280: af02 973c fa59 27bd abd8 c7bc 2e12 8ebd
00000290: da53 8ebd cde2 b33c c624 44bd 9865 07be
000002a0: 2515 253c cb4a d2bd f2b3 3ebd cf34 51bd
000002b0: d88d 613b d39c 393d 6865 c33c 1158 a7bd
000002c0: 8aef a2bb 207c 8e3b 1a20 80bd 422d 6f3c
000002d0: 1490 49bd e0a6 dcbc ed10 303d 616f 0dbd
000002e0: d0f3 bfbd 11e0 07bd 2d3e 0c3b 8656 55bd
000002f0: 4a83 cabc 32d0 a63d a585 d83d 3dc3 06bd
00000300: 5734 d33b d7fc 6a3c 88ed 32bd b185 3bbd
00000310: b5c2 853c 1fe3 f7bd b55c e7bc 6243 cfbd
00000320: d14a 16bd 0516 82bd 7bd7 eebd 1302 ffba
00000330: c995 51bd 4c54 33bd 86f3 b03c 9583 2f3d
00000340: efb4 883c be6f 9d3d 1dfd b23c 2120 26bd
00000350: 5713 67bc 28d1 99bc 9bd0 bb3d 76d7 8c3c
00000360: 017c 843d 380b 5dbc f042 49bd 14dc 76bc
00000370: 35b8 86bd 3479 a1bd fceb cdbb 780d 333d
00000380: c80d 3bbc 3f4b 163d 1f14 febc a0cf 3f3b
00000390: 3e7a bebc 0f06 70bd fed9 8a3c 4ad4 92bc
000003a0: 653f 4d3d 15fc 6a3d e9d0 c53d 0174 333b
000003b0: 8de0 b23b 6f1f e73c 6147 49bd dfb3 ecbb
000003c0: 71e7 a4bc f759 a23c 683f 27bd 5022 133c
000003d0: 20f4 403d d70b 8cbc 6249 eabb 1af0 33bd
000003e0: 177e 04bd e3db 9ebb e60d 96bc e2de a5bc
000003f0: 5b0b b63c 0dd6 133b d428 cc3d da94 d6bc

cnn3.bias f4 [32]
0.019942263 0.04397886 -0.0948637 -0.017984938 0.032481104 -0.032874305 -0.033573538 0.11730046
-0.009886488 -0.060861126 0.009950442 -0.025707796 -0.013468142 0.05020407 -0.01853209 0.12645824
-0.07077807 0.0047885515 -0.042394016 -0.06359281 -0.0709487 -0.029765302 -0.0700156 -0.060357455
-0.012433057 -0.035000842 -0.06648899 0.027934643 -0.008332542 0.09780738 0.021720478 0.15068536
00000000: f55d a33c 2d23 343d e647 c2bd 2655 93bc
00000010: e80a 053d 35a7 06bd 6884 09bd 393b f03d
00000020: f0fa 21bc 8449 79bd 2e07 233c 2899 d2bc
00000030: 7ba9 5cbc c8a2 4d3d 9cd0 97bc 457e 013e
00000040: 18f4 90bd 48e9 9c3b 59a5 2dbd f23c 82bd
00000050: 8d4d 91bd 5dd6 f3bc 5764 8fbd 6139 77bd
00000060: 05b4 4bbc 0b5d 0fbd 612b 88bd 31d7 e43c
00000070: 3785 08bc 3c4f c83d 25ef b13c 434d 1a3e

fc1.weight f4 [128, 768]
-0.026768217 0.024805857 0.019706015 0.014805308 0.030714003 -0.03206256 -0.04738656 0.015729973
-0.017709669 -0.010950901 -0.023830168 0.0005367771 -0.0016521504 0.0027314185 -0.00967815 0.019197397
0.0076671825 -0.0118327625 -0.010674359 0.011067424 -0.02330589 0.01681887 -0.028270751 -0.012641771
-0.03670567 -0.0069884784 -0.03650331 -0.008763657 0.0028516452 -0.030833649 -0.01898992 0.029425954
-0.039122038 0.015803397 0.04087461 -0.01204716 0.02607422 0.03501218 -0.007992916 -0.0013367659
0.009830236 -0.008740827 0.023201939 -0.052631065 -0.04098562 0.017855586 -0.031004813 -0.04243366
-0.040572193 0.010986801 -0.03187394 -0.032957774 -0.03824586 -0.005464251 0.008126307 -0.015216153
-0.008458035 -0.021384984 0.0094202915 0.028440623 -0.034350265 -0.018193372 -0.030250255 -0.046509687
0.023425652 0.012425869 -0.014549559 -0.009992772 -0.03793028 0.019242173 0.02116751 -0.0349238
-0.007668633 0.012855098 -0.023899289 -0.017706048 0.02842341 0.017105626 0.023311341 0.004786948
-0.0011094102 0.0068636066 0.01572924 -0.022178452 -0.031964805 0.025595896 0.0011204204 -0.010002529
0.0066787233 -0.023629045 -0.0027257737 -0.027397422 -0.0020104873 -0.039384115 0.0024646209 0.03186066
0.023867149 -0.03161419 0.0029067013 0.0045068497 -0.0007688545 0.0047350274 -0.023112593 -0.008261039
-0.038236745 -0.012191663 -0.016727006 -0.0066710715 0.014020395 -0.007324341 -0.016492775 -0.036273867
0.008421028 0.009895774 0.0114422925 -0.028039398 0.014289408 0.0005009341 -0.017592205 0.001777416
0.028321987 -0.03954159 0.005815888 0.011385632 -0.031181969 -0.009777736 0.0017313063 -0.032909855
0.037357967 0.019556236 0.012493526 0.004295384 0.025172144 0.003122344 -0.016434241 -0.024076868
-0.03271658 0.011582412 0.0157233 0.026555002 0.0043723355 0.01899039 0.002968764 -0.032260943
-0.0241181 0.0124429315 0.034022987 0.02737844 0.0027018301 -0.011732729 0.026980303 0.03537681
0.034640037 0.00976938 0.021684263 -0.006068522 -0.020357322 -0.007354265 0.03397174 0.034645036
0.015774377 0.017878175 0.009545419 -0.020073159 -0.007731734 0.032857556 -0.030408528 -0.01198029
-0.01387168 0.01142631 -0.0017675081 -0.007279032 0.003476853 -0.01201483 -0.058901172 -0.017311834
0.02568219 -0.019402418 -0.021298371 -0.040221225 -0.007468871 -0.035273485 0.020268856 0.0006612685
-0.044842377 -0.042740796 -0.009260616 -0.041124173 -0.0038951866 -0.021177938 0.009174399 -0.042680874
0.002109341 -0.0010863243 -0.005105085 -0.033098146 -0.031325504 0.028898567 -0.0015201005 -0.010904149
-0.029960625 -0.012364701 0.010846193 -0.03030587 -0.020987388 -0.02117999 -0.00782921 -0.013288465
0.019337598 -0.022215648 0.010765107 -0.008908859 0.02027019 -0.03463008 0.032106772 0.02664411
-0.034440305 -0.037104357 -0.037316777 0.02408591 -0.008800963 0.013576292 0.032432374 -0.035967845
-0.017288452 -0.013287759 0.01792957 0.016850995 -0.025568184 -0.02369145 0.024746014 0.032811016
0.0071376464 -0.018317195 0.01173135 -0.0016730701 -0.020331034 0.023337789 -0.0381589 -0.02679223
0.021745728 0.0011655202 0.0312667 -0.036564782 0.010468319 0.033404067 0.0006542119 0.011184478
-0.030304294 -0.034873065 0.008305769 0.020154366 -0.019414691 -0.006928563 0.028450064 -0.031442467
00000000: 0549 dbbc a735 cb3c 826e a13c f691 723c
00000010: ef9b fb3c 0854 03bd 6918 42bd 25dc 803c
00000020: de13 91bc 686b 33bc 7c37 c3bc 80b6 0c3a
00000030: f88c d8ba 9901 333b 1a91 1ebc dc43 9d3c
00000040: fd3c fb3b 34de 41bc 82e3 2ebc 2454 353c
00000050: feeb bebc bac7 893c 1098 e7bc 6e1f 4fbc
00000060: af58 16bd 9bff e4bb 7f84 15bd 7195 0fbc
00000070: abe2 3a3b d996 fcbc c090 9bbc b30e f13c
00000080: 6e3e 20bd 2076 813c 236c 273d 7461 45bc
00000090: 9a99 d53c ef68 0f3d b8f4 02bc 6c36 afba
000000a0: 000f 213c b035 0fbc fe11 be3c ac93 57bd
000000b0: 8ae0 27bd e145 923c cefd fdbc ebce 2dbd
000000c0: 072f 26bd fc01 343c 408e 02bd bbfe 06bd
000000d0: b1a7 1cbd 760d b3bb 3424 053c 2c4d 79bc
000000e0: 9293 0abc 902f afbc 9157 1a3c 4ffc e83c
000000f0: ddb2 0cbd 440a 95bc 62cf f7bc f180 3ebd
00000100: 27e7 bf3c df95 4b3c 4661 6ebc b9b8 23bc
00000110: c85c 1bbd c3a1 9d3c 7c67 ad3c 420c 0fbd
00000120: 2849 fbbb 309e 523c 71c8 c3bc 460c 91bc
00000130: 36d8 e83c 1921 8c3c 6df7 be3c d5db 9c3b
00000140: a169 91ba 1be8 e03b 9bda 803c 96af b5bc
00000150: 87ed 02bd 7cae d13c 12db 923a a6e1 23bc
00000160: 31d9 da3b b391 c1bc e5a2 32bb 8f70 e0bc
00000170: 61c2 03bb 3d51 21bd 7a85 213b 5380 023d
00000180: 0a85 c33c e27d 01bd 5b7e 3e3b 32ae 933b
00000190: f48c 49ba 4a28 9b3b 9f56 bdbc 4f59 07bc
000001a0: 229e 1cbd 8abf 47bc 1307 89bc 0199 dabb
000001b0: cdb5 653c 0701 f0bb db1b 87bc e893 14bd
000001c0: 5af8 093c e221 223c 7478 3b3c e1b2 e5bc
000001d0: 1f1e 6a3c 1e51 033a 871d 90bc 2ff8 e83a
000001e0: 8303 e83c 5df6 21bd 3493 be3b cd8a 3a3c
000001f0: 5471 ffbc cc32 20bc 00ed e23a 7ccc 06bd
00000200: ab04 193d 6634 a03c a5b1 4c3c 4bc0 8c3b
00000210: d035 ce3c 3da0 4c3b 1aa1 86bc da3c c5bc
00000220: d201 06bd 28c4 3d3c 26ce 803c e089 d93c
00000230: cf45 8f3b bc91 9b3c 988f 423b 0d24 04bd
00000240: 5293 c5bc 70dd 4b3c b05b 0b3d c048 e03c
00000250: 3011 313b a23a 40bc cc05 dd3c 46e7 103d
00000260: b6e2 0d3d c00f 203c 32a3 b13c 74da c6bb
00000270: 66c4 a6bc 0cfc f0bb f425 0b3d f4e7 0d3d
00000280: 4439 813c 4075 923c 6464 1c3c 7770 a4bc
00000290: 7c5a fdbb a595 063d 4e1b f9bc fa48 44bc
000002a0: 0b46 63bc 6b35 3b3c bbab e7ba f284 eebb
000002b0: eadb 633b d9d9 44bc 5b42 71bd 8cd1 8dbc
000002c0: 7563 d23c d2f1 9ebc ec79 aebc 03bf 24bd
000002d0: 6ebd f4bb ee7a 10bd df0a a63c fa58 2d3a
000002e0: a4ac 37bd f910 2fbd d7b9 17bc d271 28bd
000002f0: 6346 7fbb 5b7d adbc 3850 163c 24d2 2ebd
00000300: df3c 0a3b ff62 8eba 8f48 a7bb ec91 07bd
00000310: 2c4f 00bd b0bc ec3c 1c3e c7ba 51a7 32bc
00000320: fc6f f5bc 5195 4abc 3bb4 313c 0444 f8bc
00000330: beed abbc a981 adbc 1646 00bc ddb7 59bc
00000340: e269 9e3c 97fd b5bc 2260 303c 77f6 11bc
00000350: ab0d a63c 45d8 0dbd 6482 033d c044 da3c
00000360: 4711 0dbd bdfa 17bd 7ad9 18bd d04f c53c
00000370: ea31 10bc 196f 5e3c cfd7 043d 0553 13bd
00000380: 83a0 8dbc e7b4 59bc 09e1 923c 190b 8a3c
00000390: 5e74 d1bc 9214 c2bc 27b8 ca3c d864 063d
000003a0: ebe2 e93b f10d 96bc d934 403c eb4a dbba
000003b0: 458d a6bc e42e bf3c 824c 1cbd 617b dbbc
000003c0: 1924 b23c 5ec4 983a 8311 003d f4c4 15bd
000003d0: 5083 2b3c b4d2 083d 6b7f 2b3a 1a3f 373c
000003e0: b640 f8bc 0fd7 0ebd ec14 083c c51a a53c
000003f0: 8f0b 9fbc 0009 e3bb 1c10 e93c d1c9 00bd

fc1.bias f4 [128]
0.024374982 -0.008884579 0.012862212 -0.040303595 -0.025760593 0.025965847 -0.03440461 -0.040878776
0.004696367 0.0154685285 -0.020946093 -0.02808214 -0.03599085 -0.034426935 -0.03789541 -0.015969738
-0.036883745 -0.019908283 0.061226018 -0.0019482248 -0.0051140795 0.09676923 -0.04293951 0.08169736
-0.048151832 0.00014648677 -0.0057002483 -0.02934152 -0.027238565 0.017232921 -0.035708316 0.020811984
-0.034696802 0.013552084 -0.00051524147 -0.04586448 -0.025006728 -0.039166205 -0.022390166 0.0032032595
0.02061216 0.09649271 -0.03239606 -0.02420637 -0.019213833 -0.035911623 0.006403802 0.0062718457
-0.03563728 0.029379502 0.03388658 0.026030522 0.0057407785 0.09472429 -0.007280573 -0.036151722
-0.03530087 0.007726279 -0.017329285 -0.022276998 -0.0414 0.09169824 -0.033973902 -0.024987385
-0.01565201 0.025309611 0.11536588 -0.006027858 0.011868043 0.017114129 -0.0063203047 0.0049959775
-0.00932106 0.011230215 -0.00020048609 0.011681051 -9.348324e-06 -0.035293527 0.010056953 -0.0045834514
-0.017205037 -0.0068243635 0.0071320445 0.020861998 0.00814874 0.027326532 -0.028890891 -0.026063982
-0.039398678 0.082704835 -0.067083344 0.114097774 0.010330442 -0.021524405 -0.0016606968 -0.040150728
0.0017156763 -0.0044042943 -0.0069203125 0.011087489 -0.03611069 -0.010624648 -0.0004923856 0.017711898
0.0011036956 -0.015114749 -0.038058072 -0.016122632 0.117783986 0.013090914 -0.0077957963 -0.012889578
0.109404705 0.021247488 -0.061074216 -0.032867026 0.0104546435 0.0173825 -0.021482073 0.057209842
-0.060343523 -0.0118935 -0.012632707 -0.049817648 0.12454011 -0.04503419 0.033098295 -0.05847208
00000000: 0bae c73c a090 11bc 07bc 523c 6215 25bd
00000010: e107 d3bc 54b6 d43c d9eb 0cbd 8170 27bd
00000020: fbe3 993b b66f 7d3c 2497 abbc 840c e6bc
00000030: 246b 13bd 4203 0dbd 3838 1bbd f8d2 82bc
00000040: 6913 17bd b216 a3bc 22c8 7a3d 945b ffba
00000050: 0294 a7bb f22e c63d 57e1 2fbd f250 a73d
00000060: db3a 45bd 3e9a 1939 26c9 babb a15d f0bc
00000070: 6923 dfbc 0e2c 8d3c e242 12bd e57d aa3c
00000080: 3c1e 0ebd 8f09 5e3c 4511 07ba 65dc 3bbd
00000090: e9da ccbc be6c 20bd 956b b7bc c7ed 513b
000000a0: d5da a83c f89d c53d bbb1 04bd 704c c6bc
000000b0: 5466 9dbc 1118 13bd fcd6 d13b 0e84 cd3b
000000c0: 66f8 11bd 48ad f03c a8cc 0a3d f63d d53c
000000d0: 241d bc3b cffe c13d df91 eebb d413 14bd
000000e0: a597 10bd ba2c fd3b 25f6 8dbc 407e b6bc
000000f0: 0c93 29bd 49cc bb3d 3828 0bbd 58b2 ccbc
00000100: a538 80bc 1a56 cf3c f244 ec3d 5685 c5bb
00000110: 2e72 423c ee32 8c3c 8f1a cfbb 4cb5 a33b
00000120: 5cb7 18bc f0fe 373c 9339 52b9 e161 3f3c
00000130: bfd6 1cb7 f28f 10bd ebc5 243c c730 96bb
00000140: 94f1 8cbc e99e dfbb edb3 e93b c8e6 aa3c
00000150: 4b82 053c e4db df3c 97ac ecbc 2284 d5bc
00000160: 8260 21bd 2761 a93d fe62 89bd 18ac e93d
00000170: 0441 293c f353 b0bc bdab d9ba 1775 24bd
00000180: 8be0 e03a e651 90bb cac3 e2bb 4da8 353c
00000190: cee8 13bd 0113 2ebc 7013 01ba 8b18 913c
000001a0: e1a9 903a daa3 77bc c8e2 1bbd 9c13 84bc
000001b0: bb38 f13d 467b 563c e173 ffbb cf2e 53bc
000001c0: 930f e03d 360f ae3c f528 7abd 939f 06bd
000001d0: f449 2b3c bf65 8e3c 2cfb afbc de54 6a3d
000001e0: c52a 77bd f4dc 42bc 6af9 4ebc 970d 4cbd
000001f0: e30e ff3d c575 38bd 1492 073d 6b80 6fbd

fc2.weight f4 [128, 128]
-0.0870013 -0.058957867 -0.008793965 -0.011242352 0.02995978 0.05968735 -0.04735225 0.052065287
-0.002051163 0.033373106 0.027636165 -0.03235877 -0.07758307 0.034983233 0.08198521 -0.043152176
-0.046034288 0.029198345 0.0055630556 0.041961722 0.08577215 0.06049984 0.016805086 -0.045005765
0.05292844 -0.0023336112 0.06543913 -0.0062654717 -0.014185451 -0.0020542343 0.08981437 0.05531334
-0.080045 -0.032962278 0.0790401 -0.09542276 -0.08637664 0.087632105 0.08386805 -0.06400309
-0.06414175 -0.076013684 0.02529163 -0.007103486 -0.038693573 0.076070614 0.055873536 0.02044213
-0.05172781 -0.079450935 -0.00826345 0.04082662 0.052417226 0.11458495 -0.011247911 0.0884482
0.030545294 -0.025452204 -0.011025563 -0.07602357 -0.019814722 0.101141565 -0.08627648 0.10084734
-0.03453327 0.03608322 0.122336045 -0.052340858 0.058320526 -0.061869666 0.04106435 0.08677106
-0.04264409 0.014354497 0.0015948713 0.036962725 0.023811027 0.03801499 -0.007196218 -0.022744901
-0.009947355 -0.07661607 -0.051587235 0.005674878 -0.079811156 -0.059083547 -0.06408382 0.03758744
-0.05011389 -0.15383963 -0.055548795 -0.015599343 0.04420901 0.058715023 0.031252597 -0.07099998
0.011896168 -0.046156615 0.05017399 0.038774483 0.034832582 -0.03690891 0.06594203 0.07787339
0.024892367 0.048191987 0.008928038 -0.039583657 0.044153836 -0.073189154 -0.0228962 0.026814729
0.07968335 -0.022588253 -0.06034926 -0.045238692 -0.06669424 -0.07433669 -0.085399374 -0.08236815
0.023542946 -0.011853896 -0.050611403 -0.002313264 0.07566308 -0.03920462 -0.06851422 -0.051067736
-0.06252597 -0.031120893 -0.083340436 0.0071800426 -0.0012561263 0.015684547 -0.09867975 -0.011514768
0.069590025 0.035898548 0.0013338672 0.036984436 -0.036231633 0.0044304803 0.04935851 -0.043207355
0.038628235 0.037541494 -0.0027384548 -0.023403257 -0.008289206 -0.028074548 0.07552644 -0.05605781
0.082411416 0.05452036 -0.07366949 -0.010709529 -0.07656484 0.046852387 0.08297766 -0.029465072
-0.034701746 0.02121834 -0.033949442 -0.09215789 -0.07360279 -0.046012316 0.036489025 -0.07818893
-0.060880605 0.015880566 -0.023269504 -0.0760034 -0.055638608 -0.025223106 0.019976823 -0.009413623
-0.06732775 0.074210115 0.018901229 -0.045804195 -0.008922592 0.112030216 0.046904694 -0.07232298
-0.04162177 -0.012118548 -0.06525713 0.014302802 -0.06771229 0.054176934 -0.020008713 -0.09925543
-0.04830451 0.02538267 0.04375217 0.0156085715 -0.006319911 0.022881828 -0.024225082 0.027754858
-0.021250565 -0.040355545 -0.016365893 0.014918596 -0.06996248 0.022012994 -0.03908218 0.06534728
-0.008504323 -0.0148077775 -0.052435208 0.067496195 0.033776566 -0.03166519 -0.019426782 -0.001793867
-0.03424366 -0.08011883 -0.07278285 0.030325348 -0.008318394 0.046093874 -0.027021753 -0.08380517
-0.04824551 -0.07150332 0.049528815 0.011674054 -0.046497047 0.025403664 0.06769716 0.032947116
-0.010931164 0.014019169 -0.05996857 0.043662407 0.112758584 -0.0077865133 0.035958238 0.0390547
0.0028988465 0.050387137 -0.10287126 -0.05335192 0.013680644 0.06661702 -0.08116594 0.05432572
-0.022966707 -0.06903414 0.059493292 0.10037921 0.1665863 -0.08642847 0.08416289 0.043885794
00000000: bd2d b2bd ce7d 71bd 9014 10bc d831 38bc
00000010: 366e f53c b97a 743d 6ff4 41bd 6942 553d
00000020: ce6c 06bb 3db2 083d 3d65 e23c a18a 04bd
00000030: dfe3 9ebd 944a 0f3d dde7 a73d 56c0 30bd
00000040: 738e 3cbd 5e31 ef3c 4b4a b63b 0ee0 2b3d
00000050: 4fa9 af3d aece 773d d2aa 893c f757 38bd
00000060: 7ecb 583d 80ef 18bb f304 863d 964e cdbb
00000070: 186a 68bc 55a0 06bb 99f0 b73d 3e90 623d
00000080: a2ee a3bd 7403 07bd c7df a13d 026d c3bd
00000090: 3ce6 b0bd 7678 b33d 03c3 ab3d 0d14 83bd
000000a0: c05c 83bd 10ad 9bbd 6430 cf3c 5cc4 e8bb
000000b0: 277d 1ebd e9ca 9b3d a6db 643d 4176 a73c
000000c0: 8ae0 53bd 2cb7 a2bd 6c63 07bc d039 273d
000000d0: 72b3 563d 84ab ea3d 2849 38bc 5424 b53d
000000e0: 203a fa3c 2481 d0bc 90a4 34bc 3fb2 9bbd
000000f0: 7c52 a2bc 4f23 cf3d b9b1 b0bd 0d89 ce3d
00000100: c272 0dbd 00cc 133d 528b fa3d 5e63 56bd
00000110: 81e1 6e3d 0c6b 7dbd 1833 283d 07b5 b13d
00000120: 92ab 2ebd 202f 6b3c 000b d13a 3a66 173d
00000130: 580f c33c 9bb5 1b3d 40ce ebbb 8453 babc
00000140: 3bfa 22bc e3e8 9cbd 234d 53bd 54f4 b93b
00000150: 0874 a3bd 9701 72bd 613e 83bd 4af5 193d
00000160: 3944 4dbd 2388 1dbe 2287 63bd 6394 7fbc
00000170: 8214 353d 2a7f 703d b902 003d 7068 91bd
00000180: 25e8 423c b80e 3dbd 3e83 4d3d fed1 1e3d
00000190: 9cac 0e3d cc2d 17bd 9d0c 873d 157c 9f3d
000001a0: 14eb cb3c f664 453d e846 123c 7922 22bd
000001b0: a7da 343d 32e4 95bd d090 bbbc 90aa db3c
000001c0: 0631 a33d 000b b9bc c930 77bd 354c 39bd
000001d0: fd96 88bd d63d 98bd dee5 aebd a2b0 a8bd
000001e0: 23dd c03c d836 42bc e74d 4fbd 219a 17bb
000001f0: 3ff5 9a3d 0695 20bd 2f51 8cbd 672c 51bd
00000200: 9e0d 80bd 3ef1 febc 64ae aabd 9046 eb3b
00000210: 9ba4 a4ba e17c 803c 9c18 cabd 70a8 3cbc
00000220: 3785 8e3d 5b0a 133d 28d5 ae3a fe7c 173d
00000230: 9f67 14bd 902d 913b 262c 4a3d 32fa 30bd
00000240: a438 1e3d 1cc5 193d a677 33bb 30b8 bfbc
00000250: 73cf 07bc 98fc e5bc 9bad 9a3d e09c 65bd
00000260: 51c7 a83d be50 5f3d 08e0 96bd 0577 2fbc
00000270: 07ce 9cbd 4ae8 3f3d 31f0 a93d bc60 f1bc
00000280: 6b23 0ebd 16d2 ad3c 920e 0bbd 47bd bcbd
00000290: 0fbd 96bd 6977 3cbd 8475 153d 8521 a0bd
000002a0: f15d 79bd f617 823c b09f bebc aca7 9bbd
000002b0: 4fe5 63bd b0a0 cebc 6fa6 a33c 993b 1abc
000002c0: 22e3 89bd 79fb 973d c0d6 9a3c 2e9d 3bbd
000002d0: 1030 12bc 1970 e53d 231f 403d 121e 94bd
000002e0: 977b 2abd e08c 46bc 88a5 85bd 4d56 6a3c
000002f0: beac 8abd a2e8 5d3d 50e9 a3bc 6e46 cbbd
00000300: f3da 45bd 51ef cf3c 7a35 333d 18bb 7f3c
00000310: 4217 cfbb ac72 bb3c ae73 c6bc 285e e33c
00000320: aa15 aebc db4b 25bd c411 86bc 206d 743c
00000330: 7d48 8fbd 9854 b43c a314 20bd cbd4 853d
00000340: b755 0bbc 529c 72bc 4dc6 56bd 723b 8a3d
00000350: 4c59 0a3d 5cb3 01bd ea24 9fbc 3020 ebba
00000360: 1443 0cbd 5715 a4bd 2d0f 95bd dd6c f83c
00000370: e049 08bc eecc 3c3d b95c ddbc 0ca2 abbd
00000380: 159d 45bd 5570 92bd bade 4a3d 8844 3f3c
00000390: b073 3ebd 581b d03c cfa4 8a3d 8ef3 063d
000003a0: a018 33bc a8b0 653c 9aa1 75bd 5ad7 323d
000003b0: f9ed e63d 0226 ffbb f248 133d d2f7 1f3d
000003c0: 93fa 3d3b be62 4e3d 2bae d2bd 8b87 5abd
000003d0: c824 603c 816e 883d 543a a6bd a584 5e3d
000003e0: ad24 bcbc c561 8dbd 3daf 733d 9e93 cd3d
000003f0: 9995 2a3e 6901 b1bd 985d ac3d 97c1 333d

fc2.bias f4 [128]
0.050842263 0.058685124 0.035101026 0.074066766 0.04798252 0.088376574 0.15691459 0.11181509
-0.039647978 0.097942434 -0.054688185 -0.010519684 0.14252141 0.04244982 -0.10187036 0.08048276
0.064528726 0.10127106 0.09218976 0.00037635927 -0.03399577 0.08594118 0.10903158 0.20032111
0.13483426 0.029478803 0.106209986 0.13975081 0.0036067977 0.009451388 0.075563155 0.054938324
0.17343327 -0.091358446 0.1893066 0.015391543 0.029458478 0.17661814 -0.06416779 -0.021467034
0.04752202 0.0046711364 -0.018477576 0.016028782 0.16481926 0.11683532 0.051105704 0.014745073
-0.13182321 0.02663902 0.112851486 0.05240777 0.03206025 0.007560741 0.18046969 0.09647019
0.008098272 0.08350487 -0.032147005 0.038639672 0.00935766 -0.049526885 0.17559506 -0.02639732
-0.0070140874 -0.06886807 -0.035899438 0.073062345 0.094715856 0.11364087 0.087696426 0.07486449
-0.058000103 0.09580737 0.010180809 0.030995904 0.02659901 0.055666547 -0.13931313 -0.009720897
0.03892924 0.04119199 0.17894523 0.017787045 0.0460651 0.008031152 -0.039647203 0.117380254
-0.16127825 0.16945691 0.11955255 0.16489498 0.029125666 0.01510184 0.03018513 0.15399182
0.043528322 0.0152885625 0.037049033 0.1185194 -0.0065467563 0.02618498 0.013567653 0.057766974
0.093658015 0.1814299 0.018024046 0.018812587 0.18739416 0.15050206 -0.028507126 -0.04703689
-0.08299901 0.16754691 0.08318456 0.19023518 0.15892687 0.051093906 0.25353974 0.12446932
0.14157937 0.016594432 0.1411561 -0.09135723 0.26679078 0.10376314 -0.035181854 -0.03589198
00000000: fa3f 503d d05f 703d 18c6 0f3d 51b0 973d
00000010: 5289 443d c7fe b43d 38ae 203e 4fff e43d
00000020: eb65 22bd 0b96 c83d b800 60bd c15a 2cbc
00000030: 22f1 113e dddf 2d3d 68a1 d0bd 25d4 a43d
00000040: a327 843d 3467 cf3d fccd bc3d 1652 c539
00000050: 263f 0bbd ee01 b03d f34b df3d fa20 4d3e
00000060: fe11 0a3e 887d f13c 9f84 d93d d61a 0f3e
00000070: 0660 6c3b ffd9 1a3c dbc0 9a3d 0207 613d
00000080: 7e98 313e 231a bbbd 97d9 413e cf2c 7c3c
00000090: e852 f13c 63db 343e 676a 83bd a2db afbc
000000a0: 73a6 423d 5510 993b 495e 97bc cb4e 833c
000000b0: 61c6 283e 5b47 ef3d 3754 513d 5295 713c
000000c0: aafc 06be 133a da3c ae1e e73d 88a9 563d
000000d0: 9c51 033d 18c0 f73b 0ccd 383e 2a92 c53d
000000e0: 9dae 043c 9a04 ab3d 94ac 03bd a244 1e3d
000000f0: df50 193c b4dc 4abd 31cf 333e 313f d8bc
00000100: 6ed6 e5bb b40a 8dbd 4a0b 13bd b6a1 953d
00000110: 63fa c13d 8bbc e83d 2f9a b33d 8e52 993d
00000120: 8491 6dbd a836 c43d 68cd 263c 1feb fd3c
00000130: 2be6 d93c 9b02 643d 1aa8 0ebe 6644 1fbc
00000140: 4474 1f3d efb8 283d 6b3d 373e 23b6 913c
00000150: c2ae 3c3d 1895 033c 1b65 22bd 0f65 f03d
00000160: 2026 25be 1d86 2d3e f8d7 f43d 3bda 283e
00000170: f398 ee3c b56d 773c ce46 f73c 08b0 1d3e
00000180: c14a 323d e17c 7a3c bac0 173d 4dba f23d
00000190: 2c86 d6bb e281 d63c dc4a 5e3c 109d 6c3d
000001a0: c6cf bf3d c2c8 393e 2aa7 933c db1c 9a3c
000001b0: 41e4 3f3e 361d 1a3e c787 e9bc c1a9 40bd
000001c0: 63fb a9bd 6b91 2b3e ab5c aa3d 03cd 423e
000001d0: babd 223e d847 513d f6cf 813e c5e9 fe3d
000001e0: 2ffa 103e 0cf1 873c 3a8b 103e 8019 bbbd
000001f0: cd98 883e c581 d43d d91a 10bd 7803 13bd

fc3.weight f4 [128, 128]
0.00090432976 -0.026770212 -0.1342845 -0.036305472 -0.007931876 0.046543013 0.029161124 -0.039232593
0.09781849 -0.05394262 -0.10176961 0.01800172 0.013843949 0.03192082 0.05983976 0.0007272299
-0.023051728 -0.06505093 0.022166613 0.023303593 0.05165984 -0.03366946 -0.04482116 -0.019821757
-0.08167374 -0.07511181 -0.080006585 0.0058664866 -0.014754409 0.005991041 -0.040935848 0.0015829643
-0.0035820191 -0.06880342 0.038521793 0.12690558 0.0115096485 -0.09322403 -0.057319757 -0.008785242
-0.06510833 -0.044647135 0.1086058 -0.08788671 -0.061151944 -0.055597756 -0.020663554 0.08086877
-0.059637144 0.07270987 0.03945793 0.10014873 0.017869335 -0.068286926 -0.04395702 -0.058266804
-0.030511567 -0.0021324784 0.106894374 -0.12942098 0.09993128 0.013358474 -0.016493494 0.04546386
0.015289271 0.09805582 -0.03407854 0.013748253 0.02476568 -0.04645301 -0.032515246 0.026468178
0.07632349 0.020144211 0.043556307 0.032099277 -0.04595633 -0.06909331 0.0069434806 0.013812683
-0.10486078 0.008258381 -0.0072607016 0.18203883 -0.09734477 0.14504689 0.09861246 -0.07911952
0.08150386 -0.05060397 0.01188809 0.014361799 0.013343077 0.058507662 0.06663414 -0.021323176
0.009152333 0.03514019 -0.06825542 0.14325283 0.0011954191 0.054781917 0.029606579 -0.06001766
-0.019908927 -0.03714162 -0.03022762 0.084349014 0.007118291 0.0546708 0.0696667 -0.023646573
-0.012959703 -0.024588205 -0.0794131 -0.05389907 0.01556228 0.07630951 -0.05831732 -0.08222733
-0.10716928 -0.07864609 -0.005466004 -0.05920445 0.04706553 0.014157546 -0.06791669 0.069805324
-0.0072635426 0.09768569 0.006508132 0.107295915 0.049622994 0.08522044 0.10834971 0.14115787
-0.026703082 0.09481081 -0.0185732 0.015199538 0.050187923 0.07243319 0.03404557 -0.025995474
0.004313081 0.0841584 -0.0049162596 0.09424329 -0.059389908 0.10553436 0.05696669 0.06988381
0.06652175 -0.060950205 -0.025203845 0.12620759 -0.11849891 0.014373134 0.06130754 0.025678959
0.07500035 0.14628118 0.03401637 0.10956511 0.01009611 -0.024125192 -0.04879592 -0.08602512
0.09239917 -0.1271057 -0.10167186 -0.014044472 0.06762927 0.061308004 0.022199426 -0.07152715
0.055476986 -0.022860114 -0.029642114 0.049191218 -0.004992375 0.062676914 -0.010510024 0.0727606
0.06672001 -0.06872967 -0.10091716 0.03181386 -0.077901885 -0.10011845 0.047255777 -0.039799422
0.07813735 -0.07882391 -0.0025001306 0.08475112 0.042963196 0.10964585 0.08217692 0.07735944
0.05647491 0.018573146 -0.0045831725 0.02487051 -0.0883608 0.12139807 0.015467631 -0.06810473
0.13170293 -0.03071037 0.10177066 -0.022014927 0.047464244 0.05399742 -0.09531574 0.09379271
0.0075762616 -0.03532176 0.0040323394 -0.074082695 0.0168772 -0.033055387 -0.03454908 0.049481366
0.0874083 -0.0755095 0.07190517 0.053017855 -0.015737245 -0.036826067 0.036518127 0.14669576
-0.004240928 0.07885631 -0.028781848 0.05889976 0.029137868 -0.023195945 -0.077986665 -0.033452477
0.06380832 0.016614577 0.059220616 -0.008473328 0.04974272 -0.039464522 -0.11897803 -0.010866351
0.02406232 -0.07895299 0.038295154 -0.08531462 0.022761017 0.07465355 -0.11628419 -0.1274757
00000000: 8b10 6d3a 344d dbbc e081 09be 0cb5 14bd
00000010: b3f4 01bc e3a3 3e3d 4fe3 ee3c 5bb2 20bd
00000020: 0f55 c83d f0f2 5cbd 966c d0bd 5878 933c
00000030: bbd1 623c 68bf 023d 891a 753d 93a3 3e3a
00000040: fad6 bcbc 6c39 85bd c296 b53c 2de7 be3c
00000050: 4599 533d fde8 09bd 6596 37bd 3d61 a2bc
00000060: 9044 a7bd 38d4 99bd 7eda a3bd a83b c03b
00000070: 7abc 71bc 7f50 c43b 59ac 27bd 787b cf3a
00000080: 4fc0 6abb cfe8 8cbd 07c9 1d3d 89f3 013e
00000090: f792 3c3c 3eec bebd 1fc8 6abd faef 0fbc
000000a0: 8457 85bd eadf 36bd b86c de3d f3fd b3bd
000000b0: 767a 7abd 79ba 63bd 9d46 a9bc 879e a53d
000000c0: 1446 74bd eae8 943d a39e 213d c71a cd3d
000000d0: b662 923c 04da 8bbd 470c 34bd 2ca9 6ebd
000000e0: 65f3 f9bc 0dc1 0bbb 70eb da3d ef86 04be
000000f0: c5a8 cc3d 80dd 5a3c 5d1d 87bc 5038 3a3d
00000100: da7f 7a3c 7dd1 c83d f095 0bbd 5a40 613c
00000110: 65e1 ca3c 8345 3ebd b52e 05bd cbd3 d83c
00000120: 7d4f 9c3d 7905 a53c 1968 323d 887a 033d
00000130: b43c 3cbd cb80 8dbd 2386 e33b 974e 623c
00000140: 40c1 d6bd 294e 073c 2eeb edbb 6368 3a3e
00000150: b25c c7bd 2c87 143e 54f5 c93d 6a09 a2bd
00000160: 7feb a63d 1c46 4fbd 43c6 423c c04d 6b3c
00000170: ec9c 5a3c bba5 6f3d 7b77 883d f1ad aebc
00000180: abf3 153c 29ef 0f3d 7fc9 8bbd dfb0 123e
00000190: 9caf 9c3a 0163 603d 7f89 f23c 14d5 75bd
000001a0: 0c18 a3bc d021 18bd ea9f f7bc 2dbf ac3d
000001b0: 8e40 e93b 7dee 5f3d 6aad 8e3d 75b6 c1bc
000001c0: ef54 54bc 346d c9bc 56a3 a2bd 45c5 5cbd
000001d0: eff8 7e3c 2948 9c3d 24de 6ebd cd66 a8bd
000001e0: 917b dbbd 3411 a1bd 2a1c b3bb 5e80 72bd
000001f0: c9c7 403d 0df5 673c e817 8bbd 18f6 8e3d
00000200: 0303 eebb 6f0f c83d 2b42 d53b f6bd db3d
00000210: 7b41 4b3d 0e88 ae3d 74e6 dd3d b08b 103e
00000220: 6cc0 dabc 2c2c c23d d326 98bc 7c07 793c
00000230: da91 4d3d da57 943d 5e73 0b3d 76f4 d4bc
00000240: bf54 8d3b 3d5b ac3d 9318 a1bb a002 c13d
00000250: d542 73bd 6622 d83d e755 693d 3e1f 8f3d
00000260: 8e3c 883d eca6 79bd 4b78 cebc 903c 013e
00000270: 8eaf f2bd 4b7d 6b3c 9d1d 7b3d ae5c d23c
00000280: c999 993d bcca 153e c054 0b3d ac63 e03d
00000290: 286a 253c 32a2 c5bc 3bde 47bd f02d b0bd
000002a0: c73b bd3d ff27 02be 5639 d0bd c91a 66bc
000002b0: 3781 8a3d 1a1e 7b3d 92db b53c d47c 92bd
000002c0: d63b 633d 2245 bbbc 05d4 f2bc bb7c 493d
000002d0: 1497 a3bb c15c 803d 3c32 2cbc 8203 953d
000002e0: 80a4 883d 24c2 8cbd a8ad cebd 404f 023d
000002f0: 068b 9fbd e70a cdbd 468f 413d b804 23bd
00000300: 7a06 a03d 6e6e a1bd 3bd9 23bb ff91 ad3d
00000310: 2dfa 2f3d 018e e03d 5f4c a83d a06e 9e3d
00000320: 3c52 673d b626 983c 702e 96bb 3dbd cb3c
00000330: 82f6 b4bd 8d9f f83d f26b 7d3c 7e7a 8bbd
00000340: 22dd 063e 5094 fbbc 236d d03d a658 b4bc
00000350: de69 423d 662c 5d3d e634 c3bd 6416 c03d
00000360: 4a42 f83b 8dad 10bd b721 843b abb8 97bd
00000370: 0e42 8a3c 1665 07bd 5683 0dbd f9ac 4a3d
00000380: 1f03 b33d baa4 9abd 0543 933d 4029 593d
00000390: 65eb 80bc eed6 16bd 0894 153d 6a37 163e
000003a0: 7cf7 8abb 6b7f a13d e9c7 ebbc e040 713d
000003b0: 8ab2 ee3c 6c05 bebc 79b7 9fbd 7705 09bd
000003c0: f0ad 823d 4b1b 883c 5191 723d b7d3 0abc
000003d0: 06bf 4b3d 8da5 21bd c1aa f3bd c808 32bc
000003e0: 581e c53c 1bb2 a1bd 61db 1c3d 6eb9 aebd
000003f0: 5075 ba3c f6e3 983d 6826 eebd fd88 02be

fc3.bias f4 [128]
0.022173844 0.07179657 0.09899426 0.08753553 0.29302514 0.13306433 0.113830775 0.16911423
0.10613392 0.15765229 0.16552964 0.10980108 -0.107229866 0.1618582 0.020565294 -0.013463332
0.10153832 0.009084497 0.10998018 0.112337574 0.00025761494 -0.08475353 -0.028975409 0.17428607
0.124262534 0.008577461 -0.09098409 0.1056107 0.1516623 0.11399299 0.23271394 -0.09198116
0.18280575 0.0106809065 0.1544134 -0.10027742 -0.07146523 -0.021390406 0.19967815 0.12744169
0.092274874 0.19240227 -0.03419677 0.13852166 0.0055858875 0.053393442 0.15663807 0.07516477
0.013736758 0.08581064 0.09464304 0.0065307966 -0.11225098 0.020927297 0.059454925 0.11758406
0.21356915 0.07390738 -0.04072617 0.051876944 0.19215627 0.1949223 0.18387271 0.07055502
0.10761748 0.04023153 0.06952928 0.27580687 0.07797098 0.00015111413 0.17841166 0.20951563
0.23530275 0.15613638 -0.13953824 -0.002158362 0.05103756 0.20356764 -0.17097306 0.13626915
-0.0011433137 0.15009774 -0.0011230849 0.16256973 0.14019874 0.18470396 -0.09390467 0.0726767
0.10532931 0.22887175 0.085274115 0.12347187 0.23590894 0.22781028 0.23058403 0.13295443
-0.040331658 -0.14273994 -0.045533404 0.18863338 0.091337584 0.04024311 -0.034882598 0.12268652
0.16920044 0.05173974 0.13288729 0.23593192 0.15456712 0.06690587 0.059958417 -0.13319023
0.10888859 -0.14870043 0.07313466 -0.10759405 0.15492795 0.11049955 0.084413566 0.024856498
0.20422655 0.0037464006 0.06362598 -0.05540435 0.0796592 -0.04147742 0.17004168 -0.05017565
00000000: eca5 b53c 150a 933d 81bd ca3d d445 b33d
00000010: 6407 963e 0442 083e 1c20 e93d 482c 2d3e
00000020: be5c d93d 9a6f 213e 9a80 293e 63df e03d
00000030: 559b dbbd 28be 253e 8c78 a83c 4f95 5cbc
00000040: 53f3 cf3d 24d7 143c 4a3d e13d 3e11 e63d
00000050: 7e10 8739 4293 adbd d65d edbc 0c78 323e
00000060: 5b7d fe3d 7b88 0c3c de55 babd 6c4a d83d
00000070: 5d4d 1b3e 2875 e93d 904c 6e3e 9e60 bcbd
00000080: 6e31 3b3e f8fe 2e3c 8c1e 1e3e 3f5e cdbd
00000090: 5d5c 92bd ef3a afbc 6e78 4c3e 1380 023e
000000a0: 9cfa bc3d 1a05 453e ea11 0cbd 9fd8 0d3e
000000b0: d209 b73b 15b3 5a3d bb65 203e fdef 993d
000000c0: 2410 613c 7dbd af3d 36d4 c13d 4b00 d63b
000000d0: d8e3 e5bd b96f ab3c 0287 733d e9cf f03d
000000e0: dfb1 5a3e c15c 973d 7cd0 26bd eb7c 543d
000000f0: 9dc4 443e b699 473e 2149 3c3e 267f 903d
00000100: 8e66 dc3d d1c9 243d 5e65 8e3d 8f36 8d3e
00000110: 40af 9f3d 6474 1e39 8cb1 363e 448b 563e
00000120: 34f3 703e 37e2 1f3e 1de3 0ebe 4e73 0dbb
00000130: c30c 513d 0974 503e 9013 2fbe 248a 0b3e
00000140: 3edb 95ba 39b3 193e 7a34 93ba ae78 263e
00000150: 4290 0f3e 0923 3d3e 1751 c0bd 86d7 943d
00000160: e5b6 d73d 5b5d 6a3e 32a4 ae3d d2de fc3d
00000170: 1d92 713e 1947 693e 381e 6c3e 3525 083e
00000180: cf32 25bd 6b2a 12be 3c81 3abd 1c29 413e
00000190: 330f bb3d f6d5 243d 0ee1 0ebd 1243 fb3d
000001a0: e142 2d3e 0ded 533d 9b13 083e 2398 713e
000001b0: d846 1e3e f205 893d f596 753d 0563 08be
000001c0: fb00 df3d ed44 18be a0c7 953d 455a dcbd
000001d0: 6fa5 1e3e 974d e23d 05e1 ac3d db9f cb3c
000001e0: c420 513e 2c86 753b 564e 823d acef 62bd
000001f0: 5d24 a33d 3ae4 29bd 681f 2e3e fb84 4dbd
