models/dqn_model_epoch_14000.pth (torch, 595624 bytes, 14 tensors)

cnn1.weight f4 [16, 4, 5, 5]
0	0xbe476316	-0.19471392
1	0x3d336fe7	0.04380789
2	0xbce4cdde	-0.027930196
3	0xbe499bc2	-0.19688323
4	0xbe125c76	-0.14293084
5	0xbe4b7e42	-0.19872382
6	0xbe4691a2	-0.19391492
7	0xbe9462fe	-0.28981775
8	0xbd0e9a74	-0.034815267
9	0xbd695409	-0.056964908
10	0xbe8bb78d	-0.27288476
11	0xbe24402c	-0.16040105
12	0xbe816987	-0.25275823
13	0xbe15e0cd	-0.14636536
14	0x3db61bc1	0.088920124
15	0xbe2a21b6	-0.16614422
16	0xbe5aacaf	-0.21354936
17	0xbd23d38b	-0.039996665
18	0xbe8330b4	-0.25623095
19	0x3c454435	0.012040188
20	0xbe56f939	-0.20993508
21	0xbe81a09f	-0.25317857
22	0xbe4123d9	-0.18861331
23	0x3d9ca5a1	0.07648779
24	0x3ceb5c53	0.028730547
25	0xbc704c6f	-0.014666661
26	0xbcfc73bb	-0.030816903
27	0xbd336265	-0.04379501
28	0xbe023cf0	-0.12718558
29	0x3d43473c	0.047675356
30	0x3d503a19	0.050836656
31	0xbd08303a	-0.033249117
32	0x3ca99a26	0.020703387
33	0xbda74bfd	-0.081687905
34	0xbd2b22c5	-0.041781206
35	0xbd410401	-0.04712296
36	0xbe09fe36	-0.1347588
37	0x3c85fbb0	0.016355366
38	0x3d80c3fd	0.06287382
39	0xbce85d5f	-0.028364835
40	0xbdd3fd49	-0.10351045
41	0xba4594a7	-0.00075371045
42	0xbdada168	-0.084780514
43	0x3b9d1d58	0.004794758
44	0xbe040017	-0.1289066
45	0xbd0208ee	-0.031746797
46	0x3d5c9d93	0.053861212
47	0xbd29d718	-0.041464895
48	0xbda414bc	-0.08011767
49	0xbdb26ef1	-0.08712567
50	0x3da9f3b7	0.08298438
51	0xbc27a7c8	-0.010232873
52	0xbe071245	-0.13190563
53	0xbe52af6b	-0.20574729
54	0xbcd45a2c	-0.025921904
55	0xbcc79232	-0.024361704
56	0xbdb31f27	-0.08746176
57	0x3e4ceeb0	0.20012927
58	0x3d4b02ae	0.049563102
59	0xbe1df4c5	-0.15425403
60	0x3e987f05	0.29784408
61	0x3e5247cf	0.20535205
62	0x3d725e63	0.059172045
63	0x3d8aa1f8	0.06769174
64	0xbe576c99	-0.2103752
65	0xbe90c81c	-0.2827767
66	0x3e1548f8	0.14578617
67	0x3e8b5ae3	0.2721778
68	0xbe05f342	-0.13081077
69	0xbe2aa07f	-0.16662787
70	0xbe24036e	-0.16016933
71	0xbc83c6bf	-0.01608598
72	0x3ea2b982	0.31782156
73	0xbe06dc8d	-0.13170071
74	0xbe1c34d0	-0.15254521
75	0xbdbf9208	-0.09354025
76	0xbe7a56a8	-0.24447119
77	0xbdb8862c	-0.09009966
78	0xbba7c5a3	-0.0051199957
79	0xbd87cce6	-0.06630878
80	0xbd2b6489	-0.041843925
81	0x3de1a9d9	0.11018724
82	0x3e1849a4	0.14871842
83	0xbdc0f093	-0.09420886
84	0x3d09e34c	0.033664033
85	0xbe26f05b	-0.16302626
86	0x3d9624e9	0.07331259
87	0x3da52ab8	0.080647886
88	0xbdbf976a	-0.09355052
89	0xbda8e209	-0.08246238
90	0xbe038cd0	-0.12846684
91	0x3c1d2d86	0.009593373
92	0x3d98a357	0.074530296
93	0xbcc8d520	-0.024515688
94	0xbdf2bdf8	-0.1185264
95	0x3db901d0	0.09033549
96	0x3dc05557	0.09391277
97	0xbe3a762d	-0.18209143
98	0xbd8f8e29	-0.07009537
99	0xbd751574	-0.059834912
100	0xbdf2f10f	-0.118623845
101	0xbe859516	-0.26090306
102	0xbe352a7f	-0.17691992
103	0x3d0b600e	0.03402715
104	0xbe678e01	-0.22612764
105	0xbe014271	-0.12623002
106	0xbda7cc44	-0.081932575
107	0x3ba208a2	0.004944877
108	0x39bf4fd1	0.00036489827
109	0x3bae0946	0.005311164
110	0xbe0c102b	-0.13678043
111	0xbd10296d	-0.035195757
112	0x3c73160d	0.0148368
113	0xbd478e1f	-0.04871952
114	0xbd2604e8	-0.040532023
115	0xbe1f71de	-0.1557078
116	0xbe67ea36	-0.22647938
117	0xbe33e802	-0.17568973
118	0xbebd8aad	-0.37019864
119	0xbd0fca9e	-0.03510534
120	0xbe840739	-0.2578676
121	0xbe62ae4a	-0.22136799
122	0xbdc62f5c	-0.09677002
123	0xbdc7134a	-0.09720476
124	0xbdffd3eb	-0.12491592
125	0xbd31b7ac	-0.043388054
126	0x3dad96b6	0.084760115
127	0xbd625258	-0.05525431
128	0x3cff1539	0.03113805
129	0xbe06aad5	-0.13151105
130	0x3ca5ddba	0.020247329
131	0xbd33c9cc	-0.04389362
132	0xbd86765c	-0.06565544
133	0x3ca12cf4	0.019674756
134	0x3cbfbcc5	0.023405442
135	0xbca62574	-0.02028153
136	0xbd6b7084	-0.05748035
137	0xbe1220a6	-0.14270267
138	0xbd5d0193	-0.05395658
139	0xbcd2c46d	-0.025728429
140	0xbe0b912b	-0.13629596
141	0xbd0306e0	-0.03198898
142	0x3d514712	0.05109317
143	0xbd5c1e3f	-0.053739782
144	0xbdda7cfc	-0.1066837
145	0x3ca80ff5	0.020515421
146	0x3cdf3524	0.02724702
147	0xbd42ee7f	-0.04759073
148	0x3dcd2953	0.100176476
149	0xbdbd5b94	-0.09245983
150	0xbe42dae5	-0.19028814
151	0x3de7c4e0	0.11316848
152	0xbd5f45b6	-0.05450984
153	0x3e29a217	0.16565739
154	0xbe17574c	-0.14779395
155	0xbe3eeec6	-0.18645772
156	0x3e376abd	0.17911811
157	0xbe5116fe	-0.20418927
158	0x3da7b54c	0.081888765
159	0xbe20cae4	-0.15702397
160	0xbe8bde7b	-0.27318177
161	0xbe802fc9	-0.25036457
162	0x3dc7fe00	0.097652435
163	0x3dd810c3	0.10550072
164	0xbe576513	-0.2103465
165	0xbe7c493b	-0.2463731
166	0xbe0cc57c	-0.1374721
167	0x3e8a5c14	0.27023375
168	0xbe4199a7	-0.1890627
169	0xbe6eda70	-0.23325515
170	0x3ec6403e	0.38720888
171	0x3e97fde3	0.29685888
172	0x3ed32bed	0.4124445
173	0xbd66e489	-0.05637029
174	0xbe297b70	-0.16550994
175	0x3e541289	0.20710196
176	0x3e089fc9	0.13342203
177	0x3e72f31d	0.23725553
178	0xbc8d9f90	-0.017288
179	0xbda87bf8	-0.0822677
180	0x3defa047	0.11700492
181	0xbdf4ee09	-0.11959464
182	0x3e1bbf05	0.15209587
183	0xbe0443f7	-0.12916552
184	0xbde0c840	-0.10975695
185	0xbe288112	-0.16455486
186	0x3defee33	0.11715355
187	0x3d815238	0.0631451
188	0xbda64869	-0.0811928
189	0xbe1ccba3	-0.15312056
190	0xbe2b26fe	-0.16714093
191	0xbceb8e19	-0.02875428
192	0xbdabc644	-0.083874255
193	0xbe002a0e	-0.12516043
194	0xbd254542	-0.040349253
195	0xbe0a0443	-0.13478188
196	0xbdf1b49c	-0.11802027
197	0x3e28fae2	0.16501954
198	0xbe03257d	-0.1280727
199	0xbe0e90af	-0.1392238
200	0xbe990670	-0.29887724
201	0xbd9942ba	-0.0748343
202	0xbeb0942d	-0.3448805
203	0x3d46b4d0	0.04851228
204	0xbe3a0d69	-0.18169178
205	0xbe6439ea	-0.22287717
206	0xbe2ed606	-0.17073831
207	0xbe42f83f	-0.19040011
208	0x3d0c6c56	0.034283005
209	0x3b9bfc0f	0.0047602723
210	0xbe783bec	-0.24241608
211	0xbe5fc053	-0.2185071
212	0xbdfadf1a	-0.122495845
213	0x3d06b488	0.03288701
214	0x3d152a5a	0.036417343
215	0xbe7e80e2	-0.24853852
216	0xbe6a669a	-0.22890702
217	0xbe946ad0	-0.2898774
218	0xbe21aa76	-0.15787682
219	0x3e097e10	0.13426995
220	0xbe7984ab	-0.24367015
221	0xbe052076	-0.13000664
222	0xbe74cfc2	-0.23907378
223	0x3d688bac	0.056773826
224	0xbd8556af	-0.06510674
225	0xbe052252	-0.13001373
226	0xbc6f53f7	-0.014607421
227	0xbe0a5cdc	-0.13511986
228	0xbdee37d2	-0.11631741
229	0xbd106e82	-0.03526164
230	0xbc9a7e01	-0.018858911
231	0xbd16aee9	-0.0367879
232	0x3d332040	0.043731928
233	0xbde2bed0	-0.11071551
234	0x3c5eeed0	0.013606742
235	0x3bd9af68	0.0066432245
236	0x3cb3f35c	0.021966629
237	0xbc05350e	-0.008130325
238	0xbda2ca25	-0.07948712
239	0x3c52c033	0.012863207
240	0xb9749db1	-0.00023328398
241	0xbde962fc	-0.11395833
242	0x3ca0f569	0.01964827
243	0x3d93b546	0.072123095
244	0x3c40a608	0.011758335
245	0xbd7c2c6b	-0.061565798
246	0xbe0eeaef	-0.13956808
247	0xbd2e39f2	-0.04253573
248	0xbc978e02	-0.018500332
249	0x3c3fcab0	0.011706039
250	0x3d999444	0.074989825
251	0x3cfc6463	0.030809587
252	0x3d502ba6	0.050822876
253	0xbecb3001	-0.39685062
254	0xbd79a574	-0.060948804
255	0x3cc752a1	0.024331393

cnn1.bias f4 [16]
0	0x3d4685f8	0.048467606
1	0xbd5a1f11	-0.053252283
2	0xbdb12126	-0.08648901
3	0xbda27a18	-0.07933444
4	0x3ccb4da9	0.024817305
5	0xbdc1b9ee	-0.094592914
6	0xbd9595ff	-0.07304
7	0x3abd0cc0	0.0014423355
8	0x3c43f5e4	0.01196048
9	0xbdf9b600	-0.12192917
10	0xbcca0754	-0.024661697
11	0xbd8aa92a	-0.06770547
12	0xbc77d3d3	-0.015126186
13	0xbdb7d1be	-0.08975552
14	0x3cbde4cc	0.023180388
15	0xbd816a59	-0.06319112

cnn2.weight f4 [32, 16, 3, 3]
0	0x3cdd1ac9	0.026990311
1	0x3d6c5f71	0.057708208
2	0x3dd51fdb	0.104064666
3	0x3e0e1b20	0.13877535
4	0xbcbbeee3	-0.022941059
5	0xbd2a8c2d	-0.04163759
6	0x3d9a31fe	0.075290665
7	0x3c8c726a	0.0171444
8	0xbd52c98f	-0.051461753
9	0x3e2e4418	0.17018163
10	0xbdc959c3	-0.09831574
11	0x3d26075f	0.040534373
12	0x3dfacdb0	0.12246263
13	0xbd95e2ec	-0.073186725
14	0x3df4c1aa	0.11951001
15	0x3e1d58e2	0.15365937
16	0xbd6ae30c	-0.057345435
17	0xbd9022fa	-0.07037921
18	0xbc5daf1a	-0.013530517
19	0xbce8f7e2	-0.028438512
20	0xb859e27f	-5.1947773e-05
21	0xbd170593	-0.03687055
22	0xbb8b11b4	-0.0042440537
23	0xbd516f1b	-0.05113135
24	0xbd6ed9c8	-0.05831316
25	0x3c8048a6	0.015659641
26	0xbd66225d	-0.056185115
27	0x3dd762f7	0.10516923
28	0xbda3965a	-0.07987662
29	0x3c89ab6f	0.016805379
30	0x3e1737d7	0.14767395
31	0x3ced907c	0.02899956
32	0xbd0372b9	-0.03209183
33	0x3de5803a	0.11206098
34	0x3d7a3fb4	0.06109591
35	0xbdb57dcc	-0.088618845
36	0x3d80f8f1	0.06297482
37	0xbc95902c	-0.018257223
38	0xbc922ded	-0.017844165
39	0x3dc9927a	0.09842391
40	0x3b866d1a	0.0041023614
41	0x3d80ca60	0.062886
42	0x3dba85df	0.09107565
43	0x3cf08650	0.02936092
44	0x3db8cfbf	0.090239994
45	0x3dc2b0f8	0.0950641
46	0x3d834c76	0.06411068
47	0x3d8b244c	0.067940325
48	0x3defacb8	0.11702865
49	0x3d621ad0	0.05520135
50	0x3cd8e808	0.026477829
51	0xbc4fbee7	-0.012679792
52	0x3c8c80ba	0.017151225
53	0x3d194276	0.037416898
54	0xbd6043b4	-0.054752067
55	0x3d0d1444	0.034443155
56	0x3d9ee761	0.07758976
57	0xbc22371b	-0.0099008335
58	0x3c7a33f5	0.015271177
59	0x3d448460	0.047977805
60	0x3d371f67	0.044707682
61	0x3d1160eb	0.03549282
62	0x3dd3b8da	0.10337992
63	0x3d68bcd8	0.05682072
64	0xbdaa0099	-0.08300895
65	0x3d46f8cd	0.04857712
66	0x3d1b1eda	0.03787122
67	0xbd581ddd	-0.052762855
68	0x3dcde799	0.10053939
69	0xbcc7f2d9	-0.024407791
70	0xbd154a1d	-0.036447633
71	0x3c0f5bc6	0.008749908
72	0x3d671f57	0.056426372
73	0xbc6e7b49	-0.014555761
74	0xbd62c0cb	-0.055359643
75	0x3dcefcb5	0.10106794
76	0x3da17d92	0.07885279
77	0x3d8b966e	0.068158016
78	0x3d4c4fd2	0.04988081
79	0x3d107c3c	0.03527473
80	0x3d1ee0b4	0.038788512
81	0x3d8d5ef5	0.06902877
82	0x3da0e614	0.07856384
83	0x3df0ad4c	0.11751804
84	0x3d575591	0.052571837
85	0x3d4ce499	0.050022695
86	0x3ce3d5d6	0.027811926
87	0x3d8c5ed6	0.06854026
88	0xbd15fa3c	-0.036615595
89	0x3d3c9db2	0.046048827
90	0x3d37444e	0.044742875
91	0xbc87c427	-0.016573025
92	0xbc3cace2	-0.011515828
93	0xb9c3e146	-0.0003736114
94	0xbc1f735f	-0.009732096
95	0xbdb5f298	-0.08884162
96	0x3b5de7a2	0.0033859988
97	0xbada37dd	-0.0016648729
98	0xbb2b9dff	-0.0026186702
99	0x3c9b24bd	0.018938417
100	0xbd202b9b	-0.039104085
101	0x3d1ed561	0.038777713
102	0x3d8c6884	0.06855872
103	0x3d966368	0.07343179
104	0xbd91ca23	-0.07118633
105	0x3dd65858	0.10466069
106	0x3d20bf66	0.03924503
107	0x3d88e5bb	0.066844426
108	0xbda9136a	-0.08255656
109	0xbdf1f438	-0.11814159
110	0xbc99e441	-0.018785598
111	0xbc8fcb05	-0.017552862
112	0x3d25ab33	0.04044647
113	0xbc279875	-0.01022922
114	0x3d4fea22	0.050760396
115	0xbd5dc8ba	-0.054146506
116	0xbb2e6dd9	-0.0026615767
117	0xbd1a74f7	-0.037709203
118	0xbd6d4787	-0.057929542
119	0x3cc772ab	0.02434667
120	0x3d407a81	0.04699183
121	0xbd80cddc	-0.062892646
122	0xbd6ec0c1	-0.058289293
123	0xbd18e6f3	-0.037329625
124	0xbda1acac	-0.07894263
125	0xbd0686b0	-0.03284329
126	0x3ddc3459	0.10752172
127	0xbccd3280	-0.025048494
128	0x3dad1891	0.08451951
129	0x3e309783	0.17245297
130	0x3d4854dd	0.048909057
131	0x3d553c46	0.052059434
132	0x3e23a5ec	0.15981263
133	0xbab1b311	-0.0013557394
134	0x3dc2e548	0.09516388
135	0x3cb86cbf	0.022512792
136	0xbd7181fe	-0.05896186
137	0xba8bab28	-0.0010655867
138	0x3d4d5824	0.050132886
139	0xbd3b8190	-0.045777857
140	0x3c3fcf93	0.011707204
141	0x3d2684f3	0.040654134
142	0xbd4fcec8	-0.05073431
143	0xbdc7629d	-0.09735606
144	0xbd0fb011	-0.03508002
145	0x3d6821f3	0.056673
146	0x3ced846f	0.028993813
147	0x3e2872db	0.16450064
148	0x3b8446bf	0.004036754
149	0xbc7cc660	-0.015428156
150	0x3c9371dc	0.017998628
151	0x3d17fb50	0.037104905
152	0xbb85427f	-0.004066765
153	0x3ca881ea	0.02056976
154	0x3df522d3	0.11969533
155	0x3c81bb57	0.0158364
156	0x3e0e6057	0.13903938
157	0x3afb0141	0.0019150154
158	0x3c11ca36	0.0088983085
159	0x3d846991	0.06465448
160	0x3de10d6b	0.109888874
161	0xbddc79c2	-0.10765411
162	0x3d90cd51	0.07070411
163	0x3c21325d	0.009838668
164	0xbd0d9f4e	-0.034575753
165	0xbc331940	-0.010931313
166	0xbdc7cbda	-0.097556785
167	0xbd3a02f5	-0.045412976
168	0xbd40ffcf	-0.047118958
169	0xbe07c26c	-0.1325776
170	0xbde54965	-0.111956395
171	0x3dce5dfc	0.1007652
172	0x3e087503	0.13325886
173	0x3cdb6743	0.026782637
174	0x3e0e5654	0.13900119
175	0x3b9f2d12	0.0048576677
176	0x3c403484	0.011731271
177	0x3e0809ef	0.1328504
178	0x3d9295d0	0.07157481
179	0xbdaa234d	-0.08307514
180	0x3d22dfde	0.039764278
181	0x3d9814ab	0.07425817
182	0x3d306727	0.043067124
183	0x3dc5637f	0.09638118
184	0x3df11d3a	0.11773153
185	0x3c7fb2bf	0.015606581
186	0x3dc4003c	0.09570357
187	0x3d7db7ab	0.061942738
188	0x3d09f11a	0.033677198
189	0x3e3721c0	0.17883968
190	0x3c73d8fd	0.014883277
191	0x3cf22e2d	0.029563034
192	0x3e1aa90c	0.15103549
193	0x3c0f13db	0.008732761
194	0x3ccce7b2	0.025012825
195	0xbca64321	-0.020295681
196	0x3d977454	0.07395235
197	0xbde9f990	-0.114245534
198	0xbada9d8b	-0.0016679032
199	0xbcd66bd5	-0.026174465
200	0xbc39f6db	-0.011350359
201	0x3dee4cce	0.11635743
202	0x3dae4585	0.085093535
203	0x3c8c232e	0.017106619
204	0x3e31f8ea	0.1738011
205	0xbd5d133c	-0.05397342
206	0x3ddc0544	0.10743192
207	0x3ac0894a	0.0014689353
208	0x3d25bea1	0.040465
209	0xbd0d8953	-0.03455479
210	0xbd4a7832	-0.049431033
211	0xbd8e59c1	-0.06950713
212	0xbceffec5	-0.029296288
213	0xbd2cb514	-0.042164877
214	0xbdb95a42	-0.090504184
215	0xbcae8e90	-0.021308213
216	0x3e134b01	0.1438408
217	0x3d35605e	0.044281356
218	0x3b4ea618	0.0031532105
219	0x3e2c711a	0.1684002
220	0xbcb97c6e	-0.02264234
221	0x3c68ffd0	0.014221147
222	0x3e3fd01b	0.1873173
223	0x3d44a195	0.04800566
224	0x3d329c45	0.04360606
225	0x3e1a1738	0.1504792
226	0x3db3cdcb	0.08779486
227	0x3cac0428	0.020998076
228	0x3b4846da	0.003055981
229	0x3db59b80	0.0886755
230	0x3e212acc	0.15738982
231	0x3db06e4e	0.08614789
232	0xbd0fc679	-0.035101388
233	0x3d1223fe	0.035678856
234	0x3c783e89	0.015151628
235	0x3db2ea61	0.087361105
236	0x3c8299e1	0.015942516
237	0x3d822a12	0.063556805
238	0xbccb8776	-0.024844866
239	0xbd92d7f3	-0.07170095
240	0xbcf3b3aa	-0.029748756
241	0xbd2edb01	-0.042689327
242	0xbdd994e1	-0.106240995
243	0x3e0137a0	0.12618876
244	0x3d74c3ca	0.05975703
245	0xbdbd80ae	-0.09253059
246	0x3d91a08a	0.071106985
247	0x3d3aa69b	0.045569044
248	0x3c8df96e	0.017330851
249	0x3e02c3d3	0.12770014
250	0x3d9e0578	0.07715887
251	0x3c88eb04	0.016713627
252	0x3c557af4	0.013029803
253	0xbd11fc5c	-0.03564106
254	0xbd8efb08	-0.06981474
255	0x3dce295d	0.10066483

cnn2.bias f4 [32]
0	0xbdeb519c	-0.11490175
1	0xbcfc3fa3	-0.030792063
2	0xbcd96489	-0.026537197
3	0x3c0b88cd	0.008516503
4	0xbab3f6f3	-0.0013730213
5	0x3a50135c	0.0007937455
6	0xbd904d4e	-0.07045995
7	0x3d9f02f1	0.07764233
8	0xbd9c8429	-0.07642395
9	0xbd2d712e	-0.042344265
10	0xbae52572	-0.0017482473
11	0xbaa017ab	-0.0012214085
12	0xbd821051	-0.06350768
13	0x3c4faf08	0.012676008
14	0x3a69d99c	0.0008920671
15	0xbddea5ea	-0.10871489
16	0x3dc86e05	0.097866096
17	0xbaeb65ec	-0.0017959452
18	0xbd027b56	-0.031855904
19	0xbdd5068f	-0.104016416
20	0xbdf9ced8	-0.121976554
21	0xbbe69870	-0.007037215
22	0xbd68ee71	-0.05686802
23	0xbd1d04ea	-0.038334765
24	0xbc7609e4	-0.015017007
25	0xbdaf3f63	-0.08557012
26	0xbd2f025f	-0.04272687
27	0xbe068ffd	-0.13140865
28	0x3dd489ee	0.103778705
29	0xbd741c33	-0.059597205
30	0x3dd10d12	0.10207571
31	0xbc9ce754	-0.019153275

cnn3.weight f4 [32, 32, 3, 3]
0	0x3d35477c	0.044257626
1	0x3bdac0c7	0.006675813
2	0xbb58ff55	-0.0033111174
3	0x3c45d3f6	0.012074461
4	0xbd94253b	-0.07233664
5	0xbd464bb4	-0.04841204
6	0xbc424511	-0.011857287
7	0xbcc67e07	-0.024230016
8	0xbaa6ba5c	-0.0012720334
9	0x3cfad617	0.030619664
10	0x3bc31783	0.0059537305
11	0xbc16752b	-0.009183208
12	0x3d0709d6	0.032968365
13	0xbd8e24dc	-0.06940624
14	0xbda6e8ba	-0.08149858
15	0xbd0ad753	-0.033896755
16	0x3cc2e5df	0.023791252
17	0xbd6a7ed6	-0.057249866
18	0xbd2f00da	-0.04272542
19	0xbcd99494	-0.026560105
20	0x3cb2a673	0.021807885
21	0x3bfdb8b5	0.007742966
22	0xbc33c591	-0.0109723965
23	0xbb82f33f	-0.0039962824
24	0x3a8fc512	0.0010968766
25	0x3c9cf0b1	0.01915774
26	0x3cdb9560	0.026804626
27	0xbc9ebb91	-0.019376548
28	0xbcb9ac34	-0.02266512
29	0x3d80cbeb	0.06288894
30	0x3c764cfb	0.015033002
31	0xbda591b1	-0.08084429
32	0xbc08eadf	-0.008356779
33	0x3ce83d41	0.02834952
34	0xbd6dbb67	-0.05804005
35	0x3cf30bb0	0.029668659
36	0x3cd5cef0	0.026099652
37	0x3d55527b	0.052080613
38	0x3cf6c627	0.030123783
39	0xbd5a104b	-0.053238194
40	0xbda56168	-0.080752194
41	0x3cb2c630	0.021823019
42	0xbbf2edeb	-0.007413616
43	0xbaa5114b	-0.0012593655
44	0xbb4d5f54	-0.0031337338
45	0x3d777269	0.060411844
46	0xbd537f2e	-0.05163496
47	0x3d71e107	0.059052493
48	0xb95ea24d	-0.00021232032
49	0xbd47ed69	-0.048810396
50	0xbd03a3e1	-0.03213871
51	0xbd088c41	-0.03333688
52	0xbd6a9862	-0.05727423
53	0x3b73e728	0.0037216637
54	0xbc1ada9a	-0.009451533
55	0x3d3346fe	0.043768875
56	0xbc12517c	-0.00893056
57	0xbd6f317b	-0.058396798
58	0x3bd662f1	0.0065425565
59	0x3c808d69	0.01569243
60	0x3d1392f5	0.03602882
61	0xbd8c698a	-0.068560675
62	0xbd23fc53	-0.040035557
63	0xbd05655d	-0.03256737
64	0x3db83016	0.08993547
65	0x3bbce4d2	0.005764582
66	0x3d34fe73	0.044187974
67	0xbd252151	-0.040314976
68	0x3cbb06f9	0.022830473
69	0x3d8725de	0.065990195
70	0x3d3ad02d	0.04560869
71	0x3d66ffd3	0.056396317
72	0xbd14f981	-0.036370758
73	0x3ccdf4d1	0.025141152
74	0xbc371128	-0.011173524
75	0xbcca0078	-0.024658427
76	0xbc84db57	-0.01621787
77	0xbcb124bb	-0.02162396
78	0x3c3289b6	0.010897091
79	0xbc8fcdad	-0.017554129
80	0xbd7845d8	-0.060613483
81	0x3d74f513	0.059804033
82	0xbd567c3e	-0.05236458
83	0x3d0f8e69	0.035047922
84	0xbc6d4a5f	-0.0144830635
85	0xbd81922b	-0.063267075
86	0x3cf68e4a	0.030097146
87	0x3d119805	0.035545368
88	0x3ba3ba96	0.004996608
89	0xbd2569a7	-0.04038396
90	0xbc8534e4	-0.016260572
91	0xbb4290e6	-0.0029688417
92	0xbcce8a7c	-0.025212519
93	0xbcb9edd8	-0.02269642
94	0xbd14be59	-0.036314342
95	0xbc0d1a7b	-0.0086122705
96	0xbd2b3115	-0.041794855
97	0xbcff46b3	-0.031161642
98	0x3c6374bb	0.013882811
99	0xbc9052c3	-0.017617589
100	0xbd34f160	-0.044175506
101	0x3cf517fd	0.029918665
102	0xbd6d3116	-0.05790814
103	0xbd8facbc	-0.07015368
104	0xbd367855	-0.04454835
105	0x3d63ef42	0.055648096
106	0xbc0c8107	-0.008575684
107	0xbb986715	-0.00465096
108	0x3c8855c4	0.016642459
109	0x3d0846f1	0.03327078
110	0x3d14227e	0.036165707
111	0xbcb68625	-0.022280762
112	0x3dc428fd	0.095781304
113	0x3ccb3929	0.02480753
114	0x3cd948bd	0.026523942
115	0xbb896142	-0.0041925022
116	0xbc9b4e94	-0.018958367
117	0xbcd7635c	-0.026292495
118	0x3b3df3a8	0.0028984342
119	0x3cc55627	0.024088932
120	0xbc727adc	-0.0147998
121	0x3c8852f2	0.016641114
122	0xbcfc6c36	-0.030813318
123	0x3d20cc4e	0.03925734
124	0x3b33d620	0.002744086
125	0x3c64f42f	0.0139742335
126	0x3c7a059c	0.015260126
127	0x3cd721a0	0.02626115
128	0x3bfa4814	0.007637987
129	0xba530a03	-0.0008050503
130	0xbd2fd2b0	-0.042925537
131	0xbc36cc4d	-0.011157108
132	0xbc49fbf7	-0.0123281395
133	0xbd52d5b2	-0.051473327
134	0xbda1d3e2	-0.079017416
135	0x3b5a3ca0	0.0033300295
136	0xbd204c80	-0.039135456
137	0x3d4f24fd	0.050572384
138	0xbcbaac88	-0.022787347
139	0xbcd4e598	-0.025988385
140	0xbd506061	-0.050873164
141	0x3cc84a2a	0.024449427
142	0x3b811738	0.0039395355
143	0xbc3e1c18	-0.011603378
144	0x3d9aa469	0.0755089
145	0x3dc5fac5	0.09666971
146	0x3d41a532	0.047276683
147	0x3cf6a783	0.030109173
148	0x3c35860c	0.011079323
149	0x3cacf446	0.021112572
150	0x3d23412d	0.03985708
151	0x3d8cdc49	0.068779536
152	0x3dcbad82	0.09945203
153	0x3ba47ec8	0.0050199963
154	0x3d38f59e	0.045156114
155	0x3b8efaf1	0.0043634106
156	0x3c87ed1f	0.01659256
157	0xb9dcfff3	-0.00042152367
158	0x3c902e79	0.017600285
159	0xbb680a54	-0.0035406547
160	0xbd0d7c40	-0.034542322
161	0xbcacc070	-0.021087855
162	0xbcf065e0	-0.029345453
163	0xbd2abf4a	-0.041686334
164	0xbcb86ef8	-0.022513852
165	0xbc441802	-0.0119686145
166	0xbc4cf4a8	-0.0125095025
167	0xbda0ba41	-0.07848025
168	0xba4a285f	-0.0007711704
169	0xbdad5a63	-0.084645055
170	0xbcdaf72e	-0.026729193
171	0xbcb79a22	-0.022412363
172	0x3d0359e2	0.03206814
173	0x3d5fe299	0.05465946
174	0x3cc36568	0.023852065
175	0xbd776725	-0.0604011
176	0x3c9ab248	0.01888384
177	0x3b8e7c20	0.004348293
178	0xbd7ac582	-0.061223514
179	0x3c80e072	0.015732024
180	0xbd0c2d9d	-0.034223188
181	0xbc0a9c4d	-0.008460117
182	0x3d1a98fa	0.037743546
183	0xbd0d6f61	-0.034530047
184	0xbd96df11	-0.07366765
185	0xbbcd078d	-0.0062570036
186	0x3b0c3e2d	0.0021399364
187	0xbd555686	-0.05208447
188	0xbcca834a	-0.024720807
189	0xbd395f75	-0.04525705
190	0x3d5b0400	0.05347061
191	0xbd3f4371	-0.046695177
192	0xbd9edec8	-0.07757336
193	0xbc5e8338	-0.01358109
194	0x3c2e5bf3	0.01064204
195	0xbd903b79	-0.070425935
196	0xbd83f707	-0.06443601
197	0xbda9599f	-0.08269047
198	0xbc89e0b6	-0.016830783
199	0xbb781800	-0.0037856102
200	0x3da308ba	0.07960649
201	0xbd5fbd0e	-0.054623656
202	0xbcbf7fa8	-0.0233763
203	0x3d5f3182	0.054490574
204	0x3c817c8e	0.015806463
205	0xbc6dfbfa	-0.014525408
206	0x3cfa1a79	0.030530201
207	0x3d2f8395	0.042850096
208	0x3c88b4ef	0.016687838
209	0x3d9d6fbe	0.07687329
210	0x3cb2fd1d	0.02184921
211	0xbd262021	-0.040557984
212	0xbc671357	-0.014103732
213	0xbc99d128	-0.018776491
214	0x3dbbd09b	0.09170648
215	0x3c8cd776	0.017192584
216	0xbcd749df	-0.026280342
217	0x3d727009	0.059188876
218	0x3d1d9cc8	0.038479596
219	0xbd5db033	-0.054123115
220	0x3b64f187	0.0034934
221	0x39a207f4	0.00030904973
222	0x3bad0f0d	0.005281335
223	0x3c80a5aa	0.015703995
224	0x3c240f28	0.010013379
225	0x3d164b3f	0.036692854
226	0xbcfe141f	-0.031015454
227	0x3b3fcfa0	0.0029268041
228	0xbcbe7a3e	-0.023251649
229	0xbd70060f	-0.058599528
230	0x3c8ad9fe	0.01694965
231	0xbc92d44a	-0.017923493
232	0x3d4d3f65	0.050109286
233	0x3d6afc15	0.05736931
234	0x3d68710e	0.056748442
235	0xbb4517ee	-0.0030074078
236	0x3d889ebc	0.06670901
237	0x3c4940f0	0.012283549
238	0xbc562ded	-0.013072473
239	0x3d1e12a7	0.038592007
240	0x3993adc2	0.00028167485
241	0x3cb1d079	0.021705853
242	0xbc1ec6c9	-0.009690949
243	0x3c132250	0.008980349
244	0x3d3dfd43	0.046384107
245	0xbc96ccc3	-0.018408185
246	0xbbea4962	-0.007149861
247	0xbd33f01a	-0.04393015
248	0xbd047e17	-0.03234681
249	0xbb9edbe3	-0.00484799
250	0xbc960de6	-0.018317174
251	0xbca5dee2	-0.02024788
252	0x3cb1d399	0.021707343
253	0x3b93cac3	0.004510255
254	0x3db09c0f	0.08623516
255	0xbccde6f2	-0.025134537

cnn3.bias f4 [32]
0	0xbcc8a5a2	-0.024493042
1	0x3d217108	0.039414436
2	0xbdc247e6	-0.0948637
3	0xbc935526	-0.017984938
4	0x3d050ae8	0.032481104
5	0xbc022b07	-0.007944829
6	0xbd098468	-0.033573538
7	0x3dee7df7	0.1164512
8	0xbc21faf0	-0.009886488
9	0xbd794984	-0.060861126
10	0x3c23072e	0.009950442
11	0xbcd29928	-0.025707796
12	0xbc5ca97b	-0.013468142
13	0x3d63c87d	0.055611122
14	0xbc97d09c	-0.01853209
15	0x3e1a0585	0.15041168
16	0xbd90f418	-0.07077807
17	0x3b9ce948	0.0047885515
18	0xbd2da559	-0.042394016
19	0xbd823cf2	-0.06359281
20	0xbd914d8d	-0.0709487
21	0xbcf3d65d	-0.029765302
22	0xbd8f6457	-0.0700156
23	0xbd773961	-0.060357455
24	0xbbd309d2	-0.0064403797
25	0xbd0f5d0b	-0.035000842
26	0xbd882b61	-0.06648899
27	0x3ce4d731	0.027934643
28	0xbc088537	-0.008332542
29	0x3dcbada3	0.09945228
30	0x3cb1ef25	0.021720478
31	0x3e282b75	0.16422828

fc1.weight f4 [128, 768]
0	0xbcdb4905	-0.026768217
1	0x3ccb35a7	0.024805857
2	0x3ca16e82	0.019706015
3	0x3c7291f6	0.014805308
4	0x3cfb9bef	0.030714003
5	0xbd035408	-0.03206256
6	0xbd421869	-0.04738656
7	0x3c80dc25	0.015729973
8	0xbc9113de	-0.017709669
9	0xbc336b68	-0.010950901
10	0xbcc3377c	-0.023830168
11	0x3a0cb680	0.0005367771
12	0xbad88cf8	-0.0016521504
13	0x3b330199	0.0027314185
14	0xbc1e911a	-0.00967815
15	0x3c9d43dc	0.019197397
16	0x3bfb3cfd	0.0076671825
17	0xbc41de34	-0.0118327625
18	0xbc2ee382	-0.010674359
19	0x3c355424	0.011067424
20	0xbcbeebfe	-0.02330589
21	0x3c89c7ba	0.01681887
22	0xbce79810	-0.028270751
23	0xbc4f1f6e	-0.012641771
24	0xbd1658af	-0.03670567
25	0xbbe4ff9b	-0.0069884784
26	0xbd15847f	-0.03650331
27	0xbc0f9571	-0.008763657
28	0x3b3ae2ab	0.0028516452
29	0xbcfc96d9	-0.030833649
30	0xbc9b90c0	-0.01898992
31	0x3cf10eb3	0.029425954
32	0xbd203e6e	-0.039122038
33	0x3c817620	0.015803397
34	0x3d276c23	0.04087461
35	0xbc456174	-0.01204716
36	0x3cd5999a	0.02607422
37	0x3d0f68ef	0.03501218
38	0xbc02f4b8	-0.007992916
39	0xbaaf366c	-0.0013367659
40	0x3c210f00	0.009830236
41	0xbc0f35b0	-0.008740827
42	0x3cbe11fe	0.023201939
43	0xbd5793ac	-0.052631065
44	0xbd27e08a	-0.04098562
45	0x3c9245e1	0.017855586
46	0xbcfdfdce	-0.031004813
47	0xbd2dceeb	-0.04243366
48	0xbd262f07	-0.040572193
49	0x3c3401fc	0.010986801
50	0xbd028e40	-0.03187394
51	0xbd06febb	-0.032957774
52	0xbd1ca7b1	-0.03824586
53	0xbbb30d76	-0.005464251
54	0x3c052434	0.008126307
55	0xbc794d2c	-0.015216153
56	0xbc0a9392	-0.008458035
57	0xbcaf2f90	-0.021384984
58	0x3c1a5791	0.0094202915
59	0x3ce8fc4f	0.028440623
60	0xbd0cb2dd	-0.034350265
61	0xbc950a44	-0.018193372
62	0xbcf7cf62	-0.030250255
63	0xbd3e80f1	-0.046509687
64	0x3cbfe727	0.023425652
65	0x3c4b95df	0.012425869
66	0xbc6e6146	-0.014549559
67	0xbc23b8b9	-0.009992772
68	0xbd1b5cc8	-0.03793028
69	0x3c9da1c3	0.019242173
70	0x3cad677c	0.02116751
71	0xbd0f0c42	-0.0349238
72	0xbbfb4928	-0.007668633
73	0x3c529e30	0.012855098
74	0xbcc3c871	-0.023899289
75	0xbc910c46	-0.017706048
76	0x3ce8d836	0.02842341
77	0x3c8c2119	0.017105626
78	0x3cbef76d	0.023311341
79	0x3b9cdbd5	0.004786948
80	0xba9169a1	-0.0011094102
81	0x3be0e81b	0.0068636066
82	0x3c80da9b	0.01572924
83	0xbcb5af96	-0.022178452
84	0xbd02ed87	-0.031964805
85	0x3cd1ae7c	0.025595896
86	0x3a92db12	0.0011204204
87	0xbc23e1a6	-0.010002529
88	0x3bdad931	0.0066787233
89	0xbcc191b3	-0.023629045
90	0xbb32a2e5	-0.0027257737
91	0xbce0708f	-0.027397422
92	0xbb03c261	-0.0020104873
93	0xbd21513d	-0.039384115
94	0x3b21857a	0.0024646209
95	0x3d028053	0.03186066
96	0x3cc3850a	0.023867149
97	0xbd017de2	-0.03161419
98	0x3b3e7e5b	0.0029067013
99	0x3b93ae32	0.0045068497
100	0xba498cf4	-0.0007688545
101	0x3b9b284a	0.0047350274
102	0xbcbd569f	-0.023112593
103	0xbc07594f	-0.008261039
104	0xbd1c9e22	-0.038236745
105	0xbc47bf8a	-0.012191663
106	0xbc890713	-0.016727006
107	0xbbda9901	-0.0066710715
108	0x3c65b5cd	0.014020395
109	0xbbf00107	-0.007324341
110	0xbc871bdb	-0.016492775
111	0xbd1493e8	-0.036273867
112	0x3c09f85a	0.008421028
113	0x3c2221e2	0.009895774
114	0x3c3b7874	0.0114422925
115	0xbce5b2e1	-0.028039398
116	0x3c6a1e1f	0.014289408
117	0x3a03511e	0.0005009341
118	0xbc901d87	-0.017592205
119	0x3ae8f82f	0.001777416
120	0x3ce80383	0.028321987
121	0xbd21f65d	-0.03954159
122	0x3bbe9334	0.005815888
123	0x3c3a8acd	0.011385632
124	0xbcff7154	-0.031181969
125	0xbc2032cc	-0.009777736
126	0x3ae2ed00	0.0017313063
127	0xbd06cc7c	-0.032909855
128	0x3d1904ab	0.037357967
129	0x3ca03466	0.019556236
130	0x3c4cb1a5	0.012493526
131	0x3b8cc04b	0.004295384
132	0x3cce35d0	0.025172144
133	0x3b4ca03d	0.003122344
134	0xbc86a11a	-0.016434241
135	0xbcc53cda	-0.024076868
136	0xbd0601d2	-0.03271658
137	0x3c3dc428	0.011582412
138	0x3c80ce26	0.0157233
139	0x3cd989e0	0.026555002
140	0x3b8f45cf	0.0043723355
141	0x3c9b91bc	0.01899039
142	0x3b428f98	0.002968764
143	0xbd04240d	-0.032260943
144	0xbcc59352	-0.0241181
145	0x3c4bdd70	0.0124429315
146	0x3d0b5bb0	0.034022987
147	0x3ce048c0	0.02737844
148	0x3b311130	0.0027018301
149	0xbc403aa2	-0.011732729
150	0x3cdd05cc	0.026980303
151	0x3d10e746	0.03537681
152	0x3d0de2b6	0.034640037
153	0x3c200fc0	0.00976938
154	0x3cb1a332	0.021684263
155	0xbbc6da74	-0.006068522
156	0xbca6c466	-0.020357322
157	0xbbf0fc0c	-0.007354265
158	0x3d0b25f4	0.03397174
159	0x3d0de7f4	0.034645036
160	0x3c813944	0.015774377
161	0x3c927540	0.017878175
162	0x3c1c6464	0.009545419
163	0xbca47077	-0.020073159
164	0xbbfd5a7c	-0.007731734
165	0x3d0695a5	0.032857556
166	0xbcf91b4e	-0.030408528
167	0xbc4448fa	-0.01198029
168	0xbc63460b	-0.01387168
169	0x3c3b356b	0.01142631
170	0xbae7abbb	-0.0017675081
171	0xbbee84f2	-0.007279032
172	0x3b63dbea	0.003476853
173	0xbc44d9d9	-0.01201483
174	0xbd71425b	-0.058901172
175	0xbc8dd18c	-0.017311834
176	0x3cd26375	0.02568219
177	0xbc9ef1d2	-0.019402418
178	0xbcae79ec	-0.021298371
179	0xbd24bf03	-0.040221225
180	0xbbf4bd6e	-0.007468871
181	0xbd107aee	-0.035273485
182	0x3ca60adf	0.020268856
183	0x3a2d58fa	0.0006612685
184	0xbd37aca4	-0.044842377
185	0xbd2f10f9	-0.042740796
186	0xbc17b9d7	-0.009260616
187	0xbd2871d2	-0.041124173
188	0xbb7f4663	-0.0038951866
189	0xbcad7d5b	-0.021177938
190	0x3c165038	0.009174399
191	0xbd2ed224	-0.042680874
192	0x3b0a3cdf	0.002109341
193	0xba8e62ff	-0.0010863243
194	0xbba7488f	-0.005105085
195	0xbd0791ec	-0.033098146
196	0xbd004f2c	-0.031325504
197	0x3cecbcb0	0.028898567
198	0xbac73e1c	-0.0015201005
199	0xbc32a751	-0.010904149
200	0xbcf56ffc	-0.029960625
201	0xbc4a9551	-0.012364701
202	0x3c31b43b	0.010846193
203	0xbcf84404	-0.03030587
204	0xbcabedbe	-0.020987388
205	0xbcad81a9	-0.02117999
206	0xbc004616	-0.00782921
207	0xbc59b7dd	-0.013288465
208	0x3c9e69e2	0.019337598
209	0xbcb5fd97	-0.022215648
210	0x3c306022	0.010765107
211	0xbc11f677	-0.008908859
212	0x3ca60dab	0.02027019
213	0xbd0dd845	-0.03463008
214	0x3d038264	0.032106772
215	0x3cda44c0	0.02664411
216	0xbd0d1147	-0.034440305
217	0xbd17fabd	-0.037104357
218	0xbd18d97a	-0.037316777
219	0x3cc54fd0	0.02408591
220	0xbc1031ea	-0.008800963
221	0x3c5e6f19	0.013576292
222	0x3d04d7cf	0.032432374
223	0xbd135305	-0.035967845
224	0xbc8da083	-0.017288452
225	0xbc59b4e7	-0.013287759
226	0x3c92e109	0.01792957
227	0x3c8a0b19	0.016850995
228	0xbcd1745e	-0.025568184
229	0xbcc21492	-0.02369145
230	0x3ccab827	0.024746014
231	0x3d0664d8	0.032811016
232	0x3be9e2eb	0.0071376464
233	0xbc960df1	-0.018317195
234	0x3c4034d9	0.01173135
235	0xbadb4aeb	-0.0016730701
236	0xbca68d45	-0.020331034
237	0x3cbf2ee4	0.023337789
238	0xbd1c4c82	-0.0381589
239	0xbcdb7b61	-0.02679223
240	0x3cb22419	0.021745728
241	0x3a98c45e	0.0011655202
242	0x3d001183	0.0312667
243	0xbd15c4f4	-0.036564782
244	0x3c2b8350	0.010468319
245	0x3d08d2b4	0.033404067
246	0x3a2b7f6b	0.0006542119
247	0x3c373f1a	0.011184478
248	0xbcf840b6	-0.030304294
249	0xbd0ed70f	-0.034873065
250	0x3c0814ec	0.008305769
251	0x3ca51ac5	0.020154366
252	0xbc9f0b8f	-0.019414691
253	0xbbe30900	-0.006928563
254	0x3ce9101c	0.028450064
255	0xbd00c9d1	-0.031442467

fc1.bias f4 [128]
0	0x3cc7ae0b	0.024374982
1	0xbc1190a0	-0.008884579
2	0x3c7f32f6	0.015576115
3	0xbd251562	-0.040303595
4	0xbcd307e1	-0.025760593
5	0x3d7668fc	0.060158715
6	0x3cb1e5f6	0.0217161
7	0xbd277081	-0.040878776
8	0x3b99e3fb	0.004696367
9	0x3c7d6fb6	0.0154685285
10	0xbcab9724	-0.020946093
11	0xbce60c84	-0.02808214
12	0x39fe9170	0.00048555015
13	0xbd0d0342	-0.034426935
14	0xbd1b3838	-0.03789541
15	0x3d69893a	0.057015635
16	0xbd171369	-0.036883745
17	0xbca316b2	-0.019908283
18	0x3d154495	0.036442358
19	0xbaff5b94	-0.0019482248
20	0xbba79402	-0.0051140795
21	0x3e00f7fb	0.12594597
22	0xbd2fe157	-0.04293951
23	0x3d87c334	0.06629029
24	0xbd453adb	-0.048151832
25	0x39199a3e	0.00014648677
26	0xbbbac926	-0.0057002483
27	0xbcf05da1	-0.02934152
28	0xbcdf2369	-0.027238565
29	0x3c8d2c0e	0.017232921
30	0xbd1242e2	-0.035708316
31	0x3caa7de5	0.020811984
32	0xbd0e1e3c	-0.034696802
33	0x3d0dfafc	0.034663185
34	0xba071145	-0.00051524147
35	0xbc585d49	-0.013205835
36	0xbcccdae9	-0.025006728
37	0xbd206cbe	-0.039166205
38	0xbcb76b95	-0.022390166
39	0x3b51edc7	0.0032032595
40	0x3ca8dad5	0.02061216
41	0x3dd2699b	0.10274049
42	0xbd04b1bb	-0.03239606
43	0xbcc64c70	-0.02420637
44	0xbc9d6654	-0.019213833
45	0xbd131811	-0.035911623
46	0x3bd1d6fc	0.006403802
47	0x3bcd840e	0.0062718457
48	0xbd11f866	-0.03563728
49	0x3cf0ad48	0.029379502
50	0x3d0acca8	0.03388658
51	0x3cd53df6	0.026030522
52	0x3bbc1d24	0.0057407785
53	0x3d996752	0.0749041
54	0xbbee91df	-0.007280573
55	0xbd1413d4	-0.036151722
56	0xbd1097a5	-0.03530087
57	0x3bfd2cba	0.007726279
58	0xbc8df625	-0.017329285
59	0xbcb67e40	-0.022276998
60	0xbd29930c	-0.0414
61	0x3da7d1b6	0.08194296
62	0xbd0b2838	-0.033973902
63	0xbcccb258	-0.024987385
64	0xbc8038a5	-0.01565201
65	0x3ccf561a	0.025309611
66	0x3dfd240a	0.123603895
67	0x3c9d0b19	0.01917033
68	0x3c42722e	0.011868043
69	0x3c8c32ee	0.017114129
70	0xbbcf1a8f	-0.0063203047
71	0x3ba3b54c	0.0049959775
72	0x3d00ba19	0.031427477
73	0x3c37fef0	0.011230215
74	0xb9523993	-0.00020048609
75	0x3c3f61e1	0.011681051
76	0xb71cd6bf	-9.348324e-06
77	0xbd108ff2	-0.035293527
78	0x3c24c5eb	0.010056953
79	0xbb9630c7	-0.0045834514
80	0xbc8cf194	-0.017205037
81	0xbbdf9ee9	-0.0068243635
82	0x3be9b3ed	0.0071320445
83	0x3caae6c8	0.020861998
84	0x3c05824b	0.00814874
85	0x3cdfdbe4	0.027326532
86	0xbcecac97	-0.028890891
87	0xbcd58422	-0.026063982
88	0x3c9b6f35	0.018973926
89	0x3dc86400	0.097846985
90	0xbccc2ce8	-0.024923757
91	0x3e00ee83	0.12590985
92	0x3c294104	0.010330442
93	0xbcb053f3	-0.021524405
94	0xbad9abbd	-0.0016606968
95	0xbd247517	-0.040150728
96	0x3ae0e08b	0.0017156763
97	0xbb9051e6	-0.0044042943
98	0xbbe2c3ca	-0.0069203125
99	0x3c35a84d	0.011087489
100	0xbd13e8ce	-0.03611069
101	0xbc2e1301	-0.010624648
102	0xba011370	-0.0004923856
103	0x3c91188b	0.017711898
104	0x3a90a9e1	0.0011036956
105	0xbc77a3da	-0.015114749
106	0xbd1be2c8	-0.038058072
107	0xbc84139c	-0.016122632
108	0x3dd48d12	0.103784695
109	0x3c567b46	0.013090914
110	0xbbff73e1	-0.0077957963
111	0xbc532ecf	-0.012889578
112	0x3dd991b3	0.10623493
113	0x3cae0f36	0.021247488
114	0xbd0916a0	-0.033468843
115	0x3cc2ac3b	0.023763767
116	0x3c2b49f4	0.0104546435
117	0x3c996ef2	0.01872966
118	0xbcaffb2c	-0.021482073
119	0x3d6a54de	0.057209842
120	0xbc16754e	-0.009183241
121	0xbc42dcf4	-0.0118935
122	0xbc4ef96a	-0.012632707
123	0xbd4c0d97	-0.049817648
124	0x3e090ef1	0.13384606
125	0xba26b97c	-0.0006360037
126	0x3d079214	0.033098295
127	0xbd6f806b	-0.05847208

fc2.weight f4 [128, 128]
0	0xbdb22dbd	-0.0870013
1	0xbd717dce	-0.058957867
2	0xbce518da	-0.027965952
3	0xbc3831d8	-0.011242352
4	0x3cf56e36	0.02995978
5	0x3ce859d2	0.028363142
6	0xbc09c543	-0.008408847
7	0x3d554269	0.052065287
8	0xbb066cce	-0.002051163
9	0x3d08b23d	0.033373106
10	0x3ce2653d	0.027636165
11	0xbd048aa1	-0.03235877
12	0xbdca8b5a	-0.098898605
13	0x3d0f4a94	0.034983233
14	0x3da7e7dd	0.08198521
15	0xbcc1c441	-0.023653151
16	0xbd3c8e73	-0.046034288
17	0x3cef315e	0.029198345
18	0x3b7cb6e2	0.0038561155
19	0x3d2be00e	0.041961722
20	0x3dafa94f	0.08577215
21	0x3d8232bd	0.06357334
22	0x3c89aad2	0.016805086
23	0xbd3bd56d	-0.045857836
24	0x3d58cb7e	0.05292844
25	0xbb18ef80	-0.0023336112
26	0x3d8604f3	0.06543913
27	0xbbcd4e96	-0.0062654717
28	0xbc686a18	-0.014185451
29	0xbb06a055	-0.0020542343
30	0x3db7f099	0.08981437
31	0x3d62903e	0.05531334
32	0xbda3eea2	-0.080045
33	0xbd9cf4f2	-0.07663907
34	0x3da1dfc7	0.0790401
35	0xbdd85159	-0.10562391
36	0xbdb0e63c	-0.08637664
37	0x3db37876	0.087632105
38	0x3dabc303	0.08386805
39	0xbd83140d	-0.06400309
40	0xbd835cc0	-0.06414175
41	0xbd995202	-0.07486345
42	0x3ccf3064	0.02529163
43	0xbbe8c45c	-0.007103486
44	0xbd1e7d27	-0.038693573
45	0x3d9bcae9	0.076070614
46	0x3d64dba6	0.055873536
47	0x3ca77641	0.02044213
48	0xbd53e08a	-0.05172781
49	0xbda2b72c	-0.079450935
50	0xbc07636c	-0.00826345
51	0x3d2739d0	0.04082662
52	0x3d56b372	0.052417226
53	0x3df1ae91	0.11800874
54	0xbc384928	-0.011247911
55	0x3db52454	0.0884482
56	0x3cfa3a20	0.030545294
57	0xbcd08124	-0.025452204
58	0xbc34a490	-0.011025563
59	0xbd9bb23f	-0.07602357
60	0xbca2527c	-0.019814722
61	0x3dccca59	0.09999532
62	0xbdb0b1b9	-0.08627648
63	0x3dce890d	0.10084734
64	0xbd0d72c2	-0.03453327
65	0x3d13cc00	0.03608322
66	0x3df5a5f3	0.11994543
67	0xb96be281	-0.00022495726
68	0x3d6ee181	0.058320526
69	0xbd7d6b0c	-0.061869666
70	0x3d283318	0.04106435
71	0x3db1b507	0.08677106
72	0xbd08290d	-0.033242274
73	0x3c6b2f20	0.014354497
74	0x3ad10b00	0.0015948713
75	0x3d17663a	0.036962725
76	0x3cc30f58	0.023811027
77	0x3d1bb59b	0.03801499
78	0xbbebce40	-0.007196218
79	0xbcba5384	-0.022744901
80	0xbc22fa3b	-0.009947355
81	0xbd9ce8e3	-0.07661607
82	0xbd534d23	-0.051587235
83	0x3bb9f454	0.005674878
84	0xbda37408	-0.079811156
85	0xbd720197	-0.059083547
86	0xbd833e61	-0.06408382
87	0x3d19f54a	0.03758744
88	0xbd9f1f5a	-0.07769652
89	0xbe260a5c	-0.1621489
90	0xbc7838fa	-0.015150303
91	0xbc7d8d33	-0.015475559
92	0x3d351482	0.04420901
93	0x3d707f2a	0.058715023
94	0x3d0002b9	0.031252597
95	0xbd916870	-0.07099998
96	0x3c42e825	0.011896168
97	0xbd3d0eb8	-0.046156615
98	0x3d4d833e	0.05017399
99	0x3d1ed1fe	0.038774483
100	0x3d0eac9c	0.034832582
101	0xbd172dcc	-0.03690891
102	0x3d870c9d	0.06594203
103	0x3d9f7c15	0.07787339
104	0x3ccbeb14	0.024892367
105	0x3d4564f6	0.048191987
106	0x3c1246e8	0.008928038
107	0xbd222279	-0.039583657
108	0x3d46bdb9	0.048520777
109	0xbd95e432	-0.073189154
110	0xbcbb90d0	-0.0228962
111	0x3cdbaa90	0.026814729
112	0x3da24059	0.079224296
113	0xbcb90b00	-0.022588253
114	0xbd25fd9f	-0.040525075
115	0xbd113d27	-0.03545871
116	0xbd8896fd	-0.06669424
117	0xbd983dd6	-0.07433669
118	0xbdaee5de	-0.085399374
119	0xbda8b0a2	-0.08236815
120	0x3c8652ca	0.016396899
121	0xbc4236d8	-0.011853896
122	0xbd4f4de7	-0.050611403
123	0xbb179a21	-0.002313264
124	0x3d9afbf3	0.07567587
125	0x3c89c8cd	0.016819382
126	0xbd8c512f	-0.06851422
127	0xbd512c67	-0.051067736
128	0xbd800d9e	-0.06252597
129	0xbcfef13e	-0.031120893
130	0xbdbab223	-0.09116008
131	0x3beb4690	0.0071800426
132	0xbaa4a49b	-0.0012561263
133	0x3c152882	0.009103896
134	0xbdcbac88	-0.09945017
135	0xbc3ca870	-0.011514768
136	0x3d8e8537	0.069590025
137	0x3d130a5b	0.035898548
138	0x3aaed528	0.0013338672
139	0x3d177cfe	0.036984436
140	0x39d7206d	0.00041032155
141	0x3b912d90	0.0044304803
142	0x3d4a2c26	0.04935851
143	0xbd376b8e	-0.044780307
144	0x3d1e38a4	0.038628235
145	0x3d19c51c	0.037541494
146	0xbc18521c	-0.00929692
147	0xbcbfb830	-0.023403257
148	0xbc07cf73	-0.008289206
149	0xbcacc420	-0.021089613
150	0x3d9aad9b	0.07552644
151	0xbd5f7d53	-0.054562878
152	0x3da8c751	0.082411416
153	0x3d5f50be	0.05452036
154	0xbd96e008	-0.07366949
155	0xbc2f7705	-0.010709529
156	0xbd9cce07	-0.07656484
157	0x3d3fe84a	0.046852387
158	0x3da9f031	0.08297766
159	0xbcf160bc	-0.029465072
160	0xbd0e236b	-0.034701746
161	0xbbadc110	-0.005302556
162	0xbd0b0e92	-0.033949442
163	0xbdaa7496	-0.08323018
164	0xbd96bd0f	-0.07360279
165	0xbd3c7769	-0.046012316
166	0x3d157584	0.036489025
167	0xbda02185	-0.07818893
168	0xbd795df1	-0.060880605
169	0x3c8747f2	0.016513798
170	0xbcbe9fb0	-0.023269504
171	0xbd9ba7ac	-0.0760034
172	0xbd63e54f	-0.055638608
173	0xbccea0b0	-0.025223106
174	0x3ca3a66f	0.019976823
175	0xbc1a3b99	-0.009413623
176	0xbd89e322	-0.06732775
177	0x3d97fb79	0.074210115
178	0x3c9ad6c0	0.018901229
179	0xbd3b9d2e	-0.045804195
180	0xbc123010	-0.008922592
181	0x3dd55c90	0.104180455
182	0x3d401f23	0.046904694
183	0xbd941e12	-0.07232298
184	0xbd2a7b97	-0.04162177
185	0xbc468ce0	-0.012118548
186	0xbd85a588	-0.06525713
187	0x3c6a564d	0.014302802
188	0xbd8aacbe	-0.06771229
189	0x3d65bc79	0.056087945
190	0xbca3e950	-0.020008713
191	0xbdcb466e	-0.09925543
192	0xbd45daf3	-0.04830451
193	0x3ccfef51	0.02538267
194	0x3d158a25	0.036508698
195	0x3dc969e0	0.09834647
196	0xbbcf1742	-0.006319911
197	0x3cbb72ac	0.022881828
198	0xbcc673ae	-0.024225082
199	0x3ce35e28	0.027754858
200	0x3d3e58d5	0.046471436
201	0xbd254bdb	-0.040355545
202	0xbc8611c4	-0.016365893
203	0x3c746d20	0.014918596
204	0xbd8f487d	-0.06996248
205	0x3cb45498	0.022012994
206	0xbd2014a3	-0.03908218
207	0x3d85d4cb	0.06534728
208	0xbc0b55b7	-0.008504323
209	0xbc729c52	-0.0148077775
210	0xbd56c64d	-0.052435208
211	0x3d8a3b72	0.067496195
212	0x3d0a594c	0.033776566
213	0xbd01b35c	-0.03166519
214	0xbc9f24ea	-0.019426782
215	0xbaeb2030	-0.001793867
216	0xbd6b7765	-0.05748691
217	0xbdb485cf	-0.088145845
218	0xbda0e4e7	-0.0785616
219	0x3d075d5a	0.03304801
220	0xbc0849e0	-0.008318394
221	0x3d3cccee	0.046093874
222	0xbcdd5cb9	-0.027021753
223	0xbdaba20c	-0.08380517
224	0xbd459d15	-0.04824551
225	0xbd927055	-0.07150332
226	0x3d4adeba	0.049528815
227	0x3c3f4488	0.011674054
228	0xbd3e73b0	-0.046497047
229	0x3cd01b58	0.025403664
230	0x3d8aa4cf	0.06769716
231	0x3d06f38e	0.032947116
232	0xbc3318a0	-0.010931164
233	0x3c65b0a8	0.014019169
234	0xbd75a19a	-0.05996857
235	0x3d32d75a	0.043662407
236	0x3ddf0194	0.10888973
237	0xbbff2602	-0.0077865133
238	0x3d1348f2	0.035958238
239	0x3d1ff7d2	0.0390547
240	0xbad708e3	-0.0016405847
241	0x3d4e62be	0.050387137
242	0xbdd3a8f3	-0.10334959
243	0xbd5b1832	-0.05348987
244	0x3c6024c8	0.013680644
245	0x3d886e81	0.06661702
246	0xbda63a54	-0.08116594
247	0x3d5e84a5	0.05432572
248	0xbd3796b0	-0.04482144
249	0xbd8d61c5	-0.06903414
250	0x3d73af3d	0.059493292
251	0x3dcd939e	0.10037921
252	0x3e2dc5c1	0.16969968
253	0xbd9050e1	-0.070466764
254	0x3dac5d98	0.08416289
255	0x3d33c197	0.043885794

fc2.bias f4 [128]
0	0x3d1e9625	0.038717408
1	0x3d4e76a6	0.05040612
2	0x3d4d8840	0.050178766
3	0x3dc46d4e	0.09591161
4	0x3dd0c2e8	0.101934254
5	0x3d7e741b	0.062122446
6	0x3e3cd69f	0.18441246
7	0x3dfc0611	0.123058446
8	0xbe085ac6	-0.13315877
9	0x3ddde5bb	0.10834833
10	0xbd8b0c93	-0.06789508
11	0xbd1daa98	-0.03849277
12	0x3e426994	0.18985587
13	0x3ca42de8	0.020041421
14	0xbda192ac	-0.078893036
15	0x3dbd5a8f	0.09245788
16	0x3cf0153c	0.029307
17	0x3e03e0bc	0.12878698
18	0x3e04e68c	0.12978572
19	0xbd0fa72f	-0.035071548
20	0xbe0741a7	-0.13208638
21	0x3d9454a7	0.07242709
22	0x3e198ef2	0.14995936
23	0x3e844732	0.25835568
24	0x3e1c07a5	0.15237291
25	0x3cacc5a5	0.021090338
26	0x3e0a2c26	0.13493404
27	0x3e44c7ce	0.19216844
28	0xbd4a2628	-0.049352795
29	0x3ccee6a2	0.025256459
30	0x3dc8f6e8	0.09812719
31	0x3d260b10	0.040537894
32	0x3e4e93e1	0.20173599
33	0xbdd3f29a	-0.10349007
34	0x3e7c116f	0.24616025
35	0x3ac7cd32	0.0015243648
36	0x3d47b201	0.048753742
37	0x3e627a78	0.2211703
38	0xbd8592a9	-0.06522114
39	0xbc93fe4b	-0.018065592
40	0x3ba54c2a	0.00504448
41	0xbd02183c	-0.031761393
42	0xbc99875f	-0.018741308
43	0xbca5cd43	-0.020239478
44	0x3e6d2b39	0.2316102
45	0x3e14f364	0.14545971
46	0x3d87e68a	0.06635769
47	0x3d170768	0.036872298
48	0xbe006ca6	-0.12541446
49	0xbc8370d8	-0.016045019
50	0x3e0c9683	0.1372929
51	0x3d5b6776	0.053565465
52	0x3d64715d	0.055772174
53	0x3c8dd317	0.01731257
54	0x3e65f85d	0.22458024
55	0x3df80161	0.12109638
56	0x3b4d1610	0.0031293668
57	0x3d046741	0.032325033
58	0xbe02a1a1	-0.12756969
59	0x3d0e5089	0.034744773
60	0xbd317644	-0.043325678
61	0xbd952b9e	-0.0728371
62	0x3e692db6	0.22771344
63	0xbdd60f32	-0.10452117
64	0xbd47f2ac	-0.048815414
65	0xbda21c57	-0.07915562
66	0xbd71882f	-0.058967765
67	0x3d83b8e0	0.064317465
68	0x3da33912	0.0796987
69	0x3e2125ab	0.15737025
70	0x3dcdae3e	0.10043
71	0x3d9e7444	0.0773702
72	0xbd6ab6f3	-0.05730338
73	0x3df119bb	0.11772486
74	0xbd39bb13	-0.045344424
75	0x3d0f39c2	0.03496719
76	0x3b99a63e	0.004689007
77	0x3d8db4d7	0.06919258
78	0xbe1a948c	-0.15095729
79	0xbd021c2e	-0.031765155
80	0x3cef7dc1	0.029234769
81	0x3da85404	0.0821915
82	0x3e75a7b1	0.2398975
83	0x3cad9e76	0.021193724
84	0x3d3a4ff9	0.045486424
85	0x3cdf282e	0.027240839
86	0xbdd25951	-0.10270942
87	0x3e1fad05	0.15593345
88	0xbe218767	-0.15774308
89	0x3e61d3e0	0.2205348
90	0x3e4cdaa4	0.2000528
91	0x3e5f04ce	0.21779177
92	0x3d1c0157	0.038087215
93	0x3d8a8803	0.067642234
94	0x3d211bfe	0.039333336
95	0x3e5a411b	0.21313898
96	0x3d0521ce	0.03250294
97	0xbd770928	-0.060311466
98	0x3d3846df	0.044989463
99	0x3dd4fca4	0.1039975
100	0x3c8f2a75	0.0174763
101	0x3d457e64	0.04821624
102	0xbca59c11	-0.02021602
103	0x3d493f2b	0.049132507
104	0x3dbf0818	0.09327716
105	0x3e6503e3	0.22364764
106	0x3cbbb685	0.02291418
107	0x3ca14fee	0.019691434
108	0x3e717aac	0.23581952
109	0x3e3de161	0.18543006
110	0xbe080e00	-0.1328659
111	0xbdfcfa3d	-0.12352417
112	0xbda9fb63	-0.08299901
113	0x3e64204f	0.2227795
114	0x3def5439	0.11685986
115	0x3e83c6e8	0.2573769
116	0x3e3285d7	0.17433868
117	0x3da6ce36	0.081448
118	0x3eb2de86	0.34935397
119	0x3e302fec	0.1720578
120	0x3e343435	0.1759804
121	0x3d24ba0b	0.040216487
122	0x3e3c754d	0.18404122
123	0xbdaecd5c	-0.08535263
124	0x3ea14267	0.31495973
125	0x3d837ad9	0.06419916
126	0xbda8b574	-0.082377344
127	0xbd5f5879	-0.054527733

fc3.weight f4 [128, 128]
0	0x3bd307c1	0.0064401333
1	0xbcd03165	-0.025414178
2	0xbe063f9d	-0.13110204
3	0xbd06ce39	-0.032911513
4	0xbcde4f0d	-0.027137304
5	0x3b8ccae0	0.0042966455
6	0x3c2d7d53	0.010588962
7	0xbd40e375	-0.04709192
8	0x3de0d717	0.10978525
9	0xbd3f8e8c	-0.046766803
10	0xbddf05da	-0.10889788
11	0x3c14d5ac	0.0090841465
12	0x3c0b2f7e	0.00849521
13	0x3d0ecfab	0.034866016
14	0x3d30ab7e	0.043132298
15	0x3b8cfbe8	0.0043024905
16	0xbd491fcb	-0.049102586
17	0xbd9f77ca	-0.0778652
18	0x3cd0f1e6	0.025505971
19	0xbcf1200f	-0.029434232
20	0x3d73320d	0.059373904
21	0xbd260ded	-0.040540624
22	0xbd8d3bef	-0.06896197
23	0xbcd83af9	-0.026395308
24	0xbda1d801	-0.079025276
25	0xbd9064ff	-0.070505135
26	0xbd89c0fb	-0.06726261
27	0xbbed552e	-0.00724282
28	0xbd09adf8	-0.033613175
29	0xba1926a9	-0.00058422476
30	0xbcaabad4	-0.02084104
31	0xbd3571da	-0.04429803
32	0xbc92986f	-0.017894952
33	0xbda6a0d1	-0.08136142
34	0x3d2562af	0.040377315
35	0x3dba4ae8	0.090963185
36	0x3c9ac73a	0.018893827
37	0xbde20edf	-0.11037993
38	0xbd6ac88b	-0.05732016
39	0xbd3f5cd0	-0.046719372
40	0xbd5dd13d	-0.054154623
41	0xbd9c9452	-0.07645477
42	0x3d88bbba	0.06676431
43	0xbdb2e27f	-0.08734607
44	0xbd5f0209	-0.0544453
45	0xbd49fb42	-0.049311884
46	0xbd096e27	-0.033552315
47	0x3db5f7bd	0.08885143
48	0xbd754285	-0.05987789
49	0x3dae006f	0.084961765
50	0x3d138b6c	0.036021635
51	0x3dc54be3	0.09633615
52	0xbbc04fb5	-0.005868877
53	0xbd87ea98	-0.06636542
54	0xbd449a1c	-0.047998533
55	0xbdc0dc42	-0.09417011
56	0xbc93d3ce	-0.018045332
57	0xbc5032d3	-0.01270743
58	0x3df455e3	0.11930444
59	0xbdee94e3	-0.11649492
60	0x3de1c64d	0.11024151
61	0x3cc5144f	0.024057535
62	0xbd37f26e	-0.044908933
63	0x3cb626f5	0.022235373
64	0xbc00b0ef	-0.007854684
65	0x3da94b3b	0.08266302
66	0xbd9bb942	-0.076036945
67	0x3ca7ab5f	0.020467458
68	0x3c9a5a9f	0.01884204
69	0xbcf7ccdc	-0.030249052
70	0xbd2cb54d	-0.04216509
71	0x3cc02622	0.023455683
72	0x3da0d67b	0.07853409
73	0x3cf344fa	0.029695977
74	0x3d3ef3b7	0.046619143
75	0xbc1b839f	-0.00949183
76	0xbd39404a	-0.045227326
77	0xbd649d33	-0.05581398
78	0xbb9595d7	-0.0045649814
79	0xbaabc4f6	-0.0013104964
80	0xbdb019d0	-0.08598673
81	0xbb27bd81	-0.002559513
82	0x3afa41bf	0.001909308
83	0x3e20fefc	0.15722269
84	0xbd99888f	-0.074967496
85	0x3da4bcfe	0.0804386
86	0x3d9a317b	0.07528969
87	0xbdae66a2	-0.085156694
88	0x3da71c3d	0.08159683
89	0xbd3b33c2	-0.045703657
90	0x3c8a38ae	0.01687273
91	0x3c3a25cf	0.011361553
92	0x3aa51cf6	0.0012597132
93	0x3d5060e0	0.050873637
94	0x3d980ae6	0.07423954
95	0xbceddb88	-0.029035345
96	0xba3bb429	-0.000716033
97	0x3d1ef9a7	0.038812306
98	0xbda3dc6a	-0.08001025
99	0x3e270bed	0.16313143
100	0xbcc5e548	-0.024157181
101	0x3d2d3aa0	0.042292237
102	0xba898c43	-0.0010494072
103	0xbd76914c	-0.06019716
104	0xbc8f1b4f	-0.017469076
105	0xbd6a2441	-0.05716348
106	0xbd620063	-0.05517615
107	0x3db96148	0.09051758
108	0xba546c53	-0.00081033
109	0x3d58ba3b	0.05291198
110	0x3d6c5ce1	0.057705764
111	0xbcaa8ffd	-0.020820612
112	0xbc5454ef	-0.012959703
113	0xbceab006	-0.028648388
114	0xbdb8471f	-0.0899794
115	0xbda11ea6	-0.07867174
116	0x3ce08aaa	0.02740987
117	0xbab81173	-0.0014043286
118	0xbdc010b2	-0.093781844
119	0xbdb5d16a	-0.08877833
120	0xbdf77ee4	-0.12084749
121	0xbde8426e	-0.113407955
122	0x3b901737	0.0043972987
123	0xbd6f1cdd	-0.058377136
124	0x3d49bb45	0.04925086
125	0x3b2c1a77	0.0026260891
126	0xbd97f4cc	-0.07419738
127	0x3d1f54d0	0.038899243
128	0xbd7b516a	-0.06135694
129	0x3ba64202	0.0050737867
130	0x3bc4b631	0.006003164
131	0x3d08bbf6	0.03338238
132	0x3d51165e	0.05104672
133	0xbd019aa4	-0.031641617
134	0x3d58e2c6	0.052950643
135	0x3d45b2df	0.048266288
136	0x3d0acb4e	0.033885293
137	0x3c60d210	0.013721958
138	0x3d26a95b	0.040688854
139	0xbda8a7c4	-0.08235124
140	0xbbb3a9d0	-0.0054828897
141	0x3c74b2da	0.01493522
142	0x3ca593a3	0.020212
143	0xbd91663b	-0.07099577
144	0xbd61445d	-0.054996837
145	0xbc7e17cb	-0.015508602
146	0xbd7bbec6	-0.061461233
147	0x3d01f258	0.031725258
148	0x3d0a2efd	0.033736218
149	0x3d78a7d8	0.060706943
150	0x3c978e54	0.018500485
151	0xbd321193	-0.04347379
152	0x3cdfe235	0.027329544
153	0xbd2b5353	-0.04182751
154	0xbd92bcc9	-0.07164914
155	0x3ce40271	0.027833195
156	0xbd924a5d	-0.0714309
157	0xbda62eba	-0.08114381
158	0xbbdd8ffd	-0.0067615495
159	0xbda178ff	-0.07884406
160	0xbd7d6f8e	-0.061873965
161	0x3e071625	0.13192041
162	0x3c6777a5	0.014127647
163	0x3d09294a	0.033486642
164	0xbd98c908	-0.07460219
165	0xbdec7488	-0.11545664
166	0xbd5b611e	-0.053559415
167	0xbdf65a9e	-0.120290026
168	0x3ca31a0f	0.019909887
169	0xbdf693a0	-0.12039876
170	0xbdd4e41f	-0.10395073
171	0xbc7fa0b0	-0.015602276
172	0x3d461939	0.048363898
173	0x3ceff635	0.029292205
174	0x3c9c4b73	0.019078946
175	0xbe0270ae	-0.12738296
176	0x3d5af6f4	0.05345817
177	0xbde5c3dc	-0.11218998
178	0xbde05594	-0.10953823
179	0xbd6e2450	-0.0581401
180	0xbc39770d	-0.011319888
181	0x3ce47724	0.027888842
182	0xbd87863e	-0.066174015
183	0xbce57ad9	-0.02801268
184	0x3c902540	0.017595887
185	0xbd745fe9	-0.05966178
186	0xbd284ba7	-0.041087773
187	0xbd57d65d	-0.052694667
188	0xbdc00763	-0.09376409
189	0xbd733960	-0.05938089
190	0xbbbfc607	-0.005852464
191	0xbd33ef02	-0.043929107
192	0x3b43a5ef	0.0029853543
193	0xbd6a1f75	-0.057158906
194	0x3ba4cb22	0.005029098
195	0xbc01143c	-0.007878359
196	0xbce3251d	-0.027727658
197	0x3d6faf39	0.058516715
198	0xbc7ccbd6	-0.015429458
199	0xbc7a187e	-0.015264628
200	0x3d66da5c	0.056360587
201	0xbd23affc	-0.039962754
202	0x3c425f21	0.011863501
203	0xbd4752ca	-0.04866294
204	0xbd8c6c86	-0.06856637
205	0x3d8779bd	0.066150166
206	0x3b9e11f4	0.0048239175
207	0xbd09f9e1	-0.03368557
208	0x3d7f6f74	0.06236215
209	0xbc92caf4	-0.017919041
210	0x3d1364d8	0.035984844
211	0x3c076ebe	0.008266149
212	0xbc3ea91c	-0.0116369985
213	0x3bb2f3ce	0.0054611927
214	0xbda28680	-0.0793581
215	0x3ccb5384	0.024820097
216	0x3a89ac42	0.0010503607
217	0xbd9d8941	-0.07692195
218	0xbd8ba460	-0.068184614
219	0xbde5e52c	-0.11225352
220	0xbc87ff9b	-0.016601374
221	0xbda46dda	-0.08028765
222	0xbd813acc	-0.06310043
223	0x3c5f0d31	0.013613985
224	0x3d5df43c	0.054188
225	0xbd7efd08	-0.06225303
226	0xbcdf2e02	-0.027243618
227	0x3c74bf65	0.01493821
228	0xbc168b02	-0.0091884155
229	0xbd0314e5	-0.03200235
230	0xbd90e945	-0.07075743
231	0x3d84bea8	0.06481677
232	0xbdab369e	-0.08360027
233	0x3d34ab45	0.044108648
234	0xbd6f3197	-0.058396902
235	0x3c8ef7c4	0.017452128
236	0xbcddd86c	-0.027080737
237	0xbd5593ce	-0.05214291
238	0xbc23b090	-0.009990826
239	0x3d5cf6fb	0.053946476
240	0x3d82adf0	0.06380832
241	0xbbe1c8b8	-0.0068903826
242	0x3c2dcac3	0.010607424
243	0xbdbb7d78	-0.09154791
244	0x3b8af4f0	0.0042406246
245	0xbd878411	-0.066169865
246	0xbdd6f541	-0.10495997
247	0xbda36031	-0.079773314
248	0xbc5e9469	-0.013585188
249	0xbdd998d3	-0.10624852
250	0xbc6b85d2	-0.014375167
251	0xbdae7228	-0.08517867
252	0xbb6201aa	-0.0034485855
253	0xbc4d2ff7	-0.012523643
254	0xbd3dc374	-0.046328977
255	0xbdaf3826	-0.08555631
