models/dqn_model_epoch_38000.pth (torch, 595624 bytes, 14 tensors)

cnn1.weight f4 [16, 4, 5, 5]
00000000: 1663 47be e76f 333d decd e4bc c29b 49be
00000010: 765c 12be 427e 4bbe a291 46be fe62 94be
00000020: 749a 0ebd 0954 69bd 8db7 8bbe 2c40 24be
00000030: 229d c1be cde0 15be 3cbb 1b3d b621 2abe
00000040: afac 5abe 8bd3 23bd b430 83be 3544 453c
00000050: 39f9 56be 9fa0 81be d923 41be b9b3 893d
00000060: 7eb6 e33c 6f4c 70bc afe8 08bd 50f2 c1bd
00000070: bdda 12be 5455 e33c e4ed 803d 3172 dbbc
00000080: 44f7 c83c 79c0 8abd 14b7 91bd 0104 41bd
00000090: 10b0 0cbe b0fb 853c a607 073e 5f5d e8bc
000000a0: 49fd d3bd 9e77 a83c 68a1 adbd 0e3a 963c
000000b0: 1700 04be 2015 02bd d4f5 993d 3a40 2abd
000000c0: 2c12 8cbd f16e b2bd b7f3 a93d c8a7 27bc
000000d0: 4512 07be 6baf 52be 2c5a d4bc 3292 c7bc
000000e0: 271f b3bd ce51 353e ae02 4b3d c5f4 1dbe
000000f0: 1f25 6e3e 9325 6d3e 7215 003e 8183 063d
00000100: 996c 57be 1cc8 90be 0d4c 1d3e 337b 8f3e
00000110: 42f3 05be 7fa0 2abe 6e03 24be bfc6 83bc
00000120: 79b9 a23e 8ddc 06be d034 1cbe 0892 bfbd
00000130: a856 7abe 2c86 b8bd a3c5 a7bb e6cc 87bd
00000140: 8964 2bbd d9a9 e13d a449 183e 93f0 c0bd
00000150: 4ce3 093d 5bf0 26be e924 963d b82a a53d
00000160: 6a97 bfbd 09e2 a8bd d08c 03be 6f2e e4bb
00000170: 57a3 983d 20d5 c8bc f8bd f2bd d001 b93d
00000180: 565e f53d 2d76 3abe 298e 8fbd 7415 75bd
00000190: 0ff1 f2bd 1695 85be 7f2a 35be 0e60 0b3d
000001a0: 018e 67be 7142 01be 44cc a7bd 80ef 94bb
000001b0: a64f bf39 4609 ae3b 2b10 0cbe 3491 31bd
000001c0: 0d16 733c 98fa 68bd bc9d 7ebd de71 1fbe
000001d0: 36ea 67be 02e8 33be ad8a bdbe ee1a 6ebd
000001e0: 3907 84be 4aae 62be 426b c5bd c9e9 95bd
000001f0: ebd3 ffbd d0e1 39bd 00b7 aa3d f47f 6abd
00000200: 42d6 103d d5aa 06be 3ca4 73bc cb56 1ebd
00000210: 1140 d8bd 5e6e bd3c 45f8 41ba 7425 a6bc
00000220: 5e14 4ebd a620 12be 0447 46bd 6dc4 d2bc
00000230: 2b91 0bbe a1d5 ccbc 1247 513d 2cc0 47bd
00000240: fc7c dabd 14aa 1fbb 366b 053d d58f 8cbd
00000250: 0d8d d43d f2a1 e8bd e5da 42be 5f7d 333e
00000260: b645 5fbd 0b47 213e 4c57 17be c6ee 3ebe
00000270: 142b 383e fe16 51be 4cb5 a73d e4ca 20be
00000280: 7bde 8bbe c92f 80be f6b4 b83d 1320 c63d
00000290: 1365 57be 3b49 7cbe 7cc5 0cbe 420f 863e
000002a0: a799 41be 70da 6ebe 3e40 c63e e3fd 973e
000002b0: 122b d33e 89e4 66bd 707b 29be 8912 543e
000002c0: c99f 083e 1df3 723e 909f 8dbc f87b a8bd
000002d0: 47a0 ef3d 09ee f4bd 05bf 1b3e f743 04be
000002e0: 40c8 e0bd 1281 28be cab9 bd3d 3852 813d
000002f0: 6948 a6bd a3cb 1cbe fe26 2bbe 198e ebbc
00000300: 44c6 abbd 0e2a 00be 4245 25bd 4304 0abe
00000310: 9cb4 f1bd 9139 383e 7d25 03be af90 0ebe
00000320: 7006 99be ba42 99bd 2d94 b0be d0b4 463d
00000330: 690d 3abe ea39 64be 3bdc 21be 3ff8 42be
00000340: 3e23 183d 0ffc 9b3b ec3b 78be 53c0 5fbe
00000350: 1adf fabd 933b f33c c208 353e e280 7ebe
00000360: 9a66 6abe d06a 94be 76aa 21be 107e 093e
00000370: ab84 79be 7620 05be c2cf 74be f310 563d
00000380: af56 85bd 5222 05be a828 55bc e7d4 0ebe
00000390: 5251 b1bd 66b8 16bd 41ae 6bbb a81e b0bc
000003a0: 1a9f 813d b571 b9bd 50b3 ec3c e613 40bc
000003b0: 1719 c13c 3bbb 4cbc f8d9 c8bd 3176 47bb
000003c0: bda9 71ba 4112 b5bd e5be 2e3c 47bc 3b3e
000003d0: 3a7f c0bb 31b2 a3bd 6105 18be 8320 62bd
000003e0: 2dea ba3d bcfb 1abc 4494 993d 6364 fc3c
000003f0: a62b 503d 0130 cbbe 74a5 79bd a152 c73c
-0.19471392 0.04380789 -0.027930196 -0.19688323 -0.14293084 -0.19872382 -0.19391492 -0.28981775
-0.034815267 -0.056964908 -0.27288476 -0.16040105 -0.37815195 -0.14636536 0.038020357 -0.16614422
-0.21354936 -0.039996665 -0.25623095 0.012040188 -0.20993508 -0.25317857 -0.18861331 0.067237325
0.02779698 -0.014666661 -0.03342503 -0.094700456 -0.14341255 0.027750649 0.06295374 -0.02678785
0.024531968 -0.067749925 -0.071149975 -0.04712296 -0.13739038 0.016355366 0.13186511 -0.028364835
-0.10351045 0.02056485 -0.084780514 0.01833823 -0.1289066 -0.031758428 0.07517591 -0.041565157
-0.068394035 -0.08712567 0.08298438 -0.010232873 -0.13190563 -0.20574729 -0.025921904 -0.024361704
-0.08746176 0.17706987 0.049563102 -0.15425403 0.23256348 0.23158865 0.1250818 0.032840256
-0.2103752 -0.2827767 0.15361042 0.2802368 -0.13081077 -0.16662787 -0.16016933 -0.01608598
0.3178213 -0.13170071 -0.15254521 -0.09354025 -0.24447119 -0.09009966 -0.0051199957 -0.06630878
-0.041843925 0.11018724 0.14871842 -0.09420886 0.033664033 -0.16302626 0.07331259 0.080647886
-0.09355052 -0.08246238 -0.12846684 -0.006963543 0.074530296 -0.024515688 -0.1185264 0.09033549
0.11980884 -0.18209143 -0.07009537 -0.059834912 -0.118623845 -0.26090306 -0.17691992 0.03402715
-0.22612764 -0.12623002 -0.081932575 -0.004545152 0.00036489702 0.005311164 -0.13678043 -0.043351367
0.0148368 -0.05687961 -0.062162146 -0.1557078 -0.22647938 -0.17568973 -0.37019864 -0.05813115
-0.2578676 -0.22136799 -0.096395984 -0.073199816 -0.12491592 -0.045381367 0.08335686 -0.05725093
0.035360582 -0.13151105 -0.0148706995 -0.03865699 -0.10559095 0.023123916 -0.0007399361 -0.02028153
-0.050312392 -0.14270267 -0.04840757 -0.025728429 -0.13629596 -0.02500421 0.05109317 -0.048767254
-0.1066837 -0.002436285 0.032572947 -0.06863371 0.10378466 -0.113590136 -0.19028814 0.17528294
-0.05450984 0.15749757 -0.14779395 -0.18645772 0.17985183 -0.20418927 0.081888765 -0.15702397
-0.27318177 -0.25036457 0.090188906 0.096740864 -0.2103465 -0.2463731 -0.1374721 0.26183516
-0.1890627 -0.23325515 0.38720888 0.29685888 0.41243798 -0.05637029 -0.16550994 0.20710196
0.13342203 0.23725553 -0.017288 -0.0822677 0.11700492 -0.11959464 0.15209587 -0.12916552
-0.10975695 -0.16455486 0.09263952 0.0631451 -0.0811928 -0.15312056 -0.16714093 -0.02875428
-0.083874255 -0.12516043 -0.040349253 -0.13478188 -0.11802027 0.1799071 -0.1280727 -0.1392238
-0.29887724 -0.0748343 -0.3448805 0.04851228 -0.18169178 -0.22287717 -0.15806668 -0.19040011
0.037142985 0.0047602723 -0.24241608 -0.2185071 -0.122495845 0.029691493 0.17679122 -0.24853852
-0.22890702 -0.2898774 -0.15787682 0.13426995 -0.24367015 -0.13000664 -0.23907378 0.052262258
-0.06510674 -0.13001373 -0.0130101815 -0.13948403 -0.08658089 -0.03679695 -0.0035962018 -0.021498993
0.06329174 -0.09054891 0.028894097 -0.011723494 0.023571534 -0.012495811 -0.09807199 -0.0030435438
-0.00092187134 -0.08841372 0.01066563 0.18333541 -0.0058745416 -0.07992972 -0.14845802 -0.055206787
0.09126697 -0.009459432 0.074989825 0.030809587 0.050822876 -0.39685062 -0.060948804 0.024331393

cnn1.bias f4 [16]
00000000: a12f 633d 81b5 4cbd 359f 8dbd 31c4 99bd
00000010: 4055 0f3d 6a8c 94bd d1f7 93bd b8e5 1dbb
00000020: 4053 823c 00b6 f9bd f377 e9bc 5377 96bd
00000030: 1798 87bc 3edd b6bd 28a0 c63c 7cf8 91bd
0.055465344 -0.049977783 -0.06915132 -0.07508124 0.03499341 -0.07253344 -0.072250016 -0.0024093222
0.015908837 -0.12192917 -0.028499579 -0.07346978 -0.016552014 -0.08928917 0.02424629 -0.07127473

cnn2.weight f4 [32, 16, 3, 3]
00000000: ee7d db3c 715f 6c3d 2d1a d53d d8c5 1b3e
00000010: b0ed a8bc 2d8c 2abd fe31 9a3d 6a72 8c3c
00000020: 8fc9 52bd b82f 2e3e c359 c9bd 0a06 263d
00000030: a8dd 053e ece2 95bd 47c1 f43d e258 1d3e
00000040: 0ce3 6abd fa22 90bd 1aaf 5dbc e2f7 e8bc
00000050: 2e34 8e37 fc38 bdbc 7591 943b 744c 62bd
00000060: b643 70bd a648 803c 5d22 66bd d9f0 d63d
00000070: 5a96 a3bd 58ab 893c 9d58 243e 5758 003d
00000080: 8373 03bd 0a92 e53d b43f 7a3d cc7d b5bd
00000090: daed 803d 8bf1 95bc cb6a 94bc 3562 db3d
000000a0: cb21 543c 6769 823d df85 ba3d 5086 f03c
000000b0: bfcf b83d 749b c23d 764c 833d db98 8a3d
000000c0: dbbe fe3d 01a7 6b3d aecb d43c e7be 4fbc
000000d0: ba80 8c3c 3331 173d 158d 60bd 4414 0d3d
000000e0: 8d4f 9e3d 7b46 7a3b efd2 e13c 5f6f 783d
000000f0: 671f 373d eb60 113d dab8 d33d d8bc 683d
00000100: 9900 aabd cdf8 463d 516b 323d cd53 4ebd
00000110: 34de cd3d 9b15 cabc 1d4a 15bd 8765 103c
00000120: 9e9c 663d 93c5 70bc 7384 63bd 8beb df3d
00000130: ce3e b73d ac7b a43d 8740 4c3d 4c14 2a3d
00000140: 1dab 453d f55e 8d3d 14e6 a03d 4cad f03d
00000150: 9155 573d 99e4 4c3d d6d5 e33c d65e 8c3d
00000160: 3cfa 15bd b29d 3c3d 4e44 373d 27c4 87bc
00000170: a28d 3fbc 0be3 143c de44 cabb 1237 aebd
00000180: 7277 2d3b dd37 daba a214 26bb 9ccd 9a3c
00000190: 58cc 20bd 45d5 1d3d 45cf a03d 3435 ae3d
000001a0: 7290 67bd 1108 d63d 1051 3a3d 1303 a73d
000001b0: 6a13 a9bd 38f4 f1bd 05e6 99bc d6a4 11bc
000001c0: 1c3f 2f3d 7598 27bc 22ea 4f3d bac8 5dbd
000001d0: d96d 2ebb f774 1abd 8747 6dbd b0b9 c53c
000001e0: 268f 3e3d a6c0 80bd 5f0c 76bd f3e6 18bd
000001f0: acac a1bd b086 06bd 2411 dc3d 8032 cdbc
00000200: e5eb ac3d ee2a 383e 01b6 723d 7ff1 893d
00000210: c608 233e 11b3 b1ba 6fb3 c23d bf6c b83c
00000220: fe81 71bd 28ab 8bba f8a8 693d 1da5 32bd
00000230: e208 3b3c 1787 1f3d c8ce 4fbd 9d62 c7bd
00000240: caf5 55bd d945 163d ac0a e93c 214c 233e
00000250: c203 cd3b c6cb eabc 5c0b 793c 6407 063d
00000260: a675 62bc 0e31 403c 0fa3 e93d b675 03bd
00000270: f1fe 083e f23f 183c cbf8 62bb 2118 953d
00000280: dec1 f73d f645 c3bd cf70 2b3c 3295 8dbd
00000290: eb1f 33bd c732 b1bd 3e16 f2bd 8328 babd
000002a0: 6925 52bd 6cc2 07be 6549 e5bd f41f f63d
000002b0: 046e f03d 1e08 dbbc f154 213e 4a2d bdba
000002c0: 7308 b13c 913a f53d 0787 903d b84e 94bd
000002d0: 6eab e13c 85c8 3e3d 1e7a 0e3d ba28 8a3d
000002e0: 973e 333e de9b c43b 7b06 bf3d 2e53 653d
000002f0: 1af1 093d 53a0 473e 1674 093b e17e 043d
00000300: cfc2 133e 69b2 0f3c 45b4 0a3c e982 6abd
00000310: 03e8 373d 9ba2 0ebe c26d a2ba 71a4 a6bc
00000320: 8fb5 36bc d494 fa3d 467e c53d 24dc f53c
00000330: eaf8 313e 5513 5dbd 4405 dc3d 1a38 d03b
00000340: 6dd4 243d d389 0dbd e02d 4dbd f668 85bd
00000350: d407 c4bc 86b5 38bd be8b b9bd 75fc b0bc
00000360: d4cb 1d3e 7500 c33c 01d6 ac39 aca6 283e
00000370: 1f62 93bc b02e 65bc 2025 3c3e 20b2 403d
00000380: a63b 073d 3817 1a3e cbcd b33d 2804 ac3c
00000390: da46 483b 809b b53d cc2a 213e 4e6e b03d
000003a0: 79c6 0fbd fe23 123d 81fa b73c da62 b63d
000003b0: 984d 063c 07b9 423d dfee 74bc fadb 93bd
000003c0: d307 57bd 02ef 51bd 710e fbbd c594 f43d
000003d0: ea07 433d 2f80 cdbd e4bd 893d 4f51 4e3d
000003e0: d7bd 04bc 4c6d e33d ff4f 8f3d 8eca b93c
000003f0: cd7b 9f3c 5482 c6bc 1ad7 8ebd 0f70 ec3d
0.026793446 0.057708208 0.10405383 0.1521219 -0.02062115 -0.04163759 0.075290665 0.0171444
-0.051461753 0.17010391 -0.09831574 0.040533103 0.13072836 -0.073186725 0.11950927 0.15365937
-0.057345435 -0.07037921 -0.013530517 -0.028438512 1.6952017e-05 -0.023098461 0.0045339414 -0.055248693
-0.058658324 0.015659641 -0.056185115 0.10495157 -0.07987662 0.016805336 0.16049428 0.031334247
-0.032092582 0.11209495 0.06109591 -0.088618845 0.062953666 -0.018303653 -0.01811733 0.10712091
0.01294751 0.0636776 0.09107565 0.02936092 0.090239994 0.095023066 0.06411068 0.06767436
0.124387465 0.057532314 0.025976028 -0.012679792 0.017151225 0.036912154 -0.054822046 0.034443155
0.07730017 0.0038188982 0.027566401 0.060653087 0.044707682 0.03549282 0.10337992 0.05682072
-0.08300895 0.04857712 0.043559376 -0.050372887 0.100521475 -0.024668505 -0.036447633 0.0088132685
0.056301706 -0.014695543 -0.055546235 0.10933598 0.08947526 0.08031401 0.049866226 0.041523263
0.04825889 0.06902877 0.07856384 0.11751804 0.052571837 0.050022695 0.027811926 0.06854026
-0.036615595 0.046048827 0.044742875 -0.016573025 -0.011691483 0.009087334 -0.0061727604 -0.085065976
0.00264689 -0.0016648729 -0.0025341888 0.01889687 -0.039257377 0.038533468 0.078520335 0.085062414
-0.05653424 0.10450757 0.045487463 0.08154883 -0.08255656 -0.11814159 -0.01878644 -0.008889398
0.042784795 -0.01022922 0.050760396 -0.054146506 -0.0026615767 -0.037709203 -0.057929542 0.024136394
0.046523236 -0.06286745 -0.06007039 -0.037329625 -0.07894263 -0.03284329 0.10745457 -0.025048494
0.08443431 0.17985126 0.059255604 0.06735515 0.15921316 -0.0013557394 0.095068805 0.022512792
-0.05896186 -0.0010655867 0.057045907 -0.043614496 0.011415692 0.03894719 -0.05073431 -0.09735606
-0.052236356 0.036687706 0.028447472 0.1594701 0.0062565515 -0.02866162 0.015200462 0.032721892
-0.013821995 0.011730446 0.11408054 -0.03209468 0.13378502 0.0092925895 -0.0034633155 0.07279993
0.12097524 -0.09534828 0.010463907 -0.069132224 -0.04373161 -0.08652263 -0.118206486 -0.09089758
-0.05130521 -0.1325776 -0.111956395 0.12017813 0.11739734 -0.026737269 0.15755059 -0.0014433053
0.021610474 0.11974061 0.070570044 -0.07241577 0.027547564 0.04657795 0.03478443 0.06746049
0.17504345 0.006000026 0.09327408 0.05598753 0.033677198 0.19494753 0.0020973734 0.032347564
0.14429782 0.008770564 0.008465831 -0.057253752 0.044898998 -0.13929217 -0.001239233 -0.020342084
-0.011151685 0.12235418 0.09643225 0.030012198 0.1738011 -0.053973515 0.10743192 0.006354344
0.040241648 -0.034555268 -0.050092578 -0.0651416 -0.023929514 -0.04509499 -0.09059857 -0.021604756
0.15409786 0.023803929 0.00032965842 0.1646983 -0.017991124 -0.013988182 0.18373537 0.047044873
0.03301587 0.1504792 0.08779486 0.020998076 0.003055981 0.0886755 0.15738982 0.08614789
-0.035101388 0.035678856 0.022458317 0.08905573 0.008197211 0.047539737 -0.014949529 -0.072196916
-0.052497696 -0.051253326 -0.12258614 0.11942438 0.04761497 -0.10034215 0.06725672 0.05037051
-0.008101902 0.11104831 0.0699768 0.022679593 0.019468213 -0.024232067 -0.06974621 0.11544811

cnn2.bias f4 [32]
00000000: 6e56 d4bd 0b14 f0bc 4d9a 0dbd 1619 813b
00000010: 471f 86ba 92bd 93ba d820 9abd 827f 913d
00000020: 1946 93bd 5688 30bd e52f f93c a3f1 2e3a
00000030: 8421 ddbb 5cba e63b b97a 83ba eaa5 debd
00000040: 45b1 e63d d490 d23b b8cc 19bd d733 cabd
00000050: 768a e0bd 4b0b 993c ddca 57bd 06f4 24bd
00000060: 301c 8ebb 633f afbd 7822 5bbd ffcd 06be
00000070: 34ea c53d 331c 74bd 0ec0 be3d 6161 0dbc
-0.10368048 -0.029306432 -0.03457098 0.003939758 -0.001023271 -0.0011271706 -0.07525796 0.07104398
-0.071911044 -0.04309877 0.030418346 0.000667358 -0.00674838 0.0070412587 -0.0010031081 -0.10871489
0.1126428 0.0064259563 -0.03754875 -0.09873169 -0.10963909 0.018682143 -0.0526837 -0.04027178
-0.0043368563 -0.08557012 -0.05349967 -0.13164519 0.09663811 -0.059597205 0.09313975 -0.008629174

cnn3.weight f4 [32, 32, 3, 3]
00000000: 27e9 093d 9ade 4cbb 4622 913c c9a4 443c
00000010: 6e8e 94bd e650 3fbd c74c 46bc 9415 c2bc
00000020: 97e4 b539 2e72 283e 8ec5 2a3d 943c 97bd
00000030: 72e8 9b3d eea3 2fbd 3a91 16be fc4e 91bd
00000040: 02ef 40bd b23c bcbd ce94 3fbb 0c8c 30bd
00000050: da4b 89bd 395f 7f3d e233 5abd 7f7a 9cbd
00000060: bd08 483d 9a77 6b3d 4276 76bc c551 153d
00000070: d327 c3bb 34ca 083c 9afe 503d 8749 56bd
00000080: 4e85 52bd 411d 653c f003 cfbc 281d d73c
00000090: 2e18 d43d ae37 cf3c d0bd 34bc a622 cbbc
000000a0: 8680 cbbd 7e57 b83b 1e47 b53a b656 7f3d
000000b0: 6196 13bc 6499 f03d 4b60 a0bd b41a 8abc
000000c0: d317 0e3d b53f c5bd b7ed c1bd e8a2 75bc
000000d0: 055f c33b c7a5 69bb c421 aab9 fcc5 e63c
000000e0: 43ef 81bd b34f 1fbd 7f57 6ebb 88ca e4bc
000000f0: 4c5a 463d 3903 61bd 713c 23bd b4d7 3dbd
00000100: f1b4 eb3d de99 8f3d bf70 233d cc36 abbb
00000110: 7bd1 db3d 48b4 3a3d 2b53 833d 7a06 b83d
00000120: 23c1 29bc 3191 b33c eb8a 66bd 7b69 84bd
00000130: d5fc 00bd a00d 5dbd 97da 313c bbb5 aebc
00000140: e052 70bd f20c b83d 2caf adbd d207 403c
00000150: 239c b83c 070b f4bd 6020 5c3c 9d34 e7bc
00000160: 00ad eebc 408e 5fbd 2acd ac3d 2871 bf3d
00000170: b2fb c2bd e67b b93c 851f a03c 2a3c b0bd
00000180: 8c4b 01bd efba 123d 7a1a d8bc e1f7 613d
00000190: d626 9abd 8ff3 90bd 04b4 2abd d9c6 f1bd
000001a0: 54ce 09be 56c1 593d 4b36 183d 5ec6 c9bc
000001b0: 9560 d43d 3e95 153e 824c 193e 48b1 d8bc
000001c0: 3e8e 133e 3ed0 cf3c ca60 3c3c b9f2 b83c
000001d0: 95aa aebc 601b 853c 54d9 623c ec79 b5bc
000001e0: a978 afbb 7bab 223d 47ca 31bd 668c f93c
000001f0: 3d7d 023d dbbe 4b3d a0d2 d73d 6d0f 18bc
00000200: aa39 55bd 90e9 643d feac 5ebd 4a17 5fbd
00000210: b911 96bc bf13 9f3c a227 cdbd a03c 5a3b
00000220: 804c 20bd fd24 4f3d 88ac babc 98e5 d4bc
00000230: 6160 50bd 2a4a c83c 3817 813b 181c 3ebc
00000240: c21f 873d e05e 663e 9988 4b3e 4b1c c83c
00000250: 03b7 af3d fa9d f73d 9bce c73c ec46 b33d
00000260: 0c3c ec3d d25f 983d 78cb b53d 49fc 94bd
00000270: c5a2 f93c 0b8a 3e3d 405f 92bd 9ec9 fa3b
00000280: 0a6b 963c 184b 29bd 321e d7bc 9bb0 90bd
00000290: 087d 90bd 3ba9 9b3c 16db 41bd 628e 03be
000002a0: e932 413c 118c d0bd c742 46bd 0b8e 51bd
000002b0: 197b 6a3b 7d91 303d 6865 c33c d69e a7bd
000002c0: 6204 8abb 207c 8e3b 8533 80bd 91c4 6e3c
000002d0: 1bcf 2dbd f043 d9bc 2793 213d 616f 0dbd
000002e0: cffb c4bd 031e 07bd 2d3e 0c3b 8656 55bd
000002f0: 4a83 cabc dd07 a13d ff61 d53d 8bac 07bd
00000300: 307c b73b 47f2 6e3c 24e1 23bd 684c 3cbd
00000310: 26e5 863c a0fd f7bd df6d ddbc 7772 cebd
00000320: 180d 15bd 023b 81bd 3670 ecbd 69ab 9dba
00000330: 5fbe 4fbd 2fd1 33bd 6e34 b43c 9583 2f3d
00000340: efb4 883c be6f 9d3d 1dfd b23c 2120 26bd
00000350: 5713 67bc 28d1 99bc 9bd0 bb3d 76d7 8c3c
00000360: ce6f 813d 20ba 68bc 84a2 49bd 3afb 72bc
00000370: 56fe 85bd 30bc 9ebd 35ac d2bb cd04 333d
00000380: b484 36bc 3f4b 163d 1f14 febc a0cf 3f3b
00000390: 3e7a bebc 0f06 70bd fed9 8a3c 4ad4 92bc
000003a0: 653f 4d3d 15fc 6a3d 3c1d c43d 04c3 113b
000003b0: 0724 823b 49cd e63c 829f 4bbd 4317 d1bb
000003c0: c36a 82bc 70be af3c 56be 20bd 5022 133c
000003d0: 20f4 403d d70b 8cbc 6249 eabb 1af0 33bd
000003e0: 177e 04bd e3db 9ebb e60d 96bc e2de a5bc
000003f0: 78ce b53c c5e5 1b3b a4d0 cc3d 1fce dabc
0.033669617 -0.003126061 0.017716538 0.0120021785 -0.07253729 -0.04670801 -0.012103266 -0.02369193
0.00034693323 0.16449806 0.04169231 -0.07384601 0.07612695 -0.042880945 -0.14703837 -0.07095143
-0.047102936 -0.09191264 -0.0029232982 -0.04310231 -0.06703921 0.06234667 -0.053272136 -0.07640552
0.04883646 0.057487108 -0.015042843 0.036454935 -0.005955675 0.00834899 0.051024057 -0.052316215
-0.05139666 0.013984025 -0.025270432 0.02625902 0.103561744 0.025295105 -0.011031583 -0.024796795
-0.09936623 0.0056256643 0.0013830399 0.062338553 -0.009008021 0.11748007 -0.078308664 -0.016858436
0.03469069 -0.09631292 -0.09469169 -0.014992453 0.005962255 -0.003565179 -0.00032450084 0.028170578
-0.06344464 -0.038894366 -0.003636807 -0.027928606 0.048425958 -0.054934714 -0.039852563 -0.04634829
0.11509121 0.0701177 0.039902445 -0.005225038 0.107333146 0.045582086 0.064123474 0.0898561
-0.010360989 0.021919819 -0.056284826 -0.06465431 -0.03149112 -0.053968072 0.010855339 -0.02132689
-0.058672786 0.08986844 -0.08480677 0.0117206145 0.02253539 -0.11916166 0.013435453 -0.02822333
-0.029135227 -0.05457902 0.084375694 0.09347755 -0.09520663 0.022642087 0.01954628 -0.086052254
-0.031566188 0.035822805 -0.026379813 0.055168036 -0.075269386 -0.07077705 -0.041675583 -0.11805505
-0.13457614 0.053162895 0.037161153 -0.024630722 0.10369984 0.14607713 0.14970592 -0.026451722
0.1440973 0.025367852 0.011497686 0.022576677 -0.021321574 0.016248405 0.01384576 -0.022152863
-0.00535496 0.039714318 -0.043405797 0.030462455 0.031857718 0.04974256 0.105382204 -0.009281022
-0.052056946 0.055886805 -0.054364197 -0.05446557 -0.018318998 0.019418595 -0.10017325 0.0033300295
-0.039135456 0.050572384 -0.022787347 -0.025988385 -0.050873164 0.024449427 0.0039395355 -0.011603378
0.06597854 0.2249713 0.19876327 0.024427554 0.085798286 0.120906785 0.02439051 0.08753762
0.115348905 0.07440151 0.08876699 -0.07274682 0.030473122 0.046518367 -0.07147074 0.007653429
0.018361587 -0.04133138 -0.026259515 -0.07064935 -0.07055098 0.019001594 -0.047328077 -0.12847283
0.011791923 -0.101829655 -0.048403528 -0.051160853 0.0035778938 0.0431075 0.023852065 -0.081845924
-0.0042119483 0.004348293 -0.062598266 0.014573232 -0.04243384 -0.026521653 0.039446976 -0.034530047
-0.09618341 -0.032987606 0.0021399364 -0.05208447 -0.024720807 0.07862828 0.10419082 -0.033123534
0.005599521 0.014584131 -0.040009633 -0.045971304 0.016466688 -0.12108922 -0.02702993 -0.10080426
-0.03638944 -0.06310083 -0.1154484 -0.0012029234 -0.05071866 -0.043900665 0.021997657 0.042850096
0.016687838 0.07687329 0.02184921 -0.040557984 -0.014103732 -0.018776491 0.09170648 0.017192584
0.06320153 -0.014204532 -0.049227253 -0.014830405 -0.06542651 -0.07750738 -0.00642922 0.04370575
-0.011140037 0.036692854 -0.031015454 0.0029268041 -0.023251649 -0.058599528 0.01694965 -0.017923493
0.050109286 0.05736931 0.095758885 0.0022241483 0.00397158 0.02817406 -0.049712665 -0.006380947
-0.015920049 0.021453112 -0.03924402 0.008980349 0.047107816 -0.01709549 -0.007149861 -0.04393015
-0.03234681 -0.00484799 -0.018317174 -0.02024788 0.022193179 0.0023788076 0.100007325 -0.026709614

cnn3.bias f4 [32]
00000000: b7ee 9e3c 3079 333d e647 c2bd 2655 93bc
00000010: e80a 053d 35a7 06bd 6884 09bd 6e08 ef3d
00000020: f0fa 21bc 8449 79bd 2e07 233c 2899 d2bc
00000030: 7ba9 5cbc 119c 4d3d 9cd0 97bc 7a4d 003e
00000040: 18f4 90bd 48e9 9c3b 59a5 2dbd f23c 82bd
00000050: 8d4d 91bd 5dd6 f3bc 5764 8fbd 6139 77bd
00000060: 05b4 4bbc 0b5d 0fbd 612b 88bd 31d7 e43c
00000070: 3785 08bc 6f92 c83d 25ef b13c 6deb 193e
0.019400937 0.043816745 -0.0948637 -0.017984938 0.032481104 -0.032874305 -0.033573538 0.1167153
-0.009886488 -0.060861126 0.009950442 -0.025707796 -0.013468142 0.050197665 -0.01853209 0.12529555
-0.07077807 0.0047885515 -0.042394016 -0.06359281 -0.0709487 -0.029765302 -0.0700156 -0.060357455
-0.012433057 -0.035000842 -0.06648899 0.027934643 -0.008332542 0.09793555 0.021720478 0.15031214

fc1.weight f4 [128, 768]
00000000: 0549 dbbc a735 cb3c 826e a13c f691 723c
00000010: ef9b fb3c 0854 03bd 6918 42bd 25dc 803c
00000020: de13 91bc 686b 33bc 7c37 c3bc 80b6 0c3a
00000030: f88c d8ba 9901 333b 1a91 1ebc dc43 9d3c
00000040: fd3c fb3b 34de 41bc 82e3 2ebc 2454 353c
00000050: feeb bebc bac7 893c 1098 e7bc 6e1f 4fbc
00000060: af58 16bd 9bff e4bb 7f84 15bd 7195 0fbc
00000070: abe2 3a3b d996 fcbc c090 9bbc b30e f13c
00000080: 6e3e 20bd 2076 813c 236c 273d 7461 45bc
00000090: 9a99 d53c ef68 0f3d b8f4 02bc 6c36 afba
000000a0: 000f 213c b035 0fbc fe11 be3c ac93 57bd
000000b0: 8ae0 27bd e145 923c cefd fdbc ebce 2dbd
000000c0: 072f 26bd fc01 343c 408e 02bd bbfe 06bd
000000d0: b1a7 1cbd 760d b3bb 3424 053c 2c4d 79bc
000000e0: 9293 0abc 902f afbc 9157 1a3c 4ffc e83c
000000f0: ddb2 0cbd 440a 95bc 62cf f7bc f180 3ebd
00000100: 27e7 bf3c df95 4b3c 4661 6ebc b9b8 23bc
00000110: c85c 1bbd c3a1 9d3c 7c67 ad3c 420c 0fbd
00000120: 2849 fbbb 309e 523c 71c8 c3bc 460c 91bc
00000130: 36d8 e83c 1921 8c3c 6df7 be3c d5db 9c3b
00000140: a169 91ba 1be8 e03b 9bda 803c 96af b5bc
00000150: 87ed 02bd 7cae d13c 12db 923a a6e1 23bc
00000160: 31d9 da3b b391 c1bc e5a2 32bb 8f70 e0bc
00000170: 61c2 03bb 3d51 21bd 7a85 213b 5380 023d
00000180: 0a85 c33c e27d 01bd 5b7e 3e3b 32ae 933b
00000190: f48c 49ba 4a28 9b3b 9f56 bdbc 4f59 07bc
000001a0: 229e 1cbd 8abf 47bc 1307 89bc 0199 dabb
000001b0: cdb5 653c 0701 f0bb db1b 87bc e893 14bd
000001c0: 5af8 093c e221 223c 7478 3b3c e1b2 e5bc
000001d0: 1f1e 6a3c 1e51 033a 871d 90bc 2ff8 e83a
000001e0: 8303 e83c 5df6 21bd 3493 be3b cd8a 3a3c
000001f0: 5471 ffbc cc32 20bc 00ed e23a 7ccc 06bd
00000200: ab04 193d 6634 a03c a5b1 4c3c 4bc0 8c3b
00000210: d035 ce3c 3da0 4c3b 1aa1 86bc da3c c5bc
00000220: d201 06bd 28c4 3d3c 26ce 803c e089 d93c
00000230: cf45 8f3b bc91 9b3c 988f 423b 0d24 04bd
00000240: 5293 c5bc 70dd 4b3c b05b 0b3d c048 e03c
00000250: 3011 313b a23a 40bc cc05 dd3c 46e7 103d
00000260: b6e2 0d3d c00f 203c 32a3 b13c 74da c6bb
00000270: 66c4 a6bc 0cfc f0bb f425 0b3d f4e7 0d3d
00000280: 4439 813c 4075 923c 6464 1c3c 7770 a4bc
00000290: 7c5a fdbb a595 063d 4e1b f9bc fa48 44bc
000002a0: 0b46 63bc 6b35 3b3c bbab e7ba f284 eebb
000002b0: eadb 633b d9d9 44bc 5b42 71bd 8cd1 8dbc
000002c0: 7563 d23c d2f1 9ebc ec79 aebc 03bf 24bd
000002d0: 6ebd f4bb ee7a 10bd df0a a63c fa58 2d3a
000002e0: a4ac 37bd f910 2fbd d7b9 17bc d271 28bd
000002f0: 6346 7fbb 5b7d adbc 3850 163c 24d2 2ebd
00000300: df3c 0a3b ff62 8eba 8f48 a7bb ec91 07bd
00000310: 2c4f 00bd b0bc ec3c 1c3e c7ba 51a7 32bc
00000320: fc6f f5bc 5195 4abc 3bb4 313c 0444 f8bc
00000330: beed abbc a981 adbc 1646 00bc ddb7 59bc
00000340: e269 9e3c 97fd b5bc 2260 303c 77f6 11bc
00000350: ab0d a63c 45d8 0dbd 6482 033d c044 da3c
00000360: 4711 0dbd bdfa 17bd 7ad9 18bd d04f c53c
00000370: ea31 10bc 196f 5e3c cfd7 043d 0553 13bd
00000380: 83a0 8dbc e7b4 59bc 09e1 923c 190b 8a3c
00000390: 5e74 d1bc 9214 c2bc 27b8 ca3c d864 063d
000003a0: ebe2 e93b f10d 96bc d934 403c eb4a dbba
000003b0: 458d a6bc e42e bf3c 824c 1cbd 617b dbbc
000003c0: 1924 b23c 5ec4 983a 8311 003d f4c4 15bd
000003d0: 5083 2b3c b4d2 083d 6b7f 2b3a 1a3f 373c
000003e0: b640 f8bc 0fd7 0ebd ec14 083c c51a a53c
000003f0: 8f0b 9fbc 0009 e3bb 1c10 e93c d1c9 00bd
-0.026768217 0.024805857 0.019706015 0.014805308 0.030714003 -0.03206256 -0.04738656 0.015729973
-0.017709669 -0.010950901 -0.023830168 0.0005367771 -0.0016521504 0.0027314185 -0.00967815 0.019197397
0.0076671825 -0.0118327625 -0.010674359 0.011067424 -0.02330589 0.01681887 -0.028270751 -0.012641771
-0.03670567 -0.0069884784 -0.03650331 -0.008763657 0.0028516452 -0.030833649 -0.01898992 0.029425954
-0.039122038 0.015803397 0.04087461 -0.01204716 0.02607422 0.03501218 -0.007992916 -0.0013367659
0.009830236 -0.008740827 0.023201939 -0.052631065 -0.04098562 0.017855586 -0.031004813 -0.04243366
-0.040572193 0.010986801 -0.03187394 -0.032957774 -0.03824586 -0.005464251 0.008126307 -0.015216153
-0.008458035 -0.021384984 0.0094202915 0.028440623 -0.034350265 -0.018193372 -0.030250255 -0.046509687
0.023425652 0.012425869 -0.014549559 -0.009992772 -0.03793028 0.019242173 0.02116751 -0.0349238
-0.007668633 0.012855098 -0.023899289 -0.017706048 0.02842341 0.017105626 0.023311341 0.004786948
-0.0011094102 0.0068636066 0.01572924 -0.022178452 -0.031964805 0.025595896 0.0011204204 -0.010002529
0.0066787233 -0.023629045 -0.0027257737 -0.027397422 -0.0020104873 -0.039384115 0.0024646209 0.03186066
0.023867149 -0.03161419 0.0029067013 0.0045068497 -0.0007688545 0.0047350274 -0.023112593 -0.008261039
-0.038236745 -0.012191663 -0.016727006 -0.0066710715 0.014020395 -0.007324341 -0.016492775 -0.036273867
0.008421028 0.009895774 0.0114422925 -0.028039398 0.014289408 0.0005009341 -0.017592205 0.001777416
0.028321987 -0.03954159 0.005815888 0.011385632 -0.031181969 -0.009777736 0.0017313063 -0.032909855
0.037357967 0.019556236 0.012493526 0.004295384 0.025172144 0.003122344 -0.016434241 -0.024076868
-0.03271658 0.011582412 0.0157233 0.026555002 0.0043723355 0.01899039 0.002968764 -0.032260943
-0.0241181 0.0124429315 0.034022987 0.02737844 0.0027018301 -0.011732729 0.026980303 0.03537681
0.034640037 0.00976938 0.021684263 -0.006068522 -0.020357322 -0.007354265 0.03397174 0.034645036
0.015774377 0.017878175 0.009545419 -0.020073159 -0.007731734 0.032857556 -0.030408528 -0.01198029
-0.01387168 0.01142631 -0.0017675081 -0.007279032 0.003476853 -0.01201483 -0.058901172 -0.017311834
0.02568219 -0.019402418 -0.021298371 -0.040221225 -0.007468871 -0.035273485 0.020268856 0.0006612685
-0.044842377 -0.042740796 -0.009260616 -0.041124173 -0.0038951866 -0.021177938 0.009174399 -0.042680874
0.002109341 -0.0010863243 -0.005105085 -0.033098146 -0.031325504 0.028898567 -0.0015201005 -0.010904149
-0.029960625 -0.012364701 0.010846193 -0.03030587 -0.020987388 -0.02117999 -0.00782921 -0.013288465
0.019337598 -0.022215648 0.010765107 -0.008908859 0.02027019 -0.03463008 0.032106772 0.02664411
-0.034440305 -0.037104357 -0.037316777 0.02408591 -0.008800963 0.013576292 0.032432374 -0.035967845
-0.017288452 -0.013287759 0.01792957 0.016850995 -0.025568184 -0.02369145 0.024746014 0.032811016
0.0071376464 -0.018317195 0.01173135 -0.0016730701 -0.020331034 0.023337789 -0.0381589 -0.02679223
0.021745728 0.0011655202 0.0312667 -0.036564782 0.010468319 0.033404067 0.0006542119 0.011184478
-0.030304294 -0.034873065 0.008305769 0.020154366 -0.019414691 -0.006928563 0.028450064 -0.031442467

fc1.bias f4 [128]
00000000: 0bae c73c a090 11bc 388b 743c 6215 25bd
00000010: e107 d3bc 54b6 d43c 31d9 04bd 8170 27bd
00000020: fbe3 993b b66f 7d3c 2497 abbc 840c e6bc
00000030: a508 14bd 4203 0dbd 3838 1bbd 75be 88bc
00000040: 6913 17bd b216 a3bc 15b9 7c3d 945b ffba
00000050: 0294 a7bb f22e c63d 57e1 2fbd f250 a73d
00000060: db3a 45bd 3e9a 1939 26c9 babb a15d f0bc
00000070: 6923 dfbc 0e2c 8d3c e242 12bd e57d aa3c
00000080: 3c1e 0ebd 4d3a 6b3c 4511 07ba 5089 37bd
00000090: e9da ccbc be6c 20bd 956b b7bc c7ed 513b
000000a0: d5da a83c f89d c53d bbb1 04bd 704c c6bc
000000b0: 5466 9dbc 1118 13bd fcd6 d13b 0e84 cd3b
000000c0: 66f8 11bd 48ad f03c a8cc 0a3d f63d d53c
000000d0: 241d bc3b a202 c43d df91 eebb d413 14bd
000000e0: a597 10bd ba2c fd3b 25f6 8dbc 407e b6bc
000000f0: 0c93 29bd 49cc bb3d 3828 0bbd 58b2 ccbc
00000100: a538 80bc 1a56 cf3c 2c2a ef3d af2a cebb
00000110: 2e72 423c ee32 8c3c 8f1a cfbb 4cb5 a33b
00000120: 3e6e 18bc f0fe 373c 9339 52b9 e161 3f3c
00000130: bfd6 1cb7 f28f 10bd ebc5 243c c730 96bb
00000140: 94f1 8cbc e99e dfbb edb3 e93b c8e6 aa3c
00000150: 4b82 053c e4db df3c 97ac ecbc 2284 d5bc
00000160: de4c 19bd 6794 ab3d 5ae2 88bd 18ac e93d
00000170: 0441 293c f353 b0bc bdab d9ba 1775 24bd
00000180: 8be0 e03a e651 90bb cac3 e2bb 4da8 353c
00000190: cee8 13bd 0113 2ebc 7013 01ba 8b18 913c
000001a0: e1a9 903a daa3 77bc c8e2 1bbd 9c13 84bc
000001b0: bb38 f13d 467b 563c e173 ffbb cf2e 53bc
000001c0: 26b7 d53d 360f ae3c 5218 76bd 5549 05bd
000001d0: f449 2b3c bf65 8e3c 2cfb afbc de54 6a3d
000001e0: c8d3 74bd f4dc 42bc 6af9 4ebc 970d 4cbd
000001f0: e30e ff3d 6cc5 2dbd 1492 073d 6b80 6fbd
0.024374982 -0.008884579 0.01492577 -0.040303595 -0.025760593 0.025965847 -0.032433692 -0.040878776
0.004696367 0.0154685285 -0.020946093 -0.02808214 -0.036141057 -0.034426935 -0.03789541 -0.01669238
-0.036883745 -0.019908283 0.061699945 -0.0019482248 -0.0051140795 0.09676923 -0.04293951 0.08169736
-0.048151832 0.00014648677 -0.0057002483 -0.02934152 -0.027238565 0.017232921 -0.035708316 0.020811984
-0.034696802 0.014357162 -0.00051524147 -0.044808686 -0.025006728 -0.039166205 -0.022390166 0.0032032595
0.02061216 0.09649271 -0.03239606 -0.02420637 -0.019213833 -0.035911623 0.006403802 0.0062718457
-0.03563728 0.029379502 0.03388658 0.026030522 0.0057407785 0.09570815 -0.007280573 -0.036151722
-0.03530087 0.007726279 -0.017329285 -0.022276998 -0.0414 0.09169824 -0.033973902 -0.024987385
-0.01565201 0.025309611 0.116779655 -0.0062917094 0.011868043 0.017114129 -0.0063203047 0.0049959775
-0.009303628 0.011230215 -0.00020048609 0.011681051 -9.348324e-06 -0.035293527 0.010056953 -0.0045834514
-0.017205037 -0.0068243635 0.0071320445 0.020861998 0.00814874 0.027326532 -0.028890891 -0.026063982
-0.037426822 0.08377915 -0.06683798 0.114097774 0.010330442 -0.021524405 -0.0016606968 -0.040150728
0.0017156763 -0.0044042943 -0.0069203125 0.011087489 -0.03611069 -0.010624648 -0.0004923856 0.017711898
0.0011036956 -0.015114749 -0.038058072 -0.016122632 0.117783986 0.013090914 -0.0077957963 -0.012889578
0.104353234 0.021247488 -0.060081787 -0.032540638 0.0104546435 0.0173825 -0.021482073 0.057209842
-0.059772283 -0.0118935 -0.012632707 -0.049817648 0.12454011 -0.042424604 0.033098295 -0.05847208

fc2.weight f4 [128, 128]
00000000: bd2d b2bd ce7d 71bd 59e7 14bc d831 38bc
00000010: 366e f53c b97a 743d b0af 37bd 6942 553d
00000020: ce6c 06bb 3db2 083d 3d65 e23c a18a 04bd
00000030: 6d01 a1bd 944a 0f3d dde7 a73d 715f 3bbd
00000040: 738e 3cbd 5e31 ef3c 0a4d 713b 0ee0 2b3d
00000050: 4fa9 af3d aece 773d d2aa 893c f757 38bd
00000060: 7ecb 583d 80ef 18bb f304 863d 964e cdbb
00000070: 186a 68bc 55a0 06bb 99f0 b73d 3e90 623d
00000080: a2ee a3bd ec17 0ebd c7df a13d 3d67 c4bd
00000090: 3ce6 b0bd 7678 b33d 03c3 ab3d 0d14 83bd
000000a0: c05c 83bd 10ad 9bbd 6430 cf3c 5cc4 e8bb
000000b0: 277d 1ebd e9ca 9b3d a6db 643d 4176 a73c
000000c0: 8ae0 53bd 2cb7 a2bd 6c63 07bc d039 273d
000000d0: 72b3 563d d058 e83d 2849 38bc 5424 b53d
000000e0: 203a fa3c 2481 d0bc 90a4 34bc 3fb2 9bbd
000000f0: 7c52 a2bc 4f23 cf3d b9b1 b0bd 0d89 ce3d
00000100: c272 0dbd 00cc 133d 950c f83d 3cd3 48bd
00000110: 81e1 6e3d 0c6b 7dbd 1833 283d 07b5 b13d
00000120: 4eb3 2abd 202f 6b3c 000b d13a 3a66 173d
00000130: 580f c33c 9bb5 1b3d 40ce ebbb 8453 babc
00000140: 3bfa 22bc e3e8 9cbd 234d 53bd 54f4 b93b
00000150: 0874 a3bd 9701 72bd 613e 83bd 4af5 193d
00000160: 4f66 58bd a030 20be d6b5 56bd 6394 7fbc
00000170: 8214 353d 2a7f 703d b902 003d 7068 91bd
00000180: 25e8 423c b80e 3dbd 3e83 4d3d fed1 1e3d
00000190: 9cac 0e3d cc2d 17bd 9d0c 873d 157c 9f3d
000001a0: 14eb cb3c f664 453d e846 123c 7922 22bd
000001b0: a7da 343d 32e4 95bd d090 bbbc 90aa db3c
000001c0: a4f0 993d 000b b9bc 1cba 79bd 395e 2cbd
000001d0: fd96 88bd d63d 98bd dee5 aebd a2b0 a8bd
000001e0: 3034 f93c d836 42bc e74d 4fbd 219a 17bb
000001f0: 3ff5 9a3d a104 0dbd 2f51 8cbd 672c 51bd
00000200: 9e0d 80bd 3ef1 febc ee2e aebd 9046 eb3b
00000210: 9ba4 a4ba e17c 803c 9c18 cabd 70a8 3cbc
00000220: 3785 8e3d 5b0a 133d 28d5 ae3a fe7c 173d
00000230: 754e 19bd 902d 913b 262c 4a3d bee9 3ebd
00000240: a438 1e3d 1cc5 193d 8008 9abb 30b8 bfbc
00000250: 73cf 07bc 98fc e5bc 9bad 9a3d e09c 65bd
00000260: 51c7 a83d be50 5f3d 08e0 96bd 0577 2fbc
00000270: 07ce 9cbd 4ae8 3f3d 31f0 a93d bc60 f1bc
00000280: 6b23 0ebd 9447 963c 920e 0bbd 46b2 bdbd
00000290: 0fbd 96bd 6977 3cbd 8475 153d 8521 a0bd
000002a0: f15d 79bd f617 823c b09f bebc aca7 9bbd
000002b0: 4fe5 63bd b0a0 cebc 6fa6 a33c 993b 1abc
000002c0: 22e3 89bd 79fb 973d c0d6 9a3c 2e9d 3bbd
000002d0: 1030 12bc 1390 e23d 231f 403d 121e 94bd
000002e0: 977b 2abd e08c 46bc 88a5 85bd 4d56 6a3c
000002f0: beac 8abd a2e8 5d3d 50e9 a3bc 6e46 cbbd
00000300: f3da 45bd 51ef cf3c f5eb 313d 0c42 c63c
00000310: 4217 cfbb ac72 bb3c ae73 c6bc 285e e33c
00000320: 2f1b 9cbc db4b 25bd c411 86bc 206d 743c
00000330: 7d48 8fbd 9854 b43c a314 20bd cbd4 853d
00000340: b755 0bbc 529c 72bc 4dc6 56bd 723b 8a3d
00000350: 4c59 0a3d 5cb3 01bd ea24 9fbc 3020 ebba
00000360: 3cbe 1bbd ae6e a6bd e559 99bd dd6c f83c
00000370: e049 08bc eecc 3c3d b95c ddbc 0ca2 abbd
00000380: 159d 45bd 5570 92bd bade 4a3d 8844 3f3c
00000390: b073 3ebd 581b d03c cfa4 8a3d 8ef3 063d
000003a0: a018 33bc a8b0 653c 9aa1 75bd 5ad7 323d
000003b0: f9ed e63d 0226 ffbb f248 133d d2f7 1f3d
000003c0: 8ea5 2abb be62 4e3d aa4f d5bd 3989 52bd
000003d0: c824 603c 816e 883d 543a a6bd a584 5e3d
000003e0: 9aea a0bc c561 8dbd 3daf 733d 9e93 cd3d
000003f0: 9995 2a3e 344d afbd 985d ac3d 97c1 333d
-0.0870013 -0.058957867 -0.009088361 -0.011242352 0.02995978 0.05968735 -0.044845283 0.052065287
-0.002051163 0.033373106 0.027636165 -0.03235877 -0.078616 0.034983233 0.08198521 -0.045745317
-0.046034288 0.029198345 0.00368196 0.041961722 0.08577215 0.06049984 0.016805086 -0.045005765
0.05292844 -0.0023336112 0.06543913 -0.0062654717 -0.014185451 -0.0020542343 0.08981437 0.05531334
-0.080045 -0.034690782 0.0790401 -0.09590004 -0.08637664 0.087632105 0.08386805 -0.06400309
-0.06414175 -0.076013684 0.02529163 -0.007103486 -0.038693573 0.076070614 0.055873536 0.02044213
-0.05172781 -0.079450935 -0.00826345 0.04082662 0.052417226 0.11345065 -0.011247911 0.0884482
0.030545294 -0.025452204 -0.011025563 -0.07602357 -0.019814722 0.101141565 -0.08627648 0.10084734
-0.03453327 0.03608322 0.12111775 -0.049029574 0.058320526 -0.061869666 0.04106435 0.08677106
-0.041674905 0.014354497 0.0015948713 0.036962725 0.023811027 0.03801499 -0.007196218 -0.022744901
-0.009947355 -0.07661607 -0.051587235 0.005674878 -0.079811156 -0.059083547 -0.06408382 0.03758744
-0.052831944 -0.15643549 -0.052419506 -0.015599343 0.04420901 0.058715023 0.031252597 -0.07099998
0.011896168 -0.046156615 0.05017399 0.038774483 0.034832582 -0.03690891 0.06594203 0.07787339
0.024892367 0.048191987 0.008928038 -0.039583657 0.044153836 -0.073189154 -0.0228962 0.026814729
0.07516602 -0.022588253 -0.060968503 -0.042082045 -0.06669424 -0.07433669 -0.085399374 -0.08236815
0.030420393 -0.011853896 -0.050611403 -0.002313264 0.07566308 -0.034428243 -0.06851422 -0.051067736
-0.06252597 -0.031120893 -0.08505045 0.0071800426 -0.0012561263 0.015684547 -0.09867975 -0.011514768
0.069590025 0.035898548 0.0013338672 0.036984436 -0.037428338 0.0044304803 0.04935851 -0.046609633
0.038628235 0.037541494 -0.0047007203 -0.023403257 -0.008289206 -0.028074548 0.07552644 -0.05605781
0.082411416 0.05452036 -0.07366949 -0.010709529 -0.07656484 0.046852387 0.08297766 -0.029465072
-0.034701746 0.018344678 -0.033949442 -0.092625186 -0.07360279 -0.046012316 0.036489025 -0.07818893
-0.060880605 0.015880566 -0.023269504 -0.0760034 -0.055638608 -0.025223106 0.019976823 -0.009413623
-0.06732775 0.074210115 0.018901229 -0.045804195 -0.008922592 0.11062636 0.046904694 -0.07232298
-0.04162177 -0.012118548 -0.06525713 0.014302802 -0.06771229 0.054176934 -0.020008713 -0.09925543
-0.04830451 0.02538267 0.043437917 0.024201415 -0.006319911 0.022881828 -0.024225082 0.027754858
-0.01905593 -0.040355545 -0.016365893 0.014918596 -0.06996248 0.022012994 -0.03908218 0.06534728
-0.008504323 -0.0148077775 -0.052435208 0.067496195 0.033776566 -0.03166519 -0.019426782 -0.001793867
-0.03802322 -0.08126579 -0.07487849 0.030325348 -0.008318394 0.046093874 -0.027021753 -0.08380517
-0.04824551 -0.07150332 0.049528815 0.011674054 -0.046497047 0.025403664 0.06769716 0.032947116
-0.010931164 0.014019169 -0.05996857 0.043662407 0.112758584 -0.0077865133 0.035958238 0.0390547
-0.002603862 0.050387137 -0.10415585 -0.051400397 0.013680644 0.06661702 -0.08116594 0.05432572
-0.019643117 -0.06903414 0.059493292 0.10037921 0.1665863 -0.08559647 0.08416289 0.043885794

fc2.bias f4 [128]
00000000: 6860 583d a2de 703d 2a6b 2d3d fe6f 9a3d
00000010: 21a6 563d d0b2 a43d 7ff7 263e 9732 e73d
00000020: 9571 26bd 521f ce3d 3828 58bd 23bc 97bc
00000030: 915c 193e ee21 213d a7bd cdbd c6dc a43d
00000040: fa7e 8a3d 721c d43d 51cf c53d 6c7a 38b9
00000050: 767c 2fbd 2161 b73d 4e72 ef3d 0e15 543e
00000060: d325 103e 2110 0c3d 1af8 ea3d 7e65 163e
00000070: b517 3bbb 9e34 293c f415 a63d 9046 603d
00000080: 8036 383e d332 c0bd 8e53 4b3e b443 203c
00000090: 32c8 093d 0090 3d3e 676a 83bd 35f7 91bc
000000a0: 462f 323d ace4 0f3b 5c35 8fbc 3655 6b3c
000000b0: 0547 333e 13f3 fe3d cce7 663d 34c4 783c
000000c0: 74ef 06be 8b52 cd3c e809 ef3d e794 543d
000000d0: 708a 163d a824 003c e8e2 413e 98c1 cf3d
000000e0: c480 023c 9fa1 b03d d3cd 0ebd 1888 213d
000000f0: 14dd 7b3b 558a 2ebd 391c 3c3e 40e2 04bd
00000100: 63bf 3cbc 54b9 96bd 7c07 31bd 68c3 993d
00000110: c966 c63d 9f72 f93d 2575 b93d 6754 9b3d
00000120: 8491 6dbd f5c2 c43d f48e 143c f375 b03c
00000130: 93b9 eb3c e858 683d 01bc 11be b91d 18bc
00000140: 00df 1c3d 02ac 443d 12a9 413e a805 6c3c
00000150: 2974 353d 36c1 b23b 83e5 56bd 95c7 f93d
00000160: 2026 25be 5f43 363e 876b 053e 2b4f 2f3e
00000170: d90a d93c 00d9 9a3c 96f0 093d 4c42 273e
00000180: 1692 253d 7305 413c 45e8 093d adbb ea3d
00000190: fe9f a1bb 82dc fd3c afd2 3e3c 0b27 713d
000001a0: 94d4 ca3d 8283 433e eb22 813c 9594 b23c
000001b0: c2c0 463e e5d0 1f3e ac8b f8bc b523 72bd
000001c0: 63fb a9bd 0e29 353e 80e5 bb3d bf14 4c3e
000001d0: 8b20 283e 3df8 563d 63ab 873e ef1c 093e
000001e0: 6e0c 193e cda6 7f3c 54c7 173e 38f7 b9bd
000001f0: aa7a 8d3e 2902 d63d 5424 0abd 9223 29bd
0.052826315 0.05880607 0.042338528 0.07540892 0.052404527 0.08041918 0.1630535 0.11288946
-0.040635664 0.100645676 -0.05277273 -0.018522328 0.14976718 0.039339 -0.10045939 0.08049922
0.067625 0.10356988 0.09658683 -0.00017593213 -0.042843305 0.08954073 0.11691724 0.20711157
0.14076929 0.03419507 0.11473103 0.14687154 -0.0028548066 0.010327486 0.08109656 0.054754794
0.1798954 -0.09384694 0.19856092 0.009781767 0.033638187 0.18511963 -0.06416779 -0.017818073
0.043502115 0.0021956367 -0.017481498 0.014363578 0.1750756 0.124487065 0.056373402 0.015183497
-0.13177282 0.025063774 0.11671811 0.051899817 0.036753118 0.0078212395 0.18934214 0.10144347
0.00796527 0.08624577 -0.034864258 0.03943643 0.0038431333 -0.042612392 0.18370141 -0.03244233
-0.0115202395 -0.07359567 -0.04322003 0.07507974 0.096875735 0.12180065 0.09055547 0.07584458
-0.058000103 0.096074976 0.009067286 0.021540618 0.028775012 0.056725413 -0.14231874 -0.00928443
0.038298607 0.048015602 0.18912151 0.014405645 0.044300232 0.0054551614 -0.052464973 0.121962704
-0.16127825 0.17799138 0.130293 0.17120044 0.02649443 0.018902302 0.033676706 0.16333884
0.04042252 0.011781084 0.033668775 0.114615776 -0.0049324026 0.030988935 0.011646911 0.058875125
0.09903827 0.19093135 0.01576372 0.021799365 0.19409469 0.1560703 -0.030340038 -0.059116084
-0.08299901 0.17691442 0.09174633 0.19929789 0.16418664 0.052482832 0.26497945 0.13389944
0.14946148 0.015603733 0.14822131 -0.09080356 0.27632648 0.10449631 -0.03372605 -0.041293688

fc3.weight f4 [128, 128]
00000000: aa8f 093c 4272 adbc 536c 0ebe ee40 fbbc
00000010: 019c 5dbc 37a4 293d faf7 0d3d 5533 13bd
00000020: 4fcc ca3d f3a1 43bd acb2 d9bd f49b 993c
00000030: 462a 9d3c c847 1f3d d9ad 4b3d 2140 9bbb
00000040: d626 9ebc ac06 7abd 352e e03c b816 323c
00000050: afa8 483d dc4c e5bc e252 28bd 518e 8abc
00000060: 9d61 9fbd 5825 9fbd 733f 99bd 21d6 613c
00000070: c3c0 a2bc 9631 7a3b b869 09bd 567d e3bb
00000080: 51a2 2d3b 8ff2 9abd f0ca 343d 93e5 fe3d
00000090: ae65 843c 8c05 bcbd 1fc8 6abd f483 81bc
000000a0: d57a 64bd dd96 63bd c79a d43d 42d3 b6bd
000000b0: fbce 69bd 73be 4dbd 0e03 d6bc 5753 b13d
000000c0: 2346 74bd a07e 9d3d 35d4 413d 69e8 db3d
000000d0: 3752 613c 3c97 87bd cc90 20bd 23e7 5dbd
000000e0: 5965 d1bc 708e 89bb efb3 de3d 8064 f8bd
000000f0: 7429 cf3d 5adb 333c a415 84bc 58ce 2c3d
00000100: 2622 2e3c ae7d be3d ff4e 2bbd f428 ab3c
00000110: d7f0 ff3c a0ee 27bd 7850 f4bc 1ecb 083d
00000120: 7d4f 9c3d cec0 d43c 2fde 253d 1d8c 963c
00000130: b5bf 44bd c09b 7fbd 6da3 96ba 547f 5b3c
00000140: 8785 c8bd 0b17 b93a 6c08 84ba 6291 323e
00000150: 882d b4bd 5e06 fd3d 9a36 c83d 8f0a 98bd
00000160: 7feb a63d bc4b 40bd 466b ea3b b860 b43c
00000170: ac74 1b3c ff78 633d 22b3 773d 252a 91bc
00000180: db4d 3d3c f129 1d3d 2aae 89bd b6aa 1e3e
00000190: f948 fcbb ad32 5a3d 80b4 c73c 3a86 60bd
000001a0: e366 61bc f7e4 09bd 2fb6 1abd f3ff b93d
000001b0: 44e9 453c fa01 7f3d 8368 8f3d 16b1 f5bc
000001c0: ef54 54bc 546b abbc 14d4 9cbd 626b 55bd
000001d0: cd4e c43c 8356 803d fd65 7ebd 5e4b a5bd
000001e0: 1769 dcbd 3a4c b9bd 54df 1c3b 48b8 72bd
000001f0: cf83 623d 9906 9b3c 599d 98bd a2e1 833d
00000200: 7cb7 17bc 8532 bf3d 90a9 fc3b 149a d83d
00000210: 552f 4e3d d69c a13d 4da6 e03d 2689 0e3e
00000220: 63d9 82bc 9435 c23d 39cf 31bc e8e7 1a3c
00000230: a8a9 393d 9ee7 8b3d 600b 183d 71b2 06bd
00000240: 9916 383b 0565 aa3d adf6 3fbc 1152 b53d
00000250: 5394 39bd 4196 d13d da61 733d a826 913d
00000260: 21dc 823d 3cce 77bd c7a1 b9bc 76d7 013e
00000270: a622 f8bd b9df 023c 4cbd 7d3d 1c2b cc3c
00000280: 0b0c 9b3d 8860 1b3e b8d5 0f3d 8564 e83d
00000290: 0a17 003c eac0 c7bc 3bde 47bd 6ca8 a3bd
000002a0: c08c b03d 95ee f5bd 1847 c8bd 9e4f 4dbc
000002b0: 0943 913d a319 7e3d 2eac 983c 8931 a2bd
000002c0: d63b 633d 5ceb c7bc bd8e 00bd 4d6a 433d
000002d0: f8c5 cfbb 7376 663d 8431 0fbc 4bac 943d
000002e0: 9798 783d 1ed5 99bd a724 b6bd 9318 f23c
000002f0: 28bd a4bd 3181 bebd 329f 473d 9afa f2bc
00000300: 1edb 993d 0de8 9dbd 2058 213c 82f9 a83d
00000310: 2fb0 1f3d db2b e03d dcda a43d c687 9b3d
00000320: 3c52 673d 259c 743c 2672 b7ba f807 913c
00000330: 7e6f afbd bbe3 f53d c30b 853c 617a 78bd
00000340: 5dc7 003e 9790 07bd 5795 dd3d 5a78 83bc
00000350: 4c94 283d 6617 4f3d d905 b2bd 2939 b93d
00000360: 4a42 f83b b606 15bd ce11 92bb a9ab 97bd
00000370: 5a87 723c eb79 09bd 0379 0cbd 0e2b 4e3d
00000380: 79a1 ab3d 992a 8abd 05a0 8d3d cb60 4b3d
00000390: f71d 44bc cda2 16bd 03b4 0b3d 9cd6 143e
000003a0: bf67 06bb 0d24 a83d 42af f5bc b920 623d
000003b0: 7441 da3c 7e10 bfbc fc05 87bd f711 9abc
000003c0: f0ad 823d 22a7 9f3c 3e6f 783d 044b b7bb
000003d0: 2c91 493d 43b8 3bbd a2ab e9bd b71c 18bc
000003e0: 59a4 da3c 2d0a aabd 9c24 223d 6eb9 aebd
000003f0: 55ee bc3c 992a 963d b52f ddbd 0d47 f0bd
0.008396069 -0.021172646 -0.1390851 -0.03067061 -0.013525964 0.041416373 0.034660317 -0.035937626
0.0990225 -0.04776187 -0.10629782 0.018751122 0.019185197 0.038886815 0.04972634 -0.0047378694
-0.019305628 -0.06104152 0.027365783 0.010869674 0.048988994 -0.027990751 -0.04109467 -0.016913565
-0.0778229 -0.07770795 -0.07482805 0.0137839625 -0.019867307 0.0038176528 -0.033548087 -0.0069424314
0.0026494453 -0.07565796 0.04413885 0.124461316 0.016161766 -0.091807455 -0.057319757 -0.01580999
-0.055781204 -0.055563796 0.10381084 -0.08927013 -0.057082158 -0.050230455 -0.026124503 0.08658474
-0.0596372 0.076901674 0.047321517 0.10737688 0.013752512 -0.066206425 -0.03920059 -0.054175507
-0.025561022 -0.004197888 0.10874163 -0.12128544 0.101153284 0.01097759 -0.0161236 0.042188972
0.010628259 0.09301315 -0.041823383 0.020893551 0.031242771 -0.040999055 -0.029823527 0.033396833
0.07632349 0.025970843 0.040495094 0.018377358 -0.04803439 -0.062404394 -0.0011492796 0.013397057
-0.09791093 0.0014121247 -0.0010073311 0.17438272 -0.08797747 0.1235473 0.097760394 -0.07423889
0.08150386 -0.046947226 0.0071539013 0.022018775 0.009488266 0.055535313 0.06047357 -0.017720291
0.011554207 0.038370077 -0.06722672 0.15494809 -0.0076991287 0.053270984 0.024378061 -0.05481551
-0.01375744 -0.033665624 -0.0377714 0.090820216 0.012079541 0.062257744 0.07002356 -0.029991668
-0.012959703 -0.020925201 -0.07657638 -0.05210436 0.023963356 0.06266501 -0.062108982 -0.08071016
-0.10762232 -0.09047742 0.0023936825 -0.059257776 0.055301484 0.018924044 -0.07451887 0.064395204
-0.009260055 0.09335808 0.007710643 0.10576263 0.050338108 0.07891242 0.10969219 0.13919505
-0.015972799 0.094828755 -0.010852628 0.009454705 0.045327812 0.06831287 0.037120223 -0.03288502
0.002808964 0.08320049 -0.011716527 0.088535435 -0.04530747 0.10233737 0.05941949 0.07087451
0.063896425 -0.060499415 -0.02266015 0.12679848 -0.12115984 0.00798791 0.061948106 0.0249229
0.075706564 0.15173542 0.035115927 0.113472976 0.007817993 -0.02438398 -0.04879592 -0.07991108
0.08620596 -0.120083965 -0.09779185 -0.012531189 0.07092864 0.062036168 0.01863679 -0.07919604
0.055476986 -0.02440422 -0.031386126 0.0477088 -0.0063407384 0.056265306 -0.008739833 0.07259425
0.060692396 -0.07511352 -0.0889371 0.029552734 -0.08043891 -0.09301985 0.048735805 -0.029660512
0.075124964 -0.07710276 0.009847671 0.08250715 0.03898638 0.10945865 0.080495566 0.07594256
0.05647491 0.014929806 -0.0013995811 0.017703995 -0.08566187 0.12006327 0.01624096 -0.060663585
0.12576051 -0.033096876 0.108195 -0.016048599 0.041157052 0.050559424 -0.086925216 0.090441056
0.0075762616 -0.036383353 -0.004457689 -0.074057885 0.014802778 -0.033563536 -0.034295093 0.05033403
0.08380408 -0.06746406 0.06915287 0.049652856 -0.011970035 -0.036776353 0.03410722 0.14534992
-0.0020508615 0.08210001 -0.029990796 0.055206988 0.026642539 -0.023323294 -0.06592938 -0.018807394
0.06380832 0.019488875 0.060652964 -0.0055936594 0.049210712 -0.045830023 -0.114096895 -0.00928419
0.026689695 -0.08302722 0.039585695 -0.08531462 0.023062864 0.073323436 -0.10800115 -0.11732302

fc3.bias f4 [128]
00000000: 1aeb 86bb f68f 7e3d f835 ba3d 7ee3 7a3d
00000010: 3f9d 983e 6f6a e13d aa5f b53d 0d89 2c3e
00000020: c308 d13d ee3a 223e 77bc 163e 026d b73d
00000030: a55a e0bd 1c75 133e c54b ba3b 59d9 e9bc
00000040: d355 ac3d 592d bfbc 4b55 d33d ff5b d73d
00000050: 052c 73bb 4293 adbd 092d 4abd 726c 1d3e
00000060: 3031 ee3d 6e14 c9bc cd11 bbbd 6cfa cc3d
00000070: 35fe 1c3e 3e1f d63d ec58 703e 4ab1 c0bd
00000080: 8759 2e3e 196a 25ba 3097 073e 5c4f d4bd
00000090: 53f9 91bd 2e26 02bd a1e5 433e e937 033e
000000a0: 0140 b03d 39f2 343e 2a17 48bd aed9 e23d
000000b0: 59e6 93bc 03d8 2a3d 014e 1e3e 7741 673d
000000c0: 2587 aa3a c8ba 873d 748f af3d 03a6 0cbd
000000d0: 6546 e0bd 19e9 793c 905f ea3c 95f5 ce3d
000000e0: 38da 5e3e 17b5 953d 04f1 19bd 60ce 133d
000000f0: a55d 423e 43a0 473e 93f4 323e bd5c 803d
00000100: 6fef cb3d 62fe 943c ab1d 653d 7465 8e3e
00000110: c54f 8a3d a7aa b5bb 4be7 343e 7dcd 553e
00000120: 47d7 733e b16a 243e ee11 12be e925 5abc
00000130: cbac f03c f31a 523e 60a3 2ebe 04f3 033e
00000140: 7bd7 65bc 5f1a 053e 6739 d2bc 73c1 273e
00000150: 0540 0f3e 5562 3f3e 1a58 bfbd 5e37 543d
00000160: 1fcd a73d 8f92 633e 8537 893d cc13 fb3d
00000170: 930f 763e 5ced 6b3e 388c 6d3e 8c07 e43d
00000180: bb07 24bd 6b2a 12be 4fcf 43bd 820d 433e
00000190: e7c1 9d3d 56a4 a53c b79f 0ebd b7d3 f23d
000001a0: 7804 2d3e 7441 ab3c a64d ff3d 234f 723e
000001b0: 3f3f 213e 6654 853d 36db 063d 61bf 09be
000001c0: de54 cc3d ed44 18be 49e5 523d 2545 e0bd
000001d0: aa42 133e 17b7 d43d f772 8f3d c318 4f3c
000001e0: ba00 513e 5354 7bbc ac44 7f3d 4f01 62bd
000001f0: 9978 8c3d b16f 4bbd 51d4 2d3e 2eff 94bd
-0.0041173818 0.06214901 0.09092325 0.06125211 0.2980747 0.11006629 0.08856137 0.16849156
0.10206749 0.15842792 0.14720331 0.089563385 -0.10954789 0.14400142 0.005685302 -0.028546022
0.08414807 -0.023337053 0.10319003 0.10515594 -0.0037105095 -0.08475353 -0.049359355 0.153734
0.116304755 -0.024545874 -0.091342546 0.10008702 0.15331347 0.10455178 0.23471421 -0.09408815
0.1702634 -0.000631006 0.13241267 -0.10366699 -0.07127633 -0.031774692 0.19130565 0.12814297
0.08605958 0.17670526 -0.048850216 0.11076675 -0.018054174 0.04170991 0.15459444 0.056458917
0.0013010247 0.066274226 0.085722834 -0.03433801 -0.10950927 0.015253329 0.02861002 0.10105435
0.21762931 0.07309931 -0.037583366 0.036085486 0.18981035 0.19494729 0.1747611 0.062676884
0.09957778 0.018187705 0.055936497 0.27811778 0.06753496 -0.005544025 0.17666356 0.20879169
0.2381259 0.16056325 -0.14264652 -0.013314703 0.02937927 0.20518093 -0.1705451 0.12885672
-0.014028425 0.12998341 -0.025662137 0.16382389 0.13989265 0.18689854 -0.09342976 0.051810615
0.081934206 0.22223876 0.06700043 0.12259635 0.24029379 0.23039764 0.2319802 0.11134252
-0.040046435 -0.14273994 -0.047805127 0.19048122 0.077029996 0.020219963 -0.034820285 0.11856788
0.16896236 0.020905234 0.12465982 0.23663001 0.15746783 0.06510238 0.0329239 -0.13451912
0.09977125 -0.14870043 0.051488195 -0.10950688 0.14380899 0.10386484 0.0700435 0.012640181
0.20410433 -0.015339929 0.06232135 -0.05517703 0.0685894 -0.049667064 0.16975524 -0.07275234
