models/dqn_model_epoch_68000.pth (torch, 595624 bytes, 14 tensors)

cnn1.weight f4 [16, 4, 5, 5]
0	0xbe476316	-0.19471392
1	0x3d336fe7	0.04380789
2	0xbcc908bc	-0.024540298
3	0xbe499bc2	-0.19688323
4	0xbe125c76	-0.14293084
5	0xbe4b7e42	-0.19872382
6	0xbe4691a2	-0.19391492
7	0xbe9462fe	-0.28981775
8	0xbd0e9a74	-0.034815267
9	0xbd695409	-0.056964908
10	0xbe8bb78d	-0.27288476
11	0xbe24402c	-0.16040105
12	0xbec26b65	-0.3797256
13	0xbe15e0cd	-0.14636536
14	0x3d14c3a0	0.036319375
15	0xbe2a21b6	-0.16614422
16	0xbe5aacaf	-0.21354936
17	0xbd23d38b	-0.039996665
18	0xbe8330b4	-0.25623095
19	0x3c454435	0.012040188
20	0xbe56f939	-0.20993508
21	0xbe81a09f	-0.25317857
22	0xbe4123d9	-0.18861331
23	0x3d88c353	0.0667788
24	0x3cd7c65e	0.026339706
25	0xbc704c6f	-0.014666661
26	0xbd0ac99c	-0.033883676
27	0xbdc1f250	-0.094700456
28	0xbe104af1	-0.14091088
29	0x3ce35554	0.027750649
30	0x3d83b0ef	0.06430232
31	0xbcdd7d28	-0.027037218
32	0x3cd08e0d	0.02545836
33	0xbd88b281	-0.06674672
34	0xbd932a56	-0.07185809
35	0xbd410401	-0.04712296
36	0xbe0d43f5	-0.13795455
37	0x3c85fbb0	0.016355366
38	0x3e091752	0.13387802
39	0xbce85d5f	-0.028364835
40	0xbdd3fd49	-0.10351045
41	0x3ca7f523	0.020502632
42	0xbdada168	-0.084780514
43	0x3ca203b1	0.01977715
44	0xbe040017	-0.1289066
45	0xbd021520	-0.031758428
46	0x3d99d501	0.075113304
47	0xbd2a403a	-0.041565157
48	0xbd891e3d	-0.066952206
49	0xbdb26ef1	-0.08712567
50	0x3da9f3b7	0.08298438
51	0xbc27a7c8	-0.010232873
52	0xbe071245	-0.13190563
53	0xbe52af6b	-0.20574729
54	0xbcd45a2c	-0.025921904
55	0xbcc79232	-0.024361704
56	0xbdb31f27	-0.08746176
57	0x3e38128f	0.1797583
58	0x3d4b02ae	0.049563102
59	0xbe1df4c5	-0.15425403
60	0x3e6a3cf2	0.22874811
61	0x3e6c63b3	0.23084907
62	0x3e04593d	0.12924667
63	0x3cf1b4e0	0.029505193
64	0xbe576c99	-0.2103752
65	0xbe90c81c	-0.2827767
66	0x3e235938	0.15952003
67	0x3e914632	0.28373867
68	0xbe05f342	-0.13081077
69	0xbe2aa07f	-0.16662787
70	0xbe24036e	-0.16016933
71	0xbc83c6bf	-0.01608598
72	0x3ea36cf5	0.31919065
73	0xbe06dc8d	-0.13170071
74	0xbe1c34d0	-0.15254521
75	0xbdbf9208	-0.09354025
76	0xbe7a56a8	-0.24447119
77	0xbdb8862c	-0.09009966
78	0xbba7c5a3	-0.0051199957
79	0xbd87cce6	-0.06630878
80	0xbd2b6489	-0.041843925
81	0x3de1a9d9	0.11018724
82	0x3e1849a4	0.14871842
83	0xbdc0f093	-0.09420886
84	0x3d09e34c	0.033664033
85	0xbe26f05b	-0.16302626
86	0x3d9624e9	0.07331259
87	0x3da52ab8	0.080647886
88	0xbdbf976a	-0.09355052
89	0xbda8e209	-0.08246238
90	0xbe038cd0	-0.12846684
91	0xbbb26865	-0.0054445737
92	0x3d98a357	0.074530296
93	0xbcc8d520	-0.024515688
94	0xbdf2bdf8	-0.1185264
95	0x3db901d0	0.09033549
96	0x3df0c13c	0.117556065
97	0xbe3a762d	-0.18209143
98	0xbd8f8e29	-0.07009537
99	0xbd751574	-0.059834912
100	0xbdf2f10f	-0.118623845
101	0xbe859516	-0.26090306
102	0xbe352a7f	-0.17691992
103	0x3d0b600e	0.03402715
104	0xbe678e01	-0.22612764
105	0xbe014271	-0.12623002
106	0xbda7cc44	-0.081932575
107	0xbbd20c75	-0.0064101764
108	0x39bf4fa6	0.00036489702
109	0x3bae0946	0.005311164
110	0xbe0c102b	-0.13678043
111	0xbd4a4d77	-0.049390282
112	0x3c9401f9	0.018067347
113	0xbd810b15	-0.06300942
114	0xbd7a254e	-0.061070733
115	0xbe1f71de	-0.1557078
116	0xbe67ea36	-0.22647938
117	0xbe33e802	-0.17568973
118	0xbebd8aad	-0.37019864
119	0xbd6e1aee	-0.05813115
120	0xbe840739	-0.2578676
121	0xbe62ae4a	-0.22136799
122	0xbdc56b42	-0.096395984
123	0xbd8ceae5	-0.0688074
124	0xbdffd3eb	-0.12491592
125	0xbd41bf23	-0.047301423
126	0x3daabf65	0.08337287
127	0xbd725d47	-0.059170987
128	0x3d0fec5e	0.035137527
129	0xbe06aad5	-0.13151105
130	0xbc87d524	-0.016581126
131	0xbd1e3f42	-0.038634546
132	0xbde13c2a	-0.109978035
133	0x3cbb9376	0.022897463
134	0xbb550598	-0.0032504555
135	0xbca62574	-0.02028153
136	0xbd4dfcc1	-0.050289873
137	0xbe1220a6	-0.14270267
138	0xbd4733ed	-0.048633505
139	0xbcd2c46d	-0.025728429
140	0xbe0b912b	-0.13629596
141	0xbcccac36	-0.02498446
142	0x3d514712	0.05109317
143	0xbd48ac66	-0.048992537
144	0xbdda7cfc	-0.1066837
145	0xbb1faa14	-0.002436285
146	0x3d057fd8	0.032592624
147	0xbd8c8fd5	-0.06863371
148	0x3dd416ec	0.103559345
149	0xbde8a1f2	-0.113590136
150	0xbe42dae5	-0.19028814
151	0x3e2daf65	0.16961439
152	0xbd5f45b6	-0.05450984
153	0x3e1b0058	0.1513685
154	0xbe17574c	-0.14779395
155	0xbe3eeec6	-0.18645772
156	0x3e365fc6	0.17809972
157	0xbe5116fe	-0.20418927
158	0x3da7b54c	0.081888765
159	0xbe20cae4	-0.15702397
160	0xbe8bde7b	-0.27318177
161	0xbe802fc9	-0.25036457
162	0x3db3591f	0.08757233
163	0x3dc62013	0.096740864
164	0xbe576513	-0.2103465
165	0xbe7c493b	-0.2463731
166	0xbe0cc57c	-0.1374721
167	0x3e83ccca	0.2574218
168	0xbe4199a7	-0.1890627
169	0xbe6eda70	-0.23325515
170	0x3ec763c5	0.38943306
171	0x3e97fde3	0.29685888
172	0x3ed415b6	0.41422814
173	0xbd66e489	-0.05637029
174	0xbe297b70	-0.16550994
175	0x3e541289	0.20710196
176	0x3e089fc9	0.13342203
177	0x3e72f31d	0.23725553
178	0xbc8d9f90	-0.017288
179	0xbda87bf8	-0.0822677
180	0x3defa047	0.11700492
181	0xbdf4ee09	-0.11959464
182	0x3e1bbf05	0.15209587
183	0xbe0443f7	-0.12916552
184	0xbde0c840	-0.10975695
185	0xbe288112	-0.16455486
186	0x3dbdb9ca	0.09263952
187	0x3d815238	0.0631451
188	0xbda64869	-0.0811928
189	0xbe1ccba3	-0.15312056
190	0xbe2b26fe	-0.16714093
191	0xbceb8e19	-0.02875428
192	0xbdabc644	-0.083874255
193	0xbe002a0e	-0.12516043
194	0xbd254542	-0.040349253
195	0xbe0a0443	-0.13478188
196	0xbdf1b49c	-0.11802027
197	0x3e3cb8c0	0.18429852
198	0xbe03257d	-0.1280727
199	0xbe0e90af	-0.1392238
200	0xbe990670	-0.29887724
201	0xbd9942ba	-0.0748343
202	0xbeb0942d	-0.3448805
203	0x3d46b4d0	0.04851228
204	0xbe3a0d69	-0.18169178
205	0xbe6439ea	-0.22287717
206	0xbe1f64d2	-0.15565804
207	0xbe42f83f	-0.19040011
208	0x3d1d4c12	0.038402624
209	0x3b9bfc0f	0.0047602723
210	0xbe783bec	-0.24241608
211	0xbe5fc053	-0.2185071
212	0xbdfadf1a	-0.122495845
213	0x3ceb1c28	0.02869995
214	0x3e352fda	0.17694035
215	0xbe7e80e2	-0.24853852
216	0xbe6a669a	-0.22890702
217	0xbe946ad0	-0.2898774
218	0xbe21aa76	-0.15787682
219	0x3e097e10	0.13426995
220	0xbe7984ab	-0.24367015
221	0xbe052076	-0.13000664
222	0xbe74cfc2	-0.23907378
223	0x3d5610f3	0.052262258
224	0xbd8556af	-0.06510674
225	0xbe052252	-0.13001373
226	0xbc44968b	-0.011998783
227	0xbe0ed4e7	-0.13948403
228	0xbdac802e	-0.08422886
229	0xbd16b866	-0.03679695
230	0xbb88e259	-0.0041773734
231	0xbcb4e3f2	-0.022081349
232	0x3d806e30	0.062710166
233	0xbdbaa25a	-0.09112997
234	0x3ce80275	0.028321484
235	0xbc91a7db	-0.017780235
236	0x3cc96855	0.024585882
237	0xbc4cbb3b	-0.012495811
238	0xbdcf1004	-0.101104766
239	0xbb850cea	-0.0040603774
240	0xbb76e9be	-0.0037675942
241	0xbdb22f19	-0.087003894
242	0x3c2263ac	0.009911459
243	0x3e3be021	0.18347217
244	0xbc024694	-0.007951397
245	0xbdb01959	-0.08598585
246	0xbe1b2047	-0.15149032
247	0xbd664ace	-0.056223683
248	0x3dbb02ce	0.09131394
249	0xbc415388	-0.011799701
250	0x3d999444	0.074989825
251	0x3cfc6463	0.030809587
252	0x3d502ba6	0.050822876
253	0xbecb3001	-0.39685062
254	0xbd79a574	-0.060948804
255	0x3cc752a1	0.024331393

cnn1.bias f4 [16]
0	0x3d6229ce	0.05521565
1	0xbd4deb5c	-0.050273284
2	0xbd8eac12	-0.069664136
3	0xbd97c00e	-0.074096784
4	0x3d121236	0.0356619
5	0xbd945e38	-0.07244533
6	0xbd940666	-0.07227783
7	0xbb060055	-0.0020446975
8	0x3c865efd	0.016402716
9	0xbdf9b600	-0.12192917
10	0xbcef8b91	-0.029241355
11	0xbd976bff	-0.073936455
12	0xbc70edde	-0.014705149
13	0xbdb44df9	-0.088039346
14	0x3cca9be0	0.02473253
15	0xbd9e2d98	-0.0772354

cnn2.weight f4 [32, 16, 3, 3]
0	0x3cddc4cc	0.02707138
1	0x3d6c5f71	0.057708208
2	0x3dd51a2d	0.10405383
3	0x3e23b5c6	0.1598731
4	0xbc9be5cb	-0.019030472
5	0xbd2a8c2d	-0.04163759
6	0x3d9a31fe	0.075290665
7	0x3c8c726a	0.0171444
8	0xbd502ed7	-0.05082592
9	0x3e2f080c	0.17092913
10	0xbdc959c3	-0.09831574
11	0x3d297865	0.041374583
12	0x3e09f1e5	0.13471182
13	0xbd940092	-0.07226671
14	0x3df824f2	0.12116422
15	0x3e1c755d	0.15279146
16	0xbd6ae30c	-0.057345435
17	0xbd8f32be	-0.069921
18	0xbc38483b	-0.01124769
19	0xbcdf45d7	-0.027254982
20	0xbaa385af	-0.0012475754
21	0xbc7d06e8	-0.015443541
22	0x3bd1c64a	0.0064018117
23	0xbd542803	-0.05179597
24	0xbd7043b6	-0.058658324
25	0x3c8048a6	0.015659641
26	0xbd66225d	-0.056185115
27	0x3dd5a68c	0.10432157
28	0xbda3965a	-0.07987662
29	0x3c90a011	0.01765445
30	0x3e2c2298	0.16810071
31	0x3d17b2d6	0.037035786
32	0xbd002226	-0.031282566
33	0x3de5920a	0.11209495
34	0x3d7a3fb4	0.06109591
35	0xbdb47764	-0.088118345
36	0x3d84b738	0.06480259
37	0xbc9c6280	-0.019089937
38	0xbc9dd1dc	-0.019265108
39	0x3de221c0	0.110415936
40	0x3c8b6a25	0.017018387
41	0x3d8d132c	0.06888422
42	0x3dba85df	0.09107565
43	0x3cf08650	0.02936092
44	0x3db8cfbf	0.090239994
45	0x3dc29b74	0.095023066
46	0x3d834c76	0.06411068
47	0x3d8a98db	0.06767436
48	0x3e004ee2	0.12530091
49	0x3d816027	0.06317168
50	0x3cd9c24b	0.026581904
51	0xbc5bbd00	-0.01341176
52	0x3c8c80ba	0.017151225
53	0x3d13596a	0.035973944
54	0xbd5f11be	-0.05446028
55	0x3d0dde2a	0.0346357
56	0x3d9be97d	0.07612894
57	0x3c2c275b	0.01050743
58	0x3d089622	0.033346303
59	0x3d8b0530	0.06788099
60	0x3d371f67	0.044707682
61	0x3d1160eb	0.03549282
62	0x3dd3b8da	0.10337992
63	0x3d68bcd8	0.05682072
64	0xbdaa0099	-0.08300895
65	0x3d46f8cd	0.04857712
66	0x3d4cf0ed	0.050034452
67	0xbd361096	-0.04444941
68	0x3dcdde34	0.100521475
69	0xbcca159b	-0.024668505
70	0xbd154a1d	-0.036447633
71	0x3c106587	0.0088132685
72	0x3d6cbe3f	0.05779862
73	0xbc757809	-0.014982232
74	0xbd6201b0	-0.05517739
75	0x3de64bc0	0.11244917
76	0x3dbf4c66	0.09340744
77	0x3dac5040	0.08413744
78	0x3d501242	0.050798662
79	0x3d3b405d	0.04571568
80	0x3d577b3a	0.052607752
81	0x3d8d5ef5	0.06902877
82	0x3da0e614	0.07856384
83	0x3df0ad4c	0.11751804
84	0x3d575591	0.052571837
85	0x3d4ce499	0.050022695
86	0x3ce3d5d6	0.027811926
87	0x3d8c5ed6	0.06854026
88	0xbd15fa3c	-0.036615595
89	0x3d3c9db2	0.046048827
90	0x3d3c1abd	0.045923937
91	0xbc87c427	-0.016573025
92	0xbc42e40e	-0.011895193
93	0x3c82880a	0.01593401
94	0x38a98e64	8.08507e-05
95	0xbda7ddf8	-0.08196634
96	0x3b2d7772	0.00264689
97	0xbada37dd	-0.0016648729
98	0xbb2614a2	-0.0025341888
99	0x3ca44e6d	0.020056928
100	0xbd22428a	-0.039614238
101	0x3d17c784	0.037055507
102	0x3daf32e6	0.0855463
103	0x3db811b4	0.089877516
104	0xbd55d9a2	-0.052209504
105	0x3dcf6b13	0.10127845
106	0x3d4b7e2f	0.049680885
107	0x3db639ed	0.08897767
108	0xbda73e26	-0.08166151
109	0xbdf1f438	-0.11814159
110	0xbc9abb3e	-0.018888112
111	0xbb2c643a	-0.0026304857
112	0x3d3f7b4b	0.04674844
113	0xbc4ba374	-0.012429107
114	0x3d4fea22	0.050760396
115	0xbd5dc8ba	-0.054146506
116	0xbb2e6dd9	-0.0026615767
117	0xbd16b05e	-0.03678929
118	0xbd6d4787	-0.057929542
119	0x3cbd93cc	0.023141764
120	0x3d399813	0.045311045
121	0xbd83c7e6	-0.06434612
122	0xbd863141	-0.06552363
123	0xbd18e6f3	-0.037329625
124	0xbda0f78d	-0.078597166
125	0xbd034d4d	-0.03205614
126	0x3ddbfec9	0.10741956
127	0xbccd3280	-0.025048494
128	0x3daf4668	0.08558351
129	0x3e3b31f8	0.1828078
130	0x3d81f897	0.06346243
131	0x3d939a4e	0.07207166
132	0x3e1e54c6	0.15462026
133	0xba2a8f1a	-0.0006506309
134	0x3dc3acb7	0.09554427
135	0x3cb86cbf	0.022512792
136	0xbd7181fe	-0.05896186
137	0xba8bab28	-0.0010655867
138	0x3d80362e	0.06260334
139	0xbd1de238	-0.038545817
140	0x3c3b08e2	0.011415692
141	0x3d1f8717	0.03894719
142	0xbd4fcec8	-0.05073431
143	0xbdc7629d	-0.09735606
144	0xbd59d22c	-0.05317895
145	0x3d0c8707	0.03430846
146	0x3ce8b873	0.028408265
147	0x3e223f9f	0.15844582
148	0x3b91a068	0.0044441707
149	0xbced0df4	-0.028937317
150	0x3c6da4f0	0.014504656
151	0x3d07749c	0.03307019
152	0xbc408535	-0.011750509
153	0x3bb7e8fc	0.0056124907
154	0x3dec360c	0.11533746
155	0xbd153cd4	-0.036434963
156	0x3e05b686	0.13057908
157	0x3c22f919	0.009947085
158	0xbb897aa7	-0.0041955295
159	0x3d969e6e	0.07354437
160	0x3dfa729b	0.122288905
161	0xbdc094c6	-0.09403376
162	0x3c1db836	0.009626439
163	0xbd906082	-0.070496574
164	0xbd368b0b	-0.044566195
165	0xbdb2e8f5	-0.08735839
166	0xbdf50ada	-0.119649604
167	0xbdba73be	-0.09104107
168	0xbd522569	-0.05130521
169	0xbe07c26c	-0.1325776
170	0xbde54965	-0.111956395
171	0x3df78eba	0.1208777
172	0x3def9239	0.11697812
173	0xbcd7eee1	-0.026359024
174	0x3e22d857	0.1590284
175	0xba327e6f	-0.0006809001
176	0x3cbb58a9	0.022869425
177	0x3df19a7e	0.11797045
178	0x3d90a949	0.070635386
179	0xbd92e2e0	-0.07172179
180	0x3cd5ca76	0.026097517
181	0x3d5f45b9	0.054509852
182	0x3d0aa319	0.03384695
183	0x3d87e3f7	0.06635278
184	0x3e345a41	0.17612554
185	0x3bd192da	0.00639568
186	0x3dbfed1b	0.09371396
187	0x3d6ef6ea	0.058340944
188	0x3d09f11a	0.033677198
189	0x3e47dace	0.19517061
190	0x3abd7207	0.0014453538
191	0x3cfdbab0	0.030972809
192	0x3e12dfec	0.14343232
193	0x3c1ec819	0.009691262
194	0x3bde028e	0.006775207
195	0xbd6c6391	-0.05771214
196	0x3d376ada	0.044779636
197	0xbe0dcad3	-0.13846903
198	0xbae60ce8	-0.0017551454
199	0xbc9bdb5d	-0.019025499
200	0xbc1f4ae1	-0.009722442
201	0x3dfa4bbb	0.12221476
202	0x3dce0202	0.10058977
203	0x3cf60538	0.030031785
204	0x3e31f8ea	0.1738011
205	0xbd5d1355	-0.053973515
206	0x3ddc0544	0.10743192
207	0x3c33473c	0.010942277
208	0x3d361f7d	0.044463623
209	0xbd0d89d3	-0.034555268
210	0xbd32d213	-0.043657374
211	0xbd7188f4	-0.0589685
212	0xbc912549	-0.017717974
213	0xbd38b586	-0.04509499
214	0xbdb98bbe	-0.09059857
215	0xbcb0fc75	-0.021604756
216	0x3e1d9508	0.15388882
217	0x3cce11b9	0.025154935
218	0xba8ab20a	-0.0010581624
219	0x3e2998e6	0.16562232
220	0xbc8df944	-0.017330773
221	0xbc5c3cbd	-0.0134422155
222	0x3e3c9ee8	0.18419993
223	0x3d437616	0.047720037
224	0x3d0903ea	0.033451
225	0x3e1a1738	0.1504792
226	0x3db3cdcb	0.08779486
227	0x3cac0428	0.020998076
228	0x3b4846da	0.003055981
229	0x3db59b80	0.0886755
230	0x3e212acc	0.15738982
231	0x3db06e4e	0.08614789
232	0xbd0fc679	-0.035101388
233	0x3d1223fe	0.035678856
234	0x3cd685d5	0.026186863
235	0x3db4bdf3	0.088252924
236	0x3a5abf52	0.0008344549
237	0x3d3c884e	0.046028428
238	0xbc11cb94	-0.008898634
239	0xbd903cf8	-0.07042879
240	0xbd588f14	-0.052870825
241	0xbd51ef02	-0.051253326
242	0xbdfb0e71	-0.12258614
243	0x3df326be	0.11872624
244	0x3d4aefbb	0.04954503
245	0xbdce638d	-0.100775816
246	0x3d89ec65	0.06734542
247	0x3d595d3d	0.053067435
248	0xbbf103d8	-0.0073551945
249	0x3de00f2c	0.10940394
250	0x3d978b63	0.07399633
251	0x3ccbb5bc	0.024866931
252	0x3c9e1576	0.019297343
253	0xbcc42a17	-0.023945851
254	0xbd9ae54c	-0.07563266
255	0x3ded4f3e	0.1158738

cnn2.bias f4 [32]
0	0xbdcfae00	-0.1014061
1	0xbceebbc0	-0.02914226
2	0xbd0c4296	-0.03424319
3	0x3b6c5a21	0.0036064463
4	0xb9b915b2	-0.00035302114
5	0xba991115	-0.0011678064
6	0xbd9c06aa	-0.076184586
7	0x3d923465	0.071389
8	0xbd9519e2	-0.072803274
9	0xbd2e3f47	-0.042540815
10	0x3cfe6990	0.031056195
11	0x3a8ecd1e	0.001089487
12	0xbbbe9faa	-0.0058173733
13	0x3be88769	0.0070962203
14	0xb9c5433b	-0.0003762486
15	0xbddea5ea	-0.10871489
16	0x3de6ab87	0.11263185
17	0x3bd62428	0.006535072
18	0xbd197b03	-0.03747083
19	0xbdcbc02a	-0.09948762
20	0xbde10c19	-0.109886356
21	0x3c9d314a	0.019188542
22	0xbd5826db	-0.05277143
23	0xbd24f406	-0.04027178
24	0xbb8a9931	-0.0042296876
25	0xbdaf3f63	-0.08557012
26	0xbd60603e	-0.054779284
27	0xbe06cdff	-0.13164519
28	0x3dc672dd	0.09689877
29	0xbd741c33	-0.059597205
30	0x3dbf3f21	0.09338213
31	0xbc0566bd	-0.0081421705

cnn3.weight f4 [32, 32, 3, 3]
0	0x3cd95346	0.026528966
1	0x3ac26040	0.001482971
2	0x3cad37fa	0.021144856
3	0x3c44a4c9	0.0120021785
4	0xbd96b1f0	-0.07358158
5	0xbd41386f	-0.04717296
6	0xbc464cc7	-0.012103266
7	0xbcc21594	-0.02369193
8	0x39b5e497	0.00034693323
9	0x3e2c641b	0.16835062
10	0x3d2fbd36	0.042905055
11	0xbd96ef7e	-0.07369898
12	0x3dc1b725	0.0945876
13	0xbd32c6c4	-0.04364659
14	0xbe19aa64	-0.15006405
15	0xbd90abc3	-0.07064011
16	0xbd47bc38	-0.048763484
17	0xbdbc44bb	-0.09192797
18	0x3aa2a0ff	0.00124076
19	0xbd263b2a	-0.040583767
20	0xbd873b9b	-0.06603166
21	0x3da30bf9	0.07961268
22	0xbd57d031	-0.05268878
23	0xbd9f187c	-0.07768342
24	0x3d3ec1f7	0.046571698
25	0x3d653b40	0.05596471
26	0xbc86e2c4	-0.016465552
27	0x3d18b8bb	0.037285548
28	0xbbb49726	-0.0055111824
29	0x3c0a1ae3	0.008429262
30	0x3d516244	0.051119104
31	0xbd580fc0	-0.052749395
32	0xbd597d17	-0.05309781
33	0x3c6296c3	0.01382989
34	0xbcd0ab73	-0.025472378
35	0x3cd53727	0.026027275
36	0x3dd5a030	0.10430944
37	0x3cd1db0c	0.025617145
38	0xbc33475b	-0.010942305
39	0xbcca87b4	-0.024722911
40	0xbdcd4402	-0.10022737
41	0x3b636891	0.0034699778
42	0x3aa1228c	0.0012293621
43	0x3d7f4efe	0.062331192
44	0xbc1af516	-0.009457847
45	0x3df52366	0.11969642
46	0xbda02143	-0.07818844
47	0xbc8a477c	-0.01687979
48	0x3d16d5bf	0.036824938
49	0xbdc5c3dd	-0.096564986
50	0xbdc576d4	-0.09641805
51	0xbc71b194	-0.014751811
52	0x3bb79ccf	0.00560341
53	0xbb8086a3	-0.0039223
54	0xbbfc9509	-0.007708196
55	0x3cdcc09b	0.02694731
56	0xbd807da0	-0.06273961
57	0xbd206512	-0.03915889
58	0xbb306cb7	-0.0026920268
59	0xbcede2bd	-0.029038781
60	0x3d465a4c	0.048425958
61	0xbd610339	-0.054934714
62	0xbd233c71	-0.039852563
63	0xbd3fe54f	-0.046849545
64	0x3deb5b45	0.11492018
65	0x3d9158c8	0.07097012
66	0x3d22f346	0.039782785
67	0xbbb595f4	-0.0055415574
68	0x3ddd0d6c	0.10793576
69	0x3d3b70ae	0.045761757
70	0x3d83bf3b	0.06432959
71	0x3db812f9	0.08987994
72	0xbc29e018	-0.0103683695
73	0x3cb90dde	0.02258962
74	0xbd60d0f2	-0.054886766
75	0xbd88ba4c	-0.06676158
76	0xbcf6ea78	-0.0301411
77	0xbd61dffb	-0.055145245
78	0x3c1fa48c	0.009743821
79	0xbcaeb5bb	-0.02132689
80	0xbd7052e0	-0.058672786
81	0x3db97057	0.0905463
82	0xbdadd09f	-0.08487057
83	0x3c468e03	0.012118819
84	0x3cb2f579	0.021845566
85	0xbdf84607	-0.12122732
86	0x3c46ea89	0.0121408785
87	0xbcf4f8c8	-0.029903784
88	0xbcfb771a	-0.03069644
89	0xbd5fcab8	-0.054636687
90	0x3daffad0	0.085927606
91	0x3dc14c8c	0.09438428
92	0xbdc31767	-0.09525948
93	0x3cba9252	0.02277485
94	0x3c9fe08d	0.019516254
95	0xbdb4c990	-0.088275075
96	0xbd0145ec	-0.031560823
97	0x3d11e382	0.03561736
98	0xbcd4ff9a	-0.026000787
99	0x3d6c4390	0.05768162
100	0xbd9bac95	-0.07601277
101	0xbd93af80	-0.07211208
102	0xbd2d6eec	-0.04234211
103	0xbdf39904	-0.1189442
104	0xbe0bccbe	-0.13652322
105	0x3d592a4f	0.053018864
106	0x3d170586	0.036870502
107	0xbccca83f	-0.02498257
108	0x3dd5c2ba	0.10437532
109	0x3e169f52	0.14709213
110	0x3e1f1a2a	0.15537325
111	0xbcee9434	-0.029123403
112	0x3e1d402b	0.1535651
113	0x3cdda913	0.02705816
114	0x3c3ab66a	0.01139603
115	0x3cbeb079	0.023277508
116	0xbcaf5949	-0.02140488
117	0x3c8aa642	0.016924981
118	0x3c6e933f	0.014561473
119	0xbcb58ed7	-0.022162838
120	0xbbbec5eb	-0.0058219335
121	0x3d1f10b4	0.03883429
122	0xbd3cc62c	-0.04608743
123	0x3cf938ef	0.030422656
124	0x3d013de8	0.03155318
125	0x3d4c3001	0.049850468
126	0x3dd8f6f6	0.10593979
127	0xbc17c74e	-0.0092638265
128	0xbd5531df	-0.052049514
129	0x3d620e79	0.055189583
130	0xbd634d50	-0.055493653
131	0xbd67b998	-0.05657348
132	0xbc987b86	-0.018613588
133	0x3c9c53dc	0.019082956
134	0xbdce923b	-0.10086485
135	0x3b5a3ca0	0.0033300295
136	0xbd204c80	-0.039135456
137	0x3d4f24fd	0.050572384
138	0xbcbaac88	-0.022787347
139	0xbcd4e598	-0.025988385
140	0xbd506061	-0.050873164
141	0x3cc84a2a	0.024449427
142	0x3b811738	0.0039395355
143	0xbc3e1c18	-0.011603378
144	0x3d896fd8	0.067107856
145	0x3e68b64d	0.22725792
146	0x3e4f2bd1	0.20231558
147	0x3cd0ff1f	0.025512276
148	0x3db28854	0.08717409
149	0x3dfa5335	0.12222902
150	0x3cca8af6	0.024724465
151	0x3db3b29d	0.08774302
152	0x3decb4ce	0.11557923
153	0x3d9d2f3b	0.07675024
154	0x3db8c843	0.09022572
155	0xbd93cea4	-0.07217148
156	0x3cef9d04	0.029249676
157	0x3d3deef3	0.046370458
158	0xbd9573d8	-0.07297486
159	0x3bee60ef	0.007274739
160	0x3c96e723	0.018420761
161	0xbd263f3f	-0.04058766
162	0xbcc8dc40	-0.024519086
163	0xbd8ed611	-0.06974424
164	0xbd8f3ea2	-0.06994368
165	0x3cafd537	0.021463973
166	0xbd475b07	-0.048670795
167	0xbe07dd23	-0.1326795
168	0x3c1074e6	0.008816933
169	0xbdd356ee	-0.10319315
170	0xbd3ca38f	-0.04605442
171	0xbd51bf97	-0.051208105
172	0x3b5ff6a3	0.0034174107
173	0x3d37bb49	0.044856343
174	0x3cc36568	0.023852065
175	0xbda8aab3	-0.08235683
176	0xbbaee7a5	-0.005337673
177	0x3b8e7c20	0.004348293
178	0xbd8004f2	-0.06250943
179	0x3c70598f	0.01466979
180	0xbd4b236a	-0.04959432
181	0xbce2a3ec	-0.027666055
182	0x3d2ed10c	0.04267983
183	0xbd0d6f61	-0.034530047
184	0xbdc1251f	-0.094309084
185	0xbd095c29	-0.033535156
186	0x3b0c3e2d	0.0021399364
187	0xbd555686	-0.05208447
188	0xbcca834a	-0.024720807
189	0x3da63aef	0.081167094
190	0x3dd84c00	0.10561371
191	0xbd07b17c	-0.033128247
192	0x3bc76062	0.006084488
193	0x3c6606a6	0.014039671
194	0xbd342ec5	-0.043989915
195	0xbd3ce46d	-0.04611628
196	0x3c8543ba	0.016267646
197	0xbdf78c9f	-0.12087368
198	0xbceb0a46	-0.028691422
199	0xbdcfe4ae	-0.10151039
200	0xbd183f3a	-0.037169673
201	0xbd8328bf	-0.06404256
202	0xbdf04737	-0.11732333
203	0xbb19cba9	-0.0023467338
204	0xbd5323e3	-0.051547896
205	0xbd35852e	-0.044316463
206	0x3cb11aaf	0.021619169
207	0x3d2f8395	0.042850096
208	0x3c88b4ef	0.016687838
209	0x3d9d6fbe	0.07687329
210	0x3cb2fd1d	0.02184921
211	0xbd262021	-0.040557984
212	0xbc671357	-0.014103732
213	0xbc99d128	-0.018776491
214	0x3dbbd09b	0.09170648
215	0x3c8cd776	0.017192584
216	0x3d84c0c2	0.06482078
217	0xbc61d425	-0.013783489
218	0xbd4b2f13	-0.04960544
219	0xbc802908	-0.015644565
220	0xbd87d998	-0.066332996
221	0xbda23a06	-0.07921223
222	0xbbdd509c	-0.006753994
223	0x3d326933	0.043557357
224	0xbc3c5c23	-0.0114965765
225	0x3d164b3f	0.036692854
226	0xbcfe141f	-0.031015454
227	0x3b3fcfa0	0.0029268041
228	0xbcbe7a3e	-0.023251649
229	0xbd70060f	-0.058599528
230	0x3c8ad9fe	0.01694965
231	0xbc92d44a	-0.017923493
232	0x3d4d3f65	0.050109286
233	0x3d6afc15	0.05736931
234	0x3dc50498	0.09620017
235	0x3b03966d	0.0020078674
236	0x3bb00571	0.0053717424
237	0x3ce78b54	0.028264679
238	0xbd4c310d	-0.049851466
239	0xbbf873dd	-0.0075821714
240	0xbcaf7098	-0.021415994
241	0x3c9cb86c	0.019130908
242	0xbd270797	-0.040778723
243	0x3c132250	0.008980349
244	0x3d40f420	0.047107816
245	0xbc8c0bd7	-0.01709549
246	0xbbea4962	-0.007149861
247	0xbd33f01a	-0.04393015
248	0xbd047e17	-0.03234681
249	0xbb9edbe3	-0.00484799
250	0xbc960de6	-0.018317174
251	0xbca5dee2	-0.02024788
252	0x3cb22bea	0.021749455
253	0x3afb7efc	0.0019187625
254	0x3dcb8a2c	0.099384636
255	0xbcd9e87d	-0.026600117

cnn3.bias f4 [32]
0	0x3ca1a0bf	0.01972997
1	0x3d334c64	0.043774024
2	0xbdc247e6	-0.0948637
3	0xbc935526	-0.017984938
4	0x3d050ae8	0.032481104
5	0xbd06a735	-0.032874305
6	0xbd098468	-0.033573538
7	0x3df07414	0.1174089
8	0xbc21faf0	-0.009886488
9	0xbd794984	-0.060861126
10	0x3c23072e	0.009950442
11	0xbcd29928	-0.025707796
12	0xbc5ca97b	-0.013468142
13	0x3d4b972f	0.049704727
14	0xbc97d09c	-0.01853209
15	0x3e01a8e5	0.12662084
16	0xbd90f418	-0.07077807
17	0x3b9ce948	0.0047885515
18	0xbd2da559	-0.042394016
19	0xbd823cf2	-0.06359281
20	0xbd914d8d	-0.0709487
21	0xbcf3d65d	-0.029765302
22	0xbd8f6457	-0.0700156
23	0xbd773961	-0.060357455
24	0xbc4bb405	-0.012433057
25	0xbd0f5d0b	-0.035000842
26	0xbd882b61	-0.06648899
27	0x3ce4d731	0.027934643
28	0xbc088537	-0.008332542
29	0x3dc87e20	0.097896814
30	0x3cb1ef25	0.021720478
31	0x3e1a1e17	0.15050541

fc1.weight f4 [128, 768]
0	0xbcdb4905	-0.026768217
1	0x3ccb35a7	0.024805857
2	0x3ca16e82	0.019706015
3	0x3c7291f6	0.014805308
4	0x3cfb9bef	0.030714003
5	0xbd035408	-0.03206256
6	0xbd421869	-0.04738656
7	0x3c80dc25	0.015729973
8	0xbc9113de	-0.017709669
9	0xbc336b68	-0.010950901
10	0xbcc3377c	-0.023830168
11	0x3a0cb680	0.0005367771
12	0xbad88cf8	-0.0016521504
13	0x3b330199	0.0027314185
14	0xbc1e911a	-0.00967815
15	0x3c9d43dc	0.019197397
16	0x3bfb3cfd	0.0076671825
17	0xbc41de34	-0.0118327625
18	0xbc2ee382	-0.010674359
19	0x3c355424	0.011067424
20	0xbcbeebfe	-0.02330589
21	0x3c89c7ba	0.01681887
22	0xbce79810	-0.028270751
23	0xbc4f1f6e	-0.012641771
24	0xbd1658af	-0.03670567
25	0xbbe4ff9b	-0.0069884784
26	0xbd15847f	-0.03650331
27	0xbc0f9571	-0.008763657
28	0x3b3ae2ab	0.0028516452
29	0xbcfc96d9	-0.030833649
30	0xbc9b90c0	-0.01898992
31	0x3cf10eb3	0.029425954
32	0xbd203e6e	-0.039122038
33	0x3c817620	0.015803397
34	0x3d276c23	0.04087461
35	0xbc456174	-0.01204716
36	0x3cd5999a	0.02607422
37	0x3d0f68ef	0.03501218
38	0xbc02f4b8	-0.007992916
39	0xbaaf366c	-0.0013367659
40	0x3c210f00	0.009830236
41	0xbc0f35b0	-0.008740827
42	0x3cbe11fe	0.023201939
43	0xbd5793ac	-0.052631065
44	0xbd27e08a	-0.04098562
45	0x3c9245e1	0.017855586
46	0xbcfdfdce	-0.031004813
47	0xbd2dceeb	-0.04243366
48	0xbd262f07	-0.040572193
49	0x3c3401fc	0.010986801
50	0xbd028e40	-0.03187394
51	0xbd06febb	-0.032957774
52	0xbd1ca7b1	-0.03824586
53	0xbbb30d76	-0.005464251
54	0x3c052434	0.008126307
55	0xbc794d2c	-0.015216153
56	0xbc0a9392	-0.008458035
57	0xbcaf2f90	-0.021384984
58	0x3c1a5791	0.0094202915
59	0x3ce8fc4f	0.028440623
60	0xbd0cb2dd	-0.034350265
61	0xbc950a44	-0.018193372
62	0xbcf7cf62	-0.030250255
63	0xbd3e80f1	-0.046509687
64	0x3cbfe727	0.023425652
65	0x3c4b95df	0.012425869
66	0xbc6e6146	-0.014549559
67	0xbc23b8b9	-0.009992772
68	0xbd1b5cc8	-0.03793028
69	0x3c9da1c3	0.019242173
70	0x3cad677c	0.02116751
71	0xbd0f0c42	-0.0349238
72	0xbbfb4928	-0.007668633
73	0x3c529e30	0.012855098
74	0xbcc3c871	-0.023899289
75	0xbc910c46	-0.017706048
76	0x3ce8d836	0.02842341
77	0x3c8c2119	0.017105626
78	0x3cbef76d	0.023311341
79	0x3b9cdbd5	0.004786948
80	0xba9169a1	-0.0011094102
81	0x3be0e81b	0.0068636066
82	0x3c80da9b	0.01572924
83	0xbcb5af96	-0.022178452
84	0xbd02ed87	-0.031964805
85	0x3cd1ae7c	0.025595896
86	0x3a92db12	0.0011204204
87	0xbc23e1a6	-0.010002529
88	0x3bdad931	0.0066787233
89	0xbcc191b3	-0.023629045
90	0xbb32a2e5	-0.0027257737
91	0xbce0708f	-0.027397422
92	0xbb03c261	-0.0020104873
93	0xbd21513d	-0.039384115
94	0x3b21857a	0.0024646209
95	0x3d028053	0.03186066
96	0x3cc3850a	0.023867149
97	0xbd017de2	-0.03161419
98	0x3b3e7e5b	0.0029067013
99	0x3b93ae32	0.0045068497
100	0xba498cf4	-0.0007688545
101	0x3b9b284a	0.0047350274
102	0xbcbd569f	-0.023112593
103	0xbc07594f	-0.008261039
104	0xbd1c9e22	-0.038236745
105	0xbc47bf8a	-0.012191663
106	0xbc890713	-0.016727006
107	0xbbda9901	-0.0066710715
108	0x3c65b5cd	0.014020395
109	0xbbf00107	-0.007324341
110	0xbc871bdb	-0.016492775
111	0xbd1493e8	-0.036273867
112	0x3c09f85a	0.008421028
113	0x3c2221e2	0.009895774
114	0x3c3b7874	0.0114422925
115	0xbce5b2e1	-0.028039398
116	0x3c6a1e1f	0.014289408
117	0x3a03511e	0.0005009341
118	0xbc901d87	-0.017592205
119	0x3ae8f82f	0.001777416
120	0x3ce80383	0.028321987
121	0xbd21f65d	-0.03954159
122	0x3bbe9334	0.005815888
123	0x3c3a8acd	0.011385632
124	0xbcff7154	-0.031181969
125	0xbc2032cc	-0.009777736
126	0x3ae2ed00	0.0017313063
127	0xbd06cc7c	-0.032909855
128	0x3d1904ab	0.037357967
129	0x3ca03466	0.019556236
130	0x3c4cb1a5	0.012493526
131	0x3b8cc04b	0.004295384
132	0x3cce35d0	0.025172144
133	0x3b4ca03d	0.003122344
134	0xbc86a11a	-0.016434241
135	0xbcc53cda	-0.024076868
136	0xbd0601d2	-0.03271658
137	0x3c3dc428	0.011582412
138	0x3c80ce26	0.0157233
139	0x3cd989e0	0.026555002
140	0x3b8f45cf	0.0043723355
141	0x3c9b91bc	0.01899039
142	0x3b428f98	0.002968764
143	0xbd04240d	-0.032260943
144	0xbcc59352	-0.0241181
145	0x3c4bdd70	0.0124429315
146	0x3d0b5bb0	0.034022987
147	0x3ce048c0	0.02737844
148	0x3b311130	0.0027018301
149	0xbc403aa2	-0.011732729
150	0x3cdd05cc	0.026980303
151	0x3d10e746	0.03537681
152	0x3d0de2b6	0.034640037
153	0x3c200fc0	0.00976938
154	0x3cb1a332	0.021684263
155	0xbbc6da74	-0.006068522
156	0xbca6c466	-0.020357322
157	0xbbf0fc0c	-0.007354265
158	0x3d0b25f4	0.03397174
159	0x3d0de7f4	0.034645036
160	0x3c813944	0.015774377
161	0x3c927540	0.017878175
162	0x3c1c6464	0.009545419
163	0xbca47077	-0.020073159
164	0xbbfd5a7c	-0.007731734
165	0x3d0695a5	0.032857556
166	0xbcf91b4e	-0.030408528
167	0xbc4448fa	-0.01198029
168	0xbc63460b	-0.01387168
169	0x3c3b356b	0.01142631
170	0xbae7abbb	-0.0017675081
171	0xbbee84f2	-0.007279032
172	0x3b63dbea	0.003476853
173	0xbc44d9d9	-0.01201483
174	0xbd71425b	-0.058901172
175	0xbc8dd18c	-0.017311834
176	0x3cd26375	0.02568219
177	0xbc9ef1d2	-0.019402418
178	0xbcae79ec	-0.021298371
179	0xbd24bf03	-0.040221225
180	0xbbf4bd6e	-0.007468871
181	0xbd107aee	-0.035273485
182	0x3ca60adf	0.020268856
183	0x3a2d58fa	0.0006612685
184	0xbd37aca4	-0.044842377
185	0xbd2f10f9	-0.042740796
186	0xbc17b9d7	-0.009260616
187	0xbd2871d2	-0.041124173
188	0xbb7f4663	-0.0038951866
189	0xbcad7d5b	-0.021177938
190	0x3c165038	0.009174399
191	0xbd2ed224	-0.042680874
192	0x3b0a3cdf	0.002109341
193	0xba8e62ff	-0.0010863243
194	0xbba7488f	-0.005105085
195	0xbd0791ec	-0.033098146
196	0xbd004f2c	-0.031325504
197	0x3cecbcb0	0.028898567
198	0xbac73e1c	-0.0015201005
199	0xbc32a751	-0.010904149
200	0xbcf56ffc	-0.029960625
201	0xbc4a9551	-0.012364701
202	0x3c31b43b	0.010846193
203	0xbcf84404	-0.03030587
204	0xbcabedbe	-0.020987388
205	0xbcad81a9	-0.02117999
206	0xbc004616	-0.00782921
207	0xbc59b7dd	-0.013288465
208	0x3c9e69e2	0.019337598
209	0xbcb5fd97	-0.022215648
210	0x3c306022	0.010765107
211	0xbc11f677	-0.008908859
212	0x3ca60dab	0.02027019
213	0xbd0dd845	-0.03463008
214	0x3d038264	0.032106772
215	0x3cda44c0	0.02664411
216	0xbd0d1147	-0.034440305
217	0xbd17fabd	-0.037104357
218	0xbd18d97a	-0.037316777
219	0x3cc54fd0	0.02408591
220	0xbc1031ea	-0.008800963
221	0x3c5e6f19	0.013576292
222	0x3d04d7cf	0.032432374
223	0xbd135305	-0.035967845
224	0xbc8da083	-0.017288452
225	0xbc59b4e7	-0.013287759
226	0x3c92e109	0.01792957
227	0x3c8a0b19	0.016850995
228	0xbcd1745e	-0.025568184
229	0xbcc21492	-0.02369145
230	0x3ccab827	0.024746014
231	0x3d0664d8	0.032811016
232	0x3be9e2eb	0.0071376464
233	0xbc960df1	-0.018317195
234	0x3c4034d9	0.01173135
235	0xbadb4aeb	-0.0016730701
236	0xbca68d45	-0.020331034
237	0x3cbf2ee4	0.023337789
238	0xbd1c4c82	-0.0381589
239	0xbcdb7b61	-0.02679223
240	0x3cb22419	0.021745728
241	0x3a98c45e	0.0011655202
242	0x3d001183	0.0312667
243	0xbd15c4f4	-0.036564782
244	0x3c2b8350	0.010468319
245	0x3d08d2b4	0.033404067
246	0x3a2b7f6b	0.0006542119
247	0x3c373f1a	0.011184478
248	0xbcf840b6	-0.030304294
249	0xbd0ed70f	-0.034873065
250	0x3c0814ec	0.008305769
251	0x3ca51ac5	0.020154366
252	0xbc9f0b8f	-0.019414691
253	0xbbe30900	-0.006928563
254	0x3ce9101c	0.028450064
255	0xbd00c9d1	-0.031442467

fc1.bias f4 [128]
0	0x3cc7ae0b	0.024374982
1	0xbc1190a0	-0.008884579
2	0x3c58beb1	0.013229058
3	0xbd251562	-0.040303595
4	0xbcd307e1	-0.025760593
5	0x3cd4b654	0.025965847
6	0xbd0be03a	-0.034149386
7	0xbd277081	-0.040878776
8	0x3b99e3fb	0.004696367
9	0x3c7d6fb6	0.0154685285
10	0xbcab9724	-0.020946093
11	0xbce60c84	-0.02808214
12	0xbd13101f	-0.035904046
13	0xbd0d0342	-0.034426935
14	0xbd1b3838	-0.03789541
15	0xbc81e0a0	-0.01585418
16	0xbd171369	-0.036883745
17	0xbca316b2	-0.019908283
18	0x3d7a6a17	0.06113633
19	0xbaff5b94	-0.0019482248
20	0xbba79402	-0.0051140795
21	0x3dc62ef2	0.09676923
22	0xbd2fe157	-0.04293951
23	0x3da750f2	0.08169736
24	0xbd453adb	-0.048151832
25	0x39199a3e	0.00014648677
26	0xbbbac926	-0.0057002483
27	0xbcf05da1	-0.02934152
28	0xbcdf2369	-0.027238565
29	0x3c8d2c0e	0.017232921
30	0xbd1242e2	-0.035708316
31	0x3caa7de5	0.020811984
32	0xbd0e1e3c	-0.034696802
33	0x3c650e29	0.013980427
34	0xba071145	-0.00051524147
35	0xbd3ed4bc	-0.046589598
36	0xbcccdae9	-0.025006728
37	0xbd206cbe	-0.039166205
38	0xbcb76b95	-0.022390166
39	0x3b51edc7	0.0032032595
40	0x3ca8dad5	0.02061216
41	0x3dc59df8	0.09649271
42	0xbd04b1bb	-0.03239606
43	0xbcc64c70	-0.02420637
44	0xbc9d6654	-0.019213833
45	0xbd131811	-0.035911623
46	0x3bd1d6fc	0.006403802
47	0x3bcd840e	0.0062718457
48	0xbd11f866	-0.03563728
49	0x3cf0ad48	0.029379502
50	0x3d0acca8	0.03388658
51	0x3cd53df6	0.026030522
52	0x3bbc1d24	0.0057407785
53	0x3dc22755	0.09480158
54	0xbbee91df	-0.007280573
55	0xbd1413d4	-0.036151722
56	0xbd1097a5	-0.03530087
57	0x3bfd2cba	0.007726279
58	0xbc8df625	-0.017329285
59	0xbcb67e40	-0.022276998
60	0xbd29930c	-0.0414
61	0x3dbbcc49	0.09169824
62	0xbd0b2838	-0.033973902
63	0xbcccb258	-0.024987385
64	0xbc8038a5	-0.01565201
65	0x3ccf561a	0.025309611
66	0x3ded8c26	0.11598997
67	0xbbcf2850	-0.0063219443
68	0x3c42722e	0.011868043
69	0x3c8c32ee	0.017114129
70	0xbbcf1a8f	-0.0063203047
71	0x3ba3b54c	0.0049959775
72	0xbc1a46aa	-0.009416262
73	0x3c37fef0	0.011230215
74	0xb9523993	-0.00020048609
75	0x3c3f61e1	0.011681051
76	0xb71cd6bf	-9.348324e-06
77	0xbd108ff2	-0.035293527
78	0x3c24c5eb	0.010056953
79	0xbb9630c7	-0.0045834514
80	0xbc8cf194	-0.017205037
81	0xbbdf9ee9	-0.0068243635
82	0x3be9b3ed	0.0071320445
83	0x3caae6c8	0.020861998
84	0x3c05824b	0.00814874
85	0x3cdfdbe4	0.027326532
86	0xbcecac97	-0.028890891
87	0xbcd58422	-0.026063982
88	0xbd1f81b7	-0.038942065
89	0x3daa1d92	0.08306421
90	0xbd89032b	-0.06690057
91	0x3de9ac18	0.114097774
92	0x3c294104	0.010330442
93	0xbcb053f3	-0.021524405
94	0xbad9abbd	-0.0016606968
95	0xbd247517	-0.040150728
96	0x3ae0e08b	0.0017156763
97	0xbb9051e6	-0.0044042943
98	0xbbe2c3ca	-0.0069203125
99	0x3c35a84d	0.011087489
100	0xbd13e8ce	-0.03611069
101	0xbc2e1301	-0.010624648
102	0xba011370	-0.0004923856
103	0x3c91188b	0.017711898
104	0x3a90a9e1	0.0011036956
105	0xbc77a3da	-0.015114749
106	0xbd1be2c8	-0.038058072
107	0xbc84139c	-0.016122632
108	0x3df138bb	0.117783986
109	0x3c567b46	0.013090914
110	0xbbff73e1	-0.0077957963
111	0xbc532ecf	-0.012889578
112	0x3de43084	0.11142066
113	0x3cae0f36	0.021247488
114	0xbd79e941	-0.061013464
115	0xbd05bf9a	-0.03265343
116	0x3c2b49f4	0.0104546435
117	0x3c8e65bf	0.0173825
118	0xbcaffb2c	-0.021482073
119	0x3d6a54de	0.057209842
120	0xbd786b4c	-0.0606492
121	0xbc42dcf4	-0.0118935
122	0xbc4ef96a	-0.012632707
123	0xbd4c0d97	-0.049817648
124	0x3dff0ee3	0.12454011
125	0xbd36e0ba	-0.04464791
126	0x3d079214	0.033098295
127	0xbd6f806b	-0.05847208

fc2.weight f4 [128, 128]
0	0xbdb22dbd	-0.0870013
1	0xbd717dce	-0.058957867
2	0xbc1a4b7c	-0.009417411
3	0xbc3831d8	-0.011242352
4	0x3cf56e36	0.02995978
5	0x3d747ab9	0.05968735
6	0xbd45646c	-0.048191473
7	0x3d554269	0.052065287
8	0xbb066cce	-0.002051163
9	0x3d08b23d	0.033373106
10	0x3ce2653d	0.027636165
11	0xbd048aa1	-0.03235877
12	0xbd9eed8f	-0.077601545
13	0x3d0f4a94	0.034983233
14	0x3da7e7dd	0.08198521
15	0xbd3111d3	-0.04322989
16	0xbd3c8e73	-0.046034288
17	0x3cef315e	0.029198345
18	0x3bb0fba5	0.005401092
19	0x3d2be00e	0.041961722
20	0x3dafa94f	0.08577215
21	0x3d77ceae	0.06049984
22	0x3c89aad2	0.016805086
23	0xbd3857f7	-0.045005765
24	0x3d58cb7e	0.05292844
25	0xbb18ef80	-0.0023336112
26	0x3d8604f3	0.06543913
27	0xbbcd4e96	-0.0062654717
28	0xbc686a18	-0.014185451
29	0xbb06a055	-0.0020542343
30	0x3db7f099	0.08981437
31	0x3d62903e	0.05531334
32	0xbda3eea2	-0.080045
33	0xbd06d9df	-0.03292262
34	0x3da1dfc7	0.0790401
35	0xbdc26d71	-0.094935305
36	0xbdb0e63c	-0.08637664
37	0x3db37876	0.087632105
38	0x3dabc303	0.08386805
39	0xbd83140d	-0.06400309
40	0xbd835cc0	-0.06414175
41	0xbd9bad10	-0.076013684
42	0x3ccf3064	0.02529163
43	0xbbe8c45c	-0.007103486
44	0xbd1e7d27	-0.038693573
45	0x3d9bcae9	0.076070614
46	0x3d64dba6	0.055873536
47	0x3ca77641	0.02044213
48	0xbd53e08a	-0.05172781
49	0xbda2b72c	-0.079450935
50	0xbc07636c	-0.00826345
51	0x3d2739d0	0.04082662
52	0x3d56b372	0.052417226
53	0x3dea6cf8	0.114465654
54	0xbc384928	-0.011247911
55	0x3db52454	0.0884482
56	0x3cfa3a20	0.030545294
57	0xbcd08124	-0.025452204
58	0xbc34a490	-0.011025563
59	0xbd9bb23f	-0.07602357
60	0xbca2527c	-0.019814722
61	0x3dcf234f	0.101141565
62	0xbdb0b1b9	-0.08627648
63	0x3dce890d	0.10084734
64	0xbd0d72c2	-0.03453327
65	0x3d13cc00	0.03608322
66	0x3dfa0627	0.12208205
67	0xbd596b09	-0.053080592
68	0x3d6ee181	0.058320526
69	0xbd7d6b0c	-0.061869666
70	0x3d283318	0.04106435
71	0x3db1b507	0.08677106
72	0xbd2f8c25	-0.04285826
73	0x3c6b2f20	0.014354497
74	0x3ad10b00	0.0015948713
75	0x3d17663a	0.036962725
76	0x3cc30f58	0.023811027
77	0x3d1bb59b	0.03801499
78	0xbbebce40	-0.007196218
79	0xbcba5384	-0.022744901
80	0xbc22fa3b	-0.009947355
81	0xbd9ce8e3	-0.07661607
82	0xbd534d23	-0.051587235
83	0x3bb9f454	0.005674878
84	0xbda37408	-0.079811156
85	0xbd720197	-0.059083547
86	0xbd833e61	-0.06408382
87	0x3d19f54a	0.03758744
88	0xbd4dff51	-0.050292317
89	0xbe1c9717	-0.15292011
90	0xbd64739c	-0.055774316
91	0xbc7f9463	-0.015599343
92	0x3d351482	0.04420901
93	0x3d707f2a	0.058715023
94	0x3d0002b9	0.031252597
95	0xbd916870	-0.07099998
96	0x3c42e825	0.011896168
97	0xbd3d0eb8	-0.046156615
98	0x3d4d833e	0.05017399
99	0x3d1ed1fe	0.038774483
100	0x3d0eac9c	0.034832582
101	0xbd172dcc	-0.03690891
102	0x3d870c9d	0.06594203
103	0x3d9f7c15	0.07787339
104	0x3ccbeb14	0.024892367
105	0x3d4564f6	0.048191987
106	0x3c1246e8	0.008928038
107	0xbd222279	-0.039583657
108	0x3d34daa7	0.044153836
109	0xbd95e432	-0.073189154
110	0xbcbb90d0	-0.0228962
111	0x3cdbaa90	0.026814729
112	0x3da743ae	0.08167206
113	0xbcb90b00	-0.022588253
114	0xbd753e4f	-0.059873875
115	0xbd3dde79	-0.046354745
116	0xbd8896fd	-0.06669424
117	0xbd983dd6	-0.07433669
118	0xbdaee5de	-0.085399374
119	0xbda8b0a2	-0.08236815
120	0x3cb1981e	0.02167898
121	0xbc4236d8	-0.011853896
122	0xbd4f4de7	-0.050611403
123	0xbb179a21	-0.002313264
124	0x3d9af53f	0.07566308
125	0xbd23ecc8	-0.040020734
126	0xbd8c512f	-0.06851422
127	0xbd512c67	-0.051067736
128	0xbd800d9e	-0.06252597
129	0xbcfef13e	-0.031120893
130	0xbdaacb6c	-0.08339581
131	0x3beb4690	0.0071800426
132	0xbaa4a49b	-0.0012561263
133	0x3c807ce1	0.015684547
134	0xbdca189c	-0.09867975
135	0xbc3ca870	-0.011514768
136	0x3d8e8537	0.069590025
137	0x3d130a5b	0.035898548
138	0x3aaed528	0.0013338672
139	0x3d177cfe	0.036984436
140	0xbd1669c2	-0.036721952
141	0x3b912d90	0.0044304803
142	0x3d4a2c26	0.04935851
143	0xbd318530	-0.043339908
144	0x3d1e38a4	0.038628235
145	0x3d19c51c	0.037541494
146	0xbb4d7352	-0.0031349254
147	0xbcbfb830	-0.023403257
148	0xbc07cf73	-0.008289206
149	0xbce5fc98	-0.028074548
150	0x3d9aad9b	0.07552644
151	0xbd659ce0	-0.05605781
152	0x3da8c751	0.082411416
153	0x3d5f50be	0.05452036
154	0xbd96e008	-0.07366949
155	0xbc2f7705	-0.010709529
156	0xbd9cce07	-0.07656484
157	0x3d3fe84a	0.046852387
158	0x3da9f031	0.08297766
159	0xbcf160bc	-0.029465072
160	0xbd0e236b	-0.034701746
161	0x3cafad08	0.021444812
162	0xbd0b0e92	-0.033949442
163	0xbdbc1908	-0.09184462
164	0xbd96bd0f	-0.07360279
165	0xbd3c7769	-0.046012316
166	0x3d157584	0.036489025
167	0xbda02185	-0.07818893
168	0xbd795df1	-0.060880605
169	0x3c8217f6	0.015880566
170	0xbcbe9fb0	-0.023269504
171	0xbd9ba7ac	-0.0760034
172	0xbd63e54f	-0.055638608
173	0xbccea0b0	-0.025223106
174	0x3ca3a66f	0.019976823
175	0xbc1a3b99	-0.009413623
176	0xbd89e322	-0.06732775
177	0x3d97fb79	0.074210115
178	0x3c9ad6c0	0.018901229
179	0xbd3b9d2e	-0.045804195
180	0xbc123010	-0.008922592
181	0x3de6bdb5	0.112666525
182	0x3d401f23	0.046904694
183	0xbd941e12	-0.07232298
184	0xbd2a7b97	-0.04162177
185	0xbc468ce0	-0.012118548
186	0xbd85a588	-0.06525713
187	0x3c6a564d	0.014302802
188	0xbd8aacbe	-0.06771229
189	0x3d5de8a2	0.054176934
190	0xbca3e950	-0.020008713
191	0xbdcb466e	-0.09925543
192	0xbd45daf3	-0.04830451
193	0x3ccfef51	0.02538267
194	0x3d34843c	0.04407142
195	0x3c5eb7e4	0.013593648
196	0xbbcf1742	-0.006319911
197	0x3cbb72ac	0.022881828
198	0xbcc673ae	-0.024225082
199	0x3ce35e28	0.027754858
200	0xbcb26206	-0.021775257
201	0xbd254bdb	-0.040355545
202	0xbc8611c4	-0.016365893
203	0x3c746d20	0.014918596
204	0xbd8f487d	-0.06996248
205	0x3cb45498	0.022012994
206	0xbd2014a3	-0.03908218
207	0x3d85d4cb	0.06534728
208	0xbc0b55b7	-0.008504323
209	0xbc729c52	-0.0148077775
210	0xbd56c64d	-0.052435208
211	0x3d8a3b72	0.067496195
212	0x3d0a594c	0.033776566
213	0xbd01b35c	-0.03166519
214	0xbc9f24ea	-0.019426782
215	0xbaeb2030	-0.001793867
216	0xbd115a30	-0.0354864
217	0xbda264c9	-0.079293795
218	0xbd94559d	-0.07242892
219	0x3cf86cdd	0.030325348
220	0xbc0849e0	-0.008318394
221	0x3d3cccee	0.046093874
222	0xbcdd5cb9	-0.027021753
223	0xbdaba20c	-0.08380517
224	0xbd459d15	-0.04824551
225	0xbd927055	-0.07150332
226	0x3d4adeba	0.049528815
227	0x3c3f4488	0.011674054
228	0xbd3e73b0	-0.046497047
229	0x3cd01b58	0.025403664
230	0x3d8aa4cf	0.06769716
231	0x3d06f38e	0.032947116
232	0xbc3318a0	-0.010931164
233	0x3c65b0a8	0.014019169
234	0xbd75a19a	-0.05996857
235	0x3d32d75a	0.043662407
236	0x3de6edf9	0.112758584
237	0xbbff2602	-0.0077865133
238	0x3d1348f2	0.035958238
239	0x3d1ff7d2	0.0390547
240	0x3b92e0ba	0.004482356
241	0x3d4e62be	0.050387137
242	0xbdd19f0a	-0.102354124
243	0xbd5b93ec	-0.053607866
244	0x3c6024c8	0.013680644
245	0x3d886e81	0.06661702
246	0xbda63a54	-0.08116594
247	0x3d5e84a5	0.05432572
248	0xbcc57e37	-0.024108035
249	0xbd8d61c5	-0.06903414
250	0x3d73af3d	0.059493292
251	0x3dcd939e	0.10037921
252	0x3e2a9599	0.1665863
253	0xbdb10169	-0.08642847
254	0x3dac5d98	0.08416289
255	0x3d33c197	0.043885794

fc2.bias f4 [128]
0	0x3d4a581f	0.049400445
1	0x3d6d1598	0.05788192
2	0x3d0b0f0c	0.033949897
3	0x3d95f28f	0.07321655
4	0x3d417864	0.047233954
5	0x3db58a2c	0.08864245
6	0x3e1d41d6	0.15357146
7	0x3de253fa	0.110511735
8	0xbd19550f	-0.037434634
9	0x3dc52eaf	0.09628045
10	0xbd5c9d0b	-0.053860705
11	0xbc06cbd0	-0.008227304
12	0x3e10b9a9	0.14133324
13	0x3d2cfaea	0.042231478
14	0xbdcfc205	-0.10144428
15	0x3da23ae3	0.07921388
16	0x3d809305	0.06278042
17	0x3dcb4393	0.09924998
18	0x3dbb2af4	0.09139052
19	0x3a5b00c7	0.0008354303
20	0xbd0082f2	-0.03137488
21	0x3daca6d0	0.084302545
22	0x3dda6fc7	0.10665851
23	0x3e4b460a	0.19850937
24	0x3e083622	0.133019
25	0x3cf0b79e	0.02938443
26	0x3dd58f93	0.10427775
27	0x3e0cb667	0.13741456
28	0x3bb03d79	0.005378422
29	0x3c1b6fb7	0.009487084
30	0x3d957655	0.07297961
31	0x3d5b9769	0.053611193
32	0x3e2f244b	0.17103688
33	0xbdb91b94	-0.09038463
34	0x3e3f4f43	0.1868258
35	0x3c871a83	0.016492134
36	0x3ce398c0	0.027782798
37	0x3e3279ef	0.17429326
38	0xbd836a67	-0.06416779
39	0xbcac82de	-0.021058496
40	0x3d3f6338	0.04672548
41	0x3ba8645f	0.0051389183
42	0xbc9a8d70	-0.01886627
43	0x3c88ef0e	0.016715553
44	0x3e256028	0.16149962
45	0x3deb2517	0.11481684
46	0x3d48b029	0.048996124
47	0x3c757e69	0.014983752
48	0xbe06fcaa	-0.13182321
49	0x3cd9eed3	0.026603138
50	0x3de32392	0.11090769
51	0x3d51e7b2	0.051246352
52	0x3cfddb6c	0.030988418
53	0x3bd75aa0	0.0065720826
54	0x3e35c679	0.17751493
55	0x3dc27a65	0.09496001
56	0x3c01f895	0.007932802
57	0x3da839a8	0.08214122
58	0xbcf65844	-0.030071385
59	0x3d1b2e67	0.03788605
60	0x3c215318	0.009846471
61	0xbd419c70	-0.04726833
62	0x3e31e8d7	0.17373978
63	0xbccc7a88	-0.024960771
64	0xbbac6c5c	-0.005261941
65	0xbd8a6c42	-0.0675893
66	0xbd0dfce9	-0.034665022
67	0x3d922466	0.07135849
68	0x3dbfbbb6	0.09361975
69	0x3de37c26	0.11107664
70	0x3db05aaa	0.08611043
71	0x3d96c318	0.0736143
72	0xbd6d9184	-0.058000103
73	0x3dc278af	0.09495675
74	0x3c3355d9	0.010945761
75	0x3d009aec	0.031397745
76	0x3cdbdfa0	0.026840031
77	0x3d60cfd7	0.05488571
78	0xbe0d7fed	-0.13818331
79	0xbc216763	-0.0098513095
80	0x3d1e654e	0.03867083
81	0x3d26f9b2	0.04076547
82	0x3e340106	0.17578515
83	0x3c963953	0.018337881
84	0x3d3c18e6	0.045922183
85	0x3c016a89	0.007898935
86	0xbd17d411	-0.037067477
87	0x3ded244a	0.11579187
88	0xbe252620	-0.16127825
89	0x3e2bbb98	0.1677078
90	0x3dedc845	0.11610464
91	0x3e2688ec	0.16263169
92	0x3cecaace	0.02889004
93	0x3c7af135	0.015316297
94	0x3cf790b1	0.030220361
95	0x3e1b4a37	0.1516503
96	0x3d31701b	0.043319803
97	0x3c83bdaf	0.01608166
98	0x3d18389e	0.03716337
99	0x3defd949	0.11711366
100	0xbbc4d619	-0.0060069677
101	0x3cd4c98d	0.025975013
102	0x3c564dae	0.013080044
103	0x3d6a1040	0.057144403
104	0x3dbbe6ea	0.09174903
105	0x3e366865	0.17813261
106	0x3c9c55b3	0.019083833
107	0x3c8ea4a0	0.017412484
108	0x3e3ef86f	0.18649457
109	0x3e189db7	0.14903913
110	0xbcd4a472	-0.02595732
111	0xbd315c3a	-0.043300845
112	0xbda9fb63	-0.08299901
113	0x3e28ed09	0.16496672
114	0x3da5210f	0.08062946
115	0x3e3f5880	0.18686104
116	0x3e20e792	0.15713337
117	0x3d4e83e1	0.05041874
118	0x3e8012f8	0.25014472
119	0x3dfa10fe	0.12210272
120	0x3e0e4158	0.13892114
121	0x3c81ec6f	0.01585981
122	0x3e0e277b	0.13882248
123	0xbdbb1980	-0.09135723
124	0x3e872b44	0.26400197
125	0x3dd123d2	0.1021191
126	0xbd0325c9	-0.032018457
127	0xbd0d9561	-0.034566287

fc3.weight f4 [128, 128]
0	0x3a2aa80a	0.0006510025
1	0xbce49ee1	-0.02790779
2	0xbe07adb4	-0.13249856
3	0xbd1ccea7	-0.038283017
4	0xbbe7321f	-0.0070555354
5	0x3d4430da	0.04789815
6	0x3ce53854	0.02798096
7	0xbd2302e9	-0.039797697
8	0x3dc83fa9	0.09777767
9	0xbd63fbf1	-0.055660192
10	0xbdcf360b	-0.1011773
11	0x3c968472	0.018373702
12	0x3c4f903d	0.012668666
13	0x3cff8e99	0.031195926
14	0x3d7ac716	0.06122502
15	0x3b01673f	0.0019745377
16	0xbcc08f82	-0.02350593
17	0xbd860620	-0.06544137
18	0x3cabd6e5	0.020976493
19	0x3cd3cfae	0.025855865
20	0x3d548a84	0.05188991
21	0xbd0f707b	-0.03501938
22	0xbd38bcd5	-0.04510196
23	0xbca4fa79	-0.020138966
24	0xbda80950	-0.08204901
25	0xbd984167	-0.074343495
26	0xbda6d5e3	-0.081462644
27	0x3b7f860b	0.0038989808
28	0xbc627fd3	-0.013824421
29	0x3bdedef9	0.0068014828
30	0xbd2e50d8	-0.042557567
31	0x3b8765ea	0.004132022
32	0xbba59979	-0.0050536958
33	0xbd89a192	-0.0672027
34	0x3d194114	0.03741558
35	0x3e02228d	0.12708493
36	0x3c29f086	0.010372287
37	0xbdbe1bce	-0.09282647
38	0xbd6ac81f	-0.057319757
39	0xbc0053f2	-0.007832514
40	0xbd87ed05	-0.06637005
41	0xbd31af2d	-0.04337995
42	0x3dddcf96	0.108306095
43	0xbdb29025	-0.087189
44	0xbd7e9a55	-0.0621589
45	0xbd68c60c	-0.056829497
46	0xbca6d9a8	-0.020367458
47	0x3da3af15	0.079923786
48	0xbd744614	-0.059637144
49	0x3d936fe6	0.07199077
50	0x3d20a6f0	0.039221704
51	0x3dcb306b	0.09921344
52	0x3c9e31db	0.019310882
53	0xbd8c495e	-0.06849931
54	0xbd349164	-0.044083968
55	0xbd705e22	-0.058683522
56	0xbd00ccfc	-0.03144549
57	0xba9165b4	-0.0011092932
58	0x3dd9ee0d	0.10641108
59	0xbe063686	-0.13106737
60	0x3dcb7099	0.09933586
61	0x3c60f294	0.01372971
62	0xbc832252	-0.016007576
63	0x3d3b2800	0.045692444
64	0x3c936524	0.017992564
65	0x3dcd025f	0.10010218
66	0xbd097fbf	-0.033569094
67	0x3c57dabe	0.013174711
68	0x3cc0a7c7	0.023517502
69	0xbd439798	-0.047751993
70	0xbd05e0cd	-0.03268509
71	0x3ccc82dd	0.024964744
72	0x3d9c4f7d	0.07632349
73	0x3c9d744a	0.01922049
74	0x3d354f0e	0.044264846
75	0x3d0c790f	0.034295138
76	0xbd384289	-0.044985328
77	0xbd906fac	-0.0705255
78	0x3c083f22	0.008315833
79	0x3c61465c	0.013749685
80	0xbddace97	-0.10683935
81	0x3c1758be	0.009237466
82	0xbc0b3494	-0.008496422
83	0x3e3d2f5d	0.18475099
84	0xbdcb035c	-0.0991275
85	0x3e18ecc8	0.14934075
86	0x3dca0c29	0.098656006
87	0xbda37443	-0.079811595
88	0x3da6eb7f	0.08150386
89	0xbd5042fc	-0.05084513
90	0x3c4e3271	0.012585268
91	0x3c5ab420	0.013348609
92	0x3c657a3c	0.014006194
93	0x3d766db6	0.060163222
94	0x3d8a3bb5	0.067496695
95	0xbcb2be73	-0.021819329
96	0x3c04311d	0.00806835
97	0x3d0999a6	0.033593796
98	0xbd8aba66	-0.06773834
99	0x3e103ecb	0.14086454
100	0x3b598fba	0.003319724
101	0x3d61b2e9	0.055102263
102	0x3cfffb0c	0.031247638
103	0xbd77f719	-0.060538385
104	0xbca999dd	-0.02070325
105	0xbd193039	-0.037399504
106	0xbce7399c	-0.028225712
107	0x3daa5f8e	0.08319007
108	0x3bca48f7	0.006173249
109	0x3d5a1a8c	0.053247973
110	0x3d8e702a	0.06954987
111	0xbcbcb775	-0.023036698
112	0xbc5454ef	-0.012959703
113	0xbcce8c18	-0.025213286
114	0xbda4661c	-0.08027288
115	0xbd5d5690	-0.05403763
116	0x3c646897	0.013940952
117	0x3da3af91	0.07992471
118	0xbd68d4f4	-0.056843713
119	0xbda7f671	-0.08201302
120	0xbddadc0b	-0.10686501
121	0xbd9bab34	-0.07601014
122	0xbbe106c2	-0.0068672607
123	0xbd72805e	-0.05920445
124	0x3d3c6aa3	0.046000134
125	0x3c689324	0.014195237
126	0xbd87ba65	-0.06627349
127	0x3d90dbdb	0.07073184
128	0xbc028be3	-0.007967922
129	0x3dc7c5fc	0.097545594
130	0x3baa470c	0.0051964577
131	0x3ddb5c1b	0.10710927
132	0x3d44c29c	0.048037156
133	0x3daee994	0.08540645
134	0x3dda079c	0.106459826
135	0x3e0fc676	0.1404055
136	0xbcef27c5	-0.029193768
137	0x3dc033ce	0.09384881
138	0xbcaa1173	-0.020760274
139	0x3c854187	0.016266597
140	0x3d4c8468	0.04993096
141	0x3d956074	0.072937876
142	0x3d06fef2	0.03295798
143	0xbcd1ac93	-0.025594985
144	0x3b57e00d	0.003293994
145	0x3daa9031	0.083282836
146	0xbb9bf1f9	-0.00475907
147	0x3dc2363b	0.09483
148	0xbd80f7cb	-0.06297263
149	0x3dd7d6e3	0.10539033
150	0x3d6320c3	0.055451166
151	0x3d8f0fee	0.0698546
152	0x3d85f8d2	0.06541599
153	0xbd7e1e58	-0.062040657
154	0xbcd5ed18	-0.026114032
155	0x3e001846	0.1250926
156	0xbdf3af36	-0.11898653
157	0x3c824e80	0.015906572
158	0x3d73c9a8	0.059518486
159	0x3ccac104	0.02475024
160	0x3d96a4f9	0.07355685
161	0x3e148528	0.1450392
162	0x3d070688	0.032965213
163	0x3dddbb3a	0.10826726
164	0x3c1e0eb8	0.009647064
165	0xbcc87dcb	-0.024474045
166	0xbd47de3b	-0.04879592
167	0xbdb32d32	-0.08748855
168	0x3dbe376c	0.09287915
169	0xbe0434b3	-0.12910728
170	0xbdd33c77	-0.10314267
171	0xbc77bf2d	-0.015121263
172	0x3d86d635	0.065838255
173	0x3d7695d1	0.06020147
174	0x3cb5e9fc	0.022206299
175	0xbd8fc860	-0.070206404
176	0x3d633bd6	0.055476986
177	0xbcb85c4f	-0.022504954
178	0xbcfac4f5	-0.030611495
179	0x3d48778a	0.048942126
180	0xbbc454fc	-0.0059915762
181	0x3d8276c4	0.06370309
182	0xbc40be46	-0.011764115
183	0x3d935212	0.07193388
184	0x3d8be76c	0.068312496
185	0xbd8a3ff4	-0.06750479
186	0xbdd46334	-0.10370484
187	0x3d0079ff	0.031366345
188	0xbd9dd34c	-0.07706317
189	0xbdd183ec	-0.1023024
190	0x3d3e3765	0.046439547
191	0xbd2cacee	-0.042157106
192	0x3d9fc16c	0.07800564
193	0xbda2575d	-0.079268195
194	0xbbb1d6ed	-0.0054272325
195	0x3dac6d3c	0.08419272
196	0x3d313168	0.043260008
197	0x3dde817f	0.10864543
198	0x3da72b29	0.08162529
199	0x3d9bed43	0.076136135
200	0x3d67523c	0.05647491
201	0x3c97ad63	0.018515294
202	0xbbccc77d	-0.006249367
203	0x3cd0f3f3	0.025506949
204	0xbdb663bc	-0.089057416
205	0x3df78e5e	0.12087701
206	0x3c7bf546	0.015378302
207	0xbd8f50d1	-0.069978364
208	0x3e076294	0.13221198
209	0xbd0219f7	-0.031763043
210	0x3dcc35b9	0.09971184
211	0xbcc08495	-0.02350072
212	0x3d4461a0	0.047944665
213	0x3d5df9c0	0.05419326
214	0xbdc6be00	-0.097042084
215	0x3dbe3d05	0.09288982
216	0x3bf8424a	0.0075762616
217	0xbd1351c3	-0.035966646
218	0x3bb9a9ee	0.005666009
219	0xbd998296	-0.074956104
220	0x3c8abe32	0.016936395
221	0xbd09ab4d	-0.03361063
222	0xbd106ee6	-0.03526201
223	0x3d46b784	0.048514858
224	0x3db27fce	0.08715783
225	0xbd9f49d9	-0.07777757
226	0x3d93b1f4	0.07211676
227	0x3d5757ae	0.052573852
228	0xbc8bb263	-0.017052835
229	0xbd1a06e2	-0.03760422
230	0x3d153b99	0.03643379
231	0x3e15696b	0.14590995
232	0xbb97e4f7	-0.004635449
233	0x3d9de601	0.077098854
234	0xbcf14c3a	-0.029455293
235	0x3d72a855	0.059242565
236	0x3cedd0ad	0.029030168
237	0xbcc5bb98	-0.024137303
238	0xbda57d50	-0.08080542
239	0xbd164e25	-0.03669562
240	0x3d82adf0	0.06380832
241	0x3c768ba6	0.015047943
242	0x3d6c7094	0.05772455
243	0xbc260eaf	-0.010135337
244	0x3d4745f6	0.048650704
245	0xbd20708e	-0.03916984
246	0xbdf92dd8	-0.12166947
247	0xbc3919df	-0.011297672
248	0x3cbd7bcd	0.023130322
249	0xbda0b2ac	-0.07846579
250	0x3d1751b9	0.03694317
251	0xbdaeb96e	-0.08531462
252	0x3cb23ab5	0.02175651
253	0x3d96cc74	0.07363215
254	0xbdf2adba	-0.11849542
255	0xbe04f0d1	-0.12982489
