models/dqn_model_epoch_76000.pth (torch, 595624 bytes, 14 tensors)

cnn1.weight f4 [16, 4, 5, 5]
00000000: 1663 47be e76f 333d bc08 c9bc c29b 49be
00000010: 765c 12be 427e 4bbe a291 46be fe62 94be
00000020: 749a 0ebd 0954 69bd 8db7 8bbe 2c40 24be
00000030: 0971 c2be cde0 15be 5e8e 143d b621 2abe
00000040: afac 5abe 8bd3 23bd b430 83be 3544 453c
00000050: 39f9 56be 9fa0 81be d923 41be 57c8 883d
00000060: c1b0 d73c 1c05 70bc 55bf 0abd 97e9 c1bd
00000070: fd41 10be 5455 e33c 7da3 833d ca4a ddbc
00000080: 66b0 d03c a2a9 88bd 7022 93bd 0104 41bd
00000090: bd3d 0dbe b0fb 853c ab16 093e 5f5d e8bc
000000a0: 49fd d3bd e82e a83c 68a1 adbd 3ed1 a13c
000000b0: 1700 04be 2015 02bd 83e3 993d 3a40 2abd
000000c0: cd2a 89bd f16e b2bd b7f3 a93d c8a7 27bc
000000d0: 4512 07be 6baf 52be 2c5a d4bc 3292 c7bc
000000e0: 271f b3bd b118 383e ae02 4b3d c5f4 1dbe
000000f0: 4143 6a3e 864a 6c3e 9269 043e e0b4 f13c
00000100: 996c 57be 1cc8 90be 3859 233e 5d4e 913e
00000110: 42f3 05be 7fa0 2abe 6e03 24be bfc6 83bc
00000120: 1b6f a33e 8ddc 06be d034 1cbe 0892 bfbd
00000130: a856 7abe 2c86 b8bd a3c5 a7bb e6cc 87bd
00000140: 8964 2bbd d9a9 e13d a449 183e 93f0 c0bd
00000150: 4ce3 093d 5bf0 26be e924 963d b82a a53d
00000160: 6a97 bfbd 09e2 a8bd d08c 03be 8025 b3bb
00000170: 57a3 983d 20d5 c8bc f8bd f2bd d001 b93d
00000180: b8c5 f03d 2d76 3abe 298e 8fbd 7415 75bd
00000190: 0ff1 f2bd 1695 85be 7f2a 35be 0e60 0b3d
000001a0: 018e 67be 7142 01be 44cc a7bd 30e3 d4bb
000001b0: a64f bf39 4609 ae3b 2b10 0cbe 774d 4abd
000001c0: f901 943c 150b 81bd 4e25 7abd de71 1fbe
000001d0: 36ea 67be 02e8 33be ad8a bdbe ee1a 6ebd
000001e0: 3907 84be 4aae 62be 426b c5bd 50b5 8cbd
000001f0: ebd3 ffbd 1e15 42bd 97b8 aa3d 42b3 72bd
00000200: a2dd 0f3d d5aa 06be 6065 88bc 724a 1ebd
00000210: f05f e1bd 0376 bb3c 9805 55bb 7425 a6bc
00000220: 1009 4ebd a620 12be bd42 47bd 6dc4 d2bc
00000230: 2b91 0bbe 2cc5 ccbc 1247 513d 36bb 48bd
00000240: fc7c dabd 14aa 1fbb 7973 053d d58f 8cbd
00000250: 8d0f d43d f2a1 e8bd e5da 42be 88d5 2d3e
00000260: b645 5fbd 5800 1b3e 4c57 17be c6ee 3ebe
00000270: 034b 363e fe16 51be 4cb5 a73d e4ca 20be
00000280: 7bde 8bbe c92f 80be d651 b33d 1320 c63d
00000290: 1365 57be 3b49 7cbe 7cc5 0cbe 78c5 833e
000002a0: a799 41be 70da 6ebe c563 c73e e3fd 973e
000002b0: 5116 d43e 89e4 66bd 707b 29be 8912 543e
000002c0: c99f 083e 1df3 723e 909f 8dbc f87b a8bd
000002d0: 47a0 ef3d 09ee f4bd 05bf 1b3e f743 04be
000002e0: 40c8 e0bd 1281 28be cab9 bd3d 3852 813d
000002f0: 6948 a6bd a3cb 1cbe fe26 2bbe 198e ebbc
00000300: 44c6 abbd 0e2a 00be 4245 25bd 4304 0abe
00000310: 9cb4 f1bd 5ad3 3c3e 7d25 03be af90 0ebe
00000320: 7006 99be ba42 99bd 2d94 b0be d0b4 463d
00000330: 690d 3abe ea39 64be 7a11 1fbe 3ff8 42be
00000340: 124c 1d3d 0ffc 9b3b ec3b 78be 53c0 5fbe
00000350: 1adf fabd 34ed eb3c d845 353e e280 7ebe
00000360: 9a66 6abe d06a 94be 76aa 21be 107e 093e
00000370: ab84 79be 7620 05be c2cf 74be f310 563d
00000380: af56 85bd 5222 05be 8b96 44bc e7d4 0ebe
00000390: 55d8 abbd 66b8 16bd 734d 86bb a33e b4bc
000003a0: 8b97 803d ff78 babd 28a8 e83c dba7 91bc
000003b0: 5568 c93c 3bbb 4cbc 082d cfbd 1bf9 81bb
000003c0: 5cef 61bb c68b b1bd 7b9a 243c faf5 3b3e
000003d0: bd0f 00bc 5919 b0bd 832e 1bbe 2ee8 65bd
000003e0: b027 bb3d 72c9 3fbc 4494 993d 6364 fc3c
000003f0: a62b 503d 0130 cbbe 74a5 79bd a152 c73c
-0.19471392 0.04380789 -0.024540298 -0.19688323 -0.14293084 -0.19872382 -0.19391492 -0.28981775
-0.034815267 -0.056964908 -0.27288476 -0.16040105 -0.37976864 -0.14636536 0.036268584 -0.16614422
-0.21354936 -0.039996665 -0.25623095 0.012040188 -0.20993508 -0.25317857 -0.18861331 0.06678837
0.0263294 -0.014649656 -0.033873875 -0.09468382 -0.14087673 0.027750649 0.06427667 -0.027013201
0.025474738 -0.0667298 -0.07184303 -0.04712296 -0.13793083 0.016355366 0.13387553 -0.028364835
-0.10351045 0.02053018 -0.084780514 0.019753095 -0.1289066 -0.031758428 0.075140975 -0.041565157
-0.06697617 -0.08712567 0.08298438 -0.010232873 -0.13190563 -0.20574729 -0.025921904 -0.024361704
-0.08746176 0.17978169 0.049563102 -0.15425403 0.22877218 0.23075303 0.12930897 0.029505193
-0.2103752 -0.2827767 0.15952003 0.283801 -0.13081077 -0.16662787 -0.16016933 -0.01608598
0.31920704 -0.13170071 -0.15254521 -0.09354025 -0.24447119 -0.09009966 -0.0051199957 -0.06630878
-0.041843925 0.11018724 0.14871842 -0.09420886 0.033664033 -0.16302626 0.07331259 0.080647886
-0.09355052 -0.08246238 -0.12846684 -0.005467117 0.074530296 -0.024515688 -0.1185264 0.09033549
0.11756462 -0.18209143 -0.07009537 -0.059834912 -0.118623845 -0.26090306 -0.17691992 0.03402715
-0.22612764 -0.12623002 -0.081932575 -0.0064968094 0.00036489702 0.005311164 -0.13678043 -0.049390282
0.018067347 -0.06300942 -0.061070733 -0.1557078 -0.22647938 -0.17568973 -0.37019864 -0.05813115
-0.2578676 -0.22136799 -0.096395984 -0.0687052 -0.12491592 -0.04738342 0.08335989 -0.059252985
0.035123475 -0.13151105 -0.016649902 -0.038645215 -0.11004627 0.02288342 -0.0032504555 -0.02028153
-0.05030161 -0.14270267 -0.04864763 -0.025728429 -0.13629596 -0.024996363 0.05109317 -0.049006663
-0.1066837 -0.002436285 0.032580826 -0.06863371 0.103545286 -0.113590136 -0.19028814 0.16975987
-0.05450984 0.1513685 -0.14779395 -0.18645772 0.17802052 -0.20418927 0.081888765 -0.15702397
-0.27318177 -0.25036457 0.08755843 0.096740864 -0.2103465 -0.2463731 -0.1374721 0.25736594
-0.1890627 -0.23325515 0.38943306 0.29685888 0.41423276 -0.05637029 -0.16550994 0.20710196
0.13342203 0.23725553 -0.017288 -0.0822677 0.11700492 -0.11959464 0.15209587 -0.12916552
-0.10975695 -0.16455486 0.09263952 0.0631451 -0.0811928 -0.15312056 -0.16714093 -0.02875428
-0.083874255 -0.12516043 -0.040349253 -0.13478188 -0.11802027 0.18439999 -0.1280727 -0.1392238
-0.29887724 -0.0748343 -0.3448805 0.04851228 -0.18169178 -0.22287717 -0.1553401 -0.19040011
0.038402624 0.0047602723 -0.24241608 -0.2185071 -0.122495845 0.02879963 0.17702425 -0.24853852
-0.22890702 -0.2898774 -0.15787682 0.13426995 -0.24367015 -0.13000664 -0.23907378 0.052262258
-0.06510674 -0.13001373 -0.011998783 -0.13948403 -0.083908714 -0.03679695 -0.004098588 -0.022002524
0.062789045 -0.091051094 0.028400496 -0.017780235 0.024585882 -0.012495811 -0.10116011 -0.0039664633
-0.0034474945 -0.08669238 0.010046597 0.18355551 -0.007816252 -0.08598585 -0.15154462 -0.056129627
0.09138429 -0.011705743 0.074989825 0.030809587 0.050822876 -0.39685062 -0.060948804 0.024331393

cnn1.bias f4 [16]
00000000: ec42 623d bbf7 4dbd 487d 8ebd fee0 97bd
00000010: 67e6 113d e768 94bd b9f2 93bd 84f3 04bb
00000020: c926 863c 00b6 f9bd b79f efbc d865 97bd
00000030: d31f 71bc 1255 b4bd 916d ca3c 5129 9ebd
0.055239603 -0.050285082 -0.06957489 -0.07415961 0.03562012 -0.07246571 -0.0722403 -0.0020286748
0.016375916 -0.12192917 -0.029250963 -0.07392472 -0.01471706 -0.088052884 0.024710448 -0.07722724

cnn2.weight f4 [32, 16, 3, 3]
00000000: ccc4 dd3c 715f 6c3d 010f d53d c6b5 233e
00000010: ff9f 9bbc e4a3 2abd fe31 9a3d 6a72 8c3c
00000020: d72e 50bd 0c08 2f3e c359 c9bd b5a7 293d
00000030: e5f1 093e 9200 94bd 3818 f83d 5d75 1c3e
00000040: 0ce3 6abd dc1a 8fbd eb89 38bc d745 dfbc
00000050: 04d0 a6ba e806 7dbc 22df d23b 0328 54bd
00000060: b643 70bd a648 803c 5d22 66bd 8ca6 d53d
00000070: 5a96 a3bd 1cff 903c 9822 2c3e d6b2 173d
00000080: 9fe6 ffbc 0a92 e53d b43f 7a3d 725f b4bd
00000090: 38b7 843d 8062 9cbc 3406 9ebc 4b33 e23d
000000a0: f4af 8b3c 2c13 8d3d df85 ba3d 5086 f03c
000000b0: bfcf b83d 749b c23d 764c 833d db98 8a3d
000000c0: cc5a 003e 2760 813d 9521 da3c 00bd 5bbc
000000d0: ba80 8c3c 6a59 133d be11 5fbd 2ade 0d3d
000000e0: 1fde 9b3d 5b27 2c3c 97b8 083d 3005 8b3d
000000f0: 671f 373d eb60 113d dab8 d33d d8bc 683d
00000100: 9900 aabd cdf8 463d edf0 4c3d 9610 36bd
00000110: 34de cd3d 9b15 cabc 1d4a 15bd 8765 103c
00000120: 3fbe 6c3d 0978 75bc 2b1b 62bd bc63 e63d
00000130: eb5d bf3d 4050 ac3d 4212 503d 5d40 3b3d
00000140: 0062 573d f55e 8d3d 14e6 a03d 4cad f03d
00000150: 9155 573d 99e4 4c3d d6d5 e33c d65e 8c3d
00000160: 3cfa 15bd b29d 3c3d bd1a 3c3d 27c4 87bc
00000170: 5a4a 43bc 0a88 823c 648e a938 f8dd a7bd
00000180: 7277 2d3b dd37 daba a214 26bb 6d4e a43c
00000190: 8a42 22bd 40b0 173d e632 af3d 3e23 b83d
000001a0: 1caa 55bd 136b cf3d 2f7e 4b3d 8348 b63d
000001b0: 263e a7bd 38f4 f1bd 5ce7 9abc 3a64 2cbb
000001c0: f19d 3f3d 74a3 4bbc 22ea 4f3d bac8 5dbd
000001d0: d96d 2ebb 5eb0 16bd 8747 6dbd 956d bd3c
000001e0: 1398 393d e6c7 83bd 4131 86bd f3e6 18bd
000001f0: 8df7 a0bd 4d4d 03bd c9fe db3d 8032 cdbc
00000200: ec39 af3d f831 3b3e 97f8 813d 36b2 933d
00000210: c654 1e3e 1a8f 2aba 84c4 c33d bf6c b83c
00000220: fe81 71bd 28ab 8bba 2e36 803d 38e2 1dbd
00000230: e208 3b3c 1787 1f3d c8ce 4fbd 9d62 c7bd
00000240: b2a6 59bd d5d7 0b3d 8db1 e83c 4849 223e
00000250: 3090 923b e734 edbc deca 6d3c 12a7 073d
00000260: 4aa3 40bc fce8 b73b 3651 ec3d 392b 15bd
00000270: bfd4 053e c27e 233c e401 89bb 9bdf 963d
00000280: e4ad fa3d 7889 c0bd c966 1e3c acbc 90bd
00000290: 5c3f 37bd 80d5 b2bd f2f9 f4bd fb6e babd
000002a0: 6925 52bd 6cc2 07be 6549 e5bd 089a f73d
000002b0: 7b42 ef3d f7f4 d7bc 8db9 223e c773 2eba
000002c0: 7d7d bb3c faaa f13d 43b3 903d 85d8 92bd
000002d0: 3dd6 d43c 5713 5f3d 7301 0a3d 44f7 873d
000002e0: c857 343e 879c d13b 48f9 bf3d 50f0 6e3d
000002f0: 1af1 093d 1de7 473e 96db ab3a 69eb fd3c
00000300: 58e9 123e 143e 1f3c 9f65 db3b fe37 6cbd
00000310: 5edb 363d 51b9 0dbe 53b1 e0ba 8fb7 9bbc
00000320: e14a 1fbc e35e fa3d 7c10 ce3d 2d51 f63c
00000330: eaf8 313e 5513 5dbd 4405 dc3d 3c47 333c
00000340: 7d1f 363d d389 0dbd 13d2 32bd f488 71bd
00000350: 4925 91bc 86b5 38bd be8b b9bd 75fc b0bc
00000360: 6791 1d3e 1c10 ce3c c08e 86ba 9db4 293e
00000370: f7f9 8dbc 8ba8 5bbc c2b0 3c3e 3360 433d
00000380: ea03 093d 3817 1a3e cbcd b33d 2804 ac3c
00000390: da46 483b 809b b53d cc2a 213e 4e6e b03d
000003a0: 79c6 0fbd fe23 123d d585 d63c 3965 b43d
000003b0: 52bf 5a3a 200e 3c3d 7640 11bc 4e8e 90bd
000003c0: 148f 58bd 02ef 51bd 710e fbbd 2641 f33d
000003d0: 55be 4a3d da3d cebd d2ff 893d 67b2 593d
000003e0: 55bd efbb 5c1f e03d 3dce 973d 3547 cc3c
000003f0: 866b 9e3c 3794 c5bc 4ce5 9abd 4862 ed3d
0.02707138 0.057708208 0.104032524 0.1598731 -0.01899719 -0.041660205 0.075290665 0.0171444
-0.05082592 0.17092913 -0.09831574 0.041419704 0.13471182 -0.07226671 0.12113994 0.15279146
-0.057345435 -0.06987545 -0.011263351 -0.027254982 -0.0012726788 -0.015443541 0.006435291 -0.05179597
-0.058658324 0.015659641 -0.056185115 0.10432157 -0.07987662 0.01769977 0.16810071 0.037035786
-0.031237898 0.11209495 0.06109591 -0.08807267 0.06480259 -0.019089937 -0.019290067 0.110449396
0.017051674 0.06888422 0.09107565 0.02936092 0.090239994 0.095023066 0.06411068 0.06767436
0.12534636 0.06317168 0.026627341 -0.01341176 0.017151225 0.035973944 -0.05446028 0.0346357
0.076107256 0.01050743 0.033379164 0.06788099 0.044707682 0.03549282 0.10337992 0.05682072
-0.08300895 0.04857712 0.050034452 -0.04444941 0.100521475 -0.024668505 -0.036447633 0.0088132685
0.05779862 -0.014982232 -0.05520169 0.112494916 0.09344085 0.08413744 0.050798662 0.04571568
0.052583694 0.06902877 0.07856384 0.11751804 0.052571837 0.050022695 0.027811926 0.06854026
-0.036615595 0.046048827 0.045923937 -0.016573025 -0.011919582 0.01593401 8.08507e-05 -0.08196634
0.00264689 -0.0016648729 -0.0025341888 0.020056928 -0.039614238 0.03703332 0.0855463 0.08991097
-0.052164182 0.10127845 0.049680885 0.08900549 -0.08166151 -0.11814159 -0.018909149 -0.0026304857
0.046781484 -0.012429107 0.050760396 -0.054146506 -0.0026615767 -0.03678929 -0.057929542 0.023123542
0.045311045 -0.06434612 -0.06552363 -0.037329625 -0.078597166 -0.03205614 0.10741956 -0.025048494
0.085559696 0.1828078 0.06346243 0.072117254 0.15462026 -0.0006506309 0.09558967 0.022512792
-0.05896186 -0.0010655867 0.06260334 -0.038545817 0.011415692 0.03894719 -0.05073431 -0.09735606
-0.05313749 0.03414138 0.028404975 0.15848267 0.004472755 -0.02895589 0.014513699 0.033118315
-0.011757681 0.0056124907 0.11538927 -0.036418173 0.13069437 0.009978952 -0.0041811336 0.07366868
0.12240198 -0.0940122 0.009668061 -0.07067236 -0.04473816 -0.08732128 -0.11961736 -0.09103199
-0.05130521 -0.1325776 -0.111956395 0.12089926 0.11682602 -0.026361926 0.15891095 -0.00066548254
0.022886986 0.11800189 0.070654415 -0.07170204 0.025981063 0.054461803 0.03369279 0.06638959
0.17611611 0.0063968333 0.093737185 0.05833465 0.033677198 0.19521756 0.0013111706 0.030996041
0.14346826 0.00971939 0.006695464 -0.057670586 0.0446428 -0.13840224 -0.001714269 -0.019008426
-0.009722442 0.122251295 0.10061738 0.030068005 0.1738011 -0.053973515 0.10743192 0.010942277
0.044463623 -0.034555268 -0.043657374 -0.0589685 -0.017717974 -0.04509499 -0.09059857 -0.021604756
0.15387498 0.025154166 -0.0010265931 0.16572805 -0.017331107 -0.013406883 0.18426803 0.047699165
0.033451 0.1504792 0.08779486 0.020998076 0.003055981 0.0886755 0.15738982 0.08614789
-0.035101388 0.035678856 0.026186863 0.08808369 0.0008344549 0.04591191 -0.008865466 -0.070583925
-0.052870825 -0.051253326 -0.12258614 0.118776605 0.04949792 -0.10070391 0.06738247 0.053148653
-0.0073162713 0.10943481 0.07412384 0.024936298 0.01933838 -0.024118526 -0.07563266 0.11591011

cnn2.bias f4 [32]
00000000: 0b92 cfbd dba3 eebc 1e18 0cbd 126d 6c3b
00000010: 58e1 a5b9 426c 96ba 2beb 9bbd 3e24 923d
00000020: 62f3 94bd 9123 2ebd 0e50 fe3c 4b03 933a
00000030: 6987 c2bb 3ace e83b c736 beb9 eaa5 debd
00000040: b9a9 e63d 3617 d63b e31f 19bd 2fc0 cbbd
00000050: c6f3 e0bd 7fd1 9c3c 6820 58bd 06f4 24bd
00000060: 9246 8abb 633f afbd b373 60bd ffcd 06be
00000070: 1e65 c63d 331c 74bd cb33 bf3d 120d 05bc
-0.10135277 -0.029130867 -0.034202687 0.0036075753 -0.00031639147 -0.0011476355 -0.07613214 0.07135819
-0.07272984 -0.042514388 0.031044032 0.0011216191 -0.0059365523 0.0071046622 -0.00036280436 -0.10871489
0.11262841 0.0065335287 -0.037383925 -0.099487655 -0.10983996 0.019142864 -0.05276528 -0.04027178
-0.0042198384 -0.08557012 -0.05479784 -0.13164519 0.09687255 -0.059597205 0.093360506 -0.008120792

cnn3.weight f4 [32, 32, 3, 3]
00000000: 4653 d93c 4266 c83a 9720 ad3c c9a4 443c
00000010: f7c4 96bd ed55 41bd c74c 46bc 9415 c2bc
00000020: 97e4 b539 7340 2c3e 3851 2f3d 27fc 96bd
00000030: 0227 c23d 2467 33bd c0bd 19be ed2a 91bd
00000040: fd53 48bd ce49 bcbd c4e2 8f3a e176 26bd
00000050: 3e48 87bd 456f a33d 9414 58bd 0728 9fbd
00000060: ce01 3e3d a9f5 643d b237 87bc 5d05 183d
00000070: d35f b7bb c73f 093c bfb1 503d 5995 58bd
00000080: 33be 59bd 982f 603c bba1 d1bc d1e3 d43c
00000090: 085a d53d 2f2f d13c a9e9 33bc 80d2 cbbc
000000a0: 1387 cdbd 76b8 5e3b 5f4d 8d3a a7cc 7e3d
000000b0: b2bb 1bbc 7ed7 f43d ee68 a0bd 38a0 8abc
000000c0: e089 163d 35f8 c5bd 6c9f c5bd 29ad 73bc
000000d0: c20f b53b 21e9 81bb 0995 fcbb 504d dc3c
000000e0: f080 80bd 1265 20bd 47b9 32bb 1d20 eebc
000000f0: 4c5a 463d 3903 61bd 713c 23bd bb45 40bd
00000100: d929 eb3d d048 913d e059 223d e460 b9bb
00000110: 40ea dc3d 92f3 3a3d 258e 833d 80f8 b73d
00000120: a2bb 2cbc ea9b b83c 57cc 60bd 9415 89bd
00000130: f452 f7bc 1c12 62bd f455 1d3c bbb5 aebc
00000140: e052 70bd 811d b93d 3e00 aebd cc4f 463c
00000150: c2a6 b13c 0f85 f8bd e3b8 463c f737 f6bc
00000160: 2a8a fcbc 66e8 5fbd fca4 af3d a10a c13d
00000170: 9d2e c3bd d720 b93c f2d3 9e3c 8ff5 b4bd
00000180: 18d7 01bd d79a 113d f05c d5bc 97af 6b3d
00000190: a9f7 9bbd 32cb 93bd ff2c 2ebd 6fe5 f3bd
000001a0: 4fdf 0bbe fe90 583d e398 163d da06 cdbc
000001b0: 0472 d53d 828c 163e 9a13 1f3e e865 efbc
000001c0: 553f 1d3e 3eac dd3c 80ed 393c a375 be3c
000001d0: 4fb3 afbc 1555 893c c028 6d3c ecd8 b5bc
000001e0: 8966 c4bb ee82 1e3d 7d19 3dbd bdf8 f73c
000001f0: 4ab8 003d 3c1b 4c3d 0c96 d83d a782 19bc
00000200: d168 55bd af42 613d 6ac5 63bd 1b04 68bd
00000210: 5bc8 99bc a396 9b3c cfa8 cebd a03c 5a3b
00000220: 804c 20bd fd24 4f3d 88ac babc 98e5 d4bc
00000230: 6160 50bd 2a4a c83c 3817 813b 181c 3ebc
00000240: eb33 893d 08a2 683e 6d27 4f3e 5628 d03c
00000250: fd69 b23d cd40 fa3d 9d77 c93c c993 b33d
00000260: 86a0 ec3d a803 9d3d 748a b83d bcd9 93bd
00000270: 4118 ee3c 2063 3d3d a090 95bd 6220 e93b
00000280: 8b33 963c 4b6b 26bd 9513 c9bc f6eb 8ebd
00000290: 2258 8fbd f394 af3c f9f5 47bd 03f1 07be
000002a0: 0073 0c3c a2a1 d3bd 667f 3cbd 85f3 51bd
000002b0: 2f86 5f3b c8ac 373d 6865 c33c a6bd a8bd
000002c0: 50e9 afbb 207c 8e3b 1006 80bd 5b4c 703c
000002d0: 6a23 4bbd 5c07 e3bc 9bcc 2e3d 616f 0dbd
000002e0: 1a38 c1bd 5e7c 09bd 2d3e 0c3b 8656 55bd
000002f0: 4a83 cabc 1de6 a53d 7f1a d83d 04e4 07bd
00000300: bed1 c13b 0ef6 633c f999 34bd 4785 3dbd
00000310: 689e 843c e1a2 f7bd 5b5f ecbc 11fb cfbd
00000320: fb82 18bd 2278 83bd 1384 f0bd 4c6c 1dbb
00000330: 4bb5 53bd b320 36bd dfc9 b03c 9583 2f3d
00000340: efb4 883c be6f 9d3d 1dfd b23c 2120 26bd
00000350: 5713 67bc 28d1 99bc 9bd0 bb3d 76d7 8c3c
00000360: 7da5 843d e1bd 62bc 5971 4bbd 918b 81bc
00000370: 251c 88bd d959 a2bd 007f e2bb a7e6 313d
00000380: 201d 3dbc 3f4b 163d 1f14 febc a0cf 3f3b
00000390: 3e7a bebc 0f06 70bd fed9 8a3c 4ad4 92bc
000003a0: 653f 4d3d 15fc 6a3d d9a4 c43d fdbc fa3a
000003b0: b8c0 b03b 5fef e63c 255b 4cbd ee72 f9bb
000003c0: 9067 b1bc 7f84 9c3c 3c39 27bd 5022 133c
000003d0: 20f4 403d d70b 8cbc 6249 eabb 1af0 33bd
000003e0: 177e 04bd e3db 9ebb e60d 96bc e2de a5bc
000003f0: b52f b13c 3565 ee3a 1a62 cb3d 2dee dabc
0.026528966 0.0015289264 0.021133704 0.0120021785 -0.07361787 -0.047201086 -0.012103266 -0.02369193
0.00034693323 0.1682146 0.042802066 -0.07372313 0.094800964 -0.043799534 -0.1501379 -0.070882656
-0.048908222 -0.091937646 0.0010977616 -0.040640716 -0.06605576 0.07980207 -0.052754 -0.077713065
0.04638844 0.055898342 -0.01650605 0.03711449 -0.00559614 0.008377022 0.050950762 -0.052876804
-0.053159904 0.013683222 -0.025589814 0.025987538 0.10417563 0.025535194 -0.010981002 -0.024880648
-0.10035529 0.003398446 0.0010780505 0.06220689 -0.009505199 0.119551644 -0.07832514 -0.016922101
0.03675258 -0.09666482 -0.09649548 -0.014872828 0.00552556 -0.0039645587 -0.007708196 0.026892334
-0.06274593 -0.03915889 -0.0027271078 -0.029068047 0.048425958 -0.054934714 -0.039852563 -0.0469415
0.11482591 0.07093966 0.039636493 -0.005657302 0.10786867 0.045642443 0.06423596 0.089829445
-0.010542782 0.022535283 -0.054882374 -0.06693569 -0.030190922 -0.05519305 0.009603012 -0.02132689
-0.058672786 0.090388305 -0.0849614 0.012103986 0.021685962 -0.12134754 0.012129041 -0.030055983
-0.0308276 -0.05466499 0.0857639 0.094258554 -0.09530375 0.022598667 0.019388173 -0.08835899
-0.03169927 0.035548057 -0.026045293 0.057540502 -0.07615597 -0.07216491 -0.04252338 -0.11908995
-0.13659404 0.05287265 0.036766898 -0.025027681 0.104221374 0.14702037 0.15534821 -0.029223397
0.1535619 0.02705967 0.011348128 0.023249453 -0.021447806 0.016764203 0.014475048 -0.022198163
-0.0059936685 0.038699083 -0.046166886 0.030269975 0.03142575 0.04983066 0.10575494 -0.009369529
-0.052101914 0.054995235 -0.05560819 -0.05664454 -0.018772295 0.018992728 -0.100907914 0.0033300295
-0.039135456 0.050572384 -0.022787347 -0.025988385 -0.050873164 0.024449427 0.0039395355 -0.011603378
0.06699356 0.2271806 0.20229883 0.025409859 0.08711622 0.12219391 0.024593169 0.08768422
0.11554055 0.07666713 0.09010783 -0.07219264 0.0290643 0.04623711 -0.07302976 0.007114456
0.018335124 -0.040629666 -0.02454547 -0.069786 -0.06999232 0.02143333 -0.048818562 -0.13275532
0.00857234 -0.103335634 -0.046019934 -0.05125763 0.003410708 0.04484251 0.023852065 -0.082392976
-0.005368389 0.004348293 -0.06251156 0.014666642 -0.04959432 -0.02771347 0.042675596 -0.034530047
-0.09434529 -0.03356587 0.0021399364 -0.05208447 -0.024720807 0.08100531 0.10551929 -0.033176437
0.005914896 0.0139136445 -0.044092152 -0.04626968 0.016188815 -0.120916136 -0.028854063 -0.10155309
-0.037234288 -0.06419398 -0.11743941 -0.0024020849 -0.051686566 -0.04446478 0.021580635 0.042850096
0.016687838 0.07687329 0.02184921 -0.040557984 -0.014103732 -0.018776491 0.09170648 0.017192584
0.06476877 -0.013839216 -0.049668644 -0.01581362 -0.06645993 -0.07927293 -0.0069121122 0.043432858
-0.0115425885 0.036692854 -0.031015454 0.0029268041 -0.023251649 -0.058599528 0.01694965 -0.017923493
0.050109286 0.05736931 0.09601755 0.0019129809 0.0053940676 0.028190313 -0.04989161 -0.0076125776
-0.021655828 0.019106148 -0.040826067 0.008980349 0.047107816 -0.01709549 -0.007149861 -0.04393015
-0.03234681 -0.00484799 -0.018317174 -0.02024788 0.021629194 0.0018188121 0.09930821 -0.0267249

cnn3.bias f4 [32]
00000000: 89b4 a03c 8332 333d e647 c2bd 2655 93bc
00000010: e80a 053d 35a7 06bd 6884 09bd 88ab f03d
00000020: f0fa 21bc 8449 79bd 2e07 233c 2899 d2bc
00000030: 7ba9 5cbc 8274 4b3d 9cd0 97bc 3699 013e
00000040: 18f4 90bd 48e9 9c3b 59a5 2dbd f23c 82bd
00000050: 8d4d 91bd 5dd6 f3bc 5764 8fbd 6139 77bd
00000060: 05b4 4bbc 0b5d 0fbd 612b 88bd 31d7 e43c
00000070: 3785 08bc fd8d c83d 25ef b13c cf18 1a3e
0.019617336 0.043749344 -0.0948637 -0.017984938 0.032481104 -0.032874305 -0.033573538 0.11751467
-0.009886488 -0.060861126 0.009950442 -0.025707796 -0.013468142 0.049671657 -0.01853209 0.12656102
-0.07077807 0.0047885515 -0.042394016 -0.06359281 -0.0709487 -0.029765302 -0.0700156 -0.060357455
-0.012433057 -0.035000842 -0.06648899 0.027934643 -0.008332542 0.09792707 0.021720478 0.15048526

fc1.weight f4 [128, 768]
00000000: 0549 dbbc a735 cb3c 826e a13c f691 723c
00000010: ef9b fb3c 0854 03bd 6918 42bd 25dc 803c
00000020: de13 91bc 686b 33bc 7c37 c3bc 80b6 0c3a
00000030: f88c d8ba 9901 333b 1a91 1ebc dc43 9d3c
00000040: fd3c fb3b 34de 41bc 82e3 2ebc 2454 353c
00000050: feeb bebc bac7 893c 1098 e7bc 6e1f 4fbc
00000060: af58 16bd 9bff e4bb 7f84 15bd 7195 0fbc
00000070: abe2 3a3b d996 fcbc c090 9bbc b30e f13c
00000080: 6e3e 20bd 2076 813c 236c 273d 7461 45bc
00000090: 9a99 d53c ef68 0f3d b8f4 02bc 6c36 afba
000000a0: 000f 213c b035 0fbc fe11 be3c ac93 57bd
000000b0: 8ae0 27bd e145 923c cefd fdbc ebce 2dbd
000000c0: 072f 26bd fc01 343c 408e 02bd bbfe 06bd
000000d0: b1a7 1cbd 760d b3bb 3424 053c 2c4d 79bc
000000e0: 9293 0abc 902f afbc 9157 1a3c 4ffc e83c
000000f0: ddb2 0cbd 440a 95bc 62cf f7bc f180 3ebd
00000100: 27e7 bf3c df95 4b3c 4661 6ebc b9b8 23bc
00000110: c85c 1bbd c3a1 9d3c 7c67 ad3c 420c 0fbd
00000120: 2849 fbbb 309e 523c 71c8 c3bc 460c 91bc
00000130: 36d8 e83c 1921 8c3c 6df7 be3c d5db 9c3b
00000140: a169 91ba 1be8 e03b 9bda 803c 96af b5bc
00000150: 87ed 02bd 7cae d13c 12db 923a a6e1 23bc
00000160: 31d9 da3b b391 c1bc e5a2 32bb 8f70 e0bc
00000170: 61c2 03bb 3d51 21bd 7a85 213b 5380 023d
00000180: 0a85 c33c e27d 01bd 5b7e 3e3b 32ae 933b
00000190: f48c 49ba 4a28 9b3b 9f56 bdbc 4f59 07bc
000001a0: 229e 1cbd 8abf 47bc 1307 89bc 0199 dabb
000001b0: cdb5 653c 0701 f0bb db1b 87bc e893 14bd
000001c0: 5af8 093c e221 223c 7478 3b3c e1b2 e5bc
000001d0: 1f1e 6a3c 1e51 033a 871d 90bc 2ff8 e83a
000001e0: 8303 e83c 5df6 21bd 3493 be3b cd8a 3a3c
000001f0: 5471 ffbc cc32 20bc 00ed e23a 7ccc 06bd
00000200: ab04 193d 6634 a03c a5b1 4c3c 4bc0 8c3b
00000210: d035 ce3c 3da0 4c3b 1aa1 86bc da3c c5bc
00000220: d201 06bd 28c4 3d3c 26ce 803c e089 d93c
00000230: cf45 8f3b bc91 9b3c 988f 423b 0d24 04bd
00000240: 5293 c5bc 70dd 4b3c b05b 0b3d c048 e03c
00000250: 3011 313b a23a 40bc cc05 dd3c 46e7 103d
00000260: b6e2 0d3d c00f 203c 32a3 b13c 74da c6bb
00000270: 66c4 a6bc 0cfc f0bb f425 0b3d f4e7 0d3d
00000280: 4439 813c 4075 923c 6464 1c3c 7770 a4bc
00000290: 7c5a fdbb a595 063d 4e1b f9bc fa48 44bc
000002a0: 0b46 63bc 6b35 3b3c bbab e7ba f284 eebb
000002b0: eadb 633b d9d9 44bc 5b42 71bd 8cd1 8dbc
000002c0: 7563 d23c d2f1 9ebc ec79 aebc 03bf 24bd
000002d0: 6ebd f4bb ee7a 10bd df0a a63c fa58 2d3a
000002e0: a4ac 37bd f910 2fbd d7b9 17bc d271 28bd
000002f0: 6346 7fbb 5b7d adbc 3850 163c 24d2 2ebd
00000300: df3c 0a3b ff62 8eba 8f48 a7bb ec91 07bd
00000310: 2c4f 00bd b0bc ec3c 1c3e c7ba 51a7 32bc
00000320: fc6f f5bc 5195 4abc 3bb4 313c 0444 f8bc
00000330: beed abbc a981 adbc 1646 00bc ddb7 59bc
00000340: e269 9e3c 97fd b5bc 2260 303c 77f6 11bc
00000350: ab0d a63c 45d8 0dbd 6482 033d c044 da3c
00000360: 4711 0dbd bdfa 17bd 7ad9 18bd d04f c53c
00000370: ea31 10bc 196f 5e3c cfd7 043d 0553 13bd
00000380: 83a0 8dbc e7b4 59bc 09e1 923c 190b 8a3c
00000390: 5e74 d1bc 9214 c2bc 27b8 ca3c d864 063d
000003a0: ebe2 e93b f10d 96bc d934 403c eb4a dbba
000003b0: 458d a6bc e42e bf3c 824c 1cbd 617b dbbc
000003c0: 1924 b23c 5ec4 983a 8311 003d f4c4 15bd
000003d0: 5083 2b3c b4d2 083d 6b7f 2b3a 1a3f 373c
000003e0: b640 f8bc 0fd7 0ebd ec14 083c c51a a53c
000003f0: 8f0b 9fbc 0009 e3bb 1c10 e93c d1c9 00bd
-0.026768217 0.024805857 0.019706015 0.014805308 0.030714003 -0.03206256 -0.04738656 0.015729973
-0.017709669 -0.010950901 -0.023830168 0.0005367771 -0.0016521504 0.0027314185 -0.00967815 0.019197397
0.0076671825 -0.0118327625 -0.010674359 0.011067424 -0.02330589 0.01681887 -0.028270751 -0.012641771
-0.03670567 -0.0069884784 -0.03650331 -0.008763657 0.0028516452 -0.030833649 -0.01898992 0.029425954
-0.039122038 0.015803397 0.04087461 -0.01204716 0.02607422 0.03501218 -0.007992916 -0.0013367659
0.009830236 -0.008740827 0.023201939 -0.052631065 -0.04098562 0.017855586 -0.031004813 -0.04243366
-0.040572193 0.010986801 -0.03187394 -0.032957774 -0.03824586 -0.005464251 0.008126307 -0.015216153
-0.008458035 -0.021384984 0.0094202915 0.028440623 -0.034350265 -0.018193372 -0.030250255 -0.046509687
0.023425652 0.012425869 -0.014549559 -0.009992772 -0.03793028 0.019242173 0.02116751 -0.0349238
-0.007668633 0.012855098 -0.023899289 -0.017706048 0.02842341 0.017105626 0.023311341 0.004786948
-0.0011094102 0.0068636066 0.01572924 -0.022178452 -0.031964805 0.025595896 0.0011204204 -0.010002529
0.0066787233 -0.023629045 -0.0027257737 -0.027397422 -0.0020104873 -0.039384115 0.0024646209 0.03186066
0.023867149 -0.03161419 0.0029067013 0.0045068497 -0.0007688545 0.0047350274 -0.023112593 -0.008261039
-0.038236745 -0.012191663 -0.016727006 -0.0066710715 0.014020395 -0.007324341 -0.016492775 -0.036273867
0.008421028 0.009895774 0.0114422925 -0.028039398 0.014289408 0.0005009341 -0.017592205 0.001777416
0.028321987 -0.03954159 0.005815888 0.011385632 -0.031181969 -0.009777736 0.0017313063 -0.032909855
0.037357967 0.019556236 0.012493526 0.004295384 0.025172144 0.003122344 -0.016434241 -0.024076868
-0.03271658 0.011582412 0.0157233 0.026555002 0.0043723355 0.01899039 0.002968764 -0.032260943
-0.0241181 0.0124429315 0.034022987 0.02737844 0.0027018301 -0.011732729 0.026980303 0.03537681
0.034640037 0.00976938 0.021684263 -0.006068522 -0.020357322 -0.007354265 0.03397174 0.034645036
0.015774377 0.017878175 0.009545419 -0.020073159 -0.007731734 0.032857556 -0.030408528 -0.01198029
-0.01387168 0.01142631 -0.0017675081 -0.007279032 0.003476853 -0.01201483 -0.058901172 -0.017311834
0.02568219 -0.019402418 -0.021298371 -0.040221225 -0.007468871 -0.035273485 0.020268856 0.0006612685
-0.044842377 -0.042740796 -0.009260616 -0.041124173 -0.0038951866 -0.021177938 0.009174399 -0.042680874
0.002109341 -0.0010863243 -0.005105085 -0.033098146 -0.031325504 0.028898567 -0.0015201005 -0.010904149
-0.029960625 -0.012364701 0.010846193 -0.03030587 -0.020987388 -0.02117999 -0.00782921 -0.013288465
0.019337598 -0.022215648 0.010765107 -0.008908859 0.02027019 -0.03463008 0.032106772 0.02664411
-0.034440305 -0.037104357 -0.037316777 0.02408591 -0.008800963 0.013576292 0.032432374 -0.035967845
-0.017288452 -0.013287759 0.01792957 0.016850995 -0.025568184 -0.02369145 0.024746014 0.032811016
0.0071376464 -0.018317195 0.01173135 -0.0016730701 -0.020331034 0.023337789 -0.0381589 -0.02679223
0.021745728 0.0011655202 0.0312667 -0.036564782 0.010468319 0.033404067 0.0006542119 0.011184478
-0.030304294 -0.034873065 0.008305769 0.020154366 -0.019414691 -0.006928563 0.028450064 -0.031442467

fc1.bias f4 [128]
00000000: 0bae c73c a090 11bc db83 5a3c 6215 25bd
00000010: e107 d3bc 54b6 d43c 888e 0dbd 8170 27bd
00000020: fbe3 993b b66f 7d3c 2497 abbc 840c e6bc
00000030: fbe2 12bd 4203 0dbd 3838 1bbd 73ff 81bc
00000040: 6913 17bd b216 a3bc 0f80 7a3d 945b ffba
00000050: 0294 a7bb f22e c63d 57e1 2fbd f250 a73d
00000060: db3a 45bd 3e9a 1939 26c9 babb a15d f0bc
00000070: 6923 dfbc 0e2c 8d3c e242 12bd e57d aa3c
00000080: 3c1e 0ebd 6a78 673c 4511 07ba 812c 40bd
00000090: e9da ccbc be6c 20bd 956b b7bc c7ed 513b
000000a0: d5da a83c f89d c53d bbb1 04bd 704c c6bc
000000b0: 5466 9dbc 1118 13bd fcd6 d13b 0e84 cd3b
000000c0: 66f8 11bd 48ad f03c a8cc 0a3d f63d d53c
000000d0: 241d bc3b 94e2 c13d df91 eebb d413 14bd
000000e0: a597 10bd ba2c fd3b 25f6 8dbc 407e b6bc
000000f0: 0c93 29bd 49cc bb3d 3828 0bbd 58b2 ccbc
00000100: a538 80bc 1a56 cf3c f199 ed3d 7b1a d5bb
00000110: 2e72 423c ee32 8c3c 8f1a cfbb 4cb5 a33b
00000120: baa4 1abc f0fe 373c 9339 52b9 e161 3f3c
00000130: bfd6 1cb7 f28f 10bd ebc5 243c c730 96bb
00000140: 94f1 8cbc e99e dfbb edb3 e93b c8e6 aa3c
00000150: 4b82 053c e4db df3c 97ac ecbc 2284 d5bc
00000160: 0f7b 1fbd b327 aa3d 3e00 89bd 18ac e93d
00000170: 0441 293c f353 b0bc bdab d9ba 1775 24bd
00000180: 8be0 e03a e651 90bb cac3 e2bb 4da8 353c
00000190: cee8 13bd 0113 2ebc 7013 01ba 8b18 913c
000001a0: e1a9 903a daa3 77bc c8e2 1bbd 9c13 84bc
000001b0: bb38 f13d 467b 563c e173 ffbb cf2e 53bc
000001c0: 4b9b e43d 360f ae3c 1cf5 79bd 4463 06bd
000001d0: f449 2b3c bf65 8e3c 2cfb afbc de54 6a3d
000001e0: 25d7 78bd f4dc 42bc 6af9 4ebc 970d 4cbd
000001f0: e30e ff3d 8261 37bd 1492 073d 6b80 6fbd
0.024374982 -0.008884579 0.013337101 -0.040303595 -0.025760593 0.025965847 -0.034559757 -0.040878776
0.004696367 0.0154685285 -0.020946093 -0.02808214 -0.035860997 -0.034426935 -0.03789541 -0.015868878
-0.036883745 -0.019908283 0.061157282 -0.0019482248 -0.0051140795 0.09676923 -0.04293951 0.08169736
-0.048151832 0.00014648677 -0.0057002483 -0.02934152 -0.027238565 0.017232921 -0.035708316 0.020811984
-0.034696802 0.01412783 -0.00051524147 -0.046917442 -0.025006728 -0.039166205 -0.022390166 0.0032032595
0.02061216 0.09649271 -0.03239606 -0.02420637 -0.019213833 -0.035911623 0.006403802 0.0062718457
-0.03563728 0.029379502 0.03388658 0.026030522 0.0057407785 0.094670445 -0.007280573 -0.036151722
-0.03530087 0.007726279 -0.017329285 -0.022276998 -0.0414 0.09169824 -0.033973902 -0.024987385
-0.01565201 0.025309611 0.116016276 -0.006503401 0.011868043 0.017114129 -0.0063203047 0.0049959775
-0.009438688 0.011230215 -0.00020048609 0.011681051 -9.348324e-06 -0.035293527 0.010056953 -0.0045834514
-0.017205037 -0.0068243635 0.0071320445 0.020861998 0.00814874 0.027326532 -0.028890891 -0.026063982
-0.038935717 0.08308353 -0.06689499 0.114097774 0.010330442 -0.021524405 -0.0016606968 -0.040150728
0.0017156763 -0.0044042943 -0.0069203125 0.011087489 -0.03611069 -0.010624648 -0.0004923856 0.017711898
0.0011036956 -0.015114749 -0.038058072 -0.016122632 0.117783986 0.013090914 -0.0077957963 -0.012889578
0.11162432 0.021247488 -0.06102477 -0.03280951 0.0104546435 0.0173825 -0.021482073 0.057209842
-0.060752053 -0.0118935 -0.012632707 -0.049817648 0.12454011 -0.044770725 0.033098295 -0.05847208

fc2.weight f4 [128, 128]
00000000: bd2d b2bd ce7d 71bd ab27 1cbc d831 38bc
00000010: 366e f53c b97a 743d 59b2 45bd 6942 553d
00000020: ce6c 06bb 3db2 083d 3d65 e23c a18a 04bd
00000030: 031b 9fbd 944a 0f3d dde7 a73d f0dc 30bd
00000040: 738e 3cbd 5e31 ef3c 967e af3b 0ee0 2b3d
00000050: 4fa9 af3d aece 773d d2aa 893c f757 38bd
00000060: 7ecb 583d 80ef 18bb f304 863d 964e cdbb
00000070: 186a 68bc 55a0 06bb 99f0 b73d 3e90 623d
00000080: a2ee a3bd 4a9e 06bd c7df a13d 716d c2bd
00000090: 3ce6 b0bd 7678 b33d 03c3 ab3d 0d14 83bd
000000a0: c05c 83bd 10ad 9bbd 6430 cf3c 5cc4 e8bb
000000b0: 277d 1ebd e9ca 9b3d a6db 643d 4176 a73c
000000c0: 8ae0 53bd 2cb7 a2bd 6c63 07bc d039 273d
000000d0: 72b3 563d 9030 ea3d 2849 38bc 5424 b53d
000000e0: 203a fa3c 2481 d0bc 90a4 34bc 3fb2 9bbd
000000f0: 7c52 a2bc 4f23 cf3d b9b1 b0bd 0d89 ce3d
00000100: c272 0dbd 00cc 133d d8ba f93d 6a8e 5abd
00000110: 81e1 6e3d 0c6b 7dbd 1833 283d 07b5 b13d
00000120: 6620 30bd 202f 6b3c 000b d13a 3a66 173d
00000130: 580f c33c 9bb5 1b3d 40ce ebbb 8453 babc
00000140: 3bfa 22bc e3e8 9cbd 234d 53bd 54f4 b93b
00000150: 0874 a3bd 9701 72bd 613e 83bd 4af5 193d
00000160: c9cf 4dbd fe7d 1cbe 50a6 64bd 6394 7fbc
00000170: 8214 353d 2a7f 703d b902 003d 7068 91bd
00000180: 25e8 423c b80e 3dbd 3e83 4d3d fed1 1e3d
00000190: 9cac 0e3d cc2d 17bd 9d0c 873d 157c 9f3d
000001a0: 14eb cb3c f664 453d e846 123c 7922 22bd
000001b0: a7da 343d 32e4 95bd d090 bbbc 90aa db3c
000001c0: a6a6 a73d 000b b9bc 528e 75bd 3737 3ebd
000001d0: fd96 88bd d63d 98bd dee5 aebd a2b0 a8bd
000001e0: afea af3c d836 42bc e74d 4fbd 219a 17bb
000001f0: 3ff5 9a3d 0ebf 24bd 2f51 8cbd 672c 51bd
00000200: 9e0d 80bd 3ef1 febc 6dd6 aabd 9046 eb3b
00000210: 9ba4 a4ba e17c 803c 9c18 cabd 70a8 3cbc
00000220: 3785 8e3d 5b0a 133d 28d5 ae3a fe7c 173d
00000230: 039a 16bd 902d 913b 262c 4a3d ff70 31bd
00000240: a438 1e3d 1cc5 193d 8073 4abb 30b8 bfbc
00000250: 73cf 07bc 98fc e5bc 9bad 9a3d e09c 65bd
00000260: 51c7 a83d be50 5f3d 08e0 96bd 0577 2fbc
00000270: 07ce 9cbd 4ae8 3f3d 31f0 a93d bc60 f1bc
00000280: 6b23 0ebd 9006 b03c 920e 0bbd 0819 bcbd
00000290: 0fbd 96bd 6977 3cbd 8475 153d 8521 a0bd
000002a0: f15d 79bd f617 823c b09f bebc aca7 9bbd
000002b0: 4fe5 63bd b0a0 cebc 6fa6 a33c 993b 1abc
000002c0: 22e3 89bd 79fb 973d c0d6 9a3c 2e9d 3bbd
000002d0: 1030 12bc 8a8b e63d 231f 403d 121e 94bd
000002e0: 977b 2abd e08c 46bc 88a5 85bd 4d56 6a3c
000002f0: beac 8abd a2e8 5d3d 50e9 a3bc 6e46 cbbd
00000300: f3da 45bd 51ef cf3c 5227 343d 67db 593c
00000310: 4217 cfbb ac72 bb3c ae73 c6bc 285e e33c
00000320: cf95 b3bc db4b 25bd c411 86bc 206d 743c
00000330: 7d48 8fbd 9854 b43c a314 20bd cbd4 853d
00000340: b755 0bbc 529c 72bc 4dc6 56bd 723b 8a3d
00000350: 4c59 0a3d 5cb3 01bd ea24 9fbc 3020 ebba
00000360: ec82 11bd 644c a2bd 8d5d 94bd dd6c f83c
00000370: e049 08bc eecc 3c3d b95c ddbc 0ca2 abbd
00000380: 159d 45bd 5570 92bd bade 4a3d 8844 3f3c
00000390: b073 3ebd 581b d03c cfa4 8a3d 8ef3 063d
000003a0: a018 33bc a8b0 653c 9aa1 75bd 5ad7 323d
000003b0: f9ed e63d 0226 ffbb f248 133d d2f7 1f3d
000003c0: ee18 983b be62 4e3d e1ba d1bd ec93 5bbd
000003d0: c824 603c 816e 883d 543a a6bd a584 5e3d
000003e0: f66b c6bc c561 8dbd 3daf 733d 9e93 cd3d
000003f0: 9995 2a3e 6901 b1bd 985d ac3d 97c1 333d
-0.0870013 -0.058957867 -0.009530942 -0.011242352 0.02995978 0.05968735 -0.04826579 0.052065287
-0.002051163 0.033373106 0.027636165 -0.03235877 -0.07768824 0.034983233 0.08198521 -0.043179452
-0.046034288 0.029198345 0.0053556664 0.041961722 0.08577215 0.06049984 0.016805086 -0.045005765
0.05292844 -0.0023336112 0.06543913 -0.0062654717 -0.014185451 -0.0020542343 0.08981437 0.05531334
-0.080045 -0.0328658 0.0790401 -0.094935305 -0.08637664 0.087632105 0.08386805 -0.06400309
-0.06414175 -0.076013684 0.02529163 -0.007103486 -0.038693573 0.076070614 0.055873536 0.02044213
-0.05172781 -0.079450935 -0.00826345 0.04082662 0.052417226 0.11435044 -0.011247911 0.0884482
0.030545294 -0.025452204 -0.011025563 -0.07602357 -0.019814722 0.101141565 -0.08627648 0.10084734
-0.03453327 0.03608322 0.12193841 -0.053358473 0.058320526 -0.061869666 0.04106435 0.08677106
-0.042999648 0.014354497 0.0015948713 0.036962725 0.023811027 0.03801499 -0.007196218 -0.022744901
-0.009947355 -0.07661607 -0.051587235 0.005674878 -0.079811156 -0.059083547 -0.06408382 0.03758744
-0.050246987 -0.15282437 -0.05582267 -0.015599343 0.04420901 0.058715023 0.031252597 -0.07099998
0.011896168 -0.046156615 0.05017399 0.038774483 0.034832582 -0.03690891 0.06594203 0.07787339
0.024892367 0.048191987 0.008928038 -0.039583657 0.044153836 -0.073189154 -0.0228962 0.026814729
0.081860825 -0.022588253 -0.05995018 -0.046439376 -0.06669424 -0.07433669 -0.085399374 -0.08236815
0.02147421 -0.011853896 -0.050611403 -0.002313264 0.07566308 -0.040221266 -0.06851422 -0.051067736
-0.06252597 -0.031120893 -0.0834168 0.0071800426 -0.0012561263 0.015684547 -0.09867975 -0.011514768
0.069590025 0.035898548 0.0013338672 0.036984436 -0.03676797 0.0044304803 0.04935851 -0.043320652
0.038628235 0.037541494 -0.0030891597 -0.023403257 -0.008289206 -0.028074548 0.07552644 -0.05605781
0.082411416 0.05452036 -0.07366949 -0.010709529 -0.07656484 0.046852387 0.08297766 -0.029465072
-0.034701746 0.021487504 -0.033949442 -0.09184462 -0.07360279 -0.046012316 0.036489025 -0.07818893
-0.060880605 0.015880566 -0.023269504 -0.0760034 -0.055638608 -0.025223106 0.019976823 -0.009413623
-0.06732775 0.074210115 0.018901229 -0.045804195 -0.008922592 0.11257084 0.046904694 -0.07232298
-0.04162177 -0.012118548 -0.06525713 0.014302802 -0.06771229 0.054176934 -0.020008713 -0.09925543
-0.04830451 0.02538267 0.04398281 0.0132969385 -0.006319911 0.022881828 -0.024225082 0.027754858
-0.02192202 -0.040355545 -0.016365893 0.014918596 -0.06996248 0.022012994 -0.03908218 0.06534728
-0.008504323 -0.0148077775 -0.052435208 0.067496195 0.033776566 -0.03166519 -0.019426782 -0.001793867
-0.035525247 -0.079247266 -0.07244406 0.030325348 -0.008318394 0.046093874 -0.027021753 -0.08380517
-0.04824551 -0.07150332 0.049528815 0.011674054 -0.046497047 0.025403664 0.06769716 0.032947116
-0.010931164 0.014019169 -0.05996857 0.043662407 0.112758584 -0.0077865133 0.035958238 0.0390547
0.0046416437 0.050387137 -0.102407224 -0.053607866 0.013680644 0.06661702 -0.08116594 0.05432572
-0.024221402 -0.06903414 0.059493292 0.10037921 0.1665863 -0.08642847 0.08416289 0.043885794

fc2.bias f4 [128]
00000000: 8cbc 4a3d f674 6d3d 783e 093d becd 953d
00000010: 7dba 3f3d 8ee6 b53d d3d3 1c3e bf5c e23d
00000020: 0422 18bd 381e c53d f050 5bbd 5ce0 fcbb
00000030: ecce 103e 6f48 2e3d 12df cfbd 842d a13d
00000040: b78c 803d 30a8 ca3d 25a1 bb3d efb4 943a
00000050: 6e20 00bd 529c ac3d 17f6 d93d 8a27 4b3e
00000060: 0409 083e e050 ed3c e0cf d43d 098f 0c3e
00000070: abbf b53b c7a3 1d3c 04e4 943d f3f6 5b3d
00000080: fcdf 2e3e c6d0 b8bd d3ff 3e3e fa3e 863c
00000090: dae4 e33c 5a47 323e 676a 83bd f35e abbc
000000a0: d10d 403d 033b a33b d2d7 9dbc a4fd 853c
000000b0: 90ef 243e 3eb2 ea3d ddb2 453d 0cf0 7b3c
000000c0: aafc 06be cfb5 da3c 9593 e23d 4a30 513d
000000d0: 80eb f83c 9fc6 dc3b 9071 353e 339d c23d
000000e0: 0567 093c b1af a63d aef0 f2bc 3250 1b3d
000000f0: 89fb 1f3c 85bb 3fbd ebbf 313e 594a ccbc
00000100: 97cd 9ebb fa3c 8abd 7d24 0ebd 114c 923d
00000110: 07a8 bf3d 9bd6 e23d d35c b03d d5cd 963d
00000120: 8491 6dbd 6ca3 c23d 58f1 313c 2880 013d
00000130: e0c1 d83c 978b 603d f047 0dbe cd36 25bc
00000140: 7d4f 1f3d b7e6 243d 3090 333e a681 943c
00000150: 45e8 3c3d 1812 043c 6ec4 16bd c709 ed3d
00000160: 2026 25be b198 2b3e 969a eb3d 4e50 263e
00000170: 8a22 ea3c 8b43 763c f545 f53c 8014 1b3e
00000180: 7db3 323d d23f 823c f729 193d a99b ef3d
00000190: f4d3 c3bb a454 d23c d61c 5a3c de4c 6a3d
000001a0: 6065 bb3d bb04 363e f039 9c3c e29e 8e3c
000001b0: 5bec 3e3e fb84 183e 5e20 d3bc 7da7 2fbd
000001c0: 63fb a9bd 2b8c 283e a68f a43d d4d6 3e3e
000001d0: beb7 203e 0710 4f3d e391 7f3e b9ad f93d
000001e0: d1ec 0d3e 4a6a 7f3c 2219 0e3e 8019 bbbd
000001f0: 47f7 863e 9ace d03d 98da 02bd 1d76 0cbd
0.04949622 0.05797287 0.03350684 0.07314633 0.04680871 0.088818654 0.1531518 0.11052846
-0.037141815 0.096249044 -0.053543985 -0.0077171754 0.14141434 0.042549547 -0.10149969 0.078700095
0.06276839 0.098953605 0.09161595 0.0011345426 -0.031280927 0.08428253 0.10642641 0.19839302
0.13284689 0.028969228 0.103912115 0.13726439 0.0055465302 0.009621567 0.07270053 0.053702306
0.17077631 -0.090241954 0.18652277 0.016387451 0.027819086 0.17410031 -0.06416779 -0.020919299
0.046888176 0.0049814 -0.01926795 0.016356297 0.16107011 0.11459778 0.04826628 0.015377056
-0.13182321 0.026698021 0.11063305 0.051071443 0.030385733 0.0067375447 0.17719102 0.095026396
0.008386378 0.08138979 -0.02965578 0.037918277 0.0097645605 -0.046809692 0.17358367 -0.024937795
-0.0048462856 -0.067499116 -0.034702767 0.07143415 0.093582205 0.11076089 0.08611455 0.07363478
-0.058000103 0.095038265 0.0108607635 0.03161636 0.026459634 0.054820623 -0.13796973 -0.010083866
0.038894165 0.04025909 0.17535472 0.018128227 0.046119947 0.0080609545 -0.036808424 0.115741305
-0.16127825 0.16757466 0.11504094 0.16241571 0.028580923 0.015030752 0.029940585 0.15144539
0.043628205 0.015899573 0.037393536 0.11699612 -0.0059761945 0.025675125 0.013312539 0.057202213
0.09150195 0.17775242 0.019070596 0.017409746 0.1864485 0.14894478 -0.02577227 -0.04288434
-0.08299901 0.1645972 0.08035211 0.18636638 0.15695092 0.050552394 0.24957995 0.12191338
0.1385987 0.015589306 0.13876775 -0.09135723 0.26360533 0.10195656 -0.03194675 -0.03429233

fc3.weight f4 [128, 128]
00000000: 489d a839 bf20 e8bc cc73 07be 4460 1ebd
00000010: 3f5b e6bb cf41 443d 6ef2 e23c 8f82 23bd
00000020: d37e c83d cd84 65bd 20af cfbd 288d 953c
00000030: 896c 4a3c 227b fd3c f896 7b3d fa45 073b
00000040: ecba c2bc 9775 86bd 84a0 a83c 6c11 d53c
00000050: e95b 543d 7511 11bd 2424 3abd ccdf a6bc
00000060: 52a8 a8bd b2fc 97bd 5682 a7bd 446d 623b
00000070: 6084 60bc 4b25 e23b b4bd 2fbd bcb3 893b
00000080: 9613 adbb 8f18 89bd 12dd 173d 6204 023e
00000090: 9cbd 243c 5e1d bebd 1fc8 6abd b5ca ffbb
000000a0: f595 88bd 3663 31bd f0cb dd3d c775 b2bd
000000b0: 3e69 7fbd 415c 6abd ca5f a7bc 9ae0 a23d
000000c0: 1446 74bd 7325 933d 1498 1f3d dc59 ca3d
000000d0: 15b5 9e3c ec88 8cbd d68d 35bd 5530 71bd
000000e0: e5a9 01bd 8e76 8aba 7cc5 d93d 5ba2 06be
000000f0: 8942 cb3d 3f90 613c 4eed 84bc df4b 3b3d
00000100: 38be 943c cfc0 cd3d 1120 0abd 643e 533c
00000110: 30f2 bd3c bf0c 44bd 80f2 06bd 095d c93c
00000120: 7d4f 9c3d ba2d 9b3c 2899 353d 6d4b 0d3d
00000130: bf0c 38bd e539 91bd 7d26 0b3c 8e45 613c
00000140: a1d0 dbbd 310d 1a3c aaca 0dbc 6b68 3d3e
00000150: 3504 ccbd 3b28 193e 55da c93d dbe6 a3bd
00000160: 7feb a63d 842e 51bd bfa1 503c 0a98 533c
00000170: 0f7b 653c 35ac 763d 2961 8a3d f871 b5bc
00000180: 4b08 ff3b f550 093d 932d 8bbd cfb1 0f3e
00000190: 64b8 613b 51ff 613d 3508 003d 0a64 79bd
000001a0: d103 acbc b089 1abd 98a9 e6bc 08b7 a93d
000001b0: c866 bf3b bd2e 583d 1489 8e3d 6a01 bcbc
000001c0: ef54 54bc bacc d0bc f8fb a4bd ebf9 5dbd
000001d0: c773 5c3c c033 a43d 7789 68bd 680b a8bd
000001e0: c0b7 dabd a616 9bbd e00c edbb 5e80 72bd
000001f0: 6a73 3a3d a36b 663c 757e 87bd 6bfa 903d
00000200: 1d2f 02bc 09d4 c73d 9790 a73b 0102 db3d
00000210: fd46 443d ab5a af3d 276e d93d 55ce 0f3e
00000220: 4b20 f1bc d8f8 bf3d 88ce acbc bb35 873c
00000230: d3e9 4c3d e0c7 953d 3068 063d 80ff cfbc
00000240: c6e4 593b f13b aa3d 9972 96bb ed8a c23d
00000250: 147f 81bd d101 d83d 5999 623d 2428 8f3d
00000260: 6ad0 853d a871 7ebd e662 d7bc 5906 003e
00000270: 4fea f3bd 1cf6 853c eb13 733d 4330 ca3c
00000280: d92d 963d 9d6c 143e 035c 063d ab98 dd3d
00000290: 2080 1e3c f6f8 c7bc 3bde 47bd 0dcb b3bd
000002a0: 1796 be3d 8f51 04be 7f73 d3bd 124b 79bc
000002b0: f828 863d df54 763d 434e b73c 4814 8fbd
000002c0: d63b 633d e8cb b6bc 4e47 fbbc be56 483d
000002d0: 95fb c2bb 2c2a 833d 37ca 42bc 176c 933d
000002e0: e0cc 8c3d cdbf 89bd a93d d5bd 55d3 ff3c
000002f0: 467d 9dbd a325 d2bd c104 3e3d c894 2dbd
00000300: 362c a03d 4578 a2bd 753f bbbb b3b0 ac3d
00000310: ba94 313d 5d50 de3d ee64 a73d 0030 9c3d
00000320: 3c52 673d 627c 973c fc83 cfbb b158 d33c
00000330: 386d b6bd 2643 f73d e77d 7c3c 71d9 8fbd
00000340: f7a0 073e d5a3 01bd 368a cb3d 7460 c1bc
00000350: 8e15 453d 7e81 5e3d 202a c7bd e73f be3d
00000360: 4a42 f83b 908c 13bd f366 c73b d4ba 99bd
00000370: 3f42 8c3c 92d7 08bd 13a3 10bd 6c71 463d
00000380: d6f1 b23d 18b6 9fbd 66d2 933d 4d4c 573d
00000390: 7040 8cbc 92b3 1abd 975c 153d d76d 153e
000003a0: 5e5b 9cbb fa6d 9d3d 5922 f0bc 7d9f 733d
000003b0: 62aa ed3c b543 c6bc a02b a6bd 31a2 17bd
000003c0: f0ad 823d 8e3b 703c b77a 6b3d 204f 2bbc
000003d0: bed7 463d a5fb 1ebd 9bf6 f9bd 2b7d 38bc
000003e0: e120 bc3c 156b a0bd 38f3 163d 6eb9 aebd
000003f0: eb6b b03c 4db6 963d 1a33 f3bd 3a34 05be
0.0003216064 -0.028335927 -0.13227767 -0.038666025 -0.0070299204 0.047914322 0.02770349 -0.039919432
0.09789815 -0.05603485 -0.10140824 0.018255785 0.012354978 0.030942503 0.061423272 0.0020641075
-0.023770772 -0.06565397 0.020584352 0.026009284 0.051845465 -0.03541704 -0.045444623 -0.020370387
-0.082352296 -0.07421245 -0.081791565 0.003454999 -0.013703436 0.0069014183 -0.042905524 0.004202334
-0.005281876 -0.06694137 0.037076063 0.12696984 0.010054972 -0.09282945 -0.057319757 -0.007806147
-0.06669227 -0.043307506 0.108299136 -0.087138705 -0.062356226 -0.057216886 -0.020431418 0.079529956
-0.059637144 0.07184877 0.038963392 0.098804206 0.019373456 -0.06862053 -0.04432472 -0.058883984
-0.031656165 -0.0010563897 0.1063337 -0.13147871 0.099248 0.013767301 -0.016226437 0.045726653
0.01815711 0.10046541 -0.033721987 0.012893293 0.023186773 -0.047863718 -0.03294611 0.024580495
0.07632349 0.018942703 0.044335514 0.03449576 -0.04493403 -0.07091121 0.008493063 0.013749493
-0.10733152 0.009402559 -0.008654276 0.18496864 -0.0996174 0.14956753 0.09856097 -0.080030166
0.08150386 -0.05106975 0.012733876 0.012914667 0.01400639 0.060222823 0.06756813 -0.022149071
0.007782971 0.033524472 -0.06795802 0.14032672 0.003444218 0.05517513 0.031257827 -0.06088642
-0.020997914 -0.037728965 -0.02815704 0.082868636 0.00584111 0.052778948 0.06959739 -0.022949893
-0.012959703 -0.025488246 -0.08055872 -0.05419342 0.013455338 0.08017683 -0.05677172 -0.082053006
-0.10679579 -0.07572679 -0.007234201 -0.05920445 0.045520224 0.0140637485 -0.06615917 0.070790134
-0.007945803 0.09757239 0.005113672 0.106937416 0.047919262 0.085622154 0.10616713 0.14043553
-0.029434344 0.09373635 -0.021094576 0.016505113 0.05002768 0.07313514 0.032814205 -0.025390387
0.0033247932 0.08312214 -0.004591298 0.09499154 -0.06323066 0.105472215 0.055322025 0.06990078
0.065338925 -0.06212011 -0.026292276 0.12502421 -0.11909925 0.016352706 0.059345167 0.024681216
0.073329635 0.14494558 0.032802593 0.10820135 0.009674102 -0.024410706 -0.04879592 -0.08778963
0.09305971 -0.12921737 -0.103247635 -0.015215652 0.06550783 0.060139533 0.022376185 -0.0698629
0.055476986 -0.022314027 -0.03067365 0.04891085 -0.005950401 0.06404528 -0.011889032 0.07198351
0.06875014 -0.06726036 -0.10412151 0.0312287 -0.0768991 -0.10261085 0.046391252 -0.042378217
0.078209326 -0.07933096 -0.005714352 0.0843214 0.043354727 0.10855172 0.08173548 0.07626343
0.05647491 0.018491928 -0.0063328724 0.025799127 -0.089075506 0.120733544 0.015410877 -0.070238955
0.13244997 -0.031650383 0.09938471 -0.023605563 0.04811626 0.054322712 -0.097248316 0.09289532
0.0075762616 -0.036022723 0.0060852706 -0.07506338 0.017121432 -0.03340871 -0.03531177 0.04844801
0.08737533 -0.077984035 0.07217865 0.052563 -0.01712057 -0.037768908 0.036465254 0.14592682
-0.004771634 0.07686992 -0.029313253 0.05947827 0.029011909 -0.024202207 -0.081137896 -0.037019912
0.06380832 0.014662636 0.057490077 -0.010455877 0.04854559 -0.038814206 -0.122052394 -0.011260311
0.022964897 -0.07832924 0.036853045 -0.08531462 0.021535834 0.0735899 -0.11874981 -0.13008204

fc3.bias f4 [128]
00000000: d277 f03c 3b01 963d e776 cc3d 197d bf3d
00000010: 8905 963e 0aef 0d3e 2f8f f83d 7318 2d3e
00000020: 13de d93d c4d8 213e 0488 2e3e 1212 eb3d
00000030: 488a d9bd a7b9 2a3e 0c43 c23c 3484 2ebc
00000040: 9533 d93d c854 933c c902 e13d f66a e83d
00000050: c472 f33a 4293 adbd f16b c2bc 73e1 373e
00000060: fb10 003e e31b 953c 5088 babd 9652 dc3d
00000070: e186 1b3e 2126 ec3d 7789 6e3e 8e4f babd
00000080: 6603 3c3e 001d 593c 5a3b 233e 78e1 cabd
00000090: a3a2 91bd 0232 93bc 92af 4d3e 1317 033e
000000a0: 04f2 c33d 2f3d 493e 9847 f3bc c06d 153e
000000b0: 720a 3f3c 2634 683d 9e2b 223e 427e a43d
000000c0: 4bb6 8b3c baf5 b93d 2cf6 c53d 618c 7b3c
000000d0: 96f1 e6bd ae54 b53c 7737 893d 2489 fc3d
000000e0: bbc3 5a3e f3e2 983d b100 28bd 8a8c 6c3d
000000f0: 405d 453e 402f 483e 11c6 3f3e 03a3 943d
00000100: 399f de3d 48e8 423d 2f3a 913d f601 8d3e
00000110: eafe a03d f9d1 0c3b c6f0 363e f1bf 563e
00000120: 2848 713e aa11 213e 1e02 0ebe c5f2 1a3b
00000130: c425 653d 2955 513e d4a7 2ebe cfbf 0d3e
00000140: 5ec6 f83a cd3a 1f3e 367d f53b e3d4 263e
00000150: 0aed 103e b69d 3d3e a661 c0bd 9453 9a3d
00000160: f9cf e13d 632f 6a3e 5b79 ba3d 040f ff3d
00000170: c739 723e ba82 693e d3ae 6c3e 11f3 0c3e
00000180: c65f 21bd 6b2a 12be f7fc 36bd ef62 413e
00000190: 63d0 be3d 35bd 323d d029 0ebd 3aa4 fc3d
000001a0: d6b1 2d3e 43b1 773d 85c9 083e d3b3 713e
000001b0: b1d0 1e3e 4146 8b3d c1e5 893d 8a86 08be
000001c0: 00a9 e43d 6033 18be 6b51 a23d 6e99 d9bd
000001d0: 61b1 213e d9c2 e43d aafd b53d 249c d53c
000001e0: 4aa2 523e 6433 3f3c 6429 863d ccfd 64bd
000001f0: 97bc a33d c6e2 18bd 84df 2e3e b4f3 29bd
0.02935401 0.073244534 0.09983616 0.09350032 0.29301098 0.13860717 0.12136685 0.16903858
0.106380604 0.15805346 0.17044073 0.11478056 -0.10622078 0.16672383 0.023713611 -0.010651637
0.106055416 0.017984763 0.10986859 0.11348526 0.0018573632 -0.08475353 -0.023733111 0.17957096
0.12506478 0.018201774 -0.09108031 0.107579395 0.15188171 0.1153071 0.23294626 -0.09097205
0.18360671 0.013251543 0.1594061 -0.09906286 -0.071110986 -0.017968182 0.20086506 0.12801771
0.09567645 0.19652246 -0.029697224 0.14592648 0.011660205 0.056690358 0.15836951 0.08031894
0.017054697 0.09080072 0.09666094 0.015353293 -0.112765476 0.022135105 0.06700032 0.12330845
0.21363728 0.07465162 -0.041016284 0.057751216 0.19273853 0.19549274 0.187279 0.072576545
0.10870213 0.047584802 0.07091176 0.2754056 0.07861121 0.0021487458 0.17865285 0.20971657
0.23562682 0.15729395 -0.13867995 0.0023643237 0.05594422 0.20442642 -0.17056209 0.138427
0.0018980016 0.15549774 0.007491733 0.16292147 0.14152923 0.18517193 -0.09393625 0.075354725
0.11025996 0.22869639 0.09105178 0.12454036 0.23654853 0.22803774 0.23113565 0.13764597
-0.039397977 -0.14273994 -0.04467484 0.18885396 0.0931709 0.043637473 -0.034707844 0.12336011
0.1696237 0.060471784 0.13358124 0.23603754 0.15509297 0.06800509 0.06733275 -0.13332573
0.11165047 -0.14863348 0.079256855 -0.106249675 0.15790321 0.11169977 0.08886273 0.02607543
0.20569721 0.011669967 0.065508634 -0.055906102 0.07994955 -0.037325643 0.17077452 -0.04149218
