models/dqn_model_epoch_40000.pth (torch, 595624 bytes, 14 tensors)

cnn1.weight f4 [16, 4, 5, 5]
000000 16 63 47 be e7 6f 33 3d de cd e4 bc c2 9b 49 be
       -0.19471392 0.04380789 -0.027930196 -0.19688323
000010 76 5c 12 be 42 7e 4b be a2 91 46 be fe 62 94 be
       -0.14293084 -0.19872382 -0.19391492 -0.28981775
000020 74 9a 0e bd 09 54 69 bd 8d b7 8b be 2c 40 24 be
       -0.034815267 -0.056964908 -0.27288476 -0.16040105
000030 53 3e c2 be cd e0 15 be 3c 1d 1e 3d b6 21 2a be
       -0.37938175 -0.14636536 0.0386021 -0.16614422
000040 af ac 5a be 8b d3 23 bd b4 30 83 be 35 44 45 3c
       -0.21354936 -0.039996665 -0.25623095 0.012040188
000050 39 f9 56 be 9f a0 81 be d9 23 41 be 11 4f 89 3d
       -0.20993508 -0.25317857 -0.18861331 0.06704534
000060 7e b6 e3 3c 6f 4c 70 bc df b1 09 bd 50 f2 c1 bd
       0.02779698 -0.014666661 -0.033616897 -0.094700456
000070 92 d0 11 be 54 55 e3 3c 57 1a 82 3d 99 2e db bc
       -0.1423972 0.027750649 0.0635268 -0.026755618
000080 d2 16 cf 3c 0e 19 89 bd f6 42 90 bd 01 04 41 bd
       0.025279436 -0.06694232 -0.07044022 -0.04712296
000090 22 c0 0c be b0 fb 85 3c 62 5e 07 3e 5f 5d e8 bc
       -0.13745168 0.016355366 0.13219598 -0.028364835
0000a0 49 fd d3 bd 7e 2a a8 3c 68 a1 ad bd e1 70 9b 3c
       -0.10351045 0.020528074 -0.084780514 0.018974723
0000b0 17 00 04 be 20 15 02 bd 95 e2 99 3d 3a 40 2a bd
       -0.1289066 -0.031758428 0.0751392 -0.041565157
0000c0 75 c4 8a bd f1 6e b2 bd b7 f3 a9 3d c8 a7 27 bc
       -0.067757525 -0.08712567 0.08298438 -0.010232873
0000d0 45 12 07 be 6b af 52 be 2c 5a d4 bc 32 92 c7 bc
       -0.13190563 -0.20574729 -0.025921904 -0.024361704
0000e0 27 1f b3 bd b8 5d 36 3e ae 02 4b 3d c5 f4 1d be
       -0.08746176 0.17809188 0.049563102 -0.15425403
0000f0 13 cd 6d 3e e3 25 6c 3e 73 6c 03 3e 09 e3 03 3d
       0.23222761 0.23061328 0.12834339 0.03219894
000100 99 6c 57 be 1c c8 90 be 48 22 1f 3e 4a 2e 90 3e
       -0.2103752 -0.2827767 0.15540421 0.28160316
000110 42 f3 05 be 7f a0 2a be 6e 03 24 be bf c6 83 bc
       -0.13081077 -0.16662787 -0.16016933 -0.01608598
000120 79 b9 a2 3e 8d dc 06 be d0 34 1c be 08 92 bf bd
       0.3178213 -0.13170071 -0.15254521 -0.09354025
000130 a8 56 7a be 2c 86 b8 bd a3 c5 a7 bb e6 cc 87 bd
       -0.24447119 -0.09009966 -0.0051199957 -0.06630878
000140 89 64 2b bd d9 a9 e1 3d a4 49 18 3e 93 f0 c0 bd
       -0.041843925 0.11018724 0.14871842 -0.09420886
000150 4c e3 09 3d 5b f0 26 be e9 24 96 3d b8 2a a5 3d
       0.033664033 -0.16302626 0.07331259 0.080647886
000160 6a 97 bf bd 09 e2 a8 bd d0 8c 03 be 6f 2e e4 bb
       -0.09355052 -0.08246238 -0.12846684 -0.006963543
000170 57 a3 98 3d 20 d5 c8 bc f8 bd f2 bd d0 01 b9 3d
       0.074530296 -0.024515688 -0.1185264 0.09033549
000180 56 5e f5 3d 2d 76 3a be 29 8e 8f bd 74 15 75 bd
       0.11980884 -0.18209143 -0.07009537 -0.059834912
000190 0f f1 f2 bd 16 95 85 be 7f 2a 35 be 0e 60 0b 3d
       -0.118623845 -0.26090306 -0.17691992 0.03402715
0001a0 01 8e 67 be 71 42 01 be 44 cc a7 bd 8b 03 b6 bb
       -0.22612764 -0.12623002 -0.081932575 -0.0055546216
0001b0 a6 4f bf 39 46 09 ae 3b 2b 10 0c be 16 c8 39 bd
       0.00036489702 0.005311164 -0.13678043 -0.045356832
0001c0 0d 16 73 3c fd 34 71 bd 7e 41 7d bd de 71 1f be
       0.0148368 -0.058888424 -0.061830036 -0.1557078
0001d0 36 ea 67 be 02 e8 33 be ad 8a bd be ee 1a 6e bd
       -0.22647938 -0.17568973 -0.37019864 -0.05813115
0001e0 39 07 84 be 4a ae 62 be 42 6b c5 bd d8 7e 93 bd
       -0.2578676 -0.22136799 -0.096395984 -0.07201928
0001f0 eb d3 ff bd df 70 3e bd 73 26 ab 3d 03 0f 6f bd
       -0.12491592 -0.04649436 0.08356943 -0.058363926
000200 90 4a 11 3d d5 aa 06 be 29 c5 7c bc 5c 66 1d bd
       0.0354715 -0.13151105 -0.015427866 -0.038427696
000210 c7 19 da bd 38 53 be 3c d0 12 6e ba 74 25 a6 bc
       -0.10649448 0.023233041 -0.0009081783 -0.02028153
000220 41 35 4d bd a6 20 12 be 6e d4 45 bd 6d c4 d2 bc
       -0.050099615 -0.14270267 -0.04829829 -0.025728429
000230 2b 91 0b be bf 1a cb bc 12 47 51 3d 30 4d 47 bd
       -0.13629596 -0.024793027 0.05109317 -0.048657596
000240 fc 7c da bd 14 aa 1f bb aa 48 06 3d d5 8f 8c bd
       -0.1066837 -0.002436285 0.03278414 -0.06863371
000250 99 c6 d4 3d f2 a1 e8 bd e5 da 42 be 9b 71 31 3e
       0.10389442 -0.113590136 -0.19028814 0.17328493
000260 b6 45 5f bd 7a 38 1f 3e 4c 57 17 be c6 ee 3e be
       -0.05450984 0.15548888 -0.14779395 -0.18645772
000270 44 25 37 3e fe 16 51 be 4c b5 a7 3d e4 ca 20 be
       0.1788531 -0.20418927 0.081888765 -0.15702397
000280 7b de 8b be c9 2f 80 be 76 cc b6 3d 13 20 c6 3d
       -0.27318177 -0.25036457 0.089257166 0.096740864
000290 13 65 57 be 3b 49 7c be 7c c5 0c be f0 98 85 3e
       -0.2103465 -0.2463731 -0.1374721 0.26093245
0002a0 a7 99 41 be 70 da 6e be 3e 40 c6 3e e3 fd 97 3e
       -0.1890627 -0.23325515 0.38720888 0.29685888
0002b0 12 2b d3 3e 89 e4 66 bd 70 7b 29 be 89 12 54 3e
       0.41243798 -0.05637029 -0.16550994 0.20710196
0002c0 c9 9f 08 3e 1d f3 72 3e 90 9f 8d bc f8 7b a8 bd
       0.13342203 0.23725553 -0.017288 -0.0822677
0002d0 47 a0 ef 3d 09 ee f4 bd 05 bf 1b 3e f7 43 04 be
       0.11700492 -0.11959464 0.15209587 -0.12916552
0002e0 40 c8 e0 bd 12 81 28 be ca b9 bd 3d 38 52 81 3d
       -0.10975695 -0.16455486 0.09263952 0.0631451
0002f0 69 48 a6 bd a3 cb 1c be fe 26 2b be 19 8e eb bc
       -0.0811928 -0.15312056 -0.16714093 -0.02875428
000300 44 c6 ab bd 0e 2a 00 be 42 45 25 bd 43 04 0a be
       -0.083874255 -0.12516043 -0.040349253 -0.13478188
000310 9c b4 f1 bd 0e 6f 39 3e 7d 25 03 be af 90 0e be
       -0.11802027 0.1810877 -0.1280727 -0.1392238
000320 70 06 99 be ba 42 99 bd 2d 94 b0 be d0 b4 46 3d
       -0.29887724 -0.0748343 -0.3448805 0.04851228
000330 69 0d 3a be ea 39 64 be 18 93 21 be 3f f8 42 be
       -0.18169178 -0.22287717 -0.15778768 -0.19040011
000340 21 b5 1c 3d 0f fc 9b 3b ec 3b 78 be 53 c0 5f be
       0.038258675 0.0047602723 -0.24241608 -0.2185071
000350 1a df fa bd 08 ec f2 3c 57 10 35 3e e2 80 7e be
       -0.122495845 0.029653564 0.17682014 -0.24853852
000360 9a 66 6a be d0 6a 94 be 76 aa 21 be 10 7e 09 3e
       -0.22890702 -0.2898774 -0.15787682 0.13426995
000370 ab 84 79 be 76 20 05 be c2 cf 74 be f3 10 56 3d
       -0.24367015 -0.13000664 -0.23907378 0.052262258
000380 af 56 85 bd 52 22 05 be 6f f2 46 bc e7 d4 0e be
       -0.06510674 -0.13001373 -0.012142762 -0.13948403
000390 c1 c3 b0 bd 66 b8 16 bd 64 0e 7c bb 8d 2c b2 bc
       -0.08631087 -0.03679695 -0.0038460726 -0.02174976
0003a0 25 1c 81 3d aa f4 b9 bd 6d b3 ea 3c 0e 80 60 bc
       0.06304196 -0.09079869 0.02865001 -0.013702406
0003b0 3c 3a c8 3c 3b bb 4c bc 09 d5 ca bd 27 39 4a bb
       0.02444183 -0.012495811 -0.099039145 -0.003085682
0003c0 9f 2a 3c bb 1e d9 b5 bd 6f 2f 2e 3c ae c1 3b 3e
       -0.0028711928 -0.088793024 0.010631426 0.18335602
0003d0 b5 ae dd bb a9 bf a7 bd e8 02 19 be b9 4c 62 bd
       -0.0067652115 -0.08190853 -0.14942515 -0.05524895
0003e0 03 f4 ba 3d 5b b1 29 bc 44 94 99 3d 63 64 fc 3c
       0.09128573 -0.010357226 0.074989825 0.030809587
0003f0 a6 2b 50 3d 01 30 cb be 74 a5 79 bd a1 52 c7 3c
       0.050822876 -0.39685062 -0.060948804 0.024331393

cnn1.bias f4 [16]
000000 56 51 63 3d a8 94 4c bd 65 21 8e bd e8 04 99 bd
       0.05549749 -0.049946457 -0.06939963 -0.07471639
000010 2d 70 11 3d 80 69 95 bd 53 6d 92 bd 80 fe 05 bb
       0.03550737 -0.07295513 -0.07149758 -0.0020445883
000020 94 15 82 3c 00 b6 f9 bd 1f 4a ec bc 59 bb 96 bd
       0.01587943 -0.12192917 -0.028843937 -0.073599525
000030 1e 14 80 bc b5 de b5 bd 95 d1 c8 3c 1c 03 96 bd
       -0.015634593 -0.088803686 0.024513999 -0.07324812

cnn2.weight f4 [32, 16, 3, 3]
000000 8b 90 d5 3c 71 5f 6c 3d 2d 1a d5 3d 33 0f 1e 3e
       0.0260699 0.057708208 0.10405383 0.15435486
000010 e6 9b 9c bc 2d 8c 2a bd fe 31 9a 3d 6a 72 8c 3c
       -0.019117307 -0.04163759 0.075290665 0.0171444
000020 8f c9 52 bd 14 0f 2e 3e c3 59 c9 bd 2d 7b 29 3d
       -0.051461753 0.1699794 -0.09831574 0.041377235
000030 de ec 06 3e ec e2 95 bd 47 c1 f4 3d a4 bb 1c 3e
       0.13176295 -0.073186725 0.11950927 0.15305954
000040 0c e3 6a bd f3 51 8f bd 1a af 5d bc e2 f7 e8 bc
       -0.057345435 -0.069980524 -0.013530517 -0.028438512
000050 85 ef 81 ba 19 33 ab bc b9 a1 c7 3b 4b 2a 5b bd
       -0.0009913301 -0.020898389 0.006092277 -0.05350713
000060 b6 43 70 bd a6 48 80 3c 5d 22 66 bd cb 53 d5 3d
       -0.058658324 0.015659641 -0.056185115 0.10416373
000070 5a 96 a3 bd 7d 80 90 3c ed a4 26 3e 78 5c 08 3d
       -0.07987662 0.017639393 0.16273852 0.03329131
000080 d7 d7 00 bd 0a 92 e5 3d b4 3f 7a 3d 26 55 b4 bd
       -0.03145584 0.11209495 0.06109591 -0.08805303
000090 da ed 80 3d 1f 38 9e bc 32 bc 9b bc 15 f3 de 3d
       0.062953666 -0.01931387 -0.019010637 0.10886208
0000a0 a1 19 72 3c 3b 53 86 3d df 85 ba 3d 50 86 f0 3c
       0.014776618 0.06558844 0.09107565 0.02936092
0000b0 bf cf b8 3d 74 9b c2 3d 76 4c 83 3d db 98 8a 3d
       0.090239994 0.095023066 0.06411068 0.06767436
0000c0 69 5e 00 3e 06 9b 73 3d 13 4b da 3c c1 8e 59 bc
       0.12536015 0.059474014 0.026647126 -0.013278664
0000d0 ba 80 8c 3c 9f 48 14 3d ce 17 62 bd 44 14 0d 3d
       0.017151225 0.03620207 -0.055198483 0.034443155
0000e0 a2 6b 9c 3d 4a d1 be 3b 77 99 f3 3c ff f0 80 3d
       0.07637717 0.005823289 0.029736264 0.06295966
0000f0 67 1f 37 3d eb 60 11 3d da b8 d3 3d d8 bc 68 3d
       0.044707682 0.03549282 0.10337992 0.05682072
000100 99 00 aa bd cd f8 46 3d 71 2b 3b 3d a8 c3 45 bd
       -0.08300895 0.04857712 0.045695726 -0.048282295
000110 34 de cd 3d 9b 15 ca bc 1d 4a 15 bd 87 65 10 3c
       0.100521475 -0.024668505 -0.036447633 0.0088132685
000120 9e 9c 66 3d 01 72 7a bc 2d 0f 66 bd 6a c0 e3 3d
       0.056301706 -0.01528597 -0.056166817 0.111206844
000130 da f2 ba 3d ab 9d a6 3d 87 40 4c 3d f2 3e 2e 3d
       0.091283515 0.081355415 0.049866226 0.042540498
000140 eb 10 4a 3d f5 5e 8d 3d 14 e6 a0 3d 4c ad f0 3d
       0.04933254 0.06902877 0.07856384 0.11751804
000150 91 55 57 3d 99 e4 4c 3d d6 d5 e3 3c d6 5e 8c 3d
       0.052571837 0.050022695 0.027811926 0.06854026
000160 3c fa 15 bd b2 9d 3c 3d 4e 44 37 3d 27 c4 87 bc
       -0.036615595 0.046048827 0.044742875 -0.016573025
000170 0c d3 4a bc 5f 83 36 3c 70 6a 8a bb 2f 4f ac bd
       -0.012379419 0.01113972 -0.004224114 -0.084135406
000180 72 77 2d 3b dd 37 da ba a2 14 26 bb e0 06 99 3c
       0.00264689 -0.0016648729 -0.0025341888 0.018680036
000190 59 6f 23 bd 9c ee 17 3d 11 19 a5 3d b3 25 b2 3d
       -0.03990111 0.03709279 0.08061422 0.08698597
0001a0 ab 6f 5e bd 59 a5 d5 3d d1 9f 3e 3d d5 43 ab 3d
       -0.054305714 0.10431928 0.04653913 0.08362547
0001b0 6a 13 a9 bd 38 f4 f1 bd eb f3 99 bc 5c fc e0 bb
       -0.08255656 -0.11814159 -0.018793067 -0.006866021
0001c0 99 a3 36 3d 43 20 29 bc 22 ea 4f 3d ba c8 5d bd
       0.044589613 -0.010322633 0.050760396 -0.054146506
0001d0 d9 6d 2e bb f7 74 1a bd 87 47 6d bd 89 87 bf 3c
       -0.0026615767 -0.037709203 -0.057929542 0.023380058
0001e0 70 75 3c 3d 00 9c 80 bd 20 ab 7b bd f3 e6 18 bd
       0.046010435 -0.06279755 -0.061442494 -0.037329625
0001f0 ac ac a1 bd b0 86 06 bd b1 78 db 3d 80 32 cd bc
       -0.07894263 -0.03284329 0.107163794 -0.025048494
000200 4a 1e ac 3d 38 03 39 3e 73 05 77 3d 25 a6 8e 3d
       0.08404215 0.18067634 0.06030793 0.06965283
000210 55 53 22 3e 11 b3 b1 ba f4 94 c3 3d bf 6c b8 3c
       0.15852101 -0.0013557394 0.09549895 0.022512792
000220 fe 81 71 bd 28 ab 8b ba cf d7 70 3d 78 7d 2b bd
       -0.05896186 -0.0010655867 0.05879956 -0.041867703
000230 e2 08 3b 3c 17 87 1f 3d c8 ce 4f bd 9d 62 c7 bd
       0.011415692 0.03894719 -0.05073431 -0.09735606
000240 15 48 56 bd 4e c6 13 3d ac 0a e9 3c ce ac 23 3e
       -0.052314837 0.03607779 0.028447472 0.15983889
000250 93 5e dc 3b 54 f8 e3 bc ab 47 73 3c 96 8a 07 3d
       0.0067251413 -0.027828373 0.01484863 0.03309115
000260 a6 75 62 bc 29 21 20 3c 8f 29 eb 3d 1f 6a 09 bd
       -0.013821995 0.009773531 0.11482536 -0.03354847
000270 04 90 07 3e 33 97 19 3c 10 17 95 bb 9e 3f 96 3d
       0.13238531 0.009374428 -0.0045498684 0.07336353
000280 5c b5 f9 3d 4f 33 c3 bd aa c4 2a 3c 2e c8 8d bd
       0.12192795 -0.09531271 0.010422865 -0.06922947
000290 fd 71 36 bd fe 68 b0 bd 1f 5f f0 bd 47 69 b8 bd
       -0.0445423 -0.08613776 -0.11736893 -0.09004455
0002a0 69 25 52 bd 6c c2 07 be 65 49 e5 bd 32 56 f6 3d
       -0.05130521 -0.1325776 -0.111956395 0.12028159
0002b0 b9 31 f1 3d 37 bc d1 bc 9a 4f 21 3e a1 ef 8b ba
       0.11777062 -0.025602443 0.15753022 -0.0010676273
0002c0 1c c0 b1 3c a6 f4 f3 3d 57 84 90 3d 56 81 94 bd
       0.02169805 0.11911897 0.07056492 -0.07251231
0002d0 df a5 df 3c f8 56 4f 3d 80 d6 0c 3d f6 41 8b 3d
       0.027300773 0.05062005 0.03438425 0.067996904
0002e0 e5 8b 34 3e 70 f8 ef 3b 7b 06 bf 3d 2e 53 65 3d
       0.1763149 0.007323317 0.09327408 0.05598753
0002f0 1a f1 09 3d 49 ad 47 3e 8f 49 f5 3a 82 3f 02 3d
       0.033677198 0.19499697 0.0018713939 0.031798847
000300 48 c1 13 3e 9c 78 27 3c cd 93 f7 3b 54 e6 69 bd
       0.144292 0.010221627 0.007555461 -0.057104424
000310 3e 4e 37 3d ff 43 0e be 76 ee 92 ba 7c b4 9a bc
       0.044752352 -0.13893126 -0.0011209983 -0.01888489
000320 b2 17 1e bc c6 b5 fb 3d 32 ce c9 3d 9a bb fe 3c
       -0.009649204 0.1229053 0.09853782 0.031095315
000330 ea f8 31 3e 55 13 5d bd 44 05 dc 3d a3 c6 06 3c
       0.1738011 -0.053973515 0.10743192 0.00822607
000340 4f 9e 2b 3d d3 89 0d bd ed 5f 44 bd ba 1f 81 bd
       0.04189902 -0.034555268 -0.047943044 -0.063048795
000350 e3 16 b2 bc 86 b5 38 bd be 8b b9 bd 75 fc b0 bc
       -0.021739429 -0.04509499 -0.09059857 -0.021604756
000360 73 41 1d 3e 19 63 d3 3c 00 4d 0d 39 4f a3 29 3e
       0.15356998 0.02580409 0.00013475493 0.16566204
000370 12 05 87 bc 09 d6 4d bc ff 4b 3c 3e 8b 22 41 3d
       -0.01648191 -0.012563237 0.18388365 0.047152083
000380 0c ce 06 3d 38 17 1a 3e cb cd b3 3d 28 04 ac 3c
       0.032911345 0.1504792 0.08779486 0.020998076
000390 da 46 48 3b 80 9b b5 3d cc 2a 21 3e 4e 6e b0 3d
       0.003055981 0.0886755 0.15738982 0.08614789
0003a0 79 c6 0f bd fe 23 12 3d d5 ec c5 3c 34 10 b6 3d
       -0.035101388 0.035678856 0.024160782 0.08889809
0003b0 ce 1f cf 3b 1e 08 44 3d 3a 2f 55 bc 5e a2 91 bd
       0.00632093 0.047859304 -0.013011748 -0.07111047
0003c0 14 8f 58 bd 02 ef 51 bd 71 0e fb bd 67 ef f4 3d
       -0.052870825 -0.051253326 -0.12258614 0.11959725
0003d0 24 4d 49 3d d7 17 cd bd 27 38 8b 3d e1 2d 56 3d
       0.049145833 -0.10014313 0.067978196 0.052289847
0003e0 a4 b9 e2 bb 80 72 e2 3d 94 47 90 3d cb 62 c3 3c
       -0.0069191027 0.110569954 0.070449024 0.02385082
0003f0 0f dd a1 3c a0 80 bc bc d5 4a 90 bd 61 93 ee 3d
       0.01975873 -0.023010552 -0.07045523 0.11649204

cnn2.bias f4 [32]
000000 3b 9c d0 bd db d3 f0 bc 05 e9 0c bd 70 e7 6f 3b
       -0.101860486 -0.029397896 -0.034401912 0.0036606453
000010 69 b6 c9 ba 66 da cd ba 0a 1e 9a bd 23 2d 92 3d
       -0.0015389445 -0.0015705347 -0.07525261 0.071375154
000020 c1 dc 91 bd f3 5e 30 bd 64 e8 f4 3c 64 17 e7 39
       -0.071221836 -0.0430593 0.029895969 0.0004407718
000030 7e e1 d8 bb 7c ca db 3b eb ab 7c ba ea a5 de bd
       -0.0066186776 0.0067074876 -0.0009638655 -0.10871489
000040 69 3b e6 3d dd 1a c6 3b d6 84 18 bd bd 0f c9 bd
       0.112418 0.006045683 -0.037236057 -0.09817455
000050 d2 ab df bd 61 69 8f 3c bc 3e 57 bd 06 f4 24 bd
       -0.10921444 0.017506303 -0.052550063 -0.04027178
000060 65 9c 92 bb 63 3f af bd f9 c5 5a bd ff cd 06 be
       -0.00447421 -0.08557012 -0.053411458 -0.13164519
000070 0b b9 c6 3d 33 1c 74 bd e1 58 bf 3d b3 75 0e bc
       0.09703263 -0.059597205 0.09343124 -0.008695054

cnn3.weight f4 [32, 32, 3, 3]
000000 25 5d 02 3d 3a b2 ad ba e0 63 98 3c c9 a4 44 3c
       0.03182711 -0.0013251968 0.018602312 0.0120021785
000010 0d 69 93 bd aa a7 3f bd c7 4c 46 bc 94 15 c2 bc
       -0.07197771 -0.046790756 -0.012103266 -0.02369193
000020 97 e4 b5 39 c1 24 2a 3e 98 8f 2c 3d 53 b9 97 bd
       0.00034693323 0.16615583 0.04212913 -0.07408395
000030 b5 22 a7 3d 2f c1 2f bd 43 c8 17 be bd 6a 8f bd
       0.08160917 -0.042908844 -0.14822488 -0.070027806
000040 a7 cc 44 bd 7e a1 bc bd d1 c8 b7 ba 40 52 2d bd
       -0.048046734 -0.0921049 -0.001402164 -0.042314768
000050 30 99 89 bd c8 64 88 3d 13 6c 5a bd 10 a0 9e bd
       -0.06718671 0.066598475 -0.053325724 -0.07745373
000060 5e bf 46 3d bf b9 68 3d 3f 34 83 bc 23 3e 15 3d
       0.048522346 0.056817766 -0.016016124 0.03643621
000070 31 07 d2 bb 8c 40 ff 3b 68 db 4f 3d 4e 3a 56 bd
       -0.0064095487 0.007789677 0.05074635 -0.052301697
000080 b3 1a 55 bd 86 e6 61 3c a1 b9 d4 bc c4 fa d4 3c
       -0.052027415 0.013787871 -0.025967421 0.02599848
000090 07 eb d4 3d db 1b cf 3c c3 42 37 bc 99 34 cd bc
       0.103963904 0.025281837 -0.011185351 -0.025049495
0000a0 7c 40 cc bd 3d 30 a6 3b e1 09 a4 3a 26 2d 7d 3d
       -0.09973237 0.0050716684 0.0012515151 0.061810635
0000b0 7e c9 2e bc 24 c9 f1 3d a8 94 a1 bd 1c 72 8e bc
       -0.010668157 0.11805943 -0.07889682 -0.017388396
0000c0 75 e5 0c 3d ea 5a c5 bd 58 b7 c3 bd ba 9c 72 bc
       0.034398515 -0.09636481 -0.095564544 -0.014807874
0000d0 fe 81 b7 3b ce 8f 80 bb b4 c1 10 bb 80 8f de 3c
       0.005600213 -0.003923393 -0.0022088112 0.027168036
0000e0 a5 5c 82 bd b3 4f 1f bd 4c ea 23 bb dd 44 ec bc
       -0.06365327 -0.038894366 -0.0025011478 -0.02884143
0000f0 4c 5a 46 3d 39 03 61 bd 71 3c 23 bd e0 32 43 bd
       0.048425958 -0.054934714 -0.039852563 -0.04765594
000100 42 4b e9 3d d7 eb 8e 3d d0 b5 22 3d 8c d9 b7 bb
       0.113913074 0.06978577 0.03972417 -0.0056106504
000110 17 f8 db 3d db 21 3a 3d 64 1f 83 3d cb 71 b7 3d
       0.10740679 0.045442443 0.06402472 0.08957251
000120 65 20 28 bc 57 c0 b1 3c 05 14 66 bd be ed 86 bd
       -0.01026163 0.02169816 -0.056171436 -0.065883145
000130 a2 ed fb bc d3 0e 61 bd 17 f2 24 3c bb b5 ae bc
       -0.03075296 -0.054945778 0.010067484 -0.02132689
000140 e0 52 70 bd bf af b8 3d 41 f3 ad bd e2 74 3d 3c
       -0.058672786 0.09017896 -0.084936626 0.011563512
000150 de b3 b6 3c 27 30 f6 bd 5a 59 51 3c 55 ac ee bc
       0.022302564 -0.12020903 0.012777651 -0.029134909
000160 33 de f7 bc 9d c1 65 bd 72 ca ac 3d 8f 90 be 3d
       -0.03025732 -0.056092847 0.08437051 0.09304916
000170 13 2b c3 bd d7 95 b3 3c 09 1b 9f 3c a2 ab b1 bd
       -0.095297 0.021922035 0.019422071 -0.086753145
000180 10 8d 01 bd 0c 92 11 3d 6d 57 e5 bc ad 77 66 3d
       -0.03162867 0.03553967 -0.02799579 0.056266475
000190 bf ea 9a bd 6d 3f 92 bd 3c 29 2d bd ee 6b f2 bd
       -0.075643055 -0.07141004 -0.042275652 -0.11836992
0001a0 fa 82 0a be c8 19 5a 3d 07 5f 16 3d 15 5b ce bc
       -0.13526526 0.053247243 0.03671172 -0.025189916
0001b0 1f 2c d5 3d 64 b7 16 3e 88 14 1b 3e 2c 61 e4 bc
       0.10408806 0.14718395 0.15144551 -0.027878366
0001c0 fb 0f 16 3e cd ce d4 3c d3 45 41 3c 6f a7 bb 3c
       0.14654534 0.025977517 0.011796433 0.022906987
0001d0 f6 8d af bc 5e de 84 3c 5e ae 60 3c 8b 93 b7 bc
       -0.021429997 0.016219314 0.013713447 -0.022409221
0001e0 3f 80 b9 bb fb e2 21 3d 82 d5 34 bd 24 78 f8 3c
       -0.00566104 0.039523106 -0.04414893 0.030330725
0001f0 27 50 ff 3c 07 c1 45 3d 60 b7 d8 3d 61 b7 1f bc
       0.03116615 0.04827979 0.10581851 -0.009748311
000200 7e d0 56 bd ef 7e 62 3d 14 7d 60 bd 50 cd 62 bd
       -0.052444927 0.055296835 -0.054806784 -0.055371583
000210 b8 d7 96 bc 7d 36 9b 3c 07 77 cf bd a0 3c 5a 3b
       -0.01841341 0.01894688 -0.101301245 0.0033300295
000220 80 4c 20 bd fd 24 4f 3d 88 ac ba bc 98 e5 d4 bc
       -0.039135456 0.050572384 -0.022787347 -0.025988385
000230 61 60 50 bd 2a 4a c8 3c 38 17 81 3b 18 1c 3e bc
       -0.050873164 0.024449427 0.0039395355 -0.011603378
000240 44 9f 87 3d 6e d5 66 3e c2 28 4c 3e be 2b c9 3c
       0.066221744 0.22542354 0.19937423 0.02455699
000250 7a bb af 3d 0e 49 f8 3d c3 78 c7 3c 47 11 b3 3d
       0.0858068 0.12123309 0.024349576 0.0874353
000260 92 56 ec 3d ea 09 99 3d fc d3 b5 3d 7d ee 94 bd
       0.115399495 0.07472594 0.088783234 -0.072720505
000270 a2 d6 f0 3c 4a 7a 3e 3d 21 53 93 bd 9b ec f6 3b
       0.02939922 0.046503343 -0.0719359 0.00753553
000280 a8 b3 94 3c fe d7 2d bd 43 88 d1 bc cb c0 90 bd
       0.018152073 -0.042442314 -0.02557767 -0.07068022
000290 7f e7 90 bd 63 64 ab 3c 1f 62 45 bd 51 27 05 be
       -0.070754044 0.020921892 -0.04818928 -0.1300328
0002a0 1e 7f 3e 3c ce 9c d2 bd 3a be 48 bd 90 a2 4e bd
       0.011626987 -0.10283814 -0.04900954 -0.050448
0002b0 8f 7e 89 3b 21 2e 31 3d 68 65 c3 3c 62 da a6 bd
       0.004195995 0.043256883 0.023852065 -0.08147122
0002c0 d1 ed a7 bb 20 7c 8e 3b 85 33 80 bd 91 c4 6e 3c
       -0.0051247855 0.004348293 -0.062598266 0.014573232
0002d0 d8 94 35 bd 40 b7 e3 bc aa 1c 25 3d 61 6f 0d bd
       -0.0443314 -0.027797341 0.04031054 -0.034530047
0002e0 09 ba c1 bd bc c6 09 bd 2d 3e 0c 3b 86 56 55 bd
       -0.094593115 -0.033636793 0.0021399364 -0.05208447
0002f0 4a 83 ca bc c3 75 a2 3d 29 4a d5 3d 31 60 08 bd
       -0.024720807 0.079326175 0.104145356 -0.03329486
000300 85 dc a9 3b d1 52 6a 3c 30 35 27 bd f7 b3 3c bd
       0.0051837587 0.0143019715 -0.040822208 -0.046070065
000310 c4 9d 84 3c fc 1b fb bd d9 ce de bc eb 54 ce bd
       0.01618851 -0.12261197 -0.027198242 -0.100747906
000320 5a 65 18 bd 16 ae 81 bd 3b 55 ee bd d8 dd 1e bb
       -0.03720603 -0.063320324 -0.1163735 -0.0024241116
000330 54 1f 52 bd de 82 36 bd d5 be b1 3c 95 83 2f 3d
       -0.051299408 -0.0445584 0.021697441 0.042850096
000340 ef b4 88 3c be 6f 9d 3d 1d fd b2 3c 21 20 26 bd
       0.016687838 0.07687329 0.02184921 -0.040557984
000350 57 13 67 bc 28 d1 99 bc 9b d0 bb 3d 76 d7 8c 3c
       -0.014103732 -0.018776491 0.09170648 0.017192584
000360 3d 1e 83 3d 68 a1 68 bc 40 90 4c bd 0b 2d 7e bc
       0.06402252 -0.0141986385 -0.049942255 -0.015513669
000370 12 66 86 bd 97 a6 a0 bd 47 52 da bb f3 43 30 3d
       -0.06562437 -0.078442745 -0.0066626403 0.04303355
000380 dd 29 3b bc 3f 4b 16 3d 1f 14 fe bc a0 cf 3f 3b
       -0.011423555 0.036692854 -0.031015454 0.0029268041
000390 3e 7a be bc 0f 06 70 bd fe d9 8a 3c 4a d4 92 bc
       -0.023251649 -0.058599528 0.01694965 -0.017923493
0003a0 65 3f 4d 3d 15 fc 6a 3d 8c 7c c4 3d ad fe 13 3b
       0.050109286 0.05736931 0.09594068 0.0022582219
0003b0 4d 27 91 3b 71 aa e2 3c 79 eb 4c bd fb cc ef bb
       0.004429734 0.027669163 -0.05002925 -0.0073181367
0003c0 2c 3d 8c bc 1a e1 a3 3c 9b a9 20 bd 50 22 13 3c
       -0.017119013 0.020004798 -0.03922425 0.008980349
0003d0 20 f4 40 3d d7 0b 8c bc 62 49 ea bb 1a f0 33 bd
       0.047107816 -0.01709549 -0.007149861 -0.04393015
0003e0 17 7e 04 bd e3 db 9e bb e6 0d 96 bc e2 de a5 bc
       -0.03234681 -0.00484799 -0.018317174 -0.02024788
0003f0 dd 37 b2 3c d8 e8 0a 3b 52 a7 cb 3d 6c 15 dc bc
       0.021755153 0.0021195915 0.09944023 -0.026865683

cnn3.bias f4 [32]
000000 38 81 9d 3c b9 6d 33 3d e6 47 c2 bd 26 55 93 bc
       0.019226655 0.04380581 -0.0948637 -0.017984938
000010 e8 0a 05 3d 35 a7 06 bd 68 84 09 bd 7d 6d f0 3d
       0.032481104 -0.032874305 -0.033573538 0.11739633
000020 f0 fa 21 bc 84 49 79 bd 2e 07 23 3c 28 99 d2 bc
       -0.009886488 -0.060861126 0.009950442 -0.025707796
000030 7b a9 5c bc f2 3a 4c 3d 9c d0 97 bc 54 51 01 3e
       -0.013468142 0.049860902 -0.01853209 0.1262868
000040 18 f4 90 bd 48 e9 9c 3b 59 a5 2d bd f2 3c 82 bd
       -0.07077807 0.0047885515 -0.042394016 -0.06359281
000050 8d 4d 91 bd 5d d6 f3 bc 57 64 8f bd 61 39 77 bd
       -0.0709487 -0.029765302 -0.0700156 -0.060357455
000060 05 b4 4b bc 0b 5d 0f bd 61 2b 88 bd 31 d7 e4 3c
       -0.012433057 -0.035000842 -0.06648899 0.027934643
000070 37 85 08 bc 47 fc c8 3d 25 ef b1 3c 0a 4f 1a 3e
       -0.008332542 0.09813743 0.021720478 0.15069214

fc1.weight f4 [128, 768]
000000 05 49 db bc a7 35 cb 3c 82 6e a1 3c f6 91 72 3c
       -0.026768217 0.024805857 0.019706015 0.014805308
000010 ef 9b fb 3c 08 54 03 bd 69 18 42 bd 25 dc 80 3c
       0.030714003 -0.03206256 -0.04738656 0.015729973
000020 de 13 91 bc 68 6b 33 bc 7c 37 c3 bc 80 b6 0c 3a
       -0.017709669 -0.010950901 -0.023830168 0.0005367771
000030 f8 8c d8 ba 99 01 33 3b 1a 91 1e bc dc 43 9d 3c
       -0.0016521504 0.0027314185 -0.00967815 0.019197397
000040 fd 3c fb 3b 34 de 41 bc 82 e3 2e bc 24 54 35 3c
       0.0076671825 -0.0118327625 -0.010674359 0.011067424
000050 fe eb be bc ba c7 89 3c 10 98 e7 bc 6e 1f 4f bc
       -0.02330589 0.01681887 -0.028270751 -0.012641771
000060 af 58 16 bd 9b ff e4 bb 7f 84 15 bd 71 95 0f bc
       -0.03670567 -0.0069884784 -0.03650331 -0.008763657
000070 ab e2 3a 3b d9 96 fc bc c0 90 9b bc b3 0e f1 3c
       0.0028516452 -0.030833649 -0.01898992 0.029425954
000080 6e 3e 20 bd 20 76 81 3c 23 6c 27 3d 74 61 45 bc
       -0.039122038 0.015803397 0.04087461 -0.01204716
000090 9a 99 d5 3c ef 68 0f 3d b8 f4 02 bc 6c 36 af ba
       0.02607422 0.03501218 -0.007992916 -0.0013367659
0000a0 00 0f 21 3c b0 35 0f bc fe 11 be 3c ac 93 57 bd
       0.009830236 -0.008740827 0.023201939 -0.052631065
0000b0 8a e0 27 bd e1 45 92 3c ce fd fd bc eb ce 2d bd
       -0.04098562 0.017855586 -0.031004813 -0.04243366
0000c0 07 2f 26 bd fc 01 34 3c 40 8e 02 bd bb fe 06 bd
       -0.040572193 0.010986801 -0.03187394 -0.032957774
0000d0 b1 a7 1c bd 76 0d b3 bb 34 24 05 3c 2c 4d 79 bc
       -0.03824586 -0.005464251 0.008126307 -0.015216153
0000e0 92 93 0a bc 90 2f af bc 91 57 1a 3c 4f fc e8 3c
       -0.008458035 -0.021384984 0.0094202915 0.028440623
0000f0 dd b2 0c bd 44 0a 95 bc 62 cf f7 bc f1 80 3e bd
       -0.034350265 -0.018193372 -0.030250255 -0.046509687
000100 27 e7 bf 3c df 95 4b 3c 46 61 6e bc b9 b8 23 bc
       0.023425652 0.012425869 -0.014549559 -0.009992772
000110 c8 5c 1b bd c3 a1 9d 3c 7c 67 ad 3c 42 0c 0f bd
       -0.03793028 0.019242173 0.02116751 -0.0349238
000120 28 49 fb bb 30 9e 52 3c 71 c8 c3 bc 46 0c 91 bc
       -0.007668633 0.012855098 -0.023899289 -0.017706048
000130 36 d8 e8 3c 19 21 8c 3c 6d f7 be 3c d5 db 9c 3b
       0.02842341 0.017105626 0.023311341 0.004786948
000140 a1 69 91 ba 1b e8 e0 3b 9b da 80 3c 96 af b5 bc
       -0.0011094102 0.0068636066 0.01572924 -0.022178452
000150 87 ed 02 bd 7c ae d1 3c 12 db 92 3a a6 e1 23 bc
       -0.031964805 0.025595896 0.0011204204 -0.010002529
000160 31 d9 da 3b b3 91 c1 bc e5 a2 32 bb 8f 70 e0 bc
       0.0066787233 -0.023629045 -0.0027257737 -0.027397422
000170 61 c2 03 bb 3d 51 21 bd 7a 85 21 3b 53 80 02 3d
       -0.0020104873 -0.039384115 0.0024646209 0.03186066
000180 0a 85 c3 3c e2 7d 01 bd 5b 7e 3e 3b 32 ae 93 3b
       0.023867149 -0.03161419 0.0029067013 0.0045068497
000190 f4 8c 49 ba 4a 28 9b 3b 9f 56 bd bc 4f 59 07 bc
       -0.0007688545 0.0047350274 -0.023112593 -0.008261039
0001a0 22 9e 1c bd 8a bf 47 bc 13 07 89 bc 01 99 da bb
       -0.038236745 -0.012191663 -0.016727006 -0.0066710715
0001b0 cd b5 65 3c 07 01 f0 bb db 1b 87 bc e8 93 14 bd
       0.014020395 -0.007324341 -0.016492775 -0.036273867
0001c0 5a f8 09 3c e2 21 22 3c 74 78 3b 3c e1 b2 e5 bc
       0.008421028 0.009895774 0.0114422925 -0.028039398
0001d0 1f 1e 6a 3c 1e 51 03 3a 87 1d 90 bc 2f f8 e8 3a
       0.014289408 0.0005009341 -0.017592205 0.001777416
0001e0 83 03 e8 3c 5d f6 21 bd 34 93 be 3b cd 8a 3a 3c
       0.028321987 -0.03954159 0.005815888 0.011385632
0001f0 54 71 ff bc cc 32 20 bc 00 ed e2 3a 7c cc 06 bd
       -0.031181969 -0.009777736 0.0017313063 -0.032909855
000200 ab 04 19 3d 66 34 a0 3c a5 b1 4c 3c 4b c0 8c 3b
       0.037357967 0.019556236 0.012493526 0.004295384
000210 d0 35 ce 3c 3d a0 4c 3b 1a a1 86 bc da 3c c5 bc
       0.025172144 0.003122344 -0.016434241 -0.024076868
000220 d2 01 06 bd 28 c4 3d 3c 26 ce 80 3c e0 89 d9 3c
       -0.03271658 0.011582412 0.0157233 0.026555002
000230 cf 45 8f 3b bc 91 9b 3c 98 8f 42 3b 0d 24 04 bd
       0.0043723355 0.01899039 0.002968764 -0.032260943
000240 52 93 c5 bc 70 dd 4b 3c b0 5b 0b 3d c0 48 e0 3c
       -0.0241181 0.0124429315 0.034022987 0.02737844
000250 30 11 31 3b a2 3a 40 bc cc 05 dd 3c 46 e7 10 3d
       0.0027018301 -0.011732729 0.026980303 0.03537681
000260 b6 e2 0d 3d c0 0f 20 3c 32 a3 b1 3c 74 da c6 bb
       0.034640037 0.00976938 0.021684263 -0.006068522
000270 66 c4 a6 bc 0c fc f0 bb f4 25 0b 3d f4 e7 0d 3d
       -0.020357322 -0.007354265 0.03397174 0.034645036
000280 44 39 81 3c 40 75 92 3c 64 64 1c 3c 77 70 a4 bc
       0.015774377 0.017878175 0.009545419 -0.020073159
000290 7c 5a fd bb a5 95 06 3d 4e 1b f9 bc fa 48 44 bc
       -0.007731734 0.032857556 -0.030408528 -0.01198029
0002a0 0b 46 63 bc 6b 35 3b 3c bb ab e7 ba f2 84 ee bb
       -0.01387168 0.01142631 -0.0017675081 -0.007279032
0002b0 ea db 63 3b d9 d9 44 bc 5b 42 71 bd 8c d1 8d bc
       0.003476853 -0.01201483 -0.058901172 -0.017311834
0002c0 75 63 d2 3c d2 f1 9e bc ec 79 ae bc 03 bf 24 bd
       0.02568219 -0.019402418 -0.021298371 -0.040221225
0002d0 6e bd f4 bb ee 7a 10 bd df 0a a6 3c fa 58 2d 3a
       -0.007468871 -0.035273485 0.020268856 0.0006612685
0002e0 a4 ac 37 bd f9 10 2f bd d7 b9 17 bc d2 71 28 bd
       -0.044842377 -0.042740796 -0.009260616 -0.041124173
0002f0 63 46 7f bb 5b 7d ad bc 38 50 16 3c 24 d2 2e bd
       -0.0038951866 -0.021177938 0.009174399 -0.042680874
000300 df 3c 0a 3b ff 62 8e ba 8f 48 a7 bb ec 91 07 bd
       0.002109341 -0.0010863243 -0.005105085 -0.033098146
000310 2c 4f 00 bd b0 bc ec 3c 1c 3e c7 ba 51 a7 32 bc
       -0.031325504 0.028898567 -0.0015201005 -0.010904149
000320 fc 6f f5 bc 51 95 4a bc 3b b4 31 3c 04 44 f8 bc
       -0.029960625 -0.012364701 0.010846193 -0.03030587
000330 be ed ab bc a9 81 ad bc 16 46 00 bc dd b7 59 bc
       -0.020987388 -0.02117999 -0.00782921 -0.013288465
000340 e2 69 9e 3c 97 fd b5 bc 22 60 30 3c 77 f6 11 bc
       0.019337598 -0.022215648 0.010765107 -0.008908859
000350 ab 0d a6 3c 45 d8 0d bd 64 82 03 3d c0 44 da 3c
       0.02027019 -0.03463008 0.032106772 0.02664411
000360 47 11 0d bd bd fa 17 bd 7a d9 18 bd d0 4f c5 3c
       -0.034440305 -0.037104357 -0.037316777 0.02408591
000370 ea 31 10 bc 19 6f 5e 3c cf d7 04 3d 05 53 13 bd
       -0.008800963 0.013576292 0.032432374 -0.035967845
000380 83 a0 8d bc e7 b4 59 bc 09 e1 92 3c 19 0b 8a 3c
       -0.017288452 -0.013287759 0.01792957 0.016850995
000390 5e 74 d1 bc 92 14 c2 bc 27 b8 ca 3c d8 64 06 3d
       -0.025568184 -0.02369145 0.024746014 0.032811016
0003a0 eb e2 e9 3b f1 0d 96 bc d9 34 40 3c eb 4a db ba
       0.0071376464 -0.018317195 0.01173135 -0.0016730701
0003b0 45 8d a6 bc e4 2e bf 3c 82 4c 1c bd 61 7b db bc
       -0.020331034 0.023337789 -0.0381589 -0.02679223
0003c0 19 24 b2 3c 5e c4 98 3a 83 11 00 3d f4 c4 15 bd
       0.021745728 0.0011655202 0.0312667 -0.036564782
0003d0 50 83 2b 3c b4 d2 08 3d 6b 7f 2b 3a 1a 3f 37 3c
       0.010468319 0.033404067 0.0006542119 0.011184478
0003e0 b6 40 f8 bc 0f d7 0e bd ec 14 08 3c c5 1a a5 3c
       -0.030304294 -0.034873065 0.008305769 0.020154366
0003f0 8f 0b 9f bc 00 09 e3 bb 1c 10 e9 3c d1 c9 00 bd
       -0.019414691 -0.006928563 0.028450064 -0.031442467

fc1.bias f4 [128]
000000 0b ae c7 3c a0 90 11 bc bb d1 6e 3c 62 15 25 bd
       0.024374982 -0.008884579 0.014576371 -0.040303595
000010 e1 07 d3 bc 54 b6 d4 3c 93 79 04 bd 81 70 27 bd
       -0.025760593 0.025965847 -0.032342505 -0.040878776
000020 fb e3 99 3b b6 6f 7d 3c 24 97 ab bc 84 0c e6 bc
       0.004696367 0.0154685285 -0.020946093 -0.02808214
000030 67 4f 0e bd 42 03 0d bd 38 38 1b bd 9b 36 80 bc
       -0.034743693 -0.034426935 -0.03789541 -0.015651038
000040 69 13 17 bd b2 16 a3 bc a0 e7 7b 3d 94 5b ff ba
       -0.036883745 -0.019908283 0.06150019 -0.0019482248
000050 02 94 a7 bb f2 2e c6 3d 57 e1 2f bd f2 50 a7 3d
       -0.0051140795 0.09676923 -0.04293951 0.08169736
000060 db 3a 45 bd 3e 9a 19 39 26 c9 ba bb a1 5d f0 bc
       -0.048151832 0.00014648677 -0.0057002483 -0.02934152
000070 69 23 df bc 0e 2c 8d 3c e2 42 12 bd e5 7d aa 3c
       -0.027238565 0.017232921 -0.035708316 0.020811984
000080 3c 1e 0e bd 87 bc 6e 3c 45 11 07 ba 81 0c 38 bd
       -0.034696802 0.014571316 -0.00051524147 -0.0449338
000090 e9 da cc bc be 6c 20 bd 95 6b b7 bc c7 ed 51 3b
       -0.025006728 -0.039166205 -0.022390166 0.0032032595
0000a0 d5 da a8 3c f8 9d c5 3d bb b1 04 bd 70 4c c6 bc
       0.02061216 0.09649271 -0.03239606 -0.02420637
0000b0 54 66 9d bc 11 18 13 bd fc d6 d1 3b 0e 84 cd 3b
       -0.019213833 -0.035911623 0.006403802 0.0062718457
0000c0 66 f8 11 bd 48 ad f0 3c a8 cc 0a 3d f6 3d d5 3c
       -0.03563728 0.029379502 0.03388658 0.026030522
0000d0 24 1d bc 3b 07 17 c4 3d df 91 ee bb d4 13 14 bd
       0.0057407785 0.095747046 -0.007280573 -0.036151722
0000e0 a5 97 10 bd ba 2c fd 3b 25 f6 8d bc 40 7e b6 bc
       -0.03530087 0.007726279 -0.017329285 -0.022276998
0000f0 0c 93 29 bd 49 cc bb 3d 38 28 0b bd 58 b2 cc bc
       -0.0414 0.09169824 -0.033973902 -0.024987385
000100 a5 38 80 bc 1a 56 cf 3c 11 82 ee 3d 78 9b c4 bb
       -0.01565201 0.025309611 0.11645902 -0.0059999786
000110 2e 72 42 3c ee 32 8c 3c 8f 1a cf bb 4c b5 a3 3b
       0.011868043 0.017114129 -0.0063203047 0.0049959775
000120 3d c2 0b bc f0 fe 37 3c 93 39 52 b9 e1 61 3f 3c
       -0.008530197 0.011230215 -0.00020048609 0.011681051
000130 bf d6 1c b7 f2 8f 10 bd eb c5 24 3c c7 30 96 bb
       -9.348324e-06 -0.035293527 0.010056953 -0.0045834514
000140 94 f1 8c bc e9 9e df bb ed b3 e9 3b c8 e6 aa 3c
       -0.017205037 -0.0068243635 0.0071320445 0.020861998
000150 4b 82 05 3c e4 db df 3c 97 ac ec bc 22 84 d5 bc
       0.00814874 0.027326532 -0.028890891 -0.026063982
000160 f6 6a 1e bd 22 fc aa 3d 8c 93 87 bd 18 ac e9 3d
       -0.038676225 0.08348872 -0.06619939 0.114097774
000170 04 41 29 3c f3 53 b0 bc bd ab d9 ba 17 75 24 bd
       0.010330442 -0.021524405 -0.0016606968 -0.040150728
000180 8b e0 e0 3a e6 51 90 bb ca c3 e2 bb 4d a8 35 3c
       0.0017156763 -0.0044042943 -0.0069203125 0.011087489
000190 ce e8 13 bd 01 13 2e bc 70 13 01 ba 8b 18 91 3c
       -0.03611069 -0.010624648 -0.0004923856 0.017711898
0001a0 e1 a9 90 3a da a3 77 bc c8 e2 1b bd 9c 13 84 bc
       0.0011036956 -0.015114749 -0.038058072 -0.016122632
0001b0 bb 38 f1 3d 46 7b 56 3c e1 73 ff bb cf 2e 53 bc
       0.117783986 0.013090914 -0.0077957963 -0.012889578
0001c0 d2 66 da 3d 36 0f ae 3c 8d 80 76 bd f4 19 03 bd
       0.10664143 0.021247488 -0.06018119 -0.032007173
0001d0 f4 49 2b 3c bf 65 8e 3c 2c fb af bc de 54 6a 3d
       0.0104546435 0.0173825 -0.021482073 0.057209842
0001e0 03 cc 75 bd f4 dc 42 bc 6a f9 4e bc 97 0d 4c bd
       -0.060009014 -0.0118935 -0.012632707 -0.049817648
0001f0 e3 0e ff 3d af 25 2f bd 14 92 07 3d 6b 80 6f bd
       0.12454011 -0.042760547 0.033098295 -0.05847208

fc2.weight f4 [128, 128]
000000 bd 2d b2 bd ce 7d 71 bd 74 4e fc bb d8 31 38 bc
       -0.0870013 -0.058957867 -0.007699782 -0.011242352
000010 36 6e f5 3c b9 7a 74 3d 1e b9 3a bd 69 42 55 3d
       0.02995978 0.05968735 -0.045586698 0.052065287
000020 ce 6c 06 bb 3d b2 08 3d 3d 65 e2 3c a1 8a 04 bd
       -0.002051163 0.033373106 0.027636165 -0.03235877
000030 cb fc a0 bd 94 4a 0f 3d dd e7 a7 3d 46 c2 38 bd
       -0.078607164 0.034983233 0.08198521 -0.04510715
000040 73 8e 3c bd 5e 31 ef 3c ed c8 9a 3b 0e e0 2b 3d
       -0.046034288 0.029198345 0.0047236593 0.041961722
000050 4f a9 af 3d ae ce 77 3d d2 aa 89 3c f7 57 38 bd
       0.08577215 0.06049984 0.016805086 -0.045005765
000060 7e cb 58 3d 80 ef 18 bb f3 04 86 3d 96 4e cd bb
       0.05292844 -0.0023336112 0.06543913 -0.0062654717
000070 18 6a 68 bc 55 a0 06 bb 99 f0 b7 3d 3e 90 62 3d
       -0.014185451 -0.0020542343 0.08981437 0.05531334
000080 a2 ee a3 bd 38 e6 08 bd c7 df a1 3d c6 76 c5 bd
       -0.080045 -0.03342268 0.0790401 -0.09641795
000090 3c e6 b0 bd 76 78 b3 3d 03 c3 ab 3d 0d 14 83 bd
       -0.08637664 0.087632105 0.08386805 -0.06400309
0000a0 c0 5c 83 bd 10 ad 9b bd 64 30 cf 3c 5c c4 e8 bb
       -0.06414175 -0.076013684 0.02529163 -0.007103486
0000b0 27 7d 1e bd e9 ca 9b 3d a6 db 64 3d 41 76 a7 3c
       -0.038693573 0.076070614 0.055873536 0.02044213
0000c0 8a e0 53 bd 2c b7 a2 bd 6c 63 07 bc d0 39 27 3d
       -0.05172781 -0.079450935 -0.00826345 0.04082662
0000d0 72 b3 56 3d 2a 43 e9 3d 28 49 38 bc 54 24 b5 3d
       0.052417226 0.11389764 -0.011247911 0.0884482
0000e0 20 3a fa 3c 24 81 d0 bc 90 a4 34 bc 3f b2 9b bd
       0.030545294 -0.025452204 -0.011025563 -0.07602357
0000f0 7c 52 a2 bc 4f 23 cf 3d b9 b1 b0 bd 0d 89 ce 3d
       -0.019814722 0.101141565 -0.08627648 0.10084734
000100 c2 72 0d bd 00 cc 13 3d 03 93 fa 3d a2 2d 49 bd
       -0.03453327 0.03608322 0.122350715 -0.049115784
000110 81 e1 6e 3d 0c 6b 7d bd 18 33 28 3d 07 b5 b1 3d
       0.058320526 -0.061869666 0.04106435 0.08677106
000120 d8 9f 2b bd 20 2f 6b 3c 00 0b d1 3a 3a 66 17 3d
       -0.041900486 0.014354497 0.0015948713 0.036962725
000130 58 0f c3 3c 9b b5 1b 3d 40 ce eb bb 84 53 ba bc
       0.023811027 0.03801499 -0.007196218 -0.022744901
000140 3b fa 22 bc e3 e8 9c bd 23 4d 53 bd 54 f4 b9 3b
       -0.009947355 -0.07661607 -0.051587235 0.005674878
000150 08 74 a3 bd 97 01 72 bd 61 3e 83 bd 4a f5 19 3d
       -0.079811156 -0.059083547 -0.06408382 0.03758744
000160 4a 08 55 bd a5 25 1f be 43 fa 57 bd 63 94 7f bc
       -0.05200986 -0.15541704 -0.052728903 -0.015599343
000170 82 14 35 3d 2a 7f 70 3d b9 02 00 3d 70 68 91 bd
       0.04420901 0.058715023 0.031252597 -0.07099998
000180 25 e8 42 3c b8 0e 3d bd 3e 83 4d 3d fe d1 1e 3d
       0.011896168 -0.046156615 0.05017399 0.038774483
000190 9c ac 0e 3d cc 2d 17 bd 9d 0c 87 3d 15 7c 9f 3d
       0.034832582 -0.03690891 0.06594203 0.07787339
0001a0 14 eb cb 3c f6 64 45 3d e8 46 12 3c 79 22 22 bd
       0.024892367 0.048191987 0.008928038 -0.039583657
0001b0 a7 da 34 3d 32 e4 95 bd d0 90 bb bc 90 aa db 3c
       0.044153836 -0.073189154 -0.0228962 0.026814729
0001c0 56 2f 9c 3d 00 0b b9 bc 0e 71 77 bd 65 75 2e bd
       0.07626216 -0.022588253 -0.06041055 -0.042592425
0001d0 fd 96 88 bd d6 3d 98 bd de e5 ae bd a2 b0 a8 bd
       -0.06669424 -0.07433669 -0.085399374 -0.08236815
0001e0 24 75 e6 3c d8 36 42 bc e7 4d 4f bd 21 9a 17 bb
       0.028132029 -0.011853896 -0.050611403 -0.002313264
0001f0 3f f5 9a 3d 56 25 10 bd 2f 51 8c bd 67 2c 51 bd
       0.07566308 -0.035191856 -0.06851422 -0.051067736
000200 9e 0d 80 bd 3e f1 fe bc 68 b9 ae bd 90 46 eb 3b
       -0.06252597 -0.031120893 -0.08531457 0.0071800426
000210 9b a4 a4 ba e1 7c 80 3c 9c 18 ca bd 70 a8 3c bc
       -0.0012561263 0.015684547 -0.09867975 -0.011514768
000220 37 85 8e 3d 5b 0a 13 3d 28 d5 ae 3a fe 7c 17 3d
       0.069590025 0.035898548 0.0013338672 0.036984436
000230 73 1d 1f bd 90 2d 91 3b 26 2c 4a 3d cd a5 42 bd
       -0.038846444 0.0044304803 0.04935851 -0.0475214
000240 a4 38 1e 3d 1c c5 19 3d a5 b4 9f bb 30 b8 bf bc
       0.038628235 0.037541494 -0.0048738294 -0.023403257
000250 73 cf 07 bc 98 fc e5 bc 9b ad 9a 3d e0 9c 65 bd
       -0.008289206 -0.028074548 0.07552644 -0.05605781
000260 51 c7 a8 3d be 50 5f 3d 08 e0 96 bd 05 77 2f bc
       0.082411416 0.05452036 -0.07366949 -0.010709529
000270 07 ce 9c bd 4a e8 3f 3d 31 f0 a9 3d bc 60 f1 bc
       -0.07656484 0.046852387 0.08297766 -0.029465072
000280 6b 23 0e bd 15 32 97 3c 92 0e 0b bd 7b 01 bd bd
       -0.034701746 0.018456498 -0.033949442 -0.09228798
000290 0f bd 96 bd 69 77 3c bd 84 75 15 3d 85 21 a0 bd
       -0.07360279 -0.046012316 0.036489025 -0.07818893
0002a0 f1 5d 79 bd f6 17 82 3c b0 9f be bc ac a7 9b bd
       -0.060880605 0.015880566 -0.023269504 -0.0760034
0002b0 4f e5 63 bd b0 a0 ce bc 6f a6 a3 3c 99 3b 1a bc
       -0.055638608 -0.025223106 0.019976823 -0.009413623
0002c0 22 e3 89 bd 79 fb 97 3d c0 d6 9a 3c 2e 9d 3b bd
       -0.06732775 0.074210115 0.018901229 -0.045804195
0002d0 10 30 12 bc 8f f2 e2 3d 23 1f 40 3d 12 1e 94 bd
       -0.008922592 0.11081421 0.046904694 -0.07232298
0002e0 97 7b 2a bd e0 8c 46 bc 88 a5 85 bd 4d 56 6a 3c
       -0.04162177 -0.012118548 -0.06525713 0.014302802
0002f0 be ac 8a bd a2 e8 5d 3d 50 e9 a3 bc 6e 46 cb bd
       -0.06771229 0.054176934 -0.020008713 -0.09925543
000300 f3 da 45 bd 51 ef cf 3c 44 33 2e 3d 7c 36 b1 3c
       -0.04830451 0.02538267 0.04252936 0.021632425
000310 42 17 cf bb ac 72 bb 3c ae 73 c6 bc 28 5e e3 3c
       -0.006319911 0.022881828 -0.024225082 0.027754858
000320 84 87 a1 bc db 4b 25 bd c4 11 86 bc 20 6d 74 3c
       -0.01971794 -0.040355545 -0.016365893 0.014918596
000330 7d 48 8f bd 98 54 b4 3c a3 14 20 bd cb d4 85 3d
       -0.06996248 0.022012994 -0.03908218 0.06534728
000340 b7 55 0b bc 52 9c 72 bc 4d c6 56 bd 72 3b 8a 3d
       -0.008504323 -0.0148077775 -0.052435208 0.067496195
000350 4c 59 0a 3d 5c b3 01 bd ea 24 9f bc 30 20 eb ba
       0.033776566 -0.03166519 -0.019426782 -0.001793867
000360 9b 2c 19 bd 37 eb a8 bd 27 57 98 bd dd 6c f8 3c
       -0.037396055 -0.08247989 -0.07438498 0.030325348
000370 e0 49 08 bc ee cc 3c 3d b9 5c dd bc 0c a2 ab bd
       -0.008318394 0.046093874 -0.027021753 -0.08380517
000380 15 9d 45 bd 55 70 92 bd ba de 4a 3d 88 44 3f 3c
       -0.04824551 -0.07150332 0.049528815 0.011674054
000390 b0 73 3e bd 58 1b d0 3c cf a4 8a 3d 8e f3 06 3d
       -0.046497047 0.025403664 0.06769716 0.032947116
0003a0 a0 18 33 bc a8 b0 65 3c 9a a1 75 bd 5a d7 32 3d
       -0.010931164 0.014019169 -0.05996857 0.043662407
0003b0 f9 ed e6 3d 02 26 ff bb f2 48 13 3d d2 f7 1f 3d
       0.112758584 -0.0077865133 0.035958238 0.0390547
0003c0 5e 9c 74 bb be 62 4e 3d 3f 1c d5 bd c8 da 52 bd
       -0.0037324647 0.050387137 -0.10405778 -0.051478177
0003d0 c8 24 60 3c 81 6e 88 3d 54 3a a6 bd a5 84 5e 3d
       0.013680644 0.06661702 -0.08116594 0.05432572
0003e0 b3 cb ae bc c5 61 8d bd 3d af 73 3d 9e 93 cd 3d
       -0.021337366 -0.06903414 0.059493292 0.10037921
0003f0 99 95 2a 3e dc 86 b0 bd 98 5d ac 3d 97 c1 33 3d
       0.1665863 -0.086194724 0.08416289 0.043885794

fc2.bias f4 [128]
000000 17 6d 5e 3d c4 96 6f 3d 72 d9 25 3d 39 c3 98 3d
       0.054303255 0.05849339 0.040490575 0.07459111
000010 b7 8a 4c 3d e9 7f a6 3d a0 ef 25 3e eb 4e e7 3d
       0.049936976 0.08129866 0.16204691 0.11294349
000020 25 f5 22 bd c2 ff cd 3d 6f 80 4f bd ec 22 81 bc
       -0.03978457 0.100585476 -0.050659593 -0.015763722
000030 5d c0 18 3e 03 e5 23 3d a1 64 d0 bd 64 88 a2 3d
       0.14917131 0.040013324 -0.101754434 0.07936171
000040 a2 4c 8a 3d 70 21 d5 3d 67 a4 c6 3d 98 69 16 3b
       0.06752898 0.10406768 0.09699326 0.0022951122
000050 67 21 25 bd 75 18 b7 3d 17 92 ed 3d 5a 52 53 3e
       -0.040315058 0.08940212 0.1160013 0.20636883
000060 ca 68 0f 3e 6c 18 03 3d 6a a7 e6 3d e7 0b 15 3e
       0.14004818 0.032005712 0.112624004 0.14555322
000070 d5 c4 23 bb 6b 0f 1e 3c e1 f5 a5 3d c2 3c 63 3d
       -0.0024989147 0.009647231 0.08103538 0.055477865
000080 c8 43 37 3e 73 91 c1 bd d2 dc 49 3e d4 fd 39 3c
       0.1789695 -0.0945157 0.19713143 0.011352021
000090 ec 20 0b 3d 5e 9e 3b 3e 67 6a 83 bd 9a f1 91 bc
       0.033966944 0.18322131 -0.06416779 -0.0178154
0000a0 31 9b 3a 3d e6 05 95 3b 5a 8e 8a bc 1a 73 71 3c
       0.04555816 0.0045478223 -0.016913582 0.014736915
0000b0 77 b7 31 3e d0 17 fd 3d d2 f3 5e 3d fa a1 8a 3c
       0.17355143 0.123580575 0.054431744 0.01692294
0000c0 74 ef 06 be df 02 d1 3c a3 f2 ed 3d 05 5b 54 3d
       -0.13177282 0.025514064 0.11618545 0.051844615
0000d0 15 f5 09 3d d7 2e 12 3c d6 0c 40 3e 33 be ce 3d
       0.033680994 0.0089223 0.18754897 0.10094871
0000e0 8b cd 10 3c 48 4d ac 3d 09 aa fa bc 4b f1 27 3d
       0.008838068 0.08413178 -0.030598657 0.0410016
0000f0 15 18 a6 3b fc d3 27 bd 18 75 39 3e f3 31 fa bc
       0.005068789 -0.04097365 0.18111074 -0.030541396
000100 e7 18 2e bc ca 96 94 bd 55 e4 2b bd 7f 36 99 3d
       -0.010626054 -0.07255323 -0.0419658 0.074810974
000110 40 bc c7 3d 7a 8f f6 3d 8b 0e b9 3d 1c c8 9c 3d
       0.09752703 0.12039085 0.09035977 0.07655355
000120 84 91 6d bd be f5 c5 3d 21 d3 11 3c 4a 93 c3 3c
       -0.058000103 0.09666012 0.008900435 0.023873944
000130 c0 95 e6 3c 70 92 67 3d 36 f3 10 be f8 9a 13 bc
       0.028147578 0.056536138 -0.14155278 -0.009009115
000140 2f 74 20 3d e7 79 3b 3d fa 0c 3f 3e 5e 86 7a 3c
       0.0391733 0.045770552 0.18657294 0.015290825
000150 9b 35 3c 3d 3d ce b6 3b 90 12 48 bd 75 f2 f8 3d
       0.04594956 0.0055787847 -0.048845828 0.1215562
000160 20 26 25 be 80 02 35 3e d5 bd 00 3e d5 d2 2f 3e
       -0.16127825 0.17676735 0.12572415 0.1717027
000170 c8 be d1 3c e4 18 8b 3c 70 4a 03 3d c9 0b 25 3e
       0.025603667 0.016979642 0.03205341 0.16117777
000180 b5 12 2e 3d 40 e6 49 3c 4f 5c 0f 3d fc 7e ea 3d
       0.04249831 0.012322962 0.03500014 0.114500016
000190 62 f0 cc bb 0b 5d f3 3c b9 60 5e 3c b9 69 6f 3d
       -0.006254242 0.029707452 0.013572865 0.058450434
0001a0 44 99 c8 3d 55 47 42 3e fa 5b 8c 3c b9 9d b6 3c
       0.09794858 0.18972524 0.017133702 0.022292005
0001b0 ec 52 46 3e fd f1 1e 3e 40 4c ed bc 17 75 66 bd
       0.1936757 0.15521999 -0.028967023 -0.05626401
0001c0 63 fb a9 bd 2b 4a 33 3e dc 5a b8 3d 6b c5 4a 3e
       -0.08299901 0.17508762 0.09001705 0.19801871
0001d0 96 15 28 3e b8 1b 56 3d df d6 86 3e 28 21 08 3e
       0.16414484 0.05227253 0.2633581 0.13293898
0001e0 8a a1 16 3e 4e 31 82 3c 29 cf 16 3e 38 f7 b9 bd
       0.1471006 0.015892651 0.14727463 -0.09080356
0001f0 c2 8f 8c 3e e6 d7 d5 3d 5d f6 05 bd e6 88 20 bd
       0.27453429 0.1044157 -0.032705653 -0.039193057
