models/dqn_model.pth (torch, 595408 bytes, 14 tensors)

cnn1.weight f4 [16, 4, 5, 5]
0	0xbdb3783b	-0.087631665
1	0xbdb613ff	-0.08890533
2	0xbd9d3061	-0.07675243
3	0xbd3497c9	-0.044090066
4	0xbe155403	-0.14582829
5	0xbd69d740	-0.057090044
6	0x3d120c76	0.035656415
7	0xbe10c49f	-0.14137505
8	0xbd3c132b	-0.045916717
9	0xbd2e9e11	-0.042631213
10	0xbdc3dddf	-0.09563803
11	0x3d4ec678	0.050482243
12	0x3cc5553a	0.02408849
13	0xbe09703d	-0.13421722
14	0x3d5a5065	0.053299326
15	0x3c8ee514	0.017443217
16	0x3bb92bab	0.0056509576
17	0xbe4a9875	-0.1978472
18	0xbcd687e6	-0.026187848
19	0x3d13abad	0.036052395
20	0x3d54032d	0.05176084
21	0x3d9bfce0	0.076165915
22	0xbb41cb2e	-0.0029570567
23	0xbe2c123b	-0.1680383
24	0xbd3df8ee	-0.046379976
25	0x3cd6a092	0.026199613
26	0x3d8c80bf	0.06860494
27	0x3d7a03d5	0.06103881
28	0x3b361303	0.0027782328
29	0xbd9d4fd9	-0.07681245
30	0xbd8c012d	-0.06836162
31	0xbc9085ac	-0.017641865
32	0xbdc28b78	-0.09499258
33	0xbdf8cea4	-0.121487886
34	0xbd9f6f15	-0.07784859
35	0x3c94bbf2	0.018156026
36	0xbbb09f75	-0.0053901025
37	0xbe373e87	-0.17894946
38	0xbde95f3b	-0.11395117
39	0xbd890c83	-0.066918395
40	0x3d5d725f	0.05406415
41	0x3d14b457	0.036304798
42	0xbd8c5bc5	-0.06853441
43	0x3cfda787	0.030963672
44	0xbc5d98b0	-0.013525173
45	0xbbd6daf7	-0.0065568644
46	0xbd815b5d	-0.06316254
47	0x3d9a0cc3	0.07521965
48	0xbc0825d7	-0.008309803
49	0x3d71440b	0.05890278
50	0xbdb43132	-0.08798446
51	0x3e0dce63	0.13848262
52	0xbd1ea7a3	-0.03873409
53	0xbe669c06	-0.22520456
54	0xbc883071	-0.016624661
55	0x3dc56c6b	0.0963982
56	0x3df4fdbe	0.1196246
57	0xbe764e27	-0.2405325
58	0xbe1a8d12	-0.15092877
59	0x3c5f2a6b	0.013620953
60	0xbe061fbd	-0.13098045
61	0xbd916db8	-0.07101005
62	0xbe8e81d3	-0.27833423
63	0x3e1c0c72	0.15239123
64	0xbd3cbc13	-0.0460778
65	0xbd17b7b6	-0.037040435
66	0xbea021fc	-0.31275928
67	0xbe2e94a8	-0.17048895
68	0x3e300b75	0.1719187
69	0x3daefeba	0.08544679
70	0xbe15506f	-0.14581464
71	0xbe907d88	-0.28220773
72	0xbe73d485	-0.23811539
73	0xbc2a0c1a	-0.010378862
74	0x3d73d632	0.059530444
75	0xbdae01ba	-0.08496423
76	0x3e207708	0.15670407
77	0x3d897fe2	0.06713845
78	0xbe438d7e	-0.19096944
79	0xbe1087f0	-0.14114356
80	0xbdbc7174	-0.09201327
81	0x3e8f7f9c	0.28027046
82	0xbe5afd3a	-0.21385661
83	0x3e759d21	0.23985721
84	0xbe511e5a	-0.20421734
85	0x3e489748	0.19588959
86	0x3e3b360b	0.18282335
87	0x3dfe9150	0.1243006
88	0x3bf63ff8	0.00751495
89	0x3d8ac047	0.06774955
90	0xbdaece58	-0.08535451
91	0xbdfc4fbd	-0.12319896
92	0xbe7e0c19	-0.24809302
93	0xbe67a74f	-0.22622417
94	0x3e456aa1	0.19278957
95	0xbd61bc78	-0.05511138
96	0xbe150b17	-0.14555012
97	0xbe803720	-0.25042057
98	0xbe357315	-0.17719682
99	0xbce5ce13	-0.028052365
100	0xbe221288	-0.15827382
101	0xbd944d66	-0.07241325
102	0xbe09a61a	-0.13442269
103	0x3d429c56	0.047512375
104	0x3c8fbea3	0.017546957
105	0xbe40a5a9	-0.18813194
106	0xbc27953e	-0.010228453
107	0xbd96d02a	-0.07363923
108	0x3c5e33d6	0.013562163
109	0xbcd38f55	-0.025825182
110	0xbcce2fb2	-0.025169227
111	0xbce7a4f9	-0.028276907
112	0xbe0d5216	-0.13800845
113	0xbbd473fe	-0.006483554
114	0x3e2ec82a	0.17068544
115	0xbe005718	-0.12533224
116	0xbc9e88b3	-0.019352293
117	0xbc3b96fe	-0.011449574
118	0x3dc4a8ce	0.096025094
119	0x3d33c54f	0.04388934
120	0xbe632ab2	-0.22184256
121	0xbcd14e1f	-0.025549946
122	0xbe86eb4c	-0.26351392
123	0x3e1f960b	0.1558458
124	0xbd165093	-0.036697935
125	0xbd1c69fd	-0.038187016
126	0x3cab4806	0.020908367
127	0x3da05161	0.07828022
128	0x3bc01aa1	0.0058625494
129	0x3bfb7275	0.0076735565
130	0xbd9e3d57	-0.077265434
131	0xbd412671	-0.0471558
132	0xbdba420a	-0.09094627
133	0xbad589f9	-0.0016291729
134	0x3b9bcc4e	0.0047545796
135	0xbd0536f4	-0.03252311
136	0xbcf7bd0a	-0.030241508
137	0xbd9cfe72	-0.07665719
138	0x3d9a5773	0.07536211
139	0x3cb355df	0.021891532
140	0xbd4f39ce	-0.050592236
141	0xbd43a5fa	-0.04776571
142	0xbdf7cbc5	-0.12099413
143	0xbdac5066	-0.08413772
144	0xbc9b890d	-0.01898625
145	0x3b33d018	0.0027437266
146	0xbdb4d2b0	-0.08829248
147	0xbc17007b	-0.009216423
148	0xbd060f0f	-0.032729205
149	0x3c2388f1	0.00998138
150	0xbd257ac2	-0.040400274
151	0xbb728b05	-0.0037009132
152	0x3c858320	0.016297877
153	0x3c45f669	0.012082675
154	0xbcd9f4bf	-0.026605962
155	0x39db324b	0.00041808406
156	0xbc0405a3	-0.0080579845
157	0xbe680469	-0.22657932
158	0xbe571cd3	-0.2100709
159	0x3d8032da	0.06259699
160	0xbdac7f11	-0.084226735
161	0xbdb29d8e	-0.087214574
162	0x3e56c9dc	0.2097544
163	0xbd98a500	-0.07453346
164	0xbe0ef451	-0.13960387
165	0xbea4e70a	-0.3220752
166	0xbe90a102	-0.2824784
167	0xbe7ad004	-0.24493414
168	0x3e5794a5	0.21052797
169	0x3d819c60	0.06328654
170	0xbea4f496	-0.32217854
171	0xbe84d87a	-0.2594641
172	0xbe617d97	-0.22020565
173	0xbd727dc0	-0.059201956
174	0xbe188d83	-0.14897732
175	0x3e43ec89	0.191332
176	0x3e3e55a2	0.18587354
177	0xbdb7d035	-0.08975259
178	0xbe83b748	-0.2572577
179	0x3e36cac7	0.17850791
180	0x3e4bd29b	0.19904558
181	0x3e740622	0.23830464
182	0x3e739b24	0.2378965
183	0x3c953660	0.018214405
184	0xbe85fdd9	-0.26170233
185	0xbe18c379	-0.14918317
186	0xbe14da14	-0.14536315
187	0xbe1d879a	-0.15383759
188	0x3e8559d0	0.26045084
189	0x3e814ed5	0.25255457
190	0x3d7a9226	0.061174534
191	0xbdd06002	-0.10174562
192	0xbca22e01	-0.019797327
193	0xbeb89b47	-0.36055967
194	0xbe35a721	-0.17739536
195	0xbe32a7df	-0.1744685
196	0x3c62786b	0.013822655
197	0x3dd31a47	0.103077464
198	0xbe3563f3	-0.17713909
199	0xbe44789d	-0.19186635
200	0xbd120e59	-0.035658214
201	0xbd94f75b	-0.07273742
202	0xbdf9eb36	-0.12203066
203	0xbe41e3e3	-0.18934588
204	0x3d9be726	0.076124474
205	0xbdcab8f9	-0.09898562
206	0xbd2927c3	-0.041297685
207	0xbddada50	-0.10686171
208	0xbdc7d9bb	-0.09758326
209	0xbccd1ed3	-0.025039112
210	0x3c5a1a2f	0.013311907
211	0x3d2d66b0	0.04233426
212	0xbe2bbda3	-0.1677156
213	0xbc14f5d5	-0.009091814
214	0xbdb4a7b6	-0.08821051
215	0xbb67b5da	-0.0035356195
216	0x3d5674d4	0.05235751
217	0xbdb041d8	-0.08606309
218	0x3c75f89b	0.015012885
219	0x3cb8c269	0.02255364
220	0xbe0a8477	-0.13527094
221	0xbe207f35	-0.15673526
222	0x3dbe934b	0.09305438
223	0x3cefecd9	0.029287742
224	0x3d2e27dd	0.042518485
225	0xbd798bc1	-0.060924295
226	0x3d37f2b6	0.0449092
227	0x3dbcff25	0.092283525
228	0x3d5fdc1f	0.054653283
229	0x3d6fc10b	0.05853371
230	0xbcd0b0e1	-0.025474967
231	0xbd5052e4	-0.0508603
232	0xbd0bbaeb	-0.034113806
233	0x3d888e54	0.06667772
234	0x3d03786b	0.03209726
235	0xbd5c67df	-0.053809997
236	0x3d8dd3c3	0.06925156
237	0x3d951d67	0.07280999
238	0x3d48173d	0.048850287
239	0x3d5b04bb	0.05347131
240	0xbdd4961a	-0.10380192
241	0x3c285252	0.010273533
242	0xbda340ff	-0.079713814
243	0xbdcb52ed	-0.09927926
244	0x3d186d42	0.03721357
245	0xbda9f491	-0.082986005
246	0x3d3a2111	0.04544169
247	0xbd59efbb	-0.05320714
248	0xbda887bf	-0.082290165
249	0x3d7155e2	0.058919795
250	0x3da358e4	0.07975939
251	0xbd154897	-0.03644618
252	0x3dd5879b	0.10426255
253	0xbe474536	-0.19459996
254	0xbdcfbca4	-0.10143402
255	0x3e33ff75	0.17577918

cnn1.bias f4 [16]
0	0xbd53201a	-0.051544286
1	0x3d84ca20	0.06483865
2	0xbde9a1f9	-0.11407847
3	0x3d569860	0.05239141
4	0x3d1db5ce	0.03850346
5	0x3d6c2ead	0.0576617
6	0xbd0f2705	-0.03494932
7	0xbd2c36d6	-0.042044483
8	0xbd541fe8	-0.05178824
9	0xbd87d960	-0.06633258
10	0xbd94289c	-0.07234308
11	0xbde6afa4	-0.112639695
12	0x3d46bc48	0.048519403
13	0xbbcff61c	-0.006346477
14	0x3d96dd20	0.07366395
15	0x3d6c0d9f	0.057630178

cnn2.weight f4 [32, 16, 3, 3]
0	0x3dca934b	0.09891375
1	0x3e03594f	0.12827037
2	0x3e16cb78	0.14726055
3	0x3e16aa3c	0.14713377
4	0x3de66a9c	0.11250803
5	0x3da1dfc3	0.07904007
6	0x3d2a0bc5	0.04151513
7	0x3e20c387	0.15699588
8	0x3dbf2135	0.093325056
9	0x3e5ccb06	0.21561822
10	0x3d834d61	0.06411243
11	0x3dcb2a40	0.09920168
12	0x3da5872a	0.08082421
13	0x3dda0aa1	0.106465586
14	0x3df9d3fd	0.12198637
15	0x3e0b7fd3	0.1362298
16	0xbc72c680	-0.014817834
17	0x3e072311	0.1319697
18	0x3d2b6fbe	0.041854613
19	0xbd88eb3e	-0.06685494
20	0xbb6ac16b	-0.0035820852
21	0xbd318798	-0.043342203
22	0x3d753bee	0.059871607
23	0x3d34cfdf	0.044143554
24	0xbbe68a24	-0.0070355106
25	0xbdb0a989	-0.08626086
26	0xbd73d510	-0.059529364
27	0x3da23dde	0.079219565
28	0x3c0bbc69	0.008528807
29	0x3dc055c8	0.093913615
30	0x3da1933e	0.07889412
31	0x3d975b84	0.07390502
32	0x3c41a50a	0.011819134
33	0x3de1a4e6	0.1101778
34	0x3d2b1155	0.041764576
35	0x3cfaa6c5	0.0305971
36	0x3e322e31	0.17400433
37	0x3dfc35a5	0.123149194
38	0x3e4a70c2	0.19769576
39	0x3d60ba80	0.05486536
40	0x3e2c9851	0.16854979
41	0x3db35bb8	0.08757728
42	0x3dff60b8	0.124696195
43	0x3ce5836f	0.028016774
44	0x3de88f92	0.11355509
45	0x3d6eb863	0.058281314
46	0x3cd2325f	0.025658784
47	0xbd2591e0	-0.04042232
48	0xbd4ac14a	-0.04950074
49	0x3ceebca6	0.029142689
50	0xbd3a514f	-0.0454877
51	0x3d98d8d2	0.0746323
52	0x3ab5cb6b	0.0013869827
53	0x3bfc30a3	0.0076962276
54	0x3cf8771c	0.030330233
55	0x3e3659a7	0.17807637
56	0x3e62d520	0.22151613
57	0x3e4171ce	0.1889107
58	0x3e186f47	0.14886199
59	0x3d66d9d7	0.056360092
60	0x3e851558	0.25992846
61	0x3e8f6e23	0.28013715
62	0x3e09c327	0.13453351
63	0x3e332da0	0.17497873
64	0x3e27825e	0.16358325
65	0x3ead9a22	0.33906657
66	0x3e06c0f5	0.13159545
67	0xbca850ed	-0.0205464
68	0x3e63488a	0.2219564
69	0x3a1d40e3	0.00059987436
70	0x3cd23190	0.025658399
71	0x3e3f0b11	0.18656565
72	0x3ddfdb12	0.10930456
73	0x3dcad0a3	0.099030755
74	0xbbca37fe	-0.0061712256
75	0x3e0a5948	0.1351062
76	0x3c59f2cc	0.013302516
77	0xbc971902	-0.018444542
78	0xbd69c2ba	-0.05707047
79	0xbd82d381	-0.063879974
80	0x3c7b5a44	0.015341345
81	0x3cbf0c78	0.023321375
82	0xbc2f24b8	-0.010689907
83	0x3d132e97	0.035933103
84	0x3dbb55f0	0.09147251
85	0x3d8c8bbc	0.0686259
86	0x3d426806	0.047462486
87	0x3aba66d2	0.0014221317
88	0x3cba86bd	0.022769326
89	0xbd6c0703	-0.057623874
90	0x3c47d9a5	0.012197887
91	0x3da1a2c5	0.07892374
92	0x3df970b2	0.12179698
93	0x3d83daa5	0.064381875
94	0x3d46bffd	0.048522938
95	0x3e117599	0.14205016
96	0x3da1c73f	0.07899331
97	0xbc612dc6	-0.013743823
98	0x3da72930	0.08162153
99	0xbc5de631	-0.013543651
100	0x3cf6363d	0.03005516
101	0xbcaa104a	-0.02075972
102	0xbd3e9d41	-0.046536688
103	0x3d436d85	0.047711868
104	0xbd905947	-0.07048278
105	0x3dae9078	0.08523649
106	0xbd657bae	-0.056026153
107	0xbd8e051b	-0.069345675
108	0x3e019a95	0.12656625
109	0x3d75e6db	0.060034614
110	0x3dbea881	0.09309483
111	0x3d94a378	0.07257742
112	0xbc8505ad	-0.016238058
113	0xbc82f668	-0.015986636
114	0xbd66b411	-0.05632407
115	0x3af02088	0.0018320242
116	0x3ce1d155	0.027565638
117	0x3c35a56f	0.011086806
118	0x3db5a9a4	0.08870247
119	0x3dce2435	0.100655
120	0x3d82e038	0.063904226
121	0x3d2e9b42	0.042628534
122	0x3d82a410	0.06378949
123	0x3de944d0	0.11390078
124	0x3df966b1	0.1217779
125	0x3da97cc6	0.08275752
126	0x3d2782d8	0.040896267
127	0xbca6f7ef	-0.020381896
128	0x3c904df6	0.0176153
129	0xbd8d7aaa	-0.06908162
130	0x3d4f719d	0.05064546
131	0x3d5625c6	0.052282117
132	0xbd067c91	-0.03283364
133	0xbdacdf82	-0.08441068
134	0x3d50ce6f	0.05097812
135	0xbc8952fc	-0.016763203
136	0x3cbae09b	0.022812178
137	0x3d9db8b8	0.07701248
138	0xbd596f2f	-0.05308455
139	0xbd0423d1	-0.03226072
140	0xbd43830e	-0.047732405
141	0xbd26e67a	-0.040747143
142	0xbbab50ff	-0.0052281613
143	0x3d5c7d0b	0.053830188
144	0xbd151f3e	-0.036406748
145	0x3d23b17b	0.03996418
146	0xbd3f31e2	-0.04667843
147	0x3d089e19	0.0333539
148	0x3e0067c3	0.12539582
149	0x3cd17280	0.025567293
150	0x3e73cb39	0.23807992
151	0x3e44798b	0.1918699
152	0x3d576569	0.052586947
153	0x3d7e0b17	0.062022295
154	0x3c9324dd	0.017961914
155	0x3cdf1a0c	0.0272341
156	0x3e0b5941	0.13608266
157	0x3c19c57c	0.009385463
158	0xbdd748f7	-0.10511964
159	0x3e39747c	0.18110842
160	0x3d9c01a9	0.07617504
161	0x3dd61b32	0.10454406
162	0x3b007243	0.0019599355
163	0x3d24a96e	0.040200643
164	0x3cbfceb7	0.023413999
165	0x3d2128ba	0.03934548
166	0x3d75fde6	0.06005659
167	0x3cf3089d	0.029667193
168	0x3ce8c503	0.028414255
169	0xbd2be633	-0.041967582
170	0x3ce15d2f	0.027510254
171	0x3d9b7f35	0.07592622
172	0xbd6b6764	-0.057471648
173	0xbe2ad452	-0.16682556
174	0x3e35236c	0.17689294
175	0xbe001467	-0.12507783
176	0x3dccf0ab	0.10006841
177	0x3d98124b	0.07425364
178	0xbd849d4b	-0.06475314
179	0x3e02f737	0.12789617
180	0xbaced4c1	-0.0015779958
181	0x3c46f088	0.012142308
182	0xbcabf24f	-0.020989565
183	0xbe03377e	-0.12814137
184	0x3d16105a	0.036636688
185	0x3e22455e	0.15846774
186	0x3e1c177c	0.15243334
187	0x3d996a5c	0.074909896
188	0x3e997aee	0.299766
189	0xbdda84c7	-0.106698565
190	0xbc6e1ce6	-0.014533257
191	0xbdd630e8	-0.10458547
192	0xbe04b4fb	-0.12959664
193	0x3ccd55bc	0.025065295
194	0x3bb5f79f	0.0055532004
195	0x3c34d996	0.011038205
196	0x3d8589cd	0.06520424
197	0x3e02ffed	0.1279294
198	0xbd6d1246	-0.057878755
199	0x3e0df32d	0.13862295
200	0xbdffaae8	-0.1248377
201	0x3dfe1cc1	0.12407828
202	0x3e0d90b9	0.13824739
203	0x3e106151	0.14099623
204	0x3eb02242	0.34401137
205	0x3e73ba11	0.23801447
206	0x3e47afae	0.1950061
207	0x3d85b6b6	0.0652899
208	0x3c4b8114	0.012420911
209	0x3a29f9f9	0.0006484087
210	0x3d83ed18	0.064417064
211	0xbc1f9aae	-0.009741468
212	0x3e0f1a0c	0.1397478
213	0x3cd27dac	0.02569469
214	0xbcdc6273	-0.026902413
215	0x3e21410d	0.15747471
216	0x3dafcc20	0.08583856
217	0x3c0b4a72	0.008501636
218	0x3d2a27cc	0.04154186
219	0x3dbc1b6c	0.09184918
220	0x3dc92a91	0.09822572
221	0x3d82380e	0.06358348
222	0x3e184627	0.14870511
223	0x3e264497	0.16237102
224	0x3e68a364	0.22718579
225	0x3c0bf7c8	0.008542962
226	0xbcc61d51	-0.024183901
227	0x3db86c1f	0.090049975
228	0xbbf2521b	-0.0073950416
229	0xbde60c78	-0.11232847
230	0xbb507079	-0.003180532
231	0x3d66cbff	0.05634689
232	0x3d07e45a	0.033176757
233	0x3d94574c	0.07243213
234	0x3c1dd9f4	0.009634484
235	0xbc7cf188	-0.015438445
236	0x3d424a38	0.04743406
237	0x3d006684	0.031347767
238	0x3bd3c9ba	0.0064632567
239	0x3bd8cb34	0.0066160206
240	0x3d8c6f4f	0.06857168
241	0x3dbf94d9	0.09354562
242	0x3d30c505	0.043156642
243	0x3ce294fa	0.027658928
244	0x3d27b285	0.040941734
245	0xbd1f3859	-0.038872097
246	0xb92f9328	-0.0001674412
247	0x3d9d8829	0.07691986
248	0x3d96dece	0.07366715
249	0xbca8c893	-0.020603454
250	0xbcb0d176	-0.021584254
251	0xbdef1566	-0.11674003
252	0xbca0c472	-0.019624922
253	0x3d9ffbab	0.07811674
254	0x3d59a947	0.05313995
255	0x3db25160	0.08706927

cnn2.bias f4 [32]
0	0xbd9aed91	-0.075648434
1	0xbcc159d3	-0.023602402
2	0xbc81d931	-0.015850635
3	0xbd1034b7	-0.035206523
4	0xbcd77d55	-0.02630488
5	0xbd317b8e	-0.04333072
6	0xbd92ce91	-0.07168306
7	0xbd018dae	-0.031629257
8	0xbd907970	-0.07054412
9	0xbc65a1cb	-0.014015625
10	0xbd1fd26b	-0.03901903
11	0xbd66aaa4	-0.05631508
12	0xbc54f609	-0.0129981125
13	0xbd93caf5	-0.07216445
14	0xbba56080	-0.005046904
15	0xbbaeab94	-0.0053305123
16	0xbae8a4e3	-0.0017749335
17	0xbd74ea97	-0.059794035
18	0xbdc65fe9	-0.09686262
19	0x3b75842b	0.0037462811
20	0xbc6e4ab7	-0.014544181
21	0xbc6b34a1	-0.014355809
22	0x3bc25ad3	0.0059312372
23	0xba9d5d5d	-0.0012005974
24	0xbd86a36d	-0.0657414
25	0xbdb72abb	-0.08943697
26	0xbda846bf	-0.08216619
27	0x3cbde4a8	0.02318032
28	0xbd02307c	-0.03178452
29	0xbbf4e57c	-0.0074736457
30	0xbbe3634c	-0.0069393273
31	0xbc8f7901	-0.017513754

cnn3.weight f4 [32, 32, 3, 3]
0	0x3d8b3e2d	0.067989685
1	0x3c27bbab	0.010237615
2	0xbdc58755	-0.09644953
3	0x3d6ba664	0.05753173
4	0xbabb9eff	-0.0014314352
5	0x3d37af0d	0.044844676
6	0xbc93ab8b	-0.018026134
7	0xb9d65f61	-0.00040888324
8	0x3c5fa0f8	0.013649218
9	0x3dc5f828	0.09666473
10	0x3d0b1191	0.0339523
11	0xbb7b9bb3	-0.0038392365
12	0xbc5e128b	-0.013554226
13	0x3b8e7fbc	0.004348723
14	0xbd57544c	-0.052570626
15	0xbd0f98fa	-0.035058
16	0xbdd5ff20	-0.10449052
17	0xbdda0769	-0.106459446
18	0xbd29b37c	-0.041430935
19	0xbac4d01d	-0.0015015636
20	0x3bca3759	0.0061711487
21	0x3d4c1f1c	0.049834356
22	0xbda3d984	-0.08000472
23	0x3c8fe16e	0.017563548
24	0x3c739fc6	0.014869636
25	0xbd5ef7c5	-0.05443551
26	0xbbb1bdc0	-0.0054242313
27	0x3dea3d30	0.11437452
28	0x3d1eefbb	0.038802844
29	0xbd8dd488	-0.06925303
30	0x3ccdeafc	0.025136463
31	0xbc62200a	-0.013801584
32	0x3cba8e9b	0.022773078
33	0x3b4b928f	0.0031062698
34	0xbd847679	-0.06467909
35	0xbdb41a55	-0.08794085
36	0x3c33b109	0.010967501
37	0x3d6c12f9	0.05763528
38	0xbdad5e19	-0.08465213
39	0xbd2a8cf8	-0.041638345
40	0xbd2b7406	-0.041858695
41	0xbcdb80f4	-0.026794888
42	0xbb4efc8e	-0.003158364
43	0xbd20f4b0	-0.039295852
44	0xbd777a5d	-0.06041943
45	0x3dbb9a1a	0.09160252
46	0xbb0ecb31	-0.0021788592
47	0xbd196d02	-0.037457474
48	0x3d3d72da	0.04625211
49	0xbcfce98c	-0.030873083
50	0xbd484544	-0.04889418
51	0xbcd62e14	-0.026145019
52	0xbdc36923	-0.095415376
53	0xbcb94571	-0.02261612
54	0x3ca5a54e	0.020220425
55	0x3d64dc2a	0.055874027
56	0xbdbc492c	-0.09193644
57	0xbc532364	-0.012886856
58	0xbd91a054	-0.07110658
59	0xbc949565	-0.018137643
60	0x3caa1df0	0.020766228
61	0x3c8e7e65	0.017394254
62	0xbd4f37de	-0.05059039
63	0x3d076119	0.033051584
64	0xbd3ca20d	-0.04605298
65	0xbda29491	-0.07938493
66	0x3d62c283	0.055361282
67	0xbd3ae8a0	-0.045632005
68	0x3d2be690	0.04196793
69	0x3d130838	0.03589651
70	0xbd5940c7	-0.053040292
71	0x3c73fdb6	0.014892032
72	0x3c80257c	0.015642874
73	0xbd07d529	-0.03316227
74	0xbcb0c784	-0.021579511
75	0x3d5e425e	0.05426251
76	0x3c1252bc	0.008930858
77	0xbd376d9f	-0.044782277
78	0xbd06c0ce	-0.032898717
79	0xbc82cbe0	-0.015966356
80	0x3cd4409f	0.02590972
81	0x3d746409	0.059665713
82	0x3d4412f5	0.04786964
83	0x3cc89567	0.024485303
84	0x3da0141d	0.07816336
85	0x3cca9a2f	0.024731724
86	0xbd23142c	-0.03981416
87	0x3acd1cea	0.0015648876
88	0xbd70b30a	-0.058764495
89	0xbce0eb10	-0.027455837
90	0x3be86f15	0.00709332
91	0xbdc6ac7b	-0.09700867
92	0xbd67e25b	-0.056612354
93	0x3d5b2767	0.053504374
94	0xbc491684	-0.012273435
95	0xbd5660ee	-0.052338533
96	0xbd1ef004	-0.038803115
97	0x3bcacf16	0.0061892373
98	0xbc87f263	-0.016595071
99	0x3c04d7cc	0.008108091
100	0xbcc13941	-0.023586871
101	0xbd8eaa36	-0.06966059
102	0x3d894d31	0.06704176
103	0xbd6fbd2f	-0.05853003
104	0xbce3f859	-0.027828382
105	0x3ce28c91	0.027654918
106	0xbd7ddeff	-0.061980244
107	0xbde2c982	-0.11073591
108	0x3c1f932b	0.009739677
109	0xbd35b1a7	-0.044358876
110	0xbd2a0681	-0.04151011
111	0x3d6cf316	0.057849012
112	0xbd1ff704	-0.03905393
113	0x3d0307fc	0.031990036
114	0xbcb51ada	-0.02210753
115	0xbcd01ff0	-0.025405854
116	0xbd83fb62	-0.06444432
117	0x3c175400	0.009236336
118	0xbbd05858	-0.0063581876
119	0xbce8154a	-0.028330464
120	0x3d9e5aa1	0.0773213
121	0xbcb71b96	-0.022352021
122	0xbd00090f	-0.03125864
123	0x3bb3100b	0.005464559
124	0xbbe304db	-0.006928069
125	0xbd244d7e	-0.040112965
126	0xbc6ce1fa	-0.014458174
127	0x3d8d8786	0.06910615
128	0xbd8ef346	-0.069799945
129	0xbc4d7353	-0.0125397025
130	0x3d06d9e9	0.03292266
131	0x3c0b8eca	0.00851793
132	0x3d2a4d3f	0.041577574
133	0xbdaad352	-0.083410874
134	0xbd8703ac	-0.06592497
135	0x3d3e85a7	0.04651418
136	0xbd2b71af	-0.041856464
137	0x3d001030	0.031265438
138	0x3db3bd04	0.08776286
139	0xbd5eb9f8	-0.054376572
140	0xbcb229d0	-0.021748453
141	0xbcc68abf	-0.024236081
142	0xbd236474	-0.03989072
143	0x3b02c9a1	0.0019956606
144	0x3d3bb412	0.045826025
145	0x3d8e9f0e	0.06963931
146	0xbc9f1425	-0.019418785
147	0x3d326457	0.043552723
148	0x3cfaaa69	0.030598836
149	0x3b374a08	0.002796771
150	0xbd03d9d5	-0.032190163
151	0xbd6623ee	-0.05618661
152	0xbd602c3a	-0.054729678
153	0x3d4270c5	0.047470827
154	0xbd11cc0c	-0.035594985
155	0x3cbf940e	0.023386028
156	0x3d0f4298	0.034975618
157	0xbc714644	-0.014726225
158	0xbd081091	-0.033218924
159	0xbd7db665	-0.061941523
160	0xbc82b80b	-0.0159569
161	0x3c9c0210	0.019043952
162	0x3bd897b3	0.006609881
163	0x3d5cb9ea	0.05388824
164	0xbcfcac03	-0.03084374
165	0x3d14f5ed	0.036367346
166	0xbd271c19	-0.04079828
167	0xbd505d3b	-0.05087016
168	0x3d214bad	0.03937881
169	0x3cfe2220	0.031022131
170	0xbcaf66cf	-0.021411328
171	0x3c96138f	0.018319873
172	0x3d15b483	0.036549103
173	0xbcb27232	-0.021782968
174	0xbd5f50b4	-0.054520324
175	0xbd4c1f24	-0.049834386
176	0xbd0ae2da	-0.03390775
177	0x3c97bf6b	0.018523892
178	0xbd1ef490	-0.03880745
179	0xbd8f75a9	-0.07004864
180	0xbd6479f3	-0.055780362
181	0xbd515495	-0.051106054
182	0xbca81d75	-0.020521859
183	0xbd5d1c35	-0.05398198
184	0x3ccf48f7	0.025303347
185	0xbc4114cf	-0.011784746
186	0xbcb0364b	-0.021510264
187	0x3d042c87	0.032269027
188	0xbd4d7169	-0.050156984
189	0x3cc6b7f9	0.024257647
190	0xbc682979	-0.014170044
191	0xbd2856fa	-0.041098572
192	0x3dcd1c76	0.10015194
193	0xbd7b0de6	-0.06129255
194	0xbda6f6fc	-0.08152577
195	0xbcdc1d18	-0.026869342
196	0xbd967f60	-0.073485136
197	0xbdf8ef1c	-0.121549815
198	0x3d5a895d	0.053353656
199	0x3cd00002	0.025390629
200	0xbceaf816	-0.02868275
201	0xbc8ec14d	-0.017426157
202	0x3bf5a83b	0.0074968613
203	0xbca4ade1	-0.020102443
204	0x3cccaa26	0.024983477
205	0xbd20adee	-0.039228372
206	0x3cc43486	0.023950826
207	0xbcb15f61	-0.021651926
208	0x3d1befad	0.03807037
209	0xbcd7dac8	-0.02634944
210	0xbce7a52e	-0.028277006
211	0xbd06fe3e	-0.032957308
212	0x3c440e67	0.011966324
213	0x3d42b608	0.04753688
214	0xbced35af	-0.028956262
215	0xbcf45609	-0.029826181
216	0xbc6cd189	-0.014454254
217	0x3d1d0096	0.038330637
218	0xbceb841e	-0.028749522
219	0x3c8e627e	0.01738095
220	0xbd64f4d7	-0.05589756
221	0xbc8d6b84	-0.017263182
222	0x3d14ea56	0.036356293
223	0x3b749d58	0.003732523
224	0xbc86a774	-0.01643727
225	0x3c6d088e	0.014467372
226	0x3c0b1a5d	0.008490172
227	0xbd3c78e7	-0.04601374
228	0x3d41679e	0.047217958
229	0x3c1ae62c	0.009454291
230	0x3cf7c606	0.030245792
231	0x3d0df1a1	0.034654263
232	0xbc989793	-0.018626964
233	0xbd2beb2e	-0.04197233
234	0x3daa8f22	0.08328082
235	0xbc7a1c2d	-0.015265507
236	0xbce1a23d	-0.027543182
237	0x3d38aca4	0.045086518
238	0x3d50c8f8	0.05097291
239	0x3d09d6b1	0.03365201
240	0x3c97f6dd	0.01855033
241	0xbd08f516	-0.033436857
242	0x39c682be	0.00037862913
243	0xbeb251b1	-0.3482795
244	0xbe3d5853	-0.18490724
245	0xbe545847	-0.207368
246	0xbe904c67	-0.2818329
247	0xbd2004f9	-0.039067242
248	0xbe0d7275	-0.13813193
249	0x3e1f65c4	0.15566164
250	0x3da6753a	0.08127828
251	0x3ce7f3f2	0.028314564
252	0xbd0c8045	-0.034302015
253	0xbd2ac2bb	-0.041689616
254	0xbd11c882	-0.03559161
255	0xbd40975e	-0.047019355

cnn3.bias f4 [32]
0	0x3cd1cc4e	0.025610115
1	0xbbd587a8	-0.0065164156
2	0xbd5e6c8e	-0.054302745
3	0xbd107c21	-0.03527463
4	0xbd8af8ec	-0.06785759
5	0x3bdc4ca5	0.006723004
6	0x3d0b5ee4	0.03402604
7	0x3c8e09d4	0.01733867
8	0x3c645615	0.013936539
9	0xbc898766	-0.016788196
10	0xbc273c33	-0.010207224
11	0x3cbe46f3	0.02322719
12	0x3ce7531d	0.028237874
13	0x3ced708e	0.028984334
14	0x3ccc89b1	0.024968
15	0xbc10ad7d	-0.008830425
16	0xbd8cde04	-0.068782836
17	0x3c48281e	0.012216596
18	0x3d24427f	0.040102478
19	0x39ad80d7	0.00033093125
20	0xbd45cc1e	-0.048290364
21	0xbd4171dd	-0.04722773
22	0xbd83b09c	-0.0643017
23	0xbd314b84	-0.043284908
24	0xbda5c363	-0.08093908
25	0x3cc3379e	0.023830231
26	0x3c720913	0.014772671
27	0xbcca25f1	-0.024676295
28	0x3c7a668a	0.015283236
29	0xbd2f2609	-0.042760883
30	0x3cffa54e	0.031206753
31	0xbd2b4e48	-0.0418227

fc1.weight f4 [128, 768]
0	0x3d030bb2	0.031993575
1	0x3c9aeca1	0.018911662
2	0x3d015890	0.0315786
3	0xbc6a1580	-0.014287353
4	0x3d2fd9a6	0.042932175
5	0x3da70251	0.08154739
6	0xbccbdd2b	-0.024885735
7	0x3caea64e	0.021319535
8	0x3d0d6199	0.034516905
9	0x3ce346d3	0.027743733
10	0x3a50b8f2	0.00079621293
11	0x3d2db2b9	0.04240677
12	0x3d527a0c	0.051385924
13	0xbd963615	-0.07334534
14	0xbd63c130	-0.05560416
15	0x3d45824f	0.048219975
16	0x3cbec2f5	0.023286322
17	0xbd84028b	-0.064457975
18	0xbcccf803	-0.025020605
19	0xbd2f93a9	-0.04286543
20	0xbd657713	-0.05602176
21	0xbd1a9026	-0.037735127
22	0xbda43c40	-0.08019304
23	0xbc54e44b	-0.012993882
24	0xbcbd346d	-0.023096288
25	0x3d0f01c6	0.0349138
26	0x3dafff90	0.085936666
27	0xbc1767fe	-0.009241102
28	0x3cf10916	0.029423278
29	0x3d557bda	0.052120067
30	0x3b8e5f43	0.004344852
31	0x3d79d1c2	0.060991056
32	0x3db9ce78	0.09072584
33	0x3d9847c8	0.07435566
34	0x3c28e8cb	0.010309408
35	0x3cc618ad	0.024181688
36	0x3ca9f712	0.020747695
37	0xbc4bb3ef	-0.012433036
38	0xbd128726	-0.03577342
39	0xbb23c276	-0.0024987734
40	0xbcef811e	-0.029236373
41	0xbd7f915b	-0.06239448
42	0x39f144bf	0.00046018322
43	0xbcc62924	-0.02418954
44	0xbd07ed29	-0.033185158
45	0x3d6a1f44	0.057158723
46	0xbd224e15	-0.039625246
47	0xbced6ce6	-0.02898259
48	0x3c7ce8d4	0.01543637
49	0x3b584190	0.0032998063
50	0x3b018420	0.001976259
51	0x3c6804e0	0.014161319
52	0x3c6a3048	0.014293738
53	0x3cdcfa4c	0.02697482
54	0x3d10c158	0.035340637
55	0x3bbcd6b0	0.0057628974
56	0xbb7ffb20	-0.0039059594
57	0xbd01ee48	-0.031721383
58	0xbbef76b8	-0.0073078535
59	0xbc066a2a	-0.008204022
60	0x3c3ebe94	0.011642117
61	0xbcc0c4ee	-0.023531403
62	0xbc367a2a	-0.011137525
63	0xbcb70772	-0.022342417
64	0x3b828f18	0.0039843433
65	0xbc630e62	-0.01385841
66	0x3ceb7d3c	0.02874624
67	0xbc1d9a48	-0.009619303
68	0xbc22b2f4	-0.009930361
69	0x3b21bf00	0.0024680495
70	0x3bc32868	0.0059557445
71	0xbc995977	-0.018719418
72	0xbd07e368	-0.033175856
73	0x3d1bcc7c	0.03803681
74	0x3dc17fd5	0.0944821
75	0xbc6169af	-0.013758107
76	0x3cc60df6	0.024176579
77	0x3d52e9c0	0.051492453
78	0x3bb1a2c5	0.005421015
79	0xbcef5775	-0.029216507
80	0x3baddb1d	0.0053056614
81	0xbc4e8202	-0.012604238
82	0xbcc814c1	-0.024423959
83	0x3b653722	0.0034975489
84	0x3d6c1314	0.05763538
85	0x3c763e67	0.015029526
86	0xbd57d5c4	-0.052694097
87	0xbc9c37ee	-0.019069638
88	0xbadf9a62	-0.001705956
89	0xbd19e337	-0.037570205
90	0xbb326a4e	-0.0027224007
91	0xbd7dbfc3	-0.061950456
92	0xbdd3488f	-0.10316574
93	0xbdb6e976	-0.08931248
94	0xbd64a398	-0.055820078
95	0xbdc7927f	-0.09744739
96	0x3d5b97f5	0.053611714
97	0x3d49f573	0.049306344
98	0x3c9a0961	0.0188033
99	0x3d255f45	0.04037406
100	0x3d1eb413	0.03874595
101	0x3dbd71de	0.09250234
102	0xbc9c6afa	-0.01909398
103	0xbc8a81af	-0.016907541
104	0x3be14675	0.006874854
105	0xbca945d8	-0.020663187
106	0xbd915cd6	-0.07097785
107	0xbd711d0f	-0.058865603
108	0xbdfd906f	-0.12381064
109	0xbda4835d	-0.08032868
110	0xbda3b16f	-0.07992827
111	0xbdea2ea9	-0.11434681
112	0xbd22cc58	-0.03974566
113	0xbd8b8b3f	-0.068136685
114	0xbd7fd26c	-0.062456533
115	0xbd7d707a	-0.061874844
116	0xbd9ea117	-0.07745569
117	0xbdbfc1fd	-0.09363172
118	0xbd92ef7c	-0.07174584
119	0xbdbb5759	-0.091475196
120	0xbcdfc596	-0.027315896
121	0x3d7a7bb3	0.061153125
122	0x3cb13818	0.021633193
123	0xbc159764	-0.009130333
124	0x3d0de733	0.034644317
125	0x3d1723d6	0.03689941
126	0x3ccf6454	0.025316395
127	0x3d4e065e	0.05029904
128	0x3d871ef8	0.06597704
129	0x3c13b73c	0.009015854
130	0xb884bfff	-6.3300125e-05
131	0x3d29e7f6	0.04148098
132	0x3d264e1c	0.040601835
133	0xbcf25fbc	-0.029586665
134	0xbc815b0e	-0.015790489
135	0x3b32af8e	0.0027265283
136	0xbcc9cdfc	-0.024634354
137	0xbd25ae14	-0.040449217
138	0xbc24dfd3	-0.0100631295
139	0xbd336678	-0.043798894
140	0xbd3939b1	-0.045221034
141	0x3c7f5313	0.015583771
142	0xbd09339e	-0.03349649
143	0xbcbd968b	-0.023143074
144	0x3caea37f	0.021318195
145	0x3cacb3e4	0.021081872
146	0x3d298b3b	0.041392546
147	0xbc2d5229	-0.010578671
148	0xbbc1e2c9	-0.0059169275
149	0x3cc9c5d3	0.024630463
150	0x3b428552	0.0029681516
151	0x3c2ac7dd	0.010423628
152	0x3d45a1be	0.048249952
153	0xbc176b6f	-0.009241923
154	0x3c08f219	0.008358502
155	0x3d75381f	0.059867974
156	0x3bbe1b28	0.005801577
157	0xbc726b0b	-0.014796029
158	0xbd55104f	-0.052017506
159	0x3b84664b	0.0040405146
160	0x3c8c44db	0.017122677
161	0xbcaf610c	-0.02140858
162	0xbabf1acb	-0.0014580128
163	0xbd31b0eb	-0.043381613
164	0xbda04db1	-0.078273185
165	0xbcd76816	-0.02629475
166	0xbd1c82f7	-0.038210835
167	0xbd6f8102	-0.05847264
168	0x3c11aded	0.008891565
169	0x3ceb3c20	0.028715193
170	0x3dc5ec60	0.096642256
171	0xbcbf56c1	-0.023356797
172	0xbcf10456	-0.029421013
173	0x3d82b505	0.06382183
174	0xb9fa5086	-0.0004774371
175	0x3cd52e40	0.02602303
176	0x3d733e33	0.05938549
177	0x3d020d33	0.03175087
178	0xbc4f17db	-0.012639965
179	0xbbca64ca	-0.006176566
180	0xbcffb2f5	-0.031213263
181	0xbc23bbd9	-0.009993517
182	0xbd84d36b	-0.06485637
183	0x3cb256cc	0.021769904
184	0xbca693e5	-0.020334193
185	0xbca2e7f5	-0.019885996
186	0x3ccc31a8	0.024926022
187	0xbd8b2ae1	-0.06795288
188	0xbd995555	-0.07486979
189	0xbc25b74e	-0.010114504
190	0xbc61a8b8	-0.013773136
191	0xbc9f6eab	-0.01946195
192	0x3c413193	0.011791605
193	0xbd21ffd3	-0.039550614
194	0x3d0c592a	0.03426472
195	0x3d937018	0.071991146
196	0x3ce9693e	0.028492566
197	0x3d3af726	0.045645855
198	0x3d5d0a18	0.053964704
199	0x3cbc27f4	0.02296827
200	0x3da94626	0.08265333
201	0x3d285f18	0.041106313
202	0x3d44e905	0.048073787
203	0x3d9454d1	0.0724274
204	0x3bbf84cc	0.005844688
205	0xbb9ced55	-0.0047890344
206	0x3b832f97	0.004003476
207	0x3d78fa2b	0.060785454
208	0xbd3d03ad	-0.046146084
209	0xbc18cc0a	-0.00932599
210	0xbcc543a0	-0.024080098
211	0xbd59524c	-0.053057
212	0xbdaad80c	-0.08341989
213	0xbd45f636	-0.04833051
214	0xbd9683d6	-0.073493645
215	0xbdaaf350	-0.083471894
216	0x3c863f2a	0.01638754
217	0xbd784ce1	-0.060620192
218	0x3d16a26a	0.036775984
219	0xbcf81d7f	-0.030287502
220	0x3ca94461	0.020662488
221	0x3d76b34e	0.060229592
222	0xbcf58e46	-0.029975068
223	0x3c2d517c	0.010578509
224	0x3dbd8caf	0.09255349
225	0x3be83c5b	0.007087273
226	0xbc5c3d22	-0.01344231
227	0x3d949480	0.072548866
228	0x3ca5880b	0.020206472
229	0xbd068a60	-0.03284681
230	0xbca88847	-0.020572795
231	0xbcc0f7d9	-0.023555683
232	0xbcfb7a29	-0.030697899
233	0xbc348e1e	-0.0110202115
234	0xbbf39618	-0.007433664
235	0xbcb2f664	-0.021846004
236	0xbd8a44fe	-0.067514405
237	0xbcf0f794	-0.02941493
238	0xbb46250b	-0.0030234482
239	0xbd5a86b8	-0.053351134
240	0xbae26728	-0.0017273175
241	0x3c0e539d	0.008686927
242	0xbe0c2a66	-0.13688049
243	0x3d8a24aa	0.06745274
244	0x3c9020d9	0.017593788
245	0xbe4b9bfc	-0.19883722
246	0x3de215a1	0.11039282
247	0x3dc1ec35	0.09468881
248	0xbd86a123	-0.06573703
249	0x3da6b3d3	0.081397675
250	0x3d99e20a	0.07513817
251	0x3c5e7468	0.013577558
252	0x3d43f51b	0.047841173
253	0x3d192a52	0.037393875
254	0x3d0b874c	0.034064576
255	0xba44035a	-0.0007477306

fc1.bias f4 [128]
0	0x3cd63478	0.026148066
1	0x3d681749	0.05666283
2	0x3d7a48b2	0.061104484
3	0x3c2419e6	0.01001594
4	0x3bb120be	0.0054055145
5	0xbd41f191	-0.047349516
6	0xbc9738c8	-0.018459693
7	0xbd218c2f	-0.03944033
8	0x3d307ea4	0.043089524
9	0x3babb2f8	0.0052398406
10	0x3d2fa138	0.04287836
11	0xbc1bb0f2	-0.009502636
12	0xbd3577fe	-0.044303887
13	0xbd41443d	-0.047184218
14	0x3d3f1ec4	0.0466602
15	0xba28db6f	-0.00064413896
16	0xbcbec815	-0.023288766
17	0xbc705072	-0.014667617
18	0x3cd86622	0.026415888
19	0x3d89e302	0.067327514
20	0x39a195f4	0.00030820037
21	0x3d72eacc	0.05930595
22	0x3d56afc1	0.052413706
23	0xbbca05a9	-0.0061652255
24	0x3b31fb8d	0.0027157993
25	0xbb562972	-0.0032678512
26	0xbd3c0ee9	-0.045912657
27	0x3d9bd1ac	0.07608351
28	0xbcf8db10	-0.030377895
29	0x3d744184	0.059632793
30	0x3db0904f	0.08621275
31	0xbd57fb82	-0.05273009
32	0x3d38e90f	0.045144137
33	0xbd199627	-0.037496712
34	0xbcf140a1	-0.029449763
35	0xbd68ab48	-0.05680397
36	0x3d25d058	0.040481895
37	0x3d21c759	0.039496753
38	0x3b7dc033	0.0038719296
39	0xbd798990	-0.060922205
40	0x3ca24122	0.019806448
41	0x3c0cb165	0.008587216
42	0xbccaeae5	-0.02477021
43	0xbcd134ab	-0.02553781
44	0x3d6a8ba1	0.057262067
45	0xbcc4b3ac	-0.024011455
46	0x3d4cbda1	0.04998553
47	0x3c2acdbd	0.010425028
48	0xbd43d7c5	-0.047813196
49	0xbd3515e6	-0.044210337
50	0xbd2b0a5e	-0.041757934
51	0x3c895b53	0.01676718
52	0x3c946041	0.018112304
53	0x3dad698d	0.08467398
54	0x3aab931f	0.001309011
55	0x3d7bbb69	0.061458025
56	0x3d48c2b0	0.049013793
57	0x3d984379	0.074347444
58	0x3bbc3890	0.0057440475
59	0xbd47d898	-0.048790544
60	0x3c8af9dc	0.016964845
61	0x3ca47446	0.020074975
62	0xbd0fb5a9	-0.035085354
63	0xbcc6d915	-0.024273435
64	0x3ceae56d	0.028673852
65	0x3d447402	0.047962196
66	0x3d7ca4ad	0.061680485
67	0x3c89613c	0.016769998
68	0x3bd4a80f	0.0064897607
69	0x3c3ebb0b	0.011641274
70	0xbb1f37f0	-0.0024294816
71	0x3c1db8ca	0.009626577
72	0x3d84dbfd	0.06487272
73	0xbc882302	-0.016618256
74	0x3d3a8e55	0.045545895
75	0x3c5e9ff4	0.0135879405
76	0xbbd7127f	-0.006563484
77	0xbd1a4b57	-0.037669506
78	0x3d5b16a4	0.05348839
79	0x3d379732	0.044821925
80	0x3c364bdb	0.011126484
81	0xbd08a2ef	-0.03335851
82	0xba816af8	-0.0009873798
83	0xbba68a32	-0.005082392
84	0x3ae69b55	0.00175939
85	0x3da4bad4	0.08043447
86	0x3d1ec7ad	0.038764644
87	0x3d814343	0.06311657
88	0x3dbaaaba	0.09114595
89	0xbd194622	-0.0374204
90	0xbceb96f6	-0.028758507
91	0x3ad40e9e	0.0016178673
92	0xbd1bb2d9	-0.03801236
93	0xbc299b86	-0.010352021
94	0xbc0ab71e	-0.00846651
95	0xbd379c7b	-0.044826966
96	0xbc8d2ca8	-0.017233208
97	0x3d936e9b	0.07198831
98	0x3d9ffa89	0.07811458
99	0x3d5913aa	0.05299727
100	0x3d82fbf4	0.063957125
101	0xbbf2868c	-0.007401293
102	0xbbca9f55	-0.0061835446
103	0x3d2cf74d	0.042228032
104	0x3c196a35	0.009363701
105	0xbca43420	-0.020044386
106	0xbb0eb89c	-0.0021777516
107	0x3b290248	0.0025788713
108	0x3c9c5743	0.019084578
109	0x3cf04b11	0.02933267
110	0x3be5f01b	0.007017148
111	0xbd2b0232	-0.04175014
112	0x3d2836f6	0.04106804
113	0xbd280a07	-0.041025188
114	0x3db04abb	0.08608004
115	0xbcaee78a	-0.02135064
116	0x3d6b83c4	0.05749871
117	0xbd73026d	-0.059328485
118	0xbcdcff62	-0.026977245
119	0xbb1695e5	-0.0022977528
120	0xbbb0e19c	-0.0053979885
121	0x3c822b51	0.015889795
122	0xbcd5c05f	-0.026092706
123	0x3c391daf	0.011298581
124	0xbad4b0a4	-0.0016226959
125	0xbcddda4d	-0.027081633
126	0x3dc60861	0.09669567
127	0x3c996ee2	0.01872963

fc2.weight f4 [128, 128]
0	0x3d87a39e	0.066230044
1	0xbd79bd3f	-0.060971495
2	0x3d2a5dc6	0.041593336
3	0xbd6f8aa0	-0.058481812
4	0xbd3bf5b4	-0.045888618
5	0xbcf8779d	-0.030330474
6	0xbd3c0a44	-0.045908228
7	0xbd401e05	-0.04690363
8	0x3dc70df6	0.0971946
9	0xbcc30b9c	-0.023809247
10	0x3ddb4e39	0.10708279
11	0xbd8b6b63	-0.06807592
12	0x3da6c2eb	0.081426464
13	0x3d803177	0.06259435
14	0x3d832d1c	0.06405088
15	0x3cde8bef	0.027166335
16	0xbd02fd82	-0.031980045
17	0xbc72689c	-0.014795449
18	0x3c51dc2c	0.012808841
19	0x3dc55fff	0.096374504
20	0x3d0f7010	0.03501898
21	0x3dea548a	0.11441906
22	0xbc95bb6e	-0.01827785
23	0xbdaaf153	-0.0834681
24	0x3d87150c	0.06595811
25	0x3c86238c	0.016374372
26	0x3d9ac28f	0.0755664
27	0x3c9a3fbc	0.018829219
28	0xbd30ef62	-0.043197043
29	0x3d8d28f1	0.068925746
30	0x3dd19f18	0.10235423
31	0xbd8ebfe6	-0.069701955
32	0xbcab9422	-0.020944659
33	0x3ca4062a	0.02002247
34	0x3ca2fd84	0.019896276
35	0x3d3b4537	0.045720305
36	0x3dae6075	0.085144915
37	0xbe26c5f0	-0.16286445
38	0xbca83572	-0.020533297
39	0xbdb4b48c	-0.08823499
40	0x3b8fae69	0.004384805
41	0x3d1f51f6	0.038896523
42	0x3cb8c292	0.022553716
43	0x3d700ccf	0.058605965
44	0xbd13fba9	-0.036128674
45	0x3ccbb727	0.024867607
46	0x3b59dab1	0.0033241923
47	0x3d8a06b4	0.0673956
48	0x3d6ddc03	0.058071148
49	0x3d9f4939	0.07777638
50	0x3d147f1e	0.03625404
51	0xbd6bbd69	-0.057553682
52	0xbd57b927	-0.05266681
53	0xbc43b7ad	-0.011945647
54	0xbcf41838	-0.029796705
55	0x3be5eeec	0.007017007
56	0xbdc55631	-0.0963558
57	0x3ddb3b70	0.10704696
58	0x3c73d694	0.014882702
59	0xbd0adf26	-0.033904217
60	0xbcb8d060	-0.022560298
61	0x3c6e7942	0.014555277
62	0xbd66bf37	-0.0563347
63	0x3c860af0	0.016362637
64	0x3d410d7a	0.047131993
65	0xbd36f170	-0.044663846
66	0x3c8a50c5	0.016884217
67	0xbd198d4b	-0.037488263
68	0x3d86a60c	0.0657464
69	0x3cc5171b	0.02405887
70	0xbcb621c1	-0.022232892
71	0x3d907ca8	0.07055026
72	0x3de279be	0.11058377
73	0x3c372076	0.011177173
74	0xbdca05a4	-0.09864357
75	0xbdb233ac	-0.08701262
76	0xbd701a78	-0.058618993
77	0x3d261562	0.040547736
78	0x3d8c3928	0.06846839
79	0x3d146448	0.03622845
80	0x3d201985	0.039086837
81	0xbd4e0347	-0.050296094
82	0x3cf18407	0.0294819
83	0xbdaf0794	-0.08546367
84	0xbda8770f	-0.082258336
85	0xbd1dae16	-0.0384961
86	0x3cbd8a6b	0.023137292
87	0x3c329400	0.010899544
88	0xbd475148	-0.0486615
89	0x3dc88ed7	0.097928695
90	0xbc57269b	-0.013131763
91	0x3d7be350	0.06149608
92	0xbd172f84	-0.03691055
93	0x3d9e19ea	0.077197865
94	0xbcac0bb0	-0.021001667
95	0x3d4e3dfa	0.050352074
96	0xbce8fcf5	-0.028440932
97	0xbd80d604	-0.0629082
98	0x3db370ac	0.08761725
99	0x3dc32056	0.09527652
100	0xbe68ec83	-0.22746472
101	0xbcd29a38	-0.025708303
102	0xbd41294f	-0.047158536
103	0x3dad801b	0.084717
104	0xbca3567b	-0.019938698
105	0xbd65c154	-0.056092575
106	0x3b24640b	0.0025084044
107	0xbc080a47	-0.008303232
108	0xbdbce4c5	-0.09223322
109	0xbdf00373	-0.11719408
110	0x3b3e42a0	0.002903141
111	0xbaaab32a	-0.0013023366
112	0xbd399eac	-0.045317337
113	0x3d00921e	0.03138935
114	0x3d401d37	0.04690286
115	0xbda230a4	-0.07919434
116	0x3dab6e9f	0.08370709
117	0xbd9da9b3	-0.07698383
118	0xba58c183	-0.00082685816
119	0xbd02e060	-0.031952262
120	0xbd221999	-0.039575193
121	0xbe0224e9	-0.12709393
122	0x3d9bac24	0.076011926
123	0x3d5477e2	0.05187214
124	0x3d0f3f05	0.03497221
125	0xbd33c422	-0.04388822
126	0xbb9902ae	-0.004669509
127	0x3cd794e1	0.026316108
128	0x3d5e7e98	0.054319948
129	0x3d91958f	0.07108604
130	0x3dd37051	0.10324157
131	0x3d082269	0.03323594
132	0xbaa03205	-0.0012221938
133	0x3cfba931	0.030720325
134	0xbd278d46	-0.040906213
135	0x3d1fc171	0.03900284
136	0xbd641510	-0.05568415
137	0x39b1ab00	0.00033887476
138	0xbd244f21	-0.040114526
139	0x3d8263d3	0.06366696
140	0xbd8b0880	-0.067887306
141	0x3d57d3c9	0.05269221
142	0x3c4c0cc2	0.012454214
143	0xbbb0731b	-0.0053848154
144	0xbcabd850	-0.02097717
145	0x3d9f7fda	0.077880576
146	0xbc3a05a7	-0.011353887
147	0x3e08ccb4	0.13359338
148	0xbd4036fd	-0.04692744
149	0xbc554f91	-0.013019458
150	0x3dd96567	0.10615044
151	0x3da6f557	0.081522636
152	0x3d2f70e1	0.04283226
153	0xbca09cf5	-0.019606093
154	0xbcedd086	-0.029030096
155	0x3dd3010f	0.10302936
156	0x3c9f0f4c	0.019416474
157	0xbd2c38d7	-0.042046394
158	0x3c7fa3c8	0.015603013
159	0xbccb984a	-0.02485289
160	0x3d3b6e71	0.045759622
161	0x3dd07bee	0.10179888
162	0x3db4d0e3	0.088289045
163	0x3d89ff9d	0.067382075
164	0x3d4b82be	0.049685232
165	0xbe4ee424	-0.20204216
166	0x3db3f045	0.08786062
167	0xbd078843	-0.033088934
168	0xbd3f2ee2	-0.04667557
169	0x3d0bdb1d	0.03414451
170	0xbcbc9760	-0.0230214
171	0x3c7f48a0	0.01558128
172	0xbc4a373f	-0.012342273
173	0x3c28d21d	0.010304001
174	0xbd612401	-0.054965977
175	0x3db1f0fd	0.08688543
176	0x3da828e5	0.08210925
177	0x3d51e91a	0.051247694
178	0xbd23b394	-0.03996618
179	0xbe0006c4	-0.12502581
180	0x3d1e9665	0.038717646
181	0xbd9f0b37	-0.07765811
182	0xbd9bd1d0	-0.07608378
183	0x3d07a9d8	0.03312096
184	0xbda8f2fc	-0.082494706
185	0x3e1fd6e2	0.15609315
186	0xbd83d350	-0.06436789
187	0xbd35c1d6	-0.04437431
188	0xbc80e077	-0.015732033
189	0xbc80d1d8	-0.015725061
190	0x3c7a94f1	0.015294299
191	0x3d224cb2	0.039623924
192	0x3dd7e174	0.10541049
193	0x3d98ba45	0.07457403
194	0x3e069139	0.13141336
195	0xbd8eb4a8	-0.06968051
196	0xbd1c0021	-0.03808606
197	0x3ba3d998	0.0050003044
198	0x3d368526	0.044560574
199	0x3c99c2ce	0.018769648
200	0xbd721365	-0.059100527
201	0x3c08fe94	0.008361477
202	0xbdac8a22	-0.08424784
203	0xbd2d1118	-0.04225263
204	0xbdada702	-0.0847912
205	0xbc259dc1	-0.010108412
206	0xbd6d34f4	-0.05791183
207	0xbcf3ce77	-0.029761536
208	0x3d87813b	0.06616446
209	0x3dc76bac	0.09737334
210	0xbd828838	-0.06373638
211	0xba05e880	-0.00051081926
212	0x3a31ad37	0.0006777825
213	0xbde81f12	-0.11334051
214	0xbcac6000	-0.02104187
215	0x3d211b6e	0.0393328
216	0xbd02f137	-0.03196832
217	0xbd83938a	-0.06424625
218	0xbd53e0df	-0.051728126
219	0x3ca3188b	0.019909164
220	0xbd99f6fd	-0.075178124
221	0xbdb35f62	-0.08758427
222	0x3d2939a2	0.04131473
223	0xbc889b36	-0.016675573
224	0x3d9838db	0.07432719
225	0x3d51ac5a	0.051189758
226	0x3d4f86a5	0.050665516
227	0xbcb21192	-0.021736894
228	0xbe0b3a5f	-0.13596486
229	0x3d9aa0c3	0.07550194
230	0x3cf20c05	0.029546747
231	0x3cf4eccc	0.02989807
232	0x3d5b682a	0.053566135
233	0xbb941730	-0.0045193657
234	0x3d95047b	0.07276245
235	0x3ca100c4	0.019653685
236	0xbcd7b7f6	-0.026332837
237	0x3dd328c2	0.10310508
238	0x3c0dea7f	0.008661865
239	0x3d27765d	0.040884364
240	0xbcd6428e	-0.026154783
241	0xbc8f98a7	-0.017528845
242	0x3c8c7208	0.017144218
243	0xbc4a8bf8	-0.012362473
244	0xbd063389	-0.03276399
245	0x3d8e155c	0.06937668
246	0xbd9e16c4	-0.07719186
247	0xbd8ef7c8	-0.06980854
248	0xbd75adb0	-0.059980094
249	0xbd809896	-0.062791035
250	0x3d8bf85e	0.06834482
251	0xbb996404	-0.0046811122
252	0xbc17471c	-0.009233262
253	0xbc8c0954	-0.017094292
254	0x3d44ae62	0.048017867
255	0x3d91b790	0.0711509

fc2.bias f4 [128]
0	0x3e99923e	0.29994386
1	0x3e7849e7	0.24246942
2	0x3e4974d7	0.19673477
3	0x3e35f537	0.17769323
4	0x3e47acb4	0.19499475
5	0x3ebbccc9	0.36679676
6	0x3e9100ba	0.28320867
7	0x3e9356b5	0.2877709
8	0x3e0be646	0.13662061
9	0x3e8d65a7	0.27616617
10	0x3f4d6364	0.80229783
11	0x3e843faa	0.25829822
12	0x3e8b65e1	0.27226165
13	0x3eba6510	0.3640523
14	0x3e61af69	0.2203957
15	0x3e8f5755	0.27996317
16	0x3e4ea9a8	0.20181906
17	0x3dc1a6a3	0.094556116
18	0x3ea4e941	0.3220921
19	0x3e7925a3	0.24330764
20	0x3e53b6a8	0.20675147
21	0x3e2fad8a	0.17156044
22	0x3e5b4547	0.21413146
23	0x3e5add84	0.21373564
24	0x3e4ce2d6	0.20008406
25	0x3e976d5f	0.2957563
26	0x3e44de2c	0.19225377
27	0x3e28cd1b	0.16484492
28	0x3e5a08ef	0.2129247
29	0x3e9665f9	0.29374674
30	0x3e81276f	0.25225398
31	0x3e117522	0.14204839
32	0x3e646055	0.22302373
33	0x3e8a9ca6	0.27072638
34	0x3e5f5522	0.2180982
35	0x3e17bf0c	0.14818972
36	0x3dd3d36c	0.1034306
37	0x3e7208d3	0.23636179
38	0x3f46b0d5	0.77613574
39	0x3e96b39b	0.29433903
40	0x3e7127fc	0.23550409
41	0x3ea508d7	0.32233307
42	0x3e16b0a1	0.14715816
43	0x3de64cd9	0.11245126
44	0x3e711e63	0.23546748
45	0x3e33269e	0.174952
46	0x3e82cfd1	0.25549176
47	0x3e4056e3	0.18783145
48	0x3f23f189	0.6404043
49	0x3e54fc51	0.20799376
50	0x3e041245	0.12897594
51	0x3e9e6b14	0.3094107
52	0x3e3453da	0.17610112
53	0x3e8d12bd	0.2755336
54	0x3e840242	0.25782973
55	0x3e93759b	0.28800663
56	0x3e5a75b2	0.2133396
57	0x3e395e1e	0.18102309
58	0x3e8e29ee	0.27766365
59	0x3dad9fa6	0.08477716
60	0x3e62122d	0.22077246
61	0x3ebec5c7	0.37260267
62	0x3e372f37	0.17889105
63	0x3f3768ed	0.7164448
64	0x3e0b5bac	0.13609189
65	0x3eab8985	0.33503357
66	0x3eb22319	0.34792402
67	0x3e7aa3fb	0.24476616
68	0x3e3d38b8	0.18478668
69	0x3e8d5e86	0.27611178
70	0x3e96ecd6	0.29477566
71	0x3e597920	0.21237612
72	0x3ea15530	0.31510305
73	0x3ea621fc	0.32447803
74	0x3e00b8d4	0.12570506
75	0x3e34c809	0.17654432
76	0x3e3d6cd1	0.18498541
77	0x3e6bdfe1	0.23034622
78	0x3ea8b878	0.32953238
79	0x3e0e4dbf	0.13896845
80	0x3e905af2	0.28194386
81	0x3e6f0d6e	0.23344967
82	0x3e3c2453	0.18373232
83	0x3e9494e0	0.29019833
84	0x3eac7878	0.3368566
85	0x3e6769cf	0.22598957
86	0x3e1e8c85	0.15483291
87	0x3dacab66	0.08431129
88	0x3e8a8efb	0.2706221
89	0x3eaca1bb	0.3371714
90	0x3e7edb3a	0.24888316
91	0x3e92c1a9	0.28663376
92	0x3e292350	0.16517377
93	0x3e46def6	0.1942099
94	0x3e373877	0.17892633
95	0x3eaac68e	0.3335461
96	0x3e9e8860	0.3096342
97	0x3e4be457	0.19911323
98	0x3ea94fad	0.330686
99	0x3eafb74b	0.3431953
100	0x3e3d9568	0.18514025
101	0x3e8c79f9	0.27436808
102	0x3eb5fec1	0.35545924
103	0x3e4640c5	0.19360645
104	0x3e8d8c30	0.27646017
105	0x3e516ddd	0.20452066
106	0x3e9d33fc	0.30703723
107	0x3e35b3f1	0.17744423
108	0x3e7ee603	0.2489243
109	0x3e554ea3	0.20830779
110	0x3e67d058	0.2263807
111	0x3e4ac8ae	0.19803116
112	0x3ea1a6e7	0.3157265
113	0x3e52e7a4	0.20596176
114	0x3eb75c93	0.35812816
115	0x3e6a8292	0.22901371
116	0x3e5333ae	0.20625183
117	0x3ed16d18	0.40903544
118	0x3e4d5e5e	0.2005553
119	0x3e29dfe8	0.1658932
120	0x3ea314d8	0.3185184
121	0x3e7f5ffc	0.24938959
122	0x3ea794e2	0.32730776
123	0x3e9c7d87	0.3056452
124	0x3e3ff374	0.18745214
125	0x3e880567	0.26566622
126	0x3e716cdd	0.23576684
127	0x3e684c61	0.22685386

fc3.weight f4 [128, 128]
0	0x3d7f36f5	0.06230827
1	0x3e018e16	0.12651858
2	0x3d9ba35c	0.07599518
3	0x3d5748a2	0.052559502
4	0xbcbd035f	-0.023072897
5	0x3e069e7f	0.13146399
6	0x3d60bcf9	0.05486772
7	0x3dea0fe6	0.11428814
8	0x3da1a58f	0.07892906
9	0x3df17504	0.11789897
10	0xbdb27464	-0.08713606
11	0xbb8ea874	-0.0043535773
12	0x3e16498d	0.14676495
13	0xbd85d02d	-0.06533847
14	0x3dd1a6d1	0.10236896
15	0xbdddf488	-0.10837656
16	0x3e21fede	0.1581988
17	0x3e4f8f23	0.20269446
18	0x3dd09529	0.101847
19	0xbb18fabe	-0.0023342813
20	0x3d936660	0.07197261
21	0x3e03740e	0.1283724
22	0x3e463677	0.19356714
23	0x3e5cf163	0.21576457
24	0xbd65a52e	-0.05606573
25	0x3d2841a1	0.041078214
26	0x3e0c9f17	0.13732563
27	0xbc45827c	-0.012055036
28	0x3e1152e6	0.1419178
29	0x3dae9e96	0.085263416
30	0x3d389098	0.04505977
31	0x3d7a9001	0.06117249
32	0xbd11f795	-0.035636503
33	0x3c88d967	0.016705228
34	0x3e0cda20	0.13755083
35	0x3d7ff684	0.062490955
36	0x3d8c861d	0.068615176
37	0xbdbbc020	-0.09167504
38	0xbe037755	-0.1283849
39	0x3e479316	0.19489703
40	0x3e345bac	0.17613095
41	0x3d894a86	0.06703667
42	0x3d91e650	0.07124007
43	0x3e21a8f6	0.1578711
44	0x3d5b8efa	0.05360315
45	0xbd7c0b93	-0.061534476
46	0x3cf6c9c8	0.030125514
47	0x3da4f760	0.080549955
48	0xbda5fe7d	-0.081051804
49	0x3d7f874c	0.06238489
50	0x3e0ef166	0.13959274
51	0x3e23590b	0.15951936
52	0x3dc6419e	0.09680484
53	0x3dbee899	0.09321708
54	0xbd27d776	-0.040976964
55	0x3df4369b	0.11924478
56	0x3e307816	0.17233309
57	0x3e1e43ee	0.154556
58	0x3bc55c5a	0.006022972
59	0x3d801cf9	0.06255526
60	0xbd792e98	-0.06083545
61	0xbb397b54	-0.002830227
62	0x3bb2736a	0.0054458873
63	0xbe8c1348	-0.2735846
64	0xbd4e8543	-0.050420057
65	0x3ca9a554	0.020708717
66	0x3d388eb3	0.045057964
67	0xb9dd9025	-0.000422598
68	0xbd7c0a2c	-0.06153314
69	0xbd95dc72	-0.07317437
70	0xbd96ec19	-0.07369251
71	0x3e239e90	0.15978456
72	0x3e091e78	0.13390529
73	0x3da23e46	0.07922034
74	0x3dbaafc8	0.09115559
75	0x3d68c2d3	0.056826424
76	0x3e32a636	0.17446217
77	0xbdaaf6d5	-0.08347861
78	0x3dcae108	0.099062026
79	0x3e36eb62	0.17863229
80	0x3d564156	0.052308403
81	0xbbc43c14	-0.005988607
82	0x3dacc002	0.0843506
83	0x3d74dfca	0.059783734
84	0x3e364dd9	0.17803134
85	0xbdeffb0d	-0.11717806
86	0x3e102b65	0.14079054
87	0x3e13a76d	0.14419337
88	0xbd62b52f	-0.05534857
89	0xbd45be51	-0.048277203
90	0x3d0e46ac	0.034735367
91	0xbb2bed84	-0.00262341
92	0x3d86321d	0.06552527
93	0xbd85b695	-0.065289654
94	0xbd4b944a	-0.049701966
95	0xbcd84a60	-0.026402652
96	0x3e32d0e9	0.17462505
97	0x3e0896e8	0.13338816
98	0x3e29877b	0.16555588
99	0x3e057d7f	0.13036154
100	0x3dfbd37f	0.12296199
101	0x3cfdd9b3	0.030987596
102	0x3d8bc297	0.068242244
103	0x3d11d9c3	0.035608064
104	0x3bfa8f61	0.0076464866
105	0x3c873f0d	0.016509557
106	0x3d64716a	0.055772223
107	0xbc76fdb0	-0.015075132
108	0xbd245a72	-0.040125318
109	0x3bead264	0.007166194
110	0x3e1de1e7	0.15418206
111	0x3dd4bf36	0.10388033
112	0xbd28bbd9	-0.04119477
113	0x3d610830	0.05493945
114	0x3e684d56	0.22685751
115	0x3d6f47ee	0.058418207
116	0x3d174a0e	0.03693586
117	0x3d8cb514	0.068704754
118	0xbbea3d19	-0.0071483967
119	0x3ddae4b8	0.10688156
120	0x3d04f07e	0.032455914
121	0x3e028dca	0.127494
122	0x3d8833c9	0.06650502
123	0x3d4f7931	0.050652687
124	0x3d71fa3b	0.05907653
125	0xbbd86d5c	-0.0066048335
126	0xbd59417b	-0.053040963
127	0x3c761260	0.015019029
128	0x3d8ad459	0.06778783
129	0x3d9b033c	0.07568976
130	0x3d993fba	0.07482858
131	0x3d2713d2	0.040790386
132	0x3d0947f5	0.03351589
133	0x3e29a096	0.16565165
134	0x3df917f7	0.12162774
135	0x3ddc23a8	0.107489884
136	0xbce5b1e5	-0.028038928
137	0x3e1fdf12	0.15612438
138	0xbe45cc31	-0.19316174
139	0xbca99f07	-0.020705713
140	0x3db74434	0.089485556
141	0xbd035a9c	-0.032068834
142	0x3df95355	0.121740974
143	0x3dc55a00	0.09636307
144	0xbd2061e4	-0.039155856
145	0x3df84a24	0.12123516
146	0x3e070205	0.13184364
147	0x3c727935	0.014799406
148	0x3d6045f3	0.05475421
149	0x3c91ba94	0.017789163
150	0x3d8d6f2c	0.0690597
151	0x3d54cf72	0.051955648
152	0xbd89def5	-0.06731979
153	0x3de1e635	0.11030237
154	0x3ddd75bd	0.108134724
155	0xbc0356c1	-0.008016289
156	0xbdb1fe4c	-0.086910814
157	0x3dc2ffd1	0.09521449
158	0x3deff9d3	0.11717572
159	0x3d99fac9	0.075185366
160	0x3d5724d0	0.05252534
161	0x3d90e02b	0.07074007
162	0x3ddd9243	0.10818913
163	0x3ddfd5cb	0.1092945
164	0x3dcf249b	0.10114404
165	0x3da11e8c	0.078671545
166	0xbe843931	-0.25824884
167	0xbd273c31	-0.040828887
168	0xbc6c5705	-0.014425044
169	0x3d93c46f	0.07215201
170	0x3b7d1211	0.0038615505
171	0x3dc5e032	0.096619025
172	0x3cb46681	0.022021534
173	0x3da21dbb	0.07915827
174	0x3e1c1bfb	0.15245049
175	0x3d0df489	0.034657035
176	0xbdcb60bd	-0.09930561
177	0x3ddd5002	0.10806276
178	0xbcf258fd	-0.029583449
179	0x3d9593a8	0.07303554
180	0x3d9f7a52	0.077870026
181	0x3dd40746	0.1035295
182	0x3dffa3bf	0.12482404
183	0x3d0499b4	0.032373145
184	0x3dbb4529	0.09144051
185	0x3b3b1644	0.0028547207
186	0x3dc087f9	0.09400935
187	0x3d2f9126	0.042863034
188	0x3dda0495	0.10645405
189	0x3d822244	0.06354192
190	0x3d29f575	0.04149385
191	0xbeb0f64d	-0.34562913
192	0x3cabad6f	0.020956723
193	0x3e0187fe	0.12649533
194	0x3e0f6434	0.14003068
195	0x3e015514	0.12630111
196	0xba723f3f	-0.0009240992
197	0x3de697d4	0.11259428
198	0x3dda1822	0.10649134
199	0x3d91286a	0.070877865
200	0x3b31ff4a	0.002716022
201	0x3bdd2984	0.006749334
202	0x3db27f6b	0.08715709
203	0x3c9acb61	0.018895807
204	0xbc957f63	-0.01824922
205	0xbbac8bce	-0.0052656895
206	0x3de81771	0.11332596
207	0x3cbb6547	0.022875441
208	0x3cca6b06	0.024709236
209	0x3cd6031c	0.02612453
210	0x3e0942c6	0.13404378
211	0xbbcaede1	-0.006192908
212	0xbd088eab	-0.033339184
213	0xbaf22ad6	-0.0018475901
214	0x3de08219	0.10962314
215	0x3cbd9e16	0.02314667
216	0xbbadf3a4	-0.0053085852
217	0x3d7c5f6d	0.061614443
218	0xbbd7e515	-0.006588588
219	0x3cb22b38	0.021749124
220	0x3d8102d3	0.06299367
221	0x3cccd54e	0.025004055
222	0xbc75f969	-0.015013077
223	0x3d0565e2	0.032567866
224	0xbd26ad29	-0.040692482
225	0x3d3b9af8	0.045802087
226	0x3d63cc68	0.05561486
227	0x3cb5af3c	0.022178285
228	0xbcb422e9	-0.021989303
229	0xbc807055	-0.015678564
230	0x3df74d2d	0.12075267
231	0x3b9a7d84	0.0047146697
232	0xbd42be14	-0.047544554
233	0xbbe766d5	-0.007061819
234	0x3de0b989	0.10972888
235	0x3db31f9a	0.08746262
236	0x3d61889f	0.055061933
237	0xbc8e4358	-0.017366096
238	0x3b9032c1	0.0044005816
239	0x3e01170f	0.12606452
240	0x3d1c190a	0.038109817
241	0xbd73a16d	-0.05948012
242	0x3d9b5725	0.07584981
243	0xbd339f96	-0.043853365
244	0xbd3397c7	-0.043845918
245	0x3c1ab02b	0.009441416
246	0x3d4b4297	0.049624052
247	0xbcaea6a1	-0.02131969
248	0x3d2b42ce	0.041811757
249	0x3c345aab	0.011007945
250	0xbc6c8907	-0.014436967
251	0x3def89b6	0.11696188
252	0xbc412ad3	-0.011789995
253	0x3c98dd09	0.018660085
254	0x3d8d6589	0.06904132
255	0xbd6cbf33	-0.05779953
