models/dqn_model_epoch_98000.pth (torch, 595624 bytes, 14 tensors)

cnn1.weight f4 [16, 4, 5, 5]
000000 16 63 47 be e7 6f 33 3d bc 08 c9 bc c2 9b 49 be
       -0.19471392 0.04380789 -0.024540298 -0.19688323
000010 76 5c 12 be 42 7e 4b be a2 91 46 be fe 62 94 be
       -0.14293084 -0.19872382 -0.19391492 -0.28981775
000020 74 9a 0e bd 09 54 69 bd 8d b7 8b be 2c 40 24 be
       -0.034815267 -0.056964908 -0.27288476 -0.16040105
000030 d9 89 c2 be cd e0 15 be 3b 7b 14 3d b6 21 2a be
       -0.37995794 -0.14636536 0.036250334 -0.16614422
000040 af ac 5a be 8b d3 23 bd b4 30 83 be 35 44 45 3c
       -0.21354936 -0.039996665 -0.25623095 0.012040188
000050 39 f9 56 be 9f a0 81 be d9 23 41 be d6 b2 88 3d
       -0.20993508 -0.25317857 -0.18861331 0.06674735
000060 0c 0a d3 3c 5c b3 6e bc ed e9 0a bd af bf c1 bd
       0.025761627 -0.01456913 -0.033914495 -0.09460389
000070 f1 f5 0f be 54 55 e3 3c 2f de 83 3d 95 ae dd bc
       -0.14058663 0.027750649 0.064388625 -0.027060786
000080 fa 96 d0 3c 0d b0 88 bd 87 56 93 bd 01 04 41 bd
       0.025462616 -0.06674204 -0.07194238 -0.04712296
000090 07 4e 0d be b0 fb 85 3c 50 3d 09 3e 5f 5d e8 bc
       -0.13799296 0.016355366 0.13402295 -0.028364835
0000a0 49 fd d3 bd 47 d1 a7 3c 68 a1 ad bd d8 bd a2 3c
       -0.10351045 0.020485533 -0.084780514 0.019865915
0000b0 17 00 04 be 20 15 02 bd 1f cc 99 3d 3a 40 2a bd
       -0.1289066 -0.031758428 0.07509636 -0.041565157
0000c0 26 ee 88 bd f1 6e b2 bd b7 f3 a9 3d c8 a7 27 bc
       -0.06686048 -0.08712567 0.08298438 -0.010232873
0000d0 45 12 07 be 6b af 52 be 2c 5a d4 bc 32 92 c7 bc
       -0.13190563 -0.20574729 -0.025921904 -0.024361704
0000e0 27 1f b3 bd 4b 78 38 3e ae 02 4b 3d c5 f4 1d be
       -0.08746176 0.18014638 0.049563102 -0.15425403
0000f0 a9 43 6a 3e c6 ec 6b 3e 07 7f 04 3e e0 b4 f1 3c
       0.22877373 0.2303954 0.12939082 0.029505193
000100 99 6c 57 be 1c c8 90 be 58 cc 23 3e ca a5 91 3e
       -0.2103752 -0.2827767 0.1599592 0.284468
000110 42 f3 05 be 7f a0 2a be 6e 03 24 be bf c6 83 bc
       -0.13081077 -0.16662787 -0.16016933 -0.01608598
000120 bd 79 a3 3e 8d dc 06 be d0 34 1c be 08 92 bf bd
       0.31928816 -0.13170071 -0.15254521 -0.09354025
000130 a8 56 7a be 2c 86 b8 bd a3 c5 a7 bb e6 cc 87 bd
       -0.24447119 -0.09009966 -0.0051199957 -0.06630878
000140 89 64 2b bd d9 a9 e1 3d a4 49 18 3e 93 f0 c0 bd
       -0.041843925 0.11018724 0.14871842 -0.09420886
000150 4c e3 09 3d 5b f0 26 be e9 24 96 3d b8 2a a5 3d
       0.033664033 -0.16302626 0.07331259 0.080647886
000160 6a 97 bf bd 09 e2 a8 bd d0 8c 03 be 41 5b ac bb
       -0.09355052 -0.08246238 -0.12846684 -0.0052599018
000170 57 a3 98 3d 20 d5 c8 bc f8 bd f2 bd d0 01 b9 3d
       0.074530296 -0.024515688 -0.1185264 0.09033549
000180 0c 7f ef 3d 2d 76 3a be 29 8e 8f bd 74 15 75 bd
       0.11694154 -0.18209143 -0.07009537 -0.059834912
000190 0f f1 f2 bd 16 95 85 be 7f 2a 35 be 0e 60 0b 3d
       -0.118623845 -0.26090306 -0.17691992 0.03402715
0001a0 01 8e 67 be 71 42 01 be 44 cc a7 bd 97 1b e2 bb
       -0.22612764 -0.12623002 -0.081932575 -0.0069002616
0001b0 a6 4f bf 39 46 09 ae 3b 2b 10 0c be fd 15 4c bd
       0.00036489702 0.005311164 -0.13678043 -0.049825657
0001c0 f9 01 94 3c 2e f2 81 bd 0f a7 78 bd de 71 1f be
       0.018067347 -0.0634502 -0.060706194 -0.1557078
0001d0 36 ea 67 be 02 e8 33 be ad 8a bd be ee 1a 6e bd
       -0.22647938 -0.17568973 -0.37019864 -0.05813115
0001e0 39 07 84 be 4a ae 62 be 42 6b c5 bd 6e 9e 8b bd
       -0.2578676 -0.22136799 -0.096395984 -0.068173274
0001f0 eb d3 ff bd 20 bc 43 bd f8 af aa 3d 44 5a 74 bd
       -0.12491592 -0.04778683 0.083343446 -0.059656397
000200 a6 be 0f 3d d5 aa 06 be 79 70 88 bc 6f 55 1e bd
       0.035093926 -0.13151105 -0.016655194 -0.038655695
000210 a0 88 e1 bd 0e 37 bb 3c 8d b5 42 bb 74 25 a6 bc
       -0.11012387 0.0228534 -0.0029710263 -0.02028153
000220 3b 19 4e bd a6 20 12 be e1 61 47 bd 6d c4 d2 bc
       -0.05031703 -0.14270267 -0.04867733 -0.025728429
000230 2b 91 0b be c5 e6 cc bc 12 47 51 3d 0c da 48 bd
       -0.13629596 -0.025012383 0.05109317 -0.04903607
000240 fc 7c da bd 14 aa 1f bb 1f 63 05 3d d5 8f 8c bd
       -0.1066837 -0.002436285 0.032565232 -0.06863371
000250 e6 ff d3 3d f2 a1 e8 bd e5 da 42 be 57 89 2d 3e
       0.10351543 -0.113590136 -0.19028814 0.16946922
000260 b6 45 5f bd fc 8c 1a 3e 4c 57 17 be c6 ee 3e be
       -0.05450984 0.15092844 -0.14779395 -0.18645772
000270 5b e3 35 3e fe 16 51 be 4c b5 a7 3d e4 ca 20 be
       0.1776251 -0.20418927 0.081888765 -0.15702397
000280 7b de 8b be c9 2f 80 be 3c 9a b2 3d 13 20 c6 3d
       -0.27318177 -0.25036457 0.08720824 0.096740864
000290 13 65 57 be 3b 49 7c be 7c c5 0c be d7 b9 83 3e
       -0.2103465 -0.2463731 -0.1374721 0.25727722
0002a0 a7 99 41 be 70 da 6e be c5 63 c7 3e e3 fd 97 3e
       -0.1890627 -0.23325515 0.38943306 0.29685888
0002b0 9a 17 d4 3e 89 e4 66 bd 70 7b 29 be 89 12 54 3e
       0.41424257 -0.05637029 -0.16550994 0.20710196
0002c0 c9 9f 08 3e 1d f3 72 3e 90 9f 8d bc f8 7b a8 bd
       0.13342203 0.23725553 -0.017288 -0.0822677
0002d0 47 a0 ef 3d 09 ee f4 bd 05 bf 1b 3e f7 43 04 be
       0.11700492 -0.11959464 0.15209587 -0.12916552
0002e0 40 c8 e0 bd 12 81 28 be ca b9 bd 3d 38 52 81 3d
       -0.10975695 -0.16455486 0.09263952 0.0631451
0002f0 69 48 a6 bd a3 cb 1c be fe 26 2b be 19 8e eb bc
       -0.0811928 -0.15312056 -0.16714093 -0.02875428
000300 44 c6 ab bd 0e 2a 00 be 42 45 25 bd 43 04 0a be
       -0.083874255 -0.12516043 -0.040349253 -0.13478188
000310 9c b4 f1 bd fa 5d 3d 3e 7d 25 03 be af 90 0e be
       -0.11802027 0.1849288 -0.1280727 -0.1392238
000320 70 06 99 be ba 42 99 bd 2d 94 b0 be d0 b4 46 3d
       -0.29887724 -0.0748343 -0.3448805 0.04851228
000330 69 0d 3a be ea 39 64 be 0f b3 1e be 3f f8 42 be
       -0.18169178 -0.22287717 -0.15497993 -0.19040011
000340 30 bf 1e 3d 0f fc 9b 3b ec 3b 78 be 53 c0 5f be
       0.03875655 0.0047602723 -0.24241608 -0.2185071
000350 1a df fa bd 44 4c ed 3c 1a 74 35 3e e2 80 7e be
       -0.122495845 0.02896703 0.1772007 -0.24853852
000360 9a 66 6a be d0 6a 94 be 76 aa 21 be 10 7e 09 3e
       -0.22890702 -0.2898774 -0.15787682 0.13426995
000370 ab 84 79 be 76 20 05 be c2 cf 74 be f3 10 56 3d
       -0.24367015 -0.13000664 -0.23907378 0.052262258
000380 af 56 85 bd 52 22 05 be 84 c9 3e bc e7 d4 0e be
       -0.06510674 -0.13001373 -0.011644725 -0.13948403
000390 30 22 ab bd 66 b8 16 bd f6 aa 81 bb 2d f2 b2 bc
       -0.0835613 -0.03679695 -0.0039571477 -0.021843994
0003a0 d0 e1 80 3d ba 2e ba bd 95 d1 e9 3c ec 21 95 bc
       0.0629307 -0.09090944 0.02854232 -0.018204652
0003b0 cd 4e cc 3c 3b bb 4c bc 1a f7 cf bd 02 84 79 bb
       0.024939919 -0.012495811 -0.10154553 -0.0038073068
0003c0 08 a5 67 bb 63 68 b0 bd 48 ff 28 3c b9 28 3c 3e
       -0.003534617 -0.0861366 0.01031477 0.1837491
0003d0 29 fe fa bb a4 f7 b0 bd 7f 93 1b be 3f 41 65 bd
       -0.007659693 -0.08640984 -0.15192984 -0.055970427
0003e0 11 7d bb 3d 4a 16 3f bc 44 94 99 3d 63 64 fc 3c
       0.09154714 -0.011663029 0.074989825 0.030809587
0003f0 a6 2b 50 3d 01 30 cb be 74 a5 79 bd a1 52 c7 3c
       0.050822876 -0.39685062 -0.060948804 0.024331393

cnn1.bias f4 [16]
000000 50 10 62 3d 5c 1b 4e bd 70 24 8e bd 64 04 98 bd
       0.055191338 -0.05031906 -0.06940544 -0.074227124
000010 5c cc 11 3d 5b 56 94 bd 01 04 94 bd 2d 12 04 bb
       0.035595283 -0.072430335 -0.07227326 -0.0020152435
000020 24 bb 86 3c 00 b6 f9 bd df 14 f0 bc 39 75 97 bd
       0.016446657 -0.12192917 -0.029306827 -0.07395405
000030 7e 6c 71 bc b7 23 b5 bd 9c 54 ca 3c c3 16 9f bd
       -0.014735339 -0.08844703 0.024698548 -0.07768013

cnn2.weight f4 [32, 16, 3, 3]
000000 cc c4 dd 3c 71 5f 6c 3d 25 08 d5 3d ef c1 24 3e
       0.02707138 0.057708208 0.10401944 0.16089605
000010 ca 5e 9c bc 1b b7 2a bd fe 31 9a 3d 6a 72 8c 3c
       -0.019088168 -0.04167853 0.075290665 0.0171444
000020 d7 2e 50 bd 0c 08 2f 3e c3 59 c9 bd 00 7c 2a 3d
       -0.05082592 0.17092913 -0.09831574 0.041622162
000030 76 c8 0a 3e 92 00 94 bd 76 0e f8 3d 5d 75 1c 3e
       0.13553032 -0.07226671 0.12112133 0.15279146
000040 0c e3 6a bd 80 b0 8e bd 5b bd 38 bc d7 45 df bc
       -0.057345435 -0.069672585 -0.011275615 -0.027254982
000050 da 6b a9 ba 0c be 6b bc 9e 04 d0 3b 41 e6 52 bd
       -0.0012925819 -0.014388572 0.0063482067 -0.05148912
000060 b6 43 70 bd a6 48 80 3c 5d 22 66 bd 8c a6 d5 3d
       -0.058658324 0.015659641 -0.056185115 0.10432157
000070 5a 96 a3 bd 6b a8 92 3c e1 29 2d 3e 25 51 19 3d
       -0.07987662 0.017902574 0.16910507 0.0374309
000080 cf 3d fe bc 0a 92 e5 3d b4 3f 7a 3d 30 f5 b3 bd
       -0.031035332 0.11209495 0.06109591 -0.08787
000090 38 b7 84 3d 80 62 9c bc 16 30 9e bc f9 18 e2 3d
       0.06480259 -0.019089937 -0.019310039 0.110399194
0000a0 d2 92 8b 3c a4 d9 8d 3d df 85 ba 3d 50 86 f0 3c
       0.017037783 0.06926277 0.09107565 0.02936092
0000b0 bf cf b8 3d 74 9b c2 3d 76 4c 83 3d db 98 8a 3d
       0.090239994 0.095023066 0.06411068 0.06767436
0000c0 e6 90 00 3e 81 2d 82 3d 14 cb db 3c 00 bd 5b bc
       0.12555274 0.063563354 0.026830234 -0.01341176
0000d0 ba 80 8c 3c 6a 59 13 3d be 11 5f bd 2a de 0d 3d
       0.017151225 0.035973944 -0.05446028 0.0346357
0000e0 e9 d4 9b 3d ab e5 3c 3c 9b 53 09 3d 00 1d 8d 3d
       0.07608969 0.0115293665 0.033526998 0.06890297
0000f0 67 1f 37 3d eb 60 11 3d da b8 d3 3d d8 bc 68 3d
       0.044707682 0.03549282 0.10337992 0.05682072
000100 99 00 aa bd cd f8 46 3d 8d bb 4e 3d be 72 34 bd
       -0.08300895 0.04857712 0.05047183 -0.04405474
000110 34 de cd 3d 9b 15 ca bc 1d 4a 15 bd 87 65 10 3c
       0.100521475 -0.024668505 -0.036447633 0.0088132685
000120 3f be 6c 3d 09 78 75 bc 56 2e 62 bd 35 26 e7 3d
       0.05779862 -0.014982232 -0.05521997 0.11286584
000130 32 4e bf 3d 3d 1b ae 3d 42 12 50 3d 40 87 3e 3d
       0.093410864 0.08501289 0.050798662 0.046515703
000140 88 b2 5a 3d f5 5e 8d 3d 14 e6 a0 3d 4c ad f0 3d
       0.053392917 0.06902877 0.07856384 0.11751804
000150 91 55 57 3d 99 e4 4c 3d d6 d5 e3 3c d6 5e 8c 3d
       0.052571837 0.050022695 0.027811926 0.06854026
000160 3c fa 15 bd b2 9d 3c 3d bd 1a 3c 3d 27 c4 87 bc
       -0.036615595 0.046048827 0.045923937 -0.016573025
000170 bd 97 43 bc 4f b9 89 3c 2f 3f 5e 3a 5a 41 a6 bd
       -0.011938033 0.016811995 0.0008478043 -0.081179336
000180 72 77 2d 3b dd 37 da ba a2 14 26 bb 6d 4e a4 3c
       0.00264689 -0.0016648729 -0.0025341888 0.020056928
000190 8a 42 22 bd ef a0 17 3d dc 1f b1 3d 0f 2a b8 3d
       -0.039614238 0.037018713 0.08648655 0.08992397
0001a0 06 35 53 bd 46 e1 ce 3d 7f e0 4e 3d e1 69 b8 3d
       -0.05156424 0.10101561 0.050507065 0.0900457
0001b0 26 3e a7 bd 38 f4 f1 bd da 0a 9b bc c5 cd 0f bb
       -0.08166151 -0.11814159 -0.018926073 -0.0021942717
0001c0 58 7d 3f 3d de c4 4e bc 22 ea 4f 3d ba c8 5d bd
       0.046750396 -0.012620179 0.050760396 -0.054146506
0001d0 d9 6d 2e bb 5e b0 16 bd 87 47 6d bd 58 4f bd 3c
       -0.0026615767 -0.03678929 -0.057929542 0.023109123
0001e0 8b 8a 3b 3d c4 1c 84 bd af cd 86 bd f3 e6 18 bd
       0.04578642 -0.06450799 -0.065822 -0.037329625
0001f0 8d f7 a0 bd 4d 4d 03 bd c9 fe db 3d 80 32 cd bc
       -0.078597166 -0.03205614 0.10741956 -0.025048494
000200 a4 30 af 3d e5 fd 3b 3e 57 b8 83 3d 10 19 95 3d
       0.08554199 0.18358572 0.064316444 0.07280171
000210 66 08 1e 3e 1a 8f 2a ba d2 2e c4 3d bf 6c b8 3c
       0.15432891 -0.0006506309 0.09579243 0.022512792
000220 fe 81 71 bd 28 ab 8b ba 41 16 81 3d 4d 4d 1c bd
       -0.05896186 -0.0010655867 0.06303073 -0.038159657
000230 e2 08 3b 3c 17 87 1f 3d c8 ce 4f bd 9d 62 c7 bd
       0.011415692 0.03894719 -0.05073431 -0.09735606
000240 5c 40 5a bd b8 7d 0b 3d 0a 60 e8 3c 73 35 22 3e
       -0.053284034 0.03405544 0.028366107 0.15840702
000250 3e 65 9f 3b 6c 22 ee bc cf 17 6d 3c 13 6e 07 3d
       0.004864364 -0.029069148 0.014471008 0.03306396
000260 a2 b8 3c bc 29 ed a9 3b b2 57 ec 3d ec 29 16 bd
       -0.011518629 0.0051857424 0.11540164 -0.036661074
000270 8a c9 05 3e 60 4e 23 3c 84 e8 8c bb 56 fe 96 3d
       0.13065162 0.0099674165 -0.004300179 0.073727295
000280 fd fa fa 3d 77 61 c0 bd 9f 07 1c 3c 2f f8 90 bd
       0.122549035 -0.0939359 0.009523301 -0.07078587
000290 d5 26 38 bd 2d 00 b3 bd 47 1f f4 bd df ae ba bd
       -0.044958908 -0.08740268 -0.11920028 -0.09115385
0002a0 69 25 52 bd 6c c2 07 be 65 49 e5 bd 8e ad f7 3d
       -0.05130521 -0.1325776 -0.111956395 0.1209365
0002b0 2d 12 ef 3d 03 d9 d6 bc 93 a4 22 3e 00 f3 2d ba
       0.11673389 -0.026226526 0.15883093 -0.0006635636
0002c0 37 28 bc 3c f9 dc f1 3d 35 a4 90 3d a7 b2 92 bd
       0.022968395 0.11809725 0.0706257 -0.071629815
0002d0 ec 1c d3 3c 36 37 63 3d 89 c7 09 3d c7 dd 87 3d
       0.025770627 0.055472575 0.033637557 0.066340975
0002e0 51 46 34 3e 70 f8 ce 3b 79 7d c0 3d 20 e6 6f 3d
       0.17604949 0.006316237 0.09398932 0.058569074
0002f0 1a f1 09 3d 7f f7 47 3e ac 08 99 3a 01 0a ff 3c
       0.033677198 0.19528006 0.0011675558 0.0311327
000300 fb f7 12 3e 73 eb 1f 3c a3 6b d7 3b 36 cf 6c bd
       0.1435241 0.009760725 0.0065741106 -0.0578148
000310 7b b6 35 3d e2 ba 0d be eb 4f f0 ba e8 f8 97 bc
       0.04436348 -0.13840821 -0.0018334364 -0.018551305
000320 9a d6 1b bc 1f 75 fa 3d 72 cc cf 3d ce 20 f6 3c
       -0.009511614 0.1222937 0.10146417 0.03004494
000330 ea f8 31 3e 55 13 5d bd 44 05 dc 3d da c0 36 3c
       0.1738011 -0.053973515 0.10743192 0.011154378
000340 69 5c 37 3d d3 89 0d bd 61 03 31 bd ce d5 6f bd
       0.044765864 -0.034555268 -0.043216113 -0.05855351
000350 7f d1 8d bc 86 b5 38 bd be 8b b9 bd 75 fc b0 bc
       -0.01731181 -0.04509499 -0.09059857 -0.021604756
000360 b0 b4 1d 3e f2 61 cf 3c 56 1d 72 ba 34 b5 29 3e
       0.15400958 0.025315259 -0.0009235939 0.1657303
000370 cc cc 8a bc 0a 7c 5c bc 85 a7 3c 3e 44 44 42 3d
       -0.016943358 -0.013457308 0.18423279 0.047428384
000380 a2 13 0c 3d 38 17 1a 3e cb cd b3 3d 28 04 ac 3c
       0.03419841 0.1504792 0.08779486 0.020998076
000390 da 46 48 3b 80 9b b5 3d cc 2a 21 3e 4e 6e b0 3d
       0.003055981 0.0886755 0.15738982 0.08614789
0003a0 79 c6 0f bd fe 23 12 3d c2 0e d8 3c 1f 42 b4 3d
       -0.035101388 0.035678856 0.026374225 0.08801674
0003b0 fd 1f 13 3a e5 1f 3c 3d b6 27 05 bc a8 54 90 bd
       0.00056123716 0.045928854 -0.008127144 -0.07047397
0003c0 14 8f 58 bd 02 ef 51 bd 71 0e fb bd 0c ed f2 3d
       -0.052870825 -0.051253326 -0.12258614 0.11861619
0003d0 42 4d 4a 3d 48 31 ce bd 08 ee 89 3d 66 b5 5c 3d
       0.049390085 -0.100679934 0.06734854 0.053883933
0003e0 3d e0 f1 bb 0a 4f e0 3d 97 53 99 3d 50 a6 cd 3c
       -0.0073814676 0.109525755 0.074866466 0.025103718
0003f0 b2 51 9d 3c f7 99 c5 bc 52 72 9b bd 17 5d ed 3d
       0.019203994 -0.024121268 -0.07590164 0.11590021

cnn2.bias f4 [32]
000000 89 3e cf bd a2 b0 ee bc 97 13 0c bd 83 3e 69 3b
       -0.101193495 -0.02913696 -0.03419837 0.0035590238
000010 bd 76 c0 b9 63 66 96 ba 18 e6 9b bd bb 27 92 3d
       -0.0003670956 -0.0011474605 -0.07612246 0.07136484
000020 81 e7 94 bd 55 db 2d bd ea 49 ff 3c 80 ad 92 3a
       -0.07270718 -0.0424455 0.031163175 0.0011190623
000030 dc 47 bb bb 53 2f e8 3b 53 65 c8 b9 ea a5 de bd
       -0.0057153534 0.0070857196 -0.00038222465 -0.10871489
000040 18 b3 e6 3d 1a e5 d4 3b 53 f1 18 bd 87 d5 cb bd
       0.11264628 0.0064970376 -0.03733952 -0.099528365
000050 01 29 e1 bd e9 eb 9d 3c 1d 0e 58 bd 06 f4 24 bd
       -0.10994149 0.01927753 -0.052747834 -0.04027178
000060 ed ae 8a bb 63 3f af bd fd 41 60 bd ff cd 06 be
       -0.0042322786 -0.08557012 -0.05475043 -0.13164519
000070 bb 80 c6 3d 33 1c 74 bd 55 3b bf 3d 11 07 05 bc
       0.09692522 -0.059597205 0.093374886 -0.008119361

cnn3.weight f4 [32, 32, 3, 3]
000000 8d 13 d7 3c 2a d3 ed 3a 03 e7 b1 3c c9 a4 44 3c
       0.02625444 0.0018144597 0.0217166 0.0120021785
000010 86 11 97 bd b9 d7 41 bd c7 4c 46 bc 94 15 c2 bc
       -0.07376389 -0.04732487 -0.012103266 -0.02369193
000020 97 e4 b5 39 85 91 2c 3e bc d8 30 3d 94 08 97 bd
       0.00034693323 0.16852386 0.043175444 -0.07374683
000030 21 54 c6 3d 6b a3 33 bd ac ec 19 be 0a e1 90 bd
       0.09684015 -0.04385702 -0.1503169 -0.07074173
000040 8a 7b 48 bd 01 61 bc bd 10 7a d2 3a 85 e4 24 bd
       -0.04894594 -0.091981895 0.0016058106 -0.040256996
000050 58 1f 87 bd 35 d4 a6 3d e0 92 57 bd 31 4d 9f bd
       -0.06597775 0.08145944 -0.052630305 -0.07778395
000060 aa 10 3e 3d 62 37 65 3d 5d 58 87 bc 9e 31 18 3d
       0.04640261 0.05596102 -0.016521627 0.037156694
000070 e9 bf b2 bb 69 1a 09 3c 61 d5 50 3d e4 cc 58 bd
       -0.0054550064 0.008368113 0.050984744 -0.052929774
000080 1c 4b 5a bd dc a9 60 3c c8 f4 d0 bc d3 f1 d4 3c
       -0.053294286 0.013712373 -0.025507346 0.025994217
000090 b4 67 d5 3d 44 55 d2 3c d1 38 33 bc 0b c7 cb bc
       0.104201704 0.025675423 -0.010938839 -0.024875185
0000a0 78 91 cd bd 6f 41 4f 3b 6f 16 91 3a 47 33 7f 3d
       -0.100375116 0.0031624695 0.0011069308 0.06230476
0000b0 ee fa 1b bc 2c 0c f5 3d ef 36 a0 bd 78 b0 8a bc
       -0.0095202755 0.11965212 -0.07822978 -0.01692985
0000c0 66 27 17 3d 38 0d c6 bd 68 fc c5 bd 96 e0 72 bc
       0.036902808 -0.0967049 -0.09667283 -0.014824053
0000d0 2e 75 b7 3b 2a 94 82 bb 2c 37 03 bc 36 4e dd 3c
       0.0055986857 -0.0039849477 -0.0080087595 0.027014833
0000e0 f9 b0 80 bd 12 65 20 bd ca 2b 30 bb db 21 ef bc
       -0.06283755 -0.03915889 -0.002688157 -0.029190948
0000f0 4c 5a 46 3d 39 03 61 bd 71 3c 23 bd cc b3 40 bd
       0.048425958 -0.054934714 -0.039852563 -0.047046468
000100 a1 13 eb 3d 8a 7e 91 3d 9b 2a 22 3d eb 0a b9 bb
       0.11478353 0.071042135 0.039591413 -0.0056470535
000110 79 01 dd 3d 5e 0b 3b 3d 52 b3 83 3d 93 27 b8 3d
       0.107912965 0.045665137 0.06430687 0.08991923
000120 67 e1 28 bc 13 d9 b9 3c 2c 7a 60 bd 5f 49 89 bd
       -0.010307646 0.022686517 -0.054804012 -0.067034476
000130 bd fa f6 bc 45 8d 62 bd 57 cd 1c 3c bb b5 ae bc
       -0.030148858 -0.055310506 0.009570441 -0.02132689
000140 e0 52 70 bd cb 4b b9 3d 32 d2 ad bd ff db 47 3c
       -0.058672786 0.090476595 -0.08487357 0.012198447
000150 30 09 b1 3c a6 ad f8 bd c8 27 44 3c d3 d0 f6 bc
       0.021610826 -0.12142496 0.011972375 -0.030128872
000160 e8 4f fd bc 2e f4 5f bd 26 a3 af 3d 9f 75 c1 3d
       -0.030921891 -0.054676227 0.0857604 0.094462626
000170 cc 15 c3 bd 63 1c b9 3c 85 1b 9f 3c ff 54 b5 bd
       -0.09525642 0.022596544 0.019422302 -0.08854102
000180 76 ae 01 bd 8e e4 11 3d 2d 7d d5 bc 7c f9 6b 3d
       -0.03166052 0.035618357 -0.026060665 0.057610974
000190 66 fc 9b bd 40 fa 93 bd a1 17 2e bd 54 08 f4 bd
       -0.076165006 -0.07225466 -0.042503003 -0.11915651
0001a0 19 0b 0c be c1 a3 58 3d 6f cd 16 3d 84 4f cd bc
       -0.13676108 0.052890543 0.03681701 -0.02506233
0001b0 89 73 d5 3d 7f a7 16 3e 4d d7 1f 3e 0c 91 f0 bc
       0.10422427 0.14712332 0.15609474 -0.029366039
0001c0 4b 5c 1e 3e b3 14 e0 3c 87 e3 38 3c 8a 9f bf 3c
       0.15464894 0.02735362 0.0112847155 0.023391504
0001d0 a3 ff ae bc 4d 84 89 3c 6c 61 6f 3c f5 d6 b5 bc
       -0.021362131 0.016786719 0.0146106295 -0.022197226
0001e0 ae 28 c5 bb a6 45 1e 3d 34 2f 3e bd 9c 41 f8 3c
       -0.0060168123 0.03864064 -0.046431735 0.030304722
0001f0 fc ef 00 3d 9d 28 4c 3d ad 84 d8 3d a3 1f 18 bc
       0.031478867 0.04984342 0.10572181 -0.0092848865
000200 58 5d 55 bd ec ca 60 3d 76 02 64 bd 67 cd 68 bd
       -0.052090973 0.05488102 -0.05566641 -0.056836512
000210 07 7c 99 bc 57 2a 9c 3c ca b5 ce bd a0 3c 5a 3b
       -0.018735899 0.019063158 -0.10093267 0.0033300295
000220 80 4c 20 bd fd 24 4f 3d 88 ac ba bc 98 e5 d4 bc
       -0.039135456 0.050572384 -0.022787347 -0.025988385
000230 61 60 50 bd 2a 4a c8 3c 38 17 81 3b 18 1c 3e bc
       -0.050873164 0.024449427 0.0039395355 -0.011603378
000240 ea 27 89 3d 42 ce 68 3e 5f 83 4f 3e 01 7f d0 3c
       0.06697066 0.22734931 0.20264958 0.025451185
000250 34 b7 b2 3d ba 90 fa 3d 28 be c9 3c 83 bf b3 3d
       0.087263495 0.12234636 0.024626806 0.08776762
000260 37 be ec 3d c3 f6 9c 3d 63 f6 b8 3d 00 ae 93 bd
       0.11559718 0.076642536 0.090313695 -0.07210922
000270 5b 52 ed 3c d5 b8 3d 3d 1a b5 95 bd 7c cf ea 3b
       0.028969934 0.046318848 -0.07309933 0.0071658473
000280 95 1b 97 3c 36 69 26 bd 99 43 c6 bc d1 cb 8e bd
       0.01844577 -0.04062768 -0.024202155 -0.06972469
000290 9e 36 8f bd 5c bc b0 3c 24 4e 48 bd 91 15 08 be
       -0.06992839 0.021574192 -0.048902646 -0.13289477
0002a0 44 e8 07 3c 90 be d3 bd ce 3b 3c bd 44 aa 51 bd
       0.0082951225 -0.10339081 -0.04595547 -0.05118777
0002b0 f0 9b 67 3b 98 b2 38 3d 68 65 c3 3c f8 09 a9 bd
       0.0035340749 0.045092195 0.023852065 -0.082538545
0002c0 99 fe b3 bb 20 7c 8e 3b e4 06 80 bd 67 9a 70 3c
       -0.005492997 0.004348293 -0.06251314 0.01468525
0002d0 96 3b 4c bd fd 06 e2 bc 6a 42 30 3d 61 6f 0d bd
       -0.049861513 -0.027591223 0.043032087 -0.034530047
0002e0 08 fb c0 bd d0 79 09 bd 2d 3e 0c 3b 86 56 55 bd
       -0.094228804 -0.033563435 0.0021399364 -0.05208447
0002f0 4a 83 ca bc b5 1a a6 3d c7 9f d8 3d d8 cc 07 bd
       -0.024720807 0.08110563 0.1057735 -0.03315434
000300 1a 67 c3 3b cc 6a 64 3c 1e 58 35 bd 3e 44 3d bd
       0.0059632184 0.013941478 -0.04427349 -0.04620766
000310 c9 26 85 3c 7f a7 f7 bd 6a 55 ec bc 2e 1e d0 bd
       0.016253846 -0.12092494 -0.028849322 -0.10162006
000320 63 2c 19 bd d3 93 83 bd 04 e1 f0 bd e1 72 23 bb
       -0.037395846 -0.064246796 -0.11761668 -0.00249403
000330 55 c6 53 bd 1e 47 36 bd 03 48 b1 3c 95 83 2f 3d
       -0.051702816 -0.044501416 0.021640783 0.042850096
000340 ef b4 88 3c be 6f 9d 3d 1d fd b2 3c 21 20 26 bd
       0.016687838 0.07687329 0.02184921 -0.040557984
000350 57 13 67 bc 28 d1 99 bc 9b d0 bb 3d 76 d7 8c 3c
       -0.014103732 -0.018776491 0.09170648 0.017192584
000360 16 f7 84 3d bd 39 62 bc fa c0 4b bd 48 3e 82 bc
       0.064924404 -0.013807711 -0.049744584 -0.015898839
000370 dc 4d 88 bd 37 8b a2 bd 50 24 e2 bb d9 43 32 3d
       -0.066554755 -0.079367094 -0.0069013014 0.043521736
000380 2d 2f 3d bc 3f 4b 16 3d 1f 14 fe bc a0 cf 3f 3b
       -0.011546892 0.036692854 -0.031015454 0.0029268041
000390 3e 7a be bc 0f 06 70 bd fe d9 8a 3c 4a d4 92 bc
       -0.023251649 -0.058599528 0.01694965 -0.017923493
0003a0 65 3f 4d 3d 15 fc 6a 3d 56 94 c4 3d 59 a4 05 3b
       0.050109286 0.05736931 0.09598605 0.0020392148
0003b0 b9 b9 b7 3b 27 f5 e8 3c f7 57 4c bd 17 ec fd bb
       0.0056068567 0.02843721 -0.049888577 -0.0077490914
0003c0 d6 02 b4 bc bd ac 9b 3c 59 39 27 bd 50 22 13 3c
       -0.021974009 0.019003266 -0.040826175 0.008980349
0003d0 20 f4 40 3d d7 0b 8c bc 62 49 ea bb 1a f0 33 bd
       0.047107816 -0.01709549 -0.007149861 -0.04393015
0003e0 17 7e 04 bd e3 db 9e bb e6 0d 96 bc e2 de a5 bc
       -0.03234681 -0.00484799 -0.018317174 -0.02024788
0003f0 5b ca b0 3c 96 6f e4 3a 99 43 cb 3d 00 44 db bc
       0.021580866 0.0017428275 0.099250026 -0.026765823

cnn3.bias f4 [32]
000000 4e 15 a1 3c a3 58 33 3d e6 47 c2 bd 26 55 93 bc
       0.01966348 0.043785702 -0.0948637 -0.017984938
000010 e8 0a 05 3d 35 a7 06 bd 68 84 09 bd 1a f4 f0 3d
       0.032481104 -0.032874305 -0.033573538 0.11765309
000020 f0 fa 21 bc 84 49 79 bd 2e 07 23 3c 28 99 d2 bc
       -0.009886488 -0.060861126 0.009950442 -0.025707796
000030 7b a9 5c bc 9b 76 4b 3d 9c d0 97 bc 38 ad 01 3e
       -0.013468142 0.049673658 -0.01853209 0.12663734
000040 18 f4 90 bd 48 e9 9c 3b 59 a5 2d bd f2 3c 82 bd
       -0.07077807 0.0047885515 -0.042394016 -0.06359281
000050 8d 4d 91 bd 5d d6 f3 bc 57 64 8f bd 61 39 77 bd
       -0.0709487 -0.029765302 -0.0700156 -0.060357455
000060 05 b4 4b bc 0b 5d 0f bd 61 2b 88 bd 31 d7 e4 3c
       -0.012433057 -0.035000842 -0.06648899 0.027934643
000070 37 85 08 bc 99 96 c8 3d 25 ef b1 3c 64 15 1a 3e
       -0.008332542 0.09794349 0.021720478 0.15047222

fc1.weight f4 [128, 768]
000000 05 49 db bc a7 35 cb 3c 82 6e a1 3c f6 91 72 3c
       -0.026768217 0.024805857 0.019706015 0.014805308
000010 ef 9b fb 3c 08 54 03 bd 69 18 42 bd 25 dc 80 3c
       0.030714003 -0.03206256 -0.04738656 0.015729973
000020 de 13 91 bc 68 6b 33 bc 7c 37 c3 bc 80 b6 0c 3a
       -0.017709669 -0.010950901 -0.023830168 0.0005367771
000030 f8 8c d8 ba 99 01 33 3b 1a 91 1e bc dc 43 9d 3c
       -0.0016521504 0.0027314185 -0.00967815 0.019197397
000040 fd 3c fb 3b 34 de 41 bc 82 e3 2e bc 24 54 35 3c
       0.0076671825 -0.0118327625 -0.010674359 0.011067424
000050 fe eb be bc ba c7 89 3c 10 98 e7 bc 6e 1f 4f bc
       -0.02330589 0.01681887 -0.028270751 -0.012641771
000060 af 58 16 bd 9b ff e4 bb 7f 84 15 bd 71 95 0f bc
       -0.03670567 -0.0069884784 -0.03650331 -0.008763657
000070 ab e2 3a 3b d9 96 fc bc c0 90 9b bc b3 0e f1 3c
       0.0028516452 -0.030833649 -0.01898992 0.029425954
000080 6e 3e 20 bd 20 76 81 3c 23 6c 27 3d 74 61 45 bc
       -0.039122038 0.015803397 0.04087461 -0.01204716
000090 9a 99 d5 3c ef 68 0f 3d b8 f4 02 bc 6c 36 af ba
       0.02607422 0.03501218 -0.007992916 -0.0013367659
0000a0 00 0f 21 3c b0 35 0f bc fe 11 be 3c ac 93 57 bd
       0.009830236 -0.008740827 0.023201939 -0.052631065
0000b0 8a e0 27 bd e1 45 92 3c ce fd fd bc eb ce 2d bd
       -0.04098562 0.017855586 -0.031004813 -0.04243366
0000c0 07 2f 26 bd fc 01 34 3c 40 8e 02 bd bb fe 06 bd
       -0.040572193 0.010986801 -0.03187394 -0.032957774
0000d0 b1 a7 1c bd 76 0d b3 bb 34 24 05 3c 2c 4d 79 bc
       -0.03824586 -0.005464251 0.008126307 -0.015216153
0000e0 92 93 0a bc 90 2f af bc 91 57 1a 3c 4f fc e8 3c
       -0.008458035 -0.021384984 0.0094202915 0.028440623
0000f0 dd b2 0c bd 44 0a 95 bc 62 cf f7 bc f1 80 3e bd
       -0.034350265 -0.018193372 -0.030250255 -0.046509687
000100 27 e7 bf 3c df 95 4b 3c 46 61 6e bc b9 b8 23 bc
       0.023425652 0.012425869 -0.014549559 -0.009992772
000110 c8 5c 1b bd c3 a1 9d 3c 7c 67 ad 3c 42 0c 0f bd
       -0.03793028 0.019242173 0.02116751 -0.0349238
000120 28 49 fb bb 30 9e 52 3c 71 c8 c3 bc 46 0c 91 bc
       -0.007668633 0.012855098 -0.023899289 -0.017706048
000130 36 d8 e8 3c 19 21 8c 3c 6d f7 be 3c d5 db 9c 3b
       0.02842341 0.017105626 0.023311341 0.004786948
000140 a1 69 91 ba 1b e8 e0 3b 9b da 80 3c 96 af b5 bc
       -0.0011094102 0.0068636066 0.01572924 -0.022178452
000150 87 ed 02 bd 7c ae d1 3c 12 db 92 3a a6 e1 23 bc
       -0.031964805 0.025595896 0.0011204204 -0.010002529
000160 31 d9 da 3b b3 91 c1 bc e5 a2 32 bb 8f 70 e0 bc
       0.0066787233 -0.023629045 -0.0027257737 -0.027397422
000170 61 c2 03 bb 3d 51 21 bd 7a 85 21 3b 53 80 02 3d
       -0.0020104873 -0.039384115 0.0024646209 0.03186066
000180 0a 85 c3 3c e2 7d 01 bd 5b 7e 3e 3b 32 ae 93 3b
       0.023867149 -0.03161419 0.0029067013 0.0045068497
000190 f4 8c 49 ba 4a 28 9b 3b 9f 56 bd bc 4f 59 07 bc
       -0.0007688545 0.0047350274 -0.023112593 -0.008261039
0001a0 22 9e 1c bd 8a bf 47 bc 13 07 89 bc 01 99 da bb
       -0.038236745 -0.012191663 -0.016727006 -0.0066710715
0001b0 cd b5 65 3c 07 01 f0 bb db 1b 87 bc e8 93 14 bd
       0.014020395 -0.007324341 -0.016492775 -0.036273867
0001c0 5a f8 09 3c e2 21 22 3c 74 78 3b 3c e1 b2 e5 bc
       0.008421028 0.009895774 0.0114422925 -0.028039398
0001d0 1f 1e 6a 3c 1e 51 03 3a 87 1d 90 bc 2f f8 e8 3a
       0.014289408 0.0005009341 -0.017592205 0.001777416
0001e0 83 03 e8 3c 5d f6 21 bd 34 93 be 3b cd 8a 3a 3c
       0.028321987 -0.03954159 0.005815888 0.011385632
0001f0 54 71 ff bc cc 32 20 bc 00 ed e2 3a 7c cc 06 bd
       -0.031181969 -0.009777736 0.0017313063 -0.032909855
000200 ab 04 19 3d 66 34 a0 3c a5 b1 4c 3c 4b c0 8c 3b
       0.037357967 0.019556236 0.012493526 0.004295384
000210 d0 35 ce 3c 3d a0 4c 3b 1a a1 86 bc da 3c c5 bc
       0.025172144 0.003122344 -0.016434241 -0.024076868
000220 d2 01 06 bd 28 c4 3d 3c 26 ce 80 3c e0 89 d9 3c
       -0.03271658 0.011582412 0.0157233 0.026555002
000230 cf 45 8f 3b bc 91 9b 3c 98 8f 42 3b 0d 24 04 bd
       0.0043723355 0.01899039 0.002968764 -0.032260943
000240 52 93 c5 bc 70 dd 4b 3c b0 5b 0b 3d c0 48 e0 3c
       -0.0241181 0.0124429315 0.034022987 0.02737844
000250 30 11 31 3b a2 3a 40 bc cc 05 dd 3c 46 e7 10 3d
       0.0027018301 -0.011732729 0.026980303 0.03537681
000260 b6 e2 0d 3d c0 0f 20 3c 32 a3 b1 3c 74 da c6 bb
       0.034640037 0.00976938 0.021684263 -0.006068522
000270 66 c4 a6 bc 0c fc f0 bb f4 25 0b 3d f4 e7 0d 3d
       -0.020357322 -0.007354265 0.03397174 0.034645036
000280 44 39 81 3c 40 75 92 3c 64 64 1c 3c 77 70 a4 bc
       0.015774377 0.017878175 0.009545419 -0.020073159
000290 7c 5a fd bb a5 95 06 3d 4e 1b f9 bc fa 48 44 bc
       -0.007731734 0.032857556 -0.030408528 -0.01198029
0002a0 0b 46 63 bc 6b 35 3b 3c bb ab e7 ba f2 84 ee bb
       -0.01387168 0.01142631 -0.0017675081 -0.007279032
0002b0 ea db 63 3b d9 d9 44 bc 5b 42 71 bd 8c d1 8d bc
       0.003476853 -0.01201483 -0.058901172 -0.017311834
0002c0 75 63 d2 3c d2 f1 9e bc ec 79 ae bc 03 bf 24 bd
       0.02568219 -0.019402418 -0.021298371 -0.040221225
0002d0 6e bd f4 bb ee 7a 10 bd df 0a a6 3c fa 58 2d 3a
       -0.007468871 -0.035273485 0.020268856 0.0006612685
0002e0 a4 ac 37 bd f9 10 2f bd d7 b9 17 bc d2 71 28 bd
       -0.044842377 -0.042740796 -0.009260616 -0.041124173
0002f0 63 46 7f bb 5b 7d ad bc 38 50 16 3c 24 d2 2e bd
       -0.0038951866 -0.021177938 0.009174399 -0.042680874
000300 df 3c 0a 3b ff 62 8e ba 8f 48 a7 bb ec 91 07 bd
       0.002109341 -0.0010863243 -0.005105085 -0.033098146
000310 2c 4f 00 bd b0 bc ec 3c 1c 3e c7 ba 51 a7 32 bc
       -0.031325504 0.028898567 -0.0015201005 -0.010904149
000320 fc 6f f5 bc 51 95 4a bc 3b b4 31 3c 04 44 f8 bc
       -0.029960625 -0.012364701 0.010846193 -0.03030587
000330 be ed ab bc a9 81 ad bc 16 46 00 bc dd b7 59 bc
       -0.020987388 -0.02117999 -0.00782921 -0.013288465
000340 e2 69 9e 3c 97 fd b5 bc 22 60 30 3c 77 f6 11 bc
       0.019337598 -0.022215648 0.010765107 -0.008908859
000350 ab 0d a6 3c 45 d8 0d bd 64 82 03 3d c0 44 da 3c
       0.02027019 -0.03463008 0.032106772 0.02664411
000360 47 11 0d bd bd fa 17 bd 7a d9 18 bd d0 4f c5 3c
       -0.034440305 -0.037104357 -0.037316777 0.02408591
000370 ea 31 10 bc 19 6f 5e 3c cf d7 04 3d 05 53 13 bd
       -0.008800963 0.013576292 0.032432374 -0.035967845
000380 83 a0 8d bc e7 b4 59 bc 09 e1 92 3c 19 0b 8a 3c
       -0.017288452 -0.013287759 0.01792957 0.016850995
000390 5e 74 d1 bc 92 14 c2 bc 27 b8 ca 3c d8 64 06 3d
       -0.025568184 -0.02369145 0.024746014 0.032811016
0003a0 eb e2 e9 3b f1 0d 96 bc d9 34 40 3c eb 4a db ba
       0.0071376464 -0.018317195 0.01173135 -0.0016730701
0003b0 45 8d a6 bc e4 2e bf 3c 82 4c 1c bd 61 7b db bc
       -0.020331034 0.023337789 -0.0381589 -0.02679223
0003c0 19 24 b2 3c 5e c4 98 3a 83 11 00 3d f4 c4 15 bd
       0.021745728 0.0011655202 0.0312667 -0.036564782
0003d0 50 83 2b 3c b4 d2 08 3d 6b 7f 2b 3a 1a 3f 37 3c
       0.010468319 0.033404067 0.0006542119 0.011184478
0003e0 b6 40 f8 bc 0f d7 0e bd ec 14 08 3c c5 1a a5 3c
       -0.030304294 -0.034873065 0.008305769 0.020154366
0003f0 8f 0b 9f bc 00 09 e3 bb 1c 10 e9 3c d1 c9 00 bd
       -0.019414691 -0.006928563 0.028450064 -0.031442467

fc1.bias f4 [128]
000000 0b ae c7 3c a0 90 11 bc 8a fb 5b 3c 62 15 25 bd
       0.024374982 -0.008884579 0.013426671 -0.040303595
000010 e1 07 d3 bc 54 b6 d4 3c 3f 39 0d bd 81 70 27 bd
       -0.025760593 0.025965847 -0.034478422 -0.040878776
000020 fb e3 99 3b b6 6f 7d 3c 24 97 ab bc 84 0c e6 bc
       0.004696367 0.0154685285 -0.020946093 -0.02808214
000030 80 38 13 bd 42 03 0d bd 38 38 1b bd 74 d6 82 bc
       -0.035942554 -0.034426935 -0.03789541 -0.0159714
000040 69 13 17 bd b2 16 a3 bc 69 dd 7a 3d 94 5b ff ba
       -0.036883745 -0.019908283 0.06124631 -0.0019482248
000050 02 94 a7 bb f2 2e c6 3d 57 e1 2f bd f2 50 a7 3d
       -0.0051140795 0.09676923 -0.04293951 0.08169736
000060 db 3a 45 bd 3e 9a 19 39 26 c9 ba bb a1 5d f0 bc
       -0.048151832 0.00014648677 -0.0057002483 -0.02934152
000070 69 23 df bc 0e 2c 8d 3c e2 42 12 bd e5 7d aa 3c
       -0.027238565 0.017232921 -0.035708316 0.020811984
000080 3c 1e 0e bd c1 75 67 3c 45 11 07 ba 2f 9c 3e bd
       -0.034696802 0.014127196 -0.00051524147 -0.046535667
000090 e9 da cc bc be 6c 20 bd 95 6b b7 bc c7 ed 51 3b
       -0.025006728 -0.039166205 -0.022390166 0.0032032595
0000a0 d5 da a8 3c f8 9d c5 3d bb b1 04 bd 70 4c c6 bc
       0.02061216 0.09649271 -0.03239606 -0.02420637
0000b0 54 66 9d bc 11 18 13 bd fc d6 d1 3b 0e 84 cd 3b
       -0.019213833 -0.035911623 0.006403802 0.0062718457
0000c0 66 f8 11 bd 48 ad f0 3c a8 cc 0a 3d f6 3d d5 3c
       -0.03563728 0.029379502 0.03388658 0.026030522
0000d0 24 1d bc 3b c6 c8 c1 3d df 91 ee bb d4 13 14 bd
       0.0057407785 0.094621226 -0.007280573 -0.036151722
0000e0 a5 97 10 bd ba 2c fd 3b 25 f6 8d bc 40 7e b6 bc
       -0.03530087 0.007726279 -0.017329285 -0.022276998
0000f0 0c 93 29 bd 49 cc bb 3d 38 28 0b bd 58 b2 cc bc
       -0.0414 0.09169824 -0.033973902 -0.024987385
000100 a5 38 80 bc 1a 56 cf 3c 06 93 ed 3d df e0 d6 bb
       -0.01565201 0.025309611 0.11600308 -0.0065575684
000110 2e 72 42 3c ee 32 8c 3c 8f 1a cf bb 4c b5 a3 3b
       0.011868043 0.017114129 -0.0063203047 0.0049959775
000120 d9 2e 1b bc f0 fe 37 3c 93 39 52 b9 e1 61 3f 3c
       -0.009471619 0.011230215 -0.00020048609 0.011681051
000130 bf d6 1c b7 f2 8f 10 bd eb c5 24 3c c7 30 96 bb
       -9.348324e-06 -0.035293527 0.010056953 -0.0045834514
000140 94 f1 8c bc e9 9e df bb ed b3 e9 3b c8 e6 aa 3c
       -0.017205037 -0.0068243635 0.0071320445 0.020861998
000150 4b 82 05 3c e4 db df 3c 97 ac ec bc 22 84 d5 bc
       0.00814874 0.027326532 -0.028890891 -0.026063982
000160 87 42 1f bd d3 37 aa 3d 96 47 88 bd 18 ac e9 3d
       -0.038881805 0.08311429 -0.06654279 0.114097774
000170 04 41 29 3c f3 53 b0 bc bd ab d9 ba 17 75 24 bd
       0.010330442 -0.021524405 -0.0016606968 -0.040150728
000180 8b e0 e0 3a e6 51 90 bb ca c3 e2 bb 4d a8 35 3c
       0.0017156763 -0.0044042943 -0.0069203125 0.011087489
000190 ce e8 13 bd 01 13 2e bc 70 13 01 ba 8b 18 91 3c
       -0.03611069 -0.010624648 -0.0004923856 0.017711898
0001a0 e1 a9 90 3a da a3 77 bc c8 e2 1b bd 9c 13 84 bc
       0.0011036956 -0.015114749 -0.038058072 -0.016122632
0001b0 bb 38 f1 3d 46 7b 56 3c e1 73 ff bb cf 2e 53 bc
       0.117783986 0.013090914 -0.0077957963 -0.012889578
0001c0 86 d2 e5 3d 36 0f ae 3c 44 75 7a bd 83 63 04 bd
       0.11221795 0.021247488 -0.06114699 -0.032321464
0001d0 f4 49 2b 3c bf 65 8e 3c 2c fb af bc de 54 6a 3d
       0.0104546435 0.0173825 -0.021482073 0.057209842
0001e0 c7 52 78 bd f4 dc 42 bc 6a f9 4e bc 97 0d 4c bd
       -0.060625818 -0.0118935 -0.012632707 -0.049817648
0001f0 e3 0e ff 3d de b5 37 bd 14 92 07 3d 6b 80 6f bd
       0.12454011 -0.044851176 0.033098295 -0.05847208

fc2.weight f4 [128, 128]
000000 bd 2d b2 bd ce 7d 71 bd 56 e7 1d bc d8 31 38 bc
       -0.0870013 -0.058957867 -0.009637674 -0.011242352
000010 36 6e f5 3c b9 7a 74 3d d8 06 47 bd 69 42 55 3d
       0.02995978 0.05968735 -0.04859051 0.052065287
000020 ce 6c 06 bb 3d b2 08 3d 3d 65 e2 3c a1 8a 04 bd
       -0.002051163 0.033373106 0.027636165 -0.03235877
000030 5f 58 9f bd 94 4a 0f 3d dd e7 a7 3d 1b e6 30 bd
       -0.07780527 0.034983233 0.08198521 -0.043188196
000040 73 8e 3c bd 5e 31 ef 3c c1 11 b7 3b 0e e0 2b 3d
       -0.046034288 0.029198345 0.005586833 0.041961722
000050 4f a9 af 3d ae ce 77 3d d2 aa 89 3c f7 57 38 bd
       0.08577215 0.06049984 0.016805086 -0.045005765
000060 7e cb 58 3d 80 ef 18 bb f3 04 86 3d 96 4e cd bb
       0.05292844 -0.0023336112 0.06543913 -0.0062654717
000070 18 6a 68 bc 55 a0 06 bb 99 f0 b7 3d 3e 90 62 3d
       -0.014185451 -0.0020542343 0.08981437 0.05531334
000080 a2 ee a3 bd 25 ce 05 bd c7 df a1 3d 71 6d c2 bd
       -0.080045 -0.032667298 0.0790401 -0.094935305
000090 3c e6 b0 bd 76 78 b3 3d 03 c3 ab 3d 0d 14 83 bd
       -0.08637664 0.087632105 0.08386805 -0.06400309
0000a0 c0 5c 83 bd 10 ad 9b bd 64 30 cf 3c 5c c4 e8 bb
       -0.06414175 -0.076013684 0.02529163 -0.007103486
0000b0 27 7d 1e bd e9 ca 9b 3d a6 db 64 3d 41 76 a7 3c
       -0.038693573 0.076070614 0.055873536 0.02044213
0000c0 8a e0 53 bd 2c b7 a2 bd 6c 63 07 bc d0 39 27 3d
       -0.05172781 -0.079450935 -0.00826345 0.04082662
0000d0 72 b3 56 3d e5 4f ea 3d 28 49 38 bc 54 24 b5 3d
       0.052417226 0.1144102 -0.011247911 0.0884482
0000e0 20 3a fa 3c 24 81 d0 bc 90 a4 34 bc 3f b2 9b bd
       0.030545294 -0.025452204 -0.011025563 -0.07602357
0000f0 7c 52 a2 bc 4f 23 cf 3d b9 b1 b0 bd 0d 89 ce 3d
       -0.019814722 0.101141565 -0.08627648 0.10084734
000100 c2 72 0d bd 00 cc 13 3d f4 0a f9 3d 53 9f 5c bd
       -0.03453327 0.03608322 0.12160292 -0.05386288
000110 81 e1 6e 3d 0c 6b 7d bd 18 33 28 3d 07 b5 b1 3d
       0.058320526 -0.061869666 0.04106435 0.08677106
000120 c2 0a 31 bd 20 2f 6b 3c 00 0b d1 3a 3a 66 17 3d
       -0.04322315 0.014354497 0.0015948713 0.036962725
000130 58 0f c3 3c 9b b5 1b 3d 40 ce eb bb 84 53 ba bc
       0.023811027 0.03801499 -0.007196218 -0.022744901
000140 3b fa 22 bc e3 e8 9c bd 23 4d 53 bd 54 f4 b9 3b
       -0.009947355 -0.07661607 -0.051587235 0.005674878
000150 08 74 a3 bd 97 01 72 bd 61 3e 83 bd 4a f5 19 3d
       -0.079811156 -0.059083547 -0.06408382 0.03758744
000160 57 70 4d bd ae 38 1c be 6d cb 66 bd 63 94 7f bc
       -0.050155964 -0.15255997 -0.056346346 -0.015599343
000170 82 14 35 3d 2a 7f 70 3d b9 02 00 3d 70 68 91 bd
       0.04420901 0.058715023 0.031252597 -0.07099998
000180 25 e8 42 3c b8 0e 3d bd 3e 83 4d 3d fe d1 1e 3d
       0.011896168 -0.046156615 0.05017399 0.038774483
000190 9c ac 0e 3d cc 2d 17 bd 9d 0c 87 3d 15 7c 9f 3d
       0.034832582 -0.03690891 0.06594203 0.07787339
0001a0 14 eb cb 3c f6 64 45 3d e8 46 12 3c 79 22 22 bd
       0.024892367 0.048191987 0.008928038 -0.039583657
0001b0 a7 da 34 3d 32 e4 95 bd d0 90 bb bc 90 aa db 3c
       0.044153836 -0.073189154 -0.0228962 0.026814729
0001c0 12 a2 a8 3d 00 0b b9 bc 81 bb 75 bd 11 60 40 bd
       0.082340375 -0.022588253 -0.05999327 -0.046966616
0001d0 fd 96 88 bd d6 3d 98 bd de e5 ae bd a2 b0 a8 bd
       -0.06669424 -0.07433669 -0.085399374 -0.08236815
0001e0 0d 47 a7 3c d8 36 42 bc e7 4d 4f bd 21 9a 17 bb
       0.020419622 -0.011853896 -0.050611403 -0.002313264
0001f0 3f f5 9a 3d e0 92 26 bd 2f 51 8c bd 67 2c 51 bd
       0.07566308 -0.040667415 -0.06851422 -0.051067736
000200 9e 0d 80 bd 3e f1 fe bc 4e 7b aa bd 90 46 eb 3b
       -0.06252597 -0.031120893 -0.083243 0.0071800426
000210 9b a4 a4 ba e1 7c 80 3c 9c 18 ca bd 70 a8 3c bc
       -0.0012561263 0.015684547 -0.09867975 -0.011514768
000220 37 85 8e 3d 5b 0a 13 3d 28 d5 ae 3a fe 7c 17 3d
       0.069590025 0.035898548 0.0013338672 0.036984436
000230 db ae 17 bd 90 2d 91 3b 26 2c 4a 3d 90 3a 31 bd
       -0.03703199 0.0044304803 0.04935851 -0.04326874
000240 a4 38 1e 3d 1c c5 19 3d 55 c7 40 bb 30 b8 bf bc
       0.038628235 0.037541494 -0.0029415686 -0.023403257
000250 73 cf 07 bc 98 fc e5 bc 9b ad 9a 3d e0 9c 65 bd
       -0.008289206 -0.028074548 0.07552644 -0.05605781
000260 51 c7 a8 3d be 50 5f 3d 08 e0 96 bd 05 77 2f bc
       0.082411416 0.05452036 -0.07366949 -0.010709529
000270 07 ce 9c bd 4a e8 3f 3d 31 f0 a9 3d bc 60 f1 bc
       -0.07656484 0.046852387 0.08297766 -0.029465072
000280 6b 23 0e bd 8a 98 b1 3c 92 0e 0b bd dd 39 bc bd
       -0.034701746 0.021679182 -0.033949442 -0.09190724
000290 0f bd 96 bd 69 77 3c bd 84 75 15 3d 85 21 a0 bd
       -0.07360279 -0.046012316 0.036489025 -0.07818893
0002a0 f1 5d 79 bd f6 17 82 3c b0 9f be bc ac a7 9b bd
       -0.060880605 0.015880566 -0.023269504 -0.0760034
0002b0 4f e5 63 bd b0 a0 ce bc 6f a6 a3 3c 99 3b 1a bc
       -0.055638608 -0.025223106 0.019976823 -0.009413623
0002c0 22 e3 89 bd 79 fb 97 3d c0 d6 9a 3c 2e 9d 3b bd
       -0.06732775 0.074210115 0.018901229 -0.045804195
0002d0 10 30 12 bc 37 92 e6 3d 23 1f 40 3d 12 1e 94 bd
       -0.008922592 0.11258357 0.046904694 -0.07232298
0002e0 97 7b 2a bd e0 8c 46 bc 88 a5 85 bd 4d 56 6a 3c
       -0.04162177 -0.012118548 -0.06525713 0.014302802
0002f0 be ac 8a bd a2 e8 5d 3d 50 e9 a3 bc 6e 46 cb bd
       -0.06771229 0.054176934 -0.020008713 -0.09925543
000300 f3 da 45 bd 51 ef cf 3c d2 33 34 3d 81 23 49 3c
       -0.04830451 0.02538267 0.043994732 0.012276531
000310 42 17 cf bb ac 72 bb 3c ae 73 c6 bc 28 5e e3 3c
       -0.006319911 0.022881828 -0.024225082 0.027754858
000320 ac 4c b8 bc db 4b 25 bd c4 11 86 bc 20 6d 74 3c
       -0.022497497 -0.040355545 -0.016365893 0.014918596
000330 7d 48 8f bd 98 54 b4 3c a3 14 20 bd cb d4 85 3d
       -0.06996248 0.022012994 -0.03908218 0.06534728
000340 b7 55 0b bc 52 9c 72 bc 4d c6 56 bd 72 3b 8a 3d
       -0.008504323 -0.0148077775 -0.052435208 0.067496195
000350 4c 59 0a 3d 5c b3 01 bd ea 24 9f bc 30 20 eb ba
       0.033776566 -0.03166519 -0.019426782 -0.001793867
000360 5f 85 12 bd 8e ba a1 bd 1e 68 94 bd dd 6c f8 3c
       -0.035771724 -0.078969106 -0.07246421 0.030325348
000370 e0 49 08 bc ee cc 3c 3d b9 5c dd bc 0c a2 ab bd
       -0.008318394 0.046093874 -0.027021753 -0.08380517
000380 15 9d 45 bd 55 70 92 bd ba de 4a 3d 88 44 3f 3c
       -0.04824551 -0.07150332 0.049528815 0.011674054
000390 b0 73 3e bd 58 1b d0 3c cf a4 8a 3d 8e f3 06 3d
       -0.046497047 0.025403664 0.06769716 0.032947116
0003a0 a0 18 33 bc a8 b0 65 3c 9a a1 75 bd 5a d7 32 3d
       -0.010931164 0.014019169 -0.05996857 0.043662407
0003b0 f9 ed e6 3d 02 26 ff bb f2 48 13 3d d2 f7 1f 3d
       0.112758584 -0.0077865133 0.035958238 0.0390547
0003c0 44 9e ac 3b be 62 4e 3d f6 87 d1 bd 15 b4 5b bd
       0.00526789 0.050387137 -0.102310106 -0.053638536
0003d0 c8 24 60 3c 81 6e 88 3d 54 3a a6 bd a5 84 5e 3d
       0.013680644 0.06661702 -0.08116594 0.05432572
0003e0 6b b3 ce bc c5 61 8d bd 3d af 73 3d 9e 93 cd 3d
       -0.025232038 -0.06903414 0.059493292 0.10037921
0003f0 99 95 2a 3e e4 11 b1 bd 98 5d ac 3d 97 c1 33 3d
       0.1665863 -0.086459905 0.08416289 0.043885794

fc2.bias f4 [128]
000000 db 8e 48 3d b1 f4 6b 3d c6 6f 07 3d 14 7e 94 3d
       0.048964363 0.057606403 0.03306558 0.0725061
000010 54 4e 3e 3d ce a0 b6 3d 5d b7 1b 3e 06 3b e1 3d
       0.04646142 0.0891739 0.15206666 0.10997586
000020 e9 a9 10 bd 27 57 c4 3d de 90 54 bd 5a c3 d3 bb
       -0.03531829 0.095869355 -0.05189597 -0.0064624967
000030 f6 76 10 3e 78 1f 2f 3d 9c 1e cf bd 87 58 a0 3d
       0.1410788 0.04275462 -0.1011326 0.07829385
000040 7d b9 7e 3d 59 fa c8 3d de 60 bb 3d b5 33 a9 3a
       0.062188614 0.09813375 0.09149335 0.0012909087
000050 4c 42 f6 bc 6a 87 ab 3d e4 07 d8 3d bf 43 4a 3e
       -0.03006091 0.083754376 0.1054838 0.19752406
000060 e5 23 07 3e d5 f9 ea 3c 92 74 d2 3d 37 82 0b 3e
       0.13197286 0.028683582 0.1027614 0.13623892
000070 f8 94 c7 3b 5f 13 19 3c 6d eb 92 3d 7d d5 5a 3d
       0.0060907565 0.009342997 0.0717381 0.053426255
000080 1a cd 2d 3e f3 7d b8 bd 11 cf 3d 3e b4 73 89 3c
       0.16972771 -0.09008398 0.18536021 0.016778804
000090 04 fe e0 3c 58 0d 31 3e 67 6a 83 bd 04 e8 a3 bc
       0.027464874 0.17290246 -0.06416779 -0.020008095
0000a0 07 69 40 3d 85 cc b0 3b 07 26 9f bc b7 37 85 3c
       0.046975162 0.0053954744 -0.019427313 0.016261918
0000b0 90 26 23 3e 96 2a e9 3d e9 af 42 3d 11 3b 80 3c
       0.15932679 0.11385076 0.047531042 0.015653165
0000c0 aa fc 06 be 75 d9 da 3c 22 49 e0 3d 5c 6d 4f 3d
       -0.13182321 0.02671502 0.10951449 0.050641403
0000d0 89 23 f2 3c fb ab de 3b 2c 06 34 3e 29 bc c1 3d
       0.02955796 0.006795404 0.1758048 0.09459717
0000e0 b7 6a 0d 3c 05 3b a5 3d a8 4b e9 bc 85 23 1a 3d
       0.0086314 0.08067898 -0.028478459 0.03763153
0000f0 10 7b 24 3c 56 24 39 bd 10 c6 30 3e 75 e7 c7 bc
       0.010039106 -0.04520067 0.17263055 -0.02440236
000100 06 1e 86 bb 24 fd 88 bd b5 bf 0b bd fe 75 91 3d
       -0.0040929345 -0.06688908 -0.034118373 0.07102583
000110 13 3e bf 3d bd 83 e0 3d ca c2 ae 3d 62 c2 95 3d
       0.093380116 0.10962627 0.08533247 0.07312466
000120 84 91 6d bd ae f2 c1 3d f4 e3 38 3c b7 33 01 3d
       -0.058000103 0.094701156 0.011284817 0.03154346
000130 fb 19 d7 3c de a1 5e 3d f6 af 0c be 16 fb 1d bc
       0.026257506 0.054353587 -0.13738999 -0.009642383
000140 9a dd 1f 3d 60 5d 23 3d 1d 11 32 3e d3 4e 93 3c
       0.039029695 0.03988397 0.1738934 0.017981922
000150 41 cc 3d 3d 0e 7f 06 3c dd 99 11 bd d6 61 eb 3d
       0.04633737 0.008209003 -0.035547126 0.1149327
000160 20 26 25 be 71 dd 2a 3e 7e b0 e8 3d 52 98 25 3e
       -0.16127825 0.16686036 0.11361788 0.16171387
000170 e2 a7 ea 3c 31 4a 6c 3c 8f c8 f4 3c 50 18 1a 3e
       0.028644506 0.0144219855 0.02988079 0.15048337
000180 b7 8f 33 3d e0 ae 83 3c 3a 30 1a 3d 82 70 ee 3d
       0.04383823 0.016074598 0.03764365 0.11642553
000190 ae 88 b1 bb df e5 cf 3c 0b fa 5a 3c 1a a9 6a 3d
       -0.005417905 0.025378166 0.013365279 0.057290174
0001a0 0c db b9 3d 98 61 34 3e 4f bd 9b 3c 94 6c 8b 3c
       0.09074983 0.17615354 0.019011168 0.017019548
0001b0 12 8f 3e 3e 59 a5 17 3e bc 39 ce bc 63 38 28 bd
       0.18609264 0.14809169 -0.025174014 -0.0410694
0001c0 63 fb a9 bd 0e 2f 27 3e 14 14 a2 3d bb 13 3d 3e
       -0.08299901 0.16326544 0.07913986 0.18464558
0001d0 d5 fa 1f 3e 69 5f 4e 3d cf 08 7e 3e f7 a5 f7 3d
       0.15623029 0.05038396 0.24808048 0.12092202
0001e0 3a f1 0c 3e 71 6e 7d 3c d5 3d 0d 3e 64 09 bb bd
       0.13763896 0.015468226 0.13793118 -0.091326505
0001f0 94 59 86 3e a3 30 d0 3d fd 16 f8 bc b3 17 06 bd
       0.26240218 0.10165527 -0.0302844 -0.032737445
