models/dqn_model_epoch_28000.pth (torch, 595624 bytes, 14 tensors)

cnn1.weight f4 [16, 4, 5, 5]
000000 16 63 47 be e7 6f 33 3d de cd e4 bc c2 9b 49 be
       -0.19471392 0.04380789 -0.027930196 -0.19688323
000010 76 5c 12 be 42 7e 4b be a2 91 46 be fe 62 94 be
       -0.14293084 -0.19872382 -0.19391492 -0.28981775
000020 74 9a 0e bd 09 54 69 bd 8d b7 8b be 2c 40 24 be
       -0.034815267 -0.056964908 -0.27288476 -0.16040105
000030 82 26 bc be cd e0 15 be c0 0c 0e 3d b6 21 2a be
       -0.3674813 -0.14636536 0.034680128 -0.16614422
000040 af ac 5a be 8b d3 23 bd b4 30 83 be 35 44 45 3c
       -0.21354936 -0.039996665 -0.25623095 0.012040188
000050 39 f9 56 be 9f a0 81 be d9 23 41 be 78 1d 8e 3d
       -0.20993508 -0.25317857 -0.18861331 0.069392145
000060 be b4 bf 3c 6f 4c 70 bc f8 14 00 bd c8 5f bf bd
       0.023401614 -0.014666661 -0.031269997 -0.09344441
000070 a4 a9 13 be bb 9b ed 3c e0 63 80 3d 87 2c cb bc
       -0.14420182 0.029004922 0.0626905 -0.024801506
000080 05 d9 c2 3c 25 ba 8c bd 69 a8 99 bd 01 04 41 bd
       0.023785124 -0.06871442 -0.07502825 -0.04712296
000090 a5 6b 0a be b0 fb 85 3c 52 46 08 3e 5f 5d e8 bc
       -0.13517626 0.016355366 0.13308075 -0.028364835
0000a0 49 fd d3 bd 30 7f bc 3c 68 a1 ad bd 1b c2 92 3c
       -0.10351045 0.023009866 -0.084780514 0.017914822
0000b0 17 00 04 be 20 15 02 bd c0 f7 9e 3d 3a 40 2a bd
       -0.1289066 -0.031758428 0.07762098 -0.041565157
0000c0 6f c2 8c bd f1 6e b2 bd b7 f3 a9 3d c8 a7 27 bc
       -0.06873023 -0.08712567 0.08298438 -0.010232873
0000d0 45 12 07 be 6b af 52 be 2c 5a d4 bc 32 92 c7 bc
       -0.13190563 -0.20574729 -0.025921904 -0.024361704
0000e0 27 1f b3 bd c4 3f 35 3e ae 02 4b 3d c5 f4 1d be
       -0.08746176 0.17700106 0.049563102 -0.15425403
0000f0 37 b3 7a 3e f8 93 71 3e 19 3c d5 3d da c3 24 3d
       0.24482428 0.23591602 0.10411853 0.04022584
000100 99 6c 57 be 1c c8 90 be f8 48 15 3e 51 e9 8c 3e
       -0.2103752 -0.2827767 0.14578617 0.27521756
000110 42 f3 05 be 7f a0 2a be 6e 03 24 be bf c6 83 bc
       -0.13081077 -0.16662787 -0.16016933 -0.01608598
000120 79 b9 a2 3e 8d dc 06 be d0 34 1c be 08 92 bf bd
       0.3178213 -0.13170071 -0.15254521 -0.09354025
000130 a8 56 7a be 2c 86 b8 bd a3 c5 a7 bb e6 cc 87 bd
       -0.24447119 -0.09009966 -0.0051199957 -0.06630878
000140 89 64 2b bd d9 a9 e1 3d a4 49 18 3e 93 f0 c0 bd
       -0.041843925 0.11018724 0.14871842 -0.09420886
000150 4c e3 09 3d 5b f0 26 be e9 24 96 3d b8 2a a5 3d
       0.033664033 -0.16302626 0.07331259 0.080647886
000160 6a 97 bf bd 09 e2 a8 bd d0 8c 03 be 4f c0 f1 ba
       -0.09355052 -0.08246238 -0.12846684 -0.0018444153
000170 57 a3 98 3d 20 d5 c8 bc f8 bd f2 bd d0 01 b9 3d
       0.074530296 -0.024515688 -0.1185264 0.09033549
000180 cf fb dc 3d 2d 76 3a be 29 8e 8f bd 74 15 75 bd
       0.10790216 -0.18209143 -0.07009537 -0.059834912
000190 0f f1 f2 bd 16 95 85 be 7f 2a 35 be 0e 60 0b 3d
       -0.118623845 -0.26090306 -0.17691992 0.03402715
0001a0 01 8e 67 be 71 42 01 be 44 cc a7 bd 5e 47 2c 3b
       -0.22612764 -0.12623002 -0.081932575 0.0026287655
0001b0 a6 4f bf 39 46 09 ae 3b 2b 10 0c be 6d 29 10 bd
       0.00036489702 0.005311164 -0.13678043 -0.035195757
0001c0 0d 16 73 3c 1f 8e 47 bd 78 d7 6a bd de 71 1f be
       0.0148368 -0.04871952 -0.057334393 -0.1557078
0001d0 36 ea 67 be 02 e8 33 be ad 8a bd be ae 23 6c bd
       -0.22647938 -0.17568973 -0.37019864 -0.057651214
0001e0 39 07 84 be 4a ae 62 be 42 6b c5 bd e4 aa bd bd
       -0.2578676 -0.22136799 -0.096395984 -0.092611104
0001f0 eb d3 ff bd 50 00 23 bd 58 11 aa 3d 74 9e 53 bd
       -0.12491592 -0.03979522 0.08304089 -0.051664785
000200 1f 53 12 3d d5 aa 06 be 70 cb b8 bb c4 4b 21 bd
       0.0357238 -0.13151105 -0.005639486 -0.039378896
000210 ed 95 c0 bd 74 82 c0 3c 73 0c cd 3b 74 25 a6 bc
       -0.09403596 0.023499705 0.0062575876 -0.02028153
000220 35 91 50 bd a6 20 12 be 42 c6 44 bd 6d c4 d2 bc
       -0.05091973 -0.14270267 -0.048040636 -0.025728429
000230 2b 91 0b be 98 c4 d1 bc 12 47 51 3d b3 3a 46 bd
       -0.13629596 -0.025606439 0.05109317 -0.048395824
000240 fc 7c da bd 65 42 00 bb 79 f5 02 3d 4e 9b 8b bd
       -0.1066837 -0.0019570824 0.031972382 -0.068167314
000250 91 50 d5 3d e8 ac e7 bd e5 da 42 be c3 96 30 3e
       0.104157574 -0.11312276 -0.19028814 0.17245011
000260 b6 45 5f bd 17 a2 29 3e 4c 57 17 be c6 ee 3e be
       -0.05450984 0.16565739 -0.14779395 -0.18645772
000270 d5 b6 3d 3e fe 16 51 be 4c b5 a7 3d e4 ca 20 be
       0.18526776 -0.20418927 0.081888765 -0.15702397
000280 7b de 8b be c9 2f 80 be 28 a2 c4 3d 13 20 c6 3d
       -0.27318177 -0.25036457 0.09601241 0.096740864
000290 13 65 57 be 3b 49 7c be 7c c5 0c be 60 fb 89 3e
       -0.2103465 -0.2463731 -0.1374721 0.26949596
0002a0 a7 99 41 be 70 da 6e be 3e 40 c6 3e e3 fd 97 3e
       -0.1890627 -0.23325515 0.38720888 0.29685888
0002b0 12 2b d3 3e 89 e4 66 bd 70 7b 29 be 89 12 54 3e
       0.41243798 -0.05637029 -0.16550994 0.20710196
0002c0 c9 9f 08 3e 1d f3 72 3e 90 9f 8d bc f8 7b a8 bd
       0.13342203 0.23725553 -0.017288 -0.0822677
0002d0 47 a0 ef 3d 09 ee f4 bd 05 bf 1b 3e f7 43 04 be
       0.11700492 -0.11959464 0.15209587 -0.12916552
0002e0 40 c8 e0 bd 12 81 28 be b5 b8 be 3d 38 52 81 3d
       -0.10975695 -0.16455486 0.09312574 0.0631451
0002f0 69 48 a6 bd a3 cb 1c be fe 26 2b be 19 8e eb bc
       -0.0811928 -0.15312056 -0.16714093 -0.02875428
000300 44 c6 ab bd 0e 2a 00 be 42 45 25 bd 43 04 0a be
       -0.083874255 -0.12516043 -0.040349253 -0.13478188
000310 9c b4 f1 bd 0d 80 29 3e 7d 25 03 be af 90 0e be
       -0.11802027 0.16552754 -0.1280727 -0.1392238
000320 70 06 99 be ba 42 99 bd 2d 94 b0 be d0 b4 46 3d
       -0.29887724 -0.0748343 -0.3448805 0.04851228
000330 69 0d 3a be ea 39 64 be 54 7f 2d be 3f f8 42 be
       -0.18169178 -0.22287717 -0.16943103 -0.19040011
000340 56 6c 0c 3d 0f fc 9b 3b ec 3b 78 be 53 c0 5f be
       0.034283005 0.0047602723 -0.24241608 -0.2185071
000350 1a df fa bd 6b 54 e5 3c 01 a6 32 3e e2 80 7e be
       -0.122495845 0.027994355 0.17446138 -0.24853852
000360 9a 66 6a be d0 6a 94 be 76 aa 21 be 10 7e 09 3e
       -0.22890702 -0.2898774 -0.15787682 0.13426995
000370 ab 84 79 be 76 20 05 be c2 cf 74 be f3 10 56 3d
       -0.24367015 -0.13000664 -0.23907378 0.052262258
000380 af 56 85 bd 52 22 05 be f7 53 6f bc e7 d4 0e be
       -0.06510674 -0.13001373 -0.014607421 -0.13948403
000390 a3 21 b9 bd 66 b8 16 bd 7a 51 94 bb 09 be b7 bc
       -0.09039619 -0.03679695 -0.0045263143 -0.022429483
0003a0 ce 6e 7f 3d 78 59 bb bd 21 ff e4 3c 5a 0a cd ba
       0.06236153 -0.09147924 0.027953686 -0.0015643344
0003b0 5c f3 b3 3c 3b bb 4c bc e7 17 b2 bd 0b b1 64 bb
       0.021966629 -0.012495811 -0.08695965 -0.0034895565
0003c0 22 39 db 3b 67 56 bb bd 76 c2 27 3c d3 5c 39 3e
       0.0066901604 -0.09147339 0.010239234 0.18101816
0003d0 ea ff 4b bb 0e e4 8e bd 5c e4 0f be 47 f4 63 bd
       -0.0031127878 -0.06977092 -0.14051956 -0.055652883
0003e0 5b 36 b6 3d 61 55 da bb 44 94 99 3d 63 64 fc 3c
       0.08897086 -0.00666301 0.074989825 0.030809587
0003f0 a6 2b 50 3d 01 30 cb be 74 a5 79 bd a1 52 c7 3c
       0.050822876 -0.39685062 -0.060948804 0.024331393

cnn1.bias f4 [16]
000000 0b 28 6b 3d cd 46 4b bd be 8c 8f bd 98 a4 93 bd
       0.057411235 -0.049628068 -0.07009266 -0.07209128
000010 2a f1 05 3d f1 d9 90 bd fc c8 9d bd d6 71 74 bb
       0.032700695 -0.07072819 -0.0770435 -0.0037299297
000020 7f 8a 7a 3c 00 b6 f9 bd bb 90 da bc 2b 31 8e bd
       0.015291809 -0.12192917 -0.026680341 -0.06942972
000030 f9 88 a4 bc 60 d0 b7 bd e0 40 c5 3c 0c e5 83 bd
       -0.020084845 -0.08975291 0.024078786 -0.064401716

cnn2.weight f4 [32, 16, 3, 3]
000000 c9 1a dd 3c 71 5f 6c 3d 2d 1a d5 3d 20 1b 0e 3e
       0.026990311 0.057708208 0.10405383 0.13877535
000010 e3 ee bb bc 2d 8c 2a bd fe 31 9a 3d 6a 72 8c 3c
       -0.022941059 -0.04163759 0.075290665 0.0171444
000020 8f c9 52 bd 65 36 2e 3e c3 59 c9 bd 0a 06 26 3d
       -0.051461753 0.17012937 -0.09831574 0.040533103
000030 a6 b5 fa 3d ec e2 95 bd 47 c1 f4 3d e2 58 1d 3e
       0.12241678 -0.073186725 0.11950927 0.15365937
000040 0c e3 6a bd fa 22 90 bd 1a af 5d bc e2 f7 e8 bc
       -0.057345435 -0.07037921 -0.013530517 -0.028438512
000050 7f e2 59 b8 cc f2 17 bd b4 11 8b bb 1b 6f 51 bd
       -5.1947773e-05 -0.037096784 -0.0042440537 -0.05113135
000060 b6 43 70 bd a6 48 80 3c 5d 22 66 bd 7e 61 d7 3d
       -0.058658324 0.015659641 -0.056185115 0.10516642
000070 5a 96 a3 bd 58 ab 89 3c e9 36 17 3e 7c 90 ed 3c
       -0.07987662 0.016805336 0.1476704 0.02899956
000080 83 73 03 bd 0a 92 e5 3d b4 3f 7a 3d cc 7d b5 bd
       -0.032092582 0.11209495 0.06109591 -0.088618845
000090 da ed 80 3d 2c 90 95 bc ed 2d 92 bc c2 88 c9 3d
       0.062953666 -0.018257223 -0.017844165 0.098405376
0000a0 1a 6d 86 3b 60 ca 80 3d df 85 ba 3d 50 86 f0 3c
       0.0041023614 0.062886 0.09107565 0.02936092
0000b0 bf cf b8 3d 74 9b c2 3d 76 4c 83 3d db 98 8a 3d
       0.090239994 0.095023066 0.06411068 0.06767436
0000c0 b8 ac ef 3d d0 1a 62 3d ae cb d4 3c e7 be 4f bc
       0.11702865 0.05520135 0.025976028 -0.012679792
0000d0 ba 80 8c 3c 7f f8 17 3d b4 43 60 bd 44 14 0d 3d
       0.017151225 0.03710222 -0.054752067 0.034443155
0000e0 5a e7 9e 3d 1b 37 22 bc f5 33 7a 3c 60 84 44 3d
       0.077589706 -0.0099008335 0.015271177 0.047977805
0000f0 67 1f 37 3d eb 60 11 3d da b8 d3 3d d8 bc 68 3d
       0.044707682 0.03549282 0.10337992 0.05682072
000100 99 00 aa bd cd f8 46 3d 58 47 1a 3d dd 1d 58 bd
       -0.08300895 0.04857712 0.037665695 -0.052762855
000110 34 de cd 3d 9b 15 ca bc 1d 4a 15 bd 87 65 10 3c
       0.100521475 -0.024668505 -0.036447633 0.0088132685
000120 9e 9c 66 3d 49 7b 6e bc 6a e7 62 bd df b4 ce 3d
       0.056301706 -0.014555761 -0.055396475 0.10093092
000130 92 7d a1 3d 67 87 8b 3d 87 40 4c 3d 3c 7c 10 3d
       0.07885279 0.06812935 0.049866226 0.03527473
000140 9c e8 1e 3d f5 5e 8d 3d 14 e6 a0 3d 4c ad f0 3d
       0.038796052 0.06902877 0.07856384 0.11751804
000150 91 55 57 3d 99 e4 4c 3d d6 d5 e3 3c d6 5e 8c 3d
       0.052571837 0.050022695 0.027811926 0.06854026
000160 3c fa 15 bd b2 9d 3c 3d 4e 44 37 3d 27 c4 87 bc
       -0.036615595 0.046048827 0.044742875 -0.016573025
000170 35 b0 3c bc b9 53 7e ba 5f 73 1f bc f2 05 b6 bd
       -0.01151662 -0.00097018067 -0.009732096 -0.08887853
000180 72 77 2d 3b dd 37 da ba a2 14 26 bb f5 22 9b 3c
       0.00264689 -0.0016648729 -0.0025341888 0.018937567
000190 9b 2b 20 bd 16 d4 1e 3d a4 39 8c 3d e8 61 96 3d
       -0.039104085 0.03877648 0.068469316 0.07342893
0001a0 2f cc 91 bd 52 31 d6 3d 48 df 20 3d 6e e3 88 3d
       -0.07119023 0.10458626 0.039275438 0.06684004
0001b0 6a 13 a9 bd 38 f4 f1 bd 05 e6 99 bc 05 cb 8f bc
       -0.08255656 -0.11814159 -0.01878644 -0.017552862
0001c0 33 ab 25 3d 75 98 27 bc 22 ea 4f 3d ba c8 5d bd
       0.04044647 -0.01022922 0.050760396 -0.054146506
0001d0 d9 6d 2e bb f7 74 1a bd 87 47 6d bd ab 72 c7 3c
       -0.0026615767 -0.037709203 -0.057929542 0.02434667
0001e0 81 7a 40 3d dc cd 80 bd c1 c0 6e bd f3 e6 18 bd
       0.04699183 -0.062892646 -0.058289293 -0.037329625
0001f0 ac ac a1 bd b0 86 06 bd d2 31 dc 3d 80 32 cd bc
       -0.07894263 -0.03284329 0.1075169 -0.025048494
000200 03 18 ad 3d 9e 84 30 3e 72 5a 48 3d ea cf 54 3d
       0.084518455 0.1723809 0.04891438 0.051956095
000210 ec 97 23 3e 11 b3 b1 ba 6f b3 c2 3d bf 6c b8 3c
       0.15975922 -0.0013557394 0.095068805 0.022512792
000220 fe 81 71 bd 28 ab 8b ba 5e 5e 4a 3d 90 81 3b bd
       -0.05896186 -0.0010655867 0.0494064 -0.045777857
000230 93 cf 3f 3c 17 87 1f 3d c8 ce 4f bd 9d 62 c7 bd
       0.011707204 0.03894719 -0.05073431 -0.09735606
000240 75 45 64 bd 6d fe 25 3d c0 f3 e8 3c 4a 7d 1c 3e
       -0.055730302 0.040525842 0.028436542 0.15282169
000250 ec 78 7f 3a b6 95 d5 bc 95 f2 8d 3c ff d8 17 3d
       0.0009745497 -0.026072364 0.017327586 0.037072178
000260 a3 08 85 bb 59 50 a2 3c e7 77 e2 3d 83 ac b3 bc
       -0.0040598675 0.019813703 0.11058026 -0.021932846
000270 bb 0e 0e 3e dd 8d c6 3b 5a b5 00 bb 6d cf 83 3d
       0.13872807 0.006059392 -0.0019639344 0.06436048
000280 bf d4 e4 3d bc 0f ce bd 45 be d3 3b 62 25 89 bd
       0.111733906 -0.10061595 0.006461891 -0.06696583
000290 8a dd 24 bd ac b6 be bd 53 c0 01 be 30 44 b7 bd
       -0.04025034 -0.09312186 -0.12671022 -0.089485526
0002a0 69 25 52 bd 6c c2 07 be 65 49 e5 bd 22 b7 cf 3d
       -0.05130521 -0.1325776 -0.111956395 0.10142352
0002b0 10 af f8 3d 45 85 c1 bc 70 09 24 3e 73 95 f1 ba
       0.121427655 -0.023623118 0.16019225 -0.001843138
0002c0 6d ab 9c 3c e1 5f f9 3d 8a 38 91 3d 14 03 99 bd
       0.019124711 0.121764906 0.07090862 -0.0747129
0002d0 d2 8e e8 3c c5 b4 d7 3c 2d 50 1b 3d cb 96 78 3d
       0.028388415 0.026331315 0.03791826 0.060690682
0002e0 e3 78 2e 3e 5e 68 d9 3b ba f0 c3 3d 52 b6 7d 3d
       0.17038302 0.006634756 0.09567399 0.061941452
0002f0 1a f1 09 3d d5 0f 45 3e 36 e0 f0 3b 0f d7 06 3d
       0.033677198 0.1924432 0.007350947 0.03291994
000300 cc f8 11 3e d9 1d d7 3b 84 12 a1 3c 68 0c 7f bd
       0.14255065 0.0065648374 0.01966215 -0.06226769
000310 19 c5 47 3d 57 d3 11 be bc 23 1b bb dd 18 e8 bc
       0.04877195 -0.14240776 -0.0023672422 -0.028332168
000320 d9 7f 38 bc 70 25 ed 3d cf 31 af 3d 24 a8 8e 3c
       -0.01126095 0.11579406 0.08554422 0.01741416
000330 ea f8 31 3e 55 13 5d bd 44 05 dc 3d 4a 89 c0 3a
       0.1738011 -0.053973515 0.10743192 0.0014689353
000340 1a 61 1c 3d d3 89 0d bd 80 31 68 bd f7 f3 91 bd
       0.03817854 -0.034555268 -0.056687832 -0.07126611
000350 82 51 d9 bc 86 b5 38 bd be 8b b9 bd 75 fc b0 bc
       -0.026528124 -0.04509499 -0.09059857 -0.021604756
000360 5e 8e 1b 3e d7 a5 92 3c f7 a7 c8 ba 04 37 24 3e
       0.15191028 0.017901344 -0.0015308846 0.16036612
000370 b3 06 c6 bc e1 33 85 bb 3a af 3a 3e cf 3c 49 3d
       -0.024173116 -0.0040650223 0.18230906 0.049130257
000380 13 6c 33 3d 38 17 1a 3e cb cd b3 3d 28 04 ac 3c
       0.04380424 0.1504792 0.08779486 0.020998076
000390 da 46 48 3b 80 9b b5 3d cc 2a 21 3e 4e 6e b0 3d
       0.003055981 0.0886755 0.15738982 0.08614789
0003a0 79 c6 0f bd fe 23 12 3d ed ae 73 3c dd 4d bb 3d
       -0.035101388 0.035678856 0.0148732485 0.091457106
0003b0 e1 99 82 3c 2d 34 63 3d a0 99 ac bc 01 61 8b bd
       0.015942516 0.05546968 -0.021069348 -0.068056114
0003c0 54 72 16 bd 2e b8 36 bd dd 6f dd bd bb 99 eb 3d
       -0.036730126 -0.04460924 -0.10812352 0.11503931
0003d0 14 5a 2e 3d fd 4e d6 bd 19 8c 7c 3d ea 74 34 3d
       0.042566374 -0.104642846 0.061657045 0.04405681
0003e0 35 7d 51 bc dd f6 f7 3d 85 46 a1 3d eb ec 20 3c
       -0.012786199 0.12107632 0.07874779 0.009822111
0003f0 8d 84 42 3c ed b6 03 bd 1a d7 8e bd 3a 03 db 3d
       0.011872423 -0.032156873 -0.06974621 0.10693975

cnn2.bias f4 [32]
000000 14 9b eb bd 73 79 f6 bc 3b f1 13 bd fc d1 c7 3b
       -0.11504188 -0.030087208 -0.036118727 0.00609803
000010 a8 3f 9c 3a 6f 79 29 3b ab f9 a1 bd 39 30 8f 3d
       0.0011920827 0.0025859734 -0.079089485 0.069916196
000020 90 87 98 bd f0 48 30 bd ce 18 e0 3c 4e a1 2c 3b
       -0.074477315 -0.04303831 0.027355578 0.0026341262
000030 7e 6f 0e bc 8c dd 12 3c 5d 70 19 3b ea a5 de bd
       -0.008693574 0.008963954 0.002341292 -0.10871489
000040 48 63 e3 3d 3e 81 d5 3b 5a d5 11 bd 4b 79 d7 bd
       0.11102921 0.006515651 -0.03560386 -0.10521182
000050 b4 ff f6 bd 45 2d 90 3c e3 f9 51 bd 06 f4 24 bd
       -0.1206049 0.017599711 -0.0512637 -0.04027178
000060 a1 0a 81 bb 63 3f af bd 62 74 69 bd fd 8f 06 be
       -0.0039380346 -0.08557012 -0.056995757 -0.13140865
000070 b0 b5 c2 3d 33 1c 74 bd 5b ce bd 3d 52 f2 f2 bb
       0.095073104 -0.059597205 0.09267875 -0.0074141407

cnn3.weight f4 [32, 32, 3, 3]
000000 7c 47 35 3d c7 c0 da 3b 15 0f 59 bb c9 a4 44 3c
       0.044257626 0.006675813 -0.0033120562 0.0120021785
000010 6e 8e 94 bd e6 50 3f bd c7 4c 46 bc 94 15 c2 bc
       -0.07253729 -0.04670801 -0.012103266 -0.02369193
000020 97 e4 b5 39 2e aa 21 3e 60 c1 19 3d 1f 30 94 bd
       0.00034693323 0.15787575 0.037537932 -0.07235741
000030 2c 3d 3b 3d fa ae 1d bd f7 91 0d be 86 1f 94 bd
       0.045712635 -0.03849695 -0.13825212 -0.07232575
000040 24 6d 44 bd a1 b0 b4 bd 4d 90 3a bc 69 b1 41 bd
       -0.047955647 -0.08822752 -0.011386943 -0.047288332
000050 67 ba 8d bd a5 8d 07 3d d3 eb 44 bd 7d e8 96 bd
       -0.06920319 0.033094067 -0.048076462 -0.07368562
000060 19 bf 3b 3d eb 75 80 3d d2 64 49 bc ae f5 fc 3c
       0.04583654 0.06272491 -0.012292104 0.030878868
000070 46 fd 2f bc 92 b2 01 3c 3f 06 3a 3d 30 1e 57 bd
       -0.010741537 0.00791611 0.045416113 -0.052519023
000080 25 de 44 bd 80 21 30 3c eb 05 d8 bc f3 74 da 3c
       -0.048063416 0.0107501745 -0.02637001 0.026667094
000090 b7 21 ca 3d 93 42 b2 3c d7 cb 40 bc a5 ef f4 bc
       0.09869712 0.02176026 -0.011767349 -0.029899428
0000a0 af 04 ca bd 43 5f e9 3b 71 83 22 bb 82 dc 7d 3d
       -0.098641746 0.007121952 -0.0024797583 0.06197787
0000b0 51 38 1e bc c9 8e e3 3d 72 0a a9 bd 05 d2 90 bc
       -0.009656982 0.111112185 -0.082539454 -0.01767827
0000c0 a9 d8 d8 3c a5 3c c0 bd 9c f6 ba bd 37 d7 95 bc
       0.0264705 -0.09386567 -0.09129068 -0.018291099
0000d0 0b b0 e3 3b 19 3d 71 bb f0 73 0a 3c b8 56 1f 3d
       0.006948476 -0.0036810099 0.008450493 0.03890106
0000e0 5d 81 73 bd 4c cd 18 bd 16 95 b0 3b 23 f6 a3 bc
       -0.059449542 -0.03730516 0.005388866 -0.020014828
0000f0 03 68 30 3d 75 4b 7f bd 71 3c 23 bd ea 24 3e bd
       0.043067943 -0.06232782 -0.039852563 -0.046421923
000100 1e 07 ec 3d 06 e1 83 3d 1a 39 1c 3d 21 bc d6 bb
       0.11524795 0.06439404 0.038140394 -0.0065531884
000110 5b ab d5 3d 60 95 2f 3d 43 46 80 3d af 59 b6 3d
       0.10433074 0.042867064 0.06263401 0.089038245
000120 ac 54 1f bc 91 55 d1 3c cb b1 6c bd 88 e6 76 bd
       -0.009724777 0.025553497 -0.057786744 -0.060278445
000130 e8 cf c8 bc 75 cb 44 bd 4a 43 0a 3c 8a bd c8 bc
       -0.0245132 -0.048045594 0.0084388945 -0.024504442
000140 49 d2 6d bd 5e 24 b5 3d 23 99 ac bd fd f6 41 3c
       -0.05806187 0.08844827 -0.08427646 0.011838672
000150 70 a4 d3 3c 34 bc e4 bd ff db f2 3b c9 37 c2 bc
       0.025835246 -0.111687094 0.0074114795 -0.023708241
000160 16 68 c0 bc dc 12 7c bd ea 32 a2 3d d0 63 ae 3d
       -0.023487132 -0.061541423 0.07919867 0.085151315
000170 1b 26 bf bd 01 69 95 3c 4c 56 91 3c 37 08 a0 bd
       -0.0933344 0.018238546 0.017741345 -0.07814067
000180 52 84 0c bd 15 91 13 3d 4c 6f cd bc a1 c5 42 3d
       -0.034305878 0.036027033 -0.025077485 0.047551755
000190 47 8f 9d bd a0 e0 88 bd eb 40 3e bd ce 06 ec bd
       -0.076933436 -0.06683469 -0.04644863 -0.115247354
0001a0 c2 10 04 be b7 f0 49 3d 61 51 18 3d bf 1c c8 bc
       -0.12897018 0.04930183 0.037186984 -0.02442777
0001b0 9a c4 d0 3d 8f b7 11 3e 85 89 04 3e df da 9d bc
       0.10193749 0.14230178 0.12943085 -0.019269405
0001c0 e5 7e 04 3e aa 49 af 3c eb b3 78 3c 47 de 8d 3c
       0.12939031 0.02139743 0.015179615 0.017317904
0001d0 f2 fc ac bc 8b d0 35 3c 5c a3 2f 3c ed 5f ae bc
       -0.021116707 0.011097084 0.0107201 -0.021285975
0001e0 07 1b 0f bc 52 e8 28 3d 15 75 1c bd 1e e3 d0 3c
       -0.008734471 0.041237183 -0.038197596 0.025498923
0001f0 ef a0 ff 3c 7d f3 43 3d 55 49 ca 3d a1 67 19 bc
       0.031204669 0.04783963 0.09877268 -0.009363086
000200 d8 8b 55 bd d8 78 5b 3d 69 e6 50 bd 61 21 58 bd
       -0.05213532 0.053582042 -0.051000986 -0.052766208
000210 93 be c1 bc 35 84 aa 3c e7 90 d0 bd a0 3c 5a 3b
       -0.023650443 0.020814994 -0.10183888 0.0033300295
000220 80 4c 20 bd fd 24 4f 3d 88 ac ba bc 98 e5 d4 bc
       -0.039135456 0.050572384 -0.022787347 -0.025988385
000230 61 60 50 bd 2a 4a c8 3c 38 17 81 3b 18 1c 3e bc
       -0.050873164 0.024449427 0.0039395355 -0.011603378
000240 fc a1 82 3d 6b 2f 5c 3e 1f ec 3e 3e ba bd ac 3c
       0.06378552 0.21502464 0.1864476 0.021086562
000250 88 3b a5 3d ad 9a f0 3d 75 17 ae 3c 00 f0 b0 3d
       0.08067995 0.11748252 0.02125142 0.08639526
000260 8e 89 e9 3d d1 6d 8d 3d 26 68 ad 3d 34 9c 97 bd
       0.114031896 0.069057114 0.0846713 -0.0740284
000270 f6 82 ec 3c ec 40 39 3d b5 6d 8c bd 9f a8 c4 3a
       0.02887104 0.04522793 -0.068568625 0.0015003866
000280 63 da 91 3c 79 27 39 bd c6 33 ae bc b6 ea 8f bd
       0.01780433 -0.04520366 -0.021264922 -0.070271894
000290 0b c6 8d bd 21 11 cb 3c a8 23 27 bd 63 68 f8 bd
       -0.06922539 0.024788441 -0.04080549 -0.12129285
0002a0 c2 f4 72 3b 67 30 c8 bd b6 61 4a bd c1 62 33 bd
       0.0037072157 -0.09774857 -0.04940959 -0.04379535
0002b0 17 04 7a 3b 90 0e 1e 3d 68 65 c3 3c 25 67 77 bd
       0.003814941 0.038588107 0.023852065 -0.0604011
0002c0 b5 d3 b1 3b 20 7c 8e 3b 35 c5 7a bd 39 c7 82 3c
       0.005426849 0.004348293 -0.061223228 0.015964137
0002d0 9d 2d 0c bd 74 a0 8a bc b0 29 f0 3c 61 6f 0d bd
       -0.034223188 -0.016922213 0.029316753 -0.034530047
0002e0 ac 3b 99 bd 2f 95 e9 bc 2d 3e 0c 3b 86 56 55 bd
       -0.07482085 -0.02851352 0.0021399364 -0.05208447
0002f0 4a 83 ca bc 7c 9e 93 3d ac 23 c9 3d be 3c 02 bd
       -0.024720807 0.07207963 0.09821257 -0.03179621
000300 47 57 ce b9 8d 87 6c 3c 0f 28 fe bc 23 15 52 bd
       -0.00039356409 0.014436615 -0.03102496 -0.05128969
000310 9d 12 8d 3c 43 b0 f1 bd fd 7f df bc 4b d6 c6 bd
       0.01722079 -0.118011974 -0.02728271 -0.09708842
000320 74 58 15 bd 82 21 7b bd b4 bd df bd ab 31 11 bb
       -0.03646131 -0.061311252 -0.10924855 -0.0022154849
000330 62 91 5b bd 94 da 3e bd a4 4a b8 3c 95 83 2f 3d
       -0.053605445 -0.04659517 0.022496529 0.042850096
000340 ef b4 88 3c be 6f 9d 3d 1d fd b2 3c 21 20 26 bd
       0.016687838 0.07687329 0.02184921 -0.040557984
000350 57 13 67 bc 28 d1 99 bc 9b d0 bb 3d 76 d7 8c 3c
       -0.014103732 -0.018776491 0.09170648 0.017192584
000360 4d 97 5d 3d 41 39 69 bc 4f ba 4c bd 9a 05 9d bc
       0.05409937 -0.014234842 -0.049982365 -0.01916771
000370 a5 e0 80 bd ea 3c 9b bd f5 8c 21 bc 2e 5f 2e 3d
       -0.062928475 -0.07579978 -0.009860267 0.04257124
000380 5c 6d 36 bc 3f 4b 16 3d 1f 14 fe bc a0 cf 3f 3b
       -0.011134472 0.036692854 -0.031015454 0.0029268041
000390 3e 7a be bc 0f 06 70 bd fe d9 8a 3c 4a d4 92 bc
       -0.023251649 -0.058599528 0.01694965 -0.017923493
0003a0 65 3f 4d 3d 15 fc 6a 3d 9d 17 c9 3d 98 e2 6f 3b
       0.050109286 0.05736931 0.09818957 0.0036603566
0003b0 10 3b e5 3a aa 93 c6 3c 50 99 2a bd 55 26 8d 3a
       0.0017488915 0.024240334 -0.041650116 0.001076887
0003c0 f8 96 38 ba 24 84 04 3d d2 96 14 bd 50 22 13 3c
       -0.0007041539 0.03235258 -0.036276646 0.008980349
0003d0 43 fd 3d 3d c3 cc 96 bc 62 49 ea bb 1a f0 33 bd
       0.046384107 -0.018408185 -0.007149861 -0.04393015
0003e0 17 7e 04 bd e3 db 9e bb e6 0d 96 bc e2 de a5 bc
       -0.03234681 -0.00484799 -0.018317174 -0.02024788
0003f0 45 32 a0 3c d0 24 5e 3b 2b c0 cc 3d 2f 5c f1 bc
       0.01955522 0.0033896454 0.09997591 -0.029462902

cnn3.bias f4 [32]
000000 f3 fa 8a 3c 26 58 2e 3d e6 47 c2 bd 26 55 93 bc
       0.016965365 0.042564534 -0.0948637 -0.017984938
000010 e8 0a 05 3d dd 35 d5 bc 68 84 09 bd e4 76 e7 3d
       0.032481104 -0.02602666 -0.033573538 0.113019735
000020 f0 fa 21 bc 84 49 79 bd 2e 07 23 3c 28 99 d2 bc
       -0.009886488 -0.060861126 0.009950442 -0.025707796
000030 7b a9 5c bc 3d d2 51 3d 9c d0 97 bc f8 22 00 3e
       -0.013468142 0.05122589 -0.01853209 0.1251334
000040 18 f4 90 bd 48 e9 9c 3b 59 a5 2d bd f2 3c 82 bd
       -0.07077807 0.0047885515 -0.042394016 -0.06359281
000050 8d 4d 91 bd 5d d6 f3 bc 57 64 8f bd 61 39 77 bd
       -0.0709487 -0.029765302 -0.0700156 -0.060357455
000060 d2 09 d3 bb 0b 5d 0f bd 61 2b 88 bd 31 d7 e4 3c
       -0.0064403797 -0.035000842 -0.06648899 0.027934643
000070 37 85 08 bc 72 49 c6 3d 25 ef b1 3c 37 c4 1a 3e
       -0.008332542 0.09681977 0.021720478 0.15113913

fc1.weight f4 [128, 768]
000000 05 49 db bc a7 35 cb 3c 82 6e a1 3c f6 91 72 3c
       -0.026768217 0.024805857 0.019706015 0.014805308
000010 ef 9b fb 3c 08 54 03 bd 69 18 42 bd 25 dc 80 3c
       0.030714003 -0.03206256 -0.04738656 0.015729973
000020 de 13 91 bc 68 6b 33 bc 7c 37 c3 bc 80 b6 0c 3a
       -0.017709669 -0.010950901 -0.023830168 0.0005367771
000030 f8 8c d8 ba 99 01 33 3b 1a 91 1e bc dc 43 9d 3c
       -0.0016521504 0.0027314185 -0.00967815 0.019197397
000040 fd 3c fb 3b 34 de 41 bc 82 e3 2e bc 24 54 35 3c
       0.0076671825 -0.0118327625 -0.010674359 0.011067424
000050 fe eb be bc ba c7 89 3c 10 98 e7 bc 6e 1f 4f bc
       -0.02330589 0.01681887 -0.028270751 -0.012641771
000060 af 58 16 bd 9b ff e4 bb 7f 84 15 bd 71 95 0f bc
       -0.03670567 -0.0069884784 -0.03650331 -0.008763657
000070 ab e2 3a 3b d9 96 fc bc c0 90 9b bc b3 0e f1 3c
       0.0028516452 -0.030833649 -0.01898992 0.029425954
000080 6e 3e 20 bd 20 76 81 3c 23 6c 27 3d 74 61 45 bc
       -0.039122038 0.015803397 0.04087461 -0.01204716
000090 9a 99 d5 3c ef 68 0f 3d b8 f4 02 bc 6c 36 af ba
       0.02607422 0.03501218 -0.007992916 -0.0013367659
0000a0 00 0f 21 3c b0 35 0f bc fe 11 be 3c ac 93 57 bd
       0.009830236 -0.008740827 0.023201939 -0.052631065
0000b0 8a e0 27 bd e1 45 92 3c ce fd fd bc eb ce 2d bd
       -0.04098562 0.017855586 -0.031004813 -0.04243366
0000c0 07 2f 26 bd fc 01 34 3c 40 8e 02 bd bb fe 06 bd
       -0.040572193 0.010986801 -0.03187394 -0.032957774
0000d0 b1 a7 1c bd 76 0d b3 bb 34 24 05 3c 2c 4d 79 bc
       -0.03824586 -0.005464251 0.008126307 -0.015216153
0000e0 92 93 0a bc 90 2f af bc 91 57 1a 3c 4f fc e8 3c
       -0.008458035 -0.021384984 0.0094202915 0.028440623
0000f0 dd b2 0c bd 44 0a 95 bc 62 cf f7 bc f1 80 3e bd
       -0.034350265 -0.018193372 -0.030250255 -0.046509687
000100 27 e7 bf 3c df 95 4b 3c 46 61 6e bc b9 b8 23 bc
       0.023425652 0.012425869 -0.014549559 -0.009992772
000110 c8 5c 1b bd c3 a1 9d 3c 7c 67 ad 3c 42 0c 0f bd
       -0.03793028 0.019242173 0.02116751 -0.0349238
000120 28 49 fb bb 30 9e 52 3c 71 c8 c3 bc 46 0c 91 bc
       -0.007668633 0.012855098 -0.023899289 -0.017706048
000130 36 d8 e8 3c 19 21 8c 3c 6d f7 be 3c d5 db 9c 3b
       0.02842341 0.017105626 0.023311341 0.004786948
000140 a1 69 91 ba 1b e8 e0 3b 9b da 80 3c 96 af b5 bc
       -0.0011094102 0.0068636066 0.01572924 -0.022178452
000150 87 ed 02 bd 7c ae d1 3c 12 db 92 3a a6 e1 23 bc
       -0.031964805 0.025595896 0.0011204204 -0.010002529
000160 31 d9 da 3b b3 91 c1 bc e5 a2 32 bb 8f 70 e0 bc
       0.0066787233 -0.023629045 -0.0027257737 -0.027397422
000170 61 c2 03 bb 3d 51 21 bd 7a 85 21 3b 53 80 02 3d
       -0.0020104873 -0.039384115 0.0024646209 0.03186066
000180 0a 85 c3 3c e2 7d 01 bd 5b 7e 3e 3b 32 ae 93 3b
       0.023867149 -0.03161419 0.0029067013 0.0045068497
000190 f4 8c 49 ba 4a 28 9b 3b 9f 56 bd bc 4f 59 07 bc
       -0.0007688545 0.0047350274 -0.023112593 -0.008261039
0001a0 22 9e 1c bd 8a bf 47 bc 13 07 89 bc 01 99 da bb
       -0.038236745 -0.012191663 -0.016727006 -0.0066710715
0001b0 cd b5 65 3c 07 01 f0 bb db 1b 87 bc e8 93 14 bd
       0.014020395 -0.007324341 -0.016492775 -0.036273867
0001c0 5a f8 09 3c e2 21 22 3c 74 78 3b 3c e1 b2 e5 bc
       0.008421028 0.009895774 0.0114422925 -0.028039398
0001d0 1f 1e 6a 3c 1e 51 03 3a 87 1d 90 bc 2f f8 e8 3a
       0.014289408 0.0005009341 -0.017592205 0.001777416
0001e0 83 03 e8 3c 5d f6 21 bd 34 93 be 3b cd 8a 3a 3c
       0.028321987 -0.03954159 0.005815888 0.011385632
0001f0 54 71 ff bc cc 32 20 bc 00 ed e2 3a 7c cc 06 bd
       -0.031181969 -0.009777736 0.0017313063 -0.032909855
000200 ab 04 19 3d 66 34 a0 3c a5 b1 4c 3c 4b c0 8c 3b
       0.037357967 0.019556236 0.012493526 0.004295384
000210 d0 35 ce 3c 3d a0 4c 3b 1a a1 86 bc da 3c c5 bc
       0.025172144 0.003122344 -0.016434241 -0.024076868
000220 d2 01 06 bd 28 c4 3d 3c 26 ce 80 3c e0 89 d9 3c
       -0.03271658 0.011582412 0.0157233 0.026555002
000230 cf 45 8f 3b bc 91 9b 3c 98 8f 42 3b 0d 24 04 bd
       0.0043723355 0.01899039 0.002968764 -0.032260943
000240 52 93 c5 bc 70 dd 4b 3c b0 5b 0b 3d c0 48 e0 3c
       -0.0241181 0.0124429315 0.034022987 0.02737844
000250 30 11 31 3b a2 3a 40 bc cc 05 dd 3c 46 e7 10 3d
       0.0027018301 -0.011732729 0.026980303 0.03537681
000260 b6 e2 0d 3d c0 0f 20 3c 32 a3 b1 3c 74 da c6 bb
       0.034640037 0.00976938 0.021684263 -0.006068522
000270 66 c4 a6 bc 0c fc f0 bb f4 25 0b 3d f4 e7 0d 3d
       -0.020357322 -0.007354265 0.03397174 0.034645036
000280 44 39 81 3c 40 75 92 3c 64 64 1c 3c 77 70 a4 bc
       0.015774377 0.017878175 0.009545419 -0.020073159
000290 7c 5a fd bb a5 95 06 3d 4e 1b f9 bc fa 48 44 bc
       -0.007731734 0.032857556 -0.030408528 -0.01198029
0002a0 0b 46 63 bc 6b 35 3b 3c bb ab e7 ba f2 84 ee bb
       -0.01387168 0.01142631 -0.0017675081 -0.007279032
0002b0 ea db 63 3b d9 d9 44 bc 5b 42 71 bd 8c d1 8d bc
       0.003476853 -0.01201483 -0.058901172 -0.017311834
0002c0 75 63 d2 3c d2 f1 9e bc ec 79 ae bc 03 bf 24 bd
       0.02568219 -0.019402418 -0.021298371 -0.040221225
0002d0 6e bd f4 bb ee 7a 10 bd df 0a a6 3c fa 58 2d 3a
       -0.007468871 -0.035273485 0.020268856 0.0006612685
0002e0 a4 ac 37 bd f9 10 2f bd d7 b9 17 bc d2 71 28 bd
       -0.044842377 -0.042740796 -0.009260616 -0.041124173
0002f0 63 46 7f bb 5b 7d ad bc 38 50 16 3c 24 d2 2e bd
       -0.0038951866 -0.021177938 0.009174399 -0.042680874
000300 df 3c 0a 3b ff 62 8e ba 8f 48 a7 bb ec 91 07 bd
       0.002109341 -0.0010863243 -0.005105085 -0.033098146
000310 2c 4f 00 bd b0 bc ec 3c 1c 3e c7 ba 51 a7 32 bc
       -0.031325504 0.028898567 -0.0015201005 -0.010904149
000320 fc 6f f5 bc 51 95 4a bc 3b b4 31 3c 04 44 f8 bc
       -0.029960625 -0.012364701 0.010846193 -0.03030587
000330 be ed ab bc a9 81 ad bc 16 46 00 bc dd b7 59 bc
       -0.020987388 -0.02117999 -0.00782921 -0.013288465
000340 e2 69 9e 3c 97 fd b5 bc 22 60 30 3c 77 f6 11 bc
       0.019337598 -0.022215648 0.010765107 -0.008908859
000350 ab 0d a6 3c 45 d8 0d bd 64 82 03 3d c0 44 da 3c
       0.02027019 -0.03463008 0.032106772 0.02664411
000360 47 11 0d bd bd fa 17 bd 7a d9 18 bd d0 4f c5 3c
       -0.034440305 -0.037104357 -0.037316777 0.02408591
000370 ea 31 10 bc 19 6f 5e 3c cf d7 04 3d 05 53 13 bd
       -0.008800963 0.013576292 0.032432374 -0.035967845
000380 83 a0 8d bc e7 b4 59 bc 09 e1 92 3c 19 0b 8a 3c
       -0.017288452 -0.013287759 0.01792957 0.016850995
000390 5e 74 d1 bc 92 14 c2 bc 27 b8 ca 3c d8 64 06 3d
       -0.025568184 -0.02369145 0.024746014 0.032811016
0003a0 eb e2 e9 3b f1 0d 96 bc d9 34 40 3c eb 4a db ba
       0.0071376464 -0.018317195 0.01173135 -0.0016730701
0003b0 45 8d a6 bc e4 2e bf 3c 82 4c 1c bd 61 7b db bc
       -0.020331034 0.023337789 -0.0381589 -0.02679223
0003c0 19 24 b2 3c 5e c4 98 3a 83 11 00 3d f4 c4 15 bd
       0.021745728 0.0011655202 0.0312667 -0.036564782
0003d0 50 83 2b 3c b4 d2 08 3d 6b 7f 2b 3a 1a 3f 37 3c
       0.010468319 0.033404067 0.0006542119 0.011184478
0003e0 b6 40 f8 bc 0f d7 0e bd ec 14 08 3c c5 1a a5 3c
       -0.030304294 -0.034873065 0.008305769 0.020154366
0003f0 8f 0b 9f bc 00 09 e3 bb 1c 10 e9 3c d1 c9 00 bd
       -0.019414691 -0.006928563 0.028450064 -0.031442467

fc1.bias f4 [128]
000000 0b ae c7 3c a0 90 11 bc e9 a3 86 3c 62 15 25 bd
       0.024374982 -0.008884579 0.01643558 -0.040303595
000010 e1 07 d3 bc ee 01 eb 3c 18 76 fb bc 81 70 27 bd
       -0.025760593 0.028687444 -0.03069596 -0.040878776
000020 fb e3 99 3b b6 6f 7d 3c 24 97 ab bc 84 0c e6 bc
       0.004696367 0.0154685285 -0.020946093 -0.02808214
000030 cd 34 19 bd 42 03 0d bd 38 38 1b bd 29 4e 6f bc
       -0.03740387 -0.034426935 -0.03789541 -0.014606037
000040 69 13 17 bd b2 16 a3 bc 67 54 82 3d 94 5b ff ba
       -0.036883745 -0.019908283 0.06363755 -0.0019482248
000050 02 94 a7 bb a7 67 cc 3d 57 e1 2f bd f2 50 a7 3d
       -0.0051140795 0.099807076 -0.04293951 0.08169736
000060 db 3a 45 bd 3e 9a 19 39 26 c9 ba bb a1 5d f0 bc
       -0.048151832 0.00014648677 -0.0057002483 -0.02934152
000070 69 23 df bc 0e 2c 8d 3c e2 42 12 bd e5 7d aa 3c
       -0.027238565 0.017232921 -0.035708316 0.020811984
000080 3c 1e 0e bd 0b 22 97 3c 45 11 07 ba df ae 35 bd
       -0.034696802 0.01844885 -0.00051524147 -0.044356223
000090 e9 da cc bc be 6c 20 bd 95 6b b7 bc c7 ed 51 3b
       -0.025006728 -0.039166205 -0.022390166 0.0032032595
0000a0 d5 da a8 3c 4e b2 c7 3d bb b1 04 bd 70 4c c6 bc
       0.02061216 0.09750806 -0.03239606 -0.02420637
0000b0 54 66 9d bc 11 18 13 bd fc d6 d1 3b 0e 84 cd 3b
       -0.019213833 -0.035911623 0.006403802 0.0062718457
0000c0 66 f8 11 bd 48 ad f0 3c a8 cc 0a 3d f6 3d d5 3c
       -0.03563728 0.029379502 0.03388658 0.026030522
0000d0 24 1d bc 3b c3 b1 c2 3d df 91 ee bb d4 13 14 bd
       0.0057407785 0.095065616 -0.007280573 -0.036151722
0000e0 a5 97 10 bd ba 2c fd 3b 25 f6 8d bc 40 7e b6 bc
       -0.03530087 0.007726279 -0.017329285 -0.022276998
0000f0 0c 93 29 bd 49 cc bb 3d 38 28 0b bd 58 b2 cc bc
       -0.0414 0.09169824 -0.033973902 -0.024987385
000100 a5 38 80 bc 1a 56 cf 3c 86 9b eb 3d 21 1b ae bb
       -0.01565201 0.025309611 0.11504273 -0.0053132926
000110 2e 72 42 3c ee 32 8c 3c 8f 1a cf bb 4c b5 a3 3b
       0.011868043 0.017114129 -0.0063203047 0.0049959775
000120 fe 5c 10 bc f0 fe 37 3c 93 39 52 b9 e1 61 3f 3c
       -0.008811234 0.011230215 -0.00020048609 0.011681051
000130 bf d6 1c b7 f2 8f 10 bd eb c5 24 3c c7 30 96 bb
       -9.348324e-06 -0.035293527 0.010056953 -0.0045834514
000140 94 f1 8c bc e9 9e df bb ed b3 e9 3b c8 e6 aa 3c
       -0.017205037 -0.0068243635 0.0071320445 0.020861998
000150 4b 82 05 3c e4 db df 3c 97 ac ec bc 22 84 d5 bc
       0.00814874 0.027326532 -0.028890891 -0.026063982
000160 81 4a 1a bd 8c da ab 3d 8c 76 81 bd 18 ac e9 3d
       -0.03766871 0.08391294 -0.06321439 0.114097774
000170 04 41 29 3c f3 53 b0 bc bd ab d9 ba 17 75 24 bd
       0.010330442 -0.021524405 -0.0016606968 -0.040150728
000180 8b e0 e0 3a e6 51 90 bb ca c3 e2 bb 4d a8 35 3c
       0.0017156763 -0.0044042943 -0.0069203125 0.011087489
000190 ce e8 13 bd 01 13 2e bc 70 13 01 ba 8b 18 91 3c
       -0.03611069 -0.010624648 -0.0004923856 0.017711898
0001a0 e1 a9 90 3a da a3 77 bc c8 e2 1b bd 9c 13 84 bc
       0.0011036956 -0.015114749 -0.038058072 -0.016122632
0001b0 d0 ef f2 3d 46 7b 56 3c e1 73 ff bb cf 2e 53 bc
       0.11862147 0.013090914 -0.0077957963 -0.012889578
0001c0 b5 6a d8 3d 36 0f ae 3c 1e c7 75 bd 94 f7 f8 bc
       0.10567228 0.021247488 -0.060004346 -0.030391492
0001d0 f4 49 2b 3c bf 65 8e 3c 2c fb af bc de 54 6a 3d
       0.0104546435 0.0173825 -0.021482073 0.057209842
0001e0 e2 fd 68 bd f4 dc 42 bc 6a f9 4e bc 97 0d 4c bd
       -0.056882747 -0.0118935 -0.012632707 -0.049817648
0001f0 e3 0e ff 3d 5c 18 29 bd 14 92 07 3d 6b 80 6f bd
       0.12454011 -0.041282997 0.033098295 -0.05847208

fc2.weight f4 [128, 128]
000000 bd 2d b2 bd ce 7d 71 bd 6b e0 82 bc d8 31 38 bc
       -0.0870013 -0.058957867 -0.015976151 -0.011242352
000010 36 6e f5 3c 3d 53 79 3d 8b 16 22 bd 69 42 55 3d
       0.02995978 0.060870398 -0.03957228 0.052065287
000020 ce 6c 06 bb 3d b2 08 3d 3d 65 e2 3c a1 8a 04 bd
       -0.002051163 0.033373106 0.027636165 -0.03235877
000030 74 35 aa bd 94 4a 0f 3d dd e7 a7 3d d3 fc 3c bd
       -0.083109766 0.034983233 0.08198521 -0.04613955
000040 73 8e 3c bd 5e 31 ef 3c 69 27 2e 3b 0e e0 2b 3d
       -0.046034288 0.029198345 0.0026573783 0.041961722
000050 4f a9 af 3d 59 85 7d 3d d2 aa 89 3c f7 57 38 bd
       0.08577215 0.06189475 0.016805086 -0.045005765
000060 7e cb 58 3d 80 ef 18 bb f3 04 86 3d 96 4e cd bb
       0.05292844 -0.0023336112 0.06543913 -0.0062654717
000070 18 6a 68 bc 55 a0 06 bb 99 f0 b7 3d 3e 90 62 3d
       -0.014185451 -0.0020542343 0.08981437 0.05531334
000080 a2 ee a3 bd de 2d 2d bd c7 df a1 3d af b4 cd bd
       -0.080045 -0.04228007 0.0790401 -0.10044228
000090 3c e6 b0 bd 76 78 b3 3d 03 c3 ab 3d 0d 14 83 bd
       -0.08637664 0.087632105 0.08386805 -0.06400309
0000a0 c0 5c 83 bd 4b b6 99 bd 64 30 cf 3c 5c c4 e8 bb
       -0.06414175 -0.07505473 0.02529163 -0.007103486
0000b0 27 7d 1e bd e9 ca 9b 3d a6 db 64 3d 41 76 a7 3c
       -0.038693573 0.076070614 0.055873536 0.02044213
0000c0 8a e0 53 bd 2c b7 a2 bd 6c 63 07 bc d0 39 27 3d
       -0.05172781 -0.079450935 -0.00826345 0.04082662
0000d0 72 b3 56 3d 2c 6a e7 3d 28 49 38 bc 54 24 b5 3d
       0.052417226 0.112995476 -0.011247911 0.0884482
0000e0 20 3a fa 3c 24 81 d0 bc 90 a4 34 bc 3f b2 9b bd
       0.030545294 -0.025452204 -0.011025563 -0.07602357
0000f0 7c 52 a2 bc 4f 23 cf 3d b9 b1 b0 bd 0d 89 ce 3d
       -0.019814722 0.101141565 -0.08627648 0.10084734
000100 c2 72 0d bd 00 cc 13 3d 04 cb f0 3d fa 17 19 bd
       -0.03453327 0.03608322 0.11757472 -0.03737638
000110 81 e1 6e 3d 0c 6b 7d bd 18 33 28 3d 07 b5 b1 3d
       0.058320526 -0.061869666 0.04106435 0.08677106
000120 3e f8 3d bd 20 2f 6b 3c 00 0b d1 3a 3a 66 17 3d
       -0.04637932 0.014354497 0.0015948713 0.036962725
000130 58 0f c3 3c 9b b5 1b 3d 40 ce eb bb 84 53 ba bc
       0.023811027 0.03801499 -0.007196218 -0.022744901
000140 3b fa 22 bc e3 e8 9c bd 23 4d 53 bd 54 f4 b9 3b
       -0.009947355 -0.07661607 -0.051587235 0.005674878
000150 08 74 a3 bd 97 01 72 bd 61 3e 83 bd 4a f5 19 3d
       -0.079811156 -0.059083547 -0.06408382 0.03758744
000160 a7 40 67 bd c8 a6 25 be 01 91 2d bd 63 94 7f bc
       -0.05645814 -0.16176903 -0.042374615 -0.015599343
000170 82 14 35 3d 2a 7f 70 3d b9 02 00 3d 70 68 91 bd
       0.04420901 0.058715023 0.031252597 -0.07099998
000180 25 e8 42 3c b8 0e 3d bd 3e 83 4d 3d fe d1 1e 3d
       0.011896168 -0.046156615 0.05017399 0.038774483
000190 9c ac 0e 3d cc 2d 17 bd 9d 0c 87 3d 15 7c 9f 3d
       0.034832582 -0.03690891 0.06594203 0.07787339
0001a0 14 eb cb 3c f6 64 45 3d e8 46 12 3c 79 22 22 bd
       0.024892367 0.048191987 0.008928038 -0.039583657
0001b0 b0 27 36 3d 32 e4 95 bd d0 90 bb bc 90 aa db 3c
       0.044471443 -0.073189154 -0.0228962 0.026814729
0001c0 18 c5 9a 3d 00 0b b9 bc 7d 14 71 bd c1 25 1b bd
       0.07557124 -0.022588253 -0.05885743 -0.0378778
0001d0 fd 96 88 bd d6 3d 98 bd de e5 ae bd a2 b0 a8 bd
       -0.06669424 -0.07433669 -0.085399374 -0.08236815
0001e0 5e 4d 38 3d d8 36 42 bc e7 4d 4f bd 21 9a 17 bb
       0.044995658 -0.011853896 -0.050611403 -0.002313264
0001f0 3f f5 9a 3d 60 bc b3 bc 2f 51 8c bd 67 2c 51 bd
       0.07566308 -0.02194041 -0.06851422 -0.051067736
000200 9e 0d 80 bd 3e f1 fe bc 8a e5 c2 bd 90 46 eb 3b
       -0.06252597 -0.031120893 -0.09516437 0.0071800426
000210 9b a4 a4 ba e8 62 86 3c 1f 91 cd bd 70 a8 3c bc
       -0.0012561263 0.016404584 -0.10037445 -0.011514768
000220 37 85 8e 3d 5b 0a 13 3d 28 d5 ae 3a fe 7c 17 3d
       0.069590025 0.035898548 0.0013338672 0.036984436
000230 06 8a f8 bc 90 2d 91 3b 26 2c 4a 3d 14 cb 63 bd
       -0.030339252 0.0044304803 0.04935851 -0.055613592
000240 a4 38 1e 3d 1c c5 19 3d 68 42 f9 bb 30 b8 bf bc
       0.038628235 0.037541494 -0.007606793 -0.023403257
000250 73 cf 07 bc 8e 6c da bc 9b ad 9a 3d e0 9c 65 bd
       -0.008289206 -0.026663091 0.07552644 -0.05605781
000260 51 c7 a8 3d be 50 5f 3d 08 e0 96 bd 05 77 2f bc
       0.082411416 0.05452036 -0.07366949 -0.010709529
000270 07 ce 9c bd 4a e8 3f 3d 31 f0 a9 3d bc 60 f1 bc
       -0.07656484 0.046852387 0.08297766 -0.029465072
000280 6b 23 0e bd dc c3 ba 3b 92 0e 0b bd 9f db bc bd
       -0.034701746 0.005699618 -0.033949442 -0.09221577
000290 0f bd 96 bd 69 77 3c bd 84 75 15 3d 85 21 a0 bd
       -0.07360279 -0.046012316 0.036489025 -0.07818893
0002a0 f1 5d 79 bd 79 df 88 3c b0 9f be bc ac a7 9b bd
       -0.060880605 0.016708123 -0.023269504 -0.0760034
0002b0 4f e5 63 bd b0 a0 ce bc 6f a6 a3 3c 99 3b 1a bc
       -0.055638608 -0.025223106 0.019976823 -0.009413623
0002c0 22 e3 89 bd 79 fb 97 3d c0 d6 9a 3c 2e 9d 3b bd
       -0.06732775 0.074210115 0.018901229 -0.045804195
0002d0 10 30 12 bc f9 ed d9 3d 23 1f 40 3d 12 1e 94 bd
       -0.008922592 0.10641093 0.046904694 -0.07232298
0002e0 97 7b 2a bd e0 8c 46 bc 88 a5 85 bd 4d 56 6a 3c
       -0.04162177 -0.012118548 -0.06525713 0.014302802
0002f0 be ac 8a bd a2 e8 5d 3d 50 e9 a3 bc 6e 46 cb bd
       -0.06771229 0.054176934 -0.020008713 -0.09925543
000300 f3 da 45 bd 51 ef cf 3c 35 a9 07 3d cc 4a 2f 3d
       -0.04830451 0.02538267 0.033120353 0.04279594
000310 42 17 cf bb ac 72 bb 3c ae 73 c6 bc 28 5e e3 3c
       -0.006319911 0.022881828 -0.024225082 0.027754858
000320 99 1b 8e bc db 4b 25 bd c4 11 86 bc 20 6d 74 3c
       -0.017347144 -0.040355545 -0.016365893 0.014918596
000330 7d 48 8f bd 98 54 b4 3c a3 14 20 bd cb d4 85 3d
       -0.06996248 0.022012994 -0.03908218 0.06534728
000340 b7 55 0b bc 52 9c 72 bc 4d c6 56 bd 72 3b 8a 3d
       -0.008504323 -0.0148077775 -0.052435208 0.067496195
000350 4c 59 0a 3d 5c b3 01 bd ea 24 9f bc 30 20 eb ba
       0.033776566 -0.03166519 -0.019426782 -0.001793867
000360 a2 da 4b bd 1a 81 b5 bd 10 b9 a4 bd dd 6c f8 3c
       -0.04976905 -0.08862515 -0.0804311 0.030325348
000370 e0 49 08 bc ee cc 3c 3d b9 5c dd bc 0c a2 ab bd
       -0.008318394 0.046093874 -0.027021753 -0.08380517
000380 15 9d 45 bd 55 70 92 bd ba de 4a 3d 88 44 3f 3c
       -0.04824551 -0.07150332 0.049528815 0.011674054
000390 b0 73 3e bd 58 1b d0 3c cf a4 8a 3d 8e f3 06 3d
       -0.046497047 0.025403664 0.06769716 0.032947116
0003a0 a0 18 33 bc a8 b0 65 3c 9a a1 75 bd 5a d7 32 3d
       -0.010931164 0.014019169 -0.05996857 0.043662407
0003b0 84 37 e9 3d 02 26 ff bb f2 48 13 3d d2 f7 1f 3d
       0.11387542 -0.0077865133 0.035958238 0.0390547
0003c0 1a b5 fc ba be 62 4e 3d 76 cd e9 bd 96 ae 4d bd
       -0.0019280047 0.050387137 -0.11416142 -0.050215326
0003d0 c8 24 60 3c 81 6e 88 3d 54 3a a6 bd a5 84 5e 3d
       0.013680644 0.06661702 -0.08116594 0.05432572
0003e0 7e 68 34 bc c5 61 8d bd 3d af 73 3d 9e 93 cd 3d
       -0.011011241 -0.06903414 0.059493292 0.10037921
0003f0 99 95 2a 3e dc 46 ad bd 98 5d ac 3d 97 c1 33 3d
       0.1665863 -0.08460781 0.08416289 0.043885794

fc2.bias f4 [128]
000000 62 e7 5f 3d 12 54 66 3d ae f2 76 3d a8 1b ab 3d
       0.054664023 0.05623252 0.06029003 0.083548844
000010 53 27 89 3d fb bb 93 3d 60 5f 35 3e b6 6a ee 3d
       0.066969536 0.07213589 0.17712164 0.11641447
000020 d2 ce 85 bd 6b 31 dd 3d b0 9a 4d bd cd be de bc
       -0.065335885 0.10800441 -0.05019635 -0.02719059
000030 ed e6 26 3e 05 07 e5 3c d7 ef bf bd a8 61 c3 3d
       0.16299029 0.027957449 -0.09371918 0.09540111
000040 3d 6d 92 3d 54 8f e9 3d 57 63 d1 3d 70 50 b0 bc
       0.07149742 0.11404291 0.10224026 -0.02152273
000050 d3 ab 89 bd 0e 6b c0 3d 75 83 06 3e e3 38 64 3e
       -0.06722226 0.09395419 0.13136084 0.22287326
000060 c3 21 18 3e 8b de 3e 3d a3 dd 01 3e e0 e9 28 3e
       0.14856629 0.046598952 0.12682204 0.16495466
000070 c3 89 10 bc af da 83 3c 54 5e b9 3d 3e 6b 55 3d
       -0.008821907 0.016095487 0.09051195 0.052104227
000080 19 71 49 3e 91 fc c2 bd f6 bd 5e 3e c3 c1 c5 3b
       0.1967205 -0.095208295 0.21752152 0.006035061
000090 c5 30 0d 3d 34 5e 4c 3e 67 6a 83 bd 54 93 fa bb
       0.03447034 0.1995781 -0.06416779 -0.0076469574
0000a0 d9 99 0e 3d 9b 8c eb bc b9 47 70 bc c9 3a 0d 3b
       0.03481469 -0.02875357 -0.0146655375 0.0021549931
0000b0 18 4e 4b 3e 58 e7 0f 3e 50 c3 95 3d e7 df ac 3c
       0.19854009 0.14053094 0.073126435 0.021102859
0000c0 20 de 02 be 36 d8 60 3c 51 87 03 3e 62 27 50 3d
       -0.12780046 0.013723424 0.12844588 0.05081881
0000d0 71 ad 45 3d 25 74 c0 3b 8e 71 55 3e 13 2f e7 3d
       0.04826111 0.0058732205 0.20844099 0.112882756
0000e0 29 ca 5c b9 eb 92 c3 3d 51 88 3c bd 10 18 28 3d
       -0.00021056145 0.09549507 -0.04602844 0.041038573
0000f0 1b 37 40 bc 0b 8d 46 bd 20 c2 4c 3e f8 76 6a bd
       -0.011731888 -0.048474353 0.19995928 -0.057242364
000100 2e 91 d0 bc af f0 a0 bd 27 47 69 bd 67 66 9b 3d
       -0.025459852 -0.07858407 -0.05695262 0.07587891
000110 6d 13 c5 3d d2 5f 10 3e f8 43 c8 3d 66 5e a5 3d
       0.09622846 0.14099053 0.09778589 0.08074646
000120 d5 2e 66 bd fa d3 c0 3d 44 7b f0 3a 9b 33 9b 3c
       -0.056197006 0.09415431 0.0018347283 0.018945506
000130 97 1b e4 3c c8 5b 6d 3d f9 9c 16 be 21 c1 e1 bc
       0.027845187 0.057948858 -0.14708318 -0.027557911
000140 9f 0f 0d 3d a3 0d 88 3d e4 e6 5b 3e 87 96 1d 3c
       0.034438726 0.06643226 0.21474797 0.009618408
000150 9a c5 29 3d a4 5a 16 bb f6 ea a0 bd 11 4e 08 3e
       0.041448213 -0.002294221 -0.07857315 0.1331103
000160 20 26 25 be 1f b4 45 3e e2 87 21 3e 43 00 3f 3e
       -0.16127825 0.19306992 0.15774491 0.18652444
000170 0c 2b f9 3c 71 3d 2f 3d a4 3a 1f 3d 68 32 36 3e
       0.030416034 0.042783204 0.038874283 0.17792666
000180 d1 c9 17 3d 55 cf 06 3c bd e4 bc 3c ad 43 ea 3d
       0.0370577 0.008228143 0.02305829 0.114386894
000190 40 8f 14 3b 46 b8 40 3d 85 f9 70 3b 38 9e 70 3d
       0.0022668391 0.047050737 0.003676982 0.05874464
0001a0 37 b5 d9 3d 14 3a 59 3e 2d b0 7b 3c e4 64 c9 3c
       0.10630267 0.21213561 0.015361828 0.024584241
0001b0 8b f6 50 3e b4 f3 2e 3e ce df 59 bd 23 2a b0 bd
       0.20406549 0.17085153 -0.053191952 -0.08601787
0001c0 63 fb a9 bd 03 7c 50 3e 50 21 df 3d d3 b0 65 3e
       -0.08299901 0.20359807 0.10895026 0.22430734
0001d0 7d b3 2c 3e f7 b2 81 3d b6 a5 98 3e fd 74 1e 3e
       0.16865344 0.06332963 0.29813927 0.15474315
0001e0 95 1c 28 3e d8 ef 59 3c f8 b3 23 3e 8f 84 b4 bd
       0.16417153 0.013301812 0.15986621 -0.08814346
0001f0 47 58 98 3e b1 b1 c5 3d 9a c2 7c bd b7 8e 53 bd
       0.2975485 0.096530326 -0.061709024 -0.051649775
