models/dqn_model_epoch_44000.pth (torch, 595624 bytes, 14 tensors)

cnn1.weight f4 [16, 4, 5, 5]
-0.19471392 0.04380789 -0.027109152 -0.19688323 -0.14293084 -0.19872382 -0.19391492 -0.28981775
-0.034815267 -0.056964908 -0.27288476 -0.16040105 -0.3790786 -0.14636536 0.037380178 -0.16614422
-0.21354936 -0.039996665 -0.25623095 0.012040188 -0.20993508 -0.25317857 -0.18861331 0.066618554
0.027854057 -0.014666661 -0.034043733 -0.094700456 -0.14215633 0.027750649 0.06425378 -0.027275465
0.025478773 -0.06674121 -0.07119548 -0.04712296 -0.13809103 0.016355366 0.13335842 -0.028364835
-0.10351045 0.02016505 -0.084780514 0.019703874 -0.1289066 -0.031758428 0.07477608 -0.041565157
-0.067028105 -0.08712567 0.08298438 -0.010232873 -0.13190563 -0.20574729 -0.025921904 -0.024361704
-0.08746176 0.17834026 0.049563102 -0.15425403 0.23000501 0.2315263 0.12872952 0.030340584
-0.2103752 -0.2827767 0.15669115 0.28166357 -0.13081077 -0.16662787 -0.16016933 -0.01608598
0.31791306 -0.13170071 -0.15254521 -0.09354025 -0.24447119 -0.09009966 -0.0051199957 -0.06630878
-0.041843925 0.11018724 0.14871842 -0.09420886 0.033664033 -0.16302626 0.07331259 0.080647886
-0.09355052 -0.08246238 -0.12846684 -0.0061967494 0.074530296 -0.024515688 -0.1185264 0.09033549
0.11952943 -0.18209143 -0.07009537 -0.059834912 -0.118623845 -0.26090306 -0.17691992 0.03402715
-0.22612764 -0.12623002 -0.081932575 -0.0052951626 0.00036489702 0.005311164 -0.13678043 -0.04642506
0.01572445 -0.06002347 -0.062094033 -0.1557078 -0.22647938 -0.17568973 -0.37019864 -0.05813115
-0.2578676 -0.22136799 -0.096395984 -0.07029956 -0.12491592 -0.046208084 0.083582476 -0.05807765
0.035417013 -0.13151105 -0.015937647 -0.03842995 -0.10780199 0.023177763 -0.0023429194 -0.02028153
-0.05008458 -0.14270267 -0.048352957 -0.025728429 -0.13629596 -0.024778161 0.05109317 -0.048712496
-0.1066837 -0.002436285 0.032799006 -0.06863371 0.103839695 -0.113590136 -0.19028814 0.17226869
-0.05450984 0.15435389 -0.14779395 -0.18645772 0.17914107 -0.20418927 0.081888765 -0.15702397
-0.27318177 -0.25036457 0.089064956 0.096740864 -0.2103465 -0.2463731 -0.1374721 0.25961614
-0.1890627 -0.23325515 0.3874282 0.29685888 0.4125626 -0.05637029 -0.16550994 0.20710196
0.13342203 0.23725553 -0.017288 -0.0822677 0.11700492 -0.11959464 0.15209587 -0.12916552
-0.10975695 -0.16455486 0.09263952 0.0631451 -0.0811928 -0.15312056 -0.16714093 -0.02875428
-0.083874255 -0.12516043 -0.040349253 -0.13478188 -0.11802027 0.18280746 -0.1280727 -0.1392238
-0.29887724 -0.0748343 -0.3448805 0.04851228 -0.18169178 -0.22287717 -0.15753746 -0.19040011
0.03844554 0.0047602723 -0.24241608 -0.2185071 -0.122495845 0.028280707 0.17639634 -0.24853852
-0.22890702 -0.2898774 -0.15787682 0.13426995 -0.24367015 -0.13000664 -0.23907378 0.052262258
-0.06510674 -0.13001373 -0.011955924 -0.13948403 -0.08606773 -0.03679695 -0.004553378 -0.022457032
0.062334657 -0.09150601 0.027942954 -0.014770729 0.024628654 -0.012495811 -0.09937162 -0.004466921
-0.004035475 -0.08867944 0.009221457 0.18293165 -0.008406944 -0.08297673 -0.1497575 -0.056630287
0.09087355 -0.011969882 0.074989825 0.030809587 0.050822876 -0.39685062 -0.060948804 0.024331393
00000000: 1663 47be e76f 333d 0314 debc c29b 49be
00000010: 765c 12be 427e 4bbe a291 46be fe62 94be
00000020: 749a 0ebd 0954 69bd 8db7 8bbe 2c40 24be
00000030: 9716 c2be cde0 15be f51b 193d b621 2abe
00000040: afac 5abe 8bd3 23bd b430 83be 3544 453c
00000050: 39f9 56be 9fa0 81be d923 41be 4f6f 883d
00000060: 312e e43c 6f4c 70bc 7171 0bbd 50f2 c1bd
00000070: 6e91 11be 5455 e33c 7c97 833d cc70 dfbc
00000080: dcb8 d03c 9eaf 88bd f0ce 91bd 0104 41bd
00000090: bc67 0dbe b0fb 853c 1c8f 083e 5f5d e8bc
000000a0: 49fd d3bd 2d31 a53c 68a1 adbd 056a a13c
000000b0: 1700 04be 2015 02bd 3424 993d 3a40 2abd
000000c0: 0846 89bd f16e b2bd b7f3 a93d c8a7 27bc
000000d0: 4512 07be 6baf 52be 2c5a d4bc 3292 c7bc
000000e0: 271f b3bd d49e 363e ae02 4b3d c5f4 1dbe
000000f0: 6f86 6b3e 3b15 6d3e acd1 033e d18c f83c
00000100: 996c 57be 1cc8 90be a573 203e 3536 903e
00000110: 42f3 05be 7fa0 2abe 6e03 24be bfc6 83bc
00000120: 80c5 a23e 8ddc 06be d034 1cbe 0892 bfbd
00000130: a856 7abe 2c86 b8bd a3c5 a7bb e6cc 87bd
00000140: 8964 2bbd d9a9 e13d a449 183e 93f0 c0bd
00000150: 4ce3 093d 5bf0 26be e924 963d b82a a53d
00000160: 6a97 bfbd 09e2 a8bd d08c 03be 1a0e cbbb
00000170: 57a3 983d 20d5 c8bc f8bd f2bd d001 b93d
00000180: d9cb f43d 2d76 3abe 298e 8fbd 7415 75bd
00000190: 0ff1 f2bd 1695 85be 7f2a 35be 0e60 0b3d
000001a0: 018e 67be 7142 01be 44cc a7bd 0b83 adbb
000001b0: a64f bf39 4609 ae3b 2b10 0cbe 3428 3ebd
000001c0: 90d0 803c 2cdb 75bd 5056 7ebd de71 1fbe
000001d0: 36ea 67be 02e8 33be ad8a bdbe ee1a 6ebd
000001e0: 3907 84be 4aae 62be 426b c5bd 37f9 8fbd
000001f0: ebd3 ffbd b044 3dbd 4a2d ab3d d4e2 6dbd
00000200: 6e11 113d d5aa 06be ab8f 82bc b968 1dbd
00000210: 4ac7 dcbd 4bdf bd3c aa8b 19bb 7425 a6bc
00000220: 7d25 4dbd a620 12be c00d 46bd 6dc4 d2bc
00000230: 2b91 0bbe 92fb cabc 1247 513d c186 47bd
00000240: fc7c dabd 14aa 1fbb 4058 063d d58f 8cbd
00000250: e8a9 d43d f2a1 e8bd e5da 42be 3467 303e
00000260: b645 5fbd f20e 1e3e 4c57 17be c6ee 3ebe
00000270: c270 373e fe16 51be 4cb5 a73d e4ca 20be
00000280: 7bde 8bbe c92f 80be b067 b63d 1320 c63d
00000290: 1365 57be 3b49 7cbe 7cc5 0cbe 68ec 843e
000002a0: a799 41be 70da 6ebe fd5c c63e e3fd 973e
000002b0: 683b d33e 89e4 66bd 707b 29be 8912 543e
000002c0: c99f 083e 1df3 723e 909f 8dbc f87b a8bd
000002d0: 47a0 ef3d 09ee f4bd 05bf 1b3e f743 04be
000002e0: 40c8 e0bd 1281 28be cab9 bd3d 3852 813d
000002f0: 6948 a6bd a3cb 1cbe fe26 2bbe 198e ebbc
00000300: 44c6 abbd 0e2a 00be 4245 25bd 4304 0abe
00000310: 9cb4 f1bd e131 3b3e 7d25 03be af90 0ebe
00000320: 7006 99be ba42 99bd 2d94 b0be d0b4 463d
00000330: 690d 3abe ea39 64be 8051 21be 3ff8 42be
00000340: 1279 1d3d 0ffc 9b3b ec3b 78be 53c0 5fbe
00000350: 1adf fabd f1ac e73c 3ea1 343e e280 7ebe
00000360: 9a66 6abe d06a 94be 76aa 21be 107e 093e
00000370: ab84 79be 7620 05be c2cf 74be f310 563d
00000380: af56 85bd 5222 05be c8e2 43bc e7d4 0ebe
00000390: 4744 b0bd 66b8 16bd 8134 95bb cff7 b7bc
000003a0: a052 7f3d 8167 bbbd 9fe8 e43c ed00 72bc
000003b0: 08c2 c93c 3bbb 4cbc 5983 cbbd 405f 92bb
000003c0: 053c 84bb 919d b5bd 9815 173c 6f52 3b3e
000003d0: 47bd 09bc b4ef a9bd 085a 19be 29f5 67bd
000003e0: e91b ba3d 531d 44bc 4494 993d 6364 fc3c
000003f0: a62b 503d 0130 cbbe 74a5 79bd a152 c73c

cnn1.bias f4 [16]
0.054977562 -0.049991094 -0.07011584 -0.07403123 0.035844114 -0.07211565 -0.072164275 -0.0020753625
0.01631339 -0.12192917 -0.029240575 -0.07402834 -0.016003057 -0.08827769 0.024698827 -0.074226156
00000000: 2730 613d 76c3 4cbd e598 8fbd af9d 97bd
00000010: 47d1 123d 5fb1 93bd ddca 93bd ce02 08bb
00000020: a9a3 853c 00b6 f9bd ee89 efbc 2c9c 97bd
00000030: d818 83bc efca b4bd 3255 ca3c e203 98bd

cnn2.weight f4 [32, 16, 3, 3]
0.02623294 0.057708208 0.10405383 0.15584022 -0.019821089 -0.04163759 0.075290665 0.0171444
-0.051393773 0.17007132 -0.09831574 0.04076856 0.13250871 -0.07304539 0.11977565 0.15279146
-0.057345435 -0.07056843 -0.013150746 -0.028282933 -0.0009913301 -0.019467903 0.0055142855 -0.052848145
-0.058658324 0.015659641 -0.056185115 0.1041993 -0.07987662 0.017044801 0.16416419 0.034325358
-0.03191621 0.11209495 0.06109591 -0.088729955 0.063201055 -0.01927092 -0.019010637 0.10884436
0.015068775 0.066535264 0.09107565 0.02936092 0.090239994 0.095023066 0.06411068 0.06767436
0.124681875 0.06044284 0.025979854 -0.013533665 0.017151225 0.03620207 -0.055092417 0.03445868
0.07637717 0.007104573 0.030402685 0.06429712 0.044707682 0.03549282 0.10337992 0.05682072
-0.08300895 0.04857712 0.047058553 -0.047130156 0.100521475 -0.024668505 -0.036447633 0.0088132685
0.056450307 -0.015230783 -0.056021564 0.11121988 0.09136056 0.08203352 0.04992627 0.043414183
0.05023072 0.06902877 0.07856384 0.11751804 0.052571837 0.050022695 0.027811926 0.06854026
-0.036615595 0.046048827 0.0448879 -0.016573025 -0.0123006245 0.01241121 -0.0031908583 -0.08375566
0.00264689 -0.0016648729 -0.0025341888 0.018852342 -0.039848022 0.036836103 0.08191341 0.08741125
-0.053881377 0.10368141 0.04741348 0.08517208 -0.082456335 -0.11814159 -0.018793067 -0.0056232465
0.044971015 -0.010627542 0.050760396 -0.054146506 -0.0026615767 -0.03762017 -0.057929542 0.023380058
0.04524417 -0.06308742 -0.06274103 -0.037329625 -0.07890168 -0.03275085 0.107204765 -0.025048494
0.08427181 0.18110317 0.061182495 0.07021331 0.15738903 -0.0012743177 0.09490714 0.022512792
-0.05896186 -0.0010655867 0.05984392 -0.041012976 0.011415692 0.03894719 -0.05073431 -0.09735606
-0.052845985 0.035167646 0.028447472 0.15920262 0.0052883984 -0.028367821 0.014466849 0.03264483
-0.013724178 0.0086758705 0.11510731 -0.03475544 0.13228427 0.009461413 -0.004378215 0.074171185
0.122296885 -0.09473984 0.009926987 -0.06963719 -0.04377364 -0.08675276 -0.11874306 -0.09052625
-0.05130521 -0.1325776 -0.111956395 0.12037395 0.117797725 -0.026232125 0.15909348 -0.0010875593
0.022197813 0.11805643 0.07038998 -0.07221838 0.026767457 0.05297538 0.03464188 0.067063496
0.1762973 0.00682492 0.09314299 0.05608392 0.033677198 0.19481654 0.0021042034 0.031004546
0.14379293 0.009975001 0.0076061715 -0.0575331 0.04543706 -0.13869245 -0.0016013291 -0.019064628
-0.009574335 0.122333474 0.098002605 0.030366635 0.1738011 -0.053973515 0.10743192 0.0091162
0.04259299 -0.034555268 -0.04657932 -0.061894514 -0.020482961 -0.04509499 -0.09059857 -0.021604756
0.15347552 0.025282502 -0.0009659089 0.16526538 -0.017508466 -0.013176295 0.18410042 0.047932453
0.03265909 0.1504792 0.08779486 0.020998076 0.003055981 0.0886755 0.15738982 0.08614789
-0.035101388 0.035678856 0.024776498 0.088969 0.0043345476 0.047221575 -0.0120096 -0.070035
-0.052870825 -0.051253326 -0.12258614 0.11893957 0.049742255 -0.100926325 0.06751293 0.05141842
-0.007111156 0.109498374 0.07094076 0.024465851 0.019377926 -0.023335297 -0.0720232 0.11616743
00000000: 76e6 d63c 715f 6c3d 2d1a d53d 9494 1f3e
00000010: d65f a2bc 2d8c 2abd fe31 9a3d 6a72 8c3c
00000020: 4782 52bd 2d27 2e3e c359 c9bd effc 263d
00000030: 5db0 073e d298 95bd f04c f53d 5d75 1c3e
00000040: 0ce3 6abd 2e86 90bd 3a76 57bc 9cb1 e7bc
00000050: 85ef 81ba 277b 9fbc 2eb1 b43b 4c77 58bd
00000060: b643 70bd a648 803c 5d22 66bd 7166 d53d
00000070: 5a96 a3bd 8aa1 8b3c a81a 283e bf98 0c3d
00000080: 92ba 02bd 0a92 e53d b43f 7a3d 0db8 b5bd
00000090: 8e6f 813d 0cde 9dbc 32bc 9bbc cbe9 de3d
000000a0: 06e3 763c a443 883d df85 ba3d 5086 f03c
000000b0: bfcf b83d 749b c23d 764c 833d db98 8a3d
000000c0: 3659 ff3d e992 773d b4d3 d43c 4ebc 5dbc
000000d0: ba80 8c3c 9f48 143d 96a8 61bd 8b24 0d3d
000000e0: a26b 9c3d 7acd e83b 0d0f f93c 35ae 833d
000000f0: 671f 373d eb60 113d dab8 d33d d8bc 683d
00000100: 9900 aabd cdf8 463d 78c0 403d 8d0b 41bd
00000110: 34de cd3d 9b15 cabc 1d4a 15bd 8765 103c
00000120: 7038 673d 898a 79bc de76 65bd 40c7 e33d
00000130: 3f1b bb3d 3101 a83d 7d7f 4c3d 12d3 313d
00000140: babe 4d3d f55e 8d3d 14e6 a03d 4cad f03d
00000150: 9155 573d 99e4 4c3d d6d5 e33c d65e 8c3d
00000160: 3cfa 15bd b29d 3c3d 60dc 373d 27c4 87bc
00000170: 8f88 49bc 6358 4b3c b81d 51bb 1688 abbd
00000180: 7277 2d3b dd37 daba a214 26bb 3a70 9a3c
00000190: ae37 23bd 74e1 163d 38c2 a73d ab04 b33d
000001a0: b8b2 5cbd eb56 d43d a334 423d b36e ae3d
000001b0: dede a8bd 38f4 f1bd ebf3 99bc 3643 b8bb
000001c0: 8733 383d 241f 2ebc 22ea 4f3d bac8 5dbd
000001d0: d96d 2ebb 9b17 1abd 8747 6dbd 8987 bf3c
000001e0: f351 393d fa33 81bd 5e7e 80bd f3e6 18bd
000001f0: 3497 a1bd c125 06bd 2c8e db3d 8032 cdbc
00000200: b396 ac3d 1c73 393e 7f9a 7a3d ffcb 8f3d
00000210: 972a 213e 0207 a7ba ad5e c23d bf6c b83c
00000220: fe81 71bd 28ab 8bba e61e 753d 39fd 27bd
00000230: e208 3b3c 1787 1f3d c8ce 4fbd 9d62 c7bd
00000240: 0875 58bd f30b 103d ac0a e93c 0306 233e
00000250: 4d4a ad3b a263 e8bc 5d06 6d3c 96b6 053d
00000260: 60db 60bc 3d25 0e3c 62bd eb3d b85b 0ebd
00000270: 8775 073e 0b04 1b3c 2177 8fbb 10e7 973d
00000280: ca76 fa3d f606 c2bd cda4 223c f19d 8ebd
00000290: fd4b 33bd 6eab b1bd 902f f3bd d465 b9bd
000002a0: 6925 52bd 6cc2 07be 6549 e5bd 9e86 f63d
000002b0: ef3f f13d c1e4 d6bc 67e9 223e 6f8c 8eba
000002c0: 30d8 b53c 92c7 f13d 9f28 903d 3be7 93bd
000002d0: 6d47 db3c b6fc 583d a5e4 0d3d 9658 893d
000002e0: 4887 343e 94a3 df3b c0c1 be3d 41b8 653d
000002f0: 1af1 093d fd7d 473e ade6 093b 3ffd fd3c
00000300: 743e 133e 306e 233c 313d f93b d4a7 6bbd
00000310: 361c 3a3d 6505 0ebe b0e3 d1ba 6c2d 9cbc
00000320: acdd 1cbc f989 fa3d 97b5 c83d 73c3 f83c
00000330: eaf8 313e 5513 5dbd 4405 dc3d 1d5c 153c
00000340: fd75 2e3d d389 0dbd f5c9 3ebd 1a85 7dbd
00000350: e2cb a7bc 86b5 38bd be8b b9bd 75fc b0bc
00000360: b028 1d3e 401d cf3c 0d35 7dba 543b 293e
00000370: ea6d 8fbc 63e1 57bc d284 3c3e d254 443d
00000380: 8ac5 053d 3817 1a3e cbcd b33d 2804 ac3c
00000390: da46 483b 809b b53d cc2a 213e 4e6e b03d
000003a0: 79c6 0fbd fe23 123d 15f8 ca3c 6135 b63d
000003b0: d208 8e3b 696b 413d eac3 44bc 836e 8fbd
000003c0: 148f 58bd 02ef 51bd 710e fbbd 9796 f33d
000003d0: 89be 4b3d 76b2 cebd 3844 8a3d 1f9c 523d
000003e0: b304 e9bb af40 e03d 6449 913d 9c6c c83c
000003f0: 75be 9e3c aa29 bfbc e680 93bd 31e9 ed3d

cnn2.bias f4 [32]
-0.10225401 -0.029456535 -0.034576286 0.0034692257 -0.00056176324 -0.0014971122 -0.07651098 0.07161312
-0.07264849 -0.042978548 0.031213477 0.0007883532 -0.0057281656 0.006989093 -0.00033155442 -0.10871489
0.112310745 0.0063814837 -0.037907492 -0.09895057 -0.109741084 0.019268285 -0.052522667 -0.04027178
-0.004462986 -0.08557012 -0.054334935 -0.13164519 0.09712324 -0.059597205 0.0935517 -0.008464713
00000000: 8d6a d1bd d54e f1bc dd9f 0dbd f35b 633b
00000010: 4b43 13ba c03a c4ba cab1 9cbd e6a9 923d
00000020: bbc8 94bd 460a 30bd 68b3 ff3c 7da9 4e3a
00000030: 56b3 bbbb c304 e53b 7bd4 adb9 eaa5 debd
00000040: 2d03 e63d c41b d13b e344 1bbd 99a6 cabd
00000050: efbf e0bd 86d8 9d3c 0222 57bd 06f4 24bd
00000060: 3d3e 92bb 633f afbd 4f8e 5ebd ffcd 06be
00000070: 8de8 c63d 331c 74bd 0998 bf3d 94af 0abc

cnn3.weight f4 [32, 32, 3, 3]
0.029938573 -0.0009862316 0.020028695 0.0120021785 -0.07263568 -0.046512805 -0.012103266 -0.02369193
0.00034693323 0.16813247 0.042647265 -0.07362998 0.08825427 -0.043025665 -0.14865707 -0.06981184
-0.048107736 -0.09187275 0.0007791268 -0.04180596 -0.06632395 0.07091966 -0.05273421 -0.0773627
0.047951788 0.056922514 -0.015972879 0.037587907 -0.0055181454 0.008441277 0.051604595 -0.05212616
-0.052131694 0.014372641 -0.025015714 0.026335645 0.10458591 0.025959088 -0.01076236 -0.024250597
-0.09945258 0.0049741203 0.0017761111 0.062846914 -0.009594485 0.11982935 -0.07779717 -0.016775642
0.036082588 -0.09609995 -0.09553594 -0.014381396 0.0061577973 -0.0035877214 -0.0041793734 0.026015842
-0.06280857 -0.038925055 -0.0027616594 -0.028786717 0.048425958 -0.054934714 -0.039852563 -0.0469684
0.11486577 0.07059014 0.04021542 -0.005051514 0.10804105 0.046140622 0.06462954 0.090177804
-0.01052203 0.021905836 -0.055241194 -0.065945074 -0.030308837 -0.0548032 0.0103288265 -0.02132689
-0.058672786 0.09090845 -0.08437055 0.012211898 0.022678109 -0.120177664 0.012933885 -0.029076815
-0.03013933 -0.054873414 0.085910805 0.09452646 -0.09486718 0.023177557 0.019981233 -0.08700655
-0.031107789 0.036039975 -0.026594996 0.05757654 -0.075331114 -0.07124834 -0.041641444 -0.11819728
-0.13545318 0.053530373 0.037397116 -0.024729088 0.104918614 0.14749424 0.15458034 -0.02779635
0.15051733 0.026767733 0.011594608 0.023353959 -0.02078415 0.017111866 0.014584444 -0.022002017
-0.005211779 0.03963078 -0.044611044 0.030942509 0.03210771 0.04919553 0.1063684 -0.008900905
-0.05192568 0.055942442 -0.05467307 -0.055406462 -0.018034395 0.019638482 -0.10057995 0.0033300295
-0.039135456 0.050572384 -0.022787347 -0.025988385 -0.050873164 0.024449427 0.0039395355 -0.011603378
0.06707436 0.22674182 0.20090401 0.025302198 0.0867625 0.1219397 0.02504439 0.08798712
0.11583672 0.075711906 0.08999152 -0.07219379 0.030007403 0.04691554 -0.072028495 0.007870605
0.018827055 -0.04154423 -0.026324581 -0.07046505 -0.06996549 0.021117004 -0.047934003 -0.13080846
0.010625487 -0.10253434 -0.047515035 -0.05089885 0.003383245 0.04443085 0.023852065 -0.082163066
-0.0050750943 0.004348293 -0.06258908 0.014560861 -0.046191555 -0.028728439 0.041693937 -0.034530047
-0.09466512 -0.03344552 0.0021399364 -0.05208447 -0.024720807 0.08092206 0.105451114 -0.032891154
0.0064814505 0.014724592 -0.041860018 -0.045622803 0.016731117 -0.12167294 -0.027730316 -0.10090058
-0.03692371 -0.063333526 -0.1163592 -0.0019062062 -0.050941754 -0.043880716 0.022017926 0.042850096
0.016687838 0.07687329 0.02184921 -0.040557984 -0.014103732 -0.018776491 0.09170648 0.017192584
0.064685844 -0.013881733 -0.0493861 -0.014732945 -0.06554141 -0.07835061 -0.006116068 0.04407981
-0.011139395 0.036692854 -0.031015454 0.0029268041 -0.023251649 -0.058599528 0.01694965 -0.017923493
0.050109286 0.05736931 0.09676772 0.0024266494 0.0050778715 0.027892806 -0.049915306 -0.0072984677
-0.019223629 0.01937051 -0.03991641 0.008980349 0.047107816 -0.01709549 -0.007149861 -0.04393015
-0.03234681 -0.00484799 -0.018317174 -0.02024788 0.022189034 0.0023774111 0.09981685 -0.02625447
00000000: bd41 f53c 7144 81ba 3813 a43c c9a4 443c
00000010: 04c2 94bd 3684 3ebd c74c 46bc 9415 c2bc
00000020: 97e4 b539 eb2a 2c3e e6ae 2e3d 51cb 96bd
00000030: a8be b43d ae3b 30bd 8f39 18be 83f9 8ebd
00000040: 9e0c 45bd c827 bcbd 513e 4c3a ba3c 2bbd
00000050: dad4 87bd 543e 913d d4ff 57bd 5670 9ebd
00000060: 1869 443d 9527 693d 8ed9 82bc c7f5 193d
00000070: 8fd1 b4bb 484d 0a3c 575f 533d 3e82 55bd
00000080: 0b88 55bd 3a7b 6b3c c1ed ccbc dabd d73c
00000090: 2331 d63d 27a8 d43c 9c54 30bc 30a9 c6bc
000000a0: cbad cbbd f2fd a23b 66cc e83a e2b5 803d
000000b0: 3032 1dbc 1769 f53d 1f54 9fbd 126d 89bc
000000c0: 56cb 133d 0dd0 c4bd 59a8 c3bd f29f 6bbc
000000d0: 59c7 c93b fa1f 6bbb 20f3 88bb 2d1f d53c
000000e0: c8a1 80bd e16f 1fbd f5fc 34bb 1fd2 ebbc
000000f0: 4c5a 463d 3903 61bd 713c 23bd f061 40bd
00000100: bf3e eb3d 9091 903d edb8 243d 2c87 a5bb
00000110: a044 dd3d f3fd 3c3d 7e5c 843d 24af b83d
00000120: 9864 2cbc de73 b33c 9744 62bd 360e 87bd
00000130: 3d4a f8bc 5279 60bd 3d3a 293c bbb5 aebc
00000140: e052 70bd 362e ba3d 78ca acbd 6a14 483c
00000150: 71c7 b93c b51f f6bd a5e8 533c 8032 eebc
00000160: c2e6 f6bc f2c2 60bd 01f2 af3d 1797 c13d
00000170: b949 c2bd dcde bd3c afaf a33c 7d30 b2bd
00000180: c3d5 febc a79e 133d c0dd d9bc 61d5 6b3d
00000190: 3347 9abd a6ea 91bd 3890 2abd 6a11 f2bd
000001a0: 3db4 0abe aa42 5b3d b82d 193d a894 cabc
000001b0: 92df d63d bb08 173e 4f4a 1e3e 2cb5 e3bc
000001c0: 3721 1a3e 0148 db3c 50f7 3d3c cd50 bf3c
000001d0: 8643 aabc 2f2e 8c3c 98f3 6e3c 933d b4bc
000001e0: 92c7 aabb e353 223d 12ba 36bd 257b fd3c
000001f0: 6083 033d 4181 493d add7 d93d 1ad5 11bc
00000200: 06b0 54bd e723 653d def0 5fbd e3f1 62bd
00000210: debc 93bc e2e0 a03c dcfc cdbd a03c 5a3b
00000220: 804c 20bd fd24 4f3d 88ac babc 98e5 d4bc
00000230: 6160 50bd 2a4a c83c 3817 813b 181c 3ebc
00000240: 485e 893d 022f 683e c8b9 4d3e 8e46 cf3c
00000250: 8ab0 b13d 85bb f93d e429 cd3c 9732 b43d
00000260: cd3b ed3d d80e 9b3d 794d b83d 56da 93bd
00000270: 16d2 f53c 822a 403d ad83 93bd b6f3 003c
00000280: 323b 9a3c 482a 2abd a6a6 d7bc fb4f 90bd
00000290: 114a 8fbd 91fd ac3c 7256 44bd a7f2 05be
000002a0: 8616 2e3c 86fd d1bd 209f 42bd 507b 50bd
000002b0: 6fb9 5d3b 1ffd 353d 6865 c33c 1c45 a8bd
000002c0: fa4c a6bb 207c 8e3b b42e 80bd ad90 6e3c
000002d0: 5b33 3dbd e757 ebbc 43c7 2a3d 616f 0dbd
000002e0: c9df c1bd 2bfe 08bd 2d3e 0c3b 8656 55bd
000002f0: 4a83 cabc 77ba a53d c1f6 d73d e0b8 06bd
00000300: 5962 d43b 6a3f 713c 6975 2bbd fade 3abd
00000310: b20f 893c aa2f f9bd b02a e3bc f7a4 cebd
00000320: 513d 17bd 02b5 81bd bb4d eebd abd9 f9ba
00000330: 4da8 50bd 44bc 33bd f05e b43c 9583 2f3d
00000340: efb4 883c be6f 9d3d 1dfd b23c 2120 26bd
00000350: 5713 67bc 28d1 99bc 9bd0 bb3d 76d7 8c3c
00000360: 037a 843d 3570 63bc 1449 4abd 7362 71bc
00000370: 933a 86bd 4976 a0bd 4c69 c8bb 088d 343d
00000380: 0282 36bc 3f4b 163d 1f14 febc a0cf 3f3b
00000390: 3e7a bebc 0f06 70bd fed9 8a3c 4ad4 92bc
000003a0: 653f 4d3d 15fc 6a3d 282e c63d 6c08 1f3b
000003b0: 4664 a63b 747f e43c fe73 4cbd fc27 efbb
000003c0: df7a 9dbc e7ae 9e3c 647f 23bd 5022 133c
000003d0: 20f4 403d d70b 8cbc 6249 eabb 1af0 33bd
000003e0: 177e 04bd e3db 9ebb e60d 96bc e2de a5bc
000003f0: c7c5 b53c 57ce 1b3b c76c cc3d 9d13 d7bc

cnn3.bias f4 [32]
0.019983754 0.043954067 -0.0948637 -0.017984938 0.032481104 -0.032874305 -0.033573538 0.1179882
-0.009886488 -0.060861126 0.009950442 -0.025707796 -0.013468142 0.04971047 -0.01853209 0.1263391
-0.07077807 0.0047885515 -0.042394016 -0.06359281 -0.0709487 -0.029765302 -0.0700156 -0.060357455
-0.012433057 -0.035000842 -0.06648899 0.027934643 -0.008332542 0.097481556 0.021720478 0.15082861
00000000: f8b4 a33c 2e09 343d e647 c2bd 2655 93bc
00000010: e80a 053d 35a7 06bd 6884 09bd cca3 f13d
00000020: f0fa 21bc 8449 79bd 2e07 233c 2899 d2bc
00000030: 7ba9 5cbc 359d 4b3d 9cd0 97bc 095f 013e
00000040: 18f4 90bd 48e9 9c3b 59a5 2dbd f23c 82bd
00000050: 8d4d 91bd 5dd6 f3bc 5764 8fbd 6139 77bd
00000060: 05b4 4bbc 0b5d 0fbd 612b 88bd 31d7 e43c
00000070: 3785 08bc 69a4 c73d 25ef b13c d172 1a3e

fc1.weight f4 [128, 768]
-0.026768217 0.024805857 0.019706015 0.014805308 0.030714003 -0.03206256 -0.04738656 0.015729973
-0.017709669 -0.010950901 -0.023830168 0.0005367771 -0.0016521504 0.0027314185 -0.00967815 0.019197397
0.0076671825 -0.0118327625 -0.010674359 0.011067424 -0.02330589 0.01681887 -0.028270751 -0.012641771
-0.03670567 -0.0069884784 -0.03650331 -0.008763657 0.0028516452 -0.030833649 -0.01898992 0.029425954
-0.039122038 0.015803397 0.04087461 -0.01204716 0.02607422 0.03501218 -0.007992916 -0.0013367659
0.009830236 -0.008740827 0.023201939 -0.052631065 -0.04098562 0.017855586 -0.031004813 -0.04243366
-0.040572193 0.010986801 -0.03187394 -0.032957774 -0.03824586 -0.005464251 0.008126307 -0.015216153
-0.008458035 -0.021384984 0.0094202915 0.028440623 -0.034350265 -0.018193372 -0.030250255 -0.046509687
0.023425652 0.012425869 -0.014549559 -0.009992772 -0.03793028 0.019242173 0.02116751 -0.0349238
-0.007668633 0.012855098 -0.023899289 -0.017706048 0.02842341 0.017105626 0.023311341 0.004786948
-0.0011094102 0.0068636066 0.01572924 -0.022178452 -0.031964805 0.025595896 0.0011204204 -0.010002529
0.0066787233 -0.023629045 -0.0027257737 -0.027397422 -0.0020104873 -0.039384115 0.0024646209 0.03186066
0.023867149 -0.03161419 0.0029067013 0.0045068497 -0.0007688545 0.0047350274 -0.023112593 -0.008261039
-0.038236745 -0.012191663 -0.016727006 -0.0066710715 0.014020395 -0.007324341 -0.016492775 -0.036273867
0.008421028 0.009895774 0.0114422925 -0.028039398 0.014289408 0.0005009341 -0.017592205 0.001777416
0.028321987 -0.03954159 0.005815888 0.011385632 -0.031181969 -0.009777736 0.0017313063 -0.032909855
0.037357967 0.019556236 0.012493526 0.004295384 0.025172144 0.003122344 -0.016434241 -0.024076868
-0.03271658 0.011582412 0.0157233 0.026555002 0.0043723355 0.01899039 0.002968764 -0.032260943
-0.0241181 0.0124429315 0.034022987 0.02737844 0.0027018301 -0.011732729 0.026980303 0.03537681
0.034640037 0.00976938 0.021684263 -0.006068522 -0.020357322 -0.007354265 0.03397174 0.034645036
0.015774377 0.017878175 0.009545419 -0.020073159 -0.007731734 0.032857556 -0.030408528 -0.01198029
-0.01387168 0.01142631 -0.0017675081 -0.007279032 0.003476853 -0.01201483 -0.058901172 -0.017311834
0.02568219 -0.019402418 -0.021298371 -0.040221225 -0.007468871 -0.035273485 0.020268856 0.0006612685
-0.044842377 -0.042740796 -0.009260616 -0.041124173 -0.0038951866 -0.021177938 0.009174399 -0.042680874
0.002109341 -0.0010863243 -0.005105085 -0.033098146 -0.031325504 0.028898567 -0.0015201005 -0.010904149
-0.029960625 -0.012364701 0.010846193 -0.03030587 -0.020987388 -0.02117999 -0.00782921 -0.013288465
0.019337598 -0.022215648 0.010765107 -0.008908859 0.02027019 -0.03463008 0.032106772 0.02664411
-0.034440305 -0.037104357 -0.037316777 0.02408591 -0.008800963 0.013576292 0.032432374 -0.035967845
-0.017288452 -0.013287759 0.01792957 0.016850995 -0.025568184 -0.02369145 0.024746014 0.032811016
0.0071376464 -0.018317195 0.01173135 -0.0016730701 -0.020331034 0.023337789 -0.0381589 -0.02679223
0.021745728 0.0011655202 0.0312667 -0.036564782 0.010468319 0.033404067 0.0006542119 0.011184478
-0.030304294 -0.034873065 0.008305769 0.020154366 -0.019414691 -0.006928563 0.028450064 -0.031442467
00000000: 0549 dbbc a735 cb3c 826e a13c f691 723c
00000010: ef9b fb3c 0854 03bd 6918 42bd 25dc 803c
00000020: de13 91bc 686b 33bc 7c37 c3bc 80b6 0c3a
00000030: f88c d8ba 9901 333b 1a91 1ebc dc43 9d3c
00000040: fd3c fb3b 34de 41bc 82e3 2ebc 2454 353c
00000050: feeb bebc bac7 893c 1098 e7bc 6e1f 4fbc
00000060: af58 16bd 9bff e4bb 7f84 15bd 7195 0fbc
00000070: abe2 3a3b d996 fcbc c090 9bbc b30e f13c
00000080: 6e3e 20bd 2076 813c 236c 273d 7461 45bc
00000090: 9a99 d53c ef68 0f3d b8f4 02bc 6c36 afba
000000a0: 000f 213c b035 0fbc fe11 be3c ac93 57bd
000000b0: 8ae0 27bd e145 923c cefd fdbc ebce 2dbd
000000c0: 072f 26bd fc01 343c 408e 02bd bbfe 06bd
000000d0: b1a7 1cbd 760d b3bb 3424 053c 2c4d 79bc
000000e0: 9293 0abc 902f afbc 9157 1a3c 4ffc e83c
000000f0: ddb2 0cbd 440a 95bc 62cf f7bc f180 3ebd
00000100: 27e7 bf3c df95 4b3c 4661 6ebc b9b8 23bc
00000110: c85c 1bbd c3a1 9d3c 7c67 ad3c 420c 0fbd
00000120: 2849 fbbb 309e 523c 71c8 c3bc 460c 91bc
00000130: 36d8 e83c 1921 8c3c 6df7 be3c d5db 9c3b
00000140: a169 91ba 1be8 e03b 9bda 803c 96af b5bc
00000150: 87ed 02bd 7cae d13c 12db 923a a6e1 23bc
00000160: 31d9 da3b b391 c1bc e5a2 32bb 8f70 e0bc
00000170: 61c2 03bb 3d51 21bd 7a85 213b 5380 023d
00000180: 0a85 c33c e27d 01bd 5b7e 3e3b 32ae 933b
00000190: f48c 49ba 4a28 9b3b 9f56 bdbc 4f59 07bc
000001a0: 229e 1cbd 8abf 47bc 1307 89bc 0199 dabb
000001b0: cdb5 653c 0701 f0bb db1b 87bc e893 14bd
000001c0: 5af8 093c e221 223c 7478 3b3c e1b2 e5bc
000001d0: 1f1e 6a3c 1e51 033a 871d 90bc 2ff8 e83a
000001e0: 8303 e83c 5df6 21bd 3493 be3b cd8a 3a3c
000001f0: 5471 ffbc cc32 20bc 00ed e23a 7ccc 06bd
00000200: ab04 193d 6634 a03c a5b1 4c3c 4bc0 8c3b
00000210: d035 ce3c 3da0 4c3b 1aa1 86bc da3c c5bc
00000220: d201 06bd 28c4 3d3c 26ce 803c e089 d93c
00000230: cf45 8f3b bc91 9b3c 988f 423b 0d24 04bd
00000240: 5293 c5bc 70dd 4b3c b05b 0b3d c048 e03c
00000250: 3011 313b a23a 40bc cc05 dd3c 46e7 103d
00000260: b6e2 0d3d c00f 203c 32a3 b13c 74da c6bb
00000270: 66c4 a6bc 0cfc f0bb f425 0b3d f4e7 0d3d
00000280: 4439 813c 4075 923c 6464 1c3c 7770 a4bc
00000290: 7c5a fdbb a595 063d 4e1b f9bc fa48 44bc
000002a0: 0b46 63bc 6b35 3b3c bbab e7ba f284 eebb
000002b0: eadb 633b d9d9 44bc 5b42 71bd 8cd1 8dbc
000002c0: 7563 d23c d2f1 9ebc ec79 aebc 03bf 24bd
000002d0: 6ebd f4bb ee7a 10bd df0a a63c fa58 2d3a
000002e0: a4ac 37bd f910 2fbd d7b9 17bc d271 28bd
000002f0: 6346 7fbb 5b7d adbc 3850 163c 24d2 2ebd
00000300: df3c 0a3b ff62 8eba 8f48 a7bb ec91 07bd
00000310: 2c4f 00bd b0bc ec3c 1c3e c7ba 51a7 32bc
00000320: fc6f f5bc 5195 4abc 3bb4 313c 0444 f8bc
00000330: beed abbc a981 adbc 1646 00bc ddb7 59bc
00000340: e269 9e3c 97fd b5bc 2260 303c 77f6 11bc
00000350: ab0d a63c 45d8 0dbd 6482 033d c044 da3c
00000360: 4711 0dbd bdfa 17bd 7ad9 18bd d04f c53c
00000370: ea31 10bc 196f 5e3c cfd7 043d 0553 13bd
00000380: 83a0 8dbc e7b4 59bc 09e1 923c 190b 8a3c
00000390: 5e74 d1bc 9214 c2bc 27b8 ca3c d864 063d
000003a0: ebe2 e93b f10d 96bc d934 403c eb4a dbba
000003b0: 458d a6bc e42e bf3c 824c 1cbd 617b dbbc
000003c0: 1924 b23c 5ec4 983a 8311 003d f4c4 15bd
000003d0: 5083 2b3c b4d2 083d 6b7f 2b3a 1a3f 373c
000003e0: b640 f8bc 0fd7 0ebd ec14 083c c51a a53c
000003f0: 8f0b 9fbc 0009 e3bb 1c10 e93c d1c9 00bd

fc1.bias f4 [128]
0.024374982 -0.008884579 0.013479726 -0.040303595 -0.025760593 0.025965847 -0.033513732 -0.040878776
0.004696367 0.0154685285 -0.020946093 -0.02808214 -0.035426695 -0.034426935 -0.03789541 -0.015423822
-0.036883745 -0.019908283 0.06115503 -0.0019482248 -0.0051140795 0.09676923 -0.04293951 0.08169736
-0.048151832 0.00014648677 -0.0057002483 -0.02934152 -0.027238565 0.017232921 -0.035708316 0.020811984
-0.034696802 0.013916409 -0.00051524147 -0.04548906 -0.025006728 -0.039166205 -0.022390166 0.0032032595
0.02061216 0.09649271 -0.03239606 -0.02420637 -0.019213833 -0.035911623 0.006403802 0.0062718457
-0.03563728 0.029379502 0.03388658 0.026030522 0.0057407785 0.09480417 -0.007280573 -0.036151722
-0.03530087 0.007726279 -0.017329285 -0.022276998 -0.0414 0.09169824 -0.033973902 -0.024987385
-0.01565201 0.025309611 0.11557232 -0.0065109525 0.011868043 0.017114129 -0.0063203047 0.0049959775
-0.009611252 0.011230215 -0.00020048609 0.011681051 -9.348324e-06 -0.035293527 0.010056953 -0.0045834514
-0.017205037 -0.0068243635 0.0071320445 0.020861998 0.00814874 0.027326532 -0.028890891 -0.026063982
-0.038371686 0.082884096 -0.06686167 0.114097774 0.010330442 -0.021524405 -0.0016606968 -0.040150728
0.0017156763 -0.0044042943 -0.0069203125 0.011087489 -0.03611069 -0.010624648 -0.0004923856 0.017711898
0.0011036956 -0.015114749 -0.038058072 -0.016122632 0.117783986 0.013090914 -0.0077957963 -0.012889578
0.10907394 0.021247488 -0.0610731 -0.03202424 0.0104546435 0.0173825 -0.021482073 0.057209842
-0.060035117 -0.0118935 -0.012632707 -0.049817648 0.12454011 -0.043555073 0.033098295 -0.05847208
00000000: 0bae c73c a090 11bc 12da 5c3c 6215 25bd
00000010: e107 d3bc 54b6 d43c b245 09bd 8170 27bd
00000020: fbe3 993b b66f 7d3c 2497 abbc 840c e6bc
00000030: 951b 11bd 4203 0dbd 3838 1bbd 33b4 7cbc
00000040: 6913 17bd b216 a3bc b27d 7a3d 945b ffba
00000050: 0294 a7bb f22e c63d 57e1 2fbd f250 a73d
00000060: db3a 45bd 3e9a 1939 26c9 babb a15d f0bc
00000070: 6923 dfbc 0e2c 8d3c e242 12bd e57d aa3c
00000080: 3c1e 0ebd a601 643c 4511 07ba bd52 3abd
00000090: e9da ccbc be6c 20bd 956b b7bc c7ed 513b
000000a0: d5da a83c f89d c53d bbb1 04bd 704c c6bc
000000b0: 5466 9dbc 1118 13bd fcd6 d13b 0e84 cd3b
000000c0: 66f8 11bd 48ad f03c a8cc 0a3d f63d d53c
000000d0: 241d bc3b b028 c23d df91 eebb d413 14bd
000000e0: a597 10bd ba2c fd3b 25f6 8dbc 407e b6bc
000000f0: 0c93 29bd 49cc bb3d 3828 0bbd 58b2 ccbc
00000100: a538 80bc 1a56 cf3c 2eb1 ec3d d459 d5bb
00000110: 2e72 423c ee32 8c3c 8f1a cfbb 4cb5 a33b
00000120: 8378 1dbc f0fe 373c 9339 52b9 e161 3f3c
00000130: bfd6 1cb7 f28f 10bd ebc5 243c c730 96bb
00000140: 94f1 8cbc e99e dfbb edb3 e93b c8e6 aa3c
00000150: 4b82 053c e4db df3c 97ac ecbc 2284 d5bc
00000160: a12b 1dbd 23bf a93d c5ee 88bd 18ac e93d
00000170: 0441 293c f353 b0bc bdab d9ba 1775 24bd
00000180: 8be0 e03a e651 90bb cac3 e2bb 4da8 353c
00000190: cee8 13bd 0113 2ebc 7013 01ba 8b18 913c
000001a0: e1a9 903a daa3 77bc c8e2 1bbd 9c13 84bc
000001b0: bb38 f13d 467b 563c e173 ffbb cf2e 53bc
000001c0: 2862 df3d 360f ae3c c927 7abd d92b 03bd
000001d0: f449 2b3c bf65 8e3c 2cfb afbc de54 6a3d
000001e0: 62e7 75bd f4dc 42bc 6af9 4ebc 970d 4cbd
000001f0: e30e ff3d ce66 32bd 1492 073d 6b80 6fbd

fc2.weight f4 [128, 128]
-0.0870013 -0.058957867 -0.0084994845 -0.011242352 0.02995978 0.05968735 -0.04597408 0.052065287
-0.002051163 0.033373106 0.027636165 -0.03235877 -0.07825511 0.034983233 0.08198521 -0.045286823
-0.046034288 0.029198345 0.0043281927 0.041961722 0.08577215 0.06049984 0.016805086 -0.045005765
0.05292844 -0.0023336112 0.06543913 -0.0062654717 -0.014185451 -0.0020542343 0.08981437 0.05531334
-0.080045 -0.033558715 0.0790401 -0.09563953 -0.08637664 0.087632105 0.08386805 -0.06400309
-0.06414175 -0.076013684 0.02529163 -0.007103486 -0.038693573 0.076070614 0.055873536 0.02044213
-0.05172781 -0.079450935 -0.00826345 0.04082662 0.052417226 0.11371512 -0.011247911 0.0884482
0.030545294 -0.025452204 -0.011025563 -0.07602357 -0.019814722 0.101141565 -0.08627648 0.10084734
-0.03453327 0.03608322 0.121686086 -0.05039768 0.058320526 -0.061869666 0.04106435 0.08677106
-0.042094897 0.014354497 0.0015948713 0.036962725 0.023811027 0.03801499 -0.007196218 -0.022744901
-0.009947355 -0.07661607 -0.051587235 0.005674878 -0.079811156 -0.059083547 -0.06408382 0.03758744
-0.05162147 -0.15521988 -0.053657204 -0.015599343 0.04420901 0.058715023 0.031252597 -0.07099998
0.011896168 -0.046156615 0.05017399 0.038774483 0.034832582 -0.03690891 0.06594203 0.07787339
0.024892367 0.048191987 0.008928038 -0.039583657 0.044153836 -0.073189154 -0.0228962 0.026814729
0.07943187 -0.022588253 -0.0607301 -0.043509793 -0.06669424 -0.07433669 -0.085399374 -0.08236815
0.024614628 -0.011853896 -0.050611403 -0.002313264 0.07566308 -0.036989383 -0.06851422 -0.051067736
-0.06252597 -0.031120893 -0.0830395 0.0071800426 -0.0012561263 0.015684547 -0.09867975 -0.011514768
0.069590025 0.035898548 0.0013338672 0.036984436 -0.03736126 0.0044304803 0.04935851 -0.04605451
0.038628235 0.037541494 -0.004447824 -0.023403257 -0.008289206 -0.028074548 0.07552644 -0.05605781
0.082411416 0.05452036 -0.07366949 -0.010709529 -0.07656484 0.046852387 0.08297766 -0.029465072
-0.034701746 0.01921974 -0.033949442 -0.091934144 -0.07360279 -0.046012316 0.036489025 -0.07818893
-0.060880605 0.015880566 -0.023269504 -0.0760034 -0.055638608 -0.025223106 0.019976823 -0.009413623
-0.06732775 0.074210115 0.018901229 -0.045804195 -0.008922592 0.1111742 0.046904694 -0.07232298
-0.04162177 -0.012118548 -0.06525713 0.014302802 -0.06771229 0.054176934 -0.020008713 -0.09925543
-0.04830451 0.02538267 0.04325697 0.018587794 -0.006319911 0.022881828 -0.024225082 0.027754858
-0.020420738 -0.040355545 -0.016365893 0.014918596 -0.06996248 0.022012994 -0.03908218 0.06534728
-0.008504323 -0.0148077775 -0.052435208 0.067496195 0.033776566 -0.03166519 -0.019426782 -0.001793867
-0.03670085 -0.08093348 -0.0734168 0.030325348 -0.008318394 0.046093874 -0.027021753 -0.08380517
-0.04824551 -0.07150332 0.049528815 0.011674054 -0.046497047 0.025403664 0.06769716 0.032947116
-0.010931164 0.014019169 -0.05996857 0.043662407 0.112758584 -0.0077865133 0.035958238 0.0390547
0.0021421895 0.050387137 -0.103278354 -0.05240122 0.013680644 0.06661702 -0.08116594 0.05432572
-0.022990176 -0.06903414 0.059493292 0.10037921 0.1665863 -0.086194724 0.08416289 0.043885794
00000000: bd2d b2bd ce7d 71bd 6c41 0bbc d831 38bc
00000010: 366e f53c b97a 743d 514f 3cbd 6942 553d
00000020: ce6c 06bb 3db2 083d 3d65 e23c a18a 04bd
00000030: 3744 a0bd 944a 0f3d dde7 a73d ad7e 39bd
00000040: 738e 3cbd 5e31 ef3c 83d3 8d3b 0ee0 2b3d
00000050: 4fa9 af3d aece 773d d2aa 893c f757 38bd
00000060: 7ecb 583d 80ef 18bb f304 863d 964e cdbb
00000070: 186a 68bc 55a0 06bb 99f0 b73d 3e90 623d
00000080: a2ee a3bd dd74 09bd c7df a13d a8de c3bd
00000090: 3ce6 b0bd 7678 b33d 03c3 ab3d 0d14 83bd
000000a0: c05c 83bd 10ad 9bbd 6430 cf3c 5cc4 e8bb
000000b0: 277d 1ebd e9ca 9b3d a6db 643d 4176 a73c
000000c0: 8ae0 53bd 2cb7 a2bd 6c63 07bc d039 273d
000000d0: 72b3 563d 79e3 e83d 2849 38bc 5424 b53d
000000e0: 203a fa3c 2481 d0bc 90a4 34bc 3fb2 9bbd
000000f0: 7c52 a2bc 4f23 cf3d b9b1 b0bd 0d89 ce3d
00000100: c272 0dbd 00cc 133d 8e36 f93d cc6d 4ebd
00000110: 81e1 6e3d 0c6b 7dbd 1833 283d 07b5 b13d
00000120: b36b 2cbd 202f 6b3c 000b d13a 3a66 173d
00000130: 580f c33c 9bb5 1b3d 40ce ebbb 8453 babc
00000140: 3bfa 22bc e3e8 9cbd 234d 53bd 54f4 b93b
00000150: 0874 a3bd 9701 72bd 613e 83bd 4af5 193d
00000160: 0971 53bd f6f1 1ebe a8c7 5bbd 6394 7fbc
00000170: 8214 353d 2a7f 703d b902 003d 7068 91bd
00000180: 25e8 423c b80e 3dbd 3e83 4d3d fed1 1e3d
00000190: 9cac 0e3d cc2d 17bd 9d0c 873d 157c 9f3d
000001a0: 14eb cb3c f664 453d e846 123c 7922 22bd
000001b0: a7da 343d 32e4 95bd d090 bbbc 90aa db3c
000001c0: 2dad a23d 000b b9bc 20c0 78bd 5337 32bd
000001d0: fd96 88bd d63d 98bd dee5 aebd a2b0 a8bd
000001e0: 9ea4 c93c d836 42bc e74d 4fbd 219a 17bb
000001f0: 3ff5 9a3d 2e82 17bd 2f51 8cbd 672c 51bd
00000200: 9e0d 80bd 3ef1 febc 9d10 aabd 9046 eb3b
00000210: 9ba4 a4ba e17c 803c 9c18 cabd 70a8 3cbc
00000220: 3785 8e3d 5b0a 133d 28d5 ae3a fe7c 173d
00000230: 1f08 19bd 902d 913b 262c 4a3d a7a3 3cbd
00000240: a438 1e3d 1cc5 193d 0dbf 91bb 30b8 bfbc
00000250: 73cf 07bc 98fc e5bc 9bad 9a3d e09c 65bd
00000260: 51c7 a83d be50 5f3d 08e0 96bd 0577 2fbc
00000270: 07ce 9cbd 4ae8 3f3d 31f0 a93d bc60 f1bc
00000280: 6b23 0ebd b772 9d3c 920e 0bbd f847 bcbd
00000290: 0fbd 96bd 6977 3cbd 8475 153d 8521 a0bd
000002a0: f15d 79bd f617 823c b09f bebc aca7 9bbd
000002b0: 4fe5 63bd b0a0 cebc 6fa6 a33c 993b 1abc
000002c0: 22e3 89bd 79fb 973d c0d6 9a3c 2e9d 3bbd
000002d0: 1030 12bc 4daf e33d 231f 403d 121e 94bd
000002e0: 977b 2abd e08c 46bc 88a5 85bd 4d56 6a3c
000002f0: beac 8abd a2e8 5d3d 50e9 a3bc 6e46 cbbd
00000300: f3da 45bd 51ef cf3c 382e 313d 6e45 983c
00000310: 4217 cfbb ac72 bb3c ae73 c6bc 285e e33c
00000320: 6449 a7bc db4b 25bd c411 86bc 206d 743c
00000330: 7d48 8fbd 9854 b43c a314 20bd cbd4 853d
00000340: b755 0bbc 529c 72bc 4dc6 56bd 723b 8a3d
00000350: 4c59 0a3d 5cb3 01bd ea24 9fbc 3020 ebba
00000360: a153 16bd 74c0 a5bd 8c5b 96bd dd6c f83c
00000370: e049 08bc eecc 3c3d b95c ddbc 0ca2 abbd
00000380: 159d 45bd 5570 92bd bade 4a3d 8844 3f3c
00000390: b073 3ebd 581b d03c cfa4 8a3d 8ef3 063d
000003a0: a018 33bc a8b0 653c 9aa1 75bd 5ad7 323d
000003b0: f9ed e63d 0226 ffbb f248 133d d2f7 1f3d
000003c0: fa63 0c3b be62 4e3d 9a83 d3bd a9a2 56bd
000003d0: c824 603c 816e 883d 543a a6bd a584 5e3d
000003e0: e555 bcbc c561 8dbd 3daf 733d 9e93 cd3d
000003f0: 9995 2a3e dc86 b0bd 985d ac3d 97c1 333d

fc2.bias f4 [128]
0.052610923 0.05963322 0.036741365 0.076408766 0.04727067 0.08491768 0.15978675 0.1133463
-0.037860654 0.09854272 -0.049942058 -0.011922166 0.14589043 0.041723777 -0.102751374 0.07861194
0.06670061 0.10228818 0.09547956 0.0020859172 -0.037413232 0.08797084 0.11267712 0.20377119
0.13826564 0.029531527 0.109872125 0.14306344 0.00064205163 0.009544684 0.07898714 0.05572346
0.1770625 -0.092252575 0.19375974 0.013018206 0.032468487 0.18059203 -0.06416779 -0.019506576
0.04784218 0.005318659 -0.017937513 0.01579666 0.16966483 0.12028182 0.05209701 0.016074928
-0.13177282 0.026468115 0.11529711 0.05182853 0.031873703 0.007905303 0.1845413 0.09882286
0.009617113 0.08420287 -0.029972568 0.04099598 0.007475041 -0.041174512 0.18008012 -0.028806562
-0.007895985 -0.07093669 -0.039586987 0.07526901 0.096301526 0.116828196 0.0893518 0.07581297
-0.058000103 0.097185515 0.009375385 0.027970592 0.02615908 0.056934718 -0.14091773 -0.009880933
0.04008055 0.043617785 0.18259847 0.015745116 0.04680061 0.0065560634 -0.044722263 0.11960874
-0.16127825 0.17309 0.12131123 0.16854888 0.026120974 0.015411424 0.02944573 0.15794314
0.044305995 0.01304296 0.03648626 0.116501406 -0.0075975447 0.027237125 0.014148784 0.05890549
0.09633276 0.186246 0.017314114 0.020738944 0.19152181 0.15327592 -0.027265714 -0.052695923
-0.08299901 0.17216289 0.08732014 0.19497982 0.1618783 0.052379917 0.25908843 0.12958793
0.14436163 0.016320426 0.14473914 -0.09080356 0.27113423 0.1028741 -0.0325058 -0.03551803
00000000: 8d7e 573d f741 743d 1d7e 163d 337c 9c3d
00000010: e49e 413d 52e9 ad3d 239f 233e 1b22 e83d
00000020: c613 1bbd c4d0 c93d 0b90 4cbd 3055 43bc
00000030: 4d64 153e 8de6 2a3d 506f d2bd 4cff a03d
00000040: 549a 883d 777c d13d ca8a c33d e2b3 083b
00000050: 9e3e 19bd 0e2a b43d 43c3 e63d 65a9 503e
00000060: 8295 0d3e 1aec f13c a304 e13d 397f 123e
00000070: 5b4f 283a 4e61 1c3c 02c4 a13d 483e 643d
00000080: df4f 353e ebee bcbd f468 463e 504a 553c
00000090: adfd 043d 1eed 383e 676a 83bd 41cc 9fbc
000000a0: 29f6 433d 2548 ae3b b1f1 92bc ff67 813c
000000b0: 9ebc 2d3e 5156 f63d ad63 553d 91af 833c
000000c0: 74ef 06be a9d3 d83c e420 ec3d 274a 543d
000000d0: 008e 023d 3e85 013c 65f8 3c3e a463 ca3d
000000e0: 1891 1d3c 8e72 ac3d 0889 f5bc 67eb 273d
000000f0: 30f1 f43b 9ba6 28bd ec66 383e bdfb ebbc
00000100: 295e 01bc 4147 91bd f725 22bd a426 9a3d
00000110: bc39 c53d 9f43 ef3d 14fe b63d d543 9b3d
00000120: 8491 6dbd 3309 c73d 379b 193c 9522 e53c
00000130: 914b d63c 6134 693d bd4c 10be a3e3 21bc
00000140: 812b 243d 90a8 323d 18fb 3a3e e7fb 803c
00000150: ffb1 3f3d 3fd4 d63b b12e 37bd 6df5 f43d
00000160: 2026 25be 813e 313e 0672 f83d 1498 2c3e
00000170: a7fb d53c 3380 7c3c 2c38 f13c d9bb 213e
00000180: 347a 353d 24b2 553c 9e72 153d 4a98 ee3d
00000190: d3f4 f8bb 6420 df3c 4dd0 673c e246 713d
000001a0: 1c4a c53d 45b7 3e3e 54d6 8d3c b8e4 a93c
000001b0: 4b1e 443e 5df4 1c3e 595c dfbc aed7 57bd
000001c0: 63fb a9bd 784b 303e e7d4 b23d caa8 473e
000001d0: 6dc3 253e 538c 563d 3da7 843e b3b2 043e
000001e0: 89d3 133e 6ab2 853c 7f36 143e 38f7 b9bd
000001f0: 1bd2 8a3e a8af d23d cd24 05bd 5b7b 11bd

fc3.weight f4 [128, 128]
0.0040845517 -0.0247523 -0.13645709 -0.033131327 -0.011039841 0.044140816 0.032404713 -0.037889354
0.09844303 -0.051060088 -0.10225461 0.017385935 0.01659805 0.03529641 0.056075945 -0.0007214907
-0.020593671 -0.062911615 0.024415001 0.01818836 0.049915776 -0.03135425 -0.042520143 -0.01744943
-0.080391295 -0.07613659 -0.077151515 0.009408736 -0.016210431 0.004523641 -0.03707677 -0.0018402905
-7.692464e-05 -0.07325536 0.04114702 0.12754534 0.013730497 -0.09273129 -0.057319757 -0.01115473
-0.061460942 -0.046744388 0.10664156 -0.08901901 -0.05827094 -0.052550826 -0.02286082 0.083088785
-0.0596372 0.07461617 0.042646855 0.10349791 0.015025127 -0.06744069 -0.041363075 -0.055644944
-0.028515939 -0.0031223116 0.108224116 -0.12528272 0.10077789 0.011592698 -0.016138505 0.043527283
0.011988583 0.096091546 -0.03733787 0.016383618 0.027983433 -0.04404096 -0.03169803 0.03008386
0.07632349 0.023421356 0.041982245 0.026889132 -0.04705649 -0.066336304 0.0042052665 0.013234641
-0.10083061 0.0057865907 -0.0043062167 0.17981876 -0.09353286 0.13431971 0.09804626 -0.07744508
0.08150386 -0.04869385 0.011640065 0.01867231 0.013339106 0.05799173 0.06355876 -0.019121243
0.009681757 0.03773222 -0.066029474 0.14776996 -0.003326851 0.054639556 0.027126785 -0.057089746
-0.016934358 -0.034587994 -0.033052426 0.08713605 0.01030136 0.057820346 0.06981056 -0.026189227
-0.012959703 -0.02233858 -0.077489495 -0.052518964 0.018906837 0.07022679 -0.060328383 -0.08121089
-0.10835999 -0.084210895 -0.0014437836 -0.059257776 0.050478373 0.017021723 -0.07088072 0.06779397
-0.009021896 0.09443012 0.004387221 0.10528577 0.047586188 0.08240185 0.1075928 0.13896614
-0.021995481 0.09344375 -0.016726328 0.013473895 0.047103338 0.06952378 0.035348725 -0.030487245
0.0026389584 0.08242635 -0.008397922 0.09236774 -0.05413762 0.10373913 0.05679747 0.06905269
0.06476884 -0.061617047 -0.025350574 0.125312 -0.12245387 0.011254854 0.06099418 0.023891937
0.07400268 0.14816302 0.032543954 0.10833462 0.008133329 -0.02545667 -0.04879592 -0.08496649
0.09000394 -0.12658574 -0.09978367 -0.015514151 0.06744516 0.060204454 0.018761586 -0.07432358
0.055476986 -0.025040822 -0.03078978 0.047248926 -0.00824886 0.05963639 -0.01069116 0.071769245
0.06489733 -0.07316755 -0.096856475 0.030465553 -0.08289202 -0.098081544 0.045996036 -0.035956945
0.076024584 -0.07759734 0.0026332296 0.08354687 0.040658128 0.108460285 0.081002526 0.076230675
0.05647491 0.015951047 -0.005724464 0.021557633 -0.08965278 0.11998131 0.01624096 -0.06566449
0.12902743 -0.03380169 0.10302905 -0.020095993 0.044534173 0.051179823 -0.09191245 0.09141603
0.0075762616 -0.036804963 -0.001278402 -0.07460865 0.0142309 -0.033142913 -0.037096743 0.048589565
0.086039245 -0.07215472 0.06944395 0.050129987 -0.013607598 -0.038625807 0.034484006 0.14453182
-0.0039034071 0.07991156 -0.029598648 0.056888547 0.027074149 -0.023931757 -0.0739827 -0.02774843
0.06380832 0.01587852 0.058979135 -0.007710367 0.048440274 -0.04289426 -0.11804228 -0.012017231
0.023428565 -0.08479942 0.038292706 -0.08531462 0.021566015 0.07255679 -0.113458805 -0.12352696
00000000: b4d7 853b 56c5 cabc 68bb 0bbe b7b4 07bd
00000010: 73e0 34bc 00cd 343d ceba 043d de31 1bbd
00000020: 809c c93d 6224 51bd dd6a d1bd f36c 8e3c
00000030: a2f8 873c f892 103d e4af 653d 6c22 3dba
00000040: 0fb4 a8bc ced7 80bd f801 c83c c1ff 943c
00000050: 7c74 4c3d 506d 00bd 9a29 2ebd 1bf2 8ebc
00000060: 31a4 a4bd 80ed 9bbd 9d01 9ebd 1927 1a3c
00000070: bdcb 84bc 0d3b 943b d0dd 17bd e735 f1ba
00000080: 9a52 a1b8 e806 96bd c789 283d 3f9b 023e
00000090: e1f5 603c e7e9 bdbd 1fc8 6abd 54c2 36bc
000000a0: 78be 7bbd 0b77 3fbd e466 da3d 994f b6bd
000000b0: 82ad 6ebd 893f 57bd 9d46 bbbc 742a aa3d
000000c0: 2346 74bd 5dd0 983d 78ae 2e3d b6f6 d33d
000000d0: f32b 763c 581e 8abd 546c 29bd f4eb 63bd
000000e0: 429a e9bc b29f 4cbb 9ba4 dd3d 1d4a 00be
000000f0: a364 ce3d 4def 3d3c e634 84bc aa49 323d
00000100: c36b 443c a5cb c43d 98ef 18bd f036 863c
00000110: 833d e53c 4b64 34bd cbd5 01bd 6d72 f63c
00000120: 7d4f 9c3d 25de bf3c 93f5 2b3d 9946 dc3c
00000130: 4ebe 40bd 54db 87bd 55cc 893b 1cd6 583c
00000140: 4780 cebd 719d bd3b 2a1b 8dbb 6922 383e
00000150: 288e bfbd 1b8b 093e 7acc c83d 879b 9ebd
00000160: 7feb a63d 3473 47bd f9b5 3e3c acf6 983c
00000170: 448c 5a3c bc88 6d3d 182b 823d 27a4 9cbc
00000180: 3ba0 1e3c 1a8d 1a3d 763a 87bd 0251 173e
00000190: 4c07 5abb bacd 5f3d fe38 de3c f0d6 69bd
000001a0: ecb9 8abc 24ac 0dbd fb61 07bd 6374 b23d
000001b0: 09c7 283c 07d5 6c3d d7f8 8e3d ca8a d6bc
000001c0: ef54 54bc 66ff b6bc d0b2 9ebd 201e 57bd
000001d0: 83e2 9a3c 10d3 8f3d e51a 77bd e551 a6bd
000001e0: d8eb ddbd c376 acbd 573d bdba 48b8 72bd
000001f0: 69c2 4e3d 2471 8b3c e929 91bd 91d7 8a3d
00000200: 93d0 13bc 9464 c13d adc2 8f3b 11a0 d73d
00000210: bce9 423d 4dc2 a83d 9d59 dc3d 244d 0e3e
00000220: de2f b4bc 705f bf3d a705 89bc 9dc1 5c3c
00000230: 6eef 403d 7c62 8e3d d3c9 103d 63c0 f9bc
00000240: 60f2 2c3b 25cf a83d 7097 09bc 4c2b bd3d
00000250: 69bf 5dbd 2e75 d43d 77a4 683d 7f6b 8d3d
00000260: 87a5 843d 2862 7cbd 02ac cfbc ca51 003e
00000270: 18c9 fabd 4766 383c 09d5 793d 06b9 c33c
00000280: b88e 973d 0cb8 173e cf4c 053d 8bde dd3d
00000290: a841 053c 828a d0bc 3bde 47bd e902 aebd
000002a0: fc53 b83d b19f 01be 615b ccbd 112f 7ebc
000002b0: b020 8a3d f298 763d e6b1 993c f636 98bd
000002c0: d63b 633d 6922 cdbc d93a fcbc 1788 413d
000002d0: 3a26 07bc 4a45 743d fa29 2fbc c1fb 923d
000002e0: e4e8 843d ded8 95bd b05c c6bd e592 f93c
000002f0: 4bc3 a9bd fade c8bd 5766 3c3d 9747 13bd
00000300: c7b2 9b3d 5beb 9ebd 4392 2c3b 9f1a ab3d
00000310: 2389 263d 6d20 de3d a7e4 a53d d41e 9c3d
00000320: 3c52 673d c5ab 823c 4994 bbbb a299 b03c
00000330: e09b b7bd c3b8 f53d c30b 853c 1b7b 86bd
00000340: c41f 043e a473 0abd e500 d33d 5aa0 a4bc
00000350: 7769 363d efa1 513d 983c bcbd 5438 bb3d
00000360: 4a42 f83b cdc0 16bd 0e90 a7ba 6bcc 98bd
00000370: b928 693c ddc0 07bd c1f2 17bd da05 473d
00000380: 5835 b03d dbc5 93bd a138 8e3d 1a55 4d3d
00000390: 67f2 5ebc 1836 1ebd 1a3f 0d3d 2600 143e
000003a0: 4ed0 7fbb aca8 a33d dd78 f2bc f703 693d
000003b0: 9bca dd3c 880c c4bc 3e84 97bd ad50 e3bc
000003c0: f0ad 823d ac13 823c 1b94 713d 3fa7 fcbb
000003d0: 4f69 463d e4b1 2fbd 27c0 f1bd ece3 44bc
000003e0: 43ed bf3c 51ab adbd d0d8 1c3d 6eb9 aebd
000003f0: 36ab b03c a898 943d 175d e8bd b4fb fcbd

fc3.bias f4 [128]
0.011755233 0.0661673 0.095933534 0.07761662 0.29729325 0.12549041 0.10666676 0.16963401
0.106930315 0.15970169 0.1588781 0.10263403 -0.10883722 0.15555198 0.0145593295 -0.019992523
0.09521246 -0.0029933208 0.10569916 0.11018619 -0.0012353981 -0.08475353 -0.0340114 0.16777538
0.11926594 -0.004394313 -0.091129035 0.10247339 0.1544078 0.1112717 0.23515865 -0.09298774
0.17734756 0.0043317056 0.14589982 -0.10255021 -0.070987545 -0.024159942 0.19652572 0.128816
0.09218158 0.18693615 -0.04048988 0.12976317 -0.004990522 0.04975237 0.157659 0.06782901
0.008222371 0.077781335 0.09161908 -0.009412612 -0.11143184 0.01874661 0.050036136 0.11366402
0.21753533 0.07532171 -0.04011152 0.043271173 0.19336857 0.19609879 0.17985135 0.06887691
0.103356645 0.033088047 0.06459848 0.2779312 0.07432414 -0.0017679366 0.17896143 0.20734252
0.23830651 0.15994549 -0.14150456 -0.0053689424 0.04200265 0.20623927 -0.1715794 0.13335378
-0.0054239943 0.14264923 -0.013057666 0.16510084 0.1422775 0.18745777 -0.09390467 0.065401345
0.096056394 0.22414139 0.07675983 0.12511185 0.23994187 0.2306327 0.23313633 0.1252585
-0.039386712 -0.14273994 -0.046192057 0.19075029 0.08599522 0.0312611 -0.035380963 0.12293455
0.1702024 0.040854007 0.13044131 0.2383206 0.15795533 0.06794341 0.05059288 -0.13406916
0.104905374 -0.14870043 0.06613903 -0.10935487 0.1487856 0.10876325 0.077706926 0.020159684
0.20575167 -0.006113195 0.06514251 -0.054956663 0.07392559 -0.046495125 0.17136793 -0.061545487
00000000: 0599 403c b982 873d cd78 c43d 76f5 9e3d
00000010: d236 983e 8f80 003e 1a74 da3d 8ab4 2d3e
00000020: 48fe da3d d788 233e f1b0 223e ca31 d23d
00000030: 0ce6 debd 0549 1f3e 418a 6e3c 5cc7 a3bc
00000040: c0fe c23d 972b 44bb cd78 d83d 4ca9 e13d
00000050: 15ed a1ba 4293 adbd 8a4f 0bbd 4fcd 2b3e
00000060: b341 f43d 2bfe 8fbb dca1 babd 92dd d13d
00000070: 141d 1e3e 6be2 e33d 6ecd 703e 5b70 bebd
00000080: 999a 353e fbf0 8d3b c366 153e d805 d2bd
00000090: eb61 91bd 12eb c5bc 0a3e 493e 57e8 033e
000000a0: b2c9 bc3d 316c 3f3e b7d8 25bd a3e0 043e
000000b0: 8887 a3bb 24c9 4b3d 5c71 213e f0e9 8a3d
000000c0: 20b7 063c d24b 9f3d c9a2 bb3d 5b37 1abc
000000d0: 6036 e4bd 7e92 993c b1f2 4c3d afc8 e83d
000000e0: 95c1 5e3e 4542 9a3d fa4b 24bd 1d3d 313d
000000f0: 6902 463e 1fce 483e f42a 383e 560f 8d3d
00000100: a6ac d33d 5587 073d 354c 843d 004d 8e3e
00000110: 4137 983d 1cba e7ba aa41 373e 9951 543e
00000120: 9f06 743e c0c8 233e 92e6 10be f4ed afbb
00000130: f90a 2c3d 6330 533e 83b2 2fbe e58d 083e
00000140: c3bb b1bb a412 123e d2ef 55bc 3210 293e
00000150: 31b1 113e eef4 3f3e 1751 c0bd 24f1 853d
00000160: 37b9 c43d 5285 653e 4234 9d3d 521d 003e
00000170: 52b3 753e fa2a 6c3e 4abb 6e3e c443 003e
00000180: f653 21bd 6b2a 12be e233 3dbd 0b54 433e
00000190: 431e b03d a40b 003d a1eb 10bd 1cc5 fb3d
000001a0: 8a49 2e3e 8856 273d 6892 053e 510a 743e
000001b0: 0bbf 213e ea25 8b3d 7b3a 4f3d 6d49 09be
000001c0: a1d8 d63d ed44 18be e673 873d 72f5 dfbd
000001d0: 415b 183e 44bf de3d cf24 9f3d ec25 a53c
000001e0: 91b0 523e 3251 c8bb 7069 853d 3d1a 61bd
000001f0: 4d66 973d ac71 3ebd 137b 2f3e 1f17 7cbd
