models/dqn_model_epoch_82000.pth (torch, 595624 bytes, 14 tensors)

cnn1.weight f4 [16, 4, 5, 5]
0	0xbe476316	-0.19471392
1	0x3d336fe7	0.04380789
2	0xbcc908bc	-0.024540298
3	0xbe499bc2	-0.19688323
4	0xbe125c76	-0.14293084
5	0xbe4b7e42	-0.19872382
6	0xbe4691a2	-0.19391492
7	0xbe9462fe	-0.28981775
8	0xbd0e9a74	-0.034815267
9	0xbd695409	-0.056964908
10	0xbe8bb78d	-0.27288476
11	0xbe24402c	-0.16040105
12	0xbec27274	-0.37977946
13	0xbe15e0cd	-0.14636536
14	0x3d147258	0.03624186
15	0xbe2a21b6	-0.16614422
16	0xbe5aacaf	-0.21354936
17	0xbd23d38b	-0.039996665
18	0xbe8330b4	-0.25623095
19	0x3c454435	0.012040188
20	0xbe56f939	-0.20993508
21	0xbe81a09f	-0.25317857
22	0xbe4123d9	-0.18861331
23	0x3d889c09	0.06670386
24	0x3cd528b5	0.026020387
25	0xbc6f76bd	-0.014615712
26	0xbd0b17f7	-0.0339584
27	0xbdc1d7ff	-0.09465026
28	0xbe103cd4	-0.14085704
29	0x3ce35554	0.027750649
30	0x3d83b8f4	0.064317614
31	0xbcde5a0c	-0.027142547
32	0x3cd07068	0.025444224
33	0xbd88ba3e	-0.06676148
34	0xbd934519	-0.07190914
35	0xbd410401	-0.04712296
36	0xbe0d5c49	-0.13804735
37	0x3c85fbb0	0.016355366
38	0x3e0926bc	0.13393682
39	0xbce85d5f	-0.028364835
40	0xbdd3fd49	-0.10351045
41	0x3ca73cb2	0.020414684
42	0xbdada168	-0.084780514
43	0x3ca223f8	0.019792542
44	0xbe040017	-0.1289066
45	0xbd021520	-0.031758428
46	0x3d99a6fb	0.07502552
47	0xbd2a403a	-0.041565157
48	0xbd891503	-0.06693461
49	0xbdb26ef1	-0.08712567
50	0x3da9f3b7	0.08298438
51	0xbc27a7c8	-0.010232873
52	0xbe071245	-0.13190563
53	0xbe52af6b	-0.20574729
54	0xbcd45a2c	-0.025921904
55	0xbcc79232	-0.024361704
56	0xbdb31f27	-0.08746176
57	0x3e382a3d	0.17984863
58	0x3d4b02ae	0.049563102
59	0xbe1df4c5	-0.15425403
60	0x3e6a51a8	0.22882712
61	0x3e6c29d8	0.23062837
62	0x3e04669f	0.12929772
63	0x3cf1b4e0	0.029505193
64	0xbe576c99	-0.2103752
65	0xbe90c81c	-0.2827767
66	0x3e235938	0.15952003
67	0x3e916246	0.2839529
68	0xbe05f342	-0.13081077
69	0xbe2aa07f	-0.16662787
70	0xbe24036e	-0.16016933
71	0xbc83c6bf	-0.01608598
72	0x3ea3731e	0.31923765
73	0xbe06dc8d	-0.13170071
74	0xbe1c34d0	-0.15254521
75	0xbdbf9208	-0.09354025
76	0xbe7a56a8	-0.24447119
77	0xbdb8862c	-0.09009966
78	0xbba7c5a3	-0.0051199957
79	0xbd87cce6	-0.06630878
80	0xbd2b6489	-0.041843925
81	0x3de1a9d9	0.11018724
82	0x3e1849a4	0.14871842
83	0xbdc0f093	-0.09420886
84	0x3d09e34c	0.033664033
85	0xbe26f05b	-0.16302626
86	0x3d9624e9	0.07331259
87	0x3da52ab8	0.080647886
88	0xbdbf976a	-0.09355052
89	0xbda8e209	-0.08246238
90	0xbe038cd0	-0.12846684
91	0xbbb120f7	-0.005405541
92	0x3d98a357	0.074530296
93	0xbcc8d520	-0.024515688
94	0xbdf2bdf8	-0.1185264
95	0x3db901d0	0.09033549
96	0x3df02312	0.11725439
97	0xbe3a762d	-0.18209143
98	0xbd8f8e29	-0.07009537
99	0xbd751574	-0.059834912
100	0xbdf2f10f	-0.118623845
101	0xbe859516	-0.26090306
102	0xbe352a7f	-0.17691992
103	0x3d0b600e	0.03402715
104	0xbe678e01	-0.22612764
105	0xbe014271	-0.12623002
106	0xbda7cc44	-0.081932575
107	0xbbd959da	-0.0066330256
108	0x39bf4fa6	0.00036489702
109	0x3bae0946	0.005311164
110	0xbe0c102b	-0.13678043
111	0xbd4a4d77	-0.049390282
112	0x3c9401f9	0.018067347
113	0xbd810b15	-0.06300942
114	0xbd79e12c	-0.061005756
115	0xbe1f71de	-0.1557078
116	0xbe67ea36	-0.22647938
117	0xbe33e802	-0.17568973
118	0xbebd8aad	-0.37019864
119	0xbd6e1aee	-0.05813115
120	0xbe840739	-0.2578676
121	0xbe62ae4a	-0.22136799
122	0xbdc56b42	-0.096395984
123	0xbd8c3732	-0.06846465
124	0xbdffd3eb	-0.12491592
125	0xbd42a415	-0.047519762
126	0x3daac835	0.08338968
127	0xbd734239	-0.059389327
128	0x3d0ff567	0.035146143
129	0xbe06aad5	-0.13151105
130	0xbc89092c	-0.016728006
131	0xbd1e28f2	-0.038613267
132	0xbde188ea	-0.110124424
133	0x3cbba541	0.022905948
134	0xbb50c336	-0.0031854636
135	0xbca62574	-0.02028153
136	0xbd4de9a1	-0.050271634
137	0xbe1220a6	-0.14270267
138	0xbd472aff	-0.04862499
139	0xbcd2c46d	-0.025728429
140	0xbe0b912b	-0.13629596
141	0xbccc869b	-0.024966529
142	0x3d514712	0.05109317
143	0xbd48a388	-0.04898408
144	0xbdda7cfc	-0.1066837
145	0xbb1faa14	-0.002436285
146	0x3d0592dc	0.03261076
147	0xbd8c8fd5	-0.06863371
148	0x3dd41b50	0.10356772
149	0xbde8a1f2	-0.113590136
150	0xbe42dae5	-0.19028814
151	0x3e2de7bf	0.16982935
152	0xbd5f45b6	-0.05450984
153	0x3e1b0058	0.1513685
154	0xbe17574c	-0.14779395
155	0xbe3eeec6	-0.18645772
156	0x3e36279b	0.17788546
157	0xbe5116fe	-0.20418927
158	0x3da7b54c	0.081888765
159	0xbe20cae4	-0.15702397
160	0xbe8bde7b	-0.27318177
161	0xbe802fc9	-0.25036457
162	0x3db33c22	0.08751704
163	0x3dc62013	0.096740864
164	0xbe576513	-0.2103465
165	0xbe7c493b	-0.2463731
166	0xbe0cc57c	-0.1374721
167	0x3e83ba33	0.25727996
168	0xbe4199a7	-0.1890627
169	0xbe6eda70	-0.23325515
170	0x3ec763c5	0.38943306
171	0x3e97fde3	0.29685888
172	0x3ed41978	0.4142568
173	0xbd66e489	-0.05637029
174	0xbe297b70	-0.16550994
175	0x3e541289	0.20710196
176	0x3e089fc9	0.13342203
177	0x3e72f31d	0.23725553
178	0xbc8d9f90	-0.017288
179	0xbda87bf8	-0.0822677
180	0x3defa047	0.11700492
181	0xbdf4ee09	-0.11959464
182	0x3e1bbf05	0.15209587
183	0xbe0443f7	-0.12916552
184	0xbde0c840	-0.10975695
185	0xbe288112	-0.16455486
186	0x3dbdb9ca	0.09263952
187	0x3d815238	0.0631451
188	0xbda64869	-0.0811928
189	0xbe1ccba3	-0.15312056
190	0xbe2b26fe	-0.16714093
191	0xbceb8e19	-0.02875428
192	0xbdabc644	-0.083874255
193	0xbe002a0e	-0.12516043
194	0xbd254542	-0.040349253
195	0xbe0a0443	-0.13478188
196	0xbdf1b49c	-0.11802027
197	0x3e3d1230	0.18463969
198	0xbe03257d	-0.1280727
199	0xbe0e90af	-0.1392238
200	0xbe990670	-0.29887724
201	0xbd9942ba	-0.0748343
202	0xbeb0942d	-0.3448805
203	0x3d46b4d0	0.04851228
204	0xbe3a0d69	-0.18169178
205	0xbe6439ea	-0.22287717
206	0xbe1ed3fc	-0.15510553
207	0xbe42f83f	-0.19040011
208	0x3d1d2b64	0.03837146
209	0x3b9bfc0f	0.0047602723
210	0xbe783bec	-0.24241608
211	0xbe5fc053	-0.2185071
212	0xbdfadf1a	-0.122495845
213	0x3cec7ec9	0.02886905
214	0x3e355b95	0.17710717
215	0xbe7e80e2	-0.24853852
216	0xbe6a669a	-0.22890702
217	0xbe946ad0	-0.2898774
218	0xbe21aa76	-0.15787682
219	0x3e097e10	0.13426995
220	0xbe7984ab	-0.24367015
221	0xbe052076	-0.13000664
222	0xbe74cfc2	-0.23907378
223	0x3d5610f3	0.052262258
224	0xbd8556af	-0.06510674
225	0xbe052252	-0.13001373
226	0xbc451968	-0.012029983
227	0xbe0ed4e7	-0.13948403
228	0xbdab673c	-0.083693
229	0xbd16b866	-0.03679695
230	0xbb83cc48	-0.004022155
231	0xbcb39e57	-0.021926088
232	0x3d80bfb1	0.06286562
233	0xbdba50d9	-0.09097452
234	0x3ce9489e	0.02847701
235	0xbc91a7db	-0.017780235
236	0x3cc926ec	0.024554692
237	0xbc4cbb3b	-0.012495811
238	0xbdcf45f5	-0.10120765
239	0xbb7f71b3	-0.0038977682
240	0xbb53ca3a	-0.0032316581
241	0xbdb11c4e	-0.08647977
242	0x3c262cdc	0.010142531
243	0x3e3c0bac	0.18363827
244	0xbbfcfa48	-0.0077202655
245	0xbdb01959	-0.08598585
246	0xbe1b3af7	-0.15159212
247	0xbd65a034	-0.056060985
248	0x3dbb4eed	0.09145913
249	0xbc3ea965	-0.0116370665
250	0x3d999444	0.074989825
251	0x3cfc6463	0.030809587
252	0x3d502ba6	0.050822876
253	0xbecb3001	-0.39685062
254	0xbd79a574	-0.060948804
255	0x3cc752a1	0.024331393

cnn1.bias f4 [16]
0	0x3d61ba90	0.05510956
1	0xbd4dd863	-0.05025519
2	0xbd8e51be	-0.06949185
3	0xbd97f1d5	-0.07419173
4	0x3d11cf69	0.035598192
5	0xbd9424fa	-0.07233615
6	0xbd9415f5	-0.072307505
7	0xbb0d7051	-0.0021581838
8	0x3c877513	0.016535318
9	0xbdf9b600	-0.12192917
10	0xbcf048a7	-0.029331518
11	0xbd978b60	-0.073996305
12	0xbc72c84b	-0.014818261
13	0xbdb4c4a6	-0.0882657
14	0x3ccaa3d5	0.024736324
15	0xbd9e4127	-0.077272706

cnn2.weight f4 [32, 16, 3, 3]
0	0x3cddc4cc	0.02707138
1	0x3d6c5f71	0.057708208
2	0x3dd50225	0.104008
3	0x3e241172	0.1602228
4	0xbc9c4631	-0.019076439
5	0xbd2ab834	-0.041679576
6	0x3d9a31fe	0.075290665
7	0x3c8c726a	0.0171444
8	0xbd502ed7	-0.05082592
9	0x3e2f080c	0.17092913
10	0xbdc959c3	-0.09831574
11	0x3d2a0fc2	0.041518934
12	0x3e0a3f09	0.13500609
13	0xbd940092	-0.07226671
14	0x3df80b98	0.12111586
15	0x3e1c755d	0.15279146
16	0xbd6ae30c	-0.057345435
17	0xbd8ee679	-0.06977553
18	0xbc38bedd	-0.011275974
19	0xbcdf45d7	-0.027254982
20	0xbaa9d807	-0.0012958058
21	0xbc76e559	-0.015069329
22	0x3bd046fa	0.0063561173
23	0xbd542803	-0.05179597
24	0xbd7043b6	-0.058658324
25	0x3c8048a6	0.015659641
26	0xbd66225d	-0.056185115
27	0x3dd5a68c	0.10432157
28	0xbda3965a	-0.07987662
29	0x3c91cf40	0.01779902
30	0x3e2c7ce2	0.16844514
31	0x3d17b2d6	0.037035786
32	0xbcff175c	-0.031139068
33	0x3de5920a	0.11209495
34	0x3d7a3fb4	0.06109591
35	0xbdb42b5c	-0.08797333
36	0x3d84b738	0.06480259
37	0xbc9c6280	-0.019089937
38	0xbc9e34f3	-0.019312358
39	0x3de20a1c	0.110370845
40	0x3c8b0e99	0.016974734
41	0x3d8d132c	0.06888422
42	0x3dba85df	0.09107565
43	0x3cf08650	0.02936092
44	0x3db8cfbf	0.090239994
45	0x3dc29b74	0.095023066
46	0x3d834c76	0.06411068
47	0x3d8a98db	0.06767436
48	0x3e0074d4	0.12544566
49	0x3d816027	0.06317168
50	0x3cdaf222	0.026726786
51	0xbc5bbd00	-0.01341176
52	0x3c8c80ba	0.017151225
53	0x3d13596a	0.035973944
54	0xbd5f11be	-0.05446028
55	0x3d0dde2a	0.0346357
56	0x3d9bd46c	0.07608876
57	0x3c31da4a	0.010855267
58	0x3d087a98	0.03332004
59	0x3d8bb878	0.06822294
60	0x3d371f67	0.044707682
61	0x3d1160eb	0.03549282
62	0x3dd3b8da	0.10337992
63	0x3d68bcd8	0.05682072
64	0xbdaa0099	-0.08300895
65	0x3d46f8cd	0.04857712
66	0x3d4cf0ed	0.050034452
67	0xbd361096	-0.04444941
68	0x3dcdde34	0.100521475
69	0xbcca159b	-0.024668505
70	0xbd154a1d	-0.036447633
71	0x3c106587	0.0088132685
72	0x3d6cbe3f	0.05779862
73	0xbc757809	-0.014982232
74	0xbd623453	-0.05522568
75	0x3de6990b	0.112596594
76	0x3dbf38a7	0.093369775
77	0x3dad061f	0.08448433
78	0x3d501242	0.050798662
79	0x3d3c5c9d	0.04598676
80	0x3d5878ec	0.052849695
81	0x3d8d5ef5	0.06902877
82	0x3da0e614	0.07856384
83	0x3df0ad4c	0.11751804
84	0x3d575591	0.052571837
85	0x3d4ce499	0.050022695
86	0x3ce3d5d6	0.027811926
87	0x3d8c5ed6	0.06854026
88	0xbd15fa3c	-0.036615595
89	0x3d3c9db2	0.046048827
90	0x3d3c1abd	0.045923937
91	0xbc87c427	-0.016573025
92	0xbc43aea5	-0.011943494
93	0x3c84f8a9	0.016231852
94	0x39a9783a	0.00032323768
95	0xbda7468e	-0.08167754
96	0x3b2d7772	0.00264689
97	0xbada37dd	-0.0016648729
98	0xbb2614a2	-0.0025341888
99	0x3ca44e6d	0.020056928
100	0xbd22428a	-0.039614238
101	0x3d1796a6	0.037008904
102	0x3dafe9c8	0.08589512
103	0x3db8004d	0.08984432
104	0xbd551436	-0.052021228
105	0x3dcf6b13	0.10127845
106	0x3d4cb60e	0.04997831
107	0x3db6fd2b	0.08935007
108	0xbda73e26	-0.08166151
109	0xbdf1f438	-0.11814159
110	0xbc9b0c64	-0.018926807
111	0xbb2c643a	-0.0026304857
112	0x3d3f4ab9	0.04670212
113	0xbc4ba374	-0.012429107
114	0x3d4fea22	0.050760396
115	0xbd5dc8ba	-0.054146506
116	0xbb2e6dd9	-0.0026615767
117	0xbd16b05e	-0.03678929
118	0xbd6d4787	-0.057929542
119	0x3cbd4e8d	0.023108745
120	0x3d3a7a51	0.045526806
121	0xbd83c7e6	-0.06434612
122	0xbd863141	-0.06552363
123	0xbd18e6f3	-0.037329625
124	0xbda0f78d	-0.078597166
125	0xbd034d4d	-0.03205614
126	0x3ddbfec9	0.10741956
127	0xbccd3280	-0.025048494
128	0x3daf2d44	0.085535556
129	0x3e3b7d69	0.18309559
130	0x3d82a2cb	0.063787065
131	0x3d940405	0.07227329
132	0x3e1e54c6	0.15462026
133	0xba2a8f1a	-0.0006506309
134	0x3dc3f8c3	0.09568932
135	0x3cb86cbf	0.022512792
136	0xbd7181fe	-0.05896186
137	0xba8bab28	-0.0010655867
138	0x3d80362e	0.06260334
139	0xbd1de238	-0.038545817
140	0x3c3b08e2	0.011415692
141	0x3d1f8717	0.03894719
142	0xbd4fcec8	-0.05073431
143	0xbdc7629d	-0.09735606
144	0xbd59eec2	-0.053206213
145	0x3d0be7ba	0.03415654
146	0x3ce8748c	0.028375886
147	0x3e2237ec	0.15841645
148	0x3b91fe6b	0.004455378
149	0xbcedcb40	-0.029027581
150	0x3c6cb7b2	0.014448093
151	0x3d07ca82	0.03315211
152	0xbc3f0058	-0.011657797
153	0x3bb7e8fc	0.0056124907
154	0x3dec6593	0.11542811
155	0xbd14c6d7	-0.03632244
156	0x3e061568	0.13094103
157	0x3c230f6f	0.00995241
158	0xbb88c6a6	-0.0041740714
159	0x3d976469	0.073921986
160	0x3dfae54b	0.122507654
161	0xbdc072b5	-0.09396879
162	0x3c1d46eb	0.009599428
163	0xbd90bb8d	-0.070670225
164	0xbd375682	-0.044760235
165	0xbdb2f899	-0.087388225
166	0xbdf4fe7f	-0.11962604
167	0xbdba98e5	-0.091111936
168	0xbd522569	-0.05130521
169	0xbe07c26c	-0.1325776
170	0xbde54965	-0.111956395
171	0x3df78797	0.120864086
172	0x3def52f1	0.11685742
173	0xbcd72573	-0.026262974
174	0x3e22af8c	0.15887278
175	0xba350640	-0.00069055334
176	0x3cbb8a19	0.022892999
177	0x3df1e864	0.11811903
178	0x3d90a828	0.07063323
179	0xbd92c279	-0.07165999
180	0x3cd47102	0.025932793
181	0x3d601d00	0.054715157
182	0x3d0a0d68	0.03370419
183	0x3d87d1bf	0.06631803
184	0x3e3444a5	0.17604311
185	0x3bcf2d1f	0.0063225175
186	0x3dc03f59	0.093870826
187	0x3d6f596b	0.058434885
188	0x3d09f11a	0.033677198
189	0x3e47e5a6	0.19521198
190	0x3aae11c4	0.0013280441
191	0x3cfee192	0.03111342
192	0x3e131c78	0.14366329
193	0x3c20eee9	0.009822586
194	0x3bde5ecc	0.006786203
195	0xbd6c800a	-0.057739295
196	0x3d36a9b8	0.04459545
197	0xbe0db1f5	-0.13837416
198	0xbae9bf46	-0.0017833493
199	0xbc9aa22b	-0.018876156
200	0xbc1f4ae1	-0.009722442
201	0x3dfa4762	0.122206464
202	0x3dcea6a4	0.10090378
203	0x3cf5cf14	0.03000597
204	0x3e31f8ea	0.1738011
205	0xbd5d1355	-0.053973515
206	0x3ddc0544	0.10743192
207	0x3c33473c	0.010942277
208	0x3d361f7d	0.044463623
209	0xbd0d89d3	-0.034555268
210	0xbd32d213	-0.043657374
211	0xbd7188f4	-0.0589685
212	0xbc912549	-0.017717974
213	0xbd38b586	-0.04509499
214	0xbdb98bbe	-0.09059857
215	0xbcb0fc75	-0.021604756
216	0x3e1db28a	0.15400138
217	0x3cceb42f	0.025232403
218	0xba6e53b3	-0.00090914516
219	0x3e29af22	0.16570714
220	0xbc8d2743	-0.017230636
221	0xbc5cf374	-0.013485778
222	0x3e3cbc02	0.18431094
223	0x3d42e610	0.047582686
224	0x3d0a62bb	0.033785563
225	0x3e1a1738	0.1504792
226	0x3db3cdcb	0.08779486
227	0x3cac0428	0.020998076
228	0x3b4846da	0.003055981
229	0x3db59b80	0.0886755
230	0x3e212acc	0.15738982
231	0x3db06e4e	0.08614789
232	0xbd0fc679	-0.035101388
233	0x3d1223fe	0.035678856
234	0x3cd685d5	0.026186863
235	0x3db46ddd	0.08810017
236	0x3a5abf52	0.0008344549
237	0x3d3b0ec5	0.045668382
238	0xbc0dd216	-0.008656045
239	0xbd908cc5	-0.070581
240	0xbd588f14	-0.052870825
241	0xbd51ef02	-0.051253326
242	0xbdfb0e71	-0.12258614
243	0x3df3122d	0.11868701
244	0x3d4a5511	0.049397532
245	0xbdce10cf	-0.100618
246	0x3d89dc79	0.06731505
247	0x3d5a6260	0.053316474
248	0xbbf20427	-0.007385749
249	0x3de05ad1	0.10954822
250	0x3d980464	0.074227124
251	0x3cccea37	0.025014026
252	0x3c9ddb3f	0.019269584
253	0xbcc57387	-0.02410294
254	0xbd9ae54c	-0.07563266
255	0x3ded3ca9	0.11583836

cnn2.bias f4 [32]
0	0xbdcf87ec	-0.10133347
1	0xbceee3b5	-0.029161314
2	0xbd0c3ec1	-0.034239534
3	0x3b6827ab	0.0035424035
4	0xb9d18b22	-0.00039967248
5	0xba9769ad	-0.001155188
6	0xbd9bea1e	-0.07613014
7	0x3d9211b8	0.07132286
8	0xbd94d64c	-0.072674364
9	0xbd2e0d97	-0.04249343
10	0x3cfea70a	0.03108551
11	0x3a93b103	0.0011267964
12	0xbbc0e614	-0.0058868024
13	0x3be6d3c8	0.0070442893
14	0xb9d18afb	-0.00039967135
15	0xbddea5ea	-0.10871489
16	0x3de66d89	0.11251361
17	0x3bd42607	0.00647426
18	0xbd192ce9	-0.037396345
19	0xbdcbdc9a	-0.09954186
20	0xbde10cd5	-0.10988776
21	0x3c9d984e	0.019237664
22	0xbd57d0aa	-0.052689232
23	0xbd24f406	-0.04027178
24	0xbb8c2b8e	-0.004277653
25	0xbdaf3f63	-0.08557012
26	0xbd60269f	-0.054724332
27	0xbe06cdff	-0.13164519
28	0x3dc66cc9	0.09688718
29	0xbd741c33	-0.059597205
30	0x3dbf3a2b	0.093372665
31	0xbc052c2f	-0.00812821

cnn3.weight f4 [32, 32, 3, 3]
0	0x3cd95346	0.026528966
1	0x3aba2069	0.0014200333
2	0x3cae6016	0.021286052
3	0x3c44a4c9	0.0120021785
4	0xbd96e72a	-0.0736831
5	0xbd41cd8b	-0.04731516
6	0xbc464cc7	-0.012103266
7	0xbcc21594	-0.02369193
8	0x39b5e497	0.00034693323
9	0x3e2c5804	0.1683045
10	0x3d2f540e	0.04280477
11	0xbd973bb9	-0.07384438
12	0x3dc32b8e	0.09529792
13	0xbd338c44	-0.04383494
14	0xbe19ed6d	-0.15031977
15	0xbd9177b3	-0.07102909
16	0xbd4843aa	-0.048892654
17	0xbdbcbd64	-0.09215811
18	0x3aa6f548	0.0012737894
19	0xbd26919c	-0.040666208
20	0xbd87772b	-0.06614526
21	0x3da42a94	0.08015934
22	0xbd587440	-0.05284524
23	0xbd9f79b7	-0.07786887
24	0x3d3d90b8	0.046280593
25	0x3d6497ea	0.05580894
26	0xbc891728	-0.016734675
27	0x3d17afa4	0.03703274
28	0xbbb9dff1	-0.005672448
29	0x3c06cb13	0.008227128
30	0x3d506fda	0.05088792
31	0xbd590275	-0.05298086
32	0xbd5a96d7	-0.05336651
33	0x3c5e8c64	0.013583276
34	0xbcd25fe1	-0.025680484
35	0x3cd348c7	0.025791539
36	0x3dd52f38	0.10409397
37	0x3cd0802d	0.025451744
38	0xbc360a0e	-0.011110796
39	0xbccc361d	-0.024928147
40	0xbdcdbac6	-0.1004539
41	0x3b513fd9	0.0031928925
42	0x3a86b479	0.0010277174
43	0x3d7e7c6d	0.06213038
44	0xbc1f3375	-0.009716858
45	0x3df4a8d8	0.11946267
46	0xbda086b0	-0.078381896
47	0xbc8c0647	-0.017092837
48	0x3d161955	0.036645252
49	0xbdc63205	-0.09677509
50	0xbdc61d8f	-0.096736066
51	0xbc752985	-0.014963512
52	0x3bb1dc99	0.0054279086
53	0xbb88e78e	-0.004177994
54	0xbbfc9509	-0.007708196
55	0x3cdbb1c9	0.026818173
56	0xbd80c360	-0.06287265
57	0xbd206512	-0.03915889
58	0xbb36d941	-0.002790049
59	0xbcef0c0f	-0.029180555
60	0x3d465a4c	0.048425958
61	0xbd610339	-0.054934714
62	0xbd233c71	-0.039852563
63	0xbd4102fc	-0.047121987
64	0x3dead83b	0.11467024
65	0x3d90ef93	0.07076945
66	0x3d21abef	0.03947061
67	0xbbbf9522	-0.0058466354
68	0x3ddc8841	0.10768176
69	0x3d3a7e32	0.045530505
70	0x3d83498d	0.06410513
71	0x3db7a790	0.08967507
72	0xbc2d293e	-0.010568915
73	0x3cb7e8ed	0.022449935
74	0xbd611b38	-0.0549576
75	0xbd891534	-0.06693497
76	0xbcf7ef03	-0.030265337
77	0xbd628615	-0.05530365
78	0x3c1dbba9	0.009627261
79	0xbcaeb5bb	-0.02132689
80	0xbd7052e0	-0.058672786
81	0x3db91f76	0.09039204
82	0xbdae1f9a	-0.08502121
83	0x3c450cfe	0.012027023
84	0x3cb18ec7	0.021674527
85	0xbdf8c3f2	-0.121467486
86	0x3c452343	0.012032333
87	0xbcf648cf	-0.030064015
88	0xbcfcf25e	-0.030877288
89	0xbd60b3e7	-0.05485907
90	0x3daf726d	0.08566747
91	0x3dc103a9	0.09424526
92	0xbdc365c1	-0.095408924
93	0x3cb86db8	0.022513255
94	0x3c9dfa85	0.019284496
95	0xbdb551c8	-0.08853489
96	0xbd023b26	-0.03179469
97	0x3d1112bc	0.035418257
98	0xbcd73358	-0.0262696
99	0x3d6b35cf	0.057424363
100	0xbd9c206e	-0.07623373
101	0xbd9422d8	-0.072332084
102	0xbd2e6e8e	-0.042585902
103	0xbdf40c67	-0.11916428
104	0xbe0c1889	-0.13681234
105	0x3d58716e	0.05284255
106	0x3d163fd6	0.036681972
107	0xbccf006b	-0.025268754
108	0x3dd5514c	0.10415897
109	0x3e168285	0.14698227
110	0x3e1f30a5	0.155459
111	0xbcf1a14e	-0.029495861
112	0x3e1d875e	0.1538367
113	0x3cdd500b	0.027015707
114	0x3c3721cd	0.011177492
115	0x3cbe5c47	0.02323736
116	0xbcb08f1d	-0.021552617
117	0x3c887428	0.01665695
118	0x3c6be507	0.014397866
119	0xbcb6c576	-0.022310954
120	0xbbc604a8	-0.0060430355
121	0x3d1e12e3	0.03859223
122	0xbd3e039f	-0.046390172
123	0x3cf7c046	0.03024305
124	0x3d00549b	0.031330686
125	0x3d4bc5ee	0.049749307
126	0x3dd8614e	0.105654344
127	0xbc1abcf9	-0.009444469
128	0xbd560b6d	-0.05225699
129	0x3d610909	0.054940257
130	0xbd644079	-0.05572555
131	0xbd68fa46	-0.056879304
132	0xbc99f9e5	-0.018795917
133	0x3c9ae300	0.01890707
134	0xbdcf23f5	-0.1011428
135	0x3b5a3ca0	0.0033300295
136	0xbd204c80	-0.039135456
137	0x3d4f24fd	0.050572384
138	0xbcbaac88	-0.022787347
139	0xbcd4e598	-0.025988385
140	0xbd506061	-0.050873164
141	0x3cc84a2a	0.024449427
142	0x3b811738	0.0039395355
143	0xbc3e1c18	-0.011603378
144	0x3d88ddb3	0.06682911
145	0x3e687932	0.22702482
146	0x3e4f0238	0.2021569
147	0x3cceb883	0.025234466
148	0x3db213a0	0.086951494
149	0x3df9f68f	0.122052304
150	0x3cc86d87	0.02446629
151	0x3db34b09	0.08754546
152	0x3dec5911	0.115404256
153	0x3d9cef55	0.076628365
154	0x3db8729f	0.09006237
155	0xbd940b65	-0.07228736
156	0x3cedb20e	0.029015567
157	0x3d3d1d21	0.046170358
158	0xbd95dfd7	-0.07318085
159	0x3be89a2a	0.007098456
160	0x3c955aaf	0.018231718
161	0xbd26ddc4	-0.040738836
162	0xbcc8cf96	-0.024513047
163	0xbd8f34de	-0.069925055
164	0xbd8f7d87	-0.07006364
165	0x3caf4826	0.021396708
166	0xbd483f0d	-0.048888255
167	0xbe081a13	-0.13291197
168	0x3c0979be	0.008390842
169	0xbdd3a241	-0.10333682
170	0xbd3d202c	-0.04617326
171	0xbd5219c7	-0.051294114
172	0x3b58d8d0	0.0033088215
173	0x3d37c9b4	0.044870093
174	0x3cc36568	0.023852065
175	0xbda8def6	-0.082456514
176	0xbbb39c66	-0.0054812906
177	0x3b8e7c20	0.004348293
178	0xbd80086b	-0.062516056
179	0x3c708eab	0.014682452
180	0xbd4b236a	-0.04959432
181	0xbce3a5de	-0.027789053
182	0x3d2ecf57	0.042678203
183	0xbd0d6f61	-0.034530047
184	0xbdc15964	-0.09440878
185	0xbd09d039	-0.033645842
186	0x3b0c3e2d	0.0021399364
187	0xbd555686	-0.05208447
188	0xbcca834a	-0.024720807
189	0x3da5c06b	0.080933414
190	0x3dd7f501	0.10544778
191	0xbd08471d	-0.033270944
192	0x3bc17061	0.005903289
193	0x3c623064	0.013805483
194	0xbd3557ee	-0.04427331
195	0xbd3da2c3	-0.0462978
196	0x3c83c37b	0.016084423
197	0xbdf7fd3d	-0.12108848
198	0xbcecc249	-0.028901236
199	0xbdd0429e	-0.10168956
200	0xbd196b6c	-0.03745596
201	0xbd837a2a	-0.06419785
202	0xbdf0d48c	-0.1175929
203	0xbb29ab8c	-0.0025889603
204	0xbd53994b	-0.051659863
205	0xbd3624df	-0.044468757
206	0x3caf9a8b	0.021435997
207	0x3d2f8395	0.042850096
208	0x3c88b4ef	0.016687838
209	0x3d9d6fbe	0.07687329
210	0x3cb2fd1d	0.02184921
211	0xbd262021	-0.040557984
212	0xbc671357	-0.014103732
213	0xbc99d128	-0.018776491
214	0x3dbbd09b	0.09170648
215	0x3c8cd776	0.017192584
216	0x3d845939	0.0646233
217	0xbc6507be	-0.013978897
218	0xbd4c2ee5	-0.04984941
219	0xbc8293dd	-0.015939647
220	0xbd885c06	-0.06658177
221	0xbda2cac3	-0.0794883
222	0xbbe4c01a	-0.006980908
223	0x3d31b221	0.043382768
224	0xbc4083fa	-0.011750216
225	0x3d164b3f	0.036692854
226	0xbcfe141f	-0.031015454
227	0x3b3fcfa0	0.0029268041
228	0xbcbe7a3e	-0.023251649
229	0xbd70060f	-0.058599528
230	0x3c8ad9fe	0.01694965
231	0xbc92d44a	-0.017923493
232	0x3d4d3f65	0.050109286
233	0x3d6afc15	0.05736931
234	0x3dc4b3c5	0.09604601
235	0x3af09883	0.0018355999
236	0x3baf4f1e	0.0053500077
237	0x3ce8b867	0.028408242
238	0xbd4cbc65	-0.049984355
239	0xbbfd6712	-0.007733234
240	0xbcb2e71a	-0.021838713
241	0x3c9be6fa	0.019031037
242	0xbd26e029	-0.04074112
243	0x3c132250	0.008980349
244	0x3d40f420	0.047107816
245	0xbc8c0bd7	-0.01709549
246	0xbbea4962	-0.007149861
247	0xbd33f01a	-0.04393015
248	0xbd047e17	-0.03234681
249	0xbb9edbe3	-0.00484799
250	0xbc960de6	-0.018317174
251	0xbca5dee2	-0.02024788
252	0x3caf83f5	0.021425227
253	0x3ad58595	0.0016290421
254	0x3dcaedd2	0.09908642
255	0xbcdc68f8	-0.026905522

cnn3.bias f4 [32]
0	0x3c9f6c29	0.019460754
1	0x3d33c727	0.0438911
2	0xbdc247e6	-0.0948637
3	0xbc935526	-0.017984938
4	0x3d050ae8	0.032481104
5	0xbd06a735	-0.032874305
6	0xbd098468	-0.033573538
7	0x3df15c86	0.117852256
8	0xbc21faf0	-0.009886488
9	0xbd794984	-0.060861126
10	0x3c23072e	0.009950442
11	0xbcd29928	-0.025707796
12	0xbc5ca97b	-0.013468142
13	0x3d4bc44b	0.049747746
14	0xbc97d09c	-0.01853209
15	0x3e018ab7	0.12650572
16	0xbd90f418	-0.07077807
17	0x3b9ce948	0.0047885515
18	0xbd2da559	-0.042394016
19	0xbd823cf2	-0.06359281
20	0xbd914d8d	-0.0709487
21	0xbcf3d65d	-0.029765302
22	0xbd8f6457	-0.0700156
23	0xbd773961	-0.060357455
24	0xbc4bb405	-0.012433057
25	0xbd0f5d0b	-0.035000842
26	0xbd882b61	-0.06648899
27	0x3ce4d731	0.027934643
28	0xbc088537	-0.008332542
29	0x3dc8757d	0.09788034
30	0x3cb1ef25	0.021720478
31	0x3e1a15b1	0.15047337

fc1.weight f4 [128, 768]
0	0xbcdb4905	-0.026768217
1	0x3ccb35a7	0.024805857
2	0x3ca16e82	0.019706015
3	0x3c7291f6	0.014805308
4	0x3cfb9bef	0.030714003
5	0xbd035408	-0.03206256
6	0xbd421869	-0.04738656
7	0x3c80dc25	0.015729973
8	0xbc9113de	-0.017709669
9	0xbc336b68	-0.010950901
10	0xbcc3377c	-0.023830168
11	0x3a0cb680	0.0005367771
12	0xbad88cf8	-0.0016521504
13	0x3b330199	0.0027314185
14	0xbc1e911a	-0.00967815
15	0x3c9d43dc	0.019197397
16	0x3bfb3cfd	0.0076671825
17	0xbc41de34	-0.0118327625
18	0xbc2ee382	-0.010674359
19	0x3c355424	0.011067424
20	0xbcbeebfe	-0.02330589
21	0x3c89c7ba	0.01681887
22	0xbce79810	-0.028270751
23	0xbc4f1f6e	-0.012641771
24	0xbd1658af	-0.03670567
25	0xbbe4ff9b	-0.0069884784
26	0xbd15847f	-0.03650331
27	0xbc0f9571	-0.008763657
28	0x3b3ae2ab	0.0028516452
29	0xbcfc96d9	-0.030833649
30	0xbc9b90c0	-0.01898992
31	0x3cf10eb3	0.029425954
32	0xbd203e6e	-0.039122038
33	0x3c817620	0.015803397
34	0x3d276c23	0.04087461
35	0xbc456174	-0.01204716
36	0x3cd5999a	0.02607422
37	0x3d0f68ef	0.03501218
38	0xbc02f4b8	-0.007992916
39	0xbaaf366c	-0.0013367659
40	0x3c210f00	0.009830236
41	0xbc0f35b0	-0.008740827
42	0x3cbe11fe	0.023201939
43	0xbd5793ac	-0.052631065
44	0xbd27e08a	-0.04098562
45	0x3c9245e1	0.017855586
46	0xbcfdfdce	-0.031004813
47	0xbd2dceeb	-0.04243366
48	0xbd262f07	-0.040572193
49	0x3c3401fc	0.010986801
50	0xbd028e40	-0.03187394
51	0xbd06febb	-0.032957774
52	0xbd1ca7b1	-0.03824586
53	0xbbb30d76	-0.005464251
54	0x3c052434	0.008126307
55	0xbc794d2c	-0.015216153
56	0xbc0a9392	-0.008458035
57	0xbcaf2f90	-0.021384984
58	0x3c1a5791	0.0094202915
59	0x3ce8fc4f	0.028440623
60	0xbd0cb2dd	-0.034350265
61	0xbc950a44	-0.018193372
62	0xbcf7cf62	-0.030250255
63	0xbd3e80f1	-0.046509687
64	0x3cbfe727	0.023425652
65	0x3c4b95df	0.012425869
66	0xbc6e6146	-0.014549559
67	0xbc23b8b9	-0.009992772
68	0xbd1b5cc8	-0.03793028
69	0x3c9da1c3	0.019242173
70	0x3cad677c	0.02116751
71	0xbd0f0c42	-0.0349238
72	0xbbfb4928	-0.007668633
73	0x3c529e30	0.012855098
74	0xbcc3c871	-0.023899289
75	0xbc910c46	-0.017706048
76	0x3ce8d836	0.02842341
77	0x3c8c2119	0.017105626
78	0x3cbef76d	0.023311341
79	0x3b9cdbd5	0.004786948
80	0xba9169a1	-0.0011094102
81	0x3be0e81b	0.0068636066
82	0x3c80da9b	0.01572924
83	0xbcb5af96	-0.022178452
84	0xbd02ed87	-0.031964805
85	0x3cd1ae7c	0.025595896
86	0x3a92db12	0.0011204204
87	0xbc23e1a6	-0.010002529
88	0x3bdad931	0.0066787233
89	0xbcc191b3	-0.023629045
90	0xbb32a2e5	-0.0027257737
91	0xbce0708f	-0.027397422
92	0xbb03c261	-0.0020104873
93	0xbd21513d	-0.039384115
94	0x3b21857a	0.0024646209
95	0x3d028053	0.03186066
96	0x3cc3850a	0.023867149
97	0xbd017de2	-0.03161419
98	0x3b3e7e5b	0.0029067013
99	0x3b93ae32	0.0045068497
100	0xba498cf4	-0.0007688545
101	0x3b9b284a	0.0047350274
102	0xbcbd569f	-0.023112593
103	0xbc07594f	-0.008261039
104	0xbd1c9e22	-0.038236745
105	0xbc47bf8a	-0.012191663
106	0xbc890713	-0.016727006
107	0xbbda9901	-0.0066710715
108	0x3c65b5cd	0.014020395
109	0xbbf00107	-0.007324341
110	0xbc871bdb	-0.016492775
111	0xbd1493e8	-0.036273867
112	0x3c09f85a	0.008421028
113	0x3c2221e2	0.009895774
114	0x3c3b7874	0.0114422925
115	0xbce5b2e1	-0.028039398
116	0x3c6a1e1f	0.014289408
117	0x3a03511e	0.0005009341
118	0xbc901d87	-0.017592205
119	0x3ae8f82f	0.001777416
120	0x3ce80383	0.028321987
121	0xbd21f65d	-0.03954159
122	0x3bbe9334	0.005815888
123	0x3c3a8acd	0.011385632
124	0xbcff7154	-0.031181969
125	0xbc2032cc	-0.009777736
126	0x3ae2ed00	0.0017313063
127	0xbd06cc7c	-0.032909855
128	0x3d1904ab	0.037357967
129	0x3ca03466	0.019556236
130	0x3c4cb1a5	0.012493526
131	0x3b8cc04b	0.004295384
132	0x3cce35d0	0.025172144
133	0x3b4ca03d	0.003122344
134	0xbc86a11a	-0.016434241
135	0xbcc53cda	-0.024076868
136	0xbd0601d2	-0.03271658
137	0x3c3dc428	0.011582412
138	0x3c80ce26	0.0157233
139	0x3cd989e0	0.026555002
140	0x3b8f45cf	0.0043723355
141	0x3c9b91bc	0.01899039
142	0x3b428f98	0.002968764
143	0xbd04240d	-0.032260943
144	0xbcc59352	-0.0241181
145	0x3c4bdd70	0.0124429315
146	0x3d0b5bb0	0.034022987
147	0x3ce048c0	0.02737844
148	0x3b311130	0.0027018301
149	0xbc403aa2	-0.011732729
150	0x3cdd05cc	0.026980303
151	0x3d10e746	0.03537681
152	0x3d0de2b6	0.034640037
153	0x3c200fc0	0.00976938
154	0x3cb1a332	0.021684263
155	0xbbc6da74	-0.006068522
156	0xbca6c466	-0.020357322
157	0xbbf0fc0c	-0.007354265
158	0x3d0b25f4	0.03397174
159	0x3d0de7f4	0.034645036
160	0x3c813944	0.015774377
161	0x3c927540	0.017878175
162	0x3c1c6464	0.009545419
163	0xbca47077	-0.020073159
164	0xbbfd5a7c	-0.007731734
165	0x3d0695a5	0.032857556
166	0xbcf91b4e	-0.030408528
167	0xbc4448fa	-0.01198029
168	0xbc63460b	-0.01387168
169	0x3c3b356b	0.01142631
170	0xbae7abbb	-0.0017675081
171	0xbbee84f2	-0.007279032
172	0x3b63dbea	0.003476853
173	0xbc44d9d9	-0.01201483
174	0xbd71425b	-0.058901172
175	0xbc8dd18c	-0.017311834
176	0x3cd26375	0.02568219
177	0xbc9ef1d2	-0.019402418
178	0xbcae79ec	-0.021298371
179	0xbd24bf03	-0.040221225
180	0xbbf4bd6e	-0.007468871
181	0xbd107aee	-0.035273485
182	0x3ca60adf	0.020268856
183	0x3a2d58fa	0.0006612685
184	0xbd37aca4	-0.044842377
185	0xbd2f10f9	-0.042740796
186	0xbc17b9d7	-0.009260616
187	0xbd2871d2	-0.041124173
188	0xbb7f4663	-0.0038951866
189	0xbcad7d5b	-0.021177938
190	0x3c165038	0.009174399
191	0xbd2ed224	-0.042680874
192	0x3b0a3cdf	0.002109341
193	0xba8e62ff	-0.0010863243
194	0xbba7488f	-0.005105085
195	0xbd0791ec	-0.033098146
196	0xbd004f2c	-0.031325504
197	0x3cecbcb0	0.028898567
198	0xbac73e1c	-0.0015201005
199	0xbc32a751	-0.010904149
200	0xbcf56ffc	-0.029960625
201	0xbc4a9551	-0.012364701
202	0x3c31b43b	0.010846193
203	0xbcf84404	-0.03030587
204	0xbcabedbe	-0.020987388
205	0xbcad81a9	-0.02117999
206	0xbc004616	-0.00782921
207	0xbc59b7dd	-0.013288465
208	0x3c9e69e2	0.019337598
209	0xbcb5fd97	-0.022215648
210	0x3c306022	0.010765107
211	0xbc11f677	-0.008908859
212	0x3ca60dab	0.02027019
213	0xbd0dd845	-0.03463008
214	0x3d038264	0.032106772
215	0x3cda44c0	0.02664411
216	0xbd0d1147	-0.034440305
217	0xbd17fabd	-0.037104357
218	0xbd18d97a	-0.037316777
219	0x3cc54fd0	0.02408591
220	0xbc1031ea	-0.008800963
221	0x3c5e6f19	0.013576292
222	0x3d04d7cf	0.032432374
223	0xbd135305	-0.035967845
224	0xbc8da083	-0.017288452
225	0xbc59b4e7	-0.013287759
226	0x3c92e109	0.01792957
227	0x3c8a0b19	0.016850995
228	0xbcd1745e	-0.025568184
229	0xbcc21492	-0.02369145
230	0x3ccab827	0.024746014
231	0x3d0664d8	0.032811016
232	0x3be9e2eb	0.0071376464
233	0xbc960df1	-0.018317195
234	0x3c4034d9	0.01173135
235	0xbadb4aeb	-0.0016730701
236	0xbca68d45	-0.020331034
237	0x3cbf2ee4	0.023337789
238	0xbd1c4c82	-0.0381589
239	0xbcdb7b61	-0.02679223
240	0x3cb22419	0.021745728
241	0x3a98c45e	0.0011655202
242	0x3d001183	0.0312667
243	0xbd15c4f4	-0.036564782
244	0x3c2b8350	0.010468319
245	0x3d08d2b4	0.033404067
246	0x3a2b7f6b	0.0006542119
247	0x3c373f1a	0.011184478
248	0xbcf840b6	-0.030304294
249	0xbd0ed70f	-0.034873065
250	0x3c0814ec	0.008305769
251	0x3ca51ac5	0.020154366
252	0xbc9f0b8f	-0.019414691
253	0xbbe30900	-0.006928563
254	0x3ce9101c	0.028450064
255	0xbd00c9d1	-0.031442467

fc1.bias f4 [128]
0	0x3cc7ae0b	0.024374982
1	0xbc1190a0	-0.008884579
2	0x3c5bd1ef	0.013416751
3	0xbd251562	-0.040303595
4	0xbcd307e1	-0.025760593
5	0x3cd4b654	0.025965847
6	0xbd0dcac9	-0.03461722
7	0xbd277081	-0.040878776
8	0x3b99e3fb	0.004696367
9	0x3c7d6fb6	0.0154685285
10	0xbcab9724	-0.020946093
11	0xbce60c84	-0.02808214
12	0xbd136598	-0.03598556
13	0xbd0d0342	-0.034426935
14	0xbd1b3838	-0.03789541
15	0xbc811cbf	-0.015760778
16	0xbd171369	-0.036883745
17	0xbca316b2	-0.019908283
18	0x3d7a526b	0.061113756
19	0xbaff5b94	-0.0019482248
20	0xbba79402	-0.0051140795
21	0x3dc62ef2	0.09676923
22	0xbd2fe157	-0.04293951
23	0x3da750f2	0.08169736
24	0xbd453adb	-0.048151832
25	0x39199a3e	0.00014648677
26	0xbbbac926	-0.0057002483
27	0xbcf05da1	-0.02934152
28	0xbcdf2369	-0.027238565
29	0x3c8d2c0e	0.017232921
30	0xbd1242e2	-0.035708316
31	0x3caa7de5	0.020811984
32	0xbd0e1e3c	-0.034696802
33	0x3c683076	0.01417171
34	0xba071145	-0.00051524147
35	0xbd3fbe02	-0.046812065
36	0xbcccdae9	-0.025006728
37	0xbd206cbe	-0.039166205
38	0xbcb76b95	-0.022390166
39	0x3b51edc7	0.0032032595
40	0x3ca8dad5	0.02061216
41	0x3dc59df8	0.09649271
42	0xbd04b1bb	-0.03239606
43	0xbcc64c70	-0.02420637
44	0xbc9d6654	-0.019213833
45	0xbd131811	-0.035911623
46	0x3bd1d6fc	0.006403802
47	0x3bcd840e	0.0062718457
48	0xbd11f866	-0.03563728
49	0x3cf0ad48	0.029379502
50	0x3d0acca8	0.03388658
51	0x3cd53df6	0.026030522
52	0x3bbc1d24	0.0057407785
53	0x3dc18290	0.09448731
54	0xbbee91df	-0.007280573
55	0xbd1413d4	-0.036151722
56	0xbd1097a5	-0.03530087
57	0x3bfd2cba	0.007726279
58	0xbc8df625	-0.017329285
59	0xbcb67e40	-0.022276998
60	0xbd29930c	-0.0414
61	0x3dbbcc49	0.09169824
62	0xbd0b2838	-0.033973902
63	0xbcccb258	-0.024987385
64	0xbc8038a5	-0.01565201
65	0x3ccf561a	0.025309611
66	0x3ded6298	0.11591071
67	0xbbd656d0	-0.0065411106
68	0x3c42722e	0.011868043
69	0x3c8c32ee	0.017114129
70	0xbbcf1a8f	-0.0063203047
71	0x3ba3b54c	0.0049959775
72	0xbc1b64ae	-0.009484453
73	0x3c37fef0	0.011230215
74	0xb9523993	-0.00020048609
75	0x3c3f61e1	0.011681051
76	0xb71cd6bf	-9.348324e-06
77	0xbd108ff2	-0.035293527
78	0x3c24c5eb	0.010056953
79	0xbb9630c7	-0.0045834514
80	0xbc8cf194	-0.017205037
81	0xbbdf9ee9	-0.0068243635
82	0x3be9b3ed	0.0071320445
83	0x3caae6c8	0.020861998
84	0x3c05824b	0.00814874
85	0x3cdfdbe4	0.027326532
86	0xbcecac97	-0.028890891
87	0xbcd58422	-0.026063982
88	0xbd1fa9a6	-0.03898015
89	0x3daa6af3	0.0832118
90	0xbd890baa	-0.06691678
91	0x3de9ac18	0.114097774
92	0x3c294104	0.010330442
93	0xbcb053f3	-0.021524405
94	0xbad9abbd	-0.0016606968
95	0xbd247517	-0.040150728
96	0x3ae0e08b	0.0017156763
97	0xbb9051e6	-0.0044042943
98	0xbbe2c3ca	-0.0069203125
99	0x3c35a84d	0.011087489
100	0xbd13e8ce	-0.03611069
101	0xbc2e1301	-0.010624648
102	0xba011370	-0.0004923856
103	0x3c91188b	0.017711898
104	0x3a90a9e1	0.0011036956
105	0xbc77a3da	-0.015114749
106	0xbd1be2c8	-0.038058072
107	0xbc84139c	-0.016122632
108	0x3df138bb	0.117783986
109	0x3c567b46	0.013090914
110	0xbbff73e1	-0.0077957963
111	0xbc532ecf	-0.012889578
112	0x3de506e6	0.111829564
113	0x3cae0f36	0.021247488
114	0xbd7a27ca	-0.061073102
115	0xbd062ffc	-0.032760605
116	0x3c2b49f4	0.0104546435
117	0x3c8e65bf	0.0173825
118	0xbcaffb2c	-0.021482073
119	0x3d6a54de	0.057209842
120	0xbd78f8c3	-0.060784113
121	0xbc42dcf4	-0.0118935
122	0xbc4ef96a	-0.012632707
123	0xbd4c0d97	-0.049817648
124	0x3dff0ee3	0.12454011
125	0xbd382baf	-0.044963535
126	0x3d079214	0.033098295
127	0xbd6f806b	-0.05847208

fc2.weight f4 [128, 128]
0	0xbdb22dbd	-0.0870013
1	0xbd717dce	-0.058957867
2	0xbc1be3a2	-0.009514721
3	0xbc3831d8	-0.011242352
4	0x3cf56e36	0.02995978
5	0x3d747ab9	0.05968735
6	0xbd45e844	-0.04831721
7	0x3d554269	0.052065287
8	0xbb066cce	-0.002051163
9	0x3d08b23d	0.033373106
10	0x3ce2653d	0.027636165
11	0xbd048aa1	-0.03235877
12	0xbd9f1a19	-0.077686496
13	0x3d0f4a94	0.034983233
14	0x3da7e7dd	0.08198521
15	0xbd31752e	-0.043324642
16	0xbd3c8e73	-0.046034288
17	0x3cef315e	0.029198345
18	0x3bafec2a	0.005368729
19	0x3d2be00e	0.041961722
20	0x3dafa94f	0.08577215
21	0x3d77ceae	0.06049984
22	0x3c89aad2	0.016805086
23	0xbd3857f7	-0.045005765
24	0x3d58cb7e	0.05292844
25	0xbb18ef80	-0.0023336112
26	0x3d8604f3	0.06543913
27	0xbbcd4e96	-0.0062654717
28	0xbc686a18	-0.014185451
29	0xbb06a055	-0.0020542343
30	0x3db7f099	0.08981437
31	0x3d62903e	0.05531334
32	0xbda3eea2	-0.080045
33	0xbd068187	-0.03283837
34	0x3da1dfc7	0.0790401
35	0xbdc26d71	-0.094935305
36	0xbdb0e63c	-0.08637664
37	0x3db37876	0.087632105
38	0x3dabc303	0.08386805
39	0xbd83140d	-0.06400309
40	0xbd835cc0	-0.06414175
41	0xbd9bad10	-0.076013684
42	0x3ccf3064	0.02529163
43	0xbbe8c45c	-0.007103486
44	0xbd1e7d27	-0.038693573
45	0x3d9bcae9	0.076070614
46	0x3d64dba6	0.055873536
47	0x3ca77641	0.02044213
48	0xbd53e08a	-0.05172781
49	0xbda2b72c	-0.079450935
50	0xbc07636c	-0.00826345
51	0x3d2739d0	0.04082662
52	0x3d56b372	0.052417226
53	0x3dea1054	0.114288956
54	0xbc384928	-0.011247911
55	0x3db52454	0.0884482
56	0x3cfa3a20	0.030545294
57	0xbcd08124	-0.025452204
58	0xbc34a490	-0.011025563
59	0xbd9bb23f	-0.07602357
60	0xbca2527c	-0.019814722
61	0x3dcf234f	0.101141565
62	0xbdb0b1b9	-0.08627648
63	0x3dce890d	0.10084734
64	0xbd0d72c2	-0.03453327
65	0x3d13cc00	0.03608322
66	0x3df97e0f	0.12182247
67	0xbd5b831b	-0.05359183
68	0x3d6ee181	0.058320526
69	0xbd7d6b0c	-0.061869666
70	0x3d283318	0.04106435
71	0x3db1b507	0.08677106
72	0xbd3095e7	-0.043111708
73	0x3c6b2f20	0.014354497
74	0x3ad10b00	0.0015948713
75	0x3d17663a	0.036962725
76	0x3cc30f58	0.023811027
77	0x3d1bb59b	0.03801499
78	0xbbebce40	-0.007196218
79	0xbcba5384	-0.022744901
80	0xbc22fa3b	-0.009947355
81	0xbd9ce8e3	-0.07661607
82	0xbd534d23	-0.051587235
83	0x3bb9f454	0.005674878
84	0xbda37408	-0.079811156
85	0xbd720197	-0.059083547
86	0xbd833e61	-0.06408382
87	0x3d19f54a	0.03758744
88	0xbd4dbb10	-0.050227225
89	0xbe1c5e0a	-0.15270248
90	0xbd64b000	-0.05583191
91	0xbc7f9463	-0.015599343
92	0x3d351482	0.04420901
93	0x3d707f2a	0.058715023
94	0x3d0002b9	0.031252597
95	0xbd916870	-0.07099998
96	0x3c42e825	0.011896168
97	0xbd3d0eb8	-0.046156615
98	0x3d4d833e	0.05017399
99	0x3d1ed1fe	0.038774483
100	0x3d0eac9c	0.034832582
101	0xbd172dcc	-0.03690891
102	0x3d870c9d	0.06594203
103	0x3d9f7c15	0.07787339
104	0x3ccbeb14	0.024892367
105	0x3d4564f6	0.048191987
106	0x3c1246e8	0.008928038
107	0xbd222279	-0.039583657
108	0x3d34daa7	0.044153836
109	0xbd95e432	-0.073189154
110	0xbcbb90d0	-0.0228962
111	0x3cdbaa90	0.026814729
112	0x3da80989	0.08204944
113	0xbcb90b00	-0.022588253
114	0xbd75cd99	-0.060010526
115	0xbd3ef0f6	-0.046616517
116	0xbd8896fd	-0.06669424
117	0xbd983dd6	-0.07433669
118	0xbdaee5de	-0.085399374
119	0xbda8b0a2	-0.08236815
120	0x3cad9502	0.021189217
121	0xbc4236d8	-0.011853896
122	0xbd4f4de7	-0.050611403
123	0xbb179a21	-0.002313264
124	0x3d9af53f	0.07566308
125	0xbd26045a	-0.040531494
126	0xbd8c512f	-0.06851422
127	0xbd512c67	-0.051067736
128	0xbd800d9e	-0.06252597
129	0xbcfef13e	-0.031120893
130	0xbdaa82e7	-0.08325749
131	0x3beb4690	0.0071800426
132	0xbaa4a49b	-0.0012561263
133	0x3c807ce1	0.015684547
134	0xbdca189c	-0.09867975
135	0xbc3ca870	-0.011514768
136	0x3d8e8537	0.069590025
137	0x3d130a5b	0.035898548
138	0x3aaed528	0.0013338672
139	0x3d177cfe	0.036984436
140	0xbd168bd5	-0.036754448
141	0x3b912d90	0.0044304803
142	0x3d4a2c26	0.04935851
143	0xbd3152a4	-0.043291703
144	0x3d1e38a4	0.038628235
145	0x3d19c51c	0.037541494
146	0xbb43328c	-0.0029784767
147	0xbcbfb830	-0.023403257
148	0xbc07cf73	-0.008289206
149	0xbce5fc98	-0.028074548
150	0x3d9aad9b	0.07552644
151	0xbd659ce0	-0.05605781
152	0x3da8c751	0.082411416
153	0x3d5f50be	0.05452036
154	0xbd96e008	-0.07366949
155	0xbc2f7705	-0.010709529
156	0xbd9cce07	-0.07656484
157	0x3d3fe84a	0.046852387
158	0x3da9f031	0.08297766
159	0xbcf160bc	-0.029465072
160	0xbd0e236b	-0.034701746
161	0x3cb14b7d	0.02164244
162	0xbd0b0e92	-0.033949442
163	0xbdbc1908	-0.09184462
164	0xbd96bd0f	-0.07360279
165	0xbd3c7769	-0.046012316
166	0x3d157584	0.036489025
167	0xbda02185	-0.07818893
168	0xbd795df1	-0.060880605
169	0x3c8217f6	0.015880566
170	0xbcbe9fb0	-0.023269504
171	0xbd9ba7ac	-0.0760034
172	0xbd63e54f	-0.055638608
173	0xbccea0b0	-0.025223106
174	0x3ca3a66f	0.019976823
175	0xbc1a3b99	-0.009413623
176	0xbd89e322	-0.06732775
177	0x3d97fb79	0.074210115
178	0x3c9ad6c0	0.018901229
179	0xbd3b9d2e	-0.045804195
180	0xbc123010	-0.008922592
181	0x3de68023	0.11254909
182	0x3d401f23	0.046904694
183	0xbd941e12	-0.07232298
184	0xbd2a7b97	-0.04162177
185	0xbc468ce0	-0.012118548
186	0xbd85a588	-0.06525713
187	0x3c6a564d	0.014302802
188	0xbd8aacbe	-0.06771229
189	0x3d5de8a2	0.054176934
190	0xbca3e950	-0.020008713
191	0xbdcb466e	-0.09925543
192	0xbd45daf3	-0.04830451
193	0x3ccfef51	0.02538267
194	0x3d3462ad	0.044039417
195	0x3c542e00	0.01295042
196	0xbbcf1742	-0.006319911
197	0x3cbb72ac	0.022881828
198	0xbcc673ae	-0.024225082
199	0x3ce35e28	0.027754858
200	0xbcb4d92d	-0.022076214
201	0xbd254bdb	-0.040355545
202	0xbc8611c4	-0.016365893
203	0x3c746d20	0.014918596
204	0xbd8f487d	-0.06996248
205	0x3cb45498	0.022012994
206	0xbd2014a3	-0.03908218
207	0x3d85d4cb	0.06534728
208	0xbc0b55b7	-0.008504323
209	0xbc729c52	-0.0148077775
210	0xbd56c64d	-0.052435208
211	0x3d8a3b72	0.067496195
212	0x3d0a594c	0.033776566
213	0xbd01b35c	-0.03166519
214	0xbc9f24ea	-0.019426782
215	0xbaeb2030	-0.001793867
216	0xbd118d5a	-0.035535194
217	0xbda1cced	-0.079004146
218	0xbd944a70	-0.0724076
219	0x3cf86cdd	0.030325348
220	0xbc0849e0	-0.008318394
221	0x3d3cccee	0.046093874
222	0xbcdd5cb9	-0.027021753
223	0xbdaba20c	-0.08380517
224	0xbd459d15	-0.04824551
225	0xbd927055	-0.07150332
226	0x3d4adeba	0.049528815
227	0x3c3f4488	0.011674054
228	0xbd3e73b0	-0.046497047
229	0x3cd01b58	0.025403664
230	0x3d8aa4cf	0.06769716
231	0x3d06f38e	0.032947116
232	0xbc3318a0	-0.010931164
233	0x3c65b0a8	0.014019169
234	0xbd75a19a	-0.05996857
235	0x3d32d75a	0.043662407
236	0x3de6edf9	0.112758584
237	0xbbff2602	-0.0077865133
238	0x3d1348f2	0.035958238
239	0x3d1ff7d2	0.0390547
240	0x3ba2d063	0.0049686893
241	0x3d4e62be	0.050387137
242	0xbdd17773	-0.10227861
243	0xbd5b93ec	-0.053607866
244	0x3c6024c8	0.013680644
245	0x3d886e81	0.06661702
246	0xbda63a54	-0.08116594
247	0x3d5e84a5	0.05432572
248	0xbcc8275c	-0.02443283
249	0xbd8d61c5	-0.06903414
250	0x3d73af3d	0.059493292
251	0x3dcd939e	0.10037921
252	0x3e2a9599	0.1665863
253	0xbdb10169	-0.08642847
254	0x3dac5d98	0.08416289
255	0x3d33c197	0.043885794

fc2.bias f4 [128]
0	0x3d4a0592	0.04932172
1	0x3d6de9a6	0.058084153
2	0x3d085ea0	0.033293366
3	0x3d95800e	0.07299815
4	0x3d3f5219	0.046709154
5	0x3db61466	0.088906094
6	0x3e1c7a87	0.15281115
7	0x3de23761	0.11045719
8	0xbd15f58d	-0.03661113
9	0x3dc4e47f	0.09613895
10	0xbd597ea4	-0.05309929
11	0xbbf04f57	-0.007333677
12	0x3e10b694	0.14132148
13	0x3d2eb9f8	0.042657822
14	0xbdcf7e3c	-0.10131499
15	0x3da0a770	0.07844436
16	0x3d804241	0.06262637
17	0x3dca2aa4	0.09871414
18	0x3dbba21a	0.09161778
19	0x3a9448d8	0.0011313213
20	0xbcfdbdc7	-0.030974282
21	0x3dac642d	0.084175445
22	0x3dd955f0	0.106120944
23	0x3e4af524	0.19820076
24	0x3e07d62e	0.13265297
25	0x3cecf355	0.028924624
26	0x3dd43a66	0.10362701
27	0x3e0c5285	0.13703354
28	0x3bbac895	0.005700181
29	0x3c1b9eb3	0.009498286
30	0x3d946f78	0.072478235
31	0x3d5bc61c	0.05365573
32	0x3e2e94e0	0.17048979
33	0xbdb891e6	-0.09012203
34	0x3e3eb877	0.18625055
35	0x3c86e97f	0.016468761
36	0x3ce356dc	0.027751379
37	0x3e31f807	0.17379771
38	0xbd836a67	-0.06416779
39	0xbca93df3	-0.020659423
40	0x3d3ff529	0.046864662
41	0x3ba50ab8	0.005036678
42	0xbc9f7e12	-0.019469295
43	0x3c853dc7	0.01626481
44	0x3e2465fd	0.1605453
45	0x3dea4194	0.11438289
46	0x3d4482c6	0.047976278
47	0x3c7ed0b9	0.015552693
48	0xbe06fcaa	-0.13182321
49	0x3cdaff51	0.026733072
50	0x3de1ed3d	0.11031578
51	0x3d511ff5	0.051055867
52	0x3cf604df	0.03003162
53	0x3bdf0b10	0.0068067387
54	0x3e3511b3	0.17682533
55	0x3dc28d9a	0.094996646
56	0x3c0cdec4	0.008598033
57	0x3da619ae	0.08110367
58	0xbceec739	-0.029147731
59	0x3d1b6613	0.037939142
60	0x3c1f275c	0.009713974
61	0xbd3dd153	-0.046342205
62	0x3e317e66	0.17333373
63	0xbccb6795	-0.024829665
64	0xbb99371b	-0.0046757585
65	0xbd89d747	-0.06730514
66	0xbd0dcc50	-0.034618676
67	0x3d9229bd	0.07136867
68	0x3dbfb401	0.09360505
69	0x3de2578b	0.11051854
70	0x3dafdf79	0.08587546
71	0x3d967bb8	0.07347816
72	0xbd6d9184	-0.058000103
73	0x3dc29c39	0.09502453
74	0x3c31e245	0.0108571695
75	0x3d0168a1	0.031593923
76	0x3cd6c59a	0.02621727
77	0x3d600aa1	0.054697637
78	0xbe0d211a	-0.13782158
79	0xbc23648b	-0.009972702
80	0x3d1f34ea	0.038868822
81	0x3d240926	0.040047787
82	0x3e333702	0.17501453
83	0x3c936cf8	0.017996296
84	0x3d3d6a91	0.046244208
85	0x3c05866f	0.008149727
86	0xbd159548	-0.03651932
87	0x3dec902f	0.11550938
88	0xbe252620	-0.16127825
89	0x3e2b7963	0.16745524
90	0x3dea9f50	0.11456168
91	0x3e2617c6	0.16220006
92	0x3ce9c288	0.028535143
93	0x3c7396a0	0.014867455
94	0x3cf4e148	0.029892579
95	0x3e1ae429	0.15126099
96	0x3d32fd9d	0.043698896
97	0x3c81a420	0.015825331
98	0x3d199c39	0.0375025
99	0x3def70be	0.11691426
100	0xbbbc837e	-0.00575298
101	0x3cd17464	0.025568195
102	0x3c59ac8a	0.013285765
103	0x3d6a723e	0.057237856
104	0x3dbb0eb3	0.09133663
105	0x3e3597ec	0.17733735
106	0x3c9cea79	0.019154774
107	0x3c8e292e	0.01735362
108	0x3e3eceac	0.18633527
109	0x3e184819	0.14871253
110	0xbcd21699	-0.025645541
111	0xbd2db85c	-0.042412147
112	0xbda9fb63	-0.08299901
113	0x3e282318	0.16419637
114	0x3da3e86c	0.08003315
115	0x3e3e5853	0.1858838
116	0x3e209322	0.15681127
117	0x3d4e1c76	0.05032011
118	0x3e7f1862	0.24911645
119	0x3df93899	0.12168998
120	0x3e0db537	0.13838659
121	0x3c7d795e	0.015470831
122	0x3e0ddebe	0.138545
123	0xbdbb0964	-0.091326505
124	0x3e86c64b	0.2632316
125	0x3dd088bf	0.10182332
126	0xbd00ce22	-0.031446584
127	0xbd0a753e	-0.033803217

fc3.weight f4 [128, 128]
0	0x3916ea21	0.00014392335
1	0xbcea3d1b	-0.02859359
2	0xbe0746b2	-0.13210562
3	0xbd1f686e	-0.03891795
4	0xbbe6314c	-0.0070249196
5	0x3d453ef8	0.048155755
6	0x3ce1214f	0.027481703
7	0xbd243ab0	-0.04009503
8	0x3dc8b44b	0.09800013
9	0xbd66571c	-0.056235418
10	0xbdcf9e1c	-0.10137579
11	0x3c9563c8	0.018236056
12	0x3c47aaee	0.012186749
13	0x3cfbc7bc	0.03073489
14	0x3d7c391f	0.061577912
15	0x3b0a86fa	0.0021137581
16	0xbcc41df7	-0.02394007
17	0xbd86c77a	-0.06581016
18	0x3ca67033	0.020317173
19	0x3cd6b441	0.026208999
20	0x3d54a6d0	0.051916897
21	0xbd120e4c	-0.035658166
22	0xbd3accd0	-0.04560548
23	0xbca7db09	-0.020490186
24	0xbda8e7f9	-0.0824737
25	0xbd97d0da	-0.07412882
26	0xbda7ff48	-0.08202988
27	0x3b4e94a9	0.0031521714
28	0xbc5f4e5f	-0.013629525
29	0x3be53411	0.006994732
30	0xbd30ad29	-0.04313389
31	0x3b8b095f	0.0042430605
32	0xbbb4d021	-0.005517975
33	0xbd88a4f5	-0.06672088
34	0x3d16c336	0.03680726
35	0x3e02144e	0.12703058
36	0x3c22edd2	0.009944396
37	0xbdbde368	-0.0927189
38	0xbd6ac81f	-0.057319757
39	0xbbfacef5	-0.0076540657
40	0xbd8937e0	-0.067001104
41	0xbd311931	-0.043236915
42	0x3dddde12	0.10833372
43	0xbdb28520	-0.08716798
44	0xbd800f3f	-0.06252908
45	0xbd6af607	-0.057363536
46	0xbca6566b	-0.02030488
47	0x3da26c47	0.079308085
48	0xbd744614	-0.059637144
49	0x3d92b32e	0.07163082
50	0x3d1eaa16	0.038736425
51	0x3dc9da07	0.098560385
52	0x3c9f742b	0.019464573
53	0xbd8cb606	-0.06870656
54	0xbd35c70e	-0.044379286
55	0xbd7216cb	-0.05910377
56	0xbd02b6be	-0.031912558
57	0xba6ab5d4	-0.0008953486
58	0x3dd98576	0.10621159
59	0xbe06f7d5	-0.13180478
60	0x3dcb0a3d	0.09914062
61	0x3c61b901	0.0137770185
62	0xbc853778	-0.016261801
63	0x3d3b3538	0.04570505
64	0x3c96a29d	0.018388087
65	0x3dce6567	0.10077935
66	0xbd0a069d	-0.033697713
67	0x3c4ee108	0.012626894
68	0x3cbc0d65	0.022955606
69	0xbd4508ac	-0.048103973
70	0xbd07a247	-0.033113744
71	0x3cc6d405	0.02427102
72	0x3d9c4f7d	0.07632349
73	0x3c995f9b	0.018722346
74	0x3d36191c	0.04445754
75	0x3d0e787d	0.034782875
76	0xbd3770ab	-0.044785183
77	0xbd91ce2b	-0.071194015
78	0x3c104288	0.008804925
79	0x3c62471e	0.013810901
80	0xbddc60bc	-0.10760638
81	0x3c1c8bb4	0.009554792
82	0xbc10e5ec	-0.00884388
83	0x3e3d8c02	0.1851044
84	0xbdcc9e98	-0.09991187
85	0x3e196ad8	0.14982164
86	0x3dc9cc19	0.09853382
87	0xbda42b90	-0.080161214
88	0x3da6eb7f	0.08150386
89	0xbd51f72c	-0.051261112
90	0x3c51fa4f	0.012816026
91	0x3c500c68	0.01269827
92	0x3c65d71e	0.014028339
93	0x3d77977c	0.0604472
94	0x3d8a9f8e	0.06768714
95	0xbcb6ed4a	-0.022329945
96	0x3bfb13a5	0.007662254
97	0x3d08cb87	0.033397224
98	0xbd8b51fa	-0.06802745
99	0x3e0f4a36	0.13993153
100	0x3b72724c	0.0036994396
101	0x3d622214	0.05520828
102	0x3d00ec06	0.03147509
103	0xbd7a725f	-0.06114423
104	0xbcae2575	-0.021258095
105	0xbd1b1747	-0.037863996
106	0xbce609a5	-0.02808077
107	0x3da93c92	0.08263506
108	0x3bb81e68	0.005618859
109	0x3d574243	0.052553426
110	0x3d8e8435	0.0695881
111	0xbcbb807d	-0.022888416
112	0xbc5454ef	-0.012959703
113	0xbcd10c08	-0.025518432
114	0xbda55f9c	-0.08074877
115	0xbd5e4392	-0.05426366
116	0x3c5828e8	0.013193347
117	0x3da46bbd	0.08028362
118	0xbd68708e	-0.056747966
119	0xbda84c34	-0.082176596
120	0xbddaa5d0	-0.106761575
121	0xbd9ab451	-0.07553924
122	0xbbf65866	-0.007517862
123	0xbd72805e	-0.05920445
124	0x3d38cfe0	0.04512012
125	0x3c6252ee	0.013813717
126	0xbd874a76	-0.06605999
127	0x3d911844	0.070847064
128	0xbc037c14	-0.008025188
129	0x3dc7dab6	0.09758513
130	0x3ba0cfa3	0.0049075647
131	0x3ddaf5ac	0.106913894
132	0x3d436307	0.04770186
133	0x3daf9b71	0.0857457
134	0x3dd8e6f5	0.105909266
135	0x3e0fc68d	0.14040585
136	0xbcf4d037	-0.02988444
137	0x3dbfde70	0.093685985
138	0xbcaf7059	-0.021415876
139	0x3c883b09	0.016629713
140	0x3d4c7938	0.04992029
141	0x3d95dc28	0.07317382
142	0x3d06028a	0.032717265
143	0xbccf5727	-0.025310112
144	0x3b572545	0.003282861
145	0x3da9e17f	0.08294963
146	0xbb92bdeb	-0.0044782064
147	0x3dc27329	0.09494621
148	0xbd8290da	-0.063752845
149	0x3dd7e93f	0.10542535
150	0x3d6201c1	0.055177454
151	0x3d8f08f4	0.069841295
152	0x3d85b60f	0.065288655
153	0xbd7ee1ff	-0.062227245
154	0xbcd8ecc6	-0.02648009
155	0x3dffc900	0.124895096
156	0xbdf44eb3	-0.11929073
157	0x3c87ea78	0.016591296
158	0x3d72737b	0.059192162
159	0x3cc9700b	0.024589559
160	0x3d95b78f	0.07310402
161	0x3e144a6e	0.14481518
162	0x3d05cb07	0.032664325
163	0x3ddd6f20	0.10812211
164	0x3c1f1277	0.009708992
165	0xbcc9074a	-0.024539609
166	0xbd47de3b	-0.04879592
167	0xbdb4304d	-0.08798275
168	0x3dbe8bce	0.093040094
169	0xbe0498f5	-0.12948973
170	0xbdd3b2d8	-0.10336846
171	0xbc7c33e5	-0.015393232
172	0x3d858aac	0.0652059
173	0x3d761911	0.0600825
174	0x3cb77174	0.022392966
175	0xbd8e9696	-0.06962316
176	0x3d633bd6	0.055476986
177	0xbcb60dc1	-0.022223355
178	0xbcfbd501	-0.030741217
179	0x3d47e3a4	0.04880108
180	0xbbc8128b	-0.006105726
181	0x3d8398bf	0.064256184
182	0xbc451286	-0.012028342
183	0x3d934d72	0.07192506
184	0x3d8d89ce	0.0691105
185	0xbd899c36	-0.06719248
186	0xbdd62fba	-0.10458322
187	0x3cffd878	0.03123115
188	0xbd9d9cef	-0.07695948
189	0xbdd2bd44	-0.10290006
190	0x3d3dad9b	0.04630814
191	0xbd2edd15	-0.04269131
192	0x3da027cf	0.07820093
193	0xbda2bd85	-0.07946304
194	0xbbc99cda	-0.0061527314
195	0x3dac9fba	0.08428903
196	0x3d31c771	0.043403093
197	0x3dde11fc	0.10843274
198	0x3da74ba9	0.08168728
199	0x3d9c2c8d	0.07625685
200	0x3d67523c	0.05647491
201	0x3c97297a	0.018452395
202	0xbbd92c79	-0.006627616
203	0x3cd3b269	0.025841909
204	0xbdb6bd81	-0.08922864
205	0x3df73bb9	0.12071938
206	0x3c7c063e	0.015382348
207	0xbd905898	-0.07048148
208	0x3e0798d1	0.13241889
209	0xbd023391	-0.03178746
210	0x3dcb0e50	0.09914839
211	0xbcc316d8	-0.023814604
212	0x3d45932d	0.04823606
213	0x3d5f225e	0.054476134
214	0xbdc7b4f5	-0.09751312
215	0x3dbde581	0.0927229
216	0x3bf8424a	0.0075762616
217	0xbd139fc2	-0.03604103
218	0x3bcde0ed	0.0062829168
219	0xbd9a0511	-0.075204976
220	0x3c8c3f46	0.017120015
221	0xbd08d078	-0.033401936
222	0xbd11a1bb	-0.03555463
223	0x3d463496	0.048389994
224	0x3db3132f	0.08743893
225	0xbda0496c	-0.07826504
226	0x3d93bf29	0.07214195
227	0x3d577f8c	0.052611873
228	0xbc8d9e4a	-0.017287392
229	0xbd1bafc8	-0.038009435
230	0x3d154e5a	0.036451675
231	0x3e157838	0.14596641
232	0xbb9f1716	-0.004855047
233	0x3d9d246f	0.07672965
234	0xbcf0a5c6	-0.029375922
235	0x3d749832	0.059715457
236	0x3cedf524	0.029047556
237	0xbcc8203c	-0.024429433
238	0xbda6bc62	-0.081414
239	0xbd197978	-0.037469357
240	0x3d82adf0	0.06380832
241	0x3c6b86d7	0.01437541
242	0x3d6ac012	0.05731208
243	0xbc302297	-0.010750434
244	0x3d46f91a	0.048577406
245	0xbd1e600b	-0.038665812
246	0xbdfa4345	-0.12219862
247	0xbc38db7e	-0.0112828
248	0x3cbbf445	0.022943625
249	0xbda082c4	-0.078374416
250	0x3d164f1c	0.03669654
251	0xbdaeb96e	-0.08531462
252	0x3caf1d9a	0.02137642
253	0x3d968aa5	0.07350663
254	0xbdf3d7d2	-0.11906399
255	0xbe05a33d	-0.13050552
