models/dqn_model_epoch_56000.pth (torch, 595624 bytes, 14 tensors)

cnn1.weight f4 [16, 4, 5, 5]
-0.19471392 0.04380789 -0.024540298 -0.19688323 -0.14293084 -0.19872382 -0.19391492 -0.28981775
-0.034815267 -0.056964908 -0.27288476 -0.16040105 -0.37908676 -0.14636536 0.036447834 -0.16614422
-0.21354936 -0.039996665 -0.25623095 0.012040188 -0.20993508 -0.25317857 -0.18861331 0.06682328
0.026789429 -0.014666661 -0.03383905 -0.094700456 -0.14141507 0.027750649 0.06450082 -0.027017092
0.025383241 -0.0668286 -0.072004296 -0.04712296 -0.13797662 0.016355366 0.13403752 -0.028364835
-0.10351045 0.020504318 -0.084780514 0.019961417 -0.1289066 -0.031758428 0.07511547 -0.041565157
-0.06676727 -0.08712567 0.08298438 -0.010232873 -0.13190563 -0.20574729 -0.025921904 -0.024361704
-0.08746176 0.17922455 0.049563102 -0.15425403 0.22868446 0.23160973 0.12874475 0.029505193
-0.2103752 -0.2827767 0.15952003 0.28304544 -0.13081077 -0.16662787 -0.16016933 -0.01608598
0.31919065 -0.13170071 -0.15254521 -0.09354025 -0.24447119 -0.09009966 -0.0051199957 -0.06630878
-0.041843925 0.11018724 0.14871842 -0.09420886 0.033664033 -0.16302626 0.07331259 0.080647886
-0.09355052 -0.08246238 -0.12846684 -0.005402929 0.074530296 -0.024515688 -0.1185264 0.09033549
0.11785193 -0.18209143 -0.07009537 -0.059834912 -0.118623845 -0.26090306 -0.17691992 0.03402715
-0.22612764 -0.12623002 -0.081932575 -0.005537196 0.00036489702 0.005311164 -0.13678043 -0.049390282
0.018067347 -0.06300942 -0.061070733 -0.1557078 -0.22647938 -0.17568973 -0.37019864 -0.05813115
-0.2578676 -0.22136799 -0.096395984 -0.06942152 -0.12491592 -0.04646762 0.083400354 -0.058337186
0.03518892 -0.13151105 -0.015916234 -0.038625203 -0.10932104 0.022949064 -0.0032504555 -0.02028153
-0.050266217 -0.14270267 -0.048581563 -0.025728429 -0.13629596 -0.024960319 0.05109317 -0.048940595
-0.1066837 -0.002436285 0.03261682 -0.06863371 0.10361137 -0.113590136 -0.19028814 0.16935112
-0.05450984 0.1513685 -0.14779395 -0.18645772 0.17891192 -0.20418927 0.081888765 -0.15702397
-0.27318177 -0.25036457 0.08809512 0.096740864 -0.2103465 -0.2463731 -0.1374721 0.25807798
-0.1890627 -0.23325515 0.38943306 0.29685888 0.41422814 -0.05637029 -0.16550994 0.20710196
0.13342203 0.23725553 -0.017288 -0.0822677 0.11700492 -0.11959464 0.15209587 -0.12916552
-0.10975695 -0.16455486 0.09263952 0.0631451 -0.0811928 -0.15312056 -0.16714093 -0.02875428
-0.083874255 -0.12516043 -0.040349253 -0.13478188 -0.11802027 0.18368515 -0.1280727 -0.1392238
-0.29887724 -0.0748343 -0.3448805 0.04851228 -0.18169178 -0.22287717 -0.1556851 -0.19040011
0.03850226 0.0047602723 -0.24241608 -0.2185071 -0.122495845 0.028020857 0.1765362 -0.24853852
-0.22890702 -0.2898774 -0.15787682 0.13426995 -0.24367015 -0.13000664 -0.23907378 0.052262258
-0.06510674 -0.13001373 -0.011899012 -0.13948403 -0.08427002 -0.03679695 -0.0046576518 -0.022561576
0.062230248 -0.09161015 0.027839797 -0.017780235 0.02468559 -0.012495811 -0.100525305 -0.004728742
-0.0038457257 -0.08696744 0.009242986 0.18306966 -0.008619418 -0.08598585 -0.15091088 -0.05689219
0.09091324 -0.012467601 0.074989825 0.030809587 0.050822876 -0.39685062 -0.060948804 0.024331393
00000000: 1663 47be e76f 333d bc08 c9bc c29b 49be
00000010: 765c 12be 427e 4bbe a291 46be fe62 94be
00000020: 749a 0ebd 0954 69bd 8db7 8bbe 2c40 24be
00000030: a917 c2be cde0 15be 534a 153d b621 2abe
00000040: afac 5abe 8bd3 23bd b430 83be 3544 453c
00000050: 39f9 56be 9fa0 81be d923 41be a5da 883d
00000060: 8175 db3c 6f4c 70bc d19a 0abd 50f2 c1bd
00000070: 1dcf 10be 5455 e33c 0219 843d f352 ddbc
00000080: 84f0 cf3c 6fdd 88bd fd76 93bd 0104 41bd
00000090: be49 0dbe b0fb 853c 2241 093e 5f5d e8bc
000000a0: 49fd d3bd acf8 a73c 68a1 adbd 2086 a33c
000000b0: 1700 04be 2015 02bd 24d6 993d 3a40 2abd
000000c0: 47bd 88bd f16e b2bd b7f3 a93d c8a7 27bc
000000d0: 4512 07be 6baf 52be 2c5a d4bc 3292 c7bc
000000e0: 271f b3bd a486 373e ae02 4b3d c5f4 1dbe
000000f0: 422c 6a3e 1a2b 6d3e aad5 033e e0b4 f13c
00000100: 996c 57be 1cc8 90be 3859 233e 55eb 903e
00000110: 42f3 05be 7fa0 2abe 6e03 24be bfc6 83bc
00000120: f56c a33e 8ddc 06be d034 1cbe 0892 bfbd
00000130: a856 7abe 2c86 b8bd a3c5 a7bb e6cc 87bd
00000140: 8964 2bbd d9a9 e13d a449 183e 93f0 c0bd
00000150: 4ce3 093d 5bf0 26be e924 963d b82a a53d
00000160: 6a97 bfbd 09e2 a8bd d08c 03be 0e0b b1bb
00000170: 57a3 983d 20d5 c8bc f8bd f2bd d001 b93d
00000180: 5a5c f13d 2d76 3abe 298e 8fbd 7415 75bd
00000190: 0ff1 f2bd 1695 85be 7f2a 35be 0e60 0b3d
000001a0: 018e 67be 7142 01be 44cc a7bd 5e71 b5bb
000001b0: a64f bf39 4609 ae3b 2b10 0cbe 774d 4abd
000001c0: f901 943c 150b 81bd 4e25 7abd de71 1fbe
000001d0: 36ea 67be 02e8 33be ad8a bdbe ee1a 6ebd
000001e0: 3907 84be 4aae 62be 426b c5bd df2c 8ebd
000001f0: ebd3 ffbd d554 3ebd cecd aa3d f9f2 6ebd
00000200: 4222 103d d5aa 06be c362 82bc 7635 1ebd
00000210: b6e3 dfbd adff bb3c 9805 55bb 7425 a6bc
00000220: f3e3 4dbd a620 12be 76fd 46bd 6dc4 d2bc
00000230: 2b91 0bbe 9579 ccbc 1247 513d ef75 48bd
00000240: fc7c dabd 14aa 1fbb 3799 053d d58f 8cbd
00000250: 3332 d43d f2a1 e8bd e5da 42be 616a 2d3e
00000260: b645 5fbd 5800 1b3e 4c57 17be c6ee 3ebe
00000270: b034 373e fe16 51be 4cb5 a73d e4ca 20be
00000280: 7bde 8bbe c92f 80be 376b b43d 1320 c63d
00000290: 1365 57be 3b49 7cbe 7cc5 0cbe cc22 843e
000002a0: a799 41be 70da 6ebe c563 c73e e3fd 973e
000002b0: b615 d43e 89e4 66bd 707b 29be 8912 543e
000002c0: c99f 083e 1df3 723e 909f 8dbc f87b a8bd
000002d0: 47a0 ef3d 09ee f4bd 05bf 1b3e f743 04be
000002e0: 40c8 e0bd 1281 28be cab9 bd3d 3852 813d
000002f0: 6948 a6bd a3cb 1cbe fe26 2bbe 198e ebbc
00000300: 44c6 abbd 0e2a 00be 4245 25bd 4304 0abe
00000310: 9cb4 f1bd f617 3c3e 7d25 03be af90 0ebe
00000320: 7006 99be ba42 99bd 2d94 b0be d0b4 463d
00000330: 690d 3abe ea39 64be ea6b 1fbe 3ff8 42be
00000340: 8cb4 1d3d 0ffc 9b3b ec3b 78be 53c0 5fbe
00000350: 1adf fabd ff8b e53c e8c5 343e e280 7ebe
00000360: 9a66 6abe d06a 94be 76aa 21be 107e 093e
00000370: ab84 79be 7620 05be c2cf 74be f310 563d
00000380: af56 85bd 5222 05be 13f4 42bc e7d4 0ebe
00000390: c395 acbd 66b8 16bd 379f 98bb 0ed3 b8bc
000003a0: 25e5 7e3d 1a9e bbbd 4910 e43c dba7 91bc
000003b0: 6f39 ca3c 3bbb 4cbc 36e0 cdbd 90f3 9abb
000003c0: 9208 7cbb fc1b b2bd e56f 173c 9d76 3b3e
000003d0: 7638 0dbc 5919 b0bd 6288 1abe c907 69bd
000003e0: b930 ba3d e944 4cbc 4494 993d 6364 fc3c
000003f0: a62b 503d 0130 cbbe 74a5 79bd a152 c73c

cnn1.bias f4 [16]
0.05523564 -0.050249092 -0.07014534 -0.07372074 0.035787687 -0.0723548 -0.07251223 -0.0018116023
0.016404226 -0.12192917 -0.029231925 -0.07389897 -0.014750265 -0.088039346 0.024799215 -0.07723747
00000000: c43e 623d fed1 4dbd 5ca8 8fbd e6fa 96bd
00000010: 1c96 123d c12e 94bd 4b81 94bd 4973 edba
00000020: 2862 863c 00b6 f9bd ca77 efbc 5858 97bd
00000030: 18ab 71bc f94d b4bd b927 cb3c ae2e 9ebd

cnn2.weight f4 [32, 16, 3, 3]
0.02707138 0.057708208 0.10405383 0.1598731 -0.019220423 -0.04163759 0.075290665 0.0171444
-0.05082592 0.17092913 -0.09831574 0.040966816 0.13471182 -0.07226671 0.12116422 0.15279146
-0.057345435 -0.07032927 -0.01124769 -0.027254982 -0.0012475754 -0.015443541 0.00621075 -0.05179597
-0.058658324 0.015659641 -0.056185115 0.10432157 -0.07987662 0.017247276 0.16810071 0.037035786
-0.031686872 0.11209495 0.06109591 -0.08852718 0.06480259 -0.019089937 -0.019265108 0.11022548
0.016828397 0.06888422 0.09107565 0.02936092 0.090239994 0.095023066 0.06411068 0.06767436
0.12489122 0.06317168 0.026173014 -0.01341176 0.017151225 0.035973944 -0.05446028 0.0346357
0.07612894 0.01050743 0.033161778 0.06788099 0.044707682 0.03549282 0.10337992 0.05682072
-0.08300895 0.04857712 0.050034452 -0.04444941 0.100521475 -0.024668505 -0.036447633 0.0088132685
0.05779862 -0.014982232 -0.05517739 0.11204032 0.09321749 0.08413744 0.050798662 0.04571568
0.052607752 0.06902877 0.07856384 0.11751804 0.052571837 0.050022695 0.027811926 0.06854026
-0.036615595 0.046048827 0.045923937 -0.016573025 -0.011895193 0.01593401 8.08507e-05 -0.08196634
0.00264689 -0.0016648729 -0.0025341888 0.020056928 -0.039614238 0.037055507 0.0855463 0.089687
-0.05261771 0.10127845 0.049680885 0.08887733 -0.08166151 -0.11814159 -0.018888112 -0.0026304857
0.04656315 -0.012429107 0.050760396 -0.054146506 -0.0026615767 -0.03678929 -0.057929542 0.023141764
0.045311045 -0.06434612 -0.06552363 -0.037329625 -0.078597166 -0.03205614 0.10741956 -0.025048494
0.08558351 0.1828078 0.06346243 0.071664065 0.15462026 -0.0006506309 0.09513532 0.022512792
-0.05896186 -0.0010655867 0.06260334 -0.038545817 0.011415692 0.03894719 -0.05073431 -0.09735606
-0.053585865 0.034724604 0.028433802 0.15820351 0.004444004 -0.02901807 0.014557045 0.03302825
-0.012833434 0.0056124907 0.11525586 -0.03657726 0.12997639 0.009892642 -0.0042597153 0.07291264
0.12217331 -0.09412441 0.00921771 -0.07000733 -0.043961566 -0.08760324 -0.119649604 -0.09118122
-0.05130521 -0.1325776 -0.111956395 0.12077366 0.11741293 -0.026545301 0.15951893 -0.0007041932
0.022818819 0.11750143 0.07060914 -0.07179896 0.026346687 0.053733304 0.034250278 0.066109486
0.17604938 0.0062542614 0.093486324 0.057196375 0.033677198 0.19491184 0.0019265324 0.030665338
0.14326173 0.009616991 0.0072563193 -0.058120243 0.045518976 -0.13913968 -0.0021584248 -0.01892279
-0.009722442 0.121975325 0.10058977 0.029792123 0.1738011 -0.053973515 0.10743192 0.010942277
0.044463623 -0.034555268 -0.043657374 -0.0589685 -0.017717974 -0.04509499 -0.09059857 -0.021604756
0.15372148 0.025141617 -0.0015280362 0.16509698 -0.017344309 -0.013665178 0.18349044 0.048366714
0.033451 0.1504792 0.08779486 0.020998076 0.003055981 0.0886755 0.15738982 0.08614789
-0.035101388 0.035678856 0.026186863 0.08866465 0.0008344549 0.046660885 -0.008898634 -0.07007539
-0.052870825 -0.051253326 -0.12258614 0.11826123 0.050303128 -0.101491235 0.06710129 0.052891843
-0.007560353 0.10893804 0.07390121 0.02420144 0.018895272 -0.023527555 -0.07563266 0.11563525
00000000: ccc4 dd3c 715f 6c3d 2d1a d53d c6b5 233e
00000010: 2674 9dbc 2d8c 2abd fe31 9a3d 6a72 8c3c
00000020: d72e 50bd 0c08 2f3e c359 c9bd d2cc 273d
00000030: e5f1 093e 9200 94bd f224 f83d 5d75 1c3e
00000040: 0ce3 6abd cb08 90bd 3b48 38bc d745 dfbc
00000050: af85 a3ba e806 7dbc 8c83 cb3b 0328 54bd
00000060: b643 70bd a648 803c 5d22 66bd 8ca6 d53d
00000070: 5a96 a3bd 294a 8d3c 9822 2c3e d6b2 173d
00000080: 18ca 01bd 0a92 e53d b43f 7a3d bd4d b5bd
00000090: 38b7 843d 8062 9cbc dcd1 9dbc e5bd e13d
000000a0: b5db 893c 2c13 8d3d df85 ba3d 5086 f03c
000000b0: bfcf b83d 749b c23d 764c 833d db98 8a3d
000000c0: f8c6 ff3d 2760 813d ca68 d63c 00bd 5bbc
000000d0: ba80 8c3c 6a59 133d be11 5fbd 2ade 0d3d
000000e0: 7de9 9b3d 5b27 2c3c a5d4 073d 3005 8b3d
000000f0: 671f 373d eb60 113d dab8 d33d d8bc 683d
00000100: 9900 aabd cdf8 463d edf0 4c3d 9610 36bd
00000110: 34de cd3d 9b15 cabc 1d4a 15bd 8765 103c
00000120: 3fbe 6c3d 0978 75bc b001 62bd 6575 e53d
00000130: d0e8 be3d 4050 ac3d 4212 503d 5d40 3b3d
00000140: 3a7b 573d f55e 8d3d 14e6 a03d 4cad f03d
00000150: 9155 573d 99e4 4c3d d6d5 e33c d65e 8c3d
00000160: 3cfa 15bd b29d 3c3d bd1a 3c3d 27c4 87bc
00000170: 0ee4 42bc 0a88 823c 648e a938 f8dd a7bd
00000180: 7277 2d3b dd37 daba a214 26bb 6d4e a43c
00000190: 8a42 22bd 84c7 173d e632 af3d d1ad b73d
000001a0: ab85 57bd 136b cf3d 2f7e 4b3d 5105 b63d
000001b0: 263e a7bd 38f4 f1bd 3ebb 9abc 3a64 2cbb
000001c0: 00b9 3e3d 74a3 4bbc 22ea 4f3d bac8 5dbd
000001d0: d96d 2ebb 5eb0 16bd 8747 6dbd cc93 bd3c
000001e0: 1398 393d e6c7 83bd 4131 86bd f3e6 18bd
000001f0: 8df7 a0bd 4d4d 03bd c9fe db3d 8032 cdbc
00000200: 6846 af3d f831 3b3e 97f8 813d 9cc4 923d
00000210: c654 1e3e 1a8f 2aba 4fd6 c23d bf6c b83c
00000220: fe81 71bd 28ab 8bba 2e36 803d 38e2 1dbd
00000230: e208 3b3c 1787 1f3d c8ce 4fbd 9d62 c7bd
00000240: da7c 5bbd 633b 0e3d 01ee e83c 1a00 223e
00000250: 029f 913b 4eb7 edbc ac80 6e3c a148 073d
00000260: 5343 52bc fce8 b73b 440b ec3d 09d2 15bd
00000270: 8818 053e bf14 223c 1595 8bbb 3953 953d
00000280: 0036 fa3d 4cc4 c0bd e105 173c 0160 8fbd
00000290: 0b11 34bd 5469 b3bd da0a f5bd 38bd babd
000002a0: 6925 52bd 6cc2 07be 6549 e5bd 2e58 f73d
000002b0: 3176 f03d 8875 d9bc ee58 233e 9b99 38ba
000002c0: 88ee ba3c 97a4 f03d 869b 903d 550b 93bd
000002d0: 02d5 d73c 7417 5c3d 054a 0c3d 6964 873d
000002e0: 4a46 343e 8cf0 cc3b c275 bf3d bf46 6a3d
000002f0: 1af1 093d f896 473e b383 fc3a e035 fb3c
00000300: 34b3 123e 9590 1d3c 6bc6 ed3b 7e0f 6ebd
00000310: 1b72 3a3d a27a 0ebe 5c74 0dbb f803 9bbc
00000320: e14a 1fbc 33ce f93d 0202 ce3d 9c0e f43c
00000330: eaf8 313e 5513 5dbd 4405 dc3d 3c47 333c
00000340: 7d1f 363d d389 0dbd 13d2 32bd f488 71bd
00000350: 4925 91bc 86b5 38bd be8b b9bd 75fc b0bc
00000360: 2a69 1d3e cbf5 cd3c 6348 c8ba 2f0f 293e
00000370: a715 8ebc e9e3 5fbc ebe4 3b3e 2d1c 463d
00000380: ea03 093d 3817 1a3e cbcd b33d 2804 ac3c
00000390: da46 483b 809b b53d cc2a 213e 4e6e b03d
000003a0: 79c6 0fbd fe23 123d d585 d63c d095 b53d
000003b0: 52bf 5a3a 7c1f 3f3d 94cb 11bc b083 8fbd
000003c0: 148f 58bd 02ef 51bd 710e fbbd f232 f23d
000003d0: a70a 4e3d a3da cfbd 676c 893d 1ea5 583d
000003e0: d6bc f7bb e81a df3d 8559 973d 1942 c63c
000003f0: 42ca 9a3c dcbc c0bc 4ce5 9abd 2dd2 ec3d

cnn2.bias f4 [32]
-0.10181833 -0.029257867 -0.034495134 0.0037134257 -0.00037332167 -0.0012036967 -0.07663599 0.07134135
-0.07321114 -0.042786233 0.030940507 0.0010213766 -0.005701008 0.0071072076 -0.00045233028 -0.10871489
0.11258773 0.0065430957 -0.037864096 -0.09969991 -0.11017074 0.019350968 -0.05275555 -0.04027178
-0.0042986176 -0.08557012 -0.055109516 -0.13164519 0.09703092 -0.059597205 0.093435004 -0.008164474
00000000: 2186 d0bd 32ae efbc c54a 0dbd f25c 733b
00000010: 63ba c3b9 5cc5 9dba 54f3 9cbd 6a1b 923d
00000020: b9ef 95bd 9e40 2fbd f276 fd3c b6df 853a
00000030: 85cf babb 94e3 e83b be26 edb9 eaa5 debd
00000040: 6594 e63d 7767 d63b 6217 1bbd 772f ccbd
00000050: 32a1 e1bd ec85 9e3c 3416 58bd 06f4 24bd
00000060: 6bdb 8cbb 633f afbd 84ba 61bd ffcd 06be
00000070: 26b8 c63d 331c 74bd da5a bf3d 49c4 05bc

cnn3.weight f4 [32, 32, 3, 3]
0.026528966 0.0014013301 0.021462264 0.0120021785 -0.07312335 -0.046965055 -0.012103266 -0.02369193
0.00034693323 0.16834119 0.043007676 -0.073520936 0.09241475 -0.043210056 -0.14987452 -0.07005502
-0.048448067 -0.09207568 0.00075815816 -0.040320594 -0.06567346 0.07788474 -0.052266233 -0.07743351
0.04705408 0.056166284 -0.016453361 0.03756339 -0.005356768 0.008657733 0.05141422 -0.052494753
-0.052968465 0.014072613 -0.025410973 0.025937147 0.104398586 0.025729889 -0.01081743 -0.0244652
-0.10003122 0.0038985226 0.0014860786 0.06238524 -0.009443033 0.11987669 -0.07772638 -0.016676126
0.03672176 -0.0962765 -0.096176825 -0.014628175 0.0055745044 -0.0038918655 -0.007708196 0.027605692
-0.062491264 -0.03915889 -0.0022470907 -0.028837051 0.048425958 -0.054934714 -0.039852563 -0.046526376
0.115277715 0.07085389 0.040067725 -0.005427151 0.10793498 0.045914218 0.06429979 0.08969644
-0.010071201 0.023143684 -0.054644387 -0.06633468 -0.029711412 -0.054897893 0.010051414 -0.02132689
-0.058672786 0.09075241 -0.08450022 0.012384742 0.022307672 -0.12072327 0.012354901 -0.02946844
-0.030384198 -0.054610867 0.08621068 0.09456021 -0.095183454 0.023124358 0.0197243 -0.088210545
-0.031371392 0.035531003 -0.026078364 0.057777714 -0.07565528 -0.071892016 -0.04204329 -0.11858973
-0.13636567 0.05323023 0.03693075 -0.025023699 0.10462403 0.14704464 0.15495336 -0.028814709
0.1525766 0.026653316 0.011326475 0.023118207 -0.021735758 0.017060615 0.014715873 -0.02206631
-0.0055038217 0.03910272 -0.04587235 0.030681804 0.031651642 0.04977539 0.10618244 -0.008898125
-0.051826064 0.05567766 -0.055216324 -0.056195237 -0.018352054 0.019069895 -0.100872785 0.0033300295
-0.039135456 0.050572384 -0.022787347 -0.025988385 -0.050873164 0.024449427 0.0039395355 -0.011603378
0.067298174 0.22699793 0.20161667 0.02560775 0.08700931 0.12199605 0.02484779 0.08762174
0.11540267 0.07690519 0.090425014 -0.07220613 0.029763667 0.046587784 -0.073087774 0.0075452486
0.018348673 -0.040703963 -0.024299257 -0.06937174 -0.06961639 0.0218295 -0.048110798 -0.13251388
0.009434275 -0.10282852 -0.04645807 -0.051159974 0.0033975202 0.045158926 0.023852065 -0.08190652
-0.0051307073 0.004348293 -0.062553234 0.014611106 -0.04959432 -0.02703363 0.042912744 -0.034530047
-0.09385822 -0.033327825 0.0021399364 -0.05208447 -0.024720807 0.08132921 0.10565759 -0.0329818
0.0063227783 0.014209035 -0.043936845 -0.045909528 0.016229548 -0.12093139 -0.028402671 -0.10134721
-0.036873695 -0.06366463 -0.11691999 -0.0020553006 -0.051262103 -0.043998517 0.021539044 0.042850096
0.016687838 0.07687329 0.02184921 -0.040557984 -0.014103732 -0.018776491 0.09170648 0.017192584
0.064652435 -0.013579048 -0.049259983 -0.015245194 -0.06597275 -0.07901394 -0.006446551 0.043619078
-0.011506902 0.036692854 -0.031015454 0.0029268041 -0.023251649 -0.058599528 0.01694965 -0.017923493
0.050109286 0.05736931 0.09650016 0.0025292328 0.005392508 0.02823399 -0.04932919 -0.0073847254
-0.020794155 0.019509196 -0.04084099 0.008980349 0.047107816 -0.01709549 -0.007149861 -0.04393015
-0.03234681 -0.00484799 -0.018317174 -0.02024788 0.022058817 0.002111793 0.09956494 -0.026345173
00000000: 4653 d93c d6ac b73a a1d1 af3c c9a4 443c
00000010: b2c1 95bd 6e5e 40bd c74c 46bc 9415 c2bc
00000020: 97e4 b539 a261 2c3e d128 303d 2592 96bd
00000030: f243 bd3d 07fd 30bd b578 19be 0279 8fbd
00000040: 7b71 46bd 2d92 bcbd 22bf 463a 3527 25bd
00000050: cf7f 86bd 0982 9f3d 1e15 56bd 7695 9ebd
00000060: c7bb 403d 9e0e 663d 33c9 86bc 12dc 193d
00000070: d487 afbb 2ad9 0d3c b897 523d bd04 57bd
00000080: 76f5 58bd d190 663c ac2a d0bc 247a d43c
00000090: edce d53d 7dc7 d23c 973b 31bc 3e6b c8bc
000000a0: 2bdd ccbd 5b7e 7f3b 86c8 c23a aa87 7f3d
000000b0: f3b6 1abc e981 f53d 022f 9fbd 5f9c 88bc
000000c0: 8e69 163d 9d2c c5bd 5bf8 c4bd 03ab 6fbc
000000d0: 55aa b63b ab0e 7fbb 0995 fcbb 5525 e23c
000000e0: d7f6 7fbd 1265 20bd ed43 13bb ae3b ecbc
000000f0: 4c5a 463d 3903 61bd 713c 23bd 7192 3ebd
00000100: b916 ec3d d81b 913d 0e1e 243d 3ed6 b1bb
00000110: 040d dd3d 8c10 3c3d 9caf 833d c4b2 b73d
00000120: ae01 25bc d397 bd3c cbd2 5fbd 7ada 87bd
00000130: 5965 f3bc 9ddc 60bd b0ae 243c bbb5 aebc
00000140: e052 70bd 66dc b93d 740e adbd 5fe9 4a3c
00000150: 94be b63c c33d f7bd 366c 4a3c cc67 f1bc
00000160: 48e8 f8bc a5af 5fbd 3a8f b03d c9a8 c13d
00000170: 8bef c2bd 4b6f bd3c db94 a13c bba7 b4bd
00000180: 4a7f 00bd f588 113d 4ba2 d5bc 53a8 6c3d
00000190: 28f1 9abd 1f3c 93bd 9635 2cbd 2cdf f2bd
000001a0: 71a3 0bbe f107 5a3d b344 173d 80fe ccbc
000001b0: 2045 d63d df92 163e 18ac 1e3e d30c ecbc
000001c0: 0a3d 1c3e 0e58 da3c ae92 393c 6562 bd3c
000001d0: 300f b2bc b4c2 8b3c d81a 713c 68c4 b4bc
000001e0: 6759 b4bb 2c2a 203d a5e4 3bbd 6858 fb3c
000001f0: 27a5 013d 48e1 4b3d 2e76 d93d 71c9 11bc
00000200: 9147 54bd 420e 643d 832a 62bd fa2c 66bd
00000210: 0c57 96bc 7838 9c3c 6496 cebd a03c 5a3b
00000220: 804c 20bd fd24 4f3d 88ac babc 98e5 d4bc
00000230: 6160 50bd 2a4a c83c 3817 813b 181c 3ebc
00000240: a0d3 893d 2572 683e 9a74 4e3e 58c7 d13c
00000250: f031 b23d 11d9 f93d 988d cb3c 0773 b33d
00000260: 3c58 ec3d 7880 9d3d c030 b93d cfe0 93bd
00000270: efd2 f33c d5d2 3e3d 0baf 95bd 223e f73b
00000280: f54f 963c 33b9 26bd 3c0f c7bc c512 8ebd
00000290: 0a93 8ebd c8d3 b23c d40f 45bd b8b1 07be
000002a0: 3892 1a3c c297 d2bd d14a 3ebd 1f8d 51bd
000002b0: eea8 5e3b 91f8 383d 6865 c33c 9bbe a7bd
000002c0: 7e1f a8bb 207c 8e3b e91b 80bd 6c63 6f3c
000002d0: 6a23 4bbd a275 ddbc 46c5 2f3d 616f 0dbd
000002e0: bd38 c0bd c282 08bd 2d3e 0c3b 8656 55bd
000002f0: 4a83 cabc ee8f a63d 0263 d83d ed17 07bd
00000300: 4f2f cf3b 03cd 683c 1ff7 33bd a10b 3cbd
00000310: d4f3 843c e0aa f7bd b8ac e8bc 208f cfbd
00000320: df08 17bd 9a62 82bd bf73 efbd 39b2 06bb
00000330: 36f8 51bd ca37 34bd a672 b03c 9583 2f3d
00000340: efb4 883c be6f 9d3d 1dfd b23c 2120 26bd
00000350: 5713 67bc 28d1 99bc 9bd0 bb3d 76d7 8c3c
00000360: 7f68 843d a87a 5ebc d6c4 49bd fac6 79bc
00000370: b91c 87bd 10d2 a1bd 973d d3bb eba9 323d
00000380: 7287 3cbc 3f4b 163d 1f14 febc a0cf 3f3b
00000390: 3e7a bebc 0f06 70bd fed9 8a3c 4ad4 92bc
000003a0: 653f 4d3d 15fc 6a3d e0a1 c53d 7cc1 253b
000003b0: a3b3 b03b f84a e73c 680d 4abd 91fb f1bb
000003c0: 8158 aabc c0d1 9f3c e248 27bd 5022 133c
000003d0: 20f4 403d d70b 8cbc 6249 eabb 1af0 33bd
000003e0: 177e 04bd e3db 9ebb e60d 96bc e2de a5bc
000003f0: b1b4 b43c 0266 0a3b b4e8 cb3d d5d1 d7bc

cnn3.bias f4 [32]
0.019823177 0.04394451 -0.0948637 -0.017984938 0.032481104 -0.032874305 -0.033573538 0.11725402
-0.009886488 -0.060861126 0.009950442 -0.025707796 -0.013468142 0.050194163 -0.01853209 0.12648758
-0.07077807 0.0047885515 -0.042394016 -0.06359281 -0.0709487 -0.029765302 -0.0700156 -0.060357455
-0.012433057 -0.035000842 -0.06648899 0.027934643 -0.008332542 0.09789179 0.021720478 0.15056044
00000000: 3764 a23c 29ff 333d e647 c2bd 2655 93bc
00000010: e80a 053d 35a7 06bd 6884 09bd e022 f03d
00000020: f0fa 21bc 8449 79bd 2e07 233c 2899 d2bc
00000030: 7ba9 5cbc 6598 4d3d 9cd0 97bc f685 013e
00000040: 18f4 90bd 48e9 9c3b 59a5 2dbd f23c 82bd
00000050: 8d4d 91bd 5dd6 f3bc 5764 8fbd 6139 77bd
00000060: 05b4 4bbc 0b5d 0fbd 612b 88bd 31d7 e43c
00000070: 3785 08bc 7e7b c83d 25ef b13c 842c 1a3e

fc1.weight f4 [128, 768]
-0.026768217 0.024805857 0.019706015 0.014805308 0.030714003 -0.03206256 -0.04738656 0.015729973
-0.017709669 -0.010950901 -0.023830168 0.0005367771 -0.0016521504 0.0027314185 -0.00967815 0.019197397
0.0076671825 -0.0118327625 -0.010674359 0.011067424 -0.02330589 0.01681887 -0.028270751 -0.012641771
-0.03670567 -0.0069884784 -0.03650331 -0.008763657 0.0028516452 -0.030833649 -0.01898992 0.029425954
-0.039122038 0.015803397 0.04087461 -0.01204716 0.02607422 0.03501218 -0.007992916 -0.0013367659
0.009830236 -0.008740827 0.023201939 -0.052631065 -0.04098562 0.017855586 -0.031004813 -0.04243366
-0.040572193 0.010986801 -0.03187394 -0.032957774 -0.03824586 -0.005464251 0.008126307 -0.015216153
-0.008458035 -0.021384984 0.0094202915 0.028440623 -0.034350265 -0.018193372 -0.030250255 -0.046509687
0.023425652 0.012425869 -0.014549559 -0.009992772 -0.03793028 0.019242173 0.02116751 -0.0349238
-0.007668633 0.012855098 -0.023899289 -0.017706048 0.02842341 0.017105626 0.023311341 0.004786948
-0.0011094102 0.0068636066 0.01572924 -0.022178452 -0.031964805 0.025595896 0.0011204204 -0.010002529
0.0066787233 -0.023629045 -0.0027257737 -0.027397422 -0.0020104873 -0.039384115 0.0024646209 0.03186066
0.023867149 -0.03161419 0.0029067013 0.0045068497 -0.0007688545 0.0047350274 -0.023112593 -0.008261039
-0.038236745 -0.012191663 -0.016727006 -0.0066710715 0.014020395 -0.007324341 -0.016492775 -0.036273867
0.008421028 0.009895774 0.0114422925 -0.028039398 0.014289408 0.0005009341 -0.017592205 0.001777416
0.028321987 -0.03954159 0.005815888 0.011385632 -0.031181969 -0.009777736 0.0017313063 -0.032909855
0.037357967 0.019556236 0.012493526 0.004295384 0.025172144 0.003122344 -0.016434241 -0.024076868
-0.03271658 0.011582412 0.0157233 0.026555002 0.0043723355 0.01899039 0.002968764 -0.032260943
-0.0241181 0.0124429315 0.034022987 0.02737844 0.0027018301 -0.011732729 0.026980303 0.03537681
0.034640037 0.00976938 0.021684263 -0.006068522 -0.020357322 -0.007354265 0.03397174 0.034645036
0.015774377 0.017878175 0.009545419 -0.020073159 -0.007731734 0.032857556 -0.030408528 -0.01198029
-0.01387168 0.01142631 -0.0017675081 -0.007279032 0.003476853 -0.01201483 -0.058901172 -0.017311834
0.02568219 -0.019402418 -0.021298371 -0.040221225 -0.007468871 -0.035273485 0.020268856 0.0006612685
-0.044842377 -0.042740796 -0.009260616 -0.041124173 -0.0038951866 -0.021177938 0.009174399 -0.042680874
0.002109341 -0.0010863243 -0.005105085 -0.033098146 -0.031325504 0.028898567 -0.0015201005 -0.010904149
-0.029960625 -0.012364701 0.010846193 -0.03030587 -0.020987388 -0.02117999 -0.00782921 -0.013288465
0.019337598 -0.022215648 0.010765107 -0.008908859 0.02027019 -0.03463008 0.032106772 0.02664411
-0.034440305 -0.037104357 -0.037316777 0.02408591 -0.008800963 0.013576292 0.032432374 -0.035967845
-0.017288452 -0.013287759 0.01792957 0.016850995 -0.025568184 -0.02369145 0.024746014 0.032811016
0.0071376464 -0.018317195 0.01173135 -0.0016730701 -0.020331034 0.023337789 -0.0381589 -0.02679223
0.021745728 0.0011655202 0.0312667 -0.036564782 0.010468319 0.033404067 0.0006542119 0.011184478
-0.030304294 -0.034873065 0.008305769 0.020154366 -0.019414691 -0.006928563 0.028450064 -0.031442467
00000000: 0549 dbbc a735 cb3c 826e a13c f691 723c
00000010: ef9b fb3c 0854 03bd 6918 42bd 25dc 803c
00000020: de13 91bc 686b 33bc 7c37 c3bc 80b6 0c3a
00000030: f88c d8ba 9901 333b 1a91 1ebc dc43 9d3c
00000040: fd3c fb3b 34de 41bc 82e3 2ebc 2454 353c
00000050: feeb bebc bac7 893c 1098 e7bc 6e1f 4fbc
00000060: af58 16bd 9bff e4bb 7f84 15bd 7195 0fbc
00000070: abe2 3a3b d996 fcbc c090 9bbc b30e f13c
00000080: 6e3e 20bd 2076 813c 236c 273d 7461 45bc
00000090: 9a99 d53c ef68 0f3d b8f4 02bc 6c36 afba
000000a0: 000f 213c b035 0fbc fe11 be3c ac93 57bd
000000b0: 8ae0 27bd e145 923c cefd fdbc ebce 2dbd
000000c0: 072f 26bd fc01 343c 408e 02bd bbfe 06bd
000000d0: b1a7 1cbd 760d b3bb 3424 053c 2c4d 79bc
000000e0: 9293 0abc 902f afbc 9157 1a3c 4ffc e83c
000000f0: ddb2 0cbd 440a 95bc 62cf f7bc f180 3ebd
00000100: 27e7 bf3c df95 4b3c 4661 6ebc b9b8 23bc
00000110: c85c 1bbd c3a1 9d3c 7c67 ad3c 420c 0fbd
00000120: 2849 fbbb 309e 523c 71c8 c3bc 460c 91bc
00000130: 36d8 e83c 1921 8c3c 6df7 be3c d5db 9c3b
00000140: a169 91ba 1be8 e03b 9bda 803c 96af b5bc
00000150: 87ed 02bd 7cae d13c 12db 923a a6e1 23bc
00000160: 31d9 da3b b391 c1bc e5a2 32bb 8f70 e0bc
00000170: 61c2 03bb 3d51 21bd 7a85 213b 5380 023d
00000180: 0a85 c33c e27d 01bd 5b7e 3e3b 32ae 933b
00000190: f48c 49ba 4a28 9b3b 9f56 bdbc 4f59 07bc
000001a0: 229e 1cbd 8abf 47bc 1307 89bc 0199 dabb
000001b0: cdb5 653c 0701 f0bb db1b 87bc e893 14bd
000001c0: 5af8 093c e221 223c 7478 3b3c e1b2 e5bc
000001d0: 1f1e 6a3c 1e51 033a 871d 90bc 2ff8 e83a
000001e0: 8303 e83c 5df6 21bd 3493 be3b cd8a 3a3c
000001f0: 5471 ffbc cc32 20bc 00ed e23a 7ccc 06bd
00000200: ab04 193d 6634 a03c a5b1 4c3c 4bc0 8c3b
00000210: d035 ce3c 3da0 4c3b 1aa1 86bc da3c c5bc
00000220: d201 06bd 28c4 3d3c 26ce 803c e089 d93c
00000230: cf45 8f3b bc91 9b3c 988f 423b 0d24 04bd
00000240: 5293 c5bc 70dd 4b3c b05b 0b3d c048 e03c
00000250: 3011 313b a23a 40bc cc05 dd3c 46e7 103d
00000260: b6e2 0d3d c00f 203c 32a3 b13c 74da c6bb
00000270: 66c4 a6bc 0cfc f0bb f425 0b3d f4e7 0d3d
00000280: 4439 813c 4075 923c 6464 1c3c 7770 a4bc
00000290: 7c5a fdbb a595 063d 4e1b f9bc fa48 44bc
000002a0: 0b46 63bc 6b35 3b3c bbab e7ba f284 eebb
000002b0: eadb 633b d9d9 44bc 5b42 71bd 8cd1 8dbc
000002c0: 7563 d23c d2f1 9ebc ec79 aebc 03bf 24bd
000002d0: 6ebd f4bb ee7a 10bd df0a a63c fa58 2d3a
000002e0: a4ac 37bd f910 2fbd d7b9 17bc d271 28bd
000002f0: 6346 7fbb 5b7d adbc 3850 163c 24d2 2ebd
00000300: df3c 0a3b ff62 8eba 8f48 a7bb ec91 07bd
00000310: 2c4f 00bd b0bc ec3c 1c3e c7ba 51a7 32bc
00000320: fc6f f5bc 5195 4abc 3bb4 313c 0444 f8bc
00000330: beed abbc a981 adbc 1646 00bc ddb7 59bc
00000340: e269 9e3c 97fd b5bc 2260 303c 77f6 11bc
00000350: ab0d a63c 45d8 0dbd 6482 033d c044 da3c
00000360: 4711 0dbd bdfa 17bd 7ad9 18bd d04f c53c
00000370: ea31 10bc 196f 5e3c cfd7 043d 0553 13bd
00000380: 83a0 8dbc e7b4 59bc 09e1 923c 190b 8a3c
00000390: 5e74 d1bc 9214 c2bc 27b8 ca3c d864 063d
000003a0: ebe2 e93b f10d 96bc d934 403c eb4a dbba
000003b0: 458d a6bc e42e bf3c 824c 1cbd 617b dbbc
000003c0: 1924 b23c 5ec4 983a 8311 003d f4c4 15bd
000003d0: 5083 2b3c b4d2 083d 6b7f 2b3a 1a3f 373c
000003e0: b640 f8bc 0fd7 0ebd ec14 083c c51a a53c
000003f0: 8f0b 9fbc 0009 e3bb 1c10 e93c d1c9 00bd

fc1.bias f4 [128]
0.024374982 -0.008884579 0.01289753 -0.040303595 -0.025760593 0.025965847 -0.034205355 -0.040878776
0.004696367 0.0154685285 -0.020946093 -0.02808214 -0.03607098 -0.034426935 -0.03789541 -0.016101982
-0.036883745 -0.019908283 0.06099266 -0.0019482248 -0.0051140795 0.09676923 -0.04293951 0.08169736
-0.048151832 0.00014648677 -0.0057002483 -0.02934152 -0.027238565 0.017232921 -0.035708316 0.020811984
-0.034696802 0.01366429 -0.00051524147 -0.046396103 -0.025006728 -0.039166205 -0.022390166 0.0032032595
0.02061216 0.09649271 -0.03239606 -0.02420637 -0.019213833 -0.035911623 0.006403802 0.0062718457
-0.03563728 0.029379502 0.03388658 0.026030522 0.0057407785 0.09464282 -0.007280573 -0.036151722
-0.03530087 0.007726279 -0.017329285 -0.022276998 -0.0414 0.09169824 -0.033973902 -0.024987385
-0.01565201 0.025309611 0.11561431 -0.006186274 0.011868043 0.017114129 -0.0063203047 0.0049959775
-0.009412195 0.011230215 -0.00020048609 0.011681051 -9.348324e-06 -0.035293527 0.010056953 -0.0045834514
-0.017205037 -0.0068243635 0.0071320445 0.020861998 0.00814874 0.027326532 -0.028890891 -0.026063982
-0.039283562 0.0827754 -0.06691881 0.114097774 0.010330442 -0.021524405 -0.0016606968 -0.040150728
0.0017156763 -0.0044042943 -0.0069203125 0.011087489 -0.03611069 -0.010624648 -0.0004923856 0.017711898
0.0011036956 -0.015114749 -0.038058072 -0.016122632 0.117783986 0.013090914 -0.0077957963 -0.012889578
0.11003351 0.021247488 -0.060883712 -0.033026986 0.0104546435 0.0173825 -0.021482073 0.057209842
-0.060678013 -0.0118935 -0.012632707 -0.049817648 0.12454011 -0.04458727 0.033098295 -0.05847208
00000000: 0bae c73c a090 11bc 2950 533c 6215 25bd
00000010: e107 d3bc 54b6 d43c ea1a 0cbd 8170 27bd
00000020: fbe3 993b b66f 7d3c 2497 abbc 840c e6bc
00000030: 2abf 13bd 4203 0dbd 3838 1bbd 4ee8 83bc
00000040: 6913 17bd b216 a3bc 70d3 793d 945b ffba
00000050: 0294 a7bb f22e c63d 57e1 2fbd f250 a73d
00000060: db3a 45bd 3e9a 1939 26c9 babb a15d f0bc
00000070: 6923 dfbc 0e2c 8d3c e242 12bd e57d aa3c
00000080: 3c1e 0ebd 30e0 5f3c 4511 07ba d709 3ebd
00000090: e9da ccbc be6c 20bd 956b b7bc c7ed 513b
000000a0: d5da a83c f89d c53d bbb1 04bd 704c c6bc
000000b0: 5466 9dbc 1118 13bd fcd6 d13b 0e84 cd3b
000000c0: 66f8 11bd 48ad f03c a8cc 0a3d f63d d53c
000000d0: 241d bc3b 18d4 c13d df91 eebb d413 14bd
000000e0: a597 10bd ba2c fd3b 25f6 8dbc 407e b6bc
000000f0: 0c93 29bd 49cc bb3d 3828 0bbd 58b2 ccbc
00000100: a538 80bc 1a56 cf3c 32c7 ec3d 3ab6 cabb
00000110: 2e72 423c ee32 8c3c 8f1a cfbb 4cb5 a33b
00000120: 9b35 1abc f0fe 373c 9339 52b9 e161 3f3c
00000130: bfd6 1cb7 f28f 10bd ebc5 243c c730 96bb
00000140: 94f1 8cbc e99e dfbb edb3 e93b c8e6 aa3c
00000150: 4b82 053c e4db df3c 97ac ecbc 2284 d5bc
00000160: cde7 20bd 2686 a93d bb0c 89bd 18ac e93d
00000170: 0441 293c f353 b0bc bdab d9ba 1775 24bd
00000180: 8be0 e03a e651 90bb cac3 e2bb 4da8 353c
00000190: cee8 13bd 0113 2ebc 7013 01ba 8b18 913c
000001a0: e1a9 903a daa3 77bc c8e2 1bbd 9c13 84bc
000001b0: bb38 f13d 467b 563c e173 ffbb cf2e 53bc
000001c0: 4059 e13d 360f ae3c 3361 79bd 4e47 07bd
000001d0: f449 2b3c bf65 8e3c 2cfb afbc de54 6a3d
000001e0: 8289 78bd f4dc 42bc 6af9 4ebc 970d 4cbd
000001f0: e30e ff3d 24a1 36bd 1492 073d 6b80 6fbd

fc2.weight f4 [128, 128]
-0.0870013 -0.058957867 -0.008951158 -0.011242352 0.02995978 0.05968735 -0.04763767 0.052065287
-0.002051163 0.033373106 0.027636165 -0.03235877 -0.07739231 0.034983233 0.08198521 -0.043027397
-0.046034288 0.029198345 0.005551892 0.041961722 0.08577215 0.06049984 0.016805086 -0.045005765
0.05292844 -0.0023336112 0.06543913 -0.0062654717 -0.014185451 -0.0020542343 0.08981437 0.05531334
-0.080045 -0.03278984 0.0790401 -0.09513384 -0.08637664 0.087632105 0.08386805 -0.06400309
-0.06414175 -0.076013684 0.02529163 -0.007103486 -0.038693573 0.076070614 0.055873536 0.02044213
-0.05172781 -0.079450935 -0.00826345 0.04082662 0.052417226 0.11442501 -0.011247911 0.0884482
0.030545294 -0.025452204 -0.011025563 -0.07602357 -0.019814722 0.101141565 -0.08627648 0.10084734
-0.03453327 0.03608322 0.12232234 -0.052746616 0.058320526 -0.061869666 0.04106435 0.08677106
-0.04248476 0.014354497 0.0015948713 0.036962725 0.023811027 0.03801499 -0.007196218 -0.022744901
-0.009947355 -0.07661607 -0.051587235 0.005674878 -0.079811156 -0.059083547 -0.06408382 0.03758744
-0.05004525 -0.15340665 -0.05546467 -0.015599343 0.04420901 0.058715023 0.031252597 -0.07099998
0.011896168 -0.046156615 0.05017399 0.038774483 0.034832582 -0.03690891 0.06594203 0.07787339
0.024892367 0.048191987 0.008928038 -0.039583657 0.044153836 -0.073189154 -0.0228962 0.026814729
0.08074835 -0.022588253 -0.059995603 -0.045749836 -0.06669424 -0.07433669 -0.085399374 -0.08236815
0.023043223 -0.011853896 -0.050611403 -0.002313264 0.07566308 -0.039628725 -0.06851422 -0.051067736
-0.06252597 -0.031120893 -0.083560586 0.0071800426 -0.0012561263 0.015684547 -0.09867975 -0.011514768
0.069590025 0.035898548 0.0013338672 0.036984436 -0.036422472 0.0044304803 0.04935851 -0.04314692
0.038628235 0.037541494 -0.0031675613 -0.023403257 -0.008289206 -0.028074548 0.07552644 -0.05605781
0.082411416 0.05452036 -0.07366949 -0.010709529 -0.07656484 0.046852387 0.08297766 -0.029465072
-0.034701746 0.021175588 -0.033949442 -0.091936305 -0.07360279 -0.046012316 0.036489025 -0.07818893
-0.060880605 0.015880566 -0.023269504 -0.0760034 -0.055638608 -0.025223106 0.019976823 -0.009413623
-0.06732775 0.074210115 0.018901229 -0.045804195 -0.008922592 0.11216647 0.046904694 -0.07232298
-0.04162177 -0.012118548 -0.06525713 0.014302802 -0.06771229 0.054176934 -0.020008713 -0.09925543
-0.04830451 0.02538267 0.04399541 0.014720069 -0.006319911 0.022881828 -0.024225082 0.027754858
-0.021227567 -0.040355545 -0.016365893 0.014918596 -0.06996248 0.022012994 -0.03908218 0.06534728
-0.008504323 -0.0148077775 -0.052435208 0.067496195 0.033776566 -0.03166519 -0.019426782 -0.001793867
-0.03471738 -0.08021442 -0.07278285 0.030325348 -0.008318394 0.046093874 -0.027021753 -0.08380517
-0.04824551 -0.07150332 0.049528815 0.011674054 -0.046497047 0.025403664 0.06769716 0.032947116
-0.010931164 0.014019169 -0.05996857 0.043662407 0.112758584 -0.0077865133 0.035958238 0.0390547
0.003289258 0.050387137 -0.10264573 -0.053607866 0.013680644 0.06661702 -0.08116594 0.05432572
-0.02303493 -0.06903414 0.059493292 0.10037921 0.1665863 -0.08642847 0.08416289 0.043885794
00000000: bd2d b2bd ce7d 71bd e1a7 12bc d831 38bc
00000010: 366e f53c b97a 743d b81f 43bd 6942 553d
00000020: ce6c 06bb 3db2 083d 3d65 e23c a18a 04bd
00000030: dc7f 9ebd 944a 0f3d dde7 a73d 7f3d 30bd
00000040: 738e 3cbd 5e31 ef3c a5ec b53b 0ee0 2b3d
00000050: 4fa9 af3d aece 773d d2aa 893c f757 38bd
00000060: 7ecb 583d 80ef 18bb f304 863d 964e cdbb
00000070: 186a 68bc 55a0 06bb 99f0 b73d 3e90 623d
00000080: a2ee a3bd a44e 06bd c7df a13d 88d5 c2bd
00000090: 3ce6 b0bd 7678 b33d 03c3 ab3d 0d14 83bd
000000a0: c05c 83bd 10ad 9bbd 6430 cf3c 5cc4 e8bb
000000b0: 277d 1ebd e9ca 9b3d a6db 643d 4176 a73c
000000c0: 8ae0 53bd 2cb7 a2bd 6c63 07bc d039 273d
000000d0: 72b3 563d a957 ea3d 2849 38bc 5424 b53d
000000e0: 203a fa3c 2481 d0bc 90a4 34bc 3fb2 9bbd
000000f0: 7c52 a2bc 4f23 cf3d b9b1 b0bd 0d89 ce3d
00000100: c272 0dbd 00cc 133d 2384 fa3d d60c 58bd
00000110: 81e1 6e3d 0c6b 7dbd 1833 283d 07b5 b13d
00000120: 8004 2ebd 202f 6b3c 000b d13a 3a66 173d
00000130: 580f c33c 9bb5 1b3d 40ce ebbb 8453 babc
00000140: 3bfa 22bc e3e8 9cbd 234d 53bd 54f4 b93b
00000150: 0874 a3bd 9701 72bd 613e 83bd 4af5 193d
00000160: 40fc 4cbd a216 1dbe ec2e 63bd 6394 7fbc
00000170: 8214 353d 2a7f 703d b902 003d 7068 91bd
00000180: 25e8 423c b80e 3dbd 3e83 4d3d fed1 1e3d
00000190: 9cac 0e3d cc2d 17bd 9d0c 873d 157c 9f3d
000001a0: 14eb cb3c f664 453d e846 123c 7922 22bd
000001b0: a7da 343d 32e4 95bd d090 bbbc 90aa db3c
000001c0: 645f a53d 000b b9bc f3bd 75bd 2e64 3bbd
000001d0: fd96 88bd d63d 98bd dee5 aebd a2b0 a8bd
000001e0: 24c5 bc3c d836 42bc e74d 4fbd 219a 17bb
000001f0: 3ff5 9a3d bb51 22bd 2f51 8cbd 672c 51bd
00000200: 9e0d 80bd 3ef1 febc d021 abbd 9046 eb3b
00000210: 9ba4 a4ba e17c 803c 9c18 cabd 70a8 3cbc
00000220: 3785 8e3d 5b0a 133d 28d5 ae3a fe7c 173d
00000230: bb2f 15bd 902d 913b 262c 4a3d d3ba 30bd
00000240: a438 1e3d 1cc5 193d dc96 4fbb 30b8 bfbc
00000250: 73cf 07bc 98fc e5bc 9bad 9a3d e09c 65bd
00000260: 51c7 a83d be50 5f3d 08e0 96bd 0577 2fbc
00000270: 07ce 9cbd 4ae8 3f3d 31f0 a93d bc60 f1bc
00000280: 6b23 0ebd 6d78 ad3c 920e 0bbd 1a49 bcbd
00000290: 0fbd 96bd 6977 3cbd 8475 153d 8521 a0bd
000002a0: f15d 79bd f617 823c b09f bebc aca7 9bbd
000002b0: 4fe5 63bd b0a0 cebc 6fa6 a33c 993b 1abc
000002c0: 22e3 89bd 79fb 973d c0d6 9a3c 2e9d 3bbd
000002d0: 1030 12bc 89b7 e53d 231f 403d 121e 94bd
000002e0: 977b 2abd e08c 46bc 88a5 85bd 4d56 6a3c
000002f0: beac 8abd a2e8 5d3d 50e9 a3bc 6e46 cbbd
00000300: f3da 45bd 51ef cf3c 8834 343d 722c 713c
00000310: 4217 cfbb ac72 bb3c ae73 c6bc 285e e33c
00000320: 6fe5 adbc db4b 25bd c411 86bc 206d 743c
00000330: 7d48 8fbd 9854 b43c a314 20bd cbd4 853d
00000340: b755 0bbc 529c 72bc 4dc6 56bd 723b 8a3d
00000350: 4c59 0a3d 5cb3 01bd ea24 9fbc 3020 ebba
00000360: d033 0ebd 7547 a4bd 2d0f 95bd dd6c f83c
00000370: e049 08bc eecc 3c3d b95c ddbc 0ca2 abbd
00000380: 159d 45bd 5570 92bd bade 4a3d 8844 3f3c
00000390: b073 3ebd 581b d03c cfa4 8a3d 8ef3 063d
000003a0: a018 33bc a8b0 653c 9aa1 75bd 5ad7 323d
000003b0: f9ed e63d 0226 ffbb f248 133d d2f7 1f3d
000003c0: 9890 573b be62 4e3d ed37 d2bd ec93 5bbd
000003d0: c824 603c 816e 883d 543a a6bd a584 5e3d
000003e0: c0b3 bcbc c561 8dbd 3daf 733d 9e93 cd3d
000003f0: 9995 2a3e 6901 b1bd 985d ac3d 97c1 333d

fc2.bias f4 [128]
0.05013722 0.05820299 0.034906622 0.07375775 0.048066024 0.08846076 0.15548563 0.11114064
-0.039062712 0.097278655 -0.0553942 -0.01022477 0.14191315 0.0421047 -0.10176306 0.08059134
0.06377029 0.10047971 0.0916338 0.00023544375 -0.032901943 0.085111625 0.10799933 0.19952118
0.13425012 0.02968042 0.10543584 0.13875568 0.004079919 0.009138217 0.07473287 0.054309167
0.17253976 -0.09086555 0.18823276 0.015949566 0.028545344 0.17560144 -0.06416779 -0.022007886
0.04706904 0.0046774354 -0.018740704 0.016327376 0.16372603 0.11601396 0.05069544 0.014706642
-0.13182321 0.02647292 0.11202231 0.05183353 0.03218881 0.0072446982 0.17908905 0.09563342
0.0077191144 0.08351161 -0.03183528 0.03821336 0.009442819 -0.04911061 0.17481518 -0.026079316
-0.006752133 -0.06833363 -0.03549725 0.07205426 0.094016425 0.11266182 0.08685609 0.07458802
-0.058000103 0.09514665 0.010447336 0.03150921 0.026694195 0.055264607 -0.13894074 -0.010223118
0.038847625 0.040915962 0.17773503 0.018190064 0.04583579 0.008082746 -0.038754646 0.11685638
-0.16127825 0.16868126 0.118790366 0.16416867 0.029569348 0.015261763 0.030252581 0.15302926
0.04312961 0.015672898 0.03713359 0.11814892 -0.006366623 0.02624327 0.013284408 0.05742916
0.092837445 0.17998569 0.01831508 0.01797813 0.1868044 0.15013863 -0.02763189 -0.045320675
-0.08299901 0.16650859 0.0818973 0.18891713 0.15801318 0.05085853 0.2523908 0.123409875
0.14044343 0.016143467 0.14021254 -0.09135723 0.2655723 0.10307111 -0.034220625 -0.03567439
00000000: b05c 4d3d 4266 6e3d 3ffa 0e3d 4e0e 973d
00000010: e1e0 443d ea2a b53d a037 1f3e b49d e33d
00000020: 3900 20bd 083a c73d 07e5 62bd cb85 27bc
00000030: ae51 113e fa75 2c3d 2769 d0bd 130d a53d
00000040: ff99 823d 4ec8 cd3d 80aa bb3d 73e1 7639
00000050: 30c4 06bd 014f ae3d c12e dd3d 484f 4c3e
00000060: dd78 093e 5a24 f33c bfee d73d f815 0e3e
00000070: d7b0 853b 76b8 153c 8c0d 993d 4a73 5e3d
00000080: 43ae 303e b817 babd 17c0 403e aaa8 823c
00000090: edd7 e93c ddd0 333e 676a 83bd e249 b4bc
000000a0: 77cb 403d 2c45 993b 1b86 99bc fdc0 853c
000000b0: cca7 273e ba98 ed3d 06a6 4f3d 21f4 703c
000000c0: aafc 06be bddd d83c f46b e53d 654f 543d
000000d0: 6ad8 033d ef64 ed3b 1f63 373e 74db c33d
000000e0: a0f0 fc3b 2308 ab3d b665 02bd 9d85 1c3d
000000f0: 0eb6 1a3c 3528 49bd c002 333e 4aa4 d5bc
00000100: ff40 ddbb 81f2 8bbd 9065 11bd 2f91 933d
00000110: af8b c03d 3ebb e63d 9be1 b13d 9bc1 983d
00000120: 8491 6dbd 3fdc c23d 4e2b 2b3c cd0f 013d
00000130: c9ad da3c 245d 623d 7b46 0ebe dd7e 27bc
00000140: b01e 1f3d 7f97 273d 2c00 363e 5403 953c
00000150: 4fbe 3b3d 7e6d 043c 31bd 1ebd 6652 ef3d
00000160: 2026 25be c8ba 2c3e 5d48 f33d d51b 283e
00000170: 6b3b f23c 790c 7a3c 43d4 f73c b4b3 1c3e
00000180: ada8 303d 7364 803c 6419 183d 10f8 f13d
00000190: 1b9f d0bb 20fc d63c d8a6 593c d73a 6b3d
000001a0: 8f21 be3d 2b4e 383e 8209 963c df46 933c
000001b0: a749 3f3e f1bd 193e 465c e2bc 2ca2 39bd
000001c0: 63fb a9bd 3a81 2a3e c6b9 a73d 7e73 413e
000001d0: 35ce 213e 0951 503d 5e39 813e 51be fc3d
000001e0: 67d0 0f3e 4e3f 843c e093 0f3e 8019 bbbd
000001f0: 18f9 873e f216 d33d ed2a 0cbd 4f1f 12bd

fc3.weight f4 [128, 128]
0.0008225515 -0.02720903 -0.13360633 -0.037229378 -0.007860557 0.047108896 0.028739376 -0.03963696
0.09744457 -0.054619264 -0.101535566 0.018304402 0.013406557 0.03183792 0.060131054 0.0011238954
-0.023097383 -0.06525033 0.02167794 0.024179706 0.051586017 -0.034124874 -0.044792227 -0.019890368
-0.08170925 -0.0749209 -0.08043863 0.004945961 -0.01450424 0.006141972 -0.041589938 0.0027333852
-0.004174002 -0.068098724 0.0381274 0.12658769 0.01117031 -0.09311591 -0.057319757 -0.008420781
-0.06551285 -0.043603502 0.10846852 -0.08756119 -0.061616708 -0.056016397 -0.021090794 0.0803676
-0.059637144 0.07250983 0.039405826 0.099817604 0.018128945 -0.068501376 -0.043900028 -0.058590427
-0.030825408 -0.0021291343 0.10651352 -0.13021764 0.0993979 0.013190293 -0.01609212 0.045514993
0.016221812 0.099097915 -0.033959053 0.013916377 0.024314146 -0.046920158 -0.03257827 0.02590402
0.07632349 0.019761402 0.04368409 0.03305626 -0.045915376 -0.06954191 0.0076832217 0.013625034
-0.10555448 0.00854285 -0.0077048447 0.1831799 -0.09800021 0.147225 0.09850603 -0.07914885
0.08150386 -0.050818164 0.0120256385 0.014059794 0.013310544 0.05922071 0.06678294 -0.021386515
0.008573916 0.034609385 -0.068106696 0.14233495 0.00222711 0.054434143 0.030459639 -0.06008101
-0.020196304 -0.037336275 -0.029402625 0.08408272 0.0068552275 0.05395826 0.069368914 -0.023685416
-0.012959703 -0.024832569 -0.07979842 -0.054198455 0.014985675 0.077624016 -0.05768628 -0.08219317
-0.10709944 -0.07775881 -0.0060548433 -0.05920445 0.046710875 0.014435816 -0.06731634 0.06992207
-0.007153433 0.09793919 0.006142961 0.10778892 0.049350146 0.08554259 0.108074054 0.14103122
-0.027571084 0.09484075 -0.019334888 0.015394212 0.050352614 0.07285784 0.033574123 -0.025831262
0.0043121674 0.084213115 -0.0045540887 0.09483293 -0.060832806 0.10595687 0.05657964 0.07034559
0.06652629 -0.061057154 -0.025141353 0.12621254 -0.118246816 0.014818525 0.060991578 0.025656579
0.07491266 0.14585152 0.03416963 0.10972935 0.009965935 -0.023912122 -0.04879592 -0.086416356
0.093136586 -0.12766218 -0.10227821 -0.013830049 0.067595154 0.061294045 0.022907224 -0.07079634
0.055476986 -0.022607844 -0.029860752 0.049549967 -0.004835868 0.063167736 -0.010663343 0.07262046
0.06740925 -0.06793979 -0.10200216 0.03163529 -0.07673849 -0.1009269 0.047223907 -0.040583525
0.07809772 -0.07890165 -0.0033894146 0.084665984 0.043406244 0.109656565 0.08230608 0.07715948
0.05647491 0.018785726 -0.0047159465 0.025456408 -0.08792835 0.12148453 0.015467631 -0.06876604
0.1321113 -0.030463506 0.1012669 -0.022660742 0.047730524 0.05443948 -0.09594776 0.09375751
0.0075762616 -0.03529448 0.0053205276 -0.07373462 0.017428985 -0.033304274 -0.03414362 0.049566332
0.0873029 -0.07664605 0.07262056 0.05330372 -0.01634382 -0.03633924 0.03693342 0.1466771
-0.003851855 0.07835128 -0.02900565 0.059162706 0.0294036 -0.022977477 -0.07902758 -0.034549914
0.06380832 0.016273083 0.058656063 -0.008742825 0.049445122 -0.039448682 -0.11981713 -0.010564837
0.024068821 -0.077910796 0.0380511 -0.08531462 0.022600668 0.07444572 -0.11701314 -0.12816763
00000000: 7fa0 573a 79e5 debc 19d0 08be d57d 18bd
00000010: 91c9 00bc 42f5 403d d76e eb3c 5d5a 22bd
00000020: 0591 c73d 73b8 5fbd e1f1 cfbd 1df3 953c
00000030: 2da7 5b3c 7b68 023d fb4b 763d ac4f 933a
00000040: b936 bdbc f7a1 85bd ef95 b13c 8514 c63c
00000050: dc4b 533d 86c6 0bbd 0e78 37bd 20f1 a2bc
00000060: 2e57 a7bd 2170 99bd 02bd a4bd ba11 a23b
00000070: 31a3 6dbc 9842 c93b 365a 2abd 9822 333b
00000080: 11c6 88bb 5877 8bbd 7a2b 1c3d 34a0 013e
00000090: ad03 373c 8eb3 bebd 1fc8 6abd 51f7 09bc
000000a0: 9a2b 86bd 9699 32bd be24 de3d 4853 b3bd
000000b0: cd61 7cbd 7371 65bd 9ac6 acbc c597 a43d
000000c0: 1446 74bd 0980 943d 0168 213d 2c6d cc3d
000000d0: 2783 943c 734a 8cbd 84d0 33bd 84fc 6fbd
000000e0: 9185 fcbc f288 0bbb c323 da3d c657 05be
000000f0: 2091 cb3d 191c 583c 9fd3 83bc ee6d 3a3d
00000100: 9be3 843c d9f3 ca3d a618 0bbd 8401 643c
00000110: 762e c73c 5a2f 40bd cb70 05bd ab34 d43c
00000120: 7d4f 9c3d aae2 a13c 17ee 323d 0066 073d
00000130: c311 3cbd fd6b 8ebd 89c3 fb3b 893b 5f3c
00000140: f22c d8bd 4ff7 0b3c ec78 fcbb 8393 3b3e
00000150: 56b4 c8bd 27c2 163e 88bd c93d cb18 a2bd
00000160: 7feb a63d b526 50bd 2f07 453c 0d5b 663c
00000170: 7814 5a3c 6a91 723d 7ec5 883d c632 afbc
00000180: 9c79 0c3c 92c2 0d3d 867b 8bbd 41c0 113e
00000190: b5f4 113b 56f6 5e3d 7e86 f93c 8117 76bd
000001a0: b872 a5bc eced 18bd c6dd f0bc 9033 ac3d
000001b0: d1a1 e03b 5603 5d3d 4a11 8e3d eb07 c2bc
000001c0: ef54 54bc ac6d cbbc 5b6d a3bd 33ff 5dbd
000001d0: 7a86 753c 57f9 9e3d 7348 6cbd e554 a8bd
000001e0: f456 dbbd 0340 9fbd b567 c6bb 5e80 72bd
000001f0: e753 3f3d 3384 6c3c 26dd 89bd 4d33 8f3d
00000200: 5867 eabb 5894 c83d e44a c93b 70c0 dc3d
00000210: 6123 4a3d f430 af3d ee55 dd3d 7d6a 103e
00000220: c1dc e1bc de3b c23d 3364 9ebc 0138 7c3c
00000230: 8b3e 4e3d 7e36 953d 0585 093d 159c d3bc
00000240: 154d 8d3b ed77 ac3d 773a 95bb c437 c23d
00000250: d22b 79bd eaff d83d 0dc0 673d 5911 903d
00000260: ef3e 883d 1117 7abd 3df5 cdbc dc3d 013e
00000270: 632b f2bd 66c9 723c 4ed2 793d bf2d d23c
00000280: cf6b 993d 1a5a 153e 74f5 0b3d c8b9 e03d
00000290: 2948 233c 5be3 c3bc 3bde 47bd 0ffb b0bd
000002a0: 65be be3d e0b9 02be 3d77 d1bd 6e97 62bc
000002b0: 546f 8a3d 770f 7b3d eea7 bb3c acfd 90bd
000002c0: d63b 633d 1634 b9bc 899e f4bc e8f4 4a3d
000002d0: 3376 9ebb 165e 813d 4db5 2ebc 09ba 943d
000002e0: dc0d 8a3d 0424 8bbd 82e6 d0bd 0194 013d
000002f0: 1229 9dbd c3b2 cebd db6d 413d e93a 26bd
00000300: b3f1 9f3d 3097 a1bd f120 5ebb 5c65 ad3d
00000310: bfca 313d 9f93 e03d 1790 a83d ca05 9e3d
00000320: 3c52 673d 86e4 993c 3a88 9abb f589 d03c
00000330: c713 b4bd e2cc f83d f26b 7d3c 36d5 8cbd
00000340: 2f48 073e 9a8e f9bc 0565 cf3d 05a3 b9bc
00000350: 1581 433d effb 5e3d 4280 c4bd f003 c03d
00000360: 4a42 f83b f290 10bd d257 ae3b 2d02 97bd
00000370: 3bc7 8e3c 106a 08bd 2eda 0bbd 1106 4b3d
00000380: ddcb b23d 9bf8 9cbd 17ba 943d 0055 5a3d
00000390: 7ae3 85bc 74d8 14bd 7f47 173d 8632 163e
000003a0: 676f 7cbb a376 a03d 429d edbc 9854 723d
000003b0: d2df f03c 433b bcbc 36d9 a1bd 3684 0dbd
000003c0: f0ad 823d 214f 853c 5741 703d 113e 0fbc
000003d0: f886 4a3d f194 21bd af62 f5bd 2318 2dbc
000003e0: fa2b c53c b28f 9fbd 78db 1b3d 6eb9 aebd
000003f0: 0925 b93c ff76 983d 96a4 efbd 603e 03be

fc3.bias f4 [128]
0.024565393 0.0727326 0.09870819 0.08922066 0.29240704 0.13476975 0.116549544 0.16848041
0.10574717 0.15747185 0.1671308 0.111192055 -0.10686007 0.1632302 0.021555532 -0.012546077
0.10289165 0.012353237 0.11035244 0.112858035 0.0007081291 -0.08475353 -0.027780455 0.17596662
0.12472928 0.011955968 -0.09098409 0.105991624 0.15106282 0.11404001 0.23232214 -0.09191966
0.183058 0.011458644 0.15634912 -0.09979151 -0.07154623 -0.020117454 0.20027295 0.12727214
0.09306464 0.19362634 -0.032023005 0.14138071 0.007841746 0.05442622 0.15680677 0.07679422
0.015213616 0.08776122 0.09531035 0.008889274 -0.11283437 0.021001043 0.06263451 0.11953757
0.21295817 0.07373153 -0.04098754 0.054140005 0.19205181 0.19465472 0.184739 0.07125589
0.10806716 0.042572044 0.06991054 0.27539098 0.07789713 0.001022875 0.17797749 0.20917404
0.23485358 0.15575926 -0.13933037 -0.0009584168 0.052268043 0.20353127 -0.17070577 0.13682862
-0.00041779096 0.15204294 0.0020274464 0.16222148 0.14022835 0.18436056 -0.09390467 0.074017145
0.106681466 0.22890379 0.087008335 0.12324167 0.23555964 0.22733752 0.23032664 0.13411945
-0.04053725 -0.14273994 -0.045074444 0.1884702 0.09214476 0.041957777 -0.03446506 0.12252993
0.16922098 0.055422794 0.1331238 0.23558895 0.15411155 0.066772 0.062409084 -0.13317652
0.10931209 -0.14856891 0.07480748 -0.106589355 0.15594436 0.11053482 0.08574001 0.024925902
0.204282 0.006549055 0.06387687 -0.055556834 0.080246754 -0.03992905 0.16985266 -0.046671424
00000000: 5d3d c93c d4f4 943d 8527 ca3d 52b9 b63d
00000010: 60b6 953e 1501 0a3e 87b1 ee3d 2186 2c3e
00000020: f991 d83d 4d40 213e 5624 2b3e a9b8 e33d
00000030: 74d9 dabd d125 273e 3a95 b03c 108e 4dbc
00000040: dbb8 d23d 3b65 4a3c 7600 e23d 1d22 e73d
00000050: bda1 393a 4293 adbd d693 e3bc 9830 343e
00000060: 1172 ff3d f7e2 433c de55 babd 2312 d93d
00000070: 36b0 1a3e cf8d e93d dbe5 6d3e 6040 bcbd
00000080: 8e73 3b3e 09bd 3b3c fc19 203e 7e5f ccbd
00000090: d486 92bd 5ccd a4bc 5a14 4d3e a153 023e
000000a0: ad98 be3d fc45 463e 8e2a 03bd 1bc6 103e
000000b0: ab7a 003c 07ee 5e3d f491 203e 4a46 9d3d
000000c0: 8842 793c 28bc b33d 1332 c33d 51a4 113c
000000d0: b515 e7bd 610a ac3c 8646 803d 1dd0 f43d
000000e0: b511 5a3e 8e00 973d 8de2 27bd e9c1 5d3d
000000f0: 3ba9 443e 9153 473e 382c 3d3e 9cee 913d
00000100: 5152 dd3d 0660 2e3d 422d 8f3d 0c00 8d3e
00000110: 8888 9f3d fd11 863a bb3f 363e b831 563e
00000120: 757d 703e 5b7f 1f3e 9fac 0ebe 433e 7bba
00000130: 0417 563d 806a 503e 7ecd 2ebe cd1c 0c3e
00000140: f40a dbb9 25b1 1b3e e8de 043b 631d 263e
00000150: 0598 0f3e 04c9 3c3e 1751 c0bd 4d96 973d
00000160: d07b da3d c165 6a3e 6d31 b23d 2166 fc3d
00000170: 8c36 713e 2bcb 683e bfda 6b3e 9c56 093e
00000180: 630a 26bd 6b2a 12be fb9f 38bd 55fe 403e
00000190: 64b6 bc3d ebdb 2b3d 3c2b 0dbd f9f0 fa3d
000001a0: 4448 2d3e 0303 633d 9b51 083e 3b3e 713e
000001b0: 6bcf 1d3e c2bf 883d aba0 7f3d 6d5f 08be
000001c0: 04df df3d 7322 18be aa34 993d 854b dabd
000001d0: e1af 1f3e 1460 e23d 7598 af3d 6831 cc3c
000001e0: 4d2f 513e 7599 d63b e0d1 823d 908f 63bd
000001f0: 6958 a43d a58c 23bd dbed 2d3e 892a 3fbd
