models/dqn_model_epoch_88000.pth (torch, 595624 bytes, 14 tensors)

cnn1.weight f4 [16, 4, 5, 5]
0	0xbe476316	-0.19471392
1	0x3d336fe7	0.04380789
2	0xbcc908bc	-0.024540298
3	0xbe499bc2	-0.19688323
4	0xbe125c76	-0.14293084
5	0xbe4b7e42	-0.19872382
6	0xbe4691a2	-0.19391492
7	0xbe9462fe	-0.28981775
8	0xbd0e9a74	-0.034815267
9	0xbd695409	-0.056964908
10	0xbe8bb78d	-0.27288476
11	0xbe24402c	-0.16040105
12	0xbec278dc	-0.37982833
13	0xbe15e0cd	-0.14636536
14	0x3d1490f3	0.036271047
15	0xbe2a21b6	-0.16614422
16	0xbe5aacaf	-0.21354936
17	0xbd23d38b	-0.039996665
18	0xbe8330b4	-0.25623095
19	0x3c454435	0.012040188
20	0xbe56f939	-0.20993508
21	0xbe81a09f	-0.25317857
22	0xbe4123d9	-0.18861331
23	0x3d8899cf	0.06669962
24	0x3cd4b815	0.025966683
25	0xbc6f757c	-0.014615413
26	0xbd0b1c4d	-0.033962537
27	0xbdc1d7da	-0.094649985
28	0xbe102cc9	-0.14079584
29	0x3ce35554	0.027750649
30	0x3d83d66a	0.064373806
31	0xbcde3a07	-0.027127279
32	0x3cd0a74a	0.025470395
33	0xbd88ac39	-0.06673474
34	0xbd934a9e	-0.071919665
35	0xbd410401	-0.04712296
36	0xbe0d5bdb	-0.13804571
37	0x3c85fbb0	0.016355366
38	0x3e0934e4	0.13399082
39	0xbce85d5f	-0.028364835
40	0xbdd3fd49	-0.10351045
41	0x3ca74f4b	0.020423552
42	0xbdada168	-0.084780514
43	0x3ca29bbb	0.019849649
44	0xbe040017	-0.1289066
45	0xbd021520	-0.031758428
46	0x3d99aba5	0.07503442
47	0xbd2a403a	-0.041565157
48	0xbd88f6ec	-0.066877216
49	0xbdb26ef1	-0.08712567
50	0x3da9f3b7	0.08298438
51	0xbc27a7c8	-0.010232873
52	0xbe071245	-0.13190563
53	0xbe52af6b	-0.20574729
54	0xbcd45a2c	-0.025921904
55	0xbcc79232	-0.024361704
56	0xbdb31f27	-0.08746176
57	0x3e3840c8	0.17993462
58	0x3d4b02ae	0.049563102
59	0xbe1df4c5	-0.15425403
60	0x3e6a5e0c	0.22887439
61	0x3e6c0593	0.23049001
62	0x3e047229	0.12934174
63	0x3cf1b4e0	0.029505193
64	0xbe576c99	-0.2103752
65	0xbe90c81c	-0.2827767
66	0x3e238afb	0.15970986
67	0x3e91837d	0.2842063
68	0xbe05f342	-0.13081077
69	0xbe2aa07f	-0.16662787
70	0xbe24036e	-0.16016933
71	0xbc83c6bf	-0.01608598
72	0x3ea37323	0.3192378
73	0xbe06dc8d	-0.13170071
74	0xbe1c34d0	-0.15254521
75	0xbdbf9208	-0.09354025
76	0xbe7a56a8	-0.24447119
77	0xbdb8862c	-0.09009966
78	0xbba7c5a3	-0.0051199957
79	0xbd87cce6	-0.06630878
80	0xbd2b6489	-0.041843925
81	0x3de1a9d9	0.11018724
82	0x3e1849a4	0.14871842
83	0xbdc0f093	-0.09420886
84	0x3d09e34c	0.033664033
85	0xbe26f05b	-0.16302626
86	0x3d9624e9	0.07331259
87	0x3da52ab8	0.080647886
88	0xbdbf976a	-0.09355052
89	0xbda8e209	-0.08246238
90	0xbe038cd0	-0.12846684
91	0xbbb029c0	-0.0053760707
92	0x3d98a357	0.074530296
93	0xbcc8d520	-0.024515688
94	0xbdf2bdf8	-0.1185264
95	0x3db901d0	0.09033549
96	0x3df0013e	0.11718987
97	0xbe3a762d	-0.18209143
98	0xbd8f8e29	-0.07009537
99	0xbd751574	-0.059834912
100	0xbdf2f10f	-0.118623845
101	0xbe859516	-0.26090306
102	0xbe352a7f	-0.17691992
103	0x3d0b600e	0.03402715
104	0xbe678e01	-0.22612764
105	0xbe014271	-0.12623002
106	0xbda7cc44	-0.081932575
107	0xbbdd60cc	-0.006755924
108	0x39bf4fa6	0.00036489702
109	0x3bae0946	0.005311164
110	0xbe0c102b	-0.13678043
111	0xbd4b24ee	-0.049595766
112	0x3c9401f9	0.018067347
113	0xbd817809	-0.06321723
114	0xbd792a8f	-0.060831603
115	0xbe1f71de	-0.1557078
116	0xbe67ea36	-0.22647938
117	0xbe33e802	-0.17568973
118	0xbebd8aad	-0.37019864
119	0xbd6e1aee	-0.05813115
120	0xbe840739	-0.2578676
121	0xbe62ae4a	-0.22136799
122	0xbdc56b42	-0.096395984
123	0xbd8beab2	-0.06831874
124	0xbdffd3eb	-0.12491592
125	0xbd432607	-0.047643688
126	0x3daad1ff	0.08340835
127	0xbd73c42b	-0.059513252
128	0x3d10057e	0.035161488
129	0xbe06aad5	-0.13151105
130	0xbc881574	-0.016611792
131	0xbd1e1383	-0.038592827
132	0xbde15a03	-0.110034965
133	0x3cbbc558	0.02292125
134	0xbb4713ac	-0.0030376716
135	0xbca62574	-0.02028153
136	0xbd4dd5eb	-0.050252836
137	0xbe1220a6	-0.14270267
138	0xbd471af5	-0.048609693
139	0xbcd2c46d	-0.025728429
140	0xbe0b912b	-0.13629596
141	0xbccc5fb0	-0.024947971
142	0x3d514712	0.05109317
143	0xbd489332	-0.0489685
144	0xbdda7cfc	-0.1066837
145	0xbb1faa14	-0.002436285
146	0x3d05a685	0.03262951
147	0xbd8c8fd5	-0.06863371
148	0x3dd42357	0.10358303
149	0xbde8a1f2	-0.113590136
150	0xbe42dae5	-0.19028814
151	0x3e2dbdb1	0.16966893
152	0xbd5f45b6	-0.05450984
153	0x3e1ac9f1	0.15116097
154	0xbe17574c	-0.14779395
155	0xbe3eeec6	-0.18645772
156	0x3e3607e8	0.17776453
157	0xbe5116fe	-0.20418927
158	0x3da7b54c	0.081888765
159	0xbe20cae4	-0.15702397
160	0xbe8bde7b	-0.27318177
161	0xbe802fc9	-0.25036457
162	0x3db31809	0.08744819
163	0x3dc62013	0.096740864
164	0xbe576513	-0.2103465
165	0xbe7c493b	-0.2463731
166	0xbe0cc57c	-0.1374721
167	0x3e83c52f	0.25736377
168	0xbe4199a7	-0.1890627
169	0xbe6eda70	-0.23325515
170	0x3ec763c5	0.38943306
171	0x3e97fde3	0.29685888
172	0x3ed4196f	0.41425654
173	0xbd66e489	-0.05637029
174	0xbe297b70	-0.16550994
175	0x3e541289	0.20710196
176	0x3e089fc9	0.13342203
177	0x3e72f31d	0.23725553
178	0xbc8d9f90	-0.017288
179	0xbda87bf8	-0.0822677
180	0x3defa047	0.11700492
181	0xbdf4ee09	-0.11959464
182	0x3e1bbf05	0.15209587
183	0xbe0443f7	-0.12916552
184	0xbde0c840	-0.10975695
185	0xbe288112	-0.16455486
186	0x3dbdb9ca	0.09263952
187	0x3d815238	0.0631451
188	0xbda64869	-0.0811928
189	0xbe1ccba3	-0.15312056
190	0xbe2b26fe	-0.16714093
191	0xbceb8e19	-0.02875428
192	0xbdabc644	-0.083874255
193	0xbe002a0e	-0.12516043
194	0xbd254542	-0.040349253
195	0xbe0a0443	-0.13478188
196	0xbdf1b49c	-0.11802027
197	0x3e3d3851	0.18478514
198	0xbe03257d	-0.1280727
199	0xbe0e90af	-0.1392238
200	0xbe990670	-0.29887724
201	0xbd9942ba	-0.0748343
202	0xbeb0942d	-0.3448805
203	0x3d46b4d0	0.04851228
204	0xbe3a0d69	-0.18169178
205	0xbe6439ea	-0.22287717
206	0xbe1ec176	-0.15503487
207	0xbe42f83f	-0.19040011
208	0x3d1dfbc5	0.038570184
209	0x3b9bfc0f	0.0047602723
210	0xbe783bec	-0.24241608
211	0xbe5fc053	-0.2185071
212	0xbdfadf1a	-0.122495845
213	0x3ced55a6	0.028971504
214	0x3e356af1	0.17716576
215	0xbe7e80e2	-0.24853852
216	0xbe6a669a	-0.22890702
217	0xbe946ad0	-0.2898774
218	0xbe21aa76	-0.15787682
219	0x3e097e10	0.13426995
220	0xbe7984ab	-0.24367015
221	0xbe052076	-0.13000664
222	0xbe74cfc2	-0.23907378
223	0x3d5610f3	0.052262258
224	0xbd8556af	-0.06510674
225	0xbe052252	-0.13001373
226	0xbc41d83d	-0.01183134
227	0xbe0ed4e7	-0.13948403
228	0xbdab41c6	-0.08362155
229	0xbd16b866	-0.03679695
230	0xbb8202eb	-0.003967633
231	0xbcb32818	-0.021869704
232	0x3d80dc3a	0.06292005
233	0xbdba3450	-0.09092009
234	0x3ce9bb4d	0.028531695
235	0xbc9332a4	-0.017968483
236	0x3ccac782	0.024753336
237	0xbc4cbb3b	-0.012495811
238	0xbdcf87e8	-0.10133344
239	0xbb78d454	-0.0037968354
240	0xbb595eee	-0.0033168155
241	0xbdb0e59e	-0.08637546
242	0x3c282071	0.010261641
243	0x3e3c1b84	0.18369871
244	0xbbfac99a	-0.0076534273
245	0xbdb07bf4	-0.08617392
246	0xbe1b5beb	-0.15171783
247	0xbd653640	-0.05595994
248	0x3dbb6b4b	0.09151324
249	0xbc3de30a	-0.011589775
250	0x3d999444	0.074989825
251	0x3cfc6463	0.030809587
252	0x3d502ba6	0.050822876
253	0xbecb3001	-0.39685062
254	0xbd79a574	-0.060948804
255	0x3cc752a1	0.024331393

cnn1.bias f4 [16]
0	0x3d61ca83	0.05512477
1	0xbd4dcd4f	-0.050244626
2	0xbd8e32b2	-0.06943263
3	0xbd97fbd4	-0.07421079
4	0x3d11d549	0.035603795
5	0xbd943524	-0.07236698
6	0xbd940cb2	-0.07228984
7	0xbb046ff3	-0.0020208328
8	0x3c87a3ed	0.016557658
9	0xbdf9b600	-0.12192917
10	0xbcf06d45	-0.029348979
11	0xbd979458	-0.07401341
12	0xbc72699b	-0.014795686
13	0xbdb515a6	-0.0884202
14	0x3ccad49b	0.024759581
15	0xbd9ea05d	-0.077454306

cnn2.weight f4 [32, 16, 3, 3]
0	0x3cddc4cc	0.02707138
1	0x3d6c5f71	0.057708208
2	0x3dd50213	0.10400786
3	0x3e247ad0	0.16062474
4	0xbc9c5a5e	-0.01908606
5	0xbd2ab83e	-0.041679613
6	0x3d9a31fe	0.075290665
7	0x3c8c726a	0.0171444
8	0xbd502ed7	-0.05082592
9	0x3e2f080c	0.17092913
10	0xbdc959c3	-0.09831574
11	0x3d2a4918	0.041573614
12	0x3e0a9b30	0.13535762
13	0xbd940092	-0.07226671
14	0x3df80b8a	0.12111576
15	0x3e1c755d	0.15279146
16	0xbd6ae30c	-0.057345435
17	0xbd8ec9b8	-0.069720685
18	0xbc38bef0	-0.011275992
19	0xbcdf45d7	-0.027254982
20	0xbaa9db6b	-0.0012959068
21	0xbc7043e5	-0.014664625
22	0x3bd005ec	0.006348362
23	0xbd53b0a1	-0.05168212
24	0xbd7043b6	-0.058658324
25	0x3c8048a6	0.015659641
26	0xbd66225d	-0.056185115
27	0x3dd5a68c	0.10432157
28	0xbda3965a	-0.07987662
29	0x3c92424c	0.017853878
30	0x3e2ce401	0.16883852
31	0x3d1861e8	0.037202746
32	0xbcfea495	-0.031084338
33	0x3de5920a	0.11209495
34	0x3d7a3fb4	0.06109591
35	0xbdb40e95	-0.08791844
36	0x3d84b738	0.06480259
37	0xbc9c6280	-0.019089937
38	0xbc9e351d	-0.019312436
39	0x3de20f87	0.11038118
40	0x3c8b49b9	0.017002927
41	0x3d8d652d	0.069040634
42	0x3dba85df	0.09107565
43	0x3cf08650	0.02936092
44	0x3db8cfbf	0.090239994
45	0x3dc29b74	0.095023066
46	0x3d834c76	0.06411068
47	0x3d8a98db	0.06767436
48	0x3e00839b	0.12550204
49	0x3d81b6f2	0.06333722
50	0x3cdb6500	0.026781559
51	0xbc5bbd00	-0.01341176
52	0x3c8c80ba	0.017151225
53	0x3d13596a	0.035973944
54	0xbd5f11be	-0.05446028
55	0x3d0dde2a	0.0346357
56	0x3d9bd46a	0.07608874
57	0x3c38683d	0.011255321
58	0x3d08f2dc	0.033434734
59	0x3d8c8b2e	0.06862484
60	0x3d371f67	0.044707682
61	0x3d1160eb	0.03549282
62	0x3dd3b8da	0.10337992
63	0x3d68bcd8	0.05682072
64	0xbdaa0099	-0.08300895
65	0x3d46f8cd	0.04857712
66	0x3d4dc366	0.050235175
67	0xbd3561a3	-0.044282567
68	0x3dcdde34	0.100521475
69	0xbcca159b	-0.024668505
70	0xbd154a1d	-0.036447633
71	0x3c106587	0.0088132685
72	0x3d6cbe3f	0.05779862
73	0xbc757809	-0.014982232
74	0xbd623472	-0.055225797
75	0x3de6de3f	0.11272859
76	0x3dbf4542	0.09339382
77	0x3dadbfaa	0.08483823
78	0x3d501242	0.050798662
79	0x3d3dd634	0.04634686
80	0x3d59f37b	0.053210717
81	0x3d8d5ef5	0.06902877
82	0x3da0e614	0.07856384
83	0x3df0ad4c	0.11751804
84	0x3d575591	0.052571837
85	0x3d4ce499	0.050022695
86	0x3ce3d5d6	0.027811926
87	0x3d8c5ed6	0.06854026
88	0xbd15fa3c	-0.036615595
89	0x3d3c9db2	0.046048827
90	0x3d3c1abd	0.045923937
91	0xbc87c427	-0.016573025
92	0xbc43af28	-0.011943616
93	0x3c87b00b	0.016563436
94	0x3a1fcf6d	0.00060962775
95	0xbda69452	-0.081337586
96	0x3b2d7772	0.00264689
97	0xbada37dd	-0.0016648729
98	0xbb2614a2	-0.0025341888
99	0x3ca44e6d	0.020056928
100	0xbd22428a	-0.039614238
101	0x3d179681	0.037008766
102	0x3db09baf	0.08623444
103	0x3db818fc	0.089891404
104	0xbd53f46c	-0.05174677
105	0x3dcf16c6	0.101117656
106	0x3d4e2e95	0.050337393
107	0x3db7d66e	0.08976446
108	0xbda73e26	-0.08166151
109	0xbdf1f438	-0.11814159
110	0xbc9b0c76	-0.01892684
111	0xbb1f4a79	-0.0024305864
112	0x3d3f5d73	0.04671998
113	0xbc4d8666	-0.01254425
114	0x3d4fea22	0.050760396
115	0xbd5dc8ba	-0.054146506
116	0xbb2e6dd9	-0.0026615767
117	0xbd16b05e	-0.03678929
118	0xbd6d4787	-0.057929542
119	0x3cbd4e84	0.023108728
120	0x3d3b6e0e	0.045759253
121	0xbd840a26	-0.06447248
122	0xbd8693f9	-0.06571192
123	0xbd18e6f3	-0.037329625
124	0xbda0f78d	-0.078597166
125	0xbd034d4d	-0.03205614
126	0x3ddbfec9	0.10741956
127	0xbccd3280	-0.025048494
128	0x3daf2d35	0.085535444
129	0x3e3bd5a1	0.18343212
130	0x3d835f23	0.0641463
131	0x3d94b046	0.07260184
132	0x3e1e24b9	0.15443696
133	0xba2a8f1a	-0.0006506309
134	0x3dc41594	0.09574428
135	0x3cb86cbf	0.022512792
136	0xbd7181fe	-0.05896186
137	0xba8bab28	-0.0010655867
138	0x3d809d49	0.0628
139	0xbd1d3677	-0.03838202
140	0x3c3b08e2	0.011415692
141	0x3d1f8717	0.03894719
142	0xbd4fcec8	-0.05073431
143	0xbdc7629d	-0.09735606
144	0xbd5a2876	-0.053261243
145	0x3d0b8627	0.034063485
146	0x3ce86904	0.028370388
147	0x3e223702	0.15841296
148	0x3b97b1df	0.004629358
149	0xbcee004f	-0.029052882
150	0x3c6c5ef5	0.014426936
151	0x3d07a136	0.033112727
152	0xbc3f4546	-0.011674231
153	0x3bb15925	0.005412238
154	0x3dec48c1	0.11537314
155	0xbd1566b0	-0.036474884
156	0x3e05f75e	0.13082644
157	0x3c228009	0.009918221
158	0xbb8bd999	-0.004267883
159	0x3d973aa0	0.07384229
160	0x3dfad21e	0.12247108
161	0xbdc07da5	-0.09398965
162	0x3c1c6304	0.009545092
163	0xbd90f236	-0.07077448
164	0xbd37f2a4	-0.044909135
165	0xbdb2fc54	-0.08739534
166	0xbdf49c7a	-0.11943908
167	0xbdbaa6b0	-0.09113824
168	0xbd522569	-0.05130521
169	0xbe07c26c	-0.1325776
170	0xbde54965	-0.111956395
171	0x3df78707	0.12086301
172	0x3def209c	0.116761416
173	0xbcd6e631	-0.02623281
174	0x3e22a071	0.15881516
175	0xba3b8778	-0.00071536703
176	0x3cbb84e2	0.022890512
177	0x3df1f151	0.118136056
178	0x3d9092fc	0.07059285
179	0xbd92ce22	-0.07168223
180	0x3cd37bf1	0.025815936
181	0x3d614999	0.05500183
182	0x3d09c75d	0.033637393
183	0x3d87d40d	0.06632242
184	0x3e34429b	0.17603533
185	0x3bcee4f8	0.0063139163
186	0x3dc036ac	0.09385428
187	0x3d6f4770	0.058417737
188	0x3d09f11a	0.033677198
189	0x3e47e56e	0.19521114
190	0x3aa19523	0.0012327771
191	0x3cff2370	0.031144828
192	0x3e1305d8	0.14357698
193	0x3c20e2bb	0.009819682
194	0x3bd9879e	0.0066384813
195	0xbd6cb93d	-0.057793844
196	0x3d36028d	0.044436026
197	0xbe0db959	-0.13840236
198	0xbaef5875	-0.0018260615
199	0xbc98bee5	-0.018645713
200	0xbc1de857	-0.009637914
201	0x3dfa6b46	0.12227492
202	0x3dcf4ce9	0.10122091
203	0x3cf612f5	0.030038336
204	0x3e31f8ea	0.1738011
205	0xbd5d1355	-0.053973515
206	0x3ddc0544	0.10743192
207	0x3c34d4ab	0.011037032
208	0x3d36c2bf	0.044619318
209	0xbd0d89d3	-0.034555268
210	0xbd31fc4f	-0.04345351
211	0xbd70cc53	-0.05878861
212	0xbc8f7e97	-0.017516417
213	0xbd38b586	-0.04509499
214	0xbdb98bbe	-0.09059857
215	0xbcb0fc75	-0.021604756
216	0x3e1db3f0	0.15400672
217	0x3ccf5f17	0.025313897
218	0xba6908c1	-0.0008889549
219	0x3e29a822	0.16568044
220	0xbc8b9150	-0.017037064
221	0xbc5cc24e	-0.01347406
222	0x3e3caf30	0.18426204
223	0x3d426408	0.04745868
224	0x3d0bbccf	0.03411561
225	0x3e1a1738	0.1504792
226	0x3db3cdcb	0.08779486
227	0x3cac0428	0.020998076
228	0x3b4846da	0.003055981
229	0x3db59b80	0.0886755
230	0x3e212acc	0.15738982
231	0x3db06e4e	0.08614789
232	0xbd0fc679	-0.035101388
233	0x3d1223fe	0.035678856
234	0x3cd73545	0.026270518
235	0x3db4422e	0.08801685
236	0x3a348f94	0.000688785
237	0x3d3b88c6	0.045784734
238	0xbc091025	-0.008365666
239	0xbd907f91	-0.07055581
240	0xbd588f14	-0.052870825
241	0xbd51ef02	-0.051253326
242	0xbdfb0e71	-0.12258614
243	0x3df2f1f4	0.11862555
244	0x3d4a43d0	0.049381077
245	0xbdce1b53	-0.100638054
246	0x3d89e410	0.067329526
247	0x3d5babce	0.053630643
248	0xbbf21c37	-0.0073886174
249	0x3de06372	0.10956468
250	0x3d98c56e	0.07459532
251	0x3ccd6e70	0.025077075
252	0x3c9d7205	0.019219408
253	0xbcc5e763	-0.024158185
254	0xbd9b3270	-0.075779796
255	0x3ded4866	0.115860745

cnn2.bias f4 [32]
0	0xbdcf5eef	-0.10125529
1	0xbcef3bad	-0.02920326
2	0xbd0c50f7	-0.0342569
3	0x3b65fae7	0.0035092176
4	0xb9f13571	-0.0004600692
5	0xba9e23b6	-0.0012065086
6	0xbd9be7c1	-0.07612563
7	0x3d922882	0.071366325
8	0xbd94c5c5	-0.07264284
9	0xbd2e2f8b	-0.04252581
10	0x3cfe9bfb	0.031080237
11	0x3a8b88b4	0.0010645599
12	0xbbc05906	-0.0058699874
13	0x3be5ec13	0.0070166676
14	0xb9e9e565	-0.00044612135
15	0xbddea5ea	-0.10871489
16	0x3de67dd7	0.11254471
17	0x3bd2f121	0.006437436
18	0xbd1930da	-0.037400104
19	0xbdcbdfda	-0.09954806
20	0xbde11ced	-0.10991845
21	0x3c9d444d	0.019197607
22	0xbd57d033	-0.05268879
23	0xbd24f406	-0.04027178
24	0xbb8d3769	-0.004309584
25	0xbdaf3f63	-0.08557012
26	0xbd603a6b	-0.05474321
27	0xbe06cdff	-0.13164519
28	0x3dc69434	0.09696236
29	0xbd741c33	-0.059597205
30	0x3dbf5241	0.093418606
31	0xbc0626ca	-0.008187959

cnn3.weight f4 [32, 32, 3, 3]
0	0x3cd822b3	0.026383733
1	0x3ad27c94	0.0016058856
2	0x3cb0b832	0.021572206
3	0x3c44a4c9	0.0120021785
4	0xbd96fb9f	-0.07372212
5	0xbd41cbb9	-0.047313426
6	0xbc464cc7	-0.012103266
7	0xbcc21594	-0.02369193
8	0x39b5e497	0.00034693323
9	0x3e2c6658	0.16835916
10	0x3d300048	0.04296902
11	0xbd97245b	-0.07379981
12	0x3dc47750	0.095930696
13	0xbd33abf4	-0.04386516
14	0xbe19f03d	-0.1503305
15	0xbd915912	-0.07097067
16	0xbd488886	-0.048958324
17	0xbdbcb0d0	-0.09213412
18	0x3ab75c8a	0.0013989371
19	0xbd25a283	-0.040438186
20	0xbd8741f5	-0.06604377
21	0x3da52ee0	0.08065581
22	0xbd57f3fb	-0.052722912
23	0xbd9f5c7b	-0.07781311
24	0x3d3d9e37	0.046293464
25	0x3d64d8f9	0.055870984
26	0xbc8840cf	-0.016632466
27	0x3d17c942	0.03705717
28	0xbbb71023	-0.0055866404
29	0x3c07d0dc	0.008289542
30	0x3d507426	0.050892018
31	0xbd58ed87	-0.0529609
32	0xbd5a70d2	-0.05333025
33	0x3c5f2106	0.013618713
34	0xbcd20ebb	-0.02564179
35	0x3cd41905	0.025890836
36	0x3dd53ce0	0.104120016
37	0x3cd153b6	0.025552612
38	0xbc34936b	-0.011021475
39	0xbccc56fd	-0.024943823
40	0xbdcdae2f	-0.100429885
41	0x3b50d281	0.0031863751
42	0x3a87b6c3	0.001035415
43	0x3d7ea837	0.06217214
44	0xbc1e5e7b	-0.009666081
45	0x3df4c566	0.11951713
46	0xbda06609	-0.07831962
47	0xbc8b72c6	-0.017022502
48	0x3d166a3c	0.036722407
49	0xbdc61ad4	-0.09673086
50	0xbdc61122	-0.096712366
51	0xbc743808	-0.014905937
52	0x3bb42f20	0.005498782
53	0xbb859779	-0.004076895
54	0xbc011a57	-0.007879815
55	0x3cdcb95a	0.026943851
56	0xbd80c12e	-0.06286846
57	0xbd206512	-0.03915889
58	0xbb30ad90	-0.002695892
59	0xbcef09d1	-0.029179486
60	0x3d465a4c	0.048425958
61	0xbd610339	-0.054934714
62	0xbd233c71	-0.039852563
63	0xbd40e42f	-0.047092613
64	0x3deaedf1	0.11471165
65	0x3d91337a	0.070898965
66	0x3d21e581	0.039525513
67	0xbbbd0e84	-0.0057695527
68	0x3ddcc6d0	0.10780108
69	0x3d3ab6a9	0.045584355
70	0x3d8374f9	0.06418795
71	0x3db7e225	0.089786805
72	0xbc2a8c9c	-0.0104095
73	0x3cb8f165	0.022576043
74	0xbd60d3d0	-0.0548895
75	0xbd893cd4	-0.06701055
76	0xbcf74d15	-0.030188123
77	0xbd628703	-0.05530454
78	0x3c1caa6a	0.009562114
79	0xbcaeb5bb	-0.02132689
80	0xbd7052e0	-0.058672786
81	0x3db92325	0.090399064
82	0xbdae0151	-0.08496345
83	0x3c466e98	0.012111329
84	0x3cb111ff	0.021615027
85	0xbdf8c4a6	-0.12146883
86	0x3c445db4	0.011985231
87	0xbcf6e385	-0.030137787
88	0xbcfd975c	-0.030955963
89	0xbd6086ec	-0.05481617
90	0x3daf741b	0.08567067
91	0x3dc128f0	0.09431636
92	0xbdc3388b	-0.09532269
93	0x3cb86a9e	0.022511777
94	0x3c9e7fc9	0.019348042
95	0xbdb559cd	-0.08855019
96	0xbd020b77	-0.031749215
97	0x3d116dad	0.035504986
98	0xbcd712eb	-0.026254138
99	0x3d6b7516	0.05748471
100	0xbd9c1848	-0.07621819
101	0xbd940deb	-0.07229217
102	0xbd2e7329	-0.042590294
103	0xbdf41141	-0.119173534
104	0xbe0c141d	-0.13679548
105	0x3d58705f	0.05284154
106	0x3d166569	0.036717806
107	0xbcce5388	-0.025186315
108	0x3dd55882	0.10417272
109	0x3e1699c6	0.14707097
110	0x3e1f7631	0.1557243
111	0xbcf109f4	-0.029423691
112	0x3e1dd6e4	0.15414006
113	0x3cdeb11c	0.027184062
114	0x3c3816b8	0.011235885
115	0x3cbf07b1	0.023319097
116	0xbcafd575	-0.021464089
117	0x3c88a0f8	0.016678318
118	0x3c6d6d0a	0.014491329
119	0xbcb6483b	-0.022251239
120	0xbbc6cbe5	-0.0060667866
121	0x3d1e236b	0.038607996
122	0xbd3e2150	-0.046418488
123	0x3cf7b6ce	0.030238535
124	0x3d006e7d	0.03135537
125	0x3d4bbaf1	0.049738828
126	0x3dd860ba	0.10565324
127	0xbc19a798	-0.009378336
128	0xbd55b34a	-0.052172936
129	0x3d60c437	0.054874625
130	0xbd642910	-0.055703223
131	0xbd68dfa1	-0.056853894
132	0xbc9a0a89	-0.018803852
133	0x3c9b4ad1	0.018956574
134	0xbdcef8ce	-0.101060495
135	0x3b5a3ca0	0.0033300295
136	0xbd204c80	-0.039135456
137	0x3d4f24fd	0.050572384
138	0xbcbaac88	-0.022787347
139	0xbcd4e598	-0.025988385
140	0xbd506061	-0.050873164
141	0x3cc84a2a	0.024449427
142	0x3b811738	0.0039395355
143	0xbc3e1c18	-0.011603378
144	0x3d890158	0.066897094
145	0x3e689c47	0.22715865
146	0x3e4f3988	0.2023679
147	0x3ccf823e	0.025330659
148	0x3db25dcb	0.08709296
149	0x3dfa4a1b	0.12221166
150	0x3cc8e874	0.024524905
151	0x3db382e2	0.08765198
152	0x3dec8eca	0.11550672
153	0x3d9ce020	0.07659936
154	0x3db8ac31	0.09017218
155	0xbd93dc79	-0.07219786
156	0x3ced321c	0.028954558
157	0x3d3d60bb	0.046234827
158	0xbd95d32c	-0.073156685
159	0x3be83a9b	0.0070870644
160	0x3c95fbdb	0.01830857
161	0xbd26ee4e	-0.04075461
162	0xbcc75b0b	-0.024335405
163	0xbd8f0458	-0.069832504
164	0xbd8f57b1	-0.06999148
165	0x3cb06897	0.021534247
166	0xbd485d78	-0.048917264
167	0xbe081daf	-0.13292573
168	0x3c079f46	0.00827772
169	0xbdd3c349	-0.10339982
170	0xbd3d2adc	-0.046183452
171	0xbd51eb54	-0.051249817
172	0x3b61047f	0.0034334955
173	0x3d3877cd	0.045036126
174	0x3cc36568	0.023852065
175	0xbda8f398	-0.08249587
176	0xbbb39660	-0.0054805726
177	0x3b8e7c20	0.004348293
178	0xbd800823	-0.06251552
179	0x3c708f63	0.014682624
180	0xbd4bb5c3	-0.04973389
181	0xbce2a2b5	-0.027665475
182	0x3d2fc22a	0.04290978
183	0xbd0d6f61	-0.034530047
184	0xbdc114c3	-0.09427788
185	0xbd097e8e	-0.033567958
186	0x3b0c3e2d	0.0021399364
187	0xbd555686	-0.05208447
188	0xbcca834a	-0.024720807
189	0x3da5d2db	0.08096858
190	0x3dd839c1	0.10557891
191	0xbd080136	-0.03320428
192	0x3bc0bc2b	0.0058818064
193	0x3c632894	0.013864655
194	0xbd356e50	-0.044294655
195	0xbd3d9d6d	-0.04629271
196	0x3c8455ad	0.016154135
197	0xbdf8028a	-0.12109859
198	0xbcecae72	-0.028891776
199	0xbdd024b9	-0.10163254
200	0xbd194f26	-0.037428997
201	0xbd8394d6	-0.064248726
202	0xbdf0e42e	-0.11762272
203	0xbb26f502	-0.0025475626
204	0xbd53d55d	-0.05171715
205	0xbd366c10	-0.04453665
206	0x3cb08526	0.021547865
207	0x3d2f8395	0.042850096
208	0x3c88b4ef	0.016687838
209	0x3d9d6fbe	0.07687329
210	0x3cb2fd1d	0.02184921
211	0xbd262021	-0.040557984
212	0xbc671357	-0.014103732
213	0xbc99d128	-0.018776491
214	0x3dbbd09b	0.09170648
215	0x3c8cd776	0.017192584
216	0x3d849f7c	0.06475732
217	0xbc63939c	-0.013890173
218	0xbd4bf778	-0.04979655
219	0xbc82aa4b	-0.015950343
220	0xbd885633	-0.06657066
221	0xbda2ab7f	-0.079428665
222	0xbbe493f7	-0.0069756466
223	0x3d31c919	0.043404672
224	0xbc3ebfad	-0.011642379
225	0x3d164b3f	0.036692854
226	0xbcfe141f	-0.031015454
227	0x3b3fcfa0	0.0029268041
228	0xbcbe7a3e	-0.023251649
229	0xbd70060f	-0.058599528
230	0x3c8ad9fe	0.01694965
231	0xbc92d44a	-0.017923493
232	0x3d4d3f65	0.050109286
233	0x3d6afc15	0.05736931
234	0x3dc48bdd	0.09596989
235	0x3afd295b	0.0019314693
236	0x3bb4aab5	0.005513514
237	0x3ce8b8b5	0.028408388
238	0xbd4c815b	-0.04992805
239	0xbbfd8169	-0.007736374
240	0xbcb3df56	-0.02195708
241	0x3c9bccc2	0.019018535
242	0xbd26f554	-0.040761307
243	0x3c132250	0.008980349
244	0x3d40f420	0.047107816
245	0xbc8c0bd7	-0.01709549
246	0xbbea4962	-0.007149861
247	0xbd33f01a	-0.04393015
248	0xbd047e17	-0.03234681
249	0xbb9edbe3	-0.00484799
250	0xbc960de6	-0.018317174
251	0xbca5dee2	-0.02024788
252	0x3cb011a9	0.021492796
253	0x3add9ba1	0.0016907343
254	0x3dcb1803	0.09916689
255	0xbcdbe56a	-0.026842792

cnn3.bias f4 [32]
0	0x3ca01bde	0.019544538
1	0x3d33d0e5	0.04390039
2	0xbdc247e6	-0.0948637
3	0xbc935526	-0.017984938
4	0x3d050ae8	0.032481104
5	0xbd06a735	-0.032874305
6	0xbd098468	-0.033573538
7	0x3df131d0	0.11777079
8	0xbc21faf0	-0.009886488
9	0xbd794984	-0.060861126
10	0x3c23072e	0.009950442
11	0xbcd29928	-0.025707796
12	0xbc5ca97b	-0.013468142
13	0x3d4bdc88	0.049770862
14	0xbc97d09c	-0.01853209
15	0x3e019825	0.12655695
16	0xbd90f418	-0.07077807
17	0x3b9ce948	0.0047885515
18	0xbd2da559	-0.042394016
19	0xbd823cf2	-0.06359281
20	0xbd914d8d	-0.0709487
21	0xbcf3d65d	-0.029765302
22	0xbd8f6457	-0.0700156
23	0xbd773961	-0.060357455
24	0xbc4bb405	-0.012433057
25	0xbd0f5d0b	-0.035000842
26	0xbd882b61	-0.06648899
27	0x3ce4d731	0.027934643
28	0xbc088537	-0.008332542
29	0x3dc87ddd	0.097896315
30	0x3cb1ef25	0.021720478
31	0x3e1a1e7b	0.1505069

fc1.weight f4 [128, 768]
0	0xbcdb4905	-0.026768217
1	0x3ccb35a7	0.024805857
2	0x3ca16e82	0.019706015
3	0x3c7291f6	0.014805308
4	0x3cfb9bef	0.030714003
5	0xbd035408	-0.03206256
6	0xbd421869	-0.04738656
7	0x3c80dc25	0.015729973
8	0xbc9113de	-0.017709669
9	0xbc336b68	-0.010950901
10	0xbcc3377c	-0.023830168
11	0x3a0cb680	0.0005367771
12	0xbad88cf8	-0.0016521504
13	0x3b330199	0.0027314185
14	0xbc1e911a	-0.00967815
15	0x3c9d43dc	0.019197397
16	0x3bfb3cfd	0.0076671825
17	0xbc41de34	-0.0118327625
18	0xbc2ee382	-0.010674359
19	0x3c355424	0.011067424
20	0xbcbeebfe	-0.02330589
21	0x3c89c7ba	0.01681887
22	0xbce79810	-0.028270751
23	0xbc4f1f6e	-0.012641771
24	0xbd1658af	-0.03670567
25	0xbbe4ff9b	-0.0069884784
26	0xbd15847f	-0.03650331
27	0xbc0f9571	-0.008763657
28	0x3b3ae2ab	0.0028516452
29	0xbcfc96d9	-0.030833649
30	0xbc9b90c0	-0.01898992
31	0x3cf10eb3	0.029425954
32	0xbd203e6e	-0.039122038
33	0x3c817620	0.015803397
34	0x3d276c23	0.04087461
35	0xbc456174	-0.01204716
36	0x3cd5999a	0.02607422
37	0x3d0f68ef	0.03501218
38	0xbc02f4b8	-0.007992916
39	0xbaaf366c	-0.0013367659
40	0x3c210f00	0.009830236
41	0xbc0f35b0	-0.008740827
42	0x3cbe11fe	0.023201939
43	0xbd5793ac	-0.052631065
44	0xbd27e08a	-0.04098562
45	0x3c9245e1	0.017855586
46	0xbcfdfdce	-0.031004813
47	0xbd2dceeb	-0.04243366
48	0xbd262f07	-0.040572193
49	0x3c3401fc	0.010986801
50	0xbd028e40	-0.03187394
51	0xbd06febb	-0.032957774
52	0xbd1ca7b1	-0.03824586
53	0xbbb30d76	-0.005464251
54	0x3c052434	0.008126307
55	0xbc794d2c	-0.015216153
56	0xbc0a9392	-0.008458035
57	0xbcaf2f90	-0.021384984
58	0x3c1a5791	0.0094202915
59	0x3ce8fc4f	0.028440623
60	0xbd0cb2dd	-0.034350265
61	0xbc950a44	-0.018193372
62	0xbcf7cf62	-0.030250255
63	0xbd3e80f1	-0.046509687
64	0x3cbfe727	0.023425652
65	0x3c4b95df	0.012425869
66	0xbc6e6146	-0.014549559
67	0xbc23b8b9	-0.009992772
68	0xbd1b5cc8	-0.03793028
69	0x3c9da1c3	0.019242173
70	0x3cad677c	0.02116751
71	0xbd0f0c42	-0.0349238
72	0xbbfb4928	-0.007668633
73	0x3c529e30	0.012855098
74	0xbcc3c871	-0.023899289
75	0xbc910c46	-0.017706048
76	0x3ce8d836	0.02842341
77	0x3c8c2119	0.017105626
78	0x3cbef76d	0.023311341
79	0x3b9cdbd5	0.004786948
80	0xba9169a1	-0.0011094102
81	0x3be0e81b	0.0068636066
82	0x3c80da9b	0.01572924
83	0xbcb5af96	-0.022178452
84	0xbd02ed87	-0.031964805
85	0x3cd1ae7c	0.025595896
86	0x3a92db12	0.0011204204
87	0xbc23e1a6	-0.010002529
88	0x3bdad931	0.0066787233
89	0xbcc191b3	-0.023629045
90	0xbb32a2e5	-0.0027257737
91	0xbce0708f	-0.027397422
92	0xbb03c261	-0.0020104873
93	0xbd21513d	-0.039384115
94	0x3b21857a	0.0024646209
95	0x3d028053	0.03186066
96	0x3cc3850a	0.023867149
97	0xbd017de2	-0.03161419
98	0x3b3e7e5b	0.0029067013
99	0x3b93ae32	0.0045068497
100	0xba498cf4	-0.0007688545
101	0x3b9b284a	0.0047350274
102	0xbcbd569f	-0.023112593
103	0xbc07594f	-0.008261039
104	0xbd1c9e22	-0.038236745
105	0xbc47bf8a	-0.012191663
106	0xbc890713	-0.016727006
107	0xbbda9901	-0.0066710715
108	0x3c65b5cd	0.014020395
109	0xbbf00107	-0.007324341
110	0xbc871bdb	-0.016492775
111	0xbd1493e8	-0.036273867
112	0x3c09f85a	0.008421028
113	0x3c2221e2	0.009895774
114	0x3c3b7874	0.0114422925
115	0xbce5b2e1	-0.028039398
116	0x3c6a1e1f	0.014289408
117	0x3a03511e	0.0005009341
118	0xbc901d87	-0.017592205
119	0x3ae8f82f	0.001777416
120	0x3ce80383	0.028321987
121	0xbd21f65d	-0.03954159
122	0x3bbe9334	0.005815888
123	0x3c3a8acd	0.011385632
124	0xbcff7154	-0.031181969
125	0xbc2032cc	-0.009777736
126	0x3ae2ed00	0.0017313063
127	0xbd06cc7c	-0.032909855
128	0x3d1904ab	0.037357967
129	0x3ca03466	0.019556236
130	0x3c4cb1a5	0.012493526
131	0x3b8cc04b	0.004295384
132	0x3cce35d0	0.025172144
133	0x3b4ca03d	0.003122344
134	0xbc86a11a	-0.016434241
135	0xbcc53cda	-0.024076868
136	0xbd0601d2	-0.03271658
137	0x3c3dc428	0.011582412
138	0x3c80ce26	0.0157233
139	0x3cd989e0	0.026555002
140	0x3b8f45cf	0.0043723355
141	0x3c9b91bc	0.01899039
142	0x3b428f98	0.002968764
143	0xbd04240d	-0.032260943
144	0xbcc59352	-0.0241181
145	0x3c4bdd70	0.0124429315
146	0x3d0b5bb0	0.034022987
147	0x3ce048c0	0.02737844
148	0x3b311130	0.0027018301
149	0xbc403aa2	-0.011732729
150	0x3cdd05cc	0.026980303
151	0x3d10e746	0.03537681
152	0x3d0de2b6	0.034640037
153	0x3c200fc0	0.00976938
154	0x3cb1a332	0.021684263
155	0xbbc6da74	-0.006068522
156	0xbca6c466	-0.020357322
157	0xbbf0fc0c	-0.007354265
158	0x3d0b25f4	0.03397174
159	0x3d0de7f4	0.034645036
160	0x3c813944	0.015774377
161	0x3c927540	0.017878175
162	0x3c1c6464	0.009545419
163	0xbca47077	-0.020073159
164	0xbbfd5a7c	-0.007731734
165	0x3d0695a5	0.032857556
166	0xbcf91b4e	-0.030408528
167	0xbc4448fa	-0.01198029
168	0xbc63460b	-0.01387168
169	0x3c3b356b	0.01142631
170	0xbae7abbb	-0.0017675081
171	0xbbee84f2	-0.007279032
172	0x3b63dbea	0.003476853
173	0xbc44d9d9	-0.01201483
174	0xbd71425b	-0.058901172
175	0xbc8dd18c	-0.017311834
176	0x3cd26375	0.02568219
177	0xbc9ef1d2	-0.019402418
178	0xbcae79ec	-0.021298371
179	0xbd24bf03	-0.040221225
180	0xbbf4bd6e	-0.007468871
181	0xbd107aee	-0.035273485
182	0x3ca60adf	0.020268856
183	0x3a2d58fa	0.0006612685
184	0xbd37aca4	-0.044842377
185	0xbd2f10f9	-0.042740796
186	0xbc17b9d7	-0.009260616
187	0xbd2871d2	-0.041124173
188	0xbb7f4663	-0.0038951866
189	0xbcad7d5b	-0.021177938
190	0x3c165038	0.009174399
191	0xbd2ed224	-0.042680874
192	0x3b0a3cdf	0.002109341
193	0xba8e62ff	-0.0010863243
194	0xbba7488f	-0.005105085
195	0xbd0791ec	-0.033098146
196	0xbd004f2c	-0.031325504
197	0x3cecbcb0	0.028898567
198	0xbac73e1c	-0.0015201005
199	0xbc32a751	-0.010904149
200	0xbcf56ffc	-0.029960625
201	0xbc4a9551	-0.012364701
202	0x3c31b43b	0.010846193
203	0xbcf84404	-0.03030587
204	0xbcabedbe	-0.020987388
205	0xbcad81a9	-0.02117999
206	0xbc004616	-0.00782921
207	0xbc59b7dd	-0.013288465
208	0x3c9e69e2	0.019337598
209	0xbcb5fd97	-0.022215648
210	0x3c306022	0.010765107
211	0xbc11f677	-0.008908859
212	0x3ca60dab	0.02027019
213	0xbd0dd845	-0.03463008
214	0x3d038264	0.032106772
215	0x3cda44c0	0.02664411
216	0xbd0d1147	-0.034440305
217	0xbd17fabd	-0.037104357
218	0xbd18d97a	-0.037316777
219	0x3cc54fd0	0.02408591
220	0xbc1031ea	-0.008800963
221	0x3c5e6f19	0.013576292
222	0x3d04d7cf	0.032432374
223	0xbd135305	-0.035967845
224	0xbc8da083	-0.017288452
225	0xbc59b4e7	-0.013287759
226	0x3c92e109	0.01792957
227	0x3c8a0b19	0.016850995
228	0xbcd1745e	-0.025568184
229	0xbcc21492	-0.02369145
230	0x3ccab827	0.024746014
231	0x3d0664d8	0.032811016
232	0x3be9e2eb	0.0071376464
233	0xbc960df1	-0.018317195
234	0x3c4034d9	0.01173135
235	0xbadb4aeb	-0.0016730701
236	0xbca68d45	-0.020331034
237	0x3cbf2ee4	0.023337789
238	0xbd1c4c82	-0.0381589
239	0xbcdb7b61	-0.02679223
240	0x3cb22419	0.021745728
241	0x3a98c45e	0.0011655202
242	0x3d001183	0.0312667
243	0xbd15c4f4	-0.036564782
244	0x3c2b8350	0.010468319
245	0x3d08d2b4	0.033404067
246	0x3a2b7f6b	0.0006542119
247	0x3c373f1a	0.011184478
248	0xbcf840b6	-0.030304294
249	0xbd0ed70f	-0.034873065
250	0x3c0814ec	0.008305769
251	0x3ca51ac5	0.020154366
252	0xbc9f0b8f	-0.019414691
253	0xbbe30900	-0.006928563
254	0x3ce9101c	0.028450064
255	0xbd00c9d1	-0.031442467

fc1.bias f4 [128]
0	0x3cc7ae0b	0.024374982
1	0xbc1190a0	-0.008884579
2	0x3c5ada41	0.0133577
3	0xbd251562	-0.040303595
4	0xbcd307e1	-0.025760593
5	0x3cd4b654	0.025965847
6	0xbd0d249f	-0.034458753
7	0xbd277081	-0.040878776
8	0x3b99e3fb	0.004696367
9	0x3c7d6fb6	0.0154685285
10	0xbcab9724	-0.020946093
11	0xbce60c84	-0.02808214
12	0xbd131e4a	-0.035917558
13	0xbd0d0342	-0.034426935
14	0xbd1b3838	-0.03789541
15	0xbc81f752	-0.015865002
16	0xbd171369	-0.036883745
17	0xbca316b2	-0.019908283
18	0x3d7a6067	0.061127093
19	0xbaff5b94	-0.0019482248
20	0xbba79402	-0.0051140795
21	0x3dc62ef2	0.09676923
22	0xbd2fe157	-0.04293951
23	0x3da750f2	0.08169736
24	0xbd453adb	-0.048151832
25	0x39199a3e	0.00014648677
26	0xbbbac926	-0.0057002483
27	0xbcf05da1	-0.02934152
28	0xbcdf2369	-0.027238565
29	0x3c8d2c0e	0.017232921
30	0xbd1242e2	-0.035708316
31	0x3caa7de5	0.020811984
32	0xbd0e1e3c	-0.034696802
33	0x3c677252	0.014126377
34	0xba071145	-0.00051524147
35	0xbd3eeffb	-0.046615582
36	0xbcccdae9	-0.025006728
37	0xbd206cbe	-0.039166205
38	0xbcb76b95	-0.022390166
39	0x3b51edc7	0.0032032595
40	0x3ca8dad5	0.02061216
41	0x3dc59df8	0.09649271
42	0xbd04b1bb	-0.03239606
43	0xbcc64c70	-0.02420637
44	0xbc9d6654	-0.019213833
45	0xbd131811	-0.035911623
46	0x3bd1d6fc	0.006403802
47	0x3bcd840e	0.0062718457
48	0xbd11f866	-0.03563728
49	0x3cf0ad48	0.029379502
50	0x3d0acca8	0.03388658
51	0x3cd53df6	0.026030522
52	0x3bbc1d24	0.0057407785
53	0x3dc18835	0.094498076
54	0xbbee91df	-0.007280573
55	0xbd1413d4	-0.036151722
56	0xbd1097a5	-0.03530087
57	0x3bfd2cba	0.007726279
58	0xbc8df625	-0.017329285
59	0xbcb67e40	-0.022276998
60	0xbd29930c	-0.0414
61	0x3dbbcc49	0.09169824
62	0xbd0b2838	-0.033973902
63	0xbcccb258	-0.024987385
64	0xbc8038a5	-0.01565201
65	0x3ccf561a	0.025309611
66	0x3ded583e	0.115890965
67	0xbbd38a3f	-0.006455689
68	0x3c42722e	0.011868043
69	0x3c8c32ee	0.017114129
70	0xbbcf1a8f	-0.0063203047
71	0x3ba3b54c	0.0049959775
72	0xbc1beced	-0.009516937
73	0x3c37fef0	0.011230215
74	0xb9523993	-0.00020048609
75	0x3c3f61e1	0.011681051
76	0xb71cd6bf	-9.348324e-06
77	0xbd108ff2	-0.035293527
78	0x3c24c5eb	0.010056953
79	0xbb9630c7	-0.0045834514
80	0xbc8cf194	-0.017205037
81	0xbbdf9ee9	-0.0068243635
82	0x3be9b3ed	0.0071320445
83	0x3caae6c8	0.020861998
84	0x3c05824b	0.00814874
85	0x3cdfdbe4	0.027326532
86	0xbcecac97	-0.028890891
87	0xbcd58422	-0.026063982
88	0xbd1fa4f3	-0.038975667
89	0x3daa587c	0.08317658
90	0xbd88a3c6	-0.06671862
91	0x3de9ac18	0.114097774
92	0x3c294104	0.010330442
93	0xbcb053f3	-0.021524405
94	0xbad9abbd	-0.0016606968
95	0xbd247517	-0.040150728
96	0x3ae0e08b	0.0017156763
97	0xbb9051e6	-0.0044042943
98	0xbbe2c3ca	-0.0069203125
99	0x3c35a84d	0.011087489
100	0xbd13e8ce	-0.03611069
101	0xbc2e1301	-0.010624648
102	0xba011370	-0.0004923856
103	0x3c91188b	0.017711898
104	0x3a90a9e1	0.0011036956
105	0xbc77a3da	-0.015114749
106	0xbd1be2c8	-0.038058072
107	0xbc84139c	-0.016122632
108	0x3df138bb	0.117783986
109	0x3c567b46	0.013090914
110	0xbbff73e1	-0.0077957963
111	0xbc532ecf	-0.012889578
112	0x3de54a87	0.111958556
113	0x3cae0f36	0.021247488
114	0xbd7a3c8f	-0.06109291
115	0xbd0551ba	-0.032548644
116	0x3c2b49f4	0.0104546435
117	0x3c8e65bf	0.0173825
118	0xbcaffb2c	-0.021482073
119	0x3d6a54de	0.057209842
120	0xbd78b146	-0.060715936
121	0xbc42dcf4	-0.0118935
122	0xbc4ef96a	-0.012632707
123	0xbd4c0d97	-0.049817648
124	0x3dff0ee3	0.12454011
125	0xbd38094c	-0.04493074
126	0x3d079214	0.033098295
127	0xbd6f806b	-0.05847208

fc2.weight f4 [128, 128]
0	0xbdb22dbd	-0.0870013
1	0xbd717dce	-0.058957867
2	0xbc1c7d7e	-0.009551404
3	0xbc3831d8	-0.011242352
4	0x3cf56e36	0.02995978
5	0x3d747ab9	0.05968735
6	0xbd465451	-0.048420254
7	0x3d554269	0.052065287
8	0xbb066cce	-0.002051163
9	0x3d08b23d	0.033373106
10	0x3ce2653d	0.027636165
11	0xbd048aa1	-0.03235877
12	0xbd9f2a48	-0.077717364
13	0x3d0f4a94	0.034983233
14	0x3da7e7dd	0.08198521
15	0xbd311aba	-0.04323838
16	0xbd3c8e73	-0.046034288
17	0x3cef315e	0.029198345
18	0x3bb46015	0.005504618
19	0x3d2be00e	0.041961722
20	0x3dafa94f	0.08577215
21	0x3d77ceae	0.06049984
22	0x3c89aad2	0.016805086
23	0xbd3857f7	-0.045005765
24	0x3d58cb7e	0.05292844
25	0xbb18ef80	-0.0023336112
26	0x3d8604f3	0.06543913
27	0xbbcd4e96	-0.0062654717
28	0xbc686a18	-0.014185451
29	0xbb06a055	-0.0020542343
30	0x3db7f099	0.08981437
31	0x3d62903e	0.05531334
32	0xbda3eea2	-0.080045
33	0xbd066a1e	-0.032816045
34	0x3da1dfc7	0.0790401
35	0xbdc26d71	-0.094935305
36	0xbdb0e63c	-0.08637664
37	0x3db37876	0.087632105
38	0x3dabc303	0.08386805
39	0xbd83140d	-0.06400309
40	0xbd835cc0	-0.06414175
41	0xbd9bad10	-0.076013684
42	0x3ccf3064	0.02529163
43	0xbbe8c45c	-0.007103486
44	0xbd1e7d27	-0.038693573
45	0x3d9bcae9	0.076070614
46	0x3d64dba6	0.055873536
47	0x3ca77641	0.02044213
48	0xbd53e08a	-0.05172781
49	0xbda2b72c	-0.079450935
50	0xbc07636c	-0.00826345
51	0x3d2739d0	0.04082662
52	0x3d56b372	0.052417226
53	0x3dea3e97	0.11437719
54	0xbc384928	-0.011247911
55	0x3db52454	0.0884482
56	0x3cfa3a20	0.030545294
57	0xbcd08124	-0.025452204
58	0xbc34a490	-0.011025563
59	0xbd9bb23f	-0.07602357
60	0xbca2527c	-0.019814722
61	0x3dcf234f	0.101141565
62	0xbdb0b1b9	-0.08627648
63	0x3dce890d	0.10084734
64	0xbd0d72c2	-0.03453327
65	0x3d13cc00	0.03608322
66	0x3df958bb	0.12175127
67	0xbd5c1e96	-0.053740107
68	0x3d6ee181	0.058320526
69	0xbd7d6b0c	-0.061869666
70	0x3d283318	0.04106435
71	0x3db1b507	0.08677106
72	0xbd30acc2	-0.043133505
73	0x3c6b2f20	0.014354497
74	0x3ad10b00	0.0015948713
75	0x3d17663a	0.036962725
76	0x3cc30f58	0.023811027
77	0x3d1bb59b	0.03801499
78	0xbbebce40	-0.007196218
79	0xbcba5384	-0.022744901
80	0xbc22fa3b	-0.009947355
81	0xbd9ce8e3	-0.07661607
82	0xbd534d23	-0.051587235
83	0x3bb9f454	0.005674878
84	0xbda37408	-0.079811156
85	0xbd720197	-0.059083547
86	0xbd833e61	-0.06408382
87	0x3d19f54a	0.03758744
88	0xbd4d7e96	-0.05016955
89	0xbe1c5703	-0.15267567
90	0xbd6545ff	-0.055974957
91	0xbc7f9463	-0.015599343
92	0x3d351482	0.04420901
93	0x3d707f2a	0.058715023
94	0x3d0002b9	0.031252597
95	0xbd916870	-0.07099998
96	0x3c42e825	0.011896168
97	0xbd3d0eb8	-0.046156615
98	0x3d4d833e	0.05017399
99	0x3d1ed1fe	0.038774483
100	0x3d0eac9c	0.034832582
101	0xbd172dcc	-0.03690891
102	0x3d870c9d	0.06594203
103	0x3d9f7c15	0.07787339
104	0x3ccbeb14	0.024892367
105	0x3d4564f6	0.048191987
106	0x3c1246e8	0.008928038
107	0xbd222279	-0.039583657
108	0x3d34daa7	0.044153836
109	0xbd95e432	-0.073189154
110	0xbcbb90d0	-0.0228962
111	0x3cdbaa90	0.026814729
112	0x3da86357	0.082220726
113	0xbcb90b00	-0.022588253
114	0xbd75e143	-0.06002928
115	0xbd3f40ab	-0.04669253
116	0xbd8896fd	-0.06669424
117	0xbd983dd6	-0.07433669
118	0xbdaee5de	-0.085399374
119	0xbda8b0a2	-0.08236815
120	0x3caad27b	0.020852318
121	0xbc4236d8	-0.011853896
122	0xbd4f4de7	-0.050611403
123	0xbb179a21	-0.002313264
124	0x3d9af53f	0.07566308
125	0xbd262c36	-0.040569507
126	0xbd8c512f	-0.06851422
127	0xbd512c67	-0.051067736
128	0xbd800d9e	-0.06252597
129	0xbcfef13e	-0.031120893
130	0xbdaa5f12	-0.083189145
131	0x3beb4690	0.0071800426
132	0xbaa4a49b	-0.0012561263
133	0x3c807ce1	0.015684547
134	0xbdca189c	-0.09867975
135	0xbc3ca870	-0.011514768
136	0x3d8e8537	0.069590025
137	0x3d130a5b	0.035898548
138	0x3aaed528	0.0013338672
139	0x3d177cfe	0.036984436
140	0xbd16f4b2	-0.036854453
141	0x3b912d90	0.0044304803
142	0x3d4a2c26	0.04935851
143	0xbd317cf6	-0.043332063
144	0x3d1e38a4	0.038628235
145	0x3d19c51c	0.037541494
146	0xbb3e0f09	-0.002900066
147	0xbcbfb830	-0.023403257
148	0xbc07cf73	-0.008289206
149	0xbce5fc98	-0.028074548
150	0x3d9aad9b	0.07552644
151	0xbd659ce0	-0.05605781
152	0x3da8c751	0.082411416
153	0x3d5f50be	0.05452036
154	0xbd96e008	-0.07366949
155	0xbc2f7705	-0.010709529
156	0xbd9cce07	-0.07656484
157	0x3d3fe84a	0.046852387
158	0x3da9f031	0.08297766
159	0xbcf160bc	-0.029465072
160	0xbd0e236b	-0.034701746
161	0x3cb1d359	0.021707224
162	0xbd0b0e92	-0.033949442
163	0xbdbc2945	-0.09187559
164	0xbd96bd0f	-0.07360279
165	0xbd3c7769	-0.046012316
166	0x3d157584	0.036489025
167	0xbda02185	-0.07818893
168	0xbd795df1	-0.060880605
169	0x3c8217f6	0.015880566
170	0xbcbe9fb0	-0.023269504
171	0xbd9ba7ac	-0.0760034
172	0xbd63e54f	-0.055638608
173	0xbccea0b0	-0.025223106
174	0x3ca3a66f	0.019976823
175	0xbc1a3b99	-0.009413623
176	0xbd89e322	-0.06732775
177	0x3d97fb79	0.074210115
178	0x3c9ad6c0	0.018901229
179	0xbd3b9d2e	-0.045804195
180	0xbc123010	-0.008922592
181	0x3de6ad15	0.112634815
182	0x3d401f23	0.046904694
183	0xbd941e12	-0.07232298
184	0xbd2a7b97	-0.04162177
185	0xbc468ce0	-0.012118548
186	0xbd85a588	-0.06525713
187	0x3c6a564d	0.014302802
188	0xbd8aacbe	-0.06771229
189	0x3d5de8a2	0.054176934
190	0xbca3e950	-0.020008713
191	0xbdcb466e	-0.09925543
192	0xbd45daf3	-0.04830451
193	0x3ccfef51	0.02538267
194	0x3d34ae4c	0.044111535
195	0x3c4f8eb7	0.012668303
196	0xbbcf1742	-0.006319911
197	0x3cbb72ac	0.022881828
198	0xbcc673ae	-0.024225082
199	0x3ce35e28	0.027754858
200	0xbcb61325	-0.022225926
201	0xbd254bdb	-0.040355545
202	0xbc8611c4	-0.016365893
203	0x3c746d20	0.014918596
204	0xbd8f487d	-0.06996248
205	0x3cb45498	0.022012994
206	0xbd2014a3	-0.03908218
207	0x3d85d4cb	0.06534728
208	0xbc0b55b7	-0.008504323
209	0xbc729c52	-0.0148077775
210	0xbd56c64d	-0.052435208
211	0x3d8a3b72	0.067496195
212	0x3d0a594c	0.033776566
213	0xbd01b35c	-0.03166519
214	0xbc9f24ea	-0.019426782
215	0xbaeb2030	-0.001793867
216	0xbd11aab0	-0.03556317
217	0xbda1a425	-0.07892636
218	0xbd94681e	-0.07246421
219	0x3cf86cdd	0.030325348
220	0xbc0849e0	-0.008318394
221	0x3d3cccee	0.046093874
222	0xbcdd5cb9	-0.027021753
223	0xbdaba20c	-0.08380517
224	0xbd459d15	-0.04824551
225	0xbd927055	-0.07150332
226	0x3d4adeba	0.049528815
227	0x3c3f4488	0.011674054
228	0xbd3e73b0	-0.046497047
229	0x3cd01b58	0.025403664
230	0x3d8aa4cf	0.06769716
231	0x3d06f38e	0.032947116
232	0xbc3318a0	-0.010931164
233	0x3c65b0a8	0.014019169
234	0xbd75a19a	-0.05996857
235	0x3d32d75a	0.043662407
236	0x3de6edf9	0.112758584
237	0xbbff2602	-0.0077865133
238	0x3d1348f2	0.035958238
239	0x3d1ff7d2	0.0390547
240	0x3ba74df0	0.0051057264
241	0x3d4e62be	0.050387137
242	0xbdd168a0	-0.10225034
243	0xbd5b93ec	-0.053607866
244	0x3c6024c8	0.013680644
245	0x3d886e81	0.06661702
246	0xbda63a54	-0.08116594
247	0x3d5e84a5	0.05432572
248	0xbccb2477	-0.024797661
249	0xbd8d61c5	-0.06903414
250	0x3d73af3d	0.059493292
251	0x3dcd939e	0.10037921
252	0x3e2a9599	0.1665863
253	0xbdb10169	-0.08642847
254	0x3dac5d98	0.08416289
255	0x3d33c197	0.043885794

fc2.bias f4 [128]
0	0x3d49587c	0.04915665
1	0x3d6d28dd	0.0579003
2	0x3d089a51	0.033350293
3	0x3d951ba8	0.07280666
4	0x3d3f8eaa	0.046766914
5	0x3db6610f	0.08905231
6	0x3e1c35ef	0.15254949
7	0x3de1ba98	0.11021918
8	0xbd13ab33	-0.03605194
9	0x3dc49f23	0.096006654
10	0xbd574cf7	-0.052563634
11	0xbbe6d44a	-0.00704435
12	0x3e109e36	0.14122853
13	0x3d2ec65f	0.04266965
14	0xbdcf7a6b	-0.10130771
15	0x3da0c56e	0.07850157
16	0x3d7fd181	0.062455658
17	0x3dc982a7	0.09839373
18	0x3dbb5063	0.09146192
19	0x3a976bcd	0.0011552513
20	0xbcfa8a88	-0.030583635
21	0x3dac182f	0.0840305
22	0x3dd8c69d	0.105847575
23	0x3e4ac46e	0.19801494
24	0x3e079cee	0.13243458
25	0x3ced3489	0.028955715
26	0x3dd38ebf	0.10329961
27	0x3e0c0768	0.136747
28	0x3bc44f3b	0.0059908903
29	0x3c193aaa	0.0093523655
30	0x3d93fa57	0.07225483
31	0x3d5b6a6e	0.053568296
32	0x3e2e4233	0.1701744
33	0xbdb8945a	-0.09012671
34	0x3e3e5853	0.1858838
35	0x3c886db1	0.016653867
36	0x3ce24d42	0.02762473
37	0x3e31aa2d	0.17350073
38	0xbd836a67	-0.06416779
39	0xbca6bbca	-0.020353217
40	0x3d402efe	0.046919815
41	0x3ba91c43	0.0051608398
42	0xbc9ec253	-0.01937977
43	0x3c865d9b	0.016402056
44	0x3e23e751	0.16006209
45	0x3de9cb5e	0.11415742
46	0x3d448191	0.047975127
47	0x3c7e5fb0	0.015525743
48	0xbe06fcaa	-0.13182321
49	0x3cdb0dc2	0.026739959
50	0x3de1489f	0.110001795
51	0x3d506633	0.050878715
52	0x3cf5f1da	0.03002255
53	0x3be17bdc	0.0068812203
54	0x3e349aa7	0.1763712
55	0x3dc23ccf	0.094842546
56	0x3c0adb7d	0.008475182
57	0x3da614f9	0.08109469
58	0xbcecb0d7	-0.028892918
59	0x3d1aa666	0.037756346
60	0x3c2144f3	0.009843099
61	0xbd3c0b13	-0.045909
62	0x3e31349a	0.17305222
63	0xbcc9b1f3	-0.024620986
64	0xbb9929d0	-0.004674174
65	0xbd8980ea	-0.067140415
66	0xbd0cd08f	-0.034378584
67	0x3d91b0c7	0.07113796
68	0x3dbfb9be	0.093615994
69	0x3de19216	0.11014192
70	0x3daf61fe	0.085636124
71	0x3d964314	0.07337013
72	0xbd6d9184	-0.058000103
73	0x3dc2599b	0.09489747
74	0x3c35c27c	0.011093732
75	0x3d010266	0.031496428
76	0x3cd74e34	0.026282407
77	0x3d5f6731	0.05454177
78	0xbe0ce5ef	-0.13759588
79	0xbc218ace	-0.009859754
80	0x3d1f4e50	0.038893044
81	0x3d240868	0.04004708
82	0x3e32cd60	0.17461157
83	0x3c93a76e	0.018024173
84	0x3d3d4a44	0.046213403
85	0x3c06af23	0.008220467
86	0xbd140e12	-0.03614623
87	0x3dec13c4	0.115272075
88	0xbe252620	-0.16127825
89	0x3e2b2345	0.16712673
90	0x3dea2379	0.11432547
91	0x3e25e1b3	0.16199379
92	0x3ceb8b11	0.028752835
93	0x3c6f41f7	0.01460313
94	0x3cf5bbfa	0.02999686
95	0x3e1aa1c7	0.15100776
96	0x3d3350c1	0.043778185
97	0x3c824ee5	0.01590676
98	0x3d19af7a	0.037520863
99	0x3def08cc	0.116716
100	0xbbb4a056	-0.0055122776
101	0x3cd11a4b	0.025525233
102	0x3c5a7f06	0.013335949
103	0x3d6af489	0.057362113
104	0x3dba8023	0.091064714
105	0x3e35158f	0.17684005
106	0x3c9bfd45	0.019041667
107	0x3c8cffdd	0.017211849
108	0x3e3ea918	0.18619192
109	0x3e1818d9	0.14853229
110	0xbcd0531b	-0.025430253
111	0xbd2b343f	-0.041797873
112	0xbda9fb63	-0.08299901
113	0x3e27c951	0.1638539
114	0x3da326c2	0.07966377
115	0x3e3dd6f8	0.18539035
116	0x3e205a17	0.15659367
117	0x3d4e412e	0.05035513
118	0x3e7e9d24	0.24864632
119	0x3df876e0	0.121320486
120	0x3e0d8066	0.13818511
121	0x3c7df40f	0.015500083
122	0x3e0d9797	0.13827358
123	0xbdbb0964	-0.091326505
124	0x3e8690d3	0.26282367
125	0x3dd09ecb	0.10186537
126	0xbcfdebd7	-0.030996246
127	0xbd088344	-0.03332831

fc3.weight f4 [128, 128]
0	0x38d42d05	0.00010117333
1	0xbcea7c6d	-0.028623784
2	0xbe070fb8	-0.1318959
3	0xbd1f9f53	-0.038970303
4	0xbbe1760c	-0.0068805274
5	0x3d467eb5	0.04846068
6	0x3ce0c19a	0.027436066
7	0xbd245e15	-0.040128786
8	0x3dc8f61c	0.09812567
9	0xbd66a748	-0.056311876
10	0xbdcf3013	-0.10116591
11	0x3c949093	0.018135345
12	0x3c45f59b	0.012082483
13	0x3cfb3c79	0.030668484
14	0x3d7d973a	0.0619118
15	0x3b175b7d	0.0023095303
16	0xbcc41bd9	-0.02393906
17	0xbd86d1ef	-0.065830104
18	0x3ca5704b	0.020195147
19	0x3cd85689	0.02640845
20	0x3d55356d	0.052052904
21	0xbd13088d	-0.035896827
22	0xbd3af9a6	-0.04564824
23	0xbca7ffa1	-0.020507636
24	0xbda8febe	-0.08251713
25	0xbd978741	-0.073988445
26	0xbda851f9	-0.0821876
27	0x3b46f681	0.003035933
28	0xbc5d42f9	-0.013504737
29	0x3be6e24d	0.00704602
30	0xbd3132fb	-0.04326151
31	0x3b90378c	0.004401153
32	0xbbb82e2e	-0.0056207394
33	0xbd87dea2	-0.06634261
34	0x3d168baa	0.036754288
35	0x3e023233	0.12714462
36	0x3c227cc3	0.009917441
37	0xbdbd9a75	-0.09257976
38	0xbd6ac81f	-0.057319757
39	0xbbf25562	-0.0073954323
40	0xbd895410	-0.06705487
41	0xbd30c2b1	-0.043154422
42	0x3dde329b	0.10849496
43	0xbdb212e5	-0.0869501
44	0xbd801de6	-0.06255703
45	0xbd6b5d7e	-0.057462208
46	0xbca4f0dc	-0.020134382
47	0x3da2279c	0.07917711
48	0xbd744614	-0.059637144
49	0x3d92a24b	0.07159861
50	0x3d1e824c	0.03869848
51	0x3dc9b8fe	0.098497376
52	0x3ca18976	0.019718867
53	0xbd8cd387	-0.06876283
54	0xbd35ccd0	-0.044384778
55	0xbd721586	-0.059102558
56	0xbd0337e8	-0.03203574
57	0xba287433	-0.00064260064
58	0x3dd93b11	0.10606969
59	0xbe071898	-0.13192976
60	0x3dcaba87	0.098988585
61	0x3c62e495	0.0138484435
62	0xbc84eda1	-0.016226592
63	0x3d3bbbed	0.045833517
64	0x3c99debe	0.01878297
65	0x3dcec4d8	0.10096139
66	0xbd096e0a	-0.033552207
67	0x3c4ea1bc	0.012611803
68	0x3cbb7edd	0.022887642
69	0xbd4614dd	-0.04835974
70	0xbd0722ed	-0.032992292
71	0x3cc59b91	0.024122031
72	0x3d9c4f7d	0.07632349
73	0x3c996d78	0.018728957
74	0x3d36b9a3	0.04461063
75	0x3d0f869c	0.035040483
76	0xbd36c773	-0.044623803
77	0xbd921a7d	-0.071339585
78	0x3c1492c0	0.009068191
79	0x3c63d1a8	0.013904966
80	0xbddc92f6	-0.10770218
81	0x3c1f69e9	0.009729841
82	0xbc12c442	-0.008957924
83	0x3e3dea1f	0.18546341
84	0xbdccdc1d	-0.10002921
85	0x3e1a1cac	0.1505
86	0x3dca1e7c	0.09869096
87	0xbda4541b	-0.08023854
88	0x3da6eb7f	0.08150386
89	0xbd5290da	-0.051407672
90	0x3c54b415	0.012982388
91	0x3c4f181d	0.012640026
92	0x3c680ad5	0.014162739
93	0x3d78e5cd	0.06076603
94	0x3d8b0327	0.06787711
95	0xbcb72e70	-0.02236101
96	0x3bfade6b	0.007655909
97	0x3d088173	0.033326577
98	0xbd8aedbe	-0.06783627
99	0x3e0f23e3	0.13978533
100	0x3b8515e8	0.0040614493
101	0x3d623d13	0.055234026
102	0x3d01856b	0.031621378
103	0xbd7aa8ae	-0.06119602
104	0xbcaf3744	-0.021388657
105	0xbd1b239f	-0.037875768
106	0xbce3ee9a	-0.027823735
107	0x3da9158a	0.082560614
108	0x3bb718a8	0.005587656
109	0x3d57041c	0.052494153
110	0x3d8e8f29	0.069608994
111	0xbcb9721a	-0.022637416
112	0xbc5454ef	-0.012959703
113	0xbcd154ce	-0.025553133
114	0xbda597ca	-0.08085592
115	0xbd5e2db4	-0.054242805
116	0x3c56771e	0.013089923
117	0x3da4d9e0	0.08049369
118	0xbd677109	-0.056504283
119	0xbda7efb3	-0.08200016
120	0xbddaacfb	-0.10677525
121	0xbd9a1434	-0.07523385
122	0xbbf8525d	-0.007578178
123	0xbd72805e	-0.05920445
124	0x3d3899c6	0.045068525
125	0x3c624d37	0.013812355
126	0xbd86ec35	-0.06588022
127	0x3d915312	0.070959225
128	0xbc010e5a	-0.007876957
129	0x3dc84df5	0.09780494
130	0x3b9fcaa3	0.004876451
131	0x3ddb302c	0.107025474
132	0x3d43024d	0.047609616
133	0x3daffc55	0.085930504
134	0x3dd8e5ce	0.10590707
135	0x3e0fea7f	0.14054297
136	0xbcf7a532	-0.030230138
137	0x3dc04551	0.09388221
138	0xbcb292cb	-0.021798512
139	0x3c88f015	0.016716043
140	0x3d4d52f9	0.050127957
141	0x3d967e70	0.07348335
142	0x3d058597	0.032598104
143	0xbccd1e5a	-0.025038887
144	0x3b57d91a	0.00329358
145	0x3da9f65b	0.08298942
146	0xbb89d158	-0.004205864
147	0x3dc2be0f	0.09508907
148	0xbd83850e	-0.064218625
149	0x3dd81860	0.10551524
150	0x3d621dbf	0.05520415
151	0x3d8f7682	0.070050254
152	0x3d85b569	0.06528742
153	0xbd7f341c	-0.062305555
154	0xbcd8cb1e	-0.026464041
155	0x3dffd30a	0.124914244
156	0xbdf46df7	-0.11935037
157	0x3c8957e5	0.016765544
158	0x3d723f18	0.059142202
159	0x3cc9949b	0.024606993
160	0x3d95c49b	0.0731289
161	0x3e141f9a	0.1446518
162	0x3d05c766	0.032660864
163	0x3ddd4ae2	0.108052984
164	0x3c21b4c6	0.00986976
165	0xbcc854f7	-0.024454577
166	0xbd47de3b	-0.04879592
167	0xbdb4ae1e	-0.08822273
168	0x3dbee1f4	0.09320441
169	0xbe04bf25	-0.12963541
170	0xbdd4174e	-0.103560075
171	0xbc7f9c03	-0.015601161
172	0x3d8531d0	0.065036416
173	0x3d766979	0.06015918
174	0x3cb78985	0.022404442
175	0xbd8df1ab	-0.0693086
176	0x3d633bd6	0.055476986
177	0xbcb628c8	-0.022236243
178	0xbcfb597f	-0.030682324
179	0x3d4857f3	0.048912
180	0xbbca4146	-0.006172332
181	0x3d845975	0.06462375
182	0xbc44abe4	-0.012003873
183	0x3d93a1b1	0.072085746
184	0x3d8e0933	0.06935348
185	0xbd892141	-0.06695796
186	0xbdd70298	-0.104985416
187	0x3d00bf9e	0.03143274
188	0xbd9d8ce0	-0.076928854
189	0xbdd3919f	-0.103305094
190	0x3d3e1f67	0.046416666
191	0xbd3068d8	-0.043068737
192	0x3da02227	0.07819014
193	0xbda30621	-0.07960153
194	0xbbd79e65	-0.0065801614
195	0x3dacdecc	0.08440933
196	0x3d32aa21	0.04361928
197	0x3dde0a4f	0.1084181
198	0x3da77876	0.08177273
199	0x3d9c661f	0.076366656
200	0x3d67523c	0.05647491
201	0x3c9822ee	0.018571343
202	0xbbe16a5c	-0.006879134
203	0x3cd50478	0.026003107
204	0xbdb6ec92	-0.08931841
205	0x3df77d59	0.12084455
206	0x3c7c063e	0.015382348
207	0xbd90fada	-0.07079096
208	0x3e07d5f8	0.13265216
209	0xbd02717a	-0.0318465
210	0x3dcad77c	0.09904382
211	0xbcc46f2f	-0.023978798
212	0x3d464ed0	0.048415005
213	0x3d5fe7f5	0.05466457
214	0xbdc82455	-0.09772555
215	0x3dbe0d66	0.09279899
216	0x3bf8424a	0.0075762616
217	0xbd1345dc	-0.035955295
218	0x3bd7ba98	0.006583523
219	0xbd99d90f	-0.07512104
220	0x3c8d7fa0	0.01727277
221	0xbd087eda	-0.0333241
222	0xbd11a416	-0.035556875
223	0x3d461d03	0.04836751
224	0x3db34a36	0.08754389
225	0xbda08e03	-0.078395866
226	0x3d93f370	0.072241664
227	0x3d57f0c8	0.05271986
228	0xbc8e5ec4	-0.017379172
229	0xbd1b626f	-0.03793567
230	0x3d1544d0	0.036442578
231	0x3e159e9a	0.14611283
232	0xbb9f43e0	-0.0048603863
233	0x3d9cd01e	0.07656883
234	0xbcef642c	-0.02922257
235	0x3d75a089	0.05996755
236	0x3cef2c4a	0.029195923
237	0xbcc7521c	-0.024331145
238	0xbda7814f	-0.081789605
239	0xbd1b5231	-0.03792018
240	0x3d82adf0	0.06380832
241	0x3c6b628f	0.01436676
242	0x3d6a82db	0.0572537
243	0xbc306f9e	-0.010768799
244	0x3d47631e	0.04867851
245	0xbd1d2f7d	-0.038375366
246	0xbdfaafe7	-0.12240582
247	0xbc38c67e	-0.011277793
248	0x3cbd1486	0.023081075
249	0xbda08aa7	-0.07838946
250	0x3d1669ab	0.036721867
251	0xbdaeb96e	-0.08531462
252	0x3caf6f2f	0.021415321
253	0x3d968d9c	0.073512286
254	0xbdf47e85	-0.11938194
255	0xbe061191	-0.13092639
