models/dqn_model_epoch_34000.pth (torch, 595624 bytes, 14 tensors)

cnn1.weight f4 [16, 4, 5, 5]
000000 16 63 47 be e7 6f 33 3d de cd e4 bc c2 9b 49 be
       -0.19471392 0.04380789 -0.027930196 -0.19688323
000010 76 5c 12 be 42 7e 4b be a2 91 46 be fe 62 94 be
       -0.14293084 -0.19872382 -0.19391492 -0.28981775
000020 74 9a 0e bd 09 54 69 bd 8d b7 8b be 2c 40 24 be
       -0.034815267 -0.056964908 -0.27288476 -0.16040105
000030 20 71 bf be cd e0 15 be 74 12 1a 3d b6 21 2a be
       -0.37390995 -0.14636536 0.037615255 -0.16614422
000040 af ac 5a be 8b d3 23 bd b4 30 83 be 35 44 45 3c
       -0.21354936 -0.039996665 -0.25623095 0.012040188
000050 39 f9 56 be 9f a0 81 be d9 23 41 be a2 4a 8b 3d
       -0.20993508 -0.25317857 -0.18861331 0.068013445
000060 21 3a e0 3c 6f 4c 70 bc d3 ba 05 bd 50 f2 c1 bd
       0.027371468 -0.014666661 -0.032648873 -0.094700456
000070 d9 4b 14 be 54 55 e3 3c 69 93 81 3d 32 58 d3 bc
       -0.14482059 0.027750649 0.063269444 -0.02579889
000080 23 c4 ca 3c 4a 6c 8a bd 33 9c 92 bd 01 04 41 bd
       0.024751728 -0.06758936 -0.07158699 -0.04712296
000090 be dc 0b be b0 fb 85 3c 9a ec 07 3e 5f 5d e8 bc
       -0.13658425 0.016355366 0.1327385 -0.028364835
0000a0 49 fd d3 bd 81 21 b0 3c 68 a1 ad bd c0 4b 98 3c
       -0.10351045 0.02150035 -0.084780514 0.018590808
0000b0 17 00 04 be 20 15 02 bd 4f e0 9b 3d 3a 40 2a bd
       -0.1289066 -0.031758428 0.07611143 -0.041565157
0000c0 fc 87 8b bd f1 6e b2 bd b7 f3 a9 3d c8 a7 27 bc
       -0.06813046 -0.08712567 0.08298438 -0.010232873
0000d0 45 12 07 be 6b af 52 be 2c 5a d4 bc 32 92 c7 bc
       -0.13190563 -0.20574729 -0.025921904 -0.024361704
0000e0 27 1f b3 bd 93 17 34 3e ae 02 4b 3d c5 f4 1d be
       -0.08746176 0.17587118 0.049563102 -0.15425403
0000f0 23 ae 6f 3e fe 60 6f 3e a2 12 f6 3d 5a 46 17 3d
       0.23406272 0.23376843 0.12015273 0.036932327
000100 99 6c 57 be 1c c8 90 be de 6e 19 3e 61 65 8e 3e
       -0.2103752 -0.2827767 0.14983699 0.2781172
000110 42 f3 05 be 7f a0 2a be 6e 03 24 be bf c6 83 bc
       -0.13081077 -0.16662787 -0.16016933 -0.01608598
000120 79 b9 a2 3e 8d dc 06 be d0 34 1c be 08 92 bf bd
       0.3178213 -0.13170071 -0.15254521 -0.09354025
000130 a8 56 7a be 2c 86 b8 bd a3 c5 a7 bb e6 cc 87 bd
       -0.24447119 -0.09009966 -0.0051199957 -0.06630878
000140 89 64 2b bd d9 a9 e1 3d a4 49 18 3e 93 f0 c0 bd
       -0.041843925 0.11018724 0.14871842 -0.09420886
000150 4c e3 09 3d 5b f0 26 be e9 24 96 3d b8 2a a5 3d
       0.033664033 -0.16302626 0.07331259 0.080647886
000160 6a 97 bf bd 09 e2 a8 bd d0 8c 03 be 6f 2e e4 bb
       -0.09355052 -0.08246238 -0.12846684 -0.006963543
000170 57 a3 98 3d 20 d5 c8 bc f8 bd f2 bd d0 01 b9 3d
       0.074530296 -0.024515688 -0.1185264 0.09033549
000180 ef cb f3 3d 2d 76 3a be 29 8e 8f bd 74 15 75 bd
       0.119041316 -0.18209143 -0.07009537 -0.059834912
000190 0f f1 f2 bd 16 95 85 be 7f 2a 35 be 0e 60 0b 3d
       -0.118623845 -0.26090306 -0.17691992 0.03402715
0001a0 01 8e 67 be 71 42 01 be 44 cc a7 bd 6c 43 c6 ba
       -0.22612764 -0.12623002 -0.081932575 -0.0015126294
0001b0 a6 4f bf 39 46 09 ae 3b 2b 10 0c be 65 0d 24 bd
       0.00036489702 0.005311164 -0.13678043 -0.040051837
0001c0 0d 16 73 3c 94 72 5b bd d7 09 78 bd de 71 1f be
       0.0148368 -0.053576067 -0.06055626 -0.1557078
0001d0 36 ea 67 be 02 e8 33 be ad 8a bd be ee 1a 6e bd
       -0.22647938 -0.17568973 -0.37019864 -0.05813115
0001e0 39 07 84 be 4a ae 62 be 42 6b c5 bd 98 5e a1 bd
       -0.2578676 -0.22136799 -0.096395984 -0.078793705
0001f0 eb d3 ff bd 76 22 2f bd d6 3e aa 3d 9a c0 5f bd
       -0.12491592 -0.042757474 0.08312766 -0.05462704
000200 e3 7d 11 3d d5 aa 06 be 5d c0 3d bc 60 9e 1f bd
       0.035520446 -0.13151105 -0.0115815075 -0.038969398
000210 9f 5e cf bd 7e c7 be 3c fc a8 05 3b 74 25 a6 bc
       -0.101254694 0.023288485 0.0020394912 -0.02028153
000220 82 32 4f bd a6 20 12 be 65 9d 45 bd 6d c4 d2 bc
       -0.050585277 -0.14270267 -0.048245806 -0.025728429
000230 2b 91 0b be 1b 0e cf bc 12 47 51 3d d9 14 47 bd
       -0.13629596 -0.02527528 0.05109317 -0.048603866
000240 fc 7c da bd 14 aa 1f bb 0e 4f 04 3d d5 8f 8c bd
       -0.1066837 -0.002436285 0.032301955 -0.06863371
000250 a2 e2 d4 3d f2 a1 e8 bd e5 da 42 be 75 61 36 3e
       0.10394789 -0.113590136 -0.19028814 0.17810614
000260 b6 45 5f bd fe a8 24 3e 4c 57 17 be c6 ee 3e be
       -0.05450984 0.1608009 -0.14779395 -0.18645772
000270 87 c3 3a 3e fe 16 51 be 4c b5 a7 3d e4 ca 20 be
       0.1823865 -0.20418927 0.081888765 -0.15702397
000280 7b de 8b be c9 2f 80 be 1e 41 bf 3d 13 20 c6 3d
       -0.27318177 -0.25036457 0.09338592 0.096740864
000290 13 65 57 be 3b 49 7c be 7c c5 0c be 97 30 88 3e
       -0.2103465 -0.2463731 -0.1374721 0.2659957
0002a0 a7 99 41 be 70 da 6e be 3e 40 c6 3e e3 fd 97 3e
       -0.1890627 -0.23325515 0.38720888 0.29685888
0002b0 12 2b d3 3e 89 e4 66 bd 70 7b 29 be 89 12 54 3e
       0.41243798 -0.05637029 -0.16550994 0.20710196
0002c0 c9 9f 08 3e 1d f3 72 3e 90 9f 8d bc f8 7b a8 bd
       0.13342203 0.23725553 -0.017288 -0.0822677
0002d0 47 a0 ef 3d 09 ee f4 bd 05 bf 1b 3e f7 43 04 be
       0.11700492 -0.11959464 0.15209587 -0.12916552
0002e0 40 c8 e0 bd 12 81 28 be ca b9 bd 3d 38 52 81 3d
       -0.10975695 -0.16455486 0.09263952 0.0631451
0002f0 69 48 a6 bd a3 cb 1c be fe 26 2b be 19 8e eb bc
       -0.0811928 -0.15312056 -0.16714093 -0.02875428
000300 44 c6 ab bd 0e 2a 00 be 42 45 25 bd 43 04 0a be
       -0.083874255 -0.12516043 -0.040349253 -0.13478188
000310 9c b4 f1 bd 46 7f 32 3e 7d 25 03 be af 90 0e be
       -0.11802027 0.17431363 -0.1280727 -0.1392238
000320 70 06 99 be ba 42 99 bd 2d 94 b0 be d0 b4 46 3d
       -0.29887724 -0.0748343 -0.3448805 0.04851228
000330 69 0d 3a be ea 39 64 be 06 22 22 be 3f f8 42 be
       -0.18169178 -0.22287717 -0.15833291 -0.19040011
000340 ae 65 10 3d 0f fc 9b 3b ec 3b 78 be 53 c0 5f be
       0.03525322 0.0047602723 -0.24241608 -0.2185071
000350 1a df fa bd 63 3a eb 3c 2f 1e 34 3e e2 80 7e be
       -0.122495845 0.028714364 0.17589639 -0.24853852
000360 9a 66 6a be d0 6a 94 be 76 aa 21 be 10 7e 09 3e
       -0.22890702 -0.2898774 -0.15787682 0.13426995
000370 ab 84 79 be 76 20 05 be c2 cf 74 be f3 10 56 3d
       -0.24367015 -0.13000664 -0.23907378 0.052262258
000380 af 56 85 bd 52 22 05 be a3 37 68 bc e7 d4 0e be
       -0.06510674 -0.13001373 -0.014173421 -0.13948403
000390 fe 96 b0 bd 66 b8 16 bd 29 bb 84 bb 12 d8 b3 bc
       -0.086225495 -0.03679695 -0.0040506315 -0.021953616
0003a0 be b0 80 3d 11 60 ba bd 97 ed e8 3c be 8a 03 bc
       0.06283711 -0.091003545 0.028433604 -0.008028684
0003b0 ee 86 b7 3c 3b bb 4c bc 26 f9 be bd 11 be 71 bb
       0.022403207 -0.012495811 -0.09324865 -0.003688697
0003c0 9d e8 40 3b 08 ce b3 bd a1 75 26 3c 9d d3 3a 3e
       0.0029435523 -0.08779532 0.010159881 0.18244787
0003d0 98 4f 9e bb 25 21 9c bd d2 44 13 be 1c c5 64 bd
       -0.0048312657 -0.07623509 -0.14381722 -0.05585204
0003e0 0c 08 b9 3d 10 82 0b bc 44 94 99 3d 63 64 fc 3c
       0.09034738 -0.008514896 0.074989825 0.030809587
0003f0 a6 2b 50 3d 01 30 cb be 74 a5 79 bd a1 52 c7 3c
       0.050822876 -0.39685062 -0.060948804 0.024331393

cnn1.bias f4 [16]
000000 69 39 67 3d 5d 6e 4c bd 5c 7f 8e bd 0d 85 98 bd
       0.056451235 -0.049909938 -0.069578856 -0.074472524
000010 89 03 0d 3d 7c 98 92 bd 31 7a 96 bd ff a9 d1 ba
       0.0344272 -0.0715799 -0.07347525 -0.0015996097
000020 5a ef 7e 3c 00 b6 f9 bd e7 c8 e5 bc f4 85 94 bd
       0.015559996 -0.12192917 -0.0280499 -0.07252112
000030 00 9d 96 bc 49 09 b8 bd ec 62 c5 3c 82 ee 8a bd
       -0.01838541 -0.08986146 0.024095021 -0.06783773

cnn2.weight f4 [32, 16, 3, 3]
000000 c9 1a dd 3c 71 5f 6c 3d 2d 1a d5 3d 56 51 16 3e
       0.026990311 0.057708208 0.10405383 0.14679465
000010 e3 ee bb bc 2d 8c 2a bd fe 31 9a 3d 6a 72 8c 3c
       -0.022941059 -0.04163759 0.075290665 0.0171444
000020 8f c9 52 bd 65 36 2e 3e c3 59 c9 bd 0a 06 26 3d
       -0.051461753 0.17012937 -0.09831574 0.040533103
000030 46 1e 01 3e ec e2 95 bd 47 c1 f4 3d e2 58 1d 3e
       0.12609205 -0.073186725 0.11950927 0.15365937
000040 0c e3 6a bd fa 22 90 bd 1a af 5d bc e2 f7 e8 bc
       -0.057345435 -0.07037921 -0.013530517 -0.028438512
000050 7f e2 59 b8 de 26 e8 bc 4f dc c6 39 c7 95 61 bd
       -5.1947773e-05 -0.028338846 0.00037929646 -0.05507448
000060 b6 43 70 bd a6 48 80 3c 5d 22 66 bd 7e 61 d7 3d
       -0.058658324 0.015659641 -0.056185115 0.10516642
000070 5a 96 a3 bd 58 ab 89 3c 3f d0 1e 3e 7c 90 ed 3c
       -0.07987662 0.016805336 0.15509127 0.02899956
000080 83 73 03 bd 0a 92 e5 3d b4 3f 7a 3d cc 7d b5 bd
       -0.032092582 0.11209495 0.06109591 -0.088618845
000090 da ed 80 3d 2c 90 95 bc ed 2d 92 bc c0 49 d3 3d
       0.062953666 -0.018257223 -0.017844165 0.10316801
0000a0 57 4f 11 3c 1d 91 7e 3d df 85 ba 3d 50 86 f0 3c
       0.008869014 0.06215011 0.09107565 0.02936092
0000b0 bf cf b8 3d 74 9b c2 3d 76 4c 83 3d db 98 8a 3d
       0.090239994 0.095023066 0.06411068 0.06767436
0000c0 7c a0 f8 3d d0 1a 62 3d ae cb d4 3c e7 be 4f bc
       0.12139985 0.05520135 0.025976028 -0.012679792
0000d0 ba 80 8c 3c 7f f8 17 3d b4 43 60 bd 44 14 0d 3d
       0.017151225 0.03710222 -0.054752067 0.034443155
0000e0 5a e7 9e 3d 13 25 22 bb fa a0 af 3c 1a f0 5e 3d
       0.077589706 -0.0024741336 0.021439064 0.054428197
0000f0 67 1f 37 3d eb 60 11 3d da b8 d3 3d d8 bc 68 3d
       0.044707682 0.03549282 0.10337992 0.05682072
000100 99 00 aa bd cd f8 46 3d b5 01 22 3d dd 1d 58 bd
       -0.08300895 0.04857712 0.03955241 -0.052762855
000110 34 de cd 3d 9b 15 ca bc 1d 4a 15 bd 87 65 10 3c
       0.100521475 -0.024668505 -0.036447633 0.0088132685
000120 9e 9c 66 3d 49 7b 6e bc 6a e7 62 bd 19 85 d8 3d
       0.056301706 -0.014555761 -0.055396475 0.10572261
000130 3f 85 ad 3d ec 5d 99 3d 87 40 4c 3d 92 ac 16 3d
       0.0847268 0.07488617 0.049866226 0.03678567
000140 84 0d 30 3d f5 5e 8d 3d 14 e6 a0 3d 4c ad f0 3d
       0.04298164 0.06902877 0.07856384 0.11751804
000150 91 55 57 3d 99 e4 4c 3d d6 d5 e3 3c d6 5e 8c 3d
       0.052571837 0.050022695 0.027811926 0.06854026
000160 3c fa 15 bd b2 9d 3c 3d 4e 44 37 3d 27 c4 87 bc
       -0.036615595 0.046048827 0.044742875 -0.016573025
000170 35 b0 3c bc 22 e0 a6 3b 07 70 23 bc c5 3f b7 bd
       -0.01151662 0.0050926367 -0.00997544 -0.0894771
000180 72 77 2d 3b dd 37 da ba a2 14 26 bb f5 22 9b 3c
       0.00264689 -0.0016648729 -0.0025341888 0.018937567
000190 9b 2b 20 bd 16 d4 1e 3d f8 25 98 3d c1 b4 a3 3d
       -0.039104085 0.03877648 0.07429117 0.079934604
0001a0 8a 46 7f bd 6c 2d d6 3d 3e f5 26 3d 7c eb 98 3d
       -0.06232313 0.10457882 0.040761225 0.0746679
0001b0 6a 13 a9 bd 38 f4 f1 bd 05 e6 99 bc 37 79 4f bc
       -0.08255656 -0.11814159 -0.01878644 -0.012663177
0001c0 33 ab 25 3d 75 98 27 bc 22 ea 4f 3d ba c8 5d bd
       0.04044647 -0.01022922 0.050760396 -0.054146506
0001d0 d9 6d 2e bb f7 74 1a bd 87 47 6d bd ab 72 c7 3c
       -0.0026615767 -0.037709203 -0.057929542 0.02434667
0001e0 77 3f 40 3d 3e 2d 81 bd 43 c4 70 bd f3 e6 18 bd
       0.046935525 -0.063074574 -0.05878092 -0.037329625
0001f0 ac ac a1 bd b0 86 06 bd d2 31 dc 3d 80 32 cd bc
       -0.07894263 -0.03284329 0.1075169 -0.025048494
000200 03 18 ad 3d 0a d8 33 3e 6f 5a 5a 3d ce 4d 7a 3d
       0.084518455 0.17562881 0.0533089 0.061109357
000210 f5 71 23 3e 11 b3 b1 ba 6f b3 c2 3d bf 6c b8 3c
       0.1596144 -0.0013557394 0.095068805 0.022512792
000220 fe 81 71 bd 28 ab 8b ba 4a 0c 5d 3d 7a f1 3b bd
       -0.05896186 -0.0010655867 0.053966798 -0.045884587
000230 e2 08 3b 3c 17 87 1f 3d c8 ce 4f bd 9d 62 c7 bd
       0.011415692 0.03894719 -0.05073431 -0.09735606
000240 e6 f8 56 bd 58 8a 1a 3d ac 0a e9 3c ee 72 22 3e
       -0.05248346 0.03772959 0.028447472 0.15864155
000250 4a b8 5d 3b 3e 54 eb bc ed b0 82 3c 4d bf 06 3d
       0.0033831769 -0.028726693 0.015953505 0.032897282
000260 83 a6 60 bc cc 9a 75 3c 09 d4 e8 3d 31 0f ee bc
       -0.0137115745 0.01499052 0.113685675 -0.029059978
000270 e5 e8 09 3e f6 c5 0b 3c 21 db 06 bb 62 9b 8b 3d
       0.13467748 0.008531084 -0.0020577388 0.06816746
000280 ae 28 f2 3d 79 29 c5 bd fc 12 25 3c c7 8f 8c bd
       0.11824165 -0.09627051 0.010075327 -0.06863361
000290 72 ff 29 bd 93 07 b3 bd 72 82 f8 bd f3 b3 ba bd
       -0.041503377 -0.08741679 -0.121342555 -0.09116354
0002a0 69 25 52 bd 6c c2 07 be 65 49 e5 bd 71 a2 eb 3d
       -0.05130521 -0.1325776 -0.111956395 0.115055926
0002b0 a3 45 f2 3d 6d fd db bc 0c fa 22 3e 21 8c 0a bb
       0.118296884 -0.026854241 0.15915698 -0.0021140652
0002c0 39 75 ab 3c 02 0e f6 3d f5 96 90 3d 37 32 95 bd
       0.02092992 0.120143905 0.07060043 -0.07284968
0002d0 22 1f e5 3c 84 9c 20 3d 84 17 11 3d dd 3e 87 3d
       0.027968947 0.039211765 0.035422817 0.06603787
0002e0 73 e2 31 3e 81 86 94 3b 59 4c bf 3d 0b c2 65 3d
       0.1737154 0.0045326357 0.09340734 0.056093257
0002f0 1a f1 09 3d 15 dd 46 3e a4 03 86 3b 3c ed 05 3d
       0.033677198 0.19420274 0.0040897895 0.032696947
000300 75 8a 13 3e 41 6c 08 3c 68 49 63 3c a7 1b 6e bd
       0.14408286 0.008326591 0.013872482 -0.05813184
000310 e7 98 3f 3d 4d ec 0f be 48 7a c2 ba d2 d5 cc bc
       0.04677668 -0.14054985 -0.0014837468 -0.025004301
000320 3d f4 56 bc 6c 4c f8 3d 5e 47 bb 3d 7b 0f d3 3c
       -0.013119754 0.12123951 0.091444716 0.025764218
000330 ea f8 31 3e 55 13 5d bd 44 05 dc 3d 1b 04 2d 3b
       0.1738011 -0.053973515 0.10743192 0.0026400152
000340 9b 2c 1f 3d d3 89 0d bd 46 03 5e bd dd 5f 8e bd
       0.0388609 -0.034555268 -0.05420234 -0.06951878
000350 8c fe d4 bc 86 b5 38 bd be 8b b9 bd 75 fc b0 bc
       -0.026000284 -0.04509499 -0.09059857 -0.021604756
000360 3c 8b 1d 3e 5d db a9 3c ee bb 0c 3a 30 eb 26 3e
       0.15385145 0.020734483 0.000536858 0.16300654
000370 34 88 b0 bc 10 86 46 bc 3b 32 3b 3e 73 01 43 3d
       -0.021549322 -0.012116924 0.1828088 0.047608804
000380 b3 06 16 3d 38 17 1a 3e cb cd b3 3d 28 04 ac 3c
       0.036627483 0.1504792 0.08779486 0.020998076
000390 da 46 48 3b 80 9b b5 3d cc 2a 21 3e 4e 6e b0 3d
       0.003055981 0.0886755 0.15738982 0.08614789
0003a0 79 c6 0f bd fe 23 12 3d be 4e 9b 3c 27 f8 b6 3d
       -0.035101388 0.035678856 0.018958446 0.0893405
0003b0 a3 07 4e 3c 12 1c 4f 3d b2 7c 9a bc 0c 2b 93 bd
       0.012575063 0.05056388 -0.018858287 -0.07185945
0003c0 fa 13 41 bd 02 ef 51 bd 4a 4b f4 bd fa 29 f2 3d
       -0.04713819 -0.051253326 -0.11928423 0.11824413
0003d0 32 2a 38 3d d4 4f d1 bd 2a 26 87 3d fc 64 42 3d
       0.044962116 -0.10220304 0.06599076 0.047459587
0003e0 71 90 1e bc b1 2e e9 3d 50 3e 94 3d 64 ce 8c 3c
       -0.009677992 0.11385859 0.07238448 0.017188258
0003f0 87 64 93 3c d1 25 e3 bc 1a d7 8e bd a9 70 e7 3d
       0.017992271 -0.027727993 -0.06974621 0.11300785

cnn2.bias f4 [32]
000000 59 4f de bd a4 11 f0 bc 2e 0c 12 bd 3e 53 87 3b
       -0.10854978 -0.029305287 -0.035656147 0.0041297963
000010 31 bc c6 b9 2f b7 b1 b9 20 88 a0 bd ce 8e 90 3d
       -0.00037905716 -0.00033896553 -0.07838464 0.07058488
000020 84 2b 96 bd ca 32 32 bd a8 74 f9 3c 2d 99 7f 3a
       -0.07332519 -0.043505467 0.030451134 0.0009750303
000030 a0 f1 d9 bb 2f e8 e9 3b 95 10 24 ba ea a5 de bd
       -0.0066511184 0.007138274 -0.00062585744 -0.10871489
000040 ef 55 e5 3d 90 90 d4 3b 62 42 18 bd d2 83 cc bd
       0.11198031 0.0064869598 -0.037172683 -0.0998608
000050 dc 0d eb bd 8a 4c a5 3c 9c 5d 53 bd 06 f4 24 bd
       -0.11477253 0.020178098 -0.051602945 -0.04027178
000060 52 90 8e bb 63 3f af bd af b4 67 bd ff cd 06 be
       -0.0043507004 -0.08557012 -0.056568798 -0.13164519
000070 52 63 c4 3d 33 1c 74 bd b2 31 be 3d e6 83 01 bc
       0.09589256 -0.059597205 0.092868224 -0.007904982

cnn3.weight f4 [32, 32, 3, 3]
000000 6c 7b 1d 3d 1c cf 1e 3a ea f5 2f 3c c9 a4 44 3c
       0.038447782 0.00060580834 0.010739783 0.0120021785
000010 6e 8e 94 bd e6 50 3f bd c7 4c 46 bc 94 15 c2 bc
       -0.07253729 -0.04670801 -0.012103266 -0.02369193
000020 97 e4 b5 39 9f 9e 25 3e 2c a6 24 3d 56 d9 96 bd
       0.00034693323 0.1617379 0.040197536 -0.07365672
000030 b0 d8 84 3d e5 29 2a bd da 9b 13 be 2a 21 92 bd
       0.06486642 -0.04154386 -0.14414921 -0.07135232
000040 fc 60 35 bd 20 f8 b7 bd 43 99 eb bb 21 c2 37 bd
       -0.044281945 -0.08982873 -0.007189901 -0.04486287
000050 f8 0e 8b bd a2 02 5a 3d fc d2 51 bd 51 2a 9b bd
       -0.067899644 0.053225167 -0.0512266 -0.075764306
000060 a5 fe 51 3d f7 35 7d 3d f2 04 77 bc 31 09 10 3d
       0.05126824 0.061819043 -0.015076863 0.035165016
000070 c0 1a eb bb 2c 29 03 3c 27 22 4c 3d db b6 54 bd
       -0.0071748197 0.008005422 0.049837258 -0.051932197
000080 07 cc 4e bd 7d 7f 5b 3c 9a 32 ca bc ce 40 d6 3c
       -0.050487544 0.013397095 -0.024682332 0.026153948
000090 76 2d d1 3d 41 bb c5 3c 51 d8 3c bc a9 3b d2 bc
       0.10213749 0.024137141 -0.011526183 -0.025663214
0000a0 a6 24 cb bd 8e 6f f4 3b 3e d9 8b 3a 40 cd 81 3d
       -0.099190995 0.0074595874 0.0010669602 0.063379765
0000b0 29 7b 0d bc 35 54 ec 3d 7e 15 a3 bd 25 8a 8e bc
       -0.008635321 0.11539499 -0.07963084 -0.017399857
0000c0 19 cc 01 3d ec c8 c3 bd c5 89 bf bd e0 83 7e bc
       0.031688783 -0.09559807 -0.09352449 -0.015534371
0000d0 fb 8c db 3b b2 d3 79 bb 95 9b 6f 3b 65 a6 0b 3d
       0.006700156 -0.0038120565 0.003656124 0.034094233
0000e0 ba 55 7f bd d5 67 19 bd 5f fb a9 38 b0 5d d4 bc
       -0.062337615 -0.037452538 8.1053695e-05 -0.02592358
0000f0 4c 5a 46 3d 39 03 61 bd 71 3c 23 bd 43 31 3a bd
       0.048425958 -0.054934714 -0.039852563 -0.045457136
000100 dc 39 ed 3d 5a 41 8b 3d 12 27 23 3d 8f 06 a4 bb
       0.115833014 0.06799574 0.039832182 -0.0050056647
000110 4d a5 da 3d 39 44 38 3d 3a d5 82 3d af 8b b7 3d
       0.1067606 0.044986937 0.06388326 0.089621894
000120 ae d7 fa bb bf ef bf 3c a4 57 69 bd 3e 2a 81 bd
       -0.0076551056 0.02342975 -0.056968346 -0.06306885
000130 9c 8c ea bc 21 30 57 bd 5f d0 44 3c bb b5 ae bc
       -0.0286315 -0.052536134 0.01201257 -0.02132689
000140 e0 52 70 bd 2a 56 b6 3d b4 fc ad bd c1 c8 3b 3c
       -0.058672786 0.08903153 -0.08495465 0.011461438
000150 36 92 bf 3c 93 4e ee bd c8 68 4a 3c ee c0 d6 bc
       0.023385148 -0.116360806 0.012354083 -0.026215043
000160 e0 e8 cc bc 87 ab 66 bd 07 03 ab 3d fa be bb 3d
       -0.025013387 -0.056315925 0.08350187 0.09167285
000170 4a ee c2 bd 30 68 b6 3c 14 e3 a0 3c 3e 2c ac bd
       -0.09518106 0.022266477 0.01963953 -0.08406876
000180 0a b8 02 bd 32 15 13 3d df 15 ca bc a0 05 58 3d
       -0.031913795 0.035908885 -0.024668632 0.05273974
000190 20 0a 9b bd 89 de 8e bd a3 fb 30 bd b9 9f ef bd
       -0.075702906 -0.06976039 -0.04320873 -0.117003866
0001a0 f6 0f 08 be 5f 2b 58 3d cf 7d 1a 3d 61 3e c8 bc
       -0.13287339 0.052775737 0.037717637 -0.024443807
0001b0 86 a0 d2 3d 4a fa 13 3e 6c 7e 13 3e 3f 92 d9 bc
       0.10284524 0.14450946 0.14403695 -0.026558993
0001c0 96 3f 0f 3e 5a 0b bd 3c 9b e7 43 3c 19 a2 af 3c
       0.139891 0.023076702 0.0119570745 0.021439599
0001d0 af d5 b1 bc 99 4d 71 3c 09 26 55 3c d3 18 b6 bc
       -0.021708338 0.014727973 0.013009557 -0.022228634
0001e0 b8 5e bd bb fd d0 25 3d 44 9f 27 bd e7 11 f5 3c
       -0.0057791136 0.04048251 -0.040923372 0.029915763
0001f0 c5 0c 05 3d bf f0 4d 3d 44 f5 d3 3d 47 1c 1a bc
       0.03248288 0.05027842 0.10349515 -0.009406156
000200 ac c3 55 bd 5a 31 65 3d 95 92 5a bd 23 b9 59 bd
       -0.05218856 0.05595527 -0.053362448 -0.053155076
000210 a6 d7 99 bc 15 f6 a8 3c 1f 3b ce bd a0 3c 5a 3b
       -0.018779587 0.020625154 -0.1006987 0.0033300295
000220 80 4c 20 bd fd 24 4f 3d 88 ac ba bc 98 e5 d4 bc
       -0.039135456 0.050572384 -0.022787347 -0.025988385
000230 61 60 50 bd 2a 4a c8 3c 38 17 81 3b 18 1c 3e bc
       -0.050873164 0.024449427 0.0039395355 -0.011603378
000240 3c 27 87 3d 6f 1d 64 3e 7d 60 48 3e a1 1b c4 3c
       0.0659928 0.22276853 0.19568057 0.023938956
000250 0e 21 ad 3d 77 66 f5 3d 05 71 c2 3c 48 5a b2 3d
       0.0845357 0.11982434 0.023735533 0.08708626
000260 89 e5 ea 3d aa 07 97 3d 6b c2 b3 3d cb 94 96 bd
       0.114695616 0.07374509 0.08777317 -0.07352599
000270 69 28 fd 3c c9 64 3f 3d 3b c9 90 bd 1d f9 ec 3b
       0.030903058 0.046726976 -0.07069632 0.007231845
000280 21 a6 9a 3c 93 f9 28 bd a1 71 cb bc eb a7 8f bd
       0.018878045 -0.041253638 -0.024834456 -0.0701445
000290 8c 00 90 bd e4 20 a6 3c d6 a3 39 bd cf 3a 00 be
       -0.07031354 0.020279355 -0.04532226 -0.12522434
0002a0 9d 73 2a 3c e8 62 cb bd 29 83 3f bd f7 3d 4c bd
       0.010403541 -0.09930974 -0.046755943 -0.04986378
0002b0 38 5b 7d 3b b7 d3 26 3d 68 65 c3 3c b2 4c 9f bd
       0.0038659107 0.04072925 0.023852065 -0.077783
0002c0 23 87 f0 ba 20 7c 8e 3b db e8 7f bd 5a 62 70 3c
       -0.0018350821 0.004348293 -0.062477928 0.014671886
0002d0 1b 99 18 bd e3 7b a5 bc a4 3f 10 3d 61 6f 0d bd
       -0.037255388 -0.020200675 0.035216942 -0.034530047
0002e0 d0 80 bc bd b2 39 04 bd 2d 3e 0c 3b 86 56 55 bd
       -0.092042565 -0.032281585 0.0021399364 -0.05208447
0002f0 4a 83 ca bc d3 a6 9e 3d 42 51 d2 3d ff df 06 bd
       -0.024720807 0.07746663 0.10269405 -0.032928463
000300 38 39 9d 3b eb 4e 70 3c bf 97 17 bd 85 15 3f bd
       0.004798081 0.014667253 -0.03700995 -0.046651382
000310 84 b9 89 3c 53 4d f3 bd d5 77 df bc aa cf cc bd
       0.016812094 -0.11879983 -0.02727882 -0.10000546
000320 5e ed 12 bd c5 e9 7f bd 12 e1 e7 bd ea f5 9c ba
       -0.035870902 -0.0624788 -0.11322226 -0.0011975144
000330 df 15 50 bd 7e d0 32 bd bb f6 b1 3c 95 83 2f 3d
       -0.050802108 -0.043655865 0.021724096 0.042850096
000340 ef b4 88 3c be 6f 9d 3d 1d fd b2 3c 21 20 26 bd
       0.016687838 0.07687329 0.02184921 -0.040557984
000350 57 13 67 bc 28 d1 99 bc 9b d0 bb 3d 76 d7 8c 3c
       -0.014103732 -0.018776491 0.09170648 0.017192584
000360 9e 4c 77 3d f8 ed 6d bc 34 7d 4a bd 80 07 84 bc
       0.060375802 -0.014522068 -0.04943581 -0.016116858
000370 6b 08 84 bd 3a c4 9d bd b0 72 d8 bb 40 ae 35 3d
       -0.06446918 -0.07703443 -0.0066054687 0.04435563
000380 4a 82 3c bc 3f 4b 16 3d 1f 14 fe bc a0 cf 3f 3b
       -0.011505673 0.036692854 -0.031015454 0.0029268041
000390 3e 7a be bc 0f 06 70 bd fe d9 8a 3c 4a d4 92 bc
       -0.023251649 -0.058599528 0.01694965 -0.017923493
0003a0 65 3f 4d 3d 15 fc 6a 3d 79 3c c4 3d 60 b2 20 3b
       0.050109286 0.05736931 0.09581847 0.0024520382
0003b0 05 29 03 3b 5d 7e c7 3c f6 1a 3f bd 20 be 90 bb
       0.0020013463 0.024352247 -0.04665657 -0.004417196
0003c0 95 e9 e6 bb 7a 2b dc 3c e0 16 1f bd 50 22 13 3c
       -0.007046888 0.0268762 -0.038840175 0.008980349
0003d0 20 f4 40 3d d7 0b 8c bc 62 49 ea bb 1a f0 33 bd
       0.047107816 -0.01709549 -0.007149861 -0.04393015
0003e0 17 7e 04 bd e3 db 9e bb e6 0d 96 bc e2 de a5 bc
       -0.03234681 -0.00484799 -0.018317174 -0.02024788
0003f0 85 99 b2 3c 8b db 3d 3b e7 88 cd 3d ab 5b de bc
       0.02180172 0.002896997 0.10035878 -0.02714332

cnn3.bias f4 [32]
000000 ec 79 9c 3c d9 82 32 3d e6 47 c2 bd 26 55 93 bc
       0.019101106 0.043581817 -0.0948637 -0.017984938
000010 e8 0a 05 3d 53 f9 f0 bc 68 84 09 bd 91 06 ef 3d
       0.032481104 -0.029415762 -0.033573538 0.11671174
000020 f0 fa 21 bc 84 49 79 bd 2e 07 23 3c 28 99 d2 bc
       -0.009886488 -0.060861126 0.009950442 -0.025707796
000030 7b a9 5c bc 28 35 4e 3d 9c d0 97 bc e2 44 00 3e
       -0.013468142 0.050343663 -0.01853209 0.12526277
000040 18 f4 90 bd 48 e9 9c 3b 59 a5 2d bd f2 3c 82 bd
       -0.07077807 0.0047885515 -0.042394016 -0.06359281
000050 8d 4d 91 bd 5d d6 f3 bc 57 64 8f bd 61 39 77 bd
       -0.0709487 -0.029765302 -0.0700156 -0.060357455
000060 0a 8b 3b bc 0b 5d 0f bd 61 2b 88 bd 31 d7 e4 3c
       -0.011446724 -0.035000842 -0.06648899 0.027934643
000070 37 85 08 bc f5 23 c7 3d 25 ef b1 3c a8 9b 19 3e
       -0.008332542 0.09723655 0.021720478 0.15000784

fc1.weight f4 [128, 768]
000000 05 49 db bc a7 35 cb 3c 82 6e a1 3c f6 91 72 3c
       -0.026768217 0.024805857 0.019706015 0.014805308
000010 ef 9b fb 3c 08 54 03 bd 69 18 42 bd 25 dc 80 3c
       0.030714003 -0.03206256 -0.04738656 0.015729973
000020 de 13 91 bc 68 6b 33 bc 7c 37 c3 bc 80 b6 0c 3a
       -0.017709669 -0.010950901 -0.023830168 0.0005367771
000030 f8 8c d8 ba 99 01 33 3b 1a 91 1e bc dc 43 9d 3c
       -0.0016521504 0.0027314185 -0.00967815 0.019197397
000040 fd 3c fb 3b 34 de 41 bc 82 e3 2e bc 24 54 35 3c
       0.0076671825 -0.0118327625 -0.010674359 0.011067424
000050 fe eb be bc ba c7 89 3c 10 98 e7 bc 6e 1f 4f bc
       -0.02330589 0.01681887 -0.028270751 -0.012641771
000060 af 58 16 bd 9b ff e4 bb 7f 84 15 bd 71 95 0f bc
       -0.03670567 -0.0069884784 -0.03650331 -0.008763657
000070 ab e2 3a 3b d9 96 fc bc c0 90 9b bc b3 0e f1 3c
       0.0028516452 -0.030833649 -0.01898992 0.029425954
000080 6e 3e 20 bd 20 76 81 3c 23 6c 27 3d 74 61 45 bc
       -0.039122038 0.015803397 0.04087461 -0.01204716
000090 9a 99 d5 3c ef 68 0f 3d b8 f4 02 bc 6c 36 af ba
       0.02607422 0.03501218 -0.007992916 -0.0013367659
0000a0 00 0f 21 3c b0 35 0f bc fe 11 be 3c ac 93 57 bd
       0.009830236 -0.008740827 0.023201939 -0.052631065
0000b0 8a e0 27 bd e1 45 92 3c ce fd fd bc eb ce 2d bd
       -0.04098562 0.017855586 -0.031004813 -0.04243366
0000c0 07 2f 26 bd fc 01 34 3c 40 8e 02 bd bb fe 06 bd
       -0.040572193 0.010986801 -0.03187394 -0.032957774
0000d0 b1 a7 1c bd 76 0d b3 bb 34 24 05 3c 2c 4d 79 bc
       -0.03824586 -0.005464251 0.008126307 -0.015216153
0000e0 92 93 0a bc 90 2f af bc 91 57 1a 3c 4f fc e8 3c
       -0.008458035 -0.021384984 0.0094202915 0.028440623
0000f0 dd b2 0c bd 44 0a 95 bc 62 cf f7 bc f1 80 3e bd
       -0.034350265 -0.018193372 -0.030250255 -0.046509687
000100 27 e7 bf 3c df 95 4b 3c 46 61 6e bc b9 b8 23 bc
       0.023425652 0.012425869 -0.014549559 -0.009992772
000110 c8 5c 1b bd c3 a1 9d 3c 7c 67 ad 3c 42 0c 0f bd
       -0.03793028 0.019242173 0.02116751 -0.0349238
000120 28 49 fb bb 30 9e 52 3c 71 c8 c3 bc 46 0c 91 bc
       -0.007668633 0.012855098 -0.023899289 -0.017706048
000130 36 d8 e8 3c 19 21 8c 3c 6d f7 be 3c d5 db 9c 3b
       0.02842341 0.017105626 0.023311341 0.004786948
000140 a1 69 91 ba 1b e8 e0 3b 9b da 80 3c 96 af b5 bc
       -0.0011094102 0.0068636066 0.01572924 -0.022178452
000150 87 ed 02 bd 7c ae d1 3c 12 db 92 3a a6 e1 23 bc
       -0.031964805 0.025595896 0.0011204204 -0.010002529
000160 31 d9 da 3b b3 91 c1 bc e5 a2 32 bb 8f 70 e0 bc
       0.0066787233 -0.023629045 -0.0027257737 -0.027397422
000170 61 c2 03 bb 3d 51 21 bd 7a 85 21 3b 53 80 02 3d
       -0.0020104873 -0.039384115 0.0024646209 0.03186066
000180 0a 85 c3 3c e2 7d 01 bd 5b 7e 3e 3b 32 ae 93 3b
       0.023867149 -0.03161419 0.0029067013 0.0045068497
000190 f4 8c 49 ba 4a 28 9b 3b 9f 56 bd bc 4f 59 07 bc
       -0.0007688545 0.0047350274 -0.023112593 -0.008261039
0001a0 22 9e 1c bd 8a bf 47 bc 13 07 89 bc 01 99 da bb
       -0.038236745 -0.012191663 -0.016727006 -0.0066710715
0001b0 cd b5 65 3c 07 01 f0 bb db 1b 87 bc e8 93 14 bd
       0.014020395 -0.007324341 -0.016492775 -0.036273867
0001c0 5a f8 09 3c e2 21 22 3c 74 78 3b 3c e1 b2 e5 bc
       0.008421028 0.009895774 0.0114422925 -0.028039398
0001d0 1f 1e 6a 3c 1e 51 03 3a 87 1d 90 bc 2f f8 e8 3a
       0.014289408 0.0005009341 -0.017592205 0.001777416
0001e0 83 03 e8 3c 5d f6 21 bd 34 93 be 3b cd 8a 3a 3c
       0.028321987 -0.03954159 0.005815888 0.011385632
0001f0 54 71 ff bc cc 32 20 bc 00 ed e2 3a 7c cc 06 bd
       -0.031181969 -0.009777736 0.0017313063 -0.032909855
000200 ab 04 19 3d 66 34 a0 3c a5 b1 4c 3c 4b c0 8c 3b
       0.037357967 0.019556236 0.012493526 0.004295384
000210 d0 35 ce 3c 3d a0 4c 3b 1a a1 86 bc da 3c c5 bc
       0.025172144 0.003122344 -0.016434241 -0.024076868
000220 d2 01 06 bd 28 c4 3d 3c 26 ce 80 3c e0 89 d9 3c
       -0.03271658 0.011582412 0.0157233 0.026555002
000230 cf 45 8f 3b bc 91 9b 3c 98 8f 42 3b 0d 24 04 bd
       0.0043723355 0.01899039 0.002968764 -0.032260943
000240 52 93 c5 bc 70 dd 4b 3c b0 5b 0b 3d c0 48 e0 3c
       -0.0241181 0.0124429315 0.034022987 0.02737844
000250 30 11 31 3b a2 3a 40 bc cc 05 dd 3c 46 e7 10 3d
       0.0027018301 -0.011732729 0.026980303 0.03537681
000260 b6 e2 0d 3d c0 0f 20 3c 32 a3 b1 3c 74 da c6 bb
       0.034640037 0.00976938 0.021684263 -0.006068522
000270 66 c4 a6 bc 0c fc f0 bb f4 25 0b 3d f4 e7 0d 3d
       -0.020357322 -0.007354265 0.03397174 0.034645036
000280 44 39 81 3c 40 75 92 3c 64 64 1c 3c 77 70 a4 bc
       0.015774377 0.017878175 0.009545419 -0.020073159
000290 7c 5a fd bb a5 95 06 3d 4e 1b f9 bc fa 48 44 bc
       -0.007731734 0.032857556 -0.030408528 -0.01198029
0002a0 0b 46 63 bc 6b 35 3b 3c bb ab e7 ba f2 84 ee bb
       -0.01387168 0.01142631 -0.0017675081 -0.007279032
0002b0 ea db 63 3b d9 d9 44 bc 5b 42 71 bd 8c d1 8d bc
       0.003476853 -0.01201483 -0.058901172 -0.017311834
0002c0 75 63 d2 3c d2 f1 9e bc ec 79 ae bc 03 bf 24 bd
       0.02568219 -0.019402418 -0.021298371 -0.040221225
0002d0 6e bd f4 bb ee 7a 10 bd df 0a a6 3c fa 58 2d 3a
       -0.007468871 -0.035273485 0.020268856 0.0006612685
0002e0 a4 ac 37 bd f9 10 2f bd d7 b9 17 bc d2 71 28 bd
       -0.044842377 -0.042740796 -0.009260616 -0.041124173
0002f0 63 46 7f bb 5b 7d ad bc 38 50 16 3c 24 d2 2e bd
       -0.0038951866 -0.021177938 0.009174399 -0.042680874
000300 df 3c 0a 3b ff 62 8e ba 8f 48 a7 bb ec 91 07 bd
       0.002109341 -0.0010863243 -0.005105085 -0.033098146
000310 2c 4f 00 bd b0 bc ec 3c 1c 3e c7 ba 51 a7 32 bc
       -0.031325504 0.028898567 -0.0015201005 -0.010904149
000320 fc 6f f5 bc 51 95 4a bc 3b b4 31 3c 04 44 f8 bc
       -0.029960625 -0.012364701 0.010846193 -0.03030587
000330 be ed ab bc a9 81 ad bc 16 46 00 bc dd b7 59 bc
       -0.020987388 -0.02117999 -0.00782921 -0.013288465
000340 e2 69 9e 3c 97 fd b5 bc 22 60 30 3c 77 f6 11 bc
       0.019337598 -0.022215648 0.010765107 -0.008908859
000350 ab 0d a6 3c 45 d8 0d bd 64 82 03 3d c0 44 da 3c
       0.02027019 -0.03463008 0.032106772 0.02664411
000360 47 11 0d bd bd fa 17 bd 7a d9 18 bd d0 4f c5 3c
       -0.034440305 -0.037104357 -0.037316777 0.02408591
000370 ea 31 10 bc 19 6f 5e 3c cf d7 04 3d 05 53 13 bd
       -0.008800963 0.013576292 0.032432374 -0.035967845
000380 83 a0 8d bc e7 b4 59 bc 09 e1 92 3c 19 0b 8a 3c
       -0.017288452 -0.013287759 0.01792957 0.016850995
000390 5e 74 d1 bc 92 14 c2 bc 27 b8 ca 3c d8 64 06 3d
       -0.025568184 -0.02369145 0.024746014 0.032811016
0003a0 eb e2 e9 3b f1 0d 96 bc d9 34 40 3c eb 4a db ba
       0.0071376464 -0.018317195 0.01173135 -0.0016730701
0003b0 45 8d a6 bc e4 2e bf 3c 82 4c 1c bd 61 7b db bc
       -0.020331034 0.023337789 -0.0381589 -0.02679223
0003c0 19 24 b2 3c 5e c4 98 3a 83 11 00 3d f4 c4 15 bd
       0.021745728 0.0011655202 0.0312667 -0.036564782
0003d0 50 83 2b 3c b4 d2 08 3d 6b 7f 2b 3a 1a 3f 37 3c
       0.010468319 0.033404067 0.0006542119 0.011184478
0003e0 b6 40 f8 bc 0f d7 0e bd ec 14 08 3c c5 1a a5 3c
       -0.030304294 -0.034873065 0.008305769 0.020154366
0003f0 8f 0b 9f bc 00 09 e3 bb 1c 10 e9 3c d1 c9 00 bd
       -0.019414691 -0.006928563 0.028450064 -0.031442467

fc1.bias f4 [128]
000000 0b ae c7 3c a0 90 11 bc f5 8d 70 3c 62 15 25 bd
       0.024374982 -0.008884579 0.014682283 -0.040303595
000010 e1 07 d3 bc 54 b6 d4 3c 9c 09 01 bd 81 70 27 bd
       -0.025760593 0.025965847 -0.031503305 -0.040878776
000020 fb e3 99 3b b6 6f 7d 3c 24 97 ab bc 84 0c e6 bc
       0.004696367 0.0154685285 -0.020946093 -0.02808214
000030 78 1c 12 bd 42 03 0d bd 38 38 1b bd 36 d3 77 bc
       -0.03567168 -0.034426935 -0.03789541 -0.01512604
000040 69 13 17 bd b2 16 a3 bc 89 e1 80 3d 94 5b ff ba
       -0.036883745 -0.019908283 0.062930174 -0.0019482248
000050 02 94 a7 bb 85 b4 c7 3d 57 e1 2f bd f2 50 a7 3d
       -0.0051140795 0.09751228 -0.04293951 0.08169736
000060 db 3a 45 bd 3e 9a 19 39 26 c9 ba bb a1 5d f0 bc
       -0.048151832 0.00014648677 -0.0057002483 -0.02934152
000070 69 23 df bc 0e 2c 8d 3c e2 42 12 bd e5 7d aa 3c
       -0.027238565 0.017232921 -0.035708316 0.020811984
000080 3c 1e 0e bd 92 63 6f 3c 45 11 07 ba e1 92 3c bd
       -0.034696802 0.014611142 -0.00051524147 -0.046038512
000090 e9 da cc bc be 6c 20 bd 95 6b b7 bc c7 ed 51 3b
       -0.025006728 -0.039166205 -0.022390166 0.0032032595
0000a0 d5 da a8 3c f8 9d c5 3d bb b1 04 bd 70 4c c6 bc
       0.02061216 0.09649271 -0.03239606 -0.02420637
0000b0 54 66 9d bc 11 18 13 bd fc d6 d1 3b 0e 84 cd 3b
       -0.019213833 -0.035911623 0.006403802 0.0062718457
0000c0 66 f8 11 bd 48 ad f0 3c a8 cc 0a 3d f6 3d d5 3c
       -0.03563728 0.029379502 0.03388658 0.026030522
0000d0 24 1d bc 3b a9 da c2 3d df 91 ee bb d4 13 14 bd
       0.0057407785 0.09514362 -0.007280573 -0.036151722
0000e0 a5 97 10 bd ba 2c fd 3b 25 f6 8d bc 40 7e b6 bc
       -0.03530087 0.007726279 -0.017329285 -0.022276998
0000f0 0c 93 29 bd 49 cc bb 3d 38 28 0b bd 58 b2 cc bc
       -0.0414 0.09169824 -0.033973902 -0.024987385
000100 a5 38 80 bc 1a 56 cf 3c 11 7d ef 3d 63 2b a3 bb
       -0.01565201 0.025309611 0.116937764 -0.0049795373
000110 2e 72 42 3c ee 32 8c 3c 8f 1a cf bb 4c b5 a3 3b
       0.011868043 0.017114129 -0.0063203047 0.0049959775
000120 d9 af 0b bc f0 fe 37 3c 93 39 52 b9 e1 61 3f 3c
       -0.008525812 0.011230215 -0.00020048609 0.011681051
000130 bf d6 1c b7 f2 8f 10 bd eb c5 24 3c c7 30 96 bb
       -9.348324e-06 -0.035293527 0.010056953 -0.0045834514
000140 94 f1 8c bc e9 9e df bb ed b3 e9 3b c8 e6 aa 3c
       -0.017205037 -0.0068243635 0.0071320445 0.020861998
000150 4b 82 05 3c e4 db df 3c 97 ac ec bc 22 84 d5 bc
       0.00814874 0.027326532 -0.028890891 -0.026063982
000160 5f f8 1b bd d5 a9 ab 3d 40 16 8a bd 18 ac e9 3d
       -0.038078662 0.08382002 -0.06742525 0.114097774
000170 04 41 29 3c f3 53 b0 bc bd ab d9 ba 17 75 24 bd
       0.010330442 -0.021524405 -0.0016606968 -0.040150728
000180 8b e0 e0 3a e6 51 90 bb ca c3 e2 bb 4d a8 35 3c
       0.0017156763 -0.0044042943 -0.0069203125 0.011087489
000190 ce e8 13 bd 01 13 2e bc 70 13 01 ba 8b 18 91 3c
       -0.03611069 -0.010624648 -0.0004923856 0.017711898
0001a0 e1 a9 90 3a da a3 77 bc c8 e2 1b bd 9c 13 84 bc
       0.0011036956 -0.015114749 -0.038058072 -0.016122632
0001b0 bb 38 f1 3d 46 7b 56 3c e1 73 ff bb cf 2e 53 bc
       0.117783986 0.013090914 -0.0077957963 -0.012889578
0001c0 26 b7 d5 3d 36 0f ae 3c 53 51 78 bd d5 44 05 bd
       0.104353234 0.021247488 -0.06062443 -0.032536346
0001d0 f4 49 2b 3c bf 65 8e 3c 2c fb af bc de 54 6a 3d
       0.0104546435 0.0173825 -0.021482073 0.057209842
0001e0 c8 5e 72 bd f4 dc 42 bc 6a f9 4e bc 97 0d 4c bd
       -0.05917242 -0.0118935 -0.012632707 -0.049817648
0001f0 e3 0e ff 3d b5 21 2c bd 14 92 07 3d 6b 80 6f bd
       0.12454011 -0.042024333 0.033098295 -0.05847208

fc2.weight f4 [128, 128]
000000 bd 2d b2 bd ce 7d 71 bd d7 26 39 bc d8 31 38 bc
       -0.0870013 -0.058957867 -0.011300764 -0.011242352
000010 36 6e f5 3c b9 7a 74 3d 02 21 33 bd 69 42 55 3d
       0.02995978 0.05968735 -0.04373265 0.052065287
000020 ce 6c 06 bb 3d b2 08 3d 3d 65 e2 3c a1 8a 04 bd
       -0.002051163 0.033373106 0.027636165 -0.03235877
000030 af f5 a4 bd 94 4a 0f 3d dd e7 a7 3d ee e7 3a bd
       -0.08054673 0.034983233 0.08198521 -0.04563134
000040 73 8e 3c bd 5e 31 ef 3c 2e 12 4e 3b 0e e0 2b 3d
       -0.046034288 0.029198345 0.0031443941 0.041961722
000050 4f a9 af 3d ae ce 77 3d d2 aa 89 3c f7 57 38 bd
       0.08577215 0.06049984 0.016805086 -0.045005765
000060 7e cb 58 3d 80 ef 18 bb f3 04 86 3d 96 4e cd bb
       0.05292844 -0.0023336112 0.06543913 -0.0062654717
000070 18 6a 68 bc 55 a0 06 bb 99 f0 b7 3d 3e 90 62 3d
       -0.014185451 -0.0020542343 0.08981437 0.05531334
000080 a2 ee a3 bd 70 5b 13 bd c7 df a1 3d 3d 67 c4 bd
       -0.080045 -0.035975873 0.0790401 -0.09590004
000090 3c e6 b0 bd 76 78 b3 3d 03 c3 ab 3d 0d 14 83 bd
       -0.08637664 0.087632105 0.08386805 -0.06400309
0000a0 c0 5c 83 bd 10 ad 9b bd 64 30 cf 3c 5c c4 e8 bb
       -0.06414175 -0.076013684 0.02529163 -0.007103486
0000b0 27 7d 1e bd e9 ca 9b 3d a6 db 64 3d 41 76 a7 3c
       -0.038693573 0.076070614 0.055873536 0.02044213
0000c0 8a e0 53 bd 2c b7 a2 bd 6c 63 07 bc d0 39 27 3d
       -0.05172781 -0.079450935 -0.00826345 0.04082662
0000d0 72 b3 56 3d df 45 e5 3d 28 49 38 bc 54 24 b5 3d
       0.052417226 0.111949675 -0.011247911 0.0884482
0000e0 20 3a fa 3c 24 81 d0 bc 90 a4 34 bc 3f b2 9b bd
       0.030545294 -0.025452204 -0.011025563 -0.07602357
0000f0 7c 52 a2 bc 4f 23 cf 3d b9 b1 b0 bd 0d 89 ce 3d
       -0.019814722 0.101141565 -0.08627648 0.10084734
000100 c2 72 0d bd 00 cc 13 3d 5e a1 fa 3d f9 77 41 bd
       -0.03453327 0.03608322 0.122378096 -0.047233555
000110 81 e1 6e 3d 0c 6b 7d bd 18 33 28 3d 07 b5 b1 3d
       0.058320526 -0.061869666 0.04106435 0.08677106
000120 b1 92 2f bd 20 2f 6b 3c 00 0b d1 3a 3a 66 17 3d
       -0.042864505 0.014354497 0.0015948713 0.036962725
000130 58 0f c3 3c 9b b5 1b 3d 40 ce eb bb 84 53 ba bc
       0.023811027 0.03801499 -0.007196218 -0.022744901
000140 3b fa 22 bc e3 e8 9c bd 23 4d 53 bd 54 f4 b9 3b
       -0.009947355 -0.07661607 -0.051587235 0.005674878
000150 08 74 a3 bd 97 01 72 bd 61 3e 83 bd 4a f5 19 3d
       -0.079811156 -0.059083547 -0.06408382 0.03758744
000160 a7 19 5d bd 61 6f 1f be 81 24 4a bd 63 94 7f bc
       -0.053979542 -0.15569831 -0.04935122 -0.015599343
000170 82 14 35 3d 2a 7f 70 3d b9 02 00 3d 70 68 91 bd
       0.04420901 0.058715023 0.031252597 -0.07099998
000180 25 e8 42 3c b8 0e 3d bd 3e 83 4d 3d fe d1 1e 3d
       0.011896168 -0.046156615 0.05017399 0.038774483
000190 9c ac 0e 3d cc 2d 17 bd 9d 0c 87 3d 15 7c 9f 3d
       0.034832582 -0.03690891 0.06594203 0.07787339
0001a0 14 eb cb 3c f6 64 45 3d e8 46 12 3c 79 22 22 bd
       0.024892367 0.048191987 0.008928038 -0.039583657
0001b0 a7 da 34 3d 32 e4 95 bd d0 90 bb bc 90 aa db 3c
       0.044153836 -0.073189154 -0.0228962 0.026814729
0001c0 a4 f0 99 3d 00 0b b9 bc da b8 79 bd 63 c4 22 bd
       0.07516602 -0.022588253 -0.060967304 -0.03973807
0001d0 fd 96 88 bd d6 3d 98 bd de e5 ae bd a2 b0 a8 bd
       -0.06669424 -0.07433669 -0.085399374 -0.08236815
0001e0 f5 7f 0d 3d d8 36 42 bc e7 4d 4f bd 21 9a 17 bb
       0.034545857 -0.011853896 -0.050611403 -0.002313264
0001f0 3f f5 9a 3d db e5 fe bc 2f 51 8c bd 67 2c 51 bd
       0.07566308 -0.031115463 -0.06851422 -0.051067736
000200 9e 0d 80 bd 3e f1 fe bc 97 50 b8 bd 90 46 eb 3b
       -0.06252597 -0.031120893 -0.08999746 0.0071800426
000210 9b a4 a4 ba e1 7c 80 3c 56 8c cc bd 70 a8 3c bc
       -0.0012561263 0.015684547 -0.099877045 -0.011514768
000220 37 85 8e 3d 5b 0a 13 3d 28 d5 ae 3a fe 7c 17 3d
       0.069590025 0.035898548 0.0013338672 0.036984436
000230 50 54 21 bd 90 2d 91 3b 26 2c 4a 3d e2 d0 3c bd
       -0.039387047 0.0044304803 0.04935851 -0.046097644
000240 a4 38 1e 3d 1c c5 19 3d 05 e2 d5 bb 30 b8 bf bc
       0.038628235 0.037541494 -0.006527188 -0.023403257
000250 73 cf 07 bc 98 fc e5 bc 9b ad 9a 3d e0 9c 65 bd
       -0.008289206 -0.028074548 0.07552644 -0.05605781
000260 51 c7 a8 3d be 50 5f 3d 08 e0 96 bd 05 77 2f bc
       0.082411416 0.05452036 -0.07366949 -0.010709529
000270 07 ce 9c bd 4a e8 3f 3d 31 f0 a9 3d bc 60 f1 bc
       -0.07656484 0.046852387 0.08297766 -0.029465072
000280 6b 23 0e bd 0e 94 62 3c 92 0e 0b bd 65 fe bd bd
       -0.034701746 0.013829244 -0.033949442 -0.092770375
000290 0f bd 96 bd 69 77 3c bd 84 75 15 3d 85 21 a0 bd
       -0.07360279 -0.046012316 0.036489025 -0.07818893
0002a0 f1 5d 79 bd f6 17 82 3c b0 9f be bc ac a7 9b bd
       -0.060880605 0.015880566 -0.023269504 -0.0760034
0002b0 4f e5 63 bd b0 a0 ce bc 6f a6 a3 3c 99 3b 1a bc
       -0.055638608 -0.025223106 0.019976823 -0.009413623
0002c0 22 e3 89 bd 79 fb 97 3d c0 d6 9a 3c 2e 9d 3b bd
       -0.06732775 0.074210115 0.018901229 -0.045804195
0002d0 10 30 12 bc d1 f7 db 3d 23 1f 40 3d 12 1e 94 bd
       -0.008922592 0.107406266 0.046904694 -0.07232298
0002e0 97 7b 2a bd e0 8c 46 bc 88 a5 85 bd 4d 56 6a 3c
       -0.04162177 -0.012118548 -0.06525713 0.014302802
0002f0 be ac 8a bd a2 e8 5d 3d 50 e9 a3 bc 6e 46 cb bd
       -0.06771229 0.054176934 -0.020008713 -0.09925543
000300 f3 da 45 bd 51 ef cf 3c 3e ff 27 3d 33 5c e5 3c
       -0.04830451 0.02538267 0.041014902 0.027998066
000310 42 17 cf bb ac 72 bb 3c ae 73 c6 bc 28 5e e3 3c
       -0.006319911 0.022881828 -0.024225082 0.027754858
000320 9d e2 93 bc db 4b 25 bd c4 11 86 bc 20 6d 74 3c
       -0.018052394 -0.040355545 -0.016365893 0.014918596
000330 7d 48 8f bd 98 54 b4 3c a3 14 20 bd cb d4 85 3d
       -0.06996248 0.022012994 -0.03908218 0.06534728
000340 b7 55 0b bc 52 9c 72 bc 4d c6 56 bd 72 3b 8a 3d
       -0.008504323 -0.0148077775 -0.052435208 0.067496195
000350 4c 59 0a 3d 5c b3 01 bd ea 24 9f bc 30 20 eb ba
       0.033776566 -0.03166519 -0.019426782 -0.001793867
000360 f8 bb 28 bd 23 2f ac bd 83 1b 9a bd dd 6c f8 3c
       -0.041194886 -0.08407428 -0.07524779 0.030325348
000370 e0 49 08 bc ee cc 3c 3d b9 5c dd bc 0c a2 ab bd
       -0.008318394 0.046093874 -0.027021753 -0.08380517
000380 15 9d 45 bd 55 70 92 bd ba de 4a 3d 88 44 3f 3c
       -0.04824551 -0.07150332 0.049528815 0.011674054
000390 b0 73 3e bd 58 1b d0 3c cf a4 8a 3d 8e f3 06 3d
       -0.046497047 0.025403664 0.06769716 0.032947116
0003a0 a0 18 33 bc a8 b0 65 3c 9a a1 75 bd 5a d7 32 3d
       -0.010931164 0.014019169 -0.05996857 0.043662407
0003b0 f9 ed e6 3d 02 26 ff bb f2 48 13 3d d2 f7 1f 3d
       0.112758584 -0.0077865133 0.035958238 0.0390547
0003c0 8e a5 2a bb be 62 4e 3d 73 bf d9 bd e6 b1 4e bd
       -0.002603862 0.050387137 -0.10632219 -0.050462626
0003d0 c8 24 60 3c 81 6e 88 3d 54 3a a6 bd a5 84 5e 3d
       0.013680644 0.06661702 -0.08116594 0.05432572
0003e0 b9 17 8b bc c5 61 8d bd 3d af 73 3d 9e 93 cd 3d
       -0.016979085 -0.06903414 0.059493292 0.10037921
0003f0 99 95 2a 3e b9 c2 b0 bd 98 5d ac 3d 97 c1 33 3d
       0.1665863 -0.086308904 0.08416289 0.043885794

fc2.bias f4 [128]
000000 f4 34 58 3d 91 76 65 3d 2d 1f 33 3d bd fa 9b 3d
       0.052784875 0.056021277 0.043730903 0.07616184
000010 f4 b3 67 3d bb dd 96 3d c2 fc 2a 3e 8d 83 eb 3d
       0.0565681 0.073665105 0.16697982 0.11499701
000020 18 da 43 bd c9 94 d0 3d f6 b0 61 bd cb c1 ca bc
       -0.047815412 0.101846285 -0.055100404 -0.02475061
000030 3a 55 1d 3e a7 87 0b 3d cc ae c8 bd e8 01 ab 3d
       0.15364543 0.034064915 -0.09798965 0.08349973
000040 7e f5 8c 3d 2d 6f d8 3d 33 31 c7 3d cd 66 ba bb
       0.068827614 0.1056808 0.09726181 -0.0056885243
000050 3d fa 40 bd 0c 75 b8 3d 99 ab fc 3d 23 3f 57 3e
       -0.047113646 0.090067 0.12337417 0.21020178
000060 87 f9 13 3e 58 5a 1b 3d 19 57 f1 3d b8 4c 1c 3e
       0.14450656 0.037927955 0.11784191 0.15263641
000070 28 e9 d1 bb d7 4e 17 3c 62 79 ad 3d d6 d6 52 3d
       -0.006405968 0.0092351055 0.084704176 0.051474415
000080 33 2f 3d 3e c9 ed c1 bd f0 3c 50 3e 44 2c f8 3b
       0.18475036 -0.09469182 0.20335746 0.0075736362
000090 cc d4 02 3d 9a 0c 42 3e 67 6a 83 bd e3 0a 68 bc
       0.03194122 0.1895012 -0.06416779 -0.014162752
0000a0 66 ee 2e 3d 3b 8b 0d bc 84 23 7c bc 05 23 3f 3c
       0.042707823 -0.008639152 -0.015389327 0.011666064
0000b0 f5 2b 39 3e c1 46 03 3e 8c 21 84 3d a3 44 84 3c
       0.18083175 0.12819959 0.06451711 0.01614601
0000c0 74 ef 06 be 25 a6 aa 3c 2c b2 f4 3d 2a ed 54 3d
       -0.13177282 0.020831177 0.11948046 0.05198399
0000d0 c1 17 2b 3d a3 08 06 3c bf f6 45 3e 70 1a d4 3d
       0.0417707 0.00818077 0.19332407 0.10356605
0000e0 bf 2d b4 3b c7 73 b7 3d 63 5c 23 bd 97 d7 27 3d
       0.0054986174 0.0895763 -0.03988303 0.040977087
0000f0 4c 29 75 39 09 5d 3d bd 50 ac 3f 3e 82 66 1d bd
       0.00023380405 -0.046231303 0.18718076 -0.038427837
000100 b6 2e 71 bc f2 16 9d bd 90 32 3e bd 5a 32 94 3d
       -0.014720609 -0.07670392 -0.04643494 0.07236166
000110 35 6b c4 3d 0d e9 02 3e cc e5 bd 3d 42 0b 9a 3d
       0.095907606 0.12784214 0.09272346 0.075216785
000120 4e ed 69 bd 70 cd c3 3d 36 a7 03 3c 39 0b a4 3c
       -0.057111077 0.095606685 0.008035472 0.020024883
000130 2a b3 f2 3c 8f dd 5f 3d c5 7a 12 be b4 b5 41 bc
       0.029626448 0.054654654 -0.14304645 -0.011823107
000140 c1 5c 16 3d 8d 17 4e 3d 50 c6 48 3e 0a ed 41 3c
       0.03670955 0.05031543 0.196069 0.0118363
000150 d0 a8 2b 3d c2 ec 2d 3b 52 a5 73 bd 46 80 00 3e
       0.04190904 0.0026538824 -0.059483834 0.12548932
000160 20 26 25 be a1 32 3b 3e 97 cd 10 3e 4b f2 33 3e
       -0.16127825 0.18281032 0.14140926 0.17572896
000170 c0 75 f8 3c 08 a2 cf 3c ad 57 0e 3d 2a 54 2b 3e
       0.030329585 0.025345817 0.034751583 0.16731325
000180 b8 e0 19 3d 34 77 34 3c ee 68 e3 3c 57 25 eb 3d
       0.037567824 0.011014748 0.027759995 0.114817314
000190 b3 62 92 bb c8 0d fb 3c 49 5d 02 3c 24 b3 72 3d
       -0.0044673323 0.03064622 0.007956811 0.059252873
0001a0 69 4c cb 3d c1 12 4a 3e 1b 13 63 3c 96 24 ae 3c
       0.099266835 0.19733717 0.013859536 0.02125768
0001b0 b4 75 49 3e c9 9b 23 3e 9d a0 f1 bc 00 cc 8d bd
       0.19673806 0.15977396 -0.029495532 -0.069236755
0001c0 63 fb a9 bd 2f ce 3d 3e 46 b6 c5 3d e8 03 55 3e
       -0.08299901 0.18535684 0.096539065 0.20802271
0001d0 0e 67 27 3e 81 52 69 3d 93 b0 8c 3e c0 11 0e 3e
       0.16347906 0.056963447 0.27478465 0.13873959
0001e0 fb cd 1c 3e 7b f9 84 3c 71 e6 19 3e 38 f7 b9 bd
       0.1531295 0.016232243 0.15029313 -0.09080356
0001f0 fb dc 90 3e 3a 43 d2 3d d1 26 13 bd 6f 11 3a bd
       0.28293595 0.10266729 -0.03592569 -0.045426782
