models/dqn_model_epoch_8000.pth (torch, 595606 bytes, 14 tensors)

cnn1.weight f4 [16, 4, 5, 5]
0	0xbdb3783b	-0.087631665
1	0xbdb613ff	-0.08890533
2	0xbd9e7251	-0.07736648
3	0xbd1210b9	-0.03566048
4	0xbe119084	-0.14215285
5	0xbd69d740	-0.057090044
6	0x3d16a46f	0.03677791
7	0xbdf86d30	-0.12130201
8	0xbd58ba80	-0.052912235
9	0xbd578aad	-0.052622486
10	0xbdc3dddf	-0.09563803
11	0x3d6434d5	0.055714447
12	0x3d01c0fd	0.03167819
13	0xbe0ea620	-0.13930559
14	0x3d53e2d2	0.051729985
15	0x3c8ee514	0.017443217
16	0x3bb92bab	0.0056509576
17	0xbe4aa029	-0.19787659
18	0xbc5d79d3	-0.013517815
19	0x3d2d49b1	0.042306606
20	0x3d54032d	0.05176084
21	0x3d963c31	0.07335699
22	0xbb70206b	-0.0036640416
23	0xbe2c13e1	-0.16804458
24	0xbd3df8ee	-0.046379976
25	0x3cbec36d	0.023286546
26	0x3d8e2451	0.069405206
27	0x3d619c26	0.055080555
28	0xbb877c01	-0.0041346555
29	0xbda1ac71	-0.07894219
30	0xbd8e5e12	-0.06951536
31	0xbc0f1ae1	-0.008734436
32	0xbdc24e7c	-0.09487626
33	0xbdf2ffea	-0.11865218
34	0xbd9f6ae9	-0.07784063
35	0x3c8b480e	0.017002132
36	0x3b668333	0.0035173416
37	0xbe2bc5bf	-0.16774653
38	0xbdfc135b	-0.12308379
39	0xbd8b1f96	-0.06793134
40	0x3d56cae3	0.05243958
41	0x3d30e34d	0.04318552
42	0xbd8daa51	-0.06917251
43	0x3c99f79d	0.018794829
44	0xbc71a9ed	-0.014749986
45	0xbbf00be3	-0.0073256358
46	0xbd56a02a	-0.052398838
47	0x3d987cd9	0.07445688
48	0xbcaf753a	-0.021418203
49	0x3d6cbb5d	0.05779587
50	0xbdb43132	-0.08798446
51	0x3e0e33e9	0.1388699
52	0xbcdcbfdd	-0.026946956
53	0xbe6e5991	-0.23276354
54	0xbd32ae8f	-0.043623503
55	0x3dc1515e	0.09439348
56	0x3df071bf	0.11740445
57	0xbe826e0f	-0.25474593
58	0xbe1a8d12	-0.15092877
59	0xba2a9d45	-0.00065084203
60	0xbe0d98cb	-0.13827817
61	0xbd95e78a	-0.07319553
62	0xbe8721fd	-0.26393119
63	0x3e0df356	0.13862357
64	0xbd3cbc13	-0.0460778
65	0xbd6ba792	-0.057532854
66	0xbe8c71e3	-0.2743064
67	0xbe43f17a	-0.19135085
68	0x3e2d0a0f	0.16898368
69	0x3da2202e	0.07916294
70	0xbe03905b	-0.12848036
71	0xbe8f7dfa	-0.280258
72	0xbe759214	-0.23981506
73	0x3c0f1ba8	0.008734621
74	0x3d73d632	0.059530444
75	0xbdade852	-0.08491577
76	0x3e1f8c7e	0.15580937
77	0x3d7c1363	0.061541926
78	0xbe438d7e	-0.19096944
79	0xbe10892d	-0.14114828
80	0xbdbc7174	-0.09201327
81	0x3e8cba9c	0.27486122
82	0xbe5afd3a	-0.21385661
83	0x3e769638	0.24080741
84	0xbe4bb842	-0.19894508
85	0x3e481ff7	0.19543444
86	0x3e3ae22a	0.18250337
87	0x3df9f063	0.12204053
88	0xbb1f106b	-0.002427126
89	0x3d71acc2	0.059002645
90	0xbdaece58	-0.08535451
91	0xbe00120b	-0.12506883
92	0xbe7e0c19	-0.24809302
93	0xbe67a74f	-0.22622417
94	0x3e0876bc	0.13326544
95	0xbd82eb58	-0.063925445
96	0xbe0b01ef	-0.13574956
97	0xbe803720	-0.25042057
98	0xbe357315	-0.17719682
99	0xbd3fb05a	-0.04679904
100	0xbe221288	-0.15827382
101	0xbd718919	-0.058968637
102	0xbdfb114e	-0.1225916
103	0x3d53edeb	0.051740568
104	0x3c77a11d	0.015114096
105	0xbe40a5a9	-0.18813194
106	0x3c667b2c	0.014067452
107	0xbd6b5e65	-0.05746307
108	0x3ce5d79e	0.028056916
109	0xbcc74900	-0.024326801
110	0xbcf37722	-0.029719893
111	0xbced2cb3	-0.028951978
112	0xbdfaab8e	-0.12239753
113	0x39b83774	0.0003513653
114	0x3e20b317	0.15693317
115	0xbdfec6a3	-0.12440231
116	0xbc995c40	-0.018720746
117	0xbc662698	-0.014047287
118	0x3dbce5ac	0.09223494
119	0x3c936585	0.017992744
120	0xbe632ab2	-0.22184256
121	0xbc97e38d	-0.018541122
122	0xbe86eb4c	-0.26351392
123	0x3e2296e4	0.15877873
124	0xbd1a7042	-0.037704714
125	0xbd13e38d	-0.03610568
126	0x3cb76553	0.022387182
127	0x3d997a54	0.07494035
128	0x3b213853	0.0024600222
129	0x3bef45cd	0.007302022
130	0xbd9b0d6c	-0.075709194
131	0xbd2c4883	-0.04206134
132	0xbdbd5e6a	-0.09246524
133	0xbb3aa1d6	-0.002847781
134	0x3c8ff740	0.017573953
135	0xbcfdae7d	-0.030966992
136	0xbcce2618	-0.025164649
137	0xbd96496a	-0.07338221
138	0x3d99fece	0.07519303
139	0x3cc18858	0.023624584
140	0xbd490e3d	-0.049085844
141	0xbd2f1026	-0.04274001
142	0xbde981f9	-0.114017434
143	0xbdac51eb	-0.08414062
144	0xbc8c365e	-0.017115768
145	0x3b4b9fad	0.0031070516
146	0xbdabcfe9	-0.08389265
147	0xbc319ec6	-0.010841077
148	0xbd02536c	-0.03181784
149	0x3c35bd0b	0.011092435
150	0xbd26b8b7	-0.0407035
151	0x3b20ed5f	0.0024555547
152	0x3c8dec19	0.017324494
153	0x3c18e9ad	0.009333056
154	0xbcd9fb4f	-0.026609091
155	0xbb78395f	-0.0037875993
156	0xbc3899b2	-0.011267113
157	0xbe631a7b	-0.2217807
158	0xbe4d3266	-0.20038757
159	0x3d5dfb9f	0.054195043
160	0xbda37762	-0.07981755
161	0xbdb6894f	-0.08912908
162	0x3e535a72	0.20639971
163	0xbbe3f9af	-0.006957255
164	0xbe045d2f	-0.12926172
165	0xbea903a1	-0.3301058
166	0xbe93ed9e	-0.28892225
167	0xbe71aab1	-0.2360027
168	0x3e5aa282	0.21351054
169	0x3d65f9d0	0.056146443
170	0xbe9dc4cb	-0.30814204
171	0xbe8691ef	-0.26283213
172	0xbe617d97	-0.22020565
173	0xbd727dc0	-0.059201956
174	0xbe188d83	-0.14897732
175	0x3e4350a8	0.19073737
176	0x3e3d7ee3	0.18505435
177	0xbdb11ae8	-0.0864771
178	0xbe7aaac5	-0.24479206
179	0x3e36fe78	0.1787051
180	0x3e4d7cb6	0.20067105
181	0x3e75c27f	0.23999976
182	0x3e6f41b4	0.23364908
183	0x3c9b2b30	0.018941492
184	0xbe84c5a0	-0.25932026
185	0xbe18b618	-0.14913213
186	0xbe14c1fc	-0.14527124
187	0xbe1d879a	-0.15383759
188	0x3e808b2c	0.2510618
189	0x3e808aac	0.25105798
190	0x3d8c3cda	0.06847544
191	0xbdd11fcb	-0.10211142
192	0xbc54ff82	-0.013000371
193	0xbeb89b47	-0.36055967
194	0xbe3de7fa	-0.18545523
195	0xbe32dc5a	-0.1746687
196	0x3d1c60a7	0.038178112
197	0x3dda6472	0.1066369
198	0xbe2cd71d	-0.16878934
199	0xbe3476d1	-0.1762345
200	0xbd5e6e3c	-0.054304346
201	0xbd8a72a2	-0.06760146
202	0xbdfa203d	-0.1221318
203	0xbe2e0ba4	-0.16996628
204	0x3d9fdbf6	0.07805626
205	0xbde225f5	-0.11042396
206	0xbd1385c2	-0.036016233
207	0xbdccfcf8	-0.100091875
208	0xbdda5555	-0.10660807
209	0xbcb7e040	-0.022445798
210	0x3b6703f9	0.003525017
211	0x3d5f541c	0.054523572
212	0xbe2bbda3	-0.1677156
213	0xbb61b58c	-0.0034440486
214	0xbdb4a7b6	-0.08821051
215	0xbc760d89	-0.0150178755
216	0x3d358dc8	0.044324666
217	0xbdb041d8	-0.08606309
218	0x3c5d868e	0.01352085
219	0x3c6b30db	0.01435491
220	0xbe015481	-0.12629892
221	0xbe1711da	-0.14752904
222	0x3dae16c0	0.08500433
223	0x3d051f15	0.032500345
224	0x3d0c17b3	0.03420229
225	0xbd6e14c9	-0.05812529
226	0x3d3d5c75	0.046230752
227	0x3dbdceff	0.09267997
228	0x3d60021a	0.054689504
229	0x3d6ff94e	0.058587365
230	0xbca78345	-0.020448336
231	0xbd508d74	-0.05091615
232	0xbd15b15f	-0.036546107
233	0x3d875bd7	0.06609314
234	0x3ce76611	0.028246911
235	0xbd467d0e	-0.048459105
236	0x3d8d7fb2	0.069091216
237	0x3d8d5144	0.06900266
238	0x3d522a56	0.051309906
239	0x3d56e6b6	0.052466117
240	0xbdc99c3a	-0.09844251
241	0x3c24deb5	0.010062863
242	0xbda78ada	-0.08180781
243	0xbdc10d0e	-0.09426318
244	0x3d1c1d45	0.03811385
245	0xbda30f1a	-0.07961865
246	0x3d36c71c	0.04462348
247	0xbd716daa	-0.058942474
248	0xbda25fc4	-0.07928422
249	0x3d6f4314	0.05841358
250	0x3dac212e	0.08404766
251	0xbd0c535b	-0.03425918
252	0x3dd6c9dc	0.1048772
253	0xbe34e8b6	-0.17666897
254	0xbdcf9607	-0.10136037
255	0x3e358ff7	0.177307

cnn1.bias f4 [16]
0	0xbd50c5da	-0.050969936
1	0x3d8aeb74	0.0678319
2	0xbde65812	-0.11247267
3	0x3d5f1fed	0.054473806
4	0x3d0b8041	0.03405786
5	0x3d7a0e34	0.0610487
6	0xbd1c0823	-0.038093697
7	0xbd435474	-0.047687963
8	0xbd763e95	-0.060118277
9	0xbd69e24b	-0.057100575
10	0xbd92d730	-0.0716995
11	0xbdd8d797	-0.105879955
12	0x3d383210	0.04496962
13	0x3ab247c3	0.0013601709
14	0x3da506d1	0.08057941
15	0x3d6494ee	0.055806093

cnn2.weight f4 [32, 16, 3, 3]
0	0x3dd89d3b	0.10576864
1	0x3e0702b5	0.13184626
2	0x3e17a2ba	0.14808169
3	0x3e1c3d81	0.15257837
4	0x3dee85fb	0.116466485
5	0x3da46b02	0.080282226
6	0x3d392a7d	0.045206536
7	0x3e28ef80	0.16497612
8	0x3dcc417e	0.09973429
9	0x3e594932	0.21219328
10	0x3d8c2261	0.06842495
11	0x3dc2e700	0.09516716
12	0x3da10762	0.07862736
13	0x3de16474	0.11005488
14	0x3dfb217f	0.12262248
15	0x3e0b2ebe	0.1359205
16	0xbb8a6abc	-0.0042241495
17	0x3e08291a	0.13296929
18	0x3d2a002e	0.041504078
19	0xbd84a299	-0.064763255
20	0xbbdd3a43	-0.00675133
21	0xbd337576	-0.04381319
22	0x3d70aa0b	0.058755916
23	0x3d29ef4e	0.041487984
24	0xbbcce7bf	-0.006253212
25	0xbdae831c	-0.08521101
26	0xbd64879a	-0.055793382
27	0x3d9b8e45	0.07595495
28	0xb98e69b5	-0.00027163108
29	0x3dc29bb3	0.095023535
30	0x3d9fb5dc	0.07798359
31	0x3d9a99de	0.07548879
32	0x3b576a30	0.003286969
33	0x3ddcdedf	0.10784697
34	0x3d35d9fa	0.04439733
35	0x3ce162fe	0.027513023
36	0x3e3671f7	0.17816912
37	0x3df4d20b	0.11954125
38	0x3e465958	0.1937002
39	0x3d709cb5	0.058743197
40	0x3e2c2915	0.16812547
41	0x3daea8f5	0.0852832
42	0x3dfbc0ae	0.1229261
43	0x3ce1fcca	0.02758636
44	0x3dcf637d	0.10126398
45	0x3d5b4112	0.053528853
46	0x3cc55881	0.024090054
47	0xbd3abd58	-0.04559073
48	0xbd4ec231	-0.050478164
49	0x3cfd0bbe	0.030889388
50	0xbd44711a	-0.047959425
51	0x3d8afa16	0.06785981
52	0x3b5d1fc5	0.003374086
53	0xbae923c2	-0.0017787146
54	0x3d2741c9	0.040834222
55	0x3e381e9b	0.17980425
56	0x3e66b2ed	0.22529192
57	0x3e4ecf20	0.201962
58	0x3e1b4132	0.15161589
59	0x3d8d64fa	0.069040254
60	0x3e8aceab	0.271108
61	0x3e9052d5	0.28188196
62	0x3e1508aa	0.14554086
63	0x3e2e9a02	0.17050937
64	0x3e2d2004	0.16906744
65	0x3ea87a05	0.32905594
66	0x3e052da0	0.13005686
67	0xbc84052c	-0.016115747
68	0x3e559ef9	0.20861425
69	0x3b4d59f0	0.0031334125
70	0x3ceff597	0.029291911
71	0x3e2f4af9	0.17118444
72	0x3dd8d2ea	0.10587104
73	0x3dcd92ee	0.1003779
74	0xbc111b9d	-0.008856681
75	0x3e0892a0	0.13337183
76	0x3c208702	0.009797813
77	0xbcd249ab	-0.025669893
78	0xbd6484ca	-0.0557907
79	0xbd6ee644	-0.058325067
80	0x3c18ab70	0.009318218
81	0x3cf78243	0.03021348
82	0xbc16c6b3	-0.009202647
83	0x3d14e6c6	0.036352895
84	0x3dbd066c	0.092297405
85	0x3d8fa71c	0.070142955
86	0x3d4602a5	0.048342366
87	0xba7d7b9f	-0.0009669605
88	0x3c8e1758	0.017345116
89	0xbd58ba13	-0.05291183
90	0x3c70aa53	0.014689046
91	0x3dafc88e	0.08583175
92	0x3df8fcdd	0.12157605
93	0x3d8df5e1	0.06931663
94	0x3d66bbd3	0.056331467
95	0x3e10f45f	0.1415572
96	0x3da6e7b1	0.081496604
97	0xbbb70d7d	-0.0055863247
98	0x3db1d796	0.08683698
99	0xbc41147e	-0.011784671
100	0x3ce60a8f	0.028081207
101	0xbc97aeab	-0.018515905
102	0xbd48e7b6	-0.0490491
103	0x3d3a1e9d	0.04543935
104	0xbd984ea5	-0.07436875
105	0x3dac4323	0.08411243
106	0xbd59d932	-0.05318565
107	0xbd97790b	-0.07396134
108	0x3e0622bb	0.13099186
109	0x3d85eccb	0.06539305
110	0x3db2a638	0.0872311
111	0x3da12267	0.0786789
112	0xbc229af2	-0.009924637
113	0xbcb2c369	-0.021821694
114	0xbd7aa34d	-0.061190892
115	0x3b4b93b9	0.0031063391
116	0x3ccf66b4	0.025317527
117	0x3c3fa291	0.011696474
118	0x3db0c0db	0.08630534
119	0x3dcc869c	0.09986612
120	0x3d968fe9	0.073516674
121	0x3d4530bd	0.048142184
122	0x3d821bc6	0.063529536
123	0x3df91b49	0.12163407
124	0x3e03b1ee	0.12860844
125	0x3daaf228	0.08346969
126	0x3d3490e6	0.0440835
127	0xbcd09f4f	-0.02546659
128	0x3c0ba51c	0.008523252
129	0xbd8d64d2	-0.069039956
130	0x3d59dda0	0.053189874
131	0x3d417c14	0.04723747
132	0xbd114b17	-0.035472002
133	0xbdade2f2	-0.08490552
134	0x3d3d49b8	0.04621288
135	0xbcaa978a	-0.020824213
136	0x3c9dd82e	0.019268122
137	0x3da65bad	0.081229545
138	0xbd2ff3c0	-0.042957067
139	0xbd03db0c	-0.03219132
140	0xbd3bacb9	-0.045819018
141	0xbd0f8577	-0.03503939
142	0xbb5b6a17	-0.0033479983
143	0x3d691855	0.05690797
144	0xbd03f535	-0.03221627
145	0x3d1a78a0	0.037712693
146	0xbd462ccc	-0.048382565
147	0x3cf26e1a	0.029593516
148	0x3e01f237	0.12690054
149	0x3cd0f3ce	0.02550688
150	0x3e810437	0.25198528
151	0x3e490736	0.19631657
152	0x3d66f526	0.056386136
153	0x3d654716	0.055975996
154	0x3c929005	0.01789094
155	0x3cf3cd21	0.029760899
156	0x3e03d33c	0.12873548
157	0x3c14688c	0.009058129
158	0xbddd0d72	-0.1079358
159	0x3e3593b6	0.17732129
160	0x3da589cc	0.08082923
161	0x3dd85ced	0.10564599
162	0x39804b10	0.00024469988
163	0x3d4e440e	0.05035787
164	0x3cdd03c3	0.026979333
165	0x3d1a2e93	0.037642073
166	0x3d6ef092	0.058334894
167	0x3ceb8596	0.028750222
168	0x3ce3a0fb	0.027786722
169	0xbd39a427	-0.045322563
170	0x3d0dc246	0.0346091
171	0x3dabfa89	0.08397395
172	0xbd6c1603	-0.05763818
173	0xbe268ee0	-0.1626544
174	0x3e307b73	0.17234592
175	0xbe09191c	-0.13388485
176	0x3dc4cf5c	0.09609863
177	0x3d8eccd1	0.069726594
178	0xbd89b6f8	-0.06724352
179	0x3e00ede0	0.12590742
180	0xbaa48694	-0.0012552314
181	0x3ccf9f95	0.02534465
182	0xbcc6362f	-0.024195759
183	0xbdeffe8c	-0.11718473
184	0x3d04d0fc	0.032425866
185	0x3e27b322	0.16376927
186	0x3e18e670	0.14931655
187	0x3d9159be	0.07097195
188	0x3e948e7d	0.2901496
189	0xbdbc6090	-0.09198105
190	0xbc0fd8d5	-0.008779724
191	0xbdc62e00	-0.096767426
192	0xbe003587	-0.12520419
193	0x3ccf7717	0.025325341
194	0x3c347209	0.011013516
195	0xbbaff5f6	-0.005369897
196	0x3d82abc2	0.063804165
197	0x3df75366	0.12076454
198	0xbd5c1857	-0.05373415
199	0x3e11b60b	0.142296
200	0xbdf81863	-0.121140264
201	0x3e0ea89d	0.13931508
202	0x3e0fc27a	0.1403903
203	0x3e1ac014	0.15112334
204	0x3eb5cdb9	0.35508516
205	0x3e74454d	0.23854561
206	0x3e516475	0.20448478
207	0x3d7a3869	0.061088953
208	0x3cbd85c0	0.023135066
209	0x3b7ed006	0.0038881316
210	0x3d77f01b	0.060531717
211	0xbba70cb3	-0.0050979494
212	0x3e1d556d	0.15364619
213	0x3caed5cb	0.021342179
214	0xbcb50503	-0.022097116
215	0x3e175b67	0.14780961
216	0x3daa4cad	0.08315406
217	0x3c44f131	0.012020395
218	0x3d115aba	0.035486914
219	0x3db8ea70	0.090290904
220	0x3dc5b78f	0.09654152
221	0x3d7495b1	0.05971307
222	0x3e142556	0.14467368
223	0x3e273e38	0.16332328
224	0x3e6323f6	0.22181687
225	0x3c2e35c3	0.010632935
226	0xbc8c754b	-0.017145773
227	0x3db92039	0.09039349
228	0xb890b0be	-6.899376e-05
229	0xbdd792ec	-0.1052607
230	0xbb0cdc3b	-0.0021493572
231	0x3d667fc2	0.056274183
232	0x3d037b5b	0.032100063
233	0x3d94a975	0.07258884
234	0x3c56624d	0.01308496
235	0xbbe9af35	-0.007131482
236	0x3d3953f8	0.045246094
237	0x3d10d34c	0.03535776
238	0x3c4eaa8c	0.012613904
239	0x3bd04ad6	0.0063565774
240	0x3da71f9e	0.081603274
241	0x3dd5d5a7	0.104411416
242	0x3d322248	0.043489724
243	0x3d0f5e2b	0.035001915
244	0x3d2f52a2	0.042803414
245	0xbcf1573d	-0.029460544
246	0xba943374	-0.0011306838
247	0x3da7e198	0.081973255
248	0x3d9efd8f	0.07763206
249	0xbcc60d19	-0.024176167
250	0xbcb479de	-0.022030767
251	0xbdf18b76	-0.11794178
252	0xbc7a9812	-0.015295045
253	0x3d96ed47	0.07369476
254	0x3d40bf07	0.047057178
255	0x3ddd661a	0.1081049

cnn2.bias f4 [32]
0	0xbda37cb4	-0.079827696
1	0xbcb4bbd6	-0.022062223
2	0xbc12cf0a	-0.008960495
3	0xbd2a3252	-0.041551895
4	0xbc1e5f63	-0.009666297
5	0xbd26f798	-0.040763468
6	0xbd8d168f	-0.06889068
7	0xbd04cf15	-0.03242405
8	0xbd907970	-0.07054412
9	0xbc5cde47	-0.013480729
10	0xbd20e140	-0.039277315
11	0xbd71d824	-0.05904402
12	0xbc21619f	-0.009849935
13	0xbd9bfc31	-0.07616461
14	0xbc29df07	-0.010368115
15	0xbc83ff4e	-0.01611295
16	0xbb9e851c	-0.004837645
17	0xbd62c6a7	-0.05536523
18	0xbdc65fe9	-0.09686262
19	0x3c4e573c	0.0125940405
20	0xbb0bc129	-0.002132485
21	0xbc98c8db	-0.018650463
22	0x3bced710	0.0063122585
23	0x3ace379d	0.0015733127
24	0xbd875368	-0.06607705
25	0xbdb72abb	-0.08943697
26	0xbdb4860d	-0.08814631
27	0x3c9b250c	0.018938564
28	0xbd041dd7	-0.03225502
29	0xbc3f02d0	-0.011658385
30	0xbc16fb18	-0.009215139
31	0xbca115d0	-0.019663721

cnn3.weight f4 [32, 32, 3, 3]
0	0x3d904167	0.070437245
1	0x3c70d838	0.014699988
2	0xbdbc1a6b	-0.09184726
3	0x3d781d83	0.06057502
4	0x3adb3f76	0.0016727287
5	0x3d446875	0.04795118
6	0xbc591c6d	-0.013251406
7	0x3b6c7341	0.003607944
8	0x3c5f0d48	0.013614006
9	0x3dc7fe46	0.09765296
10	0x3d0f7b32	0.035029598
11	0xbb38ed98	-0.0028217789
12	0xbc59d58b	-0.0132955415
13	0xbb92f3f0	-0.004484646
14	0xbd57ac7e	-0.052654736
15	0xbd17e00e	-0.03707891
16	0xbddd5486	-0.10807137
17	0xbdcd2781	-0.100173004
18	0xbd18eb88	-0.037333995
19	0x3b13d44e	0.0022556963
20	0x3c27d445	0.01024348
21	0x3d64d35c	0.05586563
22	0xbd92b173	-0.07162752
23	0x3c93ba43	0.018033152
24	0x3cac7a85	0.021054516
25	0xbd41405a	-0.04718051
26	0x3b23a9d1	0.0024973045
27	0x3dec3b5a	0.11534758
28	0x3d285cd9	0.04110417
29	0xbd89c1e8	-0.06726438
30	0x3cd4d016	0.02597813
31	0xbc5bc3d6	-0.01341339
32	0x3ca91d01	0.020643713
33	0x3baf3d85	0.00534791
34	0xbd817f20	-0.06323075
35	0xbda9e808	-0.082962096
36	0x3c6ca56d	0.014443737
37	0x3d6f8335	0.05847474
38	0xbdad9594	-0.084757954
39	0xbd0e3124	-0.034714833
40	0xbd0f1289	-0.034929786
41	0xbccdbba9	-0.025113897
42	0x3b603c58	0.0034215655
43	0xbd1ad73e	-0.037802927
44	0xbd76aa77	-0.06022116
45	0x3dc0eb5a	0.0941989
46	0xbabcb4d2	-0.001439715
47	0xbd179890	-0.03701073
48	0x3d31dddb	0.04342447
49	0xbd1e7cb3	-0.03869314
50	0xbd453e25	-0.04815497
51	0xbca5a264	-0.020219035
52	0xbdb494b3	-0.088174246
53	0xbcb1adee	-0.021689381
54	0x3cc9025b	0.024537256
55	0x3d79b506	0.060963653
56	0xbdc301bf	-0.095218174
57	0xbc21d813	-0.009878176
58	0xbd75d976	-0.06002184
59	0xbc9cfc17	-0.019163175
60	0x3cd703ef	0.026246993
61	0x3cb2eaf9	0.02184056
62	0xbd4b6029	-0.049652252
63	0x3d0fbdcd	0.035093118
64	0xbd37873f	-0.044806715
65	0xbd9ea955	-0.07747141
66	0x3d684542	0.056706674
67	0xbd3fb7a0	-0.046805978
68	0x3d1c52bb	0.038164835
69	0x3d0a46ac	0.033758804
70	0xbd4959cb	-0.0491579
71	0x3c9cd6fd	0.019145483
72	0x3c80257c	0.015642874
73	0xbd07d529	-0.03316227
74	0xbcb0c784	-0.021579511
75	0x3d5e425e	0.05426251
76	0x3c1252bc	0.008930858
77	0xbd376d9f	-0.044782277
78	0xbd06c0ce	-0.032898717
79	0xbc82cbe0	-0.015966356
80	0x3cd4409f	0.02590972
81	0x3d85e6b8	0.06538147
82	0x3d5613cc	0.052264974
83	0x3cd38b2d	0.0258232
84	0x3da491d0	0.08035624
85	0x3cfceff3	0.030876135
86	0xbd0f6792	-0.03501088
87	0xba72252a	-0.0009237105
88	0xbd5e5e64	-0.054289237
89	0xbca9ed36	-0.020742994
90	0x3c4487fa	0.01199531
91	0xbdccf9f3	-0.100086115
92	0xbd63b14b	-0.055589
93	0x3d6fb4b4	0.05852194
94	0xbc6126ec	-0.01374219
95	0xbd505bdc	-0.050868854
96	0xbd0c7512	-0.034291334
97	0x3c0d33e7	0.0086183315
98	0xbc886431	-0.016649337
99	0x3c2faa0b	0.010721694
100	0xbca2229a	-0.01979189
101	0xbd87d7c7	-0.06632953
102	0x3d8e5d90	0.069514394
103	0xbd5d89df	-0.054086562
104	0xbce6e2df	-0.028184352
105	0x3cfe8d07	0.031073106
106	0xbd404d2f	-0.046948608
107	0xbdf989af	-0.12184464
108	0x3c6a0bc3	0.014285031
109	0xbd34cc3a	-0.044140078
110	0xbd2699a9	-0.040673885
111	0x3d7ecf5c	0.062209472
112	0xbd185637	-0.037191596
113	0x3d049e3c	0.032377467
114	0xbcc3b1c1	-0.02388847
115	0xbcce9cf8	-0.025221333
116	0xbd836589	-0.06415851
117	0x3c382197	0.011238477
118	0xbb338cbe	-0.0027397121
119	0xbcb9cd3f	-0.022680877
120	0x3da25dd5	0.07928053
121	0xbc8efbcd	-0.017454052
122	0xbcecf237	-0.02892409
123	0x3c0e4b05	0.008684878
124	0xbbcd8edc	-0.0062731337
125	0xbccfda4b	-0.025372645
126	0xbc456862	-0.012048813
127	0x3d8e8f46	0.06960921
128	0xbd8c8c58	-0.06862706
129	0xbc53ce94	-0.01292767
130	0x3cee50db	0.02909129
131	0x3b5d9160	0.0033808574
132	0x3d2a7b9d	0.041621793
133	0xbdaa00f2	-0.083009616
134	0xbd74e010	-0.059783995
135	0x3d3f6df0	0.046735704
136	0xbd2c7e20	-0.04211247
137	0x3cfc65aa	0.030810196
138	0x3db43505	0.08799175
139	0xbd7abe67	-0.061216738
140	0xbcbf1df6	-0.023329716
141	0xbcb3f789	-0.02196862
142	0xbd2d99d0	-0.042383015
143	0x3b0da457	0.0021612847
144	0x3d423d77	0.0474219
145	0x3d8fac4f	0.07015287
146	0xbc9dc141	-0.01925719
147	0x3d3b05dc	0.045659885
148	0x3ce26541	0.027636172
149	0x3bb63f63	0.0055617555
150	0xbce4eda6	-0.02794535
151	0xbd6d3371	-0.057910386
152	0xbd384456	-0.044987045
153	0x3d5bb712	0.053641386
154	0xbcf440b1	-0.029816004
155	0x3cc1dfcd	0.023666287
156	0x3d21f15c	0.03953682
157	0xbc3e44e6	-0.011613106
158	0xbd022773	-0.031775903
159	0xbd7b925d	-0.06141888
160	0xbc33fff4	-0.010986317
161	0x3c9c0210	0.019043952
162	0x3bd897b3	0.006609881
163	0x3d5cb9ea	0.05388824
164	0xbcfcac03	-0.03084374
165	0x3d14f5ed	0.036367346
166	0xbd271c19	-0.04079828
167	0xbd505d3b	-0.05087016
168	0x3d214bad	0.03937881
169	0x3cfe2220	0.031022131
170	0xbcaf66cf	-0.021411328
171	0x3cb18ed4	0.021674551
172	0x3d2567ce	0.0403822
173	0xbcbc5aa1	-0.022992434
174	0xbd4c7cbd	-0.049923647
175	0xbd2e6ab0	-0.042582214
176	0xbd000b19	-0.031260584
177	0x3cc6a2e6	0.024247598
178	0xbcdb2749	-0.026752131
179	0xbd91a75a	-0.07111998
180	0xbd5da3f2	-0.05411143
181	0xbd35eeaf	-0.04441708
182	0xbcb264ef	-0.021776645
183	0xbd46b94c	-0.048516557
184	0x3cd690a9	0.026192026
185	0xbc4ace00	-0.012378216
186	0xbc8ce9c7	-0.017201317
187	0x3d064b6b	0.032786768
188	0xbd4d42b7	-0.050112452
189	0x3cc38e21	0.023871483
190	0xbc96ddd3	-0.01841632
191	0xbd2af6e3	-0.041739356
192	0x3dc87f8b	0.09789952
193	0xbd91d858	-0.071213424
194	0xbdad9936	-0.08476488
195	0xbce30703	-0.027713304
196	0xbd91ab36	-0.07112734
197	0xbdf353d8	-0.11881226
198	0x3d6a8ed7	0.05726513
199	0x3cd6ad12	0.026205573
200	0xbce34ccc	-0.02774658
201	0xbc2386ee	-0.0099809
202	0x3bd03a45	0.0063546025
203	0xbc8ee74b	-0.017444273
204	0x3cea3c57	0.028593225
205	0xbd14e89d	-0.03635465
206	0x3ce37cb1	0.027769418
207	0xbcaf0573	-0.021364903
208	0x3d2a4697	0.041571226
209	0xbccd5e58	-0.0250694
210	0xbce01fd5	-0.027358929
211	0xbce86a3c	-0.028370969
212	0x3c0f2b67	0.008738375
213	0x3d4e5fd2	0.05038435
214	0xbcc5b9ef	-0.024136512
215	0xbcb93d07	-0.022612108
216	0xbbc349dc	-0.0059597325
217	0x3d399b2d	0.045314003
218	0xbceba549	-0.028765338
219	0x3cd1a677	0.025592072
220	0xbd3c9515	-0.046040613
221	0xbc8b4357	-0.016999884
222	0x3d11050f	0.035405215
223	0x3ba82c09	0.0051322025
224	0xbc86a787	-0.016437305
225	0x3c6d088e	0.014467372
226	0x3c0b1a5d	0.008490172
227	0xbd3c78e7	-0.04601374
228	0x3d41679e	0.047217958
229	0x3c1ae62c	0.009454291
230	0x3cf7c606	0.030245792
231	0x3d0df1a1	0.034654263
232	0xbc989793	-0.018626964
233	0xbd2beb2e	-0.04197233
234	0x3db10a4b	0.08644541
235	0xbc39e9df	-0.011347263
236	0xbcc3e401	-0.023912432
237	0x3d407f47	0.04699638
238	0x3d5a7dd3	0.05334265
239	0x3d0c36ea	0.034232058
240	0x3cc55b85	0.024091491
241	0xbcf3282f	-0.029682247
242	0x38c22462	9.257418e-05
243	0xbeb0a822	-0.34503275
244	0xbe432608	-0.19057477
245	0xbe50780e	-0.20358297
246	0xbe93e96d	-0.28889027
247	0xbd32391a	-0.043511488
248	0xbe025bb6	-0.12730297
249	0x3e1e4556	0.15456137
250	0x3db2153b	0.08695456
251	0x3ce4b023	0.02791602
252	0xbcfe8937	-0.031071289
253	0xbd1ab662	-0.03777159
254	0xbd0776f6	-0.033072434
255	0xbd3dc9dc	-0.046335086

cnn3.bias f4 [32]
0	0x3c88017b	0.016602268
1	0xbc87014f	-0.016480116
2	0xbd5e6c8e	-0.054302745
3	0xbcf8051b	-0.030275872
4	0xbd8f30c9	-0.06991727
5	0x399ad261	0.00029529913
6	0x3cf0873b	0.029361358
7	0x3c75832e	0.014984889
8	0x3c29aafd	0.010355708
9	0xbcacf39f	-0.021112261
10	0xbc743ac6	-0.014906591
11	0x3c8bceac	0.017066322
12	0x3cb5a0e1	0.02217144
13	0x3cbab32b	0.022790512
14	0x3cd1204a	0.025528092
15	0xbc78f84d	-0.015195918
16	0xbd8cde04	-0.068782836
17	0x3b47093e	0.00303705
18	0x3d03847f	0.03210878
19	0xbbdf78d3	-0.0068198233
20	0xbd660bd1	-0.056163613
21	0xbd5d5ae4	-0.05404176
22	0xbd4fd74b	-0.05074243
23	0xbd419f1b	-0.047270875
24	0xbd8afd3f	-0.06786584
25	0x3c80c683	0.015719658
26	0x3bf5e1a6	0.007503706
27	0xbd285b68	-0.041102797
28	0x3c480563	0.012208316
29	0xbd2f2609	-0.042760883
30	0x3cc09a98	0.023511216
31	0xbd216d95	-0.039411146

fc1.weight f4 [128, 768]
0	0x3d030bb2	0.031993575
1	0x3c9541fb	0.018219939
2	0x3cc08d42	0.023504857
3	0xbc6a1580	-0.014287353
4	0x3d10e153	0.035371136
5	0x3d8c4b59	0.06850309
6	0xbcd64184	-0.026154287
7	0x3c48672f	0.012231632
8	0x3cb35c96	0.021894734
9	0x3ce55976	0.02799676
10	0xbbd1c39d	-0.0064014927
11	0x3cd65223	0.026162213
12	0x3d527a0c	0.051385924
13	0xbd89d3fe	-0.067298874
14	0xbd65132b	-0.055926483
15	0x3d45824f	0.048219975
16	0x3cd97c18	0.02654843
17	0xbd77c46e	-0.060490064
18	0xbcccf803	-0.025020605
19	0xbd1ff026	-0.039047383
20	0xbd11ce74	-0.03559728
21	0xbd1a9026	-0.037735127
22	0xbd8a7ad1	-0.067617066
23	0xbd190a69	-0.037363444
24	0xbce5ad37	-0.028036697
25	0x3ce27d5b	0.027647665
26	0x3da01bfd	0.07817838
27	0xbc8e47ce	-0.017368224
28	0x3ca9224e	0.02064624
29	0x3d1d5afb	0.038416844
30	0x39c36f18	0.0003727607
31	0x3d503af9	0.05083749
32	0x3d9b752b	0.075907074
33	0x3da5630e	0.08075534
34	0x3aa0da93	0.0012272171
35	0x3bfd455c	0.0077292155
36	0x3ca9f712	0.020747695
37	0xbbe145bf	-0.0068747695
38	0xbd0daced	-0.034588743
39	0xbb23c276	-0.0024987734
40	0xbcbe503a	-0.023231614
41	0xbd5be407	-0.05368426
42	0x39f144bf	0.00046018322
43	0xbc6e8ff7	-0.014560691
44	0xbcf7da74	-0.030255534
45	0x3cbee2e1	0.023301544
46	0xbd30f175	-0.04319902
47	0xbd553a92	-0.05205781
48	0x3c7ce8d4	0.01543637
49	0x3b584190	0.0032998063
50	0x3b018420	0.001976259
51	0x3c6804e0	0.014161319
52	0x3c6a3048	0.014293738
53	0x3cdcfa4c	0.02697482
54	0x3d10c158	0.035340637
55	0x3bbcd6b0	0.0057628974
56	0xbb7ffb20	-0.0039059594
57	0xbd01ee48	-0.031721383
58	0xbbef76b8	-0.0073078535
59	0xbc066a2a	-0.008204022
60	0x3c3ebe94	0.011642117
61	0xbcc0c4ee	-0.023531403
62	0xbc367a2a	-0.011137525
63	0xbcb70772	-0.022342417
64	0x3b828f18	0.0039843433
65	0xbc630e62	-0.01385841
66	0x3ceb7d3c	0.02874624
67	0xbc1d9a48	-0.009619303
68	0xbc22b2f4	-0.009930361
69	0x3b21bf00	0.0024680495
70	0x3bc32868	0.0059557445
71	0xbc995977	-0.018719418
72	0xbd0c46ab	-0.03424708
73	0x3d194d23	0.03742708
74	0x3da9e37c	0.08295342
75	0xbc5bfebb	-0.013427432
76	0x3d06fd03	0.032956135
77	0x3d1b6628	0.03793922
78	0x3b783724	0.0037874663
79	0xbcda4f3c	-0.02664911
80	0x39789b4a	0.00023708973
81	0xbc395a64	-0.011313055
82	0xbcc4018f	-0.023926524
83	0x3bd07f9c	0.0063628685
84	0x3d738666	0.059454344
85	0x3c763e67	0.015029526
86	0xbd49f844	-0.04930903
87	0xbc9c37ee	-0.019069638
88	0xbadf9a62	-0.001705956
89	0xbce4ab1e	-0.027913626
90	0xbbba7cca	-0.0056911455
91	0xbd7c7f36	-0.061644755
92	0xbde1c556	-0.11023967
93	0xbd9a2923	-0.075273775
94	0xbd57835f	-0.05261552
95	0xbdf5d97c	-0.120043725
96	0x3d2843d2	0.041080303
97	0x3d481c77	0.04885527
98	0x3cbec353	0.023286497
99	0x3cb8260b	0.022479078
100	0x3d274dce	0.040845685
101	0x3dc7e39b	0.09760209
102	0xbcf853bf	-0.03031337
103	0xbc8e29ed	-0.017353976
104	0xb99cd2c7	-0.0002991168
105	0xbcb43208	-0.021996513
106	0xbd9d7a9a	-0.076894
107	0xbd67dc86	-0.056606792
108	0xbdf23fe5	-0.11828593
109	0xbd965861	-0.07341076
110	0xbda3b16f	-0.07992827
111	0xbe127940	-0.14304066
112	0xbd29d4e8	-0.04146281
113	0xbd8ae0bc	-0.06781146
114	0xbdadb8a1	-0.08482481
115	0xbd55d606	-0.05220606
116	0xbd897af2	-0.06712903
117	0xbe034328	-0.12818587
118	0xbdb2e772	-0.08735551
119	0xbdc157e2	-0.094405904
120	0xbcfdffe5	-0.03100581
121	0x3d576102	0.05258275
122	0x3c3d698d	0.01156081
123	0xbc4bb3a2	-0.0124329645
124	0x3cc5640d	0.02409556
125	0x3cc5ec86	0.024160635
126	0x3b85da66	0.004084873
127	0x3d2024e3	0.039097678
128	0x3d59d4ee	0.05318158
129	0x3c443ede	0.011977879
130	0xbc3e6a8b	-0.0116220815
131	0x3cd1f06d	0.02562734
132	0x3d2b4b9d	0.041820157
133	0xbcc817e4	-0.024425454
134	0xbc8970ae	-0.016777363
135	0x3b32af8e	0.0027265283
136	0xbc9676fb	-0.018367281
137	0xbd0c4fb0	-0.034255683
138	0xbc24dfd3	-0.0100631295
139	0xbd1a7c31	-0.037716094
140	0xbd34558f	-0.044026908
141	0x3c7f5313	0.015583771
142	0xbd2162a3	-0.039400708
143	0xbd37d8cd	-0.04488449
144	0x3cae9efb	0.021316042
145	0x3c4b009c	0.012390282
146	0x3d0bcd1a	0.034131147
147	0xbc2d5229	-0.010578671
148	0xbc0e7e01	-0.008697034
149	0x3c563559	0.0130742425
150	0x3a61409e	0.00085926976
151	0x3b35865c	0.0027698493
152	0x3d08fb63	0.033442866
153	0xbc1d3254	-0.009594519
154	0x3b3135da	0.0027040155
155	0x3d328441	0.04358316
156	0x3bbe1b28	0.005801577
157	0xbbeab7e1	-0.0071630334
158	0xbd62687c	-0.055275425
159	0x3b84664b	0.0040405146
160	0x3ca80c77	0.020513756
161	0xbc97e4a2	-0.018541638
162	0xbabf1acb	-0.0014580128
163	0xbd2d5ee3	-0.04232682
164	0xbd78ee0c	-0.060773894
165	0xbcd76816	-0.02629475
166	0xbd26bbe4	-0.04070653
167	0xbd92f29e	-0.07175182
168	0x3b99f684	0.0046985764
169	0x3cb37c02	0.021909717
170	0x3db05529	0.08609993
171	0xbcbf56c1	-0.023356797
172	0xbd0f4905	-0.034981746
173	0x3d4acf49	0.04951409
174	0xb9fa5086	-0.0004774371
175	0x3c888bdf	0.016668258
176	0x3d3865c0	0.04501891
177	0x3d020d33	0.03175087
178	0xbc93a0e2	-0.01802105
179	0xbcbb0249	-0.022828238
180	0xbcffb2f5	-0.031213263
181	0xbb4ee567	-0.003156984
182	0xbd805885	-0.06266884
183	0x3cb256cc	0.021769904
184	0xbcac6ef3	-0.021048998
185	0xbc482716	-0.01221635
186	0x3ccc31a8	0.024926022
187	0xbd8224b1	-0.063546546
188	0xbdaf6627	-0.08564406
189	0xbc25b74e	-0.010114504
190	0xbc582d4b	-0.013194392
191	0xbd3a8a9a	-0.045542337
192	0x3c45a3db	0.012062992
193	0xbd04e39f	-0.03244364
194	0x3cf63e43	0.030058986
195	0x3d91a094	0.07110706
196	0x3cacdfcd	0.02110281
197	0x3d0b503e	0.03401207
198	0x3d1dc31a	0.03851614
199	0x3c4a0f55	0.012332757
200	0x3d8ff16b	0.07028469
201	0x3d09d357	0.033648815
202	0x3d178608	0.036993057
203	0x3d64cf60	0.05586183
204	0x3c15c64b	0.009141515
205	0xbaefa8c7	-0.0018284552
206	0xbb3d0bf2	-0.0028846231
207	0x3d770c62	0.060314544
208	0xbd2d234f	-0.04227
209	0xbc1efc83	-0.009703758
210	0xbc528cfc	-0.012850996
211	0xbd44d480	-0.04805422
212	0xbd8facd8	-0.07015389
213	0xbd09c909	-0.033638988
214	0xbd969f9f	-0.07354664
215	0xbdcab6a6	-0.09898119
216	0x3c863f2a	0.01638754
217	0xbd96e3de	-0.07367681
218	0x3cef22f2	0.029191468
219	0xbd0cd3a3	-0.03438152
220	0x3c41038e	0.011780633
221	0x3d418785	0.047248382
222	0xbd023cdb	-0.031796318
223	0x3b676c86	0.0035312488
224	0x3da26c10	0.079307675
225	0x3bdd3623	0.0067508384
226	0xbca94688	-0.020663515
227	0x3d61945c	0.055073127
228	0x3ca5880b	0.020206472
229	0xbcbf7a48	-0.023373738
230	0xbcccd66c	-0.025004588
231	0xbcc0f7d9	-0.023555683
232	0xbcd65c58	-0.02616708
233	0xbc24971a	-0.010045791
234	0xbbf39618	-0.007433664
235	0xbc941526	-0.01807649
236	0xbd460e9f	-0.048353788
237	0xbcf0f794	-0.02941493
238	0x3b77fae1	0.0037838744
239	0xbd948c36	-0.072533056
240	0xbc234415	-0.0099649625
241	0x3c7c022f	0.01538138
242	0xbe06dc9a	-0.1317009
243	0x3d5bfc25	0.05370726
244	0x3c33fa8b	0.010985027
245	0xbe4132f6	-0.18867096
246	0x3dc41f16	0.09576242
247	0x3dc0eb94	0.09419933
248	0xbd7dfd8e	-0.062009387
249	0x3d81be56	0.06335132
250	0x3d9c6bfa	0.076377824
251	0x3c93e01a	0.018051196
252	0x3d334e29	0.04377571
253	0x3d06bb15	0.03289326
254	0x3c8734e1	0.016504707
255	0x3ae06176	0.0017118889

fc1.bias f4 [128]
0	0x3c262e43	0.010142866
1	0x3d590f8c	0.052993342
2	0x3d88e9b3	0.066851996
3	0x3c2419e6	0.01001594
4	0x3bb120be	0.0054055145
5	0xbd41f191	-0.047349516
6	0xbc9738c8	-0.018459693
7	0xbd218c2f	-0.03944033
8	0x3d471bc7	0.048610475
9	0x3babb2f8	0.0052398406
10	0x3d340e78	0.04395911
11	0xbc1bb0f2	-0.009502636
12	0xbd3577fe	-0.044303887
13	0xbd41443d	-0.047184218
14	0x3d021db8	0.031766623
15	0xba28db6f	-0.00064413896
16	0xbcbec815	-0.023288766
17	0xbcd3c1ca	-0.025849242
18	0x3d11ed5f	0.035626765
19	0x3d96ea36	0.07368891
20	0x3b0712b8	0.0020610522
21	0x3d4129ce	0.04715901
22	0x3d3ec179	0.04657123
23	0xbbca05a9	-0.0061652255
24	0xbc1128de	-0.008859841
25	0xbb562972	-0.0032678512
26	0xbd3c0ee9	-0.045912657
27	0x3d73f905	0.059563655
28	0xbcf8db10	-0.030377895
29	0x3d67ee20	0.056623578
30	0x3d9fddae	0.07805954
31	0xbd57fb82	-0.05273009
32	0x3d132a4b	0.035929006
33	0xbd199627	-0.037496712
34	0xbcf140a1	-0.029449763
35	0xbd68ab48	-0.05680397
36	0x3cf03c05	0.029325495
37	0x3ce78371	0.028260918
38	0x3b7dc033	0.0038719296
39	0xbd798990	-0.060922205
40	0xbb08ae08	-0.0020855684
41	0x3c0cb165	0.008587216
42	0xbccaeae5	-0.02477021
43	0xbcd134ab	-0.02553781
44	0x3d09266d	0.03348391
45	0xbcc4b3ac	-0.024011455
46	0x3d2f73ca	0.042835034
47	0x3c2acdbd	0.010425028
48	0xbd43d7c5	-0.047813196
49	0xbd3515e6	-0.044210337
50	0xbd2b0a5e	-0.041757934
51	0x3cbcce3c	0.023047559
52	0x3b9ecaa8	0.004845936
53	0x3da45f3a	0.080259755
54	0x3aab931f	0.001309011
55	0x3d2e4941	0.04255033
56	0x3d5d01f4	0.05395694
57	0x3d9020a4	0.07037476
58	0x3bbc3890	0.0057440475
59	0xbd47d898	-0.048790544
60	0x3c9457d4	0.018108286
61	0x3c8211bb	0.015877595
62	0xbd0fb5a9	-0.035085354
63	0xbcc6d915	-0.024273435
64	0x3cc8c541	0.02450812
65	0x3cfabfee	0.030609097
66	0x3d4870fc	0.048935875
67	0x3c89613c	0.016769998
68	0x3bd4a80f	0.0064897607
69	0x39f24e1f	0.00046216042
70	0xbb1f37f0	-0.0024294816
71	0x3b118607	0.002220513
72	0x3d6aef45	0.05735709
73	0xbc882302	-0.016618256
74	0x3d4e89dd	0.050424445
75	0xbbd5066d	-0.00650101
76	0xbbd7127f	-0.006563484
77	0xbd1a4b57	-0.037669506
78	0x3d08e6c4	0.0334232
79	0x3d08050d	0.03320794
80	0xba68ab83	-0.0008875655
81	0xbd08a2ef	-0.03335851
82	0xba816af8	-0.0009873798
83	0xbba68a32	-0.005082392
84	0x3ae69b55	0.00175939
85	0x3ca34b49	0.01993336
86	0x3d2a97e7	0.04164877
87	0x3d87857f	0.06617259
88	0x3db1c2b1	0.086797126
89	0xbd194622	-0.0374204
90	0xbceb96f6	-0.028758507
91	0x3a9052c0	0.001101099
92	0xbd1bb2d9	-0.03801236
93	0xbc299b86	-0.010352021
94	0xbc0ab71e	-0.00846651
95	0xbd379c7b	-0.044826966
96	0xbc8d2ca8	-0.017233208
97	0x3d91b06f	0.0711373
98	0x3d90d8bf	0.07072591
99	0x3d6a456f	0.057195123
100	0x3d8d1f9d	0.068907954
101	0xbbf2868c	-0.007401293
102	0xbbca9f55	-0.0061835446
103	0x3d07ec4d	0.03318434
104	0x3c196a35	0.009363701
105	0xbca43420	-0.020044386
106	0xbc6c7d0a	-0.0144341085
107	0x3b290248	0.0025788713
108	0x3cd55ef1	0.026046248
109	0x3c83d1a8	0.016091183
110	0x3be5f01b	0.007017148
111	0xbd2b0232	-0.04175014
112	0x3d368f54	0.044570282
113	0xbd280a07	-0.041025188
114	0x3d9ab1f0	0.0755347
115	0xbcaee78a	-0.02135064
116	0x3d282d29	0.041058693
117	0xbd73026d	-0.059328485
118	0xbcdcff62	-0.026977245
119	0xbb16931f	-0.0022975875
120	0xbbb0e19c	-0.0053979885
121	0x3d2181de	0.03943049
122	0xbcc7c0a5	-0.024383852
123	0xbc0c565c	-0.008565512
124	0xbb2e7fc7	-0.0026626454
125	0xbcddda4d	-0.027081633
126	0x3da09a60	0.07841945
127	0x3ca64776	0.020297747

fc2.weight f4 [128, 128]
0	0x3d600d08	0.054699928
1	0xbd582eec	-0.052779123
2	0x3d9c1892	0.07621874
3	0xbd6f8aa0	-0.058481812
4	0xbd3bf5b4	-0.045888618
5	0xbcf8779d	-0.030330474
6	0xbd3c0a44	-0.045908228
7	0xbd401e05	-0.04690363
8	0x3dd849a5	0.105609216
9	0xbcc30b9c	-0.023809247
10	0x3de9a292	0.11407961
11	0xbd8b6b63	-0.06807592
12	0x3da6c2eb	0.081426464
13	0x3d803177	0.06259435
14	0x3d4dab1d	0.050212014
15	0x3cde8bef	0.027166335
16	0xbd02fd82	-0.031980045
17	0xbcc3a7e0	-0.02388376
18	0x3bbff86f	0.005858473
19	0x3dc9676e	0.09834181
20	0x3cee8c2e	0.029119577
21	0x3de8af47	0.113615565
22	0xbd1fd0ac	-0.039017364
23	0xbdaaf153	-0.0834681
24	0x3d7d20ec	0.061798975
25	0x3c86238c	0.016374372
26	0x3d9ac28f	0.0755664
27	0x3c8e0c6f	0.017339913
28	0xbd30ef62	-0.043197043
29	0x3d89835c	0.06714508
30	0x3dd73196	0.10507505
31	0xbd8ebfe6	-0.069701955
32	0xbd2551bf	-0.040361162
33	0x3ca4062a	0.02002247
34	0x3ca2fd84	0.019896276
35	0x3d3b4537	0.045720305
36	0x3dc3cbe0	0.095603704
37	0xbe2f9692	-0.17147282
38	0xbca83572	-0.020533297
39	0xbdb4b48c	-0.08823499
40	0x3b087af4	0.002082524
41	0x3d1f51f6	0.038896523
42	0x3cb8c292	0.022553716
43	0x3d700ccf	0.058605965
44	0xbd14368f	-0.036184844
45	0x3ccbb727	0.024867607
46	0x3c6a6d4f	0.014308288
47	0x3d8a06b4	0.0673956
48	0x3d6ddc03	0.058071148
49	0x3d9f4939	0.07777638
50	0x3d147f1e	0.03625404
51	0xbd391665	-0.045187373
52	0xbd5b5391	-0.053546492
53	0xbbb705a1	-0.005585388
54	0xbcf41838	-0.029796705
55	0x3b115c78	0.002218036
56	0xbdcf0fc4	-0.10110429
57	0x3ddbfb61	0.10741306
58	0x3c73d694	0.014882702
59	0xbd0adf26	-0.033904217
60	0xbc8257f5	-0.015911082
61	0x3ca7cb72	0.020482752
62	0xbd66bf37	-0.0563347
63	0x3c860af0	0.016362637
64	0x3d596a47	0.05307987
65	0xbd41fe53	-0.047361683
66	0xba6d1091	-0.0009043301
67	0xbd198d4b	-0.037488263
68	0x3d86a60c	0.0657464
69	0x3cbd304f	0.023094324
70	0xbcb621c1	-0.022232892
71	0x3d9e32a8	0.07724506
72	0x3dd1e59c	0.10248873
73	0x3c372076	0.011177173
74	0xbdcd3596	-0.10019986
75	0xbdb24b71	-0.087057956
76	0xbd701a78	-0.058618993
77	0x3d261562	0.040547736
78	0x3d502946	0.05082061
79	0x3d0aa506	0.033848785
80	0x3d016f0c	0.031600043
81	0xbd4e0347	-0.050296094
82	0x3cf18407	0.0294819
83	0xbdaf0794	-0.08546367
84	0xbda8770f	-0.082258336
85	0x3bfd7483	0.0077348365
86	0x3cef1801	0.02918625
87	0x3c2264f9	0.009911769
88	0xbd136a68	-0.03599015
89	0x3dc88ed7	0.097928695
90	0xbc57269b	-0.013131763
91	0x3d8ae246	0.067814395
92	0xbd172f84	-0.03691055
93	0x3d9e19ea	0.077197865
94	0xbcac0bb0	-0.021001667
95	0x3d4e3dfa	0.050352074
96	0xbce8fcf5	-0.028440932
97	0xbd4e15ef	-0.050313886
98	0x3d98284a	0.074295595
99	0x3dc69a01	0.09697343
100	0xbe4be9ca	-0.19913402
101	0xbcd29a38	-0.025708303
102	0xbd41294f	-0.047158536
103	0x3da35453	0.07975068
104	0xbca3567b	-0.019938698
105	0xbd65c154	-0.056092575
106	0x3c87da06	0.016583454
107	0xbc080a47	-0.008303232
108	0xbd9cc555	-0.076548256
109	0xbdd7ab80	-0.10530758
110	0x3b3e42a0	0.002903141
111	0xbaaab32a	-0.0013023366
112	0xbd08a83f	-0.033363577
113	0x3d00921e	0.03138935
114	0x3d6c9a83	0.05776454
115	0xbda230a4	-0.07919434
116	0x3d8d69be	0.06904934
117	0xbd9da9b3	-0.07698383
118	0xba58c183	-0.00082685816
119	0xbd02e060	-0.031952262
120	0xbd221999	-0.039575193
121	0xbd88fa72	-0.06688394
122	0x3d9bb9dd	0.0760381
123	0x3d6e69a1	0.058206204
124	0x3d4a2710	0.04935366
125	0xbd33c422	-0.04388822
126	0xbb6ddaf4	-0.0036293836
127	0x3d011442	0.03151346
128	0x3d05668f	0.03256851
129	0x3d446a72	0.047953077
130	0x3dbfe765	0.09370307
131	0x3d082269	0.03323594
132	0xbaa03205	-0.0012221938
133	0x3cfba931	0.030720325
134	0xbd278d46	-0.040906213
135	0x3d1fc171	0.03900284
136	0xbd227666	-0.039663695
137	0x39b1ab00	0.00033887476
138	0xbd14d6cb	-0.036337655
139	0x3d8263d3	0.06366696
140	0xbd8b0880	-0.067887306
141	0x3d57d3c9	0.05269221
142	0x3bf28d35	0.007402087
143	0xbbb0731b	-0.0053848154
144	0xbcabd850	-0.02097717
145	0x3d99ec31	0.07515753
146	0xbc2807f7	-0.010255805
147	0x3e111d0a	0.14171234
148	0xbd53a426	-0.051670216
149	0xbce73407	-0.02822305
150	0x3db5f239	0.08884091
151	0x3da6f557	0.081522636
152	0x3cea3d18	0.028593585
153	0xbca09cf5	-0.019606093
154	0xbcedd086	-0.029030096
155	0x3dc03676	0.093853876
156	0x3c9f0f4c	0.019416474
157	0xbd4c5fbe	-0.049895994
158	0x3cf825aa	0.030291397
159	0xbccb984a	-0.02485289
160	0x3d1f4319	0.03888235
161	0x3dd07bee	0.10179888
162	0x3db4d0e3	0.088289045
163	0x3d89ff9d	0.067382075
164	0x3d57ef7b	0.05271862
165	0xbe579461	-0.21052696
166	0x3db3f045	0.08786062
167	0xbd078843	-0.033088934
168	0xbd22e46c	-0.03976862
169	0x3d0bdb1d	0.03414451
170	0xbcbc9760	-0.0230214
171	0x3c7f48a0	0.01558128
172	0xbcca6da8	-0.024710491
173	0x3c28d21d	0.010304001
174	0xbd63fe90	-0.05566269
175	0x3db1f0fd	0.08688543
176	0x3da828e5	0.08210925
177	0x3d51e91a	0.051247694
178	0xbd23b394	-0.03996618
179	0xbdd360ba	-0.103211835
180	0x3cdb075e	0.026736911
181	0xbdadc926	-0.08485632
182	0xbd9bd1d0	-0.07608378
183	0x3d0fd253	0.03511269
184	0xbd9c35df	-0.076274626
185	0x3e0825ed	0.13295718
186	0xbd83d350	-0.06436789
187	0xbd35c1d6	-0.04437431
188	0xbbffce6c	-0.00780659
189	0xbd125c45	-0.035732526
190	0x3c7a94f1	0.015294299
191	0x3d224cb2	0.039623924
192	0x3d991f25	0.074766435
193	0x3d5a9c8b	0.053371947
194	0x3decafd5	0.11556975
195	0xbd8eb4a8	-0.06968051
196	0xbd1c0021	-0.03808606
197	0x3a17a065	0.00057840935
198	0x3d368526	0.044560574
199	0x3c4dcfe1	0.012561769
200	0xbd86194a	-0.06547792
201	0x3c08fe94	0.008361477
202	0xbdca151e	-0.09867309
203	0xbd3e21c4	-0.04641892
204	0xbdada702	-0.0847912
205	0xbc259dc1	-0.010108412
206	0xbd93948d	-0.07206068
207	0xbd073fa2	-0.03301967
208	0x3d2840fc	0.0410776
209	0x3dc76bac	0.09737334
210	0xbd828838	-0.06373638
211	0xba05e880	-0.00051081926
212	0x3a31ad37	0.0006777825
213	0xbc890931	-0.016728016
214	0xbce6cc0c	-0.028173469
215	0x3d14ad1c	0.036297902
216	0xbc891b05	-0.016736517
217	0xbd83938a	-0.06424625
218	0xbd53e0df	-0.051728126
219	0x3cbb8bfb	0.022893896
220	0xbd99f6fd	-0.075178124
221	0xbdb35f62	-0.08758427
222	0x3d2939a2	0.04131473
223	0xbc889b36	-0.016675573
224	0x3d9838db	0.07432719
225	0x3d452a7d	0.048136223
226	0x3d263254	0.04057534
227	0xbd0c0cda	-0.034191944
228	0xbe08bd03	-0.13353352
229	0x3d9aa0c3	0.07550194
230	0x3cf20c05	0.029546747
231	0x3cd5137c	0.026010267
232	0x3d5b682a	0.053566135
233	0xbb941730	-0.0045193657
234	0x3d98a8d4	0.074540764
235	0x3ca100c4	0.019653685
236	0xbd6b0c84	-0.057384983
237	0x3dde87e3	0.10865762
238	0x3c0dea7f	0.008661865
239	0x3d27765d	0.040884364
240	0xbcff70ea	-0.031181771
241	0xbc8f98a7	-0.017528845
242	0x3bd9b74a	0.006644164
243	0xbc4a8bf8	-0.012362473
244	0xbd3261cf	-0.04355031
245	0x3d8e155c	0.06937668
246	0xbd9e16c4	-0.07719186
247	0xbd8ef7c8	-0.06980854
248	0xbd75adb0	-0.059980094
249	0xbd214bd4	-0.039378956
250	0x3d8bece0	0.0683229
251	0xbc5bf15e	-0.013424246
252	0xbcca6325	-0.024705479
253	0xbc8c0954	-0.017094292
254	0x3cde6490	0.027147561
255	0x3da897a1	0.08232046

fc2.bias f4 [128]
0	0x3e922a49	0.28547886
1	0x3e40fd7f	0.18846701
2	0x3e38c12b	0.18042438
3	0x3e195f84	0.14977843
4	0x3e33779c	0.17526096
5	0x3ea3c1e9	0.3198388
6	0x3e6b2946	0.22964963
7	0x3e88e220	0.2673502
8	0x3e06749b	0.13130419
9	0x3e76e011	0.24108912
10	0x3f4a1aa9	0.7894693
11	0x3e6a02a4	0.2285257
12	0x3e741185	0.23834808
13	0x3ea50aca	0.32234794
14	0x3e38a6fb	0.18032448
15	0x3e87a6fb	0.26494583
16	0x3e3a5ad3	0.18198709
17	0x3dbd4b81	0.09242917
18	0x3e94f99d	0.2909669
19	0x3e517c02	0.20457461
20	0x3e38911b	0.18024103
21	0x3e0af7da	0.1357111
22	0x3e2da477	0.1695727
23	0x3e2bad1e	0.16765258
24	0x3e2e1282	0.16999248
25	0x3e926467	0.28592226
26	0x3e2d6104	0.1693154
27	0x3e1137af	0.14181398
28	0x3e40adf3	0.18816356
29	0x3e88ab4e	0.26693195
30	0x3e61865a	0.22023907
31	0x3df54f29	0.11977989
32	0x3e4c215f	0.19934605
33	0x3e771585	0.24129303
34	0x3e4196be	0.1890516
35	0x3df6dd7e	0.12053965
36	0x3d4bc6d4	0.049750164
37	0x3e63567c	0.2220096
38	0x3f41d366	0.75713193
39	0x3e697fc9	0.22802652
40	0x3e4e06fd	0.20119853
41	0x3e94def5	0.29076353
42	0x3dfe768c	0.12424955
43	0x3d98041f	0.07422661
44	0x3e6b91c1	0.2300482
45	0x3e1f54b5	0.15559657
46	0x3e5f1084	0.21783644
47	0x3e38b27c	0.18036836
48	0x3f1af847	0.6053509
49	0x3e3669ba	0.17813769
50	0x3dcfcb4a	0.10146196
51	0x3e920c16	0.28524846
52	0x3e018411	0.12648036
53	0x3e7fedbc	0.24993032
54	0x3e52c0a7	0.20581304
55	0x3e8cd2f5	0.27504697
56	0x3e440c2c	0.19145268
57	0x3e1b8926	0.15189037
58	0x3e7a6b92	0.24455097
59	0x3d9a107f	0.07522678
60	0x3e364cad	0.17802687
61	0x3eba01dc	0.36329544
62	0x3e17b45c	0.14814895
63	0x3f32f252	0.69901
64	0x3df19e59	0.117977805
65	0x3ea3cbb2	0.31991345
66	0x3e9eec6c	0.3103975
67	0x3e6d8625	0.23195703
68	0x3e31bd65	0.17357405
69	0x3e882e90	0.26598024
70	0x3e88579f	0.2662935
71	0x3e31a992	0.17349842
72	0x3e945e66	0.2897827
73	0x3e8e706c	0.27820146
74	0x3d9db6b4	0.077008635
75	0x3e231b03	0.15928273
76	0x3e0d9afb	0.13828652
77	0x3e4e485d	0.20144792
78	0x3e9a83bc	0.3017863
79	0x3df3fa54	0.11912981
80	0x3e8c3874	0.2738682
81	0x3e63042a	0.22169557
82	0x3e30b6a8	0.17257178
83	0x3e90b7a2	0.282651
84	0x3e9d4c10	0.30722094
85	0x3e6d4a8d	0.2317297
86	0x3de81b4d	0.11333332
87	0x3d9cac78	0.07650083
88	0x3e82b717	0.2553031
89	0x3e9a7fa4	0.30175507
90	0x3e6b2d6c	0.22966546
91	0x3e7ebead	0.24877425
92	0x3e0af3a7	0.13569508
93	0x3e1f2602	0.15541843
94	0x3e348beb	0.176315
95	0x3e981190	0.297009
96	0x3e8d9704	0.27654278
97	0x3e2ad061	0.16681053
98	0x3e9659d3	0.29365405
99	0x3ea89375	0.32925
100	0x3e3a4883	0.18191724
101	0x3e7cad99	0.24675597
102	0x3e9a70e1	0.30164245
103	0x3e461211	0.1934283
104	0x3e755961	0.23959877
105	0x3e2bd2a3	0.1677957
106	0x3e95294b	0.29133067
107	0x3e2f8092	0.1713889
108	0x3e5a7c71	0.21336533
109	0x3e3d1484	0.18464857
110	0x3e658909	0.22415556
111	0x3e37638b	0.17909066
112	0x3e901cfc	0.28147113
113	0x3e33f5ef	0.17574285
114	0x3ea3f75a	0.32024652
115	0x3e59c7ac	0.21267575
116	0x3e3560bd	0.17712684
117	0x3ec52e15	0.3851172
118	0x3e30801c	0.1723637
119	0x3e1b8ecd	0.15191193
120	0x3e9be87f	0.30450818
121	0x3e75e8f3	0.24014644
122	0x3e9e6d5f	0.3094282
123	0x3e8767b3	0.26446304
124	0x3e09bbfc	0.13450617
125	0x3e67790f	0.22604774
126	0x3e37ec64	0.1796127
127	0x3e4592cb	0.19294278

fc3.weight f4 [128, 128]
0	0x3d62cade	0.05536925
1	0x3dc7f5ff	0.09763717
2	0x3d8d692c	0.069048256
3	0x3d0e1db4	0.034696296
4	0xbc95a68f	-0.018267898
5	0x3de0907f	0.109650604
6	0x3d198573	0.037480783
7	0x3dd9ff48	0.10644394
8	0x3d8dde5c	0.06927177
9	0x3de4a1f0	0.111636996
10	0xbda16c3c	-0.07881972
11	0xbb40774f	-0.0029367988
12	0x3e0e26a4	0.13881928
13	0xbdac6b0a	-0.084188536
14	0x3dbe34a5	0.09287385
15	0xbdd973d1	-0.10617793
16	0x3e254070	0.16137862
17	0x3e4ca1ca	0.19983593
18	0x3db08e3a	0.086208776
19	0xbc449eae	-0.012000723
20	0x3d9de9a9	0.07710583
21	0x3dde8939	0.10866017
22	0x3e332ed4	0.17498332
23	0x3e3ad10b	0.18243806
24	0xbd9afe47	-0.07568031
25	0x3d249ed2	0.040190525
26	0x3e0c9b55	0.1373113
27	0xbc551108	-0.013004549
28	0x3e091886	0.13388261
29	0x3dac52f2	0.08414258
30	0x3c933a02	0.017971996
31	0x3d5e0288	0.054201633
32	0xbd47b4af	-0.048756298
33	0x3c9a9910	0.018871814
34	0x3deea5b5	0.116527
35	0x3d4001dc	0.046876773
36	0x3d2156eb	0.039389532
37	0xbdafcd89	-0.085841246
38	0xbdf59711	-0.11991704
39	0x3e2acc3e	0.16679475
40	0x3e20917b	0.15680496
41	0x3d7deb46	0.061991952
42	0x3d74b395	0.059741575
43	0x3e196f38	0.14983833
44	0x3d67aaa2	0.056559213
45	0xbd37b23e	-0.04484772
46	0x3c108b7d	0.008822319
47	0x3dbd0ed7	0.09231346
48	0xbda67225	-0.0812724
49	0x3d90aa30	0.07063711
50	0x3dceaffa	0.100921586
51	0x3e1d0783	0.15334897
52	0x3d8ad7d0	0.06779444
53	0x3dcd813d	0.10034416
54	0xbd8976fe	-0.06712149
55	0x3dd028a2	0.10164
56	0x3e2bb9b1	0.16770054
57	0x3e092d38	0.13396156
58	0xbb90314d	-0.0044004084
59	0x3c9b50be	0.0189594
60	0xbd8dbd9d	-0.069209315
61	0x3c1d1da6	0.009589588
62	0xbccef65f	-0.025263963
63	0xbe914884	-0.28375638
64	0xbd9d3817	-0.07676714
65	0x3d0a7e66	0.03381195
66	0x3cff906a	0.031196792
67	0x3b7220be	0.0036945785
68	0xbd919d68	-0.07110101
69	0xbd8585af	-0.06519639
70	0xbdbe3966	-0.09288292
71	0x3e0345fc	0.12819666
72	0x3dea6e68	0.114468396
73	0x3d5afb26	0.05346217
74	0x3d1d5790	0.038413584
75	0x3d06d918	0.03292188
76	0x3df82e62	0.12118222
77	0xbd9c0ac2	-0.076192394
78	0x3dc8d1b7	0.09805625
79	0x3e37a7ba	0.17935076
80	0x3d771afe	0.060328476
81	0xbce75835	-0.028240303
82	0x3da300ce	0.07959138
83	0x3d81e73e	0.06342934
84	0x3e3bcabd	0.18339057
85	0xbdf24290	-0.11829102
86	0x3e0eace5	0.13933142
87	0x3df67ef7	0.12035935
88	0xbd7174ba	-0.05894921
89	0xbd6b783f	-0.057487722
90	0x3d3d888c	0.0462728
91	0xbd03ece6	-0.032208346
92	0x3d53794e	0.051629357
93	0xbdb3ece7	-0.0878542
94	0xbd551ce7	-0.052029517
95	0xbd04c456	-0.032413803
96	0x3e2b1052	0.16705444
97	0x3e0834a1	0.13301326
98	0x3e1b1cee	0.15147755
99	0x3e06d964	0.13168865
100	0x3ddf47ad	0.10902343
101	0x3d1c627a	0.038179852
102	0x3c934fb1	0.017982336
103	0x3ce816a3	0.028331107
104	0xba2651fe	-0.0006344615
105	0xba40e96d	-0.0007359002
106	0x3d09e080	0.033661366
107	0xbc5702ac	-0.013123196
108	0xbd35df8d	-0.044402648
109	0xbc00c939	-0.007860475
110	0x3e22f360	0.15913153
111	0x3de78842	0.11305286
112	0xbd8b20f6	-0.06793396
113	0x3d5522b9	0.052035067
114	0x3e5241a6	0.20532855
115	0x3d870f70	0.06594741
116	0x3ccbc8bf	0.024875997
117	0x3d9ee558	0.077585876
118	0xbb507254	-0.0031806426
119	0x3dd608cb	0.10450896
120	0x3ce9c5d6	0.028536718
121	0x3dfde41f	0.12397026
122	0x3da34b4c	0.07973346
123	0x3d17c40a	0.03705219
124	0x3ceb15a0	0.028696835
125	0xbc7019d1	-0.014654593
126	0xbdbf312f	-0.09335553
127	0x3c965152	0.018349323
128	0x3d6dcbe3	0.05805577
129	0x3d0ca0e6	0.034333132
130	0x3d891dd6	0.06695144
131	0x3cc4ec42	0.024038438
132	0x3ccbe251	0.02488819
133	0x3e08765e	0.13326403
134	0x3dc80e56	0.09768359
135	0x3ddb9672	0.107220545
136	0xbd1a0be8	-0.03760901
137	0x3e110f3a	0.14165965
138	0xbe62abf9	-0.22135915
139	0xbd06a7fc	-0.032875046
140	0x3d992cb2	0.07479228
141	0xbd4e0dba	-0.05030606
142	0x3dadc655	0.084850945
143	0x3db9b1ad	0.09067092
144	0xbcedca4e	-0.02902713
145	0x3e109c4b	0.14122121
146	0x3e0a9c27	0.1353613
147	0xbc487784	-0.012235526
148	0x3d365a6d	0.04451983
149	0xbb9f16c4	-0.004855009
150	0x3d5aa0ab	0.05337588
151	0x3c3af888	0.0114117935
152	0xbdb1c4ec	-0.08680138
153	0x3ddf1956	0.10893504
154	0x3dcff2b6	0.10153715
155	0xbce806cb	-0.028323552
156	0xbdb269c0	-0.087115765
157	0x3da90583	0.082530044
158	0x3dc78494	0.09742084
159	0x3d8a53b4	0.06754246
160	0x3d2dd2ad	0.042437244
161	0x3d671b34	0.056422427
162	0x3da90826	0.08253507
163	0x3da94120	0.08264375
164	0x3d8fa2ba	0.070134595
165	0x3d87830f	0.06616794
166	0xbe91bd30	-0.2846465
167	0xbd92ddb1	-0.071711905
168	0xbd22bccb	-0.03973083
169	0x3d881fcd	0.066466905
170	0xbb63bdae	-0.003475051
171	0x3da7ad1e	0.08187316
172	0x3cdcc6c5	0.02695025
173	0x3d9a7074	0.0754098
174	0x3e0327c7	0.12808143
175	0x3c31f902	0.010862591
176	0xbdd0e20d	-0.10199366
177	0x3dc7c758	0.09754819
178	0xbcec2e59	-0.028830694
179	0x3daa56e7	0.083173566
180	0x3d6c53d5	0.057697136
181	0x3de66f4e	0.112516984
182	0x3dc082f1	0.09399975
183	0x3cf5bc8f	0.029997138
184	0x3db0b81c	0.08628866
185	0xbc9bc9cc	-0.019017123
186	0x3d954bc3	0.07289841
187	0x3c82a184	0.015946157
188	0x3d8715f0	0.06595981
189	0x3d8acb33	0.067770384
190	0x3c81fdb1	0.01586804
191	0xbeafd1b8	-0.3433969
192	0xbba061a3	-0.0048944517
193	0x3dfc4966	0.12318687
194	0x3de82a0f	0.11336147
195	0x3dfe6289	0.12421138
196	0x3b96d038	0.0046024583
197	0x3df434b0	0.11924112
198	0x3d95b2db	0.073095046
199	0x3d55d62b	0.0522062
200	0xbcc3843e	-0.023866769
201	0xbce1eb19	-0.027577924
202	0x3db51769	0.08842356
203	0xbc10a6fb	-0.008828874
204	0xbd7bec14	-0.06150444
205	0x3ba54d8c	0.0050446447
206	0x3dbe20d8	0.09283608
207	0x3caec75b	0.021335294
208	0x3d16628a	0.036715068
209	0xbbe83045	-0.0070858323
210	0x3e10f047	0.14154159
211	0xbcac88ba	-0.02106129
212	0xbd428753	-0.047492336
213	0x3c3009c1	0.010744513
214	0x3da08027	0.07836943
215	0x3ce54290	0.027985841
216	0xbc837539	-0.016047107
217	0x3d4b0360	0.049563766
218	0xbd000e85	-0.031263847
219	0x3af69b07	0.0018814512
220	0x3d486112	0.0489207
221	0x3c0b6f9d	0.008510497
222	0xbcb537ca	-0.022121329
223	0x3c6c9b18	0.014441274
224	0xbd34900e	-0.044082694
225	0x3cb91bc9	0.022596257
226	0x3cfd1686	0.03089453
227	0x3ca08529	0.019594746
228	0xbcea9d3b	-0.028639426
229	0xbcbb2626	-0.022845339
230	0x3d921afb	0.07134052
231	0x3bfcb357	0.0077118087
232	0xbd699457	-0.057026234
233	0xbd0544be	-0.03253626
234	0x3dbd4785	0.09242157
235	0x3da21845	0.07914785
236	0x3cc7556a	0.02433272
237	0xbcf42156	-0.029801052
238	0x3cd12311	0.025529416
239	0x3e0512c2	0.12995437
240	0x3d0f97e9	0.035056982
241	0xbd980807	-0.07423406
242	0x3d8015a2	0.06254126
243	0xbd56254c	-0.052281663
244	0xbd5eb1f2	-0.05436892
245	0xbb19741c	-0.0023415154
246	0x3c90a623	0.017657345
247	0xbcc63560	-0.024195373
248	0x3cd80c84	0.026373155
249	0x3b973d49	0.00461546
250	0xbc8dfee6	-0.01733346
251	0x3da48bd4	0.080344826
252	0xbd0ea7eb	-0.034828108
253	0xbc5c2cff	-0.013438462
254	0x3d3b6b4f	0.045756634
255	0xbd844870	-0.06459129
