models/dqn_model_epoch_2000.pth (torch, 595606 bytes, 14 tensors)

cnn1.weight f4 [16, 4, 5, 5]
0	0xbdb3783b	-0.087631665
1	0xbdb613ff	-0.08890533
2	0xbd482d61	-0.0488714
3	0xbc1f8f15	-0.009738703
4	0xbdc2a36f	-0.09503829
5	0xbd69d740	-0.057090044
6	0x3d31d07f	0.043411728
7	0xbdbfe570	-0.093699336
8	0xbda28295	-0.07935063
9	0xbddd110c	-0.10794267
10	0xbdc3dddf	-0.09563803
11	0x3d877987	0.066149764
12	0x3cdeb55c	0.027186088
13	0xbde66d38	-0.112513006
14	0x3c8cbf21	0.017180981
15	0x3c8ee514	0.017443217
16	0x3cc3d8b8	0.02390705
17	0xbe2c8b5b	-0.16850035
18	0xbcf51dfd	-0.029921526
19	0x3d584b80	0.052806377
20	0x3d5842d6	0.052798115
21	0x3d0f33ac	0.034961388
22	0xbaea5a37	-0.0017879669
23	0xbdc0d2e1	-0.09415222
24	0xbce66418	-0.0281239
25	0x3ca79b68	0.020459846
26	0x3d5b29ad	0.053506542
27	0x3d26b3c8	0.040698797
28	0xbc7dd6e3	-0.0154931275
29	0xbda7af11	-0.08187688
30	0xbd8f9466	-0.07010727
31	0xbc3e84f3	-0.011628377
32	0xbdc24e7c	-0.09487626
33	0xbdb44efa	-0.08804126
34	0xbd8fe78e	-0.070265874
35	0x3c866f0c	0.016410373
36	0x3a28d216	0.00064399967
37	0xbdcafbf0	-0.099113345
38	0xbe341919	-0.17587699
39	0xbd8ba692	-0.0681888
40	0x3d54c45a	0.051945068
41	0x3d2e8f72	0.04261727
42	0xbdd2abd5	-0.102866806
43	0xbc9e1c51	-0.019300612
44	0xbc703e89	-0.014663347
45	0xbbb78087	-0.0056000385
46	0xbd3a2196	-0.045442186
47	0x3d580b1d	0.052744973
48	0xbd3bc761	-0.04584444
49	0x3d683f96	0.056701265
50	0x3a5d9ef6	0.0008454168
51	0x3e072aec	0.13199967
52	0xbd8ed1c0	-0.069736004
53	0xbe632eae	-0.22185776
54	0xbd32ae8f	-0.043623503
55	0x3d06196c	0.032739088
56	0x3dd01cc7	0.10161739
57	0xbe7d4b6d	-0.24735804
58	0xbe1a8d12	-0.15092877
59	0x3b301db4	0.0026873173
60	0xbdb88792	-0.09010233
61	0xbd838c7b	-0.06423279
62	0xbe68ccc7	-0.22734366
63	0x3df27eb0	0.1184057
64	0xbd3cbc13	-0.0460778
65	0x3b8aefb0	0.0042399988
66	0xbe8aa11e	-0.27076048
67	0xbddbfde0	-0.10741782
68	0x3e423d21	0.18968631
69	0x3d8396ea	0.06425269
70	0x3cbe460c	0.02322676
71	0xbe840d76	-0.2579152
72	0xbe2e9b3b	-0.17051403
73	0x3b727340	0.0036994964
74	0x3d73d632	0.059530444
75	0xbdb88c33	-0.09011116
76	0x3e24f8b6	0.161105
77	0x3d3420a8	0.043976456
78	0xbe438d7e	-0.19096944
79	0xbe10892d	-0.14114828
80	0xbdb9b18e	-0.09067069
81	0x3e8cb7bf	0.27483937
82	0xbe5afd3a	-0.21385661
83	0x3e5389db	0.20658056
84	0xbe4bb842	-0.19894508
85	0xbdb66220	-0.089054346
86	0x3e3d5833	0.18490677
87	0x3db3f6c0	0.08787298
88	0xbc016604	-0.007897858
89	0x3d6da6f2	0.05802054
90	0xbdaece58	-0.08535451
91	0xbe0836b7	-0.13302122
92	0xbe7e0c19	-0.24809302
93	0xbe67a74f	-0.22622417
94	0xbdab44ba	-0.08362718
95	0xbd82eb58	-0.063925445
96	0xbde92639	-0.113842435
97	0xbe803720	-0.25042057
98	0xbe357315	-0.17719682
99	0xbd3fb05a	-0.04679904
100	0xbe0665f4	-0.1312483
101	0x3d0525ad	0.032506634
102	0xbd26606b	-0.040619295
103	0x3d806f43	0.062712215
104	0x3c823c96	0.01589803
105	0xbe36597d	-0.17807575
106	0x3d3e68b6	0.04648658
107	0xbd51f4a4	-0.051258698
108	0x3d4e1c80	0.05032015
109	0xbcf29c43	-0.029615527
110	0xbcce34b1	-0.02517161
111	0xbced5082	-0.028969053
112	0xbdf1b2cb	-0.1180168
113	0xbb5f8ef8	-0.0034112316
114	0x3e0b9d96	0.13634333
115	0xbde9911f	-0.11404633
116	0xbc4bdd59	-0.01244291
117	0xbcf2a2ba	-0.02961861
118	0x3d837c0e	0.06420146
119	0xbd2abfd7	-0.04168686
120	0xbe632ab2	-0.22184256
121	0xbd1be55a	-0.038060524
122	0xbe7d23c7	-0.24720679
123	0x3e1a73d6	0.1508325
124	0xbd239ba0	-0.039943337
125	0xbd109c25	-0.03530516
126	0x3c9db7a4	0.019252606
127	0x3d82ed49	0.06392915
128	0xbc01b6e0	-0.007917136
129	0x3b82bcb4	0.0039897803
130	0xbd9a4616	-0.07532899
131	0xbd3757e3	-0.04476155
132	0xbdd9216b	-0.10602077
133	0xbc3942af	-0.0113074025
134	0x3cdd2514	0.02699522
135	0xbcfa93bb	-0.030588022
136	0xbce311a1	-0.027718367
137	0xbd5cc350	-0.053897202
138	0x3d8e33b3	0.069434546
139	0x3cda0e69	0.0266182
140	0xbd48d067	-0.049026873
141	0xbd3b5c43	-0.045742285
142	0xbdb16b0e	-0.08662997
143	0xbdb4a6b8	-0.088208616
144	0xbc55f607	-0.013059146
145	0x3b07871e	0.0020679901
146	0xbdb577cc	-0.0886074
147	0x3c0014bc	0.007817443
148	0xbcf2d78d	-0.029643798
149	0x3c759205	0.014988427
150	0xbd0e79d2	-0.034784146
151	0xbc897701	-0.016780378
152	0x3c4fe47a	0.01268875
153	0x3c124255	0.008926948
154	0xbcd78e34	-0.026312925
155	0xbc6afcaa	-0.014342466
156	0xb8500e74	-4.9604525e-05
157	0xbe4ca8cf	-0.1998627
158	0xbe4ab6aa	-0.19796243
159	0x3dcac959	0.09901685
160	0xbd8bbb0f	-0.06822788
161	0xbdbfbcc5	-0.09362177
162	0x3e3deec2	0.1854811
163	0xbcdeb349	-0.0271851
164	0xbde9925a	-0.114048675
165	0xbe919564	-0.28434289
166	0xbe86dd30	-0.26340628
167	0xbe43cb49	-0.19120516
168	0x3e5b35bb	0.21407215
169	0x3dd067e2	0.10176064
170	0xbe77a813	-0.24185209
171	0xbe78902c	-0.24273747
172	0xbe2bd731	-0.16781308
173	0xbd90c226	-0.07068281
174	0xbdc317fb	-0.09526058
175	0x3e4cb9e3	0.19992785
176	0x3e438467	0.19093476
177	0xbd8fcfd1	-0.0702206
178	0xbe7420b6	-0.23840603
179	0x3e250456	0.16114935
180	0x3e4d4413	0.200455
181	0x3e72ef36	0.23724064
182	0x3e61db0d	0.22056217
183	0x3bb9a21e	0.005665078
184	0xbe77d510	-0.2420237
185	0xbe16a96f	-0.14713071
186	0xbe135d0e	-0.14390966
187	0xbe1d879a	-0.15383759
188	0x3e71506b	0.23565833
189	0x3e560950	0.2090199
190	0x3d65b38c	0.056079432
191	0xbdd1c777	-0.10243123
192	0xbce6ab81	-0.028157951
193	0xbea24857	-0.31695816
194	0xbe2d52a5	-0.16926058
195	0xbe332aa6	-0.17496738
196	0x3d9bd627	0.07609206
197	0x3ddcdd44	0.107843906
198	0xbe2a6fb1	-0.1664417
199	0xbe2350de	-0.15948817
200	0xbd42354d	-0.047414113
201	0xbd8b46af	-0.06800591
202	0xbdfba29d	-0.122868754
203	0xbdfc2151	-0.12311042
204	0x3dc698c5	0.09697107
205	0xbdb6c7fb	-0.08924862
206	0x3c3f7818	0.011686347
207	0xbdd166f6	-0.10224716
208	0xbd94dc9c	-0.072686404
209	0xbc8edd16	-0.017439406
210	0xbcc7fab7	-0.024411542
211	0x3d6a905f	0.05726659
212	0xbe23daf1	-0.16001488
213	0x3caab595	0.020838538
214	0xbdb4a7b6	-0.08821051
215	0xbdb280bd	-0.08715961
216	0x3c178776	0.009248605
217	0xbdb041d8	-0.08606309
218	0x3c8526d2	0.016253863
219	0x3c836986	0.016041528
220	0xbdf2102c	-0.11819491
221	0xbe197eed	-0.14989825
222	0x3db27bea	0.08715041
223	0x3d0b7339	0.03404543
224	0xbb3a8dd2	-0.002846588
225	0xbd30037e	-0.04297208
226	0x3d5c2c16	0.05375298
227	0x3db7508a	0.089509085
228	0x3d2ee81d	0.04270183
229	0x3d63ced8	0.055617183
230	0x37ec3f4c	2.8162867e-05
231	0xbd5bbac6	-0.053644918
232	0xbd25e2d9	-0.040499542
233	0x3d870266	0.06592254
234	0x3cac4255	0.021027723
235	0xbce12248	-0.027482167
236	0x3d83535e	0.064123854
237	0x3d90284a	0.070389345
238	0x3d69368b	0.05693678
239	0x3d6bbcfa	0.05755327
240	0xbd9d012c	-0.07666239
241	0x3bc0791a	0.0058738114
242	0xbd9a2dae	-0.07528244
243	0xbd9e4000	-0.07727051
244	0x3d40074b	0.046881955
245	0xbd89bcc7	-0.067254595
246	0x3d1d9710	0.038474143
247	0xbd6dbda2	-0.058042176
248	0xbd90ae06	-0.07064442
249	0x3d840b39	0.06447453
250	0x3dd775d4	0.10520521
251	0xbce433aa	-0.027856667
252	0x3ddc86e3	0.10767915
253	0xbd7b0f47	-0.061293866
254	0xbda5c4b3	-0.08094158
255	0x3e1e6045	0.15466411

cnn1.bias f4 [16]
0	0xbd4acdd0	-0.049512684
1	0x3d86fe7d	0.065915085
2	0xbdd2b894	-0.10289112
3	0x3d82f6d6	0.063947365
4	0x3d0f5ee0	0.03500259
5	0x3d86d1d0	0.06582987
6	0xbd07cf8d	-0.03315692
7	0xbd38e158	-0.04513678
8	0xbd57af2d	-0.052657295
9	0xbd26cd72	-0.04072327
10	0xbd864202	-0.06555559
11	0xbdce985a	-0.100876525
12	0x3d3c5931	0.045983497
13	0x3b15318d	0.002276513
14	0x3db6a690	0.08918488
15	0x3d8a749b	0.06760522

cnn2.weight f4 [32, 16, 3, 3]
0	0x3de7c89a	0.113175586
1	0x3e12c16c	0.14331597
2	0x3e39a2e0	0.18128538
3	0x3e356ec8	0.17718041
4	0x3e072a2c	0.13199681
5	0x3dee930e	0.11649142
6	0x3d893f3c	0.06701514
7	0x3e3b75d2	0.18306664
8	0x3e325a40	0.1741724
9	0x3e509cf3	0.20372371
10	0x3dc5a47a	0.09650512
11	0x3dd9c520	0.10633302
12	0x3d9b3dd1	0.0758015
13	0x3e07b9f9	0.13254537
14	0x3e068267	0.13135682
15	0x3e0f03b6	0.1396626
16	0x3d143d20	0.036191106
17	0x3e121227	0.14264737
18	0x3d21a7dd	0.039466728
19	0xbd8a4fc6	-0.06753497
20	0xbca882a0	-0.0205701
21	0xbd30116b	-0.04298536
22	0x3d63aa05	0.055582065
23	0x3d17f6ff	0.03710079
24	0x3b0c8c4a	0.0021445923
25	0xbd953be1	-0.072868116
26	0xbd261451	-0.04054672
27	0x3d86c4ec	0.065805286
28	0xbc18c03e	-0.009323178
29	0x3d9099da	0.07060595
30	0x3d9e4b58	0.077292144
31	0x3da616fa	0.08109851
32	0xbcb3bb7b	-0.021939984
33	0x3de56a18	0.112018764
34	0x3d40fa9d	0.047114003
35	0x3c31cc8b	0.0108519895
36	0x3e41e66e	0.18935558
37	0x3e012c00	0.12614441
38	0x3e39f0c8	0.18158257
39	0x3dbc9a5a	0.09209128
40	0x3e3069c8	0.17227852
41	0x3da84bda	0.082175925
42	0x3e06f960	0.13181067
43	0x3d040cfb	0.03223894
44	0x3d9df651	0.07712997
45	0x3d7c7a71	0.061640207
46	0x3d14a805	0.03629305
47	0xbd223658	-0.039602607
48	0xbd192947	-0.03739288
49	0x3d2de87d	0.042458046
50	0xbc9d35cd	-0.019190693
51	0x3d98cda2	0.07461096
52	0x3bdf7e86	0.0068205027
53	0x3b45f80e	0.0030207667
54	0x3d5123fe	0.051059715
55	0x3e2bb5e9	0.16768612
56	0x3e5b9b68	0.21446002
57	0x3e56b2f4	0.20966703
58	0x3e0f239a	0.13978425
59	0x3dbbbf20	0.091673136
60	0x3e8508e0	0.25983334
61	0x3e7d3417	0.24726902
62	0x3e10e0ac	0.14148206
63	0x3e2a13b8	0.16609085
64	0x3e2f2759	0.17104854
65	0x3ea01935	0.3126923
66	0x3e06213b	0.13098614
67	0x3a48e05d	0.0007662827
68	0x3e45dbe5	0.19322164
69	0x3ceec484	0.02914644
70	0x3d694670	0.05695194
71	0x3e2a3e6c	0.16625375
72	0x3dc6948d	0.096963026
73	0x3dbf3b56	0.09337489
74	0xbc7a2551	-0.015267686
75	0x3e0574a9	0.13032784
76	0x3c0dc8c7	0.008653826
77	0xbcfe054a	-0.031008381
78	0xbcd1dcb6	-0.025617938
79	0xbd390990	-0.045175135
80	0x3c30a597	0.010781667
81	0x3cd69e2c	0.02619847
82	0xbb1a0363	-0.0023500554
83	0x3cec5cab	0.028852781
84	0x3dbe754f	0.092997186
85	0x3d9d55b6	0.07682364
86	0x3d2ec2f2	0.042666383
87	0xba1337e0	-0.0005615931
88	0x3cb04885	0.021518955
89	0xbd14de8f	-0.03634506
90	0x3d11332e	0.0354492
91	0x3dd798e9	0.10527212
92	0x3e061e6a	0.1309754
93	0x3dc8a4ed	0.09797082
94	0x3d906ab0	0.07051599
95	0x3e157d87	0.14598666
96	0x3dd5510b	0.10415848
97	0x3c1fcbae	0.009753151
98	0x3dd4622f	0.103702895
99	0x3a7312ac	0.00092724967
100	0x3cfdad4d	0.030966425
101	0xbcf030a1	-0.029320063
102	0xbd1cd0ca	-0.038285054
103	0x3d3325a1	0.043737058
104	0xbda30acc	-0.07961044
105	0x3dbefdf1	0.09325779
106	0xbcde880a	-0.027164478
107	0xbd9e0670	-0.077160716
108	0x3e1306b2	0.14358023
109	0x3d90c6e9	0.07069189
110	0x3db423ce	0.08795892
111	0x3dce2ff4	0.1006774
112	0x3bd93d76	0.006629641
113	0xbc7a9519	-0.015294337
114	0xbcb46c54	-0.022024311
115	0x3c002872	0.007822143
116	0x3d17fc31	0.037105743
117	0x3c4ec554	0.012620289
118	0x3dcb80f1	0.09936703
119	0x3dcfc097	0.101441555
120	0x3db1fc3f	0.0869069
121	0x3d90ed28	0.07076484
122	0x3d71707d	0.058945168
123	0x3e0057ca	0.12533489
124	0x3e03dfd6	0.12878355
125	0x3d9870ff	0.07443427
126	0x3d1e4f48	0.038649827
127	0xbd19e63f	-0.037573095
128	0xbb8690c1	-0.0041066115
129	0xbd8a7ab2	-0.067616835
130	0x3d6335b3	0.055471133
131	0x3d0f675b	0.035010677
132	0xbd08dce4	-0.033413783
133	0xbdb0f54f	-0.08640539
134	0x3d17ccd3	0.03706057
135	0xbcbe0097	-0.02319364
136	0x3ca0fb01	0.019650938
137	0x3d9c624a	0.07635935
138	0xbd1e8de8	-0.03870955
139	0xbd21c8f9	-0.039498303
140	0xbd3ded80	-0.046369076
141	0xbcb3d537	-0.021952255
142	0xbbcdd1ca	-0.0062811123
143	0x3d7b9ea3	0.061430585
144	0xba2b1829	-0.00065267325
145	0x3d4961f6	0.04916569
146	0xbcb9fd25	-0.022703717
147	0x3ca0224f	0.01954761
148	0x3e17575f	0.14779423
149	0x3d859eaf	0.06524407
150	0x3e80040a	0.25003082
151	0x3e52bb85	0.20579346
152	0x3dc2c9e1	0.095111616
153	0x3d1470f5	0.036240537
154	0x3d154acf	0.036448296
155	0x3d1042cc	0.035219952
156	0x3dee985e	0.116501555
157	0x3cce5bb5	0.025190214
158	0xbdcd5d60	-0.100275755
159	0x3e2e588f	0.1702597
160	0x3de40379	0.11133475
161	0x3dfc697b	0.12324806
162	0xbba2cac8	-0.004968021
163	0x3d25f43b	0.04051612
164	0x3c905d74	0.017622687
165	0x3d127352	0.03575451
166	0x3d606a01	0.054788593
167	0x3c9522f0	0.018205136
168	0x3cba0a1b	0.022709897
169	0xbd1a37d2	-0.03765089
170	0x3d0f18da	0.03493581
171	0x3ddaf503	0.106912635
172	0xbd312724	-0.043250218
173	0xbe332ad3	-0.17496805
174	0x3e204831	0.15652539
175	0xbe1a5c54	-0.15074283
176	0x3d8f55fe	0.069988236
177	0x3cd08b98	0.025457188
178	0xbd7dc07c	-0.061951146
179	0x3dc351a5	0.09537057
180	0xbb6e349d	-0.0036347278
181	0x3cf025d0	0.029314905
182	0xbd0c4bf9	-0.03425214
183	0xbdb5c66d	-0.08875737
184	0x3d0be0e3	0.034150016
185	0x3e30a680	0.17251015
186	0x3e111be5	0.14170797
187	0x3da0093f	0.078142636
188	0x3e887a2e	0.26655716
189	0xbdbd1c8c	-0.092339605
190	0x3c6e052b	0.014527599
191	0xbdbdef20	-0.09274125
192	0xbde95ba7	-0.113944344
193	0x3d081018	0.033218473
194	0x3c87303f	0.016502498
195	0xbc93e7b1	-0.018054815
196	0x3d85490b	0.065080725
197	0x3dfa6d2a	0.12227853
198	0xbd021dfc	-0.031766877
199	0x3e16f2d3	0.14741068
200	0xbddcafc4	-0.10775712
201	0x3e236d55	0.15959676
202	0x3e02376b	0.12716453
203	0x3e246de0	0.16057539
204	0x3eafe966	0.34357756
205	0x3e567768	0.20943987
206	0x3e3f9260	0.18708181
207	0x3d27cdaf	0.04096764
208	0x3cf0d471	0.029398175
209	0x3b957749	0.004561339
210	0x3d628952	0.05530674
211	0x3b9b5a89	0.0047410172
212	0x3e2999f4	0.16562635
213	0x3cdfbe8d	0.027312541
214	0xbb1405b3	-0.0022586405
215	0x3e079318	0.13239706
216	0x3d745d94	0.059659556
217	0x3cedd849	0.029033797
218	0x3cada82b	0.021198353
219	0x3da5161d	0.080608584
220	0x3dbf7f67	0.09350472
221	0x3d4e1cf6	0.050320588
222	0x3e070b48	0.13187897
223	0x3e35829c	0.17725605
224	0x3e53117e	0.20612141
225	0xbb067934	-0.002051902
226	0xbc953cbf	-0.018217443
227	0x3d811cf7	0.06304353
228	0xbc994ef5	-0.018714407
229	0xbdb6eb3a	-0.08931585
230	0xbcb84ff5	-0.022499064
231	0x3d4d7263	0.050157916
232	0x3d58383d	0.052788008
233	0x3d81e291	0.06342042
234	0x3d60eb7a	0.054912068
235	0x3c868489	0.01642062
236	0x3d7370d1	0.059433762
237	0x3da8247a	0.08210082
238	0x3cdea4a7	0.027178122
239	0x3cb318b8	0.021862373
240	0x3de2c63f	0.11072969
241	0x3df3b0bc	0.11898944
242	0x3d1bce5b	0.038038593
243	0x3d478c22	0.048717625
244	0x3d3c3aca	0.045954503
245	0xbd0cdf8b	-0.034392875
246	0x3cff5b08	0.031171337
247	0x3db80545	0.0898538
248	0x3d8ec497	0.0697109
249	0xbc7ec655	-0.015550216
250	0xbcd379d0	-0.02581492
251	0xbdf5b5a9	-0.119975396
252	0xbccc4cf9	-0.024939047
253	0x3da2ce22	0.07949473
254	0x3d53e834	0.051735118
255	0x3e2f9687	0.17147265

cnn2.bias f4 [32]
0	0xbda52aa1	-0.080647714
1	0xbcc4a8d4	-0.024006285
2	0x3a83b041	0.0010047035
3	0xbd35faa9	-0.0444285
4	0x3ccd630b	0.025071641
5	0xbcb8e080	-0.022567987
6	0xbd9208a2	-0.07130553
7	0xbcedff2b	-0.029052338
8	0xbd907970	-0.07054412
9	0xbb155f86	-0.0022792532
10	0xbce1a17d	-0.027542824
11	0xbd71ab93	-0.059001517
12	0x3ca5839d	0.02020436
13	0xbdab518a	-0.08365162
14	0xbb918333	-0.004440689
15	0xbc887eec	-0.016662084
16	0xbacf2a2a	-0.0015805413
17	0xbd349ce8	-0.04409495
18	0xbdc65fe9	-0.09686262
19	0x3d0634f1	0.032765333
20	0x3ca7d242	0.020486
21	0x3bbd57cd	0.005778289
22	0x3d028400	0.031864166
23	0x3c6378d9	0.013883793
24	0xbd5865a5	-0.05283131
25	0xbdb72abb	-0.08943697
26	0xbdb7e6f8	-0.08979601
27	0x3be04854	0.0068445597
28	0xbca7e7da	-0.020496298
29	0xbc36e232	-0.011162328
30	0x3acc20c8	0.0015573734
31	0xbc88164a	-0.01661219

cnn3.weight f4 [32, 32, 3, 3]
0	0x3dae3bee	0.085075244
1	0x3d32fce1	0.043698195
2	0xbd5bdeba	-0.053679205
3	0x3d8e81e2	0.06958367
4	0x3cff156b	0.031138143
5	0x3d57f635	0.052725036
6	0xbc200fa5	-0.009769355
7	0x3c6b9e25	0.014380966
8	0x3c79094c	0.01519997
9	0x3dd4626e	0.103703365
10	0x3d6b4d8e	0.05744701
11	0x3c74cfa3	0.014942083
12	0xbbde6322	-0.00678672
13	0x3b9ff567	0.004881549
14	0xbd676358	-0.056491226
15	0xbcd66dd9	-0.026175426
16	0xbde12cb3	-0.10994854
17	0xbdac2029	-0.084045716
18	0xbc7ea1d3	-0.015541512
19	0x3cd42c7d	0.02590012
20	0x3d1119e6	0.03542509
21	0x3da4e589	0.08051593
22	0xbd427b33	-0.047480773
23	0x3c1aafb9	0.00944131
24	0x3d0ccf3d	0.034377325
25	0xbd28798a	-0.041131534
26	0x3b8424b7	0.004032697
27	0x3dffa637	0.12482875
28	0x3d8c0bba	0.06838174
29	0xbd30cf36	-0.04316636
30	0x3d11c8a9	0.035591755
31	0x3cb43618	0.02199845
32	0x3c9c2bd3	0.019063866
33	0x3c79eaf3	0.01525377
34	0xbd34e840	-0.044166803
35	0xbd6d5499	-0.057942007
36	0x3cc9090d	0.024540449
37	0x3d842286	0.06451897
38	0xbda42865	-0.08015517
39	0xbcb687c3	-0.022281533
40	0xbd12d8c4	-0.035851255
41	0xbcf1f4ad	-0.029535616
42	0x3c2ba671	0.010476694
43	0xbd1cffc6	-0.038329862
44	0xbd6eb89a	-0.05828152
45	0x3dcd2eac	0.100186676
46	0x3bebd2f2	0.0071967775
47	0xbd175d3e	-0.036954157
48	0x3d3d104b	0.046158116
49	0xbd3d5ae8	-0.046229273
50	0xbd3e7cf3	-0.04650588
51	0xbca3254a	-0.019915242
52	0xbdb4103b	-0.08792158
53	0xbc819a7d	-0.015820736
54	0x3d34e13e	0.04416012
55	0x3da4475d	0.08021424
56	0xbda6a9b0	-0.08137834
57	0x3b8f0207	0.0043642554
58	0xbd1812b0	-0.037127197
59	0xbcd0a3c2	-0.02546871
60	0x3d120e45	0.03565814
61	0x3d0f8bbf	0.03504538
62	0xbd20ff03	-0.039305698
63	0x3d3c38df	0.045952674
64	0xbca4efe9	-0.02013393
65	0xbd3be2fc	-0.045870766
66	0x3d8eca13	0.06972136
67	0xbd065006	-0.03279116
68	0x3cea2cfc	0.028585903
69	0x3d2ac142	0.04168821
70	0xbd263bdf	-0.04058444
71	0x3d15342e	0.036426716
72	0x3c80257c	0.015642874
73	0xbd07d529	-0.03316227
74	0xbcb0c784	-0.021579511
75	0x3d5e425e	0.05426251
76	0x3c1252bc	0.008930858
77	0xbd376d9f	-0.044782277
78	0xbd06c0ce	-0.032898717
79	0xbc82cbe0	-0.015966356
80	0x3cd4409f	0.02590972
81	0x3daf7afb	0.085683785
82	0x3d9ba3aa	0.07599576
83	0x3d408db9	0.047010157
84	0x3dcda9ae	0.100421295
85	0x3d694d13	0.05695827
86	0xbce96562	-0.028490726
87	0x3cb0c178	0.021576628
88	0xbd007613	-0.031362604
89	0xbc24d7ca	-0.010061214
90	0x3cf1d683	0.029521232
91	0xbd94a7f9	-0.07258601
92	0xbd2510b3	-0.04029913
93	0x3daac235	0.08337823
94	0xbb7bf8c8	-0.0038447846
95	0xbd151dd2	-0.036405392
96	0xbc50b687	-0.01273883
97	0x3c91fc06	0.01782037
98	0xbc4cdf39	-0.012504392
99	0x3ccfae44	0.025351651
100	0x3bf88298	0.0075839274
101	0xbd1140db	-0.03546224
102	0x3da9d644	0.08292821
103	0xbccd8ea5	-0.025092432
104	0xbd1943b7	-0.037418094
105	0x3d2ce922	0.04221452
106	0xbcb931bb	-0.022606721
107	0xbdd89c6f	-0.10576712
108	0x3ce469e7	0.02788253
109	0xbcbc1bdd	-0.022962505
110	0xbcd32477	-0.025774224
111	0x3d9d7a76	0.07689373
112	0xbca57797	-0.020198626
113	0x3d18e247	0.03732517
114	0xbc00ecb1	-0.007868932
115	0xbca9d1a0	-0.02072984
116	0xbd7f7bf6	-0.062374078
117	0x3cca59eb	0.02470108
118	0x3cc0c126	0.0235296
119	0x3c42474e	0.011857821
120	0x3dbac00a	0.0911866
121	0x3c745461	0.014912696
122	0xbd17d214	-0.03706558
123	0x3c9df550	0.019282013
124	0xbb21645d	-0.0024626472
125	0x3b9f987b	0.004870472
126	0x3a84994f	0.001011649
127	0x3db69ce0	0.0891664
128	0xbd2ff303	-0.042956363
129	0xbb7cad8a	-0.0038555586
130	0x3d448b1e	0.047984235
131	0x3c0395b2	0.008031296
132	0x3d4dfb2e	0.05028837
133	0xbd8d5e4c	-0.06902751
134	0xbd1f2320	-0.038851857
135	0x3d7879c0	0.060662985
136	0xbc8fcbba	-0.0175532
137	0x3d581343	0.052752744
138	0x3dcf48df	0.10121321
139	0xbd48e754	-0.049048737
140	0xbbd6d1c3	-0.0065557673
141	0xbbf7b520	-0.0075594336
142	0xbd182e55	-0.03715356
143	0x3ce90035	0.028442482
144	0x3d7aa0b0	0.0611884
145	0x3dc43cc8	0.095819056
146	0x3b5db1a5	0.0033827808
147	0x3d6858fb	0.056725483
148	0x3d595422	0.05305875
149	0x3ca60558	0.02026622
150	0xbc63f4df	-0.013913362
151	0xbcbe5d58	-0.02323787
152	0xbb73bc8a	-0.0037191235
153	0x3d9bd0d5	0.07608191
154	0xbba497d4	-0.005022982
155	0x3cfa9c8c	0.030592225
156	0x3d701d65	0.058621783
157	0xbad781ba	-0.001644186
158	0xbcd3e312	-0.025865112
159	0xbd59ebac	-0.05320327
160	0xbc4535e3	-0.012036773
161	0x3cb45e56	0.02201764
162	0x3bd897b3	0.006609881
163	0x3d5cb9ea	0.05388824
164	0xbcfcac03	-0.03084374
165	0x3d14f5ed	0.036367346
166	0xbd271c19	-0.04079828
167	0xbd505d3b	-0.05087016
168	0x3d214bad	0.03937881
169	0x3cfe2220	0.031022131
170	0xbcaf66cf	-0.021411328
171	0x3d30ab58	0.043132156
172	0x3d7d2208	0.061800033
173	0xbc455121	-0.012043268
174	0xbcd93aef	-0.02651736
175	0xbce98d4c	-0.028509758
176	0xbd1a7741	-0.037711386
177	0x3d039bd3	0.032131027
178	0xbb41008e	-0.0029449794
179	0xbd860949	-0.0654474
180	0xbd166152	-0.036713906
181	0xbc9f92b4	-0.019479133
182	0xbc39a82b	-0.011331598
183	0xbd090075	-0.0334477
184	0x3d2d900d	0.042373706
185	0xbbfbb396	-0.0076813204
186	0xbbe83488	-0.0070863403
187	0x3d16b9bb	0.03679822
188	0xbd37112d	-0.044694114
189	0x3cbaf95d	0.022823984
190	0xbca0cc50	-0.019628674
191	0xbd3af0d4	-0.045639828
192	0x3dcb1a2e	0.09917103
193	0xbdb49bb1	-0.08818758
194	0xbdada700	-0.08479118
195	0xbcf9dde0	-0.030501306
196	0xbd9d0684	-0.076672584
197	0xbde1223b	-0.10992857
198	0x3d91a366	0.07111244
199	0x3d2c7253	0.042101216
200	0xbc76f64f	-0.015073373
201	0x3c27c149	0.010238954
202	0x3c96806a	0.01837178
203	0xbc5bf121	-0.013424189
204	0x3d0de5f1	0.034643117
205	0xbcb83728	-0.022487238
206	0x3d217da5	0.039426465
207	0xbc0c2d4b	-0.008555721
208	0x3d79d679	0.060995553
209	0xbbccab24	-0.0062459875
210	0xbc974d33	-0.018469429
211	0xbc0ab19c	-0.008465197
212	0x3c3c1480	0.011479497
213	0x3d7bb091	0.061447684
214	0xbca895a1	-0.020579161
215	0xbc761412	-0.015019434
216	0x3c9093e7	0.01764865
217	0x3d9b126d	0.07571874
218	0xbc89e0df	-0.01683086
219	0x3d5d1419	0.053974245
220	0xbd172b0f	-0.0369063
221	0xbc8761f4	-0.0165262
222	0x3d349c31	0.04409427
223	0x3cbccbf0	0.023046464
224	0xbc514b30	-0.012774274
225	0x3c6d088e	0.014467372
226	0x3c0b1a5d	0.008490172
227	0xbd3c78e7	-0.04601374
228	0x3d41679e	0.047217958
229	0x3c1ae62c	0.009454291
230	0x3cf7c606	0.030245792
231	0x3d0df1a1	0.034654263
232	0xbc989793	-0.018626964
233	0xbd2beb2e	-0.04197233
234	0x3dd3c8d6	0.10341041
235	0x3c9128d0	0.017719656
236	0x3bcbde27	0.006221551
237	0x3d774c8b	0.06037573
238	0x3da2e38b	0.079535566
239	0x3d277cd1	0.04089052
240	0x3d153de6	0.036435984
241	0xbcd181b3	-0.02557454
242	0x3aa54966	0.0012610375
243	0xbe9207a6	-0.2852146
244	0xbe76bd7d	-0.24095722
245	0xbe2a98fc	-0.16659921
246	0xbe8d30b3	-0.27576217
247	0xbd0cad75	-0.03434511
248	0xbdbdb969	-0.0926388
249	0x3e0d7a0f	0.13816093
250	0x3dd5c06d	0.10437093
251	0xbd5a15b2	-0.053243347
252	0xbca49416	-0.020090144
253	0xbc3cf1cc	-0.011532258
254	0xbc4dbbdd	-0.012556997
255	0xbd0716db	-0.03298078

cnn3.bias f4 [32]
0	0x3c2d3346	0.010571307
1	0xbd0a6480	-0.03378725
2	0xbd5e6c8e	-0.054302745
3	0xbd2ab28b	-0.041674178
4	0xbd899584	-0.06717971
5	0xbb9e94d7	-0.0048395204
6	0x3d04487a	0.03229568
7	0x3c709947	0.014684982
8	0xbabc55bf	-0.0014368816
9	0xbd01f74b	-0.031729978
10	0xbbfccd8e	-0.0077149337
11	0x3c0602a2	0.008179339
12	0x3cb49422	0.022043291
13	0x3cb72a8c	0.022359155
14	0x3cc52ee5	0.024070213
15	0xbcde640d	-0.027147317
16	0xbd43eaec	-0.04783146
17	0x3b9afd95	0.0047299364
18	0x3ca3e399	0.020005988
19	0xbc90ecfa	-0.017691124
20	0xbdace0c2	-0.08441307
21	0xbda52678	-0.08063978
22	0xbd4fd74b	-0.05074243
23	0xbd6a9006	-0.057266258
24	0xbd5933c6	-0.05302789
25	0x3c0dd30f	0.008656277
26	0xbc347be3	-0.011015865
27	0xbd574fba	-0.052566268
28	0xb9fc4cdc	-0.0004812245
29	0xbd2f2609	-0.042760883
30	0x3c8283ef	0.015932051
31	0xbc28fa98	-0.010313652

fc1.weight f4 [128, 768]
0	0x3d03f570	0.03221649
1	0x3d3d320a	0.0461903
2	0x3cc3df98	0.023910329
3	0x3c102b06	0.00879932
4	0x3d561cb6	0.052273475
5	0x3d88ce97	0.06680029
6	0xbc054254	-0.00813349
7	0x3c83eb29	0.016103344
8	0x3c986e9e	0.018607434
9	0x3d3da045	0.046295423
10	0x3bc5754c	0.006025946
11	0x3cb68e46	0.022284638
12	0x3d08e712	0.03342349
13	0xbd331ffe	-0.043731682
14	0xbd17849c	-0.0369917
15	0x3d015933	0.031579208
16	0x3ceb6d0f	0.028738527
17	0xbd4689fc	-0.048471436
18	0xbcc46c39	-0.023977386
19	0xbd1ab9c8	-0.03777483
20	0xbc38da94	-0.011282582
21	0xbd0dc928	-0.034615666
22	0xbd744c5e	-0.059643142
23	0xbc86a92c	-0.01643809
24	0xbc470a78	-0.012148492
25	0x3cf194e6	0.029489946
26	0x3d95454e	0.072886094
27	0x3bb732e4	0.0055907834
28	0x3cf75a01	0.030194284
29	0x3d05fcf7	0.03271195
30	0x3cc95b45	0.024579654
31	0x3d767c68	0.060177237
32	0x3d913004	0.070892364
33	0x3d87007f	0.065918915
34	0x3c9de149	0.019272463
35	0x3c016411	0.007897393
36	0x3c84ccf3	0.016211009
37	0x3c63f7d3	0.013914066
38	0xbc8fa090	-0.017532617
39	0xbaf31051	-0.0018544291
40	0xbcabac34	-0.020956136
41	0xbd32ca4d	-0.04364996
42	0x3aea9cd6	0.0017899524
43	0xbb71df24	-0.0036906684
44	0xbb619da5	-0.003442624
45	0x3c9b534e	0.018960621
46	0xbc6289d3	-0.013826805
47	0xbce0873f	-0.02740824
48	0x3c7ce8d4	0.01543637
49	0x3b584190	0.0032998063
50	0x3b018420	0.001976259
51	0x3c6804e0	0.014161319
52	0x3c6a3048	0.014293738
53	0x3cdcfa4c	0.02697482
54	0x3d10c158	0.035340637
55	0x3bbcd6b0	0.0057628974
56	0xbb7ffb20	-0.0039059594
57	0xbd01ee48	-0.031721383
58	0xbbef76b8	-0.0073078535
59	0xbc066a2a	-0.008204022
60	0x3c3ebe94	0.011642117
61	0xbcc0c4ee	-0.023531403
62	0xbc367a2a	-0.011137525
63	0xbcb70772	-0.022342417
64	0x3b828f18	0.0039843433
65	0xbc630e62	-0.01385841
66	0x3ceb7d3c	0.02874624
67	0xbc1d9a48	-0.009619303
68	0xbc22b2f4	-0.009930361
69	0x3b21bf00	0.0024680495
70	0x3bc32868	0.0059557445
71	0xbc995977	-0.018719418
72	0xbcf4e481	-0.029894115
73	0x3d53f450	0.051746666
74	0x3da306b4	0.07960263
75	0xbc18e4ee	-0.009331925
76	0x3d3a1808	0.045433074
77	0x3d1357c3	0.035972368
78	0x3cbf47e5	0.023349712
79	0xbc6cee1d	-0.0144610675
80	0x3c8bf77c	0.017085783
81	0x3a3d6098	0.00072241714
82	0xbc924d0e	-0.017859008
83	0x3c2d84e6	0.0105907675
84	0x3d08e56c	0.03342192
85	0x3b9b9673	0.0047481596
86	0xbd32e5c7	-0.043676164
87	0xbcdab5a5	-0.026697943
88	0xbab3ac59	-0.001370798
89	0xbcc0628e	-0.023484495
90	0x3b7db439	0.0038712157
91	0xbd7346cd	-0.059393693
92	0xbdbaf30b	-0.09128388
93	0xbd7193fc	-0.05897902
94	0xbd3e8d58	-0.046521515
95	0xbdcd3b9b	-0.100211345
96	0x3ce586c2	0.02801836
97	0x3d01a2bf	0.031649347
98	0x3c602620	0.013680965
99	0x3bc3aa77	0.0059712487
100	0x3ccc54ec	0.024942838
101	0x3d8fd2f4	0.07022658
102	0xbc958990	-0.018254071
103	0xbc8781c4	-0.01654137
104	0xbc82f8e9	-0.01598783
105	0xbd1779b4	-0.0369813
106	0xbdab15aa	-0.083537415
107	0xbd26d45f	-0.040729877
108	0xbded819c	-0.11596987
109	0xbd8c6fd5	-0.06857268
110	0xbd9da0b9	-0.07696671
111	0xbdebf57b	-0.11521431
112	0xbd3c2841	-0.045936827
113	0xbd3e9e1f	-0.046537515
114	0xbd75bd7e	-0.059995167
115	0xbd589660	-0.052877784
116	0xbd178a57	-0.036997166
117	0xbde5fb98	-0.11229628
118	0xbda84f45	-0.082182445
119	0xbdc8ed9d	-0.09810946
120	0xbca4f9e1	-0.020138683
121	0x3d8b199b	0.06791993
122	0x3bfe6862	0.0077639082
123	0x3c6c5f40	0.014427006
124	0x3d236660	0.039892554
125	0x3cba0e77	0.022711975
126	0x3d0f48b6	0.034981452
127	0x3d435586	0.047688983
128	0x3d460211	0.048341814
129	0x3ce5429a	0.02798586
130	0x3bbebfdc	0.0058212113
131	0x3cd7443c	0.026277654
132	0x3cba0983	0.022709614
133	0xbb815329	-0.003946681
134	0x3bedfbe5	0.007262694
135	0xbb1857eb	-0.0023245763
136	0xbc71da09	-0.014761456
137	0xbcc23e5a	-0.023711372
138	0xbc04034d	-0.008057428
139	0xbcf65d86	-0.030073892
140	0xbc9c1158	-0.019051239
141	0x3c9d1cfd	0.019178862
142	0xbd01ce1c	-0.0316907
143	0xbcc28111	-0.023743184
144	0x3ccf7ee2	0.025329057
145	0x3d1af8b8	0.037834853
146	0x3d0cb63e	0.034353487
147	0x3bde5327	0.006784815
148	0x3c1446a0	0.009050041
149	0x3c40e0ed	0.0117723765
150	0x3c9684d5	0.018373886
151	0x3c4e2295	0.012581487
152	0x3cde7199	0.027153777
153	0xbb861604	-0.00409198
154	0x3ca74ae6	0.020421457
155	0x3d2b069d	0.041754354
156	0xbb8510f8	-0.0040608607
157	0x3c0973fe	0.008389471
158	0xbd1ee5ec	-0.03879349
159	0xba9fa791	-0.0012180676
160	0x3c9bd940	0.019024491
161	0xbc279b11	-0.010229842
162	0xbad1518e	-0.001596974
163	0xbd3a1c49	-0.04543713
164	0xbd095a52	-0.0335334
165	0xbcc0dd8c	-0.023543142
166	0xbd3a60ae	-0.045502357
167	0xbd535495	-0.051594336
168	0x3c87a3a0	0.016557515
169	0x3d05c57d	0.032659043
170	0x3da35ac5	0.07976297
171	0xbc1a9044	-0.00943381
172	0xbc831a70	-0.016003817
173	0x3d36f38c	0.04466586
174	0x3c213ed6	0.009841641
175	0x3d0c4366	0.034243964
176	0x3d38558b	0.045003455
177	0x3cd01dad	0.025404776
178	0x3c4eed7b	0.012629862
179	0xbc7cc5df	-0.0154280355
180	0xbd053bec	-0.03252785
181	0x3ab69bdb	0.0013931947
182	0xbd1da743	-0.03848959
183	0x3cb35443	0.021890765
184	0xbcb05cc1	-0.021528604
185	0xbb1c7283	-0.0023871965
186	0x3ccc5cd8	0.024946615
187	0xbd77c9aa	-0.060495056
188	0xbd660e42	-0.05616594
189	0xbc1ac289	-0.009445795
190	0xbc93122d	-0.017953003
191	0xbcec83b1	-0.02887139
192	0x3caf2efd	0.02138471
193	0xbbeafeec	-0.0071715023
194	0x3d0e6a19	0.03476915
195	0x3dae26a9	0.085034676
196	0x3d022c44	0.031780496
197	0x3cfe77ed	0.031063044
198	0x3d50768b	0.0508943
199	0x3c8187ae	0.015811767
200	0x3d792e0c	0.06083493
201	0x3d45a525	0.048253197
202	0x3d3d40de	0.04620444
203	0x3d54b5f1	0.051931325
204	0x3b150bcb	0.0022742625
205	0x3c9baa83	0.019002205
206	0x3c49797e	0.012297032
207	0x3d1c1180	0.038102627
208	0xbd2597c9	-0.040427957
209	0x395858d3	0.00020632455
210	0xba2e8d44	-0.00066586235
211	0xbd2bfcc6	-0.04198911
212	0xbd1f7e1a	-0.03893862
213	0xbc84d5d9	-0.016215252
214	0xbd8b0d3e	-0.06789635
215	0xbd8f1ecf	-0.06988298
216	0x3c844df0	0.016150445
217	0xbcd6ed3b	-0.026236167
218	0x3d30c415	0.04315575
219	0xbccad72e	-0.024760809
220	0x3d107852	0.035270996
221	0x3d432211	0.04763991
222	0xbc8249a3	-0.015904253
223	0x3c5a24e9	0.013314464
224	0x3d945ac0	0.07243872
225	0x3c4f8f3b	0.012668426
226	0x3b1d09e2	0.002396219
227	0x3d576330	0.052584827
228	0x3c5edd98	0.013602637
229	0x3af0079e	0.0018312817
230	0xbb8479a8	-0.004042823
231	0xbcc3850e	-0.023867156
232	0xbcca27d0	-0.024677187
233	0xbc003763	-0.007825705
234	0xbbf0e675	-0.0073516914
235	0xbcb91a60	-0.022595584
236	0xbcf90aba	-0.030400623
237	0xbcf0f751	-0.029414805
238	0x3bbc7f4f	0.005752481
239	0xbd29868f	-0.04138809
240	0xbac2650d	-0.0014831141
241	0x3c90e9f8	0.01768969
242	0xbdfd84ad	-0.123788215
243	0x3d5e6924	0.05429949
244	0x3c9527d5	0.01820747
245	0xbe336e70	-0.17522597
246	0x3db91eb1	0.09039057
247	0x3d7df37a	0.061999775
248	0xbd895ae0	-0.06706786
249	0x3d747edd	0.0596913
250	0x3d58314f	0.0527814
251	0xbb7fbf7b	-0.0039024043
252	0x3d65dbd1	0.056117836
253	0x3c95b918	0.018276736
254	0xbd02cc13	-0.0319329
255	0x3bcd2191	0.006260105

fc1.bias f4 [128]
0	0xbcadfd1a	-0.021238852
1	0x3d37027c	0.044680104
2	0x3c3e2b11	0.0116069475
3	0x3c2419e6	0.01001594
4	0x3bb120be	0.0054055145
5	0xbd41f191	-0.047349516
6	0xbc9738c8	-0.018459693
7	0xbd218c2f	-0.03944033
8	0x38c7ad88	9.521382e-05
9	0x3bb679af	0.005568705
10	0x3c23e5e5	0.010003542
11	0x3a851cfc	0.0010155733
12	0xbd3577fe	-0.044303887
13	0xbd41443d	-0.047184218
14	0xbce31049	-0.027717726
15	0xba28db6f	-0.00064413896
16	0xbcbec815	-0.023288766
17	0xbd1041a6	-0.035218857
18	0x3c8d1e86	0.017226469
19	0x3c105a0b	0.00881053
20	0xbd04495f	-0.032296535
21	0x3aab1232	0.0013051687
22	0x3d05df85	0.032683868
23	0xbbca05a9	-0.0061652255
24	0xbc71b86c	-0.014753442
25	0x3cbd938c	0.023141645
26	0xbd3c0ee9	-0.045912657
27	0x3d23f2ec	0.04002659
28	0xbcf8db10	-0.030377895
29	0x3caf70b4	0.021416046
30	0x3d21b73c	0.039481387
31	0xbd04a5b8	-0.032384604
32	0xbbbdefb3	-0.0057963966
33	0xbd199627	-0.037496712
34	0xbbcab4d0	-0.0061861053
35	0xbd12fe4a	-0.03588704
36	0xbc6feb5a	-0.0146435145
37	0x3cba623c	0.02275192
38	0x3b7dc033	0.0038719296
39	0xbd798990	-0.060922205
40	0xbd2f418f	-0.04278713
41	0x3c38af54	0.01127227
42	0xbccaeae5	-0.02477021
43	0xbcd134ab	-0.02553781
44	0x3a6ce85d	0.00090373104
45	0xbca75054	-0.020424046
46	0x3c9bb0fd	0.019005293
47	0x3c2acdbd	0.010425028
48	0xbd0eecda	-0.034893848
49	0xbd3515e6	-0.044210337
50	0xbd2b0a5e	-0.041757934
51	0x3cc03333	0.023461914
52	0xbd2a121a	-0.04152117
53	0x3d05bc83	0.032650482
54	0x3bfbe230	0.0076868758
55	0x3cc56e8e	0.024100568
56	0x3ba99adb	0.005175931
57	0x3d1fb54f	0.03899127
58	0x3bbc3890	0.0057440475
59	0xbd469def	-0.04849046
60	0x3d17f75d	0.03710114
61	0xbc448be1	-0.01199624
62	0xbd0fb5a9	-0.035085354
63	0xbcc6d915	-0.024273435
64	0xbd139d0f	-0.036038455
65	0x3b92f07c	0.0044842344
66	0x3d077162	0.033067115
67	0x3c8c98d2	0.017162714
68	0x3c0e8bfe	0.008700369
69	0x3c625376	0.013813844
70	0xbb1f37f0	-0.0024294816
71	0xbcc5d3bb	-0.024148813
72	0x3d281703	0.04103757
73	0xbc7d723e	-0.015469132
74	0x3b220e7f	0.0024727879
75	0xbc332eea	-0.010936478
76	0x3c7f651a	0.015588069
77	0xbd1a4b57	-0.037669506
78	0x3cd2a423	0.025713032
79	0x3c85873d	0.016299838
80	0xbd03714e	-0.032090478
81	0xbd08a2ef	-0.03335851
82	0xba816af8	-0.0009873798
83	0xbb0b7abe	-0.0021282877
84	0x3ae69b55	0.00175939
85	0x3ca4dab9	0.020123826
86	0x3cf694a9	0.030100184
87	0x3d1df8bb	0.038567286
88	0x3d6f7a2f	0.058466133
89	0xbd194622	-0.0374204
90	0xbc3f9eb9	-0.011695557
91	0xbca74e38	-0.02042304
92	0xbd1bb2d9	-0.03801236
93	0xbc299b86	-0.010352021
94	0xbc0ab71e	-0.00846651
95	0xbd379c7b	-0.044826966
96	0xbc8d2ca8	-0.017233208
97	0x3d205112	0.039139815
98	0x3cfcb84d	0.0308496
99	0x3d152baf	0.036418613
100	0x3ce09f8f	0.027419833
101	0xbbf2868c	-0.007401293
102	0xbbca9f55	-0.0061835446
103	0x3d097892	0.03356225
104	0x3c5a5b92	0.013327496
105	0xbca43420	-0.020044386
106	0xbd3c32d7	-0.045946922
107	0x3b4dd36f	0.0031406542
108	0x3c849786	0.016185533
109	0x3cd40c1a	0.025884677
110	0x3be5f01b	0.007017148
111	0xbd2b0232	-0.04175014
112	0x3c08395d	0.008314458
113	0xbd280a07	-0.041025188
114	0x3d3d1b0a	0.046168365
115	0xbcaee78a	-0.02135064
116	0x3cb19d18	0.021681353
117	0xbd143e8b	-0.036192458
118	0xbcdcff62	-0.026977245
119	0xbb16931f	-0.0022975875
120	0xbbb0e19a	-0.0053979876
121	0x3c980143	0.01855529
122	0xbcc7c0a5	-0.024383852
123	0xbc996545	-0.018725047
124	0xbce5dbfa	-0.028058995
125	0xbcddda4d	-0.027081633
126	0x3ca7a277	0.020463211
127	0x3ca86d3d	0.020559901

fc2.weight f4 [128, 128]
0	0x3d4f04fe	0.05054187
1	0xbce3ec6c	-0.027822696
2	0x3dd09850	0.10185301
3	0xbd6f8aa0	-0.058481812
4	0xbd3bf5b4	-0.045888618
5	0xbcf8779d	-0.030330474
6	0xbd3c0a44	-0.045908228
7	0xbd401e05	-0.04690363
8	0x3dbaf142	0.091280475
9	0xbcc30b9c	-0.023809247
10	0x3de6f61d	0.11277411
11	0xbd8b9d3d	-0.068171
12	0x3da6c2eb	0.081426464
13	0x3d803177	0.06259435
14	0x3d8d4ad0	0.06899035
15	0x3cde8bef	0.027166335
16	0xbd02fd82	-0.031980045
17	0xbcefd0de	-0.0292744
18	0xbc1bf7e9	-0.009519556
19	0x3db7ec2f	0.08980595
20	0x3d10cb54	0.03535016
21	0x3dcfe998	0.10151976
22	0xbcc5c987	-0.024143947
23	0xbdaaf153	-0.0834681
24	0x3da1309d	0.078706004
25	0xbd2be9f7	-0.041971173
26	0x3d9ac28f	0.0755664
27	0x3d146cf1	0.036236707
28	0xbd30ef62	-0.043197043
29	0x3d8d51fc	0.06900403
30	0x3db600b1	0.088868506
31	0xbd8ebfe6	-0.069701955
32	0xbd472c5c	-0.04862629
33	0x3ca4062a	0.02002247
34	0x3ca2fd84	0.019896276
35	0x3cb856e1	0.022502365
36	0x3de23461	0.11045147
37	0x3d4b5b2e	0.049647503
38	0xbca83572	-0.020533297
39	0xbdb4b48c	-0.08823499
40	0xbcac18d8	-0.02100794
41	0x3d1f1cc8	0.038845807
42	0x3cb8c292	0.022553716
43	0x3d700ccf	0.058605965
44	0xbcd1f198	-0.025627896
45	0x3d48cc38	0.049022883
46	0x3ca42203	0.02003575
47	0x3d8a06b4	0.0673956
48	0x3d96eead	0.073697425
49	0x3d9f4939	0.07777638
50	0x3d147f1e	0.03625404
51	0xbd391665	-0.045187373
52	0xbcae1abf	-0.021252988
53	0xbc3504ac	-0.011048477
54	0xbcf3c677	-0.029757721
55	0x3cba33e4	0.022729822
56	0x3d0069ac	0.031350777
57	0x3de1e706	0.11030392
58	0x3c73d694	0.014882702
59	0xbd08f5e4	-0.033437625
60	0x3b52248c	0.003206524
61	0x3ce6f5e1	0.028193416
62	0xbd66bf37	-0.0563347
63	0x3c860af0	0.016362637
64	0x3cb4ed4b	0.022085806
65	0xbd0a6e2f	-0.033796486
66	0x3b549ab0	0.0032440834
67	0xbd198d4b	-0.037488263
68	0x3d86a60c	0.0657464
69	0x3cefa7e0	0.029254854
70	0xbcb621c1	-0.022232892
71	0x3d933dd8	0.0718953
72	0x3dc768ab	0.09736761
73	0x3cb31ab4	0.021863319
74	0xbd9546c7	-0.0728889
75	0xbd5044bd	-0.050846804
76	0xbd701a78	-0.058618993
77	0x3d261562	0.040547736
78	0x3d76528a	0.06013731
79	0x3ca083af	0.019594042
80	0x3c956e12	0.018240962
81	0xbd4e0347	-0.050296094
82	0x3cf18407	0.0294819
83	0xbdaf0794	-0.08546367
84	0xbda8770f	-0.082258336
85	0x3bfd69bb	0.0077335513
86	0x3d36d3ae	0.044635467
87	0x3ca6e993	0.020375049
88	0xbd03a239	-0.03213713
89	0x3dc88ed7	0.097928695
90	0xbcf7e166	-0.030258846
91	0x3db11b77	0.08647817
92	0xbd172f84	-0.03691055
93	0x3d9e19ea	0.077197865
94	0xbcac0bb0	-0.021001667
95	0x3d4e3dfa	0.050352074
96	0xbce8fcf5	-0.028440932
97	0xbd510d37	-0.051037993
98	0x3d6c1a83	0.05764247
99	0x3dcd59ef	0.10026919
100	0xbdf2f864	-0.11863783
101	0xbcd29a38	-0.025708303
102	0xbd41294f	-0.047158536
103	0x3d912a5e	0.07088159
104	0xbca3567b	-0.019938698
105	0xbd65c154	-0.056092575
106	0x3c9c1a2c	0.019055448
107	0xbc080a47	-0.008303232
108	0xbcf1128a	-0.029427785
109	0xbdaf57fe	-0.08561705
110	0x3b3e42a0	0.002903141
111	0xbaaab32a	-0.0013023366
112	0xbd61af2c	-0.055098698
113	0x3d00921e	0.03138935
114	0x3d568576	0.052373372
115	0xbda230a4	-0.07919434
116	0x3d9ca471	0.07648552
117	0xbd9da9b3	-0.07698383
118	0xba58c183	-0.00082685816
119	0xbd02e060	-0.031952262
120	0xbd221999	-0.039575193
121	0x3da42fd7	0.08016937
122	0x3d9bb9dd	0.0760381
123	0x3d9f940e	0.07791911
124	0x3d8a2647	0.06745582
125	0xbd33c422	-0.04388822
126	0xbc788dda	-0.015170539
127	0x3d0114f6	0.03151413
128	0x3d8ac07b	0.06774994
129	0x3d6514ce	0.055928044
130	0x3df53a05	0.11973957
131	0x3d082269	0.03323594
132	0xbaa03205	-0.0012221938
133	0x3cfba931	0.030720325
134	0xbd278d46	-0.040906213
135	0x3d1fc171	0.03900284
136	0xbd1097b9	-0.035300944
137	0x39b1ab00	0.00033887476
138	0xbd27a676	-0.040930234
139	0x3d8242ce	0.06360398
140	0xbd8b0880	-0.067887306
141	0x3d57d3c9	0.05269221
142	0x3ccd8201	0.025086405
143	0xbbb0731b	-0.0053848154
144	0xbcabd850	-0.02097717
145	0x3deef826	0.11668424
146	0xbc949828	-0.01813896
147	0x3e1a6602	0.15077975
148	0xbccaae81	-0.024741413
149	0xbc8c8a72	-0.01715586
150	0x3dc7f976	0.09764378
151	0x3da6f557	0.081522636
152	0x3d428495	0.04748972
153	0xbd688e50	-0.056776345
154	0xbcedd086	-0.029030096
155	0x3dc3923d	0.09549377
156	0x3c9f0f4c	0.019416474
157	0xbca95367	-0.020669652
158	0x3d6fe27d	0.058565605
159	0xbd391c7c	-0.04519318
160	0x3d5c4e1f	0.05378544
161	0x3dd07bee	0.10179888
162	0x3db4d0e3	0.088289045
163	0x3d34e686	0.044165157
164	0x3d5d9274	0.054094747
165	0x3d87e037	0.066345625
166	0x3db3f045	0.08786062
167	0xbd078843	-0.033088934
168	0xbce99855	-0.02851502
169	0x3d595b0e	0.053065352
170	0xbcbc9760	-0.0230214
171	0x3c7f48a0	0.01558128
172	0xbc5048ed	-0.012712699
173	0x3d0d1ff6	0.03445431
174	0xbd05d945	-0.032677907
175	0x3db1f0fd	0.08688543
176	0x3da828e5	0.08210925
177	0x3d51e91a	0.051247694
178	0xbd23b394	-0.03996618
179	0xbdd360ba	-0.103211835
180	0x3d0b214e	0.03396731
181	0xbd573225	-0.052538056
182	0xbd84f5d1	-0.06492198
183	0x3cfb80e7	0.030701114
184	0xbd5ef1c2	-0.054429777
185	0x3e0830d4	0.13299876
186	0xbd83d350	-0.06436789
187	0xbd36603e	-0.044525377
188	0x3b8566f3	0.0040711104
189	0xbd17df6d	-0.03707831
190	0x3c7a94f1	0.015294299
191	0x3d224cb2	0.039623924
192	0x3daaafaf	0.0833429
193	0x3d7832ed	0.06059544
194	0x3e0e9f40	0.13927937
195	0xbd8eb4a8	-0.06968051
196	0xbd1c0021	-0.03808606
197	0x3d155394	0.03645666
198	0x3d368526	0.044560574
199	0x3c4e1187	0.012577421
200	0xbd0cebb5	-0.034404475
201	0xbc6aab18	-0.0143230185
202	0xbdc4b41b	-0.09604665
203	0xbc3e3fa6	-0.011611855
204	0xbdada702	-0.0847912
205	0xbc259dc1	-0.010108412
206	0xbd2f82cb	-0.042849343
207	0xbbdc60e9	-0.00672542
208	0x3d2e9d1a	0.042630292
209	0x3dc76bac	0.09737334
210	0xbd828838	-0.06373638
211	0xba05e880	-0.00051081926
212	0x3a31ad37	0.0006777825
213	0xbc946c58	-0.018118069
214	0xbc268221	-0.010162861
215	0x3d538866	0.05164375
216	0x3d50ce82	0.05097819
217	0xbd83938a	-0.06424625
218	0xbd8d042d	-0.06885562
219	0x3d61e728	0.05515209
220	0xbd99f6fd	-0.075178124
221	0xbdb35f62	-0.08758427
222	0x3d2939a2	0.04131473
223	0xbc889b36	-0.016675573
224	0x3d9838db	0.07432719
225	0x3d7fdac5	0.062464494
226	0x3d3d9183	0.04628135
227	0xbd11e6fd	-0.03562068
228	0xbde0c0ad	-0.1097425
229	0x3d9aa0c3	0.07550194
230	0x3cf20c05	0.029546747
231	0x3d088158	0.033326477
232	0x3d5b682a	0.053566135
233	0xbb941730	-0.0045193657
234	0x3dd22aee	0.102620944
235	0x3ca100c4	0.019653685
236	0xbdac4b81	-0.08412839
237	0x3dcfed4b	0.10152682
238	0x3c0dea7f	0.008661865
239	0x3d27765d	0.040884364
240	0xbd0b8387	-0.03406098
241	0xbc8f98a7	-0.017528845
242	0x3c2b4cfd	0.010455367
243	0xbc4a8bf8	-0.012362473
244	0xbd2dd505	-0.04243948
245	0x3d3d42d4	0.04620631
246	0xbd9e16c4	-0.07719186
247	0xbd8ef7c8	-0.06980854
248	0xbd75adb0	-0.059980094
249	0xba8ea5c0	-0.0010883138
250	0x3d8bece0	0.0683229
251	0x3c4cf109	0.012508639
252	0xbc8f0f72	-0.01746342
253	0xbc8c0954	-0.017094292
254	0x3cd99152	0.026558552
255	0x3da897a1	0.08232046

fc2.bias f4 [128]
0	0x3e269e59	0.16271342
1	0x3d444b55	0.047923405
2	0x3da62cce	0.081140146
3	0x3cc3d3fe	0.023904797
4	0x3d74795a	0.059686042
5	0x3e19f343	0.15034203
6	0x3e0f6697	0.14003979
7	0x3e0ac10b	0.13550203
8	0x3cc30043	0.023803836
9	0x3dca5bb3	0.098807715
10	0x3f22c43c	0.6358068
11	0x3dfbe008	0.1229859
12	0x3dfbfb74	0.1230382
13	0x3e35668b	0.17714898
14	0x3d0a6bac	0.03379409
15	0x3e4562ba	0.19275942
16	0xbb06355b	-0.002047858
17	0x3c67aad0	0.014139846
18	0x3e13222b	0.14368503
19	0x3da2ffa4	0.07958916
20	0x3d59dcba	0.053189017
21	0x3cadbe51	0.021208914
22	0x3d0908d1	0.033455674
23	0x3cf09f43	0.029372817
24	0x3d5bcb22	0.05366052
25	0x3debf7da	0.11521883
26	0x3cb370cb	0.02190437
27	0x3cf99669	0.030467229
28	0x3d2fd9a6	0.042932175
29	0x3dec74c3	0.11545708
30	0x3e0e47dd	0.13894601
31	0x3cff79c8	0.031186
32	0x3d9b10e5	0.07571582
33	0x3dc6a4f6	0.096994326
34	0x3d86601d	0.06561301
35	0x3d1a98ca	0.037743367
36	0xbb225e37	-0.0024775395
37	0x3d312197	0.043244924
38	0x3f2003f4	0.6250603
39	0x3de7aa0c	0.11311731
40	0x3d7fce82	0.0624528
41	0x3e179b38	0.14805305
42	0x3cf85880	0.030315638
43	0x3c612459	0.013741576
44	0x3dca55e8	0.098796666
45	0x3ca717e5	0.020397136
46	0x3ded20e5	0.1157854
47	0x3d263ecc	0.04058723
48	0xbdbff352	-0.093725815
49	0x3d8fc98d	0.07020865
50	0x3cff6af8	0.031178936
51	0x3e10636f	0.14100431
52	0x3aa3e7cb	0.0012504993
53	0x3d7a24f7	0.06107041
54	0x3db8da53	0.09026017
55	0x3de943d4	0.1138989
56	0x3d9299f7	0.07158273
57	0x3d929d28	0.071588814
58	0x3e11546f	0.14192365
59	0xba124c49	-0.00055808254
60	0x3d22c304	0.039736763
61	0x3e4145c8	0.18874276
62	0x3d8075c5	0.06272463
63	0x3f1afd98	0.60543203
64	0x3d9c254f	0.076243035
65	0x3e137f91	0.14404131
66	0x3e21280f	0.15737937
67	0x3e0504b2	0.12990072
68	0x3d9ef120	0.07760835
69	0x3e023384	0.12714964
70	0x3e0ba85c	0.13638443
71	0x3d418df1	0.047254506
72	0x3e356b57	0.17716728
73	0x3e0f6add	0.14005609
74	0x3d3f386a	0.04668466
75	0x3db3c100	0.08777046
76	0xbd4c9069	-0.049942408
77	0x3dda2625	0.10651807
78	0x3e2f9225	0.17145593
79	0x3bfe77a0	0.0077657253
80	0x3de62c9b	0.112389766
81	0x3df7e1dd	0.12103627
82	0x3ce0b4e7	0.027430011
83	0x3e132f91	0.14373614
84	0x3e22e43b	0.15907376
85	0x3dd1562f	0.10221516
86	0x3ccdc6a2	0.02511913
87	0x3bf79db2	0.0075566405
88	0x3e20ec67	0.1571518
89	0x3e35f80e	0.17770407
90	0x3deb21c6	0.11481051
91	0x3e09d3c4	0.13459688
92	0x3cb8a2bc	0.022538535
93	0x3d3c918f	0.046037253
94	0x3d78d2a7	0.06074777
95	0x3e199a07	0.15000163
96	0x3dbe32dc	0.092870444
97	0x3d651009	0.055923495
98	0x3e18407c	0.14868349
99	0x3e38e2ed	0.18055315
100	0x3d4d4a3d	0.050119627
101	0x3e10de06	0.14147195
102	0x3e4a97d6	0.19784483
103	0x3dd85872	0.105637446
104	0x3db56c79	0.0885858
105	0x3d687943	0.05675627
106	0x3e0f992d	0.14023276
107	0x3d849fbc	0.064757794
108	0x3de14a5c	0.11000511
109	0x3d3625da	0.04446969
110	0x3db43bab	0.08800443
111	0x3d027b5b	0.031855922
112	0x3db0f305	0.08640102
113	0x3d29d387	0.041461494
114	0x3e3e9bd4	0.18614131
115	0x3d3c866a	0.046026625
116	0x3d3b403f	0.045715567
117	0x3e3417db	0.17587225
118	0x3d3a708e	0.045517497
119	0x3cd8fb06	0.026486885
120	0x3e12fed6	0.14355025
121	0x3df0abe5	0.11751536
122	0x3e27568e	0.16341612
123	0x3df31438	0.11869091
124	0x3d3daabc	0.046305403
125	0x3dba2509	0.09089095
126	0x3d9b6d4e	0.075892076
127	0x3dbb4f62	0.091460004

fc3.weight f4 [128, 128]
0	0xbd68d4d4	-0.056843594
1	0x3c8f72f9	0.017510878
2	0x3d0d9429	0.034565125
3	0x3d79ce90	0.06098801
4	0xbbbd72d5	-0.0057815113
5	0x3d299113	0.04139812
6	0x3b5edfda	0.0034007938
7	0x3d2f68c6	0.04282453
8	0xbcb1d67a	-0.021708716
9	0x3c5d553b	0.01350909
10	0x3c23e98f	0.010004415
11	0xbd0e7c54	-0.034786537
12	0x3d840af3	0.06447401
13	0xbe04e67d	-0.1297855
14	0x3c9e478b	0.019321224
15	0xbd816895	-0.063187756
16	0x3d191f34	0.037383273
17	0x3da44cbf	0.08022451
18	0xbd659021	-0.056045655
19	0xbcf7079d	-0.030154997
20	0xbc8a2929	-0.01686533
21	0x3d1e4e5e	0.038648956
22	0x3dfcf2cf	0.123509996
23	0x3dc68661	0.096935995
24	0xbe00a53c	-0.12563032
25	0x3ca3acd5	0.019979874
26	0x3d8f3b60	0.06993747
27	0xbcbbf47d	-0.02294373
28	0x3c94213e	0.018082257
29	0xbd7089f7	-0.058725324
30	0x3c2aa8c3	0.0104162125
31	0x3d60388f	0.05474144
32	0xbdc72c03	-0.097251914
33	0xbd0fd603	-0.035116207
34	0x3c48256e	0.012215955
35	0x3d7fedf8	0.062482804
36	0x3cc3ee10	0.023917228
37	0xbe233f1a	-0.1594204
38	0xbdbd891d	-0.09254668
39	0x3d8b4cd6	0.06801765
40	0x3cbcb5a2	0.023035828
41	0xbcbebe08	-0.023283973
42	0x3d348585	0.044072647
43	0x3d1bacb2	0.038006492
44	0xbd6475e8	-0.055776507
45	0xbdf28d36	-0.1184334
46	0xbd12fb2a	-0.03588406
47	0x3d344326	0.04400935
48	0xbcda3648	-0.026637211
49	0xbd7b2f97	-0.061324682
50	0x3dbe57d2	0.09294094
51	0x3d73399a	0.059381105
52	0x3c6a7402	0.014309885
53	0x3ccdc3f7	0.025117857
54	0xbd2b1b7f	-0.04177427
55	0x3d1c37bf	0.0381391
56	0x3de17e9c	0.11010477
57	0x3d8738c2	0.066026226
58	0xbd24f39c	-0.040271387
59	0x3d0152b4	0.031573012
60	0xbda26f76	-0.07931416
61	0xbd73249b	-0.05936108
62	0xbd857f4d	-0.06518421
63	0xbe501f1c	-0.20324367
64	0xbdaea25e	-0.08527063
65	0xbd7e4e8d	-0.06208663
66	0xbd1b2aa1	-0.03788245
67	0xbcc0eb3f	-0.023549674
68	0xbe092b1f	-0.13395356
69	0xbe0f7192	-0.14008167
70	0xbdf4e4f7	-0.11957734
71	0x3d22e588	0.03976968
72	0x3d570d8e	0.05250316
73	0x3c98461b	0.018588116
74	0xbcaf137c	-0.021371596
75	0xbc4b66d7	-0.012414656
76	0x3d49787b	0.049187165
77	0xbdb73b8c	-0.089469045
78	0xbb7f3828	-0.0038943384
79	0x3d2d2b76	0.042277776
80	0xbcb187c2	-0.02167118
81	0xbd7e0565	-0.062016863
82	0x3d027141	0.03184629
83	0x3d15bec9	0.0365589
84	0x3e1ac250	0.15113187
85	0xbdfd3afe	-0.123647675
86	0xbb73e2a0	-0.0037213936
87	0x3da3db8d	0.0800086
88	0x3d1110e3	0.035416495
89	0xbdd28c68	-0.102806866
90	0x3c8d1da8	0.017226055
91	0xbd9be2ab	-0.07611593
92	0x3b08614e	0.0020809951
93	0xbd9a365f	-0.07529902
94	0xbe07bdb3	-0.13255958
95	0xbe0a93c7	-0.13532935
96	0x3db75570	0.08951843
97	0x3d40addd	0.04704081
98	0x3cd39f76	0.025832873
99	0x3db8a0ae	0.09015022
100	0x3d8d5dbd	0.06902645
101	0xbdaf32a8	-0.08554584
102	0x3c433222	0.011913808
103	0xbc640549	-0.013917276
104	0xbdc25872	-0.09489526
105	0xbd1fac1d	-0.0389825
106	0xbd313ccb	-0.043270867
107	0xbcca0908	-0.02466251
108	0xbdd6502c	-0.1046451
109	0x3c94a993	0.018147266
110	0x3dc0dd1c	0.09417173
111	0x3d829a86	0.06377129
112	0xbde18bb4	-0.110129744
113	0xbd04e79f	-0.032447454
114	0x3d90dfd4	0.07073942
115	0xb997ce21	-0.00028954542
116	0x3c3b64f7	0.011437646
117	0x3d2fabbb	0.042888384
118	0xbd847532	-0.06467666
119	0xbc31df8b	-0.010856519
120	0xbd8fed2f	-0.07027661
121	0x3bcdad8c	0.006276792
122	0xbc81050d	-0.015749479
123	0xbc67df91	-0.0141524235
124	0x3d5a7c68	0.0533413
125	0xbd7e3e2d	-0.062071014
126	0xbddd2036	-0.107971594
127	0xbce0b424	-0.027429648
128	0x3c75ecb0	0.015010044
129	0x3cee3df7	0.029082282
130	0x3d8a6ca4	0.06759003
131	0x3bca3970	0.006171398
132	0x3d3df376	0.04637476
133	0x3df0c1cc	0.11755714
134	0x3dd2ad9d	0.1028702
135	0x3da5ed1e	0.08101867
136	0xbc99750e	-0.018732574
137	0x3dd4b81d	0.10386679
138	0xbdfe9e8e	-0.12432586
139	0xbd0fccec	-0.035107538
140	0x3d504db4	0.050855353
141	0xbd517456	-0.051136337
142	0x3d702574	0.058629468
143	0x3dd11f77	0.102110796
144	0xbd8bcd95	-0.06826321
145	0x3e08ca6e	0.13358471
146	0x3dc95167	0.098299794
147	0xbbc2ee3f	-0.0059488113
148	0xbbaaf2fd	-0.0052169547
149	0xbcad6330	-0.02116546
150	0x3cfbf4d7	0.030756397
151	0xbbaa83fa	-0.005203721
152	0xbdc1389c	-0.094346255
153	0x3d7ec17b	0.062196236
154	0x3dd6747c	0.104714364
155	0xbc3ac180	-0.011398673
156	0xbda048d5	-0.078263916
157	0x3cafcd4b	0.021460196
158	0x3dca6fca	0.09884603
159	0x3db00650	0.08594954
160	0x3d3fb641	0.04680467
161	0x3d057bc9	0.032588754
162	0x3d57039c	0.052493677
163	0x3dcad6ed	0.09904275
164	0x3dca4be1	0.09877754
165	0x3d8aa2ad	0.06769309
166	0xbe57b8ef	-0.2106664
167	0xbdaacd34	-0.08339921
168	0xbd7a7e8c	-0.06115584
169	0x3d36e889	0.044655357
170	0xbcad7a8a	-0.021176595
171	0x3d999bce	0.075004205
172	0x3cc5337e	0.024072405
173	0x3cf91b62	0.030408565
174	0x3de69157	0.1125819
175	0xbd3b62f6	-0.045748673
176	0x3c952e68	0.018210605
177	0x3d594d5f	0.053052302
178	0xbcfd25eb	-0.03090187
179	0x3d9744af	0.07386147
180	0x3d55113e	0.052018397
181	0x3dad3cfc	0.084588975
182	0x3dbb64c6	0.091500804
183	0xbbc3f740	-0.005980402
184	0x3d883554	0.066507965
185	0xbd01aa69	-0.031656656
186	0x3ddc1b04	0.1074734
187	0x3ca693ee	0.02033421
188	0x3d852362	0.06500889
189	0x3db5b7ab	0.088729225
190	0x3b5c2d2d	0.0033596263
191	0xbe26cdaa	-0.16289392
192	0xbd6278bd	-0.055290926
193	0x3d78cffd	0.060745228
194	0x3dbdbf9f	0.092650644
195	0x3dd4deff	0.10394096
196	0xbd177ec5	-0.03698613
197	0x3d629436	0.055317126
198	0x3d6803d9	0.056644294
199	0x3d48b55a	0.049001075
200	0xbcd078eb	-0.025448283
201	0xbd0ab142	-0.033860452
202	0x3d8df2d2	0.0693108
203	0xbcd8daa9	-0.026471453
204	0xbd936c61	-0.07198406
205	0xbc2a2ebd	-0.01038712
206	0x3e08f703	0.13375477
207	0xba955cb0	-0.0011395421
208	0x3d57072e	0.05249708
209	0xbccbbd6b	-0.024870595
210	0x3dcd4d38	0.10024494
211	0xbcdfac95	-0.027303973
212	0xbd0b564f	-0.034017857
213	0xb8db422a	-0.00010455058
214	0x3cee71be	0.02910697
215	0x3b23c158	0.0024987068
216	0xbcea37f5	-0.028591136
217	0x3d325ed6	0.043547474
218	0xbcf4b3dd	-0.029870922
219	0xbccfcd45	-0.025366435
220	0x3d475f73	0.04867501
221	0x3c355035	0.011066486
222	0xbc7ac30d	-0.015305293
223	0xbb22a866	-0.0024819612
224	0xbd669020	-0.056289792
225	0xbc219f87	-0.009864694
226	0x3ce81d0f	0.028334169
227	0x3cbb432e	0.022859182
228	0xbcce59e2	-0.025189344
229	0xbc9e8c04	-0.019353874
230	0x3d8a48fe	0.067522034
231	0x3ce16ffa	0.027519215
232	0xbd90a642	-0.07062961
233	0xbc9c5cfb	-0.019087305
234	0x3d9828a7	0.07429629
235	0x3d767aa3	0.06017555
236	0x3d0e7ce8	0.03478709
237	0xbcdf374b	-0.027248045
238	0x3c990e15	0.018683473
239	0x3dedc28d	0.11609373
240	0x3c705f0f	0.014671101
241	0xbd849adf	-0.06474852
242	0x3d65bf33	0.056090545
243	0xbd526af9	-0.05137155
244	0xbd598200	-0.053102493
245	0xbd3c4880	-0.04596758
246	0x3d31f711	0.04344851
247	0xbcd6fc93	-0.026243484
248	0x3cb53bd4	0.022123255
249	0x3b00c038	0.0019645821
250	0xbc125482	-0.008931281
251	0x3dac4707	0.08411985
252	0xbc995a29	-0.01871975
253	0xbc7c4767	-0.015397883
254	0x3d080995	0.033212263
255	0xbd9cdfbd	-0.07659862
