models/dqn_model_epoch_20000.pth (torch, 595624 bytes, 14 tensors)

cnn1.weight f4 [16, 4, 5, 5]
0	0xbe476316	-0.19471392
1	0x3d336fe7	0.04380789
2	0xbce4cdde	-0.027930196
3	0xbe499bc2	-0.19688323
4	0xbe125c76	-0.14293084
5	0xbe4b7e42	-0.19872382
6	0xbe4691a2	-0.19391492
7	0xbe9462fe	-0.28981775
8	0xbd0e9a74	-0.034815267
9	0xbd695409	-0.056964908
10	0xbe8bb78d	-0.27288476
11	0xbe24402c	-0.16040105
12	0xbe815cfa	-0.25266248
13	0xbe15e0cd	-0.14636536
14	0x3db40ace	0.08791123
15	0xbe2a21b6	-0.16614422
16	0xbe5aacaf	-0.21354936
17	0xbd23d38b	-0.039996665
18	0xbe8330b4	-0.25623095
19	0x3c454435	0.012040188
20	0xbe56f939	-0.20993508
21	0xbe81a09f	-0.25317857
22	0xbe4123d9	-0.18861331
23	0x3d9ca5b6	0.07648794
24	0x3ceb5c53	0.028730547
25	0xbc704c6f	-0.014666661
26	0xbcfc7a7b	-0.030820122
27	0xbd33540e	-0.043781333
28	0xbe0240da	-0.12720051
29	0x3d43484e	0.047676377
30	0x3d4fd86c	0.050743505
31	0xbd084cb3	-0.03327627
32	0x3ca483ad	0.02008232
33	0xbda7922c	-0.08182177
34	0xbd2b8bff	-0.041881558
35	0xbd410401	-0.04712296
36	0xbe09fe36	-0.1347588
37	0x3c85fbb0	0.016355366
38	0x3d80c3f6	0.062873766
39	0xbce85d5f	-0.028364835
40	0xbdd3fd49	-0.10351045
41	0xba4499ec	-0.0007499743
42	0xbdada168	-0.084780514
43	0x3b98bbec	0.004661074
44	0xbe040017	-0.1289066
45	0xbd021520	-0.031758428
46	0x3d5c9cc6	0.05386045
47	0xbd2a403a	-0.041565157
48	0xbda45adc	-0.080251426
49	0xbdb26ef1	-0.08712567
50	0x3da9f3b7	0.08298438
51	0xbc27a7c8	-0.010232873
52	0xbe071245	-0.13190563
53	0xbe52af6b	-0.20574729
54	0xbcd45a2c	-0.025921904
55	0xbcc79232	-0.024361704
56	0xbdb31f27	-0.08746176
57	0x3e4ceebf	0.2001295
58	0x3d4b02ae	0.049563102
59	0xbe1df4c5	-0.15425403
60	0x3e987f06	0.2978441
61	0x3e5247da	0.20535222
62	0x3d726c17	0.059185114
63	0x3d89e876	0.067337915
64	0xbe576c99	-0.2103752
65	0xbe90c81c	-0.2827767
66	0x3e1548f8	0.14578617
67	0x3e8b58bb	0.27216133
68	0xbe05f342	-0.13081077
69	0xbe2aa07f	-0.16662787
70	0xbe24036e	-0.16016933
71	0xbc83c6bf	-0.01608598
72	0x3ea2b979	0.3178213
73	0xbe06dc8d	-0.13170071
74	0xbe1c34d0	-0.15254521
75	0xbdbf9208	-0.09354025
76	0xbe7a56a8	-0.24447119
77	0xbdb8862c	-0.09009966
78	0xbba7c5a3	-0.0051199957
79	0xbd87cce6	-0.06630878
80	0xbd2b6489	-0.041843925
81	0x3de1a9d9	0.11018724
82	0x3e1849a4	0.14871842
83	0xbdc0f093	-0.09420886
84	0x3d09e34c	0.033664033
85	0xbe26f05b	-0.16302626
86	0x3d9624e9	0.07331259
87	0x3da52ab8	0.080647886
88	0xbdbf976a	-0.09355052
89	0xbda8e209	-0.08246238
90	0xbe038cd0	-0.12846684
91	0x3c1d2d86	0.009593373
92	0x3d98a357	0.074530296
93	0xbcc8d520	-0.024515688
94	0xbdf2bdf8	-0.1185264
95	0x3db901d0	0.09033549
96	0x3dc05557	0.09391277
97	0xbe3a762d	-0.18209143
98	0xbd8f8e29	-0.07009537
99	0xbd751574	-0.059834912
100	0xbdf2f10f	-0.118623845
101	0xbe859516	-0.26090306
102	0xbe352a7f	-0.17691992
103	0x3d0b600e	0.03402715
104	0xbe678e01	-0.22612764
105	0xbe014271	-0.12623002
106	0xbda7cc44	-0.081932575
107	0x3b8af7e2	0.0042409757
108	0x39bf4fa6	0.00036489702
109	0x3bae0946	0.005311164
110	0xbe0c102b	-0.13678043
111	0xbd10296d	-0.035195757
112	0x3c73160d	0.0148368
113	0xbd478e1f	-0.04871952
114	0xbd410bbe	-0.04713034
115	0xbe1f71de	-0.1557078
116	0xbe67ea36	-0.22647938
117	0xbe33e802	-0.17568973
118	0xbebd8aad	-0.37019864
119	0xbd0fca9e	-0.03510534
120	0xbe840739	-0.2578676
121	0xbe62ae4a	-0.22136799
122	0xbdc56b42	-0.096395984
123	0xbdc7134a	-0.09720476
124	0xbdffd3eb	-0.12491592
125	0xbd34cc1d	-0.04413997
126	0x3dad8479	0.08472533
127	0xbd656ab7	-0.056009974
128	0x3cfe7053	0.03105942
129	0xbe06aad5	-0.13151105
130	0x3ca1ea0e	0.019764926
131	0xbd33d936	-0.04390832
132	0xbd8f5b73	-0.069998644
133	0x3ca06679	0.019580113
134	0x3cbc677a	0.02299856
135	0xbca62574	-0.02028153
136	0xbd6b889e	-0.057503335
137	0xbe1220a6	-0.14270267
138	0xbd5d5b25	-0.054042
139	0xbcd2c46d	-0.025728429
140	0xbe0b912b	-0.13629596
141	0xbd031ded	-0.03201096
142	0x3d514712	0.05109317
143	0xbd5c8c12	-0.05384452
144	0xbdda7cfc	-0.1066837
145	0x3ca78231	0.020447822
146	0x3cdee9a3	0.027211016
147	0xbd43180e	-0.047630362
148	0x3dccff24	0.10009602
149	0xbdbd5b94	-0.09245983
150	0xbe42dae5	-0.19028814
151	0x3de7c4e0	0.11316848
152	0xbd5f45b6	-0.05450984
153	0x3e29a217	0.16565739
154	0xbe17574c	-0.14779395
155	0xbe3eeec6	-0.18645772
156	0x3e375888	0.17904866
157	0xbe5116fe	-0.20418927
158	0x3da7b54c	0.081888765
159	0xbe20cae4	-0.15702397
160	0xbe8bde7b	-0.27318177
161	0xbe802fc9	-0.25036457
162	0x3dc7fb0a	0.09764679
163	0x3dd7fe05	0.10546497
164	0xbe576513	-0.2103465
165	0xbe7c493b	-0.2463731
166	0xbe0cc57c	-0.1374721
167	0x3e8a5b9e	0.27023023
168	0xbe4199a7	-0.1890627
169	0xbe6eda70	-0.23325515
170	0x3ec6403e	0.38720888
171	0x3e97fde3	0.29685888
172	0x3ed32b12	0.41243798
173	0xbd66e489	-0.05637029
174	0xbe297b70	-0.16550994
175	0x3e541289	0.20710196
176	0x3e089fc9	0.13342203
177	0x3e72f31d	0.23725553
178	0xbc8d9f90	-0.017288
179	0xbda87bf8	-0.0822677
180	0x3defa047	0.11700492
181	0xbdf4ee09	-0.11959464
182	0x3e1bbf05	0.15209587
183	0xbe0443f7	-0.12916552
184	0xbde0c840	-0.10975695
185	0xbe288112	-0.16455486
186	0x3defee33	0.11715355
187	0x3d815238	0.0631451
188	0xbda64869	-0.0811928
189	0xbe1ccba3	-0.15312056
190	0xbe2b26fe	-0.16714093
191	0xbceb8e19	-0.02875428
192	0xbdabc644	-0.083874255
193	0xbe002a0e	-0.12516043
194	0xbd254542	-0.040349253
195	0xbe0a0443	-0.13478188
196	0xbdf1b49c	-0.11802027
197	0x3e28fae2	0.16501954
198	0xbe03257d	-0.1280727
199	0xbe0e90af	-0.1392238
200	0xbe990670	-0.29887724
201	0xbd9942ba	-0.0748343
202	0xbeb0942d	-0.3448805
203	0x3d46b4d0	0.04851228
204	0xbe3a0d69	-0.18169178
205	0xbe6439ea	-0.22287717
206	0xbe2ed606	-0.17073831
207	0xbe42f83f	-0.19040011
208	0x3d0c6c56	0.034283005
209	0x3b9bfc0f	0.0047602723
210	0xbe783bec	-0.24241608
211	0xbe5fc053	-0.2185071
212	0xbdfadf1a	-0.122495845
213	0x3d06898b	0.032846015
214	0x3d152379	0.036410782
215	0xbe7e80e2	-0.24853852
216	0xbe6a669a	-0.22890702
217	0xbe946ad0	-0.2898774
218	0xbe21aa76	-0.15787682
219	0x3e097e10	0.13426995
220	0xbe7984ab	-0.24367015
221	0xbe052076	-0.13000664
222	0xbe74cfc2	-0.23907378
223	0x3d688bac	0.056773826
224	0xbd8556af	-0.06510674
225	0xbe052252	-0.13001373
226	0xbc6f53f7	-0.014607421
227	0xbe0a5cdc	-0.13511986
228	0xbdee37d2	-0.11631741
229	0xbd106e82	-0.03526164
230	0xbc9a991c	-0.018871836
231	0xbd16bda6	-0.036801957
232	0x3d3288f0	0.043587625
233	0xbde34d82	-0.11098768
234	0x3c5eb709	0.013593444
235	0x3bd9af68	0.0066432245
236	0x3cb3f35c	0.021966629
237	0xbc05350e	-0.008130325
238	0xbda2ca25	-0.07948712
239	0x3c528a0b	0.012850295
240	0xb9749db1	-0.00023328398
241	0xbde962fc	-0.11395833
242	0x3c9fa25f	0.019486604
243	0x3d93b4fc	0.072122544
244	0x3c406f6c	0.011745315
245	0xbd7c2c6b	-0.061565798
246	0xbe0eeaef	-0.13956808
247	0xbd2edb77	-0.042689767
248	0xbc9790b8	-0.018501624
249	0x3c3f9430	0.0116930455
250	0x3d999444	0.074989825
251	0x3cfc6463	0.030809587
252	0x3d502ba6	0.050822876
253	0xbecb3001	-0.39685062
254	0xbd79a574	-0.060948804
255	0x3cc752a1	0.024331393

cnn1.bias f4 [16]
0	0x3d466fe8	0.048446566
1	0xbd5a326d	-0.053270746
2	0xbdb124ca	-0.08649595
3	0xbda2b8c5	-0.07945398
4	0x3ccb48b0	0.024814934
5	0xbdc17f45	-0.09448103
6	0xbd959897	-0.07304495
7	0x3abcad7d	0.0014394965
8	0x3c439b8e	0.011938943
9	0xbdf9b600	-0.12192917
10	0xbcc9feb2	-0.024657581
11	0xbd8ab02a	-0.06771882
12	0xbc7813c6	-0.015141433
13	0xbdb7d060	-0.08975291
14	0x3cbd0706	0.023074638
15	0xbd816a59	-0.06319112

cnn2.weight f4 [32, 16, 3, 3]
0	0x3cdd1ac9	0.026990311
1	0x3d6c5f71	0.057708208
2	0x3dd51a2d	0.10405383
3	0x3e0e1b20	0.13877535
4	0xbcbbeee3	-0.022941059
5	0xbd2a8c2d	-0.04163759
6	0x3d9a31fe	0.075290665
7	0x3c8c726a	0.0171444
8	0xbd52c98f	-0.051461753
9	0x3e2e4418	0.17018163
10	0xbdc959c3	-0.09831574
11	0x3d26060a	0.040533103
12	0x3dfacdb0	0.12246263
13	0xbd95e2ec	-0.073186725
14	0x3df4c147	0.11950927
15	0x3e1d58e2	0.15365937
16	0xbd6ae30c	-0.057345435
17	0xbd9022fa	-0.07037921
18	0xbc5daf1a	-0.013530517
19	0xbce8f7e2	-0.028438512
20	0xb859e27f	-5.1947773e-05
21	0xbd170593	-0.03687055
22	0xbb8b11b4	-0.0042440537
23	0xbd516f1b	-0.05113135
24	0xbd6ed9c8	-0.05831316
25	0x3c8048a6	0.015659641
26	0xbd66225d	-0.056185115
27	0x3dd762f7	0.10516923
28	0xbda3965a	-0.07987662
29	0x3c89ab58	0.016805336
30	0x3e173875	0.1476763
31	0x3ced907c	0.02899956
32	0xbd037383	-0.032092582
33	0x3de582ed	0.11206613
34	0x3d7a3fb4	0.06109591
35	0xbdb57dcc	-0.088618845
36	0x3d80f8f1	0.06297482
37	0xbc95902c	-0.018257223
38	0xbc922ded	-0.017844165
39	0x3dc9927a	0.09842391
40	0x3b866d1a	0.0041023614
41	0x3d80ca60	0.062886
42	0x3dba85df	0.09107565
43	0x3cf08650	0.02936092
44	0x3db8cfbf	0.090239994
45	0x3dc2b0f8	0.0950641
46	0x3d834c76	0.06411068
47	0x3d8b26bc	0.06794497
48	0x3defacb8	0.11702865
49	0x3d621ad0	0.05520135
50	0x3cd8e808	0.026477829
51	0xbc4fbee7	-0.012679792
52	0x3c8c80ba	0.017151225
53	0x3d194276	0.037416898
54	0xbd6043b4	-0.054752067
55	0x3d0d1444	0.034443155
56	0x3d9ee75a	0.077589706
57	0xbc22371b	-0.0099008335
58	0x3c7a33f5	0.015271177
59	0x3d448460	0.047977805
60	0x3d371f67	0.044707682
61	0x3d1160eb	0.03549282
62	0x3dd3b8da	0.10337992
63	0x3d68bcd8	0.05682072
64	0xbdaa0099	-0.08300895
65	0x3d46f8cd	0.04857712
66	0x3d1b1eda	0.03787122
67	0xbd581ddd	-0.052762855
68	0x3dcde124	0.10052708
69	0xbcc7f2d9	-0.024407791
70	0xbd154a1d	-0.036447633
71	0x3c0ed772	0.008718358
72	0x3d671f57	0.056426372
73	0xbc6e7b49	-0.014555761
74	0xbd62c198	-0.055360407
75	0x3dcefcb5	0.10106794
76	0x3da17d92	0.07885279
77	0x3d8b95ef	0.06815707
78	0x3d4c4fd2	0.04988081
79	0x3d107c3c	0.03527473
80	0x3d1ee1aa	0.03878943
81	0x3d8d5ef5	0.06902877
82	0x3da0e614	0.07856384
83	0x3df0ad4c	0.11751804
84	0x3d575591	0.052571837
85	0x3d4ce499	0.050022695
86	0x3ce3d5d6	0.027811926
87	0x3d8c5ed6	0.06854026
88	0xbd15fa3c	-0.036615595
89	0x3d3c9db2	0.046048827
90	0x3d37444e	0.044742875
91	0xbc87c427	-0.016573025
92	0xbc3cb035	-0.01151662
93	0xb9c3e146	-0.0003736114
94	0xbc1f735f	-0.009732096
95	0xbdb5ffad	-0.08886657
96	0x3b5de7a2	0.0033859988
97	0xbada37dd	-0.0016648729
98	0xbb2dd99f	-0.0026527417
99	0x3c9b271a	0.018939544
100	0xbd202b9b	-0.039104085
101	0x3d1ed416	0.03877648
102	0x3d8c6a47	0.06856208
103	0x3d9664cd	0.07343445
104	0xbd91ca23	-0.07118633
105	0x3dd659ed	0.10466371
106	0x3d20c363	0.039248835
107	0x3d88e5bb	0.066844426
108	0xbda9136a	-0.08255656
109	0xbdf1f438	-0.11814159
110	0xbc99e605	-0.01878644
111	0xbc8fcb05	-0.017552862
112	0x3d25ab33	0.04044647
113	0xbc279875	-0.01022922
114	0x3d4fea22	0.050760396
115	0xbd5dc8ba	-0.054146506
116	0xbb2e6dd9	-0.0026615767
117	0xbd1a74f7	-0.037709203
118	0xbd6d4787	-0.057929542
119	0x3cc772ab	0.02434667
120	0x3d407a81	0.04699183
121	0xbd80cddc	-0.062892646
122	0xbd6ec0c1	-0.058289293
123	0xbd18e6f3	-0.037329625
124	0xbda1acac	-0.07894263
125	0xbd0686b0	-0.03284329
126	0x3ddc3459	0.10752172
127	0xbccd3280	-0.025048494
128	0x3dad1803	0.084518455
129	0x3e3097bd	0.17245384
130	0x3d4854dd	0.048909057
131	0x3d553af6	0.052058183
132	0x3e23a646	0.15981397
133	0xbab1b311	-0.0013557394
134	0x3dc2e520	0.095163584
135	0x3cb86cbf	0.022512792
136	0xbd7181fe	-0.05896186
137	0xba8bab28	-0.0010655867
138	0x3d4d5824	0.050132886
139	0xbd3b8190	-0.045777857
140	0x3c3fcf93	0.011707204
141	0x3d2684f3	0.040654134
142	0xbd4fcec8	-0.05073431
143	0xbdc7629d	-0.09735606
144	0xbd0fae6f	-0.035078462
145	0x3d6800f9	0.056641553
146	0x3ced88e6	0.028995942
147	0x3e2872dc	0.16450065
148	0x3b844ec3	0.0040377094
149	0xbc7cc1cf	-0.015427067
150	0x3c9371dc	0.017998628
151	0x3d17fb46	0.037104867
152	0xbb85427f	-0.004066765
153	0x3ca881ea	0.02056976
154	0x3df523a1	0.11969686
155	0x3c82025d	0.015870268
156	0x3e0e6057	0.13903938
157	0x3af9c4fc	0.0019055898
158	0x3c11ca36	0.0088983085
159	0x3d846991	0.06465448
160	0x3de10847	0.10987907
161	0xbddc79c2	-0.10765411
162	0x3d90cd98	0.07070464
163	0x3c213251	0.0098386565
164	0xbd0e16b0	-0.034689605
165	0xbc3311fa	-0.010929579
166	0xbdc7cbda	-0.097556785
167	0xbd3a02f5	-0.045412976
168	0xbd40ffcf	-0.047118958
169	0xbe07c26c	-0.1325776
170	0xbde54965	-0.111956395
171	0x3dce6116	0.100771114
172	0x3e08757f	0.13326071
173	0x3cdc0f53	0.026862776
174	0x3e0e537b	0.13899033
175	0x3b9ee111	0.0048486074
176	0x3c41aacb	0.011820505
177	0x3e0807b0	0.13284183
178	0x3d92879e	0.07154773
179	0xbda9e890	-0.08296311
180	0x3d22e248	0.03976658
181	0x3d9812dc	0.07425472
182	0x3d306727	0.043067124
183	0x3dc563c5	0.0963817
184	0x3df11bf8	0.11772913
185	0x3c7fb2bf	0.015606581
186	0x3dc4003c	0.09570357
187	0x3d7db6eb	0.061942022
188	0x3d09f11a	0.033677198
189	0x3e37a9a0	0.179358
190	0x3c7355a8	0.014851965
191	0x3cf35570	0.029703826
192	0x3e1ac0e1	0.1511264
193	0x3c0f598f	0.00874938
194	0x3ccd12c3	0.02503336
195	0xbca64298	-0.020295426
196	0x3d96c517	0.07361811
197	0xbde9fba9	-0.114249535
198	0xbada9624	-0.0016676825
199	0xbcd67265	-0.026177594
200	0xbc39f8ac	-0.011350792
201	0x3dee4cce	0.11635743
202	0x3dae43f5	0.085090555
203	0x3c8c232e	0.017106619
204	0x3e31f8ea	0.1738011
205	0xbd5d1355	-0.053973515
206	0x3ddc0544	0.10743192
207	0x3ac0894a	0.0014689353
208	0x3d25bc46	0.040462755
209	0xbd0d89d3	-0.034555268
210	0xbd4a79c6	-0.04943254
211	0xbd8e5c84	-0.0695124
212	0xbcf02a6d	-0.029317105
213	0xbd2cb6d4	-0.042166546
214	0xbdb960ce	-0.09051667
215	0xbcaeca56	-0.021336716
216	0x3e1363bc	0.14393514
217	0x3d355f1b	0.044280153
218	0x3b4ea707	0.0031532662
219	0x3e2c75da	0.16841832
220	0xbcb984de	-0.022646364
221	0x3c68f66b	0.014218907
222	0x3e3fd27b	0.18732636
223	0x3d448f3f	0.047988173
224	0x3d329aba	0.04360459
225	0x3e1a1738	0.1504792
226	0x3db3cdcb	0.08779486
227	0x3cac0428	0.020998076
228	0x3b4846da	0.003055981
229	0x3db59b80	0.0886755
230	0x3e212acc	0.15738982
231	0x3db06e4e	0.08614789
232	0xbd0fc679	-0.035101388
233	0x3d1223fe	0.035678856
234	0x3c784207	0.015152461
235	0x3db2e247	0.08734565
236	0x3c8299e1	0.015942516
237	0x3d8221b8	0.063540876
238	0xbccb8501	-0.024843695
239	0xbd92ea4f	-0.07173597
240	0xbcf3e424	-0.029771872
241	0xbd2ef75a	-0.04271636
242	0xbdd9a9c9	-0.10628087
243	0x3e01370f	0.1261866
244	0x3d74c2e4	0.059756175
245	0xbdbd5834	-0.09245339
246	0x3d919c29	0.07109863
247	0x3d3a9d14	0.045559958
248	0x3c8e0f40	0.017341256
249	0x3e02c175	0.1276911
250	0x3d9e0085	0.07714943
251	0x3c88f07e	0.016716238
252	0x3c558a44	0.013033453
253	0xbd11f7d0	-0.035636723
254	0xbd8efb08	-0.06981474
255	0x3dce2dc0	0.1006732

cnn2.bias f4 [32]
0	0xbdeb4f3b	-0.114897214
1	0xbcfb3313	-0.030664003
2	0xbcd98d9e	-0.026556786
3	0x3c0b5a7a	0.008505458
4	0xbac2667a	-0.0014831566
5	0x3a7199ec	0.00092163566
6	0xbd904c95	-0.07045857
7	0x3d9e513d	0.07730339
8	0xbd9c8c55	-0.07643954
9	0xbd2d00c8	-0.042237073
10	0xbad5c470	-0.0016309153
11	0xba4d3e87	-0.00078294467
12	0xbd820f11	-0.0635053
13	0x3c4f0252	0.012634831
14	0x3a5d3228	0.0008437955
15	0xbddea5ea	-0.10871489
16	0x3dc8498e	0.097796544
17	0xbae5f3d2	-0.0017543978
18	0xbd02908a	-0.031876124
19	0xbdd50743	-0.10401776
20	0xbdf9ced8	-0.121976554
21	0xbbe1a240	-0.006885797
22	0xbd6974ae	-0.05699604
23	0xbd1d04ea	-0.038334765
24	0xbc738fd5	-0.014865835
25	0xbdaf3f63	-0.08557012
26	0xbd2f0c27	-0.0427362
27	0xbe068ffd	-0.13140865
28	0x3dd3e940	0.10347223
29	0xbd741c33	-0.059597205
30	0x3dcfea1e	0.10152076
31	0xbc9b3ea0	-0.01895076

cnn3.weight f4 [32, 32, 3, 3]
0	0x3d35477c	0.044257626
1	0x3bdac0c7	0.006675813
2	0xbb590f15	-0.0033120562
3	0x3c45d3f6	0.012074461
4	0xbd942ae1	-0.07234741
5	0xbd464b3a	-0.048411585
6	0xbc424511	-0.011857287
7	0xbcc59b86	-0.02412201
8	0xbaa6ba5c	-0.0012720334
9	0x3cfad617	0.030619664
10	0x3bb32090	0.0054665282
11	0xbc85893a	-0.016300786
12	0x3d09234f	0.03348094
13	0xbd8cf1bb	-0.06882044
14	0xbdb9c539	-0.0907082
15	0xbd09ea2e	-0.033670597
16	0x3cc8ff0d	0.02453568
17	0xbd659cab	-0.056057613
18	0xbd2f00f2	-0.04272551
19	0xbcdce17f	-0.026962994
20	0x3be3a6d2	0.0069473768
21	0x3c0f4459	0.008744323
22	0xbc5b7799	-0.0133952135
23	0xbc4a4f82	-0.012348058
24	0x3abb89bd	0.0014308017
25	0x3ca10b49	0.019658701
26	0x3ce7dd5e	0.028303798
27	0xbcb2049d	-0.021730715
28	0xbce49a95	-0.027905742
29	0x3d11b45a	0.035572387
30	0x3c2e1d3d	0.010627088
31	0xbdb3e383	-0.08783629
32	0xbcf632c9	-0.030053513
33	0x3ca4b78d	0.020107055
34	0xbd770645	-0.060308713
35	0x3ccfddc1	0.025374295
36	0x3cd333dc	0.025781564
37	0x3d28a5f0	0.041173875
38	0x3c8b2774	0.016986586
39	0xbd5ec4cb	-0.054386895
40	0xbdb5e453	-0.0888144
41	0x3c43808a	0.011932502
42	0xbc341196	-0.010990521
43	0xb80333b2	-3.128098e-05
44	0xbbd98361	-0.006637976
45	0x3d71f002	0.05906678
46	0xbd822c25	-0.06356076
47	0x3d025a22	0.03182424
48	0xbae0afa9	-0.0017142195
49	0xbd7cf287	-0.06175473
50	0xbd652817	-0.055946436
51	0xbd1ba100	-0.03799534
52	0xbd6a650e	-0.05722528
53	0xbba3daab	-0.0050004325
54	0xbc1ada9a	-0.009451533
55	0x3d3346fe	0.043768875
56	0xbc15e483	-0.00914872
57	0xbd6f317b	-0.058396798
58	0x3bdee934	0.0068027023
59	0x3c81783c	0.015804403
60	0x3d1392f5	0.03602882
61	0xbd8b6085	-0.06805519
62	0xbd233c71	-0.039852563
63	0xbd516279	-0.0511193
64	0x3d975866	0.073899075
65	0xbb760917	-0.003754204
66	0x3cdc350c	0.026880763
67	0xbd4d0adb	-0.05005918
68	0x3ce318f5	0.027721861
69	0x3d474fcb	0.04866008
70	0x3d0e6e70	0.03477329
71	0x3d39aae0	0.045328975
72	0xbd14f981	-0.036370758
73	0x3ccdf4d1	0.025141152
74	0xbc41dbaf	-0.011832162
75	0xbcca0078	-0.024658427
76	0xbc85a7ce	-0.016315367
77	0xbc8dc5e2	-0.017306272
78	0x3c3289b6	0.010897091
79	0xbc8d90ea	-0.017281014
80	0xbd69b72a	-0.057059444
81	0x3d74f887	0.059807327
82	0xbd578acf	-0.052622613
83	0x3d03e8af	0.032204326
84	0xbc6d4a5f	-0.0144830635
85	0xbd819617	-0.063274555
86	0x3d0ccfd1	0.034377877
87	0x3d119805	0.035545368
88	0x3baf319f	0.0053464915
89	0xbd149c39	-0.036281798
90	0xbc88a803	-0.016681677
91	0xbb5b852e	-0.003349613
92	0xbd0180eb	-0.031617086
93	0xbccd5ef4	-0.025069691
94	0xbd188519	-0.037236307
95	0xbcc8db11	-0.024518522
96	0xbd38d654	-0.045126274
97	0xbcf8bc84	-0.030363329
98	0x3c607491	0.013699667
99	0xbc988688	-0.018618837
100	0xbd573976	-0.052545033
101	0xbb0adad4	-0.002118756
102	0xbd71f47c	-0.05907105
103	0xbda930c9	-0.08261258
104	0xbd95a061	-0.073059805
105	0x3d5dccfe	0.054150574
106	0xbc0437ed	-0.008069974
107	0xbc0c852d	-0.008576673
108	0x3c8855c4	0.016642459
109	0x3d109378	0.035296887
110	0x3d14227e	0.036165707
111	0xbcb68625	-0.022280762
112	0x3dc428fd	0.095781304
113	0x3ccb3929	0.02480753
114	0x3cd948bd	0.026523942
115	0xbb896142	-0.0041925022
116	0xbc9b4e94	-0.018958367
117	0xbceb7eb2	-0.028746936
118	0xbbe6dff6	-0.007045741
119	0x3b727079	0.0036993308
120	0xbc9bad00	-0.019003391
121	0x3c1bc064	0.009506319
122	0xbd4ee7d8	-0.050514072
123	0x3d03d8cd	0.03218918
124	0x3941fb11	0.00018499444
125	0x3c43c273	0.011948216
126	0x3c70e7d6	0.0147037115
127	0x3c848c5d	0.016180212
128	0xbc27fa46	-0.010252541
129	0xbb0c877c	-0.002144306
130	0xbd5e0c0c	-0.054210708
131	0xbcbfcbb3	-0.023412561
132	0xbc6f75b2	-0.014615463
133	0xbd4e8ad3	-0.05042536
134	0xbda9f8d3	-0.082994126
135	0x3b5a3ca0	0.0033300295
136	0xbd204c80	-0.039135456
137	0x3d4f24fd	0.050572384
138	0xbcbaac88	-0.022787347
139	0xbcd4e598	-0.025988385
140	0xbd506061	-0.050873164
141	0x3cc84a2a	0.024449427
142	0x3b811738	0.0039395355
143	0xbc3e1c18	-0.011603378
144	0x3d617a50	0.055048287
145	0x3dda894b	0.10670718
146	0x3d87130c	0.0659543
147	0x3c143f55	0.009048303
148	0x3bf95c51	0.007609882
149	0x3d1be34d	0.038058568
150	0x3cb3c594	0.021944799
151	0x3d5e831a	0.054324247
152	0x3dac2c32	0.08406867
153	0x3ba7c946	0.005120429
154	0x3d358257	0.044313755
155	0xbc60cd1f	-0.01372078
156	0x3c85c032	0.016326997
157	0xbb44f8b2	-0.003005546
158	0xbb1b3da1	-0.0023687857
159	0xbb8dc939	-0.004326966
160	0xbd0f3de7	-0.034971144
161	0xbca1a610	-0.019732505
162	0xbcf063c1	-0.029344441
163	0xbd2b4826	-0.041816853
164	0xbce8f7d1	-0.02843848
165	0xbc43760c	-0.01193
166	0xbc64a1a7	-0.013954557
167	0xbdae62a8	-0.08514911
168	0xba4643bd	-0.00075631944
169	0xbdac4499	-0.084115215
170	0xbccc36d2	-0.024928484
171	0xbcb79a22	-0.022412363
172	0x3d0359e2	0.03206814
173	0x3d5fb1a7	0.05461278
174	0x3cc36568	0.023852065
175	0xbd776725	-0.0604011
176	0x3c9aec38	0.018911466
177	0x3b8e7c20	0.004348293
178	0xbd7ac582	-0.061223514
179	0x3c826150	0.015915543
180	0xbd0c2d9d	-0.034223188
181	0xbc0a9c4d	-0.008460117
182	0x3d1a98fa	0.037743546
183	0xbd0d6f61	-0.034530047
184	0xbd96df11	-0.07366765
185	0xbbcd078d	-0.0062570036
186	0x3b0c3e2d	0.0021399364
187	0xbd555686	-0.05208447
188	0xbcca834a	-0.024720807
189	0xbd396014	-0.045257643
190	0x3d565ccc	0.05233459
191	0xbd37c0e4	-0.04486169
192	0xbd9e63ac	-0.07733855
193	0xbc96ecfc	-0.01842355
194	0x3ba7a1e7	0.005115736
195	0xbd8eca2a	-0.069721535
196	0xbd7f800b	-0.06237797
197	0xbda9391e	-0.08262847
198	0xbc89d31b	-0.016824296
199	0xbc87744e	-0.01653495
200	0x3d4e9a31	0.050440017
201	0xbd5a4564	-0.053288832
202	0xbd0771fe	-0.033067696
203	0x3d32255a	0.043492652
204	0x3c7782ae	0.01510684
205	0xbc627f03	-0.013824227
206	0x3cfb4d4d	0.030676508
207	0x3d2f8395	0.042850096
208	0x3c88b4ef	0.016687838
209	0x3d9d6fbe	0.07687329
210	0x3cb2fd1d	0.02184921
211	0xbd262021	-0.040557984
212	0xbc671357	-0.014103732
213	0xbc99d128	-0.018776491
214	0x3dbbd09b	0.09170648
215	0x3c8cd776	0.017192584
216	0xbcd70551	-0.026247652
217	0x3d4b484e	0.049629502
218	0x3c00571b	0.007833268
219	0xbd5a3c01	-0.05327988
220	0xbba586e7	-0.005051482
221	0xbca357ee	-0.01993939
222	0x3af89abd	0.0018967014
223	0x3c894ab2	0.01675925
224	0x3bf7dbc9	0.007564042
225	0x3d164b3f	0.036692854
226	0xbcfe141f	-0.031015454
227	0x3b3fcfa0	0.0029268041
228	0xbcbe7a3e	-0.023251649
229	0xbd70060f	-0.058599528
230	0x3c8ad9fe	0.01694965
231	0xbc92d44a	-0.017923493
232	0x3d4d3f65	0.050109286
233	0x3d6afc15	0.05736931
234	0x3d6875ee	0.05675309
235	0xbba187b2	-0.004929506
236	0x3d80939b	0.062781535
237	0x3c4940f4	0.012283552
238	0xbc5bbbad	-0.013411445
239	0x3d244ac5	0.04011037
240	0x3993ad78	0.0002816727
241	0x3cb1c08a	0.021698255
242	0xbbd48817	-0.0064859497
243	0x3c132250	0.008980349
244	0x3d3dfd43	0.046384107
245	0xbc96ccc3	-0.018408185
246	0xbbea4962	-0.007149861
247	0xbd33f01a	-0.04393015
248	0xbd047e17	-0.03234681
249	0xbb9edbe3	-0.00484799
250	0xbc960de6	-0.018317174
251	0xbca5dee2	-0.02024788
252	0x3c1eb2f1	0.009686218
253	0xbc876acf	-0.016530422
254	0x3d88b035	0.06674234
255	0xbd2788b5	-0.04090186

cnn3.bias f4 [32]
0	0xbd10e1f9	-0.035371754
1	0x3d20f2f6	0.039294206
2	0xbdc247e6	-0.0948637
3	0xbc935526	-0.017984938
4	0x3d050ae8	0.032481104
5	0xbc06c985	-0.008226757
6	0xbd098468	-0.033573538
7	0x3dee014e	0.116213426
8	0xbc21faf0	-0.009886488
9	0xbd794984	-0.060861126
10	0x3c23072e	0.009950442
11	0xbcd29928	-0.025707796
12	0xbc5ca97b	-0.013468142
13	0x3d6354df	0.05550086
14	0xbc97d09c	-0.01853209
15	0x3e19ba5f	0.15012501
16	0xbd90f418	-0.07077807
17	0x3b9ce948	0.0047885515
18	0xbd2da559	-0.042394016
19	0xbd823cf2	-0.06359281
20	0xbd914d8d	-0.0709487
21	0xbcf3d65d	-0.029765302
22	0xbd8f6457	-0.0700156
23	0xbd773961	-0.060357455
24	0xbbd309d2	-0.0064403797
25	0xbd0f5d0b	-0.035000842
26	0xbd882b61	-0.06648899
27	0x3ce4d731	0.027934643
28	0xbc088537	-0.008332542
29	0x3dcb94c2	0.09940483
30	0x3cb1ef25	0.021720478
31	0x3e27c813	0.16384916

fc1.weight f4 [128, 768]
0	0xbcdb4905	-0.026768217
1	0x3ccb35a7	0.024805857
2	0x3ca16e82	0.019706015
3	0x3c7291f6	0.014805308
4	0x3cfb9bef	0.030714003
5	0xbd035408	-0.03206256
6	0xbd421869	-0.04738656
7	0x3c80dc25	0.015729973
8	0xbc9113de	-0.017709669
9	0xbc336b68	-0.010950901
10	0xbcc3377c	-0.023830168
11	0x3a0cb680	0.0005367771
12	0xbad88cf8	-0.0016521504
13	0x3b330199	0.0027314185
14	0xbc1e911a	-0.00967815
15	0x3c9d43dc	0.019197397
16	0x3bfb3cfd	0.0076671825
17	0xbc41de34	-0.0118327625
18	0xbc2ee382	-0.010674359
19	0x3c355424	0.011067424
20	0xbcbeebfe	-0.02330589
21	0x3c89c7ba	0.01681887
22	0xbce79810	-0.028270751
23	0xbc4f1f6e	-0.012641771
24	0xbd1658af	-0.03670567
25	0xbbe4ff9b	-0.0069884784
26	0xbd15847f	-0.03650331
27	0xbc0f9571	-0.008763657
28	0x3b3ae2ab	0.0028516452
29	0xbcfc96d9	-0.030833649
30	0xbc9b90c0	-0.01898992
31	0x3cf10eb3	0.029425954
32	0xbd203e6e	-0.039122038
33	0x3c817620	0.015803397
34	0x3d276c23	0.04087461
35	0xbc456174	-0.01204716
36	0x3cd5999a	0.02607422
37	0x3d0f68ef	0.03501218
38	0xbc02f4b8	-0.007992916
39	0xbaaf366c	-0.0013367659
40	0x3c210f00	0.009830236
41	0xbc0f35b0	-0.008740827
42	0x3cbe11fe	0.023201939
43	0xbd5793ac	-0.052631065
44	0xbd27e08a	-0.04098562
45	0x3c9245e1	0.017855586
46	0xbcfdfdce	-0.031004813
47	0xbd2dceeb	-0.04243366
48	0xbd262f07	-0.040572193
49	0x3c3401fc	0.010986801
50	0xbd028e40	-0.03187394
51	0xbd06febb	-0.032957774
52	0xbd1ca7b1	-0.03824586
53	0xbbb30d76	-0.005464251
54	0x3c052434	0.008126307
55	0xbc794d2c	-0.015216153
56	0xbc0a9392	-0.008458035
57	0xbcaf2f90	-0.021384984
58	0x3c1a5791	0.0094202915
59	0x3ce8fc4f	0.028440623
60	0xbd0cb2dd	-0.034350265
61	0xbc950a44	-0.018193372
62	0xbcf7cf62	-0.030250255
63	0xbd3e80f1	-0.046509687
64	0x3cbfe727	0.023425652
65	0x3c4b95df	0.012425869
66	0xbc6e6146	-0.014549559
67	0xbc23b8b9	-0.009992772
68	0xbd1b5cc8	-0.03793028
69	0x3c9da1c3	0.019242173
70	0x3cad677c	0.02116751
71	0xbd0f0c42	-0.0349238
72	0xbbfb4928	-0.007668633
73	0x3c529e30	0.012855098
74	0xbcc3c871	-0.023899289
75	0xbc910c46	-0.017706048
76	0x3ce8d836	0.02842341
77	0x3c8c2119	0.017105626
78	0x3cbef76d	0.023311341
79	0x3b9cdbd5	0.004786948
80	0xba9169a1	-0.0011094102
81	0x3be0e81b	0.0068636066
82	0x3c80da9b	0.01572924
83	0xbcb5af96	-0.022178452
84	0xbd02ed87	-0.031964805
85	0x3cd1ae7c	0.025595896
86	0x3a92db12	0.0011204204
87	0xbc23e1a6	-0.010002529
88	0x3bdad931	0.0066787233
89	0xbcc191b3	-0.023629045
90	0xbb32a2e5	-0.0027257737
91	0xbce0708f	-0.027397422
92	0xbb03c261	-0.0020104873
93	0xbd21513d	-0.039384115
94	0x3b21857a	0.0024646209
95	0x3d028053	0.03186066
96	0x3cc3850a	0.023867149
97	0xbd017de2	-0.03161419
98	0x3b3e7e5b	0.0029067013
99	0x3b93ae32	0.0045068497
100	0xba498cf4	-0.0007688545
101	0x3b9b284a	0.0047350274
102	0xbcbd569f	-0.023112593
103	0xbc07594f	-0.008261039
104	0xbd1c9e22	-0.038236745
105	0xbc47bf8a	-0.012191663
106	0xbc890713	-0.016727006
107	0xbbda9901	-0.0066710715
108	0x3c65b5cd	0.014020395
109	0xbbf00107	-0.007324341
110	0xbc871bdb	-0.016492775
111	0xbd1493e8	-0.036273867
112	0x3c09f85a	0.008421028
113	0x3c2221e2	0.009895774
114	0x3c3b7874	0.0114422925
115	0xbce5b2e1	-0.028039398
116	0x3c6a1e1f	0.014289408
117	0x3a03511e	0.0005009341
118	0xbc901d87	-0.017592205
119	0x3ae8f82f	0.001777416
120	0x3ce80383	0.028321987
121	0xbd21f65d	-0.03954159
122	0x3bbe9334	0.005815888
123	0x3c3a8acd	0.011385632
124	0xbcff7154	-0.031181969
125	0xbc2032cc	-0.009777736
126	0x3ae2ed00	0.0017313063
127	0xbd06cc7c	-0.032909855
128	0x3d1904ab	0.037357967
129	0x3ca03466	0.019556236
130	0x3c4cb1a5	0.012493526
131	0x3b8cc04b	0.004295384
132	0x3cce35d0	0.025172144
133	0x3b4ca03d	0.003122344
134	0xbc86a11a	-0.016434241
135	0xbcc53cda	-0.024076868
136	0xbd0601d2	-0.03271658
137	0x3c3dc428	0.011582412
138	0x3c80ce26	0.0157233
139	0x3cd989e0	0.026555002
140	0x3b8f45cf	0.0043723355
141	0x3c9b91bc	0.01899039
142	0x3b428f98	0.002968764
143	0xbd04240d	-0.032260943
144	0xbcc59352	-0.0241181
145	0x3c4bdd70	0.0124429315
146	0x3d0b5bb0	0.034022987
147	0x3ce048c0	0.02737844
148	0x3b311130	0.0027018301
149	0xbc403aa2	-0.011732729
150	0x3cdd05cc	0.026980303
151	0x3d10e746	0.03537681
152	0x3d0de2b6	0.034640037
153	0x3c200fc0	0.00976938
154	0x3cb1a332	0.021684263
155	0xbbc6da74	-0.006068522
156	0xbca6c466	-0.020357322
157	0xbbf0fc0c	-0.007354265
158	0x3d0b25f4	0.03397174
159	0x3d0de7f4	0.034645036
160	0x3c813944	0.015774377
161	0x3c927540	0.017878175
162	0x3c1c6464	0.009545419
163	0xbca47077	-0.020073159
164	0xbbfd5a7c	-0.007731734
165	0x3d0695a5	0.032857556
166	0xbcf91b4e	-0.030408528
167	0xbc4448fa	-0.01198029
168	0xbc63460b	-0.01387168
169	0x3c3b356b	0.01142631
170	0xbae7abbb	-0.0017675081
171	0xbbee84f2	-0.007279032
172	0x3b63dbea	0.003476853
173	0xbc44d9d9	-0.01201483
174	0xbd71425b	-0.058901172
175	0xbc8dd18c	-0.017311834
176	0x3cd26375	0.02568219
177	0xbc9ef1d2	-0.019402418
178	0xbcae79ec	-0.021298371
179	0xbd24bf03	-0.040221225
180	0xbbf4bd6e	-0.007468871
181	0xbd107aee	-0.035273485
182	0x3ca60adf	0.020268856
183	0x3a2d58fa	0.0006612685
184	0xbd37aca4	-0.044842377
185	0xbd2f10f9	-0.042740796
186	0xbc17b9d7	-0.009260616
187	0xbd2871d2	-0.041124173
188	0xbb7f4663	-0.0038951866
189	0xbcad7d5b	-0.021177938
190	0x3c165038	0.009174399
191	0xbd2ed224	-0.042680874
192	0x3b0a3cdf	0.002109341
193	0xba8e62ff	-0.0010863243
194	0xbba7488f	-0.005105085
195	0xbd0791ec	-0.033098146
196	0xbd004f2c	-0.031325504
197	0x3cecbcb0	0.028898567
198	0xbac73e1c	-0.0015201005
199	0xbc32a751	-0.010904149
200	0xbcf56ffc	-0.029960625
201	0xbc4a9551	-0.012364701
202	0x3c31b43b	0.010846193
203	0xbcf84404	-0.03030587
204	0xbcabedbe	-0.020987388
205	0xbcad81a9	-0.02117999
206	0xbc004616	-0.00782921
207	0xbc59b7dd	-0.013288465
208	0x3c9e69e2	0.019337598
209	0xbcb5fd97	-0.022215648
210	0x3c306022	0.010765107
211	0xbc11f677	-0.008908859
212	0x3ca60dab	0.02027019
213	0xbd0dd845	-0.03463008
214	0x3d038264	0.032106772
215	0x3cda44c0	0.02664411
216	0xbd0d1147	-0.034440305
217	0xbd17fabd	-0.037104357
218	0xbd18d97a	-0.037316777
219	0x3cc54fd0	0.02408591
220	0xbc1031ea	-0.008800963
221	0x3c5e6f19	0.013576292
222	0x3d04d7cf	0.032432374
223	0xbd135305	-0.035967845
224	0xbc8da083	-0.017288452
225	0xbc59b4e7	-0.013287759
226	0x3c92e109	0.01792957
227	0x3c8a0b19	0.016850995
228	0xbcd1745e	-0.025568184
229	0xbcc21492	-0.02369145
230	0x3ccab827	0.024746014
231	0x3d0664d8	0.032811016
232	0x3be9e2eb	0.0071376464
233	0xbc960df1	-0.018317195
234	0x3c4034d9	0.01173135
235	0xbadb4aeb	-0.0016730701
236	0xbca68d45	-0.020331034
237	0x3cbf2ee4	0.023337789
238	0xbd1c4c82	-0.0381589
239	0xbcdb7b61	-0.02679223
240	0x3cb22419	0.021745728
241	0x3a98c45e	0.0011655202
242	0x3d001183	0.0312667
243	0xbd15c4f4	-0.036564782
244	0x3c2b8350	0.010468319
245	0x3d08d2b4	0.033404067
246	0x3a2b7f6b	0.0006542119
247	0x3c373f1a	0.011184478
248	0xbcf840b6	-0.030304294
249	0xbd0ed70f	-0.034873065
250	0x3c0814ec	0.008305769
251	0x3ca51ac5	0.020154366
252	0xbc9f0b8f	-0.019414691
253	0xbbe30900	-0.006928563
254	0x3ce9101c	0.028450064
255	0xbd00c9d1	-0.031442467

fc1.bias f4 [128]
0	0x3cc7ae0b	0.024374982
1	0xbc1190a0	-0.008884579
2	0x3c7f32f6	0.015576115
3	0xbd251562	-0.040303595
4	0xbcd307e1	-0.025760593
5	0x3d63ece1	0.055645827
6	0x3c79fcd8	0.015258037
7	0xbd277081	-0.040878776
8	0x3b99e3fb	0.004696367
9	0x3c7d6fb6	0.0154685285
10	0xbcab9724	-0.020946093
11	0xbce60c84	-0.02808214
12	0xbc0eb5eb	-0.008710365
13	0xbd0d0342	-0.034426935
14	0xbd1b3838	-0.03789541
15	0x3d5022cc	0.050814435
16	0xbd171369	-0.036883745
17	0xbca316b2	-0.019908283
18	0x3d154495	0.036442358
19	0xbaff5b94	-0.0019482248
20	0xbba79402	-0.0051140795
21	0x3e011568	0.12605822
22	0xbd2fe157	-0.04293951
23	0x3d87c334	0.06629029
24	0xbd453adb	-0.048151832
25	0x39199a3e	0.00014648677
26	0xbbbac926	-0.0057002483
27	0xbcf05da1	-0.02934152
28	0xbcdf2369	-0.027238565
29	0x3c8d2c0e	0.017232921
30	0xbd1242e2	-0.035708316
31	0x3caa7de5	0.020811984
32	0xbd0e1e3c	-0.034696802
33	0x3cf24d8d	0.029577995
34	0xba071145	-0.00051524147
35	0xbc0db321	-0.008648665
36	0xbcccdae9	-0.025006728
37	0xbd206cbe	-0.039166205
38	0xbcb76b95	-0.022390166
39	0x3b51edc7	0.0032032595
40	0x3ca8dad5	0.02061216
41	0x3dd2699b	0.10274049
42	0xbd04b1bb	-0.03239606
43	0xbcc64c70	-0.02420637
44	0xbc9d6654	-0.019213833
45	0xbd131811	-0.035911623
46	0x3bd1d6fc	0.006403802
47	0x3bcd840e	0.0062718457
48	0xbd11f866	-0.03563728
49	0x3cf0ad48	0.029379502
50	0x3d0acca8	0.03388658
51	0x3cd53df6	0.026030522
52	0x3bbc1d24	0.0057407785
53	0x3d996752	0.0749041
54	0xbbee91df	-0.007280573
55	0xbd1413d4	-0.036151722
56	0xbd1097a5	-0.03530087
57	0x3bfd2cba	0.007726279
58	0xbc8df625	-0.017329285
59	0xbcb67e40	-0.022276998
60	0xbd29930c	-0.0414
61	0x3da7d1b6	0.08194296
62	0xbd0b2838	-0.033973902
63	0xbcccb258	-0.024987385
64	0xbc8038a5	-0.01565201
65	0x3ccf561a	0.025309611
66	0x3dfd240a	0.123603895
67	0x3b67ba20	0.0035358742
68	0x3c42722e	0.011868043
69	0x3c8c32ee	0.017114129
70	0xbbcf1a8f	-0.0063203047
71	0x3ba3b54c	0.0049959775
72	0x3ce91301	0.028451445
73	0x3c37fef0	0.011230215
74	0xb9523993	-0.00020048609
75	0x3c3f61e1	0.011681051
76	0xb71cd6bf	-9.348324e-06
77	0xbd108ff2	-0.035293527
78	0x3c24c5eb	0.010056953
79	0xbb9630c7	-0.0045834514
80	0xbc8cf194	-0.017205037
81	0xbbdf9ee9	-0.0068243635
82	0x3be9b3ed	0.0071320445
83	0x3caae6c8	0.020861998
84	0x3c05824b	0.00814874
85	0x3cdfdbe4	0.027326532
86	0xbcecac97	-0.028890891
87	0xbcd58422	-0.026063982
88	0x3c831782	0.01600242
89	0x3dc86635	0.097851194
90	0xbcd740f3	-0.026276087
91	0x3e00ee83	0.12590985
92	0x3c294104	0.010330442
93	0xbcb053f3	-0.021524405
94	0xbad9abbd	-0.0016606968
95	0xbd247517	-0.040150728
96	0x3ae0e08b	0.0017156763
97	0xbb9051e6	-0.0044042943
98	0xbbe2c3ca	-0.0069203125
99	0x3c35a84d	0.011087489
100	0xbd13e8ce	-0.03611069
101	0xbc2e1301	-0.010624648
102	0xba011370	-0.0004923856
103	0x3c91188b	0.017711898
104	0x3a90a9e1	0.0011036956
105	0xbc77a3da	-0.015114749
106	0xbd1be2c8	-0.038058072
107	0xbc84139c	-0.016122632
108	0x3dd48d12	0.103784695
109	0x3c567b46	0.013090914
110	0xbbff73e1	-0.0077957963
111	0xbc532ecf	-0.012889578
112	0x3dd991b3	0.10623493
113	0x3cae0f36	0.021247488
114	0xbd29e383	-0.041476738
115	0x3cbc2438	0.02296649
116	0x3c2b49f4	0.0104546435
117	0x3c996ef2	0.01872966
118	0xbcaffb2c	-0.021482073
119	0x3d6a54de	0.057209842
120	0xbc3529e9	-0.011057355
121	0xbc42dcf4	-0.0118935
122	0xbc4ef96a	-0.012632707
123	0xbd4c0d97	-0.049817648
124	0x3e090ef1	0.13384606
125	0xbc10b29c	-0.008831646
126	0x3d079214	0.033098295
127	0xbd6f806b	-0.05847208

fc2.weight f4 [128, 128]
0	0xbdb22dbd	-0.0870013
1	0xbd717dce	-0.058957867
2	0xbce518da	-0.027965952
3	0xbc3831d8	-0.011242352
4	0x3cf56e36	0.02995978
5	0x3cdfaea0	0.027304947
6	0xbc254207	-0.010086543
7	0x3d554269	0.052065287
8	0xbb066cce	-0.002051163
9	0x3d08b23d	0.033373106
10	0x3ce2653d	0.027636165
11	0xbd048aa1	-0.03235877
12	0xbdca8b5a	-0.098898605
13	0x3d0f4a94	0.034983233
14	0x3da7e7dd	0.08198521
15	0xbcd2a746	-0.025714528
16	0xbd3c8e73	-0.046034288
17	0x3cef315e	0.029198345
18	0x3b7cb6e2	0.0038561155
19	0x3d2be00e	0.041961722
20	0x3dafa94f	0.08577215
21	0x3d822ecf	0.06356584
22	0x3c89aad2	0.016805086
23	0xbd3bd56d	-0.045857836
24	0x3d58cb7e	0.05292844
25	0xbb18ef80	-0.0023336112
26	0x3d8604f3	0.06543913
27	0xbbcd4e96	-0.0062654717
28	0xbc686a18	-0.014185451
29	0xbb06a055	-0.0020542343
30	0x3db7f099	0.08981437
31	0x3d62903e	0.05531334
32	0xbda3eea2	-0.080045
33	0xbd9bc998	-0.0760681
34	0x3da1dfc7	0.0790401
35	0xbdd85159	-0.10562391
36	0xbdb0e63c	-0.08637664
37	0x3db37876	0.087632105
38	0x3dabc303	0.08386805
39	0xbd83140d	-0.06400309
40	0xbd835cc0	-0.06414175
41	0xbd995202	-0.07486345
42	0x3ccf3064	0.02529163
43	0xbbe8c45c	-0.007103486
44	0xbd1e7d27	-0.038693573
45	0x3d9bcae9	0.076070614
46	0x3d64dba6	0.055873536
47	0x3ca77641	0.02044213
48	0xbd53e08a	-0.05172781
49	0xbda2b72c	-0.079450935
50	0xbc07636c	-0.00826345
51	0x3d2739d0	0.04082662
52	0x3d56b372	0.052417226
53	0x3df1ae91	0.11800874
54	0xbc384928	-0.011247911
55	0x3db52454	0.0884482
56	0x3cfa3a20	0.030545294
57	0xbcd08124	-0.025452204
58	0xbc34a490	-0.011025563
59	0xbd9bb23f	-0.07602357
60	0xbca2527c	-0.019814722
61	0x3dccca59	0.09999532
62	0xbdb0b1b9	-0.08627648
63	0x3dce890d	0.10084734
64	0xbd0d72c2	-0.03453327
65	0x3d13cc00	0.03608322
66	0x3df5a5f3	0.11994543
67	0xba60921e	-0.0008566695
68	0x3d6ee181	0.058320526
69	0xbd7d6b0c	-0.061869666
70	0x3d283318	0.04106435
71	0x3db1b507	0.08677106
72	0xbd0c0423	-0.034183633
73	0x3c6b2f20	0.014354497
74	0x3ad10b00	0.0015948713
75	0x3d17663a	0.036962725
76	0x3cc30f58	0.023811027
77	0x3d1bb59b	0.03801499
78	0xbbebce40	-0.007196218
79	0xbcba5384	-0.022744901
80	0xbc22fa3b	-0.009947355
81	0xbd9ce8e3	-0.07661607
82	0xbd534d23	-0.051587235
83	0x3bb9f454	0.005674878
84	0xbda37408	-0.079811156
85	0xbd720197	-0.059083547
86	0xbd833e61	-0.06408382
87	0x3d19f54a	0.03758744
88	0xbd9f1f5a	-0.07769652
89	0xbe260a5c	-0.1621489
90	0xbc786da8	-0.015162863
91	0xbc7d8d33	-0.015475559
92	0x3d351482	0.04420901
93	0x3d707f2a	0.058715023
94	0x3d0002b9	0.031252597
95	0xbd916870	-0.07099998
96	0x3c42e825	0.011896168
97	0xbd3d0eb8	-0.046156615
98	0x3d4d833e	0.05017399
99	0x3d1ed1fe	0.038774483
100	0x3d0eac9c	0.034832582
101	0xbd172dcc	-0.03690891
102	0x3d870c9d	0.06594203
103	0x3d9f7c15	0.07787339
104	0x3ccbeb14	0.024892367
105	0x3d4564f6	0.048191987
106	0x3c1246e8	0.008928038
107	0xbd222279	-0.039583657
108	0x3d46bdb9	0.048520777
109	0xbd95e432	-0.073189154
110	0xbcbb90d0	-0.0228962
111	0x3cdbaa90	0.026814729
112	0x3da24059	0.079224296
113	0xbcb90b00	-0.022588253
114	0xbd3f9244	-0.04677035
115	0xbd112deb	-0.03544418
116	0xbd8896fd	-0.06669424
117	0xbd983dd6	-0.07433669
118	0xbdaee5de	-0.085399374
119	0xbda8b0a2	-0.08236815
120	0x3b31f264	0.0027152533
121	0xbc4236d8	-0.011853896
122	0xbd4f4de7	-0.050611403
123	0xbb179a21	-0.002313264
124	0x3d9afbf3	0.07567587
125	0x3c0564d7	0.008141718
126	0xbd8c512f	-0.06851422
127	0xbd512c67	-0.051067736
128	0xbd800d9e	-0.06252597
129	0xbcfef13e	-0.031120893
130	0xbdbab223	-0.09116008
131	0x3beb4690	0.0071800426
132	0xbaa4a49b	-0.0012561263
133	0x3c19c57c	0.009385463
134	0xbdd3f3a7	-0.10349207
135	0xbc3ca870	-0.011514768
136	0x3d8e8537	0.069590025
137	0x3d130a5b	0.035898548
138	0x3aaed528	0.0013338672
139	0x3d177cfe	0.036984436
140	0x3c23d628	0.009999789
141	0x3b912d90	0.0044304803
142	0x3d4a2c26	0.04935851
143	0xbd3f245e	-0.04666554
144	0x3d1e38a4	0.038628235
145	0x3d19c51c	0.037541494
146	0xbc18521c	-0.00929692
147	0xbcbfb830	-0.023403257
148	0xbc07cf73	-0.008289206
149	0xbcaccc14	-0.021093406
150	0x3d9aad9b	0.07552644
151	0xbd5f7d53	-0.054562878
152	0x3da8c751	0.082411416
153	0x3d5f50be	0.05452036
154	0xbd96e008	-0.07366949
155	0xbc2f7705	-0.010709529
156	0xbd9cce07	-0.07656484
157	0x3d3fe84a	0.046852387
158	0x3da9f031	0.08297766
159	0xbcf160bc	-0.029465072
160	0xbd0e236b	-0.034701746
161	0xbba7aab4	-0.005116785
162	0xbd0b0e92	-0.033949442
163	0xbda80f17	-0.08206003
164	0xbd96bd0f	-0.07360279
165	0xbd3c7769	-0.046012316
166	0x3d157584	0.036489025
167	0xbda02185	-0.07818893
168	0xbd795df1	-0.060880605
169	0x3c8747f2	0.016513798
170	0xbcbe9fb0	-0.023269504
171	0xbd9ba7ac	-0.0760034
172	0xbd63e54f	-0.055638608
173	0xbccea0b0	-0.025223106
174	0x3ca3a66f	0.019976823
175	0xbc1a3b99	-0.009413623
176	0xbd89e322	-0.06732775
177	0x3d97fb79	0.074210115
178	0x3c9ad6c0	0.018901229
179	0xbd3b9d2e	-0.045804195
180	0xbc123010	-0.008922592
181	0x3dd55c90	0.104180455
182	0x3d401f23	0.046904694
183	0xbd941e12	-0.07232298
184	0xbd2a7b97	-0.04162177
185	0xbc468ce0	-0.012118548
186	0xbd85a588	-0.06525713
187	0x3c6a564d	0.014302802
188	0xbd8aacbe	-0.06771229
189	0x3d65bc79	0.056087945
190	0xbca3e950	-0.020008713
191	0xbdcb466e	-0.09925543
192	0xbd45daf3	-0.04830451
193	0x3ccfef51	0.02538267
194	0x3d158a25	0.036508698
195	0x3dc7c568	0.09754449
196	0xbbcf1742	-0.006319911
197	0x3cbb72ac	0.022881828
198	0xbcc673ae	-0.024225082
199	0x3ce35e28	0.027754858
200	0x3d31564f	0.0432952
201	0xbd254bdb	-0.040355545
202	0xbc8611c4	-0.016365893
203	0x3c746d20	0.014918596
204	0xbd8f487d	-0.06996248
205	0x3cb45498	0.022012994
206	0xbd2014a3	-0.03908218
207	0x3d85d4cb	0.06534728
208	0xbc0b55b7	-0.008504323
209	0xbc729c52	-0.0148077775
210	0xbd56c64d	-0.052435208
211	0x3d8a3b72	0.067496195
212	0x3d0a594c	0.033776566
213	0xbd01b35c	-0.03166519
214	0xbc9f24ea	-0.019426782
215	0xbaeb2030	-0.001793867
216	0xbd6a240f	-0.057163294
217	0xbdb485cf	-0.088145845
218	0xbda1161d	-0.07865546
219	0x3d075d5a	0.03304801
220	0xbc0849e0	-0.008318394
221	0x3d3cccee	0.046093874
222	0xbcdd5cb9	-0.027021753
223	0xbdaba20c	-0.08380517
224	0xbd459d15	-0.04824551
225	0xbd927055	-0.07150332
226	0x3d4adeba	0.049528815
227	0x3c3f4488	0.011674054
228	0xbd3e73b0	-0.046497047
229	0x3cd01b58	0.025403664
230	0x3d8aa4cf	0.06769716
231	0x3d06f38e	0.032947116
232	0xbc3318a0	-0.010931164
233	0x3c65b0a8	0.014019169
234	0xbd75a19a	-0.05996857
235	0x3d32d75a	0.043662407
236	0x3ddf0194	0.10888973
237	0xbbff2602	-0.0077865133
238	0x3d1348f2	0.035958238
239	0x3d1ff7d2	0.0390547
240	0xbad708e3	-0.0016405847
241	0x3d4e62be	0.050387137
242	0xbdd5fa5f	-0.10448145
243	0xbd63d856	-0.055626236
244	0x3c6024c8	0.013680644
245	0x3d886e81	0.06661702
246	0xbda63a54	-0.08116594
247	0x3d5e84a5	0.05432572
248	0xbd3d0464	-0.046146765
249	0xbd8d61c5	-0.06903414
250	0x3d73af3d	0.059493292
251	0x3dcd939e	0.10037921
252	0x3e2dc5c1	0.16969968
253	0xbd8f6188	-0.070010245
254	0x3dac5d98	0.08416289
255	0x3d33c197	0.043885794

fc2.bias f4 [128]
0	0x3d1a8317	0.037722673
1	0x3d4e53ca	0.050372876
2	0x3d61b5ed	0.05510514
3	0x3dbd33b5	0.09238378
4	0x3dd0031e	0.101568446
5	0x3d82296f	0.06355559
6	0x3e3b8c49	0.18315233
7	0x3dfbdaa0	0.12297559
8	0xbe068c29	-0.13139404
9	0x3dd9b855	0.10630862
10	0xbd92c4cd	-0.07166443
11	0xbd27df62	-0.04098452
12	0x3e409b51	0.18809249
13	0x3c993c16	0.018705409
14	0xbda59d4d	-0.08086643
15	0x3dd5c40b	0.10437783
16	0x3ced80f5	0.028992156
17	0x3dfe7f2c	0.124266
18	0x3e02cd4d	0.12773629
19	0xbd15a361	-0.036532763
20	0xbdfe7671	-0.12424935
21	0x3d917745	0.07102827
22	0x3e191dcc	0.14952773
23	0x3e835c11	0.2565618
24	0x3e1be698	0.15224683
25	0x3ca8df8b	0.020614406
26	0x3e09e4bf	0.13466166
27	0x3e449a75	0.19199546
28	0xbd462e17	-0.0483838
29	0x3cc2526d	0.023720944
30	0x3dc268f5	0.09492675
31	0x3d307d59	0.04308829
32	0x3e4dbd25	0.20091684
33	0xbdd0223c	-0.1016278
34	0x3e7915e5	0.24324758
35	0x3a241e23	0.0006260594
36	0x3d46c426	0.048526905
37	0x3e623e78	0.22094142
38	0xbd85a46d	-0.06525502
39	0xbc455242	-0.012043538
40	0x3bb36e2c	0.00547578
41	0xbd062bf9	-0.03275678
42	0xbc75b9b6	-0.01499789
43	0xbc003902	-0.007826092
44	0x3e6b3a47	0.2297145
45	0x3e143e71	0.14476945
46	0x3d906e76	0.07052319
47	0x3d13af3a	0.03605578
48	0xbe05b8b9	-0.13058747
49	0xbc818fb0	-0.015815586
50	0x3e0cc1dd	0.13745828
51	0x3d5146b0	0.051092803
52	0x3d825149	0.0636316
53	0x3c8af5b0	0.016962856
54	0x3e65c517	0.22438465
55	0x3dee1ae6	0.11626224
56	0x3b4daa97	0.0031382197
57	0x3d24b159	0.040208194
58	0xbddafcbe	-0.10692738
59	0x3d0d6a10	0.034524977
60	0xbd26265b	-0.040563922
61	0xbd9deb63	-0.07710912
62	0x3e6522b6	0.22376522
63	0xbda14ee2	-0.07876374
64	0xbd55341e	-0.052051656
65	0xbda201fd	-0.079105355
66	0xbd314cc1	-0.04328609
67	0x3d8298b3	0.06376781
68	0x3da1d0a2	0.07901122
69	0x3e1f9ef4	0.1558798
70	0x3dcd26c2	0.10017158
71	0x3d9e7e69	0.077389546
72	0xbd53b635	-0.051687438
73	0x3deeedb8	0.11666435
74	0xbcc84453	-0.024446642
75	0x3d149c20	0.036281705
76	0x3c8a93a2	0.0169161
77	0x3d8c814e	0.068606004
78	0xbe1b6933	-0.15176849
79	0xbcf74da8	-0.030188397
80	0x3d0c39af	0.0342347
81	0x3dc8bf25	0.09802083
82	0x3e7351a0	0.23761606
83	0x3c815485	0.015787372
84	0x3d37823a	0.044801928
85	0x3cacdc92	0.02110127
86	0xbdcb042b	-0.09912904
87	0x3e1e9e1c	0.15490001
88	0xbe272b7c	-0.16325182
89	0x3e607965	0.21921308
90	0x3e5bba72	0.21457842
91	0x3e5e64af	0.21718095
92	0x3cc63895	0.024196902
93	0x3d87ceee	0.066312656
94	0x3d55916e	0.052140646
95	0x3e5817df	0.21102856
96	0x3d0592c8	0.032610685
97	0xbd0cf1b4	-0.034410194
98	0x3d1bc8a9	0.03803316
99	0x3dd58657	0.10426014
100	0x3bf9df94	0.0076255295
101	0x3d83170d	0.06400881
102	0xbc9f313f	-0.019432662
103	0x3d37ab06	0.044840835
104	0x3dbe8468	0.09302598
105	0x3e638032	0.22216871
106	0x3c97b711	0.01851991
107	0x3c93172f	0.01795539
108	0x3e7199fb	0.23593895
109	0x3e3ce284	0.18445784
110	0xbe03c971	-0.12869813
111	0xbe072587	-0.1319791
112	0xbda9fb63	-0.08299901
113	0x3e631d6e	0.22179195
114	0x3dec4fc5	0.11538652
115	0x3e820922	0.25397593
116	0x3e318748	0.17336762
117	0x3da03b1f	0.078237765
118	0x3eb29872	0.34881932
119	0x3e2f26b7	0.17104612
120	0x3e3301a7	0.17481099
121	0x3d1dfeef	0.0385732
122	0x3e3b8542	0.18312553
123	0xbda89445	-0.08231405
124	0x3ea12abe	0.31477922
125	0x3d868196	0.06567685
126	0xbda6e5d9	-0.08149309
127	0xbd537fb1	-0.051635448

fc3.weight f4 [128, 128]
0	0x3bd3acec	0.006459823
1	0xbccfda97	-0.025372786
2	0xbe12afcb	-0.14324872
3	0xbd0c8e24	-0.034315243
4	0xbcb2aa08	-0.021809593
5	0x3bb0bca7	0.005393583
6	0x3c2cef67	0.010555125
7	0xbd4038ad	-0.04692905
8	0x3de4f7a1	0.11180044
9	0xbd3cca5a	-0.046091415
10	0xbddf1d01	-0.10894204
11	0x3c0a2088	0.008430608
12	0x3c11b812	0.008893983
13	0x3d11af91	0.035567824
14	0x3d370700	0.04468441
15	0xbbeef874	-0.0072928015
16	0xbd475cbd	-0.048672426
17	0xbd9d7e5c	-0.07690117
18	0x3cd5006d	0.02600118
19	0xbce62f31	-0.028098674
20	0x3d32dadf	0.043665763
21	0xbd1f90ac	-0.03895633
22	0xbd8bf861	-0.06834484
23	0xbcd9296c	-0.02650901
24	0xbda0f84b	-0.07859858
25	0xbda40f0e	-0.08010684
26	0xbd89c02a	-0.067261055
27	0xbc22995c	-0.009924259
28	0xbd25f29b	-0.04051457
29	0xba2a3d97	-0.0006494163
30	0xbca9dccd	-0.020735169
31	0xbd3cf6cf	-0.046133813
32	0xbc824c8a	-0.015905637
33	0xbdaa4309	-0.08313567
34	0x3d285e3b	0.04110549
35	0x3dcce07f	0.10003757
36	0x3c928420	0.017885268
37	0xbddfe320	-0.109319925
38	0xbd6ac81f	-0.057319757
39	0xbd3f9279	-0.046770547
40	0xbd5dd3cb	-0.05415706
41	0xbd9c8768	-0.07643014
42	0x3d8b535c	0.06803009
43	0xbdb0d80e	-0.08634959
44	0xbd5707dc	-0.05249773
45	0xbd48bff3	-0.049011182
46	0xbcf3eecc	-0.029776953
47	0x3db5f815	0.088852085
48	0xbd754449	-0.059879575
49	0x3dadeeb4	0.08492795
50	0x3d134f04	0.035964027
51	0x3dc62dd5	0.096767105
52	0xbb74ae2b	-0.0037335258
53	0xbd87e847	-0.066361
54	0xbd447b8a	-0.04796938
55	0xbdd0b868	-0.10191423
56	0xbc919ff4	-0.017776467
57	0xbc9006d4	-0.01758138
58	0x3decc61a	0.115612224
59	0xbdee9429	-0.11649353
60	0x3dc6155e	0.09672044
61	0x3c68cdc3	0.014209214
62	0xbd346cf9	-0.044049237
63	0x3cc99a78	0.02460979
64	0xbc0031ef	-0.007824405
65	0x3da94008	0.08264166
66	0xbd9301b8	-0.07178062
67	0x3ca7ac2d	0.020467842
68	0x3c9c42f7	0.0190749
69	0xbcfb809f	-0.03070098
70	0xbd2a00fc	-0.041504845
71	0x3cb6808b	0.022278091
72	0x3d9bf39e	0.07614826
73	0x3cf55df0	0.02995202
74	0x3d33015f	0.04370248
75	0xbb962b49	-0.0045827967
76	0xbd5b0f6b	-0.0534815
77	0xbd62a409	-0.055332217
78	0xbb964189	-0.004585449
79	0xba9bb15c	-0.0011878419
80	0xbdb0005e	-0.0859382
81	0xbc3a8101	-0.011383296
82	0x3afad737	0.0019137625
83	0x3e215bea	0.15757719
84	0xbd998845	-0.074966945
85	0x3daa4893	0.08314624
86	0x3d99e3e3	0.07514169
87	0xbdafcf29	-0.085844345
88	0x3da6e684	0.08149436
89	0xbd3b0dae	-0.045667343
90	0x3bcd1515	0.0062586167
91	0x3c530dcd	0.012881708
92	0x37efbbec	2.8578528e-05
93	0x3d506b67	0.050883677
94	0x3d875a04	0.06608966
95	0xbced5f67	-0.028976155
96	0xb9afa8be	-0.00033504324
97	0x3d224b81	0.039622787
98	0xbd9d7246	-0.076878116
99	0x3e270d81	0.16313745
100	0xbce0b407	-0.027429594
101	0x3d3b316a	0.04570142
102	0xbb6c1c2c	-0.0036027534
103	0xbd850713	-0.0649549
104	0xbc90b973	-0.017666554
105	0xbd5e4afe	-0.054270737
106	0xbd61e8b6	-0.05515357
107	0x3dbc413b	0.09192129
108	0xb9acf014	-0.0003298527
109	0x3d563f0e	0.052306227
110	0x3d64d972	0.055871435
111	0xbcdf657b	-0.02727007
112	0xbc5454ef	-0.012959703
113	0xbcdad7eb	-0.026714286
114	0xbdb588b5	-0.088639654
115	0xbd9dac60	-0.076988935
116	0x3ce218fd	0.027599806
117	0xbb5491f6	-0.0032435632
118	0xbdbf9457	-0.093544655
119	0xbdb540b4	-0.08850232
120	0xbdf814df	-0.12113356
121	0xbde85883	-0.11345007
122	0x3b91516c	0.004434755
123	0xbd6ee6aa	-0.058325447
124	0x3d4982b8	0.04919693
125	0x3b454b2a	0.0030104616
126	0xbd97557f	-0.07389354
127	0x3d2e497b	0.042550545
128	0xbd83b87a	-0.064316705
129	0x3cc16c1d	0.023611123
130	0x3ccc7a6c	0.024960719
131	0x3d912e05	0.07088856
132	0x3d8795c9	0.06620366
133	0x3d661816	0.056175314
134	0x3dbe8510	0.093027234
135	0x3dd2543e	0.10269974
136	0x3d80940b	0.06278237
137	0x3d0d2976	0.03446337
138	0x3cf1dce9	0.029524283
139	0xbc394072	-0.011306869
140	0xbbeb570e	-0.0071820086
141	0x3c337867	0.010953999
142	0x3d38cce7	0.045117285
143	0xbdae7e50	-0.08520186
144	0xbd5db703	-0.05412961
145	0x3d54ff0a	0.052001037
146	0xbd82723b	-0.06369444
147	0x3d1055fd	0.035238255
148	0x3cf9f603	0.030512815
149	0x3d57ced1	0.05268747
150	0x3d08c6bb	0.03339265
151	0x3d116aca	0.035502233
152	0x3cf18611	0.029482873
153	0xbcc2774b	-0.023738524
154	0xbd618dfb	-0.055067044
155	0x3d9d1371	0.07669724
156	0xbdad9cf5	-0.08477203
157	0xbd570ce7	-0.05250254
158	0x3d0697c6	0.032859586
159	0xbd8a6089	-0.06756694
160	0x3ce04061	0.027374448
161	0x3e3837a3	0.17989974
162	0x3c7bf9e6	0.015379405
163	0x3debc89c	0.115128726
164	0xbcf9ddba	-0.030501235
165	0xbd96bbf0	-0.07360065
166	0xbd598342	-0.053103693
167	0xbdc9549c	-0.09830591
168	0x3ca44fa9	0.020057516
169	0xbdb96262	-0.09051968
170	0xbdcd39a4	-0.1002076
171	0x3cc4b77e	0.024013277
172	0x3d642467	0.05569878
173	0x3cdd7991	0.027035506
174	0x3d0db6b8	0.034598082
175	0xbe020cfd	-0.12700267
176	0x3d5b78af	0.05358189
177	0xbda418fd	-0.08012579
178	0xbd987df1	-0.074458964
179	0xbd2cf669	-0.042227183
180	0xbc5751cd	-0.013142061
181	0x3d0e21dd	0.034700263
182	0xbd63d64a	-0.055624284
183	0x3c80c3aa	0.0157183
184	0x3caceb90	0.021108419
185	0xbd862262	-0.06549527
186	0xbcc9a957	-0.02461688
187	0xbd1011f6	-0.03517338
188	0xbd87726a	-0.066136196
189	0xbd39eb1a	-0.045390226
190	0x3c82114d	0.01587739
191	0x3ceb5a53	0.028729593
192	0x3c02193a	0.007940585
193	0xbd6a1f75	-0.057158906
194	0x3bd5de0e	0.006526715
195	0x3c2e097d	0.010622379
196	0xbcb7dd96	-0.022444528
197	0x3d9abab8	0.07555145
198	0x3c87a560	0.01655835
199	0x3cc8c1f0	0.02450654
200	0x3d65f4b9	0.05614159
201	0xbd0382cc	-0.03210716
202	0x3c2c38e6	0.0105116125
203	0xbcbcdf45	-0.023055682
204	0xbd860cd1	-0.06545413
205	0x3dae9c7f	0.08525943
206	0x3c159185	0.009128933
207	0xbd00b96d	-0.031426836
208	0x3d96a924	0.0735648
209	0xbc8a2590	-0.016863614
210	0x3db77bec	0.08959183
211	0x3c5aa630	0.013345286
212	0xbc36eeed	-0.011165363
213	0x3b61d10b	0.0034456875
214	0xbcb73f0a	-0.022368927
215	0x3d61f6fe	0.05516719
216	0x3beab02e	0.0071621155
217	0xbd99cfe3	-0.07510354
218	0xbd376b89	-0.044780288
219	0xbdee8983	-0.11647322
220	0xbc2ecefa	-0.010669464
221	0xbd78f0fe	-0.060776703
222	0xbd0dfab6	-0.034662925
223	0x3c4f042a	0.01263527
224	0x3d66ef72	0.056380697
225	0xbb95560e	-0.0045573777
226	0xbb1a6227	-0.0023557039
227	0x3c7ea070	0.015541181
228	0xbb14963e	-0.002267256
229	0xbbc3ba59	-0.005973142
230	0xbd083ef1	-0.03326315
231	0x3d9e3bf5	0.0772628
232	0xbd867249	-0.06564767
233	0x3d468b95	0.04847296
234	0xbd7037b5	-0.058646876
235	0x3c7a3c3d	0.015273151
236	0xbcdc2e2e	-0.026877489
237	0xbd6aa596	-0.05728682
238	0x3c316f83	0.010829809
239	0x3d786c67	0.060650256
240	0x3d82adf0	0.06380832
241	0xbb77e77b	-0.0037827182
242	0x3d15596a	0.036462225
243	0xbc71663f	-0.01473385
244	0x3ba404c8	0.005005453
245	0xbd959be7	-0.07305127
246	0xbddaa1e9	-0.10675413
247	0xbd232c95	-0.03983744
248	0xbc2001bc	-0.0097660385
249	0xbd9be674	-0.07612315
250	0xbc2e0139	-0.010620409
251	0xbdadad0e	-0.08480273
252	0xbc0f758e	-0.008756055
253	0xbc485e67	-0.0122295385
254	0xbd47ee1e	-0.04881107
255	0xbda0b379	-0.07846732
