models/dqn_model_epoch_72000.pth (torch, 595624 bytes, 14 tensors)

cnn1.weight f4 [16, 4, 5, 5]
00000000: 1663 47be e76f 333d bc08 c9bc c29b 49be
00000010: 765c 12be 427e 4bbe a291 46be fe62 94be
00000020: 749a 0ebd 0954 69bd 8db7 8bbe 2c40 24be
00000030: cf70 c2be cde0 15be 8478 143d b621 2abe
00000040: afac 5abe 8bd3 23bd b430 83be 3544 453c
00000050: 39f9 56be 9fa0 81be d923 41be 5ada 883d
00000060: 5ec6 d73c 6f4c 70bc 509b 0abd 50f2 c1bd
00000070: 5143 10be 5455 e33c dc94 833d 7210 ddbc
00000080: 2a60 d03c d0bd 88bd 5a33 93bd 0104 41bd
00000090: ed35 0dbe b0fb 853c cb11 093e 5f5d e8bc
000000a0: 49fd d3bd e268 a83c 68a1 adbd 8d96 a13c
000000b0: 1700 04be 2015 02bd 02f2 993d 3a40 2abd
000000c0: 8a39 89bd f16e b2bd b7f3 a93d c8a7 27bc
000000d0: 4512 07be 6baf 52be 2c5a d4bc 3292 c7bc
000000e0: 271f b3bd 2f1a 383e ae02 4b3d c5f4 1dbe
000000f0: 963a 6a3e 974c 6c3e 7d5d 043e e0b4 f13c
00000100: 996c 57be 1cc8 90be 3859 233e 344b 913e
00000110: 42f3 05be 7fa0 2abe 6e03 24be bfc6 83bc
00000120: f56c a33e 8ddc 06be d034 1cbe 0892 bfbd
00000130: a856 7abe 2c86 b8bd a3c5 a7bb e6cc 87bd
00000140: 8964 2bbd d9a9 e13d a449 183e 93f0 c0bd
00000150: 4ce3 093d 5bf0 26be e924 963d b82a a53d
00000160: 6a97 bfbd 09e2 a8bd d08c 03be 6568 b2bb
00000170: 57a3 983d 20d5 c8bc f8bd f2bd d001 b93d
00000180: 3cc1 f03d 2d76 3abe 298e 8fbd 7415 75bd
00000190: 0ff1 f2bd 1695 85be 7f2a 35be 0e60 0b3d
000001a0: 018e 67be 7142 01be 44cc a7bd 012a d4bb
000001b0: a64f bf39 4609 ae3b 2b10 0cbe 774d 4abd
000001c0: f901 943c 150b 81bd 4e25 7abd de71 1fbe
000001d0: 36ea 67be 02e8 33be ad8a bdbe ee1a 6ebd
000001e0: 3907 84be 4aae 62be 426b c5bd 70d1 8cbd
000001f0: ebd3 ffbd df00 42bd 50aa aa3d 039f 72bd
00000200: 63c2 0f3d d5aa 06be c429 88bc 4e68 1ebd
00000210: 1751 e1bd 8a3f bb3c 9805 55bb 7425 a6bc
00000220: 8226 4ebd a620 12be f45d 47bd 6dc4 d2bc
00000230: 2b91 0bbe e1ff ccbc 1247 513d 6dd6 48bd
00000240: fc7c dabd 14aa 1fbb 0d56 053d d58f 8cbd
00000250: e101 d43d f2a1 e8bd e5da 42be a1be 2d3e
00000260: b645 5fbd 5800 1b3e 4c57 17be c6ee 3ebe
00000270: 0050 363e fe16 51be 4cb5 a73d e4ca 20be
00000280: 7bde 8bbe c92f 80be 6949 b33d 1320 c63d
00000290: 1365 57be 3b49 7cbe 7cc5 0cbe eec7 833e
000002a0: a799 41be 70da 6ebe c563 c73e e3fd 973e
000002b0: b615 d43e 89e4 66bd 707b 29be 8912 543e
000002c0: c99f 083e 1df3 723e 909f 8dbc f87b a8bd
000002d0: 47a0 ef3d 09ee f4bd 05bf 1b3e f743 04be
000002e0: 40c8 e0bd 1281 28be cab9 bd3d 3852 813d
000002f0: 6948 a6bd a3cb 1cbe fe26 2bbe 198e ebbc
00000300: 44c6 abbd 0e2a 00be 4245 25bd 4304 0abe
00000310: 9cb4 f1bd 66c5 3c3e 7d25 03be af90 0ebe
00000320: 7006 99be ba42 99bd 2d94 b0be d0b4 463d
00000330: 690d 3abe ea39 64be 032c 1fbe 3ff8 42be
00000340: 124c 1d3d 0ffc 9b3b ec3b 78be 53c0 5fbe
00000350: 1adf fabd 04d6 eb3c a747 353e e280 7ebe
00000360: 9a66 6abe d06a 94be 76aa 21be 107e 093e
00000370: ab84 79be 7620 05be c2cf 74be f310 563d
00000380: af56 85bd 5222 05be 8b96 44bc e7d4 0ebe
00000390: 180e acbd 66b8 16bd bb0e 86bb f22e b4bc
000003a0: 649b 803d 2675 babd c1b7 e83c dba7 91bc
000003b0: 5568 c93c 3bbb 4cbc 5423 cfbd 812d 82bb
000003c0: 6aa7 68bb 3ac1 b1bd f84a 243c dff7 3b3e
000003d0: 485f 00bc 5919 b0bd 8929 1bbe e4ee 65bd
000003e0: 7e2d bb3d cce3 3fbc 4494 993d 6364 fc3c
000003f0: a62b 503d 0130 cbbe 74a5 79bd a152 c73c
-0.19471392 0.04380789 -0.024540298 -0.19688323 -0.14293084 -0.19872382 -0.19391492 -0.28981775
-0.034815267 -0.056964908 -0.27288476 -0.16040105 -0.3797669 -0.14636536 0.036247745 -0.16614422
-0.21354936 -0.039996665 -0.25623095 0.012040188 -0.20993508 -0.25317857 -0.18861331 0.06682272
0.026339706 -0.014666661 -0.033839524 -0.094700456 -0.14088179 0.027750649 0.06424877 -0.02698538
0.02543648 -0.06676829 -0.07187529 -0.04712296 -0.13790102 0.016355366 0.13385694 -0.028364835
-0.10351045 0.020557825 -0.084780514 0.019725109 -0.1289066 -0.031758428 0.075168625 -0.041565157
-0.06700428 -0.08712567 0.08298438 -0.010232873 -0.13190563 -0.20574729 -0.025921904 -0.024361704
-0.08746176 0.17978738 0.049563102 -0.15425403 0.22873911 0.23076092 0.12926288 0.029505193
-0.2103752 -0.2827767 0.15952003 0.28377688 -0.13081077 -0.16662787 -0.16016933 -0.01608598
0.31919065 -0.13170071 -0.15254521 -0.09354025 -0.24447119 -0.09009966 -0.0051199957 -0.06630878
-0.041843925 0.11018724 0.14871842 -0.09420886 0.033664033 -0.16302626 0.07331259 0.080647886
-0.09355052 -0.08246238 -0.12846684 -0.0054445737 0.074530296 -0.024515688 -0.1185264 0.09033549
0.117556065 -0.18209143 -0.07009537 -0.059834912 -0.118623845 -0.26090306 -0.17691992 0.03402715
-0.22612764 -0.12623002 -0.081932575 -0.006474734 0.00036489702 0.005311164 -0.13678043 -0.049390282
0.018067347 -0.06300942 -0.061070733 -0.1557078 -0.22647938 -0.17568973 -0.37019864 -0.05813115
-0.2578676 -0.22136799 -0.096395984 -0.068758845 -0.12491592 -0.047364112 0.08333266 -0.059233677
0.03509749 -0.13151105 -0.016621478 -0.03867369 -0.11001795 0.022857446 -0.0032504555 -0.02028153
-0.050329693 -0.14270267 -0.048673585 -0.025728429 -0.13629596 -0.025024356 0.05109317 -0.049032617
-0.1066837 -0.002436285 0.032552768 -0.06863371 0.10351921 -0.113590136 -0.19028814 0.1696725
-0.05450984 0.1513685 -0.14779395 -0.18645772 0.17803955 -0.20418927 0.081888765 -0.15702397
-0.27318177 -0.25036457 0.08754236 0.096740864 -0.2103465 -0.2463731 -0.1374721 0.25738472
-0.1890627 -0.23325515 0.38943306 0.29685888 0.41422814 -0.05637029 -0.16550994 0.20710196
0.13342203 0.23725553 -0.017288 -0.0822677 0.11700492 -0.11959464 0.15209587 -0.12916552
-0.10975695 -0.16455486 0.09263952 0.0631451 -0.0811928 -0.15312056 -0.16714093 -0.02875428
-0.083874255 -0.12516043 -0.040349253 -0.13478188 -0.11802027 0.18434677 -0.1280727 -0.1392238
-0.29887724 -0.0748343 -0.3448805 0.04851228 -0.18169178 -0.22287717 -0.15544133 -0.19040011
0.038402624 0.0047602723 -0.24241608 -0.2185071 -0.122495845 0.028788574 0.17703114 -0.24853852
-0.22890702 -0.2898774 -0.15787682 0.13426995 -0.24367015 -0.13000664 -0.23907378 0.052262258
-0.06510674 -0.13001373 -0.011998783 -0.13948403 -0.08401126 -0.03679695 -0.0040911115 -0.021995042
0.062796384 -0.091043755 0.028407933 -0.017780235 0.024585882 -0.012495811 -0.1011416 -0.0039727096
-0.0035500177 -0.08679433 0.01002764 0.18356274 -0.007835217 -0.08598585 -0.15152563 -0.056136027
0.09139536 -0.011712026 0.074989825 0.030809587 0.050822876 -0.39685062 -0.060948804 0.024331393

cnn1.bias f4 [16]
00000000: 0560 623d 2715 4ebd 277b 8ebd 89e9 97bd
00000010: 1bce 113d b074 94bd 6806 94bd 5500 06bb
00000020: 61e8 853c 00b6 f9bd 6040 efbc c156 97bd
00000030: 2ec9 71bc f94d b4bd 7933 ca3c 982d 9ebd
0.055267353 -0.05031314 -0.06957083 -0.0741759 0.035596948 -0.07248819 -0.072277844 -0.0020446975
0.016346158 -0.12192917 -0.029205501 -0.07389594 -0.014757438 -0.088039346 0.024682747 -0.0772354

cnn2.weight f4 [32, 16, 3, 3]
00000000: ccc4 dd3c 715f 6c3d 2d1a d53d c6b5 233e
00000010: eee9 9bbc 2d8c 2abd fe31 9a3d 6a72 8c3c
00000020: d72e 50bd 0c08 2f3e c359 c9bd dcb3 293d
00000030: e5f1 093e 9200 94bd f224 f83d 5d75 1c3e
00000040: 0ce3 6abd ad14 8fbd 3b48 38bc d745 dfbc
00000050: af85 a3ba e806 7dbc d5b6 d13b 0328 54bd
00000060: b643 70bd a648 803c 5d22 66bd 8ca6 d53d
00000070: 5a96 a3bd ff16 913c 9822 2c3e d6b2 173d
00000080: 93cd ffbc 0a92 e53d b43f 7a3d 9559 b4bd
00000090: 38b7 843d 8062 9cbc dcd1 9dbc d620 e23d
000000a0: 1266 8b3c 2c13 8d3d df85 ba3d 5086 f03c
000000b0: bfcf b83d 749b c23d 764c 833d db98 8a3d
000000c0: c05d 003e 2760 813d 6a39 da3c 00bd 5bbc
000000d0: ba80 8c3c 6a59 133d be11 5fbd 2ade 0d3d
000000e0: 7de9 9b3d 5b27 2c3c 0594 083d 3005 8b3d
000000f0: 671f 373d eb60 113d dab8 d33d d8bc 683d
00000100: 9900 aabd cdf8 463d edf0 4c3d 9610 36bd
00000110: 34de cd3d 9b15 cabc 1d4a 15bd 8765 103c
00000120: 3fbe 6c3d 0978 75bc b001 62bd 8b69 e63d
00000130: 764b bf3d 4050 ac3d 4212 503d 5d40 3b3d
00000140: 3a7b 573d f55e 8d3d 14e6 a03d 4cad f03d
00000150: 9155 573d 99e4 4c3d d6d5 e33c d65e 8c3d
00000160: 3cfa 15bd b29d 3c3d bd1a 3c3d 27c4 87bc
00000170: 0ee4 42bc 0a88 823c 648e a938 f8dd a7bd
00000180: 7277 2d3b dd37 daba a214 26bb 6d4e a43c
00000190: 8a42 22bd 84c7 173d e632 af3d c910 b83d
000001a0: 209e 55bd 136b cf3d 2f7e 4b3d 6848 b63d
000001b0: 263e a7bd 38f4 f1bd 3ebb 9abc 3a64 2cbb
000001c0: 2779 3f3d 74a3 4bbc 22ea 4f3d bac8 5dbd
000001d0: d96d 2ebb 5eb0 16bd 8747 6dbd cc93 bd3c
000001e0: 1398 393d e6c7 83bd 4131 86bd f3e6 18bd
000001f0: 8df7 a0bd 4d4d 03bd c9fe db3d 8032 cdbc
00000200: 6846 af3d f831 3b3e 97f8 813d 28b8 933d
00000210: c654 1e3e 1a8f 2aba b0ca c33d bf6c b83c
00000220: fe81 71bd 28ab 8bba 2e36 803d 38e2 1dbd
00000230: e208 3b3c 1787 1f3d c8ce 4fbd 9d62 c7bd
00000240: dfd3 59bd 0eff 0b3d 73b8 e83c 5c40 223e
00000250: 68a0 913b ca65 edbc 2c50 6e3c a672 073d
00000260: 3585 40bc fce8 b73b 2d5b ec3d 2708 15bd
00000270: 24c5 053e 4eb6 233c 6341 88bb 04bd 963d
00000280: 788b fa3d 7e7e c0bd bcb1 1d3c e7a5 90bd
00000290: ff12 37bd 66e7 b2bd da0a f5bd 967e babd
000002a0: 6925 52bd 6cc2 07be 6549 e5bd 94a6 f73d
000002b0: bf55 ef3d dca1 d7bc 58bb 223e c7d3 26ba
000002c0: 48ac bb3c 0cad f13d dec1 903d 01cd 92bd
000002d0: d3e6 d43c eb04 5f3d 6f21 0a3d 76e5 873d
000002e0: 0f50 343e 79b6 d03b 1bed bf3d eaf6 6e3d
000002f0: 1af1 093d 61eb 473e 02c0 ae3a 5b18 fe3c
00000300: 0af0 123e 93cf 1e3c 63e1 dc3b 3065 6cbd
00000310: 7cfc 363d 77ca 0dbe a649 e6ba 5ee1 9bbc
00000320: e14a 1fbc 4e4d fa3d 0202 ce3d 210b f63c
00000330: eaf8 313e 5513 5dbd 4405 dc3d 3c47 333c
00000340: 7d1f 363d d389 0dbd 13d2 32bd f488 71bd
00000350: 4925 91bc 86b5 38bd be8b b9bd 75fc b0bc
00000360: ad97 1d3e 27d7 cd3c 8010 86ba 29ae 293e
00000370: ee33 8ebc fd30 5cbc 6d9f 3c3e f980 433d
00000380: ea03 093d 3817 1a3e cbcd b33d 2804 ac3c
00000390: da46 483b 809b b53d cc2a 213e 4e6e b03d
000003a0: 79c6 0fbd fe23 123d d585 d63c ff79 b43d
000003b0: 52bf 5a3a 664d 3c3d 94cb 11bc f57f 90bd
000003c0: 148f 58bd 02ef 51bd 710e fbbd 3a2a f33d
000003d0: adcd 4a3d 0347 cebd f3ed 893d 03a9 593d
000003e0: 22f3 f0bb 3921 e03d 929c 973d 1fc2 cb3c
000003f0: a211 9e3c 113b c5bc 4ce5 9abd ae50 ed3d
0.02707138 0.057708208 0.10405383 0.1598731 -0.019032445 -0.04163759 0.075290665 0.0171444
-0.05082592 0.17092913 -0.09831574 0.041431293 0.13471182 -0.07226671 0.12116422 0.15279146
-0.057345435 -0.069863655 -0.01124769 -0.027254982 -0.0012475754 -0.015443541 0.006399969 -0.05179597
-0.058658324 0.015659641 -0.056185115 0.10432157 -0.07987662 0.01771116 0.16810071 0.037035786
-0.031225955 0.11209495 0.06109591 -0.08806149 0.06480259 -0.019089937 -0.019265108 0.11041419
0.017016444 0.06888422 0.09107565 0.02936092 0.090239994 0.095023066 0.06411068 0.06767436
0.12535763 0.06317168 0.026638705 -0.01341176 0.017151225 0.035973944 -0.05446028 0.0346357
0.07612894 0.01050743 0.033344287 0.06788099 0.044707682 0.03549282 0.10337992 0.05682072
-0.08300895 0.04857712 0.050034452 -0.04444941 0.100521475 -0.024668505 -0.036447633 0.0088132685
0.05779862 -0.014982232 -0.05517739 0.112505995 0.09340565 0.08413744 0.050798662 0.04571568
0.052607752 0.06902877 0.07856384 0.11751804 0.052571837 0.050022695 0.027811926 0.06854026
-0.036615595 0.046048827 0.045923937 -0.016573025 -0.011895193 0.01593401 8.08507e-05 -0.08196634
0.00264689 -0.0016648729 -0.0025341888 0.020056928 -0.039614238 0.037055507 0.0855463 0.089875765
-0.052152753 0.10127845 0.049680885 0.08900529 -0.08166151 -0.11814159 -0.018888112 -0.0026304857
0.0467464 -0.012429107 0.050760396 -0.054146506 -0.0026615767 -0.03678929 -0.057929542 0.023141764
0.045311045 -0.06434612 -0.06552363 -0.037329625 -0.078597166 -0.03205614 0.10741956 -0.025048494
0.08558351 0.1828078 0.06346243 0.072128594 0.15462026 -0.0006506309 0.09560144 0.022512792
-0.05896186 -0.0010655867 0.06260334 -0.038545817 0.011415692 0.03894719 -0.05073431 -0.09735606
-0.05318057 0.034178786 0.028408265 0.15844864 0.0044441707 -0.0289792 0.014545482 0.03306832
-0.011750509 0.0056124907 0.11540828 -0.036384728 0.13063484 0.009992195 -0.0041581853 0.073602706
0.12233633 -0.093991265 0.009624895 -0.07062893 -0.04469585 -0.08735542 -0.119649604 -0.091061756
-0.05130521 -0.1325776 -0.111956395 0.12092319 0.11686277 -0.026322298 0.15891778 -0.0006363955
0.022909299 0.11800584 0.07068227 -0.07168008 0.025988972 0.05444805 0.03372329 0.06635563
0.17608665 0.0063694087 0.09371396 0.058340944 0.033677198 0.19523384 0.0013332369 0.031017473
0.1434938 0.009693044 0.0067407354 -0.057713687 0.04467438 -0.13846765 -0.0017569556 -0.019028362
-0.009722442 0.12221776 0.10058977 0.030034604 0.1738011 -0.053973515 0.10743192 0.010942277
0.044463623 -0.034555268 -0.043657374 -0.0589685 -0.017717974 -0.04509499 -0.09059857 -0.021604756
0.15389891 0.025127007 -0.0010228306 0.16570343 -0.017358746 -0.013439414 0.18420191 0.04773042
0.033451 0.1504792 0.08779486 0.020998076 0.003055981 0.0886755 0.15738982 0.08614789
-0.035101388 0.035678856 0.026186863 0.088123314 0.0008344549 0.04597225 -0.008898634 -0.07055656
-0.052870825 -0.051253326 -0.12258614 0.118732885 0.049512554 -0.10072138 0.06734838 0.053139698
-0.0073532024 0.10943837 0.0740291 0.024872838 0.019295517 -0.024076017 -0.07563266 0.11587654

cnn2.bias f4 [32]
00000000: 239b cfbd 0474 eebc 5d04 0cbd 67f5 6e3b
00000010: f7a8 a0b9 d3f1 93ba 3cf4 9bbd 2e1b 923d
00000020: 3ef2 94bd 3c10 2ebd dc1a fe3c 7727 963a
00000030: 8675 c2bb b7d1 e93b 2513 adb9 eaa5 debd
00000040: d5ba e63d fa0d d73b 851c 19bd 9fcc cbbd
00000050: f1fd e0bd e7bf 9c3c 7c43 58bd 06f4 24bd
00000060: 035e 89bb 633f afbd 4999 60bd ffcd 06be
00000070: 875f c63d 331c 74bd 5b29 bf3d 96a5 04bc
-0.10137012 -0.029108055 -0.03418385 0.003646219 -0.00030643467 -0.0011287279 -0.076149434 0.0713409
-0.072727665 -0.04249595 0.031018667 0.0011455853 -0.00593442 0.0071355957 -0.00033011395 -0.10871489
0.11266104 0.0065629454 -0.037380714 -0.09951138 -0.109859355 0.019134475 -0.052798733 -0.04027178
-0.0041921153 -0.08557012 -0.054833684 -0.13164519 0.09686189 -0.059597205 0.0933406 -0.008096119

cnn3.weight f4 [32, 32, 3, 3]
00000000: 4653 d93c 19c1 c23a 74f0 ac3c c9a4 443c
00000010: f3d0 96bd 2370 41bd c74c 46bc 9415 c2bc
00000020: 97e4 b539 2644 2c3e 6a36 2f3d 3f0e 97bd
00000030: ece2 c13d a558 33bd 83c4 19be 90f8 90bd
00000040: e736 48bd 2256 bcbd 587a 923a 018f 26bd
00000050: a54f 87bd 5d37 a33d 2d2a 58bd 8233 9fbd
00000060: e639 3e3d cee9 643d f55c 87bc 5d1e 183d
00000070: d530 b8bb bee8 083c 3fd1 503d b696 58bd
00000080: 2cd7 59bd 2e7f 603c 3b9a d1bc 58c1 d43c
00000090: 395d d53d 8800 d13c a361 34bc 16a2 cbbc
000000a0: 5988 cdbd 05a0 5f3b 4906 903a 20d5 7e3d
000000b0: 37cb 1bbc 9be2 f43d d064 a0bd 7dcf 8abc
000000c0: 2a93 163d 1ffc c5bd 38a6 c5bd ee92 73bc
000000d0: 1394 b43b 4076 82bb 0995 fcbb e70a dc3c
000000e0: de8d 80bd 1265 20bd dc3d 34bb ad4e eebc
000000f0: 4c5a 463d 3903 61bd 713c 23bd 6427 40bd
00000100: ee32 eb3d f343 913d e86d 223d 0a2f b9bb
00000110: 04e6 dc3d 84fb 3a3d 6b8b 833d 47eb b73d
00000120: 2483 2cbc 4459 b83c 82f1 60bd 4f02 89bd
00000130: e578 f7bc 5e29 62bd 80c1 1d3c bbb5 aebc
00000140: e052 70bd f626 b93d 9b08 aebd 039b 453c
00000150: 72d3 b13c b486 f8bd c5b6 463c 0fef f5bc
00000160: 546f fcbc 70f9 5fbd 4bba af3d bb0e c13d
00000170: 323a c3bd 627c b93c f7dd 9e3c 8f00 b5bd
00000180: b4c9 01bd 9987 113d 0666 d5bc d9c6 6b3d
00000190: bef5 9bbd b6d7 93bd 0bfe 2dbd cbdf f3bd
000001a0: 07e5 0bbe d7a2 583d 0594 163d 3c2c cdbc
000001b0: 8c7a d53d 428a 163e 3508 1f3e 87e5 eebc
000001c0: 4535 1d3e 004b dd3c b4ae 393c 4839 be3c
000001d0: ced8 afbc 0778 893c e2c8 6c3c b117 b6bc
000001e0: 986e c3bb 2584 1e3d 1f32 3dbd b826 f83c
000001f0: 92c7 003d 9228 4c3d a0a5 d83d a5b1 19bc
00000200: 2181 55bd 4e79 613d 2cce 63bd 600a 68bd
00000210: ab95 99bc b48c 9b3c 9fac cebd a03c 5a3b
00000220: 804c 20bd fd24 4f3d 88ac babc 98e5 d4bc
00000230: 6160 50bd 2a4a c83c 3817 813b 181c 3ebc
00000240: ce3c 893d 1a9f 683e 9b21 4f3e 704a d03c
00000250: 5d64 b23d f938 fa3d 2892 c93c 2989 b33d
00000260: bf94 ec3d 4c19 9d3d be84 b83d afec 93bd
00000270: 049e ee3c bb65 3d3d 6fa4 95bd 1803 ea3b
00000280: 911b 963c 4767 26bd c284 c9bc b6fa 8ebd
00000290: 9466 8fbd 0b5c af3c ecea 47bd 97f8 07be
000002a0: b68a 0e3c bb96 d3bd 7c9c 3cbd 82fb 51bd
000002b0: ad3a 5d3b 209a 373d 6865 c33c 72c9 a8bd
000002c0: 9b9c b0bb 207c 8e3b f204 80bd 8f59 703c
000002d0: 6a23 4bbd 424f e3bc 86b1 2e3d 616f 0dbd
000002e0: de43 c1bd c092 09bd 2d3e 0c3b 8656 55bd
000002f0: 4a83 cabc b3fc a53d 8b15 d83d 8afc 07bd
00000300: f618 c33b a602 643c 02a4 34bd 5a6f 3dbd
00000310: 7081 843c aca1 f7bd e742 ecbc 4206 d0bd
00000320: 7997 18bd 996d 83bd 7a7f f0bd 9ee1 1dbb
00000330: b29c 53bd e0ee 35bd d89c b03c 9583 2f3d
00000340: efb4 883c be6f 9d3d 1dfd b23c 2120 26bd
00000350: 5713 67bc 28d1 99bc 9bd0 bb3d 76d7 8c3c
00000360: 9196 843d c624 63bc 6582 4bbd 8d31 81bc
00000370: d81c 88bd e861 a2bd b0b1 e1bb 5eee 313d
00000380: 2c62 3dbc 3f4b 163d 1f14 febc a0cf 3f3b
00000390: 3e7a bebc 0f06 70bd fed9 8a3c 4ad4 92bc
000003a0: 653f 4d3d 15fc 6a3d 50bd c43d 2b3f f83a
000003b0: 836d af3b 89d2 e63c 6672 4cbd ca24 fabb
000003c0: 6f63 b0bc d445 9c3c 9620 27bd 5022 133c
000003d0: 20f4 403d d70b 8cbc 6249 eabb 1af0 33bd
000003e0: 177e 04bd e3db 9ebb e60d 96bc e2de a5bc
000003f0: 3d4b b13c 4d5e ee3a d35c cb3d 1fd1 dabc
0.026528966 0.0014858573 0.02111075 0.0120021785 -0.07364073 -0.047226083 -0.012103266 -0.02369193
0.00034693323 0.16822872 0.042776503 -0.07375764 0.0946711 -0.04378571 -0.1501637 -0.070786595
-0.048880484 -0.09196116 0.0011175377 -0.040663723 -0.06606988 0.07969544 -0.052774597 -0.07773496
0.046441935 0.055887036 -0.016523818 0.03713833 -0.0056210556 0.008356271 0.050980803 -0.052878104
-0.05318372 0.013702197 -0.025586238 0.0259711 0.104181714 0.025512949 -0.0110096065 -0.024857562
-0.10035772 0.0034122479 0.0010988201 0.06221497 -0.009508899 0.11957284 -0.078317285 -0.016944641
0.03676144 -0.09667229 -0.09650844 -0.014866574 0.005510816 -0.0039813817 -0.007708196 0.026860667
-0.06277059 -0.03915889 -0.0027502691 -0.02909025 0.048425958 -0.054934714 -0.039852563 -0.046912566
0.114843234 0.070930384 0.039655596 -0.0056513594 0.107860595 0.04565002 0.06423076 0.089804225
-0.010529313 0.022503503 -0.05491782 -0.066898935 -0.030209014 -0.055215232 0.0096286535 -0.02132689
-0.058672786 0.09040634 -0.08497735 0.012060883 0.02170727 -0.121350676 0.012128537 -0.030021219
-0.030814804 -0.05468124 0.085804544 0.09426638 -0.09532584 0.022642318 0.01939295 -0.08837997
-0.0316865 0.035529707 -0.026049625 0.057562683 -0.07615231 -0.07218878 -0.042478602 -0.119079195
-0.13661586 0.05288967 0.036762256 -0.025045507 0.104237646 0.14701179 0.15530474 -0.029162182
0.15352352 0.027013302 0.011333156 0.023220673 -0.021465685 0.016780866 0.014452191 -0.022228094
-0.0059641115 0.03870024 -0.046190377 0.0302919 0.031440325 0.04984338 0.105784655 -0.009380733
-0.0521251 0.055047326 -0.055616543 -0.05665052 -0.018748125 0.01898799 -0.100915186 0.0033300295
-0.039135456 0.050572384 -0.022787347 -0.025988385 -0.050873164 0.024449427 0.0039395355 -0.011603378
0.06701051 0.22716942 0.20227663 0.02542612 0.08710549 0.12217898 0.024605826 0.087663956
0.115518086 0.076708406 0.090096936 -0.07222878 0.029128082 0.046239596 -0.07306754 0.007141482
0.018323692 -0.040625837 -0.024599437 -0.06981413 -0.07001987 0.021406194 -0.048808023 -0.13278423
0.008700063 -0.10331484 -0.046047673 -0.051265247 0.0033756897 0.04482472 0.023852065 -0.08241548
-0.0053897626 0.004348293 -0.06250943 0.01466979 -0.04959432 -0.027747754 0.04264977 -0.034530047
-0.09436773 -0.033587217 0.0021399364 -0.05208447 -0.024720807 0.08104839 0.10550984 -0.033199824
0.0059539033 0.013916647 -0.044101723 -0.04624877 0.016175002 -0.12091383 -0.028840495 -0.101574436
-0.03725383 -0.064173885 -0.11743064 -0.0024090777 -0.05166311 -0.044417262 0.021559164 0.042850096
0.016687838 0.07687329 0.02184921 -0.040557984 -0.014103732 -0.018776491 0.09170648 0.017192584
0.06474031 -0.013863748 -0.0496849 -0.015770698 -0.066461265 -0.079288304 -0.006887637 0.043440215
-0.0115590505 0.036692854 -0.031015454 0.0029268041 -0.023251649 -0.058599528 0.01694965 -0.017923493
0.050109286 0.05736931 0.09606421 0.0018939724 0.005353631 0.028176563 -0.049913786 -0.00763378
-0.021531789 0.019076265 -0.04080256 0.008980349 0.047107816 -0.01709549 -0.007149861 -0.04393015
-0.03234681 -0.00484799 -0.018317174 -0.02024788 0.021642322 0.0018186063 0.09929814 -0.026711045

cnn3.bias f4 [32]
00000000: 6aba a03c e322 333d e647 c2bd 2655 93bc
00000010: e80a 053d 35a7 06bd 6884 09bd e1a2 f03d
00000020: f0fa 21bc 8449 79bd 2e07 233c 2899 d2bc
00000030: 7ba9 5cbc bb5f 4b3d 9cd0 97bc e2a8 013e
00000040: 18f4 90bd 48e9 9c3b 59a5 2dbd f23c 82bd
00000050: 8d4d 91bd 5dd6 f3bc 5764 8fbd 6139 77bd
00000060: 05b4 4bbc 0b5d 0fbd 612b 88bd 31d7 e43c
00000070: 3785 08bc db9a c83d 25ef b13c 4114 1a3e
0.01962014 0.043734442 -0.0948637 -0.017984938 0.032481104 -0.032874305 -0.033573538 0.11749817
-0.009886488 -0.060861126 0.009950442 -0.025707796 -0.013468142 0.049651843 -0.01853209 0.1266208
-0.07077807 0.0047885515 -0.042394016 -0.06359281 -0.0709487 -0.029765302 -0.0700156 -0.060357455
-0.012433057 -0.035000842 -0.06648899 0.027934643 -0.008332542 0.09795161 0.021720478 0.15046789

fc1.weight f4 [128, 768]
00000000: 0549 dbbc a735 cb3c 826e a13c f691 723c
00000010: ef9b fb3c 0854 03bd 6918 42bd 25dc 803c
00000020: de13 91bc 686b 33bc 7c37 c3bc 80b6 0c3a
00000030: f88c d8ba 9901 333b 1a91 1ebc dc43 9d3c
00000040: fd3c fb3b 34de 41bc 82e3 2ebc 2454 353c
00000050: feeb bebc bac7 893c 1098 e7bc 6e1f 4fbc
00000060: af58 16bd 9bff e4bb 7f84 15bd 7195 0fbc
00000070: abe2 3a3b d996 fcbc c090 9bbc b30e f13c
00000080: 6e3e 20bd 2076 813c 236c 273d 7461 45bc
00000090: 9a99 d53c ef68 0f3d b8f4 02bc 6c36 afba
000000a0: 000f 213c b035 0fbc fe11 be3c ac93 57bd
000000b0: 8ae0 27bd e145 923c cefd fdbc ebce 2dbd
000000c0: 072f 26bd fc01 343c 408e 02bd bbfe 06bd
000000d0: b1a7 1cbd 760d b3bb 3424 053c 2c4d 79bc
000000e0: 9293 0abc 902f afbc 9157 1a3c 4ffc e83c
000000f0: ddb2 0cbd 440a 95bc 62cf f7bc f180 3ebd
00000100: 27e7 bf3c df95 4b3c 4661 6ebc b9b8 23bc
00000110: c85c 1bbd c3a1 9d3c 7c67 ad3c 420c 0fbd
00000120: 2849 fbbb 309e 523c 71c8 c3bc 460c 91bc
00000130: 36d8 e83c 1921 8c3c 6df7 be3c d5db 9c3b
00000140: a169 91ba 1be8 e03b 9bda 803c 96af b5bc
00000150: 87ed 02bd 7cae d13c 12db 923a a6e1 23bc
00000160: 31d9 da3b b391 c1bc e5a2 32bb 8f70 e0bc
00000170: 61c2 03bb 3d51 21bd 7a85 213b 5380 023d
00000180: 0a85 c33c e27d 01bd 5b7e 3e3b 32ae 933b
00000190: f48c 49ba 4a28 9b3b 9f56 bdbc 4f59 07bc
000001a0: 229e 1cbd 8abf 47bc 1307 89bc 0199 dabb
000001b0: cdb5 653c 0701 f0bb db1b 87bc e893 14bd
000001c0: 5af8 093c e221 223c 7478 3b3c e1b2 e5bc
000001d0: 1f1e 6a3c 1e51 033a 871d 90bc 2ff8 e83a
000001e0: 8303 e83c 5df6 21bd 3493 be3b cd8a 3a3c
000001f0: 5471 ffbc cc32 20bc 00ed e23a 7ccc 06bd
00000200: ab04 193d 6634 a03c a5b1 4c3c 4bc0 8c3b
00000210: d035 ce3c 3da0 4c3b 1aa1 86bc da3c c5bc
00000220: d201 06bd 28c4 3d3c 26ce 803c e089 d93c
00000230: cf45 8f3b bc91 9b3c 988f 423b 0d24 04bd
00000240: 5293 c5bc 70dd 4b3c b05b 0b3d c048 e03c
00000250: 3011 313b a23a 40bc cc05 dd3c 46e7 103d
00000260: b6e2 0d3d c00f 203c 32a3 b13c 74da c6bb
00000270: 66c4 a6bc 0cfc f0bb f425 0b3d f4e7 0d3d
00000280: 4439 813c 4075 923c 6464 1c3c 7770 a4bc
00000290: 7c5a fdbb a595 063d 4e1b f9bc fa48 44bc
000002a0: 0b46 63bc 6b35 3b3c bbab e7ba f284 eebb
000002b0: eadb 633b d9d9 44bc 5b42 71bd 8cd1 8dbc
000002c0: 7563 d23c d2f1 9ebc ec79 aebc 03bf 24bd
000002d0: 6ebd f4bb ee7a 10bd df0a a63c fa58 2d3a
000002e0: a4ac 37bd f910 2fbd d7b9 17bc d271 28bd
000002f0: 6346 7fbb 5b7d adbc 3850 163c 24d2 2ebd
00000300: df3c 0a3b ff62 8eba 8f48 a7bb ec91 07bd
00000310: 2c4f 00bd b0bc ec3c 1c3e c7ba 51a7 32bc
00000320: fc6f f5bc 5195 4abc 3bb4 313c 0444 f8bc
00000330: beed abbc a981 adbc 1646 00bc ddb7 59bc
00000340: e269 9e3c 97fd b5bc 2260 303c 77f6 11bc
00000350: ab0d a63c 45d8 0dbd 6482 033d c044 da3c
00000360: 4711 0dbd bdfa 17bd 7ad9 18bd d04f c53c
00000370: ea31 10bc 196f 5e3c cfd7 043d 0553 13bd
00000380: 83a0 8dbc e7b4 59bc 09e1 923c 190b 8a3c
00000390: 5e74 d1bc 9214 c2bc 27b8 ca3c d864 063d
000003a0: ebe2 e93b f10d 96bc d934 403c eb4a dbba
000003b0: 458d a6bc e42e bf3c 824c 1cbd 617b dbbc
000003c0: 1924 b23c 5ec4 983a 8311 003d f4c4 15bd
000003d0: 5083 2b3c b4d2 083d 6b7f 2b3a 1a3f 373c
000003e0: b640 f8bc 0fd7 0ebd ec14 083c c51a a53c
000003f0: 8f0b 9fbc 0009 e3bb 1c10 e93c d1c9 00bd
-0.026768217 0.024805857 0.019706015 0.014805308 0.030714003 -0.03206256 -0.04738656 0.015729973
-0.017709669 -0.010950901 -0.023830168 0.0005367771 -0.0016521504 0.0027314185 -0.00967815 0.019197397
0.0076671825 -0.0118327625 -0.010674359 0.011067424 -0.02330589 0.01681887 -0.028270751 -0.012641771
-0.03670567 -0.0069884784 -0.03650331 -0.008763657 0.0028516452 -0.030833649 -0.01898992 0.029425954
-0.039122038 0.015803397 0.04087461 -0.01204716 0.02607422 0.03501218 -0.007992916 -0.0013367659
0.009830236 -0.008740827 0.023201939 -0.052631065 -0.04098562 0.017855586 -0.031004813 -0.04243366
-0.040572193 0.010986801 -0.03187394 -0.032957774 -0.03824586 -0.005464251 0.008126307 -0.015216153
-0.008458035 -0.021384984 0.0094202915 0.028440623 -0.034350265 -0.018193372 -0.030250255 -0.046509687
0.023425652 0.012425869 -0.014549559 -0.009992772 -0.03793028 0.019242173 0.02116751 -0.0349238
-0.007668633 0.012855098 -0.023899289 -0.017706048 0.02842341 0.017105626 0.023311341 0.004786948
-0.0011094102 0.0068636066 0.01572924 -0.022178452 -0.031964805 0.025595896 0.0011204204 -0.010002529
0.0066787233 -0.023629045 -0.0027257737 -0.027397422 -0.0020104873 -0.039384115 0.0024646209 0.03186066
0.023867149 -0.03161419 0.0029067013 0.0045068497 -0.0007688545 0.0047350274 -0.023112593 -0.008261039
-0.038236745 -0.012191663 -0.016727006 -0.0066710715 0.014020395 -0.007324341 -0.016492775 -0.036273867
0.008421028 0.009895774 0.0114422925 -0.028039398 0.014289408 0.0005009341 -0.017592205 0.001777416
0.028321987 -0.03954159 0.005815888 0.011385632 -0.031181969 -0.009777736 0.0017313063 -0.032909855
0.037357967 0.019556236 0.012493526 0.004295384 0.025172144 0.003122344 -0.016434241 -0.024076868
-0.03271658 0.011582412 0.0157233 0.026555002 0.0043723355 0.01899039 0.002968764 -0.032260943
-0.0241181 0.0124429315 0.034022987 0.02737844 0.0027018301 -0.011732729 0.026980303 0.03537681
0.034640037 0.00976938 0.021684263 -0.006068522 -0.020357322 -0.007354265 0.03397174 0.034645036
0.015774377 0.017878175 0.009545419 -0.020073159 -0.007731734 0.032857556 -0.030408528 -0.01198029
-0.01387168 0.01142631 -0.0017675081 -0.007279032 0.003476853 -0.01201483 -0.058901172 -0.017311834
0.02568219 -0.019402418 -0.021298371 -0.040221225 -0.007468871 -0.035273485 0.020268856 0.0006612685
-0.044842377 -0.042740796 -0.009260616 -0.041124173 -0.0038951866 -0.021177938 0.009174399 -0.042680874
0.002109341 -0.0010863243 -0.005105085 -0.033098146 -0.031325504 0.028898567 -0.0015201005 -0.010904149
-0.029960625 -0.012364701 0.010846193 -0.03030587 -0.020987388 -0.02117999 -0.00782921 -0.013288465
0.019337598 -0.022215648 0.010765107 -0.008908859 0.02027019 -0.03463008 0.032106772 0.02664411
-0.034440305 -0.037104357 -0.037316777 0.02408591 -0.008800963 0.013576292 0.032432374 -0.035967845
-0.017288452 -0.013287759 0.01792957 0.016850995 -0.025568184 -0.02369145 0.024746014 0.032811016
0.0071376464 -0.018317195 0.01173135 -0.0016730701 -0.020331034 0.023337789 -0.0381589 -0.02679223
0.021745728 0.0011655202 0.0312667 -0.036564782 0.010468319 0.033404067 0.0006542119 0.011184478
-0.030304294 -0.034873065 0.008305769 0.020154366 -0.019414691 -0.006928563 0.028450064 -0.031442467

fc1.bias f4 [128]
00000000: 0bae c73c a090 11bc 230c 5a3c 6215 25bd
00000010: e107 d3bc 54b6 d43c 4fc0 0cbd 8170 27bd
00000020: fbe3 993b b66f 7d3c 2497 abbc 840c e6bc
00000030: 15fc 12bd 4203 0dbd 3838 1bbd f611 82bc
00000040: 6913 17bd b216 a3bc d293 7a3d 945b ffba
00000050: 0294 a7bb f22e c63d 57e1 2fbd f250 a73d
00000060: db3a 45bd 3e9a 1939 26c9 babb a15d f0bc
00000070: 6923 dfbc 0e2c 8d3c e242 12bd e57d aa3c
00000080: 3c1e 0ebd 6b22 673c 4511 07ba 3267 3fbd
00000090: e9da ccbc be6c 20bd 956b b7bc c7ed 513b
000000a0: d5da a83c f89d c53d bbb1 04bd 704c c6bc
000000b0: 5466 9dbc 1118 13bd fcd6 d13b 0e84 cd3b
000000c0: 66f8 11bd 48ad f03c a8cc 0a3d f63d d53c
000000d0: 241d bc3b 2202 c23d df91 eebb d413 14bd
000000e0: a597 10bd ba2c fd3b 25f6 8dbc 407e b6bc
000000f0: 0c93 29bd 49cc bb3d 3828 0bbd 58b2 ccbc
00000100: a538 80bc 1a56 cf3c a17c ed3d 4a24 d1bb
00000110: 2e72 423c ee32 8c3c 8f1a cfbb 4cb5 a33b
00000120: 2b84 1bbc f0fe 373c 9339 52b9 e161 3f3c
00000130: bfd6 1cb7 f28f 10bd ebc5 243c c730 96bb
00000140: 94f1 8cbc e99e dfbb edb3 e93b c8e6 aa3c
00000150: 4b82 053c e4db df3c 97ac ecbc 2284 d5bc
00000160: 549a 1fbd a533 aa3d f2f7 88bd 18ac e93d
00000170: 0441 293c f353 b0bc bdab d9ba 1775 24bd
00000180: 8be0 e03a e651 90bb cac3 e2bb 4da8 353c
00000190: cee8 13bd 0113 2ebc 7013 01ba 8b18 913c
000001a0: e1a9 903a daa3 77bc c8e2 1bbd 9c13 84bc
000001b0: bb38 f13d 467b 563c e173 ffbb cf2e 53bc
000001c0: 6d5e e43d 360f ae3c 4ec9 79bd 03d6 05bd
000001d0: f449 2b3c bf65 8e3c 2cfb afbc de54 6a3d
000001e0: 53fe 78bd f4dc 42bc 6af9 4ebc 970d 4cbd
000001f0: e30e ff3d 23d7 36bd 1492 073d 6b80 6fbd
0.024374982 -0.008884579 0.013308558 -0.040303595 -0.025760593 0.025965847 -0.034363087 -0.040878776
0.004696367 0.0154685285 -0.020946093 -0.02808214 -0.035884935 -0.034426935 -0.03789541 -0.015877705
-0.036883745 -0.019908283 0.06117613 -0.0019482248 -0.0051140795 0.09676923 -0.04293951 0.08169736
-0.048151832 0.00014648677 -0.0057002483 -0.02934152 -0.027238565 0.017232921 -0.035708316 0.020811984
-0.034696802 0.014107327 -0.00051524147 -0.046729274 -0.025006728 -0.039166205 -0.022390166 0.0032032595
0.02061216 0.09649271 -0.03239606 -0.02420637 -0.019213833 -0.035911623 0.006403802 0.0062718457
-0.03563728 0.029379502 0.03388658 0.026030522 0.0057407785 0.09473063 -0.007280573 -0.036151722
-0.03530087 0.007726279 -0.017329285 -0.022276998 -0.0414 0.09169824 -0.033973902 -0.024987385
-0.01565201 0.025309611 0.11596037 -0.0063825 0.011868043 0.017114129 -0.0063203047 0.0049959775
-0.0094919605 0.011230215 -0.00020048609 0.011681051 -9.348324e-06 -0.035293527 0.010056953 -0.0045834514
-0.017205037 -0.0068243635 0.0071320445 0.020861998 0.00814874 0.027326532 -0.028890891 -0.026063982
-0.03896554 0.08310632 -0.06687917 0.114097774 0.010330442 -0.021524405 -0.0016606968 -0.040150728
0.0017156763 -0.0044042943 -0.0069203125 0.011087489 -0.03611069 -0.010624648 -0.0004923856 0.017711898
0.0011036956 -0.015114749 -0.038058072 -0.016122632 0.117783986 0.013090914 -0.0077957963 -0.012889578
0.11150823 0.021247488 -0.060982995 -0.0326748 0.0104546435 0.0173825 -0.021482073 0.057209842
-0.060789417 -0.0118935 -0.012632707 -0.049817648 0.12454011 -0.044638764 0.033098295 -0.05847208

fc2.weight f4 [128, 128]
00000000: bd2d b2bd ce7d 71bd f0c9 1bbc d831 38bc
00000010: 366e f53c b97a 743d 2f8c 45bd 6942 553d
00000020: ce6c 06bb 3db2 083d 3d65 e23c a18a 04bd
00000030: 61fb 9ebd 944a 0f3d dde7 a73d b00f 31bd
00000040: 738e 3cbd 5e31 ef3c 71fe af3b 0ee0 2b3d
00000050: 4fa9 af3d aece 773d d2aa 893c f757 38bd
00000060: 7ecb 583d 80ef 18bb f304 863d 964e cdbb
00000070: 186a 68bc 55a0 06bb 99f0 b73d 3e90 623d
00000080: a2ee a3bd bbd5 06bd c7df a13d 716d c2bd
00000090: 3ce6 b0bd 7678 b33d 03c3 ab3d 0d14 83bd
000000a0: c05c 83bd 10ad 9bbd 6430 cf3c 5cc4 e8bb
000000b0: 277d 1ebd e9ca 9b3d a6db 643d 4176 a73c
000000c0: 8ae0 53bd 2cb7 a2bd 6c63 07bc d039 273d
000000d0: 72b3 563d 364a ea3d 2849 38bc 5424 b53d
000000e0: 203a fa3c 2481 d0bc 90a4 34bc 3fb2 9bbd
000000f0: 7c52 a2bc 4f23 cf3d b9b1 b0bd 0d89 ce3d
00000100: c272 0dbd 00cc 133d 05c9 f93d 97e7 59bd
00000110: 81e1 6e3d 0c6b 7dbd 1833 283d 07b5 b13d
00000120: 50ab 2fbd 202f 6b3c 000b d13a 3a66 173d
00000130: 580f c33c 9bb5 1b3d 40ce ebbb 8453 babc
00000140: 3bfa 22bc e3e8 9cbd 234d 53bd 54f4 b93b
00000150: 0874 a3bd 9701 72bd 613e 83bd 4af5 193d
00000160: 60f8 4dbd 7489 1cbe 6283 64bd 6394 7fbc
00000170: 8214 353d 2a7f 703d b902 003d 7068 91bd
00000180: 25e8 423c b80e 3dbd 3e83 4d3d fed1 1e3d
00000190: 9cac 0e3d cc2d 17bd 9d0c 873d 157c 9f3d
000001a0: 14eb cb3c f664 453d e846 123c 7922 22bd
000001b0: a7da 343d 32e4 95bd d090 bbbc 90aa db3c
000001c0: af73 a73d 000b b9bc df79 75bd 67fc 3dbd
000001d0: fd96 88bd d63d 98bd dee5 aebd a2b0 a8bd
000001e0: 8524 b13c d836 42bc e74d 4fbd 219a 17bb
000001f0: 3ff5 9a3d b87b 24bd 2f51 8cbd 672c 51bd
00000200: 9e0d 80bd 3ef1 febc 2dc5 aabd 9046 eb3b
00000210: 9ba4 a4ba e17c 803c 9c18 cabd 70a8 3cbc
00000220: 3785 8e3d 5b0a 133d 28d5 ae3a fe7c 173d
00000230: 2e5e 16bd 902d 913b 262c 4a3d 9f5b 31bd
00000240: a438 1e3d 1cc5 193d 3180 4abb 30b8 bfbc
00000250: 73cf 07bc 98fc e5bc 9bad 9a3d e09c 65bd
00000260: 51c7 a83d be50 5f3d 08e0 96bd 0577 2fbc
00000270: 07ce 9cbd 4ae8 3f3d 31f0 a93d bc60 f1bc
00000280: 6b23 0ebd b1e6 af3c 920e 0bbd 0819 bcbd
00000290: 0fbd 96bd 6977 3cbd 8475 153d 8521 a0bd
000002a0: f15d 79bd f617 823c b09f bebc aca7 9bbd
000002b0: 4fe5 63bd b0a0 cebc 6fa6 a33c 993b 1abc
000002c0: 22e3 89bd 79fb 973d c0d6 9a3c 2e9d 3bbd
000002d0: 1030 12bc e6ac e63d 231f 403d 121e 94bd
000002e0: 977b 2abd e08c 46bc 88a5 85bd 4d56 6a3c
000002f0: beac 8abd a2e8 5d3d 50e9 a3bc 6e46 cbbd
00000300: f3da 45bd 51ef cf3c a571 343d f393 5c3c
00000310: 4217 cfbb ac72 bb3c ae73 c6bc 285e e33c
00000320: 9e77 b2bc db4b 25bd c411 86bc 206d 743c
00000330: 7d48 8fbd 9854 b43c a314 20bd cbd4 853d
00000340: b755 0bbc 529c 72bc 4dc6 56bd 723b 8a3d
00000350: 4c59 0a3d 5cb3 01bd ea24 9fbc 3020 ebba
00000360: 5b54 11bd 7354 a2bd 9d55 94bd dd6c f83c
00000370: e049 08bc eecc 3c3d b95c ddbc 0ca2 abbd
00000380: 159d 45bd 5570 92bd bade 4a3d 8844 3f3c
00000390: b073 3ebd 581b d03c cfa4 8a3d 8ef3 063d
000003a0: a018 33bc a8b0 653c 9aa1 75bd 5ad7 323d
000003b0: f9ed e63d 0226 ffbb f248 133d d2f7 1f3d
000003c0: 2afe 943b be62 4e3d 4da0 d1bd ec93 5bbd
000003d0: c824 603c 816e 883d 543a a6bd a584 5e3d
000003e0: ce83 c5bc c561 8dbd 3daf 733d 9e93 cd3d
000003f0: 9995 2a3e 6901 b1bd 985d ac3d 97c1 333d
-0.0870013 -0.058957867 -0.009508595 -0.011242352 0.02995978 0.05968735 -0.048229393 0.052065287
-0.002051163 0.033373106 0.027636165 -0.03235877 -0.077627905 0.034983233 0.08198521 -0.04322785
-0.046034288 0.029198345 0.005370908 0.041961722 0.08577215 0.06049984 0.016805086 -0.045005765
0.05292844 -0.0023336112 0.06543913 -0.0062654717 -0.014185451 -0.0020542343 0.08981437 0.05531334
-0.080045 -0.032918673 0.0790401 -0.094935305 -0.08637664 0.087632105 0.08386805 -0.06400309
-0.06414175 -0.076013684 0.02529163 -0.007103486 -0.038693573 0.076070614 0.055873536 0.02044213
-0.05172781 -0.079450935 -0.00826345 0.04082662 0.052417226 0.11439936 -0.011247911 0.0884482
0.030545294 -0.025452204 -0.011025563 -0.07602357 -0.019814722 0.101141565 -0.08627648 0.10084734
-0.03453327 0.03608322 0.121965446 -0.053199377 0.058320526 -0.061869666 0.04106435 0.08677106
-0.042887986 0.014354497 0.0015948713 0.036962725 0.023811027 0.03801499 -0.007196218 -0.022744901
-0.009947355 -0.07661607 -0.051587235 0.005674878 -0.079811156 -0.059083547 -0.06408382 0.03758744
-0.050285697 -0.15286809 -0.05578936 -0.015599343 0.04420901 0.058715023 0.031252597 -0.07099998
0.011896168 -0.046156615 0.05017399 0.038774483 0.034832582 -0.03690891 0.06594203 0.07787339
0.024892367 0.048191987 0.008928038 -0.039583657 0.044153836 -0.073189154 -0.0228962 0.026814729
0.08176362 -0.022588253 -0.05993068 -0.046383288 -0.06669424 -0.07433669 -0.085399374 -0.08236815
0.02162386 -0.011853896 -0.050611403 -0.002313264 0.07566308 -0.04015705 -0.06851422 -0.051067736
-0.06252597 -0.031120893 -0.083383895 0.0071800426 -0.0012561263 0.015684547 -0.09867975 -0.011514768
0.069590025 0.035898548 0.0013338672 0.036984436 -0.03671091 0.0044304803 0.04935851 -0.043300267
0.038628235 0.037541494 -0.0030899162 -0.023403257 -0.008289206 -0.028074548 0.07552644 -0.05605781
0.082411416 0.05452036 -0.07366949 -0.010709529 -0.07656484 0.046852387 0.08297766 -0.029465072
-0.034701746 0.021472307 -0.033949442 -0.09184462 -0.07360279 -0.046012316 0.036489025 -0.07818893
-0.060880605 0.015880566 -0.023269504 -0.0760034 -0.055638608 -0.025223106 0.019976823 -0.009413623
-0.06732775 0.074210115 0.018901229 -0.045804195 -0.008922592 0.112634465 0.046904694 -0.07232298
-0.04162177 -0.012118548 -0.06525713 0.014302802 -0.06771229 0.054176934 -0.020008713 -0.09925543
-0.04830451 0.02538267 0.044053692 0.013463008 -0.006319911 0.022881828 -0.024225082 0.027754858
-0.021785554 -0.040355545 -0.016365893 0.014918596 -0.06996248 0.022012994 -0.03908218 0.06534728
-0.008504323 -0.0148077775 -0.052435208 0.067496195 0.033776566 -0.03166519 -0.019426782 -0.001793867
-0.03548084 -0.07926264 -0.07242892 0.030325348 -0.008318394 0.046093874 -0.027021753 -0.08380517
-0.04824551 -0.07150332 0.049528815 0.011674054 -0.046497047 0.025403664 0.06769716 0.032947116
-0.010931164 0.014019169 -0.05996857 0.043662407 0.112758584 -0.0077865133 0.035958238 0.0390547
0.0045469003 0.050387137 -0.10235653 -0.053607866 0.013680644 0.06661702 -0.08116594 0.05432572
-0.024110701 -0.06903414 0.059493292 0.10037921 0.1665863 -0.08642847 0.08416289 0.043885794

fc2.bias f4 [128]
00000000: 5579 4a3d b364 6d3d 0845 0a3d 33f0 953d
00000010: 20d5 403d 4db0 b53d 28fe 1c3e 0e69 e23d
00000020: 04af 18bd e435 c53d cb16 5cbd 5e8d 02bc
00000030: 53d3 103e 0103 2e3d 47cb cfbd da9c a13d
00000040: 3dbe 803d d3fb ca3d 9a5d bb3d b178 843a
00000050: ab1e 00bd 53ab ac3d 2939 da3d 9046 4b3e
00000060: 3a1e 083e 7c44 ee3c 2257 d53d 10b7 0c3e
00000070: 065e b23b 69df 1c3c f42f 953d edac 5b3d
00000080: 5808 2f3e b4fe b8bd d92e 3f3e ad4e 863c
00000090: 01d6 e33c b963 323e 676a 83bd ed4e acbc
000000a0: 1ece 3f3d 032e a43b 415c 9cbc 1b7a 873c
000000b0: a02e 253e f70a eb3d a5f6 463d 1e4c 783c
000000c0: aafc 06be 62e3 da3c 8ce9 e23d eeaf 513d
000000d0: 10a6 fb3c ed41 db3b f2a4 353e af9e c23d
000000e0: f0ff 063c fa66 a73d abc6 f4bc 4f54 1b3d
000000f0: 5185 203c 2cbb 40bd 18e4 313e 83a6 ccbc
00000100: 1673 a5bb 3d62 8abd f826 0ebd 8b3b 923d
00000110: 04bc bf3d c82a e33d d55e b03d 72ca 963d
00000120: 8491 6dbd 609b c23d bfe8 313c 722b 013d
00000130: 7409 da3c 5ead 603d 7465 0dbe 4415 23bc
00000140: 8fbb 1e3d 4da4 253d fbd6 333e 13d8 943c
00000150: 0fae 3c3d 711c 043c 3255 17bd 9f1d ed3d
00000160: 2026 25be dead 2b3e 4895 ec3d 7f6d 263e
00000170: ffe3 ea3c 68e3 783c e300 f63c 153c 1b3e
00000180: b023 323d 9d79 823c 47ee 183d d9d3 ef3d
00000190: 6c5b c5bb 876e d33c 22cc 583c dd6e 6a3d
000001a0: d9a6 bb3d 4744 363e d0e8 9c3c 1aa1 8e3c
000001b0: 6bf3 3e3e 2e9a 183e fe12 d4bc 7242 30bd
000001c0: 63fb a9bd ecbe 283e c1cb a43d a427 3f3e
000001d0: c3e4 203e eae0 4e3d dde8 7f3e 14fe f93d
000001e0: b122 0e3e 8a6c 803c 8328 0e3e 8019 bbbd
000001f0: 4612 873e 8cfb d03d 04ca 02bd 1ce9 0cbd
0.049432117 0.057957362 0.03375724 0.07321205 0.04707825 0.08871517 0.15331328 0.11055194
-0.037276283 0.096294194 -0.053732675 -0.007968275 0.14143114 0.042483333 -0.10146194 0.07891245
0.06286285 0.09911313 0.091487125 0.001010677 -0.031279247 0.08431115 0.10655434 0.19851136
0.1329278 0.02908539 0.1041701 0.13741708 0.0054433374 0.0095747495 0.07284537 0.05363171
0.17093027 -0.09032956 0.18670215 0.016394937 0.027812006 0.17420854 -0.06416779 -0.021033728
0.046827428 0.005010368 -0.019086959 0.016537717 0.16131067 0.11476701 0.048575062 0.0151548665
-0.13182321 0.026719753 0.11079702 0.05119317 0.030718833 0.0066912086 0.17738703 0.09502923
0.008239731 0.08173938 -0.029879889 0.0379222 0.00979741 -0.0470535 0.17372167 -0.024981743
-0.0050491197 -0.06757019 -0.034705132 0.07140263 0.09362033 0.11092144 0.08611838 0.07362832
-0.058000103 0.09502292 0.010858714 0.031535573 0.026615836 0.054852836 -0.13808233 -0.009953801
0.03875309 0.040439893 0.17562477 0.018169438 0.046064433 0.008063422 -0.036946483 0.115779154
-0.16127825 0.16765544 0.11551911 0.16252707 0.02867317 0.015190937 0.03002972 0.15159638
0.043491066 0.01592713 0.037336614 0.117103286 -0.006022861 0.02580954 0.013232263 0.057234634
0.09162683 0.17799483 0.019153982 0.017410804 0.18647544 0.14902565 -0.025887962 -0.043032117
-0.08299901 0.16479081 0.080466755 0.18667465 0.15712266 0.050507464 0.24991174 0.12206665
0.13880421 0.015676755 0.13882641 -0.09135723 0.2638113 0.10204229 -0.03193094 -0.034401998

fc3.weight f4 [128, 128]
00000000: 60fb 013a a363 e6bc 0089 07be c9d6 1dbd
00000010: bb03 e7bb ca3f 443d 63e3 e33c ce5c 23bd
00000020: 004c c83d 60e3 64bd d873 cfbd d9e9 953c
00000030: eb41 4c3c 4e7a fe3c f50a 7b3d 346a 053b
00000040: 5df7 c1bc 1859 86bd f435 aa3c cafa d43c
00000050: ac63 543d 0562 10bd 0053 39bd d199 a5bc
00000060: 935c a8bd 692c 98bd 2714 a7bd 308c 703b
00000070: 6b29 62bc dcb0 e03b e61a 2fbd 157a 883b
00000080: c1b2 aabb ae67 89bd ff75 183d 5226 023e
00000090: 9ebc 273c 70f8 bdbd 1fc8 6abd 9b72 ffbb
000000a0: 5a55 88bd abc7 31bd 0fb9 dd3d 7594 b2bd
000000b0: 8303 7fbd cdbf 69bd ec48 a7bc 3359 a33d
000000c0: 1446 74bd 1b47 933d c325 203d 1cb0 ca3d
000000d0: ef7b 9e3c 425d 8cbd 4a15 35bd 09a7 70bd
000000e0: d080 01bd 23de 8aba abe6 d93d 4970 06be
000000f0: e044 cb3d 128d 613c 72e0 83bc 4c14 3b3d
00000100: 42cf 943c da63 cd3d a0a5 09bd 88a5 553c
00000110: 1979 bf3c 74d4 43bd 0e67 06bd a0a4 ca3c
00000120: 7d4f 9c3d db9a 9c3c 1613 353d c0fb 0c3d
00000130: d730 38bd 25eb 90bd 48c1 093c c690 603c
00000140: 4755 dbbd 63ef 183c b3f1 0abc 254e 3d3e
00000150: ac96 cbbd ae28 193e 8b0b ca3d bfa8 a3bd
00000160: 7feb a63d 98ed 50bd 9d60 503c 2ad2 563c
00000170: eecd 643c 9e5f 763d 5169 8a3d b749 b4bc
00000180: 2db2 013c 7e72 093d 55e3 8abd e4e8 0f3e
00000190: 4fa1 613b dae7 613d 1e41 003d 67ad 78bd
000001a0: 9414 abbc f103 1abd a620 e7bc d8fd a93d
000001b0: b866 c33b 8206 593d db7e 8e3d 63e8 bbbc
000001c0: ef54 54bc 5756 cfbc eabe a4bd 5dbb 5dbd
000001d0: 7e98 603c 2310 a43d 1eaf 68bd 0b10 a8bd
000001e0: d5e0 dabd cc42 9bbd 9cc0 e8bb 5e80 72bd
000001f0: b676 3b3d f7ac 673c 1da1 87bd 0ef4 903d
00000200: 77e4 01bc 3bde c73d 2519 a93b 364c db3d
00000210: ec6b 443d 9e2f af3d 83ba d93d 8ad9 0f3e
00000220: 10f1 efbc 4640 c03d b709 abbc 327a 863c
00000230: 6b14 4d3d 2de0 953d c597 063d 7e57 d0bc
00000240: 44a2 5f3b e782 aa3d 3fae 9abb 3f7b c23d
00000250: 4938 81bd fd01 d83d f00a 633d cf44 8f3d
00000260: 4e01 863d 7526 7ebd 1323 d6bc a229 003e
00000270: 21c8 f3bd 50ce 843c e7c1 733d e2b2 ca3c
00000280: 2171 963d 927f 143e 47d3 063d c0ce dd3d
00000290: 5386 1f3c 5dd5 c7bc 3bde 47bd 8679 b3bd
000002a0: 3983 be3d d83e 04be e440 d3bd ff9a 77bc
000002b0: 5394 863d 9db6 763d ebaa b63c 2156 8fbd
000002c0: d63b 633d 1399 b6bc 541b fabc b498 483d
000002d0: 9edb c3bb f9d1 823d 0178 40bc 9763 933d
000002e0: 2091 8c3d ddf1 89bd a9d0 d4bd 9a6a 003d
000002f0: 9cad 9dbd fbc5 d1bd 105f 3e3d ea3a 2dbd
00000300: c52c a03d 9c61 a2bd a30a b5bb dfa4 ac3d
00000310: 3397 313d 1983 de3d 436d a73d 9a21 9c3d
00000320: 3c52 673d 0ee1 973c fb13 ccbb 7955 d23c
00000330: e859 b6bd 1875 f73d 587d 7c3c e0a1 8fbd
00000340: 3d80 073e af9a 01bd 441e cc3d 398c c0bc
00000350: d238 453d 1d84 5e3d 23f8 c6bd 2252 be3d
00000360: 4a42 f83b ee42 13bd 655f c23b 388a 99bd
00000370: 8c0c 8c3c eb3e 09bd c245 10bd 74ea 463d
00000380: 57d1 b23d 407f 9fbd dff5 933d 4ab3 573d
00000390: 9b59 8bbc 2d5f 1abd 82ac 153d 887d 153e
000003a0: a0d2 98bb 88d0 9d3d ac61 f0bc 1a3b 733d
000003b0: dd41 ee3c 09b5 c5bc 08e0 a5bd 2ff3 16bd
000003c0: f0ad 823d 0ba6 743c 30f9 6b3d 03c1 27bc
000003d0: e293 473d 789b 1fbd e075 f9bd c25c 38bc
000003e0: 4bfe bc3c 447b a0bd 265d 173d 6eb9 aebd
000003f0: 5cb7 b13c 5aca 963d b70e f3bd 4c0a 05be
0.0004958417 -0.028123682 -0.13235855 -0.038534913 -0.0070500053 0.047912396 0.027818387 -0.039883427
0.09780121 -0.055880904 -0.10129517 0.018299984 0.012466888 0.031064179 0.061289746 0.0020357491
-0.023677522 -0.06559962 0.02077768 0.025998492 0.051852867 -0.03524973 -0.04524517 -0.020214947
-0.08220782 -0.074303456 -0.08158141 0.0036704652 -0.01380382 0.006857021 -0.04275026 0.004164944
-0.0052092974 -0.067092285 0.037221905 0.1270993 0.010237841 -0.09275901 -0.057319757 -0.0077956445
-0.066569045 -0.04340331 0.10826313 -0.08719722 -0.06225921 -0.05706768 -0.020420514 0.07975998
-0.059637144 0.07191297 0.039098512 0.098968714 0.019346206 -0.06853725 -0.044209756 -0.058753047
-0.031616986 -0.0010594766 0.106396995 -0.13128771 0.09925246 0.013766544 -0.016098235 0.045673653
0.018165234 0.10028811 -0.033605218 0.013039954 0.023373174 -0.047810033 -0.032813124 0.024736702
0.07632349 0.01911681 0.044207655 0.034419775 -0.044968452 -0.070761 0.008407898 0.013706392
-0.10709625 0.009334418 -0.008480477 0.18486841 -0.09940848 0.14956924 0.09865483 -0.0799117
0.08150386 -0.051007837 0.012718347 0.01311163 0.013965113 0.06014978 0.06758369 -0.022007806
0.007916016 0.033556454 -0.067816414 0.14053684 0.0034428423 0.05515275 0.0313121 -0.060712244
-0.020883836 -0.037601415 -0.02821381 0.0830037 0.0059631728 0.052984722 0.069577895 -0.022937959
-0.012959703 -0.025309725 -0.080442265 -0.05413376 0.013708232 0.0801089 -0.05680763 -0.08206185
-0.106874146 -0.075811 -0.007103039 -0.05920445 0.04576751 0.014140359 -0.06622527 0.070778
-0.007928005 0.09759184 0.005160468 0.107078955 0.047954485 0.08554004 0.106312774 0.14047828
-0.029289752 0.09387259 -0.020878656 0.01641569 0.0500683 0.07318149 0.032859582 -0.025432345
0.0034123817 0.08325749 -0.004720479 0.094961636 -0.06309564 0.10547254 0.055430353 0.06995546
0.065432176 -0.062048394 -0.026139772 0.12515882 -0.11903406 0.016211659 0.05951109 0.024743501
0.073457964 0.14501789 0.032916334 0.1083045 0.009736615 -0.024393732 -0.04879592 -0.08763413
0.093023725 -0.12914598 -0.10315111 -0.015112638 0.06571259 0.060232747 0.022298297 -0.0699885
0.055476986 -0.022289788 -0.03053061 0.048973754 -0.005977108 0.06387705 -0.011747361 0.0719673
0.06863618 -0.06735585 -0.10391361 0.031351663 -0.07699129 -0.1024284 0.046477377 -0.042292513
0.07821039 -0.07928774 -0.0055249496 0.08429884 0.043357085 0.10864849 0.08175137 0.076235965
0.05647491 0.018539932 -0.006227968 0.025675522 -0.08903867 0.12082881 0.015410744 -0.07013297
0.13232513 -0.03164166 0.0996671 -0.023504363 0.04814989 0.05432521 -0.09715297 0.09293009
0.0075762616 -0.0359525 0.005931782 -0.07497066 0.017095827 -0.03350727 -0.035222776 0.048563436
0.08731335 -0.07787943 0.072246306 0.052661218 -0.0170105 -0.037688423 0.03654147 0.14598668
-0.0046637803 0.0770579 -0.029343449 0.059382536 0.02908414 -0.024134176 -0.08099371 -0.03685301
0.06380832 0.014932166 0.05761069 -0.010238889 0.048725016 -0.038966626 -0.12180686 -0.011252584
0.023070475 -0.07836011 0.036954068 -0.08531462 0.021693878 0.07362814 -0.11868041 -0.12992209

fc3.bias f4 [128]
00000000: 22bf ee3c 0fbf 953d f913 cc3d 8ffe be3d
00000010: 6df1 953e cbbc 0d3e 6a21 f83d 15f6 2c3e
00000020: 325d d93d f49f 213e 576a 2e3e 25ef ea3d
00000030: 3565 d9bd f382 2a3e e1dc c13c c04f 31bc
00000040: cee4 d83d b73a 913c 49b6 e03d 8e32 e83d
00000050: 7338 e53a 4293 adbd bd9a c4bc 61b0 373e
00000060: 44f2 ff3d 2fd4 923c c377 babd eb61 dc3d
00000070: 4451 1b3e fae3 eb3d e03f 6e3e 5a6e babd
00000080: 85dc 3b3e 57c9 563c 5c14 233e 0109 cbbd
00000090: 57c6 91bd 390b 95bc 3579 4d3e 60fd 023e
000000a0: 942a c33d 9d3a 493e 55a1 f3bc 9a32 153e
000000b0: 5b88 3b3c 417b 663d 74e2 213e 652f a43d
000000c0: c1ec 8a3c a05c b93d f762 c53d 2239 783c
000000d0: d4f9 e6bd 211d b53c 13f3 883d 5b30 fc3d
000000e0: 02a0 5a3e d283 983d f821 28bd 69e7 6b3d
000000f0: 9f44 453e 2f03 483e aa8b 3f3e 9e36 943d
00000100: ea54 de3d f5f4 413d 2ad8 903d 37f6 8c3e
00000110: ed99 a03d 6c7a 083b add6 363e 10b4 563e
00000120: c22f 713e 6ec8 203e a21d 0ebe d806 f93a
00000130: 7837 643d e026 513e d3cc 2ebe 3b91 0d3e
00000140: b9f8 cc3a 33fa 1e3e d139 ee3b 2eb1 263e
00000150: 11c2 103e e17b 3d3e 1751 c0bd 6db6 993d
00000160: 1d7c e13d 7bfc 693e 1304 ba3d 9b8b fe3d
00000170: 7aeb 713e 3249 693e 8488 6c3e 8cc2 0c3e
00000180: 66dd 21bd 6b2a 12be 9a84 36bd 9a37 413e
00000190: ce5a be3d 5e5e 313d fe21 0ebd 524d fc3d
000001a0: 3a91 2d3e bc3d 773d 539b 083e 2d92 713e
000001b0: 1a8b 1e3e 74b7 8a3d 408a 893d 9470 08be
000001c0: 6874 e43d 6033 18be 723f a23d 8ece d9bd
000001d0: 9e43 213e 954a e43d f170 b53d 55fb d33c
000001e0: 906d 523e f2fc 393c 467b 853d d4bc 64bd
000001f0: 9890 a33d 9dd2 19bd b7ae 2e3e 0220 2bbd
0.029143874 0.07311832 0.09964747 0.09325897 0.29285756 0.1384155 0.12115748 0.16890748
0.10613479 0.15783674 0.17032753 0.114713944 -0.10615007 0.16651516 0.023664894 -0.010822237
0.10590516 0.017728193 0.10972268 0.113377675 0.0017488137 -0.08475353 -0.023999566 0.17938377
0.124973804 0.017923443 -0.09104874 0.10760864 0.15167719 0.115180925 0.23266554 -0.09103079
0.1834584 0.013109527 0.15925735 -0.09913827 -0.071179084 -0.018193828 0.20065768 0.12791967
0.095296055 0.19651265 -0.029740015 0.14570084 0.011446084 0.056269888 0.15809041 0.08016852
0.016958596 0.0905087 0.09638017 0.01515034 -0.1127812 0.022108616 0.06686988 0.123139106
0.213501 0.07447018 -0.04104802 0.057593737 0.19264458 0.19532464 0.18705621 0.0723698
0.1085604 0.04735275 0.0707248 0.27531597 0.07841859 0.0020824922 0.1785533 0.20967126
0.23553374 0.15701458 -0.13878492 0.0018999232 0.05571696 0.20424986 -0.17070322 0.13824932
0.001563809 0.15525131 0.007270076 0.16278526 0.1413653 0.18504287 -0.09390467 0.07505498
0.11010001 0.2285022 0.09082808 0.124289714 0.23624983 0.22781828 0.23098952 0.13746089
-0.039517783 -0.14273994 -0.044560052 0.18868867 0.09294663 0.043302886 -0.034700386 0.12319435
0.16949931 0.06036161 0.13340501 0.23590918 0.1548275 0.06773272 0.06715822 -0.13324195
0.11155015 -0.14863348 0.079222575 -0.106351 0.1574845 0.11147038 0.088594325 0.02587668
0.20549607 0.011351811 0.06517653 -0.055844143 0.079865634 -0.037554372 0.17058836 -0.041778572
