models/dqn_model_epoch_4000.pth (torch, 595606 bytes, 14 tensors)

cnn1.weight f4 [16, 4, 5, 5]
0	0xbdb3783b	-0.087631665
1	0xbdb613ff	-0.08890533
2	0xbd77cf22	-0.06050027
3	0xbce4f9f7	-0.027951224
4	0xbdc9f331	-0.09860838
5	0xbd69d740	-0.057090044
6	0x3d40de59	0.047087047
7	0xbdd0f0a3	-0.10202148
8	0xbd9e1976	-0.077197
9	0xbd82aa9f	-0.063802
10	0xbdc3dddf	-0.09563803
11	0x3d8658f6	0.06559937
12	0x3ceb48f9	0.02872132
13	0xbdd4d5c2	-0.103923336
14	0x3d5a7e41	0.05334306
15	0x3c8ee514	0.017443217
16	0x3cc3d8b8	0.02390705
17	0xbe391e27	-0.18077908
18	0xbce73e5c	-0.028227977
19	0x3d4c2ff8	0.049850434
20	0x3d52b08d	0.051437903
21	0x3d9332c5	0.07187418
22	0xbbf3dcf5	-0.0074421116
23	0xbdddfba8	-0.10839015
24	0xbce66418	-0.0281239
25	0x3caf26cc	0.021380804
26	0x3d71770e	0.05895143
27	0x3d410969	0.047128115
28	0xbc0fbd50	-0.008773163
29	0xbda204ee	-0.079110965
30	0xbd8ebc02	-0.069694534
31	0xbc43cf6c	-0.011951309
32	0xbdc24e7c	-0.09487626
33	0xbdcf092a	-0.1010917
34	0xbd945bdf	-0.072440855
35	0x3c89d045	0.016822943
36	0x399d841d	0.00030043806
37	0xbdce56f7	-0.10075181
38	0xbe0292c0	-0.12751293
39	0xbd8ad3a8	-0.067786515
40	0x3d56fa8b	0.05248503
41	0x3d2d249a	0.042271234
42	0xbd893a66	-0.06700592
43	0x3c80d998	0.015728757
44	0xbc6923a7	-0.014229692
45	0xbbbab13f	-0.005697399
46	0xbd4801eb	-0.048829954
47	0x3d9592ab	0.07303365
48	0xbcd4afb5	-0.02596269
49	0x3d6f6241	0.05844331
50	0xbd8a3f78	-0.06750387
51	0x3e0db72c	0.13839406
52	0xbd56cb22	-0.052439816
53	0xbe604b57	-0.2190374
54	0xbd32ae8f	-0.043623503
55	0x3d98ae12	0.07455076
56	0x3ddc8299	0.10767097
57	0xbe826e0f	-0.25474593
58	0xbe1a8d12	-0.15092877
59	0x3b768e18	0.0037621316
60	0xbdfc0d22	-0.123071924
61	0xbd8a1590	-0.06742394
62	0xbe8721fd	-0.26393119
63	0x3e0c45aa	0.1369845
64	0xbd3cbc13	-0.0460778
65	0xbc113850	-0.008863524
66	0xbe8aa11e	-0.27076048
67	0xbe12880b	-0.14309709
68	0x3e39c230	0.18140483
69	0x3da6558d	0.08121786
70	0xbd0a86b3	-0.033819865
71	0xbe840d76	-0.2579152
72	0xbe559ed2	-0.20861366
73	0x3b727340	0.0036994964
74	0x3d73d632	0.059530444
75	0xbdb8cdbb	-0.09023615
76	0x3e226134	0.15857393
77	0x3d6c2edc	0.057661876
78	0xbe438d7e	-0.19096944
79	0xbe10892d	-0.14114828
80	0xbdbaf4fd	-0.09128759
81	0x3e8b317b	0.27186188
82	0xbe5afd3a	-0.21385661
83	0x3e664554	0.22487384
84	0xbe4bb842	-0.19894508
85	0x3e4e5084	0.20147902
86	0x3e3b94fa	0.18318549
87	0x3deaaa71	0.1145829
88	0xbb85c3d3	-0.004082182
89	0x3d756f96	0.05992087
90	0xbdaece58	-0.08535451
91	0xbe0836b7	-0.13302122
92	0xbe7e0c19	-0.24809302
93	0xbe67a74f	-0.22622417
94	0xbdfa1d49	-0.12212617
95	0xbd82eb58	-0.063925445
96	0xbde92639	-0.113842435
97	0xbe803720	-0.25042057
98	0xbe357315	-0.17719682
99	0xbd3fb05a	-0.04679904
100	0xbe1de39b	-0.15418856
101	0x3a6acfad	0.00089573377
102	0xbd944729	-0.07240135
103	0x3d8118fa	0.06303592
104	0x3ca68e0b	0.020331403
105	0xbe40a5a9	-0.18813194
106	0x3d140488	0.036137134
107	0xbd6e51f1	-0.058183614
108	0x3d5a79c3	0.053338777
109	0xbcf8c8af	-0.03036913
110	0xbd03ffc5	-0.032226343
111	0xbd0337f1	-0.03203577
112	0xbe0aa77c	-0.13540453
113	0xbc1f84b0	-0.009736225
114	0x3e13e0f0	0.14441276
115	0xbdfd622f	-0.12372243
116	0xbcb63a4d	-0.022244597
117	0xbcbe8dbe	-0.023260947
118	0x3da9d7f2	0.082931414
119	0x3c0a5974	0.008444179
120	0xbe632ab2	-0.22184256
121	0xbd4ed3a6	-0.050494812
122	0xbe86eb4c	-0.26351392
123	0x3e1f96e2	0.15584901
124	0xbd2d5121	-0.0423137
125	0xbd1a8ffb	-0.037734967
126	0x3cb1ab69	0.02168818
127	0x3d8fc2b0	0.070195556
128	0xbbc86096	-0.0061150296
129	0x3b70a124	0.003671714
130	0xbd9fe05a	-0.078064635
131	0xbd3618e1	-0.04445732
132	0xbdd4f009	-0.103973456
133	0xbc5ca49c	-0.01346698
134	0x3c846987	0.0161636
135	0xbd087e39	-0.0333235
136	0xbce24dbf	-0.027624963
137	0xbd5eeddc	-0.05442606
138	0x3d8adfc4	0.06780961
139	0x3cc14e43	0.023596888
140	0xbd532f8b	-0.051559012
141	0xbd39bafa	-0.04534433
142	0xbdaf1086	-0.085480735
143	0xbdb52ce7	-0.08846455
144	0xbc8728ed	-0.016499007
145	0xba5efc6e	-0.0008506243
146	0xbdb49530	-0.08817518
147	0x3c1e43d8	0.00965973
148	0xbd010caf	-0.031506237
149	0x3c3a3219	0.011364483
150	0xbd1c44f7	-0.038151708
151	0xbc72255c	-0.014779415
152	0x3c704751	0.014665441
153	0x3c0c395d	0.008558598
154	0xbcd88a98	-0.026433274
155	0xbc0363c3	-0.0080193905
156	0xbbc16878	-0.005902346
157	0xbe6507ee	-0.22366306
158	0xbe59b643	-0.21260934
159	0x3d9bb1e5	0.0760229
160	0xbd96b36c	-0.07358441
161	0xbdb430a2	-0.087983385
162	0x3e4a08d3	0.19729929
163	0xbd774576	-0.060368977
164	0xbde3dd09	-0.111261435
165	0xbea0b9a9	-0.31391647
166	0xbe83ffb6	-0.2578103
167	0xbe4e1225	-0.20124109
168	0x3e63e8b6	0.22256741
169	0x3d906369	0.07050211
170	0xbe8c9676	-0.27458543
171	0xbe77741b	-0.24165384
172	0xbe35a993	-0.17740469
173	0xbd90c226	-0.07068281
174	0xbe17d9e2	-0.1482921
175	0x3e47167b	0.1944217
176	0x3e3fc956	0.18729147
177	0xbd94c88f	-0.07264816
178	0xbe7420b6	-0.23840603
179	0x3e26fba1	0.16306926
180	0x3e4bf609	0.19918074
181	0x3e750053	0.23925905
182	0x3e67b7af	0.22628663
183	0x3cc39fd3	0.023879921
184	0xbe84c5a0	-0.25932026
185	0xbe1890e2	-0.14899018
186	0xbe1404a3	-0.14454894
187	0xbe1d879a	-0.15383759
188	0x3e73bbcd	0.23802109
189	0x3e5c50e8	0.21515238
190	0x3d3da837	0.046303
191	0xbdd2e504	-0.102975875
192	0xbcacd148	-0.021095887
193	0xbea9a984	-0.33137143
194	0xbe426422	-0.1898351
195	0xbe33001c	-0.1748051
196	0x3db3175e	0.08744691
197	0x3dd5b9d6	0.10435836
198	0xbe3cdcba	-0.18443576
199	0xbe1f6070	-0.15564132
200	0xbd185e23	-0.03719915
201	0xbd8b46af	-0.06800591
202	0xbdfe0e2d	-0.124050476
203	0xbe1b79c3	-0.15183167
204	0x3dc0ab0a	0.09407623
205	0xbdca4fcc	-0.09878501
206	0x3c4ac5d3	0.0123762665
207	0xbde21c38	-0.110405385
208	0xbdc5edc5	-0.096644916
209	0xbc7edb76	-0.015555253
210	0xbc6836e4	-0.014173243
211	0x3d657d74	0.056027845
212	0xbe2bbda3	-0.1677156
213	0x3c44e6f6	0.012017956
214	0xbdb4a7b6	-0.08821051
215	0xbd94a845	-0.07258657
216	0x3c8d7bd6	0.017270964
217	0xbdb041d8	-0.08606309
218	0x3c31963d	0.010839042
219	0x3c4efaf3	0.012633073
220	0xbdf5ac46	-0.11995749
221	0xbe19d3ca	-0.15022197
222	0x3daf939a	0.08573075
223	0x3cff6f55	0.031181017
224	0x3bcf51e3	0.0063269003
225	0xbd3ef3f0	-0.046619356
226	0x3d6647b9	0.056220744
227	0x3dc0ec01	0.09420014
228	0x3d31f983	0.043450844
229	0x3d7d6e83	0.06187297
230	0xbb84222c	-0.004032394
231	0xbd4409d1	-0.047860924
232	0xbd161c63	-0.036648165
233	0x3d733344	0.059375063
234	0x3cbc1bad	0.022962416
235	0xbd014c39	-0.031566832
236	0x3d8eef17	0.069791965
237	0x3d887f32	0.066648856
238	0x3d563a48	0.052301675
239	0x3d617b2b	0.055049103
240	0xbda6c628	-0.08143264
241	0x3c31057e	0.010804532
242	0xbda48dcc	-0.08034858
243	0xbdae1c70	-0.08501518
244	0x3d352b38	0.04423067
245	0xbd81c814	-0.0633699
246	0x3d366c90	0.044537127
247	0xbd784a07	-0.060617473
248	0xbd968b52	-0.07350792
249	0x3d80040d	0.062507726
250	0x3daebe08	0.08532339
251	0xbd189113	-0.03724773
252	0x3dd7259f	0.105052225
253	0xbd7af05d	-0.061264385
254	0xbd98d198	-0.07461852
255	0x3e2a07c2	0.16604522

cnn1.bias f4 [16]
0	0xbd4b3dce	-0.04961949
1	0x3d8381db	0.06421252
2	0xbdd24fa0	-0.102690935
3	0x3d7bf50a	0.061512984
4	0x3d14827e	0.03625726
5	0x3d851060	0.06497264
6	0xbd0b74e2	-0.034047015
7	0xbd37ad99	-0.04484329
8	0xbd42340a	-0.04741291
9	0xbd4bd8b7	-0.049767222
10	0xbd883348	-0.06650406
11	0xbdd95437	-0.10611766
12	0x3d3905f1	0.04517168
13	0x3ae48517	0.0017434683
14	0x3daf1fe2	0.08551003
15	0x3d84d672	0.06486215

cnn2.weight f4 [32, 16, 3, 3]
0	0x3de49fca	0.1116329
1	0x3e0bd0ad	0.13653822
2	0x3e246bc6	0.16056737
3	0x3e2ac633	0.1667717
4	0x3dfdeef9	0.12399096
5	0x3dbbf59f	0.09177708
6	0x3d53023c	0.051515803
7	0x3e336ef0	0.17522788
8	0x3e10543a	0.1409463
9	0x3e52cca4	0.20585877
10	0x3db7c743	0.08973553
11	0x3dd0c1bc	0.10193202
12	0x3da1b5f2	0.078960314
13	0x3e02cf01	0.12774278
14	0x3e047c35	0.12938006
15	0x3e105637	0.14095388
16	0x3cbedb3a	0.023297895
17	0x3e0f413f	0.13989733
18	0x3d281180	0.041032314
19	0xbd7c8920	-0.06165421
20	0xbc829ad3	-0.015942967
21	0xbd29b9da	-0.041437007
22	0x3d77f6fd	0.06053828
23	0x3d1cfd21	0.03832734
24	0x3ad66e5e	0.0016359796
25	0xbda26801	-0.079299934
26	0xbd447fb5	-0.047973353
27	0x3d96e9d4	0.07368818
28	0xbc0292da	-0.007969582
29	0x3da3d02d	0.07998691
30	0x3da06b3f	0.078329556
31	0x3d9d75c0	0.07688475
32	0xbc80fc39	-0.01574527
33	0x3dedb3b3	0.116065405
34	0x3d433303	0.04765607
35	0x3c9ae78f	0.018909244
36	0x3e3a943e	0.18220612
37	0x3df87947	0.12132507
38	0x3e400638	0.18752372
39	0x3da9e707	0.08296018
40	0x3e2c7d11	0.16844584
41	0x3dbeb948	0.09312683
42	0x3e0a4dce	0.13506243
43	0x3cf1bf0c	0.029510044
44	0x3db2161b	0.086956225
45	0x3d54487e	0.051826946
46	0x3cfd04af	0.030886022
47	0xbd2a35e0	-0.041555285
48	0xbd2ebeef	-0.042662557
49	0x3d2d10a1	0.042252187
50	0xbcc23ab8	-0.02370964
51	0x3d981abe	0.07426976
52	0x3c050580	0.008118987
53	0x3b643313	0.0034820482
54	0x3d264582	0.04059363
55	0x3e30c259	0.17261638
56	0x3e6045ba	0.21901599
57	0x3e56cb91	0.20976092
58	0x3e153248	0.14569962
59	0x3db0d1de	0.08633779
60	0x3e8ab0f4	0.2708813
61	0x3e88ff22	0.2675715
62	0x3e1a1d13	0.15050153
63	0x3e2b0070	0.16699386
64	0x3e2dbc32	0.16966322
65	0x3ea8c38a	0.32961684
66	0x3e048cae	0.1294429
67	0xb8d07c89	-9.9414094e-05
68	0x3e56d4db	0.20979635
69	0x3c94965d	0.018138105
70	0x3d378f67	0.044814494
71	0x3e31dde7	0.17369805
72	0x3dd32fc5	0.10311846
73	0x3dc8858c	0.09791097
74	0xbc0ec7fb	-0.008714671
75	0x3e0886b1	0.1333263
76	0x3c4865fb	0.012231345
77	0xbcd713b8	-0.02625452
78	0xbd0c4399	-0.034244154
79	0xbd55c4f2	-0.052189775
80	0x3c864a5f	0.016392885
81	0x3cb45539	0.022013294
82	0xbb8b8ee4	-0.0042589772
83	0x3cf185eb	0.029482802
84	0x3dbad46b	0.09122547
85	0x3d9959c9	0.07487828
86	0x3d333a52	0.04375679
87	0xbb87d320	-0.004145041
88	0x3cb2dc0f	0.021833448
89	0xbd2c3157	-0.04203924
90	0x3ccc1597	0.024912639
91	0x3dc884c3	0.09790947
92	0x3e045617	0.12923466
93	0x3db11a90	0.086476445
94	0x3d858c52	0.065209046
95	0x3e15db6f	0.14634489
96	0x3dc6c82a	0.09706147
97	0x3b5bd873	0.0033545762
98	0x3dc7ebc5	0.09761766
99	0xbb6b77d2	-0.0035929573
100	0x3cec5c04	0.02885247
101	0xbce23ba3	-0.027616328
102	0xbd20dad9	-0.03927121
103	0x3d369778	0.044578046
104	0xbd9b073b	-0.075697385
105	0x3dc6afd8	0.09701508
106	0xbd158d23	-0.03651155
107	0xbda1023e	-0.07861756
108	0x3e0926f1	0.13393761
109	0x3d86053a	0.06543966
110	0x3db38c34	0.08766976
111	0x3db423c2	0.08795883
112	0xbb1a2311	-0.0023519436
113	0xbc973570	-0.018458098
114	0xbccb288a	-0.024799604
115	0x3bc37da2	0.0059659043
116	0x3d20205d	0.039093364
117	0x3c37484a	0.011186669
118	0x3dbf4292	0.09338869
119	0x3dd95694	0.106122166
120	0x3da00a84	0.07814506
121	0x3d7f5663	0.062338244
122	0x3d848af0	0.06471813
123	0x3e02a11d	0.12756772
124	0x3e031de4	0.12804371
125	0x3daee684	0.08540061
126	0x3d288523	0.041142594
127	0xbce78af7	-0.028264506
128	0x3ab855d3	0.0014063664
129	0xbd89e798	-0.06733626
130	0x3d65c2da	0.056094028
131	0x3d275521	0.04085267
132	0xbce43ff9	-0.027862536
133	0xbdac58f3	-0.08415403
134	0x3d2ed767	0.042685892
135	0xbccf8bcb	-0.025335213
136	0x3ca36d47	0.019949568
137	0x3d9d3468	0.07676011
138	0xbd2c83ed	-0.042118
139	0xbd222b30	-0.039591968
140	0xbd3f1ef5	-0.046660382
141	0xbcdbe4af	-0.026842443
142	0xbc02b2a0	-0.007977158
143	0x3d777c86	0.06042149
144	0xbc12875e	-0.008943407
145	0x3d2aaf35	0.041670997
146	0xbd313bb9	-0.043269847
147	0x3cfe5a94	0.03104905
148	0x3e0cd81c	0.13754314
149	0x3d2a0336	0.04150697
150	0x3e828896	0.25494832
151	0x3e4d1078	0.20025814
152	0x3d8e741b	0.06955739
153	0x3d3bb8c2	0.045830496
154	0x3d02371f	0.03179085
155	0x3d02861b	0.031866174
156	0x3e005890	0.12533784
157	0x3cc80af4	0.024419285
158	0xbdcd141a	-0.100136
159	0x3e3242c2	0.17408279
160	0x3dd3aab7	0.10335296
161	0x3df64b1f	0.12026047
162	0xbb956017	-0.004558574
163	0x3d4ae489	0.049534354
164	0x3c90f743	0.017696029
165	0x3d1a9ea4	0.037748948
166	0x3d815e6b	0.06316837
167	0x3cd0975b	0.025462797
168	0x3cdb3139	0.02675687
169	0xbd09cca3	-0.033642422
170	0x3d2023a0	0.039096475
171	0x3dd76ee3	0.10519197
172	0xbd27b2d4	-0.04094203
173	0xbe26cc11	-0.16288783
174	0x3e2991bd	0.16559501
175	0xbe0f0855	-0.13968022
176	0x3d9e19f5	0.07719795
177	0x3d1f25fd	0.038854588
178	0xbd6cb969	-0.05779401
179	0x3ddd1b0f	0.10796177
180	0xbb58edde	-0.0033100764
181	0x3c9a4e90	0.01883629
182	0xbcee2028	-0.029068068
183	0xbdc15254	-0.09439531
184	0x3d0525e0	0.032506824
185	0x3e2d3441	0.16914465
186	0x3e142908	0.14468777
187	0x3d981bac	0.07427153
188	0x3e8f0659	0.2793453
189	0xbdca4863	-0.09877088
190	0x3b5d6b1d	0.0033785768
191	0xbdbce54f	-0.09223425
192	0xbdf4be5f	-0.11950373
193	0x3d028d76	0.03187319
194	0x3c7b5385	0.015339737
195	0xbcaf659c	-0.021410756
196	0x3d888443	0.06665852
197	0x3dfff51b	0.12497922
198	0xbd42027b	-0.047365647
199	0x3e11b35f	0.14228581
200	0xbded69ac	-0.11592421
201	0x3e1c2a44	0.15250498
202	0x3e088007	0.13330089
203	0x3e23bc34	0.15989763
204	0x3eb49411	0.35269216
205	0x3e69a2dd	0.22816034
206	0x3e534f0d	0.20635624
207	0x3d3d19f7	0.04616734
208	0x3cec868d	0.028872753
209	0x3bc3f92c	0.0059806313
210	0x3d687d71	0.056760255
211	0xbae0ea4a	-0.0017159667
212	0x3e2d6fb9	0.1693715
213	0x3cc58ae3	0.024114078
214	0xbbe5f562	-0.0070177773
215	0x3e165fbf	0.14684962
216	0x3d95ccf5	0.07314483
217	0x3d04e802	0.032447822
218	0x3d023e36	0.03179761
219	0x3db50669	0.08839113
220	0x3dc4568f	0.09586822
221	0x3d6a8a2d	0.05726068
222	0x3e0f6bef	0.14006017
223	0x3e302831	0.17202832
224	0x3e5d9800	0.21640015
225	0x3b0a830a	0.0021135234
226	0xbc86af33	-0.016440963
227	0x3d92b027	0.07162505
228	0xbc29c297	-0.010361335
229	0xbdbc22d0	-0.091863275
230	0xbc595545	-0.013264959
231	0x3d3cff68	0.046142012
232	0x3d39ba60	0.045343757
233	0x3d8c6606	0.06855397
234	0x3d003151	0.03129703
235	0x3b5e2ee4	0.003390246
236	0x3d5ce738	0.053931445
237	0x3d683d5c	0.05669914
238	0x3c9e8213	0.019349134
239	0x3c850238	0.01623641
240	0x3dbe5c86	0.09294991
241	0x3de5e175	0.11224643
242	0x3d344316	0.04400929
243	0x3d28e16f	0.041230615
244	0x3d3d8c63	0.04627646
245	0xbd074e4c	-0.033033654
246	0x3c991713	0.01868776
247	0x3db3c800	0.08778381
248	0x3d9181d5	0.071048416
249	0xbc82f733	-0.015987014
250	0xbca086f3	-0.019595599
251	0xbdeebd4a	-0.11657198
252	0xbcebf1f9	-0.028801905
253	0x3d86be3e	0.065792546
254	0x3d37b142	0.04484678
255	0x3e0d440b	0.13795488

cnn2.bias f4 [32]
0	0xbda2efbf	-0.07955884
1	0xbc82d2df	-0.015969692
2	0xba472b09	-0.00075976603
3	0xbd298052	-0.04138214
4	0x3c35f52d	0.011105818
5	0xbce8b2a9	-0.028405504
6	0xbd8ec231	-0.06970633
7	0xbcdb9e0f	-0.026808767
8	0xbd907970	-0.07054412
9	0xbb37cc1d	-0.0028045245
10	0xbcdc2477	-0.026872857
11	0xbd6b9758	-0.05751738
12	0x3c37cce9	0.011218288
13	0xbda4eaa4	-0.08052567
14	0xbbdfa4fd	-0.006825088
15	0xbc7dac66	-0.0154829975
16	0xbafed90f	-0.0019443351
17	0xbd4c2e51	-0.04984886
18	0xbdc65fe9	-0.09686262
19	0x3ce5157c	0.027964346
20	0x3c5311a5	0.012882625
21	0xbb18f2a0	-0.0023337975
22	0x3cc4fe46	0.024047028
23	0x3c3b1be2	0.011420222
24	0xbd572b5d	-0.05253159
25	0xbdb72abb	-0.08943697
26	0xbdb673af	-0.08908784
27	0x3c03683e	0.008020459
28	0xbcd113fc	-0.025522225
29	0xbc330e2c	-0.010928672
30	0x3ada20c8	0.001664185
31	0xbc9a8b30	-0.018865198

cnn3.weight f4 [32, 32, 3, 3]
0	0x3d9cabcd	0.07649956
1	0x3d16d0d0	0.036820233
2	0xbd78d088	-0.060745746
3	0x3d888516	0.06666009
4	0x3cd11194	0.025521077
5	0x3d693c8a	0.0569425
6	0xbc08963e	-0.008336602
7	0x3c6592e5	0.014012073
8	0x3ca6bfe5	0.020355174
9	0x3dcf76ea	0.10130103
10	0x3d5daae7	0.054118063
11	0x3c89c1dd	0.016816074
12	0xbbf2bf40	-0.0074080527
13	0x3c09332b	0.008374016
14	0xbd45dfb6	-0.04830905
15	0xbcff9739	-0.031200038
16	0xbde0844f	-0.10962736
17	0xbdaf66bf	-0.08564519
18	0xbccc63d5	-0.024949947
19	0x3ca36c51	0.01994911
20	0x3cf63eb1	0.03005919
21	0x3d97c934	0.07411423
22	0xbd54c677	-0.051947083
23	0x3c48ebba	0.012263233
24	0x3d04ee46	0.032453798
25	0xbd2a5309	-0.041583095
26	0x3b056869	0.0020356423
27	0x3df40e1d	0.119167544
28	0x3d803fe8	0.06262189
29	0xbd469af3	-0.048487615
30	0x3d071be6	0.03298559
31	0x3c88054c	0.016604088
32	0x3cdb7ba0	0.026792347
33	0x3c6264ac	0.013817947
34	0xbd4775a6	-0.048696183
35	0xbd6ce93a	-0.05783961
36	0x3ca95291	0.020669254
37	0x3d85df3e	0.06536721
38	0xbda9103d	-0.0825505
39	0xbcd080f6	-0.025452118
40	0xbd156172	-0.036469884
41	0xbce8b262	-0.028405372
42	0x3c20510e	0.00978495
43	0xbd1af689	-0.03783277
44	0xbd7553e2	-0.05989445
45	0x3dccfb5c	0.100088805
46	0x3c275938	0.0102141425
47	0xbd0d1b12	-0.034449644
48	0x3d428387	0.047488715
49	0xbd26c01c	-0.040710554
50	0xbd32641e	-0.04355251
51	0xbcaf27c0	-0.021381259
52	0xbdb06626	-0.08613233
53	0xbc52c5fc	-0.012864586
54	0x3d12ff5a	0.035888053
55	0x3d9b01c3	0.075686954
56	0xbdb1b5a7	-0.086772256
57	0x3a0e26ff	0.0005422681
58	0xbd15f50e	-0.036610655
59	0xbc91faa0	-0.017819703
60	0x3d0d9456	0.034565292
61	0x3d05a9f3	0.03263278
62	0xbd1f13c0	-0.038837194
63	0x3d24d298	0.0402399
64	0xbcc1c6cf	-0.02365437
65	0xbd6b813b	-0.05749629
66	0x3d880a5b	0.066426
67	0xbd080d28	-0.03321567
68	0x3d12e804	0.0358658
69	0x3d23b71c	0.03996955
70	0xbd3f1141	-0.046647314
71	0x3d1f404d	0.03887968
72	0x3c80257c	0.015642874
73	0xbd07d529	-0.03316227
74	0xbcb0c784	-0.021579511
75	0x3d5e425e	0.05426251
76	0x3c1252bc	0.008930858
77	0xbd376d9f	-0.044782277
78	0xbd06c0ce	-0.032898717
79	0xbc82cbe0	-0.015966356
80	0x3cd4409f	0.02590972
81	0x3d9d4985	0.07680038
82	0x3d8ef908	0.06981093
83	0x3d2d917f	0.042375084
84	0x3dc3025c	0.095219344
85	0x3d4ecea0	0.05049002
86	0xbcf25103	-0.029579645
87	0x3c96e1ab	0.018418154
88	0xbd2301bd	-0.03979658
89	0xbc2ac285	-0.010422354
90	0x3cac1a9e	0.021008786
91	0xbd95aaf4	-0.07307997
92	0xbd454759	-0.048163746
93	0x3d97db3f	0.07414865
94	0xbadd2782	-0.0016872736
95	0xbd20fd42	-0.039304025
96	0xbca1aef6	-0.019736748
97	0x3c90e19c	0.017685704
98	0xbc4c203c	-0.012458857
99	0x3c92c0a3	0.017914122
100	0x3995d5b9	0.0002857873
101	0xbd270ba7	-0.040782597
102	0x3da0ec86	0.07857613
103	0xbcf70c38	-0.030157194
104	0xbcec4415	-0.028841058
105	0x3d255835	0.040367324
106	0xbcffd297	-0.031228347
107	0xbdf35ba5	-0.11882714
108	0x3c9b915d	0.018990213
109	0xbce38e91	-0.027777942
110	0xbcdeed02	-0.027212624
111	0x3d8ea33e	0.0696473
112	0xbcc5e543	-0.024157172
113	0x3d1f1191	0.038835112
114	0xbc2eeb17	-0.010676167
115	0xbcaf08f0	-0.021366566
116	0xbd7f0574	-0.06226106
117	0x3c90639c	0.017625622
118	0x3c90f5ab	0.017695269
119	0x3bd5831a	0.0065158727
120	0x3db4dfd7	0.088317566
121	0x3c1ee7f6	0.0096988585
122	0xbcfbd644	-0.030741818
123	0x3c99bca3	0.018766707
124	0xbb1bbe68	-0.0023764614
125	0xbb22c222	-0.002483495
126	0xbbc41f02	-0.0059851417
127	0x3dadafb5	0.08480779
128	0xbd3df5b8	-0.046376914
129	0xbbdd84ed	-0.0067602308
130	0x3d3929cf	0.045205887
131	0x3c841372	0.016122553
132	0x3d47b198	0.04875335
133	0xbd90c82d	-0.070694305
134	0xbd313c2b	-0.04327027
135	0x3d5b9eca	0.05361823
136	0xbcbc309a	-0.022972394
137	0x3d424aa7	0.047434475
138	0x3dc7125f	0.09720301
139	0xbd4e9a56	-0.050440155
140	0xbb8fc78f	-0.004387803
141	0xbc29c6af	-0.010362311
142	0xbd226829	-0.039650116
143	0x3ce64006	0.0281067
144	0x3d5c90e1	0.053849105
145	0x3db67deb	0.08910736
146	0x3b0b6267	0.002126837
147	0x3d5bcbe8	0.053661257
148	0x3d405c88	0.046963245
149	0x3cb6812d	0.022278393
150	0xbc899070	-0.016792506
151	0xbd0dfb3b	-0.03466342
152	0xbc78d7fa	-0.015188212
153	0x3d8b46fe	0.0680065
154	0xbc332446	-0.010933941
155	0x3cef6fe4	0.029228158
156	0x3d598df9	0.05311391
157	0xbb41a504	-0.002954782
158	0xbcd8cdbe	-0.026465293
159	0xbd642dda	-0.05570779
160	0xbc30efe8	-0.010799386
161	0x3cadd567	0.021219922
162	0x3bd897b3	0.006609881
163	0x3d5cb9ea	0.05388824
164	0xbcfcac03	-0.03084374
165	0x3d14f5ed	0.036367346
166	0xbd271c19	-0.04079828
167	0xbd505d3b	-0.05087016
168	0x3d214bad	0.03937881
169	0x3cfe2220	0.031022131
170	0xbcaf66cf	-0.021411328
171	0x3d0925ee	0.03348344
172	0x3d686ca9	0.05674425
173	0xbc63a2e5	-0.013893818
174	0xbd0a0250	-0.03369361
175	0xbce0c133	-0.027435875
176	0xbd19cea6	-0.03755059
177	0x3cfd5fb9	0.030929433
178	0xbbc35b30	-0.005961798
179	0xbd8d68f2	-0.06904782
180	0xbd3a7f88	-0.04553178
181	0xbcd89f55	-0.026443163
182	0xbc77a689	-0.015115389
183	0xbd1e2d68	-0.03861752
184	0x3d20d70a	0.039267577
185	0xbc20d5f6	-0.009816637
186	0xbc07da20	-0.008291751
187	0x3d1f1bfe	0.038845055
188	0xbd49e473	-0.04929013
189	0x3cc6ca98	0.024266526
190	0xbc609841	-0.013708175
191	0xbd29aada	-0.041422702
192	0x3dcf4b37	0.10121768
193	0xbda61430	-0.08109319
194	0xbda3bc04	-0.079948455
195	0xbce8d225	-0.028420517
196	0xbd93d45d	-0.072182395
197	0xbddd64b3	-0.108102225
198	0x3d8787d4	0.06617704
199	0x3d1e5087	0.038651016
200	0xbc817322	-0.01580197
201	0x3bbc576f	0.0057477276
202	0x3c850215	0.016236344
203	0xbc3e88ee	-0.011629326
204	0x3d0d5382	0.034503467
205	0xbcd26fa1	-0.025687994
206	0x3d1aa59f	0.037755605
207	0xbc8298ba	-0.015941966
208	0x3d6b98a1	0.057518605
209	0xbc0161a5	-0.007896815
210	0xbcb109e1	-0.021611156
211	0xbc2cf7e8	-0.010557152
212	0x3c66d6fe	0.014089344
213	0x3d75ff19	0.060057733
214	0xbcada3a9	-0.021196203
215	0xbc860e01	-0.0163641
216	0x3c164734	0.00917225
217	0x3d8fb5d0	0.070171
218	0xbcb87d5f	-0.02252072
219	0x3d416e07	0.04722407
220	0xbd1b3ad8	-0.037897915
221	0xbc73a8e7	-0.014871812
222	0x3d2b3c3b	0.041805487
223	0x3ca42f55	0.0200421
224	0xbc736570	-0.014855728
225	0x3c6d088e	0.014467372
226	0x3c0b1a5d	0.008490172
227	0xbd3c78e7	-0.04601374
228	0x3d41679e	0.047217958
229	0x3c1ae62c	0.009454291
230	0x3cf7c606	0.030245792
231	0x3d0df1a1	0.034654263
232	0xbc989793	-0.018626964
233	0xbd2beb2e	-0.04197233
234	0x3dc21eaa	0.09478505
235	0x3c2b93d7	0.0104722595
236	0xba81f446	-0.0009914718
237	0x3d652cdb	0.05595098
238	0x3d97eb25	0.07417897
239	0x3d2e2ee4	0.042525187
240	0x3d0d1aa3	0.03444923
241	0xbcd50838	-0.026004896
242	0x3ba336c6	0.0049808947
243	0xbe9b7b29	-0.303674
244	0xbe613eb6	-0.21996579
245	0xbe3bab01	-0.18326952
246	0xbe92a5d3	-0.2864214
247	0xbd06fe4e	-0.032957368
248	0xbdc3890c	-0.09547624
249	0x3e15e00d	0.1463625
250	0x3dd0d079	0.10196013
251	0xbbeb6eaa	-0.007184823
252	0xbcd4517c	-0.025917761
253	0xbc7294c7	-0.014805979
254	0xbc82b4bb	-0.01595532
255	0xbd1641e9	-0.03668395

cnn3.bias f4 [32]
0	0x3c6ca38e	0.014443291
1	0xbcb3d24d	-0.021950865
2	0xbd5e6c8e	-0.054302745
3	0xbd0cd6fe	-0.03438472
4	0xbd891638	-0.06693691
5	0xbb7a9978	-0.0038238447
6	0x3cf86054	0.03031937
7	0x3c6f5871	0.014608488
8	0x3bd19704	0.0063961763
9	0xbcf6f5d8	-0.030146524
10	0xbc12dd16	-0.008963844
11	0x3c5aacc1	0.013346852
12	0x3cc49af1	0.023999663
13	0x3cd487dd	0.02594369
14	0x3cd32e1f	0.025778828
15	0xbcc585b5	-0.024111608
16	0xbd8cde04	-0.068782836
17	0x3b7f50d7	0.0038958096
18	0x3cd8be7e	0.026458021
19	0xbc47910b	-0.012180577
20	0xbd93e9b0	-0.07222307
21	0xbd86511b	-0.065584384
22	0xbd4fd74b	-0.05074243
23	0xbd59437d	-0.053042877
24	0xbd7842a4	-0.06061043
25	0x3c3647a1	0.011125476
26	0xba088470	-0.0005207723
27	0xbd3852cc	-0.045000836
28	0x3b928b6d	0.0044721873
29	0xbd2f2609	-0.042760883
30	0x3c8ce258	0.017197773
31	0xbceceef3	-0.028922534

fc1.weight f4 [128, 768]
0	0x3d030bb2	0.031993575
1	0x3d1eeaa2	0.038797982
2	0x3cdff61d	0.027339036
3	0xbc537604	-0.012906555
4	0x3d40beca	0.04705695
5	0x3d931a44	0.07182744
6	0xbc92da98	-0.0179265
7	0x3c9c342c	0.019067846
8	0x3cdbdf7d	0.026839966
9	0x3d31fd50	0.04345447
10	0x3c0f5360	0.0087479055
11	0x3d0ceabb	0.034403544
12	0x3d431cce	0.047634892
13	0xbd234bcb	-0.039867204
14	0xbcdcf923	-0.026974266
15	0x3d3a83f5	0.045536
16	0x3d2a68a4	0.0416037
17	0xbd0f2450	-0.03494674
18	0xbcc7780d	-0.024349237
19	0xbcf52c4d	-0.02992835
20	0xbc14eb9c	-0.009089377
21	0xbd1750b8	-0.036942214
22	0xbd79cf6d	-0.060988832
23	0xbc9b5b4a	-0.018964428
24	0xbd045be7	-0.032314207
25	0x3cfbc32f	0.03073272
26	0x3d9e6ac2	0.07735206
27	0xbc34d2b7	-0.011036566
28	0x3ce8cacc	0.028417014
29	0x3d21baef	0.039484914
30	0x3c816c9e	0.015798863
31	0x3d7c51d1	0.061601464
32	0x3da50d16	0.080591366
33	0x3da43c1b	0.08019277
34	0x3cb1839b	0.0216692
35	0x3cab29f5	0.02089403
36	0x3ca39f1d	0.019973332
37	0x3ca17caa	0.019712765
38	0xbbba0448	-0.00567678
39	0xbb1e5ade	-0.0024163048
40	0xbc36cd4a	-0.011157343
41	0xbcf499a7	-0.029858423
42	0x3a8b8bde	0.0010646542
43	0x3ac0520a	0.0014672887
44	0xbb2a9cee	-0.0026033479
45	0x3c33ac3c	0.010966357
46	0xbcdb14c7	-0.026743306
47	0xbd0accb9	-0.033886645
48	0x3c7ce8d4	0.01543637
49	0x3b584190	0.0032998063
50	0x3b018420	0.001976259
51	0x3c6804e0	0.014161319
52	0x3c6a3048	0.014293738
53	0x3cdcfa4c	0.02697482
54	0x3d10c158	0.035340637
55	0x3bbcd6b0	0.0057628974
56	0xbb7ffb20	-0.0039059594
57	0xbd01ee48	-0.031721383
58	0xbbef76b8	-0.0073078535
59	0xbc066a2a	-0.008204022
60	0x3c3ebe94	0.011642117
61	0xbcc0c4ee	-0.023531403
62	0xbc367a2a	-0.011137525
63	0xbcb70772	-0.022342417
64	0x3b828f18	0.0039843433
65	0xbc630e62	-0.01385841
66	0x3ceb7d3c	0.02874624
67	0xbc1d9a48	-0.009619303
68	0xbc22b2f4	-0.009930361
69	0x3b21bf00	0.0024680495
70	0x3bc32868	0.0059557445
71	0xbc995977	-0.018719418
72	0xbd1ce154	-0.038300827
73	0x3d577c1a	0.052608587
74	0x3db25245	0.08707098
75	0xbc238525	-0.009980475
76	0x3d3c4e9c	0.045973405
77	0x3d3c3c4a	0.045955934
78	0x3cb875cf	0.022517113
79	0xbc2e5a58	-0.010641657
80	0x3ce0aed0	0.027427107
81	0x3c093476	0.008374324
82	0xbc713064	-0.01472101
83	0x3cb38ea5	0.021918604
84	0x3d450ed0	0.04810983
85	0x3c5e2d83	0.0135606555
86	0xbd0eca7d	-0.034861077
87	0xbc9e47d1	-0.019321354
88	0xba1400a1	-0.00056458457
89	0xbc96fda2	-0.018431488
90	0xb9ddb409	-0.0004228654
91	0xbd76f571	-0.060292665
92	0xbdc37ccb	-0.09545287
93	0xbd8a5ed1	-0.06756366
94	0xbd4df170	-0.05027908
95	0xbdd9839e	-0.10620807
96	0x3d24837e	0.040164463
97	0x3d4e4d3c	0.050366625
98	0x3cbb94f2	0.022898171
99	0x3cc1efc1	0.023673894
100	0x3d1df194	0.038560465
101	0x3db15d2d	0.0866035
102	0xbb933733	-0.0044926642
103	0xbc5aa237	-0.013344339
104	0xbc020f03	-0.007938149
105	0xbc21099f	-0.009828954
106	0xbda5e314	-0.08099952
107	0xbd2236bc	-0.03960298
108	0xbdd54682	-0.10413839
109	0xbd7df229	-0.06199852
110	0xbda2fdf2	-0.079585925
111	0xbe00d328	-0.1258055
112	0xbd4a9e1b	-0.049467187
113	0xbd778fbf	-0.06043982
114	0xbd8a23b7	-0.06745093
115	0xbd6cf821	-0.05785382
116	0xbd6a95f0	-0.057271898
117	0xbdf7b8f9	-0.120958276
118	0xbdae6af7	-0.08516496
119	0xbde09a9d	-0.1096699
120	0xbcf9d69c	-0.030497842
121	0x3d841aa7	0.06450396
122	0x3c6a2cdf	0.014292925
123	0xbbc280f2	-0.0059357816
124	0x3d1533ac	0.03642623
125	0x3cebcb95	0.028783599
126	0x3ccc526c	0.024941646
127	0x3d4dcb88	0.05024293
128	0x3d6f655d	0.058446277
129	0x3cd59b6a	0.026075084
130	0x3bf1940f	0.0073723863
131	0x3d19f184	0.037583843
132	0x3d1bdda3	0.038053166
133	0x3ab5ede7	0.0013880105
134	0x3c7bbfea	0.01536558
135	0x3b41e39b	0.0029585126
136	0xbb43d0ff	-0.002987921
137	0xbc4037ab	-0.011732022
138	0xbc1dbf8d	-0.009628189
139	0xbcb50728	-0.022098139
140	0xbc86e203	-0.016465193
141	0x3c816135	0.015793422
142	0xbd07d51d	-0.033162225
143	0xbcc98a1f	-0.024601994
144	0x3cb1fc28	0.021726683
145	0x3cff7d83	0.031187778
146	0x3d1a27fa	0.03763578
147	0xbc0218df	-0.0079405
148	0x3b4fbfc2	0.003169999
149	0x3c815a67	0.015790178
150	0x3c2394e0	0.009984225
151	0x3c5eec72	0.013606178
152	0x3d153d4b	0.036435407
153	0xbbfb38b8	-0.0076666735
154	0x3ca4e71e	0.020129737
155	0x3d5c710a	0.05381874
156	0x3b427132	0.002966952
157	0x3c495cb8	0.012290172
158	0xbce77251	-0.028252752
159	0x3b80098f	0.0039073895
160	0x3cdb081e	0.026737269
161	0x3b94933d	0.0045341537
162	0xbab10418	-0.0013505248
163	0xbd1fd194	-0.03901823
164	0xbcfb7f97	-0.030700488
165	0xbccd1784	-0.025035627
166	0xbd2c4331	-0.042056266
167	0xbd50389b	-0.050835233
168	0x3c099e28	0.008399524
169	0x3cf7348f	0.03017643
170	0x3db046d3	0.08607259
171	0xbca24cf2	-0.019812081
172	0xbca8a79e	-0.020587739
173	0x3d552daa	0.0520455
174	0x3b425d83	0.0029657788
175	0x3d0cc70b	0.03436951
176	0x3d609776	0.054831944
177	0x3cfd56f8	0.030925259
178	0x3c594c64	0.013262842
179	0xbba7317b	-0.005102334
180	0xbcffb2f5	-0.031213263
181	0x3c225bd2	0.009909587
182	0xbcf9851b	-0.030458977
183	0x3cb256cc	0.021769904
184	0xbcaaeecb	-0.020865818
185	0x3c062dd2	0.008189635
186	0x3ccc31a8	0.024926022
187	0xbd74dd25	-0.059781212
188	0xbd72e957	-0.05930456
189	0xbc25b74e	-0.010114504
190	0xbca7767c	-0.02044224
191	0xbcf9d5c8	-0.030497447
192	0x3c0288ae	0.007967157
193	0xbc76dd90	-0.015067473
194	0x3d0f7bb0	0.035030067
195	0x3da0941f	0.07840752
196	0x3cf53038	0.029930219
197	0x3d0f3e02	0.034971245
198	0x3d549ea6	0.05190911
199	0x3c9fa4ef	0.019487826
200	0x3d92c4b4	0.071664244
201	0x3d5e3cfa	0.05425737
202	0x3d48d4fc	0.049031243
203	0x3d830b2a	0.06398614
204	0x3c9b4d97	0.018957896
205	0x3cbe28af	0.023212759
206	0x3cbd9410	0.02314189
207	0x3d6560e6	0.056000613
208	0xbcdc2308	-0.026872173
209	0x3c76c03e	0.015060483
210	0xbb4e454a	-0.0031474405
211	0xbd00567b	-0.031332474
212	0xbd1fb2b1	-0.038988773
213	0xbc9382e4	-0.01800675
214	0xbd8c2926	-0.06843786
215	0xbd9561ae	-0.072940215
216	0x3c863f2a	0.01638754
217	0xbd1f6917	-0.03891858
218	0x3d1c32c9	0.03813437
219	0xbcff1aad	-0.03114065
220	0x3cdc7885	0.026912937
221	0x3d492c93	0.049114775
222	0xbcd9614b	-0.02653565
223	0x3c5aaf27	0.013347424
224	0x3da5aa85	0.08089165
225	0x3c0a51a5	0.008442317
226	0xb9a70706	-0.00031857955
227	0x3d831a50	0.06401503
228	0x3c991d50	0.018690735
229	0x3b9afc7f	0.004729807
230	0x3bc0e397	0.005886506
231	0xbcc0f7d9	-0.023555683
232	0xbc8c9cc8	-0.017164603
233	0x3c13e7d6	0.009027442
234	0xbbf39618	-0.007433664
235	0xbc8b6954	-0.017017998
236	0xbcd2e0ba	-0.025741924
237	0xbcf0f794	-0.02941493
238	0x3b753fd7	0.0037422085
239	0xbd479526	-0.048726223
240	0xba38835d	-0.00070386176
241	0x3d0daa8d	0.034586478
242	0xbdf0c1df	-0.11755728
243	0x3d684101	0.056702618
244	0x3d090fef	0.03346246
245	0xbe2fbe9e	-0.17162558
246	0x3dc8e1fa	0.098087266
247	0x3dba0390	0.09082711
248	0xbd4fa3c4	-0.05069329
249	0x3d8ed339	0.06973881
250	0x3d914ddd	0.07094929
251	0x3c748492	0.014924185
252	0x3d8a2273	0.06744852
253	0x3d05d50a	0.032673873
254	0xbbaa519c	-0.005197717
255	0x3ccd838f	0.025087146

fc1.bias f4 [128]
0	0x3bac42a0	0.0052569658
1	0x3d26dcba	0.040737845
2	0x3c93d8a2	0.018047635
3	0x3c2419e6	0.01001594
4	0x3bb120be	0.0054055145
5	0xbd41f191	-0.047349516
6	0xbc9738c8	-0.018459693
7	0xbd218c2f	-0.03944033
8	0x3d17fa41	0.037103895
9	0x3babb2f8	0.0052398406
10	0x3cd4c2ce	0.025971796
11	0xbb5ebe77	-0.0033988038
12	0xbd3577fe	-0.044303887
13	0xbd41443d	-0.047184218
14	0x3c4d858f	0.01254405
15	0xba28db6f	-0.00064413896
16	0xbcbec815	-0.023288766
17	0xbd156c1a	-0.036480047
18	0x3cfc205e	0.030777153
19	0x3d397b9b	0.045283895
20	0xbce24bdb	-0.027624061
21	0x3cfbe698	0.030749604
22	0x3d3e0434	0.046390727
23	0xbbca05a9	-0.0061652255
24	0x3c48af0a	0.012248764
25	0x3c63a31f	0.013893872
26	0xbd3c0ee9	-0.045912657
27	0x3d21f3f5	0.039539296
28	0xbcf8db10	-0.030377895
29	0x3d207ce6	0.039181612
30	0x3d339412	0.043842383
31	0xbd04a5b8	-0.032384604
32	0x3d012405	0.03152849
33	0xbd199627	-0.037496712
34	0xbcf140a1	-0.029449763
35	0xbd68ab48	-0.05680397
36	0x3bc8dfae	0.0061301803
37	0x3cbe8455	0.02325646
38	0x3b7dc033	0.0038719296
39	0xbd798990	-0.060922205
40	0xbd22f79f	-0.03978693
41	0x3c0cb165	0.008587216
42	0xbccaeae5	-0.02477021
43	0xbcd134ab	-0.02553781
44	0x3c89f824	0.016841955
45	0xbcc4b3ac	-0.024011455
46	0x3cfdf8bc	0.031002395
47	0x3c2acdbd	0.010425028
48	0xbd0eecda	-0.034893848
49	0xbd3515e6	-0.044210337
50	0xbd2b0a5e	-0.041757934
51	0x3cc03333	0.023461914
52	0xbc91e312	-0.01780847
53	0x3d98c4bc	0.07459399
54	0x3aab9333	0.0013090133
55	0x3c9fa65b	0.019488504
56	0x3d10f273	0.035387468
57	0x3d413a1d	0.04717456
58	0x3bbc3890	0.0057440475
59	0xbd47d898	-0.048790544
60	0x3cf57887	0.029964698
61	0x3bade302	0.0053066025
62	0xbd0fb5a9	-0.035085354
63	0xbcc6d915	-0.024273435
64	0xbb8defbc	-0.004331557
65	0x3bcb6105	0.006206634
66	0x3d40b374	0.04704614
67	0x3c8c98d2	0.017162714
68	0x3bd4a80f	0.0064897607
69	0x3c53079f	0.012880235
70	0xbb1f37f0	-0.0024294816
71	0xbc8ca22a	-0.01716717
72	0x3d3b22f2	0.045687623
73	0xbc882302	-0.016618256
74	0x3d853bd7	0.06505554
75	0xb97b8569	-0.00023986924
76	0xbbd7127f	-0.006563484
77	0xbd1a4b57	-0.037669506
78	0x3ca98a8b	0.020695945
79	0x3ce8d9f0	0.028424233
80	0xbc3a1dcc	-0.011359643
81	0xbd08a2ef	-0.03335851
82	0xba816af8	-0.0009873798
83	0xbb0b7abe	-0.0021282877
84	0x3ae69b55	0.00175939
85	0x3ca34b49	0.01993336
86	0x3cc0810f	0.02349904
87	0x3d38929f	0.045061704
88	0x3d915d05	0.0709782
89	0xbd194622	-0.0374204
90	0xbc3f9eb9	-0.011695557
91	0xbce183ed	-0.027528727
92	0xbd1bb2d9	-0.03801236
93	0xbc299b86	-0.010352021
94	0xbc0ab71e	-0.00846651
95	0xbd379c7b	-0.044826966
96	0xbc8d2ca8	-0.017233208
97	0x3d487a41	0.048944715
98	0x3d3ad9f9	0.04561803
99	0x3d197034	0.03746052
100	0x3d57a343	0.052645933
101	0xbbf2868c	-0.007401293
102	0xbbca9f55	-0.0061835446
103	0x3c8b397a	0.01699518
104	0x3c196a35	0.009363701
105	0xbca43420	-0.020044386
106	0xbd19642e	-0.037449054
107	0x3b4dd36f	0.0031406542
108	0x3c849786	0.016185533
109	0x3c848bd7	0.016179962
110	0x3be5f01b	0.007017148
111	0xbd2b0232	-0.04175014
112	0x3cb34a19	0.021885918
113	0xbd280a07	-0.041025188
114	0x3d8511d1	0.06497539
115	0xbcaee78a	-0.02135064
116	0x3c8925d0	0.016741663
117	0xbd73026d	-0.059328485
118	0xbcdcff62	-0.026977245
119	0xbb16931f	-0.0022975875
120	0xbbb0e19c	-0.0053979885
121	0x3c8baeaa	0.01705106
122	0xbcc7c0a5	-0.024383852
123	0xbca71b49	-0.020398753
124	0xbbb2e3b6	-0.005459274
125	0xbcddda4d	-0.027081633
126	0x3d55bd3e	0.05218243
127	0x3ca64776	0.020297747

fc2.weight f4 [128, 128]
0	0x3d2fac02	0.04288865
1	0xbd2c590f	-0.04207712
2	0x3db898fb	0.09013554
3	0xbd6f8aa0	-0.058481812
4	0xbd3bf5b4	-0.045888618
5	0xbcf8779d	-0.030330474
6	0xbd3c0a44	-0.045908228
7	0xbd401e05	-0.04690363
8	0x3dbcae08	0.09212881
9	0xbcc30b9c	-0.023809247
10	0x3dd7d2d8	0.10538262
11	0xbd8b98ae	-0.06816231
12	0x3da6c2eb	0.081426464
13	0x3d803177	0.06259435
14	0x3d4f8a2d	0.050668884
15	0x3cde8bef	0.027166335
16	0xbd02fd82	-0.031980045
17	0xbd1a2c1d	-0.037639726
18	0x3cac501d	0.021034295
19	0x3dae7e74	0.08520213
20	0x3ce72554	0.028216042
21	0x3df13d88	0.11779314
22	0xbd18cc84	-0.037304416
23	0xbdaaf153	-0.0834681
24	0x3d9cf2a4	0.076634675
25	0x3c82885c	0.015934162
26	0x3d9ac28f	0.0755664
27	0x3cd7eb3a	0.026357282
28	0xbd30ef62	-0.043197043
29	0x3d718502	0.058964737
30	0x3db768df	0.089555494
31	0xbd8ebfe6	-0.069701955
32	0xbd00124f	-0.03126746
33	0x3ca4062a	0.02002247
34	0x3ca2fd84	0.019896276
35	0x3d3b4537	0.045720305
36	0x3dbc2c5a	0.09188147
37	0xbe30ebc9	-0.17277445
38	0xbca83572	-0.020533297
39	0xbdb4b48c	-0.08823499
40	0xbce67817	-0.028133435
41	0x3d1f51f6	0.038896523
42	0x3cb8c292	0.022553716
43	0x3d700ccf	0.058605965
44	0xbd12b8d3	-0.035820793
45	0x3ccbb727	0.024867607
46	0x3cb9d3ea	0.022684056
47	0x3d8a06b4	0.0673956
48	0x3d96eead	0.073697425
49	0x3d9f4939	0.07777638
50	0x3d147f1e	0.03625404
51	0xbd391665	-0.045187373
52	0xbcbc57c9	-0.022991078
53	0xba8c7c70	-0.0010718238
54	0xbcf41838	-0.029796705
55	0xbbbc864e	-0.005753315
56	0xbd779e4b	-0.060453694
57	0x3df9f443	0.12204792
58	0x3c73d694	0.014882702
59	0xbd0adf26	-0.033904217
60	0xbc2b5959	-0.010458314
61	0x3d052a51	0.03251106
62	0xbd66bf37	-0.0563347
63	0x3c860af0	0.016362637
64	0x3d19c657	0.037542667
65	0xbd2fde10	-0.042936385
66	0xbb01e5da	-0.001982084
67	0xbd198d4b	-0.037488263
68	0x3d86a60c	0.0657464
69	0x3cd2093d	0.02563917
70	0xbcb621c1	-0.022232892
71	0x3da75ca5	0.081719674
72	0x3dd3bbbd	0.103385426
73	0x3c372076	0.011177173
74	0xbdc604d2	-0.09668888
75	0xbd5c73b8	-0.053821295
76	0xbd701a78	-0.058618993
77	0x3d261562	0.040547736
78	0x3d5969e7	0.053079512
79	0x3ceac1ad	0.028656805
80	0x3ca0b373	0.019616818
81	0xbd4e0347	-0.050296094
82	0x3cf18407	0.0294819
83	0xbdaf0794	-0.08546367
84	0xbda8770f	-0.082258336
85	0x3bfd7483	0.0077348365
86	0x3cb63780	0.022243261
87	0x3b3785b2	0.0028003273
88	0xbd0a9168	-0.033830076
89	0x3dc88ed7	0.097928695
90	0xbcf7e166	-0.030258846
91	0x3dae54d7	0.08512276
92	0xbd172f84	-0.03691055
93	0x3d9e19ea	0.077197865
94	0xbcac0bb0	-0.021001667
95	0x3d4e3dfa	0.050352074
96	0xbce8fcf5	-0.028440932
97	0xbd70e14f	-0.05880862
98	0x3d7d74cc	0.061878964
99	0x3dbcae81	0.092129715
100	0xbe1f5975	-0.15561469
101	0xbcd29a38	-0.025708303
102	0xbd41294f	-0.047158536
103	0x3d9f2ada	0.07771845
104	0xbca3567b	-0.019938698
105	0xbd65c154	-0.056092575
106	0x3c674a80	0.014116883
107	0xbc080a47	-0.008303232
108	0xbcf1128a	-0.029427785
109	0xbdd79bfc	-0.105277985
110	0x3b3e42a0	0.002903141
111	0xbaaab32a	-0.0013023366
112	0xbd63db99	-0.055629347
113	0x3d00921e	0.03138935
114	0x3d23427f	0.039858337
115	0xbda230a4	-0.07919434
116	0x3d8c6298	0.06854743
117	0xbd9da9b3	-0.07698383
118	0xba58c183	-0.00082685816
119	0xbd02e060	-0.031952262
120	0xbd221999	-0.039575193
121	0x3d932486	0.07184701
122	0x3d9bb9dd	0.0760381
123	0x3d8dcf85	0.06924347
124	0x3d9954d1	0.074868806
125	0xbd33c422	-0.04388822
126	0xbc07f267	-0.008297539
127	0x3d011442	0.03151346
128	0x3d759016	0.059951864
129	0x3d8af8aa	0.0678571
130	0x3df9f0ee	0.12204157
131	0x3d082269	0.03323594
132	0xbaa03205	-0.0012221938
133	0x3cfba931	0.030720325
134	0xbd278d46	-0.040906213
135	0x3d1fc171	0.03900284
136	0xbcd78457	-0.026308222
137	0x39b1ab00	0.00033887476
138	0xbcb36194	-0.021897115
139	0x3d824020	0.06359887
140	0xbd8b0880	-0.067887306
141	0x3d57d3c9	0.05269221
142	0x3ce7fd8f	0.028319148
143	0xbbb0731b	-0.0053848154
144	0xbcabd850	-0.02097717
145	0x3dd698a1	0.104783304
146	0x3afdb3ba	0.0019355931
147	0x3e2939d7	0.1652597
148	0xbd01540f	-0.031574305
149	0x3b7c219f	0.0038472188
150	0x3dd8cd9f	0.10586094
151	0x3da6f557	0.081522636
152	0x3d77a256	0.06045755
153	0xbcaed5e6	-0.02134223
154	0xbcedd086	-0.029030096
155	0x3dc397f1	0.09550465
156	0x3c9f0f4c	0.019416474
157	0xbcf9e1c9	-0.03050317
158	0x3d805bb4	0.06267491
159	0xbd391c7c	-0.04519318
160	0x3d7f948d	0.06239753
161	0x3dd07bee	0.10179888
162	0x3db4d0e3	0.088289045
163	0x3d89ff9d	0.067382075
164	0x3d7acb00	0.061228752
165	0xbe21a4b6	-0.15785488
166	0x3db3f045	0.08786062
167	0xbd078843	-0.033088934
168	0xbc9cbca2	-0.019132916
169	0x3d0bdb1d	0.03414451
170	0xbcbc9760	-0.0230214
171	0x3c7f48a0	0.01558128
172	0x3bca2804	0.006169321
173	0x3c28d21d	0.010304001
174	0xbcd37fff	-0.02581787
175	0x3db1f0fd	0.08688543
176	0x3da828e5	0.08210925
177	0x3d51e91a	0.051247694
178	0xbd23b394	-0.03996618
179	0xbdd360ba	-0.103211835
180	0x3d07cc80	0.03315401
181	0xbd0cdd18	-0.03439054
182	0xbd9bd1d0	-0.07608378
183	0x3d0f7ce3	0.03503121
184	0xbdb7155d	-0.089396216
185	0x3e0a8b3f	0.1352968
186	0xbd83d350	-0.06436789
187	0xbd35c1d6	-0.04437431
188	0x3b842c82	0.004033626
189	0xbcd9ca80	-0.026585817
190	0x3c7a94f1	0.015294299
191	0x3d224cb2	0.039623924
192	0x3db3de43	0.087826274
193	0x3d96cb7b	0.073630296
194	0x3e19a57a	0.1500453
195	0xbd8eb4a8	-0.06968051
196	0xbd1c0021	-0.03808606
197	0x3d2a55dc	0.041585788
198	0x3d368526	0.044560574
199	0x3cff534d	0.03116765
200	0xbd0106f5	-0.031500775
201	0x3c08fe94	0.008361477
202	0xbdf036ea	-0.11729224
203	0xbcd340aa	-0.02578767
204	0xbdada702	-0.0847912
205	0xbc259dc1	-0.010108412
206	0xbd365505	-0.044514675
207	0xbcac6a93	-0.021046912
208	0x3d59de9e	0.05319082
209	0x3dc76bac	0.09737334
210	0xbd828838	-0.06373638
211	0xba05e880	-0.00051081926
212	0x3a31ad37	0.0006777825
213	0xbc890931	-0.016728016
214	0x3a389a5a	0.0007042043
215	0x3d6b57b5	0.05745669
216	0x3c96f0b5	0.018425325
217	0xbd83938a	-0.06424625
218	0xbd8d042d	-0.06885562
219	0x3d517ddb	0.051145416
220	0xbd99f6fd	-0.075178124
221	0xbdb35f62	-0.08758427
222	0x3d2939a2	0.04131473
223	0xbc889b36	-0.016675573
224	0x3d9838db	0.07432719
225	0x3d8f50e2	0.06997849
226	0x3d46df54	0.048552826
227	0xbccce932	-0.02501354
228	0xbe096cc8	-0.13420403
229	0x3d9aa0c3	0.07550194
230	0x3cf20c05	0.029546747
231	0x3d0f9f3f	0.03506398
232	0x3d5b682a	0.053566135
233	0xbb941730	-0.0045193657
234	0x3df2d9f0	0.118579745
235	0x3ca100c4	0.019653685
236	0xbdac4b81	-0.08412839
237	0x3dde6ebf	0.10860967
238	0x3c0dea7f	0.008661865
239	0x3d27765d	0.040884364
240	0xbceef2b8	-0.029168472
241	0xbc8f98a7	-0.017528845
242	0x3cc37f7a	0.023864496
243	0xbc4a8bf8	-0.012362473
244	0xbca3a2ac	-0.019975029
245	0x3d8e155c	0.06937668
246	0xbd9e16c4	-0.07719186
247	0xbd8ef7c8	-0.06980854
248	0xbd75adb0	-0.059980094
249	0xba8ea5c0	-0.0010883138
250	0x3d8bece0	0.0683229
251	0x3b8cb630	0.0042941794
252	0xba547adc	-0.00081054657
253	0xbc8c0954	-0.017094292
254	0x3d494fff	0.049148556
255	0x3da897a1	0.08232046

fc2.bias f4 [128]
0	0x3e59c0c5	0.21264942
1	0x3dffb11d	0.124849536
2	0x3e06663b	0.13124935
3	0x3dd2bb4b	0.102896295
4	0x3e0c60f0	0.13708854
5	0x3e5bb892	0.21457127
6	0x3e363c4a	0.17796436
7	0x3e53c087	0.20678912
8	0x3db540ce	0.08850251
9	0x3e221302	0.15827563
10	0x3f3f88f7	0.74818367
11	0x3e21820b	0.15772264
12	0x3e3832d5	0.17988141
13	0x3e8451c6	0.25843638
14	0x3def4e7c	0.116848916
15	0x3e62f171	0.22162415
16	0x3d5f4fc0	0.054519415
17	0x3cc1ab68	0.023641303
18	0x3e559f98	0.20861661
19	0x3e1b2f11	0.15154673
20	0x3df01961	0.11723591
21	0x3d9df3f9	0.0771255
22	0x3dccbc34	0.099968344
23	0x3dc0771a	0.09397717
24	0x3ddfaac8	0.10921246
25	0x3e45f4d8	0.19331682
26	0x3d9e4cb3	0.07729473
27	0x3da7e547	0.08198028
28	0x3dca0f10	0.09866154
29	0x3e2ae143	0.16687493
30	0x3e3f447e	0.18678471
31	0x3da47a62	0.08031155
32	0x3e1e5ed2	0.15465859
33	0x3e28a9e2	0.16471055
34	0x3e0e1229	0.13874115
35	0x3dc4d0f0	0.09610164
36	0x3cecc8c3	0.028904324
37	0x3e02982d	0.12753363
38	0x3f36f1c2	0.71462643
39	0x3e407833	0.18795852
40	0x3e0ef3fe	0.13960263
41	0x3e53148b	0.20613305
42	0x3d879196	0.06619565
43	0x3d364a06	0.044504188
44	0x3e10523c	0.1409387
45	0x3daeea1e	0.08540748
46	0x3e1100ba	0.14160433
47	0x3de64e91	0.11245454
48	0x3f03a1d2	0.51418793
49	0x3dce944c	0.10086879
50	0x3da26b25	0.079305924
51	0x3e412c17	0.18864475
52	0x3d64abdf	0.05582797
53	0x3e00247a	0.12513915
54	0x3e133cd4	0.14378673
55	0x3e4ac539	0.19801797
56	0x3e010466	0.12599334
57	0x3de7e57d	0.11323068
58	0x3e3f9624	0.18709618
59	0x3d00a0a9	0.031403217
60	0x3de42acf	0.111409776
61	0x3e8cb161	0.2747908
62	0x3e0d4321	0.13795139
63	0x3f28d2aa	0.6594645
64	0x3de235a9	0.11045391
65	0x3e45a073	0.19299488
66	0x3e5696a0	0.20955896
67	0x3e314e5d	0.1731505
68	0x3dee27cb	0.11628684
69	0x3e425a79	0.18979825
70	0x3e42dd36	0.19029698
71	0x3dbfdbba	0.093680814
72	0x3e7f979b	0.24960177
73	0x3e44eba2	0.19230512
74	0x3d93c318	0.072149456
75	0x3e0079c2	0.12546447
76	0x3c46df79	0.012138241
77	0x3e2022ed	0.15638323
78	0x3e6794e1	0.22615387
79	0x3d5a4e67	0.053297427
80	0x3e33b6e9	0.17550243
81	0x3e3a84ba	0.18214694
82	0x3d8faccf	0.070153825
83	0x3e582d8a	0.21111122
84	0x3e628379	0.22120465
85	0x3e07c3ec	0.13258332
86	0x3d29f7b4	0.041495994
87	0x3cebb05e	0.028770622
88	0x3e4a2153	0.19739275
89	0x3e64d969	0.2234856
90	0x3e306f8b	0.1723005
91	0x3e3f6067	0.18689118
92	0x3dc9173f	0.09818887
93	0x3dcc830b	0.09985932
94	0x3dc8cfef	0.09805285
95	0x3e6c8cc7	0.23100577
96	0x3e2435bc	0.16036123
97	0x3df5f72c	0.12010035
98	0x3e6322b1	0.22181202
99	0x3e8bacff	0.27280423
100	0x3de34bcd	0.11098442
101	0x3e3b0cc4	0.18266588
102	0x3e7d5f8d	0.24743481
103	0x3e1b21f7	0.15149675
104	0x3e250034	0.16113359
105	0x3dc59986	0.09648423
106	0x3e51d36c	0.20490807
107	0x3e030eb1	0.12798573
108	0x3e23a646	0.15981397
109	0x3ddd90c0	0.108186245
110	0x3e0ad748	0.13558686
111	0x3db6a1db	0.0891759
112	0x3e395e72	0.18102434
113	0x3dd79ffb	0.10528561
114	0x3e8763d6	0.26443356
115	0x3df4de63	0.119564794
116	0x3e09f3d5	0.13471921
117	0x3e8b1fb4	0.27172625
118	0x3dce3e2d	0.10070453
119	0x3dac0454	0.08399263
120	0x3e5c03b0	0.21485782
121	0x3e282012	0.16418484
122	0x3e655044	0.223939
123	0x3e3a3e36	0.18187794
124	0x3dc86072	0.097840205
125	0x3e5029e0	0.20328474
126	0x3e0937db	0.13400213
127	0x3df9fd96	0.12206571

fc3.weight f4 [128, 128]
0	0xbd3c2762	-0.045935996
1	0x3db5cb7e	0.08876704
2	0x3d071e9b	0.032988172
3	0x3d0a0b8d	0.033702422
4	0xbcb4248e	-0.021990087
5	0x3d364b0e	0.04450517
6	0xbca511b1	-0.020150037
7	0x3cb72e72	0.022361014
8	0x3c1f2c31	0.009715126
9	0x3d936867	0.071976475
10	0xbc47e0db	-0.012199606
11	0xbd623f7f	-0.055236336
12	0x3d8d489d	0.068986155
13	0xbdf5dee3	-0.12005403
14	0x3c99573c	0.018718354
15	0xbdbb7e80	-0.09154987
16	0x3d9d9912	0.076952115
17	0x3e026cc8	0.12736809
18	0x3cab6290	0.020921022
19	0xbd699b58	-0.057032913
20	0xbc3e09f2	-0.011599051
21	0x3d379c01	0.04482651
22	0x3df3c1e5	0.11902217
23	0x3e00158d	0.12508221
24	0xbe1e57af	-0.15463136
25	0x3c153351	0.009106473
26	0x3d909f69	0.07061655
27	0xbd0d6025	-0.03451552
28	0x3d585c38	0.05282232
29	0xbca58e19	-0.020209359
30	0xbbdc2f69	-0.006719519
31	0x3c715335	0.014729311
32	0xbd9f4d07	-0.07778364
33	0xbd8a6895	-0.06758229
34	0x3d7ae0ca	0.06124953
35	0x3db7f5f0	0.08982456
36	0x3c813c90	0.015775949
37	0xbe1d63cc	-0.153701
38	0xbdf718d8	-0.120652854
39	0x3de91f90	0.11382973
40	0x3db777c6	0.08958392
41	0xbd06913f	-0.03285336
42	0x3c88353e	0.01662695
43	0x3df56ae6	0.1198328
44	0xb9ee0266	-0.00045396684
45	0xbdeadfea	-0.114684895
46	0xbcdea08f	-0.02717617
47	0x3d1f6a05	0.038919467
48	0xbc756c16	-0.014979383
49	0xbd2c23e2	-0.042026408
50	0x3dacd530	0.084391
51	0x3d726ac1	0.05918384
52	0x3ce09d43	0.027418738
53	0x3d1c1189	0.03810266
54	0xbd946a82	-0.07246877
55	0x3d33c3f9	0.043888066
56	0x3dd31685	0.1030703
57	0x3d9ded19	0.077112384
58	0xbd3006bd	-0.042975176
59	0xbcf91348	-0.030404702
60	0xbe0ee6f0	-0.13955283
61	0xbd9411d8	-0.07229966
62	0xbd4af690	-0.049551547
63	0xbe9162f6	-0.28395814
64	0xbdc6c78b	-0.097060286
65	0xbd54c9c9	-0.05195025
66	0xbd106a57	-0.035257664
67	0xbcabfadb	-0.02099364
68	0xbdbd85a9	-0.09254009
69	0xbe199476	-0.1499804
70	0xbe1f45ce	-0.15553972
71	0x3d9d56b6	0.076825544
72	0x3d9b0b5d	0.07570527
73	0x3c85a2e2	0.01631302
74	0xbcd79c67	-0.026319696
75	0xbcd287a1	-0.025699439
76	0x3df1f6b8	0.11814636
77	0xbdda4891	-0.10658372
78	0x3d076b81	0.033061508
79	0x3db2975f	0.08720278
80	0xbd0e81cf	-0.034791764
81	0xbd05bf29	-0.032653008
82	0x3cff323e	0.031151887
83	0x3d300513	0.04297359
84	0x3e2774ae	0.16353104
85	0xbe16009c	-0.1464867
86	0x3d38b226	0.04509177
87	0x3dcce3f8	0.10004419
88	0xbd0b0a5a	-0.03394542
89	0xbdd4f3a4	-0.10398033
90	0x3c53d534	0.01292925
91	0xbdcfa351	-0.10138572
92	0x3cba7365	0.022760103
93	0xbdd6c477	-0.104866914
94	0xbe0f2627	-0.13979398
95	0xbdbfd79b	-0.09367295
96	0x3d9eb0ab	0.077485405
97	0x3da611bc	0.08108851
98	0x3d73e4f4	0.05954452
99	0x3dfdd5b7	0.123942785
100	0x3da87906	0.082262084
101	0xbd36bd28	-0.044613987
102	0x3c0f8c80	0.008761525
103	0x3cd4d0eb	0.025978526
104	0xbdcd1973	-0.1001462
105	0xbd8e6d90	-0.06954491
106	0xbcaaa747	-0.020831717
107	0xbd2f6f83	-0.042830955
108	0xbdd2c3bd	-0.1029124
109	0xbd318848	-0.04334286
110	0x3dea138f	0.11429512
111	0x3d659cd2	0.05605776
112	0xbddab421	-0.10678888
113	0xbcf9b469	-0.030481534
114	0x3e0e1991	0.1387694
115	0xba938d54	-0.0011257329
116	0x3a81b6fa	0.000989645
117	0x3dc1a9d4	0.0945622
118	0xbd44ae5b	-0.04801784
119	0x3cf66dc5	0.030081639
120	0xbd8c584c	-0.06852779
121	0x3ca6d70c	0.020366214
122	0x3cb472b1	0.022027345
123	0xbcea1f13	-0.02857927
124	0x3ce60724	0.028079577
125	0xbd30058e	-0.042974047
126	0xbe0b826b	-0.1362397
127	0xbd244468	-0.0401043
128	0x3cd88ac4	0.026433356
129	0x3d15939b	0.03651772
130	0x3d7ba87d	0.06143998
131	0x3cdc253f	0.02687323
132	0x3d513304	0.051074043
133	0x3ddced10	0.107874036
134	0x3dcb747f	0.09934329
135	0x3dd5d264	0.104405195
136	0xbce91c75	-0.028455952
137	0x3df47bd3	0.1193768
138	0xbe55baf9	-0.20872106
139	0xbd088fcc	-0.03334026
140	0x3d669fac	0.05630462
141	0xbd1617f0	-0.036643922
142	0x3d88ac87	0.06673532
143	0x3da7abde	0.08187078
144	0xbd97e3cb	-0.07416495
145	0x3e046346	0.12928495
146	0x3df28037	0.11840861
147	0xbb2be775	-0.0026230488
148	0x3caf9aea	0.021436173
149	0xbc248b58	-0.010042988
150	0x3d22621f	0.039644357
151	0x3ad541f2	0.0016270264
152	0xbdea7c01	-0.11449433
153	0x3d8f0158	0.06982678
154	0x3ddb7624	0.10715893
155	0xbc04ebe6	-0.008112883
156	0xbdd77c00	-0.10521698
157	0x3cf403f2	0.029787038
158	0x3dd24594	0.10267177
159	0x3d7fc8fa	0.062447526
160	0x3d5af38f	0.05345493
161	0x3d4e4c27	0.050365593
162	0x3d91067b	0.07081314
163	0x3da6ec99	0.08150596
164	0x3d95a586	0.07306962
165	0x3d6b6223	0.057466637
166	0xbe7a9c46	-0.24473676
167	0xbd9b39eb	-0.07579406
168	0xbd5f09c6	-0.05445268
169	0x3d6080d3	0.054810356
170	0xbd0205f9	-0.031743977
171	0x3d83a1ca	0.06427343
172	0x3cccb955	0.024990717
173	0x3d5f6c59	0.054546688
174	0x3ddcc132	0.107790366
175	0xbca6dd1b	-0.020369103
176	0xbd7de6f0	-0.061987817
177	0x3d7c8638	0.06165144
178	0xbc2bd3d5	-0.010487516
179	0x3d801777	0.062544756
180	0x3d0830e1	0.03324974
181	0x3d9f5dbf	0.077815525
182	0x3dc34ef0	0.095365405
183	0x3ce5d528	0.028055742
184	0x3d675d56	0.056485496
185	0xbd0aecf8	-0.033917397
186	0x3dbd0823	0.092300676
187	0x3d07c89e	0.033150308
188	0x3daa47ab	0.08314451
189	0x3db924ff	0.090402596
190	0x3cb914ba	0.022592891
191	0xbe8e192b	-0.27753577
192	0xbd016ff1	-0.031600896
193	0x3d97be3b	0.074093305
194	0x3dc450c5	0.09585718
195	0x3de4b2b3	0.11166897
196	0xbbcb2a26	-0.006200093
197	0x3d9e2268	0.07721406
198	0x3d8efe25	0.06982068
199	0x3d65a5e9	0.056066427
200	0xbac42f98	-0.0014967797
201	0xbcdda54e	-0.027056362
202	0x3d9aae9d	0.07552836
203	0xbc717191	-0.014736549
204	0xbd34008d	-0.043945838
205	0xbc475426	-0.012166059
206	0x3df67269	0.12033541
207	0xbc6396af	-0.013890906
208	0x3d25b8c9	0.040459428
209	0xbca3bb2b	-0.01998671
210	0x3df61ae7	0.1201685
211	0xbc9ea492	-0.019365583
212	0xbd15cd01	-0.03657246
213	0xbb2ab8c5	-0.0026050073
214	0x3d2ef058	0.04270968
215	0x3c88612f	0.016647903
216	0xbcfb18da	-0.030651499
217	0x3d039e01	0.032133106
218	0xbd13ac35	-0.0360529
219	0xbc5e9200	-0.013584614
220	0x3d95ae94	0.07308689
221	0x3c11e54a	0.008904764
222	0xbd08b73f	-0.033377882
223	0x3c4324b5	0.011910607
224	0xbd596c5c	-0.053081855
225	0x3b601c16	0.0034196428
226	0x3d239135	0.039933402
227	0x3d21480e	0.039375357
228	0xbc7ed9c4	-0.015554849
229	0xbca73a90	-0.020413667
230	0x3d86a746	0.065748736
231	0x3cfa3756	0.030543964
232	0xbd30994c	-0.043114945
233	0xbcdbf237	-0.026848895
234	0x3d79ec7e	0.061016552
235	0x3d98ec48	0.07466942
236	0x3cd6073c	0.026126496
237	0xbc3794c3	-0.011204901
238	0x3b4cfcae	0.0031278539
239	0x3dcc9c10	0.09990704
240	0x3ca441a0	0.020050824
241	0xbd8989df	-0.0671575
242	0x3d6d47e3	0.057929885
243	0xbd904fbd	-0.07046459
244	0xbd52b385	-0.051440734
245	0xbcca6d14	-0.024710216
246	0x3d0f48e6	0.03498163
247	0xbce046ed	-0.02737757
248	0x3cac1602	0.021006588
249	0x390d881f	0.00013497517
250	0xbce1b541	-0.027552249
251	0x3da865ed	0.08222566
252	0xbd08fd03	-0.033444416
253	0xbb3a9710	-0.0028471388
254	0x3cf3d872	0.029766295
255	0xbda3cbad	-0.079978324
