models/dqn_model_epoch_48000.pth (torch, 595624 bytes, 14 tensors)

cnn1.weight f4 [16, 4, 5, 5]
0	0xbe476316	-0.19471392
1	0x3d336fe7	0.04380789
2	0xbcd37bc2	-0.025815848
3	0xbe499bc2	-0.19688323
4	0xbe125c76	-0.14293084
5	0xbe4b7e42	-0.19872382
6	0xbe4691a2	-0.19391492
7	0xbe9462fe	-0.28981775
8	0xbd0e9a74	-0.034815267
9	0xbd695409	-0.056964908
10	0xbe8bb78d	-0.27288476
11	0xbe24402c	-0.16040105
12	0xbec1a44e	-0.37820667
13	0xbe15e0cd	-0.14636536
14	0x3d166bca	0.03672389
15	0xbe2a21b6	-0.16614422
16	0xbe5aacaf	-0.21354936
17	0xbd23d38b	-0.039996665
18	0xbe8330b4	-0.25623095
19	0x3c454435	0.012040188
20	0xbe56f939	-0.20993508
21	0xbe81a09f	-0.25317857
22	0xbe4123d9	-0.18861331
23	0x3d889e37	0.06670802
24	0x3cd994f7	0.02656029
25	0xbc704c6f	-0.014666661
26	0xbd0b1377	-0.03395411
27	0xbdc1f250	-0.094700456
28	0xbe1113c1	-0.14167692
29	0x3ce35554	0.027750649
30	0x3d84eed0	0.06490862
31	0xbcdd9e39	-0.027052986
32	0x3cd21f67	0.02564974
33	0xbd885370	-0.066565394
34	0xbd933726	-0.07188253
35	0xbd410401	-0.04712296
36	0xbe0d66fc	-0.13808817
37	0x3c85fbb0	0.016355366
38	0x3e09b1bd	0.13446708
39	0xbce85d5f	-0.028364835
40	0xbdd3fd49	-0.10351045
41	0x3ca7692d	0.020435894
42	0xbdada168	-0.084780514
43	0x3ca6d657	0.020365877
44	0xbe040017	-0.1289066
45	0xbd021520	-0.031758428
46	0x3d99b246	0.07504706
47	0xbd2a403a	-0.041565157
48	0xbd87eb09	-0.06636626
49	0xbdb26ef1	-0.08712567
50	0x3da9f3b7	0.08298438
51	0xbc27a7c8	-0.010232873
52	0xbe071245	-0.13190563
53	0xbe52af6b	-0.20574729
54	0xbcd45a2c	-0.025921904
55	0xbcc79232	-0.024361704
56	0xbdb31f27	-0.08746176
57	0x3e3725d0	0.17885518
58	0x3d4b02ae	0.049563102
59	0xbe1df4c5	-0.15425403
60	0x3e6a7303	0.22895436
61	0x3e6df26c	0.23237008
62	0x3e037474	0.12837392
63	0x3cf56a0d	0.029957796
64	0xbe576c99	-0.2103752
65	0xbe90c81c	-0.2827767
66	0x3e21d48b	0.15803735
67	0x3e90b3cf	0.28262183
68	0xbe05f342	-0.13081077
69	0xbe2aa07f	-0.16662787
70	0xbe24036e	-0.16016933
71	0xbc83c6bf	-0.01608598
72	0x3ea2f468	0.31827092
73	0xbe06dc8d	-0.13170071
74	0xbe1c34d0	-0.15254521
75	0xbdbf9208	-0.09354025
76	0xbe7a56a8	-0.24447119
77	0xbdb8862c	-0.09009966
78	0xbba7c5a3	-0.0051199957
79	0xbd87cce6	-0.06630878
80	0xbd2b6489	-0.041843925
81	0x3de1a9d9	0.11018724
82	0x3e1849a4	0.14871842
83	0xbdc0f093	-0.09420886
84	0x3d09e34c	0.033664033
85	0xbe26f05b	-0.16302626
86	0x3d9624e9	0.07331259
87	0x3da52ab8	0.080647886
88	0xbdbf976a	-0.09355052
89	0xbda8e209	-0.08246238
90	0xbe038cd0	-0.12846684
91	0xbbbc8ca8	-0.005754072
92	0x3d98a357	0.074530296
93	0xbcc8d520	-0.024515688
94	0xbdf2bdf8	-0.1185264
95	0x3db901d0	0.09033549
96	0x3df1d237	0.118076734
97	0xbe3a762d	-0.18209143
98	0xbd8f8e29	-0.07009537
99	0xbd751574	-0.059834912
100	0xbdf2f10f	-0.118623845
101	0xbe859516	-0.26090306
102	0xbe352a7f	-0.17691992
103	0x3d0b600e	0.03402715
104	0xbe678e01	-0.22612764
105	0xbe014271	-0.12623002
106	0xbda7cc44	-0.081932575
107	0xbb94cac8	-0.004540775
108	0x39bf4fa6	0.00036489702
109	0x3bae0946	0.005311164
110	0xbe0c102b	-0.13678043
111	0xbd4384d5	-0.0477341
112	0x3c8a4ae4	0.016881414
113	0xbd7b39fd	-0.0613346
114	0xbd7ceb43	-0.0617478
115	0xbe1f71de	-0.1557078
116	0xbe67ea36	-0.22647938
117	0xbe33e802	-0.17568973
118	0xbebd8aad	-0.37019864
119	0xbd6e1aee	-0.05813115
120	0xbe840739	-0.2578676
121	0xbe62ae4a	-0.22136799
122	0xbdc56b42	-0.096395984
123	0xbd8fa99a	-0.07014771
124	0xbdffd3eb	-0.12491592
125	0xbd3a38fb	-0.045464497
126	0x3dab19f2	0.08354558
127	0xbd6ad71f	-0.05733406
128	0x3d10e28b	0.0353723
129	0xbe06aad5	-0.13151105
130	0xbc82dd21	-0.015974583
131	0xbd1dab7c	-0.03849362
132	0xbdde00a0	-0.10839963
133	0x3cbd813c	0.023132913
134	0xbb301eaa	-0.0026873746
135	0xbca62574	-0.02028153
136	0xbd4d4c32	-0.050121494
137	0xbe1220a6	-0.14270267
138	0xbd463ce5	-0.048397917
139	0xbcd2c46d	-0.025728429
140	0xbe0b912b	-0.13629596
141	0xbccb497c	-0.024815314
142	0x3d514712	0.05109317
143	0xbd47b598	-0.048757166
144	0xbdda7cfc	-0.1066837
145	0xbb1faa14	-0.002436285
146	0x3d063143	0.032761823
147	0xbd8c8fd5	-0.06863371
148	0x3dd4926c	0.1037949
149	0xbde8a1f2	-0.113590136
150	0xbe42dae5	-0.19028814
151	0x3e2f1393	0.1709731
152	0xbd5f45b6	-0.05450984
153	0x3e1cb751	0.15304305
154	0xbe17574c	-0.14779395
155	0xbe3eeec6	-0.18645772
156	0x3e3836c1	0.17989637
157	0xbe5116fe	-0.20418927
158	0x3da7b54c	0.081888765
159	0xbe20cae4	-0.15702397
160	0xbe8bde7b	-0.27318177
161	0xbe802fc9	-0.25036457
162	0x3db55d28	0.08855659
163	0x3dc62013	0.096740864
164	0xbe576513	-0.2103465
165	0xbe7c493b	-0.2463731
166	0xbe0cc57c	-0.1374721
167	0x3e849d15	0.25901094
168	0xbe4199a7	-0.1890627
169	0xbe6eda70	-0.23325515
170	0x3ec6ca1b	0.3882607
171	0x3e97fde3	0.29685888
172	0x3ed38842	0.41314894
173	0xbd66e489	-0.05637029
174	0xbe297b70	-0.16550994
175	0x3e541289	0.20710196
176	0x3e089fc9	0.13342203
177	0x3e72f31d	0.23725553
178	0xbc8d9f90	-0.017288
179	0xbda87bf8	-0.0822677
180	0x3defa047	0.11700492
181	0xbdf4ee09	-0.11959464
182	0x3e1bbf05	0.15209587
183	0xbe0443f7	-0.12916552
184	0xbde0c840	-0.10975695
185	0xbe288112	-0.16455486
186	0x3dbdb9ca	0.09263952
187	0x3d815238	0.0631451
188	0xbda64869	-0.0811928
189	0xbe1ccba3	-0.15312056
190	0xbe2b26fe	-0.16714093
191	0xbceb8e19	-0.02875428
192	0xbdabc644	-0.083874255
193	0xbe002a0e	-0.12516043
194	0xbd254542	-0.040349253
195	0xbe0a0443	-0.13478188
196	0xbdf1b49c	-0.11802027
197	0x3e3b59b1	0.18295933
198	0xbe03257d	-0.1280727
199	0xbe0e90af	-0.1392238
200	0xbe990670	-0.29887724
201	0xbd9942ba	-0.0748343
202	0xbeb0942d	-0.3448805
203	0x3d46b4d0	0.04851228
204	0xbe3a0d69	-0.18169178
205	0xbe6439ea	-0.22287717
206	0xbe1f8aab	-0.15580241
207	0xbe42f83f	-0.19040011
208	0x3d1d6805	0.03842928
209	0x3b9bfc0f	0.0047602723
210	0xbe783bec	-0.24241608
211	0xbe5fc053	-0.2185071
212	0xbdfadf1a	-0.122495845
213	0x3ce1f8f3	0.027584529
214	0x3e347033	0.17620926
215	0xbe7e80e2	-0.24853852
216	0xbe6a669a	-0.22890702
217	0xbe946ad0	-0.2898774
218	0xbe21aa76	-0.15787682
219	0x3e097e10	0.13426995
220	0xbe7984ab	-0.24367015
221	0xbe052076	-0.13000664
222	0xbe74cfc2	-0.23907378
223	0x3d5610f3	0.052262258
224	0xbd8556af	-0.06510674
225	0xbe052252	-0.13001373
226	0xbc4426df	-0.011972158
227	0xbe0ed4e7	-0.13948403
228	0xbdacb57b	-0.08433052
229	0xbd16b866	-0.03679695
230	0xbba29eda	-0.0049627842
231	0xbcbb5276	-0.022866469
232	0x3d7da53c	0.061925158
233	0xbdbc3e1a	-0.091915324
234	0x3ce18f3a	0.027534116
235	0xbc84a4d3	-0.016191876
236	0x3cc9a004	0.024612434
237	0xbc4cbb3b	-0.012495811
238	0xbdccac45	-0.09993795
239	0xbba93255	-0.0051634707
240	0xbb3328b1	-0.0027337486
241	0xbdb21f4c	-0.08697376
242	0x3c0ff351	0.0087860385
243	0x3e3b212e	0.18274376
244	0xbc11c8da	-0.008897984
245	0xbdacd8c8	-0.08439785
246	0xbe19ee8d	-0.15032406
247	0xbd6acfa6	-0.057326935
248	0x3db98a6b	0.09059604
249	0xbc50729d	-0.012722638
250	0x3d999444	0.074989825
251	0x3cfc6463	0.030809587
252	0x3d502ba6	0.050822876
253	0xbecb3001	-0.39685062
254	0xbd79a574	-0.060948804
255	0x3cc752a1	0.024331393

cnn1.bias f4 [16]
0	0x3d621973	0.05520005
1	0xbd4d023c	-0.05005096
2	0xbd904ba8	-0.0704568
3	0xbd96752c	-0.073465675
4	0x3d131f38	0.035918444
5	0xbd936d1a	-0.07198544
6	0xbd94f54b	-0.072733484
7	0xbb0c25ba	-0.0021384791
8	0x3c862218	0.016373679
9	0xbdf9b600	-0.12192917
10	0xbcf023a3	-0.029313868
11	0xbd97a9f4	-0.07405463
12	0xbc79dca9	-0.015250363
13	0xbdb5ea83	-0.0888262
14	0x3ccc0f39	0.024909602
15	0xbd9ae21a	-0.07562657

cnn2.weight f4 [32, 16, 3, 3]
0	0x3cdb03f1	0.026735278
1	0x3d6c5f71	0.057708208
2	0x3dd51a2d	0.10405383
3	0x3e21e901	0.1581154
4	0xbc9f7929	-0.019466953
5	0xbd2a8c2d	-0.04163759
6	0x3d9a31fe	0.075290665
7	0x3c8c726a	0.0171444
8	0xbd5133f4	-0.051074937
9	0x3e2e90c2	0.17047408
10	0xbdc959c3	-0.09831574
11	0x3d233e84	0.03985454
12	0x3e096275	0.13416465
13	0xbd94d278	-0.07266706
14	0x3df6ad2e	0.1204475
15	0x3e1c755d	0.15279146
16	0xbd6ae30c	-0.057345435
17	0xbd924f6b	-0.07144054
18	0xbc46964a	-0.012120793
19	0xbce2f24a	-0.027703423
20	0xbaa385af	-0.0012475754
21	0xbc8ce2bb	-0.017197957
22	0x3bc2c405	0.0059437775
23	0xbd5852ec	-0.052813455
24	0xbd7043b6	-0.058658324
25	0x3c8048a6	0.015659641
26	0xbd66225d	-0.056185115
27	0x3dd58395	0.10425488
28	0xbda3965a	-0.07987662
29	0x3c841fb8	0.016128406
30	0x3e2a63f3	0.1663969
31	0x3d11a511	0.03555781
32	0xbd0673c5	-0.03282525
33	0x3de5920a	0.11209495
34	0x3d7a3fb4	0.06109591
35	0xbdb79866	-0.089646146
36	0x3d8335fc	0.06406781
37	0xbc9cef17	-0.019156976
38	0xbc9dd1dc	-0.019265108
39	0x3de092bb	0.109654866
40	0x3c8395b1	0.01606259
41	0x3d8a35b8	0.06748527
42	0x3dba85df	0.09107565
43	0x3cf08650	0.02936092
44	0x3db8cfbf	0.090239994
45	0x3dc29b74	0.095023066
46	0x3d834c76	0.06411068
47	0x3d8a98db	0.06767436
48	0x3dfd783a	0.12376447
49	0x3d7cc2d5	0.061709244
50	0x3ccd4d1b	0.02506118
51	0xbc5d4299	-0.013504648
52	0x3c8c80ba	0.017151225
53	0x3d13596a	0.035973944
54	0xbd60475d	-0.054755557
55	0x3d0d7cf6	0.034543
56	0x3d9be97d	0.07612894
57	0x3c127fea	0.00894163
58	0x3d030b97	0.031993475
59	0x3d87bd10	0.06627858
60	0x3d371f67	0.044707682
61	0x3d1160eb	0.03549282
62	0x3dd3b8da	0.10337992
63	0x3d68bcd8	0.05682072
64	0xbdaa0099	-0.08300895
65	0x3d46f8cd	0.04857712
66	0x3d461401	0.04835892
67	0xbd3c4341	-0.045962576
68	0x3dcdde34	0.100521475
69	0xbcca159b	-0.024668505
70	0xbd154a1d	-0.036447633
71	0x3c106587	0.0088132685
72	0x3d6a1e93	0.057158064
73	0xbc777223	-0.015102896
74	0xbd635338	-0.055499285
75	0x3de2249f	0.11042141
76	0x3dbdc9ef	0.092670314
77	0x3dab5b45	0.08367018
78	0x3d4e3b36	0.050349437
79	0x3d389e6e	0.045072965
80	0x3d54aab6	0.051920615
81	0x3d8d5ef5	0.06902877
82	0x3da0e614	0.07856384
83	0x3df0ad4c	0.11751804
84	0x3d575591	0.052571837
85	0x3d4ce499	0.050022695
86	0x3ce3d5d6	0.027811926
87	0x3d8c5ed6	0.06854026
88	0xbd15fa3c	-0.036615595
89	0x3d3c9db2	0.046048827
90	0x3d3a3cef	0.045468267
91	0xbc87c427	-0.016573025
92	0xbc45a019	-0.012062096
93	0x3c69bcdf	0.014266222
94	0xbab8ba93	-0.0014093689
95	0xbda85809	-0.082199164
96	0x3b2d7772	0.00264689
97	0xbada37dd	-0.0016648729
98	0xbb2614a2	-0.0025341888
99	0x3c9f78fa	0.019466866
100	0xbd22ae7f	-0.039717194
101	0x3d16aca3	0.036785733
102	0x3dabc60d	0.083873846
103	0x3db62638	0.088940084
104	0xbd5ebd61	-0.054379825
105	0x3dd1d057	0.10244816
106	0x3d490398	0.049075693
107	0x3db27e18	0.08715457
108	0xbda7f8c8	-0.08201748
109	0xbdf1f438	-0.11814159
110	0xbc9abb3e	-0.018888112
111	0xbb8c63e9	-0.004284371
112	0x3d3bb435	0.045826156
113	0xbc3bad88	-0.011454947
114	0x3d4fea22	0.050760396
115	0xbd5dc8ba	-0.054146506
116	0xbb2e6dd9	-0.0026615767
117	0xbd183aff	-0.037165638
118	0xbd6d4787	-0.057929542
119	0x3cbd93cc	0.023141764
120	0x3d3cd36e	0.046100073
121	0xbd8217f1	-0.06352223
122	0xbd83a596	-0.064280674
123	0xbd18e6f3	-0.037329625
124	0xbda14de2	-0.07876183
125	0xbd04da62	-0.03243483
126	0x3ddbb577	0.10727971
127	0xbccd3280	-0.025048494
128	0x3dae0919	0.08497829
129	0x3e3b0014	0.18261749
130	0x3d80b5c1	0.06284667
131	0x3d8f1ec5	0.06988291
132	0x3e1f997e	0.15585896
133	0xba81f913	-0.0009916149
134	0x3dc0885c	0.094010085
135	0x3cb86cbf	0.022512792
136	0xbd7181fe	-0.05896186
137	0xba8bab28	-0.0010655867
138	0x3d7a3fcd	0.061096
139	0xbd236be9	-0.039897833
140	0x3c3b08e2	0.011415692
141	0x3d1f8717	0.03894719
142	0xbd4fcec8	-0.05073431
143	0xbdc7629d	-0.09735606
144	0xbd5c5015	-0.05378731
145	0x3d0ee63f	0.03488755
146	0x3ce8f49b	0.02843695
147	0x3e222a42	0.15836433
148	0x3ba078ea	0.0048972266
149	0xbced6ae7	-0.02898164
150	0x3c6d4472	0.014481651
151	0x3d0744e8	0.0330247
152	0xbc52f201	-0.012875081
153	0x3bef2fa3	0.00729938
154	0x3deb3045	0.11483816
155	0xbd140638	-0.036138743
156	0x3e06646a	0.13124242
157	0x3c1e2701	0.009652854
158	0xbb87aa06	-0.0041401414
159	0x3d966564	0.073435575
160	0x3df9597c	0.12175271
161	0xbdc157fc	-0.0944061
162	0x3c13886d	0.009004694
163	0xbd8f0dc1	-0.06985045
164	0xbd32e8f5	-0.043679196
165	0xbdb3341c	-0.087501734
166	0xbdf47fb3	-0.11938419
167	0xbdba96c4	-0.091107875
168	0xbd522569	-0.05130521
169	0xbe07c26c	-0.1325776
170	0xbde54965	-0.111956395
171	0x3df6e400	0.12055206
172	0x3df0a78c	0.11750707
173	0xbcdf7bca	-0.027280707
174	0x3e238aa3	0.15970854
175	0xba8475f6	-0.0010105956
176	0x3cb8cbb7	0.022558076
177	0x3def90d8	0.11697549
178	0x3d902c22	0.07039668
179	0xbd938794	-0.07203594
180	0x3cd8fc1d	0.026487404
181	0x3d59ec5e	0.053203933
182	0x3d0ccbf4	0.034374192
183	0x3d87bbf4	0.06627646
184	0x3e3456f3	0.17611293
185	0x3bcac2a0	0.006187752
186	0x3dc009e6	0.09376888
187	0x3d692427	0.056919243
188	0x3d09f11a	0.033677198
189	0x3e475c40	0.19468784
190	0x3b0ed9b5	0.0021797244
191	0x3cf75593	0.030192172
192	0x3e127324	0.14301735
193	0x3c1c0daa	0.009524742
194	0x3beee4d0	0.00729046
195	0xbd6f7644	-0.058462396
196	0x3d3c2535	0.04593392
197	0xbe0ef8ab	-0.13962047
198	0xbb286f6d	-0.002570118
199	0xbc9ea7b3	-0.019367075
200	0xbc2aa784	-0.010415915
201	0x3df9937b	0.12186333
202	0x3dcb3e3f	0.09923982
203	0x3cf3d2b6	0.02976356
204	0x3e31f8ea	0.1738011
205	0xbd5d1355	-0.053973515
206	0x3ddc0544	0.10743192
207	0x3c1c58de	0.009542672
208	0x3d30ca03	0.043161403
209	0xbd0d89d3	-0.034555268
210	0xbd3993f9	-0.045307133
211	0xbd7810e5	-0.060562987
212	0xbc9e0921	-0.019291462
213	0xbd38b586	-0.04509499
214	0xbdb98bbe	-0.09059857
215	0xbcb0fc75	-0.021604756
216	0x3e1cc363	0.15308909
217	0x3ccbddee	0.024886098
218	0xbb066114	-0.002050464
219	0x3e2854a8	0.16438544
220	0xbc8eb565	-0.01742048
221	0xbc61fdab	-0.013793389
222	0x3e3b88f5	0.18313964
223	0x3d4809a6	0.048837326
224	0x3d094aa7	0.03351846
225	0x3e1a1738	0.1504792
226	0x3db3cdcb	0.08779486
227	0x3cac0428	0.020998076
228	0x3b4846da	0.003055981
229	0x3db59b80	0.0886755
230	0x3e212acc	0.15738982
231	0x3db06e4e	0.08614789
232	0xbd0fc679	-0.035101388
233	0x3d1223fe	0.035678856
234	0x3ccc55a9	0.02494319
235	0x3db5c6a4	0.08875778
236	0x3b27f77e	0.0025629695
237	0x3d3fde88	0.04684308
238	0xbc2b39d6	-0.010450801
239	0xbd8fccb2	-0.070214644
240	0xbd588f14	-0.052870825
241	0xbd51ef02	-0.051253326
242	0xbdfb0e71	-0.12258614
243	0x3df160ff	0.11786079
244	0x3d4e2cea	0.050335802
245	0xbdd173d1	-0.10227168
246	0x3d890533	0.06690445
247	0x3d555adc	0.052088603
248	0xbbf7dbd1	-0.007564046
249	0x3dde076a	0.10841258
250	0x3d948153	0.07251229
251	0x3cc377c8	0.023860827
252	0x3c975d2b	0.018477043
253	0xbcc0f09b	-0.02355223
254	0xbd973b97	-0.07384413
255	0x3dec7b03	0.115469

cnn2.bias f4 [32]
0	0xbdd312cb	-0.10306319
1	0xbcf15b0e	-0.029462364
2	0xbd0e8d09	-0.03480247
3	0x3b77f724	0.0037836516
4	0xb92d1371	-0.00016505808
5	0xbaafac10	-0.0013402719
6	0xbd9ed5f9	-0.07755656
7	0x3d92722f	0.07150685
8	0xbd967814	-0.07347122
9	0xbd304176	-0.04303118
10	0x3d004f7c	0.031325802
11	0x3a832158	0.0010004444
12	0xbbb83a8b	-0.0056222132
13	0x3bea5023	0.0071506663
14	0xb99fa63d	-0.000304507
15	0xbddea5ea	-0.10871489
16	0x3de65b9f	0.11247944
17	0x3bd6fbe7	0.006560791
18	0xbd1c6c86	-0.038189434
19	0xbdcca09a	-0.0999157
20	0xbde3013d	-0.110842206
21	0x3ca124ba	0.019670833
22	0xbd573a4a	-0.052545823
23	0xbd24f406	-0.04027178
24	0xbb92beb0	-0.004478298
25	0xbdaf3f63	-0.08557012
26	0xbd63b84e	-0.05559569
27	0xbe06cdff	-0.13164519
28	0x3dc72150	0.09723151
29	0xbd741c33	-0.059597205
30	0x3dbfaef0	0.093595386
31	0xbc0751af	-0.008259221

cnn3.weight f4 [32, 32, 3, 3]
0	0x3ce71df6	0.028212529
1	0xb855bcce	-5.0958995e-05
2	0x3cafc9e7	0.02145858
3	0x3c44a4c9	0.0120021785
4	0xbd932b2b	-0.07185968
5	0xbd3c8dee	-0.046033792
6	0xbc464cc7	-0.012103266
7	0xbcc21594	-0.02369193
8	0x39b5e497	0.00034693323
9	0x3e2c5593	0.16829519
10	0x3d2f4820	0.042793393
11	0xbd95b5c8	-0.07310063
12	0x3db9024e	0.09033643
13	0xbd2fe96f	-0.04294723
14	0xbe189db3	-0.14903907
15	0xbd8f6a8e	-0.070027456
16	0xbd460a24	-0.048349515
17	0xbdbbad61	-0.09163929
18	0x3a32cc85	0.0006820637
19	0xbd2725d7	-0.04080757
20	0xbd856f97	-0.06515425
21	0x3d97a301	0.074041374
22	0xbd54707b	-0.051865082
23	0xbd9d18d5	-0.07670752
24	0x3d42334a	0.047412194
25	0x3d6a8a92	0.057261057
26	0xbc82b822	-0.015956942
27	0x3d1aac5e	0.03776204
28	0xbba57f74	-0.005050594
29	0x3c158fcb	0.009128521
30	0x3d535412	0.051593848
31	0xbd5561b9	-0.05209515
32	0xbd55be57	-0.052183475
33	0x3c6ab1e7	0.014324642
34	0xbcce163f	-0.025157092
35	0x3cd819d0	0.026379496
36	0x3dd61546	0.10453276
37	0x3cd5112c	0.026009165
38	0xbc2a994d	-0.010412526
39	0xbcc6ff12	-0.024291549
40	0xbdcc1998	-0.09965819
41	0x3ba09669	0.004900743
42	0x3adca26d	0.0016833075
43	0x3d805799	0.06266708
44	0xbc13f6c2	-0.009031
45	0x3df60d48	0.12014252
46	0xbd9e51d4	-0.07730451
47	0xbc84b079	-0.01619743
48	0x3d171554	0.036885574
49	0xbdc4647a	-0.09589477
50	0xbdc35646	-0.0953794
51	0xbc6be3d1	-0.014397577
52	0x3bc38779	0.0059670773
53	0xbb5b828d	-0.0033494562
54	0xbbc1deb6	-0.005916442
55	0x3cdd03cd	0.026979351
56	0xbd7d7dc0	-0.061887503
57	0xbd1f6fe1	-0.038925055
58	0xbad82c8a	-0.0016492766
59	0xbce6719b	-0.028130343
60	0x3d465a4c	0.048425958
61	0xbd610339	-0.054934714
62	0xbd233c71	-0.039852563
63	0xbd3ca3fa	-0.046054818
64	0x3ded3bee	0.11583696
65	0x3d91def4	0.07122603
66	0x3d25cf45	0.04048087
67	0xbb9f0c25	-0.0048537427
68	0x3dde0af1	0.10841931
69	0x3d3d5ccc	0.046231076
70	0x3d845d33	0.06463089
71	0x3db88fdc	0.09011814
72	0xbc2e6387	-0.010643846
73	0x3cbd06bb	0.023074498
74	0xbd5dea65	-0.054178614
75	0xbd8781ea	-0.06616576
76	0xbcef7017	-0.029228253
77	0xbd5dcc27	-0.054149773
78	0x3c25e418	0.010125183
79	0xbcaeb5bb	-0.02132689
80	0xbd7052e0	-0.058672786
81	0x3db9e5e8	0.09077054
82	0xbdac4e12	-0.08413328
83	0x3c54c5a4	0.012986574
84	0x3cb9a68e	0.022662427
85	0xbdf60883	-0.12013342
86	0x3c567572	0.013089525
87	0xbcf0282b	-0.029316029
88	0xbcf73abe	-0.030179378
89	0xbd5e7df5	-0.05431934
90	0x3db11f54	0.086485535
91	0x3dc2471f	0.094862215
92	0xbdc2283c	-0.0948033
93	0x3cbfa644	0.023394711
94	0x3ca4583e	0.020061608
95	0xbdb340c6	-0.08752589
96	0xbcfeed00	-0.03111887
97	0x3d12fc0d	0.035884906
98	0xbcd4dd59	-0.025984453
99	0x3d6db540	0.05803418
100	0xbd9a5278	-0.07535261
101	0xbd91f6d8	-0.0712716
102	0xbd2b56d4	-0.041830853
103	0xbdf23d67	-0.11828118
104	0xbe0ad615	-0.13558228
105	0x3d5ab758	0.053397506
106	0x3d187758	0.03722319
107	0xbcc8f513	-0.024530923
108	0x3dd6e418	0.10492724
109	0x3e16d094	0.14728004
110	0x3e1e7bec	0.1547696
111	0xbce76d86	-0.028250467
112	0x3e1b1d10	0.15147805
113	0x3cdb0c13	0.026739156
114	0x3c3f857f	0.011689543
115	0x3cbe9767	0.023265554
116	0xbcad5031	-0.021156402
117	0x3c8cf475	0.01720641
118	0x3c758ab8	0.014986686
119	0xbcb190d7	-0.02167551
120	0xbbadd105	-0.005304458
121	0x3d21dfb5	0.039519984
122	0xbd37e499	-0.044895742
123	0x3cfcbdf6	0.0308523
124	0x3d02b96a	0.031915106
125	0x3d4c0868	0.049812704
126	0x3dda073e	0.106459126
127	0xbc0b8fda	-0.008518184
128	0xbd5254ab	-0.051350277
129	0x3d655413	0.055988383
130	0xbd605944	-0.05477263
131	0xbd6207d4	-0.055183247
132	0xbc94ea6a	-0.018178184
133	0x3c9f6a22	0.019459788
134	0xbdcd8e1d	-0.100368716
135	0x3b5a3ca0	0.0033300295
136	0xbd204c80	-0.039135456
137	0x3d4f24fd	0.050572384
138	0xbcbaac88	-0.022787347
139	0xbcd4e598	-0.025988385
140	0xbd506061	-0.050873164
141	0x3cc84a2a	0.024449427
142	0x3b811738	0.0039395355
143	0xbc3e1c18	-0.011603378
144	0x3d8aadda	0.06771441
145	0x3e68b7ff	0.22726439
146	0x3e4e499d	0.20145269
147	0x3cd4cb4a	0.025975842
148	0x3db2ddf8	0.087337434
149	0x3dfa57fc	0.12223813
150	0x3cce3b2b	0.025174698
151	0x3db43110	0.087984204
152	0x3ded1ae4	0.115773946
153	0x3d9d6960	0.07686114
154	0x3db991d9	0.09061021
155	0xbd93346b	-0.07187732
156	0x3cf5d87f	0.03001046
157	0x3d40041e	0.046878926
158	0xbd945ca2	-0.07244231
159	0x3bfbdb8f	0.0076860855
160	0x3c98c76c	0.01864978
161	0xbd2775e0	-0.0408839
162	0xbcd05778	-0.025432333
163	0xbd8e5c16	-0.06951158
164	0xbd8da6bd	-0.069165684
165	0x3cb66efa	0.022269715
166	0xbd438c0c	-0.04774098
167	0xbe06dcba	-0.13170138
168	0x3c282128	0.010261811
169	0xbdd23227	-0.10263472
170	0xbd3f1136	-0.046647273
171	0xbd5266e3	-0.05136765
172	0x3b45a230	0.0030156486
173	0x3d3bb3d1	0.045825783
174	0x3cc36568	0.023852065
175	0xbda61ef6	-0.08111374
176	0xbb90f0b5	-0.0044232258
177	0x3b8e7c20	0.004348293
178	0xbd802080	-0.06256199
179	0x3c6f3d49	0.014602014
180	0xbd444638	-0.04791853
181	0xbce316f0	-0.027720898
182	0x3d30e40f	0.043186244
183	0xbd0d6f61	-0.034530047
184	0xbdbf78a9	-0.09349186
185	0xbd05b976	-0.032647572
186	0x3b0c3e2d	0.0021399364
187	0xbd555686	-0.05208447
188	0xbcca834a	-0.024720807
189	0x3da6e203	0.08148577
190	0x3dd8f7d1	0.10594142
191	0xbd05ddaf	-0.032682117
192	0x3bd37a8f	0.006453819
193	0x3c6e856e	0.014558179
194	0xbd313452	-0.043262787
195	0xbd3b7a2b	-0.045770805
196	0x3c87b5b2	0.016566131
197	0xbdf7d14b	-0.12100466
198	0xbce78313	-0.028260743
199	0xbdcea602	-0.10090257
200	0xbd13e930	-0.036111057
201	0xbd81f916	-0.063463375
202	0xbdedcca2	-0.11611296
203	0xbaa9977d	-0.0012938824
204	0xbd51a037	-0.051178183
205	0xbd338499	-0.043827627
206	0x3cb40a3e	0.02197754
207	0x3d2f8395	0.042850096
208	0x3c88b4ef	0.016687838
209	0x3d9d6fbe	0.07687329
210	0x3cb2fd1d	0.02184921
211	0xbd262021	-0.040557984
212	0xbc671357	-0.014103732
213	0xbc99d128	-0.018776491
214	0x3dbbd09b	0.09170648
215	0x3c8cd776	0.017192584
216	0x3d84a47c	0.064766854
217	0xbc5a4dfe	-0.013324259
218	0xbd473854	-0.048637703
219	0xbc72e9d3	-0.014826256
220	0xbd861cc0	-0.065484524
221	0xbda02b81	-0.07820798
222	0xbbcb8973	-0.0062114536
223	0x3d33a316	0.043856703
224	0xbc343c5e	-0.011000721
225	0x3d164b3f	0.036692854
226	0xbcfe141f	-0.031015454
227	0x3b3fcfa0	0.0029268041
228	0xbcbe7a3e	-0.023251649
229	0xbd70060f	-0.058599528
230	0x3c8ad9fe	0.01694965
231	0xbc92d44a	-0.017923493
232	0x3d4d3f65	0.050109286
233	0x3d6afc15	0.05736931
234	0x3dc5c9ae	0.09657608
235	0x3b2ccb87	0.002636643
236	0x3bbf1043	0.005830796
237	0x3ce426c7	0.027850522
238	0xbd481843	-0.048851263
239	0xbbdab86c	-0.006674817
240	0xbca081fa	-0.019593228
241	0x3ca58ae4	0.02020783
242	0xbd23aa82	-0.03995753
243	0x3c132250	0.008980349
244	0x3d40f420	0.047107816
245	0xbc8c0bd7	-0.01709549
246	0xbbea4962	-0.007149861
247	0xbd33f01a	-0.04393015
248	0xbd047e17	-0.03234681
249	0xbb9edbe3	-0.00484799
250	0xbc960de6	-0.018317174
251	0xbca5dee2	-0.02024788
252	0x3cb8a5fc	0.022540085
253	0x3b2d37f5	0.0026431058
254	0x3dcd59c4	0.10026887
255	0xbcd41c9f	-0.025892554

cnn3.bias f4 [32]
0	0x3ca600fb	0.02026414
1	0x3d341f25	0.043975014
2	0xbdc247e6	-0.0948637
3	0xbc935526	-0.017984938
4	0x3d050ae8	0.032481104
5	0xbd06a735	-0.032874305
6	0xbd098468	-0.033573538
7	0x3df0853a	0.11744161
8	0xbc21faf0	-0.009886488
9	0xbd794984	-0.060861126
10	0x3c23072e	0.009950442
11	0xbcd29928	-0.025707796
12	0xbc5ca97b	-0.013468142
13	0x3d4dd296	0.05024966
14	0xbc97d09c	-0.01853209
15	0x3e015620	0.1263051
16	0xbd90f418	-0.07077807
17	0x3b9ce948	0.0047885515
18	0xbd2da559	-0.042394016
19	0xbd823cf2	-0.06359281
20	0xbd914d8d	-0.0709487
21	0xbcf3d65d	-0.029765302
22	0xbd8f6457	-0.0700156
23	0xbd773961	-0.060357455
24	0xbc4bb405	-0.012433057
25	0xbd0f5d0b	-0.035000842
26	0xbd882b61	-0.06648899
27	0x3ce4d731	0.027934643
28	0xbc088537	-0.008332542
29	0x3dc7e4c1	0.09760428
30	0x3cb1ef25	0.021720478
31	0x3e1a7b5b	0.15086119

fc1.weight f4 [128, 768]
0	0xbcdb4905	-0.026768217
1	0x3ccb35a7	0.024805857
2	0x3ca16e82	0.019706015
3	0x3c7291f6	0.014805308
4	0x3cfb9bef	0.030714003
5	0xbd035408	-0.03206256
6	0xbd421869	-0.04738656
7	0x3c80dc25	0.015729973
8	0xbc9113de	-0.017709669
9	0xbc336b68	-0.010950901
10	0xbcc3377c	-0.023830168
11	0x3a0cb680	0.0005367771
12	0xbad88cf8	-0.0016521504
13	0x3b330199	0.0027314185
14	0xbc1e911a	-0.00967815
15	0x3c9d43dc	0.019197397
16	0x3bfb3cfd	0.0076671825
17	0xbc41de34	-0.0118327625
18	0xbc2ee382	-0.010674359
19	0x3c355424	0.011067424
20	0xbcbeebfe	-0.02330589
21	0x3c89c7ba	0.01681887
22	0xbce79810	-0.028270751
23	0xbc4f1f6e	-0.012641771
24	0xbd1658af	-0.03670567
25	0xbbe4ff9b	-0.0069884784
26	0xbd15847f	-0.03650331
27	0xbc0f9571	-0.008763657
28	0x3b3ae2ab	0.0028516452
29	0xbcfc96d9	-0.030833649
30	0xbc9b90c0	-0.01898992
31	0x3cf10eb3	0.029425954
32	0xbd203e6e	-0.039122038
33	0x3c817620	0.015803397
34	0x3d276c23	0.04087461
35	0xbc456174	-0.01204716
36	0x3cd5999a	0.02607422
37	0x3d0f68ef	0.03501218
38	0xbc02f4b8	-0.007992916
39	0xbaaf366c	-0.0013367659
40	0x3c210f00	0.009830236
41	0xbc0f35b0	-0.008740827
42	0x3cbe11fe	0.023201939
43	0xbd5793ac	-0.052631065
44	0xbd27e08a	-0.04098562
45	0x3c9245e1	0.017855586
46	0xbcfdfdce	-0.031004813
47	0xbd2dceeb	-0.04243366
48	0xbd262f07	-0.040572193
49	0x3c3401fc	0.010986801
50	0xbd028e40	-0.03187394
51	0xbd06febb	-0.032957774
52	0xbd1ca7b1	-0.03824586
53	0xbbb30d76	-0.005464251
54	0x3c052434	0.008126307
55	0xbc794d2c	-0.015216153
56	0xbc0a9392	-0.008458035
57	0xbcaf2f90	-0.021384984
58	0x3c1a5791	0.0094202915
59	0x3ce8fc4f	0.028440623
60	0xbd0cb2dd	-0.034350265
61	0xbc950a44	-0.018193372
62	0xbcf7cf62	-0.030250255
63	0xbd3e80f1	-0.046509687
64	0x3cbfe727	0.023425652
65	0x3c4b95df	0.012425869
66	0xbc6e6146	-0.014549559
67	0xbc23b8b9	-0.009992772
68	0xbd1b5cc8	-0.03793028
69	0x3c9da1c3	0.019242173
70	0x3cad677c	0.02116751
71	0xbd0f0c42	-0.0349238
72	0xbbfb4928	-0.007668633
73	0x3c529e30	0.012855098
74	0xbcc3c871	-0.023899289
75	0xbc910c46	-0.017706048
76	0x3ce8d836	0.02842341
77	0x3c8c2119	0.017105626
78	0x3cbef76d	0.023311341
79	0x3b9cdbd5	0.004786948
80	0xba9169a1	-0.0011094102
81	0x3be0e81b	0.0068636066
82	0x3c80da9b	0.01572924
83	0xbcb5af96	-0.022178452
84	0xbd02ed87	-0.031964805
85	0x3cd1ae7c	0.025595896
86	0x3a92db12	0.0011204204
87	0xbc23e1a6	-0.010002529
88	0x3bdad931	0.0066787233
89	0xbcc191b3	-0.023629045
90	0xbb32a2e5	-0.0027257737
91	0xbce0708f	-0.027397422
92	0xbb03c261	-0.0020104873
93	0xbd21513d	-0.039384115
94	0x3b21857a	0.0024646209
95	0x3d028053	0.03186066
96	0x3cc3850a	0.023867149
97	0xbd017de2	-0.03161419
98	0x3b3e7e5b	0.0029067013
99	0x3b93ae32	0.0045068497
100	0xba498cf4	-0.0007688545
101	0x3b9b284a	0.0047350274
102	0xbcbd569f	-0.023112593
103	0xbc07594f	-0.008261039
104	0xbd1c9e22	-0.038236745
105	0xbc47bf8a	-0.012191663
106	0xbc890713	-0.016727006
107	0xbbda9901	-0.0066710715
108	0x3c65b5cd	0.014020395
109	0xbbf00107	-0.007324341
110	0xbc871bdb	-0.016492775
111	0xbd1493e8	-0.036273867
112	0x3c09f85a	0.008421028
113	0x3c2221e2	0.009895774
114	0x3c3b7874	0.0114422925
115	0xbce5b2e1	-0.028039398
116	0x3c6a1e1f	0.014289408
117	0x3a03511e	0.0005009341
118	0xbc901d87	-0.017592205
119	0x3ae8f82f	0.001777416
120	0x3ce80383	0.028321987
121	0xbd21f65d	-0.03954159
122	0x3bbe9334	0.005815888
123	0x3c3a8acd	0.011385632
124	0xbcff7154	-0.031181969
125	0xbc2032cc	-0.009777736
126	0x3ae2ed00	0.0017313063
127	0xbd06cc7c	-0.032909855
128	0x3d1904ab	0.037357967
129	0x3ca03466	0.019556236
130	0x3c4cb1a5	0.012493526
131	0x3b8cc04b	0.004295384
132	0x3cce35d0	0.025172144
133	0x3b4ca03d	0.003122344
134	0xbc86a11a	-0.016434241
135	0xbcc53cda	-0.024076868
136	0xbd0601d2	-0.03271658
137	0x3c3dc428	0.011582412
138	0x3c80ce26	0.0157233
139	0x3cd989e0	0.026555002
140	0x3b8f45cf	0.0043723355
141	0x3c9b91bc	0.01899039
142	0x3b428f98	0.002968764
143	0xbd04240d	-0.032260943
144	0xbcc59352	-0.0241181
145	0x3c4bdd70	0.0124429315
146	0x3d0b5bb0	0.034022987
147	0x3ce048c0	0.02737844
148	0x3b311130	0.0027018301
149	0xbc403aa2	-0.011732729
150	0x3cdd05cc	0.026980303
151	0x3d10e746	0.03537681
152	0x3d0de2b6	0.034640037
153	0x3c200fc0	0.00976938
154	0x3cb1a332	0.021684263
155	0xbbc6da74	-0.006068522
156	0xbca6c466	-0.020357322
157	0xbbf0fc0c	-0.007354265
158	0x3d0b25f4	0.03397174
159	0x3d0de7f4	0.034645036
160	0x3c813944	0.015774377
161	0x3c927540	0.017878175
162	0x3c1c6464	0.009545419
163	0xbca47077	-0.020073159
164	0xbbfd5a7c	-0.007731734
165	0x3d0695a5	0.032857556
166	0xbcf91b4e	-0.030408528
167	0xbc4448fa	-0.01198029
168	0xbc63460b	-0.01387168
169	0x3c3b356b	0.01142631
170	0xbae7abbb	-0.0017675081
171	0xbbee84f2	-0.007279032
172	0x3b63dbea	0.003476853
173	0xbc44d9d9	-0.01201483
174	0xbd71425b	-0.058901172
175	0xbc8dd18c	-0.017311834
176	0x3cd26375	0.02568219
177	0xbc9ef1d2	-0.019402418
178	0xbcae79ec	-0.021298371
179	0xbd24bf03	-0.040221225
180	0xbbf4bd6e	-0.007468871
181	0xbd107aee	-0.035273485
182	0x3ca60adf	0.020268856
183	0x3a2d58fa	0.0006612685
184	0xbd37aca4	-0.044842377
185	0xbd2f10f9	-0.042740796
186	0xbc17b9d7	-0.009260616
187	0xbd2871d2	-0.041124173
188	0xbb7f4663	-0.0038951866
189	0xbcad7d5b	-0.021177938
190	0x3c165038	0.009174399
191	0xbd2ed224	-0.042680874
192	0x3b0a3cdf	0.002109341
193	0xba8e62ff	-0.0010863243
194	0xbba7488f	-0.005105085
195	0xbd0791ec	-0.033098146
196	0xbd004f2c	-0.031325504
197	0x3cecbcb0	0.028898567
198	0xbac73e1c	-0.0015201005
199	0xbc32a751	-0.010904149
200	0xbcf56ffc	-0.029960625
201	0xbc4a9551	-0.012364701
202	0x3c31b43b	0.010846193
203	0xbcf84404	-0.03030587
204	0xbcabedbe	-0.020987388
205	0xbcad81a9	-0.02117999
206	0xbc004616	-0.00782921
207	0xbc59b7dd	-0.013288465
208	0x3c9e69e2	0.019337598
209	0xbcb5fd97	-0.022215648
210	0x3c306022	0.010765107
211	0xbc11f677	-0.008908859
212	0x3ca60dab	0.02027019
213	0xbd0dd845	-0.03463008
214	0x3d038264	0.032106772
215	0x3cda44c0	0.02664411
216	0xbd0d1147	-0.034440305
217	0xbd17fabd	-0.037104357
218	0xbd18d97a	-0.037316777
219	0x3cc54fd0	0.02408591
220	0xbc1031ea	-0.008800963
221	0x3c5e6f19	0.013576292
222	0x3d04d7cf	0.032432374
223	0xbd135305	-0.035967845
224	0xbc8da083	-0.017288452
225	0xbc59b4e7	-0.013287759
226	0x3c92e109	0.01792957
227	0x3c8a0b19	0.016850995
228	0xbcd1745e	-0.025568184
229	0xbcc21492	-0.02369145
230	0x3ccab827	0.024746014
231	0x3d0664d8	0.032811016
232	0x3be9e2eb	0.0071376464
233	0xbc960df1	-0.018317195
234	0x3c4034d9	0.01173135
235	0xbadb4aeb	-0.0016730701
236	0xbca68d45	-0.020331034
237	0x3cbf2ee4	0.023337789
238	0xbd1c4c82	-0.0381589
239	0xbcdb7b61	-0.02679223
240	0x3cb22419	0.021745728
241	0x3a98c45e	0.0011655202
242	0x3d001183	0.0312667
243	0xbd15c4f4	-0.036564782
244	0x3c2b8350	0.010468319
245	0x3d08d2b4	0.033404067
246	0x3a2b7f6b	0.0006542119
247	0x3c373f1a	0.011184478
248	0xbcf840b6	-0.030304294
249	0xbd0ed70f	-0.034873065
250	0x3c0814ec	0.008305769
251	0x3ca51ac5	0.020154366
252	0xbc9f0b8f	-0.019414691
253	0xbbe30900	-0.006928563
254	0x3ce9101c	0.028450064
255	0xbd00c9d1	-0.031442467

fc1.bias f4 [128]
0	0x3cc7ae0b	0.024374982
1	0xbc1190a0	-0.008884579
2	0x3c50e6f2	0.012750374
3	0xbd251562	-0.040303595
4	0xbcd307e1	-0.025760593
5	0x3cd4b654	0.025965847
6	0xbd0a1e48	-0.033720285
7	0xbd277081	-0.040878776
8	0x3b99e3fb	0.004696367
9	0x3c7d6fb6	0.0154685285
10	0xbcab9724	-0.020946093
11	0xbce60c84	-0.02808214
12	0xbd1234de	-0.03569495
13	0xbd0d0342	-0.034426935
14	0xbd1b3838	-0.03789541
15	0xbc81e8b1	-0.015858026
16	0xbd171369	-0.036883745
17	0xbca316b2	-0.019908283
18	0x3d78c138	0.060731143
19	0xbaff5b94	-0.0019482248
20	0xbba79402	-0.0051140795
21	0x3dc62ef2	0.09676923
22	0xbd2fe157	-0.04293951
23	0x3da750f2	0.08169736
24	0xbd453adb	-0.048151832
25	0x39199a3e	0.00014648677
26	0xbbbac926	-0.0057002483
27	0xbcf05da1	-0.02934152
28	0xbcdf2369	-0.027238565
29	0x3c8d2c0e	0.017232921
30	0xbd1242e2	-0.035708316
31	0x3caa7de5	0.020811984
32	0xbd0e1e3c	-0.034696802
33	0x3c58c626	0.013230836
34	0xba071145	-0.00051524147
35	0xbd3aeb60	-0.045634627
36	0xbcccdae9	-0.025006728
37	0xbd206cbe	-0.039166205
38	0xbcb76b95	-0.022390166
39	0x3b51edc7	0.0032032595
40	0x3ca8dad5	0.02061216
41	0x3dc59df8	0.09649271
42	0xbd04b1bb	-0.03239606
43	0xbcc64c70	-0.02420637
44	0xbc9d6654	-0.019213833
45	0xbd131811	-0.035911623
46	0x3bd1d6fc	0.006403802
47	0x3bcd840e	0.0062718457
48	0xbd11f866	-0.03563728
49	0x3cf0ad48	0.029379502
50	0x3d0acca8	0.03388658
51	0x3cd53df6	0.026030522
52	0x3bbc1d24	0.0057407785
53	0x3dc06c5e	0.093956694
54	0xbbee91df	-0.007280573
55	0xbd1413d4	-0.036151722
56	0xbd1097a5	-0.03530087
57	0x3bfd2cba	0.007726279
58	0xbc8df625	-0.017329285
59	0xbcb67e40	-0.022276998
60	0xbd29930c	-0.0414
61	0x3dbbcc49	0.09169824
62	0xbd0b2838	-0.033973902
63	0xbcccb258	-0.024987385
64	0xbc8038a5	-0.01565201
65	0x3ccf561a	0.025309611
66	0x3deb88ee	0.11500727
67	0xbbc85494	-0.006113598
68	0x3c42722e	0.011868043
69	0x3c8c32ee	0.017114129
70	0xbbcf1a8f	-0.0063203047
71	0x3ba3b54c	0.0049959775
72	0xbc1f11d9	-0.009708845
73	0x3c37fef0	0.011230215
74	0xb9523993	-0.00020048609
75	0x3c3f61e1	0.011681051
76	0xb71cd6bf	-9.348324e-06
77	0xbd108ff2	-0.035293527
78	0x3c24c5eb	0.010056953
79	0xbb9630c7	-0.0045834514
80	0xbc8cf194	-0.017205037
81	0xbbdf9ee9	-0.0068243635
82	0x3be9b3ed	0.0071320445
83	0x3caae6c8	0.020861998
84	0x3c05824b	0.00814874
85	0x3cdfdbe4	0.027326532
86	0xbcecac97	-0.028890891
87	0xbcd58422	-0.026063982
88	0xbd215a2c	-0.039392635
89	0x3da85c73	0.08220758
90	0xbd893e48	-0.06701332
91	0x3de9ac18	0.114097774
92	0x3c294104	0.010330442
93	0xbcb053f3	-0.021524405
94	0xbad9abbd	-0.0016606968
95	0xbd247517	-0.040150728
96	0x3ae0e08b	0.0017156763
97	0xbb9051e6	-0.0044042943
98	0xbbe2c3ca	-0.0069203125
99	0x3c35a84d	0.011087489
100	0xbd13e8ce	-0.03611069
101	0xbc2e1301	-0.010624648
102	0xba011370	-0.0004923856
103	0x3c91188b	0.017711898
104	0x3a90a9e1	0.0011036956
105	0xbc77a3da	-0.015114749
106	0xbd1be2c8	-0.038058072
107	0xbc84139c	-0.016122632
108	0x3df138bb	0.117783986
109	0x3c567b46	0.013090914
110	0xbbff73e1	-0.0077957963
111	0xbc532ecf	-0.012889578
112	0x3ddfda14	0.10930267
113	0x3cae0f36	0.021247488
114	0xbd7a433e	-0.061099283
115	0xbd05f153	-0.032700848
116	0x3c2b49f4	0.0104546435
117	0x3c8e65bf	0.0173825
118	0xbcaffb2c	-0.021482073
119	0x3d6a54de	0.057209842
120	0xbd770eb7	-0.060316768
121	0xbc42dcf4	-0.0118935
122	0xbc4ef96a	-0.012632707
123	0xbd4c0d97	-0.049817648
124	0x3dff0ee3	0.12454011
125	0xbd352248	-0.044222146
126	0x3d079214	0.033098295
127	0xbd6f806b	-0.05847208

fc2.weight f4 [128, 128]
0	0xbdb22dbd	-0.0870013
1	0xbd717dce	-0.058957867
2	0xbc144e50	-0.009051874
3	0xbc3831d8	-0.011242352
4	0x3cf56e36	0.02995978
5	0x3d747ab9	0.05968735
6	0xbd3e0ade	-0.046397083
7	0x3d554269	0.052065287
8	0xbb066cce	-0.002051163
9	0x3d08b23d	0.033373106
10	0x3ce2653d	0.027636165
11	0xbd048aa1	-0.03235877
12	0xbd9f55e4	-0.07780054
13	0x3d0f4a94	0.034983233
14	0x3da7e7dd	0.08198521
15	0xbd319d2c	-0.04336278
16	0xbd3c8e73	-0.046034288
17	0x3cef315e	0.029198345
18	0x3b953cf2	0.0045543844
19	0x3d2be00e	0.041961722
20	0x3dafa94f	0.08577215
21	0x3d77ceae	0.06049984
22	0x3c89aad2	0.016805086
23	0xbd3857f7	-0.045005765
24	0x3d58cb7e	0.05292844
25	0xbb18ef80	-0.0023336112
26	0x3d8604f3	0.06543913
27	0xbbcd4e96	-0.0062654717
28	0xbc686a18	-0.014185451
29	0xbb06a055	-0.0020542343
30	0x3db7f099	0.08981437
31	0x3d62903e	0.05531334
32	0xbda3eea2	-0.080045
33	0xbd0a4412	-0.033756323
34	0x3da1dfc7	0.0790401
35	0xbdc38774	-0.0954732
36	0xbdb0e63c	-0.08637664
37	0x3db37876	0.087632105
38	0x3dabc303	0.08386805
39	0xbd83140d	-0.06400309
40	0xbd835cc0	-0.06414175
41	0xbd9bad10	-0.076013684
42	0x3ccf3064	0.02529163
43	0xbbe8c45c	-0.007103486
44	0xbd1e7d27	-0.038693573
45	0x3d9bcae9	0.076070614
46	0x3d64dba6	0.055873536
47	0x3ca77641	0.02044213
48	0xbd53e08a	-0.05172781
49	0xbda2b72c	-0.079450935
50	0xbc07636c	-0.00826345
51	0x3d2739d0	0.04082662
52	0x3d56b372	0.052417226
53	0x3de91b36	0.11382143
54	0xbc384928	-0.011247911
55	0x3db52454	0.0884482
56	0x3cfa3a20	0.030545294
57	0xbcd08124	-0.025452204
58	0xbc34a490	-0.011025563
59	0xbd9bb23f	-0.07602357
60	0xbca2527c	-0.019814722
61	0x3dcf234f	0.101141565
62	0xbdb0b1b9	-0.08627648
63	0x3dce890d	0.10084734
64	0xbd0d72c2	-0.03453327
65	0x3d13cc00	0.03608322
66	0x3df9e9a3	0.12202766
67	0xbd527fb5	-0.051391322
68	0x3d6ee181	0.058320526
69	0xbd7d6b0c	-0.061869666
70	0x3d283318	0.04106435
71	0x3db1b507	0.08677106
72	0xbd2df656	-0.042471252
73	0x3c6b2f20	0.014354497
74	0x3ad10b00	0.0015948713
75	0x3d17663a	0.036962725
76	0x3cc30f58	0.023811027
77	0x3d1bb59b	0.03801499
78	0xbbebce40	-0.007196218
79	0xbcba5384	-0.022744901
80	0xbc22fa3b	-0.009947355
81	0xbd9ce8e3	-0.07661607
82	0xbd534d23	-0.051587235
83	0x3bb9f454	0.005674878
84	0xbda37408	-0.079811156
85	0xbd720197	-0.059083547
86	0xbd833e61	-0.06408382
87	0x3d19f54a	0.03758744
88	0xbd4efae4	-0.050532237
89	0xbe1e3877	-0.15451227
90	0xbd60284f	-0.05472594
91	0xbc7f9463	-0.015599343
92	0x3d351482	0.04420901
93	0x3d707f2a	0.058715023
94	0x3d0002b9	0.031252597
95	0xbd916870	-0.07099998
96	0x3c42e825	0.011896168
97	0xbd3d0eb8	-0.046156615
98	0x3d4d833e	0.05017399
99	0x3d1ed1fe	0.038774483
100	0x3d0eac9c	0.034832582
101	0xbd172dcc	-0.03690891
102	0x3d870c9d	0.06594203
103	0x3d9f7c15	0.07787339
104	0x3ccbeb14	0.024892367
105	0x3d4564f6	0.048191987
106	0x3c1246e8	0.008928038
107	0xbd222279	-0.039583657
108	0x3d34daa7	0.044153836
109	0xbd95e432	-0.073189154
110	0xbcbb90d0	-0.0228962
111	0x3cdbaa90	0.026814729
112	0x3da2c8ae	0.07948433
113	0xbcb90b00	-0.022588253
114	0xbd796fa3	-0.06089748
115	0xbd374b45	-0.044749517
116	0xbd8896fd	-0.06669424
117	0xbd983dd6	-0.07433669
118	0xbdaee5de	-0.085399374
119	0xbda8b0a2	-0.08236815
120	0x3cc964b7	0.024584157
121	0xbc4236d8	-0.011853896
122	0xbd4f4de7	-0.050611403
123	0xbb179a21	-0.002313264
124	0x3d9af53f	0.07566308
125	0xbd1cdb10	-0.03829485
126	0xbd8c512f	-0.06851422
127	0xbd512c67	-0.051067736
128	0xbd800d9e	-0.06252597
129	0xbcfef13e	-0.031120893
130	0xbdabc52b	-0.08387216
131	0x3beb4690	0.0071800426
132	0xbaa4a49b	-0.0012561263
133	0x3c807ce1	0.015684547
134	0xbdca189c	-0.09867975
135	0xbc3ca870	-0.011514768
136	0x3d8e8537	0.069590025
137	0x3d130a5b	0.035898548
138	0x3aaed528	0.0013338672
139	0x3d177cfe	0.036984436
140	0xbd14b624	-0.036306515
141	0x3b912d90	0.0044304803
142	0x3d4a2c26	0.04935851
143	0xbd35dd9a	-0.04440079
144	0x3d1e38a4	0.038628235
145	0x3d19c51c	0.037541494
146	0xbb801e72	-0.0039098794
147	0xbcbfb830	-0.023403257
148	0xbc07cf73	-0.008289206
149	0xbce5fc98	-0.028074548
150	0x3d9aad9b	0.07552644
151	0xbd659ce0	-0.05605781
152	0x3da8c751	0.082411416
153	0x3d5f50be	0.05452036
154	0xbd96e008	-0.07366949
155	0xbc2f7705	-0.010709529
156	0xbd9cce07	-0.07656484
157	0x3d3fe84a	0.046852387
158	0x3da9f031	0.08297766
159	0xbcf160bc	-0.029465072
160	0xbd0e236b	-0.034701746
161	0x3ca6d61c	0.020365767
162	0xbd0b0e92	-0.033949442
163	0xbdbcd09a	-0.09219475
164	0xbd96bd0f	-0.07360279
165	0xbd3c7769	-0.046012316
166	0x3d157584	0.036489025
167	0xbda02185	-0.07818893
168	0xbd795df1	-0.060880605
169	0x3c8217f6	0.015880566
170	0xbcbe9fb0	-0.023269504
171	0xbd9ba7ac	-0.0760034
172	0xbd63e54f	-0.055638608
173	0xbccea0b0	-0.025223106
174	0x3ca3a66f	0.019976823
175	0xbc1a3b99	-0.009413623
176	0xbd89e322	-0.06732775
177	0x3d97fb79	0.074210115
178	0x3c9ad6c0	0.018901229
179	0xbd3b9d2e	-0.045804195
180	0xbc123010	-0.008922592
181	0x3de2f694	0.11082187
182	0x3d401f23	0.046904694
183	0xbd941e12	-0.07232298
184	0xbd2a7b97	-0.04162177
185	0xbc468ce0	-0.012118548
186	0xbd85a588	-0.06525713
187	0x3c6a564d	0.014302802
188	0xbd8aacbe	-0.06771229
189	0x3d5de8a2	0.054176934
190	0xbca3e950	-0.020008713
191	0xbdcb466e	-0.09925543
192	0xbd45daf3	-0.04830451
193	0x3ccfef51	0.02538267
194	0x3d309f25	0.043120522
195	0x3c8b1b0b	0.016980669
196	0xbbcf1742	-0.006319911
197	0x3cbb72ac	0.022881828
198	0xbcc673ae	-0.024225082
199	0x3ce35e28	0.027754858
200	0xbcabbdc0	-0.020964503
201	0xbd254bdb	-0.040355545
202	0xbc8611c4	-0.016365893
203	0x3c746d20	0.014918596
204	0xbd8f487d	-0.06996248
205	0x3cb45498	0.022012994
206	0xbd2014a3	-0.03908218
207	0x3d85d4cb	0.06534728
208	0xbc0b55b7	-0.008504323
209	0xbc729c52	-0.0148077775
210	0xbd56c64d	-0.052435208
211	0x3d8a3b72	0.067496195
212	0x3d0a594c	0.033776566
213	0xbd01b35c	-0.03166519
214	0xbc9f24ea	-0.019426782
215	0xbaeb2030	-0.001793867
216	0xbd0c2b89	-0.034221206
217	0xbda5711c	-0.080782145
218	0xbd95c89d	-0.073136546
219	0x3cf86cdd	0.030325348
220	0xbc0849e0	-0.008318394
221	0x3d3cccee	0.046093874
222	0xbcdd5cb9	-0.027021753
223	0xbdaba20c	-0.08380517
224	0xbd459d15	-0.04824551
225	0xbd927055	-0.07150332
226	0x3d4adeba	0.049528815
227	0x3c3f4488	0.011674054
228	0xbd3e73b0	-0.046497047
229	0x3cd01b58	0.025403664
230	0x3d8aa4cf	0.06769716
231	0x3d06f38e	0.032947116
232	0xbc3318a0	-0.010931164
233	0x3c65b0a8	0.014019169
234	0xbd75a19a	-0.05996857
235	0x3d32d75a	0.043662407
236	0x3de6edf9	0.112758584
237	0xbbff2602	-0.0077865133
238	0x3d1348f2	0.035958238
239	0x3d1ff7d2	0.0390547
240	0x3b253cf6	0.0025213338
241	0x3d4e62be	0.050387137
242	0xbdd2e494	-0.10297504
243	0xbd5733d9	-0.05253968
244	0x3c6024c8	0.013680644
245	0x3d886e81	0.06661702
246	0xbda63a54	-0.08116594
247	0x3d5e84a5	0.05432572
248	0xbcbbcae2	-0.02292389
249	0xbd8d61c5	-0.06903414
250	0x3d73af3d	0.059493292
251	0x3dcd939e	0.10037921
252	0x3e2a9599	0.1665863
253	0xbdb086dc	-0.086194724
254	0x3dac5d98	0.08416289
255	0x3d33c197	0.043885794

fc2.bias f4 [128]
0	0x3d535bc6	0.051601194
1	0x3d71d0c0	0.05903697
2	0x3d108e91	0.035292212
3	0x3d99ead1	0.07515491
4	0x3d4152ba	0.047198035
5	0x3db2ba44	0.087269336
6	0x3e21e332	0.15809324
7	0x3de6b788	0.112654746
8	0xbd2194c7	-0.039448526
9	0x3dc97c9a	0.09838219
10	0xbd572641	-0.052526716
11	0xbc45df73	-0.0120772
12	0x3e130d0c	0.14360446
13	0x3d2c3246	0.042040132
14	0xbdd1e83c	-0.10249373
15	0x3da30c43	0.07961323
16	0x3d858e93	0.065213345
17	0x3dd082f8	0.1018123
18	0x3dbe9eb4	0.09307614
19	0x3a448e20	0.0007497985
20	0xbd0fa043	-0.035064947
21	0x3db16dfa	0.086635545
22	0x3de2a67a	0.11066909
23	0x3e4e6744	0.2015658
24	0x3e0b34e4	0.13594395
25	0x3cf007c6	0.029300582
26	0x3ddc4f74	0.10757342
27	0x3e1050e5	0.14093359
28	0x3b19b89d	0.0023455985
29	0x3c1c3245	0.00953347
30	0x3d9d35c6	0.07676272
31	0x3d622cfe	0.05521869
32	0x3e32e2e2	0.17469361
33	0xbdbaa21a	-0.0911295
34	0x3e436642	0.19081977
35	0x3c636112	0.013878124
36	0x3cf832db	0.030297687
37	0x3e363760	0.17794561
38	0xbd836a67	-0.06416779
39	0xbca5cd33	-0.020239448
40	0x3d43f5f4	0.04784198
41	0x3b954d9d	0.0045563714
42	0xbc9211f0	-0.017830819
43	0x3c7b31cf	0.0153316995
44	0x3e2acebf	0.1668043
45	0x3df1de0b	0.118099295
46	0x3d512f8f	0.051070746
47	0x3c75d469	0.015004256
48	0xbe06ef74	-0.13177282
49	0x3cd62525	0.026140759
50	0x3de9340f	0.113868825
51	0x3d560b91	0.052257124
52	0x3d026293	0.03183229
53	0x3c066ece	0.008205129
54	0x3e3a6599	0.18202819
55	0x3dc71f72	0.097227946
56	0x3c0f7c21	0.008757622
57	0x3daaf293	0.083470486
58	0xbd033f89	-0.032043014
59	0x3d208462	0.03918875
60	0x3c09c7d2	0.008409457
61	0xbd43f245	-0.047838468
62	0x3e35447f	0.1770191
63	0xbce11f5d	-0.027480775
64	0xbbf9bccc	-0.0076213833
65	0xbd8e9c4e	-0.069634065
66	0xbd16c94f	-0.036813077
67	0x3d974e7c	0.073880166
68	0x3dc23b4b	0.094839655
69	0x3dea9227	0.114536576
70	0x3db45f61	0.088072546
71	0x3d9a8ffc	0.07546994
72	0xbd6d9184	-0.058000103
73	0x3dc54d7b	0.09633919
74	0x3c1230e5	0.00892279
75	0x3cfa920f	0.030587224
76	0x3cd60286	0.02612425
77	0x3d64db04	0.055872932
78	0xbe0f6272	-0.14002398
79	0xbc23227c	-0.009956952
80	0x3d1f7327	0.038928177
81	0x3d29d65b	0.04146419
82	0x3e38d3dd	0.1804957
83	0x3c89201c	0.016738944
84	0x3d3d9a77	0.046289887
85	0x3c016188	0.007896788
86	0xbd2bb623	-0.041921746
87	0x3df2991a	0.11845608
88	0xbe252620	-0.16127825
89	0x3e2f14ec	0.17097825
90	0x3df55442	0.119789615
91	0x3e2a0132	0.16602018
92	0x3ce4cdd7	0.027930183
93	0x3c740305	0.014893298
94	0x3cf21196	0.029549401
95	0x3e1f375b	0.1554846
96	0x3d32f4a7	0.04369035
97	0x3c60a8cc	0.013712119
98	0x3d173d1d	0.036923517
99	0x3df29292	0.11844362
100	0xbbeaf896	-0.007170747
101	0x3cd98ee8	0.0265574
102	0x3c5cafaf	0.013469621
103	0x3d6d2554	0.057896927
104	0x3dc15b52	0.09441246
105	0x3e3c0bdb	0.18363898
106	0x3c92e2be	0.017930385
107	0x3c9e9cae	0.01936182
108	0x3e419c54	0.1890729
109	0x3e1b8433	0.15187149
110	0xbce96d0a	-0.028494377
111	0xbd49601e	-0.04916393
112	0xbda9fb63	-0.08299901
113	0x3e2d1a02	0.16904452
114	0x3dadf8bf	0.0849471
115	0x3e449fe5	0.1920162
116	0x3e23e27c	0.16004366
117	0x3d536953	0.051614117
118	0x3e82c8c5	0.255438
119	0x3e013cf4	0.12620908
120	0x3e117c34	0.14207536
121	0x3c86ab48	0.016439095
122	0x3e121086	0.14264116
123	0xbdbab112	-0.09115805
124	0x3e897ffc	0.26855457
125	0x3dd3bc99	0.103387065
126	0xbd0f8474	-0.035038427
127	0xbd13e548	-0.03610733

fc3.weight f4 [128, 128]
0	0x3aee0131	0.0018158314
1	0xbcd9306a	-0.026512343
2	0xbe09e6ee	-0.13466999
3	0xbd103087	-0.03520253
4	0xbc0eed1b	-0.008723523
5	0x3d3a3bb9	0.045467112
6	0x3cf3a40c	0.02974131
7	0xbd1ea62a	-0.038732685
8	0x3dc7449b	0.09729882
9	0xbd59a2ef	-0.0531339
10	0xbdd0fcdd	-0.1020448
11	0x3c91ea74	0.017811991
12	0x3c6a0811	0.01428415
13	0x3d0564e8	0.032566935
14	0x3d6eabe6	0.058269404
15	0x391426ad	0.00014128788
16	0xbcbc2a48	-0.02296938
17	0xbd853a35	-0.06505243
18	0x3cb844a2	0.022493664
19	0x3cacfbcd	0.021116162
20	0x3d52be5e	0.05145108
21	0xbd0828a0	-0.033241868
22	0xbd36551a	-0.044514753
23	0xbc9abc1a	-0.018888522
24	0xbda7269b	-0.0816166
25	0xbd9b46fd	-0.07581899
26	0xbda1bfd7	-0.07897919
27	0x3becf675	0.0072315284
28	0xbc8086fa	-0.015689362
29	0x3bab61ba	0.005230156
30	0xbd21f67c	-0.039541706
31	0xb92b1f7b	-0.00016319558
32	0xbb2c6009	-0.0026302359
33	0xbd8f6a06	-0.07002644
34	0x3d206b4d	0.03916483
35	0x3e024d78	0.12724864
36	0x3c49c447	0.012314863
37	0xbdbdf75e	-0.09275697
38	0xbd6ac81f	-0.057319757
39	0xbc161158	-0.0091594085
40	0xbd8305fa	-0.06397624
41	0xbd384ac3	-0.044993173
42	0x3ddd0a8a	0.10793026
43	0xbdb5c68f	-0.08875763
44	0xbd776f2c	-0.060408756
45	0xbd60c8b5	-0.05487891
46	0xbcb057e5	-0.021526286
47	0x3da67693	0.08128085
48	0xbd744623	-0.0596372
49	0x3d95a91e	0.07307647
50	0x3d251e79	0.040312264
51	0x3dcdb63b	0.10044523
52	0x3c87a5d9	0.016558575
53	0xbd8b59da	-0.06804247
54	0xbd31c030	-0.043396175
55	0xbd6bd01b	-0.05757151
56	0xbcf39fe5	-0.02973933
57	0xbb38b7ea	-0.0028185793
58	0x3ddc1b65	0.107474126
59	0xbe02dfde	-0.12780711
60	0x3dcd79ff	0.100330345
61	0x3c4a55ef	0.01234959
62	0xbc867fcb	-0.016418358
63	0x3d37baf1	0.044856016
64	0x3c55ec60	0.0130568445
65	0x3dc71817	0.09721392
66	0xbd11a911	-0.035561625
67	0x3c685f11	0.014182822
68	0x3cd2938c	0.025705121
69	0xbd3c8ae6	-0.0460309
70	0xbd044a93	-0.032297682
71	0x3cdc3884	0.026882418
72	0x3d9c4f7d	0.07632349
73	0x3cab6e07	0.020926489
74	0x3d2f57d9	0.042808387
75	0x3cf68c94	0.03009633
76	0xbd3f0ab8	-0.04664108
77	0xbd8c7886	-0.068589255
78	0x3bb1a313	0.0054210513
79	0x3c5493ae	0.012974663
80	0xbdd37b60	-0.10326266
81	0x3bec4820	0.0072107464
82	0xbbcce497	-0.006252836
83	0x3e3927dc	0.18081611
84	0xbdc4eb2b	-0.09615167
85	0x3e103e54	0.14086276
86	0x3dc98b8e	0.09841071
87	0xbda1b8ee	-0.07896601
88	0x3da6eb7f	0.08150386
89	0xbd4f3b78	-0.050593823
90	0x3c3a8df2	0.011386381
91	0x3c7b69dc	0.015345063
92	0x3c58427e	0.013199447
93	0x3d6e7351	0.058215443
94	0x3d8662ce	0.06561814
95	0xbcade015	-0.021225015
96	0x3c14b39f	0.009076028
97	0x3d14e7c4	0.03635384
98	0xbd8ab38c	-0.06772527
99	0x3e1350c1	0.14386274
100	0xb9d8bd4e	-0.00041339773
101	0x3d5f2db3	0.05448694
102	0x3ce95f45	0.02848781
103	0xbd74b398	-0.059741586
104	0xbc9e0570	-0.019289702
105	0xbd15b178	-0.0365462
106	0xbd013306	-0.0315428
107	0x3dae3d13	0.08507743
108	0x3bebb704	0.007193448
109	0x3d61cd24	0.055127278
110	0x3d8ddd74	0.069270045
111	0xbcc4f806	-0.024044048
112	0xbc5454ef	-0.012959703
113	0xbcc4c466	-0.024019431
114	0xbda27fe9	-0.07934553
115	0xbd5d00d3	-0.053955864
116	0x3c84a835	0.016193489
117	0x3d9832e8	0.074315846
118	0xbd731529	-0.05934635
119	0xbda8bbcf	-0.08238947
120	0xbddcd969	-0.10783655
121	0xbda69f43	-0.081358455
122	0xbb972c85	-0.0046134614
123	0xbd72805e	-0.05920445
124	0x3d430fff	0.047622677
125	0x3c759c87	0.014990932
126	0xbd8d7252	-0.069065705
127	0x3d8d944f	0.06913053
128	0xbbf8ef29	-0.0075968695
129	0x3dc6c820	0.097061396
130	0x3bcc03cd	0.006226039
131	0x3ddaeb6c	0.106894344
132	0x3d4c7640	0.04991746
133	0x3dadab4e	0.084799394
134	0x3ddddbf7	0.108329706
135	0x3e0febbe	0.14054772
136	0xbccaf49a	-0.024774838
137	0x3dc12a26	0.09431867
138	0xbc93958e	-0.01801565
139	0x3c6293b8	0.013829164
140	0x3d4a5824	0.049400464
141	0x3d927840	0.07151842
142	0x3d0e6ab2	0.03476972
143	0xbcdb9ba0	-0.026807606
144	0x3b7ead8b	0.0038860764
145	0x3dabee0b	0.083950125
146	0xbbc1371f	-0.0058964635
147	0x3dbec44e	0.09314786
148	0xbd692a55	-0.056925137
149	0x3dd793dc	0.10526249
150	0x3d69f02e	0.05711382
151	0x3d8fad5e	0.07015489
152	0x3d873dec	0.066036075
153	0xbd7a3a16	-0.06109055
154	0xbccb13e4	-0.024789758
155	0x3e011eff	0.1260948
156	0xbdf555f9	-0.119792886
157	0x3c58861f	0.013215571
158	0x3d7b9667	0.06142273
159	0x3cd06020	0.025436461
160	0x3d99521b	0.074863635
161	0x3e16d69d	0.14730306
162	0x3d0d16a3	0.034445416
163	0x3de0bc2a	0.109733894
164	0x3c1623a3	0.00916377
165	0xbcc85859	-0.02445619
166	0xbd47de3b	-0.04879592
167	0xbdaf126b	-0.08548435
168	0x3dbb47ae	0.09144531
169	0xbe01b2a2	-0.126658
170	0xbdcef67b	-0.10105606
171	0xbc66a4da	-0.01407739
172	0x3d8aa4df	0.06769728
173	0x3d7aa5a7	0.061193135
174	0x3caf396c	0.021389686
175	0xbd93fed8	-0.07226342
176	0x3d633bd6	0.055476986
177	0xbcc04c28	-0.023473814
178	0xbcf3e12b	-0.029770454
179	0x3d489d56	0.048978172
180	0xbbc7a710	-0.0060929134
181	0x3d7b7d4e	0.061398797
182	0xbc269193	-0.010166544
183	0x3d952068	0.072815716
184	0x3d879d0d	0.06621752
185	0xbd8e7ac7	-0.06957012
186	0xbdcaa507	-0.09894758
187	0x3d00474a	0.031317987
188	0xbda2f7d2	-0.07957424
189	0xbdc9f877	-0.09861844
190	0x3d430882	0.047615536
191	0xbd1c0fe4	-0.038101092
192	0x3d9eaaa3	0.0774739
193	0xbda025c8	-0.07819706
194	0xb91a0ce8	-0.00014691392
195	0x3dad6802	0.084671035
196	0x3d2c6a79	0.042093728
197	0x3ddf83de	0.109138235
198	0x3da81180	0.08206463
199	0x3d9dc0ea	0.07702811
200	0x3d67523c	0.05647491
201	0x3c91605f	0.017746149
202	0xbb957656	-0.004561226
203	0x3cc5e88e	0.024158742
204	0xbdb565d1	-0.088573106
205	0x3df7d0da	0.12100382
206	0x3c821a2b	0.015881618
207	0xbd894bf7	-0.06703942
208	0x3e05d1f6	0.13068375
209	0xbd00bf1b	-0.031432252
210	0x3dd1f5a4	0.1025193
211	0xbca868b9	-0.020557748
212	0x3d3e4d32	0.046460338
213	0x3d594edc	0.05305372
214	0xbdc02749	-0.09382493
215	0x3dbf53ee	0.0934218
216	0x3bf8424a	0.0075762616
217	0xbd103eaa	-0.03521601
218	0x3b1f5c74	0.002431658
219	0xbd97e7c8	-0.07417256
220	0x3c830e8f	0.015998153
221	0xbd04795b	-0.032342296
222	0xbd0efbc4	-0.03490807
223	0x3d4c1be3	0.049831282
224	0x3db2f691	0.08738435
225	0xbd968111	-0.07348836
226	0x3d92aa1d	0.07161353
227	0x3d569a92	0.052393503
228	0xbc765d49	-0.015036889
229	0xbd17fd03	-0.037106525
230	0x3d13e187	0.03610375
231	0x3e157ee0	0.1459918
232	0xbb823e07	-0.0039746794
233	0x3da2dcdc	0.07952282
234	0xbceb47c8	-0.028720751
235	0x3d707bea	0.058711924
236	0x3ceda1a2	0.029007737
237	0xbcbc1ddd	-0.022963459
238	0xbd9c2478	-0.07624143
239	0xbcfcf973	-0.030880665
240	0x3d82adf0	0.06380832
241	0x3c893edb	0.016753605
242	0x3d750f2a	0.059828915
243	0xbc08fee5	-0.008361553
244	0x3d4a8ec8	0.049452573
245	0xbd25f48a	-0.040516414
246	0xbdf3787a	-0.118882135
247	0xbc3d4852	-0.011552887
248	0x3cc2e30a	0.023789901
249	0xbda5a56a	-0.08088191
250	0x3d1d8615	0.03845795
251	0xbdaeb96e	-0.08531462
252	0x3cb90446	0.022585046
253	0x3d97ecf1	0.0741824
254	0xbdec0ae4	-0.11525515
255	0xbe009c66	-0.12559661
