models/dqn_model_epoch_42000.pth (torch, 595624 bytes, 14 tensors)

cnn1.weight f4 [16, 4, 5, 5]
00000000: 1663 47be e76f 333d decd e4bc c29b 49be
00000010: 765c 12be 427e 4bbe a291 46be fe62 94be
00000020: 749a 0ebd 0954 69bd 8db7 8bbe 2c40 24be
00000030: cff0 c1be cde0 15be 6fe9 193d b621 2abe
00000040: afac 5abe 8bd3 23bd b430 83be 3544 453c
00000050: 39f9 56be 9fa0 81be d923 41be bc6e 883d
00000060: 82e3 e23c 6f4c 70bc 9072 0bbd 50f2 c1bd
00000070: b9c7 11be 5455 e33c 19aa 833d dd44 e0bc
00000080: 4e7a cf3c cbff 88bd 0c6e 92bd 0104 41bd
00000090: a378 0dbe b0fb 853c c0a3 083e 5f5d e8bc
000000a0: 49fd d3bd 2b3c a43c 68a1 adbd 61b2 a13c
000000b0: 1700 04be 2015 02bd fde6 983d 3a40 2abd
000000c0: 0734 89bd f16e b2bd b7f3 a93d c8a7 27bc
000000d0: 4512 07be 6baf 52be 2c5a d4bc 3292 c7bc
000000e0: 271f b3bd 4f67 363e ae02 4b3d c5f4 1dbe
000000f0: 0fb8 6b3e a242 6d3e 34e9 023e 910a fc3c
00000100: 996c 57be 1cc8 90be 633c 203e 402f 903e
00000110: 42f3 05be 7fa0 2abe 6e03 24be bfc6 83bc
00000120: 79b9 a23e 8ddc 06be d034 1cbe 0892 bfbd
00000130: a856 7abe 2c86 b8bd a3c5 a7bb e6cc 87bd
00000140: 8964 2bbd d9a9 e13d a449 183e 93f0 c0bd
00000150: 4ce3 093d 5bf0 26be e924 963d b82a a53d
00000160: 6a97 bfbd 09e2 a8bd d08c 03be 6f2e e4bb
00000170: 57a3 983d 20d5 c8bc f8bd f2bd d001 b93d
00000180: 9a39 f53d 2d76 3abe 298e 8fbd 7415 75bd
00000190: 0ff1 f2bd 1695 85be 7f2a 35be 0e60 0b3d
000001a0: 018e 67be 7142 01be 44cc a7bd 1606 a3bb
000001b0: a64f bf39 4609 ae3b 2b10 0cbe 44e1 3cbd
000001c0: 0d16 733c 1e90 74bd b863 7ebd de71 1fbe
000001d0: 36ea 67be 02e8 33be ad8a bdbe ee1a 6ebd
000001e0: 3907 84be 4aae 62be 426b c5bd e15f 90bd
000001f0: ebd3 ffbd 64f5 3bbd fd33 ab3d 8893 6cbd
00000200: 0123 113d d5aa 06be 4900 80bc 5f62 1dbd
00000210: 73c2 dabd f502 be3c 6c6f b6ba 7425 a6bc
00000220: 0018 4dbd a620 12be 0efc 45bd 6dc4 d2bc
00000230: 2b91 0bbe 55e0 cabc 1247 513d 1075 47bd
00000240: fc7c dabd 14aa 1fbb dd65 063d d58f 8cbd
00000250: a4b2 d43d f2a1 e8bd e5da 42be 1db5 303e
00000260: b645 5fbd b861 1e3e 4c57 17be c6ee 3ebe
00000270: 41c4 373e fe16 51be 4cb5 a73d e4ca 20be
00000280: 7bde 8bbe c92f 80be 56c6 b63d 1320 c63d
00000290: 1365 57be 3b49 7cbe 7cc5 0cbe a96e 853e
000002a0: a799 41be 70da 6ebe 3e40 c63e e3fd 973e
000002b0: 122b d33e 89e4 66bd 707b 29be 8912 543e
000002c0: c99f 083e 1df3 723e 909f 8dbc f87b a8bd
000002d0: 47a0 ef3d 09ee f4bd 05bf 1b3e f743 04be
000002e0: 40c8 e0bd 1281 28be cab9 bd3d 3852 813d
000002f0: 6948 a6bd a3cb 1cbe fe26 2bbe 198e ebbc
00000300: 44c6 abbd 0e2a 00be 4245 25bd 4304 0abe
00000310: 9cb4 f1bd 85fe 3a3e 7d25 03be af90 0ebe
00000320: 7006 99be ba42 99bd 2d94 b0be d0b4 463d
00000330: 690d 3abe ea39 64be 481c 21be 3ff8 42be
00000340: 8948 1d3d 0ffc 9b3b ec3b 78be 53c0 5fbe
00000350: 1adf fabd 2b3f e63c 6c91 343e e280 7ebe
00000360: 9a66 6abe d06a 94be 76aa 21be 107e 093e
00000370: ab84 79be 7620 05be c2cf 74be f310 563d
00000380: af56 85bd 5222 05be c7a4 44bc e7d4 0ebe
00000390: 64d9 afbd 66b8 16bd 9a5e 98bb 60c2 b8bc
000003a0: 43ed 7e3d 259a bbbd c51d e43c a775 6ebc
000003b0: fe60 c93c 3bbb 4cbc 61e4 cabd d60e 98bb
000003c0: 79a5 70bb d92e b5bd b2d3 143c b242 3b3e
000003d0: a8d3 0bbc 497e a9bd 7c0a 19be 07ab 68bd
000003e0: e1f4 b93d e3c8 46bc 4494 993d 6364 fc3c
000003f0: a62b 503d 0130 cbbe 74a5 79bd a152 c73c
-0.19471392 0.04380789 -0.027930196 -0.19688323 -0.14293084 -0.19872382 -0.19391492 -0.28981775
-0.034815267 -0.056964908 -0.27288476 -0.16040105 -0.37879035 -0.14636536 0.037576135 -0.16614422
-0.21354936 -0.039996665 -0.25623095 0.012040188 -0.20993508 -0.25317857 -0.18861331 0.06661746
0.027696375 -0.014666661 -0.034044802 -0.094700456 -0.14236344 0.027750649 0.06428928 -0.027376587
0.025326874 -0.06689414 -0.07149896 -0.04712296 -0.1381555 0.016355366 0.13343716 -0.028364835
-0.10351045 0.020048222 -0.084780514 0.019738378 -0.1289066 -0.031758428 0.074659325 -0.041565157
-0.066993766 -0.08712567 0.08298438 -0.010232873 -0.13190563 -0.20574729 -0.025921904 -0.024361704
-0.08746176 0.17812847 0.049563102 -0.15425403 0.23019432 0.2316995 0.12784272 0.030766757
-0.2103752 -0.2827767 0.15648036 0.2816105 -0.13081077 -0.16662787 -0.16016933 -0.01608598
0.3178213 -0.13170071 -0.15254521 -0.09354025 -0.24447119 -0.09009966 -0.0051199957 -0.06630878
-0.041843925 0.11018724 0.14871842 -0.09420886 0.033664033 -0.16302626 0.07331259 0.080647886
-0.09355052 -0.08246238 -0.12846684 -0.006963543 0.074530296 -0.024515688 -0.1185264 0.09033549
0.11973877 -0.18209143 -0.07009537 -0.059834912 -0.118623845 -0.26090306 -0.17691992 0.03402715
-0.22612764 -0.12623002 -0.081932575 -0.0049750907 0.00036489702 0.005311164 -0.13678043 -0.046113268
0.0148368 -0.059707753 -0.062106818 -0.1557078 -0.22647938 -0.17568973 -0.37019864 -0.05813115
-0.2578676 -0.22136799 -0.096395984 -0.070495375 -0.12491592 -0.04588832 0.08359525 -0.057757884
0.035433773 -0.13151105 -0.015625136 -0.038423892 -0.106816195 0.02319477 -0.0013918704 -0.02028153
-0.050071716 -0.14270267 -0.04833608 -0.025728429 -0.13629596 -0.024765173 0.05109317 -0.048695624
-0.1066837 -0.002436285 0.03281199 -0.06863371 0.103856355 -0.113590136 -0.19028814 0.17256589
-0.05450984 0.15466964 -0.14779395 -0.18645772 0.17945959 -0.20418927 0.081888765 -0.15702397
-0.27318177 -0.25036457 0.08924548 0.096740864 -0.2103465 -0.2463731 -0.1374721 0.2606099
-0.1890627 -0.23325515 0.38720888 0.29685888 0.41243798 -0.05637029 -0.16550994 0.20710196
0.13342203 0.23725553 -0.017288 -0.0822677 0.11700492 -0.11959464 0.15209587 -0.12916552
-0.10975695 -0.16455486 0.09263952 0.0631451 -0.0811928 -0.15312056 -0.16714093 -0.02875428
-0.083874255 -0.12516043 -0.040349253 -0.13478188 -0.11802027 0.18261154 -0.1280727 -0.1392238
-0.29887724 -0.0748343 -0.3448805 0.04851228 -0.18169178 -0.22287717 -0.15733445 -0.19040011
0.038399253 0.0047602723 -0.24241608 -0.2185071 -0.122495845 0.028106293 0.17633599 -0.24853852
-0.22890702 -0.2898774 -0.15787682 0.13426995 -0.24367015 -0.13000664 -0.23907378 0.052262258
-0.06510674 -0.13001373 -0.012002177 -0.13948403 -0.08586386 -0.03679695 -0.0046499493 -0.022553623
0.06223799 -0.0916026 0.027846226 -0.014554418 0.024582382 -0.012495811 -0.09906841 -0.0046404405
-0.0036719723 -0.08846826 0.009083675 0.18287161 -0.0085343495 -0.0827604 -0.14945406 -0.05680373
0.0907991 -0.012132856 0.074989825 0.030809587 0.050822876 -0.39685062 -0.060948804 0.024331393

cnn1.bias f4 [16]
00000000: 22c6 603d edaf 4cbd ffc5 8fbd 1058 97bd
00000010: 92ad 123d 2968 93bd b0f2 93bd dfec 8cba
00000020: a02e 883c 00b6 f9bd 0e4c f0bc 7d74 97bd
00000030: 96c7 82bc 3095 b6bd 7023 ca3c e99d 97bd
0.054876454 -0.049972463 -0.07020187 -0.073898435 0.03581006 -0.07197601 -0.07224023 -0.0010751745
0.016623795 -0.12192917 -0.02933314 -0.07395265 -0.01596431 -0.08915174 0.024675101 -0.07403166

cnn2.weight f4 [32, 16, 3, 3]
00000000: 8b90 d53c 715f 6c3d 2d1a d53d 1550 1f3e
00000010: fd8b a2bc 2d8c 2abd fe31 9a3d 6a72 8c3c
00000020: 8fc9 52bd 140f 2e3e c359 c9bd 8ea0 263d
00000030: 97bd 073e ece2 95bd 47c1 f43d 5d75 1c3e
00000040: 0ce3 6abd 48b7 90bd 1aaf 5dbc e2f7 e8bc
00000050: 85ef 81ba b393 a1bc 6257 b33b fb91 57bd
00000060: b643 70bd a648 803c 5d22 66bd cb53 d53d
00000070: 5a96 a3bd 1ae0 8a3c 3de3 273e a945 0c3d
00000080: c332 03bd 0a92 e53d b43f 7a3d 80e6 b5bd
00000090: daed 803d 1f38 9ebc 32bc 9bbc bfa3 de3d
000000a0: a082 743c f040 883d df85 ba3d 5086 f03c
000000b0: bfcf b83d 749b c23d 764c 833d db98 8a3d
000000c0: ff2c ff3d 2631 773d 8020 d43c afc4 5dbc
000000d0: ba80 8c3c 9f48 143d ce17 62bd 4414 0d3d
000000e0: a26b 9c3d 5058 ea3b b7f8 f63c c1bf 833d
000000f0: 671f 373d eb60 113d dab8 d33d d8bc 683d
00000100: 9900 aabd cdf8 463d 629e 3f3d 9251 41bd
00000110: 34de cd3d 9b15 cabc 1d4a 15bd 8765 103c
00000120: 9e9c 663d 0172 7abc 2d0f 66bd 468e e33d
00000130: ac07 bb3d f048 a83d 8740 4c3d f4b9 313d
00000140: 269f 4d3d f55e 8d3d 14e6 a03d 4cad f03d
00000150: 9155 573d 99e4 4c3d d6d5 e33c d65e 8c3d
00000160: 3cfa 15bd b29d 3c3d 4e44 373d 27c4 87bc
00000170: 0cd3 4abc 0cdc 463c a1d0 55bb 47af aabd
00000180: 7277 2d3b dd37 daba a214 26bb e006 993c
00000190: 596f 23bd a3d3 163d e13a a73d d3c7 b23d
000001a0: cc29 5dbd fd77 d53d cd20 423d 32e3 ad3d
000001b0: 6a13 a9bd 38f4 f1bd ebf3 99bc 10a8 c1bb
000001c0: 87f2 373d a884 2abc 22ea 4f3d bac8 5dbd
000001d0: d96d 2ebb f774 1abd 8747 6dbd 8987 bf3c
000001e0: 649f 3c3d d7ec 80bd 6e51 7dbd f3e6 18bd
000001f0: acac a1bd b086 06bd b178 db3d 8032 cdbc
00000200: 4a1e ac3d 21ca 393e 4787 7a3d b088 8f3d
00000210: 0e0a 223e 11b3 b1ba 4b29 c23d bf6c b83c
00000220: fe81 71bd 28ab 8bba 5d12 743d f43c 28bd
00000230: e208 3b3c 1787 1f3d c8ce 4fbd 9d62 c7bd
00000240: cfa9 5abd 901f 123d ac0a e93c 918f 223e
00000250: 830b ad3b 9833 ebbc 1d45 6e3c c17b 073d
00000260: 5cbd 61bc 8c7c 133c 77af eb3d 612c 0ebd
00000270: 89a8 073e 0905 193c cc93 91bb a720 983d
00000280: 9452 fa3d ab17 c2bd 13a1 193c ed0e 8ebd
00000290: 4621 31bd 3f9c b2bd fc38 f3bd 8a34 babd
000002a0: 6925 52bd 6cc2 07be 6549 e5bd fe5d f63d
000002b0: 0a32 f23d 6496 d7bc 7101 233e 3c94 91ba
000002c0: e4c9 b53c 2e92 f13d 8728 903d 36c0 93bd
000002d0: 1d4c dc3c 8ff7 553d 2b65 103d 8da5 883d
000002e0: 792d 343e 138b d23b d009 bf3d 6282 653d
000002f0: 1af1 093d a265 473e e672 243b 420b fe3c
00000300: e286 133e 165b 213c f83b 073c 3be0 6dbd
00000310: c13c 3b3d ad97 0ebe e6d8 06bb 2f61 9bbc
00000320: 8678 10bc 5bbc f93d 844d c83d dc9d f53c
00000330: eaf8 313e 5513 5dbd 4405 dc3d a15c 173c
00000340: 92d3 303d d389 0dbd fe02 40bd 070d 7ebd
00000350: 649d a5bc 86b5 38bd be8b b9bd 75fc b0bc
00000360: 0948 1d3e 6f36 ce3c 7a8e 8aba 680c 293e
00000370: a871 90bc e98b 5fbc 14f3 3b3e bbcb 453d
00000380: e1d1 073d 3817 1a3e cbcd b33d 2804 ac3c
00000390: da46 483b 809b b53d cc2a 213e 4e6e b03d
000003a0: 79c6 0fbd fe23 123d f0d8 cc3c 3bda b73d
000003b0: abec b73b b841 413d a5db 46bc 37b0 8ebd
000003c0: 148f 58bd 02ef 51bd 710e fbbd f952 f23d
000003d0: 5e9c 4c3d 5630 cfbd 044f 893d c33f 523d
000003e0: 6e23 f5bb f20d e03d 3167 913d 2596 c33c
000003f0: ca45 9a3c a872 bcbc 7ba4 91bd f3e3 ec3d
0.0260699 0.057708208 0.10405383 0.15557893 -0.019842142 -0.04163759 0.075290665 0.0171444
-0.051461753 0.1699794 -0.09831574 0.04068046 0.13255917 -0.073186725 0.11950927 0.15279146
-0.057345435 -0.07066208 -0.013530517 -0.028438512 -0.0009913301 -0.019723749 0.0054730633 -0.052629452
-0.058658324 0.015659641 -0.056185115 0.10416373 -0.07987662 0.016952563 0.16395278 0.03424612
-0.032030832 0.11209495 0.06109591 -0.08881855 0.062953666 -0.01931387 -0.019010637 0.10871076
0.014923722 0.06653011 0.09107565 0.02936092 0.090239994 0.095023066 0.06411068 0.06767436
0.12459754 0.060349606 0.025894403 -0.013535663 0.017151225 0.03620207 -0.055198483 0.034443155
0.07637717 0.007151641 0.030147893 0.064330585 0.044707682 0.03549282 0.10337992 0.05682072
-0.08300895 0.04857712 0.046781905 -0.047196932 0.100521475 -0.024668505 -0.036447633 0.0088132685
0.056301706 -0.01528597 -0.056166817 0.11111121 0.09132323 0.08217037 0.049866226 0.04339023
0.050200604 0.06902877 0.07856384 0.11751804 0.052571837 0.050022695 0.027811926 0.06854026
-0.036615595 0.046048827 0.044742875 -0.016573025 -0.012379419 0.012137424 -0.0032625573 -0.08334213
0.00264689 -0.0016648729 -0.0025341888 0.018680036 -0.03990111 0.036822926 0.08165527 0.0872952
-0.05399494 0.104232766 0.047394563 0.084906 -0.08255656 -0.11814159 -0.018793067 -0.005909927
0.044909026 -0.010407604 0.050760396 -0.054146506 -0.0026615767 -0.037709203 -0.057929542 0.023380058
0.046050444 -0.062951736 -0.061845236 -0.037329625 -0.07894263 -0.03284329 0.107163794 -0.025048494
0.08404215 0.18143512 0.061164167 0.07008493 0.15824148 -0.0013557394 0.09480532 0.022512792
-0.05896186 -0.0010655867 0.059587825 -0.041073754 0.011415692 0.03894719 -0.05073431 -0.09735606
-0.0533846 0.03567463 0.028447472 0.15875079 0.0052809133 -0.028711125 0.014542845 0.033077005
-0.013778057 0.009001862 0.11508077 -0.03471029 0.13247885 0.009339579 -0.0044426676 0.07428103
0.12222782 -0.094771706 0.009376782 -0.069364406 -0.043244623 -0.08721208 -0.11876103 -0.09092052
-0.05130521 -0.1325776 -0.111956395 0.12029646 0.118259504 -0.026316829 0.15918519 -0.0011106799
0.022190996 0.1179546 0.0703898 -0.07214396 0.026891762 0.052238043 0.03525273 0.06672201
0.17595471 0.0064252703 0.093280435 0.056032546 0.033677198 0.19472364 0.00250929 0.031011228
0.14406922 0.009848377 0.008254044 -0.05807517 0.045712236 -0.13925047 -0.002057606 -0.01896724
-0.0088177975 0.12194129 0.0978041 0.0299825 0.1738011 -0.053973515 0.10743192 0.009238393
0.04317052 -0.034555268 -0.046877854 -0.062024143 -0.020216651 -0.04509499 -0.09059857 -0.021604756
0.1535951 0.02517244 -0.0010571026 0.16508639 -0.01763232 -0.013644197 0.18354446 0.048289996
0.03315914 0.1504792 0.08779486 0.020998076 0.003055981 0.0886755 0.15738982 0.08614789
-0.035101388 0.035678856 0.025005788 0.08977171 0.00561293 0.047181815 -0.012137328 -0.06967204
-0.052870825 -0.051253326 -0.12258614 0.11832232 0.04995381 -0.10116641 0.06704524 0.05133034
-0.00748103 0.1094016 0.0709976 0.023875305 0.018832106 -0.023003891 -0.0711145 0.11566915

cnn2.bias f4 [32]
00000000: 949d d1bd 42cb f1bc 9502 0ebd bfaa 713b
00000010: beac 1bba daae bbba 4adc 9cbd 5722 923d
00000020: b1c4 94bd f028 30bd 6dcc ff3c 1142 483a
00000030: 35ec afbb 9e6b e43b 8b65 02ba eaa5 debd
00000040: 5ada e53d 1ec8 d13b e869 1bbd 497e cbbd
00000050: f66b e0bd b6ec 9f3c 83a3 56bd 06f4 24bd
00000060: b0a1 93bb 633f afbd 10c2 5ebd ffcd 06be
00000070: 93e8 c63d 331c 74bd 5886 bf3d ef48 0abc
-0.10235134 -0.029515866 -0.03467043 0.0036875454 -0.00059385214 -0.0014319078 -0.07659204 0.07135456
-0.072640784 -0.04300779 0.031225407 0.0007639239 -0.0053687342 0.006970837 -0.00049742375 -0.10871489
0.11223288 0.0064020297 -0.037942797 -0.09936196 -0.10958092 0.019522052 -0.05240203 -0.04027178
-0.0045053586 -0.08557012 -0.05438429 -0.13164519 0.09712329 -0.059597205 0.09351796 -0.00844024

cnn3.weight f4 [32, 32, 3, 3]
00000000: 5d74 ff3c f4a2 75ba 95c6 a43c c9a4 443c
00000010: c0b2 94bd 0a75 3ebd c74c 46bc 9415 c2bc
00000020: 97e4 b539 c61f 2c3e e0fa 2d3d d8e6 96bd
00000030: 1b1f af3d d5fa 2fbd 1e09 18be 20f3 8fbd
00000040: 77ef 42bd e9e9 bcbd 3e70 2c3a 5145 2bbd
00000050: 2564 87bd 9aaa 8d3d 5dd8 57bd 5030 9ebd
00000060: 8f9b 433d 22f0 683d 9760 84bc 84fd 193d
00000070: 6098 b1bb 9069 0a3c 9a62 533d 227c 55bd
00000080: 156a 55bd 4c81 693c 748c cdbc 9b06 d53c
00000090: 9ad5 d53d a51d d43c 0e11 31bc cf51 c6bc
000000a0: d6ab cbbd 6c6d b63b d4b3 e83a b5a2 803d
000000b0: e995 1fbc 6a03 f53d fd25 9fbd 5c92 89bc
000000c0: aac4 123d 5800 c5bd 2dc4 c3bd c929 70bc
000000d0: ab53 c23b e06b 7abb f8c2 3ebb 67f5 d73c
000000e0: b962 80bd e16f 1fbd 1dbb 28bb 02cf eabc
000000f0: 4c5a 463d 3903 61bd 713c 23bd 06da 3fbd
00000100: 3c82 eb3d 426f 903d 22fa 233d 4546 aabb
00000110: e9ed dc3d 8d29 3c3d b0b8 833d 4011 b83d
00000120: 8e51 29bc dfb7 b43c e9de 61bd 9bd8 85bd
00000130: dcbc f6bc ea15 60bd 7e09 313c bbb5 aebc
00000140: e052 70bd 0f7a ba3d c4da acbd fa24 493c
00000150: 4006 bc3c 70a2 f5bd 9533 5f3c cdcc e9bc
00000160: 0243 f5bc faa8 60bd 75dc af3d 27d3 c13d
00000170: 8285 c2bd 8cf5 bd3c ba5f a33c d458 b2bd
00000180: 4925 00bd 709e 123d 60a7 dbbc 75bc 6a3d
00000190: a654 9abd 1fd5 91bd 2bc9 2abd 1bc5 f1bd
000001a0: ecb4 0abe 1c16 5b3d b9be 183d bb34 cdbc
000001b0: 20f3 d63d 18aa 163e aacc 1d3e 2308 e4bc
000001c0: 1520 193e 9dae d73c 6d3e 383c fb20 bd3c
000001d0: 7ea9 adbc fdf5 8a3c 2e62 6e3c 7332 b5bc
000001e0: 4534 a9bb fc73 223d e58c 35bd 2af7 fd3c
000001f0: 7559 033d 8ee3 493d b76f d93d 88f9 10bc
00000200: 6cbb 54bd 1bc3 653d 1be0 5fbd a1c9 61bd
00000210: 4a97 93bc ed96 9f3c 3076 cebd a03c 5a3b
00000220: 804c 20bd fd24 4f3d 88ac babc 98e5 d4bc
00000230: 6160 50bd 2a4a c83c 3817 813b 181c 3ebc
00000240: 05db 883d 02ae 673e 3c06 4d3e f09f cc3c
00000250: b615 b13d e8e6 f83d eaa3 ca3c ee90 b33d
00000260: 5c6c ec3d 6f3d 9b3d 6f39 b83d d625 94bd
00000270: a115 f83c e034 403d c187 93bd 0f77 013c
00000280: 88a7 983c 1e82 2abd 2bfd d5bc 2bed 8fbd
00000290: ef39 8fbd 2849 ae3c 58a5 43bd 7330 05be
000002a0: d21c 2f3c 3b45 d1bd bbb2 45bd 38e8 50bd
000002b0: 81ad 483b 4288 363d 6865 c33c 8dd9 a7bd
000002c0: 844e a2bb 207c 8e3b c331 80bd 27ce 6e3c
000002d0: b93c 38bd e4bc e8bc 7037 2b3d 616f 0dbd
000002e0: ac8c c1bd 6281 08bd 2d3e 0c3b 8656 55bd
000002f0: 4a83 cabc 9f50 a53d a817 d83d 2c1e 07bd
00000300: e5b5 d73b 4032 703c 4d9f 2abd 7f07 3bbd
00000310: d863 873c d294 f9bd ec0a e4bc 3cc8 cebd
00000320: b805 17bd d813 81bd 5d18 eebd b538 e0ba
00000330: 057f 4ebd 94ce 32bd 5ab9 b23c 9583 2f3d
00000340: efb4 883c be6f 9d3d 1dfd b23c 2120 26bd
00000350: 5713 67bc 28d1 99bc 9bd0 bb3d 76d7 8c3c
00000360: 546d 833d 88b1 64bc 271c 4abd eb00 74bc
00000370: 1d06 86bd 9656 a0bd 63dc c8bb a0d5 343d
00000380: 84d3 3abc 3f4b 163d 1f14 febc a0cf 3f3b
00000390: 3e7a bebc 0f06 70bd fed9 8a3c 4ad4 92bc
000003a0: 653f 4d3d 15fc 6a3d 2f04 c73d feb3 1e3b
000003b0: 189f a63b d554 e83c 45cb 4bbd 6116 ebbb
000003c0: 2297 9cbc 0ae9 9e3c ba1e 23bd 5022 133c
000003d0: 20f4 403d d70b 8cbc 6249 eabb 1af0 33bd
000003e0: 177e 04bd e3db 9ebb e60d 96bc e2de a5bc
000003f0: c13f b43c 2e07 123b 4e69 cc3d 58f1 d8bc
0.031183416 -0.000937029 0.020114223 0.0120021785 -0.07260656 -0.046498336 -0.012103266 -0.02369193
0.00034693323 0.16808996 0.04247558 -0.07368249 0.08550855 -0.04296382 -0.14847228 -0.07028794
-0.047591653 -0.09224302 0.00065780047 -0.041814152 -0.06610898 0.06917305 -0.052696574 -0.07724059
0.047755774 0.056869633 -0.016159339 0.037595287 -0.005419776 0.00844802 0.051607706 -0.052120335
-0.05210312 0.014252018 -0.025091387 0.026004126 0.10441132 0.025893042 -0.010807289 -0.024208931
-0.099448845 0.0055672433 0.0017753788 0.06281034 -0.009740331 0.11963542 -0.077709176 -0.016793422
0.035832085 -0.09619206 -0.09558902 -0.0146584 0.005930384 -0.0038211271 -0.002910791 0.026362134
-0.0626883 -0.038925055 -0.0025746294 -0.028663162 0.048425958 -0.054934714 -0.039852563 -0.046838783
0.114994496 0.07052471 0.040033467 -0.005196365 0.10787565 0.045938063 0.06431711 0.08987665
-0.010334386 0.022060333 -0.055144224 -0.06535455 -0.030119352 -0.0547084 0.010805486 -0.02132689
-0.058672786 0.09105312 -0.08440164 0.012276882 0.022952199 -0.11993873 0.013623138 -0.02854004
-0.029939178 -0.05484865 0.08586971 0.09464102 -0.09498121 0.023188375 0.019943107 -0.08708349
-0.031285558 0.03579563 -0.026813209 0.057308633 -0.07535677 -0.07120728 -0.041695755 -0.11805173
-0.13545579 0.053487882 0.037291262 -0.025049558 0.10495591 0.14713323 0.15410104 -0.027835911
0.14953645 0.02632838 0.011245352 0.023087015 -0.021198984 0.016963 0.014549775 -0.022118783
-0.0051637017 0.039661393 -0.04432382 0.031001646 0.032067735 0.04928928 0.10617011 -0.008848555
-0.051936552 0.05609427 -0.054657083 -0.05512393 -0.018016476 0.019481147 -0.10081136 0.0033300295
-0.039135456 0.050572384 -0.022787347 -0.025988385 -0.050873164 0.024449427 0.0039395355 -0.011603378
0.066824 0.22624972 0.2002191 0.024978608 0.08646719 0.12153417 0.024736363 0.087678775
0.115441054 0.07580077 0.089953296 -0.07233779 0.030283751 0.046925426 -0.072036274 0.007901921
0.018634573 -0.041627996 -0.026121696 -0.07027658 -0.06993472 0.021275118 -0.047765106 -0.13006763
0.010688024 -0.10218283 -0.048266154 -0.05100271 0.0030620995 0.04456354 0.023852065 -0.081957914
-0.0049532074 0.004348293 -0.06259491 0.014575518 -0.044979785 -0.028410383 0.041800916 -0.034530047
-0.09450659 -0.033326514 0.0021399364 -0.05208447 -0.024720807 0.08072018 0.10551387 -0.03298776
0.006582963 0.014660418 -0.041655827 -0.045661446 0.016527101 -0.12186588 -0.02783724 -0.100967854
-0.03687069 -0.06302613 -0.11625741 -0.0017106744 -0.050414104 -0.04365404 0.021816898 0.042850096
0.016687838 0.07687329 0.02184921 -0.040557984 -0.014103732 -0.018776491 0.09170648 0.017192584
0.06417337 -0.013958342 -0.049343254 -0.014892797 -0.06544135 -0.07829015 -0.006129788 0.04414904
-0.011402968 0.036692854 -0.031015454 0.0029268041 -0.023251649 -0.058599528 0.01694965 -0.017923493
0.050109286 0.05736931 0.09717595 0.002421617 0.0050848834 0.028360764 -0.0497544 -0.0071742986
-0.019115034 0.019398231 -0.039824225 0.008980349 0.047107816 -0.01709549 -0.007149861 -0.04393015
-0.03234681 -0.00484799 -0.018317174 -0.02024788 0.022003056 0.0022282111 0.09981023 -0.02648227

cnn3.bias f4 [32]
00000000: 8e1d a23c f625 353d e647 c2bd 2655 93bc
00000010: e80a 053d 35a7 06bd 6884 09bd c726 f23d
00000020: f0fa 21bc 8449 79bd 2e07 233c 2899 d2bc
00000030: 7ba9 5cbc 9698 4d3d 9cd0 97bc 90ab 003e
00000040: 18f4 90bd 48e9 9c3b 59a5 2dbd f23c 82bd
00000050: 8d4d 91bd 5dd6 f3bc 5764 8fbd 6139 77bd
00000060: 05b4 4bbc 0b5d 0fbd 612b 88bd 31d7 e43c
00000070: 3785 08bc 54c0 c73d 25ef b13c eb53 1a3e
0.019789483 0.044225655 -0.0948637 -0.017984938 0.032481104 -0.032874305 -0.033573538 0.118238024
-0.009886488 -0.060861126 0.009950442 -0.025707796 -0.013468142 0.050194345 -0.01853209 0.12565446
-0.07077807 0.0047885515 -0.042394016 -0.06359281 -0.0709487 -0.029765302 -0.0700156 -0.060357455
-0.012433057 -0.035000842 -0.06648899 0.027934643 -0.008332542 0.097534806 0.021720478 0.15071075

fc1.weight f4 [128, 768]
00000000: 0549 dbbc a735 cb3c 826e a13c f691 723c
00000010: ef9b fb3c 0854 03bd 6918 42bd 25dc 803c
00000020: de13 91bc 686b 33bc 7c37 c3bc 80b6 0c3a
00000030: f88c d8ba 9901 333b 1a91 1ebc dc43 9d3c
00000040: fd3c fb3b 34de 41bc 82e3 2ebc 2454 353c
00000050: feeb bebc bac7 893c 1098 e7bc 6e1f 4fbc
00000060: af58 16bd 9bff e4bb 7f84 15bd 7195 0fbc
00000070: abe2 3a3b d996 fcbc c090 9bbc b30e f13c
00000080: 6e3e 20bd 2076 813c 236c 273d 7461 45bc
00000090: 9a99 d53c ef68 0f3d b8f4 02bc 6c36 afba
000000a0: 000f 213c b035 0fbc fe11 be3c ac93 57bd
000000b0: 8ae0 27bd e145 923c cefd fdbc ebce 2dbd
000000c0: 072f 26bd fc01 343c 408e 02bd bbfe 06bd
000000d0: b1a7 1cbd 760d b3bb 3424 053c 2c4d 79bc
000000e0: 9293 0abc 902f afbc 9157 1a3c 4ffc e83c
000000f0: ddb2 0cbd 440a 95bc 62cf f7bc f180 3ebd
00000100: 27e7 bf3c df95 4b3c 4661 6ebc b9b8 23bc
00000110: c85c 1bbd c3a1 9d3c 7c67 ad3c 420c 0fbd
00000120: 2849 fbbb 309e 523c 71c8 c3bc 460c 91bc
00000130: 36d8 e83c 1921 8c3c 6df7 be3c d5db 9c3b
00000140: a169 91ba 1be8 e03b 9bda 803c 96af b5bc
00000150: 87ed 02bd 7cae d13c 12db 923a a6e1 23bc
00000160: 31d9 da3b b391 c1bc e5a2 32bb 8f70 e0bc
00000170: 61c2 03bb 3d51 21bd 7a85 213b 5380 023d
00000180: 0a85 c33c e27d 01bd 5b7e 3e3b 32ae 933b
00000190: f48c 49ba 4a28 9b3b 9f56 bdbc 4f59 07bc
000001a0: 229e 1cbd 8abf 47bc 1307 89bc 0199 dabb
000001b0: cdb5 653c 0701 f0bb db1b 87bc e893 14bd
000001c0: 5af8 093c e221 223c 7478 3b3c e1b2 e5bc
000001d0: 1f1e 6a3c 1e51 033a 871d 90bc 2ff8 e83a
000001e0: 8303 e83c 5df6 21bd 3493 be3b cd8a 3a3c
000001f0: 5471 ffbc cc32 20bc 00ed e23a 7ccc 06bd
00000200: ab04 193d 6634 a03c a5b1 4c3c 4bc0 8c3b
00000210: d035 ce3c 3da0 4c3b 1aa1 86bc da3c c5bc
00000220: d201 06bd 28c4 3d3c 26ce 803c e089 d93c
00000230: cf45 8f3b bc91 9b3c 988f 423b 0d24 04bd
00000240: 5293 c5bc 70dd 4b3c b05b 0b3d c048 e03c
00000250: 3011 313b a23a 40bc cc05 dd3c 46e7 103d
00000260: b6e2 0d3d c00f 203c 32a3 b13c 74da c6bb
00000270: 66c4 a6bc 0cfc f0bb f425 0b3d f4e7 0d3d
00000280: 4439 813c 4075 923c 6464 1c3c 7770 a4bc
00000290: 7c5a fdbb a595 063d 4e1b f9bc fa48 44bc
000002a0: 0b46 63bc 6b35 3b3c bbab e7ba f284 eebb
000002b0: eadb 633b d9d9 44bc 5b42 71bd 8cd1 8dbc
000002c0: 7563 d23c d2f1 9ebc ec79 aebc 03bf 24bd
000002d0: 6ebd f4bb ee7a 10bd df0a a63c fa58 2d3a
000002e0: a4ac 37bd f910 2fbd d7b9 17bc d271 28bd
000002f0: 6346 7fbb 5b7d adbc 3850 163c 24d2 2ebd
00000300: df3c 0a3b ff62 8eba 8f48 a7bb ec91 07bd
00000310: 2c4f 00bd b0bc ec3c 1c3e c7ba 51a7 32bc
00000320: fc6f f5bc 5195 4abc 3bb4 313c 0444 f8bc
00000330: beed abbc a981 adbc 1646 00bc ddb7 59bc
00000340: e269 9e3c 97fd b5bc 2260 303c 77f6 11bc
00000350: ab0d a63c 45d8 0dbd 6482 033d c044 da3c
00000360: 4711 0dbd bdfa 17bd 7ad9 18bd d04f c53c
00000370: ea31 10bc 196f 5e3c cfd7 043d 0553 13bd
00000380: 83a0 8dbc e7b4 59bc 09e1 923c 190b 8a3c
00000390: 5e74 d1bc 9214 c2bc 27b8 ca3c d864 063d
000003a0: ebe2 e93b f10d 96bc d934 403c eb4a dbba
000003b0: 458d a6bc e42e bf3c 824c 1cbd 617b dbbc
000003c0: 1924 b23c 5ec4 983a 8311 003d f4c4 15bd
000003d0: 5083 2b3c b4d2 083d 6b7f 2b3a 1a3f 373c
000003e0: b640 f8bc 0fd7 0ebd ec14 083c c51a a53c
000003f0: 8f0b 9fbc 0009 e3bb 1c10 e93c d1c9 00bd
-0.026768217 0.024805857 0.019706015 0.014805308 0.030714003 -0.03206256 -0.04738656 0.015729973
-0.017709669 -0.010950901 -0.023830168 0.0005367771 -0.0016521504 0.0027314185 -0.00967815 0.019197397
0.0076671825 -0.0118327625 -0.010674359 0.011067424 -0.02330589 0.01681887 -0.028270751 -0.012641771
-0.03670567 -0.0069884784 -0.03650331 -0.008763657 0.0028516452 -0.030833649 -0.01898992 0.029425954
-0.039122038 0.015803397 0.04087461 -0.01204716 0.02607422 0.03501218 -0.007992916 -0.0013367659
0.009830236 -0.008740827 0.023201939 -0.052631065 -0.04098562 0.017855586 -0.031004813 -0.04243366
-0.040572193 0.010986801 -0.03187394 -0.032957774 -0.03824586 -0.005464251 0.008126307 -0.015216153
-0.008458035 -0.021384984 0.0094202915 0.028440623 -0.034350265 -0.018193372 -0.030250255 -0.046509687
0.023425652 0.012425869 -0.014549559 -0.009992772 -0.03793028 0.019242173 0.02116751 -0.0349238
-0.007668633 0.012855098 -0.023899289 -0.017706048 0.02842341 0.017105626 0.023311341 0.004786948
-0.0011094102 0.0068636066 0.01572924 -0.022178452 -0.031964805 0.025595896 0.0011204204 -0.010002529
0.0066787233 -0.023629045 -0.0027257737 -0.027397422 -0.0020104873 -0.039384115 0.0024646209 0.03186066
0.023867149 -0.03161419 0.0029067013 0.0045068497 -0.0007688545 0.0047350274 -0.023112593 -0.008261039
-0.038236745 -0.012191663 -0.016727006 -0.0066710715 0.014020395 -0.007324341 -0.016492775 -0.036273867
0.008421028 0.009895774 0.0114422925 -0.028039398 0.014289408 0.0005009341 -0.017592205 0.001777416
0.028321987 -0.03954159 0.005815888 0.011385632 -0.031181969 -0.009777736 0.0017313063 -0.032909855
0.037357967 0.019556236 0.012493526 0.004295384 0.025172144 0.003122344 -0.016434241 -0.024076868
-0.03271658 0.011582412 0.0157233 0.026555002 0.0043723355 0.01899039 0.002968764 -0.032260943
-0.0241181 0.0124429315 0.034022987 0.02737844 0.0027018301 -0.011732729 0.026980303 0.03537681
0.034640037 0.00976938 0.021684263 -0.006068522 -0.020357322 -0.007354265 0.03397174 0.034645036
0.015774377 0.017878175 0.009545419 -0.020073159 -0.007731734 0.032857556 -0.030408528 -0.01198029
-0.01387168 0.01142631 -0.0017675081 -0.007279032 0.003476853 -0.01201483 -0.058901172 -0.017311834
0.02568219 -0.019402418 -0.021298371 -0.040221225 -0.007468871 -0.035273485 0.020268856 0.0006612685
-0.044842377 -0.042740796 -0.009260616 -0.041124173 -0.0038951866 -0.021177938 0.009174399 -0.042680874
0.002109341 -0.0010863243 -0.005105085 -0.033098146 -0.031325504 0.028898567 -0.0015201005 -0.010904149
-0.029960625 -0.012364701 0.010846193 -0.03030587 -0.020987388 -0.02117999 -0.00782921 -0.013288465
0.019337598 -0.022215648 0.010765107 -0.008908859 0.02027019 -0.03463008 0.032106772 0.02664411
-0.034440305 -0.037104357 -0.037316777 0.02408591 -0.008800963 0.013576292 0.032432374 -0.035967845
-0.017288452 -0.013287759 0.01792957 0.016850995 -0.025568184 -0.02369145 0.024746014 0.032811016
0.0071376464 -0.018317195 0.01173135 -0.0016730701 -0.020331034 0.023337789 -0.0381589 -0.02679223
0.021745728 0.0011655202 0.0312667 -0.036564782 0.010468319 0.033404067 0.0006542119 0.011184478
-0.030304294 -0.034873065 0.008305769 0.020154366 -0.019414691 -0.006928563 0.028450064 -0.031442467

fc1.bias f4 [128]
00000000: 0bae c73c a090 11bc a9e4 623c 6215 25bd
00000010: e107 d3bc 54b6 d43c 504b 06bd 8170 27bd
00000020: fbe3 993b b66f 7d3c 2497 abbc 840c e6bc
00000030: 8fe9 13bd 4203 0dbd 3838 1bbd 208d 81bc
00000040: 6913 17bd b216 a3bc d758 7a3d 945b ffba
00000050: 0294 a7bb f22e c63d 57e1 2fbd f250 a73d
00000060: db3a 45bd 3e9a 1939 26c9 babb a15d f0bc
00000070: 6923 dfbc 0e2c 8d3c e242 12bd e57d aa3c
00000080: 3c1e 0ebd 2778 6c3c 4511 07ba 2181 3abd
00000090: e9da ccbc be6c 20bd 956b b7bc c7ed 513b
000000a0: d5da a83c f89d c53d bbb1 04bd 704c c6bc
000000b0: 5466 9dbc 1118 13bd fcd6 d13b 0e84 cd3b
000000c0: 66f8 11bd 48ad f03c a8cc 0a3d f63d d53c
000000d0: 241d bc3b 6831 c13d df91 eebb d413 14bd
000000e0: a597 10bd ba2c fd3b 25f6 8dbc 407e b6bc
000000f0: 0c93 29bd 49cc bb3d 3828 0bbd 58b2 ccbc
00000100: a538 80bc 1a56 cf3c 8f68 ec3d 2d51 d6bb
00000110: 2e72 423c ee32 8c3c 8f1a cfbb 4cb5 a33b
00000120: 86e6 17bc f0fe 373c 9339 52b9 e161 3f3c
00000130: bfd6 1cb7 f28f 10bd ebc5 243c c730 96bb
00000140: 94f1 8cbc e99e dfbb edb3 e93b c8e6 aa3c
00000150: 4b82 053c e4db df3c 97ac ecbc 2284 d5bc
00000160: c966 1fbd 0161 a93d e0ab 89bd 18ac e93d
00000170: 0441 293c f353 b0bc bdab d9ba 1775 24bd
00000180: 8be0 e03a e651 90bb cac3 e2bb 4da8 353c
00000190: cee8 13bd 0113 2ebc 7013 01ba 8b18 913c
000001a0: e1a9 903a daa3 77bc c8e2 1bbd 9c13 84bc
000001b0: bb38 f13d 467b 563c e173 ffbb cf2e 53bc
000001c0: 77ce dd3d 360f ae3c 2006 79bd 04dc 03bd
000001d0: f449 2b3c bf65 8e3c 2cfb afbc de54 6a3d
000001e0: 9e42 75bd f4dc 42bc 6af9 4ebc 970d 4cbd
000001f0: e30e ff3d d4a9 30bd 1492 073d 6b80 6fbd
0.024374982 -0.008884579 0.013848462 -0.040303595 -0.025760593 0.025965847 -0.032786667 -0.040878776
0.004696367 0.0154685285 -0.020946093 -0.02808214 -0.03611141 -0.034426935 -0.03789541 -0.015814364
-0.036883745 -0.019908283 0.06111988 -0.0019482248 -0.0051140795 0.09676923 -0.04293951 0.08169736
-0.048151832 0.00014648677 -0.0057002483 -0.02934152 -0.027238565 0.017232921 -0.035708316 0.020811984
-0.034696802 0.014432943 -0.00051524147 -0.045533303 -0.025006728 -0.039166205 -0.022390166 0.0032032595
0.02061216 0.09649271 -0.03239606 -0.02420637 -0.019213833 -0.035911623 0.006403802 0.0062718457
-0.03563728 0.029379502 0.03388658 0.026030522 0.0057407785 0.094332516 -0.007280573 -0.036151722
-0.03530087 0.007726279 -0.017329285 -0.022276998 -0.0414 0.09169824 -0.033973902 -0.024987385
-0.01565201 0.025309611 0.115433805 -0.0065404386 0.011868043 0.017114129 -0.0063203047 0.0049959775
-0.00927127 0.011230215 -0.00020048609 0.011681051 -9.348324e-06 -0.035293527 0.010056953 -0.0045834514
-0.017205037 -0.0068243635 0.0071320445 0.020861998 0.00814874 0.027326532 -0.028890891 -0.026063982
-0.038916383 0.08270455 -0.06722236 0.114097774 0.010330442 -0.021524405 -0.0016606968 -0.040150728
0.0017156763 -0.0044042943 -0.0069203125 0.011087489 -0.03611069 -0.010624648 -0.0004923856 0.017711898
0.0011036956 -0.015114749 -0.038058072 -0.016122632 0.117783986 0.013090914 -0.0077957963 -0.012889578
0.10830396 0.021247488 -0.060796857 -0.032192245 0.0104546435 0.0173825 -0.021482073 0.057209842
-0.059877984 -0.0118935 -0.012632707 -0.049817648 0.12454011 -0.04313071 0.033098295 -0.05847208

fc2.weight f4 [128, 128]
00000000: bd2d b2bd ce7d 71bd 061c 03bc d831 38bc
00000010: 366e f53c b97a 743d 13b1 3bbd 6942 553d
00000020: ce6c 06bb 3db2 083d 3d65 e23c a18a 04bd
00000030: b453 9ebd 944a 0f3d dde7 a73d 325d 38bd
00000040: 738e 3cbd 5e31 ef3c f97f 893b 0ee0 2b3d
00000050: 4fa9 af3d aece 773d d2aa 893c f757 38bd
00000060: 7ecb 583d 80ef 18bb f304 863d 964e cdbb
00000070: 186a 68bc 55a0 06bb 99f0 b73d 3e90 623d
00000080: a2ee a3bd 8754 07bd c7df a13d a8de c3bd
00000090: 3ce6 b0bd 7678 b33d 03c3 ab3d 0d14 83bd
000000a0: c05c 83bd 10ad 9bbd 6430 cf3c 5cc4 e8bb
000000b0: 277d 1ebd e9ca 9b3d a6db 643d 4176 a73c
000000c0: 8ae0 53bd 2cb7 a2bd 6c63 07bc d039 273d
000000d0: 72b3 563d dc81 e83d 2849 38bc 5424 b53d
000000e0: 203a fa3c 2481 d0bc 90a4 34bc 3fb2 9bbd
000000f0: 7c52 a2bc 4f23 cf3d b9b1 b0bd 0d89 ce3d
00000100: c272 0dbd 00cc 133d 4932 f93d da6c 4dbd
00000110: 81e1 6e3d 0c6b 7dbd 1833 283d 07b5 b13d
00000120: 1df3 2bbd 202f 6b3c 000b d13a 3a66 173d
00000130: 580f c33c 9bb5 1b3d 40ce ebbb 8453 babc
00000140: 3bfa 22bc e3e8 9cbd 234d 53bd 54f4 b93b
00000150: 0874 a3bd 9701 72bd 613e 83bd 4af5 193d
00000160: 8089 55bd 6bec 1ebe 1f74 58bd 6394 7fbc
00000170: 8214 353d 2a7f 703d b902 003d 7068 91bd
00000180: 25e8 423c b80e 3dbd 3e83 4d3d fed1 1e3d
00000190: 9cac 0e3d cc2d 17bd 9d0c 873d 157c 9f3d
000001a0: 14eb cb3c f664 453d e846 123c 7922 22bd
000001b0: a7da 343d 32e4 95bd d090 bbbc 90aa db3c
000001c0: cecc a13d 000b b9bc 681e 78bd 4245 2fbd
000001d0: fd96 88bd d63d 98bd dee5 aebd a2b0 a8bd
000001e0: e570 d43c d836 42bc e74d 4fbd 219a 17bb
000001f0: 3ff5 9a3d a038 15bd 2f51 8cbd 672c 51bd
00000200: 9e0d 80bd 3ef1 febc fdba abbd 9046 eb3b
00000210: 9ba4 a4ba e17c 803c 9c18 cabd 70a8 3cbc
00000220: 3785 8e3d 5b0a 133d 28d5 ae3a fe7c 173d
00000230: 15f8 1cbd 902d 913b 262c 4a3d 8599 3fbd
00000240: a438 1e3d 1cc5 193d 85cc a2bb 30b8 bfbc
00000250: 73cf 07bc 98fc e5bc 9bad 9a3d e09c 65bd
00000260: 51c7 a83d be50 5f3d 08e0 96bd 0577 2fbc
00000270: 07ce 9cbd 4ae8 3f3d 31f0 a93d bc60 f1bc
00000280: 6b23 0ebd adb6 9f3c 920e 0bbd 0a48 bcbd
00000290: 0fbd 96bd 6977 3cbd 8475 153d 8521 a0bd
000002a0: f15d 79bd f617 823c b09f bebc aca7 9bbd
000002b0: 4fe5 63bd b0a0 cebc 6fa6 a33c 993b 1abc
000002c0: 22e3 89bd 79fb 973d c0d6 9a3c 2e9d 3bbd
000002d0: 1030 12bc 3d8e e23d 231f 403d 121e 94bd
000002e0: 977b 2abd e08c 46bc 88a5 85bd 4d56 6a3c
000002f0: beac 8abd a2e8 5d3d 50e9 a3bc 6e46 cbbd
00000300: f3da 45bd 51ef cf3c 2761 303d e35c a53c
00000310: 4217 cfbb ac72 bb3c ae73 c6bc 285e e33c
00000320: f858 a4bc db4b 25bd c411 86bc 206d 743c
00000330: 7d48 8fbd 9854 b43c a314 20bd cbd4 853d
00000340: b755 0bbc 529c 72bc 4dc6 56bd 723b 8a3d
00000350: 4c59 0a3d 5cb3 01bd ea24 9fbc 3020 ebba
00000360: ab3a 18bd 9ce2 a6bd 97b3 96bd dd6c f83c
00000370: e049 08bc eecc 3c3d b95c ddbc 0ca2 abbd
00000380: 159d 45bd 5570 92bd bade 4a3d 8844 3f3c
00000390: b073 3ebd 581b d03c cfa4 8a3d 8ef3 063d
000003a0: a018 33bc a8b0 653c 9aa1 75bd 5ad7 323d
000003b0: f9ed e63d 0226 ffbb f248 133d d2f7 1f3d
000003c0: 8d41 493a be62 4e3d 98b1 d3bd a641 56bd
000003d0: c824 603c 816e 883d 543a a6bd a584 5e3d
000003e0: e826 babc c561 8dbd 3daf 733d 9e93 cd3d
000003f0: 9995 2a3e dc86 b0bd 985d ac3d 97c1 333d
-0.0870013 -0.058957867 -0.008002287 -0.011242352 0.02995978 0.05968735 -0.045823168 0.052065287
-0.002051163 0.033373106 0.027636165 -0.03235877 -0.07730809 0.034983233 0.08198521 -0.045010753
-0.046034288 0.029198345 0.0041961637 0.041961722 0.08577215 0.06049984 0.016805086 -0.045005765
0.05292844 -0.0023336112 0.06543913 -0.0062654717 -0.014185451 -0.0020542343 0.08981437 0.05531334
-0.080045 -0.033039596 0.0790401 -0.09563953 -0.08637664 0.087632105 0.08386805 -0.06400309
-0.06414175 -0.076013684 0.02529163 -0.007103486 -0.038693573 0.076070614 0.055873536 0.02044213
-0.05172781 -0.079450935 -0.00826345 0.04082662 0.052417226 0.11352894 -0.011247911 0.0884482
0.030545294 -0.025452204 -0.011025563 -0.07602357 -0.019814722 0.101141565 -0.08627648 0.10084734
-0.03453327 0.03608322 0.12167794 -0.050152637 0.058320526 -0.061869666 0.04106435 0.08677106
-0.041979898 0.014354497 0.0015948713 0.036962725 0.023811027 0.03801499 -0.007196218 -0.022744901
-0.009947355 -0.07661607 -0.051587235 0.005674878 -0.079811156 -0.059083547 -0.06408382 0.03758744
-0.052133083 -0.15519874 -0.052845117 -0.015599343 0.04420901 0.058715023 0.031252597 -0.07099998
0.011896168 -0.046156615 0.05017399 0.038774483 0.034832582 -0.03690891 0.06594203 0.07787339
0.024892367 0.048191987 0.008928038 -0.039583657 0.044153836 -0.073189154 -0.0228962 0.026814729
0.079003915 -0.022588253 -0.060575873 -0.04279066 -0.06669424 -0.07433669 -0.085399374 -0.08236815
0.025932739 -0.011853896 -0.050611403 -0.002313264 0.07566308 -0.036430955 -0.06851422 -0.051067736
-0.06252597 -0.031120893 -0.083852746 0.0071800426 -0.0012561263 0.015684547 -0.09867975 -0.011514768
0.069590025 0.035898548 0.0013338672 0.036984436 -0.038322527 0.0044304803 0.04935851 -0.046777267
0.038628235 0.037541494 -0.0049682283 -0.023403257 -0.008289206 -0.028074548 0.07552644 -0.05605781
0.082411416 0.05452036 -0.07366949 -0.010709529 -0.07656484 0.046852387 0.08297766 -0.029465072
-0.034701746 0.019496286 -0.033949442 -0.09193428 -0.07360279 -0.046012316 0.036489025 -0.07818893
-0.060880605 0.015880566 -0.023269504 -0.0760034 -0.055638608 -0.025223106 0.019976823 -0.009413623
-0.06732775 0.074210115 0.018901229 -0.045804195 -0.008922592 0.11062286 0.046904694 -0.07232298
-0.04162177 -0.012118548 -0.06525713 0.014302802 -0.06771229 0.054176934 -0.020008713 -0.09925543
-0.04830451 0.02538267 0.0430614 0.020185893 -0.006319911 0.022881828 -0.024225082 0.027754858
-0.020061955 -0.040355545 -0.016365893 0.014918596 -0.06996248 0.022012994 -0.03908218 0.06534728
-0.008504323 -0.0148077775 -0.052435208 0.067496195 0.033776566 -0.03166519 -0.019426782 -0.001793867
-0.037165325 -0.08148691 -0.07358473 0.030325348 -0.008318394 0.046093874 -0.027021753 -0.08380517
-0.04824551 -0.07150332 0.049528815 0.011674054 -0.046497047 0.025403664 0.06769716 0.032947116
-0.010931164 0.014019169 -0.05996857 0.043662407 0.112758584 -0.0077865133 0.035958238 0.0390547
0.00076773093 0.050387137 -0.10336608 -0.0523087 0.013680644 0.06661702 -0.08116594 0.05432572
-0.02272363 -0.06903414 0.059493292 0.10037921 0.1665863 -0.086194724 0.08416289 0.043885794

fc2.bias f4 [128]
00000000: 3095 5a3d 015c 723d 67d5 183d 1f3f 9b3d
00000010: 1cbf 483d 6185 ab3d a3d0 243e 4da7 e83d
00000020: 2f4a 1ebd 0357 ca3d 448a 4cbd 5c2b 54bc
00000030: fc51 163e cfef 283d 281a d3bd a3e1 a03d
00000040: d449 8a3d 0d37 d23d ce68 c43d e2fd 083b
00000050: 017b 1ebd 8395 b53d dc98 ea3d e512 513e
00000060: e130 0e3e e145 fc3c dddd e23d 7ee5 133e
00000070: 2dc5 e6b9 d5a6 163c 679e a23d 05a7 643d
00000080: f350 363e 60e5 bdbd 2234 473e 9a22 433c
00000090: d51b 073d 2ac3 393e 676a 83bd 888b 9fbc
000000a0: f6ba 3c3d 7e49 c13b d5be 8ebc c87f 793c
000000b0: 31df 2e3e e014 f93d 6fdf 573d 2368 873c
000000c0: 74ef 06be 998d d33c 4c87 ed3d ff09 533d
000000d0: ca55 013d 385e fd3b 2166 3e3e a43a cc3d
000000e0: 832f 243c c61b ac3d 8d89 f2bc 93ce 273d
000000f0: 1784 d03b c5e2 24bd 4835 393e 4f43 f8bc
00000100: f04c 00bc 8f43 92bd 1f9f 26bd 8aa8 983d
00000110: 4b38 c73d 5bb5 f13d 988b b83d 5510 9c3d
00000120: 8491 6dbd 6f3e c73d 6692 143c 8c93 dc3c
00000130: 61c6 db3c a204 6a3d 29da 10be 0f45 14bc
00000140: 6c39 203d f0c4 363d 38f6 3b3e 7f11 803c
00000150: 7271 3e3d 1cc1 b13b 009d 3fbd 0aef f53d
00000160: 2026 25be 998a 323e 834e fc3d 8671 2d3e
00000170: fa78 d33c 7227 853c f208 f83c f172 223e
00000180: 155e 343d 4fe9 423c dbb8 143d 6c6e ec3d
00000190: 1490 f8bb 8403 e93c a59e 663c cb10 703d
000001a0: c22a c63d e7c7 3f3e 8fac 8e3c 7362 af3c
000001b0: 8124 453e be54 1d3e 1481 e5bc 4042 5ebd
000001c0: 63fb a9bd 1f78 313e 171c b53d 35e9 483e
000001d0: 8ea1 263e 8f7c 573d a750 853e 952b 053e
000001e0: c853 143e c555 853c 8a4f 153e 38f7 b9bd
000001f0: eaa0 8b3e 5c0c d43d facb 07bd 8a67 16bd
0.053364933 0.059169773 0.03731289 0.07580399 0.04901038 0.083750494 0.16095214 0.11360035
-0.038644966 0.098798774 -0.049936548 -0.012949791 0.14679712 0.041244324 -0.10307723 0.07855537
0.06752363 0.10264406 0.095903024 0.002090328 -0.038691524 0.08866408 0.11454937 0.20417364
0.13885833 0.03079504 0.11077473 0.14443013 -0.00044015926 0.009195049 0.07940369 0.055823345
0.17804317 -0.092722654 0.19453481 0.011910105 0.032985527 0.18140855 -0.06416779 -0.019475713
0.046076737 0.0058986535 -0.01742498 0.015228219 0.17077328 0.12162185 0.052703317 0.016529148
-0.13177282 0.025824355 0.115980715 0.051523205 0.031575955 0.007732179 0.18593647 0.09972122
0.010021093 0.08403735 -0.029606605 0.04096849 0.0063634026 -0.040255327 0.18086731 -0.030305533
-0.007830843 -0.07141792 -0.040679093 0.07454021 0.09727534 0.11802169 0.090110004 0.076203026
-0.058000103 0.09728705 0.009068107 0.026925825 0.026827993 0.057133324 -0.14145721 -0.009049668
0.03911726 0.044621408 0.18355644 0.015633343 0.04649491 0.0054246318 -0.046780586 0.12008484
-0.16127825 0.17435683 0.123196624 0.16937837 0.025814522 0.01625416 0.030277703 0.15864159
0.044035036 0.011896445 0.036309104 0.11544499 -0.007585535 0.02844406 0.01407591 0.058609765
0.09676124 0.187286 0.017416267 0.021409249 0.19252206 0.15364358 -0.02801565 -0.0542624
-0.08299901 0.17330979 0.08843248 0.19620211 0.16272566 0.052609023 0.26038095 0.13004906
0.14485085 0.01627625 0.14581123 -0.09080356 0.27271205 0.1035392 -0.03315351 -0.036719836

fc3.weight f4 [128, 128]
00000000: 265b 9c3b 6f6d c3bc 64d6 0bbe c4ca 02bd
00000010: dda3 40bc 8666 2f3d 8844 063d adb6 1abd
00000020: da8f ca3d 35b1 4ebd 6027 d5bd a3cb 8f3c
00000030: 1da2 8e3c f043 133d 40fe 5e3d 4e6e e4ba
00000040: a9f9 abbc 9897 7dbd 39dc d03c c74b 833c
00000050: 082c 483d f9aa febc 3ebf 2bbd 7dec 87bc
00000060: 3327 a3bd 2584 9cbd 5494 9cbd a2bc 243c
00000070: 54e3 94bc 56d7 7c3b a3ba 12bd 0dae 5fbb
00000080: 4f40 313a c970 98bd 1983 2b3d d8d7 013e
00000090: 18d0 6a3c a1e2 bdbd 1fc8 6abd d520 4fbc
000000a0: 3351 76bd d530 45bd 1725 d73d d14a b6bd
000000b0: 3005 6dbd 7139 57bd 05dd c1bc 2c1c aa3d
000000c0: 2346 74bd 1850 993d cabb 333d 62fa d43d
000000d0: c058 683c ea81 89bd a4de 26bd c716 66bd
000000e0: 29b2 debc cd5c 63bb efd8 dc3d ca74 ffbd
000000f0: 2f48 ce3d 23d3 3f3c a6be 80bc 3897 323d
00000100: 0ce4 313c af51 c23d 37dd 1cbd 09b6 8b3c
00000110: 0b4e e93c 0ac4 32bd ac95 00bd f015 fb3c
00000120: 7d4f 9c3d 6b56 c73c b36e 2a3d 4b5f c03c
00000130: db86 44bd ede1 85bd 3088 743b 1075 523c
00000140: 766d cdbd 887a 763b e459 68bb 9c89 363e
00000150: 63b3 bdbd 19a1 063e c60d ca3d 7f3c 9cbd
00000160: 7feb a63d 895e 47bd 7907 343c 24d3 9c3c
00000170: e4b7 4c3c 2d4e 6b3d 3403 7c3d 5933 9bbc
00000180: ae7e 233c aad1 1d3d 91b4 88bd d0e6 183e
00000190: 8d35 9fbb bbdc 5e3d 7d7d d43c f1c0 67bd
000001a0: 49e4 7bbc 140c 0ebd df86 0cbd f2b9 b33d
000001b0: 1031 323c 40cd 713d 5b51 903d c61b e1bc
000001c0: ef54 54bc a24f b2bc 7bf3 9dbd dee9 56bd
000001d0: b1ed 9f3c 8236 8b3d 22ab 77bd f826 a6bd
000001e0: ca37 ddbd a1dc b1bd 655b eeb9 48b8 72bd
000001f0: 9492 543d 20fc 903c 96b6 93bd e378 883d
00000200: 47ee 24bc 1c05 be3d 79a7 ab3b 0cb2 d53d
00000210: 8bd1 453d 841b a73d 3a32 dc3d 2d8d 0d3e
00000220: 7a46 abbc 5473 bd3d c6fd 73bc 90a1 453c
00000230: 02b5 3a3d 17f8 8c3d fbf5 113d e624 02bd
00000240: da9f 0c3b 4ac8 a63d 3c61 1cbc b550 bd3d
00000250: 6b1f 55bd 1596 d13d 2da8 683d adc6 8d3d
00000260: 4b67 823d d2bc 7bbd 9492 cfbc 9d3f 003e
00000270: 2a78 f9bd 399e 243c 17dd 763d e499 c03c
00000280: ce9e 973d b5b5 183e f348 013d 44f1 df3d
00000290: c7b7 e73b 1de2 d3bc 3bde 47bd b6e0 abbd
000002a0: 2736 b63d 8aee ffbd 8dec cbbd a6e9 6bbc
000002b0: 5d4b 8a3d bd08 743d 8a3b 953c 18ff 9abd
000002c0: d63b 633d f821 d7bc 2980 02bd e3ee 3d3d
000002d0: e431 03bc 20bb 6d3d 63cf 31bc eb9d 923d
000002e0: f215 823d 54ae 98bd 7139 c3bd 0986 f13c
000002f0: 8a21 a9bd 653d c6bd 4318 3c3d b368 0fbd
00000300: 14f8 993d cc12 9ebd 5020 953b 7295 a73d
00000310: a1e9 213d 8365 dc3d 9466 a33d 175a 9b3d
00000320: 3c52 673d 13ac 743c a959 a5bb a019 a83c
00000330: 3743 b7bd 52ac f43d c30b 853c e7a4 84bd
00000340: 16ff 013e 3885 0abd ddfa d33d a640 99bc
00000350: 9d72 313d 0734 4e3d 2136 babd 5294 b83d
00000360: 4a42 f83b 648d 19bd ff66 26bb 7c07 9bbd
00000370: d5a5 713c 3bc7 0abd 18fd 17bd 83b3 423d
00000380: 10f1 ad3d 4487 91bd 8774 8d3d c3d6 493d
00000390: 2525 51bc ef89 1cbd 90e6 0c3d b063 133e
000003a0: 6932 83bb 7007 a43d 3c5a f8bc e343 673d
000003b0: 2eef d43c 24b4 c7bc fd20 94bd f327 d2bc
000003c0: f0ad 823d a603 813c 777b 713d 96f0 ecbb
000003d0: f524 443d 7d45 35bd b013 f2bd c88a 47bc
000003e0: a7ff bc3c 88fd adbd 8fef 1a3d 6eb9 aebd
000003f0: 1759 b03c e5f4 933d e0d6 e4bd f338 fabd
0.004771608 -0.023855893 -0.13656002 -0.031931654 -0.011757818 0.042822383 0.0327802 -0.03777187
0.09890719 -0.050461967 -0.10407901 0.017553156 0.017411286 0.035953462 0.05444169 -0.0017427893
-0.02099307 -0.06191215 0.025495635 0.016027344 0.048870116 -0.031087385 -0.04193043 -0.016592259
-0.07966461 -0.07642392 -0.07645479 0.010054739 -0.018174805 0.0038580499 -0.035822522 -0.0034130842
0.0006761597 -0.07443387 0.04187307 0.12679994 0.01433184 -0.09271742 -0.057319757 -0.012642105
-0.06013603 -0.048142273 0.10505121 -0.08900989 -0.057866275 -0.052545015 -0.02366496 0.083061546
-0.0596372 0.0748598 0.04388026 0.10399319 0.014181316 -0.06714232 -0.04073967 -0.056174066
-0.027184563 -0.0034692765 0.10783564 -0.124734476 0.10072362 0.011708054 -0.015715908 0.043601245
0.010857593 0.09488236 -0.038296904 0.017054575 0.028479597 -0.04364399 -0.03139274 0.030650109
0.07632349 0.0243332 0.041609477 0.02348294 -0.04798017 -0.065372325 0.003731262 0.012845293
-0.10030644 0.0037609655 -0.003545397 0.17825931 -0.09262731 0.13147391 0.09865908 -0.07628726
0.08150386 -0.04867414 0.01098811 0.019143648 0.012495015 0.0574476 0.061526492 -0.018945383
0.009978933 0.03853003 -0.06675065 0.14931798 -0.0048586787 0.054409724 0.025938744 -0.056580488
-0.015374252 -0.034679487 -0.03430831 0.08775701 0.010875955 0.059033632 0.07046767 -0.027479064
-0.012959703 -0.021766488 -0.07712456 -0.052469127 0.01952252 0.06797506 -0.06046594 -0.081129014
-0.108016565 -0.0868466 -0.00045462992 -0.059257776 0.0518976 0.017698348 -0.0721256 0.06663682
-0.010066575 0.09278318 0.00523847 0.1043435 0.04829554 0.08159545 0.107517675 0.13823386
-0.02090763 0.09250513 -0.014892047 0.012062445 0.04558278 0.06883257 0.035634976 -0.03177347
0.0021457584 0.08143671 -0.009544667 0.09243909 -0.052031916 0.10233704 0.05680101 0.0692266
0.06367358 -0.06145937 -0.025338449 0.12524267 -0.121811226 0.010047489 0.06026944 0.02351088
0.074033365 0.14913066 0.03156371 0.1093469 0.0070714685 -0.025864655 -0.04879592 -0.083924696
0.088970475 -0.124966696 -0.09957228 -0.014398968 0.06752656 0.059578646 0.018216867 -0.075681865
0.055476986 -0.026261315 -0.031860504 0.0463704 -0.0080075 0.058039784 -0.0108526675 0.07159027
0.06351842 -0.074551255 -0.095324405 0.029482858 -0.0825835 -0.09679679 0.045921575 -0.03501196
0.0751802 -0.07718429 0.004550971 0.08182801 0.039529447 0.10761549 0.079785496 0.07585543
0.05647491 0.014933604 -0.0050460887 0.020520031 -0.08948367 0.1194693 0.01624096 -0.06476765
0.12694964 -0.033818454 0.10350583 -0.018707585 0.043322194 0.050342586 -0.090923555 0.09012665
0.0075762616 -0.037488356 -0.002539098 -0.07569787 0.01474901 -0.033881407 -0.037106603 0.047534477
0.08493245 -0.07105878 0.069069915 0.04927708 -0.012765204 -0.03821748 0.03439957 0.14393497
-0.004003812 0.08009231 -0.030316465 0.056461226 0.025992956 -0.02437789 -0.072328545 -0.025653815
0.06380832 0.01574881 0.058955636 -0.0072308285 0.047886807 -0.044255722 -0.11820161 -0.012179084
0.023071123 -0.08495623 0.037826117 -0.08531462 0.021526856 0.07224444 -0.11173797 -0.122178935

fc3.bias f4 [128]
00000000: 1724 e23b b719 833d 44f3 c23d 6f9c 943d
00000010: 0bad 983e ff09 f83d ded0 d03d f08b 2c3e
00000020: dc75 d63d acf1 233e d8f8 1e3e 8a64 cb3d
00000030: e762 dfbd f384 1b3e 6d4c 4c3c 7806 bdbc
00000040: 2c48 bc3d a21c 22bc 1598 d73d 1f4e de3d
00000050: e706 25bb 4293 adbd cf0c 25bd 1f45 283e
00000060: adb7 ef3d fdef 38bc dca1 babd 2d75 d03d
00000070: f772 1e3e 2074 de3d d10b 713e 9e61 bebd
00000080: 505e 333e ebf7 003b ee0c 113e f442 d4bd
00000090: 8772 91bd 37af d0bc b191 473e 0c87 043e
000000a0: bd0a bb3d 9420 3c3e 50f0 34bd e827 fe3d
000000b0: b6fe 10bc 98c5 443d 82ab 213e de57 843d
000000c0: 7143 da3b 4a0e 983d ddfd b63d df07 91bc
000000d0: 3f2c e2bd 4c89 943c 0952 383d 33c8 df3d
000000e0: 7817 603e 2a01 9a3d 65cf 1fbd 6bde 273d
000000f0: f430 453e 0602 493e fcc7 363e 9f4f 8b3d
00000100: 4859 d33d 03cd ea3c e54c 7d3d 2dcb 8e3e
00000110: 80ec 943d b0f0 f9ba 9f96 363e dda4 543e
00000120: b3bb 743e 5da0 243e 8ddb 11be 5cc6 cbbb
00000130: 0b66 1d3d 8751 533e cc83 2fbe 795b 083e
00000140: ba46 f2bb 4a7e 0e3e d944 8ebc 9178 293e
00000150: 5a9b 113e dfbb 3f3e 1a58 bfbd e102 7a3d
00000160: 706a bc3d 8683 643e f22e 973d 58de 003e
00000170: 9f23 763e 51e8 6c3e 18da 6e3e 8a67 f93d
00000180: df3a 22bd 6b2a 12be dbeb 3cbd 4a84 433e
00000190: a929 ab3d 07cd e43c 5e52 0fbd 16f1 f83d
000001a0: 337d 2e3e 8897 0e3d fdbd 033e 5bad 733e
000001b0: 3e29 223e abc5 8b3d ccaf 3b3d 3b53 09be
000001c0: 25e6 d23d ed44 18be 27bb 7d3d 8208 e0bd
000001d0: 4e5e 163e 150b db3d a8a1 9a3d 7a8c 943c
000001e0: a976 523e 01e8 16bc 7777 863d 2bf2 60bd
000001f0: 78a2 933d ba78 4abd cdb3 2f3e 4ced 84bd
0.006901275 0.06401389 0.095190555 0.072564 0.2981952 0.121112816 0.10196088 0.16850257
0.10471699 0.16010159 0.15524614 0.09931286 -0.10907536 0.15187435 0.012469393 -0.023074374
0.09193453 -0.009894522 0.10527054 0.10854744 -0.0025181116 -0.08475353 -0.04029542 0.16432618
0.11704955 -0.011287686 -0.091129035 0.101785995 0.15473543 0.10861993 0.23539664 -0.09295963
0.17516446 0.001967902 0.14165089 -0.10364333 -0.071019225 -0.025474174 0.1948917 0.12942141
0.091329075 0.18371803 -0.044174492 0.12409955 -0.00884979 0.048040003 0.15788081 0.06462072
0.0066608717 0.074246004 0.08935139 -0.017703949 -0.110435955 0.018131875 0.04500011 0.10926857
0.21883953 0.07519753 -0.039016146 0.0409836 0.19256955 0.19629678 0.17849725 0.06802296
0.103197634 0.02866221 0.06184091 0.27889386 0.07271671 -0.0019068923 0.17830895 0.20766015
0.23899727 0.16076799 -0.14243908 -0.0062187146 0.038427394 0.20636569 -0.1714012 0.13316144
-0.007393685 0.13915363 -0.017366813 0.16549899 0.14219418 0.18724011 -0.09342976 0.0610379
0.09199989 0.22315797 0.07382001 0.12584817 0.24037026 0.23135497 0.23325384 0.12177952
-0.039606925 -0.14273994 -0.046123367 0.19093433 0.083575554 0.027929796 -0.03499066 0.121553585
0.17039947 0.03481248 0.12865444 0.23796599 0.15836045 0.068248115 0.04582195 -0.13410656
0.10297803 -0.14870043 0.06194606 -0.10939123 0.14684412 0.10695473 0.07550365 0.01813339
0.20553078 -0.0092105875 0.06565755 -0.05491845 0.07208723 -0.04943154 0.17158432 -0.06490573
