models/dqn_model_epoch_24000.pth (torch, 595624 bytes, 14 tensors)

cnn1.weight f4 [16, 4, 5, 5]
0	0xbe476316	-0.19471392
1	0x3d336fe7	0.04380789
2	0xbce4cdde	-0.027930196
3	0xbe499bc2	-0.19688323
4	0xbe125c76	-0.14293084
5	0xbe4b7e42	-0.19872382
6	0xbe4691a2	-0.19391492
7	0xbe9462fe	-0.28981775
8	0xbd0e9a74	-0.034815267
9	0xbd695409	-0.056964908
10	0xbe8bb78d	-0.27288476
11	0xbe24402c	-0.16040105
12	0xbea8bef3	-0.32958183
13	0xbe15e0cd	-0.14636536
14	0x3d95c657	0.07313221
15	0xbe2a21b6	-0.16614422
16	0xbe5aacaf	-0.21354936
17	0xbd23d38b	-0.039996665
18	0xbe8330b4	-0.25623095
19	0x3c454435	0.012040188
20	0xbe56f939	-0.20993508
21	0xbe81a09f	-0.25317857
22	0xbe4123d9	-0.18861331
23	0x3d9ce0cf	0.07660066
24	0x3ceb5c53	0.028730547
25	0xbc704c6f	-0.014666661
26	0xbcfc2d44	-0.030783303
27	0xbd2e46d2	-0.04254801
28	0xbe021539	-0.12703408
29	0x3d43d058	0.047806114
30	0x3d4af76f	0.049552377
31	0xbd0971df	-0.03355586
32	0x3c3b52c2	0.011433305
33	0xbdaaa198	-0.08331603
34	0xbd3492e3	-0.044085395
35	0xbd410401	-0.04712296
36	0xbe09f571	-0.13472535
37	0x3c85fbb0	0.016355366
38	0x3d83c5c4	0.06434205
39	0xbce85d5f	-0.028364835
40	0xbdd3fd49	-0.10351045
41	0xb9cc1c91	-0.00038931196
42	0xbdada168	-0.084780514
43	0x3b4fa165	0.0031681892
44	0xbe040017	-0.1289066
45	0xbd021520	-0.031758428
46	0x3d5e16a2	0.054220803
47	0xbd2a403a	-0.041565157
48	0xbda7694a	-0.08174379
49	0xbdb26ef1	-0.08712567
50	0x3da9f3b7	0.08298438
51	0xbc27a7c8	-0.010232873
52	0xbe071245	-0.13190563
53	0xbe52af6b	-0.20574729
54	0xbcd45a2c	-0.025921904
55	0xbcc79232	-0.024361704
56	0xbdb31f27	-0.08746176
57	0x3e4d2148	0.20032227
58	0x3d4b02ae	0.049563102
59	0xbe1df4c5	-0.15425403
60	0x3e97f634	0.29680026
61	0x3e5e470e	0.21706793
62	0x3d659e4c	0.056059167
63	0x3d4ac498	0.049503893
64	0xbe576c99	-0.2103752
65	0xbe90c81c	-0.2827767
66	0x3e1548f8	0.14578617
67	0x3e8b61a5	0.27222934
68	0xbe05f342	-0.13081077
69	0xbe2aa07f	-0.16662787
70	0xbe24036e	-0.16016933
71	0xbc83c6bf	-0.01608598
72	0x3ea2b979	0.3178213
73	0xbe06dc8d	-0.13170071
74	0xbe1c34d0	-0.15254521
75	0xbdbf9208	-0.09354025
76	0xbe7a56a8	-0.24447119
77	0xbdb8862c	-0.09009966
78	0xbba7c5a3	-0.0051199957
79	0xbd87cce6	-0.06630878
80	0xbd2b6489	-0.041843925
81	0x3de1a9d9	0.11018724
82	0x3e1849a4	0.14871842
83	0xbdc0f093	-0.09420886
84	0x3d09e34c	0.033664033
85	0xbe26f05b	-0.16302626
86	0x3d9624e9	0.07331259
87	0x3da52ab8	0.080647886
88	0xbdbf976a	-0.09355052
89	0xbda8e209	-0.08246238
90	0xbe038cd0	-0.12846684
91	0x3c1d2d86	0.009593373
92	0x3d98a357	0.074530296
93	0xbcc8d520	-0.024515688
94	0xbdf2bdf8	-0.1185264
95	0x3db901d0	0.09033549
96	0x3dc05557	0.09391277
97	0xbe3a762d	-0.18209143
98	0xbd8f8e29	-0.07009537
99	0xbd751574	-0.059834912
100	0xbdf2f10f	-0.118623845
101	0xbe859516	-0.26090306
102	0xbe352a7f	-0.17691992
103	0x3d0b600e	0.03402715
104	0xbe678e01	-0.22612764
105	0xbe014271	-0.12623002
106	0xbda7cc44	-0.081932575
107	0x3abc72fb	0.0014377529
108	0x39bf4fa6	0.00036489702
109	0x3bae0946	0.005311164
110	0xbe0c102b	-0.13678043
111	0xbd10296d	-0.035195757
112	0x3c73160d	0.0148368
113	0xbd478e1f	-0.04871952
114	0xbd6ad778	-0.057334393
115	0xbe1f71de	-0.1557078
116	0xbe67ea36	-0.22647938
117	0xbe33e802	-0.17568973
118	0xbebd8aad	-0.37019864
119	0xbd0fca9e	-0.03510534
120	0xbe840739	-0.2578676
121	0xbe62ae4a	-0.22136799
122	0xbdc56b42	-0.096395984
123	0xbdc7134a	-0.09720476
124	0xbdffd3eb	-0.12491592
125	0xbd3827ab	-0.044959705
126	0x3db05b4c	0.086111635
127	0xbd68c5d1	-0.056829277
128	0x3d035613	0.03206451
129	0xbe06aad5	-0.13151105
130	0x3ca3daa4	0.020001717
131	0xbd33e6c4	-0.043921247
132	0xbd8a63b4	-0.06757298
133	0x3ca858aa	0.02055009
134	0x3cc927b0	0.024555057
135	0xbca62574	-0.02028153
136	0xbd65d658	-0.056112617
137	0xbe1220a6	-0.14270267
138	0xbd59c859	-0.053169582
139	0xbcd2c46d	-0.025728429
140	0xbe0b912b	-0.13629596
141	0xbcfb1c65	-0.030653188
142	0x3d514712	0.05109317
143	0xbd590411	-0.052982394
144	0xbdda7cfc	-0.1066837
145	0x3ca78231	0.020447822
146	0x3ce9edbc	0.028555743
147	0xbd43180e	-0.047630362
148	0x3dcf4753	0.10121026
149	0xbdbd5b94	-0.09245983
150	0xbe42dae5	-0.19028814
151	0x3de7d2a7	0.113194756
152	0xbd5f45b6	-0.05450984
153	0x3e29a217	0.16565739
154	0xbe17574c	-0.14779395
155	0xbe3eeec6	-0.18645772
156	0x3e3835d6	0.17989287
157	0xbe5116fe	-0.20418927
158	0x3da7b54c	0.081888765
159	0xbe20cae4	-0.15702397
160	0xbe8bde7b	-0.27318177
161	0xbe802fc9	-0.25036457
162	0x3dc7e8f4	0.09761229
163	0x3dd83b5e	0.105581984
164	0xbe576513	-0.2103465
165	0xbe7c493b	-0.2463731
166	0xbe0cc57c	-0.1374721
167	0x3e8a57b1	0.27020028
168	0xbe4199a7	-0.1890627
169	0xbe6eda70	-0.23325515
170	0x3ec6403e	0.38720888
171	0x3e97fde3	0.29685888
172	0x3ed32b12	0.41243798
173	0xbd66e489	-0.05637029
174	0xbe297b70	-0.16550994
175	0x3e541289	0.20710196
176	0x3e089fc9	0.13342203
177	0x3e72f31d	0.23725553
178	0xbc8d9f90	-0.017288
179	0xbda87bf8	-0.0822677
180	0x3defa047	0.11700492
181	0xbdf4ee09	-0.11959464
182	0x3e1bbf05	0.15209587
183	0xbe0443f7	-0.12916552
184	0xbde0c840	-0.10975695
185	0xbe288112	-0.16455486
186	0x3defee33	0.11715355
187	0x3d815238	0.0631451
188	0xbda64869	-0.0811928
189	0xbe1ccba3	-0.15312056
190	0xbe2b26fe	-0.16714093
191	0xbceb8e19	-0.02875428
192	0xbdabc644	-0.083874255
193	0xbe002a0e	-0.12516043
194	0xbd254542	-0.040349253
195	0xbe0a0443	-0.13478188
196	0xbdf1b49c	-0.11802027
197	0x3e28fae2	0.16501954
198	0xbe03257d	-0.1280727
199	0xbe0e90af	-0.1392238
200	0xbe990670	-0.29887724
201	0xbd9942ba	-0.0748343
202	0xbeb0942d	-0.3448805
203	0x3d46b4d0	0.04851228
204	0xbe3a0d69	-0.18169178
205	0xbe6439ea	-0.22287717
206	0xbe2ed606	-0.17073831
207	0xbe42f83f	-0.19040011
208	0x3d0c6c56	0.034283005
209	0x3b9bfc0f	0.0047602723
210	0xbe783bec	-0.24241608
211	0xbe5fc053	-0.2185071
212	0xbdfadf1a	-0.122495845
213	0x3ced3734	0.028956987
214	0x3d9bc33d	0.07605598
215	0xbe7e80e2	-0.24853852
216	0xbe6a669a	-0.22890702
217	0xbe946ad0	-0.2898774
218	0xbe21aa76	-0.15787682
219	0x3e097e10	0.13426995
220	0xbe7984ab	-0.24367015
221	0xbe052076	-0.13000664
222	0xbe74cfc2	-0.23907378
223	0x3d688bac	0.056773826
224	0xbd8556af	-0.06510674
225	0xbe052252	-0.13001373
226	0xbc6f53f7	-0.014607421
227	0xbe0a5cdc	-0.13511986
228	0xbdee37d2	-0.11631741
229	0xbd106e82	-0.03526164
230	0xbcbd9660	-0.023142993
231	0xbd283751	-0.04106838
232	0x3d32b5cf	0.043630417
233	0xbde1beee	-0.11022745
234	0x3c18bc76	0.009322276
235	0x3bd9af68	0.0066432245
236	0x3cb3f35c	0.021966629
237	0xbc05350e	-0.008130325
238	0xbda2ca25	-0.07948712
239	0x3bff3209	0.007787947
240	0xb9749db1	-0.00023328398
241	0xbde962fc	-0.11395833
242	0x3c9269a4	0.017872639
243	0x3db10594	0.08643642
244	0x3bdadddf	0.006679281
245	0xbd7c2c6b	-0.061565798
246	0xbe0eeaef	-0.13956808
247	0xbd35d0f2	-0.04438872
248	0xbb3e7c4e	-0.002906579
249	0x3bd92f60	0.006627962
250	0x3d999444	0.074989825
251	0x3cfc6463	0.030809587
252	0x3d502ba6	0.050822876
253	0xbecb3001	-0.39685062
254	0xbd79a574	-0.060948804
255	0x3cc752a1	0.024331393

cnn1.bias f4 [16]
0	0x3d458d7f	0.048230644
1	0xbd55f0ae	-0.052231483
2	0xbdb9783e	-0.090561375
3	0xbd9b1ad5	-0.07573477
4	0x3d054c6a	0.032543577
5	0xbda28487	-0.07935434
6	0xbd95385b	-0.072861396
7	0x3b037dc9	0.0020063987
8	0x3c773d58	0.015090309
9	0xbdf9b600	-0.12192917
10	0xbcc7f015	-0.024406472
11	0xbd8fea54	-0.070271164
12	0xbc89aa0a	-0.016804714
13	0xbdb7d060	-0.08975291
14	0x3c9c7b2d	0.019101704
15	0xbd816a59	-0.06319112

cnn2.weight f4 [32, 16, 3, 3]
0	0x3cdd1ac9	0.026990311
1	0x3d6c5f71	0.057708208
2	0x3dd51a2d	0.10405383
3	0x3e0e1b20	0.13877535
4	0xbcbbeee3	-0.022941059
5	0xbd2a8c2d	-0.04163759
6	0x3d9a31fe	0.075290665
7	0x3c8c726a	0.0171444
8	0xbd52c98f	-0.051461753
9	0x3e2e4418	0.17018163
10	0xbdc959c3	-0.09831574
11	0x3d26060a	0.040533103
12	0x3dfacdb0	0.12246263
13	0xbd95e2ec	-0.073186725
14	0x3df4c147	0.11950927
15	0x3e1d58e2	0.15365937
16	0xbd6ae30c	-0.057345435
17	0xbd9022fa	-0.07037921
18	0xbc5daf1a	-0.013530517
19	0xbce8f7e2	-0.028438512
20	0xb859e27f	-5.1947773e-05
21	0xbd170593	-0.03687055
22	0xbb8b11b4	-0.0042440537
23	0xbd516f1b	-0.05113135
24	0xbd6ed9c8	-0.05831316
25	0x3c8048a6	0.015659641
26	0xbd66225d	-0.056185115
27	0x3dd762f7	0.10516923
28	0xbda3965a	-0.07987662
29	0x3c89ab58	0.016805336
30	0x3e1736e9	0.1476704
31	0x3ced907c	0.02899956
32	0xbd037383	-0.032092582
33	0x3de57dc0	0.112056255
34	0x3d7a3fb4	0.06109591
35	0xbdb57dcc	-0.088618845
36	0x3d80f8f1	0.06297482
37	0xbc95902c	-0.018257223
38	0xbc922ded	-0.017844165
39	0x3dc9927a	0.09842391
40	0x3b866d1a	0.0041023614
41	0x3d80ca60	0.062886
42	0x3dba85df	0.09107565
43	0x3cf08650	0.02936092
44	0x3db8cfbf	0.090239994
45	0x3dc2b0f8	0.0950641
46	0x3d834c76	0.06411068
47	0x3d8b23e8	0.06793958
48	0x3defacb8	0.11702865
49	0x3d621ad0	0.05520135
50	0x3cd8e808	0.026477829
51	0xbc4fbee7	-0.012679792
52	0x3c8c80ba	0.017151225
53	0x3d194276	0.037416898
54	0xbd6043b4	-0.054752067
55	0x3d0d1444	0.034443155
56	0x3d9ee75a	0.077589706
57	0xbc22371b	-0.0099008335
58	0x3c7a33f5	0.015271177
59	0x3d448460	0.047977805
60	0x3d371f67	0.044707682
61	0x3d1160eb	0.03549282
62	0x3dd3b8da	0.10337992
63	0x3d68bcd8	0.05682072
64	0xbdaa0099	-0.08300895
65	0x3d46f8cd	0.04857712
66	0x3d1b1eda	0.03787122
67	0xbd581ddd	-0.052762855
68	0x3dcdde34	0.100521475
69	0xbcc7f2d9	-0.024407791
70	0xbd154a1d	-0.036447633
71	0x3c0e67d1	0.008691744
72	0x3d671f57	0.056426372
73	0xbc6e7b49	-0.014555761
74	0xbd62c198	-0.055360407
75	0x3dcefcb5	0.10106794
76	0x3da17d92	0.07885279
77	0x3d8b9245	0.06815008
78	0x3d4c4fd2	0.04988081
79	0x3d107c3c	0.03527473
80	0x3d1ed75e	0.03877961
81	0x3d8d5ef5	0.06902877
82	0x3da0e614	0.07856384
83	0x3df0ad4c	0.11751804
84	0x3d575591	0.052571837
85	0x3d4ce499	0.050022695
86	0x3ce3d5d6	0.027811926
87	0x3d8c5ed6	0.06854026
88	0xbd15fa3c	-0.036615595
89	0x3d3c9db2	0.046048827
90	0x3d37444e	0.044742875
91	0xbc87c427	-0.016573025
92	0xbc3cb035	-0.01151662
93	0xb9c3e146	-0.0003736114
94	0xbc1f735f	-0.009732096
95	0xbdb605f2	-0.08887853
96	0x3b5de7a2	0.0033859988
97	0xbada37dd	-0.0016648729
98	0xbb2fd403	-0.002682925
99	0x3c9b22f5	0.018937567
100	0xbd202b9b	-0.039104085
101	0x3d1ed416	0.03877648
102	0x3d8c6719	0.06855602
103	0x3d9661e8	0.07342893
104	0xbd91ca23	-0.07118633
105	0x3dd656b4	0.10465756
106	0x3d20bb75	0.039241273
107	0x3d88e5bb	0.066844426
108	0xbda9136a	-0.08255656
109	0xbdf1f438	-0.11814159
110	0xbc99e605	-0.01878644
111	0xbc8fcb05	-0.017552862
112	0x3d25ab33	0.04044647
113	0xbc279875	-0.01022922
114	0x3d4fea22	0.050760396
115	0xbd5dc8ba	-0.054146506
116	0xbb2e6dd9	-0.0026615767
117	0xbd1a74f7	-0.037709203
118	0xbd6d4787	-0.057929542
119	0x3cc772ab	0.02434667
120	0x3d407a81	0.04699183
121	0xbd80cddc	-0.062892646
122	0xbd6ec0c1	-0.058289293
123	0xbd18e6f3	-0.037329625
124	0xbda1acac	-0.07894263
125	0xbd0686b0	-0.03284329
126	0x3ddc3459	0.10752172
127	0xbccd3280	-0.025048494
128	0x3dad1803	0.084518455
129	0x3e3096da	0.17245045
130	0x3d4854dd	0.048909057
131	0x3d5535a8	0.052053124
132	0x3e23a51d	0.15980954
133	0xbab1b311	-0.0013557394
134	0x3dc2e102	0.09515573
135	0x3cb86cbf	0.022512792
136	0xbd7181fe	-0.05896186
137	0xba8bab28	-0.0010655867
138	0x3d4d5824	0.050132886
139	0xbd3b8190	-0.045777857
140	0x3c3fcf93	0.011707204
141	0x3d2684f3	0.040654134
142	0xbd4fcec8	-0.05073431
143	0xbdc7629d	-0.09735606
144	0xbd0f8567	-0.03503933
145	0x3d838b22	0.06423022
146	0x3cef28eb	0.029194316
147	0x3e2beaa3	0.16788726
148	0x3c0c323e	0.008556901
149	0xbc109893	-0.008825439
150	0x3c938d99	0.018011855
151	0x3d17fb46	0.037104867
152	0xbb85427f	-0.004066765
153	0x3ca881ea	0.02056976
154	0x3df532c7	0.11972576
155	0x3c519496	0.012791773
156	0x3e0e6057	0.13903938
157	0x3b037843	0.0020060695
158	0x3c11c9b6	0.008898189
159	0x3d846991	0.06465448
160	0x3de1084d	0.109879114
161	0xbddc79c2	-0.10765411
162	0x3d8abafb	0.06773945
163	0xbb430435	-0.0029757146
164	0xbd2a9e1d	-0.041654695
165	0xbcef58c2	-0.029217128
166	0xbdcc8e4a	-0.09988077
167	0xbd3946a9	-0.045233402
168	0xbd40ffcf	-0.047118958
169	0xbe07c26c	-0.1325776
170	0xbde54965	-0.111956395
171	0x3dce8324	0.10083607
172	0x3e089eb0	0.13341784
173	0x3cc54c97	0.024084372
174	0x3e108ea0	0.14116907
175	0x3b9fb8b0	0.0048743114
176	0x3c28f04e	0.010311199
177	0x3e01436d	0.12623377
178	0x3d931207	0.07181173
179	0xbdae980e	-0.08525096
180	0x3d3deb4c	0.046366975
181	0x3d8efc6f	0.06981742
182	0x3d3f63e0	0.046726108
183	0x3dc6086d	0.09669576
184	0x3e0937bb	0.13400166
185	0x3c9be51a	0.019030143
186	0x3dc4003c	0.09570357
187	0x3d7db6eb	0.061942022
188	0x3d09f11a	0.033677198
189	0x3e42a483	0.19008069
190	0x3c7795bc	0.015111383
191	0x3d0cfe1d	0.03442203
192	0x3e14272f	0.14468072
193	0x3c1848cd	0.009294701
194	0x3cb6ddd3	0.02232257
195	0xbcb9d990	-0.02268675
196	0x3d4821d5	0.04886039
197	0xbde9bdb8	-0.11413139
198	0xbafd17ae	-0.0019309425
199	0xbccef913	-0.025265252
200	0xbc36a278	-0.011147134
201	0x3def8854	0.116959244
202	0x3db14dd8	0.08657426
203	0x3ca0e199	0.019638823
204	0x3e31f8ea	0.1738011
205	0xbd5d1355	-0.053973515
206	0x3ddc0544	0.10743192
207	0x3ac0894a	0.0014689353
208	0x3d313a8d	0.04326873
209	0xbd0d89d3	-0.034555268
210	0xbd442380	-0.047885418
211	0xbd89dc09	-0.067314215
212	0xbcc3fa2e	-0.023923006
213	0xbd2c67f7	-0.042091336
214	0xbdb99583	-0.0906172
215	0xbcb143e0	-0.02163881
216	0x3e16f9ea	0.14743772
217	0x3d1f1984	0.038842693
218	0xbaaca6eb	-0.0013172304
219	0x3e2611b1	0.16217686
220	0xbcba830f	-0.022767572
221	0x3c3c41a4	0.011490259
222	0x3e3fefb3	0.18743782
223	0x3d471a96	0.04860934
224	0x3d33fab9	0.04394028
225	0x3e1a1738	0.1504792
226	0x3db3cdcb	0.08779486
227	0x3cac0428	0.020998076
228	0x3b4846da	0.003055981
229	0x3db59b80	0.0886755
230	0x3e212acc	0.15738982
231	0x3db06e4e	0.08614789
232	0xbd0fc679	-0.035101388
233	0x3d1223fe	0.035678856
234	0x3c73aeed	0.0148732485
235	0x3dc13438	0.09433788
236	0x3c8299e1	0.015942516
237	0x3d9327d2	0.071853295
238	0xbc87d582	-0.0165813
239	0xbd877b08	-0.06615263
240	0xbcf25c7f	-0.029585121
241	0xbd306ea3	-0.04307426
242	0xbdda6bcc	-0.10665092
243	0x3e013824	0.12619072
244	0x3d74ee22	0.059797414
245	0xbdbf0d05	-0.09328655
246	0x3d917b2c	0.07103571
247	0x3d3a757a	0.04552219
248	0x3c5c9f67	0.013465739
249	0x3e00f5cc	0.12593764
250	0x3d9cf680	0.07664204
251	0x3c81f0c0	0.015861869
252	0x3c4ac514	0.012376089
253	0xbce28aeb	-0.027654132
254	0xbd8e966c	-0.069622844
255	0x3de2cf72	0.11074723

cnn2.bias f4 [32]
0	0xbdeb545f	-0.11490702
1	0xbd143daf	-0.03619164
2	0xbd0f5941	-0.03499723
3	0x3a7d2a34	0.0009657473
4	0xbb55895b	-0.003258309
5	0x39492d86	0.00019185813
6	0xbd974701	-0.0738659
7	0x3d98c9f4	0.074603945
8	0xbd9681dc	-0.073489875
9	0xbd33e07d	-0.04391526
10	0x3c825c4c	0.015913151
11	0xbb97b691	-0.004629918
12	0xbcdf69c8	-0.02727212
13	0x3ba449a1	0.00501366
14	0xbb3da613	-0.00289381
15	0xbddea5ea	-0.10871489
16	0x3ddf883a	0.10914655
17	0xbb784281	-0.0037881436
18	0xbd18c2b5	-0.037295062
19	0xbdd6744e	-0.10471402
20	0xbdf9ced8	-0.121976554
21	0x3c4791f8	0.012180798
22	0xbd56ec43	-0.05247141
23	0xbd24f406	-0.04027178
24	0xbc35822e	-0.011078401
25	0xbdaf3f63	-0.08557012
26	0xbd21bb39	-0.03948519
27	0xbe068ffd	-0.13140865
28	0x3dc77b22	0.097402826
29	0xbd741c33	-0.059597205
30	0x3dc3d64d	0.09562359
31	0xbc7ec5dc	-0.015550103

cnn3.weight f4 [32, 32, 3, 3]
0	0x3d35477c	0.044257626
1	0x3bdac0c7	0.006675813
2	0xbb590f15	-0.0033120562
3	0x3c45d3f6	0.012074461
4	0xbd942ae1	-0.07234741
5	0xbd464b3a	-0.048411585
6	0xbc424511	-0.011857287
7	0xbcc59f0c	-0.024123691
8	0xbaa6ba5c	-0.0012720334
9	0x3dd82153	0.10553231
10	0x3d2ca626	0.04215064
11	0xbd90b24a	-0.07065256
12	0x3d02a746	0.031897806
13	0xbd07c271	-0.03314442
14	0xbe09d39e	-0.13459632
15	0xbd95a37a	-0.07306571
16	0xbd1d489a	-0.038399316
17	0xbdba317b	-0.09091469
18	0xbb9e1caa	-0.0048251944
19	0xbd2c28b1	-0.042030994
20	0xbd9612dd	-0.07327817
21	0x3d0a73e2	0.03380192
22	0xbd443a19	-0.04790697
23	0xbda6652e	-0.08124767
24	0x3d2d5009	0.042312656
25	0x3d70d93d	0.058800925
26	0xbb67d294	-0.0035373317
27	0x3d02ca50	0.03193122
28	0xbc429c6d	-0.011878115
29	0x3bf8ecc7	0.0075965854
30	0x3d44b6c7	0.048025873
31	0xbd43b28e	-0.047777705
32	0xbd300ead	-0.042982746
33	0x3c867158	0.016411468
34	0xbcb15ebf	-0.021651624
35	0x3d0048ce	0.031319432
36	0x3dd3bcce	0.10338746
37	0x3cc11a59	0.023572134
38	0xbc0d88be	-0.008638559
39	0xbcdfd441	-0.02732289
40	0xbdbeae78	-0.09310621
41	0x3c3bba60	0.0114580095
42	0x3b503422	0.0031769355
43	0x3d85cdf2	0.065334216
44	0xbb9092c7	-0.0044120285
45	0x3dd776c3	0.10520699
46	0xbdac6725	-0.08418111
47	0xbc834b02	-0.016026977
48	0x3cca5b6e	0.0247018
49	0xbdb4be5c	-0.08825371
50	0xbdaf0569	-0.08545954
51	0xbc816c9e	-0.015798863
52	0x3c30c4aa	0.010789076
53	0x3a70ab10	0.0009180764
54	0xbadd2eb3	-0.0016874879
55	0x3d2387f6	0.039924584
56	0xbd6fe724	-0.058570042
57	0xbd3b1b7d	-0.04568051
58	0x3b9b9c5b	0.0047488636
59	0xbc8fc4d5	-0.017549912
60	0x3d1e4a36	0.03864499
61	0xbd89bf5c	-0.06725952
62	0xbd233c71	-0.039852563
63	0xbd37ff84	-0.044921413
64	0x3de7b594	0.1131393
65	0x3d7476dd	0.05968367
66	0x3d2c43d7	0.042056885
67	0xbb91c45b	-0.004448456
68	0x3dde286f	0.10847556
69	0x3d3d5845	0.04622676
70	0x3d87b3cd	0.06626091
71	0x3dc0da92	0.09416689
72	0xbc5aa084	-0.013343934
73	0x3ceadd12	0.028669868
74	0xbd805861	-0.06266857
75	0xbd596612	-0.053075857
76	0xbcc95267	-0.024575425
77	0xbd48280e	-0.048866324
78	0x3c09defe	0.008414982
79	0xbcaf0b0e	-0.021367576
80	0xbd689d9d	-0.056790937
81	0x3dcd8546	0.100351855
82	0xbda3fc74	-0.08007136
83	0x3c638fa1	0.013889224
84	0x3cf7a16a	0.030228335
85	0xbddf7be7	-0.10912304
86	0xbb4914ca	-0.0030682557
87	0xbc72ea2f	-0.0148263415
88	0xbcf7a68d	-0.030230785
89	0xbd8863a4	-0.0665963
90	0x3d868ecb	0.06570204
91	0x3d9bb91f	0.076036684
92	0xbdad7056	-0.08468692
93	0x3c9ab9f8	0.018887505
94	0x3cc16f89	0.023612754
95	0xbd85fbe8	-0.06542188
96	0xbce8827d	-0.028382534
97	0x3d2e87e7	0.042610075
98	0xbc92e32c	-0.01793059
99	0x3d1db85c	0.038505897
100	0xbd960973	-0.07326021
101	0xbd6bdaa9	-0.057581577
102	0xbd164547	-0.03668716
103	0xbddb564e	-0.10709821
104	0xbdf875da	-0.121318534
105	0x3d6e71ec	0.058214113
106	0x3d2f0a20	0.042734265
107	0xbca2c046	-0.019867074
108	0x3dbbf849	0.09178216
109	0x3e138891	0.14407565
110	0x3dcea435	0.10089914
111	0xbcb68625	-0.022280762
112	0x3dc428fd	0.095781304
113	0x3ccb3929	0.02480753
114	0x3cd948bd	0.026523942
115	0xbb896142	-0.0041925022
116	0xbc9b4e94	-0.018958367
117	0x3c24cd01	0.010058642
118	0x3c3aca48	0.011400767
119	0xbc9d813d	-0.019226665
120	0xbb28c3f1	-0.0025751556
121	0x3d4620b0	0.048371017
122	0xbd070e66	-0.032972716
123	0x3d01d2c7	0.031695154
124	0x3d1314c1	0.035908464
125	0x3d5302e1	0.051516417
126	0x3dd5313c	0.10409781
127	0xbb6400f1	-0.00347906
128	0xbd4516ff	-0.048117634
129	0x3d82b7b9	0.063826986
130	0xbd2d56a6	-0.042318963
131	0xbd44917e	-0.047990315
132	0xbc6f032a	-0.014588157
133	0x3cc59df9	0.024123179
134	0xbdc8d02f	-0.09805333
135	0x3b5a3ca0	0.0033300295
136	0xbd204c80	-0.039135456
137	0x3d4f24fd	0.050572384
138	0xbcbaac88	-0.022787347
139	0xbcd4e598	-0.025988385
140	0xbd506061	-0.050873164
141	0x3cc84a2a	0.024449427
142	0x3b811738	0.0039395355
143	0xbc3e1c18	-0.011603378
144	0x3d876437	0.06610911
145	0x3e58d204	0.21173865
146	0x3e3bd298	0.18342054
147	0x3cadd872	0.021221373
148	0x3da6c8cd	0.081437685
149	0x3df97982	0.12181379
150	0x3cc58833	0.024112796
151	0x3db9ae16	0.090664074
152	0x3df027e9	0.11726362
153	0x3d2500c7	0.040283944
154	0x3db68b84	0.08913329
155	0xbd95b3d2	-0.07309689
156	0x3d5acac4	0.05341603
157	0x3d5b9ddc	0.053617343
158	0xbd83516d	-0.06412015
159	0x3c89088a	0.016727705
160	0x3cc1228d	0.023576045
161	0xbd2bff7f	-0.041991707
162	0xbc60bb75	-0.013716568
163	0xbd8a9149	-0.06765992
164	0xbd8d2fb4	-0.06893864
165	0x3cd6a7d3	0.026203072
166	0xbd1d36e2	-0.03838242
167	0xbdf9ed3c	-0.12203452
168	0x3b191189	0.00233564
169	0xbdbec9f9	-0.09315867
170	0xbd61e7c6	-0.055152677
171	0xbc973a54	-0.01846043
172	0x3d0e33c5	0.03471734
173	0x3d3644d1	0.044499222
174	0x3cc36568	0.023852065
175	0xbd776725	-0.0604011
176	0x3c9aec38	0.018911466
177	0x3b8e7c20	0.004348293
178	0xbd7ac582	-0.061223514
179	0x3c826150	0.015915543
180	0xbd0c2d9d	-0.034223188
181	0xbc0a9c4d	-0.008460117
182	0x3d1a98fa	0.037743546
183	0xbd0d6f61	-0.034530047
184	0xbd96df11	-0.07366765
185	0xbbcd078d	-0.0062570036
186	0x3b0c3e2d	0.0021399364
187	0xbd555686	-0.05208447
188	0xbcca834a	-0.024720807
189	0x3d365e3b	0.04452346
190	0x3dbe859c	0.09302828
191	0xbccf3b6b	-0.025296887
192	0xbb5eddf5	-0.0034006808
193	0x3cab9670	0.020945758
194	0xbc7e0227	-0.015503443
195	0xbd357887	-0.044304397
196	0x3cb9e2a9	0.022691088
197	0xbde52da3	-0.11190345
198	0x3bc8b3e6	0.006124961
199	0xbdab4647	-0.08363014
200	0xbd1770d3	-0.036972832
201	0xbd4dddb4	-0.05026026
202	0xbddc4342	-0.10755016
203	0xbc1bcd37	-0.009509376
204	0xbd2ab3c3	-0.04167534
205	0xbd4c9edf	-0.0499562
206	0x3cede0e7	0.029037906
207	0x3d2f8395	0.042850096
208	0x3c88b4ef	0.016687838
209	0x3d9d6fbe	0.07687329
210	0x3cb2fd1d	0.02184921
211	0xbd262021	-0.040557984
212	0xbc671357	-0.014103732
213	0xbc99d128	-0.018776491
214	0x3dbbd09b	0.09170648
215	0x3c8cd776	0.017192584
216	0x3d584f07	0.05280974
217	0xbbfa9e98	-0.0076483004
218	0xbd4a3156	-0.049363457
219	0xbb777b6a	-0.003776277
220	0xbd6a3d13	-0.05718715
221	0xbd984066	-0.07434158
222	0x3aef3bb5	0.0018252047
223	0x3d406fc4	0.046981588
224	0xbbe47ff9	-0.0069732633
225	0x3d164b3f	0.036692854
226	0xbcfe141f	-0.031015454
227	0x3b3fcfa0	0.0029268041
228	0xbcbe7a3e	-0.023251649
229	0xbd70060f	-0.058599528
230	0x3c8ad9fe	0.01694965
231	0xbc92d44a	-0.017923493
232	0x3d4d3f65	0.050109286
233	0x3d6afc15	0.05736931
234	0x3decda52	0.11565079
235	0x3c1617d6	0.009160956
236	0x3ba470b3	0.0050183176
237	0x3cfcba52	0.030850563
238	0xbd238800	-0.03992462
239	0x3ba5e906	0.005063179
240	0xba2ebd89	-0.0006665816
241	0x3cf3a8e5	0.029743621
242	0xbd0bf8af	-0.03417271
243	0x3c132250	0.008980349
244	0x3d3dfd43	0.046384107
245	0xbc96ccc3	-0.018408185
246	0xbbea4962	-0.007149861
247	0xbd33f01a	-0.04393015
248	0xbd047e17	-0.03234681
249	0xbb9edbe3	-0.00484799
250	0xbc960de6	-0.018317174
251	0xbca5dee2	-0.02024788
252	0x3cc0d94b	0.023541113
253	0x3c2f8e68	0.010715105
254	0x3dd4906a	0.10379107
255	0xbcd2b8ac	-0.025722824

cnn3.bias f4 [32]
0	0x3ca598ef	0.020214526
1	0x3d2d9e6a	0.042387404
2	0xbdc247e6	-0.0948637
3	0xbc935526	-0.017984938
4	0x3d050ae8	0.032481104
5	0xbcc1b71c	-0.023646884
6	0xbd098468	-0.033573538
7	0x3dbe8e8f	0.09304535
8	0xbc21faf0	-0.009886488
9	0xbd794984	-0.060861126
10	0x3c23072e	0.009950442
11	0xbcd29928	-0.025707796
12	0xbc5ca97b	-0.013468142
13	0x3d536620	0.051611066
14	0xbc97d09c	-0.01853209
15	0x3e0b703c	0.13617033
16	0xbd90f418	-0.07077807
17	0x3b9ce948	0.0047885515
18	0xbd2da559	-0.042394016
19	0xbd823cf2	-0.06359281
20	0xbd914d8d	-0.0709487
21	0xbcf3d65d	-0.029765302
22	0xbd8f6457	-0.0700156
23	0xbd773961	-0.060357455
24	0xbbd309d2	-0.0064403797
25	0xbd0f5d0b	-0.035000842
26	0xbd882b61	-0.06648899
27	0x3ce4d731	0.027934643
28	0xbc088537	-0.008332542
29	0x3dc36134	0.095400244
30	0x3cb1ef25	0.021720478
31	0x3e1db134	0.15399629

fc1.weight f4 [128, 768]
0	0xbcdb4905	-0.026768217
1	0x3ccb35a7	0.024805857
2	0x3ca16e82	0.019706015
3	0x3c7291f6	0.014805308
4	0x3cfb9bef	0.030714003
5	0xbd035408	-0.03206256
6	0xbd421869	-0.04738656
7	0x3c80dc25	0.015729973
8	0xbc9113de	-0.017709669
9	0xbc336b68	-0.010950901
10	0xbcc3377c	-0.023830168
11	0x3a0cb680	0.0005367771
12	0xbad88cf8	-0.0016521504
13	0x3b330199	0.0027314185
14	0xbc1e911a	-0.00967815
15	0x3c9d43dc	0.019197397
16	0x3bfb3cfd	0.0076671825
17	0xbc41de34	-0.0118327625
18	0xbc2ee382	-0.010674359
19	0x3c355424	0.011067424
20	0xbcbeebfe	-0.02330589
21	0x3c89c7ba	0.01681887
22	0xbce79810	-0.028270751
23	0xbc4f1f6e	-0.012641771
24	0xbd1658af	-0.03670567
25	0xbbe4ff9b	-0.0069884784
26	0xbd15847f	-0.03650331
27	0xbc0f9571	-0.008763657
28	0x3b3ae2ab	0.0028516452
29	0xbcfc96d9	-0.030833649
30	0xbc9b90c0	-0.01898992
31	0x3cf10eb3	0.029425954
32	0xbd203e6e	-0.039122038
33	0x3c817620	0.015803397
34	0x3d276c23	0.04087461
35	0xbc456174	-0.01204716
36	0x3cd5999a	0.02607422
37	0x3d0f68ef	0.03501218
38	0xbc02f4b8	-0.007992916
39	0xbaaf366c	-0.0013367659
40	0x3c210f00	0.009830236
41	0xbc0f35b0	-0.008740827
42	0x3cbe11fe	0.023201939
43	0xbd5793ac	-0.052631065
44	0xbd27e08a	-0.04098562
45	0x3c9245e1	0.017855586
46	0xbcfdfdce	-0.031004813
47	0xbd2dceeb	-0.04243366
48	0xbd262f07	-0.040572193
49	0x3c3401fc	0.010986801
50	0xbd028e40	-0.03187394
51	0xbd06febb	-0.032957774
52	0xbd1ca7b1	-0.03824586
53	0xbbb30d76	-0.005464251
54	0x3c052434	0.008126307
55	0xbc794d2c	-0.015216153
56	0xbc0a9392	-0.008458035
57	0xbcaf2f90	-0.021384984
58	0x3c1a5791	0.0094202915
59	0x3ce8fc4f	0.028440623
60	0xbd0cb2dd	-0.034350265
61	0xbc950a44	-0.018193372
62	0xbcf7cf62	-0.030250255
63	0xbd3e80f1	-0.046509687
64	0x3cbfe727	0.023425652
65	0x3c4b95df	0.012425869
66	0xbc6e6146	-0.014549559
67	0xbc23b8b9	-0.009992772
68	0xbd1b5cc8	-0.03793028
69	0x3c9da1c3	0.019242173
70	0x3cad677c	0.02116751
71	0xbd0f0c42	-0.0349238
72	0xbbfb4928	-0.007668633
73	0x3c529e30	0.012855098
74	0xbcc3c871	-0.023899289
75	0xbc910c46	-0.017706048
76	0x3ce8d836	0.02842341
77	0x3c8c2119	0.017105626
78	0x3cbef76d	0.023311341
79	0x3b9cdbd5	0.004786948
80	0xba9169a1	-0.0011094102
81	0x3be0e81b	0.0068636066
82	0x3c80da9b	0.01572924
83	0xbcb5af96	-0.022178452
84	0xbd02ed87	-0.031964805
85	0x3cd1ae7c	0.025595896
86	0x3a92db12	0.0011204204
87	0xbc23e1a6	-0.010002529
88	0x3bdad931	0.0066787233
89	0xbcc191b3	-0.023629045
90	0xbb32a2e5	-0.0027257737
91	0xbce0708f	-0.027397422
92	0xbb03c261	-0.0020104873
93	0xbd21513d	-0.039384115
94	0x3b21857a	0.0024646209
95	0x3d028053	0.03186066
96	0x3cc3850a	0.023867149
97	0xbd017de2	-0.03161419
98	0x3b3e7e5b	0.0029067013
99	0x3b93ae32	0.0045068497
100	0xba498cf4	-0.0007688545
101	0x3b9b284a	0.0047350274
102	0xbcbd569f	-0.023112593
103	0xbc07594f	-0.008261039
104	0xbd1c9e22	-0.038236745
105	0xbc47bf8a	-0.012191663
106	0xbc890713	-0.016727006
107	0xbbda9901	-0.0066710715
108	0x3c65b5cd	0.014020395
109	0xbbf00107	-0.007324341
110	0xbc871bdb	-0.016492775
111	0xbd1493e8	-0.036273867
112	0x3c09f85a	0.008421028
113	0x3c2221e2	0.009895774
114	0x3c3b7874	0.0114422925
115	0xbce5b2e1	-0.028039398
116	0x3c6a1e1f	0.014289408
117	0x3a03511e	0.0005009341
118	0xbc901d87	-0.017592205
119	0x3ae8f82f	0.001777416
120	0x3ce80383	0.028321987
121	0xbd21f65d	-0.03954159
122	0x3bbe9334	0.005815888
123	0x3c3a8acd	0.011385632
124	0xbcff7154	-0.031181969
125	0xbc2032cc	-0.009777736
126	0x3ae2ed00	0.0017313063
127	0xbd06cc7c	-0.032909855
128	0x3d1904ab	0.037357967
129	0x3ca03466	0.019556236
130	0x3c4cb1a5	0.012493526
131	0x3b8cc04b	0.004295384
132	0x3cce35d0	0.025172144
133	0x3b4ca03d	0.003122344
134	0xbc86a11a	-0.016434241
135	0xbcc53cda	-0.024076868
136	0xbd0601d2	-0.03271658
137	0x3c3dc428	0.011582412
138	0x3c80ce26	0.0157233
139	0x3cd989e0	0.026555002
140	0x3b8f45cf	0.0043723355
141	0x3c9b91bc	0.01899039
142	0x3b428f98	0.002968764
143	0xbd04240d	-0.032260943
144	0xbcc59352	-0.0241181
145	0x3c4bdd70	0.0124429315
146	0x3d0b5bb0	0.034022987
147	0x3ce048c0	0.02737844
148	0x3b311130	0.0027018301
149	0xbc403aa2	-0.011732729
150	0x3cdd05cc	0.026980303
151	0x3d10e746	0.03537681
152	0x3d0de2b6	0.034640037
153	0x3c200fc0	0.00976938
154	0x3cb1a332	0.021684263
155	0xbbc6da74	-0.006068522
156	0xbca6c466	-0.020357322
157	0xbbf0fc0c	-0.007354265
158	0x3d0b25f4	0.03397174
159	0x3d0de7f4	0.034645036
160	0x3c813944	0.015774377
161	0x3c927540	0.017878175
162	0x3c1c6464	0.009545419
163	0xbca47077	-0.020073159
164	0xbbfd5a7c	-0.007731734
165	0x3d0695a5	0.032857556
166	0xbcf91b4e	-0.030408528
167	0xbc4448fa	-0.01198029
168	0xbc63460b	-0.01387168
169	0x3c3b356b	0.01142631
170	0xbae7abbb	-0.0017675081
171	0xbbee84f2	-0.007279032
172	0x3b63dbea	0.003476853
173	0xbc44d9d9	-0.01201483
174	0xbd71425b	-0.058901172
175	0xbc8dd18c	-0.017311834
176	0x3cd26375	0.02568219
177	0xbc9ef1d2	-0.019402418
178	0xbcae79ec	-0.021298371
179	0xbd24bf03	-0.040221225
180	0xbbf4bd6e	-0.007468871
181	0xbd107aee	-0.035273485
182	0x3ca60adf	0.020268856
183	0x3a2d58fa	0.0006612685
184	0xbd37aca4	-0.044842377
185	0xbd2f10f9	-0.042740796
186	0xbc17b9d7	-0.009260616
187	0xbd2871d2	-0.041124173
188	0xbb7f4663	-0.0038951866
189	0xbcad7d5b	-0.021177938
190	0x3c165038	0.009174399
191	0xbd2ed224	-0.042680874
192	0x3b0a3cdf	0.002109341
193	0xba8e62ff	-0.0010863243
194	0xbba7488f	-0.005105085
195	0xbd0791ec	-0.033098146
196	0xbd004f2c	-0.031325504
197	0x3cecbcb0	0.028898567
198	0xbac73e1c	-0.0015201005
199	0xbc32a751	-0.010904149
200	0xbcf56ffc	-0.029960625
201	0xbc4a9551	-0.012364701
202	0x3c31b43b	0.010846193
203	0xbcf84404	-0.03030587
204	0xbcabedbe	-0.020987388
205	0xbcad81a9	-0.02117999
206	0xbc004616	-0.00782921
207	0xbc59b7dd	-0.013288465
208	0x3c9e69e2	0.019337598
209	0xbcb5fd97	-0.022215648
210	0x3c306022	0.010765107
211	0xbc11f677	-0.008908859
212	0x3ca60dab	0.02027019
213	0xbd0dd845	-0.03463008
214	0x3d038264	0.032106772
215	0x3cda44c0	0.02664411
216	0xbd0d1147	-0.034440305
217	0xbd17fabd	-0.037104357
218	0xbd18d97a	-0.037316777
219	0x3cc54fd0	0.02408591
220	0xbc1031ea	-0.008800963
221	0x3c5e6f19	0.013576292
222	0x3d04d7cf	0.032432374
223	0xbd135305	-0.035967845
224	0xbc8da083	-0.017288452
225	0xbc59b4e7	-0.013287759
226	0x3c92e109	0.01792957
227	0x3c8a0b19	0.016850995
228	0xbcd1745e	-0.025568184
229	0xbcc21492	-0.02369145
230	0x3ccab827	0.024746014
231	0x3d0664d8	0.032811016
232	0x3be9e2eb	0.0071376464
233	0xbc960df1	-0.018317195
234	0x3c4034d9	0.01173135
235	0xbadb4aeb	-0.0016730701
236	0xbca68d45	-0.020331034
237	0x3cbf2ee4	0.023337789
238	0xbd1c4c82	-0.0381589
239	0xbcdb7b61	-0.02679223
240	0x3cb22419	0.021745728
241	0x3a98c45e	0.0011655202
242	0x3d001183	0.0312667
243	0xbd15c4f4	-0.036564782
244	0x3c2b8350	0.010468319
245	0x3d08d2b4	0.033404067
246	0x3a2b7f6b	0.0006542119
247	0x3c373f1a	0.011184478
248	0xbcf840b6	-0.030304294
249	0xbd0ed70f	-0.034873065
250	0x3c0814ec	0.008305769
251	0x3ca51ac5	0.020154366
252	0xbc9f0b8f	-0.019414691
253	0xbbe30900	-0.006928563
254	0x3ce9101c	0.028450064
255	0xbd00c9d1	-0.031442467

fc1.bias f4 [128]
0	0x3cc7ae0b	0.024374982
1	0xbc1190a0	-0.008884579
2	0x3ca1db08	0.019757763
3	0xbd251562	-0.040303595
4	0xbcd307e1	-0.025760593
5	0x3d0c5050	0.03425628
6	0xbca8c6d5	-0.020602623
7	0xbd277081	-0.040878776
8	0x3b99e3fb	0.004696367
9	0x3c7d6fb6	0.0154685285
10	0xbcab9724	-0.020946093
11	0xbce60c84	-0.02808214
12	0xbccac91e	-0.024754103
13	0xbd0d0342	-0.034426935
14	0xbd1b3838	-0.03789541
15	0xbc18b7b5	-0.009321143
16	0xbd171369	-0.036883745
17	0xbca316b2	-0.019908283
18	0x3d648876	0.0557942
19	0xbaff5b94	-0.0019482248
20	0xbba79402	-0.0051140795
21	0x3dcc69e6	0.09981136
22	0xbd2fe157	-0.04293951
23	0x3da750f2	0.08169736
24	0xbd453adb	-0.048151832
25	0x39199a3e	0.00014648677
26	0xbbbac926	-0.0057002483
27	0xbcf05da1	-0.02934152
28	0xbcdf2369	-0.027238565
29	0x3c8d2c0e	0.017232921
30	0xbd1242e2	-0.035708316
31	0x3caa7de5	0.020811984
32	0xbd0e1e3c	-0.034696802
33	0x3cbbe886	0.022938024
34	0xba071145	-0.00051524147
35	0xbd1fefcf	-0.03904706
36	0xbcccdae9	-0.025006728
37	0xbd206cbe	-0.039166205
38	0xbcb76b95	-0.022390166
39	0x3b51edc7	0.0032032595
40	0x3ca8dad5	0.02061216
41	0x3dc7b24e	0.09750806
42	0xbd04b1bb	-0.03239606
43	0xbcc64c70	-0.02420637
44	0xbc9d6654	-0.019213833
45	0xbd131811	-0.035911623
46	0x3bd1d6fc	0.006403802
47	0x3bcd840e	0.0062718457
48	0xbd11f866	-0.03563728
49	0x3cf0ad48	0.029379502
50	0x3d0acca8	0.03388658
51	0x3cd53df6	0.026030522
52	0x3bbc1d24	0.0057407785
53	0x3dc570ad	0.09640632
54	0xbbee91df	-0.007280573
55	0xbd1413d4	-0.036151722
56	0xbd1097a5	-0.03530087
57	0x3bfd2cba	0.007726279
58	0xbc8df625	-0.017329285
59	0xbcb67e40	-0.022276998
60	0xbd29930c	-0.0414
61	0x3dbbcc49	0.09169824
62	0xbd0b2838	-0.033973902
63	0xbcccb258	-0.024987385
64	0xbc8038a5	-0.01565201
65	0x3ccf561a	0.025309611
66	0x3df5f90b	0.12010392
67	0x3a3a53ad	0.00071078056
68	0x3c42722e	0.011868043
69	0x3c8c32ee	0.017114129
70	0xbbcf1a8f	-0.0063203047
71	0x3ba3b54c	0.0049959775
72	0x3addc267	0.0016918898
73	0x3c37fef0	0.011230215
74	0xb9523993	-0.00020048609
75	0x3c3f61e1	0.011681051
76	0xb71cd6bf	-9.348324e-06
77	0xbd108ff2	-0.035293527
78	0x3c24c5eb	0.010056953
79	0xbb9630c7	-0.0045834514
80	0xbc8cf194	-0.017205037
81	0xbbdf9ee9	-0.0068243635
82	0x3be9b3ed	0.0071320445
83	0x3caae6c8	0.020861998
84	0x3c05824b	0.00814874
85	0x3cdfdbe4	0.027326532
86	0xbcecac97	-0.028890891
87	0xbcd58422	-0.026063982
88	0xbcebd43b	-0.028787723
89	0x3da6fc7b	0.081536256
90	0xbd76f035	-0.060287673
91	0x3de9ac18	0.114097774
92	0x3c294104	0.010330442
93	0xbcb053f3	-0.021524405
94	0xbad9abbd	-0.0016606968
95	0xbd247517	-0.040150728
96	0x3ae0e08b	0.0017156763
97	0xbb9051e6	-0.0044042943
98	0xbbe2c3ca	-0.0069203125
99	0x3c35a84d	0.011087489
100	0xbd13e8ce	-0.03611069
101	0xbc2e1301	-0.010624648
102	0xba011370	-0.0004923856
103	0x3c91188b	0.017711898
104	0x3a90a9e1	0.0011036956
105	0xbc77a3da	-0.015114749
106	0xbd1be2c8	-0.038058072
107	0xbc84139c	-0.016122632
108	0x3df6b110	0.12045491
109	0x3c567b46	0.013090914
110	0xbbff73e1	-0.0077957963
111	0xbc532ecf	-0.012889578
112	0x3de0d0de	0.10977338
113	0x3cae0f36	0.021247488
114	0xbd554cdb	-0.05207525
115	0xbca13766	-0.019679736
116	0x3c2b49f4	0.0104546435
117	0x3c8eba0f	0.017422704
118	0xbcaffb2c	-0.021482073
119	0x3d6a54de	0.057209842
120	0xbd25bc29	-0.040462647
121	0xbc42dcf4	-0.0118935
122	0xbc4ef96a	-0.012632707
123	0xbd4c0d97	-0.049817648
124	0x3dff2c96	0.12459676
125	0xbce35676	-0.027751189
126	0x3d079214	0.033098295
127	0xbd6f806b	-0.05847208

fc2.weight f4 [128, 128]
0	0xbdb22dbd	-0.0870013
1	0xbd717dce	-0.058957867
2	0xbc4e18a9	-0.012579122
3	0xbc3831d8	-0.011242352
4	0x3cf56e36	0.02995978
5	0x3d4edf73	0.050506067
6	0xbcaa26ff	-0.020770548
7	0x3d554269	0.052065287
8	0xbb066cce	-0.002051163
9	0x3d08b23d	0.033373106
10	0x3ce2653d	0.027636165
11	0xbd048aa1	-0.03235877
12	0xbda8766a	-0.08225711
13	0x3d0f4a94	0.034983233
14	0x3da7e7dd	0.08198521
15	0xbcdb0ffd	-0.026741022
16	0xbd3c8e73	-0.046034288
17	0x3cef315e	0.029198345
18	0x3b8ad10c	0.004236346
19	0x3d2be00e	0.041961722
20	0x3dafa94f	0.08577215
21	0x3d7d9685	0.061911125
22	0x3c89aad2	0.016805086
23	0xbd3857f7	-0.045005765
24	0x3d58cb7e	0.05292844
25	0xbb18ef80	-0.0023336112
26	0x3d8604f3	0.06543913
27	0xbbcd4e96	-0.0062654717
28	0xbc686a18	-0.014185451
29	0xbb06a055	-0.0020542343
30	0x3db7f099	0.08981437
31	0x3d62903e	0.05531334
32	0xbda3eea2	-0.080045
33	0xbd2568b4	-0.040383056
34	0x3da1dfc7	0.0790401
35	0xbdc01ad0	-0.09380114
36	0xbdb0e63c	-0.08637664
37	0x3db37876	0.087632105
38	0x3dabc303	0.08386805
39	0xbd83140d	-0.06400309
40	0xbd835cc0	-0.06414175
41	0xbd99b64b	-0.07505473
42	0x3ccf3064	0.02529163
43	0xbbe8c45c	-0.007103486
44	0xbd1e7d27	-0.038693573
45	0x3d9bcae9	0.076070614
46	0x3d64dba6	0.055873536
47	0x3ca77641	0.02044213
48	0xbd53e08a	-0.05172781
49	0xbda2b72c	-0.079450935
50	0xbc07636c	-0.00826345
51	0x3d2739d0	0.04082662
52	0x3d56b372	0.052417226
53	0x3dee99f4	0.11650458
54	0xbc384928	-0.011247911
55	0x3db52454	0.0884482
56	0x3cfa3a20	0.030545294
57	0xbcd08124	-0.025452204
58	0xbc34a490	-0.011025563
59	0xbd9bb23f	-0.07602357
60	0xbca2527c	-0.019814722
61	0x3dcf234f	0.101141565
62	0xbdb0b1b9	-0.08627648
63	0x3dce890d	0.10084734
64	0xbd0d72c2	-0.03453327
65	0x3d13cc00	0.03608322
66	0x3df6de3d	0.12054107
67	0xbc8ae2ee	-0.016953912
68	0x3d6ee181	0.058320526
69	0xbd7d6b0c	-0.061869666
70	0x3d283318	0.04106435
71	0x3db1b507	0.08677106
72	0xbd20d599	-0.039266203
73	0x3c6b2f20	0.014354497
74	0x3ad10b00	0.0015948713
75	0x3d17663a	0.036962725
76	0x3cc30f58	0.023811027
77	0x3d1bb59b	0.03801499
78	0xbbebce40	-0.007196218
79	0xbcba5384	-0.022744901
80	0xbc22fa3b	-0.009947355
81	0xbd9ce8e3	-0.07661607
82	0xbd534d23	-0.051587235
83	0x3bb9f454	0.005674878
84	0xbda37408	-0.079811156
85	0xbd720197	-0.059083547
86	0xbd833e61	-0.06408382
87	0x3d19f54a	0.03758744
88	0xbd834e5d	-0.06411431
89	0xbe26a1f4	-0.16272718
90	0xbcb1980e	-0.02167895
91	0xbc7f9463	-0.015599343
92	0x3d351482	0.04420901
93	0x3d707f2a	0.058715023
94	0x3d0002b9	0.031252597
95	0xbd916870	-0.07099998
96	0x3c42e825	0.011896168
97	0xbd3d0eb8	-0.046156615
98	0x3d4d833e	0.05017399
99	0x3d1ed1fe	0.038774483
100	0x3d0eac9c	0.034832582
101	0xbd172dcc	-0.03690891
102	0x3d870c9d	0.06594203
103	0x3d9f7c15	0.07787339
104	0x3ccbeb14	0.024892367
105	0x3d4564f6	0.048191987
106	0x3c1246e8	0.008928038
107	0xbd222279	-0.039583657
108	0x3d41c5bb	0.04730771
109	0xbd95e432	-0.073189154
110	0xbcbb90d0	-0.0228962
111	0x3cdbaa90	0.026814729
112	0x3da23e2b	0.07922014
113	0xbcb90b00	-0.022588253
114	0xbd38e760	-0.04514253
115	0xbd0743f6	-0.033023797
116	0xbd8896fd	-0.06669424
117	0xbd983dd6	-0.07433669
118	0xbdaee5de	-0.085399374
119	0xbda8b0a2	-0.08236815
120	0x3cf08bdf	0.02936357
121	0xbc4236d8	-0.011853896
122	0xbd4f4de7	-0.050611403
123	0xbb179a21	-0.002313264
124	0x3d9b0804	0.07569888
125	0xbbbf02f7	-0.005829211
126	0xbd8c512f	-0.06851422
127	0xbd512c67	-0.051067736
128	0xbd800d9e	-0.06252597
129	0xbcfef13e	-0.031120893
130	0xbdb8e3d3	-0.09027829
131	0x3beb4690	0.0071800426
132	0xbaa4a49b	-0.0012561263
133	0x3c7c6f96	0.015407464
134	0xbdc51115	-0.09622399
135	0xbc3ca870	-0.011514768
136	0x3d8e8537	0.069590025
137	0x3d130a5b	0.035898548
138	0x3aaed528	0.0013338672
139	0x3d177cfe	0.036984436
140	0xbc2210e6	-0.009891724
141	0x3b912d90	0.0044304803
142	0x3d4a2c26	0.04935851
143	0xbd4d1c24	-0.050075665
144	0x3d1e38a4	0.038628235
145	0x3d19c51c	0.037541494
146	0xbbf825bf	-0.007572859
147	0xbcbfb830	-0.023403257
148	0xbc07cf73	-0.008289206
149	0xbcda6cbc	-0.026663177
150	0x3d9aad9b	0.07552644
151	0xbd659ce0	-0.05605781
152	0x3da8c751	0.082411416
153	0x3d5f50be	0.05452036
154	0xbd96e008	-0.07366949
155	0xbc2f7705	-0.010709529
156	0xbd9cce07	-0.07656484
157	0x3d3fe84a	0.046852387
158	0x3da9f031	0.08297766
159	0xbcf160bc	-0.029465072
160	0xbd0e236b	-0.034701746
161	0x3b99bb61	0.0046915268
162	0xbd0b0e92	-0.033949442
163	0xbda5e0c4	-0.08099511
164	0xbd96bd0f	-0.07360279
165	0xbd3c7769	-0.046012316
166	0x3d157584	0.036489025
167	0xbda02185	-0.07818893
168	0xbd795df1	-0.060880605
169	0x3c88df79	0.016708123
170	0xbcbe9fb0	-0.023269504
171	0xbd9ba7ac	-0.0760034
172	0xbd63e54f	-0.055638608
173	0xbccea0b0	-0.025223106
174	0x3ca3a66f	0.019976823
175	0xbc1a3b99	-0.009413623
176	0xbd89e322	-0.06732775
177	0x3d97fb79	0.074210115
178	0x3c9ad6c0	0.018901229
179	0xbd3b9d2e	-0.045804195
180	0xbc123010	-0.008922592
181	0x3ddd4018	0.108032405
182	0x3d401f23	0.046904694
183	0xbd941e12	-0.07232298
184	0xbd2a7b97	-0.04162177
185	0xbc468ce0	-0.012118548
186	0xbd85a588	-0.06525713
187	0x3c6a564d	0.014302802
188	0xbd8aacbe	-0.06771229
189	0x3d5de8a2	0.054176934
190	0xbca3e950	-0.020008713
191	0xbdcb466e	-0.09925543
192	0xbd45daf3	-0.04830451
193	0x3ccfef51	0.02538267
194	0x3d10bfd1	0.03533918
195	0x3d9233e4	0.071388036
196	0xbbcf1742	-0.006319911
197	0x3cbb72ac	0.022881828
198	0xbcc673ae	-0.024225082
199	0x3ce35e28	0.027754858
200	0x3c103ac1	0.0088030705
201	0xbd254bdb	-0.040355545
202	0xbc8611c4	-0.016365893
203	0x3c746d20	0.014918596
204	0xbd8f487d	-0.06996248
205	0x3cb45498	0.022012994
206	0xbd2014a3	-0.03908218
207	0x3d85d4cb	0.06534728
208	0xbc0b55b7	-0.008504323
209	0xbc729c52	-0.0148077775
210	0xbd56c64d	-0.052435208
211	0x3d8a3b72	0.067496195
212	0x3d0a594c	0.033776566
213	0xbd01b35c	-0.03166519
214	0xbc9f24ea	-0.019426782
215	0xbaeb2030	-0.001793867
216	0xbd5850cf	-0.05281144
217	0xbdbb1ab4	-0.091359526
218	0xbd8ce4a1	-0.06879545
219	0x3cf86cdd	0.030325348
220	0xbc0849e0	-0.008318394
221	0x3d3cccee	0.046093874
222	0xbcdd5cb9	-0.027021753
223	0xbdaba20c	-0.08380517
224	0xbd459d15	-0.04824551
225	0xbd927055	-0.07150332
226	0x3d4adeba	0.049528815
227	0x3c3f4488	0.011674054
228	0xbd3e73b0	-0.046497047
229	0x3cd01b58	0.025403664
230	0x3d8aa4cf	0.06769716
231	0x3d06f38e	0.032947116
232	0xbc3318a0	-0.010931164
233	0x3c65b0a8	0.014019169
234	0xbd75a19a	-0.05996857
235	0x3d32d75a	0.043662407
236	0x3de94097	0.11389273
237	0xbbff2602	-0.0077865133
238	0x3d1348f2	0.035958238
239	0x3d1ff7d2	0.0390547
240	0x3a722aff	0.00092379743
241	0x3d4e62be	0.050387137
242	0xbde727b0	-0.11286867
243	0xbd32325f	-0.04350507
244	0x3c6024c8	0.013680644
245	0x3d886e81	0.06661702
246	0xbda63a54	-0.08116594
247	0x3d5e84a5	0.05432572
248	0xbcd16726	-0.02556188
249	0xbd8d61c5	-0.06903414
250	0x3d73af3d	0.059493292
251	0x3dcd939e	0.10037921
252	0x3e2a9597	0.16658626
253	0xbd9f2151	-0.077700265
254	0x3dac5d98	0.08416289
255	0x3d33c197	0.043885794

fc2.bias f4 [128]
0	0x3d6f9029	0.05848709
1	0x3d6bee6c	0.057600424
2	0x3d8160f6	0.06317322
3	0x3dafa25f	0.08575892
4	0x3daa4286	0.083134696
5	0x3d8d9795	0.069136776
6	0x3e3c51b7	0.18390547
7	0x3ded9e42	0.11602451
8	0xbdc86750	-0.0978533
9	0x3de395d1	0.111125596
10	0xbd27188f	-0.040794905
11	0xbd0921db	-0.033479553
12	0x3e2e3eb2	0.17016104
13	0x3cadeb5f	0.021230398
14	0xbdb7edc8	-0.089809
15	0x3dcc749b	0.09983178
16	0x3d2bee7b	0.04197548
17	0x3df5ee96	0.12008397
18	0x3de2d024	0.11074856
19	0xbce0611e	-0.02739006
20	0xbde361ec	-0.111026615
21	0x3db6fc7e	0.08934878
22	0x3e0c46a7	0.13698827
23	0x3e6dc877	0.23221003
24	0x3e1b6697	0.15175854
25	0x3d32e18b	0.043672126
26	0x3dffd177	0.12491124
27	0x3e31c90c	0.1736185
28	0xbc9c41a3	-0.019074267
29	0x3cac1eee	0.021010842
30	0x3db92e4e	0.09042035
31	0x3d5b1c9e	0.05349409
32	0x3e4d5c6a	0.20054784
33	0xbdd3e1f7	-0.10345834
34	0x3e69a4b7	0.2281674
35	0x3c15ae10	0.009135738
36	0x3d1c6690	0.03818375
37	0x3e599cf1	0.21251275
38	0xbd836a67	-0.06416779
39	0xbb0dc8a2	-0.002163448
40	0x3c28160f	0.010259165
41	0xbd14a67e	-0.03629159
42	0xbc848d46	-0.016180646
43	0x3bdc5b06	0.006724718
44	0x3e5a57b8	0.21322525
45	0x3e166255	0.14685948
46	0x3da6942a	0.08133729
47	0x3cf87665	0.030329892
48	0xbe0254d4	-0.12727672
49	0xbbc58211	-0.006027468
50	0x3e0c42de	0.13697383
51	0x3d4a32c8	0.049364835
52	0x3d68e5cb	0.056859773
53	0x3b9175de	0.0044390997
54	0x3e60c3a7	0.21949635
55	0x3df64170	0.120242
56	0xb847e0ee	-4.765478e-05
57	0x3dc12d21	0.09432436
58	0xbdafd9c1	-0.08586455
59	0x3d2b06ba	0.04175446
60	0x3b8a93c7	0.004229042
61	0xbd488a0e	-0.048959784
62	0x3e5a0563	0.21291117
63	0xbd7b67c3	-0.06137825
64	0xbd0aaa05	-0.03385355
65	0xbd9bad8f	-0.07601463
66	0xbd42281b	-0.04740153
67	0x3d6d8af9	0.057993863
68	0x3dbc4322	0.09192492
69	0x3e177220	0.14789629
70	0x3dd298a7	0.102830224
71	0x3dabb8f8	0.08384889
72	0xbd5ec142	-0.054383524
73	0x3db97c2c	0.09056887
74	0x3b93b39f	0.0045074965
75	0x3c9ff9af	0.019528238
76	0x3d13f978	0.036126584
77	0x3d70d172	0.058793493
78	0xbe199c5e	-0.15001056
79	0xbd234f1f	-0.039870378
80	0x3cf309f3	0.02966783
81	0x3db6471b	0.08900281
82	0x3e6e7fbd	0.23290916
83	0x3b20274e	0.002443749
84	0x3d3880d7	0.045044746
85	0x3ba024f5	0.004887218
86	0xbdcd3ae8	-0.10021001
87	0x3e0fea67	0.14054261
88	0xbe252620	-0.16127825
89	0x3e5241b7	0.2053288
90	0x3e4b1fea	0.19836393
91	0x3e45dce3	0.19322543
92	0x3cfdb374	0.030969359
93	0x3d6b94b7	0.057514872
94	0x3d5b02c6	0.05346944
95	0x3e3f7438	0.18696678
96	0x3d2430e5	0.040085692
97	0xbcd205c2	-0.025637511
98	0x3cacaa73	0.02107737
99	0x3dea5864	0.114426404
100	0x3bf25960	0.0073959082
101	0x3d8785f7	0.06617349
102	0x3bf71774	0.0075406376
103	0x3d6d7571	0.05797333
104	0x3dcfa5b0	0.10139024
105	0x3e62e9a6	0.22159442
106	0x3cf645b2	0.03006253
107	0x3d02168f	0.031759795
108	0x3e5946f6	0.21218476
109	0x3e37467e	0.17897984
110	0xbdf34c64	-0.11879805
111	0xbdfdaae7	-0.12386113
112	0xbda9fb63	-0.08299901
113	0x3e59eb22	0.21281102
114	0x3deb82af	0.11499535
115	0x3e74f875	0.23922904
116	0x3e30bcf8	0.17259586
117	0x3d863b5f	0.06554293
118	0x3ea268a8	0.3172047
119	0x3e265575	0.16243537
120	0x3e2e0498	0.1699394
121	0x3cb4a22a	0.022049982
122	0x3e287211	0.16449763
123	0xbdb27c6b	-0.08715137
124	0x3e9a90d1	0.3018861
125	0x3da01f04	0.07818416
126	0xbdb27ffb	-0.087158166
127	0xbd3d9893	-0.046288084

fc3.weight f4 [128, 128]
0	0x3be1d622	0.0068919817
1	0xbcb99400	-0.02265358
2	0xbe0e908d	-0.13922329
3	0xbd0d9d8a	-0.03457407
4	0xbc860805	-0.016361246
5	0x3c80f9dc	0.015744142
6	0x3c75303f	0.014965116
7	0xbd3c1dd4	-0.045926884
8	0x3ded2c5f	0.11580729
9	0xbd2be006	-0.041961692
10	0xbdc77b50	-0.09740317
11	0x3c36bb98	0.011153124
12	0x3c478fb3	0.012180257
13	0x3d0eacf2	0.034832902
14	0x3d3ac6a6	0.045599602
15	0xbc047ff1	-0.008087144
16	0xbd276d9b	-0.040876012
17	0xbd9dad4a	-0.07699068
18	0x3cd8d490	0.026468545
19	0xbcd19ad6	-0.025586527
20	0x3d378f57	0.044814434
21	0xbd0f520f	-0.034990367
22	0xbd80eb80	-0.06294918
23	0xbcd19738	-0.025584802
24	0xbda206d4	-0.079114586
25	0xbda8f8b5	-0.08250562
26	0xbd86b06a	-0.06576617
27	0x3cb70111	0.022339376
28	0xbcc403a0	-0.02392751
29	0xb8e6f3c3	-0.00011012659
30	0xbcb028ca	-0.021503825
31	0xbd21633c	-0.039401278
32	0xbc14b7c1	-0.0090770135
33	0xbda6b871	-0.08140648
34	0x3d2bfe96	0.04199084
35	0x3de52e2b	0.111904465
36	0x3c9a1843	0.018810397
37	0xbde28af7	-0.11061662
38	0xbd6ac81f	-0.057319757
39	0xbd3ca0db	-0.04605184
40	0xbd5dc495	-0.054142553
41	0xbd9be783	-0.07612517
42	0x3da162a6	0.07880144
43	0xbd9a19b1	-0.075244315
44	0xbd570768	-0.052497298
45	0xbd433f56	-0.047667824
46	0xbcce6236	-0.025193315
47	0x3db5fb24	0.08885792
48	0xbd7533fd	-0.059864033
49	0x3dadf1b2	0.08493365
50	0x3d1686ac	0.036749527
51	0x3dcf237a	0.101141885
52	0x3c26bb67	0.010176516
53	0xbd878ec0	-0.06619024
54	0xbd3f6250	-0.046724617
55	0xbdac70d1	-0.084199555
56	0xbc90822c	-0.017640196
57	0xbb142ea8	-0.0022610817
58	0x3df5b0ee	0.11996637
59	0xbdec05dd	-0.11524556
60	0x3dd9d5a5	0.106364526
61	0x3c51db18	0.012808584
62	0xbd27d69f	-0.040976163
63	0x3d02a1da	0.031892635
64	0xbc277b42	-0.010222258
65	0x3daa0c2f	0.08303105
66	0xbd80bbf1	-0.06285847
67	0x3ca8c611	0.020602258
68	0x3ca8f325	0.020623753
69	0xbd2694a2	-0.04066909
70	0xbd29a3ce	-0.041415982
71	0x3d0133f5	0.03154369
72	0x3d9c4777	0.07630818
73	0x3cf5c935	0.03000317
74	0x3d4852dd	0.04890715
75	0x3a341d11	0.00068707863
76	0xbd3222d0	-0.04349023
77	0xbd60857d	-0.054814804
78	0xbb92e59c	-0.004482938
79	0x3b377934	0.0027995827
80	0xbdafdd0c	-0.08587083
81	0xba43cbf0	-0.0007469049
82	0xbbaad896	-0.0052138073
83	0x3e215bea	0.15757719
84	0xbd992b61	-0.07478977
85	0x3dbd0775	0.09229938
86	0x3dbee900	0.09321785
87	0xbdb083e4	-0.08618906
88	0x3da6eb7f	0.08150386
89	0xbd395cdc	-0.045254573
90	0x3c09397a	0.00837552
91	0x3c3c89e4	0.011507485
92	0x3bec59f8	0.0072128735
93	0x3d5112a9	0.051043186
94	0x3d8a8de4	0.06765345
95	0xbcd6bc33	-0.026212787
96	0x3af7e658	0.0018913252
97	0x3d657014	0.05601509
98	0xbd9c3b94	-0.07628551
99	0x3e27966e	0.16365978
100	0xbcd64081	-0.026153805
101	0x3d4f7d31	0.0506565
102	0x3bbccd7d	0.005761801
103	0xbd744bdf	-0.05964267
104	0xbc85509c	-0.01627379
105	0xbd4a8551	-0.049443547
106	0xbd60544e	-0.0547679
107	0x3db97dc9	0.09057195
108	0x3b294061	0.0025825726
109	0x3d5a78d1	0.053337876
110	0x3d9b5640	0.0758481
111	0xbca377d3	-0.019954598
112	0xbc5454ef	-0.012959703
113	0xbcce61a0	-0.025193036
114	0xbdaf5ecf	-0.08563005
115	0xbd94e98b	-0.07271107
116	0x3cec18c0	0.028820395
117	0x3b7710f8	0.0037699323
118	0xbdbd4d0f	-0.092432134
119	0xbdb46ce3	-0.08809831
120	0xbdf8e77b	-0.121535264
121	0xbdde13fc	-0.108436555
122	0x3bac47f2	0.0052576
123	0xbd7343be	-0.059390776
124	0x3d4bfb5c	0.04980026
125	0x3b73320c	0.0037108688
126	0xbd851a8e	-0.064992055
127	0x3d60c7e5	0.054878134
128	0xbcbf3a2f	-0.023343174
129	0x3d83d4f5	0.06437103
130	0x3ca780eb	0.020447215
131	0x3dae97d0	0.0852505
132	0x3d7d509c	0.061844453
133	0x3d775a02	0.060388573
134	0x3dda166e	0.106488094
135	0x3df1834c	0.11792621
136	0x3d1ee465	0.038792033
137	0x3d9613e4	0.073280126
138	0x3d01fbd5	0.031734306
139	0x3a414d0e	0.0007373848
140	0x3cd1fd3d	0.025633449
141	0x3cf711aa	0.03015979
142	0x3d4a0158	0.049317688
143	0xbd95fcdf	-0.07323622
144	0xbcee37ba	-0.029079307
145	0x3d98ed22	0.074671045
146	0xbd13087a	-0.035896756
147	0x3d54455a	0.05182395
148	0x3cd97a78	0.026547655
149	0x3d9569eb	0.07295593
150	0x3d65c0a0	0.056091905
151	0x3d78a171	0.060700838
152	0x3d57ce5b	0.05268703
153	0xbd0a1798	-0.033713907
154	0xbcf8a8c0	-0.030353904
155	0x3de75ca9	0.112969704
156	0xbdcd39e2	-0.10020806
157	0xbc99ea17	-0.01878838
158	0x3d46a12b	0.048493546
159	0xbc76c995	-0.015062709
160	0x3d8c2db1	0.068446524
161	0x3e36d5f6	0.17855057
162	0x3ce9fc2f	0.028562633
163	0x3df0f0ab	0.11764654
164	0xbc39602d	-0.011314434
165	0xbd30230f	-0.043002184
166	0xbd47de3b	-0.04879592
167	0xbdb90a13	-0.09035125
168	0x3d0ee103	0.034882557
169	0xbdb7d4c7	-0.08976131
170	0xbd9c6ead	-0.07638297
171	0x3c8b431e	0.016999777
172	0x3d9859d8	0.07439011
173	0x3d380658	0.044927925
174	0x3cf2fd81	0.029661896
175	0xbddf35d6	-0.1089894
176	0x3d696e5b	0.05699001
177	0xbd8e47a5	-0.06947259
178	0xbd34c94d	-0.044137288
179	0x3c878866	0.016544532
180	0xbc4ae39e	-0.01238337
181	0x3d3e467b	0.046453934
182	0xbc7a9838	-0.015295081
183	0x3d41dded	0.047330786
184	0x3d1f1a28	0.038843304
185	0xbdacd3a1	-0.084388025
186	0xbd0aed27	-0.033917572
187	0x3c1203aa	0.008912006
188	0xbd9a9de1	-0.07549644
189	0xbd52c6da	-0.05145917
190	0x3d13165f	0.035910007
191	0x3c83d718	0.016093776
192	0x3d2e8b8f	0.042613562
193	0xbd6a1f75	-0.057158906
194	0x3cba8aff	0.022771357
195	0x3d28f68a	0.041250743
196	0x3c339de2	0.010962935
197	0x3dcc54da	0.09977122
198	0x3d6cd535	0.057820518
199	0x3d5dbdab	0.05413596
200	0x3d67523c	0.05647491
201	0xbb807aa5	-0.0039208704
202	0x3c8a30cd	0.016868973
203	0x3aad2083	0.0013208542
204	0xbd8f4a91	-0.06996644
205	0x3dd07029	0.10177643
206	0x3ca58dec	0.020209275
207	0xbc880583	-0.01660419
208	0x3dbc40e4	0.091920644
209	0xbcb64aa0	-0.02225238
210	0x3de9b758	0.11411923
211	0x3b9d8926	0.004807609
212	0x3c58033b	0.013184364
213	0x3c8ae83f	0.016956447
214	0xbceafb7e	-0.028684374
215	0x3d9a4bbf	0.07533979
216	0x3bf8424a	0.0075762616
217	0xbd559789	-0.05214647
218	0xbd37fd1f	-0.04491913
219	0xbdadd5a2	-0.08488013
220	0xbba8cc4f	-0.0051513086
221	0xbd346afe	-0.04404735
222	0xbd1ea88b	-0.038734954
223	0x3d3432f1	0.043993894
224	0x3d918f0a	0.07107361
225	0xbcb5bb19	-0.022183942
226	0x3cc1652f	0.023607818
227	0x3d065587	0.03279641
228	0xbc1a0d67	-0.009402609
229	0xbc5410d5	-0.012943466
230	0x3c187f4e	0.009307696
231	0x3df95af0	0.12175548
232	0xbd0081bd	-0.031373728
233	0x3d961ec5	0.073300876
234	0xbd4e39f0	-0.050348222
235	0x3d1cf744	0.03832175
236	0x398e310c	0.00027120893
237	0xbd1d0769	-0.038337145
238	0x3c06205a	0.008186424
239	0x3d3e683a	0.046486117
240	0x3d82adf0	0.06380832
241	0x3ca618e3	0.020275539
242	0x3d7baaae	0.06144207
243	0x3a9be01a	0.0011892349
244	0x3d0faf5f	0.035079356
245	0xbd79d35e	-0.06099259
246	0xbdc75272	-0.09732522
247	0xbcd7139b	-0.026254466
248	0x3c7f611c	0.0155871175
249	0xbd9a8ba3	-0.07546165
250	0x3ca59a3f	0.020215152
251	0xbdaeb96e	-0.08531462
252	0x3c68eb59	0.0142162675
253	0x3cd0c36f	0.025483815
254	0xbd6294d7	-0.055317726
255	0xbda19fce	-0.078918085
