models/dqn_model_epoch_50000.pth (torch, 595624 bytes, 14 tensors)

cnn1.weight f4 [16, 4, 5, 5]
000000 16 63 47 be e7 6f 33 3d 77 72 ce bc c2 9b 49 be
       -0.19471392 0.04380789 -0.025201065 -0.19688323
000010 76 5c 12 be 42 7e 4b be a2 91 46 be fe 62 94 be
       -0.14293084 -0.19872382 -0.19391492 -0.28981775
000020 74 9a 0e bd 09 54 69 bd 8d b7 8b be 2c 40 24 be
       -0.034815267 -0.056964908 -0.27288476 -0.16040105
000030 bd bb c1 be cd e0 15 be af 18 16 3d b6 21 2a be
       -0.37838545 -0.14636536 0.036644634 -0.16614422
000040 af ac 5a be 8b d3 23 bd b4 30 83 be 35 44 45 3c
       -0.21354936 -0.039996665 -0.25623095 0.012040188
000050 39 f9 56 be 9f a0 81 be d9 23 41 be ab ae 88 3d
       -0.20993508 -0.25317857 -0.18861331 0.0667394
000060 ed 60 d9 3c 6f 4c 70 bc 96 f2 0a bd 50 f2 c1 bd
       0.026535476 -0.014666661 -0.033922754 -0.094700456
000070 4a fe 10 be 54 55 e3 3c 14 bb 84 3d 02 ed dd bc
       -0.14159504 0.027750649 0.06480995 -0.027090553
000080 4b c9 d0 3c d5 a8 88 bd 80 8c 93 bd 01 04 41 bd
       0.025486609 -0.06672827 -0.072045326 -0.04712296
000090 84 69 0d be b0 fb 85 3c 8e 9b 09 3e 5f 5d e8 bc
       -0.13809782 0.016355366 0.13438246 -0.028364835
0000a0 49 fd d3 bd 4a 3b a7 3c 68 a1 ad bd f5 07 a6 3c
       -0.10351045 0.020414013 -0.084780514 0.020267466
0000b0 17 00 04 be 20 15 02 bd cc a6 99 3d 3a 40 2a bd
       -0.1289066 -0.031758428 0.07502517 -0.041565157
0000c0 b0 1e 88 bd f1 6e b2 bd b7 f3 a9 3d c8 a7 27 bc
       -0.06646478 -0.08712567 0.08298438 -0.010232873
0000d0 45 12 07 be 6b af 52 be 2c 5a d4 bc 32 92 c7 bc
       -0.13190563 -0.20574729 -0.025921904 -0.024361704
0000e0 27 1f b3 bd 14 3a 37 3e ae 02 4b 3d c5 f4 1d be
       -0.08746176 0.17893249 0.049563102 -0.15425403
0000f0 7e 2a 6a 3e d8 d9 6d 3e e2 6c 03 3e 74 b5 f2 3c
       0.22867772 0.23227632 0.12834504 0.02962754
000100 99 6c 57 be 1c c8 90 be 60 a8 22 3e fd c8 90 3e
       -0.2103752 -0.2827767 0.15884542 0.28278342
000110 42 f3 05 be 7f a0 2a be 6e 03 24 be bf c6 83 bc
       -0.13081077 -0.16662787 -0.16016933 -0.01608598
000120 d1 33 a3 3e 8d dc 06 be d0 34 1c be 08 92 bf bd
       0.3187547 -0.13170071 -0.15254521 -0.09354025
000130 a8 56 7a be 2c 86 b8 bd a3 c5 a7 bb e6 cc 87 bd
       -0.24447119 -0.09009966 -0.0051199957 -0.06630878
000140 89 64 2b bd d9 a9 e1 3d a4 49 18 3e 93 f0 c0 bd
       -0.041843925 0.11018724 0.14871842 -0.09420886
000150 4c e3 09 3d 5b f0 26 be e9 24 96 3d b8 2a a5 3d
       0.033664033 -0.16302626 0.07331259 0.080647886
000160 6a 97 bf bd 09 e2 a8 bd d0 8c 03 be e8 f2 b7 bb
       -0.09355052 -0.08246238 -0.12846684 -0.0056136735
000170 57 a3 98 3d 20 d5 c8 bc f8 bd f2 bd d0 01 b9 3d
       0.074530296 -0.024515688 -0.1185264 0.09033549
000180 31 a7 f1 3d 2d 76 3a be 29 8e 8f bd 74 15 75 bd
       0.11799467 -0.18209143 -0.07009537 -0.059834912
000190 0f f1 f2 bd 16 95 85 be 7f 2a 35 be 0e 60 0b 3d
       -0.118623845 -0.26090306 -0.17691992 0.03402715
0001a0 01 8e 67 be 71 42 01 be 44 cc a7 bd 1a 79 98 bb
       -0.22612764 -0.12623002 -0.081932575 -0.0046531083
0001b0 a6 4f bf 39 46 09 ae 3b 2b 10 0c be ab ec 46 bd
       0.00036489702 0.005311164 -0.13678043 -0.048565548
0001c0 22 16 8f 3c ee 80 7e bd 93 7a 7b bd de 71 1f be
       0.017466608 -0.062134676 -0.061396193 -0.1557078
0001d0 36 ea 67 be 02 e8 33 be ad 8a bd be ee 1a 6e bd
       -0.22647938 -0.17568973 -0.37019864 -0.05813115
0001e0 39 07 84 be 4a ae 62 be 42 6b c5 bd 65 bb 8f bd
       -0.2578676 -0.22136799 -0.096395984 -0.070181645
0001f0 eb d3 ff bd d6 ad 3a bd 47 f0 aa 3d fa 4b 6b bd
       -0.12491592 -0.04557594 0.083466105 -0.057445504
000200 ff 84 10 3d d5 aa 06 be 55 c2 80 bc 6e fd 1d bd
       0.035283085 -0.13151105 -0.015717665 -0.038571768
000210 c8 3d de bd 08 c6 bc 3c 1a 08 34 bb 74 25 a6 bc
       -0.108516276 0.023043647 -0.002747065 -0.02028153
000220 51 9f 4d bd a6 20 12 be 78 9a 46 bd 6d c4 d2 bc
       -0.050200764 -0.14270267 -0.048487157 -0.025728429
000230 2b 91 0b be cd ef cb bc 12 47 51 3d 1b 13 48 bd
       -0.13629596 -0.02489462 0.05109317 -0.048846345
000240 fc 7c da bd 14 aa 1f bb 1d de 05 3d d5 8f 8c bd
       -0.1066837 -0.002436285 0.032682527 -0.06863371
000250 a2 63 d4 3d f2 a1 e8 bd e5 da 42 be cc 3c 2e 3e
       0.10370566 -0.113590136 -0.19028814 0.1701538
000260 b6 45 5f bd a8 e5 1b 3e 4c 57 17 be c6 ee 3e be
       -0.05450984 0.15224326 -0.14779395 -0.18645772
000270 96 19 38 3e fe 16 51 be 4c b5 a7 3d e4 ca 20 be
       0.1797851 -0.20418927 0.081888765 -0.15702397
000280 7b de 8b be c9 2f 80 be 81 18 b5 3d 13 20 c6 3d
       -0.27318177 -0.25036457 0.088425644 0.096740864
000290 13 65 57 be 3b 49 7c be 7c c5 0c be ce 8c 84 3e
       -0.2103465 -0.2463731 -0.1374721 0.25888675
0002a0 a7 99 41 be 70 da 6e be 4b 15 c7 3e e3 fd 97 3e
       -0.1890627 -0.23325515 0.38883433 0.29685888
0002b0 be d6 d3 3e 89 e4 66 bd 70 7b 29 be 89 12 54 3e
       0.41374773 -0.05637029 -0.16550994 0.20710196
0002c0 c9 9f 08 3e 1d f3 72 3e 90 9f 8d bc f8 7b a8 bd
       0.13342203 0.23725553 -0.017288 -0.0822677
0002d0 47 a0 ef 3d 09 ee f4 bd 05 bf 1b 3e f7 43 04 be
       0.11700492 -0.11959464 0.15209587 -0.12916552
0002e0 40 c8 e0 bd 12 81 28 be ca b9 bd 3d 38 52 81 3d
       -0.10975695 -0.16455486 0.09263952 0.0631451
0002f0 69 48 a6 bd a3 cb 1c be fe 26 2b be 19 8e eb bc
       -0.0811928 -0.15312056 -0.16714093 -0.02875428
000300 44 c6 ab bd 0e 2a 00 be 42 45 25 bd 43 04 0a be
       -0.083874255 -0.12516043 -0.040349253 -0.13478188
000310 9c b4 f1 bd c6 50 3b 3e 7d 25 03 be af 90 0e be
       -0.11802027 0.18292531 -0.1280727 -0.1392238
000320 70 06 99 be ba 42 99 bd 2d 94 b0 be d0 b4 46 3d
       -0.29887724 -0.0748343 -0.3448805 0.04851228
000330 69 0d 3a be ea 39 64 be 2a 75 1f be 3f f8 42 be
       -0.18169178 -0.22287717 -0.15572038 -0.19040011
000340 d9 7c 1e 3d 0f fc 9b 3b ec 3b 78 be 53 c0 5f be
       0.038693283 0.0047602723 -0.24241608 -0.2185071
000350 1a df fa bd 42 8f e1 3c 74 72 34 3e e2 80 7e be
       -0.122495845 0.027534131 0.17621785 -0.24853852
000360 9a 66 6a be d0 6a 94 be 76 aa 21 be 10 7e 09 3e
       -0.22890702 -0.2898774 -0.15787682 0.13426995
000370 ab 84 79 be 76 20 05 be c2 cf 74 be f3 10 56 3d
       -0.24367015 -0.13000664 -0.23907378 0.052262258
000380 af 56 85 bd 52 22 05 be 81 d3 3f bc e7 d4 0e be
       -0.06510674 -0.13001373 -0.011708141 -0.13948403
000390 79 8a ac bd 66 b8 16 bd 0f ba a3 bb 52 99 bb bc
       -0.08424849 -0.03679695 -0.004996545 -0.022900257
0003a0 d2 81 7d 3d d4 4f bc bd 6b 48 e1 3c f3 22 8b bc
       0.061891384 -0.091949135 0.027500352 -0.016984439
0003b0 af c9 cb 3c 3b bb 4c bc ad fd cc bd 32 da aa bb
       0.024876444 -0.012495811 -0.10009322 -0.005213999
0003c0 39 d0 4d bb 95 f4 b1 bd 58 7a 0f 3c 6f 23 3b 3e
       -0.0031404628 -0.086892284 0.008757196 0.18275236
0003d0 9b 89 13 bc 47 78 ae bd 54 17 1a be 98 04 6b bd
       -0.009004976 -0.08519035 -0.15047961 -0.057377428
0003e0 84 8a b9 3d a1 92 52 bc 44 94 99 3d 63 64 fc 3c
       0.09059623 -0.012852342 0.074989825 0.030809587
0003f0 a6 2b 50 3d 01 30 cb be 74 a5 79 bd a1 52 c7 3c
       0.050822876 -0.39685062 -0.060948804 0.024331393

cnn1.bias f4 [16]
000000 0b f2 61 3d d3 6f 4d bd 4c 5a 90 bd a3 73 96 bd
       0.05516247 -0.050155472 -0.07048473 -0.07346275
000010 68 4f 13 3d 37 90 93 bd d2 29 95 bd 91 9b ff ba
       0.0359644 -0.07205241 -0.07283367 -0.0019501318
000020 5f d1 86 3c 00 b6 f9 bd 70 08 f0 bc 21 86 97 bd
       0.016457258 -0.12192917 -0.029300898 -0.0739863
000030 29 4e 75 bc 8c c7 b5 bd e8 a6 cb 3c 42 85 9c bd
       -0.014972248 -0.08875951 0.02485986 -0.076426044

cnn2.weight f4 [32, 16, 3, 3]
000000 30 45 dc 3c 71 5f 6c 3d 2d 1a d5 3d d3 d3 22 3e
       0.02688846 0.057708208 0.10405383 0.15901117
000010 53 d0 9e bc 2d 8c 2a bd fe 31 9a 3d 6a 72 8c 3c
       -0.019386446 -0.04163759 0.075290665 0.0171444
000020 3c 8e 50 bd c3 d2 2e 3e c3 59 c9 bd 2e d1 24 3d
       -0.050916895 0.17072587 -0.09831574 0.04023855
000030 73 9c 09 3e d7 5e 94 bd bf 65 f7 3d 5d 75 1c 3e
       0.13438587 -0.07244652 0.120799534 0.15279146
000040 0c e3 6a bd db 7c 91 bd 50 9a 3e bc a9 b4 e0 bc
       -0.057345435 -0.071038924 -0.011633471 -0.027429895
000050 af 85 a3 ba 37 93 85 bc e3 dd c5 3b d2 10 56 bd
       -0.0012475754 -0.01630555 0.006038414 -0.052262135
000060 b6 43 70 bd a6 48 80 3c 5d 22 66 bd 9a 91 d5 3d
       -0.058658324 0.015659641 -0.056185115 0.10428162
000070 5a 96 a3 bd c5 52 87 3c 55 4b 2b 3e ab 97 14 3d
       -0.07987662 0.01651896 0.16727956 0.036277454
000080 bb bb 04 bd 0a 92 e5 3d b4 3f 7a 3d ae cd b6 bd
       -0.032405596 0.11209495 0.06109591 -0.08925949
000090 53 13 84 3d c1 b8 9c bc dc d1 9d bc b7 35 e1 3d
       0.06448998 -0.019131066 -0.019265108 0.109965734
0000a0 32 2b 87 3c 33 a2 8b 3d df 85 ba 3d 50 86 f0 3c
       0.01650009 0.068180464 0.09107565 0.02936092
0000b0 bf cf b8 3d 74 9b c2 3d 76 4c 83 3d db 98 8a 3d
       0.090239994 0.095023066 0.06411068 0.06767436
0000c0 43 42 fe 3d 49 b8 7f 3d ea 6a d0 3c 91 96 5c bc
       0.12414982 0.062431607 0.025441606 -0.013463632
0000d0 ba 80 8c 3c 6a 59 13 3d 17 ab 5f bd af b4 0d 3d
       0.017151225 0.035973944 -0.054606523 0.03459614
0000e0 7d e9 9b 3d 34 0c 1e 3c af d4 05 3d 76 4e 89 3d
       0.07612894 0.009646464 0.032673534 0.06704418
0000f0 67 1f 37 3d eb 60 11 3d da b8 d3 3d d8 bc 68 3d
       0.044707682 0.03549282 0.10337992 0.05682072
000100 99 00 aa bd cd f8 46 3d 53 a0 49 3d e9 45 39 bd
       -0.08300895 0.04857712 0.049225163 -0.045232687
000110 34 de cd 3d 9b 15 ca bc 1d 4a 15 bd 87 65 10 3c
       0.100521475 -0.024668505 -0.036447633 0.0088132685
000120 8d a7 6b 3d 02 90 76 bc 27 c5 62 bd 99 7a e3 3d
       0.057532836 -0.015048983 -0.0553638 0.11107368
000130 66 61 be 3d 7c cd ab 3d 0e 58 4f 3d bd 82 39 3d
       0.09295921 0.083888024 0.050621085 0.045290697
000140 0d c3 55 3d f5 5e 8d 3d 14 e6 a0 3d 4c ad f0 3d
       0.052187968 0.06902877 0.07856384 0.11751804
000150 91 55 57 3d 99 e4 4c 3d d6 d5 e3 3c d6 5e 8c 3d
       0.052571837 0.050022695 0.027811926 0.06854026
000160 3c fa 15 bd b2 9d 3c 3d 8e 60 3b 3d 27 c4 87 bc
       -0.036615595 0.046048827 0.04574638 -0.016573025
000170 69 64 44 bc 45 09 78 3c 32 02 33 ba 6c fd a7 bd
       -0.01198683 0.015138929 -0.0006828635 -0.08202633
000180 72 77 2d 3b dd 37 da ba a2 14 26 bb 95 07 a2 3c
       0.00264689 -0.0016648729 -0.0025341888 0.019779006
000190 c9 80 22 bd a1 1b 17 3d cf 8b ad 3d 6a 03 b7 3d
       -0.0396736 0.036891583 0.08473932 0.08936198
0001a0 0f cd 5b bd 46 e7 d0 3d 72 e1 49 3d 02 1d b4 3d
       -0.053662356 0.10200362 0.049287267 0.08794595
0001b0 64 86 a7 bd 38 f4 f1 bd 3e bb 9a bc a1 68 60 bb
       -0.0817993 -0.11814159 -0.018888112 -0.0034242051
0001c0 09 61 3d 3d 07 ce 40 bc 22 ea 4f 3d ba c8 5d bd
       0.046235118 -0.011767871 0.050760396 -0.054146506
0001d0 d9 6d 2e bb 79 48 17 bd 87 47 6d bd cc 93 bd 3c
       -0.0026615767 -0.03693435 -0.057929542 0.023141764
0001e0 75 b4 3b 3d 21 cd 82 bd 26 84 84 bd f3 e6 18 bd
       0.045826394 -0.063867815 -0.06470518 -0.037329625
0001f0 1d 1e a1 bd eb 12 04 bd 07 d9 db 3d 80 32 cd bc
       -0.07867072 -0.032244604 0.10734754 -0.025048494
000200 63 a5 ae 3d e3 28 3b 3e 29 25 81 3d 1b 9f 90 3d
       0.08527639 0.18277316 0.06305916 0.07061597
000210 d0 29 1f 3e 7d 98 52 ba 79 5b c1 3d bf 6c b8 3c
       0.15543294 -0.0008033587 0.09441275 0.022512792
000220 fe 81 71 bd 28 ab 8b ba 9e 90 7d 3d 98 a6 20 bd
       -0.05896186 -0.0010655867 0.061905496 -0.039221376
000230 e2 08 3b 3c 17 87 1f 3d c8 ce 4f bd 9d 62 c7 bd
       0.011415692 0.03894719 -0.05073431 -0.09735606
000240 ef 2c 5d bd d9 6b 0f 3d c5 f3 e8 3c ca e7 21 3e
       -0.05399793 0.03501496 0.02843655 0.15811077
000250 a7 d9 97 3b 96 dd ed bc 4d c1 6d 3c f1 e5 07 3d
       0.0046341005 -0.029036324 0.0145114185 0.033178274
000260 4a 27 52 bc 81 b4 d3 3b c4 79 eb 3d ff e4 14 bd
       -0.01282675 0.0064607267 0.11497834 -0.0363512
000270 64 89 05 3e 11 46 1f 3c b1 0b 89 bb e5 5b 95 3d
       0.13040692 0.009721295 -0.004182302 0.07292918
000280 37 af f9 3d 54 10 c1 bd a6 21 10 3c 03 d4 8e bd
       0.12191623 -0.094269425 0.008797085 -0.06974032
000290 59 50 32 bd 6b c3 b3 bd d0 aa f4 bd 80 f2 ba bd
       -0.043533657 -0.087775074 -0.119466424 -0.091282845
0002a0 69 25 52 bd 6c c2 07 be 65 49 e5 bd 7b 07 f7 3d
       -0.05130521 -0.1325776 -0.111956395 0.12061974
0002b0 76 09 f1 3d f5 a3 dd bc 6a ad 23 3e 15 c4 6c ba
       0.11769383 -0.02705572 0.15984121 -0.0009031904
0002c0 3e e0 b9 3c be d4 ef 3d dd 4b 90 3d 9b 47 93 bd
       0.022689935 0.11710499 0.0704572 -0.07191392
0002d0 b5 84 d9 3c 99 72 5b 3d bf 71 0d 3d 61 2d 87 3d
       0.026552537 0.053576086 0.034532305 0.06600452
0002e0 86 48 34 3e 0c 50 c8 3b 48 ee bf 3d e9 2a 69 3d
       0.1760579 0.006113058 0.093716204 0.056925688
0002f0 1a f1 09 3d a4 60 47 3e cd bd 16 3b c1 aa f8 3c
       0.033677198 0.19470459 0.0023001314 0.03035486
000300 82 92 12 3e 72 10 1d 3c 5f 8b fa 3b 65 fc 6f bd
       0.14313701 0.00958644 0.007646009 -0.05859031
000310 80 7d 3c 3d d7 2a 0f be 4b 4a 2d bb 13 b4 9c bc
       0.046018124 -0.13981186 -0.0026441987 -0.019128835
000320 28 4f 23 bc 40 2b f9 3d 34 bd cc 3d ad f6 f1 3c
       -0.009967603 0.121664524 0.09997025 0.02953657
000330 ea f8 31 3e 55 13 5d bd 44 05 dc 3d 16 b0 29 3c
       0.1738011 -0.053973515 0.10743192 0.010356924
000340 d1 8f 33 3d d3 89 0d bd 98 1f 36 bd f1 e2 74 bd
       0.043838326 -0.034555268 -0.044463724 -0.05978674
000350 1d ab 97 bc 86 b5 38 bd be 8b b9 bd 75 fc b0 bc
       -0.01851421 -0.04509499 -0.09059857 -0.021604756
000360 cf 21 1d 3e 55 19 cd 3c 0d ac fb ba ad 6d 28 3e
       0.15344928 0.025036493 -0.0019201055 0.16448088
000370 7c ce 8d bc a2 b7 64 bc 08 45 3b 3e 50 8f 47 3d
       -0.017310373 -0.013959797 0.18288052 0.048720658
000380 de 22 0b 3d 38 17 1a 3e cb cd b3 3d 28 04 ac 3c
       0.0339688 0.1504792 0.08779486 0.020998076
000390 da 46 48 3b 80 9b b5 3d cc 2a 21 3e 4e 6e b0 3d
       0.003055981 0.0886755 0.15738982 0.08614789
0003a0 79 c6 0f bd fe 23 12 3d 45 72 d2 3c 37 2b b6 3d
       -0.035101388 0.035678856 0.025689254 0.08894961
0003b0 8d 66 fb 3a b5 64 40 3d b0 b5 1e bc 10 47 8f bd
       0.0019180343 0.04697104 -0.009686872 -0.06995976
0003c0 14 8f 58 bd 02 ef 51 bd 71 0e fb bd f1 1e f1 3d
       -0.052870825 -0.051253326 -0.12258614 0.1177348
0003d0 7f 64 4e 3d 67 38 d1 bd 05 b9 88 3d aa 1c 57 3d
       0.05038881 -0.10215836 0.06675915 0.05251757
0003e0 a7 ea fe bb 0e 3c de 3d 2f c6 95 3d 1d b2 c1 3c
       -0.0077794376 0.10851298 0.07313191 0.023644501
0003f0 4b a9 96 3c fb 0f bf bc 0b 9c 98 bd b1 49 ec 3d
       0.018391272 -0.02332305 -0.07451638 0.11537493

cnn2.bias f4 [32]
000000 ef 0e d2 bd 0f 8a f0 bc 11 4d 0e bd 46 a1 76 3b
       -0.102567546 -0.029362706 -0.034741465 0.0037632748
000010 5e 12 6a b9 9c b7 9b ba d2 39 9e bd f6 3b 92 3d
       -0.00022322821 -0.0011880281 -0.07725872 0.07140343
000020 3d 81 96 bd ee e8 2f bd ab bc ff 3c 52 b1 87 3a
       -0.07348869 -0.04294675 0.031217894 0.0010352528
000030 34 fb b0 bb 18 a0 ea 3b a0 a1 bd b9 ea a5 de bd
       -0.0054010395 0.007160198 -0.0003616931 -0.10871489
000040 e1 67 e6 3d 5c cd d6 3b ee 1f 1c bd 0a ad cc bd
       0.11250282 0.0065552425 -0.038116388 -0.09993942
000050 6a 78 e2 bd 89 b7 a1 3c 28 98 57 bd 06 f4 24 bd
       -0.110581234 0.019740837 -0.052635342 -0.04027178
000060 9b 4b 8f bb 63 3f af bd 7c df 63 bd ff cd 06 be
       -0.0043730265 -0.08557012 -0.055633053 -0.13164519
000070 0b fe c6 3d 33 1c 74 bd c9 80 bf 3d 1b 91 05 bc
       0.097164236 -0.059597205 0.09350736 -0.008152272

cnn3.weight f4 [32, 32, 3, 3]
000000 79 ff e1 3c c9 74 4c 3a cc 07 b1 3c c9 a4 44 3c
       0.02758764 0.0007799385 0.021610163 0.0120021785
000010 0a c7 93 bd 36 c2 3d bd c7 4c 46 bc 94 15 c2 bc
       -0.07215698 -0.046327792 -0.012103266 -0.02369193
000020 97 e4 b5 39 e1 93 2c 3e 99 7e 30 3d c8 22 96 bd
       0.00034693323 0.16853286 0.043089483 -0.07330853
000030 f6 7d ba 3d 99 af 2f bd d5 ee 18 be 17 e0 8e bd
       0.091060564 -0.042892072 -0.14934857 -0.069763355
000040 a4 62 45 bd c0 3e bc bd 2c 51 6b 3a 3e fe 25 bd
       -0.048189774 -0.09191656 0.0008976634 -0.040525667
000050 a5 d0 85 bd eb 35 9a 3d 1a a8 54 bd 63 af 9d bd
       -0.065339364 0.07529815 -0.051918127 -0.07699468
000060 ea 1c 42 3d 9d f9 68 3d 53 b2 85 bc 17 57 1b 3d
       0.047390856 0.056878675 -0.016320383 0.037924852
000070 b7 c1 a4 bb 5c 81 12 3c 64 cf 53 3d ae 9c 55 bd
       -0.0050279754 0.0089419745 0.051711455 -0.052151375
000080 fe 19 57 bd 54 43 6b 3c b5 f5 cd bc 32 be d5 3c
       -0.052515022 0.014359314 -0.025141576 0.026091669
000090 39 55 d6 3d 59 f0 d4 3c 3f 79 2d bc f5 1b c6 bc
       0.10465474 0.025993513 -0.010587989 -0.024183253
0000a0 c4 33 cc bd a7 1d 95 3b b6 bb e6 3a fa 60 80 3d
       -0.09970811 0.004550654 0.001760355 0.06268497
0000b0 0c 90 16 bc 38 47 f6 3d bf 38 9e bd 67 9d 86 bc
       -0.009189617 0.12025303 -0.07725667 -0.016432477
0000c0 2e 0e 17 3d fa 88 c4 bd e9 07 c4 bd 61 43 6c bc
       0.036878757 -0.09596439 -0.09571821 -0.014420361
0000d0 31 58 bf 3b 49 aa 70 bb ab 0a d6 bb 35 70 e1 3c
       0.0058393707 -0.0036722592 -0.0065320334 0.027519325
0000e0 46 7b 7e bd e1 6f 1f bd 33 10 e6 ba ec e9 e8 bc
       -0.06212928 -0.038925055 -0.0017552435 -0.028431855
0000f0 4c 5a 46 3d 39 03 61 bd 71 3c 23 bd 00 f7 3c bd
       0.048425958 -0.054934714 -0.039852563 -0.046133995
000100 77 0a ed 3d c1 84 91 3d 4e 94 25 3d ce 08 a5 bb
       0.11574262 0.07105399 0.040424637 -0.00503645
000110 af 9b dd 3d 04 4b 3d 3d e7 24 84 3d d7 0c b8 3d
       0.1082071 0.04621412 0.06452351 0.08986824
000120 2f 97 25 bc c5 df be 3c 7f b5 5e bd b7 36 87 bd
       -0.010106846 0.023300061 -0.054372307 -0.06602233
000130 cd d6 ef bc 8e f7 5e bd 65 a9 28 3c bb b5 ae bc
       -0.02927723 -0.054435305 0.010294293 -0.02132689
000140 e0 52 70 bd 15 53 ba 3d e6 70 ac bd 29 24 50 3c
       -0.058672786 0.09097878 -0.08419971 0.012703934
000150 e2 3b ba 3c d2 34 f6 bd f2 86 52 3c 3d d0 ee bc
       0.022733632 -0.120217934 0.012849556 -0.02915203
000160 34 22 f6 bc 57 45 5f bd 42 74 b1 3d 7a 80 c2 3d
       -0.030045606 -0.054509487 0.086647525 0.09497161
000170 9b 8c c2 bd f4 d9 c0 3c fa 1a a4 3c 62 d3 b3 bd
       -0.094994746 0.023541428 0.020032395 -0.087805524
000180 71 c9 fe bc 99 61 12 3d 8f d4 d5 bc 12 30 6e 3d
       -0.031101914 0.035737608 -0.026102332 0.058151312
000190 b7 59 9a bd c3 8c 92 bd 47 fe 2a bd 32 30 f2 bd
       -0.07536643 -0.071557544 -0.041746404 -0.11825599
0001a0 c2 27 0b be b7 0e 5b 3d 77 61 18 3d 05 93 cb bc
       -0.13589385 0.05348083 0.037202325 -0.024850378
0001b0 ca 05 d7 3d b0 d3 16 3e 3d bb 1e 3e e0 04 e9 bc
       0.10499151 0.1472919 0.15501113 -0.028444707
0001c0 41 e7 1b 3e 71 45 da 3c b5 47 3c 3c 78 00 be 3c
       0.15224935 0.02664444 0.011491706 0.023193583
0001d0 dc 4a b0 bc e5 24 8e 3c 7b ee 75 3c 03 0e b3 bc
       -0.02152007 0.017351577 0.015010471 -0.021857267
0001e0 ed a7 aa bb 01 9d 21 3d c4 43 39 bd e7 9f fd 3c
       -0.0052080066 0.03945637 -0.045230642 0.030960036
0001f0 02 da 02 3d 14 8d 4c 3d b8 36 da 3d 72 02 0c bc
       0.03194619 0.04993923 0.10654968 -0.008545505
000200 f1 22 53 bd e7 d9 65 3d ad af 60 bd a6 7e 63 bd
       -0.051546995 0.05611601 -0.054855037 -0.055540703
000210 9f 23 94 bc 5b c1 9e 3c 7a 28 ce bd a0 3c 5a 3b
       -0.018083392 0.019379308 -0.10066314 0.0033300295
000220 80 4c 20 bd fd 24 4f 3d 88 ac ba bc 98 e5 d4 bc
       -0.039135456 0.050572384 -0.022787347 -0.025988385
000230 61 60 50 bd 2a 4a c8 3c 38 17 81 3b 18 1c 3e bc
       -0.050873164 0.024449427 0.0039395355 -0.011603378
000240 d7 aa 8a 3d 7d a7 68 3e 0a 2e 4e 3e e1 56 d4 3c
       0.06770866 0.22720142 0.2013475 0.025920333
000250 b4 83 b2 3d 45 e3 f9 3d e3 d4 cd 3c 5d ca b3 3d
       0.08716527 0.12201551 0.025125926 0.08778832
000260 0a 9d ec 3d de 17 9e 3d 4d d6 b9 3d 25 8b 93 bd
       0.1155339 0.07719396 0.09074078 -0.07204274
000270 87 d2 f7 3c 93 04 40 3d 59 f1 94 bd 89 8f ff 3b
       0.030251754 0.046879362 -0.07272596 0.007799093
000280 97 38 98 3c ac bd 26 bd 85 5b ca bc 94 08 8e bd
       0.018581672 -0.04070823 -0.024701843 -0.0693523
000290 f0 ea 8d bd c0 08 b6 3c 20 67 43 bd d6 20 07 be
       -0.069295764 0.02222097 -0.04770577 -0.1319612
0002a0 82 83 22 3c 77 e9 d1 bd f3 70 3f bd 95 69 51 bd
       0.009919049 -0.10249608 -0.046738576 -0.05112608
0002b0 44 45 54 3b 1f b2 3a 3d 68 65 c3 3c 4e 80 a6 bd
       0.0032389918 0.045580026 0.023852065 -0.08129941
0002c0 aa d0 9a bb 20 7c 8e 3b 61 20 80 bd 7a 3f 6f 3c
       -0.0047245817 0.004348293 -0.06256176 0.014602536
0002d0 70 d2 46 bd 0c 18 de bc bc 75 30 3d 61 6f 0d bd
       -0.048540533 -0.027111076 0.04308103 -0.034530047
0002e0 93 7c bf bd 8a e8 06 bd 2d 3e 0c 3b 86 56 55 bd
       -0.093499325 -0.03293661 0.0021399364 -0.05208447
0002f0 4a 83 ca bc f9 58 a7 3d 8e 09 d9 3d 2f 50 06 bd
       -0.024720807 0.08171267 0.105975255 -0.032791313
000300 59 8c d9 3b ac 91 6d 3c e8 2b 32 bd 89 19 3b bd
       0.006639045 0.014500063 -0.043498904 -0.04567865
000310 cc e4 86 3c ab c9 f7 bd 1c 5e e7 bc 5e 0b cf bd
       0.01646652 -0.12099012 -0.028243117 -0.1010959
000320 be 01 15 bd e2 c1 81 bd f1 28 ee bd f6 b9 c9 ba
       -0.036378615 -0.06335808 -0.11628903 -0.0015390504
000330 1e f9 50 bd 9d 79 32 bd 75 ea b1 3c 95 83 2f 3d
       -0.051018827 -0.04357301 0.021718243 0.042850096
000340 ef b4 88 3c be 6f 9d 3d 1d fd b2 3c 21 20 26 bd
       0.016687838 0.07687329 0.02184921 -0.040557984
000350 57 13 67 bc 28 d1 99 bc 9b d0 bb 3d 76 d7 8c 3c
       -0.014103732 -0.018776491 0.09170648 0.017192584
000360 ca a0 84 3d 88 b6 5a bc e8 16 48 bd 7f f1 72 bc
       0.064759806 -0.013349183 -0.04884997 -0.014828085
000370 4b 47 86 bd e2 dd a0 bd 4e 48 c9 bb 70 d8 33 3d
       -0.06556567 -0.07854821 -0.0061426526 0.043907583
000380 fe 47 39 bc 3f 4b 16 3d 1f 14 fe bc a0 cf 3f 3b
       -0.011308668 0.036692854 -0.031015454 0.0029268041
000390 3e 7a be bc 0f 06 70 bd fe d9 8a 3c 4a d4 92 bc
       -0.023251649 -0.058599528 0.01694965 -0.017923493
0003a0 65 3f 4d 3d 15 fc 6a 3d ae 34 c6 3d 36 cf 34 3b
       0.050109286 0.05736931 0.096780166 0.0027589328
0003b0 40 10 b4 3b af dc e4 3c 93 59 48 bd a6 9e e4 bb
       0.005495101 0.027937261 -0.04891355 -0.00697692
0003c0 90 be a3 bc fd 16 a4 3c cc 0b 27 bd 50 22 13 3c
       -0.019988328 0.020030493 -0.040782735 0.008980349
0003d0 20 f4 40 3d d7 0b 8c bc 62 49 ea bb 1a f0 33 bd
       0.047107816 -0.01709549 -0.007149861 -0.04393015
0003e0 17 7e 04 bd e3 db 9e bb e6 0d 96 bc e2 de a5 bc
       -0.03234681 -0.00484799 -0.018317174 -0.02024788
0003f0 f5 59 b7 3c 53 df 20 3b 74 cb cc 3d a7 e8 d4 bc
       0.022381762 0.0024547174 0.09999743 -0.025989844

cnn3.bias f4 [32]
000000 7d 1e a5 3c 03 92 34 3d e6 47 c2 bd 26 55 93 bc
       0.02015614 0.04408456 -0.0948637 -0.017984938
000010 e8 0a 05 3d 35 a7 06 bd 68 84 09 bd 08 d7 f0 3d
       0.032481104 -0.032874305 -0.033573538 0.11759764
000020 f0 fa 21 bc 84 49 79 bd 2e 07 23 3c 28 99 d2 bc
       -0.009886488 -0.060861126 0.009950442 -0.025707796
000030 7b a9 5c bc 0f 55 4e 3d 9c d0 97 bc 70 75 01 3e
       -0.013468142 0.050374087 -0.01853209 0.12642455
000040 18 f4 90 bd 48 e9 9c 3b 59 a5 2d bd f2 3c 82 bd
       -0.07077807 0.0047885515 -0.042394016 -0.06359281
000050 8d 4d 91 bd 5d d6 f3 bc 57 64 8f bd 61 39 77 bd
       -0.0709487 -0.029765302 -0.0700156 -0.060357455
000060 05 b4 4b bc 0b 5d 0f bd 61 2b 88 bd 31 d7 e4 3c
       -0.012433057 -0.035000842 -0.06648899 0.027934643
000070 37 85 08 bc 42 13 c8 3d 25 ef b1 3c ea 46 1a 3e
       -0.008332542 0.09769298 0.021720478 0.15066114

fc1.weight f4 [128, 768]
000000 05 49 db bc a7 35 cb 3c 82 6e a1 3c f6 91 72 3c
       -0.026768217 0.024805857 0.019706015 0.014805308
000010 ef 9b fb 3c 08 54 03 bd 69 18 42 bd 25 dc 80 3c
       0.030714003 -0.03206256 -0.04738656 0.015729973
000020 de 13 91 bc 68 6b 33 bc 7c 37 c3 bc 80 b6 0c 3a
       -0.017709669 -0.010950901 -0.023830168 0.0005367771
000030 f8 8c d8 ba 99 01 33 3b 1a 91 1e bc dc 43 9d 3c
       -0.0016521504 0.0027314185 -0.00967815 0.019197397
000040 fd 3c fb 3b 34 de 41 bc 82 e3 2e bc 24 54 35 3c
       0.0076671825 -0.0118327625 -0.010674359 0.011067424
000050 fe eb be bc ba c7 89 3c 10 98 e7 bc 6e 1f 4f bc
       -0.02330589 0.01681887 -0.028270751 -0.012641771
000060 af 58 16 bd 9b ff e4 bb 7f 84 15 bd 71 95 0f bc
       -0.03670567 -0.0069884784 -0.03650331 -0.008763657
000070 ab e2 3a 3b d9 96 fc bc c0 90 9b bc b3 0e f1 3c
       0.0028516452 -0.030833649 -0.01898992 0.029425954
000080 6e 3e 20 bd 20 76 81 3c 23 6c 27 3d 74 61 45 bc
       -0.039122038 0.015803397 0.04087461 -0.01204716
000090 9a 99 d5 3c ef 68 0f 3d b8 f4 02 bc 6c 36 af ba
       0.02607422 0.03501218 -0.007992916 -0.0013367659
0000a0 00 0f 21 3c b0 35 0f bc fe 11 be 3c ac 93 57 bd
       0.009830236 -0.008740827 0.023201939 -0.052631065
0000b0 8a e0 27 bd e1 45 92 3c ce fd fd bc eb ce 2d bd
       -0.04098562 0.017855586 -0.031004813 -0.04243366
0000c0 07 2f 26 bd fc 01 34 3c 40 8e 02 bd bb fe 06 bd
       -0.040572193 0.010986801 -0.03187394 -0.032957774
0000d0 b1 a7 1c bd 76 0d b3 bb 34 24 05 3c 2c 4d 79 bc
       -0.03824586 -0.005464251 0.008126307 -0.015216153
0000e0 92 93 0a bc 90 2f af bc 91 57 1a 3c 4f fc e8 3c
       -0.008458035 -0.021384984 0.0094202915 0.028440623
0000f0 dd b2 0c bd 44 0a 95 bc 62 cf f7 bc f1 80 3e bd
       -0.034350265 -0.018193372 -0.030250255 -0.046509687
000100 27 e7 bf 3c df 95 4b 3c 46 61 6e bc b9 b8 23 bc
       0.023425652 0.012425869 -0.014549559 -0.009992772
000110 c8 5c 1b bd c3 a1 9d 3c 7c 67 ad 3c 42 0c 0f bd
       -0.03793028 0.019242173 0.02116751 -0.0349238
000120 28 49 fb bb 30 9e 52 3c 71 c8 c3 bc 46 0c 91 bc
       -0.007668633 0.012855098 -0.023899289 -0.017706048
000130 36 d8 e8 3c 19 21 8c 3c 6d f7 be 3c d5 db 9c 3b
       0.02842341 0.017105626 0.023311341 0.004786948
000140 a1 69 91 ba 1b e8 e0 3b 9b da 80 3c 96 af b5 bc
       -0.0011094102 0.0068636066 0.01572924 -0.022178452
000150 87 ed 02 bd 7c ae d1 3c 12 db 92 3a a6 e1 23 bc
       -0.031964805 0.025595896 0.0011204204 -0.010002529
000160 31 d9 da 3b b3 91 c1 bc e5 a2 32 bb 8f 70 e0 bc
       0.0066787233 -0.023629045 -0.0027257737 -0.027397422
000170 61 c2 03 bb 3d 51 21 bd 7a 85 21 3b 53 80 02 3d
       -0.0020104873 -0.039384115 0.0024646209 0.03186066
000180 0a 85 c3 3c e2 7d 01 bd 5b 7e 3e 3b 32 ae 93 3b
       0.023867149 -0.03161419 0.0029067013 0.0045068497
000190 f4 8c 49 ba 4a 28 9b 3b 9f 56 bd bc 4f 59 07 bc
       -0.0007688545 0.0047350274 -0.023112593 -0.008261039
0001a0 22 9e 1c bd 8a bf 47 bc 13 07 89 bc 01 99 da bb
       -0.038236745 -0.012191663 -0.016727006 -0.0066710715
0001b0 cd b5 65 3c 07 01 f0 bb db 1b 87 bc e8 93 14 bd
       0.014020395 -0.007324341 -0.016492775 -0.036273867
0001c0 5a f8 09 3c e2 21 22 3c 74 78 3b 3c e1 b2 e5 bc
       0.008421028 0.009895774 0.0114422925 -0.028039398
0001d0 1f 1e 6a 3c 1e 51 03 3a 87 1d 90 bc 2f f8 e8 3a
       0.014289408 0.0005009341 -0.017592205 0.001777416
0001e0 83 03 e8 3c 5d f6 21 bd 34 93 be 3b cd 8a 3a 3c
       0.028321987 -0.03954159 0.005815888 0.011385632
0001f0 54 71 ff bc cc 32 20 bc 00 ed e2 3a 7c cc 06 bd
       -0.031181969 -0.009777736 0.0017313063 -0.032909855
000200 ab 04 19 3d 66 34 a0 3c a5 b1 4c 3c 4b c0 8c 3b
       0.037357967 0.019556236 0.012493526 0.004295384
000210 d0 35 ce 3c 3d a0 4c 3b 1a a1 86 bc da 3c c5 bc
       0.025172144 0.003122344 -0.016434241 -0.024076868
000220 d2 01 06 bd 28 c4 3d 3c 26 ce 80 3c e0 89 d9 3c
       -0.03271658 0.011582412 0.0157233 0.026555002
000230 cf 45 8f 3b bc 91 9b 3c 98 8f 42 3b 0d 24 04 bd
       0.0043723355 0.01899039 0.002968764 -0.032260943
000240 52 93 c5 bc 70 dd 4b 3c b0 5b 0b 3d c0 48 e0 3c
       -0.0241181 0.0124429315 0.034022987 0.02737844
000250 30 11 31 3b a2 3a 40 bc cc 05 dd 3c 46 e7 10 3d
       0.0027018301 -0.011732729 0.026980303 0.03537681
000260 b6 e2 0d 3d c0 0f 20 3c 32 a3 b1 3c 74 da c6 bb
       0.034640037 0.00976938 0.021684263 -0.006068522
000270 66 c4 a6 bc 0c fc f0 bb f4 25 0b 3d f4 e7 0d 3d
       -0.020357322 -0.007354265 0.03397174 0.034645036
000280 44 39 81 3c 40 75 92 3c 64 64 1c 3c 77 70 a4 bc
       0.015774377 0.017878175 0.009545419 -0.020073159
000290 7c 5a fd bb a5 95 06 3d 4e 1b f9 bc fa 48 44 bc
       -0.007731734 0.032857556 -0.030408528 -0.01198029
0002a0 0b 46 63 bc 6b 35 3b 3c bb ab e7 ba f2 84 ee bb
       -0.01387168 0.01142631 -0.0017675081 -0.007279032
0002b0 ea db 63 3b d9 d9 44 bc 5b 42 71 bd 8c d1 8d bc
       0.003476853 -0.01201483 -0.058901172 -0.017311834
0002c0 75 63 d2 3c d2 f1 9e bc ec 79 ae bc 03 bf 24 bd
       0.02568219 -0.019402418 -0.021298371 -0.040221225
0002d0 6e bd f4 bb ee 7a 10 bd df 0a a6 3c fa 58 2d 3a
       -0.007468871 -0.035273485 0.020268856 0.0006612685
0002e0 a4 ac 37 bd f9 10 2f bd d7 b9 17 bc d2 71 28 bd
       -0.044842377 -0.042740796 -0.009260616 -0.041124173
0002f0 63 46 7f bb 5b 7d ad bc 38 50 16 3c 24 d2 2e bd
       -0.0038951866 -0.021177938 0.009174399 -0.042680874
000300 df 3c 0a 3b ff 62 8e ba 8f 48 a7 bb ec 91 07 bd
       0.002109341 -0.0010863243 -0.005105085 -0.033098146
000310 2c 4f 00 bd b0 bc ec 3c 1c 3e c7 ba 51 a7 32 bc
       -0.031325504 0.028898567 -0.0015201005 -0.010904149
000320 fc 6f f5 bc 51 95 4a bc 3b b4 31 3c 04 44 f8 bc
       -0.029960625 -0.012364701 0.010846193 -0.03030587
000330 be ed ab bc a9 81 ad bc 16 46 00 bc dd b7 59 bc
       -0.020987388 -0.02117999 -0.00782921 -0.013288465
000340 e2 69 9e 3c 97 fd b5 bc 22 60 30 3c 77 f6 11 bc
       0.019337598 -0.022215648 0.010765107 -0.008908859
000350 ab 0d a6 3c 45 d8 0d bd 64 82 03 3d c0 44 da 3c
       0.02027019 -0.03463008 0.032106772 0.02664411
000360 47 11 0d bd bd fa 17 bd 7a d9 18 bd d0 4f c5 3c
       -0.034440305 -0.037104357 -0.037316777 0.02408591
000370 ea 31 10 bc 19 6f 5e 3c cf d7 04 3d 05 53 13 bd
       -0.008800963 0.013576292 0.032432374 -0.035967845
000380 83 a0 8d bc e7 b4 59 bc 09 e1 92 3c 19 0b 8a 3c
       -0.017288452 -0.013287759 0.01792957 0.016850995
000390 5e 74 d1 bc 92 14 c2 bc 27 b8 ca 3c d8 64 06 3d
       -0.025568184 -0.02369145 0.024746014 0.032811016
0003a0 eb e2 e9 3b f1 0d 96 bc d9 34 40 3c eb 4a db ba
       0.0071376464 -0.018317195 0.01173135 -0.0016730701
0003b0 45 8d a6 bc e4 2e bf 3c 82 4c 1c bd 61 7b db bc
       -0.020331034 0.023337789 -0.0381589 -0.02679223
0003c0 19 24 b2 3c 5e c4 98 3a 83 11 00 3d f4 c4 15 bd
       0.021745728 0.0011655202 0.0312667 -0.036564782
0003d0 50 83 2b 3c b4 d2 08 3d 6b 7f 2b 3a 1a 3f 37 3c
       0.010468319 0.033404067 0.0006542119 0.011184478
0003e0 b6 40 f8 bc 0f d7 0e bd ec 14 08 3c c5 1a a5 3c
       -0.030304294 -0.034873065 0.008305769 0.020154366
0003f0 8f 0b 9f bc 00 09 e3 bb 1c 10 e9 3c d1 c9 00 bd
       -0.019414691 -0.006928563 0.028450064 -0.031442467

fc1.bias f4 [128]
000000 0b ae c7 3c a0 90 11 bc 33 20 51 3c 62 15 25 bd
       0.024374982 -0.008884579 0.012764025 -0.040303595
000010 e1 07 d3 bc 54 b6 d4 3c d3 ef 0d bd 81 70 27 bd
       -0.025760593 0.025965847 -0.034652542 -0.040878776
000020 fb e3 99 3b b6 6f 7d 3c 24 97 ab bc 84 0c e6 bc
       0.004696367 0.0154685285 -0.020946093 -0.02808214
000030 a5 a5 13 bd 42 03 0d bd 38 38 1b bd 98 c3 81 bc
       -0.036046643 -0.034426935 -0.03789541 -0.015840337
000040 69 13 17 bd b2 16 a3 bc 0c 31 79 3d 94 5b ff ba
       -0.036883745 -0.019908283 0.06083779 -0.0019482248
000050 02 94 a7 bb f2 2e c6 3d 57 e1 2f bd f2 50 a7 3d
       -0.0051140795 0.09676923 -0.04293951 0.08169736
000060 db 3a 45 bd 3e 9a 19 39 26 c9 ba bb a1 5d f0 bc
       -0.048151832 0.00014648677 -0.0057002483 -0.02934152
000070 69 23 df bc 0e 2c 8d 3c e2 42 12 bd e5 7d aa 3c
       -0.027238565 0.017232921 -0.035708316 0.020811984
000080 3c 1e 0e bd 0d 69 57 3c 45 11 07 ba d4 ed 3b bd
       -0.034696802 0.013147605 -0.00051524147 -0.045881107
000090 e9 da cc bc be 6c 20 bd 95 6b b7 bc c7 ed 51 3b
       -0.025006728 -0.039166205 -0.022390166 0.0032032595
0000a0 d5 da a8 3c f8 9d c5 3d bb b1 04 bd 70 4c c6 bc
       0.02061216 0.09649271 -0.03239606 -0.02420637
0000b0 54 66 9d bc 11 18 13 bd fc d6 d1 3b 0e 84 cd 3b
       -0.019213833 -0.035911623 0.006403802 0.0062718457
0000c0 66 f8 11 bd 48 ad f0 3c a8 cc 0a 3d f6 3d d5 3c
       -0.03563728 0.029379502 0.03388658 0.026030522
0000d0 24 1d bc 3b de e3 c0 3d df 91 ee bb d4 13 14 bd
       0.0057407785 0.09418462 -0.007280573 -0.036151722
0000e0 a5 97 10 bd ba 2c fd 3b 25 f6 8d bc 40 7e b6 bc
       -0.03530087 0.007726279 -0.017329285 -0.022276998
0000f0 0c 93 29 bd 49 cc bb 3d 38 28 0b bd 58 b2 cc bc
       -0.0414 0.09169824 -0.033973902 -0.024987385
000100 a5 38 80 bc 1a 56 cf 3c 2a 26 ec 3d a9 1b c8 bb
       -0.01565201 0.025309611 0.11530717 -0.006106813
000110 2e 72 42 3c ee 32 8c 3c 8f 1a cf bb 4c b5 a3 3b
       0.011868043 0.017114129 -0.0063203047 0.0049959775
000120 70 ed 1c bc f0 fe 37 3c 93 39 52 b9 e1 61 3f 3c
       -0.009578094 0.011230215 -0.00020048609 0.011681051
000130 bf d6 1c b7 f2 8f 10 bd eb c5 24 3c c7 30 96 bb
       -9.348324e-06 -0.035293527 0.010056953 -0.0045834514
000140 94 f1 8c bc e9 9e df bb ed b3 e9 3b c8 e6 aa 3c
       -0.017205037 -0.0068243635 0.0071320445 0.020861998
000150 4b 82 05 3c e4 db df 3c 97 ac ec bc 22 84 d5 bc
       0.00814874 0.027326532 -0.028890891 -0.026063982
000160 68 1d 22 bd 13 f1 a8 3d c7 8c 89 bd 18 ac e9 3d
       -0.039578825 0.08249106 -0.06716304 0.114097774
000170 04 41 29 3c f3 53 b0 bc bd ab d9 ba 17 75 24 bd
       0.010330442 -0.021524405 -0.0016606968 -0.040150728
000180 8b e0 e0 3a e6 51 90 bb ca c3 e2 bb 4d a8 35 3c
       0.0017156763 -0.0044042943 -0.0069203125 0.011087489
000190 ce e8 13 bd 01 13 2e bc 70 13 01 ba 8b 18 91 3c
       -0.03611069 -0.010624648 -0.0004923856 0.017711898
0001a0 e1 a9 90 3a da a3 77 bc c8 e2 1b bd 9c 13 84 bc
       0.0011036956 -0.015114749 -0.038058072 -0.016122632
0001b0 bb 38 f1 3d 46 7b 56 3c e1 73 ff bb cf 2e 53 bc
       0.117783986 0.013090914 -0.0077957963 -0.012889578
0001c0 ef 9a df 3d 36 0f ae 3c 9b b7 79 bd c0 6e 07 bd
       0.10918223 0.021247488 -0.060966115 -0.033064604
0001d0 f4 49 2b 3c bf 65 8e 3c 2c fb af bc de 54 6a 3d
       0.0104546435 0.0173825 -0.021482073 0.057209842
0001e0 8a 90 76 bd f4 dc 42 bc 6a f9 4e bc 97 0d 4c bd
       -0.060196437 -0.0118935 -0.012632707 -0.049817648
0001f0 e3 0e ff 3d 04 0e 37 bd 14 92 07 3d 6b 80 6f bd
       0.12454011 -0.0446911 0.033098295 -0.05847208

fc2.weight f4 [128, 128]
000000 bd 2d b2 bd ce 7d 71 bd 3c 56 12 bc d8 31 38 bc
       -0.0870013 -0.058957867 -0.008931693 -0.011242352
000010 36 6e f5 3c b9 7a 74 3d ab d4 3f bd 69 42 55 3d
       0.02995978 0.05968735 -0.046833675 0.052065287
000020 ce 6c 06 bb 3d b2 08 3d 3d 65 e2 3c a1 8a 04 bd
       -0.002051163 0.033373106 0.027636165 -0.03235877
000030 61 23 9f bd 94 4a 0f 3d dd e7 a7 3d 64 fe 30 bd
       -0.0777042 0.034983233 0.08198521 -0.043211356
000040 73 8e 3c bd 5e 31 ef 3c 7c 6b 99 3b 0e e0 2b 3d
       -0.046034288 0.029198345 0.0046820026 0.041961722
000050 4f a9 af 3d ae ce 77 3d d2 aa 89 3c f7 57 38 bd
       0.08577215 0.06049984 0.016805086 -0.045005765
000060 7e cb 58 3d 80 ef 18 bb f3 04 86 3d 96 4e cd bb
       0.05292844 -0.0023336112 0.06543913 -0.0062654717
000070 18 6a 68 bc 55 a0 06 bb 99 f0 b7 3d 3e 90 62 3d
       -0.014185451 -0.0020542343 0.08981437 0.05531334
000080 a2 ee a3 bd 5f ee 09 bd c7 df a1 3d 02 6d c3 bd
       -0.080045 -0.033674594 0.0790401 -0.09542276
000090 3c e6 b0 bd 76 78 b3 3d 03 c3 ab 3d 0d 14 83 bd
       -0.08637664 0.087632105 0.08386805 -0.06400309
0000a0 c0 5c 83 bd 10 ad 9b bd 64 30 cf 3c 5c c4 e8 bb
       -0.06414175 -0.076013684 0.02529163 -0.007103486
0000b0 27 7d 1e bd e9 ca 9b 3d a6 db 64 3d 41 76 a7 3c
       -0.038693573 0.076070614 0.055873536 0.02044213
0000c0 8a e0 53 bd 2c b7 a2 bd 6c 63 07 bc d0 39 27 3d
       -0.05172781 -0.079450935 -0.00826345 0.04082662
0000d0 72 b3 56 3d 18 45 e9 3d 28 49 38 bc 54 24 b5 3d
       0.052417226 0.11390132 -0.011247911 0.0884482
0000e0 20 3a fa 3c 24 81 d0 bc 90 a4 34 bc 3f b2 9b bd
       0.030545294 -0.025452204 -0.011025563 -0.07602357
0000f0 7c 52 a2 bc 4f 23 cf 3d b9 b1 b0 bd 0d 89 ce 3d
       -0.019814722 0.101141565 -0.08627648 0.10084734
000100 c2 72 0d bd 00 cc 13 3d a4 95 fa 3d 49 df 54 bd
       -0.03453327 0.03608322 0.12235573 -0.051970754
000110 81 e1 6e 3d 0c 6b 7d bd 18 33 28 3d 07 b5 b1 3d
       0.058320526 -0.061869666 0.04106435 0.08677106
000120 cd 45 2d bd 20 2f 6b 3c 00 0b d1 3a 3a 66 17 3d
       -0.042302895 0.014354497 0.0015948713 0.036962725
000130 58 0f c3 3c 9b b5 1b 3d 40 ce eb bb 84 53 ba bc
       0.023811027 0.03801499 -0.007196218 -0.022744901
000140 3b fa 22 bc e3 e8 9c bd 23 4d 53 bd 54 f4 b9 3b
       -0.009947355 -0.07661607 -0.051587235 0.005674878
000150 08 74 a3 bd 97 01 72 bd 61 3e 83 bd 4a f5 19 3d
       -0.079811156 -0.059083547 -0.06408382 0.03758744
000160 44 6b 4c bd d2 fe 1d be df 01 63 bd 63 94 7f bc
       -0.049906984 -0.15429237 -0.055421706 -0.015599343
000170 82 14 35 3d 2a 7f 70 3d b9 02 00 3d 70 68 91 bd
       0.04420901 0.058715023 0.031252597 -0.07099998
000180 25 e8 42 3c b8 0e 3d bd 3e 83 4d 3d fe d1 1e 3d
       0.011896168 -0.046156615 0.05017399 0.038774483
000190 9c ac 0e 3d cc 2d 17 bd 9d 0c 87 3d 15 7c 9f 3d
       0.034832582 -0.03690891 0.06594203 0.07787339
0001a0 14 eb cb 3c f6 64 45 3d e8 46 12 3c 79 22 22 bd
       0.024892367 0.048191987 0.008928038 -0.039583657
0001b0 a7 da 34 3d 32 e4 95 bd d0 90 bb bc 90 aa db 3c
       0.044153836 -0.073189154 -0.0228962 0.026814729
0001c0 59 a9 a2 3d 00 0b b9 bc fc 93 77 bd 52 fe 37 bd
       0.07942457 -0.022588253 -0.060443863 -0.044920273
0001d0 fd 96 88 bd d6 3d 98 bd de e5 ae bd a2 b0 a8 bd
       -0.06669424 -0.07433669 -0.085399374 -0.08236815
0001e0 74 12 c6 3c d8 36 42 bc e7 4d 4f bd 21 9a 17 bb
       0.024178721 -0.011853896 -0.050611403 -0.002313264
0001f0 3f f5 9a 3d 10 d6 1e bd 2f 51 8c bd 67 2c 51 bd
       0.07566308 -0.038778365 -0.06851422 -0.051067736
000200 9e 0d 80 bd 3e f1 fe bc 18 c6 aa bd 90 46 eb 3b
       -0.06252597 -0.031120893 -0.08338565 0.0071800426
000210 9b a4 a4 ba e1 7c 80 3c 9c 18 ca bd 70 a8 3c bc
       -0.0012561263 0.015684547 -0.09867975 -0.011514768
000220 37 85 8e 3d 5b 0a 13 3d 28 d5 ae 3a fe 7c 17 3d
       0.069590025 0.035898548 0.0013338672 0.036984436
000230 79 ee 14 bd 90 2d 91 3b 26 2c 4a 3d fe 3f 33 bd
       -0.036360238 0.0044304803 0.04935851 -0.0437622
000240 a4 38 1e 3d 1c c5 19 3d 37 85 50 bb 30 b8 bf bc
       0.038628235 0.037541494 -0.0031817683 -0.023403257
000250 73 cf 07 bc 98 fc e5 bc 9b ad 9a 3d e0 9c 65 bd
       -0.008289206 -0.028074548 0.07552644 -0.05605781
000260 51 c7 a8 3d be 50 5f 3d 08 e0 96 bd 05 77 2f bc
       0.082411416 0.05452036 -0.07366949 -0.010709529
000270 07 ce 9c bd 4a e8 3f 3d 31 f0 a9 3d bc 60 f1 bc
       -0.07656484 0.046852387 0.08297766 -0.029465072
000280 6b 23 0e bd 10 56 aa 3c 92 0e 0b bd 1b c3 bc bd
       -0.034701746 0.02079299 -0.033949442 -0.09216901
000290 0f bd 96 bd 69 77 3c bd 84 75 15 3d 85 21 a0 bd
       -0.07360279 -0.046012316 0.036489025 -0.07818893
0002a0 f1 5d 79 bd f6 17 82 3c b0 9f be bc ac a7 9b bd
       -0.060880605 0.015880566 -0.023269504 -0.0760034
0002b0 4f e5 63 bd b0 a0 ce bc 6f a6 a3 3c 99 3b 1a bc
       -0.055638608 -0.025223106 0.019976823 -0.009413623
0002c0 22 e3 89 bd 79 fb 97 3d c0 d6 9a 3c 2e 9d 3b bd
       -0.06732775 0.074210115 0.018901229 -0.045804195
0002d0 10 30 12 bc 45 6d e4 3d 23 1f 40 3d 12 1e 94 bd
       -0.008922592 0.11153654 0.046904694 -0.07232298
0002e0 97 7b 2a bd e0 8c 46 bc 88 a5 85 bd 4d 56 6a 3c
       -0.04162177 -0.012118548 -0.06525713 0.014302802
0002f0 be ac 8a bd a2 e8 5d 3d 50 e9 a3 bc 6e 46 cb bd
       -0.06771229 0.054176934 -0.020008713 -0.09925543
000300 f3 da 45 bd 51 ef cf 3c e4 23 34 3d 8a 0d 86 3c
       -0.04830451 0.02538267 0.04397954 0.016363878
000310 42 17 cf bb ac 72 bb 3c ae 73 c6 bc 28 5e e3 3c
       -0.006319911 0.022881828 -0.024225082 0.027754858
000320 10 8d ae bc db 4b 25 bd c4 11 86 bc 20 6d 74 3c
       -0.021307498 -0.040355545 -0.016365893 0.014918596
000330 7d 48 8f bd 98 54 b4 3c a3 14 20 bd cb d4 85 3d
       -0.06996248 0.022012994 -0.03908218 0.06534728
000340 b7 55 0b bc 52 9c 72 bc 4d c6 56 bd 72 3b 8a 3d
       -0.008504323 -0.0148077775 -0.052435208 0.067496195
000350 4c 59 0a 3d 5c b3 01 bd ea 24 9f bc 30 20 eb ba
       0.033776566 -0.03166519 -0.019426782 -0.001793867
000360 eb 9a 0b bd f9 c4 a3 bd 08 3f 95 bd dd 6c f8 3c
       -0.03408329 -0.07996554 -0.07287413 0.030325348
000370 e0 49 08 bc ee cc 3c 3d b9 5c dd bc 0c a2 ab bd
       -0.008318394 0.046093874 -0.027021753 -0.08380517
000380 15 9d 45 bd 55 70 92 bd ba de 4a 3d 88 44 3f 3c
       -0.04824551 -0.07150332 0.049528815 0.011674054
000390 b0 73 3e bd 58 1b d0 3c cf a4 8a 3d 8e f3 06 3d
       -0.046497047 0.025403664 0.06769716 0.032947116
0003a0 a0 18 33 bc a8 b0 65 3c 9a a1 75 bd 5a d7 32 3d
       -0.010931164 0.014019169 -0.05996857 0.043662407
0003b0 f9 ed e6 3d 02 26 ff bb f2 48 13 3d d2 f7 1f 3d
       0.112758584 -0.0077865133 0.035958238 0.0390547
0003c0 9a 70 2e 3b be 62 4e 3d ac fa d2 bd 1e cb 58 bd
       0.0026617409 0.050387137 -0.10301718 -0.052928083
0003d0 c8 24 60 3c 81 6e 88 3d 54 3a a6 bd a5 84 5e 3d
       0.013680644 0.06661702 -0.08116594 0.05432572
0003e0 53 f6 bc bc c5 61 8d bd 3d af 73 3d 9e 93 cd 3d
       -0.023066675 -0.06903414 0.059493292 0.10037921
0003f0 99 95 2a 3e 69 01 b1 bd 98 5d ac 3d 97 c1 33 3d
       0.1665863 -0.08642847 0.08416289 0.043885794

fc2.bias f4 [128]
000000 27 66 51 3d f3 32 71 3d ae 10 10 3d 52 34 99 3d
       0.05112281 0.05888648 0.035172157 0.074806824
000010 1b 10 43 3d 54 08 b4 3d 3d 21 21 3e 06 9b e5 3d
       0.04762278 0.08790651 0.15735336 0.11211209
000020 aa da 21 bd 38 47 c9 3d 4f fe 5b bd 38 27 3a bc
       -0.039515175 0.09828037 -0.053709324 -0.01136189
000030 78 77 12 3e 40 88 2c 3d b1 d5 d0 bd 9a 51 a4 3d
       0.14303386 0.042122126 -0.101970084 0.08023377
000040 98 b5 84 3d ec a1 cf 3d 6d 5a bd 3d a6 55 c4 39
       0.06479949 0.10138306 0.09245763 0.00037447846
000050 bf 1f 0d bd a0 48 b0 3d de 99 e0 3d ee a1 4d 3e
       -0.034454104 0.08607602 0.10966848 0.20081303
000060 70 84 0a 3e 24 6d f1 3c 93 84 da 3d 2a a6 0f 3e
       0.13527083 0.029470988 0.10669818 0.1402823
000070 1d d8 4f 3b d0 68 1b 3c 39 e7 9b 3d d8 0b 61 3d
       0.0031714507 0.0094854385 0.076124616 0.054942936
000080 c2 4b 32 3e 41 db ba bd 4e b8 42 3e b8 74 75 3c
       0.17411712 -0.091238506 0.19015619 0.014981441
000090 a9 99 f3 3c 52 8f 35 3e 67 6a 83 bd cb 18 a9 bc
       0.029736357 0.17730454 -0.06416779 -0.020641705
0000a0 6e 46 42 3d 9e df 9e 3b f8 06 97 bc 4a d3 7f 3c
       0.04743045 0.0048484346 -0.01843594 0.01561434
0000b0 5b 93 29 3e 3e cf ef 3d f5 78 51 3d 0f f4 73 3c
       0.16560118 0.1170945 0.051140744 0.014889731
0000c0 aa fc 06 be 81 6c d9 3c 84 d0 e7 3d ec 8d 56 3d
       -0.13182321 0.026540997 0.11319068 0.05238144
0000d0 b3 48 03 3d 53 4c fc 3b 69 61 39 3e d0 6e c6 3d
       0.032051753 0.0076995282 0.18103565 0.096891046
0000e0 64 fb 0c 3c 45 48 ab 3d d4 7b 02 bd c5 94 1e 3d
       0.008604858 0.08363394 -0.031856373 0.038716096
0000f0 0c bd 15 3c 9f 8f 49 bd f0 54 34 3e 47 21 dd bc
       0.009139311 -0.049209233 0.17610526 -0.026993407
000100 fb 6a f5 bb c9 95 8d bd 72 b3 13 bd 33 46 96 3d
       -0.0074895597 -0.06913335 -0.036059804 0.07337608
000110 59 2b c2 3d ee a9 e9 3d 3a 17 b4 3d e3 47 9a 3d
       0.09480924 0.11409365 0.087934926 0.075332426
000120 84 91 6d bd a8 8f c4 3d e8 d2 21 3c d6 34 ff 3c
       -0.058000103 0.09597713 0.009876944 0.031153124
000130 4b a7 d5 3c 19 c6 64 3d 73 e2 0e be b6 c7 1d bc
       0.026080748 0.055852983 -0.13953571 -0.009630134
000140 9a eb 1e 3d 08 cf 28 3d f0 0f 38 3e 18 4d 8e 3c
       0.038798906 0.041213065 0.1797483 0.017370746
000150 3a 4a 3c 3d 03 ff 05 3c 02 ab 26 bd 58 1a f1 3d
       0.045969225 0.008178475 -0.04069043 0.11772603
000160 20 26 25 be 63 2a 2e 3e a5 86 f5 3d 48 2b 29 3e
       -0.16127825 0.17008357 0.11988572 0.16520417
000170 28 81 ea 3c ad 5a 74 3c 40 54 f3 3c 33 41 1e 3e
       0.02862604 0.014914197 0.02970326 0.15454559
000180 09 9f 31 3d 2a 10 72 3c df 0f 18 3d 96 ea f2 3d
       0.04336456 0.014774362 0.03712451 0.1186115
000190 00 8a e4 bb b1 b9 d9 3c 79 59 60 3c 96 02 6d 3d
       -0.0069744587 0.026577802 0.013693207 0.057863794
0001a0 d1 5d c0 3d b3 de 3a 3e 13 90 93 3c 66 83 9c 3c
       0.09392894 0.18249016 0.018013036 0.019105624
0001b0 5e 4f 40 3e 82 88 1a 3e e7 89 e9 bc 81 bc 44 bd
       0.18780276 0.15091136 -0.02850814 -0.048031334
0001c0 63 fb a9 bd 39 67 2c 3e 30 08 ac 3d 58 d7 43 3e
       -0.08299901 0.16836251 0.08399999 0.19125116
0001d0 ee 1e 23 3e 71 20 51 3d 3f 60 82 3e a1 23 00 3e
       0.15929767 0.05105633 0.25464055 0.12513591
0001e0 39 3c 11 3e a3 4a 88 3c 2c 23 11 3e 80 19 bb bd
       0.1418313 0.016637152 0.14173573 -0.09135723
0001f0 0e 04 89 3e f1 e5 d4 3d 79 1a 11 bd 45 94 13 bd
       0.26760906 0.1039542 -0.035425637 -0.036030073
