models/dqn_model_epoch_66000.pth (torch, 595624 bytes, 14 tensors)

cnn1.weight f4 [16, 4, 5, 5]
000000 16 63 47 be e7 6f 33 3d bc 08 c9 bc c2 9b 49 be
       -0.19471392 0.04380789 -0.024540298 -0.19688323
000010 76 5c 12 be 42 7e 4b be a2 91 46 be fe 62 94 be
       -0.14293084 -0.19872382 -0.19391492 -0.28981775
000020 74 9a 0e bd 09 54 69 bd 8d b7 8b be 2c 40 24 be
       -0.034815267 -0.056964908 -0.27288476 -0.16040105
000030 bf 74 c2 be cd e0 15 be d4 e9 14 3d b6 21 2a be
       -0.37979695 -0.14636536 0.03635581 -0.16614422
000040 af ac 5a be 8b d3 23 bd b4 30 83 be 35 44 45 3c
       -0.21354936 -0.039996665 -0.25623095 0.012040188
000050 39 f9 56 be 9f a0 81 be d9 23 41 be 8b cf 88 3d
       -0.20993508 -0.25317857 -0.18861331 0.06680211
000060 5e c6 d7 3c 6f 4c 70 bc 13 b1 0a bd 50 f2 c1 bd
       0.026339706 -0.014666661 -0.033860277 -0.094700456
000070 7f 58 10 be 54 55 e3 3c 88 87 83 3d bb 62 dd bc
       -0.14096259 0.027750649 0.06422335 -0.027024617
000080 53 3d d0 3c 4d c7 88 bd 36 24 93 bd 01 04 41 bd
       0.025419867 -0.066786386 -0.07184641 -0.04712296
000090 c4 3c 0d be b0 fb 85 3c d6 f9 08 3e 5f 5d e8 bc
       -0.13792711 0.016355366 0.13376555 -0.028364835
0000a0 49 fd d3 bd 5d 04 a8 3c 68 a1 ad bd b9 58 a1 3c
       -0.10351045 0.020509893 -0.084780514 0.019695627
0000b0 17 00 04 be 20 15 02 bd dd d8 99 3d 3a 40 2a bd
       -0.1289066 -0.031758428 0.075120665 -0.041565157
0000c0 eb 48 89 bd f1 6e b2 bd b7 f3 a9 3d c8 a7 27 bc
       -0.06703361 -0.08712567 0.08298438 -0.010232873
0000d0 45 12 07 be 6b af 52 be 2c 5a d4 bc 32 92 c7 bc
       -0.13190563 -0.20574729 -0.025921904 -0.024361704
0000e0 27 1f b3 bd 02 05 38 3e ae 02 4b 3d c5 f4 1d be
       -0.08746176 0.1797066 0.049563102 -0.15425403
0000f0 7b 37 6a 3e 12 59 6c 3e 47 54 04 3e e0 b4 f1 3c
       0.22872727 0.23080853 0.12922774 0.029505193
000100 99 6c 57 be 1c c8 90 be 38 59 23 3e 79 3e 91 3e
       -0.2103752 -0.2827767 0.15952003 0.28367975
000110 42 f3 05 be 7f a0 2a be 6e 03 24 be bf c6 83 bc
       -0.13081077 -0.16662787 -0.16016933 -0.01608598
000120 f5 6c a3 3e 8d dc 06 be d0 34 1c be 08 92 bf bd
       0.31919065 -0.13170071 -0.15254521 -0.09354025
000130 a8 56 7a be 2c 86 b8 bd a3 c5 a7 bb e6 cc 87 bd
       -0.24447119 -0.09009966 -0.0051199957 -0.06630878
000140 89 64 2b bd d9 a9 e1 3d a4 49 18 3e 93 f0 c0 bd
       -0.041843925 0.11018724 0.14871842 -0.09420886
000150 4c e3 09 3d 5b f0 26 be e9 24 96 3d b8 2a a5 3d
       0.033664033 -0.16302626 0.07331259 0.080647886
000160 6a 97 bf bd 09 e2 a8 bd d0 8c 03 be 65 68 b2 bb
       -0.09355052 -0.08246238 -0.12846684 -0.0054445737
000170 57 a3 98 3d 20 d5 c8 bc f8 bd f2 bd d0 01 b9 3d
       0.074530296 -0.024515688 -0.1185264 0.09033549
000180 3c c1 f0 3d 2d 76 3a be 29 8e 8f bd 74 15 75 bd
       0.117556065 -0.18209143 -0.07009537 -0.059834912
000190 0f f1 f2 bd 16 95 85 be 7f 2a 35 be 0e 60 0b 3d
       -0.118623845 -0.26090306 -0.17691992 0.03402715
0001a0 01 8e 67 be 71 42 01 be 44 cc a7 bd 5b b2 d2 bb
       -0.22612764 -0.12623002 -0.081932575 -0.006429953
0001b0 a6 4f bf 39 46 09 ae 3b 2b 10 0c be 77 4d 4a bd
       0.00036489702 0.005311164 -0.13678043 -0.049390282
0001c0 f9 01 94 3c 15 0b 81 bd 4e 25 7a bd de 71 1f be
       0.018067347 -0.06300942 -0.061070733 -0.1557078
0001d0 36 ea 67 be 02 e8 33 be ad 8a bd be ee 1a 6e bd
       -0.22647938 -0.17568973 -0.37019864 -0.05813115
0001e0 39 07 84 be 4a ae 62 be 42 6b c5 bd 7b f3 8c bd
       -0.2578676 -0.22136799 -0.096395984 -0.06882378
0001f0 eb d3 ff bd 3b d4 41 bd 2c b4 aa 3d 5f 72 72 bd
       -0.12491592 -0.04732154 0.08335146 -0.059191104
000200 87 d5 0f 3d d5 aa 06 be 08 62 87 bc ef 55 1e bd
       0.035115745 -0.13151105 -0.016526237 -0.03865617
000210 5f 1f e1 bd ca 65 bb 3c 98 05 55 bb 74 25 a6 bc
       -0.10992312 0.022875685 -0.0032504555 -0.02028153
000220 dd 13 4e bd a6 20 12 be b2 4a 47 bd 6d c4 d2 bc
       -0.05031191 -0.14270267 -0.04865522 -0.025728429
000230 2b 91 0b be 69 da cc bc 12 47 51 3d 2b c3 48 bd
       -0.13629596 -0.02500649 0.05109317 -0.04901425
000240 fc 7c da bd 14 aa 1f bb ce 68 05 3d d5 8f 8c bd
       -0.1066837 -0.002436285 0.032570653 -0.06863371
000250 87 0b d4 3d f2 a1 e8 bd e5 da 42 be 77 99 2d 3e
       0.10353761 -0.113590136 -0.19028814 0.16953073
000260 b6 45 5f bd 58 00 1b 3e 4c 57 17 be c6 ee 3e be
       -0.05450984 0.1513685 -0.14779395 -0.18645772
000270 4e 59 36 3e fe 16 51 be 4c b5 a7 3d e4 ca 20 be
       0.17807505 -0.20418927 0.081888765 -0.15702397
000280 7b de 8b be c9 2f 80 be f1 70 b3 3d 13 20 c6 3d
       -0.27318177 -0.25036457 0.08761776 0.096740864
000290 13 65 57 be 3b 49 7c be 7c c5 0c be ed d3 83 3e
       -0.2103465 -0.2463731 -0.1374721 0.25747624
0002a0 a7 99 41 be 70 da 6e be c5 63 c7 3e e3 fd 97 3e
       -0.1890627 -0.23325515 0.38943306 0.29685888
0002b0 b6 15 d4 3e 89 e4 66 bd 70 7b 29 be 89 12 54 3e
       0.41422814 -0.05637029 -0.16550994 0.20710196
0002c0 c9 9f 08 3e 1d f3 72 3e 90 9f 8d bc f8 7b a8 bd
       0.13342203 0.23725553 -0.017288 -0.0822677
0002d0 47 a0 ef 3d 09 ee f4 bd 05 bf 1b 3e f7 43 04 be
       0.11700492 -0.11959464 0.15209587 -0.12916552
0002e0 40 c8 e0 bd 12 81 28 be ca b9 bd 3d 38 52 81 3d
       -0.10975695 -0.16455486 0.09263952 0.0631451
0002f0 69 48 a6 bd a3 cb 1c be fe 26 2b be 19 8e eb bc
       -0.0811928 -0.15312056 -0.16714093 -0.02875428
000300 44 c6 ab bd 0e 2a 00 be 42 45 25 bd 43 04 0a be
       -0.083874255 -0.12516043 -0.040349253 -0.13478188
000310 9c b4 f1 bd 6c b4 3c 3e 7d 25 03 be af 90 0e be
       -0.11802027 0.184282 -0.1280727 -0.1392238
000320 70 06 99 be ba 42 99 bd 2d 94 b0 be d0 b4 46 3d
       -0.29887724 -0.0748343 -0.3448805 0.04851228
000330 69 0d 3a be ea 39 64 be 38 89 1f be 3f f8 42 be
       -0.18169178 -0.22287717 -0.15579689 -0.19040011
000340 12 4c 1d 3d 0f fc 9b 3b ec 3b 78 be 53 c0 5f be
       0.038402624 0.0047602723 -0.24241608 -0.2185071
000350 1a df fa bd ca 28 eb 3c 7c 2f 35 3e e2 80 7e be
       -0.122495845 0.028705973 0.17693895 -0.24853852
000360 9a 66 6a be d0 6a 94 be 76 aa 21 be 10 7e 09 3e
       -0.22890702 -0.2898774 -0.15787682 0.13426995
000370 ab 84 79 be 76 20 05 be c2 cf 74 be f3 10 56 3d
       -0.24367015 -0.13000664 -0.23907378 0.052262258
000380 af 56 85 bd 52 22 05 be 8b 96 44 bc e7 d4 0e be
       -0.06510674 -0.13001373 -0.011998783 -0.13948403
000390 12 c9 ac bd 66 b8 16 bd a6 bb 88 bb 42 da b4 bc
       -0.084367886 -0.03679695 -0.00417276 -0.02207673
0003a0 8f 70 80 3d fb 9f ba bd 95 0b e8 3c db a7 91 bc
       0.06271469 -0.09112545 0.028325835 -0.017780235
0003b0 55 68 c9 3c 3b bb 4c bc e2 f6 ce bd 69 aa 84 bb
       0.024585882 -0.012495811 -0.10105683 -0.004048635
0003c0 07 03 80 bb dd 6e b2 bd c3 6b 22 3c d4 df 3b 3e
       -0.003906611 -0.08712552 0.009913388 0.18347102
0003d0 7d 3e 02 bc 59 19 b0 bd c0 13 1b be 81 3e 66 bd
       -0.007949469 -0.08598585 -0.15144253 -0.056211952
0003e0 db 03 bb 3d 46 22 41 bc 44 94 99 3d 63 64 fc 3c
       0.09131595 -0.011787957 0.074989825 0.030809587
0003f0 a6 2b 50 3d 01 30 cb be 74 a5 79 bd a1 52 c7 3c
       0.050822876 -0.39685062 -0.060948804 0.024331393

cnn1.bias f4 [16]
000000 fe 36 62 3d 66 02 4e bd ee aa 8e bd 5f c9 97 bd
       0.055228226 -0.050295256 -0.06966196 -0.07411455
000010 ee 0b 12 3d 1d 75 94 bd 87 05 94 bd 55 00 06 bb
       0.03565591 -0.072489 -0.07227617 -0.0020446975
000020 da 0b 86 3c 00 b6 f9 bd ff 4c ef bc 74 54 97 bd
       0.016363073 -0.12192917 -0.02921152 -0.07389155
000030 67 cf 70 bc f9 4d b4 bd 8f 68 ca 3c 98 2d 9e bd
       -0.014697886 -0.088039346 0.02470806 -0.0772354

cnn2.weight f4 [32, 16, 3, 3]
000000 cc c4 dd 3c 71 5f 6c 3d 2d 1a d5 3d c6 b5 23 3e
       0.02707138 0.057708208 0.10405383 0.1598731
000010 66 e0 9b bc 2d 8c 2a bd fe 31 9a 3d 6a 72 8c 3c
       -0.0190279 -0.04163759 0.075290665 0.0171444
000020 d7 2e 50 bd 0c 08 2f 3e c3 59 c9 bd f4 d6 29 3d
       -0.05082592 0.17092913 -0.09831574 0.04146476
000030 e5 f1 09 3e 92 00 94 bd f2 24 f8 3d 5d 75 1c 3e
       0.13471182 -0.07226671 0.12116422 0.15279146
000040 0c e3 6a bd 58 03 8f bd 3b 48 38 bc d7 45 df bc
       -0.057345435 -0.0698306 -0.01124769 -0.027254982
000050 af 85 a3 ba e8 06 7d bc 5d db d1 3b 03 28 54 bd
       -0.0012475754 -0.015443541 0.006404324 -0.05179597
000060 b6 43 70 bd a6 48 80 3c 5d 22 66 bd 8c a6 d5 3d
       -0.058658324 0.015659641 -0.056185115 0.10432157
000070 5a 96 a3 bd bf 5c 91 3c 98 22 2c 3e d6 b2 17 3d
       -0.07987662 0.01774442 0.16810071 0.037035786
000080 c3 88 ff bc 0a 92 e5 3d b4 3f 7a 3d 2e 48 b4 bd
       -0.031193143 0.11209495 0.06109591 -0.0880283
000090 38 b7 84 3d 80 62 9c bc dc d1 9d bc 21 23 e2 3d
       0.06480259 -0.019089937 -0.019265108 0.110418566
0000a0 84 6f 8b 3c 2c 13 8d 3d df 85 ba 3d 50 86 f0 3c
       0.017020948 0.06888422 0.09107565 0.02936092
0000b0 bf cf b8 3d 74 9b c2 3d 76 4c 83 3d db 98 8a 3d
       0.090239994 0.095023066 0.06411068 0.06767436
0000c0 77 66 00 3e 27 60 81 3d 63 7f da 3c 00 bd 5b bc
       0.12539087 0.06317168 0.02667207 -0.01341176
0000d0 ba 80 8c 3c 6a 59 13 3d be 11 5f bd 2a de 0d 3d
       0.017151225 0.035973944 -0.05446028 0.0346357
0000e0 7d e9 9b 3d 5b 27 2c 3c 38 99 08 3d 30 05 8b 3d
       0.07612894 0.01050743 0.033349246 0.06788099
0000f0 67 1f 37 3d eb 60 11 3d da b8 d3 3d d8 bc 68 3d
       0.044707682 0.03549282 0.10337992 0.05682072
000100 99 00 aa bd cd f8 46 3d ed f0 4c 3d 96 10 36 bd
       -0.08300895 0.04857712 0.050034452 -0.04444941
000110 34 de cd 3d 9b 15 ca bc 1d 4a 15 bd 87 65 10 3c
       0.100521475 -0.024668505 -0.036447633 0.0088132685
000120 3f be 6c 3d 09 78 75 bc b0 01 62 bd fb 7a e6 3d
       0.05779862 -0.014982232 -0.05517739 0.112539254
000130 cf 4d bf 3d 40 50 ac 3d 42 12 50 3d 5d 40 3b 3d
       0.09341013 0.08413744 0.050798662 0.04571568
000140 3a 7b 57 3d f5 5e 8d 3d 14 e6 a0 3d 4c ad f0 3d
       0.052607752 0.06902877 0.07856384 0.11751804
000150 91 55 57 3d 99 e4 4c 3d d6 d5 e3 3c d6 5e 8c 3d
       0.052571837 0.050022695 0.027811926 0.06854026
000160 3c fa 15 bd b2 9d 3c 3d bd 1a 3c 3d 27 c4 87 bc
       -0.036615595 0.046048827 0.045923937 -0.016573025
000170 0e e4 42 bc 0a 88 82 3c 64 8e a9 38 f8 dd a7 bd
       -0.011895193 0.01593401 8.08507e-05 -0.08196634
000180 72 77 2d 3b dd 37 da ba a2 14 26 bb 6d 4e a4 3c
       0.00264689 -0.0016648729 -0.0025341888 0.020056928
000190 8a 42 22 bd 84 c7 17 3d e6 32 af 3d 12 13 b8 3d
       -0.039614238 0.037055507 0.0855463 0.089880124
0001a0 19 7b 55 bd 13 6b cf 3d 2f 7e 4b 3d da 39 b6 3d
       -0.05211935 0.10127845 0.049680885 0.08897753
0001b0 26 3e a7 bd 38 f4 f1 bd 3e bb 9a bc 3a 64 2c bb
       -0.08166151 -0.11814159 -0.018888112 -0.0026304857
0001c0 62 7e 3f 3d 74 a3 4b bc 22 ea 4f 3d ba c8 5d bd
       0.046751387 -0.012429107 0.050760396 -0.054146506
0001d0 d9 6d 2e bb 5e b0 16 bd 87 47 6d bd cc 93 bd 3c
       -0.0026615767 -0.03678929 -0.057929542 0.023141764
0001e0 13 98 39 3d e6 c7 83 bd 41 31 86 bd f3 e6 18 bd
       0.045311045 -0.06434612 -0.06552363 -0.037329625
0001f0 8d f7 a0 bd 4d 4d 03 bd c9 fe db 3d 80 32 cd bc
       -0.078597166 -0.03205614 0.10741956 -0.025048494
000200 68 46 af 3d f8 31 3b 3e 97 f8 81 3d 81 c9 93 3d
       0.08558351 0.1828078 0.06346243 0.07216168
000210 c6 54 1e 3e 1a 8f 2a ba 09 dc c3 3d bf 6c b8 3c
       0.15462026 -0.0006506309 0.09563453 0.022512792
000220 fe 81 71 bd 28 ab 8b ba 2e 36 80 3d 38 e2 1d bd
       -0.05896186 -0.0010655867 0.06260334 -0.038545817
000230 e2 08 3b 3c 17 87 1f 3d c8 ce 4f bd 9d 62 c7 bd
       0.011415692 0.03894719 -0.05073431 -0.09735606
000240 8c d8 59 bd c8 b6 0c 3d 73 b8 e8 3c c8 40 22 3e
       -0.05318503 0.034354 0.028408265 0.15845025
000250 68 a0 91 3b 3f d7 ec bc 42 f9 6d 3c 4f 61 07 3d
       0.0044441707 -0.028911231 0.01452476 0.033051785
000260 35 85 40 bc fc e8 b7 3b 07 6c ec 3d 11 b7 14 bd
       -0.011750509 0.0056124907 0.11544042 -0.0363074
000270 c8 b1 05 3e b1 f4 22 3c 4d f8 88 bb 67 95 96 3d
       0.130561 0.009946034 -0.0041799904 0.07352715
000280 15 9d fa 3d 32 8b c0 bd 34 9e 1d 3c 94 47 90 bd
       0.12236992 -0.094015494 0.009620238 -0.070449024
000290 e2 60 36 bd af e6 b2 bd da 0a f5 bd ba 6d ba bd
       -0.04452599 -0.08735406 -0.119649604 -0.0910296
0002a0 69 25 52 bd 6c c2 07 be 65 49 e5 bd 6b 95 f7 3d
       -0.05130521 -0.1325776 -0.111956395 0.12089046
0002b0 11 b5 ef 3d 31 e2 d6 bc b5 d5 22 3e f4 0a 2d ba
       0.117044576 -0.026230903 0.15901835 -0.00066010584
0002c0 63 77 bb 3c 63 c7 f1 3d 4d b7 90 3d 03 d9 92 bd
       0.022884076 0.11805608 0.07066212 -0.07170298
0002d0 b3 0c d6 3c a8 15 5f 3d 91 db 0a 3d 41 e6 87 3d
       0.026129102 0.054464012 0.0339008 0.06635714
0002e0 19 5b 34 3e 05 2f d2 3b 1b ed bf 3d ea f6 6e 3d
       0.17612876 0.0064142966 0.09371396 0.058340944
0002f0 1a f1 09 3d 1a e3 47 3e cc a6 c0 3a 28 51 fe 3c
       0.033677198 0.19520226 0.0014698147 0.031044558
000300 b4 f4 12 3e f9 66 1f 3c dd d6 e0 3b 04 6a 6c bd
       0.1435116 0.00972914 0.006861551 -0.057718292
000310 22 7d 37 3d 60 cd 0d be ca cc e6 ba 91 fd 9b bc
       0.04479707 -0.13847876 -0.0017608639 -0.019041808
000320 e1 4a 1f bc 40 4e fa 3d 02 02 ce 3d 52 0e f6 3c
       -0.009722442 0.12221956 0.10058977 0.030036125
000330 ea f8 31 3e 55 13 5d bd 44 05 dc 3d 3c 47 33 3c
       0.1738011 -0.053973515 0.10743192 0.010942277
000340 7d 1f 36 3d d3 89 0d bd 13 d2 32 bd f4 88 71 bd
       0.044463623 -0.034555268 -0.043657374 -0.0589685
000350 49 25 91 bc 86 b5 38 bd be 8b b9 bd 75 fc b0 bc
       -0.017717974 -0.04509499 -0.09059857 -0.021604756
000360 8e 9d 1d 3e 98 ee cd 3c 56 f2 7e ba 0f aa 29 3e
       0.15392134 0.025138184 -0.0009725442 0.16568778
000370 46 1c 8e bc 81 2b 5c bc 44 9c 3c 3e 00 6e 43 3d
       -0.017347466 -0.0134381065 0.18418986 0.047712326
000380 ea 03 09 3d 38 17 1a 3e cb cd b3 3d 28 04 ac 3c
       0.033451 0.1504792 0.08779486 0.020998076
000390 da 46 48 3b 80 9b b5 3d cc 2a 21 3e 4e 6e b0 3d
       0.003055981 0.0886755 0.15738982 0.08614789
0003a0 79 c6 0f bd fe 23 12 3d d5 85 d6 3c b2 d6 b4 3d
       -0.035101388 0.035678856 0.026186863 0.088300124
0003b0 52 bf 5a 3a 7c 9c 3c 3d 94 cb 11 bc f7 1b 90 bd
       0.0008344549 0.046047673 -0.008898634 -0.07036584
0003c0 14 8f 58 bd 02 ef 51 bd 71 0e fb bd 3a 25 f3 3d
       -0.052870825 -0.051253326 -0.12258614 0.11872335
0003d0 a8 e0 4a 3d a1 49 ce bd ac ee 89 3d e5 db 59 3d
       0.049530655 -0.10072637 0.06734976 0.053188223
0003e0 3c 03 f1 bb 75 3b e0 3d c9 5b 97 3d 7b ab cb 3c
       -0.007355122 0.109488405 0.073905535 0.024862042
0003f0 51 09 9e 3c 70 be c3 bc 4c e5 9a bd ba 51 ed 3d
       0.019291552 -0.023894519 -0.07563266 0.11587854

cnn2.bias f4 [32]
000000 e1 89 cf bd ce 65 ee bc d6 0d 0c bd 18 43 6d 3b
       -0.1013372 -0.029101279 -0.034192882 0.003620332
000010 fe 3d b1 b9 71 e6 95 ba 5b e6 9b bd 9f 22 92 3d
       -0.0003380626 -0.0011436475 -0.07612296 0.0713551
000020 8c f5 94 bd 4e 17 2e bd f4 c5 fd 3c 9e 8a 8f 3a
       -0.07273397 -0.042502694 0.03097818 0.0010951345
000030 d6 40 bd bb 67 2c e9 3b f3 1e ce b9 ea a5 de bd
       -0.0057755513 0.007115889 -0.0003931444 -0.10871489
000040 35 bd e6 3d cb a6 d6 3b 92 44 19 bd 5c ad cb bd
       0.11266557 0.006550645 -0.03741891 -0.09945175
000050 e5 ec e0 bd 85 ef 9c 3c 05 3a 58 bd 06 f4 24 bd
       -0.10982684 0.01915718 -0.052789707 -0.04027178
000060 93 59 89 bb 63 3f af bd cd 1c 60 bd ff cd 06 be
       -0.0041915863 -0.08557012 -0.054714967 -0.13164519
000070 32 5c c6 3d 33 1c 74 bd 65 2e bf 3d 7d f3 04 bc
       0.096855536 -0.059597205 0.09335021 -0.008114693

cnn3.weight f4 [32, 32, 3, 3]
000000 46 53 d9 3c 17 65 c1 3a 3f 37 ac 3c c9 a4 44 3c
       0.026528966 0.0014754859 0.021022437 0.0120021785
000010 22 e4 96 bd 1a c8 41 bd c7 4c 46 bc 94 15 c2 bc
       -0.07367732 -0.047309972 -0.012103266 -0.02369193
000020 97 e4 b5 39 bc 61 2c 3e e2 ad 2f 3d 75 19 97 bd
       0.00034693323 0.16834158 0.042890437 -0.073779024
000030 df 6a c1 3d c6 c6 32 bd 99 c1 19 be 9f a8 90 bd
       0.09444212 -0.043646596 -0.15015258 -0.07063412
000040 e3 8c 47 bd 3c 46 bc bd 0e 9f a6 3a 4f 9e 26 bd
       -0.048718344 -0.09193084 0.0012712197 -0.04067832
000050 e0 77 87 bd 78 c3 a2 3d 69 28 58 bd d3 52 9f bd
       -0.06614661 0.07947439 -0.052772913 -0.07779469
000060 b2 d6 3e 3d 86 e5 64 3d 24 2e 87 bc 7d c9 18 3d
       0.04659147 0.055882953 -0.016501494 0.03730153
000070 4c 8e b6 bb 54 af 08 3c cc 78 51 3d 83 2c 58 bd
       -0.0055711623 0.008342583 0.05114059 -0.052776825
000080 95 bf 59 bd 52 c2 62 3c 33 a5 d0 bc 18 10 d5 3c
       -0.053161222 0.013840275 -0.025469398 0.02600865
000090 57 ab d5 3d 3b 9d d1 3c 8e 42 34 bc 43 63 ca bc
       0.10433071 0.025587669 -0.011002196 -0.024705535
0000a0 21 4a cd bd 8c 6e 5f 3b a4 66 a3 3a 15 54 7f 3d
       -0.100239046 0.003409299 0.0012466502 0.062336046
0000b0 e7 17 1b bc aa 1b f5 3d 54 2c a0 bd 7b f6 8a bc
       -0.009466148 0.11968167 -0.07820955 -0.016963234
0000c0 a2 b1 16 3d ab d3 c5 bd 37 94 c5 bd 0e d2 71 bc
       0.036790498 -0.09659513 -0.0964741 -0.014759554
0000d0 15 e9 b6 3b 80 b6 81 bb 09 95 fc bb 6c 92 dc 3c
       0.0055819848 -0.0039585233 -0.007708196 0.026925288
0000e0 87 be 80 bd 12 65 20 bd 68 c2 36 bb 84 04 ef bc
       -0.0628634 -0.03915889 -0.0027886871 -0.029176958
0000f0 4c 5a 46 3d 39 03 61 bd 71 3c 23 bd 66 05 40 bd
       0.048425958 -0.054934714 -0.039852563 -0.04688015
000100 21 41 eb 3d 80 2c 91 3d 80 ea 22 3d b9 ac b6 bb
       0.11487032 0.07088566 0.039774418 -0.0055747894
000110 63 f3 dc 3d d3 6a 3b 3d 1a b5 83 3d 95 00 b8 3d
       0.1078861 0.045756172 0.06431027 0.08984486
000120 da e4 29 bc 54 4d b8 3c 21 60 61 bd 1a 98 88 bd
       -0.010369504 0.02249781 -0.055023316 -0.06669636
000130 23 c1 f7 bc 29 68 62 bd 34 63 20 3c bb b5 ae bc
       -0.030243462 -0.055275116 0.009789277 -0.02132689
000140 e0 52 70 bd 31 85 b9 3d 8f e7 ad bd 5a 9a 44 3c
       -0.058672786 0.09058607 -0.08491432 0.011999691
000150 52 25 b3 3c 7b 69 f8 bd bb 6b 45 3c 24 9b f4 bc
       0.021868382 -0.12129494 0.012049611 -0.029859133
000160 57 4f fb bc 68 f2 5f bd 4e f7 af 3d 56 3d c1 3d
       -0.03067748 -0.054674536 0.085920915 0.09435527
000170 36 2d c3 bd f5 b5 ba 3c bb c0 9f 3c 1e d8 b4 bd
       -0.09530108 0.022791842 0.01950108 -0.088302836
000180 e9 42 01 bd 2d cd 11 3d 15 f3 d4 bc ff 2b 6c 3d
       -0.03155795 0.03559606 -0.025994817 0.057659145
000190 66 ae 9b bd 4d cb 93 bd 05 46 2d bd a8 96 f3 bd
       -0.07601623 -0.07216511 -0.042303104 -0.1189397
0001a0 5d da 0b be 5d 3f 59 3d da 03 17 3d 6e e3 cc bc
       -0.13657518 0.053038944 0.036868908 -0.02501079
0001b0 a8 c2 d5 3d 42 a3 16 3e 6e 11 1f 3e c6 51 ee bc
       0.10437518 0.14710715 0.15533993 -0.029091727
0001c0 f1 2a 1d 3e 53 34 dd 3c c2 34 3a 3c 03 76 be 3c
       0.15348412 0.02700249 0.0113651175 0.023249632
0001d0 74 b4 af bc 6e c7 8a 3c 60 cf 6d 3c 9a 0a b6 bc
       -0.021448351 0.016940799 0.014514774 -0.022221852
0001e0 3e e5 bd bb 00 01 1f 3d f8 1e 3d bd 3e 64 f9 3c
       -0.00579515 0.038819313 -0.046172112 0.030443307
0001f0 17 4e 01 3d 30 4d 4c 3d b7 fb d8 3d 94 7d 18 bc
       0.031568613 0.0498783 0.10594886 -0.009307284
000200 22 7e 55 bd 73 2e 62 3d 96 5e 63 bd 73 01 68 bd
       -0.052122243 0.05522008 -0.055510126 -0.056642007
000210 9c 47 98 bc 2e 35 9c 3c 5d 98 ce bd a0 3c 5a 3b
       -0.018588834 0.019068327 -0.10087655 0.0033300295
000220 80 4c 20 bd fd 24 4f 3d 88 ac ba bc 98 e5 d4 bc
       -0.039135456 0.050572384 -0.022787347 -0.025988385
000230 61 60 50 bd 2a 4a c8 3c 38 17 81 3b 18 1c 3e bc
       -0.050873164 0.024449427 0.0039395355 -0.011603378
000240 be 60 89 3d 4e aa 68 3e a3 1b 4f 3e e6 be d0 3c
       0.06707905 0.22721216 0.20225386 0.025481652
000250 74 68 b2 3d 16 40 fa 3d 6f 70 ca 3c 8f a1 b3 3d
       0.08711329 0.12219255 0.024711816 0.08771049
000260 7d a6 ec 3d b7 27 9d 3d 73 b2 b8 3d 70 f5 93 bd
       0.115551926 0.07673591 0.090184115 -0.07224548
000270 5f 0b f0 3c 64 df 3d 3d 4b 9a 95 bd d5 5e ef 3b
       0.029302297 0.04635562 -0.0730482 0.007305006
000280 4f ca 96 3c a5 38 26 bd 4c 02 c9 bc 36 05 8f bd
       0.018407015 -0.040581364 -0.024537228 -0.06983416
000290 c5 68 8f bd 71 0a af 3c 88 6f 47 bd 72 fb 07 be
       -0.07002405 0.021367284 -0.04869035 -0.13279513
0002a0 b2 72 10 3c f3 48 d3 bd 46 93 3c bd d7 9d 51 bd
       0.008816408 -0.10316648 -0.04603889 -0.05117592
0002b0 cc fa 60 3b 99 38 37 3d 68 65 c3 3c da dc a8 bd
       0.0034329174 0.04473171 0.023852065 -0.08245249
0002c0 a8 65 b3 bb 20 7c 8e 3b f2 04 80 bd 8f 59 70 3c
       -0.005474765 0.004348293 -0.06250943 0.01466979
0002d0 6a 23 4b bd 8f cf e2 bc a7 50 2e 3d 61 6f 0d bd
       -0.04959432 -0.027686862 0.042557385 -0.034530047
0002e0 4c 57 c1 bd 27 ec 09 bd 2d 3e 0c 3b 86 56 55 bd
       -0.09440479 -0.033672478 0.0021399364 -0.05208447
0002f0 4a 83 ca bc 7f 39 a6 3d 35 2a d8 3d 76 d6 07 bd
       -0.024720807 0.08116435 0.10554925 -0.03316351
000300 ee 5c c8 3b fb f6 65 3c ff 07 34 bd 3c cd 3c bd
       0.0061145937 0.0140359355 -0.04395294 -0.046094164
000310 75 23 85 3c 84 86 f7 bd e5 94 ea bc 20 f5 cf bd
       0.016252259 -0.12086204 -0.028635452 -0.10154176
000320 e1 98 18 bd 3c 1a 83 bd 81 66 f0 bd 30 e2 1e bb
       -0.03725517 -0.06401488 -0.11738301 -0.0024243705
000330 4f f4 52 bd 82 66 35 bd 48 d8 b0 3c 95 83 2f 3d
       -0.051502522 -0.044287212 0.021587506 0.042850096
000340 ef b4 88 3c be 6f 9d 3d 1d fd b2 3c 21 20 26 bd
       0.016687838 0.07687329 0.02184921 -0.040557984
000350 57 13 67 bc 28 d1 99 bc 9b d0 bb 3d 76 d7 8c 3c
       -0.014103732 -0.018776491 0.09170648 0.017192584
000360 e0 b5 84 3d f5 b7 62 bc 6f 80 4b bd 68 d0 7f bc
       0.064800024 -0.013837804 -0.04968303 -0.015613653
000370 d1 ed 87 bd ae 5c a2 bd 0d ae dc bb b0 7a 32 3d
       -0.06637157 -0.079278335 -0.0067346157 0.043574035
000380 af dc 3c bc 3f 4b 16 3d 1f 14 fe bc a0 cf 3f 3b
       -0.011527224 0.036692854 -0.031015454 0.0029268041
000390 3e 7a be bc 0f 06 70 bd fe d9 8a 3c 4a d4 92 bc
       -0.023251649 -0.058599528 0.01694965 -0.017923493
0003a0 65 3f 4d 3d 15 fc 6a 3d eb 1c c5 3d 0f f2 01 3b
       0.050109286 0.05736931 0.09624656 0.0019828116
0003b0 0d c0 ab 3b 44 bb e7 3c 39 9c 4c bd d3 f5 fc bb
       0.0052414 0.028287537 -0.049953673 -0.007719734
0003c0 e9 6f af bc 1c d1 9b 3c d5 c6 26 bd 50 22 13 3c
       -0.021415668 0.01902061 -0.040716965 0.008980349
0003d0 20 f4 40 3d d7 0b 8c bc 62 49 ea bb 1a f0 33 bd
       0.047107816 -0.01709549 -0.007149861 -0.04393015
0003e0 17 7e 04 bd e3 db 9e bb e6 0d 96 bc e2 de a5 bc
       -0.03234681 -0.00484799 -0.018317174 -0.02024788
0003f0 c0 f6 b1 3c 55 3e f7 3a 94 69 cb 3d d8 13 da bc
       0.021724105 0.0018863181 0.09932247 -0.02662079

cnn3.bias f4 [32]
000000 de 5b a1 3c 57 46 33 3d e6 47 c2 bd 26 55 93 bc
       0.019697126 0.043768253 -0.0948637 -0.017984938
000010 e8 0a 05 3d 35 a7 06 bd 68 84 09 bd 5f 5c f0 3d
       0.032481104 -0.032874305 -0.033573538 0.117363684
000020 f0 fa 21 bc 84 49 79 bd 2e 07 23 3c 28 99 d2 bc
       -0.009886488 -0.060861126 0.009950442 -0.025707796
000030 7b a9 5c bc 82 a2 4b 3d 9c d0 97 bc 36 9a 01 3e
       -0.013468142 0.049715526 -0.01853209 0.12656483
000040 18 f4 90 bd 48 e9 9c 3b 59 a5 2d bd f2 3c 82 bd
       -0.07077807 0.0047885515 -0.042394016 -0.06359281
000050 8d 4d 91 bd 5d d6 f3 bc 57 64 8f bd 61 39 77 bd
       -0.0709487 -0.029765302 -0.0700156 -0.060357455
000060 05 b4 4b bc 0b 5d 0f bd 61 2b 88 bd 31 d7 e4 3c
       -0.012433057 -0.035000842 -0.06648899 0.027934643
000070 37 85 08 bc bb 95 c8 3d 25 ef b1 3c 38 0c 1a 3e
       -0.008332542 0.09794184 0.021720478 0.15043724

fc1.weight f4 [128, 768]
000000 05 49 db bc a7 35 cb 3c 82 6e a1 3c f6 91 72 3c
       -0.026768217 0.024805857 0.019706015 0.014805308
000010 ef 9b fb 3c 08 54 03 bd 69 18 42 bd 25 dc 80 3c
       0.030714003 -0.03206256 -0.04738656 0.015729973
000020 de 13 91 bc 68 6b 33 bc 7c 37 c3 bc 80 b6 0c 3a
       -0.017709669 -0.010950901 -0.023830168 0.0005367771
000030 f8 8c d8 ba 99 01 33 3b 1a 91 1e bc dc 43 9d 3c
       -0.0016521504 0.0027314185 -0.00967815 0.019197397
000040 fd 3c fb 3b 34 de 41 bc 82 e3 2e bc 24 54 35 3c
       0.0076671825 -0.0118327625 -0.010674359 0.011067424
000050 fe eb be bc ba c7 89 3c 10 98 e7 bc 6e 1f 4f bc
       -0.02330589 0.01681887 -0.028270751 -0.012641771
000060 af 58 16 bd 9b ff e4 bb 7f 84 15 bd 71 95 0f bc
       -0.03670567 -0.0069884784 -0.03650331 -0.008763657
000070 ab e2 3a 3b d9 96 fc bc c0 90 9b bc b3 0e f1 3c
       0.0028516452 -0.030833649 -0.01898992 0.029425954
000080 6e 3e 20 bd 20 76 81 3c 23 6c 27 3d 74 61 45 bc
       -0.039122038 0.015803397 0.04087461 -0.01204716
000090 9a 99 d5 3c ef 68 0f 3d b8 f4 02 bc 6c 36 af ba
       0.02607422 0.03501218 -0.007992916 -0.0013367659
0000a0 00 0f 21 3c b0 35 0f bc fe 11 be 3c ac 93 57 bd
       0.009830236 -0.008740827 0.023201939 -0.052631065
0000b0 8a e0 27 bd e1 45 92 3c ce fd fd bc eb ce 2d bd
       -0.04098562 0.017855586 -0.031004813 -0.04243366
0000c0 07 2f 26 bd fc 01 34 3c 40 8e 02 bd bb fe 06 bd
       -0.040572193 0.010986801 -0.03187394 -0.032957774
0000d0 b1 a7 1c bd 76 0d b3 bb 34 24 05 3c 2c 4d 79 bc
       -0.03824586 -0.005464251 0.008126307 -0.015216153
0000e0 92 93 0a bc 90 2f af bc 91 57 1a 3c 4f fc e8 3c
       -0.008458035 -0.021384984 0.0094202915 0.028440623
0000f0 dd b2 0c bd 44 0a 95 bc 62 cf f7 bc f1 80 3e bd
       -0.034350265 -0.018193372 -0.030250255 -0.046509687
000100 27 e7 bf 3c df 95 4b 3c 46 61 6e bc b9 b8 23 bc
       0.023425652 0.012425869 -0.014549559 -0.009992772
000110 c8 5c 1b bd c3 a1 9d 3c 7c 67 ad 3c 42 0c 0f bd
       -0.03793028 0.019242173 0.02116751 -0.0349238
000120 28 49 fb bb 30 9e 52 3c 71 c8 c3 bc 46 0c 91 bc
       -0.007668633 0.012855098 -0.023899289 -0.017706048
000130 36 d8 e8 3c 19 21 8c 3c 6d f7 be 3c d5 db 9c 3b
       0.02842341 0.017105626 0.023311341 0.004786948
000140 a1 69 91 ba 1b e8 e0 3b 9b da 80 3c 96 af b5 bc
       -0.0011094102 0.0068636066 0.01572924 -0.022178452
000150 87 ed 02 bd 7c ae d1 3c 12 db 92 3a a6 e1 23 bc
       -0.031964805 0.025595896 0.0011204204 -0.010002529
000160 31 d9 da 3b b3 91 c1 bc e5 a2 32 bb 8f 70 e0 bc
       0.0066787233 -0.023629045 -0.0027257737 -0.027397422
000170 61 c2 03 bb 3d 51 21 bd 7a 85 21 3b 53 80 02 3d
       -0.0020104873 -0.039384115 0.0024646209 0.03186066
000180 0a 85 c3 3c e2 7d 01 bd 5b 7e 3e 3b 32 ae 93 3b
       0.023867149 -0.03161419 0.0029067013 0.0045068497
000190 f4 8c 49 ba 4a 28 9b 3b 9f 56 bd bc 4f 59 07 bc
       -0.0007688545 0.0047350274 -0.023112593 -0.008261039
0001a0 22 9e 1c bd 8a bf 47 bc 13 07 89 bc 01 99 da bb
       -0.038236745 -0.012191663 -0.016727006 -0.0066710715
0001b0 cd b5 65 3c 07 01 f0 bb db 1b 87 bc e8 93 14 bd
       0.014020395 -0.007324341 -0.016492775 -0.036273867
0001c0 5a f8 09 3c e2 21 22 3c 74 78 3b 3c e1 b2 e5 bc
       0.008421028 0.009895774 0.0114422925 -0.028039398
0001d0 1f 1e 6a 3c 1e 51 03 3a 87 1d 90 bc 2f f8 e8 3a
       0.014289408 0.0005009341 -0.017592205 0.001777416
0001e0 83 03 e8 3c 5d f6 21 bd 34 93 be 3b cd 8a 3a 3c
       0.028321987 -0.03954159 0.005815888 0.011385632
0001f0 54 71 ff bc cc 32 20 bc 00 ed e2 3a 7c cc 06 bd
       -0.031181969 -0.009777736 0.0017313063 -0.032909855
000200 ab 04 19 3d 66 34 a0 3c a5 b1 4c 3c 4b c0 8c 3b
       0.037357967 0.019556236 0.012493526 0.004295384
000210 d0 35 ce 3c 3d a0 4c 3b 1a a1 86 bc da 3c c5 bc
       0.025172144 0.003122344 -0.016434241 -0.024076868
000220 d2 01 06 bd 28 c4 3d 3c 26 ce 80 3c e0 89 d9 3c
       -0.03271658 0.011582412 0.0157233 0.026555002
000230 cf 45 8f 3b bc 91 9b 3c 98 8f 42 3b 0d 24 04 bd
       0.0043723355 0.01899039 0.002968764 -0.032260943
000240 52 93 c5 bc 70 dd 4b 3c b0 5b 0b 3d c0 48 e0 3c
       -0.0241181 0.0124429315 0.034022987 0.02737844
000250 30 11 31 3b a2 3a 40 bc cc 05 dd 3c 46 e7 10 3d
       0.0027018301 -0.011732729 0.026980303 0.03537681
000260 b6 e2 0d 3d c0 0f 20 3c 32 a3 b1 3c 74 da c6 bb
       0.034640037 0.00976938 0.021684263 -0.006068522
000270 66 c4 a6 bc 0c fc f0 bb f4 25 0b 3d f4 e7 0d 3d
       -0.020357322 -0.007354265 0.03397174 0.034645036
000280 44 39 81 3c 40 75 92 3c 64 64 1c 3c 77 70 a4 bc
       0.015774377 0.017878175 0.009545419 -0.020073159
000290 7c 5a fd bb a5 95 06 3d 4e 1b f9 bc fa 48 44 bc
       -0.007731734 0.032857556 -0.030408528 -0.01198029
0002a0 0b 46 63 bc 6b 35 3b 3c bb ab e7 ba f2 84 ee bb
       -0.01387168 0.01142631 -0.0017675081 -0.007279032
0002b0 ea db 63 3b d9 d9 44 bc 5b 42 71 bd 8c d1 8d bc
       0.003476853 -0.01201483 -0.058901172 -0.017311834
0002c0 75 63 d2 3c d2 f1 9e bc ec 79 ae bc 03 bf 24 bd
       0.02568219 -0.019402418 -0.021298371 -0.040221225
0002d0 6e bd f4 bb ee 7a 10 bd df 0a a6 3c fa 58 2d 3a
       -0.007468871 -0.035273485 0.020268856 0.0006612685
0002e0 a4 ac 37 bd f9 10 2f bd d7 b9 17 bc d2 71 28 bd
       -0.044842377 -0.042740796 -0.009260616 -0.041124173
0002f0 63 46 7f bb 5b 7d ad bc 38 50 16 3c 24 d2 2e bd
       -0.0038951866 -0.021177938 0.009174399 -0.042680874
000300 df 3c 0a 3b ff 62 8e ba 8f 48 a7 bb ec 91 07 bd
       0.002109341 -0.0010863243 -0.005105085 -0.033098146
000310 2c 4f 00 bd b0 bc ec 3c 1c 3e c7 ba 51 a7 32 bc
       -0.031325504 0.028898567 -0.0015201005 -0.010904149
000320 fc 6f f5 bc 51 95 4a bc 3b b4 31 3c 04 44 f8 bc
       -0.029960625 -0.012364701 0.010846193 -0.03030587
000330 be ed ab bc a9 81 ad bc 16 46 00 bc dd b7 59 bc
       -0.020987388 -0.02117999 -0.00782921 -0.013288465
000340 e2 69 9e 3c 97 fd b5 bc 22 60 30 3c 77 f6 11 bc
       0.019337598 -0.022215648 0.010765107 -0.008908859
000350 ab 0d a6 3c 45 d8 0d bd 64 82 03 3d c0 44 da 3c
       0.02027019 -0.03463008 0.032106772 0.02664411
000360 47 11 0d bd bd fa 17 bd 7a d9 18 bd d0 4f c5 3c
       -0.034440305 -0.037104357 -0.037316777 0.02408591
000370 ea 31 10 bc 19 6f 5e 3c cf d7 04 3d 05 53 13 bd
       -0.008800963 0.013576292 0.032432374 -0.035967845
000380 83 a0 8d bc e7 b4 59 bc 09 e1 92 3c 19 0b 8a 3c
       -0.017288452 -0.013287759 0.01792957 0.016850995
000390 5e 74 d1 bc 92 14 c2 bc 27 b8 ca 3c d8 64 06 3d
       -0.025568184 -0.02369145 0.024746014 0.032811016
0003a0 eb e2 e9 3b f1 0d 96 bc d9 34 40 3c eb 4a db ba
       0.0071376464 -0.018317195 0.01173135 -0.0016730701
0003b0 45 8d a6 bc e4 2e bf 3c 82 4c 1c bd 61 7b db bc
       -0.020331034 0.023337789 -0.0381589 -0.02679223
0003c0 19 24 b2 3c 5e c4 98 3a 83 11 00 3d f4 c4 15 bd
       0.021745728 0.0011655202 0.0312667 -0.036564782
0003d0 50 83 2b 3c b4 d2 08 3d 6b 7f 2b 3a 1a 3f 37 3c
       0.010468319 0.033404067 0.0006542119 0.011184478
0003e0 b6 40 f8 bc 0f d7 0e bd ec 14 08 3c c5 1a a5 3c
       -0.030304294 -0.034873065 0.008305769 0.020154366
0003f0 8f 0b 9f bc 00 09 e3 bb 1c 10 e9 3c d1 c9 00 bd
       -0.019414691 -0.006928563 0.028450064 -0.031442467

fc1.bias f4 [128]
000000 0b ae c7 3c a0 90 11 bc f8 1e 59 3c 62 15 25 bd
       0.024374982 -0.008884579 0.013252012 -0.040303595
000010 e1 07 d3 bc 54 b6 d4 3c 0f e4 0b bd 81 70 27 bd
       -0.025760593 0.025965847 -0.03415304 -0.040878776
000020 fb e3 99 3b b6 6f 7d 3c 24 97 ab bc 84 0c e6 bc
       0.004696367 0.0154685285 -0.020946093 -0.02808214
000030 cd 11 13 bd 42 03 0d bd 38 38 1b bd 38 fa 81 bc
       -0.035905648 -0.034426935 -0.03789541 -0.015866384
000040 69 13 17 bd b2 16 a3 bc 32 d6 7a 3d 94 5b ff ba
       -0.036883745 -0.019908283 0.06123943 -0.0019482248
000050 02 94 a7 bb f2 2e c6 3d 57 e1 2f bd f2 50 a7 3d
       -0.0051140795 0.09676923 -0.04293951 0.08169736
000060 db 3a 45 bd 3e 9a 19 39 26 c9 ba bb a1 5d f0 bc
       -0.048151832 0.00014648677 -0.0057002483 -0.02934152
000070 69 23 df bc 0e 2c 8d 3c e2 42 12 bd e5 7d aa 3c
       -0.027238565 0.017232921 -0.035708316 0.020811984
000080 3c 1e 0e bd 7e 31 65 3c 45 11 07 ba 57 fe 3e bd
       -0.034696802 0.013988851 -0.00051524147 -0.046629276
000090 e9 da cc bc be 6c 20 bd 95 6b b7 bc c7 ed 51 3b
       -0.025006728 -0.039166205 -0.022390166 0.0032032595
0000a0 d5 da a8 3c f8 9d c5 3d bb b1 04 bd 70 4c c6 bc
       0.02061216 0.09649271 -0.03239606 -0.02420637
0000b0 54 66 9d bc 11 18 13 bd fc d6 d1 3b 0e 84 cd 3b
       -0.019213833 -0.035911623 0.006403802 0.0062718457
0000c0 66 f8 11 bd 48 ad f0 3c a8 cc 0a 3d f6 3d d5 3c
       -0.03563728 0.029379502 0.03388658 0.026030522
0000d0 24 1d bc 3b f3 2f c2 3d df 91 ee bb d4 13 14 bd
       0.0057407785 0.09481802 -0.007280573 -0.036151722
0000e0 a5 97 10 bd ba 2c fd 3b 25 f6 8d bc 40 7e b6 bc
       -0.03530087 0.007726279 -0.017329285 -0.022276998
0000f0 0c 93 29 bd 49 cc bb 3d 38 28 0b bd 58 b2 cc bc
       -0.0414 0.09169824 -0.033973902 -0.024987385
000100 a5 38 80 bc 1a 56 cf 3c c0 a1 ed 3d e5 15 cd bb
       -0.01565201 0.025309611 0.11603117 -0.0062587135
000110 2e 72 42 3c ee 32 8c 3c 8f 1a cf bb 4c b5 a3 3b
       0.011868043 0.017114129 -0.0063203047 0.0049959775
000120 05 bb 1a bc f0 fe 37 3c 93 39 52 b9 e1 61 3f 3c
       -0.009444003 0.011230215 -0.00020048609 0.011681051
000130 bf d6 1c b7 f2 8f 10 bd eb c5 24 3c c7 30 96 bb
       -9.348324e-06 -0.035293527 0.010056953 -0.0045834514
000140 94 f1 8c bc e9 9e df bb ed b3 e9 3b c8 e6 aa 3c
       -0.017205037 -0.0068243635 0.0071320445 0.020861998
000150 4b 82 05 3c e4 db df 3c 97 ac ec bc 22 84 d5 bc
       0.00814874 0.027326532 -0.028890891 -0.026063982
000160 3a 67 1f bd aa 61 aa 3d 1a 0d 89 bd 18 ac e9 3d
       -0.038916804 0.08319409 -0.06691952 0.114097774
000170 04 41 29 3c f3 53 b0 bc bd ab d9 ba 17 75 24 bd
       0.010330442 -0.021524405 -0.0016606968 -0.040150728
000180 8b e0 e0 3a e6 51 90 bb ca c3 e2 bb 4d a8 35 3c
       0.0017156763 -0.0044042943 -0.0069203125 0.011087489
000190 ce e8 13 bd 01 13 2e bc 70 13 01 ba 8b 18 91 3c
       -0.03611069 -0.010624648 -0.0004923856 0.017711898
0001a0 e1 a9 90 3a da a3 77 bc c8 e2 1b bd 9c 13 84 bc
       0.0011036956 -0.015114749 -0.038058072 -0.016122632
0001b0 bb 38 f1 3d 46 7b 56 3c e1 73 ff bb cf 2e 53 bc
       0.117783986 0.013090914 -0.0077957963 -0.012889578
0001c0 e6 13 e4 3d 36 0f ae 3c 2f a6 79 bd b1 ed 05 bd
       0.11136608 0.021247488 -0.0609495 -0.032697383
0001d0 f4 49 2b 3c bf 65 8e 3c 2c fb af bc de 54 6a 3d
       0.0104546435 0.0173825 -0.021482073 0.057209842
0001e0 37 53 78 bd f4 dc 42 bc 6a f9 4e bc 97 0d 4c bd
       -0.060626235 -0.0118935 -0.012632707 -0.049817648
0001f0 e3 0e ff 3d a2 b5 36 bd 14 92 07 3d 6b 80 6f bd
       0.12454011 -0.044606812 0.033098295 -0.05847208

fc2.weight f4 [128, 128]
000000 bd 2d b2 bd ce 7d 71 bd bc b5 19 bc d8 31 38 bc
       -0.0870013 -0.058957867 -0.009381708 -0.011242352
000010 36 6e f5 3c b9 7a 74 3d 20 63 45 bd 69 42 55 3d
       0.02995978 0.05968735 -0.048190236 0.052065287
000020 ce 6c 06 bb 3d b2 08 3d 3d 65 e2 3c a1 8a 04 bd
       -0.002051163 0.033373106 0.027636165 -0.03235877
000030 5c f0 9e bd 94 4a 0f 3d dd e7 a7 3d 32 e9 30 bd
       -0.07760689 0.034983233 0.08198521 -0.043191142
000040 73 8e 3c bd 5e 31 ef 3c a1 a9 b1 3b 0e e0 2b 3d
       -0.046034288 0.029198345 0.0054218327 0.041961722
000050 4f a9 af 3d ae ce 77 3d d2 aa 89 3c f7 57 38 bd
       0.08577215 0.06049984 0.016805086 -0.045005765
000060 7e cb 58 3d 80 ef 18 bb f3 04 86 3d 96 4e cd bb
       0.05292844 -0.0023336112 0.06543913 -0.0062654717
000070 18 6a 68 bc 55 a0 06 bb 99 f0 b7 3d 3e 90 62 3d
       -0.014185451 -0.0020542343 0.08981437 0.05531334
000080 a2 ee a3 bd 1d c8 06 bd c7 df a1 3d 71 6d c2 bd
       -0.080045 -0.032905687 0.0790401 -0.094935305
000090 3c e6 b0 bd 76 78 b3 3d 03 c3 ab 3d 0d 14 83 bd
       -0.08637664 0.087632105 0.08386805 -0.06400309
0000a0 c0 5c 83 bd 10 ad 9b bd 64 30 cf 3c 5c c4 e8 bb
       -0.06414175 -0.076013684 0.02529163 -0.007103486
0000b0 27 7d 1e bd e9 ca 9b 3d a6 db 64 3d 41 76 a7 3c
       -0.038693573 0.076070614 0.055873536 0.02044213
0000c0 8a e0 53 bd 2c b7 a2 bd 6c 63 07 bc d0 39 27 3d
       -0.05172781 -0.079450935 -0.00826345 0.04082662
0000d0 72 b3 56 3d d3 7f ea 3d 28 49 38 bc 54 24 b5 3d
       0.052417226 0.11450162 -0.011247911 0.0884482
0000e0 20 3a fa 3c 24 81 d0 bc 90 a4 34 bc 3f b2 9b bd
       0.030545294 -0.025452204 -0.011025563 -0.07602357
0000f0 7c 52 a2 bc 4f 23 cf 3d b9 b1 b0 bd 0d 89 ce 3d
       -0.019814722 0.101141565 -0.08627648 0.10084734
000100 c2 72 0d bd 00 cc 13 3d df 17 fa 3d b1 31 59 bd
       -0.03453327 0.03608322 0.12211584 -0.053025905
000110 81 e1 6e 3d 0c 6b 7d bd 18 33 28 3d 07 b5 b1 3d
       0.058320526 -0.061869666 0.04106435 0.08677106
000120 ca ff 2e bd 20 2f 6b 3c 00 0b d1 3a 3a 66 17 3d
       -0.04272441 0.014354497 0.0015948713 0.036962725
000130 58 0f c3 3c 9b b5 1b 3d 40 ce eb bb 84 53 ba bc
       0.023811027 0.03801499 -0.007196218 -0.022744901
000140 3b fa 22 bc e3 e8 9c bd 23 4d 53 bd 54 f4 b9 3b
       -0.009947355 -0.07661607 -0.051587235 0.005674878
000150 08 74 a3 bd 97 01 72 bd 61 3e 83 bd 4a f5 19 3d
       -0.079811156 -0.059083547 -0.06408382 0.03758744
000160 88 de 4d bd b4 8f 1c be 2e 12 64 bd 63 94 7f bc
       -0.05026105 -0.15289193 -0.0556814 -0.015599343
000170 82 14 35 3d 2a 7f 70 3d b9 02 00 3d 70 68 91 bd
       0.04420901 0.058715023 0.031252597 -0.07099998
000180 25 e8 42 3c b8 0e 3d bd 3e 83 4d 3d fe d1 1e 3d
       0.011896168 -0.046156615 0.05017399 0.038774483
000190 9c ac 0e 3d cc 2d 17 bd 9d 0c 87 3d 15 7c 9f 3d
       0.034832582 -0.03690891 0.06594203 0.07787339
0001a0 14 eb cb 3c f6 64 45 3d e8 46 12 3c 79 22 22 bd
       0.024892367 0.048191987 0.008928038 -0.039583657
0001b0 a7 da 34 3d 32 e4 95 bd d0 90 bb bc 90 aa db 3c
       0.044153836 -0.073189154 -0.0228962 0.026814729
0001c0 ff 25 a7 3d 00 0b b9 bc 85 29 75 bd 2c e9 3d bd
       0.08161544 -0.022588253 -0.05985405 -0.04636495
0001d0 fd 96 88 bd d6 3d 98 bd de e5 ae bd a2 b0 a8 bd
       -0.06669424 -0.07433669 -0.085399374 -0.08236815
0001e0 14 a8 b2 3c d8 36 42 bc e7 4d 4f bd 21 9a 17 bb
       0.021808662 -0.011853896 -0.050611403 -0.002313264
0001f0 3f f5 9a 3d 23 e2 23 bd 2f 51 8c bd 67 2c 51 bd
       0.07566308 -0.040010583 -0.06851422 -0.051067736
000200 9e 0d 80 bd 3e f1 fe bc 9d be aa bd 90 46 eb 3b
       -0.06252597 -0.031120893 -0.08337138 0.0071800426
000210 9b a4 a4 ba e1 7c 80 3c 9c 18 ca bd 70 a8 3c bc
       -0.0012561263 0.015684547 -0.09867975 -0.011514768
000220 37 85 8e 3d 5b 0a 13 3d 28 d5 ae 3a fe 7c 17 3d
       0.069590025 0.035898548 0.0013338672 0.036984436
000230 c0 62 16 bd 90 2d 91 3b 26 2c 4a 3d d8 d5 31 bd
       -0.03671527 0.0044304803 0.04935851 -0.043416828
000240 a4 38 1e 3d 1c c5 19 3d 3a 17 4d bb 30 b8 bf bc
       0.038628235 0.037541494 -0.0031294362 -0.023403257
000250 73 cf 07 bc 98 fc e5 bc 9b ad 9a 3d e0 9c 65 bd
       -0.008289206 -0.028074548 0.07552644 -0.05605781
000260 51 c7 a8 3d be 50 5f 3d 08 e0 96 bd 05 77 2f bc
       0.082411416 0.05452036 -0.07366949 -0.010709529
000270 07 ce 9c bd 4a e8 3f 3d 31 f0 a9 3d bc 60 f1 bc
       -0.07656484 0.046852387 0.08297766 -0.029465072
000280 6b 23 0e bd d7 18 b0 3c 92 0e 0b bd 08 19 bc bd
       -0.034701746 0.02149622 -0.033949442 -0.09184462
000290 0f bd 96 bd 69 77 3c bd 84 75 15 3d 85 21 a0 bd
       -0.07360279 -0.046012316 0.036489025 -0.07818893
0002a0 f1 5d 79 bd f6 17 82 3c b0 9f be bc ac a7 9b bd
       -0.060880605 0.015880566 -0.023269504 -0.0760034
0002b0 4f e5 63 bd b0 a0 ce bc 6f a6 a3 3c 99 3b 1a bc
       -0.055638608 -0.025223106 0.019976823 -0.009413623
0002c0 22 e3 89 bd 79 fb 97 3d c0 d6 9a 3c 2e 9d 3b bd
       -0.06732775 0.074210115 0.018901229 -0.045804195
0002d0 10 30 12 bc 58 c1 e6 3d 23 1f 40 3d 12 1e 94 bd
       -0.008922592 0.11267346 0.046904694 -0.07232298
0002e0 97 7b 2a bd e0 8c 46 bc 88 a5 85 bd 4d 56 6a 3c
       -0.04162177 -0.012118548 -0.06525713 0.014302802
0002f0 be ac 8a bd a2 e8 5d 3d 50 e9 a3 bc 6e 46 cb bd
       -0.06771229 0.054176934 -0.020008713 -0.09925543
000300 f3 da 45 bd 51 ef cf 3c 4c 98 34 3d b1 99 60 3c
       -0.04830451 0.02538267 0.044090554 0.013708518
000310 42 17 cf bb ac 72 bb 3c ae 73 c6 bc 28 5e e3 3c
       -0.006319911 0.022881828 -0.024225082 0.027754858
000320 f2 b5 b2 bc db 4b 25 bd c4 11 86 bc 20 6d 74 3c
       -0.021815274 -0.040355545 -0.016365893 0.014918596
000330 7d 48 8f bd 98 54 b4 3c a3 14 20 bd cb d4 85 3d
       -0.06996248 0.022012994 -0.03908218 0.06534728
000340 b7 55 0b bc 52 9c 72 bc 4d c6 56 bd 72 3b 8a 3d
       -0.008504323 -0.0148077775 -0.052435208 0.067496195
000350 4c 59 0a 3d 5c b3 01 bd ea 24 9f bc 30 20 eb ba
       0.033776566 -0.03166519 -0.019426782 -0.001793867
000360 fc 7b 11 bd 74 60 a2 bd c6 40 94 bd dd 6c f8 3c
       -0.03551863 -0.07928553 -0.07238917 0.030325348
000370 e0 49 08 bc ee cc 3c 3d b9 5c dd bc 0c a2 ab bd
       -0.008318394 0.046093874 -0.027021753 -0.08380517
000380 15 9d 45 bd 55 70 92 bd ba de 4a 3d 88 44 3f 3c
       -0.04824551 -0.07150332 0.049528815 0.011674054
000390 b0 73 3e bd 58 1b d0 3c cf a4 8a 3d 8e f3 06 3d
       -0.046497047 0.025403664 0.06769716 0.032947116
0003a0 a0 18 33 bc a8 b0 65 3c 9a a1 75 bd 5a d7 32 3d
       -0.010931164 0.014019169 -0.05996857 0.043662407
0003b0 f9 ed e6 3d 02 26 ff bb f2 48 13 3d d2 f7 1f 3d
       0.112758584 -0.0077865133 0.035958238 0.0390547
0003c0 7c 49 90 3b be 62 4e 3d a2 cc d1 bd ec 93 5b bd
       0.0044032913 0.050387137 -0.10244109 -0.053607866
0003d0 c8 24 60 3c 81 6e 88 3d 54 3a a6 bd a5 84 5e 3d
       0.013680644 0.06661702 -0.08116594 0.05432572
0003e0 40 65 c4 bc c5 61 8d bd 3d af 73 3d 9e 93 cd 3d
       -0.023974061 -0.06903414 0.059493292 0.10037921
0003f0 99 95 2a 3e 69 01 b1 bd 98 5d ac 3d 97 c1 33 3d
       0.1665863 -0.08642847 0.08416289 0.043885794

fc2.bias f4 [128]
000000 ab aa 4a 3d 92 12 6d 3d 31 af 0b 3d 91 08 96 3d
       0.049479168 0.05787904 0.034102622 0.07325853
000010 c7 e0 41 3d 71 a8 b5 3d 52 70 1d 3e ae 7f e2 3d
       0.047333505 0.08870018 0.15374878 0.11059509
000020 b7 bd 19 bd 73 4b c5 3d a7 5f 5d bd da be 07 bc
       -0.03753444 0.096335314 -0.0540463 -0.008285249
000030 95 cc 10 3e ed ec 2c 3d 2d d2 cf bd e6 88 a2 3d
       0.14140542 0.042218138 -0.1014751 0.079362676
000040 e9 ce 80 3d 24 7c cb 3d 36 4a bb 3d 35 c6 49 3a
       0.06289465 0.09935787 0.09145014 0.00076970767
000050 ee 18 01 bd 6f f3 ac 3d d6 c4 da 3d 48 54 4b 3e
       -0.031517915 0.08444869 0.10682075 0.1985637
000060 e6 55 08 3e 8c 6c f1 3c 80 b8 d5 3d 9f cb 0c 3e
       0.13314018 0.029470704 0.10435581 0.1374955
000070 e1 93 ad 3b c0 23 1a 3c 0b bf 95 3d 8b af 5b 3d
       0.0052971696 0.0094079375 0.07311829 0.053634208
000080 bf 42 2f 3e 06 18 b9 bd 07 71 3f 3e c1 2c 87 3c
       0.17115305 -0.09037785 0.1869546 0.016500833
000090 55 c7 e3 3c 13 8b 32 3e 67 6a 83 bd a2 81 ad bc
       0.02780501 0.17435865 -0.06416779 -0.021179978
0000a0 0d d2 3f 3d 94 54 a7 3b 9f a6 99 bc 75 04 89 3c
       0.04683118 0.005106518 -0.018756209 0.016725758
0000b0 d5 ab 25 3e f9 6d eb 3d e5 95 49 3d 31 f4 74 3c
       0.1617883 0.11495585 0.049215216 0.014950798
0000c0 aa fc 06 be b1 ba d9 3c d7 5f e3 3d e1 00 52 3d
       -0.13182321 0.02657828 0.111022644 0.05127037
0000d0 ad e1 fe 3c 13 40 d6 3b 36 e1 35 3e 32 8e c2 3d
       0.03111347 0.0065384 0.17761692 0.09499778
0000e0 67 e3 01 3c d3 95 a8 3d 56 a1 f7 bc b4 6e 1b 3d
       0.007927752 0.08231702 -0.030228298 0.03794737
0000f0 02 ce 20 3c df 71 42 bd 30 06 32 3e 77 21 cd bc
       0.009814741 -0.047471877 0.17385173 -0.025040371
000100 ec 18 ae bb cf 82 8a bd 2c 49 0e bd 69 49 92 3d
       -0.0053130295 -0.06763231 -0.03473775 0.07142908
000110 95 dd bf 3d de d6 e3 3d e0 8e b0 3d 4e ec 96 3d
       0.09368435 0.11124967 0.08621001 0.0736929
000120 84 91 6d bd f6 8d c2 3d 07 5a 32 3c c7 b2 00 3d
       -0.058000103 0.09499733 0.010885722 0.031420495
000130 ab 5f dc 3c c0 14 61 3d c3 93 0d be 32 96 1f bc
       0.026901087 0.05495143 -0.13825898 -0.009740399
000140 07 9b 1e 3d 8e d9 26 3d 68 37 34 3e c2 39 96 3c
       0.038722064 0.04073482 0.17599261 0.018338088
000150 f2 34 3c 3d 91 92 ff 3b a3 97 18 bd b2 5f ed 3d
       0.04594893 0.0077994545 -0.037253987 0.11590518
000160 20 26 25 be 22 c9 2b 3e c2 61 ee 3d b7 bf 26 3e
       -0.16127825 0.16775945 0.116397396 0.16284071
000170 f9 c9 ec 3c 7e 3d 7c 3c 69 8a f7 3c 88 78 1b 3e
       0.028904902 0.01539552 0.030217366 0.15182698
000180 c7 90 31 3d da c0 83 3c 17 5a 18 3d 0f d4 ef 3d
       0.04335096 0.01608317 0.03719529 0.11710369
000190 53 fc c5 bb 92 3e d5 3c 23 2d 57 3c 27 3a 6a 3d
       -0.0060420423 0.026030812 0.01313332 0.057184365
0001a0 bc 13 bc 3d 18 9e 36 3e c7 31 9c 3c c6 e8 8e 3c
       0.091834515 0.17833745 0.019066704 0.01744498
0001b0 67 0a 3f 3e 19 bd 18 3e a2 0d d5 bc 7f 00 32 bd
       0.18656312 0.14915885 -0.026007477 -0.043457504
0001c0 63 fb a9 bd 1f 26 29 3e 2a 75 a5 3d 63 7a 3f 3e
       -0.08299901 0.16518448 0.08078988 0.1869903
0001d0 6c ef 20 3e 0c bc 4e 3d 27 30 80 3e ed 5b fa 3d
       0.15716332 0.050472304 0.25036737 0.12224565
0001e0 a8 6c 0e 3e ff 4a 82 3c 29 56 0e 3e 80 19 bb bd
       0.13908637 0.015904902 0.13900055 -0.09135723
0001f0 53 3a 87 3e 13 69 d1 3d 94 99 03 bd f5 59 0e bd
       0.26411685 0.102251194 -0.032128885 -0.03475376
