models/dqn_model_epoch_70000.pth (torch, 595624 bytes, 14 tensors)

cnn1.weight f4 [16, 4, 5, 5]
0	0xbe476316	-0.19471392
1	0x3d336fe7	0.04380789
2	0xbcc908bc	-0.024540298
3	0xbe499bc2	-0.19688323
4	0xbe125c76	-0.14293084
5	0xbe4b7e42	-0.19872382
6	0xbe4691a2	-0.19391492
7	0xbe9462fe	-0.28981775
8	0xbd0e9a74	-0.034815267
9	0xbd695409	-0.056964908
10	0xbe8bb78d	-0.27288476
11	0xbe24402c	-0.16040105
12	0xbec27328	-0.37978482
13	0xbe15e0cd	-0.14636536
14	0x3d14b0f9	0.036301587
15	0xbe2a21b6	-0.16614422
16	0xbe5aacaf	-0.21354936
17	0xbd23d38b	-0.039996665
18	0xbe8330b4	-0.25623095
19	0x3c454435	0.012040188
20	0xbe56f939	-0.20993508
21	0xbe81a09f	-0.25317857
22	0xbe4123d9	-0.18861331
23	0x3d88c946	0.06679015
24	0x3cd7c65e	0.026339706
25	0xbc704c6f	-0.014666661
26	0xbd0abdb9	-0.03387234
27	0xbdc1f250	-0.094700456
28	0xbe10437c	-0.14088243
29	0x3ce35554	0.027750649
30	0x3d8396ec	0.064252704
31	0xbcdd5037	-0.027015788
32	0x3cd0a187	0.025467647
33	0xbd88ad6b	-0.06673702
34	0xbd931a76	-0.071827814
35	0xbd410401	-0.04712296
36	0xbe0d3cb1	-0.13792683
37	0x3c85fbb0	0.016355366
38	0x3e090b09	0.13383116
39	0xbce85d5f	-0.028364835
40	0xbdd3fd49	-0.10351045
41	0x3ca821e6	0.020523977
42	0xbdada168	-0.084780514
43	0x3ca19eb8	0.019729003
44	0xbe040017	-0.1289066
45	0xbd021520	-0.031758428
46	0x3d99e03b	0.07513472
47	0xbd2a403a	-0.041565157
48	0xbd89377b	-0.06700035
49	0xbdb26ef1	-0.08712567
50	0x3da9f3b7	0.08298438
51	0xbc27a7c8	-0.010232873
52	0xbe071245	-0.13190563
53	0xbe52af6b	-0.20574729
54	0xbcd45a2c	-0.025921904
55	0xbcc79232	-0.024361704
56	0xbdb31f27	-0.08746176
57	0x3e381a04	0.17978674
58	0x3d4b02ae	0.049563102
59	0xbe1df4c5	-0.15425403
60	0x3e6a435d	0.2287726
61	0x3e6c4c5e	0.23076007
62	0x3e0466c7	0.12929831
63	0x3cf1b4e0	0.029505193
64	0xbe576c99	-0.2103752
65	0xbe90c81c	-0.2827767
66	0x3e235938	0.15952003
67	0x3e914b21	0.2837763
68	0xbe05f342	-0.13081077
69	0xbe2aa07f	-0.16662787
70	0xbe24036e	-0.16016933
71	0xbc83c6bf	-0.01608598
72	0x3ea36cf5	0.31919065
73	0xbe06dc8d	-0.13170071
74	0xbe1c34d0	-0.15254521
75	0xbdbf9208	-0.09354025
76	0xbe7a56a8	-0.24447119
77	0xbdb8862c	-0.09009966
78	0xbba7c5a3	-0.0051199957
79	0xbd87cce6	-0.06630878
80	0xbd2b6489	-0.041843925
81	0x3de1a9d9	0.11018724
82	0x3e1849a4	0.14871842
83	0xbdc0f093	-0.09420886
84	0x3d09e34c	0.033664033
85	0xbe26f05b	-0.16302626
86	0x3d9624e9	0.07331259
87	0x3da52ab8	0.080647886
88	0xbdbf976a	-0.09355052
89	0xbda8e209	-0.08246238
90	0xbe038cd0	-0.12846684
91	0xbbb26865	-0.0054445737
92	0x3d98a357	0.074530296
93	0xbcc8d520	-0.024515688
94	0xbdf2bdf8	-0.1185264
95	0x3db901d0	0.09033549
96	0x3df0c13c	0.117556065
97	0xbe3a762d	-0.18209143
98	0xbd8f8e29	-0.07009537
99	0xbd751574	-0.059834912
100	0xbdf2f10f	-0.118623845
101	0xbe859516	-0.26090306
102	0xbe352a7f	-0.17691992
103	0x3d0b600e	0.03402715
104	0xbe678e01	-0.22612764
105	0xbe014271	-0.12623002
106	0xbda7cc44	-0.081932575
107	0xbbd41b31	-0.006472968
108	0x39bf4fa6	0.00036489702
109	0x3bae0946	0.005311164
110	0xbe0c102b	-0.13678043
111	0xbd4a4d77	-0.049390282
112	0x3c9401f9	0.018067347
113	0xbd810b15	-0.06300942
114	0xbd7a254e	-0.061070733
115	0xbe1f71de	-0.1557078
116	0xbe67ea36	-0.22647938
117	0xbe33e802	-0.17568973
118	0xbebd8aad	-0.37019864
119	0xbd6e1aee	-0.05813115
120	0xbe840739	-0.2578676
121	0xbe62ae4a	-0.22136799
122	0xbdc56b42	-0.096395984
123	0xbd8cefe3	-0.06881692
124	0xbdffd3eb	-0.12491592
125	0xbd42020e	-0.04736524
126	0x3daabd3b	0.08336874
127	0xbd72a032	-0.059234805
128	0x3d0fe83f	0.035133597
129	0xbe06aad5	-0.13151105
130	0xbc8825c8	-0.016619578
131	0xbd1e4260	-0.03863752
132	0xbde15026	-0.11001615
133	0x3cbb8b2e	0.022893514
134	0xbb550598	-0.0032504555
135	0xbca62574	-0.02028153
136	0xbd4e00f0	-0.050293863
137	0xbe1220a6	-0.14270267
138	0xbd473818	-0.04863748
139	0xbcd2c46d	-0.025728429
140	0xbe0b912b	-0.13629596
141	0xbcccb4d1	-0.024988564
142	0x3d514712	0.05109317
143	0xbd48b091	-0.04899651
144	0xbdda7cfc	-0.1066837
145	0xbb1faa14	-0.002436285
146	0x3d057b9f	0.032588597
147	0xbd8c8fd5	-0.06863371
148	0x3dd414d7	0.103555374
149	0xbde8a1f2	-0.113590136
150	0xbe42dae5	-0.19028814
151	0x3e2db333	0.1696289
152	0xbd5f45b6	-0.05450984
153	0x3e1b0058	0.1513685
154	0xbe17574c	-0.14779395
155	0xbe3eeec6	-0.18645772
156	0x3e364fb5	0.17803843
157	0xbe5116fe	-0.20418927
158	0x3da7b54c	0.081888765
159	0xbe20cae4	-0.15702397
160	0xbe8bde7b	-0.27318177
161	0xbe802fc9	-0.25036457
162	0x3db349cd	0.08754311
163	0x3dc62013	0.096740864
164	0xbe576513	-0.2103465
165	0xbe7c493b	-0.2463731
166	0xbe0cc57c	-0.1374721
167	0x3e83c7fe	0.2573852
168	0xbe4199a7	-0.1890627
169	0xbe6eda70	-0.23325515
170	0x3ec763c5	0.38943306
171	0x3e97fde3	0.29685888
172	0x3ed415b6	0.41422814
173	0xbd66e489	-0.05637029
174	0xbe297b70	-0.16550994
175	0x3e541289	0.20710196
176	0x3e089fc9	0.13342203
177	0x3e72f31d	0.23725553
178	0xbc8d9f90	-0.017288
179	0xbda87bf8	-0.0822677
180	0x3defa047	0.11700492
181	0xbdf4ee09	-0.11959464
182	0x3e1bbf05	0.15209587
183	0xbe0443f7	-0.12916552
184	0xbde0c840	-0.10975695
185	0xbe288112	-0.16455486
186	0x3dbdb9ca	0.09263952
187	0x3d815238	0.0631451
188	0xbda64869	-0.0811928
189	0xbe1ccba3	-0.15312056
190	0xbe2b26fe	-0.16714093
191	0xbceb8e19	-0.02875428
192	0xbdabc644	-0.083874255
193	0xbe002a0e	-0.12516043
194	0xbd254542	-0.040349253
195	0xbe0a0443	-0.13478188
196	0xbdf1b49c	-0.11802027
197	0x3e3cb63f	0.18428896
198	0xbe03257d	-0.1280727
199	0xbe0e90af	-0.1392238
200	0xbe990670	-0.29887724
201	0xbd9942ba	-0.0748343
202	0xbeb0942d	-0.3448805
203	0x3d46b4d0	0.04851228
204	0xbe3a0d69	-0.18169178
205	0xbe6439ea	-0.22287717
206	0xbe1f4056	-0.15551886
207	0xbe42f83f	-0.19040011
208	0x3d1d4c12	0.038402624
209	0x3b9bfc0f	0.0047602723
210	0xbe783bec	-0.24241608
211	0xbe5fc053	-0.2185071
212	0xbdfadf1a	-0.122495845
213	0x3cebba49	0.028775351
214	0x3e353b9a	0.17698517
215	0xbe7e80e2	-0.24853852
216	0xbe6a669a	-0.22890702
217	0xbe946ad0	-0.2898774
218	0xbe21aa76	-0.15787682
219	0x3e097e10	0.13426995
220	0xbe7984ab	-0.24367015
221	0xbe052076	-0.13000664
222	0xbe74cfc2	-0.23907378
223	0x3d5610f3	0.052262258
224	0xbd8556af	-0.06510674
225	0xbe052252	-0.13001373
226	0xbc44968b	-0.011998783
227	0xbe0ed4e7	-0.13948403
228	0xbdac36f4	-0.08408919
229	0xbd16b866	-0.03679695
230	0xbb8741c1	-0.0041277115
231	0xbcb47bba	-0.022031654
232	0x3d808834	0.06275979
233	0xbdba8856	-0.09108035
234	0x3ce86af6	0.028371315
235	0xbc91a7db	-0.017780235
236	0x3cc96855	0.024585882
237	0xbc4cbb3b	-0.012495811
238	0xbdcf22c6	-0.101140544
239	0xbb829967	-0.003985572
240	0xbb6dc30b	-0.0036279585
241	0xbdb1e9bf	-0.08687162
242	0x3c23e0e3	0.010002348
243	0x3e3bebd2	0.18351677
244	0xbc00c95d	-0.007860509
245	0xbdb01959	-0.08598585
246	0xbe1b2966	-0.15152511
247	0xbd65fc6a	-0.056148924
248	0x3dbb1778	0.09135336
249	0xbc4019bb	-0.011724885
250	0x3d999444	0.074989825
251	0x3cfc6463	0.030809587
252	0x3d502ba6	0.050822876
253	0xbecb3001	-0.39685062
254	0xbd79a574	-0.060948804
255	0x3cc752a1	0.024331393

cnn1.bias f4 [16]
0	0x3d62401c	0.05523692
1	0xbd4def95	-0.05027731
2	0xbd8e8fe5	-0.069610395
3	0xbd97d85e	-0.07414316
4	0x3d11ff88	0.035644084
5	0xbd946e79	-0.072476335
6	0xbd93ef03	-0.07223322
7	0xbb060055	-0.0020446975
8	0x3c8604be	0.016359683
9	0xbdf9b600	-0.12192917
10	0xbcef79d1	-0.029232891
11	0xbd9742ee	-0.07385813
12	0xbc70cdf9	-0.014697545
13	0xbdb44df9	-0.088039346
14	0x3cca7f39	0.024718868
15	0xbd9e2d98	-0.0772354

cnn2.weight f4 [32, 16, 3, 3]
0	0x3cddc4cc	0.02707138
1	0x3d6c5f71	0.057708208
2	0x3dd51a2d	0.10405383
3	0x3e23b5c6	0.1598731
4	0xbc9b8a83	-0.018986946
5	0xbd2a8c2d	-0.04163759
6	0x3d9a31fe	0.075290665
7	0x3c8c726a	0.0171444
8	0xbd502ed7	-0.05082592
9	0x3e2f080c	0.17092913
10	0xbdc959c3	-0.09831574
11	0x3d29c600	0.041448593
12	0x3e09f1e5	0.13471182
13	0xbd940092	-0.07226671
14	0x3df824f2	0.12116422
15	0x3e1c755d	0.15279146
16	0xbd6ae30c	-0.057345435
17	0xbd8f0b57	-0.06984585
18	0xbc38483b	-0.01124769
19	0xbcdf45d7	-0.027254982
20	0xbaa385af	-0.0012475754
21	0xbc7d06e8	-0.015443541
22	0x3bd333e4	0.006445395
23	0xbd542803	-0.05179597
24	0xbd7043b6	-0.058658324
25	0x3c8048a6	0.015659641
26	0xbd66225d	-0.056185115
27	0x3dd5a68c	0.10432157
28	0xbda3965a	-0.07987662
29	0x3c913b17	0.017728372
30	0x3e2c2298	0.16810071
31	0x3d17b2d6	0.037035786
32	0xbcffa8f8	-0.0312085
33	0x3de5920a	0.11209495
34	0x3d7a3fb4	0.06109591
35	0xbdb450a3	-0.08804443
36	0x3d84b738	0.06480259
37	0xbc9c6280	-0.019089937
38	0xbc9dd1dc	-0.019265108
39	0x3de238a8	0.110459626
40	0x3c8bc56e	0.017061915
41	0x3d8d132c	0.06888422
42	0x3dba85df	0.09107565
43	0x3cf08650	0.02936092
44	0x3db8cfbf	0.090239994
45	0x3dc29b74	0.095023066
46	0x3d834c76	0.06411068
47	0x3d8a98db	0.06767436
48	0x3e00624d	0.12537499
49	0x3d816027	0.06317168
50	0x3cda5d7a	0.026655901
51	0xbc5bbd00	-0.01341176
52	0x3c8c80ba	0.017151225
53	0x3d13596a	0.035973944
54	0xbd5f11be	-0.05446028
55	0x3d0dde2a	0.0346357
56	0x3d9be97d	0.07612894
57	0x3c2c275b	0.01050743
58	0x3d08c3c3	0.033389818
59	0x3d8b0530	0.06788099
60	0x3d371f67	0.044707682
61	0x3d1160eb	0.03549282
62	0x3dd3b8da	0.10337992
63	0x3d68bcd8	0.05682072
64	0xbdaa0099	-0.08300895
65	0x3d46f8cd	0.04857712
66	0x3d4cf0ed	0.050034452
67	0xbd361096	-0.04444941
68	0x3dcdde34	0.100521475
69	0xbcca159b	-0.024668505
70	0xbd154a1d	-0.036447633
71	0x3c106587	0.0088132685
72	0x3d6cbe3f	0.05779862
73	0xbc757809	-0.014982232
74	0xbd6201b0	-0.05517739
75	0x3de67280	0.11252308
76	0x3dbf6350	0.09345114
77	0x3dac5040	0.08413744
78	0x3d501242	0.050798662
79	0x3d3b405d	0.04571568
80	0x3d577b3a	0.052607752
81	0x3d8d5ef5	0.06902877
82	0x3da0e614	0.07856384
83	0x3df0ad4c	0.11751804
84	0x3d575591	0.052571837
85	0x3d4ce499	0.050022695
86	0x3ce3d5d6	0.027811926
87	0x3d8c5ed6	0.06854026
88	0xbd15fa3c	-0.036615595
89	0x3d3c9db2	0.046048827
90	0x3d3c1abd	0.045923937
91	0xbc87c427	-0.016573025
92	0xbc42e40e	-0.011895193
93	0x3c82880a	0.01593401
94	0x38a98e64	8.08507e-05
95	0xbda7ddf8	-0.08196634
96	0x3b2d7772	0.00264689
97	0xbada37dd	-0.0016648729
98	0xbb2614a2	-0.0025341888
99	0x3ca44e6d	0.020056928
100	0xbd22428a	-0.039614238
101	0x3d17c784	0.037055507
102	0x3daf32e6	0.0855463
103	0x3db8289d	0.08992121
104	0xbd558c14	-0.052135542
105	0x3dcf6b13	0.10127845
106	0x3d4b7e2f	0.049680885
107	0x3db64499	0.08899803
108	0xbda73e26	-0.08166151
109	0xbdf1f438	-0.11814159
110	0xbc9abb3e	-0.018888112
111	0xbb2c643a	-0.0026304857
112	0x3d3fa8c8	0.04679182
113	0xbc4ba374	-0.012429107
114	0x3d4fea22	0.050760396
115	0xbd5dc8ba	-0.054146506
116	0xbb2e6dd9	-0.0026615767
117	0xbd16b05e	-0.03678929
118	0xbd6d4787	-0.057929542
119	0x3cbd93cc	0.023141764
120	0x3d399813	0.045311045
121	0xbd83c7e6	-0.06434612
122	0xbd863141	-0.06552363
123	0xbd18e6f3	-0.037329625
124	0xbda0f78d	-0.078597166
125	0xbd034d4d	-0.03205614
126	0x3ddbfec9	0.10741956
127	0xbccd3280	-0.025048494
128	0x3daf4668	0.08558351
129	0x3e3b31f8	0.1828078
130	0x3d81f897	0.06346243
131	0x3d93c132	0.072145835
132	0x3e1e54c6	0.15462026
133	0xba2a8f1a	-0.0006506309
134	0x3dc3d3d0	0.095618844
135	0x3cb86cbf	0.022512792
136	0xbd7181fe	-0.05896186
137	0xba8bab28	-0.0010655867
138	0x3d80362e	0.06260334
139	0xbd1de238	-0.038545817
140	0x3c3b08e2	0.011415692
141	0x3d1f8717	0.03894719
142	0xbd4fcec8	-0.05073431
143	0xbdc7629d	-0.09735606
144	0xbd59a506	-0.053135894
145	0x3d0c38e9	0.03423396
146	0x3ce8b873	0.028408265
147	0x3e224bc7	0.1584922
148	0x3b91a068	0.0044441707
149	0xbceced36	-0.028921705
150	0x3c6dbd88	0.01451052
151	0x3d0777ad	0.033073116
152	0xbc408535	-0.011750509
153	0x3bb7e8fc	0.0056124907
154	0x3dec56f9	0.11540026
155	0xbd14ee8d	-0.036360312
156	0x3e05b52c	0.13057393
157	0x3c23315e	0.0099605005
158	0xbb899394	-0.004198501
159	0x3d9699a1	0.07353521
160	0x3dfa9206	0.12234883
161	0xbdc094a6	-0.094033524
162	0x3c1e6ce2	0.009669514
163	0xbd908996	-0.070574924
164	0xbd36e039	-0.04464743
165	0xbdb2d0ad	-0.08731208
166	0xbdf50ada	-0.119649604
167	0xbdba6481	-0.09101201
168	0xbd522569	-0.05130521
169	0xbe07c26c	-0.1325776
170	0xbde54965	-0.111956395
171	0x3df79318	0.12088603
172	0x3def7255	0.11691729
173	0xbcd76545	-0.026293406
174	0x3e22c0b7	0.15893827
175	0xba2eb4a9	-0.00066644937
176	0x3cbb53c1	0.022867085
177	0x3df1b8a9	0.11802799
178	0x3d90b295	0.07065312
179	0xbd92e321	-0.07172228
180	0x3cd575c8	0.026057139
181	0x3d5f2283	0.054476272
182	0x3d0a55e5	0.03377332
183	0x3d87fc34	0.06639901
184	0x3e345d22	0.17613652
185	0x3bd27418	0.006422531
186	0x3dbfed1b	0.09371396
187	0x3d6ef6ea	0.058340944
188	0x3d09f11a	0.033677198
189	0x3e47e319	0.19520225
190	0x3ab60884	0.0013888036
191	0x3cfe0e95	0.031012813
192	0x3e12ed2f	0.14348291
193	0x3c1f90e0	0.009739131
194	0x3bdd2c33	0.0067496537
195	0xbd6c3660	-0.057669044
196	0x3d37222b	0.04471032
197	0xbe0dbfe1	-0.13842727
198	0xbae069eb	-0.001712141
199	0xbc9bd621	-0.019023003
200	0xbc1f4ae1	-0.009722442
201	0x3dfa6415	0.122261204
202	0x3dce0202	0.10058977
203	0x3cf6669d	0.030078227
204	0x3e31f8ea	0.1738011
205	0xbd5d1355	-0.053973515
206	0x3ddc0544	0.10743192
207	0x3c33473c	0.010942277
208	0x3d361f7d	0.044463623
209	0xbd0d89d3	-0.034555268
210	0xbd32d213	-0.043657374
211	0xbd7188f4	-0.0589685
212	0xbc912549	-0.017717974
213	0xbd38b586	-0.04509499
214	0xbdb98bbe	-0.09059857
215	0xbcb0fc75	-0.021604756
216	0x3e1d90ad	0.1538722
217	0x3cce34b5	0.025171617
218	0xba832404	-0.001000524
219	0x3e29b01e	0.1657109
220	0xbc8dd65c	-0.017314129
221	0xbc5b79da	-0.013395751
222	0x3e3ca9ab	0.18424098
223	0x3d435f3c	0.047698244
224	0x3d0903ea	0.033451
225	0x3e1a1738	0.1504792
226	0x3db3cdcb	0.08779486
227	0x3cac0428	0.020998076
228	0x3b4846da	0.003055981
229	0x3db59b80	0.0886755
230	0x3e212acc	0.15738982
231	0x3db06e4e	0.08614789
232	0xbd0fc679	-0.035101388
233	0x3d1223fe	0.035678856
234	0x3cd685d5	0.026186863
235	0x3db496f9	0.08817858
236	0x3a5abf52	0.0008344549
237	0x3d3c8d73	0.046033334
238	0xbc11cb94	-0.008898634
239	0xbd906645	-0.07050756
240	0xbd588f14	-0.052870825
241	0xbd51ef02	-0.051253326
242	0xbdfb0e71	-0.12258614
243	0x3df3414b	0.11877688
244	0x3d4ac662	0.0495056
245	0xbdce3be2	-0.100700155
246	0x3d8a04aa	0.06739171
247	0x3d59b652	0.05315239
248	0xbbef9a71	-0.007312112
249	0x3de02c3b	0.10945936
250	0x3d979000	0.07400513
251	0x3ccc0fcb	0.024909874
252	0x3c9e6f6b	0.019340238
253	0xbcc4c710	-0.024020702
254	0xbd9ae54c	-0.07563266
255	0x3ded676c	0.11591992

cnn2.bias f4 [32]
0	0xbdcf8416	-0.10132615
1	0xbceea6b3	-0.029132223
2	0xbd0c18f8	-0.0342035
3	0x3b6c126c	0.0036021722
4	0xb9b56ca6	-0.0003460396
5	0xba98bd97	-0.0011653182
6	0xbd9bdce6	-0.076104924
7	0x3d922f4f	0.0713793
8	0xbd94ebb9	-0.07271523
9	0xbd2e2d64	-0.042523757
10	0x3cfe11bd	0.031014318
11	0x3a901560	0.0010992698
12	0xbbc1678d	-0.005902237
13	0x3be88111	0.007095464
14	0xb9c6f8c7	-0.00037950856
15	0xbddea5ea	-0.10871489
16	0x3de6ad07	0.11263471
17	0x3bd5ce8b	0.006524866
18	0xbd192c5c	-0.03739582
19	0xbdcbadfc	-0.09945294
20	0xbde0e59f	-0.10981297
21	0x3c9ca708	0.019122615
22	0xbd582352	-0.05276806
23	0xbd24f406	-0.04027178
24	0xbb8a42e2	-0.004219399
25	0xbdaf3f63	-0.08557012
26	0xbd604e24	-0.05476202
27	0xbe06cdff	-0.13164519
28	0x3dc66abd	0.096883275
29	0xbd741c33	-0.059597205
30	0x3dbf3999	0.09337158
31	0xbc053d47	-0.008132285

cnn3.weight f4 [32, 32, 3, 3]
0	0x3cd95346	0.026528966
1	0x3ac696db	0.001515116
2	0x3caca5d9	0.021075176
3	0x3c44a4c9	0.0120021785
4	0xbd96daca	-0.073659495
5	0xbd4191f9	-0.04725835
6	0xbc464cc7	-0.012103266
7	0xbcc21594	-0.02369193
8	0x39b5e497	0.00034693323
9	0x3e2c4fea	0.1682736
10	0x3d2f5864	0.042808905
11	0xbd970dc2	-0.07375671
12	0x3dc1c9b1	0.09462298
13	0xbd33289d	-0.043739904
14	0xbe19c014	-0.15014678
15	0xbd90d0d2	-0.07071079
16	0xbd48034f	-0.04883128
17	0xbdbc46bf	-0.09193181
18	0x3a974b08	0.0011542747
19	0xbd26a1ef	-0.040681776
20	0xbd87628b	-0.066105925
21	0x3da31bd4	0.07964292
22	0xbd582f32	-0.052779384
23	0xbd9f421d	-0.07776282
24	0x3d3e7b72	0.046504445
25	0x3d64f5f6	0.05589863
26	0xbc874990	-0.01651457
27	0x3d184661	0.037176494
28	0xbbb7efee	-0.0056133186
29	0x3c08b8f2	0.008344876
30	0x3d50f959	0.051019046
31	0xbd586acd	-0.05283623
32	0xbd59c5e1	-0.053167228
33	0x3c61397b	0.013746615
34	0xbcd14bb6	-0.025548797
35	0x3cd4f4f0	0.025995702
36	0x3dd57bff	0.10424041
37	0x3cd13271	0.025536748
38	0xbc343aec	-0.011000376
39	0xbccb45a0	-0.024813473
40	0xbdcd71cd	-0.100314714
41	0x3b5e6c8e	0.0033939215
42	0x3a96aafc	0.0011495049
43	0x3d7f026d	0.062258173
44	0xbc1c1cd8	-0.009528361
45	0x3df4edeb	0.11959442
46	0xbda06571	-0.078318484
47	0xbc8aec26	-0.016958307
48	0x3d1686c3	0.036749613
49	0xbdc5e94d	-0.09663639
50	0xbdc59ebe	-0.09649418
51	0xbc72b88b	-0.014814506
52	0x3bb5f3fd	0.0055527673
53	0xbb8211bc	-0.0039693993
54	0xbbfc9509	-0.007708196
55	0x3cdc36d7	0.026881618
56	0xbd809c03	-0.06279757
57	0xbd206512	-0.03915889
58	0xbb357158	-0.0027685966
59	0xbcee923b	-0.029122462
60	0x3d465a4c	0.048425958
61	0xbd610339	-0.054934714
62	0xbd233c71	-0.039852563
63	0xbd402ffa	-0.046920754
64	0x3deb2955	0.11482493
65	0x3d913430	0.07090032
66	0x3d229835	0.039695937
67	0xbbb85373	-0.0056251823
68	0x3ddcec92	0.1078731
69	0x3d3b256b	0.04568998
70	0x3d839fb9	0.06426949
71	0x3db7fa6a	0.089833096
72	0xbc2bdbe8	-0.010489441
73	0x3cb83ffb	0.022491446
74	0xbd611a6f	-0.05495685
75	0xbd88e640	-0.06684542
76	0xbcf79bdc	-0.030225687
77	0xbd624505	-0.055241603
78	0x3c1e891a	0.009676242
79	0xbcaeb5bb	-0.02132689
80	0xbd7052e0	-0.058672786
81	0x3db943f0	0.09046161
82	0xbdae0559	-0.08497114
83	0x3c454691	0.01204075
84	0x3cb22930	0.021748155
85	0xbdf88191	-0.12134088
86	0x3c45fe84	0.012084607
87	0xbcf5873a	-0.029971708
88	0xbcfc16eb	-0.030772647
89	0xbd601c83	-0.05471469
90	0x3dafc28e	0.0858203
91	0x3dc10c6d	0.09426198
92	0xbdc32faa	-0.095305756
93	0x3cb9b24b	0.022668025
94	0x3c9f2df4	0.019431092
95	0xbdb4e6b9	-0.08833069
96	0xbd019747	-0.03163841
97	0x3d11af3b	0.035567503
98	0xbcd57496	-0.02605657
99	0x3d6be100	0.057587624
100	0xbd9be5d8	-0.076121986
101	0xbd93d0f6	-0.072175905
102	0xbd2ddf49	-0.04244927
103	0xbdf3c596	-0.11902921
104	0xbe0bde4d	-0.1365902
105	0x3d58e11d	0.05294906
106	0x3d16c36d	0.036807466
107	0xbccd0b1d	-0.025029713
108	0x3dd594e4	0.10428789
109	0x3e169845	0.14706524
110	0x3e1f0a91	0.15531375
111	0xbceeea6d	-0.029164517
112	0x3e1d3288	0.15351307
113	0x3cdd796a	0.027035434
114	0x3c3a6909	0.011377581
115	0x3cbe85e8	0.02325721
116	0xbcaf90ec	-0.021431409
117	0x3c89e42c	0.016832434
118	0x3c6d0b29	0.014467993
119	0xbcb5fb19	-0.02221446
120	0xbbc1e19d	-0.005916788
121	0x3d1eb469	0.03874627
122	0xbd3d1d6a	-0.04617063
123	0x3cf88f26	0.030341696
124	0x3d00f072	0.031479307
125	0x3d4c076e	0.049811773
126	0x3dd8bf9b	0.10583421
127	0xbc199f34	-0.009376336
128	0xbd5580dc	-0.052124843
129	0x3d619b0c	0.055079505
130	0xbd63a3d1	-0.05557615
131	0xbd681457	-0.056660023
132	0xbc992864	-0.018696018
133	0x3c9bdbda	0.019025732
134	0xbdceaf4c	-0.10092029
135	0x3b5a3ca0	0.0033300295
136	0xbd204c80	-0.039135456
137	0x3d4f24fd	0.050572384
138	0xbcbaac88	-0.022787347
139	0xbcd4e598	-0.025988385
140	0xbd506061	-0.050873164
141	0x3cc84a2a	0.024449427
142	0x3b811738	0.0039395355
143	0xbc3e1c18	-0.011603378
144	0x3d894e05	0.06704334
145	0x3e68a5f1	0.22719552
146	0x3e4f23ce	0.20228502
147	0x3cd07f9e	0.025451478
148	0x3db2675a	0.08711119
149	0x3dfa4422	0.122200266
150	0x3cc9e609	0.024645822
151	0x3db39a4e	0.08769666
152	0x3deca71a	0.115553096
153	0x3d9d1054	0.0766913
154	0x3db88cfa	0.09011264
155	0xbd93e6bf	-0.07221746
156	0x3ceec928	0.029148653
157	0x3d3d93ab	0.046283405
158	0xbd9593c6	-0.07303576
159	0x3bebb3ab	0.007193049
160	0x3c9673f6	0.018365841
161	0xbd267614	-0.04063995
162	0xbcc95add	-0.02457946
163	0xbd8f037d	-0.06983087
164	0xbd8f6939	-0.070024915
165	0x3caf3475	0.021387318
166	0xbd47d08b	-0.048782866
167	0xbe07f81b	-0.13278238
168	0x3c0ff00f	0.008785262
169	0xbdd37f2f	-0.10326993
170	0xbd3c9b9b	-0.046046834
171	0xbd51ba72	-0.0512032
172	0x3b605ff7	0.0034236887
173	0x3d37752a	0.04478947
174	0x3cc36568	0.023852065
175	0xbda8d2ef	-0.082433574
176	0xbbb1a848	-0.005421672
177	0x3b8e7c20	0.004348293
178	0xbd8004f2	-0.06250943
179	0x3c70598f	0.01466979
180	0xbd4b236a	-0.04959432
181	0xbce31c38	-0.027723417
182	0x3d2e9808	0.042625457
183	0xbd0d6f61	-0.034530047
184	0xbdc14d52	-0.09438576
185	0xbd09b437	-0.033619132
186	0x3b0c3e2d	0.0021399364
187	0xbd555686	-0.05208447
188	0xbcca834a	-0.024720807
189	0x3da60855	0.08107058
190	0x3dd811a2	0.10550238
191	0xbd07e6dd	-0.033179153
192	0x3bc44643	0.005989821
193	0x3c64b491	0.013959066
194	0xbd344caa	-0.044018425
195	0xbd3d37a0	-0.046195626
196	0x3c84d80c	0.0162163
197	0xbdf7a4bc	-0.120919675
198	0xbcebbd21	-0.028776707
199	0xbdcff3e2	-0.10153939
200	0xbd189391	-0.037250105
201	0xbd83533b	-0.06412359
202	0xbdf079ff	-0.11742019
203	0xbb1fc983	-0.0024381585
204	0xbd536a20	-0.05161488
205	0xbd35db13	-0.04439838
206	0x3cb0c97b	0.021580448
207	0x3d2f8395	0.042850096
208	0x3c88b4ef	0.016687838
209	0x3d9d6fbe	0.07687329
210	0x3cb2fd1d	0.02184921
211	0xbd262021	-0.040557984
212	0xbc671357	-0.014103732
213	0xbc99d128	-0.018776491
214	0x3dbbd09b	0.09170648
215	0x3c8cd776	0.017192584
216	0x3d84a6ba	0.06477113
217	0xbc62f2c6	-0.013851827
218	0xbd4b8c94	-0.049694613
219	0xbc810947	-0.015751494
220	0xbd880b90	-0.0664283
221	0xbda2628d	-0.07928953
222	0xbbe029b6	-0.00684091
223	0x3d321d96	0.043485247
224	0xbc3d0fcf	-0.011539414
225	0x3d164b3f	0.036692854
226	0xbcfe141f	-0.031015454
227	0x3b3fcfa0	0.0029268041
228	0xbcbe7a3e	-0.023251649
229	0xbd70060f	-0.058599528
230	0x3c8ad9fe	0.01694965
231	0xbc92d44a	-0.017923493
232	0x3d4d3f65	0.050109286
233	0x3d6afc15	0.05736931
234	0x3dc4dc6e	0.09612356
235	0x3afaa99b	0.0019124033
236	0x3baee93c	0.0053378623
237	0x3ce7032e	0.028199758
238	0xbd4c88f6	-0.049935304
239	0xbbfb2ffe	-0.007665633
240	0xbcafb1e6	-0.021447133
241	0x3c9c1eb3	0.019057607
242	0xbd271665	-0.04079284
243	0x3c132250	0.008980349
244	0x3d40f420	0.047107816
245	0xbc8c0bd7	-0.01709549
246	0xbbea4962	-0.007149861
247	0xbd33f01a	-0.04393015
248	0xbd047e17	-0.03234681
249	0xbb9edbe3	-0.00484799
250	0xbc960de6	-0.018317174
251	0xbca5dee2	-0.02024788
252	0x3cb16987	0.021656765
253	0x3af26eb3	0.0018496126
254	0x3dcb606f	0.099305026
255	0xbcda9637	-0.026682956

cnn3.bias f4 [32]
0	0x3ca0f269	0.01964684
1	0x3d333a4a	0.04375676
2	0xbdc247e6	-0.0948637
3	0xbc935526	-0.017984938
4	0x3d050ae8	0.032481104
5	0xbd06a735	-0.032874305
6	0xbd098468	-0.033573538
7	0x3df0878e	0.11744605
8	0xbc21faf0	-0.009886488
9	0xbd794984	-0.060861126
10	0x3c23072e	0.009950442
11	0xbcd29928	-0.025707796
12	0xbc5ca97b	-0.013468142
13	0x3d4b6928	0.04966083
14	0xbc97d09c	-0.01853209
15	0x3e01a2cb	0.12659757
16	0xbd90f418	-0.07077807
17	0x3b9ce948	0.0047885515
18	0xbd2da559	-0.042394016
19	0xbd823cf2	-0.06359281
20	0xbd914d8d	-0.0709487
21	0xbcf3d65d	-0.029765302
22	0xbd8f6457	-0.0700156
23	0xbd773961	-0.060357455
24	0xbc4bb405	-0.012433057
25	0xbd0f5d0b	-0.035000842
26	0xbd882b61	-0.06648899
27	0x3ce4d731	0.027934643
28	0xbc088537	-0.008332542
29	0x3dc88e63	0.09792783
30	0x3cb1ef25	0.021720478
31	0x3e1a1ad3	0.15049295

fc1.weight f4 [128, 768]
0	0xbcdb4905	-0.026768217
1	0x3ccb35a7	0.024805857
2	0x3ca16e82	0.019706015
3	0x3c7291f6	0.014805308
4	0x3cfb9bef	0.030714003
5	0xbd035408	-0.03206256
6	0xbd421869	-0.04738656
7	0x3c80dc25	0.015729973
8	0xbc9113de	-0.017709669
9	0xbc336b68	-0.010950901
10	0xbcc3377c	-0.023830168
11	0x3a0cb680	0.0005367771
12	0xbad88cf8	-0.0016521504
13	0x3b330199	0.0027314185
14	0xbc1e911a	-0.00967815
15	0x3c9d43dc	0.019197397
16	0x3bfb3cfd	0.0076671825
17	0xbc41de34	-0.0118327625
18	0xbc2ee382	-0.010674359
19	0x3c355424	0.011067424
20	0xbcbeebfe	-0.02330589
21	0x3c89c7ba	0.01681887
22	0xbce79810	-0.028270751
23	0xbc4f1f6e	-0.012641771
24	0xbd1658af	-0.03670567
25	0xbbe4ff9b	-0.0069884784
26	0xbd15847f	-0.03650331
27	0xbc0f9571	-0.008763657
28	0x3b3ae2ab	0.0028516452
29	0xbcfc96d9	-0.030833649
30	0xbc9b90c0	-0.01898992
31	0x3cf10eb3	0.029425954
32	0xbd203e6e	-0.039122038
33	0x3c817620	0.015803397
34	0x3d276c23	0.04087461
35	0xbc456174	-0.01204716
36	0x3cd5999a	0.02607422
37	0x3d0f68ef	0.03501218
38	0xbc02f4b8	-0.007992916
39	0xbaaf366c	-0.0013367659
40	0x3c210f00	0.009830236
41	0xbc0f35b0	-0.008740827
42	0x3cbe11fe	0.023201939
43	0xbd5793ac	-0.052631065
44	0xbd27e08a	-0.04098562
45	0x3c9245e1	0.017855586
46	0xbcfdfdce	-0.031004813
47	0xbd2dceeb	-0.04243366
48	0xbd262f07	-0.040572193
49	0x3c3401fc	0.010986801
50	0xbd028e40	-0.03187394
51	0xbd06febb	-0.032957774
52	0xbd1ca7b1	-0.03824586
53	0xbbb30d76	-0.005464251
54	0x3c052434	0.008126307
55	0xbc794d2c	-0.015216153
56	0xbc0a9392	-0.008458035
57	0xbcaf2f90	-0.021384984
58	0x3c1a5791	0.0094202915
59	0x3ce8fc4f	0.028440623
60	0xbd0cb2dd	-0.034350265
61	0xbc950a44	-0.018193372
62	0xbcf7cf62	-0.030250255
63	0xbd3e80f1	-0.046509687
64	0x3cbfe727	0.023425652
65	0x3c4b95df	0.012425869
66	0xbc6e6146	-0.014549559
67	0xbc23b8b9	-0.009992772
68	0xbd1b5cc8	-0.03793028
69	0x3c9da1c3	0.019242173
70	0x3cad677c	0.02116751
71	0xbd0f0c42	-0.0349238
72	0xbbfb4928	-0.007668633
73	0x3c529e30	0.012855098
74	0xbcc3c871	-0.023899289
75	0xbc910c46	-0.017706048
76	0x3ce8d836	0.02842341
77	0x3c8c2119	0.017105626
78	0x3cbef76d	0.023311341
79	0x3b9cdbd5	0.004786948
80	0xba9169a1	-0.0011094102
81	0x3be0e81b	0.0068636066
82	0x3c80da9b	0.01572924
83	0xbcb5af96	-0.022178452
84	0xbd02ed87	-0.031964805
85	0x3cd1ae7c	0.025595896
86	0x3a92db12	0.0011204204
87	0xbc23e1a6	-0.010002529
88	0x3bdad931	0.0066787233
89	0xbcc191b3	-0.023629045
90	0xbb32a2e5	-0.0027257737
91	0xbce0708f	-0.027397422
92	0xbb03c261	-0.0020104873
93	0xbd21513d	-0.039384115
94	0x3b21857a	0.0024646209
95	0x3d028053	0.03186066
96	0x3cc3850a	0.023867149
97	0xbd017de2	-0.03161419
98	0x3b3e7e5b	0.0029067013
99	0x3b93ae32	0.0045068497
100	0xba498cf4	-0.0007688545
101	0x3b9b284a	0.0047350274
102	0xbcbd569f	-0.023112593
103	0xbc07594f	-0.008261039
104	0xbd1c9e22	-0.038236745
105	0xbc47bf8a	-0.012191663
106	0xbc890713	-0.016727006
107	0xbbda9901	-0.0066710715
108	0x3c65b5cd	0.014020395
109	0xbbf00107	-0.007324341
110	0xbc871bdb	-0.016492775
111	0xbd1493e8	-0.036273867
112	0x3c09f85a	0.008421028
113	0x3c2221e2	0.009895774
114	0x3c3b7874	0.0114422925
115	0xbce5b2e1	-0.028039398
116	0x3c6a1e1f	0.014289408
117	0x3a03511e	0.0005009341
118	0xbc901d87	-0.017592205
119	0x3ae8f82f	0.001777416
120	0x3ce80383	0.028321987
121	0xbd21f65d	-0.03954159
122	0x3bbe9334	0.005815888
123	0x3c3a8acd	0.011385632
124	0xbcff7154	-0.031181969
125	0xbc2032cc	-0.009777736
126	0x3ae2ed00	0.0017313063
127	0xbd06cc7c	-0.032909855
128	0x3d1904ab	0.037357967
129	0x3ca03466	0.019556236
130	0x3c4cb1a5	0.012493526
131	0x3b8cc04b	0.004295384
132	0x3cce35d0	0.025172144
133	0x3b4ca03d	0.003122344
134	0xbc86a11a	-0.016434241
135	0xbcc53cda	-0.024076868
136	0xbd0601d2	-0.03271658
137	0x3c3dc428	0.011582412
138	0x3c80ce26	0.0157233
139	0x3cd989e0	0.026555002
140	0x3b8f45cf	0.0043723355
141	0x3c9b91bc	0.01899039
142	0x3b428f98	0.002968764
143	0xbd04240d	-0.032260943
144	0xbcc59352	-0.0241181
145	0x3c4bdd70	0.0124429315
146	0x3d0b5bb0	0.034022987
147	0x3ce048c0	0.02737844
148	0x3b311130	0.0027018301
149	0xbc403aa2	-0.011732729
150	0x3cdd05cc	0.026980303
151	0x3d10e746	0.03537681
152	0x3d0de2b6	0.034640037
153	0x3c200fc0	0.00976938
154	0x3cb1a332	0.021684263
155	0xbbc6da74	-0.006068522
156	0xbca6c466	-0.020357322
157	0xbbf0fc0c	-0.007354265
158	0x3d0b25f4	0.03397174
159	0x3d0de7f4	0.034645036
160	0x3c813944	0.015774377
161	0x3c927540	0.017878175
162	0x3c1c6464	0.009545419
163	0xbca47077	-0.020073159
164	0xbbfd5a7c	-0.007731734
165	0x3d0695a5	0.032857556
166	0xbcf91b4e	-0.030408528
167	0xbc4448fa	-0.01198029
168	0xbc63460b	-0.01387168
169	0x3c3b356b	0.01142631
170	0xbae7abbb	-0.0017675081
171	0xbbee84f2	-0.007279032
172	0x3b63dbea	0.003476853
173	0xbc44d9d9	-0.01201483
174	0xbd71425b	-0.058901172
175	0xbc8dd18c	-0.017311834
176	0x3cd26375	0.02568219
177	0xbc9ef1d2	-0.019402418
178	0xbcae79ec	-0.021298371
179	0xbd24bf03	-0.040221225
180	0xbbf4bd6e	-0.007468871
181	0xbd107aee	-0.035273485
182	0x3ca60adf	0.020268856
183	0x3a2d58fa	0.0006612685
184	0xbd37aca4	-0.044842377
185	0xbd2f10f9	-0.042740796
186	0xbc17b9d7	-0.009260616
187	0xbd2871d2	-0.041124173
188	0xbb7f4663	-0.0038951866
189	0xbcad7d5b	-0.021177938
190	0x3c165038	0.009174399
191	0xbd2ed224	-0.042680874
192	0x3b0a3cdf	0.002109341
193	0xba8e62ff	-0.0010863243
194	0xbba7488f	-0.005105085
195	0xbd0791ec	-0.033098146
196	0xbd004f2c	-0.031325504
197	0x3cecbcb0	0.028898567
198	0xbac73e1c	-0.0015201005
199	0xbc32a751	-0.010904149
200	0xbcf56ffc	-0.029960625
201	0xbc4a9551	-0.012364701
202	0x3c31b43b	0.010846193
203	0xbcf84404	-0.03030587
204	0xbcabedbe	-0.020987388
205	0xbcad81a9	-0.02117999
206	0xbc004616	-0.00782921
207	0xbc59b7dd	-0.013288465
208	0x3c9e69e2	0.019337598
209	0xbcb5fd97	-0.022215648
210	0x3c306022	0.010765107
211	0xbc11f677	-0.008908859
212	0x3ca60dab	0.02027019
213	0xbd0dd845	-0.03463008
214	0x3d038264	0.032106772
215	0x3cda44c0	0.02664411
216	0xbd0d1147	-0.034440305
217	0xbd17fabd	-0.037104357
218	0xbd18d97a	-0.037316777
219	0x3cc54fd0	0.02408591
220	0xbc1031ea	-0.008800963
221	0x3c5e6f19	0.013576292
222	0x3d04d7cf	0.032432374
223	0xbd135305	-0.035967845
224	0xbc8da083	-0.017288452
225	0xbc59b4e7	-0.013287759
226	0x3c92e109	0.01792957
227	0x3c8a0b19	0.016850995
228	0xbcd1745e	-0.025568184
229	0xbcc21492	-0.02369145
230	0x3ccab827	0.024746014
231	0x3d0664d8	0.032811016
232	0x3be9e2eb	0.0071376464
233	0xbc960df1	-0.018317195
234	0x3c4034d9	0.01173135
235	0xbadb4aeb	-0.0016730701
236	0xbca68d45	-0.020331034
237	0x3cbf2ee4	0.023337789
238	0xbd1c4c82	-0.0381589
239	0xbcdb7b61	-0.02679223
240	0x3cb22419	0.021745728
241	0x3a98c45e	0.0011655202
242	0x3d001183	0.0312667
243	0xbd15c4f4	-0.036564782
244	0x3c2b8350	0.010468319
245	0x3d08d2b4	0.033404067
246	0x3a2b7f6b	0.0006542119
247	0x3c373f1a	0.011184478
248	0xbcf840b6	-0.030304294
249	0xbd0ed70f	-0.034873065
250	0x3c0814ec	0.008305769
251	0x3ca51ac5	0.020154366
252	0xbc9f0b8f	-0.019414691
253	0xbbe30900	-0.006928563
254	0x3ce9101c	0.028450064
255	0xbd00c9d1	-0.031442467

fc1.bias f4 [128]
0	0x3cc7ae0b	0.024374982
1	0xbc1190a0	-0.008884579
2	0x3c58f0c1	0.013240994
3	0xbd251562	-0.040303595
4	0xbcd307e1	-0.025760593
5	0x3cd4b654	0.025965847
6	0xbd0c6154	-0.034272507
7	0xbd277081	-0.040878776
8	0x3b99e3fb	0.004696367
9	0x3c7d6fb6	0.0154685285
10	0xbcab9724	-0.020946093
11	0xbce60c84	-0.02808214
12	0xbd12e089	-0.035858665
13	0xbd0d0342	-0.034426935
14	0xbd1b3838	-0.03789541
15	0xbc81b5ff	-0.015833853
16	0xbd171369	-0.036883745
17	0xbca316b2	-0.019908283
18	0x3d7a9ea9	0.061186466
19	0xbaff5b94	-0.0019482248
20	0xbba79402	-0.0051140795
21	0x3dc62ef2	0.09676923
22	0xbd2fe157	-0.04293951
23	0x3da750f2	0.08169736
24	0xbd453adb	-0.048151832
25	0x39199a3e	0.00014648677
26	0xbbbac926	-0.0057002483
27	0xbcf05da1	-0.02934152
28	0xbcdf2369	-0.027238565
29	0x3c8d2c0e	0.017232921
30	0xbd1242e2	-0.035708316
31	0x3caa7de5	0.020811984
32	0xbd0e1e3c	-0.034696802
33	0x3c669923	0.014074597
34	0xba071145	-0.00051524147
35	0xbd3f2c2f	-0.046672996
36	0xbcccdae9	-0.025006728
37	0xbd206cbe	-0.039166205
38	0xbcb76b95	-0.022390166
39	0x3b51edc7	0.0032032595
40	0x3ca8dad5	0.02061216
41	0x3dc59df8	0.09649271
42	0xbd04b1bb	-0.03239606
43	0xbcc64c70	-0.02420637
44	0xbc9d6654	-0.019213833
45	0xbd131811	-0.035911623
46	0x3bd1d6fc	0.006403802
47	0x3bcd840e	0.0062718457
48	0xbd11f866	-0.03563728
49	0x3cf0ad48	0.029379502
50	0x3d0acca8	0.03388658
51	0x3cd53df6	0.026030522
52	0x3bbc1d24	0.0057407785
53	0x3dc222ed	0.09479318
54	0xbbee91df	-0.007280573
55	0xbd1413d4	-0.036151722
56	0xbd1097a5	-0.03530087
57	0x3bfd2cba	0.007726279
58	0xbc8df625	-0.017329285
59	0xbcb67e40	-0.022276998
60	0xbd29930c	-0.0414
61	0x3dbbcc49	0.09169824
62	0xbd0b2838	-0.033973902
63	0xbcccb258	-0.024987385
64	0xbc8038a5	-0.01565201
65	0x3ccf561a	0.025309611
66	0x3ded90fa	0.11599918
67	0xbbd1a81c	-0.006398214
68	0x3c42722e	0.011868043
69	0x3c8c32ee	0.017114129
70	0xbbcf1a8f	-0.0063203047
71	0x3ba3b54c	0.0049959775
72	0xbc1a64b9	-0.009423428
73	0x3c37fef0	0.011230215
74	0xb9523993	-0.00020048609
75	0x3c3f61e1	0.011681051
76	0xb71cd6bf	-9.348324e-06
77	0xbd108ff2	-0.035293527
78	0x3c24c5eb	0.010056953
79	0xbb9630c7	-0.0045834514
80	0xbc8cf194	-0.017205037
81	0xbbdf9ee9	-0.0068243635
82	0x3be9b3ed	0.0071320445
83	0x3caae6c8	0.020861998
84	0x3c05824b	0.00814874
85	0x3cdfdbe4	0.027326532
86	0xbcecac97	-0.028890891
87	0xbcd58422	-0.026063982
88	0xbd1f7ce2	-0.038937457
89	0x3daa485d	0.083145835
90	0xbd890358	-0.06690091
91	0x3de9ac18	0.114097774
92	0x3c294104	0.010330442
93	0xbcb053f3	-0.021524405
94	0xbad9abbd	-0.0016606968
95	0xbd247517	-0.040150728
96	0x3ae0e08b	0.0017156763
97	0xbb9051e6	-0.0044042943
98	0xbbe2c3ca	-0.0069203125
99	0x3c35a84d	0.011087489
100	0xbd13e8ce	-0.03611069
101	0xbc2e1301	-0.010624648
102	0xba011370	-0.0004923856
103	0x3c91188b	0.017711898
104	0x3a90a9e1	0.0011036956
105	0xbc77a3da	-0.015114749
106	0xbd1be2c8	-0.038058072
107	0xbc84139c	-0.016122632
108	0x3df138bb	0.117783986
109	0x3c567b46	0.013090914
110	0xbbff73e1	-0.0077957963
111	0xbc532ecf	-0.012889578
112	0x3de44f41	0.11147929
113	0x3cae0f36	0.021247488
114	0xbd79b589	-0.06096414
115	0xbd059cc7	-0.032620218
116	0x3c2b49f4	0.0104546435
117	0x3c8e65bf	0.0173825
118	0xbcaffb2c	-0.021482073
119	0x3d6a54de	0.057209842
120	0xbd78c101	-0.060730938
121	0xbc42dcf4	-0.0118935
122	0xbc4ef96a	-0.012632707
123	0xbd4c0d97	-0.049817648
124	0x3dff0ee3	0.12454011
125	0xbd36f4ae	-0.04466694
126	0x3d079214	0.033098295
127	0xbd6f806b	-0.05847208

fc2.weight f4 [128, 128]
0	0xbdb22dbd	-0.0870013
1	0xbd717dce	-0.058957867
2	0xbc1af282	-0.009457232
3	0xbc3831d8	-0.011242352
4	0x3cf56e36	0.02995978
5	0x3d747ab9	0.05968735
6	0xbd45690e	-0.04819589
7	0x3d554269	0.052065287
8	0xbb066cce	-0.002051163
9	0x3d08b23d	0.033373106
10	0x3ce2653d	0.027636165
11	0xbd048aa1	-0.03235877
12	0xbd9ef2b7	-0.07761138
13	0x3d0f4a94	0.034983233
14	0x3da7e7dd	0.08198521
15	0xbd313690	-0.043264925
16	0xbd3c8e73	-0.046034288
17	0x3cef315e	0.029198345
18	0x3bb1d9b9	0.005427566
19	0x3d2be00e	0.041961722
20	0x3dafa94f	0.08577215
21	0x3d77ceae	0.06049984
22	0x3c89aad2	0.016805086
23	0xbd3857f7	-0.045005765
24	0x3d58cb7e	0.05292844
25	0xbb18ef80	-0.0023336112
26	0x3d8604f3	0.06543913
27	0xbbcd4e96	-0.0062654717
28	0xbc686a18	-0.014185451
29	0xbb06a055	-0.0020542343
30	0x3db7f099	0.08981437
31	0x3d62903e	0.05531334
32	0xbda3eea2	-0.080045
33	0xbd06b67b	-0.03288887
34	0x3da1dfc7	0.0790401
35	0xbdc26d71	-0.094935305
36	0xbdb0e63c	-0.08637664
37	0x3db37876	0.087632105
38	0x3dabc303	0.08386805
39	0xbd83140d	-0.06400309
40	0xbd835cc0	-0.06414175
41	0xbd9bad10	-0.076013684
42	0x3ccf3064	0.02529163
43	0xbbe8c45c	-0.007103486
44	0xbd1e7d27	-0.038693573
45	0x3d9bcae9	0.076070614
46	0x3d64dba6	0.055873536
47	0x3ca77641	0.02044213
48	0xbd53e08a	-0.05172781
49	0xbda2b72c	-0.079450935
50	0xbc07636c	-0.00826345
51	0x3d2739d0	0.04082662
52	0x3d56b372	0.052417226
53	0x3dea67c7	0.11445575
54	0xbc384928	-0.011247911
55	0x3db52454	0.0884482
56	0x3cfa3a20	0.030545294
57	0xbcd08124	-0.025452204
58	0xbc34a490	-0.011025563
59	0xbd9bb23f	-0.07602357
60	0xbca2527c	-0.019814722
61	0x3dcf234f	0.101141565
62	0xbdb0b1b9	-0.08627648
63	0x3dce890d	0.10084734
64	0xbd0d72c2	-0.03453327
65	0x3d13cc00	0.03608322
66	0x3df9ed64	0.12203482
67	0xbd598ee4	-0.053114787
68	0x3d6ee181	0.058320526
69	0xbd7d6b0c	-0.061869666
70	0x3d283318	0.04106435
71	0x3db1b507	0.08677106
72	0xbd2fa560	-0.042882323
73	0x3c6b2f20	0.014354497
74	0x3ad10b00	0.0015948713
75	0x3d17663a	0.036962725
76	0x3cc30f58	0.023811027
77	0x3d1bb59b	0.03801499
78	0xbbebce40	-0.007196218
79	0xbcba5384	-0.022744901
80	0xbc22fa3b	-0.009947355
81	0xbd9ce8e3	-0.07661607
82	0xbd534d23	-0.051587235
83	0x3bb9f454	0.005674878
84	0xbda37408	-0.079811156
85	0xbd720197	-0.059083547
86	0xbd833e61	-0.06408382
87	0x3d19f54a	0.03758744
88	0xbd4e1462	-0.050312407
89	0xbe1c7f8d	-0.15283032
90	0xbd647f46	-0.05578544
91	0xbc7f9463	-0.015599343
92	0x3d351482	0.04420901
93	0x3d707f2a	0.058715023
94	0x3d0002b9	0.031252597
95	0xbd916870	-0.07099998
96	0x3c42e825	0.011896168
97	0xbd3d0eb8	-0.046156615
98	0x3d4d833e	0.05017399
99	0x3d1ed1fe	0.038774483
100	0x3d0eac9c	0.034832582
101	0xbd172dcc	-0.03690891
102	0x3d870c9d	0.06594203
103	0x3d9f7c15	0.07787339
104	0x3ccbeb14	0.024892367
105	0x3d4564f6	0.048191987
106	0x3c1246e8	0.008928038
107	0xbd222279	-0.039583657
108	0x3d34daa7	0.044153836
109	0xbd95e432	-0.073189154
110	0xbcbb90d0	-0.0228962
111	0x3cdbaa90	0.026814729
112	0x3da76ff5	0.08175651
113	0xbcb90b00	-0.022588253
114	0xbd756c22	-0.059917577
115	0xbd3dec6f	-0.04636806
116	0xbd8896fd	-0.06669424
117	0xbd983dd6	-0.07433669
118	0xbdaee5de	-0.085399374
119	0xbda8b0a2	-0.08236815
120	0x3cb14b8d	0.02164247
121	0xbc4236d8	-0.011853896
122	0xbd4f4de7	-0.050611403
123	0xbb179a21	-0.002313264
124	0x3d9af53f	0.07566308
125	0xbd2446ab	-0.040106457
126	0xbd8c512f	-0.06851422
127	0xbd512c67	-0.051067736
128	0xbd800d9e	-0.06252597
129	0xbcfef13e	-0.031120893
130	0xbdaad536	-0.08341448
131	0x3beb4690	0.0071800426
132	0xbaa4a49b	-0.0012561263
133	0x3c807ce1	0.015684547
134	0xbdca189c	-0.09867975
135	0xbc3ca870	-0.011514768
136	0x3d8e8537	0.069590025
137	0x3d130a5b	0.035898548
138	0x3aaed528	0.0013338672
139	0x3d177cfe	0.036984436
140	0xbd16a88a	-0.036781825
141	0x3b912d90	0.0044304803
142	0x3d4a2c26	0.04935851
143	0xbd31af18	-0.043379873
144	0x3d1e38a4	0.038628235
145	0x3d19c51c	0.037541494
146	0xbb48a201	-0.003061414
147	0xbcbfb830	-0.023403257
148	0xbc07cf73	-0.008289206
149	0xbce5fc98	-0.028074548
150	0x3d9aad9b	0.07552644
151	0xbd659ce0	-0.05605781
152	0x3da8c751	0.082411416
153	0x3d5f50be	0.05452036
154	0xbd96e008	-0.07366949
155	0xbc2f7705	-0.010709529
156	0xbd9cce07	-0.07656484
157	0x3d3fe84a	0.046852387
158	0x3da9f031	0.08297766
159	0xbcf160bc	-0.029465072
160	0xbd0e236b	-0.034701746
161	0x3cafba5e	0.021451171
162	0xbd0b0e92	-0.033949442
163	0xbdbc1908	-0.09184462
164	0xbd96bd0f	-0.07360279
165	0xbd3c7769	-0.046012316
166	0x3d157584	0.036489025
167	0xbda02185	-0.07818893
168	0xbd795df1	-0.060880605
169	0x3c8217f6	0.015880566
170	0xbcbe9fb0	-0.023269504
171	0xbd9ba7ac	-0.0760034
172	0xbd63e54f	-0.055638608
173	0xbccea0b0	-0.025223106
174	0x3ca3a66f	0.019976823
175	0xbc1a3b99	-0.009413623
176	0xbd89e322	-0.06732775
177	0x3d97fb79	0.074210115
178	0x3c9ad6c0	0.018901229
179	0xbd3b9d2e	-0.045804195
180	0xbc123010	-0.008922592
181	0x3de6bbfb	0.11266323
182	0x3d401f23	0.046904694
183	0xbd941e12	-0.07232298
184	0xbd2a7b97	-0.04162177
185	0xbc468ce0	-0.012118548
186	0xbd85a588	-0.06525713
187	0x3c6a564d	0.014302802
188	0xbd8aacbe	-0.06771229
189	0x3d5de8a2	0.054176934
190	0xbca3e950	-0.020008713
191	0xbdcb466e	-0.09925543
192	0xbd45daf3	-0.04830451
193	0x3ccfef51	0.02538267
194	0x3d347968	0.044061095
195	0x3c5dc964	0.013536785
196	0xbbcf1742	-0.006319911
197	0x3cbb72ac	0.022881828
198	0xbcc673ae	-0.024225082
199	0x3ce35e28	0.027754858
200	0xbcb2af3a	-0.02181207
201	0xbd254bdb	-0.040355545
202	0xbc8611c4	-0.016365893
203	0x3c746d20	0.014918596
204	0xbd8f487d	-0.06996248
205	0x3cb45498	0.022012994
206	0xbd2014a3	-0.03908218
207	0x3d85d4cb	0.06534728
208	0xbc0b55b7	-0.008504323
209	0xbc729c52	-0.0148077775
210	0xbd56c64d	-0.052435208
211	0x3d8a3b72	0.067496195
212	0x3d0a594c	0.033776566
213	0xbd01b35c	-0.03166519
214	0xbc9f24ea	-0.019426782
215	0xbaeb2030	-0.001793867
216	0xbd11776b	-0.035514276
217	0xbda242a3	-0.07922866
218	0xbd94559d	-0.07242892
219	0x3cf86cdd	0.030325348
220	0xbc0849e0	-0.008318394
221	0x3d3cccee	0.046093874
222	0xbcdd5cb9	-0.027021753
223	0xbdaba20c	-0.08380517
224	0xbd459d15	-0.04824551
225	0xbd927055	-0.07150332
226	0x3d4adeba	0.049528815
227	0x3c3f4488	0.011674054
228	0xbd3e73b0	-0.046497047
229	0x3cd01b58	0.025403664
230	0x3d8aa4cf	0.06769716
231	0x3d06f38e	0.032947116
232	0xbc3318a0	-0.010931164
233	0x3c65b0a8	0.014019169
234	0xbd75a19a	-0.05996857
235	0x3d32d75a	0.043662407
236	0x3de6edf9	0.112758584
237	0xbbff2602	-0.0077865133
238	0x3d1348f2	0.035958238
239	0x3d1ff7d2	0.0390547
240	0x3b945329	0.004526515
241	0x3d4e62be	0.050387137
242	0xbdd1acc6	-0.10238032
243	0xbd5b93ec	-0.053607866
244	0x3c6024c8	0.013680644
245	0x3d886e81	0.06661702
246	0xbda63a54	-0.08116594
247	0x3d5e84a5	0.05432572
248	0xbcc59eff	-0.024123667
249	0xbd8d61c5	-0.06903414
250	0x3d73af3d	0.059493292
251	0x3dcd939e	0.10037921
252	0x3e2a9599	0.1665863
253	0xbdb10169	-0.08642847
254	0x3dac5d98	0.08416289
255	0x3d33c197	0.043885794

fc2.bias f4 [128]
0	0x3d4a6a10	0.049417555
1	0x3d6d23eb	0.057895582
2	0x3d0a91e3	0.033830535
3	0x3d95f873	0.073227786
4	0x3d411773	0.047141504
5	0x3db5924d	0.08865795
6	0x3e1d1d19	0.15343131
7	0x3de2529f	0.11050915
8	0xbd190f4f	-0.037368115
9	0x3dc53b49	0.09630448
10	0xbd5c330a	-0.053759612
11	0xbc040179	-0.008056992
12	0x3e10c4a3	0.14137511
13	0x3d2d9928	0.04238239
14	0xbdcfd5a2	-0.10148169
15	0x3da1d619	0.07902164
16	0x3d808fdb	0.06277438
17	0x3dcb298c	0.09920034
18	0x3dbb4adc	0.09145138
19	0x3a74d746	0.00093399396
20	0xbd00234d	-0.031283665
21	0x3dacb214	0.08432403
22	0x3dda5592	0.106608525
23	0x3e4b4e4f	0.19854091
24	0x3e083639	0.13301934
25	0x3cef412b	0.02920588
26	0x3dd58091	0.10424913
27	0x3e0cbd0c	0.1374399
28	0x3bb01d7f	0.00537461
29	0x3c1d307b	0.009594078
30	0x3d956362	0.072943464
31	0x3d5bade3	0.05363263
32	0x3e2f0c64	0.1709457
33	0xbdb8e90b	-0.090288244
34	0x3e3f4407	0.18678294
35	0x3c8731d7	0.016503258
36	0x3ce3ea17	0.027821584
37	0x3e327d4a	0.17430606
38	0xbd836a67	-0.06416779
39	0xbcac496a	-0.0210311
40	0x3d3f7743	0.046744596
41	0x3ba693a9	0.0050835204
42	0xbc9b411d	-0.018951947
43	0x3c88664d	0.016650343
44	0x3e2544e9	0.16139568
45	0x3deb1c6f	0.11480033
46	0x3d47e88f	0.04880577
47	0x3c77375e	0.015088884
48	0xbe06fcaa	-0.13182321
49	0x3cda92d1	0.026681336
50	0x3de30298	0.11084479
51	0x3d51f454	0.0512584
52	0x3cfcc433	0.030855274
53	0x3bda2b5d	0.0066580013
54	0x3e35b57d	0.17745014
55	0x3dc28f43	0.09499981
56	0x3c05286c	0.008127313
57	0x3da7eeae	0.081998214
58	0xbcf566d5	-0.02995626
59	0x3d1affde	0.03784167
60	0x3c21229b	0.009834911
61	0xbd412a85	-0.04715969
62	0x3e31f064	0.17376858
63	0xbcccba5b	-0.024991205
64	0xbba8d44a	-0.00515226
65	0xbd8a6ad8	-0.0675866
66	0xbd0e0edf	-0.03468215
67	0x3d9222e1	0.07135559
68	0x3dbfe846	0.093704745
69	0x3de35bb1	0.11101473
70	0x3db05fe2	0.08612038
71	0x3d96c6a8	0.073621094
72	0xbd6d9184	-0.058000103
73	0x3dc2913f	0.0950036
74	0x3c331aaf	0.010931655
75	0x3d00c90f	0.031441744
76	0x3cdaecb2	0.026724193
77	0x3d60c0f7	0.054871526
78	0xbe0d68e5	-0.13809545
79	0xbc221b51	-0.009894208
80	0x3d1ecb8b	0.038768332
81	0x3d266168	0.040620238
82	0x3e33e502	0.17567828
83	0x3c957180	0.018242598
84	0x3d3c6405	0.045993824
85	0x3c02c1be	0.007980762
86	0xbd17accc	-0.037030026
87	0x3ded2f5a	0.11581297
88	0xbe252620	-0.16127825
89	0x3e2bb598	0.16768491
90	0x3ded3441	0.11582232
91	0x3e26783f	0.16256808
92	0x3ceb8324	0.028749056
93	0x3c7a11f6	0.015263071
94	0x3cf6c875	0.030124882
95	0x3e1b3d5c	0.15160125
96	0x3d31d397	0.04341468
97	0x3c82d5b0	0.015971035
98	0x3d18900f	0.03724676
99	0x3defe057	0.11712711
100	0xbbc3ffa5	-0.005981403
101	0x3cd41674	0.025889613
102	0x3c57a4b9	0.013161832
103	0x3d6a27ce	0.057166867
104	0x3dbbdb9c	0.091727465
105	0x3e36572d	0.17806692
106	0x3c9c5d5d	0.019087488
107	0x3c8e9785	0.017406235
108	0x3e3ef0f9	0.18646611
109	0x3e189aec	0.14902848
110	0xbcd499cb	-0.02595224
111	0xbd30df3f	-0.043181654
112	0xbda9fb63	-0.08299901
113	0x3e28e0ec	0.16492051
114	0x3da4f10a	0.08053787
115	0x3e3f4399	0.1867813
116	0x3e20e08e	0.15710661
117	0x3d4e7fee	0.050414972
118	0x3e800340	0.2500248
119	0x3dfa147c	0.12210938
120	0x3e0e33f3	0.13887005
121	0x3c80bd21	0.015715184
122	0x3e0e299e	0.13883063
123	0xbdbb1980	-0.09135723
124	0x3e87208b	0.26392016
125	0x3dd11749	0.102095194
126	0xbd030594	-0.03198774
127	0xbd0d4f1f	-0.034499284

fc3.weight f4 [128, 128]
0	0x3a19da2e	0.0005868998
1	0xbce520ec	-0.0279698
2	0xbe07a2d1	-0.13245703
3	0xbd1d63f1	-0.03842539
4	0xbbe960c7	-0.0071221325
5	0x3d4457e8	0.047935396
6	0x3ce4cf42	0.02793086
7	0xbd230502	-0.039799698
8	0x3dc82680	0.09772968
9	0xbd646f1e	-0.055770032
10	0xbdcf686f	-0.10127341
11	0x3c966e56	0.01836316
12	0x3c4e7e0b	0.012603293
13	0x3cff351f	0.03115326
14	0x3d7ae161	0.061250094
15	0x3b02e926	0.0019975393
16	0xbcc0e540	-0.023546815
17	0xbd86157e	-0.06547068
18	0x3cab5186	0.020912897
19	0x3cd423a7	0.025895907
20	0x3d549613	0.051900934
21	0xbd0fe096	-0.03512629
22	0xbd3901c4	-0.0451677
23	0xbca4ea9a	-0.020131398
24	0xbda82e44	-0.082119495
25	0xbd985401	-0.074378975
26	0xbda70532	-0.08155288
27	0x3b797c3d	0.0038068437
28	0xbc631c23	-0.013861689
29	0x3bde7cbf	0.0067897732
30	0xbd2eb458	-0.042652458
31	0x3b87e00c	0.0041465815
32	0xbba6809b	-0.005081249
33	0xbd896da8	-0.067103684
34	0x3d18efaf	0.037337955
35	0x3e022e4c	0.12712973
36	0x3c295698	0.010335587
37	0xbdbe0976	-0.09279148
38	0xbd6ac81f	-0.057319757
39	0xbbff5877	-0.0077925283
40	0xbd8810a0	-0.06643796
41	0xbd31de87	-0.04342511
42	0x3dddd972	0.1083249
43	0xbdb295b4	-0.0871996
44	0xbd7eb4a4	-0.06218399
45	0xbd693183	-0.056931984
46	0xbca7a37c	-0.020463698
47	0x3da38ce4	0.07985857
48	0xbd744614	-0.059637144
49	0x3d9371cf	0.07199442
50	0x3d208ab1	0.039194766
51	0x3dcb073b	0.099134885
52	0x3c9e1fb7	0.019302232
53	0xbd8c5382	-0.06851865
54	0xbd34ce8e	-0.0441423
55	0xbd70602d	-0.05868547
56	0xbd012df7	-0.031537976
57	0xba93a6e4	-0.0011264947
58	0x3dd9d517	0.10636347
59	0xbe065387	-0.131178
60	0x3dcb3000	0.09921265
61	0x3c60bfa4	0.013717566
62	0xbc82dbc8	-0.01597394
63	0x3d3b16fa	0.04567621
64	0x3c93cfdf	0.018043457
65	0x3dcd32c4	0.100194484
66	0xbd0999de	-0.033594005
67	0x3c579e80	0.013160348
68	0x3cc01586	0.023447763
69	0xbd438f9e	-0.047744386
70	0xbd06061a	-0.032720663
71	0x3ccbb422	0.024866167
72	0x3d9c4f7d	0.07632349
73	0x3c9d4f89	0.019202964
74	0x3d351188	0.044206172
75	0x3d0cd0a7	0.034378674
76	0xbd386c8e	-0.0450254
77	0xbd909fee	-0.07061754
78	0x3c09869a	0.008393908
79	0x3c60934b	0.013706992
80	0xbddb07fd	-0.10694883
81	0x3c1781a1	0.0092472145
82	0xbc0a9dda	-0.008460486
83	0x3e3d3309	0.184765
84	0xbdcb450f	-0.09925281
85	0x3e190bfe	0.14945981
86	0x3dca08b2	0.0986494
87	0xbda3862c	-0.07984576
88	0x3da6eb7f	0.08150386
89	0xbd50a124	-0.050934926
90	0x3c4dbfb6	0.0125579145
91	0x3c58ac8f	0.013224735
92	0x3c646060	0.013938993
93	0x3d768f66	0.06019535
94	0x3d8a4a7a	0.067524865
95	0xbcb348d4	-0.021885313
96	0x3c03b892	0.00803961
97	0x3d096c3b	0.033550482
98	0xbd8ac003	-0.067749046
99	0x3e10201f	0.14074753
100	0x3b5e9575	0.0033963595
101	0x3d619124	0.055070058
102	0x3d00295b	0.03128944
103	0xbd782e02	-0.06059075
104	0xbcaa5dc8	-0.020796672
105	0xbd19922e	-0.037492923
106	0xbce715c8	-0.028208628
107	0x3daa3edd	0.083127715
108	0x3bc6e88c	0.006070202
109	0x3d59b4fe	0.053151123
110	0x3d8e50a6	0.06948976
111	0xbcbc796a	-0.023007113
112	0xbc5454ef	-0.012959703
113	0xbccee615	-0.025256196
114	0xbda489ad	-0.08034072
115	0xbd5d5cc6	-0.054043554
116	0x3c633fe5	0.013870214
117	0x3da3f057	0.080048256
118	0xbd68b3ce	-0.0568121
119	0xbda7fc4b	-0.08202418
120	0xbddac27e	-0.10681628
121	0xbd9b7521	-0.075907
122	0xbbe37cab	-0.006942352
123	0xbd72805e	-0.05920445
124	0x3d3c00bd	0.04589914
125	0x3c6894a1	0.014195592
126	0xbd87c62c	-0.06629595
127	0x3d90de00	0.07073593
128	0xbc0152f8	-0.007893316
129	0x3dc7cd5b	0.09755965
130	0x3bab98dc	0.005236728
131	0x3ddb6fb0	0.10714662
132	0x3d44b194	0.048020914
133	0x3daf0a36	0.085468695
134	0x3dd9f288	0.10641962
135	0x3e0fd13a	0.14044657
136	0xbcef9f85	-0.02925087
137	0x3dc04691	0.093884595
138	0xbcaa5dc7	-0.02079667
139	0x3c861072	0.016365264
140	0x3d4ccd61	0.050000552
141	0x3d95ada7	0.07308512
142	0x3d06c022	0.032898076
143	0xbcd0b3ba	-0.025476325
144	0x3b5b1f00	0.0033435225
145	0x3daa9062	0.0832832
146	0xbb99f9ad	-0.004698953
147	0x3dc24e04	0.094875365
148	0xbd810c71	-0.06301201
149	0x3dd80dd3	0.10549512
150	0x3d6318cf	0.05544358
151	0x3d8f50fb	0.06997868
152	0x3d86168f	0.065472715
153	0xbd7e023f	-0.06201386
154	0xbcd5bca1	-0.026090922
155	0x3e002eec	0.125179
156	0xbdf3b459	-0.11899633
157	0x3c840cb1	0.016119333
158	0x3d73db80	0.059535503
159	0x3ccaf1a0	0.024773419
160	0x3d968466	0.07349472
161	0x3e14813c	0.14502424
162	0x3d0718d1	0.03298265
163	0x3dddd14f	0.10830938
164	0x3c1ede4d	0.009696555
165	0xbcc78de1	-0.024359645
166	0xbd47de3b	-0.04879592
167	0xbdb34c97	-0.08754843
168	0x3dbe5359	0.09293241
169	0xbe043726	-0.12911662
170	0xbdd32fca	-0.103118494
171	0xbc76d9db	-0.015066589
172	0x3d86bdaa	0.06579144
173	0x3d76be19	0.060239885
174	0x3cb65910	0.022259265
175	0xbd8f8502	-0.07007791
176	0x3d633bd6	0.055476986
177	0xbcb734af	-0.022363989
178	0xbcfa42f4	-0.030549504
179	0x3d48c075	0.049011666
180	0xbbc3ed7c	-0.005979238
181	0x3d82b475	0.06382076
182	0xbc401406	-0.011723524
183	0x3d93719d	0.071994044
184	0x3d8c4ed3	0.06850972
185	0xbd8a1a8d	-0.067433454
186	0xbdd495b8	-0.10380119
187	0x3d007dcd	0.031369973
188	0xbd9db352	-0.07700218
189	0xbdd19b47	-0.10234695
190	0x3d3e85fa	0.04651449
191	0xbd2cc84d	-0.04218321
192	0x3d9ff626	0.07810621
193	0xbda25ae3	-0.079274915
194	0xbbb3546d	-0.005472711
195	0x3dac89af	0.084246986
196	0x3d31bc53	0.04339249
197	0x3ddea672	0.10871591
198	0x3da74b36	0.08168642
199	0x3d9c00cf	0.07617342
200	0x3d67523c	0.05647491
201	0x3c9828d7	0.018574161
202	0xbbcb6b11	-0.0062078317
203	0x3cd1b55b	0.025599172
204	0xbdb65966	-0.0890377
205	0x3df79530	0.12089002
206	0x3c7c7d58	0.015410744
207	0xbd8f663a	-0.0700192
208	0x3e0780b7	0.13232695
209	0xbd01aac9	-0.031657014
210	0x3dcc2bfd	0.099693276
211	0xbcc053f7	-0.023477538
212	0x3d44e9bd	0.048074473
213	0x3d5e447f	0.05426454
214	0xbdc6dcee	-0.09710108
215	0x3dbe50ea	0.09292777
216	0x3bf8424a	0.0075762616
217	0xbd133c36	-0.035946093
218	0x3bbf7351	0.005842604
219	0xbd997644	-0.074932605
220	0x3c8b8b67	0.017034246
221	0xbd09641e	-0.033542745
222	0xbd1037a5	-0.035209317
223	0x3d46f283	0.04857112
224	0x3db2aa96	0.08723943
225	0xbd9f4397	-0.077765636
226	0x3d93e123	0.07220676
227	0x3d57a2cd	0.052645493
228	0xbc8b8ce0	-0.017034948
229	0xbd1a17c2	-0.037620313
230	0x3d157e04	0.03649713
231	0x3e1578cd	0.14596863
232	0xbb9761c7	-0.0046198103
233	0x3d9de73e	0.077101216
234	0xbcf057f8	-0.029338822
235	0x3d72fdb2	0.059323974
236	0x3cee6e1f	0.029105244
237	0xbcc59524	-0.024118967
238	0xbda5a0aa	-0.08087285
239	0xbd1681b0	-0.036744773
240	0x3d82adf0	0.06380832
241	0x3c76be9e	0.015060095
242	0x3d6c4078	0.05767867
243	0xbc265018	-0.010150932
244	0x3d47809c	0.048706636
245	0xbd1fefd0	-0.039047062
246	0xbdf9417c	-0.12170693
247	0xbc379b3a	-0.0112064425
248	0x3cbd7733	0.023128128
249	0xbda0706c	-0.07833943
250	0x3d177740	0.03697896
251	0xbdaeb96e	-0.08531462
252	0x3cb22bfc	0.021749489
253	0x3d96df6f	0.07366835
254	0xbdf2d7f3	-0.11857595
255	0xbe04f83b	-0.12985317
