models/dqn_model_epoch_92000.pth (torch, 595624 bytes, 14 tensors)

cnn1.weight f4 [16, 4, 5, 5]
-0.19471392 0.04380789 -0.024540298 -0.19688323 -0.14293084 -0.19872382 -0.19391492 -0.28981775
-0.034815267 -0.056964908 -0.27288476 -0.16040105 -0.3798539 -0.14636536 0.03628504 -0.16614422
-0.21354936 -0.039996665 -0.25623095 0.012040188 -0.20993508 -0.25317857 -0.18861331 0.06668247
0.025907855 -0.014615413 -0.033979584 -0.094649985 -0.14069574 0.027750649 0.06440762 -0.027148586
0.025473978 -0.066731155 -0.07192968 -0.04712296 -0.13807042 0.016355366 0.13402562 -0.028364835
-0.10351045 0.020402117 -0.084780514 0.019883735 -0.1289066 -0.031758428 0.075012974 -0.041565157
-0.06684287 -0.08712567 0.08298438 -0.010232873 -0.13190563 -0.20574729 -0.025921904 -0.024361704
-0.08746176 0.1800349 0.049563102 -0.15425403 0.22887367 0.23044007 0.12935235 0.029505193
-0.2103752 -0.2827767 0.15990621 0.28433916 -0.13081077 -0.16662787 -0.16016933 -0.01608598
0.3192378 -0.13170071 -0.15254521 -0.09354025 -0.24447119 -0.09009966 -0.0051199957 -0.06630878
-0.041843925 0.11018724 0.14871842 -0.09420886 0.033664033 -0.16302626 0.07331259 0.080647886
-0.09355052 -0.08246238 -0.12846684 -0.005288596 0.074530296 -0.024515688 -0.1185264 0.09033549
0.1170968 -0.18209143 -0.07009537 -0.059834912 -0.118623845 -0.26090306 -0.17691992 0.03402715
-0.22612764 -0.12623002 -0.081932575 -0.0068236925 0.00036489702 0.005311164 -0.13678043 -0.049782187
0.018067347 -0.063405 -0.060739506 -0.1557078 -0.22647938 -0.17568973 -0.37019864 -0.05813115
-0.2578676 -0.22136799 -0.096395984 -0.06820524 -0.12491592 -0.047711056 0.083420254 -0.05958062
0.03517122 -0.13151105 -0.016558792 -0.0385799 -0.11002166 0.022930836 -0.0029881103 -0.02028153
-0.05024058 -0.14270267 -0.04859998 -0.025728429 -0.13629596 -0.02493588 0.05109317 -0.04895873
-0.1066837 -0.002436285 0.032641746 -0.06863371 0.10359259 -0.113590136 -0.19028814 0.16948636
-0.05450984 0.1509735 -0.14779395 -0.18645772 0.17769806 -0.20418927 0.081888765 -0.15702397
-0.27318177 -0.25036457 0.087333895 0.096740864 -0.2103465 -0.2463731 -0.1374721 0.25737718
-0.1890627 -0.23325515 0.38943306 0.29685888 0.41425654 -0.05637029 -0.16550994 0.20710196
0.13342203 0.23725553 -0.017288 -0.0822677 0.11700492 -0.11959464 0.15209587 -0.12916552
-0.10975695 -0.16455486 0.09263952 0.0631451 -0.0811928 -0.15312056 -0.16714093 -0.02875428
-0.083874255 -0.12516043 -0.040349253 -0.13478188 -0.11802027 0.18489787 -0.1280727 -0.1392238
-0.29887724 -0.0748343 -0.3448805 0.04851228 -0.18169178 -0.22287717 -0.15492846 -0.19040011
0.03867955 0.0047602723 -0.24241608 -0.2185071 -0.122495845 0.028942196 0.17715535 -0.24853852
-0.22890702 -0.2898774 -0.15787682 0.13426995 -0.24367015 -0.13000664 -0.23907378 0.052262258
-0.06510674 -0.13001373 -0.011721748 -0.13948403 -0.083514266 -0.03679695 -0.0039966754 -0.021896474
0.062891215 -0.090948924 0.028502662 -0.01816456 0.024862958 -0.012495811 -0.101420745 -0.0038279407
-0.0034763936 -0.086212344 0.010251517 0.18369159 -0.0077180634 -0.08636979 -0.15180571 -0.05599108
0.091501616 -0.01167407 0.074989825 0.030809587 0.050822876 -0.39685062 -0.060948804 0.024331393
00000000: 1663 47be e76f 333d bc08 c9bc c29b 49be
00000010: 765c 12be 427e 4bbe a291 46be fe62 94be
00000020: 749a 0ebd 0954 69bd 8db7 8bbe 2c40 24be
00000030: 367c c2be cde0 15be 9f9f 143d b621 2abe
00000040: afac 5abe 8bd3 23bd b430 83be 3544 453c
00000050: 39f9 56be 9fa0 81be d923 41be d290 883d
00000060: b63c d43c 7c75 6fbc 2d2e 0bbd dad7 c1bd
00000070: 8b12 10be 5455 e33c 24e8 833d b666 debc
00000080: ceae d03c 58aa 88bd de4f 93bd 0104 41bd
00000090: 5562 0dbe b0fb 853c 033e 093e 5f5d e8bc
000000a0: 49fd d3bd 5722 a73c 68a1 adbd 37e3 a23c
000000b0: 1700 04be 2015 02bd 67a0 993d 3a40 2abd
000000c0: eae4 88bd f16e b2bd b7f3 a93d c8a7 27bc
000000d0: 4512 07be 6baf 52be 2c5a d4bc 3292 c7bc
000000e0: 271f b3bd 125b 383e ae02 4b3d c5f4 1dbe
000000f0: dc5d 6a3e 7bf8 6b3e f174 043e e0b4 f13c
00000100: 996c 57be 1cc8 90be 74be 233e e794 913e
00000110: 42f3 05be 7fa0 2abe 6e03 24be bfc6 83bc
00000120: 2373 a33e 8ddc 06be d034 1cbe 0892 bfbd
00000130: a856 7abe 2c86 b8bd a3c5 a7bb e6cc 87bd
00000140: 8964 2bbd d9a9 e13d a449 183e 93f0 c0bd
00000150: 4ce3 093d 5bf0 26be e924 963d b82a a53d
00000160: 6a97 bfbd 09e2 a8bd d08c 03be f54b adbb
00000170: 57a3 983d 20d5 c8bc f8bd f2bd d001 b93d
00000180: 72d0 ef3d 2d76 3abe 298e 8fbd 7415 75bd
00000190: 0ff1 f2bd 1695 85be 7f2a 35be 0e60 0b3d
000001a0: 018e 67be 7142 01be 44cc a7bd 4899 dfbb
000001b0: a64f bf39 4609 ae3b 2b10 0cbe 68e8 4bbd
000001c0: f901 943c 7bda 81bd fdc9 78bd de71 1fbe
000001d0: 36ea 67be 02e8 33be ad8a bdbe ee1a 6ebd
000001e0: 3907 84be 4aae 62be 426b c5bd 30af 8bbd
000001f0: ebd3 ffbd ab6c 43bd 3dd8 aa3d cf0a 74bd
00000200: b20f 103d d5aa 06be 4ea6 87bc f505 1ebd
00000210: 0953 e1bd 73d9 bb3c 2cd4 43bb 7425 a6bc
00000220: 11c9 4dbd a620 12be c610 47bd 6dc4 d2bc
00000230: 2b91 0bbe 5546 ccbc 1247 513d f388 48bd
00000240: fc7c dabd 14aa 1fbb 5ab3 053d d58f 8cbd
00000250: 5a28 d43d f2a1 e8bd e5da 42be d58d 2d3e
00000260: b645 5fbd cc98 1a3e 4c57 17be c6ee 3ebe
00000270: 7bf6 353e fe16 51be 4cb5 a73d e4ca 20be
00000280: 7bde 8bbe c92f 80be 1ddc b23d 1320 c63d
00000290: 1365 57be 3b49 7cbe 7cc5 0cbe f1c6 833e
000002a0: a799 41be 70da 6ebe c563 c73e e3fd 973e
000002b0: 6f19 d43e 89e4 66bd 707b 29be 8912 543e
000002c0: c99f 083e 1df3 723e 909f 8dbc f87b a8bd
000002d0: 47a0 ef3d 09ee f4bd 05bf 1b3e f743 04be
000002e0: 40c8 e0bd 1281 28be cab9 bd3d 3852 813d
000002f0: 6948 a6bd a3cb 1cbe fe26 2bbe 198e ebbc
00000300: 44c6 abbd 0e2a 00be 4245 25bd 4304 0abe
00000310: 9cb4 f1bd de55 3d3e 7d25 03be af90 0ebe
00000320: 7006 99be ba42 99bd 2d94 b0be d0b4 463d
00000330: 690d 3abe ea39 64be 91a5 1ebe 3ff8 42be
00000340: 736e 1e3d 0ffc 9b3b ec3b 78be 53c0 5fbe
00000350: 1adf fabd 2f18 ed3c 3668 353e e280 7ebe
00000360: 9a66 6abe d06a 94be 76aa 21be 107e 093e
00000370: ab84 79be 7620 05be c2cf 74be f310 563d
00000380: af56 85bd 5222 05be 930c 40bc e7d4 0ebe
00000390: 8709 abbd 66b8 16bd 8bf6 82bb 3c60 b3bc
000003a0: 1ccd 803d 6e43 babd 6a7e e93c d8cd 94bc
000003b0: 67ad cb3c 3bbb 4cbc aeb5 cfbd 30de 7abb
000003c0: 35d4 63bb 1990 b0bd fbf5 273c a619 3c3e
000003d0: cfe7 fcbb a5e2 b0bd f572 1bbe e756 65bd
000003e0: 3365 bb3d 9944 3fbc 4494 993d 6364 fc3c
000003f0: a62b 503d 0130 cbbe 74a5 79bd a152 c73c

cnn1.bias f4 [16]
0.05510348 -0.050240394 -0.06945772 -0.074181765 0.035628714 -0.072361544 -0.07227768 -0.0019371448
0.016557395 -0.12192917 -0.029373683 -0.07403546 -0.014774189 -0.0884496 0.024777627 -0.077643365
00000000: 30b4 613d dfc8 4dbd d93f 8ebd 9cec 97bd
00000010: 6aef 113d 4a32 94bd 5206 94bd cbe7 fdba
00000020: 60a3 873c 00b6 f9bd 14a1 f0bc e79f 97bd
00000030: 710f 72bc 1025 b5bd 73fa ca3c 7c03 9fbd

cnn2.weight f4 [32, 16, 3, 3]
0.02707138 0.057708208 0.10400786 0.1608446 -0.019091185 -0.041679613 0.075290665 0.0171444
-0.05082592 0.17092913 -0.09831574 0.041600466 0.13549685 -0.07226671 0.12111576 0.15279146
-0.057345435 -0.069693364 -0.011275992 -0.027254982 -0.0012959068 -0.0144404 0.0063446816 -0.051524896
-0.058658324 0.015659641 -0.056185115 0.10432157 -0.07987662 0.017880768 0.1690544 0.03739208
-0.031057226 0.11209495 0.06109591 -0.087891586 0.06480259 -0.019089937 -0.019312436 0.11039239
0.017027756 0.06922436 0.09107565 0.02936092 0.090239994 0.095023066 0.06411068 0.06767436
0.12553051 0.06352481 0.026808448 -0.01341176 0.017151225 0.035973944 -0.05446028 0.0346357
0.07608874 0.011476411 0.033505563 0.068852626 0.044707682 0.03549282 0.10337992 0.05682072
-0.08300895 0.04857712 0.050427325 -0.044093296 0.100521475 -0.024668505 -0.036447633 0.0088132685
0.05779862 -0.014982232 -0.055225797 0.11282868 0.093404725 0.084978834 0.050798662 0.04647643
0.053357814 0.06902877 0.07856384 0.11751804 0.052571837 0.050022695 0.027811926 0.06854026
-0.036615595 0.046048827 0.045923937 -0.016573025 -0.011943616 0.016765574 0.000807512 -0.08121048
0.00264689 -0.0016648729 -0.0025341888 0.020056928 -0.039614238 0.037008766 0.08643992 0.08991496
-0.051607624 0.101024486 0.050467435 0.089988224 -0.08166151 -0.11814159 -0.01892684 -0.0022389204
0.046742067 -0.012612033 0.050760396 -0.054146506 -0.0026615767 -0.03678929 -0.057929542 0.023108728
0.045777153 -0.06450169 -0.06580924 -0.037329625 -0.078597166 -0.03205614 0.10741956 -0.025048494
0.085535444 0.18355511 0.064276576 0.07275576 0.15434147 -0.0006506309 0.09577134 0.022512792
-0.05896186 -0.0010655867 0.06298731 -0.038197275 0.011415692 0.03894719 -0.05073431 -0.09735606
-0.053283386 0.03410598 0.028368898 0.1584082 0.004825085 -0.029051067 0.0144064035 0.033064153
-0.011640386 0.0052252808 0.11535835 -0.036626685 0.1306579 0.009902959 -0.004353156 0.07373183
0.12249721 -0.09400255 0.009523704 -0.070731044 -0.04489794 -0.08740189 -0.11924198 -0.09114333
-0.05130521 -0.1325776 -0.111956395 0.120854035 0.11678465 -0.026220614 0.15884179 -0.00072066754
0.022889828 0.118100606 0.07057229 -0.071695976 0.025823468 0.055248335 0.033679366 0.06633694
0.17604956 0.0063255527 0.09388104 0.058447093 0.033677198 0.19518901 0.0012467597 0.03112684
0.14353146 0.0098244045 0.0066057784 -0.05781383 0.044431277 -0.13841407 -0.0018352898 -0.01853463
-0.009537862 0.12229083 0.101417094 0.030044131 0.1738011 -0.053973515 0.10743192 0.011141414
0.044778366 -0.034555268 -0.043261927 -0.0585926 -0.017323732 -0.04509499 -0.09059857 -0.021604756
0.15400289 0.025375798 -0.0009211154 0.16564699 -0.016901901 -0.013460718 0.18423003 0.04741492
0.034185905 0.1504792 0.08779486 0.020998076 0.003055981 0.0886755 0.15738982 0.08614789
-0.035101388 0.035678856 0.026364047 0.08806649 0.0005880367 0.04593356 -0.008166948 -0.07044773
-0.052870825 -0.051253326 -0.12258614 0.1186041 0.049416687 -0.100682646 0.0673444 0.053835288
-0.007382658 0.10952817 0.074775234 0.025092535 0.019204235 -0.024075786 -0.07587647 0.115892544
00000000: ccc4 dd3c 715f 6c3d 1302 d53d 72b4 243e
00000010: 1e65 9cbc 3eb8 2abd fe31 9a3d 6a72 8c3c
00000020: d72e 50bd 0c08 2f3e c359 c9bd 4065 2a3d
00000030: b0bf 0a3e 9200 94bd 8a0b f83d 5d75 1c3e
00000040: 0ce3 6abd 65bb 8ebd f0be 38bc d745 dfbc
00000050: 6bdb a9ba 6d97 6cbc 0ce7 cf3b c50b 53bd
00000060: b643 70bd a648 803c 5d22 66bd 8ca6 d53d
00000070: 5a96 a3bd b07a 923c 991c 2d3e 7028 193d
00000080: b96b febc 0a92 e53d b43f 7a3d 8100 b4bd
00000090: 38b7 843d 8062 9cbc 1d35 9ebc 6815 e23d
000000a0: cb7d 8b3c 80c5 8d3d df85 ba3d 5086 f03c
000000b0: bfcf b83d 749b c23d 764c 833d db98 8a3d
000000c0: 128b 003e 4c19 823d 649d db3c 00bd 5bbc
000000d0: ba80 8c3c 6a59 133d be11 5fbd 2ade 0d3d
000000e0: 6ad4 9b3d 8e07 3c3c 213d 093d 9b02 8d3d
000000f0: 671f 373d eb60 113d dab8 d33d d8bc 683d
00000100: 9900 aabd cdf8 463d e28c 4e3d 2c9b 34bd
00000110: 34de cd3d 9b15 cabc 1d4a 15bd 8765 103c
00000120: 3fbe 6c3d 0978 75bc 7234 62bd b912 e73d
00000130: fa4a bf3d 6209 ae3d 4212 503d 125e 3e3d
00000140: b98d 5a3d f55e 8d3d 14e6 a03d 4cad f03d
00000150: 9155 573d 99e4 4c3d d6d5 e33c d65e 8c3d
00000160: 3cfa 15bd b29d 3c3d bd1a 3c3d 27c4 87bc
00000170: 28af 43bc f557 893c 37af 533a ae51 a6bd
00000180: 7277 2d3b dd37 daba a214 26bb 6d4e a43c
00000190: 8a42 22bd 8196 173d 6a07 b13d 5625 b83d
000001a0: 8462 53bd ede5 ce3d f1b6 4e3d bf4b b83d
000001b0: 263e a7bd 38f4 f1bd 760c 9bbc daba 12bb
000001c0: 9c74 3f3d b3a2 4ebc 22ea 4f3d bac8 5dbd
000001d0: d96d 2ebb 5eb0 16bd 8747 6dbd 844e bd3c
000001e0: d380 3b3d 7619 84bd ffc6 86bd f3e6 18bd
000001f0: 8df7 a0bd 4d4d 03bd c9fe db3d 8032 cdbc
00000200: 352d af3d dff5 3b3e 70a3 833d f900 953d
00000210: b10b 1e3e 1a8f 2aba c423 c43d bf6c b83c
00000220: fe81 71bd 28ab 8bba 7eff 803d bf74 1cbd
00000230: e208 3b3c 1787 1f3d c8ce 4fbd 9d62 c7bd
00000240: ae3f 5abd b6b2 0b3d e465 e83c c235 223e
00000250: bf1b 9e3b 81fc edbc d608 6c3c 476e 073d
00000260: 51b7 3ebc d538 ab3b 0041 ec3d dd05 16bd
00000270: 2fcb 053e 0540 223c eba4 8ebb b700 973d
00000280: d1df fa3d 6984 c0bd 4f09 1c3c 70db 90bd
00000290: e7e6 37bd c3ff b2bd 2435 f4bd 5ba9 babd
000002a0: 6925 52bd 6cc2 07be 6549 e5bd 5282 f73d
000002b0: ca2c ef3d 9dcc d6bc 6ca7 223e 2eeb 3cba
000002c0: 7383 bb3c bbde f13d 3488 903d 57d5 92bd
000002d0: bd8b d33c 144c 623d 60f3 093d a9db 873d
000002e0: 5646 343e 9546 cf3b b444 c03d 3866 6f3d
000002f0: 1af1 093d a1df 473e 506a a33a b7fd fe3c
00000300: e9f9 123e 8af6 203c 4975 d83b 32ce 6cbd
00000310: 92fd 353d 6bbc 0dbe 1b8e f0ba f0d5 97bc
00000320: b144 1cbc 9d73 fa3d c4b3 cf3d 1c1f f63c
00000330: eaf8 313e 5513 5dbd 4405 dc3d 7a8a 363c
00000340: 8569 373d d389 0dbd 6b33 31bd cbfe 6fbd
00000350: 80ea 8dbc 86b5 38bd be8b b9bd 75fc b0bc
00000360: efb2 1d3e e8e0 cf3c 0277 71ba 5d9f 293e
00000370: db75 8abc 588a 5cbc cca6 3c3e 2636 423d
00000380: 8506 0c3d 3817 1a3e cbcd b33d 2804 ac3c
00000390: da46 483b 809b b53d cc2a 213e 4e6e b03d
000003a0: 79c6 0fbd fe23 123d 6af9 d73c 345c b43d
000003b0: 7a26 1a3a d424 3c3d aace 05bc e646 90bd
000003c0: 148f 58bd 02ef 51bd 710e fbbd b5e6 f23d
000003d0: 2769 4a3d b432 cebd dceb 893d 6482 5c3d
000003e0: 39ea f1bb 4e50 e03d c223 993d dc8e cd3c
000003f0: 3352 9d3c 953a c5bc 1f65 9bbd 1259 ed3d

cnn2.bias f4 [32]
-0.1012133 -0.029232385 -0.034283724 0.0034921076 -0.0004956764 -0.0012299606 -0.07612689 0.07139983
-0.07270136 -0.04254507 0.03113239 0.0010419445 -0.005797337 0.006999104 -0.0004602641 -0.10871489
0.112542145 0.006418684 -0.03743754 -0.09952802 -0.109940775 0.019255111 -0.052682523 -0.04027178
-0.00432875 -0.08557012 -0.0547324 -0.13164519 0.09699916 -0.059597205 0.09344476 -0.008211953
00000000: eb48 cfbd c178 efbc 176d 0cbd d8db 643b
00000010: 48f0 01ba a136 a1ba 6ae8 9bbd 133a 923d
00000020: 73e4 94bd bd43 2ebd 5b09 ff3c db91 883a
00000030: 96f7 bdbb bd58 e53b 9a4f f1b9 eaa5 debd
00000040: 7f7c e63d d353 d23b 1b58 19bd 59d5 cbbd
00000050: a128 e1bd e5bc 9d3c a1c9 57bd 06f4 24bd
00000060: 30d8 8dbb 633f afbd 152f 60bd ffcd 06be
00000070: 7fa7 c63d 331c 74bd f75f bf3d 6d8b 06bc

cnn3.weight f4 [32, 32, 3, 3]
0.026283778 0.0017674481 0.021674208 0.0120021785 -0.07373621 -0.047332518 -0.012103266 -0.02369193
0.00034693323 0.16848008 0.043112144 -0.07375469 0.096315995 -0.043813244 -0.15032685 -0.07078301
-0.048911963 -0.09210882 0.0014958256 -0.04029723 -0.06600859 0.080956176 -0.05264449 -0.07779947
0.04637991 0.055928294 -0.016569568 0.03711851 -0.005506566 0.008343678 0.050964892 -0.052918047
-0.053310998 0.013695778 -0.025562936 0.025942191 0.1041798 0.02563891 -0.010955589 -0.024877865
-0.10037854 0.003169372 0.0011049262 0.06224833 -0.009631468 0.11959161 -0.07825922 -0.016963521
0.036786716 -0.09668402 -0.09668888 -0.0148391 0.005566728 -0.004022027 -0.007979823 0.027057124
-0.062859766 -0.03915889 -0.0026701766 -0.02919822 0.048425958 -0.054934714 -0.039852563 -0.047068916
0.11474968 0.07094733 0.03958511 -0.005715508 0.10785496 0.045651108 0.06425439 0.08985233
-0.010270271 0.022682142 -0.054844625 -0.066982575 -0.030138979 -0.055315357 0.0096063875 -0.02132689
-0.058672786 0.09048294 -0.08488297 0.01216863 0.021657325 -0.12142317 0.011958403 -0.030092983
-0.030920876 -0.054759964 0.08571331 0.09438841 -0.095263876 0.022565896 0.019413462 -0.08854354
-0.031678025 0.03557068 -0.026224503 0.057538398 -0.076163724 -0.0722535 -0.042537585 -0.11912302
-0.13678075 0.052899566 0.03678854 -0.02513118 0.104236044 0.14711426 0.15592727 -0.029403567
0.15433846 0.027276687 0.01125402 0.023379693 -0.02141276 0.016741693 0.014569565 -0.022204671
-0.006005925 0.03865086 -0.046440028 0.030307876 0.03142407 0.049733333 0.10570163 -0.009305638
-0.05211231 0.054905575 -0.055659946 -0.056852445 -0.018737158 0.019020274 -0.10100972 0.0033300295
-0.039135456 0.050572384 -0.022787347 -0.025988385 -0.050873164 0.024449427 0.0039395355 -0.011603378
0.066940956 0.22722924 0.20247969 0.02538529 0.087160885 0.12228222 0.024589289 0.08771617
0.115558036 0.07659794 0.090259634 -0.072139315 0.028970063 0.046312995 -0.07313503 0.0071595297
0.018388452 -0.040758766 -0.024193672 -0.06974767 -0.06993119 0.021585288 -0.048872106 -0.13292064
0.008308039 -0.1033544 -0.04617143 -0.051173855 0.0035309554 0.045068257 0.023852065 -0.08250989
-0.0054995655 0.004348293 -0.06251452 0.014683591 -0.049832694 -0.027557623 0.042996116 -0.034530047
-0.09421973 -0.033572137 0.0021399364 -0.05208447 -0.024720807 0.08102328 0.10567456 -0.03314602
0.005937738 0.013930407 -0.044275403 -0.046218608 0.016219012 -0.12108854 -0.028823188 -0.10159742
-0.037428122 -0.06419754 -0.11762491 -0.0025309117 -0.051668126 -0.04452961 0.021603933 0.042850096
0.016687838 0.07687329 0.02184921 -0.040557984 -0.014103732 -0.018776491 0.09170648 0.017192584
0.064841 -0.013829481 -0.049760096 -0.015910141 -0.06653135 -0.07939252 -0.0069042877 0.04347598
-0.011588715 0.036692854 -0.031015454 0.0029268041 -0.023251649 -0.058599528 0.01694965 -0.017923493
0.050109286 0.05736931 0.09603243 0.0020411885 0.005569033 0.028474828 -0.049883734 -0.007755759
-0.021954745 0.01901716 -0.040775202 0.008980349 0.047107816 -0.01709549 -0.007149861 -0.04393015
-0.03234681 -0.00484799 -0.018317174 -0.02024788 0.021548491 0.001728003 0.09920256 -0.026784252
00000000: 1451 d73c b8a9 e73a 1c8e b13c c9a4 443c
00000010: 0303 97bd bedf 41bd c74c 46bc 9415 c2bc
00000020: 97e4 b539 0b86 2c3e 5c96 303d b30c 97bd
00000030: 5241 c53d 8475 33bd 48ef 19be aff6 90bd
00000040: e957 48bd 8da3 bcbd 940f c43a b50e 25bd
00000050: 832f 87bd 5acc a53d c0a1 57bd 5455 9fbd
00000060: dcf8 3d3d 1115 653d e7bc 87bc 9409 183d
00000070: 6c70 b4bb ecb3 083c 90c0 503d 98c0 58bd
00000080: a25c 5abd 4264 603c 5d69 d1bc b884 d43c
00000090: 385c d53d b108 d23c 127f 33bc aacc cbbc
000000a0: 4493 cdbd 3db5 4f3b 2cd3 903a 1bf8 7e3d
000000b0: 4ecd 1dbc 72ec f43d 5f46 a0bd 15f7 8abc
000000c0: abad 163d 4502 c6bd d204 c6bd b21f 73bc
000000d0: 1969 b63b 35cb 83bb cebd 02bc e7a6 dd3c
000000e0: 9fbc 80bd 1265 20bd 21fe 2ebb 1b31 efbc
000000f0: 4c5a 463d 3903 61bd 713c 23bd 56cb 40bd
00000100: e101 eb3d d54c 913d ff23 223d 2849 bbbb
00000110: 10e3 dc3d a8fc 3a3d ce97 833d 8004 b83d
00000120: a444 28bc e6cf b93c c2a4 60bd 292e 89bd
00000130: 05e6 f6bc 5b92 62bd 1c64 1d3c bbb5 aebc
00000140: e052 70bd 1f4f b93d 1fd7 adbd ef5e 473c
00000150: b46a b13c b6ac f8bd 2ded 433c 8f85 f6bc
00000160: c74d fdbc fc4b 60bd 768a af3d b64e c13d
00000170: b519 c3bd 1ddc b83c fb08 9f3c 5156 b5bd
00000180: d1c0 01bd 90b2 113d c5d4 d6bc 62ad 6b3d
00000190: bafb 9bbd a5f9 93bd e43b 2ebd c5f6 f3bd
000001a0: 4110 0cbe 37ad 583d 95af 163d e8df cdbc
000001b0: b579 d53d 1fa5 163e 66ab 1f3e c0df f0bc
000001c0: e70a 1e3e 5c73 df3c c862 383c c586 bf3c
000001d0: d069 afbc e025 893c 2fb5 6e3c 92e6 b5bc
000001e0: 5acd c4bb 5d50 1e3d e637 3ebd 3948 f83c
000001f0: 87b6 003d 2eb5 4b3d 197a d83d ad76 18bc
00000200: b873 55bd abe4 603d affb 63bd 1cde 68bd
00000210: ab7e 99bc 68d0 9b3c 2fde cebd a03c 5a3b
00000220: 804c 20bd fd24 4f3d 88ac babc 98e5 d4bc
00000230: 6160 50bd 2a4a c83c 3817 813b 181c 3ebc
00000240: 5718 893d c8ae 683e d656 4f3e d0f4 cf3c
00000250: 6881 b23d 1a6f fa3d 7a6f c93c 89a4 b33d
00000260: b1a9 ec3d 61df 9c3d 0bda b83d c7bd 93bd
00000270: a052 ed3c b2b2 3d3d d2c7 95bd 7d9a ea3b
00000280: 61a3 963c aaf2 26bd cf31 c6bc ded7 8ebd
00000290: 1538 8fbd a1d3 b03c 1e2e 48bd 591c 08be
000002a0: 711e 083c 79ab d3bd 411e 3dbd ad9b 51bd
000002b0: 9a67 673b 7e99 383d 6865 c33c f2fa a8bd
000002c0: b335 b4bb 207c 8e3b 9d07 80bd 7293 703c
000002d0: 5e1d 4cbd 86c0 e1bc b21c 303d 616f 0dbd
000002e0: 46f6 c0bd f082 09bd 2d3e 0c3b 8656 55bd
000002f0: 4a83 cabc 89ef a53d e76b d83d 1fc4 07bd
00000300: 5b91 c23b 5d3c 643c 205a 35bd b94f 3dbd
00000310: bcdd 843c 45fd f7bd 9b1e ecbc 4f12 d0bd
00000320: 3b4e 19bd 007a 83bd 54e5 f0bd a7dd 25bb
00000330: f5a1 53bd ae64 36bd bbfa b03c 9583 2f3d
00000340: efb4 883c be6f 9d3d 1dfd b23c 2120 26bd
00000350: 5713 67bc 28d1 99bc 9bd0 bb3d 76d7 8c3c
00000360: 5ccb 843d 0c95 62bc 3ed1 4bbd fc55 82bc
00000370: 9741 88bd 8c98 a2bd 5d3d e2bb df13 323d
00000380: 98de 3dbc 3f4b 163d 1f14 febc a0cf 3f3b
00000390: 3e7a bebc 0f06 70bd fed9 8a3c 4ad4 92bc
000003a0: 653f 4d3d 15fc 6a3d a7ac c43d 76c5 053b
000003b0: 6f7c b63b 0b44 e93c e352 4cbd 0624 febb
000003c0: 70da b3bc e0c9 9b3c e603 27bd 5022 133c
000003d0: 20f4 403d d70b 8cbc 6249 eabb 1af0 33bd
000003e0: 177e 04bd e3db 9ebb e60d 96bc e2de a5bc
000003f0: 7686 b03c 297e e23a b62a cb3d a66a dbbc

cnn3.bias f4 [32]
0.019607123 0.04391509 -0.0948637 -0.017984938 0.032481104 -0.032874305 -0.033573538 0.11774692
-0.009886488 -0.060861126 0.009950442 -0.025707796 -0.013468142 0.049776364 -0.01853209 0.12657107
-0.07077807 0.0047885515 -0.042394016 -0.06359281 -0.0709487 -0.029765302 -0.0700156 -0.060357455
-0.012433057 -0.035000842 -0.06648899 0.027934643 -0.008332542 0.097879246 0.021720478 0.15052894
00000000: 1e9f a03c 4fe0 333d e647 c2bd 2655 93bc
00000010: e80a 053d 35a7 06bd 6884 09bd 4c25 f13d
00000020: f0fa 21bc 8449 79bd 2e07 233c 2899 d2bc
00000030: 7ba9 5cbc 4de2 4b3d 9cd0 97bc d99b 013e
00000040: 18f4 90bd 48e9 9c3b 59a5 2dbd f23c 82bd
00000050: 8d4d 91bd 5dd6 f3bc 5764 8fbd 6139 77bd
00000060: 05b4 4bbc 0b5d 0fbd 612b 88bd 31d7 e43c
00000070: 3785 08bc ea74 c83d 25ef b13c 4224 1a3e

fc1.weight f4 [128, 768]
-0.026768217 0.024805857 0.019706015 0.014805308 0.030714003 -0.03206256 -0.04738656 0.015729973
-0.017709669 -0.010950901 -0.023830168 0.0005367771 -0.0016521504 0.0027314185 -0.00967815 0.019197397
0.0076671825 -0.0118327625 -0.010674359 0.011067424 -0.02330589 0.01681887 -0.028270751 -0.012641771
-0.03670567 -0.0069884784 -0.03650331 -0.008763657 0.0028516452 -0.030833649 -0.01898992 0.029425954
-0.039122038 0.015803397 0.04087461 -0.01204716 0.02607422 0.03501218 -0.007992916 -0.0013367659
0.009830236 -0.008740827 0.023201939 -0.052631065 -0.04098562 0.017855586 -0.031004813 -0.04243366
-0.040572193 0.010986801 -0.03187394 -0.032957774 -0.03824586 -0.005464251 0.008126307 -0.015216153
-0.008458035 -0.021384984 0.0094202915 0.028440623 -0.034350265 -0.018193372 -0.030250255 -0.046509687
0.023425652 0.012425869 -0.014549559 -0.009992772 -0.03793028 0.019242173 0.02116751 -0.0349238
-0.007668633 0.012855098 -0.023899289 -0.017706048 0.02842341 0.017105626 0.023311341 0.004786948
-0.0011094102 0.0068636066 0.01572924 -0.022178452 -0.031964805 0.025595896 0.0011204204 -0.010002529
0.0066787233 -0.023629045 -0.0027257737 -0.027397422 -0.0020104873 -0.039384115 0.0024646209 0.03186066
0.023867149 -0.03161419 0.0029067013 0.0045068497 -0.0007688545 0.0047350274 -0.023112593 -0.008261039
-0.038236745 -0.012191663 -0.016727006 -0.0066710715 0.014020395 -0.007324341 -0.016492775 -0.036273867
0.008421028 0.009895774 0.0114422925 -0.028039398 0.014289408 0.0005009341 -0.017592205 0.001777416
0.028321987 -0.03954159 0.005815888 0.011385632 -0.031181969 -0.009777736 0.0017313063 -0.032909855
0.037357967 0.019556236 0.012493526 0.004295384 0.025172144 0.003122344 -0.016434241 -0.024076868
-0.03271658 0.011582412 0.0157233 0.026555002 0.0043723355 0.01899039 0.002968764 -0.032260943
-0.0241181 0.0124429315 0.034022987 0.02737844 0.0027018301 -0.011732729 0.026980303 0.03537681
0.034640037 0.00976938 0.021684263 -0.006068522 -0.020357322 -0.007354265 0.03397174 0.034645036
0.015774377 0.017878175 0.009545419 -0.020073159 -0.007731734 0.032857556 -0.030408528 -0.01198029
-0.01387168 0.01142631 -0.0017675081 -0.007279032 0.003476853 -0.01201483 -0.058901172 -0.017311834
0.02568219 -0.019402418 -0.021298371 -0.040221225 -0.007468871 -0.035273485 0.020268856 0.0006612685
-0.044842377 -0.042740796 -0.009260616 -0.041124173 -0.0038951866 -0.021177938 0.009174399 -0.042680874
0.002109341 -0.0010863243 -0.005105085 -0.033098146 -0.031325504 0.028898567 -0.0015201005 -0.010904149
-0.029960625 -0.012364701 0.010846193 -0.03030587 -0.020987388 -0.02117999 -0.00782921 -0.013288465
0.019337598 -0.022215648 0.010765107 -0.008908859 0.02027019 -0.03463008 0.032106772 0.02664411
-0.034440305 -0.037104357 -0.037316777 0.02408591 -0.008800963 0.013576292 0.032432374 -0.035967845
-0.017288452 -0.013287759 0.01792957 0.016850995 -0.025568184 -0.02369145 0.024746014 0.032811016
0.0071376464 -0.018317195 0.01173135 -0.0016730701 -0.020331034 0.023337789 -0.0381589 -0.02679223
0.021745728 0.0011655202 0.0312667 -0.036564782 0.010468319 0.033404067 0.0006542119 0.011184478
-0.030304294 -0.034873065 0.008305769 0.020154366 -0.019414691 -0.006928563 0.028450064 -0.031442467
00000000: 0549 dbbc a735 cb3c 826e a13c f691 723c
00000010: ef9b fb3c 0854 03bd 6918 42bd 25dc 803c
00000020: de13 91bc 686b 33bc 7c37 c3bc 80b6 0c3a
00000030: f88c d8ba 9901 333b 1a91 1ebc dc43 9d3c
00000040: fd3c fb3b 34de 41bc 82e3 2ebc 2454 353c
00000050: feeb bebc bac7 893c 1098 e7bc 6e1f 4fbc
00000060: af58 16bd 9bff e4bb 7f84 15bd 7195 0fbc
00000070: abe2 3a3b d996 fcbc c090 9bbc b30e f13c
00000080: 6e3e 20bd 2076 813c 236c 273d 7461 45bc
00000090: 9a99 d53c ef68 0f3d b8f4 02bc 6c36 afba
000000a0: 000f 213c b035 0fbc fe11 be3c ac93 57bd
000000b0: 8ae0 27bd e145 923c cefd fdbc ebce 2dbd
000000c0: 072f 26bd fc01 343c 408e 02bd bbfe 06bd
000000d0: b1a7 1cbd 760d b3bb 3424 053c 2c4d 79bc
000000e0: 9293 0abc 902f afbc 9157 1a3c 4ffc e83c
000000f0: ddb2 0cbd 440a 95bc 62cf f7bc f180 3ebd
00000100: 27e7 bf3c df95 4b3c 4661 6ebc b9b8 23bc
00000110: c85c 1bbd c3a1 9d3c 7c67 ad3c 420c 0fbd
00000120: 2849 fbbb 309e 523c 71c8 c3bc 460c 91bc
00000130: 36d8 e83c 1921 8c3c 6df7 be3c d5db 9c3b
00000140: a169 91ba 1be8 e03b 9bda 803c 96af b5bc
00000150: 87ed 02bd 7cae d13c 12db 923a a6e1 23bc
00000160: 31d9 da3b b391 c1bc e5a2 32bb 8f70 e0bc
00000170: 61c2 03bb 3d51 21bd 7a85 213b 5380 023d
00000180: 0a85 c33c e27d 01bd 5b7e 3e3b 32ae 933b
00000190: f48c 49ba 4a28 9b3b 9f56 bdbc 4f59 07bc
000001a0: 229e 1cbd 8abf 47bc 1307 89bc 0199 dabb
000001b0: cdb5 653c 0701 f0bb db1b 87bc e893 14bd
000001c0: 5af8 093c e221 223c 7478 3b3c e1b2 e5bc
000001d0: 1f1e 6a3c 1e51 033a 871d 90bc 2ff8 e83a
000001e0: 8303 e83c 5df6 21bd 3493 be3b cd8a 3a3c
000001f0: 5471 ffbc cc32 20bc 00ed e23a 7ccc 06bd
00000200: ab04 193d 6634 a03c a5b1 4c3c 4bc0 8c3b
00000210: d035 ce3c 3da0 4c3b 1aa1 86bc da3c c5bc
00000220: d201 06bd 28c4 3d3c 26ce 803c e089 d93c
00000230: cf45 8f3b bc91 9b3c 988f 423b 0d24 04bd
00000240: 5293 c5bc 70dd 4b3c b05b 0b3d c048 e03c
00000250: 3011 313b a23a 40bc cc05 dd3c 46e7 103d
00000260: b6e2 0d3d c00f 203c 32a3 b13c 74da c6bb
00000270: 66c4 a6bc 0cfc f0bb f425 0b3d f4e7 0d3d
00000280: 4439 813c 4075 923c 6464 1c3c 7770 a4bc
00000290: 7c5a fdbb a595 063d 4e1b f9bc fa48 44bc
000002a0: 0b46 63bc 6b35 3b3c bbab e7ba f284 eebb
000002b0: eadb 633b d9d9 44bc 5b42 71bd 8cd1 8dbc
000002c0: 7563 d23c d2f1 9ebc ec79 aebc 03bf 24bd
000002d0: 6ebd f4bb ee7a 10bd df0a a63c fa58 2d3a
000002e0: a4ac 37bd f910 2fbd d7b9 17bc d271 28bd
000002f0: 6346 7fbb 5b7d adbc 3850 163c 24d2 2ebd
00000300: df3c 0a3b ff62 8eba 8f48 a7bb ec91 07bd
00000310: 2c4f 00bd b0bc ec3c 1c3e c7ba 51a7 32bc
00000320: fc6f f5bc 5195 4abc 3bb4 313c 0444 f8bc
00000330: beed abbc a981 adbc 1646 00bc ddb7 59bc
00000340: e269 9e3c 97fd b5bc 2260 303c 77f6 11bc
00000350: ab0d a63c 45d8 0dbd 6482 033d c044 da3c
00000360: 4711 0dbd bdfa 17bd 7ad9 18bd d04f c53c
00000370: ea31 10bc 196f 5e3c cfd7 043d 0553 13bd
00000380: 83a0 8dbc e7b4 59bc 09e1 923c 190b 8a3c
00000390: 5e74 d1bc 9214 c2bc 27b8 ca3c d864 063d
000003a0: ebe2 e93b f10d 96bc d934 403c eb4a dbba
000003b0: 458d a6bc e42e bf3c 824c 1cbd 617b dbbc
000003c0: 1924 b23c 5ec4 983a 8311 003d f4c4 15bd
000003d0: 5083 2b3c b4d2 083d 6b7f 2b3a 1a3f 373c
000003e0: b640 f8bc 0fd7 0ebd ec14 083c c51a a53c
000003f0: 8f0b 9fbc 0009 e3bb 1c10 e93c d1c9 00bd

fc1.bias f4 [128]
0.024374982 -0.008884579 0.013301782 -0.040303595 -0.025760593 0.025965847 -0.034438927 -0.040878776
0.004696367 0.0154685285 -0.020946093 -0.02808214 -0.035929803 -0.034426935 -0.03789541 -0.015902705
-0.036883745 -0.019908283 0.06113919 -0.0019482248 -0.0051140795 0.09676923 -0.04293951 0.08169736
-0.048151832 0.00014648677 -0.0057002483 -0.02934152 -0.027238565 0.017232921 -0.035708316 0.020811984
-0.034696802 0.014058228 -0.00051524147 -0.046583906 -0.025006728 -0.039166205 -0.022390166 0.0032032595
0.02061216 0.09649271 -0.03239606 -0.02420637 -0.019213833 -0.035911623 0.006403802 0.0062718457
-0.03563728 0.029379502 0.03388658 0.026030522 0.0057407785 0.09451128 -0.007280573 -0.036151722
-0.03530087 0.007726279 -0.017329285 -0.022276998 -0.0414 0.09169824 -0.033973902 -0.024987385
-0.01565201 0.025309611 0.1158612 -0.006422143 0.011868043 0.017114129 -0.0063203047 0.0049959775
-0.009508414 0.011230215 -0.00020048609 0.011681051 -9.348324e-06 -0.035293527 0.010056953 -0.0045834514
-0.017205037 -0.0068243635 0.0071320445 0.020861998 0.00814874 0.027326532 -0.028890891 -0.026063982
-0.038907703 0.08314225 -0.06666971 0.114097774 0.010330442 -0.021524405 -0.0016606968 -0.040150728
0.0017156763 -0.0044042943 -0.0069203125 0.011087489 -0.03611069 -0.010624648 -0.0004923856 0.017711898
0.0011036956 -0.015114749 -0.038058072 -0.016122632 0.117783986 0.013090914 -0.0077957963 -0.012889578
0.11204427 0.021247488 -0.061114036 -0.032463476 0.0104546435 0.0173825 -0.021482073 0.057209842
-0.060699217 -0.0118935 -0.012632707 -0.049817648 0.12454011 -0.044984672 0.033098295 -0.05847208
00000000: 0bae c73c a090 11bc b8ef 593c 6215 25bd
00000010: e107 d3bc 54b6 d43c d50f 0dbd 8170 27bd
00000020: fbe3 993b b66f 7d3c 2497 abbc 840c e6bc
00000030: 212b 13bd 4203 0dbd 3838 1bbd 6446 82bc
00000040: 6913 17bd b216 a3bc 166d 7a3d 945b ffba
00000050: 0294 a7bb f22e c63d 57e1 2fbd f250 a73d
00000060: db3a 45bd 3e9a 1939 26c9 babb a15d f0bc
00000070: 6923 dfbc 0e2c 8d3c e242 12bd e57d aa3c
00000080: 3c1e 0ebd 7b54 663c 4511 07ba c4ce 3ebd
00000090: e9da ccbc be6c 20bd 956b b7bc c7ed 513b
000000a0: d5da a83c f89d c53d bbb1 04bd 704c c6bc
000000b0: 5466 9dbc 1118 13bd fcd6 d13b 0e84 cd3b
000000c0: 66f8 11bd 48ad f03c a8cc 0a3d f63d d53c
000000d0: 241d bc3b 218f c13d df91 eebb d413 14bd
000000e0: a597 10bd ba2c fd3b 25f6 8dbc 407e b6bc
000000f0: 0c93 29bd 49cc bb3d 3828 0bbd 58b2 ccbc
00000100: a538 80bc 1a56 cf3c a348 ed3d d770 d2bb
00000110: 2e72 423c ee32 8c3c 8f1a cfbb 4cb5 a33b
00000120: 2ec9 1bbc f0fe 373c 9339 52b9 e161 3f3c
00000130: bfd6 1cb7 f28f 10bd ebc5 243c c730 96bb
00000140: 94f1 8cbc e99e dfbb edb3 e93b c8e6 aa3c
00000150: 4b82 053c e4db df3c 97ac ecbc 2284 d5bc
00000160: af5d 1fbd 7c46 aa3d 218a 88bd 18ac e93d
00000170: 0441 293c f353 b0bc bdab d9ba 1775 24bd
00000180: 8be0 e03a e651 90bb cac3 e2bb 4da8 353c
00000190: cee8 13bd 0113 2ebc 7013 01ba 8b18 913c
000001a0: e1a9 903a daa3 77bc c8e2 1bbd 9c13 84bc
000001b0: bb38 f13d 467b 563c e173 ffbb cf2e 53bc
000001c0: 7777 e53d 360f ae3c b652 7abd 6cf8 04bd
000001d0: f449 2b3c bf65 8e3c 2cfb afbc de54 6a3d
000001e0: be9f 78bd f4dc 42bc 6af9 4ebc 970d 4cbd
000001f0: e30e ff3d d941 38bd 1492 073d 6b80 6fbd

fc2.weight f4 [128, 128]
-0.0870013 -0.058957867 -0.009589403 -0.011242352 0.02995978 0.05968735 -0.048426043 0.052065287
-0.002051163 0.033373106 0.027636165 -0.03235877 -0.07778215 0.034983233 0.08198521 -0.04325002
-0.046034288 0.029198345 0.0055582453 0.041961722 0.08577215 0.06049984 0.016805086 -0.045005765
0.05292844 -0.0023336112 0.06543913 -0.0062654717 -0.014185451 -0.0020542343 0.08981437 0.05531334
-0.080045 -0.032787796 0.0790401 -0.094935305 -0.08637664 0.087632105 0.08386805 -0.06400309
-0.06414175 -0.076013684 0.02529163 -0.007103486 -0.038693573 0.076070614 0.055873536 0.02044213
-0.05172781 -0.079450935 -0.00826345 0.04082662 0.052417226 0.114370584 -0.011247911 0.0884482
0.030545294 -0.025452204 -0.011025563 -0.07602357 -0.019814722 0.101141565 -0.08627648 0.10084734
-0.03453327 0.03608322 0.12163435 -0.053755004 0.058320526 -0.061869666 0.04106435 0.08677106
-0.04318969 0.014354497 0.0015948713 0.036962725 0.023811027 0.03801499 -0.007196218 -0.022744901
-0.009947355 -0.07661607 -0.051587235 0.005674878 -0.079811156 -0.059083547 -0.06408382 0.03758744
-0.050196897 -0.15266167 -0.056177616 -0.015599343 0.04420901 0.058715023 0.031252597 -0.07099998
0.011896168 -0.046156615 0.05017399 0.038774483 0.034832582 -0.03690891 0.06594203 0.07787339
0.024892367 0.048191987 0.008928038 -0.039583657 0.044153836 -0.073189154 -0.0228962 0.026814729
0.0822031 -0.022588253 -0.060014565 -0.04681431 -0.06669424 -0.07433669 -0.085399374 -0.08236815
0.020697797 -0.011853896 -0.050611403 -0.002313264 0.07566308 -0.04058924 -0.06851422 -0.051067736
-0.06252597 -0.031120893 -0.08326743 0.0071800426 -0.0012561263 0.015684547 -0.09867975 -0.011514768
0.069590025 0.035898548 0.0013338672 0.036984436 -0.0369938 0.0044304803 0.04935851 -0.043296374
0.038628235 0.037541494 -0.0028726761 -0.023403257 -0.008289206 -0.028074548 0.07552644 -0.05605781
0.082411416 0.05452036 -0.07366949 -0.010709529 -0.07656484 0.046852387 0.08297766 -0.029465072
-0.034701746 0.02168622 -0.033949442 -0.09190724 -0.07360279 -0.046012316 0.036489025 -0.07818893
-0.060880605 0.015880566 -0.023269504 -0.0760034 -0.055638608 -0.025223106 0.019976823 -0.009413623
-0.06732775 0.074210115 0.018901229 -0.045804195 -0.008922592 0.11264534 0.046904694 -0.07232298
-0.04162177 -0.012118548 -0.06525713 0.014302802 -0.06771229 0.054176934 -0.020008713 -0.09925543
-0.04830451 0.02538267 0.044048775 0.012475749 -0.006319911 0.022881828 -0.024225082 0.027754858
-0.022307357 -0.040355545 -0.016365893 0.014918596 -0.06996248 0.022012994 -0.03908218 0.06534728
-0.008504323 -0.0148077775 -0.052435208 0.067496195 0.033776566 -0.03166519 -0.019426782 -0.001793867
-0.035716597 -0.0789296 -0.07246421 0.030325348 -0.008318394 0.046093874 -0.027021753 -0.08380517
-0.04824551 -0.07150332 0.049528815 0.011674054 -0.046497047 0.025403664 0.06769716 0.032947116
-0.010931164 0.014019169 -0.05996857 0.043662407 0.112758584 -0.0077865133 0.035958238 0.0390547
0.005203031 0.050387137 -0.1023172 -0.053638536 0.013680644 0.06661702 -0.08116594 0.05432572
-0.025013601 -0.06903414 0.059493292 0.10037921 0.1665863 -0.086459905 0.08416289 0.043885794
00000000: bd2d b2bd ce7d 71bd df1c 1dbc d831 38bc
00000010: 366e f53c b97a 743d 635a 46bd 6942 553d
00000020: ce6c 06bb 3db2 083d 3d65 e23c a18a 04bd
00000030: 3f4c 9fbd 944a 0f3d dde7 a73d ef26 31bd
00000040: 738e 3cbd 5e31 ef3c f121 b63b 0ee0 2b3d
00000050: 4fa9 af3d aece 773d d2aa 893c f757 38bd
00000060: 7ecb 583d 80ef 18bb f304 863d 964e cdbb
00000070: 186a 68bc 55a0 06bb 99f0 b73d 3e90 623d
00000080: a2ee a3bd 7f4c 06bd c7df a13d 716d c2bd
00000090: 3ce6 b0bd 7678 b33d 03c3 ab3d 0d14 83bd
000000a0: c05c 83bd 10ad 9bbd 6430 cf3c 5cc4 e8bb
000000b0: 277d 1ebd e9ca 9b3d a6db 643d 4176 a73c
000000c0: 8ae0 53bd 2cb7 a2bd 6c63 07bc d039 273d
000000d0: 72b3 563d 203b ea3d 2849 38bc 5424 b53d
000000e0: 203a fa3c 2481 d0bc 90a4 34bc 3fb2 9bbd
000000f0: 7c52 a2bc 4f23 cf3d b9b1 b0bd 0d89 ce3d
00000100: c272 0dbd 00cc 133d 6e1b f93d 352e 5cbd
00000110: 81e1 6e3d 0c6b 7dbd 1833 283d 07b5 b13d
00000120: ace7 30bd 202f 6b3c 000b d13a 3a66 173d
00000130: 580f c33c 9bb5 1b3d 40ce ebbb 8453 babc
00000140: 3bfa 22bc e3e8 9cbd 234d 53bd 54f4 b93b
00000150: 0874 a3bd 9701 72bd 613e 83bd 4af5 193d
00000160: 439b 4dbd 5753 1cbe 801a 66bd 6394 7fbc
00000170: 8214 353d 2a7f 703d b902 003d 7068 91bd
00000180: 25e8 423c b80e 3dbd 3e83 4d3d fed1 1e3d
00000190: 9cac 0e3d cc2d 17bd 9d0c 873d 157c 9f3d
000001a0: 14eb cb3c f664 453d e846 123c 7922 22bd
000001b0: a7da 343d 32e4 95bd d090 bbbc 90aa db3c
000001c0: 195a a83d 000b b9bc d5d1 75bd 5dc0 3fbd
000001d0: fd96 88bd d63d 98bd dee5 aebd a2b0 a8bd
000001e0: 6d8e a93c d836 42bc e74d 4fbd 219a 17bb
000001f0: 3ff5 9a3d e740 26bd 2f51 8cbd 672c 51bd
00000200: 9e0d 80bd 3ef1 febc 1d88 aabd 9046 eb3b
00000210: 9ba4 a4ba e17c 803c 9c18 cabd 70a8 3cbc
00000220: 3785 8e3d 5b0a 133d 28d5 ae3a fe7c 173d
00000230: d086 17bd 902d 913b 262c 4a3d 8a57 31bd
00000240: a438 1e3d 1cc5 193d 8243 3cbb 30b8 bfbc
00000250: 73cf 07bc 98fc e5bc 9bad 9a3d e09c 65bd
00000260: 51c7 a83d be50 5f3d 08e0 96bd 0577 2fbc
00000270: 07ce 9cbd 4ae8 3f3d 31f0 a93d bc60 f1bc
00000280: 6b23 0ebd 4da7 b13c 920e 0bbd dd39 bcbd
00000290: 0fbd 96bd 6977 3cbd 8475 153d 8521 a0bd
000002a0: f15d 79bd f617 823c b09f bebc aca7 9bbd
000002b0: 4fe5 63bd b0a0 cebc 6fa6 a33c 993b 1abc
000002c0: 22e3 89bd 79fb 973d c0d6 9a3c 2e9d 3bbd
000002d0: 1030 12bc 9ab2 e63d 231f 403d 121e 94bd
000002e0: 977b 2abd e08c 46bc 88a5 85bd 4d56 6a3c
000002f0: beac 8abd a2e8 5d3d 50e9 a3bc 6e46 cbbd
00000300: f3da 45bd 51ef cf3c 7d6c 343d 1567 4c3c
00000310: 4217 cfbb ac72 bb3c ae73 c6bc 285e e33c
00000320: ebbd b6bc db4b 25bd c411 86bc 206d 743c
00000330: 7d48 8fbd 9854 b43c a314 20bd cbd4 853d
00000340: b755 0bbc 529c 72bc 4dc6 56bd 723b 8a3d
00000350: 4c59 0a3d 5cb3 01bd ea24 9fbc 3020 ebba
00000360: 914b 12bd d8a5 a1bd 1e68 94bd dd6c f83c
00000370: e049 08bc eecc 3c3d b95c ddbc 0ca2 abbd
00000380: 159d 45bd 5570 92bd bade 4a3d 8844 3f3c
00000390: b073 3ebd 581b d03c cfa4 8a3d 8ef3 063d
000003a0: a018 33bc a8b0 653c 9aa1 75bd 5ad7 323d
000003b0: f9ed e63d 0226 ffbb f248 133d d2f7 1f3d
000003c0: 307e aa3b be62 4e3d ae8b d1bd 15b4 5bbd
000003d0: c824 603c 816e 883d 543a a6bd a584 5e3d
000003e0: 53e9 ccbc c561 8dbd 3daf 733d 9e93 cd3d
000003f0: 9995 2a3e e411 b1bd 985d ac3d 97c1 333d

fc2.bias f4 [128]
0.049024273 0.057722144 0.03329458 0.07268772 0.046709307 0.08910275 0.15234427 0.11008257
-0.035824545 0.09592479 -0.052300267 -0.0068363496 0.14118046 0.042684924 -0.101245865 0.07855099
0.062318888 0.09829537 0.091420375 0.0010974521 -0.030389355 0.083808176 0.10564828 0.19774522
0.13220686 0.028873717 0.10300977 0.13646983 0.005991892 0.009272187 0.072032444 0.05347334
0.16999955 -0.09014319 0.18568161 0.016731126 0.027500609 0.17325611 -0.06416779 -0.020196112
0.046957474 0.005208725 -0.019408135 0.016430758 0.15971972 0.11403369 0.04792635 0.015484183
-0.13182321 0.026761841 0.10976397 0.050751235 0.029950969 0.006800178 0.17610152 0.09471033
0.00839322 0.080992304 -0.028716452 0.03759267 0.009942867 -0.04560288 0.17284042 -0.02449265
-0.0044907127 -0.06704725 -0.034272008 0.07106711 0.093549065 0.109950736 0.085515894 0.0732072
-0.058000103 0.09475987 0.0111495545 0.031447664 0.026341772 0.05447718 -0.13748854 -0.009802887
0.03890515 0.040143974 0.17432952 0.01803138 0.046196632 0.008153745 -0.035906922 0.115109034
-0.16127825 0.1669645 0.114178695 0.16191933 0.028860426 0.014478121 0.030097626 0.15079683
0.043738347 0.016027005 0.037585177 0.11658213 -0.00545088 0.025497928 0.013293785 0.057334226
0.090906896 0.17656477 0.018956374 0.017120546 0.18608038 0.14830133 -0.025322802 -0.041448906
-0.08299901 0.16353047 0.07944014 0.18511811 0.15640366 0.050259367 0.24837343 0.12108645
0.13791673 0.015452785 0.13816376 -0.091326505 0.26260325 0.10183816 -0.030700019 -0.033132706
00000000: adcd 483d 0e6e 6c3d e65f 083d 4ddd 943d
00000010: 4252 3f3d 817b b63d 2300 1c3e f872 e13d
00000020: c2bc 12bd 3774 c43d ce38 56bd 7503 e0bb
00000030: 9c91 103e 63d6 2e3d fe59 cfbd 57df a03d
00000040: 1742 7f3d 154f c93d 9b3a bb3d 62d8 8f3a
00000050: 19f3 f8bc 9fa3 ab3d 205e d83d b97d 4a3e
00000060: 3c61 073e 9388 ec3c c9f6 d23d bfbe 0b3e
00000070: a257 c43b 5fea 173c bf85 933d dc06 5b3d
00000080: 5d14 2e3e fe9c b8bd 5223 3e3e b70f 893c
00000090: f548 e13c 0d6a 313e 676a 83bd 5172 a5bc
000000a0: 7b56 403d f4ad aa3b cffd 9ebc cc99 863c
000000b0: 918d 233e 7f8a e93d 6c4e 443d 5fb1 7d3c
000000c0: aafc 06be a63b db3c efcb e03d 87e0 4f3d
000000d0: bc5b f53c 07d4 de3b f553 343e 7df7 c13d
000000e0: b783 093c 4bdf a53d c43e ebbc c6fa 193d
000000f0: 68e7 223c 16ca 3abd 14fd 303e cfa4 c8bc
00000100: d426 93bb 1250 89bd ce60 0cbd a28b 913d
00000110: a796 bf3d da2d e13d f522 af3d a8ed 953d
00000120: 8491 6dbd 7611 c23d 9fac 363c 44cf 003d
00000130: b3ca d73c 7723 5f3d ccc9 0cbe 4a9c 20bc
00000140: 025b 1f3d 026e 243d 7083 323e 8bb6 933c
00000150: ae38 3d3d 4997 053c 2313 13bd 49be eb3d
00000160: 2026 25be bef8 2a3e 85d6 e93d 2ece 253e
00000170: b36c ec3c a435 6d3c 4c8f f63c 7c6a 1a3e
00000180: fb26 333d 114b 833c eaf2 193d 9dc2 ee3d
00000190: 4c9d b2bb 08e1 d03c 2dce 593c 4bd7 6a3d
000001a0: 652d ba3d 65cd 343e 664a 9b3c 6340 8c3c
000001b0: db8b 3e3e 4edc 173e c471 cfbc 54c6 29bd
000001c0: 63fb a9bd 8874 273e 83b1 a23d 9a8f 3d3e
000001d0: 4828 203e c4dc 4d3d 9b55 7e3e 2cfc f73d
000001e0: 0b3a 0d3e ae2d 7d3c cd7a 0d3e 6409 bbbd
000001f0: ef73 863e 8690 d03d 9b7e fbbc 29b6 07bd

fc3.weight f4 [128, 128]
3.9591112e-05 -0.028640147 -0.13167621 -0.03899679 -0.0067426357 0.048623923 0.027384074 -0.040186234
0.09825081 -0.05636813 -0.10108463 0.018084135 0.012011242 0.030573789 0.062161677 0.0025110738
-0.02395906 -0.06587235 0.020120448 0.026586045 0.05211083 -0.03606447 -0.04578436 -0.02053352
-0.082596846 -0.07381071 -0.082299516 0.002979162 -0.0133482525 0.0070885518 -0.043316465 0.0045065507
-0.0057556503 -0.06613842 0.036691155 0.1271642 0.009880868 -0.092416845 -0.057319757 -0.007351087
-0.06709989 -0.043162797 0.10847468 -0.08691886 -0.06257831 -0.057558384 -0.020007312 0.07908875
-0.059637144 0.071545824 0.038662393 0.09844369 0.019868055 -0.068857476 -0.044395167 -0.059144564
-0.03211926 -0.00042697057 0.106026776 -0.13208413 0.0990428 0.013975274 -0.01624975 0.045883298
0.019001547 0.10114071 -0.03338807 0.012563943 0.022832666 -0.04856201 -0.032970224 0.024076529
0.07632349 0.018660558 0.044730544 0.03518771 -0.044489235 -0.07142961 0.009260112 0.013966033
-0.107808486 0.009913906 -0.008992624 0.18566863 -0.10005611 0.15090546 0.09860406 -0.08031128
0.08150386 -0.051501796 0.013119013 0.012587314 0.014222262 0.060819462 0.06796997 -0.022391895
0.0075339815 0.033297263 -0.06782721 0.13968965 0.004229833 0.055356994 0.0317023 -0.06128249
-0.021488372 -0.037880506 -0.027687348 0.082523055 0.005523098 0.052442513 0.06961179 -0.022480119
-0.012959703 -0.025582725 -0.080880985 -0.054258212 0.013008561 0.080588154 -0.056394238 -0.08197669
-0.10679808 -0.07492949 -0.0077515747 -0.05920445 0.04501304 0.013714288 -0.06574394 0.07113622
-0.007926088 0.09781633 0.0048016645 0.10701636 0.04748507 0.0859511 0.10585922 0.1405461
-0.030424954 0.09390556 -0.02201758 0.016811565 0.050158326 0.07358719 0.0325447 -0.02501972
0.003305109 0.08304652 -0.00419235 0.09505123 -0.06449094 0.10545487 0.055209294 0.070014186
0.065241404 -0.062293965 -0.026510695 0.12477746 -0.11934891 0.017022531 0.059112005 0.0245817
0.07314691 0.14457294 0.032562874 0.107941695 0.009909803 -0.024387067 -0.04879592 -0.088439435
0.09322386 -0.12973844 -0.103707634 -0.015718421 0.06489933 0.060098626 0.02235897 -0.06911954
0.055476986 -0.02211493 -0.030751884 0.04885961 -0.006213958 0.06474915 -0.012065914 0.07210428
0.069416255 -0.06682014 -0.10529762 0.031507805 -0.07702735 -0.10358225 0.046389766 -0.043338567
0.0781874 -0.07965353 -0.006866949 0.084404446 0.043624047 0.10839387 0.08175941 0.07640989
0.05647491 0.018528404 -0.0070809065 0.02607823 -0.08933473 0.120884515 0.015319893 -0.07096338
0.13278066 -0.03192591 0.09882407 -0.024157472 0.04852385 0.054751523 -0.09792344 0.092855915
0.0075762616 -0.035970215 0.00672706 -0.07507104 0.017311603 -0.03322187 -0.03563284 0.048264906
0.087570846 -0.07853599 0.07229991 0.05275812 -0.017426196 -0.037999474 0.036414787 0.14607897
-0.0048797536 0.07641387 -0.029175034 0.06007762 0.029193085 -0.024342198 -0.08200483 -0.038199313
0.06380832 0.014266484 0.057187896 -0.010830795 0.048685476 -0.03829325 -0.12253924 -0.011257132
0.023036141 -0.07839012 0.03665161 -0.08531462 0.02147147 0.073475406 -0.11962115 -0.1312203
00000000: a20e 2638 be9e eabc 21d6 06be 19bb 1fbd
00000010: 54f1 dcbb e129 473d 9154 e03c 529a 24bd
00000020: b837 c93d 45e2 66bd 7505 cfbd 2e25 943c
00000030: cdca 443c e275 fa3c 3e9d 7e3d d490 243b
00000040: ca45 c4bc 15e8 86bd a3d3 a43c faca d93c
00000050: 2a72 553d 56b8 13bd 6288 3bbd ea35 a8bc
00000060: 8928 a9bd 122a 97bd a68c a8bd 0b3e 433b
00000070: a1b2 5abc 1547 e83b 9b6c 31bd b0ab 933b
00000080: e599 bcbb 9473 87bd 7749 163d 5537 023e
00000090: 5de3 213c 0b45 bdbd 1fc8 6abd 63e1 f0bb
000000a0: ab6b 89bd 79cb 30bd f927 de3d 8402 b2bd
000000b0: 0f29 80bd 57c2 6bbd 60e6 a3bc 48f9 a13d
000000c0: 1446 74bd 9e86 923d 755c 1e3d d89c c93d
000000d0: 55c2 a23c 2605 8dbd b5d7 35bd 9241 72bd
000000e0: 7c8f 03bd 05db dfb9 9124 d93d 1041 07be
000000f0: f4d6 ca3d 8cf8 643c 321e 85bc 20f0 3b3d
00000100: 22a9 9b3c dc22 cf3d eec1 08bd ffd8 4d3c
00000110: 920b bb3c f5e8 46bd c90b 07bd 243c c53c
00000120: 7d4f 9c3d 07de 983c 6037 373d fd20 103d
00000130: 583a 36bd b049 92bd bab7 173c cad1 643c
00000140: b2ca dcbd f06d 223c cc55 13bc eb1f 3e3e
00000150: 38ea ccbd f686 1a3e edf0 c93d 3e7a a4bd
00000160: 7feb a63d 8cf3 52bd 21f1 563c 053b 4e3c
00000170: 7e04 693c d41d 793d d733 8b3d 356f b7bc
00000180: 9edf f63b b662 083d fee8 8abd ce0a 0f3e
00000190: 699a 8a3b 04be 623d 45da 013d 5903 7bbd
000001a0: 6208 b0bc 9728 1bbd 94d0 e2bc d901 a93d
000001b0: 1bfb b43b f6cd 563d a090 8e3d 3a28 b8bc
000001c0: ef54 54bc dd92 d1bc eea4 a5bd dc3d 5ebd
000001d0: dc21 553c 670b a53d a5fd 66bd 65e3 a7bd
000001e0: f4b8 dabd a274 99bd ec00 febb 5e80 72bd
000001f0: 985f 383d e5b1 603c c2a4 86bd deaf 913d
00000200: 6cdc 01bc ee53 c83d 4857 9d3b 652b db3d
00000210: b47f 423d 2107 b03d b8cc d83d 51eb 0f3e
00000220: c13d f9bc 8f51 c03d 365e b4bc 68b8 893c
00000230: d172 4d3d e1b4 963d 974d 053d 28f6 ccbc
00000240: 879a 583b 4b14 aa3d fb5f 89bb 38aa c23d
00000250: d313 84bd b9f8 d73d 2423 623d 9963 8f3d
00000260: 499d 853d f527 7fbd f52c d9bc 538b ff3d
00000270: 346d f4bd d672 8b3c 6e1f 723d 905f c93c
00000280: 0cce 953d ee0a 143e a660 053d 8910 dd3d
00000290: ba5c 223c 63c7 c7bc 3bde 47bd bc1f b5bd
000002a0: 27ec be3d 27da 04be ab64 d4bd ebc3 80bc
000002b0: f1e9 843d fa29 763d 292a b73c 8c8e 8dbd
000002c0: d63b 633d 5f2a b5bc 60eb fbbc 0421 483d
000002d0: 759e cbbb 349b 843d 1db0 45bc 69ab 933d
000002e0: 1c2a 8e3d ffd8 88bd 47a6 d7bd 540e 013d
000002f0: 84c0 9dbd ee22 d4bd 3203 3e3d c883 31bd
00000300: b720 a03d 6421 a3bd 2504 e1bb 3ddc ac3d
00000310: 21af 323d 9bfd dd3d 7a71 a73d ca7c 9c3d
00000320: 3c52 673d e1c8 973c f306 e8bb 03a2 d53c
00000330: 20f5 b6bd 4d92 f73d 4a00 7b3c 4055 91bd
00000340: a7f7 073e bec4 02bd 4664 ca3d e4e5 c5bc
00000350: f2c0 463d 2243 603d 168c c8bd 3e2b be3d
00000360: 4a42 f83b 8155 13bd ab6e dc3b d8be 99bd
00000370: 10d1 8d3c a813 08bd bef3 11bd 6cb1 453d
00000380: 5858 b33d 7ad7 a0bd fa11 943d e618 583d
00000390: 62c1 8ebc 56a5 1bbd ac27 153d ba95 153e
000003a0: 57e6 9fbb e07e 9c3d 7b00 efbc f313 763d
000003b0: 5626 ef3c 4a69 c7bc 26f2 a7bd e276 1cbd
000003c0: f0ad 823d f9bd 693c db3d 6a3d a673 31bc
000003d0: 6c6a 473d 62d9 1cbd daf5 fabd d56f 38bc
000003e0: 4ab6 bc3c 008b a0bd 0020 163d 6eb9 aebd
000003f0: f0e4 af3c 467a 963d effb f4bd 9d5e 06be

fc3.bias f4 [128]
0.031266507 0.07395773 0.10026677 0.09557798 0.29259562 0.14040531 0.12333891 0.16855882
0.10595889 0.158136 0.17194045 0.11661133 -0.10594399 0.16811341 0.024796696 -0.009379636
0.107608736 0.020020837 0.1102424 0.11339034 0.002313018 -0.08475353 -0.021711312 0.18129523
0.12571454 0.020869823 -0.0910864 0.10878792 0.15196507 0.1154371 0.23309444 -0.090627916
0.18384533 0.0141260885 0.16072023 -0.0985192 -0.07091032 -0.017115949 0.20143676 0.12880866
0.09654107 0.19793586 -0.028380366 0.14791125 0.013718341 0.057916597 0.15890755 0.082304664
0.018231373 0.09273219 0.09738134 0.017651882 -0.112395175 0.022969995 0.06871573 0.12510419
0.21346694 0.07473767 -0.04113716 0.05922454 0.1929614 0.19570103 0.18875493 0.073517404
0.10950753 0.050011948 0.071412474 0.2761791 0.07872661 0.0028837712 0.17860238 0.21032214
0.23557727 0.15728213 -0.13833359 0.0043123183 0.057684887 0.20489466 -0.17044277 0.13926776
0.0028137125 0.1568117 0.009969293 0.1632691 0.14233842 0.18472847 -0.09393625 0.07614413
0.11199934 0.22946802 0.093030855 0.12490993 0.23615313 0.22793505 0.23153633 0.13948491
-0.039196655 -0.14273994 -0.044445436 0.1892111 0.093825914 0.045005884 -0.03476615 0.123021066
0.17030711 0.06252901 0.13332345 0.2360356 0.15496099 0.06837767 0.06937152 -0.1333551
0.11283526 -0.14863348 0.08152993 -0.10609621 0.15917125 0.11207194 0.09072198 0.026577242
0.20562899 0.013437965 0.06664149 -0.056115236 0.08005448 -0.036355697 0.17113326 -0.038903788
00000000: 4f11 003d 2677 973d aa58 cd3d 63be c33d
00000010: 18cf 953e 69c6 0f3e 1c99 fc3d af9a 2c3e
00000020: f900 d93d 67ee 213e 2811 303e ecd1 ee3d
00000030: 2af9 d8bd ec25 2c3e 7122 cb3c 0bad 19bc
00000040: f861 dc3d bd02 a43c c4c6 e13d 3239 e83d
00000050: 0196 173b 4293 adbd ecdb b1bc 75a5 393e
00000060: 50bb 003e 31f7 aa3c 828b babd 33cc de3d
00000070: bb9c 1b3e 496a ec3d 4fb0 6e3e 219b b9bd
00000080: f341 3c3e 1c71 673c d893 243e 6fc4 c9bd
00000090: 6e39 91bd bf36 8cbc 7045 4e3e 6be6 033e
000000a0: 53b7 c53d b3af 4a3e f17d e8bc 0c76 173e
000000b0: e4c2 603c f439 6d3d a9b8 223e 598f a83d
000000c0: f659 953c 60ea bd3d de6f c73d ae9a 903c
000000d0: 712f e6bd 922b bc3c d5ba 8c3d 501b 003e
000000e0: 1497 5a3e 1010 993d 707f 28bd 6e95 723d
000000f0: ac97 453e da65 483e f948 413e 4b90 963d
00000100: 7c45 e03d 54d9 4c3d b440 923d 5967 8d3e
00000110: 6b3b a13d a7fd 3c3b 8be3 363e b05e 573e
00000120: 2b3b 713e 910e 213e 52a7 0dbe 594e 8d3b
00000130: fd46 6c3d e8cf 513e 8d88 2ebe 359c 0e3e
00000140: 4366 383b 3f93 203e 3f56 233c 0430 273e
00000150: 2ac1 113e 7629 3d3e a661 c0bd 74f1 9b3d
00000160: e95f e53d aaf9 6a3e f686 be3d c7d0 ff3d
00000170: 20d2 713e ce67 693e dc17 6d3e 22d5 0e3e
00000180: ac8c 20bd 6b2a 12be 6b0c 36bd 8ec0 413e
00000190: cd27 c03d 1758 383d f366 0ebd 78f2 fb3d
000001a0: fd64 2e3e 360f 803d f185 083e 51b3 713e
000001b0: 18ae 1e3e 9809 8c3d a812 8e3d 3d8e 08be
000001c0: 2c16 e73d 6033 18be 2af9 a63d f848 d9bd
000001d0: cafd 223e f985 e53d 72cc b93d 84b8 d93c
000001e0: 6890 523e e92a 5c3c 557b 883d 17d9 65bd
000001f0: 9af3 a33d b6e9 14bd 8f3d 2f3e 9459 1fbd
