models/dqn_model_epoch_6000.pth (torch, 595606 bytes, 14 tensors)

cnn1.weight f4 [16, 4, 5, 5]
0	0xbdb3783b	-0.087631665
1	0xbdb613ff	-0.08890533
2	0xbd96e23c	-0.073673695
3	0xbd41b7ae	-0.04729431
4	0xbde0e8df	-0.10981917
5	0xbd69d740	-0.057090044
6	0x3d23c8af	0.03998631
7	0xbde5d8ea	-0.11223014
8	0xbd7ba1e6	-0.061433695
9	0xbd5f9815	-0.054588396
10	0xbdc3dddf	-0.09563803
11	0x3d822d7f	0.06356334
12	0x3d1f36cc	0.038870618
13	0xbe07b06c	-0.13250893
14	0x3d565ed2	0.05233652
15	0x3c8ee514	0.017443217
16	0x3bb92bab	0.0056509576
17	0xbe43a2b4	-0.19105035
18	0xbcee3a3e	-0.029080506
19	0x3d2de0eb	0.042450827
20	0x3d54032d	0.05176084
21	0x3d8db847	0.06919914
22	0xbc3e785a	-0.011625374
23	0xbe0a4680	-0.13503456
24	0xbd3df8ee	-0.046379976
25	0x3cb1acbb	0.02168881
26	0x3d75153c	0.059834704
27	0x3d4c6aac	0.049906418
28	0xbbdb9cae	-0.0067020273
29	0xbda19a86	-0.07890801
30	0xbd91811e	-0.07104705
31	0xbcab2336	-0.020890813
32	0xbdc24e7c	-0.09487626
33	0xbdd6726e	-0.104710445
34	0xbd9967b3	-0.07490482
35	0x3c7d77eb	0.015470485
36	0xbc0d8ac5	-0.008639042
37	0xbe06b1db	-0.13153784
38	0xbdef863a	-0.116955236
39	0xbd8de59f	-0.069285624
40	0x3d4fdd21	0.050747994
41	0x3d10723e	0.0352652
42	0xbd8b61c6	-0.06805758
43	0x3ce3602c	0.02775582
44	0xbc842985	-0.01613308
45	0xbc0a6053	-0.008445817
46	0xbd789d46	-0.060696863
47	0x3d944698	0.07240027
48	0xbc7b5079	-0.01533901
49	0x3d663d47	0.056210782
50	0xbdb378cf	-0.08763277
51	0x3e116574	0.14198858
52	0xbd3819d5	-0.04494651
53	0xbe7607df	-0.2402644
54	0xbd32ae8f	-0.043623503
55	0x3db8a488	0.09015757
56	0x3ddf7572	0.10911073
57	0xbe826e0f	-0.25474593
58	0xbe1a8d12	-0.15092877
59	0xbc45ef5a	-0.012080992
60	0xbe0538a1	-0.13009883
61	0xbd8d4a7a	-0.06898971
62	0xbe8721fd	-0.26393119
63	0x3e12e8f1	0.14346673
64	0xbd3cbc13	-0.0460778
65	0xbd1f90d4	-0.03895648
66	0xbe8aff63	-0.2714797
67	0xbe38c871	-0.18045212
68	0x3e25661e	0.16152236
69	0x3db030dc	0.08603069
70	0xbdc2c5d4	-0.09510389
71	0xbe8f0a57	-0.27937576
72	0xbe5c4be7	-0.2151333
73	0xbc815272	-0.015786383
74	0x3d73d632	0.059530444
75	0xbdb8cdbb	-0.09023615
76	0x3e21e8ff	0.15811537
77	0x3d72a5f4	0.059240296
78	0xbe438d7e	-0.19096944
79	0xbe10892d	-0.14114828
80	0xbdbaf4fd	-0.09128759
81	0x3e8dfa98	0.2773025
82	0xbe5afd3a	-0.21385661
83	0x3e6455b1	0.22298314
84	0xbe4bb842	-0.19894508
85	0x3e4deb0c	0.20109195
86	0x3e3946ee	0.18093464
87	0x3de77d64	0.11303213
88	0xbb3598f0	-0.0027709566
89	0x3d86cbfe	0.06581877
90	0xbdaece58	-0.08535451
91	0xbe0836b7	-0.13302122
92	0xbe7e0c19	-0.24809302
93	0xbe67a74f	-0.22622417
94	0x3c8bccd1	0.017065438
95	0xbd82eb58	-0.063925445
96	0xbde92639	-0.113842435
97	0xbe803720	-0.25042057
98	0xbe357315	-0.17719682
99	0xbd3fb05a	-0.04679904
100	0xbe221288	-0.15827382
101	0xbd164725	-0.036688942
102	0xbdd7db62	-0.10539891
103	0x3d62aabe	0.055338614
104	0x3c4646b4	0.012101818
105	0xbe40a5a9	-0.18813194
106	0x3ce85dee	0.028365102
107	0xbd535cae	-0.051602058
108	0x3d2e490d	0.042550135
109	0xbcfe32d8	-0.031030104
110	0xbcef2fec	-0.029197656
111	0xbcf9d921	-0.030499043
112	0xbe0daba3	-0.13835005
113	0x3b0b4c8a	0.0021255338
114	0x3e18e35c	0.1493048
115	0xbe02d5b2	-0.12776831
116	0xbcddd15b	-0.027077368
117	0xbcad58bb	-0.021160474
118	0x3dbe0b7c	0.09279534
119	0x3ce70311	0.028199704
120	0xbe632ab2	-0.22184256
121	0xbd06dce8	-0.032925516
122	0xbe86eb4c	-0.26351392
123	0x3e2064b2	0.15663412
124	0xbd273bb1	-0.04082841
125	0xbd271a10	-0.04079634
126	0x3c9fe6a3	0.019519156
127	0x3d8c344a	0.06845911
128	0xbb857d06	-0.004073742
129	0x3a76a27c	0.00094083673
130	0xbda60475	-0.08106319
131	0xbd2d230b	-0.042269748
132	0xbdc183d9	-0.09448976
133	0xbbb37daa	-0.005477627
134	0x3c7e56f4	0.015523661
135	0xbd14c5d9	-0.036321495
136	0xbccf5b6c	-0.025312148
137	0xbd88a0ca	-0.06671293
138	0x3d8d10e8	0.0688799
139	0x3c9767ae	0.018482056
140	0xbd5f3188	-0.054490596
141	0xbd2fe5cd	-0.042943764
142	0xbdcca910	-0.099931836
143	0xbdb3ea13	-0.087848805
144	0xbcb3e985	-0.021961937
145	0xbb36df43	-0.002790407
146	0xbdab2385	-0.08356384
147	0x3b499b0e	0.0030762586
148	0xbd079a24	-0.033105984
149	0x3bd4e117	0.0064965594
150	0xbd22ef44	-0.039778963
151	0xbc35ad0c	-0.011088621
152	0x3ca157cd	0.019695187
153	0x3bf4a2d0	0.007465698
154	0xbcd990d6	-0.026558321
155	0xbbc8a9eb	-0.0061237714
156	0xbbf1f152	-0.007383504
157	0xbe6f16d2	-0.23348549
158	0xbe59b643	-0.21260934
159	0x3d6e0307	0.058108356
160	0xbda7d991	-0.081957944
161	0xbdc13af9	-0.09435076
162	0x3e506008	0.20349133
163	0xbd9116dd	-0.07084439
164	0xbe04299a	-0.12906495
165	0xbea0b9a9	-0.31391647
166	0xbe946905	-0.28986374
167	0xbe68343b	-0.22676174
168	0x3e5a49f1	0.21317269
169	0x3d77bf59	0.060485218
170	0xbe9225ed	-0.2854456
171	0xbe7f63e8	-0.24940455
172	0xbe508c43	-0.20366006
173	0xbd90c226	-0.07068281
174	0xbe17d9e2	-0.1482921
175	0x3e44e9c9	0.19229807
176	0x3e3df7bd	0.18551536
177	0xbdc5dca9	-0.09661228
178	0xbe7420b6	-0.23840603
179	0x3e29b433	0.16572647
180	0x3e4d0b54	0.20023853
181	0x3e70c2e0	0.23511839
182	0x3e6bcc80	0.2302723
183	0x3c341fdd	0.010993925
184	0xbe84c5a0	-0.25932026
185	0xbe18a176	-0.14905342
186	0xbe148760	-0.14504766
187	0xbe1d879a	-0.15383759
188	0x3e7ff938	0.24997413
189	0x3e6e5e60	0.23278189
190	0x3d27dea0	0.040983796
191	0xbdd1a115	-0.10235802
192	0xbba7b574	-0.0051180664
193	0xbeaccc9c	-0.33749855
194	0xbe426422	-0.1898351
195	0xbe32dea0	-0.17467737
196	0x3d40fb7a	0.047114827
197	0x3dcc3be3	0.0997236
198	0xbe3cdcba	-0.18443576
199	0xbe3da090	-0.18518281
200	0xbd25230e	-0.040316634
201	0xbd8b468a	-0.06800564
202	0xbdfa2866	-0.12214737
203	0xbe30ec29	-0.17277588
204	0x3da44387	0.08020692
205	0xbdddd12d	-0.10830913
206	0xbc7824c5	-0.015145485
207	0xbdc4d796	-0.09611432
208	0xbdc6a848	-0.09700066
209	0xbcd75556	-0.026285809
210	0x3a2a3710	0.00064931903
211	0x3d75e5c5	0.06003358
212	0xbe2bbda3	-0.1677156
213	0x3b15d4dd	0.0022862472
214	0xbdb4a7b6	-0.08821051
215	0xbd1744ed	-0.036930967
216	0x3cd3bf09	0.025847929
217	0xbdb041d8	-0.08606309
218	0x3b9694eb	0.004595389
219	0x3c96b5e3	0.018397277
220	0xbdea428e	-0.114384755
221	0xbe1fc484	-0.15602309
222	0x3dc758fc	0.09733769
223	0x3cfcbb78	0.03085111
224	0x3cafe116	0.021469634
225	0xbd6c2748	-0.05765465
226	0x3d52120f	0.051286753
227	0x3dbcc38a	0.092169836
228	0x3d4f36e7	0.05058947
229	0x3d6d0543	0.057866346
230	0xbca6187e	-0.02027535
231	0xbd4a71a2	-0.049424775
232	0xbd2847ac	-0.041083977
233	0x3d75bc02	0.05999375
234	0x3cb0e737	0.021594627
235	0xbd44df24	-0.048064366
236	0x3d92d873	0.07170191
237	0x3d941304	0.072301894
238	0x3d468c59	0.04847369
239	0x3d6ac4f4	0.057316735
240	0xbdc8c96a	-0.09804042
241	0x3c415372	0.01179968
242	0xbd9e911d	-0.07742522
243	0xbdbf975f	-0.093550436
244	0x3d26971b	0.04067145
245	0xbda1ce7b	-0.07900711
246	0x3d3c915e	0.04603707
247	0xbd6c6b29	-0.057719383
248	0xbda36b51	-0.07979453
249	0x3d773083	0.060349
250	0x3d9f2f99	0.077727504
251	0xbcbf0a5f	-0.023320375
252	0x3dcebfa6	0.10095148
253	0xbdf28b75	-0.118430056
254	0xbdcef24c	-0.10104808
255	0x3e2f9337	0.17146002

cnn1.bias f4 [16]
0	0xbd552e95	-0.052046377
1	0x3d8284c0	0.06372976
2	0xbde2319e	-0.1104462
3	0x3d6b2975	0.057412583
4	0x3d0ea365	0.034823794
5	0x3d81382a	0.063095406
6	0xbd0f2f97	-0.034957495
7	0xbd2e2aed	-0.042521406
8	0xbd5d12a0	-0.05397284
9	0xbd6d4f64	-0.05793704
10	0xbd8e1dd3	-0.06939282
11	0xbde2dc46	-0.1107717
12	0x3d3ac9b7	0.045602527
13	0xbb5ea797	-0.0033974403
14	0x3dab987d	0.08378694
15	0x3d821310	0.06351292

cnn2.weight f4 [32, 16, 3, 3]
0	0x3dd005b5	0.101573385
1	0x3e05969c	0.13045734
2	0x3e1c93ad	0.15290709
3	0x3e197593	0.14986257
4	0x3df0c191	0.1175567
5	0x3da913a9	0.08255703
6	0x3d2ba8c0	0.04190898
7	0x3e2d9e8a	0.16955009
8	0x3dee4c8b	0.11635693
9	0x3e5773f2	0.21040323
10	0x3da0350b	0.07822617
11	0x3dc8e4ef	0.098092906
12	0x3da02ead	0.07821403
13	0x3df1a526	0.11799078
14	0x3dfd3e02	0.12365343
15	0x3e10269c	0.14077228
16	0x3c04318e	0.008068455
17	0x3e08809e	0.13330314
18	0x3d26b9ea	0.040704645
19	0xbd811ae0	-0.06303954
20	0xbc5d15df	-0.013493984
21	0xbd2dd331	-0.042437736
22	0x3d728b8e	0.05921512
23	0x3d1f30fc	0.038865075
24	0xbafafd3e	-0.0019148958
25	0xbda6d3b4	-0.08145848
26	0xbd581441	-0.05275369
27	0x3d9db4d0	0.07700503
28	0xbbcc67de	-0.006237968
29	0x3db1d122	0.08682467
30	0x3d9f77c4	0.07786515
31	0x3d9ef81e	0.07762168
32	0xbba7c27f	-0.0051196213
33	0x3df3bafd	0.119008996
34	0x3d386e69	0.04502717
35	0x3cb4d640	0.022074819
36	0x3e331040	0.17486668
37	0x3dfc8299	0.12329597
38	0x3e43868e	0.19094297
39	0x3d86905f	0.06570505
40	0x3e2df610	0.16988397
41	0x3db52f10	0.08846867
42	0x3e00d742	0.12582114
43	0x3cefe9cc	0.029286288
44	0x3db9d566	0.09073906
45	0x3d4c9928	0.04995075
46	0x3ce49493	0.027902877
47	0xbd2967e1	-0.041358832
48	0xbd43833e	-0.047732584
49	0x3d18d026	0.03730788
50	0xbd0a0198	-0.033692926
51	0x3d914ee1	0.07095123
52	0x3bcae717	0.006192099
53	0x3abdd654	0.001448343
54	0x3d15da11	0.036584917
55	0x3e37aaae	0.17936203
56	0x3e673bc7	0.22581397
57	0x3e56f4ec	0.20991868
58	0x3e1da64c	0.15395468
59	0x3dad3fff	0.08459472
60	0x3e908b94	0.2823149
61	0x3e90e03b	0.28296074
62	0x3e23fe15	0.16014893
63	0x3e2d63c9	0.16932596
64	0x3e2df56d	0.16988154
65	0x3ea7256a	0.32645732
66	0x3e05a55b	0.1305136
67	0xbc075cdd	-0.008261886
68	0x3e51733c	0.20454115
69	0x3c23f1d6	0.010006389
70	0x3d1964ba	0.037449576
71	0x3e2a40ca	0.16626278
72	0x3dd4a2a9	0.103825875
73	0x3dc7190b	0.097215734
74	0xbc2f36a4	-0.01069418
75	0x3e06b006	0.13153085
76	0x3c0e8f74	0.008701194
77	0xbce12038	-0.027481183
78	0xbd38a724	-0.045081273
79	0xbd6349cb	-0.055490296
80	0x3c34787e	0.011015056
81	0x3cc3e35e	0.023912128
82	0xbb57751c	-0.00328762
83	0x3d02eecd	0.03196602
84	0x3dbb0275	0.09131328
85	0x3d97fc32	0.07421149
86	0x3d346e08	0.044050246
87	0xbbb39bda	-0.0054812254
88	0x3ca5df77	0.020248158
89	0xbd51aa2d	-0.051187683
90	0x3c9611cd	0.018319035
91	0x3dbfa4a9	0.09357578
92	0x3e01ccd7	0.12675796
93	0x3d9bf321	0.076147325
94	0x3d7e9983	0.06215812
95	0x3e161a7b	0.14658539
96	0x3db60110	0.088869214
97	0xbb183a67	-0.002322817
98	0x3dbe4a8a	0.09291561
99	0xbc44e1a1	-0.012016685
100	0x3ce8770c	0.028377078
101	0xbccd5c9d	-0.025068576
102	0xbd457c03	-0.04821397
103	0x3d3e6d44	0.046490923
104	0xbda606a8	-0.08106738
105	0x3dad5d21	0.084650286
106	0xbd494306	-0.049136184
107	0xbdb15a46	-0.086597964
108	0x3e08e030	0.1336677
109	0x3d8ac521	0.067758806
110	0x3db83cf3	0.08996
111	0x3da277a4	0.07932976
112	0xbb80a13c	-0.0039254706
113	0xbc963ab0	-0.018338531
114	0xbd41f3ed	-0.047351766
115	0x3b941c24	0.004519956
116	0x3d0ab771	0.03386635
117	0x3c1d1a56	0.0095887985
118	0x3db6eddc	0.08932087
119	0x3dc9e75d	0.09858582
120	0x3d97d0da	0.07412882
121	0x3d6815ab	0.05666129
122	0x3d692e39	0.056928847
123	0x3e001457	0.12507759
124	0x3e0552c1	0.1301985
125	0x3d8f77b6	0.07005255
126	0x3d354930	0.04425925
127	0xbcc068f8	-0.023487553
128	0x3ba55c26	0.0050463853
129	0xbd897c48	-0.06713158
130	0x3d622e3b	0.05521987
131	0x3d3253f1	0.043537084
132	0xbce97f3f	-0.028503058
133	0xbdafda44	-0.08586553
134	0x3d32f4e5	0.04369058
135	0xbc9e9c6b	-0.019361695
136	0x3cbec288	0.02328612
137	0x3d9e8666	0.07740478
138	0xbd153b3b	-0.03643344
139	0xbd0d5e88	-0.03451398
140	0xbd385500	-0.045002937
141	0xbcd8bf68	-0.026458457
142	0xbbd440f9	-0.006477472
143	0x3d6de76e	0.058082037
144	0xbcae5def	-0.021285025
145	0x3cf8c0a9	0.030365305
146	0xbd4d3474	-0.05009885
147	0x3cc5b5e6	0.024134587
148	0x3e007bca	0.12547222
149	0x3cead829	0.028667526
150	0x3e7c7923	0.24655585
151	0x3e47d0e9	0.19513287
152	0x3d801712	0.062544
153	0x3d622ad9	0.055216644
154	0x3cc44562	0.023958866
155	0x3d09a532	0.03360481
156	0x3e013045	0.1261607
157	0x3c842725	0.016131947
158	0xbddc7de7	-0.107662015
159	0x3e338bb3	0.1753376
160	0x3dbaf301	0.091283806
161	0x3de26e14	0.11056152
162	0xbb82c248	-0.0039904453
163	0x3d339ef2	0.043852754
164	0x3cb2aecb	0.021811863
165	0x3d136d5a	0.035992958
166	0x3d6e6d81	0.0582099
167	0x3ccdf51d	0.025141293
168	0x3cd83f2b	0.026397308
169	0xbd25af21	-0.04045022
170	0x3d0bb8fc	0.03411196
171	0x3db800da	0.089845374
172	0xbd57775c	-0.052604064
173	0xbe22e2e8	-0.1590687
174	0x3e2f51da	0.17121068
175	0xbe0a8fab	-0.13531367
176	0x3db19834	0.086716086
177	0x3d51e8ea	0.051247515
178	0xbd75f13e	-0.06004452
179	0x3de94370	0.11389816
180	0xbabfe52d	-0.0014640443
181	0x3d0925e4	0.0334834
182	0xbccf817c	-0.025330298
183	0xbde270c3	-0.11056664
184	0x3d024bd2	0.03181059
185	0x3e2ae78f	0.16689895
186	0x3e1198cf	0.14218448
187	0x3d9415b5	0.07230703
188	0x3e91d7da	0.28484994
189	0xbdbe3548	-0.09287506
190	0xbb210022	-0.002456673
191	0xbdba40e1	-0.09094406
192	0xbdf4e82a	-0.11958344
193	0x3cd736d6	0.026271265
194	0x3c7488a5	0.014925157
195	0xbc40d240	-0.0117688775
196	0x3d8342c8	0.06409222
197	0x3e01a2c4	0.12659746
198	0xbd5f5952	-0.054528542
199	0x3e113bb9	0.14182939
200	0xbdf49ddd	-0.119441725
201	0x3e15ad64	0.14616925
202	0x3e103973	0.14084415
203	0x3e24bf1d	0.16088529
204	0x3eb9adc1	0.36265376
205	0x3e75a67a	0.23989287
206	0x3e5d8bfa	0.21635428
207	0x3d6012de	0.054705493
208	0x3ccafb42	0.024778012
209	0x3ba051d8	0.004892569
210	0x3d6b8521	0.05750001
211	0xbb9751df	-0.004617914
212	0x3e27021d	0.163094
213	0x3cb6bdd3	0.022307312
214	0xbc52a51e	-0.01285675
215	0x3e17076b	0.14748923
216	0x3d94c69e	0.07264446
217	0x3ca8d248	0.020608082
218	0x3cfee5b8	0.031115398
219	0x3db4793a	0.08812185
220	0x3dbecf59	0.09316892
221	0x3d6feb4f	0.058574017
222	0x3e10e28d	0.14148922
223	0x3e293f67	0.16528092
224	0x3e5ee35c	0.21766418
225	0x3c12e936	0.008966735
226	0xbc2949a9	-0.010332503
227	0x3daa0461	0.083016165
228	0xbb6112ae	-0.003434341
229	0xbdbc4893	-0.0919353
230	0xbc0646bb	-0.008195574
231	0x3d40e0ec	0.047089502
232	0x3d290c2b	0.04127137
233	0x3d8bc40c	0.06824502
234	0x3c9a6ea7	0.018851591
235	0xbb1408d4	-0.002258827
236	0x3d469107	0.048478153
237	0x3d383e04	0.044981018
238	0x3c8c6c93	0.017141616
239	0x3c46b66b	0.012128453
240	0x3db175d8	0.08665055
241	0x3ddff660	0.10935664
242	0x3d46dd93	0.048551153
243	0x3d27ba7c	0.04094933
244	0x3d473fc7	0.048644807
245	0xbcf2fc50	-0.029661328
246	0xb8ac84aa	-8.22631e-05
247	0x3db2ad62	0.087244764
248	0x3d8c0eea	0.06838782
249	0xbcee8cae	-0.029119816
250	0xbcb035a1	-0.021509947
251	0xbe004cd8	-0.12529314
252	0xbcaba8de	-0.020954546
253	0x3d9abe72	0.07555856
254	0x3d3fbe7d	0.046812523
255	0x3df2c832	0.118545905

cnn2.bias f4 [32]
0	0xbda4df53	-0.08050408
1	0xbcbddae9	-0.023175674
2	0xba99d939	-0.0011737711
3	0xbd27dac8	-0.04098013
4	0xbad359da	-0.00161248
5	0xbd01205c	-0.031525
6	0xbd8b046a	-0.06787951
7	0xbce31fd7	-0.027725143
8	0xbd907970	-0.07054412
9	0xbc05ac5e	-0.008158771
10	0xbd18d4e5	-0.037312407
11	0xbd69f339	-0.05711672
12	0x3aaaf5b9	0.0013043202
13	0xbda259cd	-0.079272844
14	0xbc06f463	-0.008236977
15	0xbc625374	-0.013813842
16	0xbae74567	-0.0017644585
17	0xbd4fe5aa	-0.050756134
18	0xbdc65fe9	-0.09686262
19	0x3c9f2f1f	0.019431649
20	0x3bdd0942	0.0067454884
21	0xbc09cf95	-0.008411308
22	0x3c956c2e	0.01824006
23	0x3b88fff4	0.0041809026
24	0xbd6fb7c3	-0.05852486
25	0xbdb72abb	-0.08943697
26	0xbdb3f4e9	-0.08786947
27	0x3c959cdf	0.018263279
28	0xbce6b102	-0.028160576
29	0xbc2955d1	-0.010335402
30	0xba135227	-0.00056198466
31	0xbca58934	-0.020207025

cnn3.weight f4 [32, 32, 3, 3]
0	0x3d959e81	0.07305623
1	0x3cd95d6b	0.026533803
2	0xbd9bb5e9	-0.07603056
3	0x3d83ebd8	0.06441468
4	0x3c410f5c	0.011783447
5	0x3d7501be	0.059816115
6	0xbc1570b6	-0.009121111
7	0x3bc56551	0.0060240407
8	0x3c944927	0.018101288
9	0x3dcb8bb3	0.09938755
10	0x3d376f66	0.044783972
11	0x3bf24f0c	0.007394677
12	0xbc23103b	-0.0099526
13	0xbb94dc7e	-0.0045428863
14	0xbd540b5e	-0.051768653
15	0xbcf7fb32	-0.030271146
16	0xbde004dd	-0.109384276
17	0xbdb9d3de	-0.090736136
18	0xbcff5ba7	-0.031171633
19	0x3c1fa6f9	0.009744399
20	0x3c96a839	0.018390762
21	0x3d847775	0.06468097
22	0xbd869338	-0.065710485
23	0x3c420ce2	0.011843892
24	0x3cdc99e1	0.026928844
25	0xbd36619c	-0.04452668
26	0x3afe4fe1	0.0019402468
27	0x3dee8a1e	0.116474375
28	0x3d535a02	0.05159951
29	0xbd7310dd	-0.059342254
30	0x3cf16d93	0.029471194
31	0x3a46a4cd	0.0007577658
32	0x3ceab4c1	0.028650643
33	0x3c2d7a93	0.010588306
34	0xbd787134	-0.060654834
35	0xbd904e02	-0.07046129
36	0x3ca08772	0.019595835
37	0x3d853ff0	0.06506336
38	0xbdacf989	-0.084460326
39	0xbce05eed	-0.027389014
40	0xbd0e50dd	-0.034745086
41	0xbce14416	-0.027498286
42	0x3c17d6f4	0.009267557
43	0xbd195d78	-0.037442654
44	0xbd74db2b	-0.059779327
45	0x3dc98051	0.098389275
46	0x3b2dcb1d	0.002651877
47	0xbd0caac4	-0.034342542
48	0x3d3a8a90	0.0455423
49	0xbd2b11a6	-0.041764878
50	0xbd3d18a6	-0.046166085
51	0xbc9a9727	-0.018870903
52	0xbdb43166	-0.087984845
53	0xbc7217d2	-0.014776187
54	0x3cf18fb0	0.02948746
55	0x3d8f0ef5	0.06985275
56	0xbdc01358	-0.093786895
57	0xbba1b53d	-0.0049349354
58	0xbd41103c	-0.047134623
59	0xbc50ee05	-0.012752061
60	0x3d06795c	0.03283058
61	0x3ccc47e5	0.024936626
62	0xbd384243	-0.044985067
63	0x3d1923c9	0.037387643
64	0xbd084629	-0.033270035
65	0xbd86f0d5	-0.06588904
66	0x3d7f5411	0.06233603
67	0xbd375f15	-0.04476841
68	0x3d2e3a7e	0.04253625
69	0x3d1d2810	0.038368285
70	0xbd5b8a43	-0.053598654
71	0x3d15c5c2	0.03656555
72	0x3c80257c	0.015642874
73	0xbd07d529	-0.03316227
74	0xbcb0c784	-0.021579511
75	0x3d5e425e	0.05426251
76	0x3c1252bc	0.008930858
77	0xbd376d9f	-0.044782277
78	0xbd06c0ce	-0.032898717
79	0xbc82cbe0	-0.015966356
80	0x3cd4409f	0.02590972
81	0x3d91ee8e	0.07125579
82	0x3d759fd4	0.059966877
83	0x3cf1e8d8	0.029529974
84	0x3db48eb5	0.08816282
85	0x3d1d83cb	0.038455766
86	0xbd0626d6	-0.03275188
87	0x3bc57bc0	0.006026715
88	0xbd52d734	-0.051474765
89	0xbc86f084	-0.016472109
90	0x3c8deaa0	0.017323792
91	0xbdaccf1f	-0.08437943
92	0xbd492bee	-0.04911416
93	0x3d87f1ec	0.0663794
94	0xbc2cec0a	-0.010554323
95	0xbd359080	-0.04432726
96	0xbcd8c3c7	-0.026460541
97	0x3c3d16a4	0.0115410425
98	0xbc7e9173	-0.0155376075
99	0x3c655815	0.013998051
100	0xbc298794	-0.010347266
101	0xbd5bef52	-0.05369503
102	0x3d97a47d	0.074044205
103	0xbd2e5757	-0.042563763
104	0xbcba920e	-0.022774722
105	0x3d14b334	0.036303714
106	0xbd33e756	-0.04392179
107	0xbe016e84	-0.12639815
108	0x3c8a91e6	0.016915273
109	0xbd1434f8	-0.036183327
110	0xbd0c688e	-0.0342794
111	0x3d85b4f0	0.06528652
112	0xbcfe6f58	-0.031058952
113	0x3d0fb5b9	0.035085414
114	0xbc96dbb6	-0.018415313
115	0xbcc18a54	-0.02362553
116	0xbd83d19b	-0.064364634
117	0x3c6d1b13	0.014471787
118	0x3c02071d	0.007936266
119	0xbc02f253	-0.007992345
120	0x3dac7368	0.084204495
121	0xbbd8267a	-0.0065963836
122	0xbcaf6004	-0.021408089
123	0x3c654bd5	0.013995131
124	0xbc0d65ce	-0.008630229
125	0xbc99d8ea	-0.01878019
126	0xbc23c45e	-0.009995548
127	0x3d9c4e97	0.07632177
128	0xbd6b29f5	-0.05741306
129	0xbc30aff9	-0.010784143
130	0x3d0c487d	0.034248818
131	0x3bef6985	0.00730628
132	0x3d370c72	0.044689603
133	0xbda78d4b	-0.08181246
134	0xbd5a803d	-0.053344954
135	0x3d499bf8	0.04922101
136	0xbd0bc8fb	-0.034127217
137	0x3d1576fc	0.036490425
138	0x3dbca486	0.09211068
139	0xbd72b54b	-0.059254926
140	0xbbe5ee6b	-0.007016947
141	0xbc636a4e	-0.0138803255
142	0xbd39634a	-0.045260705
143	0x3c45589c	0.012045052
144	0x3d4cf25d	0.050035823
145	0x3da1f1c8	0.07907444
146	0xbc3e57ca	-0.01161761
147	0x3d4c3036	0.049850665
148	0x3d02f32e	0.031970195
149	0x3c569f3b	0.013099487
150	0xbcac77d5	-0.021053234
151	0xbd633eb0	-0.055479705
152	0xbd074afe	-0.033030502
153	0x3d768df7	0.060193982
154	0xbc9d7d10	-0.019224674
155	0x3cd4a425	0.025957176
156	0x3d3ff1da	0.046861507
157	0xbc095601	-0.008382321
158	0xbcdbfade	-0.026853021
159	0xbd61953f	-0.055073973
160	0xbc296f66	-0.010341501
161	0x3c9d3cb8	0.019193992
162	0x3bd897b3	0.006609881
163	0x3d5cb9ea	0.05388824
164	0xbcfcac03	-0.03084374
165	0x3d14f5ed	0.036367346
166	0xbd271c19	-0.04079828
167	0xbd505d3b	-0.05087016
168	0x3d214bad	0.03937881
169	0x3cfe2220	0.031022131
170	0xbcaf66cf	-0.021411328
171	0x3ccb2d08	0.024801746
172	0x3d47269d	0.04862081
173	0xbcb3bf2c	-0.021941744
174	0xbd2f7d5b	-0.042844158
175	0xbd0309ca	-0.031991757
176	0xbd249160	-0.040177703
177	0x3ce8049b	0.028322509
178	0xbc8f6941	-0.017506244
179	0xbd8c901f	-0.068634264
180	0xbd52fc19	-0.05150995
181	0xbd0e7dde	-0.034788005
182	0xbcc1527f	-0.023598908
183	0xbd3119a8	-0.04323736
184	0x3d052f9a	0.0325161
185	0xbc40536a	-0.011738637
186	0xbc31dd8b	-0.010856043
187	0x3d10a0e4	0.035309687
188	0xbd528f3a	-0.051406123
189	0x3cc18493	0.023622787
190	0xbc94b4b6	-0.018152576
191	0xbd24306a	-0.040085234
192	0x3dcbf19f	0.09958195
193	0xbda87605	-0.082256354
194	0xbda79b99	-0.08183975
195	0xbce8a477	-0.028398735
196	0xbd95fd29	-0.07323677
197	0xbde400ad	-0.111329414
198	0x3d7949e7	0.060861494
199	0x3cf749e1	0.030186595
200	0xbcc20c04	-0.02368737
201	0xba4e4589	-0.0007868638
202	0x3be66f55	0.007032315
203	0xbc8fe7a5	-0.017566511
204	0x3d0b8682	0.034063824
205	0xbcfa5728	-0.030559137
206	0x3d06063c	0.03272079
207	0xbca023a3	-0.019548243
208	0x3d4a99d8	0.049463123
209	0xbc9d58c1	-0.01920736
210	0xbcccef45	-0.025016436
211	0xbcafe2b3	-0.021470403
212	0x3c127451	0.008938865
213	0x3d65b934	0.056084827
214	0xbcd10758	-0.025516197
215	0xbcaf85bb	-0.021426072
216	0x3ae05808	0.0017116079
217	0x3d70e0ab	0.05880801
218	0xbcde126b	-0.027108392
219	0x3d1d7621	0.038442735
220	0xbd3a2a8f	-0.045450743
221	0xbc6f4e78	-0.014606111
222	0x3d235006	0.03987124
223	0x3c4683ea	0.012116412
224	0xbc8623c5	-0.016374478
225	0x3c6d088e	0.014467372
226	0x3c0b1a5d	0.008490172
227	0xbd3c78e7	-0.04601374
228	0x3d41679e	0.047217958
229	0x3c1ae62c	0.009454291
230	0x3cf7c606	0.030245792
231	0x3d0df1a1	0.034654263
232	0xbc989793	-0.018626964
233	0xbd2beb2e	-0.04197233
234	0x3db83f81	0.089964874
235	0xb982527e	-0.00024856994
236	0xbc3ae138	-0.011406235
237	0x3d53bc76	0.051693402
238	0x3d853850	0.065048814
239	0x3d2a9f77	0.041655984
240	0x3d00d1e5	0.03145017
241	0xbce1f4a6	-0.027582478
242	0x3aca9d98	0.0015458344
243	0xbea79242	-0.32728773
244	0xbe4b5541	-0.1985674
245	0xbe4d3cd4	-0.20042735
246	0xbe955994	-0.29169905
247	0xbd2a5113	-0.041581225
248	0xbde2b208	-0.11069113
249	0x3e1778bd	0.14792152
250	0x3dc3b9e6	0.09556942
251	0x3d059ee9	0.03262225
252	0xbceee8b9	-0.029163705
253	0xbcc6ebc6	-0.024282347
254	0xbccbbe7f	-0.024871109
255	0xbd281a14	-0.041040495

cnn3.bias f4 [32]
0	0x3c30d071	0.010791884
1	0xbc9bf5f7	-0.019038184
2	0xbd5e6c8e	-0.054302745
3	0xbd11b51c	-0.03557311
4	0xbd92a2fb	-0.07159992
5	0xbbb034e7	-0.0053774
6	0x3cea60c4	0.028610595
7	0x3c5e11be	0.013554035
8	0x3bc0a3f8	0.0058789216
9	0xbccbf1b8	-0.024895534
10	0xbc21ff82	-0.009887578
11	0x3c811265	0.015755842
12	0x3cb140c2	0.021637324
13	0x3cd09150	0.025459915
14	0x3ce1f43b	0.027582278
15	0xbcad3e77	-0.02114795
16	0xbd8cde04	-0.068782836
17	0x3bb3552d	0.0054728
18	0x3cec89ba	0.028874267
19	0xbc1025ee	-0.008798106
20	0xbd811ffb	-0.06304928
21	0xbd82c836	-0.063858435
22	0xbd4fd74b	-0.05074243
23	0xbd48d891	-0.04903466
24	0xbd8a5fb4	-0.06756535
25	0x3c4cbaf1	0.012495742
26	0x3aea9170	0.0017896127
27	0xbd2edfd5	-0.04269393
28	0x3bc2669a	0.005932641
29	0xbd2f2609	-0.042760883
30	0x3ca861d1	0.020554455
31	0xbd0a5b48	-0.03377846

fc1.weight f4 [128, 768]
0	0x3d030bb2	0.031993575
1	0x3cf872ba	0.030328143
2	0x3cec1b77	0.02882169
3	0xbc73f68f	-0.014890327
4	0x3d32c8e2	0.043648608
5	0x3d8fed4f	0.07027685
6	0xbcc0f53c	-0.023554437
7	0x3cac6017	0.021041913
8	0x3ce4f12d	0.027947033
9	0x3d0756fb	0.033041935
10	0x3b6ad14d	0.003583032
11	0x3d01aa54	0.03165658
12	0x3d4739c4	0.048639074
13	0xbd3ff445	-0.046863813
14	0xbd0526f1	-0.03250784
15	0x3d44fbee	0.04809182
16	0x3d2be4ad	0.04196613
17	0xbd1a55db	-0.037679534
18	0xbcccf803	-0.025020605
19	0xbcf09b95	-0.029371062
20	0xbc54c35a	-0.012986029
21	0xbd1a1401	-0.037616733
22	0xbd781f28	-0.060576588
23	0xbcef50c9	-0.029213326
24	0xbcf67fd4	-0.03009025
25	0x3d09d578	0.033650845
26	0x3da53817	0.08067339
27	0xbc9d6344	-0.019212373
28	0x3cda3b49	0.026639597
29	0x3d253a68	0.040338904
30	0xbad9195b	-0.0016563343
31	0x3d800370	0.06250656
32	0x3da73300	0.08164024
33	0x3dacbe88	0.084347785
34	0x3c7f3797	0.0155772185
35	0x3c946b9c	0.018117718
36	0x3ca9f712	0.020747695
37	0x3c7cbd0b	0.015425931
38	0xbc2b30e8	-0.010448672
39	0xbb23c276	-0.0024987734
40	0xbc1f0e23	-0.00970796
41	0xbd010b5e	-0.03150498
42	0x3a8788c7	0.0010340445
43	0x3ab365c0	0.001368694
44	0xbc0380c5	-0.0080263065
45	0x3c041dc9	0.008063742
46	0xbd1f6567	-0.038915064
47	0xbd35fb18	-0.044428915
48	0x3c7ce8d4	0.01543637
49	0x3b584190	0.0032998063
50	0x3b018420	0.001976259
51	0x3c6804e0	0.014161319
52	0x3c6a3048	0.014293738
53	0x3cdcfa4c	0.02697482
54	0x3d10c158	0.035340637
55	0x3bbcd6b0	0.0057628974
56	0xbb7ffb20	-0.0039059594
57	0xbd01ee48	-0.031721383
58	0xbbef76b8	-0.0073078535
59	0xbc066a2a	-0.008204022
60	0x3c3ebe94	0.011642117
61	0xbcc0c4ee	-0.023531403
62	0xbc367a2a	-0.011137525
63	0xbcb70772	-0.022342417
64	0x3b828f18	0.0039843433
65	0xbc630e62	-0.01385841
66	0x3ceb7d3c	0.02874624
67	0xbc1d9a48	-0.009619303
68	0xbc22b2f4	-0.009930361
69	0x3b21bf00	0.0024680495
70	0x3bc32868	0.0059557445
71	0xbc995977	-0.018719418
72	0xbd260946	-0.040536188
73	0x3d47ce3b	0.04878066
74	0x3db41ea3	0.08794906
75	0xbc7a91b3	-0.015293526
76	0x3d276d28	0.040875584
77	0x3d29f94f	0.041497525
78	0x3c5bb906	0.013410812
79	0xbc8933d9	-0.016748356
80	0x3ca31ddb	0.019911697
81	0xb83d5cb3	-4.5147444e-05
82	0xbca5ec8b	-0.020254394
83	0x3c944218	0.018097922
84	0x3d5b3360	0.053515792
85	0x3c6a0b8b	0.014284979
86	0xbd1d1c6b	-0.03835718
87	0xbc9b72ad	-0.01897558
88	0xbadc3ac0	-0.0016802177
89	0xbcae8dc8	-0.021307841
90	0x39e13666	0.00042955874
91	0xbd79e064	-0.06100501
92	0xbdd1cd64	-0.10244253
93	0xbd91cff0	-0.07119739
94	0xbd58480d	-0.052803088
95	0xbdf18cd2	-0.117944375
96	0x3d2f91b0	0.042863548
97	0x3d58eefa	0.05296228
98	0x3cca4b3b	0.024694076
99	0x3cbbc5fe	0.022921558
100	0x3d2e2d32	0.04252357
101	0x3db05413	0.08609786
102	0xbc206116	-0.009788772
103	0xbc746ed8	-0.014919005
104	0x3aa36674	0.0012466446
105	0xbbff2f61	-0.0077876304
106	0xbd998ba2	-0.07497336
107	0xbd3d4d6c	-0.046216413
108	0xbdd0e4f8	-0.10199922
109	0xbd8c4a5d	-0.06850121
110	0xbda39260	-0.07986903
111	0xbe0db0da	-0.13836995
112	0xbd338cee	-0.043835573
113	0xbd8582a0	-0.06519055
114	0xbd9fb1f5	-0.077976145
115	0xbd6e300f	-0.0581513
116	0xbd92768a	-0.07151516
117	0xbe06c398	-0.1316055
118	0xbdbebe72	-0.09313668
119	0xbde78de2	-0.11306359
120	0xbcfdffe5	-0.03100581
121	0x3d8147d7	0.063125305
122	0x3c804ce9	0.015661674
123	0xbc442128	-0.011970796
124	0x3d03bb98	0.032161325
125	0x3ce4450c	0.027864955
126	0x3c4ba092	0.01242842
127	0x3d500581	0.0507865
128	0x3d75bc86	0.059994243
129	0x3cc2880c	0.023746513
130	0x3a0afa7f	0.0005301609
131	0x3d0acb9a	0.033885576
132	0x3d2acd1e	0.04169952
133	0xbb578710	-0.00328869
134	0x3c02802d	0.00796513
135	0x3b32af8e	0.0027265283
136	0xbae47f46	-0.001743295
137	0xbc5a6f43	-0.013332191
138	0xbc2116d4	-0.009832103
139	0xbcb3a295	-0.021928111
140	0xbcba32b9	-0.022729265
141	0x3c7f5313	0.015583771
142	0xbd0886df	-0.033331748
143	0xbd087209	-0.033311877
144	0x3caf0dca	0.02136888
145	0x3cb395b2	0.021921966
146	0x3d1b4420	0.037906766
147	0xbc363fa0	-0.011123568
148	0xbb09316c	-0.0020933999
149	0x3c7e0b2e	0.015505595
150	0x3b2eb2ab	0.0026656787
151	0x3c59c93e	0.013292609
152	0x3d1c2c85	0.038128395
153	0xbc3d688f	-0.011560573
154	0x3c643814	0.013929386
155	0x3d515e6f	0.05111545
156	0x3bbb58a2	0.005717353
157	0x3c1dd094	0.009632248
158	0xbd0480af	-0.032349285
159	0x3b84664b	0.0040405146
160	0x3ce7480d	0.028232599
161	0x3b3e2686	0.002901466
162	0xbabf1acb	-0.0014580128
163	0xbd1adfe0	-0.03781116
164	0xbd192b91	-0.037395064
165	0xbcd6fa42	-0.02624238
166	0xbd1a36a2	-0.03764976
167	0xbd715ce2	-0.05892647
168	0x3b6ff9b1	0.0036617334
169	0x3d04432e	0.03229063
170	0x3db7170d	0.089399435
171	0xbcd0be2a	-0.025481302
172	0xbcd72dfd	-0.026267046
173	0x3d54908e	0.05189567
174	0xb9f8e860	-0.0004747538
175	0x3cf9e6ad	0.030505503
176	0x3d62b834	0.05535145
177	0x3d010709	0.03150085
178	0x3b0e849b	0.002174652
179	0xbc2a2676	-0.010385146
180	0xbcffb2f5	-0.031213263
181	0x3c400b91	0.011721508
182	0xbd175f0c	-0.03695588
183	0x3cb256cc	0.021769904
184	0xbca7e662	-0.020495597
185	0x3bbdc3f2	0.0057911808
186	0x3ccc31a8	0.024926022
187	0xbd764ab0	-0.06012982
188	0xbd8b4c71	-0.068016894
189	0xbc25b74e	-0.010114504
190	0xbc8682eb	-0.016419848
191	0xbd1e48c7	-0.038643625
192	0x3bdecbba	0.0067991884
193	0xbcd5d7a1	-0.026103796
194	0x3d03679b	0.032081228
195	0x3d969734	0.073530585
196	0x3ce2d993	0.027691638
197	0x3d0c3457	0.034229603
198	0x3d3c2210	0.045930922
199	0x3ca8dc79	0.020612942
200	0x3d98cd3e	0.07461022
201	0x3d3fa10a	0.04678444
202	0x3d36ef33	0.044661712
203	0x3d7925d8	0.060827106
204	0x3cb17d88	0.021666303
205	0x3c904c3a	0.017614473
206	0x3c9074f1	0.017633887
207	0x3d768095	0.06018122
208	0xbccf26c9	-0.025287049
209	0x3c599a63	0.013281438
210	0xbc00a25f	-0.007851212
211	0xbcfdf006	-0.030998241
212	0xbd38856c	-0.045049116
213	0xbcc5ac5c	-0.024130039
214	0xbd8a5f3b	-0.06756445
215	0xbdaf28f0	-0.0855273
216	0x3c863f2a	0.01638754
217	0xbd676651	-0.05649406
218	0x3d0fdd52	0.035123177
219	0xbd0cee1f	-0.034406777
220	0x3caabcd5	0.020841995
221	0x3d46d8f5	0.04854675
222	0xbd10bda7	-0.035337117
223	0x3c72e423	0.0148249
224	0x3dab3e7c	0.08361527
225	0x3b9f02b7	0.0048526186
226	0xbc05b096	-0.008159777
227	0x3d79ecff	0.061017033
228	0x3ca3ac6f	0.019979684
229	0xba8f5014	-0.0010933899
230	0xbb07dc45	-0.0020730656
231	0xbcc0f7d9	-0.023555683
232	0xbc742450	-0.014901236
233	0x3c17ae74	0.009257901
234	0xbbf39618	-0.007433664
235	0xbc6d53e2	-0.014485331
236	0xbcd87db9	-0.026427137
237	0xbcf0f794	-0.02941493
238	0x3ba5cca7	0.005059797
239	0xbd8074e9	-0.06272299
240	0x3a3f2fab	0.0007293175
241	0x3d07f4a5	0.033192296
242	0xbe00dd9b	-0.12584536
243	0x3d69e7d9	0.057105873
244	0x3d0d3d89	0.034482513
245	0xbe32be81	-0.17455484
246	0x3dcf0717	0.10108774
247	0x3dce2285	0.10065178
248	0xbd44615a	-0.047944404
249	0x3d8b1d99	0.06792755
250	0x3da0a686	0.07844262
251	0x3cadcc20	0.021215498
252	0x3d842b35	0.064535536
253	0x3d03450c	0.03204827
254	0x3c1fa300	0.009743452
255	0x3cb152cf	0.021645932

fc1.bias f4 [128]
0	0x3c731cb4	0.014838386
1	0x3d7eb549	0.062184606
2	0x3d0e4e23	0.034742486
3	0x3c2419e6	0.01001594
4	0x3bb120be	0.0054055145
5	0xbd41f191	-0.047349516
6	0xbc9738c8	-0.018459693
7	0xbd218c2f	-0.03944033
8	0x3d430c7a	0.04761932
9	0x3babb2f8	0.0052398406
10	0x3d30aee1	0.043135528
11	0xbc1bb0f2	-0.009502636
12	0xbd3577fe	-0.044303887
13	0xbd41443d	-0.047184218
14	0x3ca1c675	0.019747952
15	0xba28db6f	-0.00064413896
16	0xbcbec815	-0.023288766
17	0xbc96222c	-0.018326841
18	0x3d04861a	0.03235445
19	0x3d8bb37f	0.068213455
20	0xbc11c76d	-0.0088976445
21	0x3d16e34f	0.036837872
22	0x3d2ea501	0.04263783
23	0xbbca05a9	-0.0061652255
24	0x3bdbff90	0.006713815
25	0x3c15bd78	0.009139411
26	0xbd3c0ee9	-0.045912657
27	0x3d53b22a	0.051683582
28	0xbcf8db10	-0.030377895
29	0x3d5c5ed1	0.05380136
30	0x3d750465	0.059818644
31	0xbd57fb82	-0.05273009
32	0x3c70238c	0.014656913
33	0xbd199627	-0.037496712
34	0xbcf140a1	-0.029449763
35	0xbd68ab48	-0.05680397
36	0x3c9cfb0a	0.019162674
37	0x3d2fcc5c	0.0429195
38	0x3b7dc033	0.0038719296
39	0xbd798990	-0.060922205
40	0xbcff3c8d	-0.031156803
41	0x3c0cb165	0.008587216
42	0xbccaeae5	-0.02477021
43	0xbcd134ab	-0.02553781
44	0x3d0a3534	0.033742145
45	0xbcc4b3ac	-0.024011455
46	0x3cc23612	0.023707423
47	0x3c2acdbd	0.010425028
48	0xbd0eecda	-0.034893848
49	0xbd3515e6	-0.044210337
50	0xbd2b0a5e	-0.041757934
51	0x3cc03333	0.023461914
52	0x3c3cab00	0.011515379
53	0x3d8b2c5f	0.067955725
54	0x3aab931f	0.001309011
55	0x3d0b7f0d	0.034056712
56	0x3d71343a	0.058887698
57	0x3d798936	0.06092187
58	0x3bbc3890	0.0057440475
59	0xbd47d898	-0.048790544
60	0x3cdd2d72	0.02699921
61	0x3c8dada8	0.01729472
62	0xbd0fb5a9	-0.035085354
63	0xbcc6d915	-0.024273435
64	0xbc311a40	-0.010809481
65	0x3d1b0c45	0.037853498
66	0x3d2f7eb8	0.042845458
67	0x3c89613c	0.016769998
68	0x3bd4a80f	0.0064897607
69	0x3c6af8cc	0.014341544
70	0xbb1f37f0	-0.0024294816
71	0x3b806694	0.0039184783
72	0x3d594923	0.053048264
73	0xbc882302	-0.016618256
74	0x3d6e24b9	0.05814049
75	0x3ba2785b	0.004958195
76	0xbbd7127f	-0.006563484
77	0xbd1a4b57	-0.037669506
78	0x3c426f68	0.011867382
79	0x3cfa856f	0.030581204
80	0xbcc49ebe	-0.024001475
81	0xbd08a2ef	-0.03335851
82	0xba816af8	-0.0009873798
83	0xbba68a32	-0.005082392
84	0x3ae69b55	0.00175939
85	0x3ca34b49	0.01993336
86	0x3d16c000	0.0368042
87	0x3d858200	0.06518936
88	0x3dc1bcd6	0.09459846
89	0xbd194622	-0.0374204
90	0xbc3f9eb9	-0.011695557
91	0xbc105b45	-0.008810823
92	0xbd1bb2d9	-0.03801236
93	0xbc299b86	-0.010352021
94	0xbc0ab71e	-0.00846651
95	0xbd379c7b	-0.044826966
96	0xbc8d2ca8	-0.017233208
97	0x3d6a2847	0.057167318
98	0x3d3e8bf8	0.046520203
99	0x3cf75afd	0.030194754
100	0x3d2f807c	0.04284714
101	0xbbf2868c	-0.007401293
102	0xbbca9f55	-0.0061835446
103	0x3d208376	0.03918787
104	0x3c196a35	0.009363701
105	0xbca43420	-0.020044386
106	0xbd17759a	-0.036977388
107	0x3b4dd36f	0.0031406542
108	0x3cfd58fa	0.030926216
109	0x3c83d1a8	0.016091183
110	0x3be5f01b	0.007017148
111	0xbd2b0232	-0.04175014
112	0x3d3aec0a	0.04563526
113	0xbd280a07	-0.041025188
114	0x3d9d42a1	0.07678724
115	0xbcaee78a	-0.02135064
116	0x3cdee8fe	0.027210709
117	0xbd73026d	-0.059328485
118	0xbcdcff62	-0.026977245
119	0xbb16931f	-0.0022975875
120	0xbbb0e19c	-0.0053979885
121	0x3c8bae90	0.017051011
122	0xbcc7c0a5	-0.024383852
123	0xbcba23bd	-0.02272212
124	0xbbe88897	-0.007096361
125	0xbcddda4d	-0.027081633
126	0x3d6bcdcb	0.057569306
127	0x3ca64776	0.020297747

fc2.weight f4 [128, 128]
0	0x3d1ba66c	0.03800051
1	0xbd49122a	-0.04908959
2	0x3dad9f1d	0.08477614
3	0xbd6f8aa0	-0.058481812
4	0xbd3bf5b4	-0.045888618
5	0xbcf8779d	-0.030330474
6	0xbd3c0a44	-0.045908228
7	0xbd401e05	-0.04690363
8	0x3dcc3269	0.099705525
9	0xbcc30b9c	-0.023809247
10	0x3dee60e5	0.11639575
11	0xbd8b6b63	-0.06807592
12	0x3da6c2eb	0.081426464
13	0x3d803177	0.06259435
14	0x3d4dad38	0.050214022
15	0x3cde8bef	0.027166335
16	0xbd02fd82	-0.031980045
17	0xbce1ee85	-0.027579555
18	0x3c3b5dd7	0.011435947
19	0x3dd147e8	0.10218793
20	0x3d08f7da	0.033439495
21	0x3df58f44	0.119902164
22	0xbd37c17b	-0.04486225
23	0xbdaaf153	-0.0834681
24	0x3da7e0c2	0.08197166
25	0x3c838dea	0.01605888
26	0x3d9ac28f	0.0755664
27	0x3cdc44b2	0.026888225
28	0xbd30ef62	-0.043197043
29	0x3d7f4a70	0.06232685
30	0x3dc22814	0.094803005
31	0xbd8ebfe6	-0.069701955
32	0xbd2f5bbb	-0.04281209
33	0x3ca4062a	0.02002247
34	0x3ca2fd84	0.019896276
35	0x3d3b4537	0.045720305
36	0x3dd13679	0.10215468
37	0xbe366e06	-0.17815408
38	0xbca83572	-0.020533297
39	0xbdb4b48c	-0.08823499
40	0xbc726af0	-0.014796004
41	0x3d1f51f6	0.038896523
42	0x3cb8c292	0.022553716
43	0x3d700ccf	0.058605965
44	0xbd0548e3	-0.032540213
45	0x3ccbb727	0.024867607
46	0x3c385c53	0.011252481
47	0x3d8a06b4	0.0673956
48	0x3d96eead	0.073697425
49	0x3d9f4939	0.07777638
50	0x3d147f1e	0.03625404
51	0xbd391665	-0.045187373
52	0xbccc3fd3	-0.024932778
53	0xbc6a3c70	-0.014296636
54	0xbcf41838	-0.029796705
55	0xbc188866	-0.009309864
56	0xbde72127	-0.1128562
57	0x3de7f59a	0.11326142
58	0x3c73d694	0.014882702
59	0xbd0adf26	-0.033904217
60	0xbbb46594	-0.005505273
61	0x3cfb3a3e	0.03066742
62	0xbd66bf37	-0.0563347
63	0x3c860af0	0.016362637
64	0x3d0a380d	0.03374486
65	0xbcea976d	-0.028636659
66	0x3b83f23b	0.004026679
67	0xbd198d4b	-0.037488263
68	0x3d86a60c	0.0657464
69	0x3cf889f0	0.030339211
70	0xbcb621c1	-0.022232892
71	0x3db40d82	0.08791639
72	0x3dc85594	0.09781948
73	0x3c372076	0.011177173
74	0xbdbe505e	-0.092926726
75	0xbd8278c4	-0.063706905
76	0xbd701a78	-0.058618993
77	0x3d261562	0.040547736
78	0x3d478466	0.04871025
79	0x3ccfb38a	0.025354166
80	0x3ce82962	0.028340045
81	0xbd4e0347	-0.050296094
82	0x3cf18407	0.0294819
83	0xbdaf0794	-0.08546367
84	0xbda8770f	-0.082258336
85	0x3bfd7483	0.0077348365
86	0x3ce83e88	0.02835013
87	0x3c26afa3	0.010173711
88	0xbd01e906	-0.03171637
89	0x3dc88ed7	0.097928695
90	0xbcf7e166	-0.030258846
91	0x3d894013	0.06701674
92	0xbd172f84	-0.03691055
93	0x3d9e19ea	0.077197865
94	0xbcac0bb0	-0.021001667
95	0x3d4e3dfa	0.050352074
96	0xbce8fcf5	-0.028440932
97	0xbd6bbcc2	-0.05755306
98	0x3d7fd27b	0.06245659
99	0x3db49db0	0.08819139
100	0xbe39b20f	-0.1813433
101	0xbcd29a38	-0.025708303
102	0xbd41294f	-0.047158536
103	0x3db0c4a8	0.08631259
104	0xbca3567b	-0.019938698
105	0xbd65c154	-0.056092575
106	0x3bf66750	0.00751964
107	0xbc080a47	-0.008303232
108	0xbd8d78c6	-0.06907801
109	0xbdd7ab80	-0.10530758
110	0x3b3e42a0	0.002903141
111	0xbaaab32a	-0.0013023366
112	0xbd111bba	-0.035426833
113	0x3d00921e	0.03138935
114	0x3d3d01c1	0.04614425
115	0xbda230a4	-0.07919434
116	0x3d9a4fc3	0.075347446
117	0xbd9da9b3	-0.07698383
118	0xba58c183	-0.00082685816
119	0xbd02e060	-0.031952262
120	0xbd221999	-0.039575193
121	0x3d93247e	0.07184695
122	0x3d9bb9dd	0.0760381
123	0x3d5c7371	0.05382103
124	0x3d64bf65	0.05584659
125	0xbd33c422	-0.04388822
126	0xbb6684c3	-0.0035174347
127	0x3d011442	0.03151346
128	0x3d3570fe	0.04429721
129	0x3d6cd14f	0.0578168
130	0x3de4bddb	0.111690246
131	0x3d082269	0.03323594
132	0xbaa03205	-0.0012221938
133	0x3cfba931	0.030720325
134	0xbd278d46	-0.040906213
135	0x3d1fc171	0.03900284
136	0xbccbc595	-0.024874488
137	0x39b1ab00	0.00033887476
138	0xbcc64628	-0.024203375
139	0x3d8263d3	0.06366696
140	0xbd8b0880	-0.067887306
141	0x3d57d3c9	0.05269221
142	0x3caaaaf7	0.020833476
143	0xbbb0731b	-0.0053848154
144	0xbcabd850	-0.02097717
145	0x3dcbcee8	0.099515736
146	0x3c554034	0.0130157955
147	0x3e35e615	0.1776355
148	0xbc9faf2b	-0.019492706
149	0xbc3e1cfa	-0.011603588
150	0x3dc8268b	0.097729765
151	0x3da6f557	0.081522636
152	0x3d331d7c	0.04372929
153	0xbca27c48	-0.019834653
154	0xbcedd086	-0.029030096
155	0x3de8de04	0.11370471
156	0x3c9f0f4c	0.019416474
157	0xbd253b07	-0.040339496
158	0x3d39f7bc	0.045402274
159	0xbccb984a	-0.02485289
160	0x3d4200b1	0.04736394
161	0x3dd07bee	0.10179888
162	0x3db4d0e3	0.088289045
163	0x3d89ff9d	0.067382075
164	0x3d667509	0.056263957
165	0xbe4521d7	-0.1925119
166	0x3db3f045	0.08786062
167	0xbd078843	-0.033088934
168	0xbcb164ed	-0.02165457
169	0x3d0bdb1d	0.03414451
170	0xbcbc9760	-0.0230214
171	0x3c7f48a0	0.01558128
172	0xbc4e3ae3	-0.012587282
173	0x3c28d21d	0.010304001
174	0xbd25a76f	-0.04044288
175	0x3db1f0fd	0.08688543
176	0x3da828e5	0.08210925
177	0x3d51e91a	0.051247694
178	0xbd23b394	-0.03996618
179	0xbdd360ba	-0.103211835
180	0x3d2dc0ca	0.042420186
181	0xbd8aa80b	-0.06770333
182	0xbd9bd1d0	-0.07608378
183	0x3d40c14b	0.04705934
184	0xbda6da0d	-0.08147059
185	0x3e1bb412	0.1520541
186	0xbd83d350	-0.06436789
187	0xbd35c1d6	-0.04437431
188	0x3c4b39bb	0.012403901
189	0xbc982132	-0.018570516
190	0x3c7a94f1	0.015294299
191	0x3d224cb2	0.039623924
192	0x3da44596	0.08021085
193	0x3da5e555	0.08100382
194	0x3e10df9c	0.141478
195	0xbd8eb4a8	-0.06968051
196	0xbd1c0021	-0.03808606
197	0x3ce75244	0.02823747
198	0x3d368526	0.044560574
199	0x3cf0e717	0.029407067
200	0xbd3ee149	-0.046601567
201	0x3c08fe94	0.008361477
202	0xbdc5cb2d	-0.09657893
203	0xbcfd20f5	-0.030899504
204	0xbdada702	-0.0847912
205	0xbc259dc1	-0.010108412
206	0xbd431aac	-0.04763286
207	0xbc839806	-0.016063701
208	0x3d408391	0.04700047
209	0x3dc76bac	0.09737334
210	0xbd828838	-0.06373638
211	0xba05e880	-0.00051081926
212	0x3a31ad37	0.0006777825
213	0xbc890931	-0.016728016
214	0xbc6ee1e0	-0.01458022
215	0x3d815f22	0.06316973
216	0xbbaf67cb	-0.0053529493
217	0xbd83938a	-0.06424625
218	0xbd8d042d	-0.06885562
219	0x3d1f97b8	0.03896305
220	0xbd99f6fd	-0.075178124
221	0xbdb35f62	-0.08758427
222	0x3d2939a2	0.04131473
223	0xbc889b36	-0.016675573
224	0x3d9838db	0.07432719
225	0x3d656f4e	0.05601435
226	0x3d45c2de	0.048281543
227	0xbcf98e17	-0.030463262
228	0xbddd6c23	-0.10811641
229	0x3d9aa0c3	0.07550194
230	0x3cf20c05	0.029546747
231	0x3d60e5d0	0.054906666
232	0x3d5b682a	0.053566135
233	0xbb941730	-0.0045193657
234	0x3dc05815	0.093918
235	0x3ca100c4	0.019653685
236	0xbd8225f6	-0.06354897
237	0x3dde87e3	0.10865762
238	0x3c0dea7f	0.008661865
239	0x3d27765d	0.040884364
240	0xbc27b61e	-0.010236291
241	0xbc8f98a7	-0.017528845
242	0x3cdc9d2d	0.026930416
243	0xbc4a8bf8	-0.012362473
244	0xbcdc2149	-0.02687134
245	0x3d8e155c	0.06937668
246	0xbd9e16c4	-0.07719186
247	0xbd8ef7c8	-0.06980854
248	0xbd75adb0	-0.059980094
249	0xba8ea5c0	-0.0010883138
250	0x3d8bece0	0.0683229
251	0x3bcfe665	0.006344604
252	0x3ae05166	0.0017114102
253	0xbc8c0954	-0.017094292
254	0x3d1aae1b	0.037763696
255	0x3da897a1	0.08232046

fc2.bias f4 [128]
0	0x3e7f41bf	0.24927424
1	0x3e372571	0.17885377
2	0x3e267db5	0.16258891
3	0x3e0d62cb	0.13807218
4	0x3e1401e3	0.14453845
5	0x3e88b01b	0.26696858
6	0x3e48c3d5	0.19605954
7	0x3e84fa4a	0.25972205
8	0x3de9e48e	0.114205465
9	0x3e3e9437	0.18611227
10	0x3f47d810	0.7806406
11	0x3e497f23	0.19677405
12	0x3e5d855d	0.21632905
13	0x3e955a2f	0.29170367
14	0x3e159a51	0.14609648
15	0x3e82fe2b	0.2558454
16	0x3e10d8b1	0.14145161
17	0x3d7da8e1	0.061928634
18	0x3e828a2e	0.25496048
19	0x3e43f168	0.19135058
20	0x3e211131	0.15729214
21	0x3e00e0eb	0.125858
22	0x3e1e7d09	0.15477385
23	0x3dfc6c82	0.12325384
24	0x3e0e3d69	0.13890614
25	0x3e9000e0	0.28125668
26	0x3e01a7ac	0.12661618
27	0x3e0591d2	0.13043907
28	0x3e211025	0.15728815
29	0x3e51a3f5	0.20472701
30	0x3e5d736f	0.21626066
31	0x3deb1685	0.11478905
32	0x3e473e16	0.19457278
33	0x3e4f0998	0.20218503
34	0x3e247bf4	0.1606291
35	0x3df61c93	0.12017169
36	0x3d347401	0.044055942
37	0x3e3f6216	0.1868976
38	0x3f422bbb	0.7584798
39	0x3e3ec21d	0.18628736
40	0x3e455a9d	0.19272847
41	0x3e6ed5cd	0.23323746
42	0x3d9c5e2b	0.076351486
43	0x3d546b6f	0.05186027
44	0x3e49b0d9	0.19696368
45	0x3df9c8e8	0.12196523
46	0x3e25bf17	0.16186176
47	0x3e1b97ff	0.151947
48	0x3f176524	0.59138703
49	0x3e223659	0.15841044
50	0x3db08259	0.08618612
51	0x3e82270f	0.25420424
52	0x3de198d4	0.11015478
53	0x3e516a9a	0.20450822
54	0x3e476e07	0.19475566
55	0x3e834e53	0.25645694
56	0x3e0c5486	0.13704118
57	0x3e0c264a	0.13686481
58	0x3e6cd84c	0.23129386
59	0x3d667ae9	0.05626956
60	0x3e1e5f9d	0.15466161
61	0x3ea3d694	0.31999648
62	0x3e071caa	0.13194528
63	0x3f304db5	0.6886857
64	0x3e063971	0.1310785
65	0x3e8c37af	0.27386233
66	0x3e7cdc24	0.24693352
67	0x3e5e55c0	0.21712399
68	0x3e21d7ed	0.15805025
69	0x3e6cad07	0.2311288
70	0x3e7c1fcb	0.24621503
71	0x3e14e3ad	0.14539976
72	0x3e975625	0.2955791
73	0x3e847e42	0.25877577
74	0x3da7c2a9	0.08191425
75	0x3e1af8ff	0.15134047
76	0x3dd953b2	0.10611667
77	0x3e4d543b	0.20051663
78	0x3e8a0a12	0.26960808
79	0x3d699f33	0.05703659
80	0x3e807d85	0.25095764
81	0x3e55fdb6	0.20897564
82	0x3e12a4bd	0.14320655
83	0x3e81c27f	0.253437
84	0x3e8da583	0.27665338
85	0x3e452a86	0.19254503
86	0x3da0330c	0.078222364
87	0x3d8a2492	0.067452565
88	0x3e74dc71	0.23912217
89	0x3e836926	0.2566616
90	0x3e4cabe5	0.19987448
91	0x3e5ab9cb	0.21359937
92	0x3e046ae6	0.12931404
93	0x3e0df96d	0.1386468
94	0x3dfe0e21	0.124050386
95	0x3e927873	0.2860752
96	0x3e6fa4e6	0.23402748
97	0x3e1983fe	0.14991757
98	0x3e89d11b	0.26917347
99	0x3e9dc1ad	0.30811825
100	0x3e1c38e2	0.15256074
101	0x3e568d3c	0.20952314
102	0x3e8fe7ca	0.2810653
103	0x3e37093e	0.1787462
104	0x3e606161	0.21912147
105	0x3e08906f	0.13336347
106	0x3e810473	0.25198707
107	0x3e21db50	0.15806317
108	0x3e53d57d	0.20686908
109	0x3e175319	0.14777793
110	0x3e2afc70	0.1669786
111	0x3e118278	0.14209926
112	0x3e68a693	0.22719793
113	0x3e36d1d8	0.17853487
114	0x3e9924d3	0.29910907
115	0x3e2f55a2	0.1712251
116	0x3e178647	0.14797316
117	0x3eaf8197	0.34278557
118	0x3e1a0952	0.15042618
119	0x3df49e20	0.119442225
120	0x3e8dec10	0.27719164
121	0x3e3f8ed4	0.18706828
122	0x3e88ce0b	0.26719698
123	0x3e6a6f60	0.22894049
124	0x3de3c28e	0.11121093
125	0x3e5bf57e	0.21480367
126	0x3e219f4a	0.1578342
127	0x3e214285	0.15748031

fc3.weight f4 [128, 128]
0	0x3d2393b8	0.039935797
1	0x3dd73714	0.10508552
2	0x3dac40cc	0.084107965
3	0x3d5ff8c3	0.054680597
4	0xbb032ffa	-0.002001761
5	0x3db55704	0.088544875
6	0xbbbaed66	-0.0057045696
7	0x3de972bd	0.11398838
8	0x3d6b1d3b	0.057400923
9	0x3dd5fba0	0.10448384
10	0xbd731350	-0.05934459
11	0xbc2d4fe3	-0.0105781285
12	0x3e05edba	0.13078967
13	0xbdd058c5	-0.101731814
14	0x3d9f63c2	0.07782699
15	0xbdc8d87a	-0.09806915
16	0x3e14dfab	0.14538448
17	0x3e28b020	0.16473436
18	0x3d70cfff	0.05879211
19	0xbcc5be42	-0.024138574
20	0x3d97d378	0.07413381
21	0x3dd4e0ec	0.10394463
22	0x3e2e352c	0.17012471
23	0x3e1ca19e	0.15296027
24	0xbdbd091d	-0.09230254
25	0x3d88e2db	0.06683894
26	0x3df80553	0.121103905
27	0xbc7d9d99	-0.015479469
28	0x3e04b36b	0.12959068
29	0x3ceeeddc	0.029166155
30	0x3cb77700	0.02239561
31	0x3d6a4ef6	0.05720421
32	0xbcf28726	-0.02960546
33	0x3c8e23c5	0.01735104
34	0x3dda8170	0.106692195
35	0x3d877e39	0.06615872
36	0x3ce9fcdb	0.028562954
37	0xbdd556bf	-0.10416936
38	0xbdfcc8cf	-0.12342989
39	0x3e02398f	0.1271727
40	0x3e131b75	0.14365943
41	0x3d4d4e90	0.05012375
42	0x3d33d888	0.043907672
43	0x3df71fb6	0.12066595
44	0x3d37b311	0.044848505
45	0xbd5c8198	-0.053834528
46	0xbc988748	-0.018619195
47	0x3d98c8ae	0.074601516
48	0xbd9bb557	-0.07602947
49	0x3cc89a3b	0.024487605
50	0x3db79204	0.08963397
51	0x3e153352	0.14570358
52	0x3da53ec5	0.08068613
53	0x3daaf598	0.083476245
54	0xbd628e71	-0.055311624
55	0x3dc04dce	0.0938984
56	0x3deff703	0.117170356
57	0x3dd7f659	0.10545034
58	0x3b585c1d	0.0033013888
59	0x3bfb057f	0.0076605673
60	0xbdc63926	-0.09678869
61	0xba8af7ab	-0.0010602375
62	0xbce6c793	-0.028171336
63	0xbe928a3a	-0.28621083
64	0xbd76ff7e	-0.06030225
65	0x3b8bab33	0.004262352
66	0xbbc5bf4e	-0.006034768
67	0x3c89a99d	0.01680451
68	0xbd902add	-0.070394255
69	0xbdc8ee36	-0.0981106
70	0xbddd1c6d	-0.107964374
71	0x3e1c6387	0.15272342
72	0x3df7eafd	0.12105367
73	0x3d925eb2	0.07146968
74	0xb9eff210	-0.00045765983
75	0x3ca8cbf1	0.02060506
76	0x3ddc9e58	0.10772389
77	0xbdafa710	-0.085767865
78	0x3d89c396	0.06726758
79	0x3e099127	0.13434277
80	0x3d5bb5f4	0.05364032
81	0xbcd7fc79	-0.026365506
82	0x3d9a915c	0.07547256
83	0x3d7970f4	0.060898736
84	0x3e479937	0.1949204
85	0xbdeb74b7	-0.11496871
86	0x3dde363d	0.10850189
87	0x3de9e009	0.114196844
88	0xbd6fc537	-0.058537688
89	0xbda0ede4	-0.07857874
90	0x3d4b15b5	0.04958125
91	0xbd832b27	-0.06404715
92	0x3d7ab33c	0.061206087
93	0xbdba5c75	-0.09099666
94	0xbda4c7c0	-0.08045912
95	0xbcbd30f2	-0.023094628
96	0x3e36887f	0.17825507
97	0x3de49502	0.111612335
98	0x3e094c5a	0.13408032
99	0x3e0875bb	0.1332616
100	0x3de7212d	0.11285625
101	0x3c023c5d	0.007948962
102	0x3cc2e7b0	0.023792118
103	0x3d0487cd	0.032356072
104	0xbca6365d	-0.020289594
105	0xbc9b5bec	-0.01896473
106	0x3c7a5b0e	0.015280498
107	0xbcd02d5f	-0.02541226
108	0xbd174276	-0.036928616
109	0xbd02ce1c	-0.031934842
110	0x3e0312ad	0.12800093
111	0x3dc235d1	0.09482921
112	0xbda94a94	-0.08266178
113	0x3d6a915a	0.057267524
114	0x3e3e6359	0.18592586
115	0x3d71b522	0.059010632
116	0x3c498736	0.012300303
117	0x3da9788a	0.08274944
118	0xbc66038e	-0.014038933
119	0x3db6ef98	0.08932418
120	0x3cb9e978	0.022694334
121	0x3d9f8f0c	0.07790956
122	0x3d88cfe0	0.06680274
123	0x3b9376d5	0.00450025
124	0x3cc484ca	0.0239891
125	0xbd1d3206	-0.038377784
126	0xbde24abe	-0.11049412
127	0x3b855bbc	0.0040697735
128	0x3d1ed078	0.03877303
129	0x3d3b63a4	0.04574932
130	0x3d81e72b	0.0634292
131	0x3cde2f59	0.027122186
132	0x3cc8de16	0.024519961
133	0x3df1b209	0.11801536
134	0x3dbb07a8	0.0913232
135	0x3ddb44e4	0.10706499
136	0xbd15fbfe	-0.03661727
137	0x3df04e8a	0.1173373
138	0xbe6c9ad2	-0.23105934
139	0xbcd1c304	-0.025605686
140	0x3d938a5f	0.072041266
141	0xbd6e6283	-0.058199417
142	0x3d87e223	0.06634929
143	0x3db00cd2	0.08596195
144	0xbd510631	-0.051031295
145	0x3dfd45a8	0.123668015
146	0x3e009468	0.12556612
147	0xbc76cb38	-0.0150631
148	0x3d0cc9b3	0.034372043
149	0xbc58df19	-0.013236784
150	0x3d4b8400	0.049686432
151	0xbc1a0a5a	-0.009401882
152	0xbdc0bf46	-0.094114825
153	0x3de5c19f	0.11218571
154	0x3dd6dc98	0.10491294
155	0xbcb3a7f0	-0.021930665
156	0xbdbd9954	-0.09257761
157	0x3d41e097	0.047333326
158	0x3dd315b5	0.10306875
159	0x3d899faa	0.06719907
160	0x3d4506fa	0.048102356
161	0x3d7424ec	0.059605524
162	0x3d97eb9f	0.07417988
163	0x3da7407f	0.081665985
164	0x3d9b312a	0.07577737
165	0x3d6d41a9	0.057923947
166	0xbe905bfe	-0.28195184
167	0xbdb8443e	-0.08997391
168	0xbd393d04	-0.045224205
169	0x3d7458ba	0.05965493
170	0xbcea7b64	-0.02862329
171	0x3d93a343	0.07208874
172	0x3cc3c25a	0.023896385
173	0x3d600f91	0.054702345
174	0x3ddab5cc	0.10679206
175	0xbb269bb8	-0.0025422405
176	0xbde2b262	-0.1106918
177	0x3db9d69e	0.09074138
178	0xbcc486e0	-0.023990095
179	0x3d9d0023	0.07666042
180	0x3d5628a9	0.05228487
181	0x3dc84933	0.09779587
182	0x3dc21a85	0.094777144
183	0x3cdc872b	0.026919922
184	0x3d887db1	0.06664599
185	0xbd2e06d9	-0.042487
186	0x3da1c73d	0.0789933
187	0x3c9ba687	0.019000305
188	0x3d8a7f25	0.06762532
189	0x3d941141	0.072298534
190	0x3b95d99c	0.00457306
191	0xbea3ff6b	-0.32030806
192	0xbc26a453	-0.010171014
193	0x3dc8514b	0.097811304
194	0x3dc71d73	0.09722414
195	0x3e008333	0.12550049
196	0x3bb91fb6	0.005649532
197	0x3dd4f5f3	0.103984736
198	0x3d97d599	0.074137874
199	0x3d80e945	0.06294493
200	0x3b4bcb87	0.0031096654
201	0xbc926d9f	-0.017874537
202	0x3dada88d	0.08479414
203	0xbc7c994f	-0.015417411
204	0xbd2d34fa	-0.04228685
205	0x3b80ee39	0.0039346484
206	0x3ddcba5f	0.10777735
207	0x3c04ed95	0.008113285
208	0x3d2bd6c3	0.04195286
209	0xbc7e4607	-0.0155196255
210	0x3e0fe91f	0.14053772
211	0xbd166614	-0.036718443
212	0xbd183bf6	-0.03716656
213	0x3c70f97c	0.014707919
214	0x3d8f1237	0.06985896
215	0x3d07a8bf	0.033119913
216	0xbd130d7e	-0.03590154
217	0x3c9978cd	0.01873436
218	0xbd4ae100	-0.049530983
219	0xbc337187	-0.01095236
220	0x3d5f98ed	0.0545892
221	0x3b4ebcca	0.0031545633
222	0xbca4a33a	-0.020097364
223	0x3cf39e9f	0.029738722
224	0xbd07c9db	-0.03315149
225	0x3c876578	0.016527876
226	0x3d3e6c56	0.046490036
227	0x3c9a32ba	0.018823016
228	0xbd2d3759	-0.04228911
229	0xbd137009	-0.035995517
230	0x3d9a75f4	0.07542029
231	0x3ce0de2a	0.027449686
232	0xbd50c863	-0.050972354
233	0xbd1dc804	-0.038520828
234	0x3d93adfd	0.0721092
235	0x3dae32b4	0.085057646
236	0x3d00be58	0.031431526
237	0xbc9ac3a1	-0.018892111
238	0xbbc5f86c	-0.006041577
239	0x3dcad522	0.09903933
240	0x3c238f7d	0.009982941
241	0xbd865e57	-0.06560963
242	0x3d66e2c3	0.0563686
243	0xbd95b679	-0.073101945
244	0xbd736929	-0.05942646
245	0xbb29255c	-0.0025809621
246	0x3c38cf14	0.01127984
247	0xbccf6272	-0.025315497
248	0x3d04f03d	0.03245567
249	0xbb6a2a50	-0.0035730787
250	0xbcaf748f	-0.021417884
251	0x3d969edc	0.07354519
252	0xbd22b885	-0.039726753
253	0xbc5f794b	-0.013639758
254	0x3d25aacb	0.040446084
255	0xbd8318d3	-0.06401219
